FJSP_MultiPPO/saved_network/FJSP_J15M15/best_value0/policy_job.pth (torch_old, 637559 bytes, 53 tensors)

_input f4 [128]
0.1787569 0.44553554 0.4051942 0.9844332 0.73628896 -0.1966985 -0.52673036 -0.7932395
0.35581517 -0.86971295 -0.8770622 0.11809027 -0.8368324 0.5366309 0.23912606 -0.12629494
-0.27429911 -0.20876998 -0.5303181 -0.6362601 0.053618435 0.99251217 -0.17288737 -0.51218086
0.2533006 -0.5853023 0.8976137 0.970885 -0.15085284 -0.3628385 -0.7760375 0.34133556
-0.67439383 0.26951864 0.3624125 -0.62010396 -0.7431448 -0.65204406 0.2995769 0.003489113
-0.6914968 0.18325168 0.47408724 -0.050000295 -0.8463157 0.94405586 -0.9024412 -0.53218347
0.021343805 0.50979304 -0.2507653 -0.13450527 0.17297073 -0.004839478 -0.8323268 -0.8273942
-0.905732 -0.5178596 -0.48903885 -0.88688356 0.26849276 -0.7597629 -0.25193298 0.42620113
0.8052745 -0.9460858 -0.24691196 -0.36884755 -0.643949 -0.7076173 0.5435838 -0.72533923
-0.08665471 -0.7204494 0.62148935 -0.9393058 0.17171955 0.002885569 0.896333 -0.9084359
-0.5466212 -0.8413719 0.7078837 0.0751116 -0.9101495 -0.21858506 -0.4809208 -0.77494127
-0.19784562 0.74222463 0.8842661 0.9840396 0.12547523 0.8107216 -0.45998606 0.6345514
0.21934028 0.2068599 0.4584543 0.36599755 -0.68035823 0.0009578191 -0.667204 0.16208424
0.15716445 -0.7735873 0.35919926 0.51382786 0.80503714 -0.80715704 -0.6202133 -0.3408722
0.7572877 0.45103577 -0.012086394 0.101185545 0.83157176 0.8382868 0.11481781 -0.12790768
-0.15611355 0.081851795 -0.06684449 0.2679351 -0.8805355 0.31345284 -0.70997024 0.56553465
00000000: 0c0c 373e 3c1d e43e 9d75 cf3e d003 7c3f
00000010: 6f7d 3c3f 556b 49be cdd7 06bf be11 4bbf
00000020: 682d b63e 82a5 5ebf 2687 60bf 50d9 f13d
00000030: a63a 56bf a560 093f 76dd 743e 7653 01be
00000040: ef70 8cbe ccc7 55be edc2 07bf f1e1 22bf
00000050: 019f 5b3d 4715 7e3f 6309 31be 491e 03bf
00000060: 9eb0 813e 5fd6 15bf 03ca 653f eb8b 783f
00000070: 2b79 1abe f8c5 b9be 65aa 46bf 89c3 ae3e
00000080: 13a5 2cbf 59fe 893e 228e b93e 22bf 1ebf
00000090: bd3e 3ebf 5cec 26bf 2562 993e 9aa9 643b
000000a0: ef05 31bf 54a6 3b3e 90bb f23e 1ccd 4cbd
000000b0: 25a8 58bf a5ad 713f 6306 67bf 2d3d 08bf
000000c0: 34d9 ae3c cc81 023f 4f64 80be c0bb 09be
000000d0: 3d1f 313e 7c94 9ebb 5f13 55bf 1bd0 53bf
000000e0: 0dde 67bf 7292 04bf 4d63 fabe cd0a 63bf
000000f0: e277 893e d27f 42bf 5cfd 80be 0937 da3e
00000100: 7826 4e3f ae32 72bf 7dd6 7cbe 96d9 bcbe
00000110: d7d9 24bf 6826 35bf 4f28 0b3f d5af 39bf
00000120: 0678 b1bd 5f6f 38bf ed19 1f3f 5876 70bf
00000130: 40d7 2f3e d01b 3d3b 1476 653f 418f 68bf
00000140: 5eef 0bbf 2664 57bf de37 353f 1cd4 993d
00000150: 8fff 68bf c3d4 5fbe 403b f6be 8d62 46bf
00000160: 0b98 4abe 6f02 3e3f 435f 623f 05ea 7b3f
00000170: 947c 003e 738b 4f3f 4b83 ebbe f671 223f
00000180: bd9a 603e 15d3 533e 86ba ea3e 0864 bb3e
00000190: f52b 2ebf 2716 7b3a e2cd 2abf 69f9 253e
000001a0: b8ef 203e d109 46bf f7e8 b73e 398a 033f
000001b0: ea16 4e3f d8a1 4ebf 4dc6 1ebf cd86 aebe
000001c0: 9bdd 413f 29ee e63e 0306 46bc 5e3a cf3d
000001d0: e3e1 543f f799 563f 9a25 eb3d 3bfa 02be
000001e0: 3bdc 1fbe eaa1 a73d c4e5 88bd ca2e 893e
000001f0: c66a 61bf e47c a03e 9cc0 35bf e1c6 103f

bn.weight f4 [2]
1.0 1.0
00000000: 0000 803f 0000 803f

bn.bias f4 [2]
0.0 0.0
00000000: 0000 0000 0000 0000

bn.running_mean f4 [2]
0.0 0.0
00000000: 0000 0000 0000 0000

bn.running_var f4 [2]
1.0 1.0
00000000: 0000 803f 0000 803f

encoder.feature_extract.mlps.0.linears.0.weight f4 [128, 2]
-0.025464958 -0.55163246 0.3772942 -0.21282037 -0.065868475 0.42317045 0.6330149 0.47402337
0.5067203 -0.48717612 -0.49846655 0.3017765 0.3246067 -0.6090485 -0.45927584 -0.17606767
-0.5704674 0.062242992 0.11571905 -0.51245236 0.41807225 -0.36046177 -0.065990366 -0.064496316
0.51508486 -0.048517115 0.27095395 -0.05037058 0.54330546 -0.15420623 0.29999158 -0.17683074
0.04230895 -0.5692939 0.6463713 -0.28484496 -0.42835718 -0.06880635 0.40271378 -0.07667254
0.10939388 0.6832869 0.17901039 -0.55387497 -0.05831455 0.20520611 0.54698634 -0.2950725
-0.5384812 0.59732956 -0.3212344 0.43923396 0.56569695 0.42759344 0.22307247 -0.079622045
0.4467582 0.48670235 -0.09533154 0.68641245 0.6947114 -0.39434326 -0.051077485 0.50323254
-0.6252472 0.44507647 -0.61622524 0.27213556 0.55286485 0.4889242 -0.35160562 -0.07464558
-0.27646595 -0.69068474 0.26636916 0.65740144 -0.6914609 -0.6855646 0.030415304 0.44752416
-0.5339119 0.119406454 0.009629255 0.028556302 0.473919 0.36935675 0.27591127 -0.18008386
-0.36169654 -0.09544644 0.44790497 -0.55653286 0.69213676 -0.20698972 0.45095596 -0.23482074
0.2870001 -0.31451556 0.3822613 -0.088035084 0.49475566 -0.14012365 0.5542335 0.50041234
0.19820139 0.32988703 0.49032784 -0.07110587 -0.54209334 0.33223784 0.31735605 -0.13310441
-0.43567994 0.65509 0.006302745 0.3835492 0.54099065 0.57919407 -0.13688828 -0.6331616
-0.55173653 -0.16852057 0.23686077 0.29119477 0.24776475 -0.41239077 0.24957146 0.40779576
0.31889144 -0.67832595 -0.5283808 0.70100933 -0.07884744 -0.015713818 0.32383037 -0.032889906
0.34646603 -0.48605412 0.38943768 -0.62794954 0.073034555 0.6009544 -0.56832707 -0.016674612
-0.5129639 -0.0065551056 0.4195108 0.67308736 -0.53643 -0.26997086 -0.4165519 -0.42237937
0.2813691 0.1395831 0.17004788 0.17034264 -0.15957129 -0.442036 -0.03962948 0.14944504
0.18877369 0.18489107 -0.38037628 -0.5995257 -0.219548 -0.49972397 -0.30171064 0.40640768
-0.63870907 0.5043722 -0.4903369 0.21596707 -0.54629266 0.19122452 -0.37291574 -0.5896904
-0.30436307 0.6129823 -0.23206128 0.048650034 0.09809352 -0.22161673 0.64399475 0.06018137
0.66748035 0.5272135 -0.13134302 -0.32952172 0.054895993 -0.59593105 -0.17508264 -0.33835033
-0.36275783 -0.089847274 -0.52083445 0.39881665 -0.58846396 0.26039466 -0.11348214 -0.4301958
0.062033407 0.47131392 0.5746712 -0.6849518 0.1478663 0.6438619 -0.06316203 -0.5884577
0.171214 -0.10691995 -0.033096686 -0.5634435 -0.2539563 0.4424802 0.002977483 -0.13155785
0.1047653 -0.36129314 0.42133 -0.119770765 -0.566005 -0.57473457 -0.24459466 -0.5447198
0.53210914 0.59836495 -0.37569532 -0.16904153 -0.13523519 0.2434693 0.22704634 0.56431
-0.52978545 -0.48193544 -0.61977476 -0.6846912 -0.047247004 -0.06603238 0.02143808 -0.15766416
-0.2865059 -0.28985614 -0.617113 -0.16990525 -0.30726385 -0.65211886 -0.51052314 0.5031269
-0.42940608 0.4946163 -0.6909114 -0.5437903 0.40806735 0.6196232 -0.20738617 0.23630068
00000000: e39b d0bc c937 0dbf b52c c13e 95ed 59be
00000010: 0de6 86bd cca9 d83e 440d 223f 31b3 f23e
00000020: 6cb8 013f 266f f9be 0237 ffbe 7382 9a3e
00000030: d932 a63e 9aea 1bbf 3426 ebbe 154b 34be
00000040: 270a 12bf 82f2 7e3d 1cfe ec3d 1430 03bf
00000050: 910d d63e 728e b8be f525 87bd a516 84bd
00000060: 9adc 033f e2b9 46bd 7aba 8a3e 6251 4ebd
00000070: 1116 0b3f 3de8 1dbe 7f98 993e 1e13 35be
00000080: 264c 2d3d 3fbd 11bf 9778 253f 33d7 91be
00000090: a251 dbbe 58ea 8cbd 8030 ce3e 7e06 9dbd
000000a0: e609 e03d e4eb 2e3f 804e 373e c0ca 0dbf
000000b0: 3ddb 6ebd 8d21 523e 4c07 0c3f be13 97be
000000c0: e7d9 09bf 97ea 183f d678 a4be 46e3 e03e
000000d0: 84d1 103f 87ed da3e 1c6d 643e e210 a3bd
000000e0: 7ebd e43e 0d31 f93e 2f3d c3bd bab8 2f3f
000000f0: 9bd8 313f 5ce7 c9be a036 51bd d9d3 003f
00000100: 3310 20bf 10e1 e33e f0c0 1dbf 5a55 8b3e
00000110: 8d88 0d3f 4654 fa3e a705 b4be c8df 98bd
00000120: f28c 8dbe b7d0 30bf 8a61 883e 764b 283f
00000130: 9503 31bf 2981 2fbf 8429 f93c e321 e53e
00000140: 73ae 08bf 5f8b f43d 06c4 1d3c e8ee e93c
00000150: 83a5 f23e 541c bd3e 3e44 8d3e e767 38be
00000160: 4a30 b9be 6c79 c3bd cd53 e53e f078 0ebf
00000170: e02f 313f 1df5 53be b3e3 e63e d974 70be
00000180: adf1 923e 2f08 a1be c1b7 c33e bd4b b4bd
00000190: 9d50 fd3e 937c 0fbe 3fe2 0d3f 061b 003f
000001a0: 4ef5 4a3e f4e6 a83e 400c fb3e f49f 91bd
000001b0: a1c6 0abf 141b aa3e 7e7c a23e 864c 08be
000001c0: 7111 dfbe fab3 273f 4287 ce3b 9060 c43e
000001d0: 5d7e 0a3f 1046 143f 712c 0cbe e116 22bf
000001e0: 9b3e 0dbf a890 2cbe a18b 723e 7b17 953e
000001f0: 0bb6 7d3e e224 d3be a98f 7f3e 9bca d03e
00000200: bd45 a33e c5a6 2dbf f743 07bf 5975 333f
00000210: c47a a1bd 44ba 80bc 18cd a53e 91b7 06bd
00000220: ff63 b13e 16dc f8be 6064 c73e 4dc1 20bf
00000230: 2493 953d 26d8 193f e27d 11bf 3299 88bc
00000240: 9a51 03bf 36cc d6bb 1fca d63e 744f 2c3f
00000250: 7a53 09bf 9f39 8abe 4a46 d5be 1c42 d8be
00000260: 9c0f 903e dfee 0e3e 0821 2e3e 4d6e 2e3e
00000270: a866 23be 8b52 e2be 8652 22bd 1f08 193e
00000280: e44d 413e 1654 3d3e aec0 c2be 847a 19bf
00000290: 31d1 60be d2db ffbe d179 9abe ab14 d03e
000002a0: 7082 23bf 891e 013f 700d fbbe 7926 5d3e
000002b0: d6d9 0bbf 5cd0 433e d0ee bebe f3f5 16bf
000002c0: 7ad5 9bbe 68ec 1c3f 79a1 6dbe 4245 473d
000002d0: 41e5 c83d 7fef 62be d7dc 243f bd80 763d
000002e0: fedf 2a3f 77f7 063f c97e 06be 12b7 a8be
000002f0: 9fda 603d f08e 18bf dd48 33be 413c adbe
00000300: 65bb b9be d901 b8bd 6855 05bf b231 cc3e
00000310: 93a5 16bf 7352 853e 5369 e8bd a042 dcbe
00000320: be16 7e3d 0f50 f13e a71d 133f 0059 2fbf
00000330: 436a 173e 22d4 243f 185b 81bd 2aa5 16bf
00000340: b952 2f3e d9f8 dabd 6490 07bd d53d 10bf
00000350: 8f06 82be c48c e23e e021 433b 1ab7 06be
00000360: 318f d63d 6afb b8be 91b8 d73e 604a f5bd
00000370: b4e5 10bf ce21 13bf 0677 7abe c272 0bbf
00000380: 4e38 083f 722e 193f 235b c0be 3919 2dbe
00000390: 187b 0abe 0450 793e d67e 683e 9f76 103f
000003a0: 05a0 07bf 3ec0 f6be 8fa9 1ebf ec47 2fbf
000003b0: 1386 41bd fc3b 87bd ea9e af3c b772 21be
000003c0: e7b0 92be 0668 94be 1efb 1dbf a4fb 2dbe
000003d0: b051 9dbe 43f1 26bf a5b1 02bf edcc 003f
000003e0: 1ddb dbbe 593e fd3e 92df 30bf d735 0bbf
000003f0: 34ee d03e a09f 1e3f 0a5d 54be cef8 713e

encoder.feature_extract.mlps.0.linears.0.bias f4 [128]
-0.4310415 0.68334055 0.17788948 0.3677423 0.05676839 -0.43339896 -0.23947161 -0.40134442
0.13888344 0.36477065 0.47637606 -0.6485452 0.11216541 0.19560313 -0.4924142 -0.69737834
-0.5437435 -0.52379763 -0.15118733 -0.19322176 -0.47096124 -0.37183046 0.30874804 -0.5758046
-0.48517248 0.5744643 0.24671806 -0.27225563 0.3408067 -0.52930826 -0.07885468 -0.2691488
0.34088126 -0.30551094 0.45025575 0.3446798 -0.43542263 0.22438727 -0.6085437 -0.55978835
0.024987092 -0.43649682 -0.3108374 -0.20370393 0.63029504 -0.28257316 0.5817105 0.25761235
-0.21450847 0.13593887 0.12505388 0.19616029 0.64052266 -0.4720994 -0.13665745 0.5571812
-0.09670519 -0.64360154 0.05358428 0.6125253 0.34907866 0.51997393 -0.7091907 0.32126787
0.17679404 -0.3239287 -0.5675561 0.1809845 -0.5879766 0.16557433 -0.14345852 -0.42793006
0.2349347 -0.55653185 0.6268649 0.0007870076 -0.44965142 -0.0010549491 -0.50716025 -0.25408402
-0.006060266 0.2782806 0.60774297 -0.7064616 -0.35332885 -0.3311284 0.15028974 -0.12124216
0.2309153 0.5494604 -0.089604095 -0.53610975 0.44767937 -0.17896146 -0.0298551 -0.1066887
-0.18905921 0.006977622 -0.31289753 0.5328029 -0.54928994 0.21750881 0.042286117 0.33734986
-0.56754833 0.55216944 -0.1849877 -0.37461522 0.23699279 -0.1970311 0.42038262 0.43647325
-0.21123175 -0.083176054 0.20921504 -0.3394701 0.10624046 -0.5681934 0.13370216 -0.18972428
0.21408404 0.23630273 -0.1072242 0.6099267 -0.657685 0.66888076 0.5071871 -0.29436237
00000000: 79b1 dcbe 68ef 2e3f a928 363e b848 bc3e
00000010: f985 683d 78e6 ddbe 0c38 75be 047d cdbe
00000020: 7637 0e3e 38c3 ba3e 90e7 f33e 0f07 26bf
00000030: fab6 e53d 304c 483e b71d fcbe 6387 32bf
00000040: c632 0bbf 9a17 06bf dad0 1abe eddb 45be
00000050: d521 f1be 9060 bebe 3914 9e3e ee67 13bf
00000060: 8768 f8be 1810 133f a9a3 7c3e 1765 8bbe
00000070: 377e ae3e bf80 07bf 907e a1bd dfcd 89be
00000080: fd87 ae3e ee6b 9cbe ec87 e63e df79 b03e
00000090: b7ef debe c7c5 653e 85c9 1bbf 4a4e 0fbf
000000a0: bbb1 cc3c 837c dfbe 1426 9fbe c397 50be
000000b0: 045b 213f 6ead 90be fbea 143f c4e5 833e
000000c0: 1ca8 5bbe 8f33 0b3e 200e 003e 3ede 483e
000000d0: 4bf9 233f 03b7 f1be eeef 0bbe 6da3 0e3f
000000e0: 5f0d c6bd 12c3 24bf 317b 5b3d 75ce 1c3f
000000f0: 70ba b23e 031d 053f 868d 35bf 397d a43e
00000100: 7f09 353e fcd9 a5be 5b4b 11bf 0054 393e
00000110: a285 16bf 518c 293e cae6 12be a619 dbbe
00000120: b992 703e df78 0ebf 387a 203f 304f 4e3a
00000130: b638 e6be 3846 8aba 41d5 01bf 4d17 82be
00000140: 3295 c6bb cb7a 8e3e 0b95 1b3f abda 34bf
00000150: 85e7 b4be a989 a9be 8ee5 193e cf4d f8bd
00000160: 0f75 6c3e 70a9 0c3f 5a82 b7bd 7d3e 09bf
00000170: 3b36 e53e ac41 37be af92 f4bc 9b7f dabd
00000180: bd98 41be 89a4 e43b 1b34 a0be c565 083f
00000190: 449e 0cbf a1ba 5e3e 3534 2d3d 1fb9 ac3e
000001a0: d94a 11bf fa5a 0d3f 6a6d 3dbe 91cd bfbe
000001b0: 3dae 723e 85c2 49be 643c d73e 6c79 df3e
000001c0: 234d 58be 3558 aabd 783c 563e 06cf adbe
000001d0: 9994 d93d 1f75 11bf 38e9 083e 1547 42be
000001e0: d938 5b3e 58f9 713e 5d98 dbbd 2824 1c3f
000001f0: 0b5e 28bf c53b 2b3f 04d7 013f aab6 96be

encoder.feature_extract.mlps.0.linears.1.weight f4 [128, 128]
-0.045259964 -0.041527733 -0.06430206 0.06067368 0.036941763 -0.077214725 -0.005531372 0.0074574444
0.05686483 0.019766377 0.048026644 -0.08305205 -0.011655062 0.037996743 -0.04869258 -0.028635092
0.025974458 -0.08040476 0.08107899 0.08371108 -0.030496206 0.021722889 -0.067917265 0.07630445
-0.043123435 0.008869669 0.074339345 -0.074655615 0.040351905 0.06030029 0.0882132 -0.051332295
-0.034753527 -0.030861454 -0.030011386 -0.07881201 0.05104599 -0.028201733 -0.07918987 -0.055927575
0.0688376 -0.05525474 0.08434882 -0.08806931 0.0793071 -0.08103279 0.057756756 0.0726702
-0.070232116 0.0038833725 -0.04016257 -0.03548701 -0.05124834 0.07967918 -0.033994094 0.01594283
-0.06981996 0.08062342 -0.041611407 0.06924263 0.017142706 0.029041216 -0.02879638 0.040227115
-0.007181617 0.08362587 0.08624823 0.07621138 0.03683857 -0.06709782 0.039098047 -0.021579621
0.009048077 0.023989031 0.084165044 -0.06577198 0.08810754 -0.065504305 -0.008831722 -0.023041109
-0.02624829 -0.06639162 -0.03329171 0.039429598 0.021103194 -0.060740523 -0.05467245 0.010119471
0.00820081 0.06711443 0.077218354 -0.013442348 0.007309713 0.063665345 0.08515129 0.048990775
-0.044532757 -0.016815485 0.06270697 -0.04177471 -0.0019365705 -0.036649417 0.081617646 -0.013785218
0.028845094 -0.03220872 0.08446814 -0.053239778 0.005076948 -0.0768916 -0.055925634 -0.079262406
0.0019988993 0.0059784804 0.060166445 -0.07617896 0.012324219 -0.0076381587 0.0070809773 -0.08140409
-0.036339846 0.048179243 -0.06011911 -0.016604403 -0.027135992 0.026032697 -0.08290066 -0.052821968
0.008709294 0.06834918 -0.054418653 0.08503621 -0.061966833 0.023751102 0.070967555 -0.024997497
0.0050279936 -0.08689677 0.034818117 -0.09510195 0.014881971 -0.0046672164 0.083599836 0.01949689
-0.07337885 -0.0075603263 0.061247654 -0.009629561 -0.021017917 -0.0043191193 0.023216374 -0.035648763
0.0028358952 -0.023019658 -0.025902443 0.0686488 0.061790023 0.0073334533 -0.0146925505 -0.010451455
0.040078692 -0.0044886945 0.018011026 -0.018294731 0.0029891024 0.08545078 0.003210932 -0.03857876
-0.03874111 -0.0026255613 0.08410688 0.03946507 0.072160386 -0.03525216 -0.013179255 0.0013423726
0.019772662 -0.0063946755 -0.056843985 -0.03194269 -0.08061739 0.070676446 -0.041441243 -0.026975492
0.09137694 -0.046581175 -0.07275918 0.030025499 -0.067379 -0.031290703 0.025681065 0.014994933
-0.0832223 0.03535294 -0.07438699 0.04207012 -0.076646656 -0.033152513 0.02558633 0.026815575
0.07269781 -0.0413746 -0.0060663354 0.05056855 -0.02032351 0.032008924 0.040638775 0.016972153
-0.04591014 0.021130012 -0.051105298 -0.054411072 0.038208187 0.08511908 0.012951507 0.050216533
-0.06471609 0.029636212 -0.0071328194 -0.08175691 0.037519418 -0.009492253 -0.026887307 0.013692786
-0.07136849 0.06764203 -0.012974763 -0.080051236 0.04395277 -0.03392894 -0.031700354 -0.005583135
0.05504227 -0.009146722 0.028066527 -0.011050305 0.060333967 0.00997441 0.048588227 -0.05193039
0.035853237 -0.00504786 -0.048519287 0.07574206 0.0756082 -0.03257259 0.031101132 -0.05588935
-0.08248959 0.03348068 -0.010483499 0.0662183 0.0028374218 -0.03897379 0.028318213 0.08711998
00000000: 8362 39bd fc18 2abd ccb0 83bd f784 783d
00000010: 3f50 173d c122 9ebd 8340 b5bb 945d f43b
00000020: 19eb 683d 19ed a13c 96b7 443d 3117 aabd
00000030: e0f4 3ebc 79a2 1b3d df71 47bd 2494 eabc
00000040: 63c8 d43c 40ab a4bd be0c a63d b770 ab3d
00000050: 2ed3 f9bc 33f4 b13c 3518 8bbd 8245 9c3d
00000060: 33a2 30bd 1752 113c 3a3f 983d 0be5 98bd
00000070: 0a48 253d 70fd 763d 1fa9 b43d d041 52bd
00000080: b759 0ebd 29d1 fcbc 70da f5bc 3168 a1bd
00000090: 9a15 513d 5207 e7bc 4c2e a2bd 5014 65bd
000000a0: bafa 8c3d cb52 62bd 13bf ac3d af5d b4bd
000000b0: c36b a23d 85f4 a5bd 5992 6c3d 1dd4 943d
000000c0: dbd5 8fbd 2e80 7e3b 8281 24bd d45a 11bd
000000d0: c8e9 51bd d72e a33d 643d 0bbd 8a9a 823c
000000e0: c4fd 8ebd e41d a53d b970 2abd 14cf 8d3d
000000f0: dc6e 8c3c d8e7 ed3c 63e6 ebbc 30c5 243d
00000100: c553 ebbb 0a44 ab3d e9a2 b03d b614 9c3d
00000110: 0ae4 163d 956a 89bd 4625 203d bfc7 b0bc
00000120: 633e 143c a584 c43c b95e ac3d 76b3 86bd
00000130: ba71 b43d 1f27 86bd edb2 10bc b5c0 bcbc
00000140: a706 d7bc 54f8 87bd e35c 08bd ee80 213d
00000150: 9be0 ac3c 0ecb 78bd 38f0 5fbd 23cc 253c
00000160: b15c 063c 4a73 893d a824 9e3d 4b3d 5cbc
00000170: 5186 ef3b fa62 823d cd63 ae3d 8daa 483d
00000180: fb67 36bd a1c0 89bc 836c 803d f51b 2bbd
00000190: 86d4 fdba b31d 16bd 2727 a73d 65db 61bc
000001a0: 8c4c ec3c 4aed 03bd a2fd ac3d f411 5abd
000001b0: 875c a63b 5879 9dbd 4712 65bd 5454 a2bd
000001c0: f7ff 023b 21e7 c33b 1771 763d b703 9cbd
000001d0: 85eb 493c 8549 fabb 8b07 e83b 30b7 a6bd
000001e0: 17d9 14bd 9957 453d 753f 76bd f505 88bc
000001f0: 4d4c debc 8642 d53c d2c7 a9bd d95b 58bd
00000200: 6db1 0e3c a8fa 8b3d 18e6 5ebd 7727 ae3d
00000210: efd0 7dbd ac91 c23c 7057 913d 8dc7 ccbc
00000220: dec1 a43b eff6 b1bd 719d 0e3d d0c4 c2bd
00000230: 83d3 733c 73ef 98bb 6436 ab3d f1b7 9f3c
00000240: a747 96bd 9dbc f7bb d2de 7a3d 4ec5 1dbc
00000250: c42d acbc 6687 8dbb 4430 be3c 7004 12bd
00000260: 6dda 393b b993 bcbc 5c31 d4bc be97 8c3d
00000270: 8917 7d3d 774d f03b 06b9 70bc 943c 2bbc
00000280: 8e29 243d e615 93bb dc8b 933c d5de 95bc
00000290: d1e4 433b d200 af3d 806e 523b c304 1ebd
000002a0: 00af 1ebd 9c11 2cbb 3a40 ac3d 20a6 213d
000002b0: d3c8 933d 9264 10bd cded 57bc 8df2 af3a
000002c0: 47fa a13c 6d8a d1bb 3dd5 68bd 57d6 02bd
000002d0: bb1a a5bd d0be 903d 4bbe 29bd b5fb dcbc
000002e0: d523 bb3d e7cb 3ebd c402 95bd 09f8 f53c
000002f0: 00fe 89bd ae2a 00bd 1961 d23c 4fad 753c
00000300: 7470 aabd 3fce 103d 3558 98bd b851 2c3d
00000310: ecf8 9cbd eeca 07bd 6c9a d13c 56ac db3c
00000320: 97e2 943d 6a78 29bd 1cc8 c6bb f820 4f3d
00000330: 7d7d a6bc ca1b 033d d874 263d 2f09 8b3c
00000340: 450c 3cbd d918 ad3c ca53 51bd 25de 5ebd
00000350: 3080 1c3d ea52 ae3d 8f32 543c daaf 4d3d
00000360: df89 84bd a4c7 f23c 6dba e9bb 2b70 a7bd
00000370: f6ad 193d 6585 1bbc c542 dcbc b557 603c
00000380: a529 92bd e887 8a3d 1a94 54bc e7f1 a3bd
00000390: d207 343d 12f9 0abd 3bd8 01bd bbf2 b6bb
000003a0: 0174 613d 22dc 15bc c6eb e53c 570c 35bc
000003b0: c020 773d b56b 233c 7304 473d f6b4 54bd
000003c0: d8da 123d 8568 a5bb 29bc 46bd a71e 9b3d
000003d0: 79d8 9a3d d66a 05bd cdc7 fe3c 3bec 64bd
000003e0: 4df0 a8bd 0a23 093d fbc2 2bbc 769d 873d
000003f0: 0af4 393b fba2 1fbd 99fb e73c f66b b23d

encoder.feature_extract.mlps.0.linears.1.bias f4 [128]
-0.031166729 0.0027548224 -0.03497946 -0.061608337 -0.032484185 -0.0185166 0.0027302944 -0.08314557
0.0841209 -0.0116784945 0.02787759 -0.059689246 0.06938709 0.031861417 -0.025909442 0.038567964
-0.06260597 -0.008579014 -0.011475767 -0.06789057 -0.08556968 0.03873568 0.056584604 0.021623425
0.012750639 0.024705853 -0.07865642 0.08151212 -0.015242757 -0.071420945 0.04511629 -0.05586574
0.07155432 0.06168978 0.05369321 0.0064304234 0.00067785487 0.06682274 0.060244977 0.03559621
0.06760917 -0.009399071 -0.044422146 -0.04588193 0.060582764 0.01857482 -0.0525933 0.07515107
-0.030261528 -0.030001754 -0.017415905 0.0093282275 -0.06934902 -0.013154711 0.007532982 -0.048427552
-0.034871597 0.054454636 -0.088819444 0.048760753 -0.07550815 0.048181895 -0.037504885 -0.0032488448
-0.03821974 0.0479071 -0.068991326 0.057019863 -0.018570868 0.07900732 0.07623116 -0.011712701
0.038860478 0.0028952975 -0.06039282 -0.0069958516 0.07876902 -0.029884918 -0.040398475 0.01402814
-0.019158246 0.03416538 -0.034579962 -0.00095647003 -0.05735979 -0.03707812 -0.08055386 0.048228726
-0.042576797 -0.0064626858 -0.023611188 -0.06137588 0.05182837 0.033329416 0.038180403 -0.027259987
-0.049736146 0.029786844 0.030891102 0.051491182 -0.002989159 -0.04402097 0.046747454 0.01112728
0.030429795 0.0038983529 0.045899637 0.048502117 0.041240804 -0.026641618 -0.033790786 0.0014109748
0.053205706 0.07228469 -0.0374699 -0.07687753 0.0050295363 -0.06406093 0.034156024 0.053772587
0.06370549 0.05421677 -0.0012264329 -0.0077944174 0.05560853 -0.074365884 -0.039152045 0.044157278
00000000: 5e51 ffbc 408a 343b 9f46 0fbd 0659 7cbd
00000010: 230e 05bd 20b0 97bc bdee 323b 3948 aabd
00000020: 9447 ac3d 2857 3fbc 8b5f e43c b67c 74bd
00000030: d21a 8e3d 1e81 023d 0a40 d4bc 71f9 1d3d
00000040: 8f37 80bd fe8e 0cbc db04 3cbc 360a 8bbd
00000050: 283f afbd 4ea9 1e3d 42c5 673d 9c23 b13c
00000060: 0ee8 503c ee63 ca3c 9e16 a1bd d4ef a63d
00000070: c2bc 79bc 2545 92bd dccb 383d 79d3 64bd
00000080: 128b 923d 6cae 7c3d 69ed 5b3d 4db6 d23b
00000090: 12b2 313a 5cda 883d 70c3 763d 55cd 113d
000000a0: ad76 8a3d 90fe 19bc fff3 35bd b1ee 3bbd
000000b0: a225 783d 392a 983c 126c 57bd cee8 993d
000000c0: 06e7 f7bc 3dc6 f5bc cdab 8ebc 6cd5 183c
000000d0: dc06 8ebd db86 57bc 3cd7 f63b f85b 46bd
000000e0: 85d5 0ebd d30b 5f3d f8e6 b5bd 5bb9 473d
000000f0: 04a4 9abd 615a 453d b99e 19bd 92ea 54bb
00000100: 4d8c 1cbd 3c3a 443d 534b 8dbd a98d 693d
00000110: ef21 98bc 97ce a13d 151f 9c3d a1e6 3fbc
00000120: 2a2c 1f3d 08bf 3d3b 765e 77bd 753d e5bb
00000130: a751 a13d 37d1 f4bc df78 25bd 49d6 653c
00000140: c1f1 9cbc fff0 0b3d b8a3 0dbd 9ebb 7aba
00000150: 19f2 6abd 3adf 17bd 6cf9 a4bd 7c8b 453d
00000160: 0265 2ebd f0c4 d3bb 406c c1bc 4665 7bbd
00000170: fc49 543d 6d84 083d 0e63 1c3d 5650 dfbc
00000180: 21b8 4bbd 8a03 f43c 560f fd3c 6be8 523d
00000190: c4e5 43bb 554f 34bd 427a 3f3d 324f 363c
000001a0: e847 f93c 827b 7f3b 4201 3c3d 28aa 463d
000001b0: 1eec 283d 863f dabc 3568 0abd 75f0 b83a
000001c0: 3aee 593d ff09 943d 0a7a 19bd f771 9dbd
000001d0: cfce a43b 6032 83bd 30e7 0b3d a540 5c3d
000001e0: 0678 823d 6712 5e3d 42c0 a0ba 5068 ffbb
000001f0: c5c5 633d 244d 98bd e55d 20bd 43de 343d

encoder.feature_extract.mlps.0.linears.2.weight f4 [128, 128]
-0.07200315 0.0780246 -0.05469413 -0.053197835 0.06984656 0.012888234 0.082687475 -0.035365403
-0.01881974 -0.05535731 -0.011890988 0.049040917 -0.03563249 0.009394558 0.046055444 0.049402803
-0.071050756 -0.069076024 -0.04571743 -0.0067180507 -0.0328946 -0.04865196 0.006870477 0.030147368
0.08418497 0.010427377 -0.051103905 0.018788548 0.03363801 -0.010591356 0.053053997 0.083425425
0.0551177 0.0773169 0.075750135 0.012742453 0.075321294 -0.023411691 -0.012655204 -0.07824761
-0.08494927 0.038303923 -0.060257804 0.004311469 -0.01922756 0.044152815 0.034403633 0.008090541
0.042253952 0.0070929057 -0.066329025 -0.046022788 0.04853389 -0.05043897 -0.05405941 -0.07324362
0.055209402 0.087668255 -0.016438171 -0.06937461 0.0048069805 0.070935875 0.09075879 0.08584366
0.0060938946 0.02309841 -0.010295766 -0.06733995 -0.074371696 -0.013794965 -0.088959895 -0.029714232
-0.009497025 -0.035862908 0.013134756 -0.056933183 -0.023224918 -0.07434166 0.048055544 -0.07026993
-0.020270307 -0.01489291 0.03783537 -0.05285449 -0.02196645 -0.05003338 -0.090762965 -0.092867225
0.05785093 0.046456188 -0.06728695 0.079737894 -0.019717732 0.08613888 0.02799685 -0.05444466
-0.07363509 -0.008401379 -0.074173234 -0.08230443 0.034001853 0.024858218 -0.06938074 0.08273682
0.045439426 -0.07768731 0.07567043 0.012011695 0.0679814 0.031972915 -0.033304196 0.0051961034
0.03174007 -0.023175873 -0.06362184 0.03178536 0.06319323 -0.050971065 0.08035267 -0.012496292
-0.06687784 -0.08063055 -0.0038806899 -0.042831242 0.0760526 -0.09426039 -0.060325753 0.032094933
0.06309831 -0.053008154 0.04561846 0.05158442 -0.068426445 -0.0773278 0.074496254 -0.06410194
0.07391214 0.023895843 -0.044571154 0.018001249 0.06304148 -0.0341716 0.04012518 -0.0017291353
0.034561817 -0.083558045 -0.06507585 -0.009948041 0.021650892 -0.07752399 0.054065656 0.056649167
-0.055343516 0.07741022 -0.04531828 -0.07380014 -0.020106846 0.0049047647 0.022091853 0.0865298
-0.023306556 0.026754158 0.05437777 -0.049806166 0.01498052 -0.037341468 0.05539101 0.028047707
0.012057001 0.00874993 0.020429123 0.05900755 0.027413597 -0.03259236 -0.0012509333 -0.036578327
-0.06661442 -0.014132127 -0.0765327 -0.07144608 0.09118237 0.085149296 0.077490225 -0.059323087
-0.07651031 -0.055185072 -0.073724024 -0.053027518 0.01595519 0.08258144 0.0052434257 -0.041268222
-0.051743668 0.016093034 -0.0659522 -0.018102951 0.0413133 -0.011743494 0.060344514 -0.0484589
-0.03322776 0.0070118825 -0.0201873 -0.014343159 -0.06669974 -0.0049468554 -0.05282365 -0.02501701
-0.048898928 0.06457884 -0.058933195 -0.06322424 0.012620087 -0.038323674 -0.08491425 0.008762624
-0.06161912 0.076607466 -0.08158113 0.045265157 0.0799659 -0.0054371124 0.026402282 -0.07203176
-0.05737263 0.085658886 -0.06694696 -0.02567826 0.019949391 3.2868826e-05 0.060993 -0.029081466
-0.08215145 -0.0037139242 0.036841795 0.03588602 -0.079141244 0.0068361713 0.00848109 0.014812656
-0.023910537 0.008601623 0.019003632 -0.01420202 -0.036428295 -0.034716178 0.081552014 -0.0838897
0.008006674 -0.023210526 0.03646623 0.06208851 0.07821423 -0.010297434 0.04417584 0.05000122
00000000: 6376 93bd 5dcb 9f3d f406 60bd f9e5 59bd
00000010: b70b 8f3d 2c29 533c 0d58 a93d 50db 10bd
00000020: db2b 9abc 59be 62bd 6bd2 42bc 21df 483d
00000030: 60f3 11bd a2eb 193c a2a4 3c3d 985a 4a3d
00000040: 0f83 91bd bb77 8dbd 3342 3bbd 1823 dcbb
00000050: 7dbc 06bd 4747 47bd bd21 e13b 9df7 f63c
00000060: 2b69 ac3d 97d7 2a3c 5452 51bd 71ea 993c
00000070: 03c8 093d 5e87 2dbc 264f 593d f3da aa3d
00000080: 19c3 613d 5358 9e3d e322 9b3d b9c5 503c
00000090: 0d42 9a3d e0c9 bfbc c657 4fbc 4840 a0bd
000000a0: e2f9 adbd 93e4 1c3d e3d0 76bd 3947 8d3b
000000b0: 1e83 9dbc 95d9 343d d3ea 0c3d 308e 043c
000000c0: 7b12 2d3d 9b6b e83b 83d7 87bd 6482 3cbd
000000d0: 79cb 463d 1899 4ebd 666d 5dbd c000 96bd
000000e0: 4123 623d 6a8b b33d 58a9 86bc 4714 8ebd
000000f0: e083 9d3b d446 913d bfdf b93d cdce af3d
00000100: 4baf c73b e038 bd3c 93af 28bc 87e9 89bd
00000110: 3050 98bd 4704 62bc 9b30 b6bd 436b f3bc
00000120: 6999 1bbc fce4 12bd 2933 573c c532 69bd
00000130: 2f42 bebc 7140 98bd e4d5 443d aee9 8fbd
00000140: ea0d a6bc 6401 74bc 43f9 1a3d f37d 58bd
00000150: fcf2 b3bc cdef 4cbd efe1 b9bd 2c31 bebd
00000160: 19f5 6c3d d848 3e3d becd 89bd 9f4d a33d
00000170: 1587 a1bc 9569 b03d a659 e53c 5d01 5fbd
00000180: fecd 96bd f0a5 09bc 23e8 97bd 3a8f a8bd
00000190: 8745 0b3d 76a3 cb3c 7d17 8ebd ec71 a93d
000001a0: b11e 3a3d 861a 9fbd 19f9 9a3d b3cc 443c
000001b0: d539 8b3d 08f6 023d fb69 08bd 1344 aa3b
000001c0: e001 023d 54db bdbc 2b4c 82bd 5e31 023d
000001d0: 746b 813d 09c7 50bd f18f a43d 3fbd 4cbc
000001e0: 40f7 88bd a121 a5bd 2c53 7ebb d06f 2fbd
000001f0: 77c1 9b3d 970b c1bd 2318 77bd fa75 033d
00000200: b039 813d 141f 59bd 6cda 3a3d 2f4a 533d
00000210: 2a23 8cbd 0a5e 9ebd 7e91 983d e147 83bd
00000220: 405f 973d 37c1 c33c 3e90 36bd 5b77 933c
00000230: e41b 813d 85f7 0bbd 4d5a 243d 27a4 e2ba
00000240: b190 0d3d 7b20 abbd 7d46 85bd 1cfd 22bc
00000250: 365d b13c e6c4 9ebd f373 5d3d f508 683d
00000260: e2af 62bd 4089 9e3d a99f 39bd 8724 97bd
00000270: 1db7 a4bc 26b8 a03b f9f9 b43c 8936 b13d
00000280: 64ed bebc 892b db3c 39bb 5e3d 8d01 4cbd
00000290: db70 753c 5ef3 18bd afe1 623d 4ec4 e53c
000002a0: ba8a 453c de5b 0f3c fa5a a73c e7b1 713d
000002b0: 7b92 e03c 917f 05bd 5bf6 a3ba 28d3 15bd
000002c0: 246d 88bd 708a 67bc 2dbd 9cbd 5352 92bd
000002d0: d3bd ba3d c162 ae3d 32b3 9e3d c4fc 72bd
000002e0: 70b1 9cbd be09 62bd 9ffc 96bd 6233 59bd
000002f0: 75b4 823c 7520 a93d 0bd1 ab3b de08 29bd
00000300: 2bf1 53bd 8ad5 833c f211 87bd a44c 94bc
00000310: 2338 293d c967 40bc cf2b 773d d77c 46bd
00000320: d519 08bd efc3 e53b d65f a5bc 92ff 6abc
00000330: e099 88bd 3b19 a2bb 9d5d 58bd 79f0 ccbc
00000340: 3e4a 48bd e941 843d ef63 71bd b67b 81bd
00000350: 7bc4 4e3c 49f9 1cbd 86e7 adbd 1c91 0f3c
00000360: 5564 7cbd 60e4 9c3d 0214 a7bd f567 393d
00000370: 29c5 a33d ce29 b2bb 9949 d83c 6385 93bd
00000380: 90ff 6abd ed6d af3d 7d1b 89bd 375b d2bc
00000390: e86c a33c a2dc 0938 ccd3 793d 413c eebc
000003a0: 053f a8bd 4f65 73bb 6ce7 163d 38fd 123d
000003b0: ce14 a2bd f601 e03b 45f4 0a3c c8b0 723c
000003c0: 08e0 c3bc d2ed 0c3c 81ad 9b3c 97af 68bc
000003d0: d635 15bd 8d32 0ebd be04 a73d 5dce abbd
000003e0: 6d2e 033c 0024 bebc 9d5d 153d 8550 7e3d
000003f0: c82e a03d 92b6 28bc baf1 343d 14ce 4c3d

encoder.feature_extract.mlps.0.linears.2.bias f4 [128]
0.07008321 -0.02265679 -0.06966766 0.014058241 0.037721664 0.02401829 -0.06201995 0.07167099
0.04428124 0.058476 0.090506874 -0.047113184 -0.015324578 -0.006210547 0.027718006 -0.00591459
0.0068318606 -0.025063427 0.0038068797 -0.05079443 -0.028351253 -0.0649054 -0.08237747 -0.043031428
-0.013720874 -0.07457821 -0.0010954249 0.022301614 0.020687371 0.027687935 0.0058163153 0.08426244
0.014547574 0.06222655 -0.020144397 0.03476994 0.047321815 0.015296455 -0.0039275596 -0.025833389
-0.009739569 0.022367593 0.059361286 -0.02016515 -0.04423956 -0.025062632 0.018079668 0.088133745
0.073673345 -0.030562429 -0.027616328 -0.057122022 0.043493856 0.0387716 -0.014374941 0.055196192
-0.053509105 -0.024108365 -0.0068197628 0.04499218 -0.08571116 0.04542436 -0.0118478155 0.043548975
-0.09076166 0.07414124 0.08096493 0.04319568 0.0325241 -0.08084027 0.07428276 -0.028510123
-0.08557062 -0.07060692 -0.052008852 0.050601937 -0.03602108 -0.05323672 -0.06959659 0.0014005459
-0.027225526 0.06547792 0.04795306 0.0010654288 0.06956595 0.005598051 -0.049533337 0.06004976
0.08906256 -0.06263492 0.061010942 -0.07375153 0.030705538 -0.03837323 -0.010082512 -0.050119195
0.03986987 -0.057881743 0.03212015 0.0040670894 -0.018608853 -0.010525071 -0.06668623 -0.036551278
-0.0038896378 -0.002154055 0.019448739 -0.02281594 -0.029587002 0.0638956 0.030441495 0.037304223
0.061583176 -0.05269574 -0.026041623 -0.0030937928 -0.058370482 0.06716331 -0.057520386 0.009730564
-0.030475955 0.04637405 0.023532629 0.06837197 -0.008318193 -0.030933322 0.08386626 -0.054632757
00000000: c987 8f3d bc9a b9bc ebad 8ebd 8954 663c
00000010: 0882 1a3d 01c2 c43c a208 7ebd 3dc8 923d
00000020: 3f60 353d 8884 6f3d ab5b b93d c1f9 40bd
00000030: f013 7bbc d881 cbbb df10 e33c 2dcf c1bb
00000040: cddd df3b d151 cdbc d87c 793b d20d 50bd
00000050: e340 e8bc 1fed 84bd 85b5 a8bd b941 30bd
00000060: 84cd 60bc 76bc 98bd 5c94 8fba e0b1 b63c
00000070: 9078 a93c cfd1 e23c ca96 be3b c991 ac3d
00000080: f358 6e3c 44e1 7e3d dd05 a5bc ed6a 0e3d
00000090: 85d4 413d fb9d 7a3c c2b2 80bb 8ba0 d3bc
000000a0: b792 1fbc 3e3c b73c d224 733d 6231 a5bc
000000b0: 8a34 35bd 2650 cdbc d01b 943c 777f b43d
000000c0: 0de2 963d 0f5e fabc a33b e2bc c8f8 69bd
000000d0: 9d26 323d f8ce 1e3d df84 6bbc 6715 623d
000000e0: 5d2c 5bbd e87e c5bc 5178 dfbb b849 383d
000000f0: 5589 afbd e50e 3a3d 571d 42bc 6960 323d
00000100: 40e1 b9bd 5dd7 973d f1d0 a53d f4ed 303d
00000110: fe37 053d 958f a5bd 8f21 983d 108e e9bc
00000120: a63f afbd 5c9a 90bd 3c07 55bd fa43 4f3d
00000130: d78a 13bd bf0e 5abd a888 8ebd 8692 b73a
00000140: 1108 dfbc 4a19 863d 6e6a 443d dca5 8b3a
00000150: 9878 8e3d db6f b73b 78e3 4abd bdf6 753d
00000160: 6e66 b63d bd46 80bd 9ce6 793d 0b0b 97bd
00000170: 2e8a fb3c 3f2d 1dbd 1f31 25bc c949 4dbd
00000180: 974e 233d 6815 6dbd 6b90 033d 3845 853b
00000190: 9871 98bc 5971 2cbc ca92 88bd cbb6 15bd
000001a0: 4be9 7ebb 0c2b 0dbb f652 9f3c 7fe8 babc
000001b0: 7160 f2bc b2db 823d 7160 f93c 50cc 183d
000001c0: a43e 7c3d 7dd7 57bd 3e55 d5bc 3bc1 4abb
000001d0: e315 6fbd eb8c 893d 7f9a 6bbd f26c 1f3c
000001e0: b6a8 f9bc b7f2 3d3d 80c7 c03c 9a06 8c3d
000001f0: 0849 08bc e167 fdbc 13c2 ab3d 99c6 5fbd

encoder.feature_extract.mlps.0.batch_norms.0.weight f4 [128]
0.9930591 0.99729735 1.0064329 0.9960376 0.9967627 0.99165666 0.99343646 1.0056138
0.9973937 1.0041522 0.9941521 1.0009289 1.0030504 0.99754024 1.0004488 1.0029212
1.0042263 0.9940997 1.0062605 0.9963502 1.0012764 0.99736214 1.0023063 0.9962984
1.0036368 0.99986285 0.9976598 1.0077223 1.0000633 1.0024971 0.99702024 1.0020124
1.0039481 1.0050201 0.9979545 1.0044338 1.002971 1.0034859 0.99293095 1.0037893
1.003553 1.0018125 0.9927073 1.0027579 1.0004399 0.99500823 1.0036037 0.99308383
1.0021015 1.001612 0.9914371 1.003233 1.0040729 0.9918617 1.0031472 1.0067027
0.9999071 0.9995656 1.0045917 1.0013433 1.0041733 1.0055672 0.9965274 1.0071713
0.99768126 0.9958131 0.9976069 1.0001072 0.99634886 0.99627507 1.0004988 1.0018399
1.002924 0.9967928 0.9961045 0.9947207 1.0048524 0.99727553 0.99860734 0.9990627
1.0042809 0.9999461 1.0024619 0.9990342 0.99845654 1.0056156 1.006782 0.99950176
0.99750656 0.9972886 0.9984848 1.0051247 0.9970012 1.0025551 1.0004109 1.003334
1.0056107 0.997035 0.9927637 1.0061485 0.995131 1.0027721 1.0039967 0.9959586
0.9929603 1.0055078 0.9993291 1.0029483 0.99116665 0.9954096 0.9980065 1.0056397
0.9988455 0.99838805 0.9988345 1.003918 0.9964411 1.0011795 0.9952107 0.99798095
1.0050385 1.0031883 1.0037831 0.99879295 1.0030588 0.99405473 1.0034504 1.0044407
00000000: 1f39 7e3f e14e 7f3f cbd2 803f 52fc 7e3f
00000010: d72b 7f3f 36dd 7d3f da51 7e3f f4b7 803f
00000020: 3255 7f3f 0f88 803f c180 7e3f 701e 803f
00000030: f563 803f cc5e 7f3f b50e 803f b95f 803f
00000040: 7d8a 803f 517d 7e3f 25cd 803f cf10 7f3f
00000050: d329 803f 2053 7f3f 934b 803f 690d 7f3f
00000060: 2c77 803f 03f7 7f3f a266 7f3f 0bfd 803f
00000070: 1302 803f d351 803f b83c 7f3f f141 803f
00000080: 5f81 803f 80a4 803f f279 7f3f 4991 803f
00000090: 5b61 803f 3a72 803f b930 7e3f 2b7c 803f
000000a0: 6d74 803f 643b 803f 1122 7e3f 5f5a 803f
000000b0: 6a0e 803f dcb8 7e3f 1676 803f be3a 7e3f
000000c0: dd44 803f d234 803f d2ce 7d3f f069 803f
000000d0: 7685 803f a6ea 7d3f 2167 803f a2db 803f
000000e0: e9f9 7f3f 88e3 7f3f 7696 803f 042c 803f
000000f0: c088 803f 6db6 803f 6b1c 7f3f fdea 803f
00000100: 0a68 7f3f 9bed 7e3f 2a63 7f3f 8303 803f
00000110: b810 7f3f e20b 7f3f 5810 803f 4a3c 803f
00000120: d05f 803f d02d 7f3f b400 7f3f 04a6 7e3f
00000130: 019f 803f 734d 7f3f bba4 7f3f 93c2 7f3f
00000140: 478c 803f 78fc 7f3f ac50 803f b5c0 7f3f
00000150: d99a 7f3f 03b8 803f 3cde 803f 59df 7f3f
00000160: 975c 7f3f 4e4e 7f3f b39c 7f3f eda7 803f
00000170: 783b 7f3f ba53 803f 770d 803f 406d 803f
00000180: dab7 803f b03d 7f3f c325 7e3f 79c9 803f
00000190: e8c0 7e3f d65a 803f f782 803f 25f7 7e3f
000001a0: a532 7e3f 7bb4 803f 08d4 7f3f 9c60 803f
000001b0: 19bd 7d3f 2ad3 7e3f 5b7d 7f3f cdb8 803f
000001c0: 57b4 7f3f 5c96 7f3f 9eb3 7f3f 6380 803f
000001d0: c416 7f3f a626 803f 21c6 7e3f ae7b 7f3f
000001e0: 1aa5 803f 7968 803f f77b 803f e5b0 7f3f
000001f0: 3b64 803f 5f7a 7e3f 1071 803f 8391 803f

encoder.feature_extract.mlps.0.batch_norms.0.bias f4 [128]
0.0046318574 -4.0530133e-05 0.0025309839 -0.0048040836 -0.008428694 -0.005089469 -0.004006102 0.015001266
-0.00493341 0.0016947303 0.00016892797 0.0073215575 0.0008162205 0.0070983763 -0.0031853367 0.005102055
-0.0050413976 0.0013307636 0.0033822253 -0.006630526 0.0011365664 0.00081229897 -0.003228549 -0.0054069418
0.002093619 0.0043859463 -0.005979663 0.008859234 -0.0031997128 0.0008788629 -0.006245284 0.0041155983
0.0039718063 0.003003505 -0.0029292472 0.0086365035 0.003730888 -0.00070478674 -0.0074369484 0.0051733153
0.0009663224 -0.0030458348 -0.0055974093 0.0011321165 0.0021525181 -0.0066877366 0.0018500682 -0.009386153
-0.0011538791 -0.003326751 -0.003879796 0.0033304433 -0.0040605795 -0.010623814 0.001701762 0.0006844209
0.0048324154 0.0027264222 0.00016045787 -0.0009874165 0.0018750487 0.010167563 -0.0030696278 0.006232447
0.003622614 -0.0030784262 0.0020887337 -0.012105683 -0.005900811 -0.00453313 -0.006243233 -0.0033447773
0.0045834086 -0.0030136988 0.00490442 -0.0022670042 0.0012669155 -2.78042e-05 0.00017902601 -0.0009440733
0.009508848 -0.003033118 0.0012665224 0.000752509 -0.0009427119 0.0015791785 0.0028600341 0.002903914
-0.0006829738 -0.0034019423 -0.005845301 0.00095869467 0.000898918 0.003383257 0.0009441816 0.0030305863
0.013514026 0.0016286589 -0.0045358725 0.00064070354 -0.006075128 -0.0038066113 0.006823479 -0.0061445734
-0.006913389 -0.001358462 0.0028004705 0.0028084107 -0.0067121177 -0.003126399 0.001043393 0.0084284395
-0.00057868985 0.0011144349 0.0061589666 0.009895463 -0.0035940527 0.008907941 0.002123133 -0.0073024784
0.0069089537 0.0059553883 -0.0008169201 0.0012718936 0.0029759975 -0.0033754038 0.004719542 0.005286437
00000000: d6c6 973b e6fe 29b8 ddde 253b 936b 9dbb
00000010: 8118 0abc 8fc5 a6bb 9f45 83bb dfc7 753c
00000020: 71a8 a1bb b621 de3a 4222 3139 ade9 ef3b
00000030: a1f7 553a 7f99 e83b 15c1 50bb 242f a73b
00000040: 4f32 a5bb 046d ae3a 53a8 5d3b e244 d9bb
00000050: d7f8 943a 76f0 543a 1096 53bb b72c b1bb
00000060: 1935 093b fcb7 8f3b 0df1 c3bb 5226 113c
00000070: 46b2 51bb 7e63 663a 3da5 ccbb 24dc 863b
00000080: ed25 823b 74d6 443b 9df8 3fbb 1f80 0d3c
00000090: ea81 743b 70c1 38ba a5b1 f3bb ea84 a93b
000000a0: cc50 7d3a a19c 47bb 796a b7bb 8763 943a
000000b0: 4311 0d3b cd24 dbbb fd7d f23a 61c8 19bc
000000c0: c23d 97ba 9f05 5abb 2d44 7ebb 9143 5a3b
000000d0: 9c0e 85bb 810f 2ebc a80d df3a b66a 333a
000000e0: 3d59 9e3b c6ad 323b 9540 2839 336c 81ba
000000f0: 32c4 f53a da95 263c cf2b 49bb 8e39 cc3b
00000100: 6169 6d3b 6cbf 49bb 23e3 083b ea56 46bc
00000110: 975b c1bb a78a 94bb 0994 ccbb 0d34 5bbb
00000120: 6b30 963b 7a81 45bb 42b5 a03b 0592 14bb
00000130: a10e a63a 113d e9b7 eeb8 3b39 b07b 77ba
00000140: 00cb 1b3c 47c7 46bb 7101 a63a 0644 453a
00000150: 5320 77ba 70fc ce3a 696f 3b3b 984f 3e3b
00000160: 9909 33ba 1ff3 5ebb f089 bfbb e950 7b3a
00000170: 5ea5 6b3a a2b9 5d3b f482 773a cd9c 463b
00000180: ef69 5d3c b978 d53a a8a1 94bb e3f4 273a
00000190: de11 c7bb 5778 79bb 7e97 df3b 6b58 c9bb
000001a0: b689 e2bb 6c0e b2ba 1988 373b 500d 383b
000001b0: 53f1 dbbb 45e4 4cbb 76c2 883a 7017 0a3c
000001c0: 38b3 17ba 3b12 923a 28d1 c93b 9420 223c
000001d0: 338a 6bbb 9df2 113c 4324 0b3b a149 efbb
000001e0: 8164 e23b 6b25 c33b 9426 56ba abb5 a63a
000001f0: f408 433b e135 5dbb 63a6 9a3b d939 ad3b

encoder.feature_extract.mlps.0.batch_norms.0.running_mean f4 [128]
-0.96733874 0.5313745 0.5771756 0.9153181 -0.34175992 -0.21272953 -0.7815335 -0.63654184
0.118029684 -0.11365608 0.18762788 -0.72019094 0.13841479 0.18541664 -0.56421936 -0.82556003
-1.0874757 -0.7071262 -0.27842107 -0.2101086 0.20437808 -0.8812738 0.49862906 -0.783115
0.015217747 0.9530214 0.73990583 -0.3174849 0.87419295 0.119995356 -0.36106157 0.20954765
0.68193567 -0.13017787 1.0008447 0.22269866 -1.1416167 0.8970065 -1.368688 -0.123320855
0.064519405 -0.40755504 0.113088526 -0.338445 0.48679695 -0.7564221 0.48005754 0.09485615
-0.47748926 0.10517759 0.059957772 0.7580384 0.9872044 -0.4711763 0.10723571 0.47368827
0.47405168 -0.2723337 0.6896573 -0.018312247 0.108044975 0.8347794 -1.0722524 0.7504731
-0.43297464 0.2780133 -0.59391975 0.19518147 -1.0081661 -0.38553637 0.4472165 -0.52468836
0.1558061 0.1529696 0.29003817 -0.4661982 -0.27493188 0.18756832 -0.95665675 -0.1153962
0.1992703 -0.3546332 0.09402744 -0.35683262 0.043073468 -0.19216779 0.25741717 -0.74359965
0.7796467 0.56350696 -0.2896869 -0.38660136 1.0515102 -0.5158027 -0.5975251 -0.4582647
-0.3273025 0.31817767 -0.1449606 0.10127944 -0.08536236 -0.362358 0.68501484 -0.23985763
-0.64649874 0.0033832851 0.20625138 -0.5012304 -0.09702044 -0.2528931 -0.21493511 -0.12424689
0.44209334 -0.2997287 0.4251273 0.23767781 -0.43432522 -1.3173207 0.06323241 -0.338931
-0.106475465 -0.015345087 -0.780548 1.0233201 -0.24100001 0.04571726 1.1634356 -0.095611304
00000000: 83a3 77bf 2908 083f c8c1 133f 4952 6a3f
00000010: 28fb aebe c5d5 59be 9412 48bf 68f4 22bf
00000020: 8cb9 f13d 85c4 e8bd 8621 403e 6f5e 38bf
00000030: 9bbc 0d3e dcdd 3d3e ae70 10bf e757 53bf
00000040: 6732 8bbf 3906 35bf 358d 8ebe b526 57be
00000050: 7d48 513e 299b 61bf 4f4c ff3e 3a7a 48bf
00000060: db53 793c 36f9 733f 786a 3d3f 618d a2be
00000070: 1ccb 5f3f 20c0 f53d 10dd b8be a993 563e
00000080: 5693 2e3f 594d 05be ae1b 803f 1e0b 643e
00000090: 7f20 92bf 38a2 653f 2b31 afbf a58f fcbd
000000a0: c022 843d 0eab d0be f59a e73d aa48 adbe
000000b0: 733d f93e e1a4 41bf 1aca f53e f143 c23d
000000c0: 7979 f4be 5967 d73d 4896 753d ce0e 423f
000000d0: 6db9 7c3f 053e f1be 659e db3d 4587 f23e
000000e0: e7b6 f23e 536f 8bbe 618d 303f 9103 96bc
000000f0: af46 dd3d 1ab4 553f 913f 89bf 011f 403f
00000100: daae ddbe c257 8e3e 200b 18bf a7dd 473e
00000110: 960b 81bf 0665 c5be 90f9 e43e fa51 06bf
00000120: a28b 1f3e 10a4 1c3e e27f 943e 88b1 eebe
00000130: dfc3 8cbe e911 403e 75e7 74bf d854 ecbd
00000140: 830d 4c3e 7c92 b5be 7591 c03d c4b2 b6be
00000150: ce6d 303d a2c7 44be 2fcc 833e 8c5c 3ebf
00000160: ed96 473f fe41 103f d751 94be 9df0 c5be
00000170: e397 863f a50b 04bf 68f7 18bf aca1 eabe
00000180: 3194 a7be 2fe8 a23e 8d70 14be 986b cf3d
00000190: 76d2 aebd fd86 b9be 225d 2f3f 3d9d 75be
000001a0: f180 25bf 1bba 5d3b 9033 533e a350 00bf
000001b0: a7b2 c6bd 347b 81be f317 5cbe 2775 febd
000001c0: 0f5a e23e 0a76 99be 49aa d93e d061 733e
000001d0: e05f debe f79d a8bf fe7f 813d 5d88 adbe
000001e0: cf0f dabd f669 7bbc fed1 47bf 27fc 823f
000001f0: b5c8 76be 0642 3b3d 75eb 943f dccf c3bd

encoder.feature_extract.mlps.0.batch_norms.0.running_var f4 [128]
0.008017284 0.003298261 0.0051611015 0.0059178257 0.01128799 0.006196279 0.013073065 0.0016471305
0.003181659 0.007835743 0.0066375225 9.913643e-05 0.0025273126 0.00082647847 0.004016022 0.0021818823
0.0089915255 0.0077037327 0.0013001096 0.0018413446 0.01178663 0.009627858 0.001294693 0.006630348
0.015618428 0.0076317484 0.004791481 0.0007809395 0.0055309893 0.013470557 0.011254216 0.007113981
0.01169353 0.0070143286 0.005860134 0.00086734875 0.011269209 0.010199208 0.011164659 0.005231172
0.0034496365 1.953505e-05 0.003520488 0.0020609268 0.0009274754 0.0127979135 0.006714744 0.0043548825
0.004358732 0.0017912029 0.003326364 0.006097852 0.0025023718 0.0025075204 0.0074251206 0.0017832769
0.016326385 0.0039233174 0.007853751 0.009934803 0.0022078094 0.0019544798 0.006232152 0.0038213124
0.015649254 0.019698543 4.3641834e-05 0.0010117815 0.009243754 0.014613503 0.009243322 0.0025539987
0.0021252271 0.010404265 0.0026765752 0.0042178254 0.00072758 0.00068774045 0.0046550184 0.0006799376
0.0008143038 0.008250268 0.005855699 0.006576418 0.013843511 0.004431295 0.0046211346 0.007982483
0.012971045 0.0006343481 0.0016449394 0.0030649686 0.007127329 0.0025659662 0.009933105 0.0026531415
0.0009278585 0.008860175 0.0064072968 0.004520975 0.0056646876 0.019784322 0.010230502 0.008909513
0.0007558501 0.008322368 0.007064245 0.00046929388 0.0040254947 0.0024172694 0.0078072017 0.00694599
0.0083242 0.0012057149 0.002116161 0.0075194906 0.0056428597 0.010924591 9.999035e-05 0.0007097074
0.0019872307 0.0027134619 0.0099192355 0.011857538 0.010497776 0.007595176 0.008805822 0.0024096216
00000000: ed5a 033c a327 583b 751e a93b 52ea c13b
00000010: 43f1 383c 280a cb3b 6930 563c 87e4 d73a
00000020: 6183 503b 7d61 003c 937f d93b 77e7 cf38
00000030: 45a1 253b 08a8 583a d698 833b e9fd 0e3b
00000040: 3151 133c 986f fc3b 7068 aa3a 4659 f13a
00000050: b61c 413c 2abe 1d3c b0b2 a93a 6443 d93b
00000060: 6fe4 7f3c bf13 fa3b db01 9d3b f6b7 4c3a
00000070: 4d3d b53b 9cb3 5c3c 9a63 383c 661c e93b
00000080: 3896 3f3c 74d8 e53b 5e06 c03b ca5e 633a
00000090: 7da2 383c 941a 273c f9eb 363c 406a ab3b
000000a0: 4c13 623b 33df a337 fdb7 663b 9d10 073b
000000b0: d221 733a 57ae 513c 5b07 dc3b 67b3 8e3b
000000c0: b2d3 8e3b ccc6 ea3a 21ff 593b 7dd0 c73b
000000d0: d5fe 233b 3655 243b 6d4e f33b d8bc e93a
000000e0: e9be 853c 2c8f 803b 05ad 003c 95c5 223c
000000f0: e5b0 103b bb16 003b 1537 cc3b fc6e 7a3b
00000100: dd32 803c d75e a13c 100c 3738 c19d 843a
00000110: 1d73 173c 796d 6f3c 4d71 173c fd60 273b
00000120: 6547 0b3b a676 2a3c 7b69 2f3b af35 8a3b
00000130: 11bb 3e3a 7b49 343a 2089 983b d73d 323a
00000140: 0177 553a 222c 073c 2ae1 bf3b fe7e d73b
00000150: e5cf 623c 6634 913b e36c 973b f6c8 023c
00000160: 8284 543c 614a 263a 029b d73a a4dd 483b
00000170: 5e8c e93b c529 283b 76be 223c 54e0 2d3b
00000180: 883b 733a 442a 113c 4df4 d13b b024 943b
00000190: d89e b93b bb12 a23c d69d 273c 35f9 113c
000001a0: 3e24 463a 8b5a 083c 2f7b e73b 8f0b f639
000001b0: 4ce8 833b 0d6b 1e3b 8ed3 ff3b 309b e33b
000001c0: 3a62 083c 1409 9e3a 4aaf 0a3b 0f66 f63b
000001d0: bde7 b83b 0efd 323c e9b1 d138 a80b 3a3a
000001e0: 333c 023b 56d4 313b 4a84 223c 1e46 423c
000001f0: ddfe 2b3c f4e0 f83b 4b46 103c beea 1d3b

encoder.feature_extract.mlps.0.batch_norms.1.weight f4 [128]
0.99251264 0.9929735 0.9917494 1.0056202 1.0085679 0.99716705 1.0034375 1.0024365
0.99491876 0.9984552 1.0024095 0.9939574 1.0034373 1.0061756 1.0051584 0.99433386
1.0027821 0.9990887 0.9970257 1.0006309 1.0017623 0.99001056 1.0114249 0.9977167
1.0072409 1.0033321 0.98852944 1.0033927 0.9947202 0.9990957 1.0097603 1.0011122
0.9992189 1.0084002 0.9980313 0.992117 0.98961025 1.0046482 0.99671656 1.0024042
0.99862725 0.9980896 1.0082042 1.0037277 1.000068 0.9970782 0.9997192 1.0032815
1.0009931 0.995554 0.99590474 0.9945062 1.0013652 0.99865353 0.99986565 1.0089478
1.0046252 1.0020882 1.0002668 1.0027791 1.0005599 0.99838185 1.0015329 0.9972446
1.0002477 1.0123731 1.0022863 0.9996188 1.0033342 0.99522865 0.9977153 1.0033008
1.0016774 1.0026321 1.0022684 1.0042812 0.998398 1.0002205 1.0023739 1.000485
0.9934174 1.0014464 1.0006882 0.99951345 0.9939814 1.0037475 0.9966133 1.0052471
0.99916756 1.006398 0.9929771 1.0060611 1.0001334 1.0014812 0.99632186 1.0034205
0.99689734 0.9992468 1.0082626 1.0027108 1.0004233 0.996349 0.99777275 0.99771994
0.9942443 0.9959717 1.0065774 1.0029106 0.9927201 0.9988318 1.0025147 0.99545354
0.9930763 0.99593544 0.9991166 1.0020229 0.99934405 1.0022751 0.9918425 0.99737555
0.9952367 0.9976002 1.0029763 1.0016966 1.0058686 0.99637294 1.0059378 1.002135
00000000: 4f15 7e3f 8333 7e3f 4ae3 7d3f 2ab8 803f
00000010: c118 813f 5746 7f3f a470 803f d74f 803f
00000020: ffb2 7e3f c39a 7f3f f44e 803f fe73 7e3f
00000030: a270 803f 5dca 803f 08a9 803f aa8c 7e3f
00000040: 2a5b 803f 47c4 7f3f 143d 7f3f ac14 803f
00000050: bf39 803f 5571 7d3f 5f76 813f 5d6a 7f3f
00000060: 45ed 803f 306d 803f 4410 7d3f 2c6f 803f
00000070: fca5 7e3f bcc4 7f3f d33f 813f 7224 803f
00000080: cfcc 7f3f 4213 813f fb7e 7f3f 61fb 7d3f
00000090: 1957 7d3f 5098 803f d128 7f3f c84e 803f
000000a0: 09a6 7f3f cd82 7f3f d60c 813f 267a 803f
000000b0: 3a02 803f 8440 7f3f 99ed 7f3f 876b 803f
000000c0: 8b20 803f a0dc 7e3f 9df3 7e3f f597 7e3f
000000d0: bc2c 803f c2a7 7f3f 32f7 7f3f 3425 813f
000000e0: 8f97 803f 6d44 803f be08 803f 115b 803f
000000f0: 5912 803f f495 7f3f 3b32 803f 6c4b 7f3f
00000100: 1e08 803f 7195 813f eb4a 803f 05e7 7f3f
00000110: 416d 803f 4ec7 7e3f 456a 7f3f 296c 803f
00000120: f736 803f 4056 803f 554a 803f 498c 803f
00000130: 0397 7f3f 3a07 803f ca4d 803f e40f 803f
00000140: 9a50 7e3f 652f 803f 8d16 803f 1de0 7f3f
00000150: 9175 7e3f cc7a 803f 0d22 7f3f f0ab 803f
00000160: 72c9 7f3f a6d1 803f bf33 7e3f 9cc6 803f
00000170: 5f04 803f 8930 803f f30e 7f3f 1570 803f
00000180: aa34 7f3f a3ce 7f3f c00e 813f d458 803f
00000190: df0d 803f ba10 7f3f 096e 7f3f 936a 7f3f
000001a0: cb86 7e3f 00f8 7e3f 87d7 803f 605f 803f
000001b0: e822 7e3f 71b3 7f3f 6752 803f 0bd6 7e3f
000001c0: 403a 7e3f a0f5 7e3f 1bc6 7f3f 4942 803f
000001d0: 03d5 7f3f 8d4a 803f 64e9 7d3f 0154 7f3f
000001e0: d5c7 7e3f ba62 7f3f 8761 803f 9837 803f
000001f0: 4dc0 803f 4c12 7f3f 92c2 803f f645 803f

encoder.feature_extract.mlps.0.batch_norms.1.bias f4 [128]
-0.010627671 -0.008166046 -0.010937072 0.013561191 0.013565729 -3.4078676e-05 0.0015507592 0.0022807135
-0.0029525643 -0.005419088 0.0028593114 -0.0030715563 0.00038159665 0.0066603003 -0.007662525 -0.0052018263
-0.0074610277 -0.004958088 -0.005774634 -0.0035353415 0.0044312086 -0.0034902606 -0.0013549045 -0.006218395
-0.0005568952 0.0023480665 0.0030195178 0.0065302714 -0.0053505804 0.0013308515 0.015348114 0.00029211395
0.00046568114 -0.00010372583 -0.010802967 -0.0052111847 -0.0090218885 0.002846647 -0.0017417803 -0.002653832
-0.0051242523 -0.006042187 0.0032121744 -0.0052003493 0.002531289 -0.0011085386 -0.0073934654 0.004340087
0.0067844535 -0.0062495074 0.0048679565 -0.008978665 -0.0033159847 -0.0007045415 0.0033494066 -0.0032177689
0.00293857 0.00031114378 0.00048695088 0.0068828184 -0.0031740696 0.00039644525 0.008386631 0.00046807312
-0.0034375105 0.014334063 0.0041310275 0.000786355 0.0047629676 -8.960127e-05 0.0043216357 0.0026971446
0.0028776636 0.0006158038 -0.00028228 0.008887581 -0.00850559 -0.0165788 -0.0044734874 -0.0022061493
-0.002412318 0.0020060812 -0.0036412014 -0.0014038113 0.0016814418 0.009627111 0.00055058906 -0.0025273017
-0.0053106584 -0.00090247334 -0.006273076 0.0013608377 -0.004593712 -0.00040691477 0.0028556504 -0.0015922952
0.006458439 0.0018214949 0.0031444586 -0.0021975657 -0.0019737242 0.0036057 -0.0036661 -0.00780471
-0.008533353 -0.0044670994 -0.00530551 0.00092731265 -0.0019393703 0.0045883167 0.0029964945 0.0018331558
0.0026165082 -0.0036223927 -0.0018858087 0.009061897 -0.003368353 -0.00027059333 -0.008370595 -0.006784192
-0.003459164 0.0009336496 0.0033058755 -0.0008018012 0.0038407582 -0.00446977 -0.005019709 -0.0047796117
00000000: af1f 2ebc e1ca 05bc 6831 33bc c22f 5e3c
00000010: cb42 5e3c b3ef 0eb8 d842 cb3a 0678 153b
00000020: cf7f 41bb 9b92 b1bb 4963 3b3b 2a4c 49bb
00000030: 0911 c839 a63e da3b eb15 fbbb 1574 aabb
00000040: a37b f4bb 7577 a2bb 2439 bdbb 30b1 67bb
00000050: ac33 913b dbbc 64bb 0d97 b1ba aec3 cbbb
00000060: 9bfc 11ba 05e2 193b 1ae3 453b e3fb d53b
00000070: ec53 afbb f76f ae3a a876 7b3c df26 9939
00000080: aa26 f439 6287 d9b8 edfe 30bc 96c2 aabb
00000090: 8bd0 13bc d08e 3a3b 734c e4ba eaeb 2dbb
000000a0: 58e9 a7bb 8afd c5bb 5883 523b b167 aabb
000000b0: fbe3 253b 624c 91ba e244 f2bb 4a37 8e3b
000000c0: 1f50 de3b abc8 ccbb 6183 9f3b 401b 13bc
000000d0: fe50 59bb fbb0 38ba b881 5b3b 34e1 52bb
000000e0: 0695 403b 0321 a339 714d ff39 4489 e13b
000000f0: 0d04 50bb fbd9 cf39 1468 093c b667 f539
00000100: db47 61bb 6bd9 6a3c 925d 873b 6423 4e3a
00000110: ab12 9c3b 51e8 bbb8 829c 8d3b 94c2 303b
00000120: 2f97 3c3b e56d 213a fbfe 93b9 379d 113c
00000130: 085b 0bbc 43d0 87bc 5596 92bb 0b95 10bb
00000140: fb17 1ebb 7578 033b 39a1 6ebb 1700 b8ba
00000150: d363 dc3a 08bb 1d3c 6855 103a 16a1 25bb
00000160: 0805 aebb f693 6cba 608e cdbb 235e b23a
00000170: d986 96bb 2d57 d5b9 dd25 3b3b 90b4 d0ba
00000180: 50a1 d33b 3abf ee3a 4313 4e3b 0905 10bb
00000190: 9959 01bb 9c4d 6c3b f442 70bb a7be ffbb
000001a0: 7acf 0bbc bf60 92bb d8d9 adbb e616 733a
000001b0: 7832 feba 9759 963b d660 443b 8046 f03a
000001c0: b979 2b3b aa65 6dbb 3d2d f7ba 5a78 143c
000001d0: 96bf 5cbb 6cde 8db9 d224 09bc ed4d debb
000001e0: 24b3 62bb 2ac0 743a 63a7 583b f82f 52ba
000001f0: 3bb5 7b3b 2677 92bb 5f7c a4bb 4a9e 9cbb
