FJSP_MultiPPO/saved_network/FJSP_J20M405/best_value00/policy_job.pth (torch_old, 637433 bytes, 53 tensors)

_input f4 [128]
000000 d2 3d 07 3e 8b f8 0f 3e db e4 04 3f 30 0c 28 3e
       0.13207176 0.14059655 0.51911706 0.16410899
000010 5e 04 0f bf fb fe 25 bf 80 28 89 be 78 73 33 3e
       -0.5586604 -0.64842194 -0.26788712 0.17524517
000020 3c fe d7 bc 3a f3 d8 3e 9e 58 80 bf 2f 92 63 3e
       -0.026366346 0.42373067 -1.0027044 0.22223733
000030 bc f8 b3 bd c6 c2 07 3e c6 75 ab 3e 98 20 70 be
       -0.08787677 0.13257894 0.33488292 -0.23449934
000040 3b 43 f4 3e 87 83 66 3f 89 a5 52 be ac 33 fb be
       0.47707543 0.90044445 -0.20570959 -0.4906286
000050 dd 32 6d 3f 7d 8f b4 3b 3d 78 6f bf d1 a0 b9 3d
       0.92655736 0.005510269 -0.93542844 0.090638764
000060 48 4f 02 bf c8 31 38 3f d4 d9 87 3e f7 f3 d7 be
       -0.50902224 0.7195096 0.26533377 -0.42178318
000070 e6 c6 0b 3e f0 7e 9c 3e ea 09 bc be 4a 31 98 3d
       0.13650092 0.30565596 -0.36726314 0.07431276
000080 be b3 41 3e f2 28 13 3f ab 79 73 bf 1e 46 2c bf
       0.18916222 0.5748435 -0.95107526 -0.6729449
000090 83 6d 90 be 9e 23 6f bf 2e 1f 11 bf 0f 1c bc bc
       -0.2820855 -0.9341372 -0.566882 -0.022962598
0000a0 1a a7 56 3e e4 65 d2 3d df 8b 5b 3d 89 f0 b8 bd
       0.20962182 0.1027334 0.05360019 -0.090302534
0000b0 e0 ce d7 be 6f 0e 49 bf 47 65 d3 3e 74 a9 4c 3f
       -0.4215002 -0.7853765 0.41288206 0.79946065
0000c0 fe f8 32 bf c4 56 de be 70 6a 59 3e 75 7a 76 3f
       -0.6991118 -0.43425572 0.21232009 0.96280605
0000d0 5c 52 f4 bd 0a bc 6f bf 9f d1 14 3f 8e bd 1d 3f
       -0.11929771 -0.936463 0.58132356 0.6161736
0000e0 69 60 35 be fb b1 16 bf 2e b1 07 3f 3e b7 51 bf
       -0.17712559 -0.58865327 0.5300473 -0.8192023
0000f0 87 67 77 3e 75 12 85 be ec 21 ca 3d 94 64 33 be
       0.24160586 -0.25990644 0.09869751 -0.17518836
000100 ef 2c 23 be 91 91 6e 3f 26 f0 74 bf c2 b6 0f bf
       -0.1593511 0.93190867 -0.9567894 -0.5613824
000110 6f 57 98 3e 5c e7 65 bf cf b8 20 3e 08 10 39 3f
       0.29754207 -0.8980615 0.15695499 0.72290087
000120 cb d2 53 be 3e 83 49 3f c8 ab 38 3c df f5 0a be
       -0.2068588 0.78715885 0.011271425 -0.13570355
000130 d5 d9 04 bf 0d 32 e3 be af 9f 57 3f d9 ea cb be
       -0.51894885 -0.44374123 0.8422803 -0.39827612
000140 58 d4 b6 3e aa 94 45 3f 2e 4a 15 3f f7 e2 35 3f
       0.3570888 0.7717997 0.58316314 0.71049446
000150 3a af 29 be c6 05 f4 3e 87 c3 e4 3e 5b f8 a8 3e
       -0.1657075 0.47660655 0.44680426 0.3300198
000160 87 05 d8 be 4a 99 ad 3e b6 c0 26 bf 51 00 fe 3d
       -0.42191717 0.33906013 -0.65137804 0.12402404
000170 f5 c0 d0 3e 96 2b 57 be 89 7f 4d bf 26 a3 6c be
       0.40772215 -0.2101272 -0.8027273 -0.23109111
000180 ec 79 e0 3d 39 f0 fc 3e 9d 6f 03 3f 5a a1 6c 3f
       0.10960755 0.49402025 0.51342183 0.924337
000190 7e eb 3a 3f 42 45 f3 3e 6f e3 43 3f 29 84 33 bf
       0.7301558 0.47513777 0.7651891 -0.70123535
0001a0 9a 91 2a 3f 7d 28 7a be 22 bd 52 3f 32 c1 69 3f
       0.6662842 -0.24429508 0.82319844 0.9131042
0001b0 33 9c 10 bf 08 52 2d bf ef 7d c3 be a0 93 91 be
       -0.5648834 -0.67703295 -0.38182017 -0.2843294
0001c0 83 17 5b be 0b c1 8e be 8d 57 63 bf d4 d1 66 3f
       -0.21395688 -0.27881655 -0.88805467 0.9016392
0001d0 4f 1c 54 3e 2c 5a 99 3d 54 6a ee 3e 1d b8 99 3e
       0.20713924 0.07487902 0.46565497 0.3002328
0001e0 ca 93 57 bf 2d 0f 67 be 97 37 0c 3f 40 70 fd 3e
       -0.84209883 -0.22564383 0.54772323 0.49499702
0001f0 a9 36 f4 bc 55 94 63 bf 06 d7 5e bf 1d 06 4b be
       -0.02981122 -0.8889821 -0.8704685 -0.19826551

bn.weight f4 [2]
000000 00 00 80 3f 00 00 80 3f
       1.0 1.0

bn.bias f4 [2]
000000 00 00 00 00 00 00 00 00
       0.0 0.0

bn.running_mean f4 [2]
000000 00 00 00 00 00 00 00 00
       0.0 0.0

bn.running_var f4 [2]
000000 00 00 80 3f 00 00 80 3f
       1.0 1.0

encoder.feature_extract.mlps.0.linears.0.weight f4 [128, 2]
000000 83 bf b7 3c 91 05 de 3e 3d 80 21 3f 1e 75 0a 3f
       0.022430187 0.43363622 0.630863 0.54084957
000010 61 95 0f bf 6b cb a9 be 22 ef cc 3e 28 2d 88 3e
       -0.5608731 -0.33163008 0.40026194 0.2659695
000020 8b de ae bd 03 b1 dc be f3 a1 e4 be c2 cc 97 bd
       -0.085385405 -0.431038 -0.44654807 -0.07412101
000030 2a 26 65 3e 79 43 22 be a7 8d 81 3e 97 b6 1e bf
       0.2237784 -0.15846051 0.25303385 -0.6199736
000040 cd 4c 9d 3d aa e5 1d 3f c6 1a d6 be 98 97 2f bf
       0.07680664 0.61678565 -0.41817302 -0.6859069
000050 5d 03 8b be 14 dc c7 be 12 3a 91 3e e8 57 2f bf
       -0.27151003 -0.39035094 0.28364617 -0.6849351
000060 ac 9c 63 be 3e ca a9 3e 0c 1d b1 3e ff 55 1d 3f
       -0.22227734 0.3316211 0.34592474 0.61459345
000070 29 18 01 3f 73 76 9e 3e cc fc fa 3e a2 89 e9 be
       0.5042749 0.30949745 0.49020994 -0.45612818
000080 ca 91 bf 3c 95 39 9c be 04 77 60 be 79 eb 09 3f
       0.023384947 -0.30512682 -0.21920401 0.5387493
000090 dd 0c f1 be 92 0b c9 be 25 a3 24 bf 7e c6 1e bf
       -0.47080126 -0.3926664 -0.6431144 -0.62021625
0000a0 5d ca 12 bf 93 79 91 3e 4f 1f 39 bd ea ff e3 3e
       -0.5734003 0.28413066 -0.045195874 0.44531184
0000b0 82 57 67 3e d0 6f f9 3e 09 08 22 be 53 7a 2d bf
       0.22591975 0.4871812 -0.15823378 -0.67764777
0000c0 70 e1 66 3e 29 1d 31 3f 15 ca 4f bd ab cf 35 3f
       0.22546935 0.6918512 -0.05072983 0.7102
0000d0 1e 3f 73 3e 7d ba f4 3e 8e e1 63 be 2a 9e c2 3e
       0.23754546 0.4779853 -0.22254011 0.38011295
0000e0 b2 e5 a6 be b0 46 a9 be 30 eb 5e 3e dc 3b 0a 3f
       -0.3259712 -0.33061743 0.21769404 0.5399759
0000f0 df a7 67 3e e0 27 83 be d2 fa 90 3e 15 0a b1 be
       0.22622631 -0.2561636 0.2831636 -0.34578004
000100 2f fd 18 be cf 12 96 be 4d de 07 bf eb f0 31 bf
       -0.14940332 -0.29311225 -0.5307358 -0.69508237
000110 a3 08 e9 be 79 e9 6d 3e 0c bf 00 bf fa 1b 11 3d
       -0.45514402 0.23233594 -0.50291514 0.03542707
000120 01 e3 d5 3e d3 bd ed 3e 58 5a d1 be 12 8c e0 be
       0.41774753 0.46433887 -0.4088924 -0.43856865
000130 e3 c9 58 be db 25 0f 3f fa 10 05 3f 2f 42 18 3f
       -0.21170764 0.5591714 0.5197903 0.5947599
000140 7a 3b 11 3f c6 03 19 3f 64 e6 14 bf 2a 15 05 3f
       0.5673138 0.5977138 -0.5816405 0.5198542
000150 de 40 13 be 08 00 e9 be e3 62 90 be 21 0d de be
       -0.14380214 -0.45507836 -0.28200445 -0.43369392
000160 f8 76 e3 be 9a b9 b4 bd 61 44 d4 bc 2a 71 fb 3e
       -0.44426703 -0.08824463 -0.025911512 0.49109775
000170 0c 21 d7 3e 00 f9 24 3f 2f 6e be 3e e5 11 c6 be
       0.420174 0.64442444 0.37193438 -0.38685527
000180 6c 19 47 3d ed a5 85 3e 38 50 ec 3e 64 c2 22 bf
       0.04860823 0.26103154 0.46154952 -0.63577867
000190 2a fa 9e be 5f e3 57 3e 6e 7b b9 be 43 97 34 3f
       -0.31050235 0.21082829 -0.36226982 0.7054331
0001a0 bd c1 53 bd 1b 47 07 3b f1 2e a5 3e be 07 2a be
       -0.051698435 0.0020641747 0.32262376 -0.16604516
0001b0 91 92 92 3e b2 16 c5 be 37 61 ec be ae 4c 07 bf
       0.28627446 -0.38493878 -0.4616792 -0.5285138
0001c0 d0 ac 84 bc 59 ef 24 3f 3f cd 1e 3f fa 0a 23 bc
       -0.016195685 0.64427716 0.6203193 -0.0099513475
0001d0 fb 5b 47 be 76 d8 9d 3e 8b fb 2a 3f 6b ad 23 3f
       -0.19468682 0.3082921 0.66790074 0.6393649
0001e0 c0 1d c3 3e e5 94 9a 3e e0 c7 2e bf 0b 7c 29 bf
       0.38108635 0.30191723 -0.68273735 -0.662049
0001f0 ea 02 b3 be 72 5d 60 bc c8 6a 7c be fd 82 b0 3e
       -0.3496316 -0.013694154 -0.24650109 0.34474936
000200 c8 87 39 3e c6 16 28 3f a0 dc 77 bd fe 3c ec be
       0.18118203 0.6565975 -0.06051314 -0.46140283
000210 8a d0 07 be ea 7b 22 3d e7 fe 29 3f 31 8f a4 be
       -0.13263145 0.039668955 0.66404575 -0.32140496
000220 99 ba d6 3e ee 46 c1 be 56 e6 ab be 65 6a 58 3e
       0.41939238 -0.37749428 -0.3357417 0.21134336
000230 df 2e 4e 3e 63 67 25 bf a9 12 2c 3e b4 b0 62 be
       0.20135067 -0.6461088 0.16803993 -0.2213772
000240 32 c6 19 3f 04 cf 24 3f 61 34 cc 3e cd 8a b1 be
       0.6006805 0.6437838 0.39883712 -0.3467621
000250 a7 3e eb 3e f1 63 14 3f 1b 60 04 bf c9 b6 c5 3e
       0.45946237 0.57965 -0.51709145 0.38616017
000260 e1 ae 93 3d cb a5 27 3e 50 61 5d be 7e 91 28 3f
       0.0721109 0.16371839 -0.21619153 0.65847003
000270 9c f7 10 3f 9e 3a f1 3e bc 83 8f 3e ce 26 60 be
       0.5662782 0.47115034 0.28030193 -0.21889803
000280 3b cb c2 bd b0 c6 17 3f 4d ad 1c bf 7b 1b 24 3e
       -0.095114194 0.5928755 -0.61201936 0.16026108
000290 40 29 d4 3e 03 4b 76 be 85 d5 af 3e 95 85 39 be
       0.4143772 -0.24052052 0.3434259 -0.18117364
0002a0 c8 86 01 bf 6d 29 81 3e de ca 92 3d db d4 c5 3e
       -0.50596285 0.25226918 0.071676 0.38638958
0002b0 6f 37 09 bf 2f 3e 13 bf 11 36 04 bf 13 77 cb be
       -0.5360021 -0.5751676 -0.51645 -0.39739284
0002c0 fe 60 27 bf a0 ef 2e bf 80 e7 71 be 51 05 1f bf
       -0.65382373 -0.6833439 -0.23623466 -0.6211749
0002d0 d0 46 32 3f 6d f1 db 3d 8f 3c b9 3e b1 8c 89 bd
       0.696393 0.10739408 0.36179015 -0.06716288
0002e0 5c b8 83 be 88 aa 4b be dd 93 86 3e 1d 6a f5 3e
       -0.25726593 -0.19889271 0.26284686 0.4793252
0002f0 ea 97 18 bf 07 a4 67 bd 79 f6 67 3d 9f ac 27 3f
       -0.596068 -0.056552913 0.05663154 0.65497774
000300 ff a4 45 be d4 e6 de 3e b1 93 32 bf 20 2c 88 3e
       -0.19301222 0.43535483 -0.6975661 0.26596165
000310 82 31 03 bd 14 9f 87 bd ac ef 01 3f 1b f4 2f 3f
       -0.032029636 -0.066221386 0.50756335 0.6873185
000320 9e 35 02 3f 00 55 69 3e 6b 08 5a be ac 43 31 3f
       0.50863063 0.22786331 -0.21292274 0.69243884
000330 98 2b 31 3f d9 1b 2d 3f a6 7e fd be e7 b2 f5 be
       0.69207144 0.6762062 -0.49510688 -0.47988054
000340 16 6f ea be 2c f9 12 bf f7 d4 28 bf bb 8d f1 be
       -0.45787877 -0.57411456 -0.6594996 -0.47178444
000350 0b f3 44 be 7d ab 2c 3a 6d 66 bc be 8e 9e d0 be
       -0.19233339 0.0006586833 -0.36796895 -0.40745968
000360 fa 81 a7 bd 37 fe a5 be ca 47 4b 3d b0 39 0f 3f
       -0.08179088 -0.32420513 0.04962901 0.559474
000370 4c 7b 14 3f c2 04 c9 be f2 0e 01 bf a7 6b 0c bf
       0.58000636 -0.39261442 -0.5041343 -0.54851764
000380 30 cd 1e 3f 41 ec 09 be ab 39 b6 3e b8 0b 00 be
       0.6203184 -0.1346903 0.35590872 -0.1250447
000390 b6 41 c9 3e 1f df b5 3e b5 6a 90 be 21 a2 fc 3d
       0.39307946 0.3552179 -0.2820641 0.12335611
0003a0 8e a8 35 3d f4 04 39 3e 76 30 23 3f 3e 23 96 3e
       0.0443502 0.18068296 0.6374582 0.29323763
0003b0 0b ea 40 3e f9 3f 06 3e 23 97 19 bf 16 68 e6 bd
       0.1883928 0.13110341 -0.5999624 -0.112503216
0003c0 72 65 d8 3e a8 84 14 3f 5f 1f 95 be 2f 99 c3 be
       0.42264897 0.5801492 -0.29125497 -0.38202807
0003d0 eb 67 b2 be 53 cd 53 be e3 49 8f be 78 ed cc be
       -0.34844908 -0.20683794 -0.2798606 -0.40024924
0003e0 64 d2 00 3f 40 84 4a be c0 92 a9 3e 5a 37 3c 3a
       0.5032103 -0.19777012 0.33119774 0.0007179879
0003f0 00 27 c5 be 74 42 f1 bc d2 90 da be 33 a7 c7 3e
       -0.38506317 -0.029450633 -0.42688614 0.3899475

encoder.feature_extract.mlps.0.linears.0.bias f4 [128]
000000 1c 4d ae be a3 9d 3d be 08 09 9f 3d 88 09 e2 bd
       -0.34043205 -0.18517165 0.077653944 -0.11036974
000010 d5 5c 55 3e a0 e4 2d bf 90 bc 80 3e 12 6a cf be
       0.20836194 -0.6792698 0.25143862 -0.40510613
000020 45 f6 be bc 3b b5 99 be 18 9d b6 be 8f 29 fc bd
       -0.02331079 -0.3002108 -0.35666728 -0.12312614
000030 95 46 07 3f 23 bc 75 3e 08 2c 0c 3f eb 20 06 bf
       0.52842075 0.2399755 0.54754686 -0.5239398
000040 20 e8 48 bb c5 bb a1 bd 00 b0 01 bf f5 c0 27 3f
       -0.0030655935 -0.07897142 -0.5065918 0.65528804
000050 b2 88 27 3f a0 22 cc bd 4f 99 f3 3e b8 18 2a 3f
       0.65442955 -0.09967542 0.47577903 0.6644397
000060 9f 2a 20 3f 5f 2c 06 3f 19 f2 6e 3d 6b 3d b2 bc
       0.62565035 0.52411455 0.05833635 -0.021757802
000070 7e 00 e0 3d 9d 8d 72 be 22 7c ed bd 3d 36 21 bf
       0.10937594 -0.23686834 -0.11595942 -0.62973386
000080 ea 14 71 be 70 19 0f bf 64 cf aa bd 4f a5 c7 3d
       -0.23543134 -0.5589819 -0.08340338 0.09748327
000090 79 bf 1e bf 95 31 ad 3e 78 83 c0 be f2 bc 11 bf
       -0.62010914 0.3382689 -0.37600303 -0.5692893
0000a0 4c cb 24 bf 01 40 ae 3d 6c 33 56 3d bc a8 cc be
       -0.64372706 0.085083015 0.052295133 -0.39972484
0000b0 9e 3a 12 bf 27 da dd be b8 03 e0 be 41 7a 35 bf
       -0.5712069 -0.433305 -0.43752837 -0.7088967
0000c0 06 aa 13 3e 06 30 25 be 2b bd c0 bd 0a 0a b5 be
       0.14420328 -0.161316 -0.09411081 -0.35359222
0000d0 32 a9 f9 be c6 a1 4f 3d 7b 21 6a 3c a0 fe 0b 3f
       -0.48761898 0.05069139 0.014290209 0.546854
0000e0 41 cc 18 3e 14 41 10 3f be b2 d1 3e 56 bf dc 3e
       0.14921667 0.563493 0.40956682 0.43114728
0000f0 8b fd 79 3e ed 95 d6 3e 5c 31 36 3e 8e fb da 3d
       0.24413125 0.4191126 0.17792267 0.106925115
000100 18 12 75 3e b2 9a 78 3e 81 4a 0c 3f 54 67 20 bd
       0.23932683 0.24277762 0.54801184 -0.03916104
000110 1c 25 e6 3d 15 d2 fd bc bb cd f4 3e 66 8c 27 bf
       0.11237547 -0.030983964 0.4781321 -0.65448606
000120 23 8e 02 3e 8a 3e 3e 3e db 86 da 3e e0 57 0a 3e
       0.12749533 0.18578544 0.42681012 0.13510084
000130 d1 5c 90 3e df 2d 5a 3d 6a 15 87 3e 1e 08 df bd
       0.28195813 0.053266402 0.26383525 -0.1089022
000140 55 18 ae 3e af 28 c5 3d da aa 22 3f 0b d9 26 bf
       0.3400294 0.096269004 0.6354195 -0.6517493
000150 40 3a 31 bf 81 2d 9d 3e f3 4f 8b 3e e7 33 33 3f
       -0.6922951 0.3069878 0.27209434 0.7000107
000160 ce b5 e4 be 62 f2 42 be 29 a0 83 3e 1d c7 ba be
       -0.44669956 -0.19037774 0.2570813 -0.36480036
000170 cd bb 22 bf df c9 c1 be f2 c9 11 bf 4c 22 95 bc
       -0.6356781 -0.37849328 -0.5694877 -0.01820483
000180 ac 9f 3e be 84 78 02 bf 54 77 28 bf 5e 2c 23 be
       -0.18615597 -0.5096514 -0.6580708 -0.15934893
000190 e4 4f 0f bd 18 ab 18 bf b9 d5 8d bd 9b a0 89 3e
       -0.0349883 -0.5963607 -0.0692553 0.26880345
0001a0 e1 a1 29 bf 3c 73 24 bf 5c a4 ad be ef 46 16 3f
       -0.6626263 -0.64238334 -0.3391446 0.58701986
0001b0 f5 85 bf 3d 2a 65 58 3e 33 3d 0f bf 98 ff 2f 3f
       0.09351722 0.21132341 -0.5595276 0.6874938
0001c0 23 ba f1 3e f1 e7 c0 3e a5 1b 2b bf 02 39 ec bd
       0.47212324 0.37676957 -0.6683906 -0.11534311
0001d0 93 a4 75 3d 7b ff f8 be 0b 86 01 bf 24 e4 25 3f
       0.059971403 -0.48632416 -0.5059516 0.6480124
0001e0 dd 5c 13 3d f6 0b df bd d8 5f 64 3e e4 88 4c 3e
       0.035977233 -0.10890953 0.22302186 0.19974095
0001f0 18 b6 11 3f 29 ed 0c 3f 9f 43 27 3d 07 80 e8 be
       0.5691848 0.5504938 0.040835973 -0.45410177

encoder.feature_extract.mlps.0.linears.1.weight f4 [128, 128]
000000 a3 11 2a bc e6 b5 f1 3c d8 9e 7b bd 80 ed a8 bd
       -0.0103801815 0.029505681 -0.061430782 -0.082484245
000010 6e 56 36 3d 70 d8 9d bd f2 52 8f 3c 20 ae 8a 3d
       0.04451602 -0.07707298 0.017495606 0.06771493
000020 d8 52 2f bb 2d 2a 90 bc c2 21 11 bd a5 4b 16 3d
       -0.002675226 -0.017598236 -0.035432585 0.036693234
000030 42 06 a1 3d 94 ec e3 bc 5f 96 53 bd 8d 48 4c 3d
       0.07862522 -0.02782277 -0.051657077 0.049873877
000040 a0 39 9e 3d 8f c7 a9 bc 08 48 ae bd f8 10 75 3d
       0.07725835 -0.02072504 -0.085098326 0.059830636
000050 bf 08 af 3c ab 80 11 3d 0d 51 09 3d 1d bb 5e 3d
       0.021366475 0.035523098 0.03352456 0.054377664
000060 29 2a a4 3d 91 0b df bc fe 98 20 3d 29 ec 73 3d
       0.08015854 -0.027227195 0.039208405 0.05955139
000070 ce 82 6d 3d 81 bd 91 3d 69 78 57 bc 62 8b b2 3c
       0.057986073 0.07116223 -0.013151267 0.021794979
000080 ea 28 27 3d 1b c2 a8 bd 6c 7a 11 3d a3 c8 88 bd
       0.040810503 -0.08240148 0.03551714 -0.066788934
000090 e5 8a a8 3d cb 86 5e 3d 45 56 af bc 57 46 a2 3c
       0.08229617 0.054327767 -0.021403441 0.019808931
0000a0 90 fe 16 3d 2e 2c b7 3c 3e 23 55 bd 08 d3 d1 bc
       0.036863863 0.022359934 -0.052035563 -0.025613323
0000b0 45 46 6c bd 77 65 91 3c 28 95 a9 bd 45 36 33 3d
       -0.0576842 0.017748578 -0.082804024 0.043752927
0000c0 7a 7f a9 3b 69 d7 53 3b 44 35 3f 3d 7f 68 79 bd
       0.005172667 0.003232444 0.046681657 -0.06089067
0000d0 11 4e 43 bd 41 7f 11 bc df 76 06 3d 5d 3a 0e 3d
       -0.04768187 -0.008880437 0.032828208 0.03472363
0000e0 4c 5a 8d bd 73 13 5e bd 9f 1e 48 3d a7 fc 8c 3d
       -0.069019884 -0.054217767 0.048857328 0.06884127
0000f0 d1 42 61 3c cd 7d 8e bd 9d 8f a5 bb 4f db 33 bc
       0.01374884 -0.06957588 -0.0050525204 -0.01097758
000100 f8 4f 40 3d 65 e3 97 3d 91 5b 03 3d 7c d9 25 bd
       0.046951264 0.07416419 0.032069746 -0.040490612
000110 a0 43 25 bb 71 30 4e bc 25 67 a1 3c 91 15 78 3d
       -0.002521731 -0.0125847915 0.019702503 0.060567442
000120 4d 50 48 3d bc e2 a7 3c 51 e8 dc bc c8 5f 32 3d
       0.048904706 0.020493858 -0.026966246 0.043548375
000130 be c4 82 bd ae 81 23 3c 9c e2 ba 3b f0 9e 5e bb
       -0.06385182 0.0099796485 0.0057032835 -0.0033969246
000140 d7 4f 43 bd 74 3c 99 3c fe bd b2 3d e1 a1 83 bd
       -0.047683563 0.018705584 0.087276444 -0.0642736
000150 ff be a9 bc 0b 3d 04 3d 3e b6 1f bd 49 e5 3f 3c
       -0.020720957 0.032284778 -0.03899216 0.011712381
000160 d8 84 d0 bc 83 18 26 3d 8e 43 62 bc a1 c0 a5 bd
       -0.02545397 0.04055072 -0.013810052 -0.08093382
000170 96 9e 54 b9 b7 dc 98 bd 7f f6 69 3d f7 98 93 3c
       -0.00020276973 -0.07463973 0.057119843 0.018017275
000180 3c 0e cd 3b 96 4c 7b 3d 9b 05 45 3d b7 bc 1b 3b
       0.0062578004 0.061352335 0.04810105 0.0023763606
000190 08 fe 53 3c 86 17 70 3d 84 e4 28 bc 65 9f 86 3c
       0.012938984 0.058616184 -0.010308389 0.016433427
0001a0 8d be 46 3d 59 8b cb bc cd 8f 1a bd 92 a9 97 bd
       0.048521567 -0.02484672 -0.037734795 -0.0740539
0001b0 ac 2d 84 3d 3f 71 86 bd cd ff b7 3c 0c 5a f8 3c
       0.06454024 -0.06564569 0.022460843 0.030316375
0001c0 17 c8 7e 3c d9 85 1c 3d b5 51 2c bd 43 2f f5 3c
       0.015550635 0.038213585 -0.04207011 0.029929763
0001d0 a7 57 40 3d 53 27 b3 3b 01 4e c7 3c a7 e4 3e 3d
       0.04695859 0.0054673343 0.024329187 0.04660478
0001e0 2f bb 2c 3d 96 f1 46 3d d5 35 9f 3b af c2 88 3d
       0.0421707 0.048570238 0.004858712 0.06677758
0001f0 c9 e8 0c bc 67 25 3f 3d 5d f9 9b bd 13 5b 2c bc
       -0.008600422 0.04666653 -0.07615922 -0.010519761
000200 6e fc 83 bd 8d cd a2 bd ca 66 1e bd 17 08 6a bd
       -0.064446315 -0.07949362 -0.038672246 -0.05713662
000210 e9 ab 37 3d 19 ab 0b 3c df d7 98 bc af 64 13 3d
       0.04484168 0.00852468 -0.018657623 0.03598469
000220 a0 a6 17 bd 0d 19 b4 bc c8 45 84 3d 55 63 79 bd
       -0.03702414 -0.021984601 0.06458622 -0.060885746
000230 0a c5 3c bd 31 5a 5e bd 42 7b 24 3d c0 3a 84 bd
       -0.04608635 -0.054285232 0.04015661 -0.06456518
000240 2a 95 91 3d 4f c8 88 bc 79 4f 85 bd 49 6c c4 bc
       0.07108529 -0.016697077 -0.06509299 -0.023977416
000250 b7 fc 90 3d a6 6e bd 3c de 5b 01 3d b5 bc 0d bd
       0.070794515 0.02312405 0.031581752 -0.034603793
000260 e2 cc 8f 3b ae 5f 26 3c 08 a4 7f 3d 46 11 62 3b
       0.0043884376 0.010154648 0.06241229 0.003449516
000270 02 53 b1 bd a6 df 79 bb ed 6e a7 3b 3f 69 88 bc
       -0.086584106 -0.003812769 0.005109659 -0.016651748
000280 c4 7e 09 bb f9 03 95 bc 8f fd 78 bd e5 64 8a 3d
       -0.00209801 -0.01819037 -0.060788687 0.06757525
000290 65 2d 88 bd dd e3 0a bd cf aa e8 3c b3 86 c1 3c
       -0.06649283 -0.033908714 0.02840176 0.0236238
0002a0 e4 71 f8 3b 4a df a0 3d 50 94 5f 3d de ba 25 3d
       0.007581936 0.07855089 0.0545848 0.040461414
0002b0 4f d2 a1 bd c1 d0 0d 3d e0 09 e6 3c db 33 3a bd
       -0.07901441 0.03462291 0.02808088 -0.04545961
0002c0 6f 96 d1 bc 9e 53 1e bd f1 cf aa 3c 16 d3 5f 3d
       -0.025584428 -0.038653962 0.020851107 0.054644667
0002d0 de 79 70 bd b1 3f 7d 3c 1a 35 96 bd 37 c9 8f bc
       -0.05870997 0.01545708 -0.07334347 -0.017552001
0002e0 a1 1a 85 3d ee 6f 86 bd d0 48 48 bd 29 37 00 3d
       0.0649922 -0.06564318 -0.048897564 0.031302605
0002f0 55 d0 b4 3b a5 8b a2 3d 2d 66 9b bd d6 56 f2 3c
       0.005517999 0.07936791 -0.07587848 0.029582422
000300 24 c3 9f 3d 56 5c 9a 3d 0b 9e 1d 3d 72 fa 82 3d
       0.07800892 0.07537143 0.0384808 0.06395425
000310 95 2c 12 bd 0e 1c 3b 3d aa 99 3e bc ee e9 5e 3d
       -0.035687048 0.045681052 -0.011633316 0.05442231
000320 6b 0a 98 3d 7b 66 0c bc f8 86 a1 3d 1e 08 fe 3b
       0.07423862 -0.008569355 0.07887071 0.0077524325
000330 0a fb d2 bc d6 b9 98 3d 29 90 85 3b 58 1e 82 3d
       -0.02575447 0.074573204 0.004076023 0.06353444
000340 64 da 82 3c 74 1e 9e 3d 30 f0 99 3c 34 1d 17 bd
       0.015973277 0.07720652 0.018791288 -0.036893085
000350 ed 9a a7 bd 50 11 73 bd 85 09 85 3d d3 d4 2e bc
       -0.081838466 -0.059342682 0.06495956 -0.010670858
000360 fc 1a b5 bd af 79 23 bd db fe 5f bd 93 80 19 3d
       -0.088430375 -0.03991097 -0.05468641 0.037476134
000370 0a 25 ce 3b 8b df 8f bd 2b 0b 9d 3d 31 9d 8f 3c
       0.0062910365 -0.07025059 0.07668146 0.01753101
000380 45 f8 ca 3c 4b 9a e6 3c 91 d8 fb 3c ce 54 b3 3d
       0.024776587 0.028149744 0.030742915 0.087564096
000390 e9 d6 af 3d 68 a2 b5 bd 53 ec 87 bd e5 fc 83 3d
       0.08585913 -0.08868867 -0.06636872 0.0644472
0003a0 0a c5 84 3d 1b 79 3f bc 38 05 b0 bd 05 0a 58 bd
       0.06482895 -0.011686589 -0.085947454 -0.05274393
0003b0 ea 94 44 bd 3f 09 1f 3a 75 b8 97 bd 96 d6 1f bd
       -0.047993578 0.00060667464 -0.07408229 -0.039023004
0003c0 e9 e1 97 bd 86 b6 2d 3d a7 2b b3 3d ff 31 4a bd
       -0.07416136 0.042410396 0.087485604 -0.049364086
0003d0 e7 ce 59 3d 34 51 ed bb 35 7b ee bc 47 a3 96 3c
       0.053175833 -0.007242346 -0.029111484 0.018388404
0003e0 2a f3 88 bd dd 76 ab 3d 5d c1 2e bd 65 a9 b4 bd
       -0.06687005 0.08372281 -0.042664874 -0.08821372
0003f0 de 81 ac bc c7 7f 19 3d 43 80 a4 bd 5c 98 94 3c
       -0.02105802 0.037475374 -0.080322765 0.018139057

encoder.feature_extract.mlps.0.linears.1.bias f4 [128]
000000 0e fd 32 3d 32 17 39 3d 47 c6 d5 3b d7 7f 4d 3d
       0.043698363 0.045188136 0.0065238806 0.050170746
000010 b0 fb aa 3d f8 de 3f bb 0e af 5e bc 85 13 1e 3d
       0.08348787 -0.0029277187 -0.013591541 0.038592834
000020 05 9b 2a bd ef 16 60 3d 5b f7 96 3d 08 87 a7 3d
       -0.041651744 0.05470937 0.07371398 0.08180052
000030 57 04 85 3c e1 d1 66 3c b8 8c 94 bb fa 1c 86 bd
       0.016237421 0.014088125 -0.0045333765 -0.065484956
000040 f4 06 ef bc ee 85 8b 3b 9d fe 8d 3d 01 c2 33 bc
       -0.02917812 0.004257909 0.06933329 -0.010971547
000050 18 71 8b bd 54 d6 9e bd b6 fe b1 bd b4 2c 89 bc
       -0.0680868 -0.077557236 -0.086911604 -0.016744949
000060 54 a4 52 3d 07 d8 83 bd 4e ae 49 3c 3b 33 57 3b
       0.051426247 -0.06437688 0.012309624 0.0032836932
000070 e6 52 61 3d 58 39 a9 bd 83 00 29 3d f2 6c 80 bd
       0.0550107 -0.082628906 0.041260254 -0.0627078
000080 ac 0d 6f 3d 62 c6 a9 3b 58 e6 45 bb 8a 5e c5 3c
       0.058362648 0.00518112 -0.003019711 0.024092931
000090 8c 56 45 3d 07 af 65 bd 6f 0c 47 3c 86 55 50 bd
       0.04817824 -0.056075122 0.0121489605 -0.05086281
0000a0 09 95 3b ba 9b 18 62 bd af f0 18 bd 17 c3 f6 3c
       -0.0007155692 -0.055199247 -0.03733891 0.030122323
0000b0 1c 38 b3 bd 73 30 23 3d 68 1d 22 3d 79 e3 9d 3c
       -0.087509364 0.039841127 0.039578825 0.019273506
0000c0 3e 0b a6 3b 26 a3 9c 3d 74 ec 35 3d f1 6f 80 3c
       0.005067258 0.076483056 0.044414952 0.015678378
0000d0 a8 6f 6a bc fb 35 5a 3d 00 13 01 bd 1c cc 6a 3d
       -0.0143088475 0.053274136 -0.03151226 0.05732356
0000e0 b3 2f 53 3d cf 51 5b bd 71 53 64 3d 00 fc 9f bc
       0.05155916 -0.053544816 0.05574364 -0.019529343
0000f0 51 ea be bd 2a a2 3b 3d 1b b4 6a bc 66 0f f1 3c
       -0.09322036 0.04580895 -0.014325167 0.029426288
000100 4b 34 60 3d 60 ea 08 bd e9 29 a6 3d 56 c4 53 3d
       0.05473737 -0.033426642 0.081134625 0.051700912
000110 b1 47 5c 3a c2 14 ae bd c3 0e 98 3d 30 e5 75 3d
       0.0008403017 -0.08500053 0.074246906 0.060033023
000120 ed b4 29 3d f2 9c 0c 3d 49 31 51 bb 21 31 25 bd
       0.04143231 0.034329362 -0.0031920245 -0.040330056
000130 76 52 ac bb 12 02 41 bd ea 5f a9 3d 0b f5 a8 bd
       -0.0052588535 -0.047121115 0.08270247 -0.08249863
000140 24 c2 14 bd 2a 6b a4 bd 84 35 5d 3b 30 20 9f bd
       -0.03631796 -0.080282524 0.0033753822 -0.07769811
000150 b5 ec 2a bb d7 36 16 3d 5c 90 80 3d 8f c1 36 3c
       -0.002608103 0.036673393 0.06277534 0.011154546
000160 56 3b 07 3d cb cd 68 3c aa 3e 8f bd a7 91 a3 3d
       0.03301557 0.014209221 -0.06994374 0.07986765
000170 52 c2 98 bd 76 0b 47 bd 0a 6f c8 bc c0 0f 43 bd
       -0.07458939 -0.048594914 -0.02446701 -0.047622442
000180 9e aa f8 bc 13 e3 29 3d 36 93 90 3d 42 ce 2f 3d
       -0.030354794 0.04147632 0.07059328 0.042921312
000190 4b 0f a2 bd 1e a7 91 bd c7 50 ba bd aa f8 51 3d
       -0.07913073 -0.07111953 -0.09097438 0.051262535
0001a0 fa b7 ae 3c 9f 22 cb 3c 94 87 bb 3c a9 4c 57 3d
       0.021327961 0.024796782 0.022891797 0.052563343
0001b0 38 b6 93 3d 99 f5 1a 3d f7 41 ac bc 1a 56 a0 bd
       0.0721249 0.037831876 -0.021027548 -0.078289226
0001c0 37 86 49 bc 17 48 06 3d d2 93 8a 3b d2 c5 78 3d
       -0.012300066 0.032783594 0.0042290473 0.06073553
0001d0 99 34 94 bb a4 83 2b 3d a7 f8 6f bd 23 cf 20 bd
       -0.0045228717 0.04187359 -0.058586743 -0.03926004
0001e0 68 0a 49 3d 6f d2 47 bd 22 c5 aa 3d 2d 46 80 bd
       0.04908219 -0.04878467 0.08338381 -0.06263385
0001f0 3e d2 ba 3d 38 c8 81 bd 0a f2 11 3d 6d f3 86 bd
       0.09122132 -0.06337017 0.035631217 -0.065893985

encoder.feature_extract.mlps.0.linears.2.weight f4 [128, 128]
000000 9a 4a bb bd 78 e7 81 3d 5d eb b3 bd 75 cf 8c bd
       -0.091450885 0.06342977 -0.08785126 -0.06875507
000010 16 bd ce 3c 89 e1 14 3d 14 a2 76 bd 51 dd 25 bc
       0.025236648 0.0363479 -0.060213163 -0.010123567
000020 82 2f 3a 3c 09 2d 9f bd 5e a5 dc bc da 86 66 bd
       0.011363866 -0.07772262 -0.026934322 -0.05628095
000030 19 6a 8e bb cc 59 9d bd 8a 3b f3 bc a6 b0 05 3d
       -0.004346144 -0.07683143 -0.029691476 0.03263917
000040 ae c1 10 bd 2b de 5c 3d 9a b6 9a bd 37 19 27 bd
       -0.035340957 0.053922813 -0.0755436 -0.04079553
000050 8e 83 02 3d 9c 85 25 3d 07 ca 9f 3b 79 3b 20 bb
       0.03186374 0.040410623 0.0048763785 -0.002444951
000060 68 ab 65 3d ee 4c 79 bc 53 d1 8e 3d 88 f0 3b bd
       0.05607167 -0.015216095 0.06973519 -0.045883685
000070 85 45 a0 bd 0d db b1 3d 5e f7 93 3a 2a 90 8d bb
       -0.0782576 0.08684359 0.0011288931 -0.004320164
000080 6e 9a ba bd 19 49 34 3d d6 65 eb 3c 3d 0e 81 3d
       -0.091114864 0.044015024 0.028735083 0.06301544
000090 3c 8d 96 3d 18 ac 53 bd 73 24 a6 3d af 32 88 bd
       0.07351157 -0.051677793 0.08112421 -0.06650292
0000a0 2d 3a 94 3c 1a c2 86 3c 43 c7 5e 3d 64 26 b6 bd
       0.018094147 0.016449977 0.05438925 -0.08894041
0000b0 e9 03 6a 3d a2 db 6d bb 85 ba 10 3c 6b 92 07 bd
       0.057132635 -0.0036294241 0.008833532 -0.03309862
0000c0 c6 5e 1f bd 39 e6 08 bd 69 0f 4e bd 0a 53 1f 3d
       -0.038908742 -0.033422682 -0.050307665 0.03889755
0000d0 b4 20 83 bd 54 32 06 bc d8 f6 0c 3d d5 79 46 bd
       -0.06402722 -0.00819071 0.034415096 -0.04845603
0000e0 30 f0 b1 3d 1e 26 ab 3b e9 9e d3 3c c2 38 a2 3d
       0.0868839 0.00522305 0.02583261 0.07920982
0000f0 1d 11 9b bd e5 43 ff 3c 83 6e fb bc b6 7f a3 3d
       -0.075716235 0.031160304 -0.030692345 0.07983343
000100 c1 24 80 3d 20 b2 96 3d 6e f3 8d 3d aa 1a 7a bd
       0.0625701 0.073581934 0.06931196 -0.061060585
000110 14 b3 3e bd 98 55 4f 3d 60 c6 c5 3c 38 17 34 bb
       -0.0465575 0.050618738 0.024142444 -0.002747966
000120 84 25 5a 3d be 47 15 3c 97 63 fd 3c e6 10 64 bd
       0.053258434 0.009111343 0.030931277 -0.055680178
000130 5c 51 c7 bc 16 4d b1 bd ce 05 af bc be af 82 3d
       -0.024330787 -0.08657281 -0.021365073 0.063811764
000140 67 5f b3 3c 9b 83 0a bc 36 c2 8a 3b d2 d9 cd 3c
       0.021896077 -0.008454229 0.0042345775 0.025128279
000150 e6 98 12 bc 38 02 8c bd 05 2d a2 3d c6 56 05 bd
       -0.008947587 -0.06836361 0.07918743 -0.032553457
000160 f0 eb 82 bd a1 fc 73 3c 80 47 98 bc db 77 a4 bd
       -0.06392658 0.014891774 -0.018588781 -0.08030673
000170 aa 73 e1 3c 39 86 74 3d a3 fb 24 3d e6 3c 59 bd
       0.027520973 0.059698317 0.040279042 -0.053036593
000180 bb 34 04 bd df f6 cb 3c 75 a8 9f bd 08 61 31 bc
       -0.03227685 0.02489799 -0.077958025 -0.010826357
000190 4f c9 14 3d c2 e3 a5 3c da 91 3b bd 5a 57 4e bd
       0.036324795 0.020250205 -0.04579339 -0.050376274
0001a0 0a d5 97 bd d5 cf af bc 17 18 8a 3d f1 22 48 bc
       -0.07413681 -0.021461407 0.06742876 -0.012215362
0001b0 c3 0e 7e bd fd ad 22 bd f0 35 99 3d 02 6f 0c 3c
       -0.062025797 -0.03971671 0.07480991 0.008571388
0001c0 5f 01 57 3c e3 e0 a3 bd b1 2b a1 bd 8a 75 44 3d
       0.0131228855 -0.08001878 -0.078696616 0.047963656
0001d0 8e f2 97 bd c3 f9 85 bd 01 03 c0 3c 46 8c db bc
       -0.074193105 -0.06541779 0.023438932 -0.026800286
0001e0 4b d2 af 3d a4 65 01 bd 25 62 41 bd 52 47 5e bd
       0.08585032 -0.031591073 -0.04721274 -0.054267235
0001f0 bc 9b 8d bd 27 b4 65 bd fd 2f 11 bd c3 05 ac 3d
       -0.069144696 -0.05608001 -0.035446156 0.083995365
000200 6f c0 0c bd ab 3f b6 3c 3c 04 30 3d 66 93 1e 3d
       -0.034363206 0.022247156 0.04297279 0.03871479
000210 35 53 a6 3c e8 01 33 bc 35 6d b5 3b 5d d9 a9 3c
       0.020303348 -0.010925747 0.0055367 0.02073353
000220 bf bd c1 3c 03 a6 88 3c 80 bc 5c bd 60 e7 a6 bc
       0.023650048 0.016680723 -0.053890705 -0.020374
000230 cc 73 a3 bd 83 a9 80 3c 9a 41 82 3b 1e 37 83 bd
       -0.07981071 0.01570583 0.0039751055 -0.06406997
000240 fa b6 16 3d 93 e5 8a bd 89 6f 4c bd c3 bf 16 3c
       0.036795594 -0.06782069 -0.049911056 0.009200993
000250 1b 7f 60 bd 64 3a 82 3b 21 b5 85 bd fb d3 9f 3d
       -0.054808717 0.003974246 -0.06528688 0.07804104
000260 5c 26 89 3d d3 2a 13 bc 40 2d 98 3d cd 43 4d 3d
       0.066967696 -0.008982378 0.07430506 0.050113488
000270 0d f3 ca 3c 9b a5 54 3d 97 4c e2 bc e9 42 95 3c
       0.024774099 0.051915746 -0.027624412 0.018220382
000280 3a 0d 9c 3c 8c 0f 94 bd 1c c7 b6 3d 10 de 6d bd
       0.019049276 -0.07229528 0.08924696 -0.058073103
000290 19 65 dc bc 38 a1 40 bd fd cb 75 3c da 5d 73 bd
       -0.026903676 -0.04702875 0.015002248 -0.059415676
0002a0 eb 49 49 bc 21 63 17 bd 1f 17 97 3d 6f 8c a1 bc
       -0.01228569 -0.03695977 0.07377457 -0.019720284
0002b0 49 81 0b bd 4c b3 8b bd 47 7e 0f 3c 8b 70 19 3c
       -0.034058843 -0.068213075 0.008758134 0.009365211
0002c0 ed 80 b6 bd 7b 2d 50 bd a3 97 9b 3d 98 86 c0 bc
       -0.089113094 -0.050824624 0.07597282 -0.02350168
0002d0 d5 d7 fc bc d6 2a c7 bc 26 b1 a9 bd ba 01 a6 bd
       -0.030864635 -0.024312418 -0.082857415 -0.08105798
0002e0 cf 74 c0 bb 8d 52 8a 3d e6 f6 9d 3c 41 c2 07 3d
       -0.0058732997 0.067540266 0.01928277 0.03314424
0002f0 f7 31 08 bb 6c 67 92 3c d3 05 82 3d ab c4 9c 3d
       -0.0020781734 0.017871581 0.06348767 0.07654699
000300 93 9f 8f bc a6 5e 19 bd e4 93 bd 3c 43 05 8a bd
       -0.017532146 -0.03744378 0.023141809 -0.06739285
000310 6f f9 95 bd d5 f7 b8 3c c1 cb 4e bd 91 ff 30 bd
       -0.07322966 0.022579113 -0.050487284 -0.043212477
000320 f4 d3 4b 3d 94 ce a8 3d c9 8f a4 bd a6 aa 82 3d
       0.04976268 0.08242527 -0.08035237 0.06380205
000330 12 cb 3d bd f2 36 4e 3d 10 2d 89 3d ad 0e 8f 3d
       -0.04633624 0.05034537 0.06698048 0.06985221
000340 88 10 9b 3d ed 14 0c bc 70 60 87 3d 71 1b 28 bd
       0.075715125 -0.008549911 0.06610191 -0.041041795
000350 7b 44 39 bd 1d 40 ae bd ca f9 e3 3c e8 53 30 bd
       -0.045231324 -0.085083224 0.02782907 -0.04304877
000360 2a 60 32 bd b9 7c 4b bd 7a e2 4a bc 42 60 d4 3c
       -0.04354874 -0.04967949 -0.012383098 0.025924806
000370 0d 3f 73 bd b2 14 8f 3d c7 ba 1e bc 00 c8 96 bd
       -0.0593863 0.06986369 -0.009688086 -0.07362366
000380 ad 11 e8 3c a9 f9 3b bc 37 1b 68 bd eb 48 28 3c
       0.028328741 -0.011473098 -0.05666658 0.010271291
000390 e5 80 5a bc 88 54 8b 3b 12 c4 0c bd 02 ad de 3c
       -0.013336395 0.0042520203 -0.034366675 0.027182106
0003a0 cc c6 88 bd 3a 22 76 bb 7e 06 5d bd d7 4b 50 3d
       -0.066785425 -0.0037557022 -0.05396127 0.050853577
0003b0 08 2c 0f 3d d4 e7 ee bc 9b 03 83 bb 30 ed 9c 3c
       0.0349541 -0.029163279 -0.0039982325 0.019156069
0003c0 5e fd a8 3c 53 bd 23 bc ec f1 8a 3d b5 38 2e 3d
       0.020628627 -0.009993869 0.06784424 0.04253455
0003d0 c0 29 e0 3c e3 d2 79 3d 55 8d 41 bd 7a a0 0c 3d
       0.027363658 0.060992133 -0.047253925 0.03433273
0003e0 24 47 88 3c 44 e9 8f bd 1f 6e f4 3c fb 06 9b bd
       0.016635485 -0.07026914 0.029837666 -0.07569691
0003f0 ea e7 34 bd 43 d1 63 3d 67 ff 20 bd c5 53 63 bd
       -0.044166483 0.05561949 -0.03930607 -0.05549981

encoder.feature_extract.mlps.0.linears.2.bias f4 [128]
000000 6d 7c d7 3c 44 12 4d bd 49 8b 8e bd 25 61 d7 bc
       0.026304448 -0.050066248 -0.0696016 -0.02629144
000010 47 14 36 bc 19 4c 84 bd f9 bf 7c 3d cc 30 b3 bd
       -0.011113233 -0.06459827 0.061706517 -0.08749542
000020 27 36 3d bd dc 67 8d 3d 52 91 20 3d 6c 65 35 bc
       -0.04619422 0.06904575 0.03920109 -0.011071544
000030 86 7e 1a 3d a6 d0 1a bd ff 93 fd 3c 3a 0b 00 bb
       0.03771832 -0.03779664 0.03095436 -0.0019537942
000040 74 87 a9 bd d3 83 09 3d 9e 86 dc 3c 30 13 88 bd
       -0.08277789 0.033572983 0.02691966 -0.06644285
000050 82 88 0c 3d 0a b2 81 3c cf 5b 5f 3d 7e 83 44 3d
       0.03430987 0.015831966 0.054530915 0.047976963
000060 1f 0d 70 bd cb a6 6a 3d f9 a9 92 3d 83 ad 43 3d
       -0.058606263 0.057287972 0.07161326 0.047772896
000070 57 be ec bc b4 bf 3c bd e1 6c 8e bd ef 56 79 bd
       -0.028899355 -0.04608126 -0.06954361 -0.060873922
000080 d5 21 15 3c c8 11 99 3d de 9b 1b 3d e6 2b 8d 3d
       0.0091023045 0.07474095 0.037990443 0.068931386
000090 c9 ba 54 3d b3 34 51 bc e8 0d 9c 3d 8e d8 8e 3d
       0.051935945 -0.012768912 0.0761984 0.06974898
0000a0 56 9e 99 3c 04 4e 99 bd 04 15 3c bd 19 c0 c5 bd
       0.018752258 -0.074855834 -0.04591848 -0.0965578
0000b0 2d e1 9a 3b 33 e1 ba bd ff dd 1d 3d f3 9a 25 3d
       0.00472655 -0.091249846 0.03854179 0.040430974
0000c0 d1 09 a4 3d 87 a3 e6 bc 1a 56 83 3d 32 ae 99 bd
       0.08009685 -0.028154148 0.06412907 -0.07503928
0000d0 a9 40 8e 3a 09 10 b2 bd f2 2a 8d 3c c6 1a ab bd
       0.001085301 -0.08694465 0.017232392 -0.08354716
0000e0 c6 bd 59 bd fb 9a 67 ba 25 0f 2c 3d 2a 90 7e 3d
       -0.053159498 -0.00088350446 0.04200663 0.062149204
0000f0 cb 07 82 39 39 01 a3 bd 4d a4 0a 3c 3b 4a 42 3d
       0.00024801338 -0.079592176 0.008462024 0.047434073
000100 ef 17 bb 3d 06 f8 af bd d4 38 97 bc 9b e0 d8 3c
       0.09135424 -0.085922286 -0.018459715 0.026474288
000110 6c c0 9c 3d cb a5 0e bd 66 7f 99 3d 6b 5b 31 bd
       0.07653889 -0.03482608 0.074950024 -0.043300074
000120 b3 94 40 3d 3c 53 53 3d 9a a4 04 3d 79 da ad bd
       0.04701681 0.05159305 0.03238354 -0.08488936
000130 13 43 02 3d 14 e5 d4 3b 24 0f e8 3c ce cd e1 bc
       0.03180225 0.006497035 0.028327532 -0.027563956
000140 fd ca fd 3c a6 0a 46 bd e3 2e aa bd 93 2d cd bc
       0.030980581 -0.04835 -0.08309724 -0.025046146
000150 45 e2 51 3d 59 06 08 3d 5d 1f 31 bd bf 66 02 bd
       0.051241178 0.03320918 -0.0432428 -0.031836268
000160 0e 24 aa bd a4 7c 23 bd b3 0b 3d 3c b1 91 3d 3d
       -0.08307658 -0.03991379 0.011538434 0.04628152
000170 73 1c b1 3d 00 24 5a 3d 1c b9 1d bd 04 c9 41 3d
       0.086480044 0.05325699 -0.038506612 0.047310844
000180 7a b8 b5 bd f1 e1 ed 3b fc e0 6b 3d c8 a3 88 3d
       -0.08873077 0.0072596003 0.05758761 0.06671864
000190 3a 12 aa b9 66 e2 a6 bc d3 6b 0e bd e5 1c c8 3c
       -0.00032438507 -0.020371627 -0.034770798 0.02442784
0001a0 8f 48 96 3d 81 c9 96 bd cc cf 95 bd 6c 65 36 3d
       0.07338058 -0.073626526 -0.07315025 0.044530317
0001b0 33 d6 6f 3d 10 f0 86 3d 25 8a 8b bd 11 ba 33 3d
       0.058553886 0.06588757 -0.06813458 0.04387862
0001c0 ac c7 a9 bc b5 86 45 3d 25 75 78 bd f6 41 48 3c
       -0.020725094 0.04822417 -0.060658593 0.012222758
0001d0 63 68 7b bc 45 d3 36 bd f7 61 69 3d 44 eb 80 bd
       -0.015344712 -0.044635076 0.056978192 -0.06294873
0001e0 7f 8b 51 bd f2 ca 79 3d c5 8e 2c 3c 43 3f 82 bc
       -0.051158424 0.06098456 0.010532086 -0.015899306
0001f0 c7 11 8d 3d 05 c4 62 3d ed 2e 5c 3d bd 15 80 bd
       0.068881564 0.05536272 0.05375569 -0.06254146

encoder.feature_extract.mlps.0.batch_norms.0.weight f4 [128]
000000 35 38 7f 3f 74 3e 80 3f bf 2d 7f 3f a1 99 80 3f
       0.9969514 1.0019059 0.9967918 1.0046884
000010 d6 ee 7e 3f 76 a0 80 3f c3 65 80 3f 12 db 7e 3f
       0.99583185 1.0048969 1.0031055 0.99553025
000020 94 ed 7f 3f 3b 2c 7f 3f 21 53 80 3f 07 d7 80 3f
       0.9997189 0.99676865 1.0025369 1.0065621
000030 32 0e 80 3f 74 74 7f 3f 71 5e 80 3f ff b1 7f 3f
       1.0004332 0.9978707 1.0028821 0.99880975
000040 62 fe 7e 3f 3f de 7e 3f 6b 6f 80 3f 5b ca 80 3f
       0.9960691 0.9955787 1.0034002 1.0061754
000050 91 a5 80 3f d5 e3 7d 3f 2e 55 80 3f 86 3f 80 3f
       1.0050527 0.9917577 1.0025995 1.0019386
000060 d5 ac 7e 3f fc 2b 80 3f 31 37 80 3f 0c 08 7e 3f
       0.9948247 1.0013423 1.0016843 0.9923103
000070 c3 41 80 3f d7 08 80 3f 1f e3 80 3f f5 63 7f 3f
       1.0020069 1.0002698 1.0069312 0.997619
000080 d8 98 7f 3f 67 30 80 3f 06 d8 7f 3f 15 6d 7f 3f
       0.99842596 1.0014771 0.99939 0.9977582
000090 3e c9 80 3f f8 c9 7d 3f e3 ed 7f 3f 60 8c 7e 3f
       1.0061414 0.99136305 0.9997236 0.99432945
0000a0 1a 92 7f 3f c6 6f 80 3f f8 c7 80 3f 9b 90 7f 3f
       0.9983231 1.003411 1.0061026 0.99830025
0000b0 84 3f 80 3f a6 fc 80 3f 39 2a 80 3f a3 43 80 3f
       1.0019383 1.0077102 1.0012885 1.0020641
0000c0 1a 4c 7e 3f 2f 04 80 3f ca 7c 7e 3f e8 16 7e 3f
       0.9933487 1.0001277 0.99409163 0.992537
0000d0 e4 9f 7f 3f 2f cd 7e 3f 4f 32 80 3f c3 39 80 3f
       0.9985335 0.99531835 1.0015353 1.0017627
0000e0 0e 69 7f 3f 5f 0a 80 3f a2 6f 7e 3f 48 01 81 3f
       0.99769676 1.0003165 0.9938909 1.0078516
0000f0 5b 73 7f 3f 99 7a 80 3f 34 1a 7e 3f 1d e5 7f 3f
       0.99785393 1.0037414 0.9925873 0.99958974
000100 17 5d 7f 3f a9 0e 81 3f 61 5e 7f 3f ea 89 80 3f
       0.9975142 1.0082599 0.99753386 1.0042088
000110 f9 2c 80 3f e5 de 7f 3f f5 14 80 3f 48 63 80 3f
       1.0013725 0.99949485 1.0006396 1.0030298
000120 98 13 80 3f 69 8a 7f 3f 4a 13 80 3f 0a 87 80 3f
       1.000598 0.9982057 1.0005887 1.0041211
000130 7d 0a 81 3f b5 a1 80 3f f0 2d 80 3f d5 cb 7e 3f
       1.0081326 1.0049349 1.0014019 0.99529773
000140 d9 01 7f 3f 4b 21 80 3f 25 af 80 3f ac 0c 80 3f
       0.99612194 1.001016 1.005345 1.0003867
000150 b7 ae 80 3f 50 d5 80 3f ea 75 80 3f 9c a7 7e 3f
       1.0053319 1.0065098 1.0035985 0.994745
000160 4c 41 80 3f fa 2f 7f 3f 78 2d 80 3f 93 7d 80 3f
       1.0019927 0.9968258 1.0013876 1.0038322
000170 20 c6 7f 3f dc 74 7d 3f 1a 20 81 3f cd 8e 7e 3f
       0.9991169 0.9900644 1.0087922 0.99436647
000180 1f 51 7e 3f 89 1b 80 3f 00 27 7e 3f de cb 80 3f
       0.9934253 1.0008403 0.9927826 1.0062215
000190 f9 8c 80 3f e7 7f 7f 3f 4a ed 7e 3f 09 c4 7e 3f
       1.0043021 0.9980454 0.99580824 0.99517876
0001a0 6c 45 80 3f f7 d7 7e 3f 9e 03 80 3f 30 82 7e 3f
       1.0021186 0.99548286 1.0001104 0.994174
0001b0 3a d8 80 3f f4 3b 80 3f c4 b8 80 3f c5 8d 7e 3f
       1.0065987 1.0018296 1.0056386 0.99435073
0001c0 25 a2 7f 3f c4 0b 80 3f 7f 60 80 3f 7d ee 80 3f
       0.9985679 1.000359 1.0029448 1.0072781
0001d0 a9 ef 7f 3f 2d 61 7f 3f e6 9b 80 3f 22 4a 80 3f
       0.9997507 0.99757653 1.0047576 1.0022624
0001e0 bc 3f 80 3f 86 e5 7e 3f 2c aa 80 3f a5 84 7f 3f
       1.001945 0.99568975 1.0051932 0.99811774
0001f0 9c 00 7f 3f e1 6e 80 3f 30 6f 7f 3f fd 5c 80 3f
       0.99610305 1.0033838 0.99779034 1.0028378

encoder.feature_extract.mlps.0.batch_norms.0.bias f4 [128]
000000 18 10 8c 3a f3 cf 17 3c 1a d0 12 bc 7c 9d 28 3a
       0.0010685949 0.009265888 -0.008960748 0.00064321584
000010 d7 57 fe bb 3a d7 90 3b 9b 91 2b 39 0f 07 c5 3b
       -0.007761936 0.0044201883 0.00016362073 0.0060128043
000020 c0 43 e7 3a e8 5d 90 bb c2 9a f9 3b 34 6b 98 3b
       0.0017644092 -0.0044057257 0.0076173255 0.0046514515
000030 e1 7c b2 bb 63 9c 54 3a c2 6b 5a bb 8e 17 94 3b
       -0.0054470156 0.00081104616 -0.0033328389 0.0045194095
000040 d8 1e 34 bb de 09 87 3b 36 d8 3b 3a 10 61 3b 3b
       -0.0027484205 0.0041210493 0.0007165702 0.002859179
000050 b4 b0 99 3b f2 99 1e ba 4b 3e d0 3b 6c 3d 0c 3b
       0.004690254 -0.00060501613 0.006355082 0.0021398915
000060 c1 ab a7 bb ea 8e a6 b9 81 87 6a ba db 19 e4 bb
       -0.00511691 -0.00031768467 -0.0008946583 -0.00696109
000070 c7 5d 6e 3b 3c ad ad ba 43 8c 6c 3b a7 47 4f bb
       0.0036371814 -0.001325048 0.0036094345 -0.0031628401
000080 be 6e 24 3b 94 cb 4c 3b 01 ae 3c 3b a7 cc aa 3b
       0.0025090422 0.0031249272 0.0028790238 0.0052123847
000090 1f b1 23 bb 44 12 91 bb 75 d2 55 3b b4 c4 a9 bb
       -0.0024977399 -0.0044272263 0.0032626663 -0.0051809195
0000a0 40 8e 8d b9 9b 93 c8 3b cf ca 80 3b ae a6 c3 3a
       -0.000269996 0.0061211116 0.0039304267 0.0014926994
0000b0 66 3b de 3b ef 1c 4f 3a f1 01 85 b9 c6 b0 31 bb
       0.006781983 0.0007900735 -0.00025369183 -0.0027113422
0000c0 ed ed 29 bb b6 5e 51 ba 41 55 5e 3b 45 6f 46 bb
       -0.0025929168 -0.00079868303 0.0033925327 -0.0030278724
0000d0 6e 39 44 bb eb 88 54 ba bf 24 f0 3b dc 36 96 3a
       -0.0029941457 -0.00081075606 0.007328599 0.0011460441
0000e0 b3 0c 88 bb e6 37 18 bc 60 53 04 3b b5 92 c9 3b
       -0.0041519045 -0.009290671 0.0020191297 0.006151522
0000f0 44 dc 38 3a f0 ec 71 bb 59 14 19 bb 33 2c 21 bb
       0.0007051865 -0.0036914907 -0.0023358075 -0.0024592995
000100 2d 3e d4 3b 61 81 1f 3b 80 c8 9d bb b3 65 6d 3b
       0.0064771385 0.002433859 -0.004815161 0.0036223948
000110 9e 9a 9b 3a 0c 95 16 ba 2a e7 0a b8 ef 8c 90 3b
       0.0011871641 -0.00057442556 -3.3117052e-05 0.004411332
000120 9f 2f 4b 3b d6 0a 06 3a 53 76 2c bc 01 09 db 3a
       0.0031003726 0.0005113309 -0.010526258 0.0016711057
000130 f2 c7 b4 bb 9b bc cf 3b 28 78 fa ba e9 30 73 bb
       -0.0055169994 0.006339622 -0.0019109296 -0.003710801
000140 5d be 53 3b 5e 2d 04 bc 6a 99 0d 3a f8 11 d2 3a
       0.003230951 -0.008067457 0.00054015836 0.0016027084
000150 a5 fd b8 ba 04 3e ac 3b 70 6d 79 bb 5d 91 fe bb
       -0.0014113678 0.0052564163 -0.0038059615 -0.0077687935
000160 19 7d f2 ba cb ad 64 bb 85 b6 af 3b b1 58 df 3b
       -0.0018500417 -0.0034893628 0.005362334 0.0068159928
000170 a3 6a e6 b8 7a 7f 03 bc e9 bd 09 3b bb 48 ea bb
       -0.00010987117 -0.008025998 0.0021017736 -0.0071497834
000180 96 b3 82 b9 5f 14 27 bb 15 71 dc bb 4f f0 05 bb
       -0.00024929334 -0.002549432 -0.0067273476 -0.0020437425
000190 83 2d 1f 3b 05 6a 1a bb 8d 0e 3d 3a 3e 4e 04 3c
       0.0024288602 -0.0023561728 0.0007211946 0.008075295
0001a0 0a 8d 3e 3b 97 b3 88 bb 17 2c f7 bb 87 6b 8c ba
       0.0029075765 -0.0041717994 -0.0075430977 -0.0010713198
0001b0 e6 6f f0 b8 eb ed 03 3b 3e fe 96 bb fc c6 05 bb
       -0.000114649345 0.0020130824 -0.0046079447 -0.0020412793
0001c0 78 c6 09 bc f8 6e 5e 3b bc fe b0 39 f9 f0 6c 3b
       -0.008409135 0.0033940654 0.00033759128 0.0036154373
0001d0 44 ea 81 ba a6 d1 84 bb 2c f6 27 3b 0d 2e 69 3b
       -0.0009911736 -0.0040533124 0.0025628908 0.0035580427
0001e0 06 67 b8 ba cd 34 62 ba 41 40 98 3b 06 39 5c bb
       -0.0014068789 -0.0008629084 0.0046463315 -0.0033603325
0001f0 a1 16 f1 ba 8b af 40 bc 62 c0 c8 3a 52 cb f4 ba
       -0.0018393585 -0.011760603 0.0015316124 -0.0018676317

encoder.feature_extract.mlps.0.batch_norms.0.running_mean f4 [128]
000000 6a 12 82 3d d8 80 a8 3e 61 7b 76 be ca 8d 13 3e
       0.063511685 0.329108 -0.24070503 0.14409557
000010 fc ea 46 be 2d 89 41 bf 35 e3 dc 3d 24 49 7a bf
       -0.19425577 -0.7559994 0.10785524 -0.97767854
000020 29 51 0d 3f 73 1f 72 bf b5 82 39 bf 76 70 41 bf
       0.55201966 -0.9457924 -0.7246507 -0.75562227
000030 24 4b 55 3f 48 64 51 3f c6 25 58 3f 72 9e 70 bf
       0.8331778 0.8179364 0.8443264 -0.9399177
000040 d0 bf 92 be 8d 52 d6 3e 0f 54 61 bf 74 15 89 3d
       -0.28661966 0.41859856 -0.8801889 0.06693545
000050 64 ad 68 3f 48 bf a0 3e a0 de 6e 3f d7 68 fe 3c
       0.90889573 0.31395936 0.9330845 0.03105585
000060 60 ff a2 3f b6 92 97 3f 6b dd 01 3f b1 ff a7 3e
       1.2734184 1.1841648 0.5072848 0.32812265
000070 ac db 50 be 52 f2 89 3e 0d 6b b3 be 09 55 72 bf
       -0.20396298 0.26942688 -0.3504261 -0.94661003
000080 f9 c3 02 bf f7 86 9b bf 81 d3 ff 3d 4d 4a f9 3d
       -0.5108028 -1.2150563 0.12491513 0.12172375
000090 0f 12 39 be 45 a3 9d bd 42 14 10 3e 87 c3 dd bb
       -0.18073295 -0.07697157 0.14070228 -0.0067676934
0000a0 17 fd 9e bd 10 0c 0f 3f ad 56 bf be e9 e7 4e bf
       -0.07763117 0.5587778 -0.37370816 -0.80822617
0000b0 f6 39 29 bf 5b a9 be 3c e7 8c 2d 3e a5 fe 87 bf
       -0.66104066 0.023274114 0.16948281 -1.0624586
0000c0 1b a4 c6 3e d6 b6 3e bf 51 0b c6 3d fa dd 97 3e
       0.38797078 -0.74497736 0.09670127 0.29661542
0000d0 ef 22 f9 be 27 2f c9 bd 36 8e ad be c2 7a 40 3d
       -0.48659465 -0.09823447 -0.3389756 0.04699207
0000e0 cc 9e 3f 3f c7 a3 10 3f 80 6e 31 3f ff d4 84 3f
       0.7485168 0.56499904 0.69309235 1.0377501
0000f0 a3 1e 08 3f f1 de 55 be d1 ed 22 3e 4a d2 d8 3e
       0.5317175 -0.20885827 0.15911032 0.42347938
000100 2d 80 5a 3f 93 2b 40 be 03 27 15 3f fe 4a a7 be
       0.8535183 -0.18766622 0.5826265 -0.32674402
000110 10 36 6d be 33 b5 23 3e 7e 10 f5 bd fe 8a 5b bf
       -0.23165154 0.15987091 -0.11966036 -0.8575896
000120 e2 ae 3c 3f 69 1e 05 be a1 66 79 3f 0b 93 f8 3e
       0.7370435 -0.12999882 0.97422224 0.48549685
000130 11 03 df 3e c5 8c 29 3f 1b 4e 36 3f 55 91 9d be
       0.43557027 0.6623042 0.7121293 -0.30774942
000140 2a df 63 3f ca 6c 70 3e d5 69 d6 3e 11 7c 50 bf
       0.89012396 0.23479 0.41877618 -0.8143931
000150 08 c0 ee be 00 f6 2a 3f e5 81 8b be 33 77 a4 3e
       -0.46630883 0.66781616 -0.2724754 0.32122192
000160 bd 07 8c bf 7a c6 45 bf 3c fc bc 3e 7f 90 d7 be
       -1.0939862 -0.77255976 0.3691119 -0.4210243
000170 ce 42 53 bf e0 be 93 3d 23 e9 21 bf 23 a2 17 3f
       -0.8252381 0.07214141 -0.63246363 0.59231776
000180 8e d2 5c 3e 40 6a 8c be 9b 62 38 bf f5 6a fa 3e
       0.21564695 -0.27424812 -0.7202546 0.48909727
000190 4b 5b 3e 3e 61 a4 35 3d f5 71 12 3f 7f da 3e be
       0.18589513 0.044346217 0.57205135 -0.18638037
0001a0 df 38 9a bf af e3 8b bf 8a 09 af be 33 46 4e 3e
       -1.2048606 -1.0928859 -0.34186965 0.20143966
0001b0 b7 a5 56 be c7 9b 3b 3f c3 32 6a bf 3a 51 2c 3e
       -0.20961653 0.7328457 -0.91483706 0.1682786
0001c0 03 10 b7 3e c3 7c 88 3e d6 77 a9 be 2b 49 b2 bb
       0.35754403 0.26657686 -0.3309924 -0.005440851
0001d0 04 62 6a 3e c0 38 4f be 90 e7 c2 be 30 6c 08 3f
       0.22888952 -0.20236492 -0.38067293 0.5329008
0001e0 92 4d 15 3f 10 61 f0 be fc 94 c8 3c 7a dc 35 be
       0.5832149 -0.46949053 0.024485104 -0.17759886
0001f0 1c a9 c9 3e a4 91 0e 3f 44 08 dd 3b 5f f6 c9 bd
       0.39386833 0.5569098 0.00674537 -0.09861445

encoder.feature_extract.mlps.0.batch_norms.0.running_var f4 [128]
000000 0c ca 06 3c 27 f1 42 3c 15 ce 8d 3b 3c 90 38 3b
       0.008226883 0.0118983155 0.0043275454 0.0028162142
000010 61 e3 03 3c b7 b9 34 39 53 09 9f 3a 35 13 8e 3c
       0.008049817 0.00017235322 0.0012133516 0.017343143
000020 a2 af 87 3c 32 84 a2 3c 04 5d d1 3b 88 7a ad 3c
       0.01656324 0.019838426 0.006389262 0.021176592
000030 ae 82 a5 3b 5c e1 82 3c cb f9 77 3b 16 f1 20 3c
       0.0050509786 0.0159766 0.0037838097 0.009823104
000040 67 9f 86 3b 07 8e 56 3c ce 14 cd 3b d4 3e 81 3c
       0.0041083577 0.013095385 0.0062585836 0.01577703
000050 9a 4d 85 3b 66 9b 0f 3c 68 8d 25 3c d2 9a a2 3c
       0.0040680887 0.008765077 0.010104515 0.019849215
000060 a6 75 a8 3c fd 43 b6 3c 78 03 1f 3c 85 34 d8 3b
       0.020563912 0.022249216 0.009705417 0.0065980577
000070 6d 63 93 3b a6 30 4c 3c cb 66 48 3b 57 c6 b5 3b
       0.0044979365 0.012462771 0.0030578848 0.0055473256
000080 26 fc 6e 3b fc 39 a5 3c eb 88 31 3b 88 fa 15 39
       0.003646621 0.02016925 0.0027089666 0.00014303077
000090 cf 2c 12 3c 07 20 02 3c 2e b0 66 3c 5f 38 70 3c
       0.008921816 0.007942206 0.01408009 0.014661877
0000a0 bd 6f 71 3c b7 af 51 3c e4 dd 11 3c 1a 9a 01 3c
       0.014736113 0.012798241 0.0089030005 0.007910276
0000b0 6a 9c 85 39 63 16 2e 3c 84 0e 8f 3c c1 bf e5 3b
       0.00025484274 0.010625455 0.017462976 0.0070113842
0000c0 65 a0 41 3b f7 a9 98 3c 60 59 0d 3b 1b 42 b9 3c
       0.0029545065 0.018635733 0.0021568164 0.02261453
0000d0 c0 7c 6b 35 94 27 b5 3a 49 20 e0 3b 38 b1 3d 3c
       8.7725857e-07 0.0013820999 0.006839786 0.011577897
0000e0 2b 89 95 3c 3e 03 a1 38 85 aa 8e 3b 15 48 89 3c
       0.018253883 7.677682e-05 0.0043538236 0.016758004
0000f0 4d 82 71 3b 68 52 93 3c c9 52 40 37 41 6b b3 3b
       0.0036851347 0.01798363 1.1463367e-05 0.005475432
000100 24 3b 98 3c 39 cc 17 3c eb 6c b6 38 7b 24 ab 3b
       0.018582888 0.009264999 8.698724e-05 0.0052228547
000110 2f 04 dd 3b b3 2e 0f 3b 2d 4e 99 3c be 68 14 3b
       0.0067448835 0.0021847903 0.018714035 0.002264544
000120 94 30 8c 3c 45 ff ba 3b 27 60 65 3c 7d ee ea 3b
       0.017113008 0.0057067 0.013999975 0.0071695433
000130 0f cc 95 3a 12 68 9f 3c 99 99 13 3c 9b 5f 16 3b
       0.0011428612 0.019458804 0.0090087885 0.002294517
000140 cc 8e 7f 3c 65 66 c0 3a b2 2c 3b 3b 07 f6 d6 3a
       0.01559801 0.0014678953 0.0028560576 0.0016400226
000150 e8 fb 51 3b 7f 23 d4 3b 68 d0 5f 3c a0 b4 d0 3b
       0.0032041017 0.006473958 0.013660528 0.0063691884
000160 c4 b4 9d 3c fe 4f 87 3c 61 75 ba 39 68 da 96 39
       0.019251235 0.016517635 0.0003556414 0.00028772955
000170 27 33 d1 3a 16 5e 1f 3c 9f 7f c0 38 e3 65 99 3c
       0.0015960679 0.009727022 9.179045e-05 0.018725341
000180 21 73 0c 3c ea a6 73 3b b8 82 43 39 f5 d1 a1 3c
       0.008572371 0.0037178346 0.00018645346 0.019753436
000190 fb 84 01 3b c7 07 b0 3c 44 c4 99 3c d1 cc 1a 3c
       0.00197631 0.021488084 0.018770345 0.009448246
0001a0 e4 f1 60 3c 59 2a 12 3c 1e 60 bc 36 aa 10 e1 3b
       0.013729546 0.008921229 5.614026e-06 0.0068684416
0001b0 df b0 94 3b 03 d1 5f 3c 8d 2c f5 3b f2 b8 4b 3c
       0.0045376862 0.013660672 0.0074821175 0.012434231
0001c0 65 9b 8f 3a 73 d4 5a 3a 19 d3 a8 3b 0a cc 4c 3a
       0.0010956345 0.00083476974 0.005152118 0.00078123866
0001d0 83 d0 b8 3a 43 42 57 3b 7e 26 34 3a 1b 44 d6 39
       0.0014100227 0.0032845892 0.0006872191 0.00040868003
0001e0 31 bb 66 3c cd a8 c7 3b ef bd dc 3a 36 10 dc 3b
       0.014082716 0.0060931207 0.0016841273 0.0067157997
0001f0 b1 fd 05 3b 75 91 78 37 db 43 d8 37 af 93 eb 3b
       0.0020445401 1.4815819e-05 2.5780804e-05 0.007189236
