FJSP_RealWorld/saved_network/FJSP_J15M15/best_value0/policy_mch.pth (torch_old, 271482 bytes, 14 tensors)

bn.weight f4 [128]
0	0x3f7ec623	0.9952108
1	0x3f801fa5	1.0009657
2	0x3f804d50	1.0023594
3	0x3f80378b	1.001695
4	0x3f8022c0	1.0010605
5	0x3f7e4d86	0.9933704
6	0x3f7fb213	0.99881095
7	0x3f8021d9	1.001033
8	0x3f803925	1.0017439
9	0x3f7e2d18	0.9928756
10	0x3f804749	1.0021755
11	0x3f7f65e8	0.9976487
12	0x3f7f1e4b	0.996556
13	0x3f7f9373	0.99834365
14	0x3f7e2e49	0.99289376
15	0x3f7eab8e	0.9948052
16	0x3f8009a6	1.0002944
17	0x3f8083db	1.0040239
18	0x3f80cd11	1.0062581
19	0x3f80b21e	1.0054357
20	0x3f80453f	1.0021132
21	0x3f800838	1.0002508
22	0x3f7f011b	0.9961106
23	0x3f7d8a05	0.99038726
24	0x3f8003ba	1.0001137
25	0x3f7eec55	0.99579364
26	0x3f807571	1.003584
27	0x3f809267	1.0044678
28	0x3f7db5e5	0.99105674
29	0x3f7e9278	0.99442244
30	0x3f803c91	1.0018483
31	0x3f7e51f5	0.99343807
32	0x3f802b03	1.0013126
33	0x3f80f4e2	1.0074732
34	0x3f7db26f	0.99100393
35	0x3f8026d5	1.001185
36	0x3f7fe654	0.9996083
37	0x3f7fd845	0.99939376
38	0x3f7f1b97	0.99651474
39	0x3f802101	1.0010072
40	0x3f7f03e6	0.99615324
41	0x3f8086ee	1.0041177
42	0x3f803d9e	1.0018804
43	0x3f806b8b	1.003282
44	0x3f8066bf	1.0031356
45	0x3f8057f5	1.0026842
46	0x3f7eca55	0.99527484
47	0x3f805793	1.0026726
48	0x3f7e34fe	0.9929961
49	0x3f7ffa7d	0.9999159
50	0x3f809c45	1.004769
51	0x3f801725	1.0007063
52	0x3f80a704	1.0050969
53	0x3f806e8c	1.0033736
54	0x3f7f20c2	0.9965936
55	0x3f80b6d5	1.0055796
56	0x3f7f2366	0.9966339
57	0x3f80395e	1.0017507
58	0x3f80cbbf	1.0062178
59	0x3f807db0	1.0038357
60	0x3f807ff6	1.003905
61	0x3f7ebfaa	0.99511206
62	0x3f803233	1.001532
63	0x3f7e9837	0.9945101
64	0x3f8056ed	1.0026528
65	0x3f7e16b3	0.99253386
66	0x3f7f4432	0.9971343
67	0x3f803a17	1.0017728
68	0x3f7e8ee5	0.9943679
69	0x3f802a5d	1.0012928
70	0x3f804eac	1.0024009
71	0x3f7f87f9	0.9981685
72	0x3f7e0006	0.99218786
73	0x3f80c559	1.0060226
74	0x3f807e22	1.0038493
75	0x3f8017e9	1.0007297
76	0x3f7e1b80	0.9926071
77	0x3f7e50f2	0.9934226
78	0x3f803ff3	1.0019516
79	0x3f808874	1.0041642
80	0x3f7e9b5f	0.9945583
81	0x3f7f68fd	0.99769574
82	0x3f7f19bf	0.9964866
83	0x3f802de4	1.0014005
84	0x3f8020d9	1.0010024
85	0x3f80b790	1.0056019
86	0x3f80ca62	1.0061762
87	0x3f7e091a	0.9923264
88	0x3f7de403	0.99176043
89	0x3f7f8d19	0.9982467
90	0x3f7e75d9	0.9939857
91	0x3f80c818	1.0061064
92	0x3f7f159b	0.9964234
93	0x3f7f511f	0.99733156
94	0x3f8028e2	1.0012476
95	0x3f8115e4	1.0084805
96	0x3f8096d7	1.0046033
97	0x3f805114	1.0024743
98	0x3f804653	1.0021461
99	0x3f7ec116	0.99513376
100	0x3f7f54d5	0.9973882
101	0x3f7ee174	0.99562764
102	0x3f7e8ea2	0.9943639
103	0x3f807fd6	1.0039012
104	0x3f805271	1.0025159
105	0x3f808f07	1.0043648
106	0x3f80556d	1.002607
107	0x3f804999	1.002246
108	0x3f7dd26e	0.99149215
109	0x3f801d29	1.0008899
110	0x3f7e74ea	0.99397147
111	0x3f801b38	1.0008307
112	0x3f80599b	1.0027345
113	0x3f80a8b8	1.0051489
114	0x3f7e8e16	0.99435556
115	0x3f801317	1.0005826
116	0x3f8082ed	1.0039955
117	0x3f7f4236	0.99710405
118	0x3f7fe078	0.9995189
119	0x3f8079b8	1.0037146
120	0x3f7e1d48	0.9926343
121	0x3f80682f	1.0031794
122	0x3f7e9d70	0.9945898
123	0x3f7e5c1a	0.99359286
124	0x3f7f98b7	0.998424
125	0x3f806172	1.0029738
126	0x3f7d6ab4	0.9899094
127	0x3f80ae88	1.0053263

bn.bias f4 [128]
0	0x3b709a24	0.0036712969
1	0x3be29d1d	0.006915702
2	0x3bae0612	0.005310782
3	0xbc021048	-0.007938452
4	0x3b47102e	0.0030374634
5	0xbbd8ddba	-0.0066182287
6	0x3b432564	0.0029776925
7	0xbbba6ce6	-0.0056892512
8	0xbbb824d4	-0.0056196246
9	0xbb1e1d4d	-0.0024126351
10	0x3b40e819	0.0029435216
11	0x3c43caed	0.011950237
12	0x3c3001ec	0.010742646
13	0x3ad21ec7	0.0016030901
14	0x3b3f30a9	0.002917329
15	0xbb9d9af1	-0.00480973
16	0x39f93129	0.00047529608
17	0xbc026c8c	-0.00796045
18	0xbb6fdfb9	-0.0036601855
19	0xb73d3780	-1.12782e-05
20	0x3b3c0075	0.0028686796
21	0xb781a4fe	-1.5454829e-05
22	0xbbc55a69	-0.0060227406
23	0xbb8b30f2	-0.004247778
24	0xbc31863b	-0.010835226
25	0xbb13be1a	-0.002254373
26	0x3c271a0e	0.010199083
27	0x3acf6a29	0.0015824485
28	0xb9de6ca8	-0.00042424095
29	0xbb06d489	-0.0020573458
30	0x3bdbe55a	0.0067106904
31	0xbaa8ac13	-0.0012868665
32	0x3a593876	0.00082863064
33	0xbc21c3f8	-0.009873383
34	0xbb589b75	-0.0033051644
35	0x3c3b194c	0.011419605
36	0xb8b0549d	-8.4080944e-05
37	0x3c1448d1	0.009050564
38	0xb9a329a2	-0.00031120802
39	0x3acc1e07	0.0015572914
40	0x3beb923c	0.0071890634
41	0xbbeb6505	-0.0071836733
42	0xbbb8f8fd	-0.005644916
43	0x3b8c8c34	0.0042891745
44	0xbad3de8f	-0.001616435
45	0xbc31f320	-0.010861188
46	0x3b5ca5ff	0.0033668277
47	0xbc115daa	-0.008872429
48	0x3b7997f4	0.0038084956
49	0xbc377ff0	-0.011199936
50	0x3bd3cabf	0.006463378
51	0xbba77769	-0.0051106703
52	0xbb7d8830	-0.003868591
53	0x3b9775dd	0.0046222047
54	0x3b52cd10	0.0032165684
55	0xbc12bfb1	-0.008956836
56	0xbb042735	-0.002016497
57	0x3a766326	0.00093989295
58	0xbb7753d8	-0.0037739184
59	0xb9ded843	-0.00042504267
60	0x3b9976be	0.0046833446
61	0x3b68e825	0.003553876
62	0xbaa9c8a3	-0.0012953471
63	0xbb910614	-0.0044257734
64	0x3b4ca732	0.0031227586
65	0x3bad2e93	0.005285093
66	0x3c509797	0.012731454
67	0x3b14fcbc	0.002273365
68	0xbacee097	-0.0015783486
69	0xbb128660	-0.0022357926
70	0x3b35057b	0.0027621675
71	0x3aa68c9c	0.00127067
72	0x3a914ba6	0.0011085167
73	0xbb328414	-0.002723937
74	0x3b875fd7	0.004131298
75	0xbb977708	-0.004622344
76	0xbb98289d	-0.0046435134
77	0x3c3748ec	0.0111868195
78	0x3b129483	0.0022366352
79	0xbb1a2d17	-0.002352541
80	0x3adbcffb	0.0016770357
81	0x3c1651e0	0.009174794
82	0xb9e6df55	-0.00044035414
83	0x3bb555cd	0.00553391
84	0xbbb87dd2	-0.0056302333
85	0xbbc42fbb	-0.005987135
86	0xbc033416	-0.008008024
87	0x3b9d4f5a	0.004800719
88	0xba0540ea	-0.00050832203
89	0xbc309b5b	-0.010779227
90	0xba95ee94	-0.00114389
91	0xbb8bfd56	-0.0042721434
92	0xba94e2a7	-0.0011359052
93	0x3ba1f5dc	0.004942639
94	0xbc25bf18	-0.010116361
95	0x3bb53039	0.00552943
96	0xbb2d1af3	-0.0026413768
97	0xbb5545a6	-0.0032542734
98	0x39d9099f	0.00041396634
99	0x3bc828dc	0.0061083864
100	0xbad067bb	-0.0015900055
101	0x3af5d9c1	0.0018756912
102	0xbadb34fa	-0.0016724162
103	0xbb36fe5f	-0.0027922613
104	0x3c1e0e21	0.009646923
105	0x3bc78d68	0.006089855
106	0xbb031da7	-0.0020006688
107	0x3b646e12	0.0034855646
108	0xba6e9d60	-0.000910243
109	0x3c3902b6	0.01129215
110	0xbbf877a9	-0.007582624
111	0x3bde3f3c	0.0067824405
112	0xb9b2b43b	-0.00034085088
113	0x3ba834aa	0.005133231
114	0xb9cc85cb	-0.00039009596
115	0x3c0ae769	0.008478024
116	0x3b9c2c1d	0.004766001
117	0x3bd8f90c	0.0066214856
118	0x3bd1022b	0.0063784323
119	0x3bcc539b	0.0062355525
120	0xbbf0cb12	-0.0073484266
121	0xbb3f5581	-0.0029195251
122	0xba50d1c3	-0.0007965827
123	0xbc24378d	-0.01002301
124	0x3c0b71b6	0.0085109975
125	0x3bef8448	0.0073094703
126	0xbc1261da	-0.008934462
127	0xbb4bc348	-0.0031091738

bn.running_mean f4 [128]
0	0xbd1f3c5c	-0.038875923
1	0xbdb9edd3	-0.090785645
2	0x3c46325e	0.012096969
3	0x3e2ba84b	0.16763417
4	0x3d0eaba5	0.03483166
5	0x3bfd4809	0.0077295345
6	0xbd659ece	-0.05605965
7	0x3e1e3afb	0.15452187
8	0xbe093462	-0.13398889
9	0xbdca73b0	-0.09885347
10	0xbda8fa8c	-0.08250913
11	0xbcf3b10c	-0.029747508
12	0xbe208755	-0.15676625
13	0xbb9ec67c	-0.0048454385
14	0x3d8e740a	0.069557264
15	0xbd6ea70a	-0.05826477
16	0xbdb00fa3	-0.085967325
17	0xbc870f5e	-0.01648682
18	0xbc5494df	-0.012974947
19	0x3d45bcad	0.04827564
20	0x3da20569	0.07911188
21	0xbde715a6	-0.11283426
22	0xbe1aceed	-0.15117998
23	0xbe00725b	-0.12543623
24	0x3e1aed7a	0.15129653
25	0x3d8afd31	0.06786574
26	0xbd7e2d3e	-0.062054865
27	0xbd35ad95	-0.044354994
28	0xbe67c46c	-0.22633523
29	0x3d6a0822	0.057136662
30	0xbd8f299c	-0.06990358
31	0x3b34b021	0.0027570801
32	0xbd5cafec	-0.05387871
33	0x3dd2db78	0.102957666
34	0x3e0607f9	0.13088979
35	0xbe2ec06d	-0.17065592
36	0xbe02ba13	-0.12766294
37	0xbcf0aeeb	-0.029380282
38	0xbcc7d83e	-0.024395104
39	0xbe3082f9	-0.17237462
40	0xbdb0be7e	-0.086300835
41	0x3b065269	0.0020495898
42	0x3d285808	0.04109958
43	0xbe349807	-0.17636119
44	0xbd776406	-0.060398124
45	0x3de8b37a	0.113623574
46	0x3dcdec28	0.10054809
47	0x3defb0dd	0.11703656
48	0x3d0ae2ca	0.03390769
49	0x3de0530c	0.1095334
50	0xbc3a6ce0	-0.011378497
51	0x3db916c6	0.09037547
52	0x3ca27e49	0.019835608
53	0xbdc881b4	-0.09790364
54	0xbd939733	-0.07206573
55	0x3e210821	0.15725757
56	0x3db563be	0.08856915
57	0x3dbc9f9b	0.0921013
58	0x3d883d19	0.066522785
59	0x3dddb8bd	0.10826252
60	0xbdaf1cd0	-0.085504174
61	0xbce0117d	-0.027352089
62	0x3dfed51b	0.124429904
63	0xbd9c988b	-0.07646283
64	0xbd747c50	-0.059688866
65	0x3dc27695	0.09495274
66	0xbded16a3	-0.11576583
67	0xbd87dfe9	-0.06634504
68	0x3dcfac80	0.10140324
69	0x3dfcb964	0.12340048
70	0xbe05f8f3	-0.13083248
71	0xbd9c79cf	-0.07640421
72	0x3e3b0f29	0.18267502
73	0x3d5bd3b8	0.053668708
74	0xbd5a4fad	-0.05329864
75	0xbda3eeb1	-0.08004511
76	0xbdb8c5ed	-0.09022126
77	0xbce0c738	-0.027438745
78	0xbe1da4c5	-0.15394886
79	0x3e4c0176	0.19922432
80	0x3d0aafdf	0.03385913
81	0xbe23663b	-0.15956967
82	0x3dc37720	0.09544206
83	0xbcd31774	-0.02576802
84	0x3e2c86a4	0.16848236
85	0xbddad2b8	-0.10684723
86	0x3d8f859b	0.07007905
87	0x3e39a84d	0.18130608
88	0xbe550909	-0.20804228
89	0x3e3a9360	0.18220282
90	0xbe19372d	-0.14962454
91	0x3d64a9bc	0.055825934
92	0xbd3fddd7	-0.046842422
93	0xbdb49d87	-0.088191085
94	0x3d4a26f4	0.049353555
95	0xbdcb171c	-0.09916517
96	0x3c2b6d70	0.010463104
97	0x3d7352dd	0.059405196
98	0x3d164233	0.036684226
99	0x3d2629d5	0.040567238
100	0x3d96982a	0.07353242
101	0x3daa33a1	0.08310629
102	0xbe195c0c	-0.1497652
103	0xbc52d419	-0.012867951
104	0xbe33886b	-0.17532508
105	0xbdbd5398	-0.0924446
106	0xbe2eae47	-0.17058669
107	0xbdc74a84	-0.097310096
108	0xbe4745ad	-0.19460173
109	0xbddba8dd	-0.107255675
110	0x3e448c61	0.19194175
111	0x3e3b1dc7	0.18273078
112	0xbe4e76a7	-0.2016245
113	0x3d021ad3	0.031763863
114	0x3d9f87a4	0.07789543
115	0xbe41ea28	-0.1893698
116	0x3d27ccba	0.040966727
117	0xbe05049a	-0.12990037
118	0xbdaf378f	-0.08555519
119	0xbdf64afb	-0.1202602
120	0xbe0ffe2d	-0.14061804
121	0x3e090d4f	0.13383983
122	0xbe535511	-0.20637919
123	0xbd83a8aa	-0.064286545
124	0xbc91c576	-0.017794352
125	0x3e17b876	0.1481646
126	0xbe27ab46	-0.1637393
127	0x3e11dbfc	0.14244074

bn.running_var f4 [128]
0	0x37d7d4f5	2.5729163e-05
1	0x3987f02b	0.00025928146
2	0x382a83ff	4.065409e-05
3	0x3a04acc3	0.0005061144
4	0x3951bdfb	0.00020002566
5	0x38ab8ed0	8.180516e-05
6	0x393abada	0.0001780795
7	0x39948f9e	0.00028335763
8	0x39b39669	0.00034253605
9	0x3923f5c3	0.00015636445
10	0x38cbb379	9.713224e-05
11	0x3880f58c	6.149252e-05
12	0x398a33dd	0.00026360052
13	0x369ae302	4.615985e-06
14	0x3894bb7c	7.0921116e-05
15	0x397dd562	0.00024207451
16	0x3949c321	0.00019241545
17	0x392d2afa	0.00016514576
18	0x393ebcf9	0.0001819021
19	0x38e90bb3	0.00011112485
20	0x38ba4c41	8.8833745e-05
21	0x39c687f1	0.00037866787
22	0x39ae5505	0.0003325121
23	0x393026eb	0.00016799166
24	0x39c4791f	0.00037474275
25	0x38811c04	6.156418e-05
26	0x3870e5fb	5.7434645e-05
27	0x3818af2e	3.6402773e-05
28	0x3a1eef15	0.00060628477
29	0x38a91d54	8.064011e-05
30	0x38684ea8	5.5386365e-05
31	0x39676063	0.00022065784
32	0x38837f69	6.270299e-05
33	0x3975549c	0.0002339654
34	0x3a065637	0.00051245413
35	0x39a4375c	0.00031321764
36	0x396258f0	0.00021586171
37	0x382e579b	4.156642e-05
38	0x394ca1e7	0.0001951527
39	0x39a4cb8d	0.00031432175
40	0x397be486	0.00024022357
41	0x38d39bb8	0.00010090269
42	0x38b2b0b8	8.520618e-05
43	0x39e7db7a	0.00044223276
44	0x3829f10c	4.0517232e-05
45	0x3951db60	0.00020013517
46	0x39877f12	0.0002584388
47	0x39bc34ef	0.00035897593
48	0x3748f961	1.1978992e-05
49	0x3908a847	0.00013032659
50	0x38af977f	8.3728686e-05
51	0x39a68b40	0.00031765737
52	0x37d052e8	2.4834138e-05
53	0x3909e8ad	0.00013152017
54	0x386aaa5f	5.5948618e-05
55	0x399f62f9	0.00030400584
56	0x39a50f54	0.00031482673
57	0x39914c54	0.00027713424
58	0x38c97cfa	9.6077056e-05
59	0x390046bd	0.00012233383
60	0x38eedbc4	0.00011389659
61	0x371aeb54	9.233907e-06
62	0x3984a2ee	0.00025298394
63	0x38d0d535	9.957926e-05
64	0x39400340	0.00018311758
65	0x38c6b1f2	9.4745206e-05
66	0x3993e616	0.00028209452
67	0x3972084e	0.00023082012
68	0x391346f8	0.0001404545
69	0x3930887a	0.0001683551
70	0x397442b6	0.00023294505
71	0x3978dad4	0.00023732643
72	0x3a05da21	0.0005106051
73	0x38199b8f	3.6622918e-05
74	0x394f48c0	0.0001976816
75	0x38c93826	9.594885e-05
76	0x38b8898c	8.799424e-05
77	0x3845dd01	4.7174286e-05
78	0x39a7ee9e	0.00032030506
79	0x39d984cd	0.0004148841
80	0x3983c303	0.00025131562
81	0x39cd81a0	0.00039197225
82	0x38cfea90	9.91422e-05
83	0x3989ec5b	0.00026306775
84	0x399c5a49	0.00029821906
85	0x399ef0f0	0.0003031562
86	0x38a30f9b	7.7753524e-05
87	0x39c50ed2	0.0003758581
88	0x39ec6ee5	0.0004509605
89	0x39b9ec08	0.00035461807
90	0x39a5919e	0.00031579746
91	0x39258784	0.0001578611
92	0x383b985d	4.4726174e-05
93	0x39a6a633	0.00031785815
94	0x37e678d2	2.7474398e-05
95	0x38f1ed77	0.00011536007
96	0x38ae4e33	8.311532e-05
97	0x38537a79	5.042038e-05
98	0x37a36420	1.9477739e-05
99	0x38dafcbd	0.00010442126
100	0x39079a56	0.00012932098
101	0x38e87946	0.00011085211
102	0x39c15ba0	0.00036880095
103	0x386b019f	5.6029876e-05
104	0x39fb863c	0.00047974463
105	0x38cbee6a	9.7242024e-05
106	0x39adfa41	0.00033183585
107	0x3930b909	0.00016853599
108	0x39cee4a8	0.00039461744
109	0x39caf9de	0.00038714608
110	0x39d0009f	0.00039673314
111	0x3a04bf19	0.0005063876
112	0x39e2e36f	0.0004327553
113	0x38b83a9d	8.784721e-05
114	0x398f0ae5	0.00027283203
115	0x39f7b721	0.00047247953
116	0x3998e698	0.00029163505
117	0x398a48a7	0.0002637554
118	0x39a65429	0.00031724692
119	0x398a8286	0.0002641866
120	0x395c72c7	0.00021023593
121	0x3946a007	0.00018942366
122	0x39e9d523	0.00044600022
123	0x3877575a	5.897074e-05
124	0x38ab44f4	8.166759e-05
125	0x3983a9b3	0.00025112703
126	0x39bddc5d	0.00036213073
127	0x395e4cc7	0.00021200172

bn1.weight f4 [128]
0	0x3f800000	1.0
1	0x3f800000	1.0
2	0x3f800000	1.0
3	0x3f800000	1.0
4	0x3f800000	1.0
5	0x3f800000	1.0
6	0x3f800000	1.0
7	0x3f800000	1.0
8	0x3f800000	1.0
9	0x3f800000	1.0
10	0x3f800000	1.0
11	0x3f800000	1.0
12	0x3f800000	1.0
13	0x3f800000	1.0
14	0x3f800000	1.0
15	0x3f800000	1.0
16	0x3f800000	1.0
17	0x3f800000	1.0
18	0x3f800000	1.0
19	0x3f800000	1.0
20	0x3f800000	1.0
21	0x3f800000	1.0
22	0x3f800000	1.0
23	0x3f800000	1.0
24	0x3f800000	1.0
25	0x3f800000	1.0
26	0x3f800000	1.0
27	0x3f800000	1.0
28	0x3f800000	1.0
29	0x3f800000	1.0
30	0x3f800000	1.0
31	0x3f800000	1.0
32	0x3f800000	1.0
33	0x3f800000	1.0
34	0x3f800000	1.0
35	0x3f800000	1.0
36	0x3f800000	1.0
37	0x3f800000	1.0
38	0x3f800000	1.0
39	0x3f800000	1.0
40	0x3f800000	1.0
41	0x3f800000	1.0
42	0x3f800000	1.0
43	0x3f800000	1.0
44	0x3f800000	1.0
45	0x3f800000	1.0
46	0x3f800000	1.0
47	0x3f800000	1.0
48	0x3f800000	1.0
49	0x3f800000	1.0
50	0x3f800000	1.0
51	0x3f800000	1.0
52	0x3f800000	1.0
53	0x3f800000	1.0
54	0x3f800000	1.0
55	0x3f800000	1.0
56	0x3f800000	1.0
57	0x3f800000	1.0
58	0x3f800000	1.0
59	0x3f800000	1.0
60	0x3f800000	1.0
61	0x3f800000	1.0
62	0x3f800000	1.0
63	0x3f800000	1.0
64	0x3f800000	1.0
65	0x3f800000	1.0
66	0x3f800000	1.0
67	0x3f800000	1.0
68	0x3f800000	1.0
69	0x3f800000	1.0
70	0x3f800000	1.0
71	0x3f800000	1.0
72	0x3f800000	1.0
73	0x3f800000	1.0
74	0x3f800000	1.0
75	0x3f800000	1.0
76	0x3f800000	1.0
77	0x3f800000	1.0
78	0x3f800000	1.0
79	0x3f800000	1.0
80	0x3f800000	1.0
81	0x3f800000	1.0
82	0x3f800000	1.0
83	0x3f800000	1.0
84	0x3f800000	1.0
85	0x3f800000	1.0
86	0x3f800000	1.0
87	0x3f800000	1.0
88	0x3f800000	1.0
89	0x3f800000	1.0
90	0x3f800000	1.0
91	0x3f800000	1.0
92	0x3f800000	1.0
93	0x3f800000	1.0
94	0x3f800000	1.0
95	0x3f800000	1.0
96	0x3f800000	1.0
97	0x3f800000	1.0
98	0x3f800000	1.0
99	0x3f800000	1.0
100	0x3f800000	1.0
101	0x3f800000	1.0
102	0x3f800000	1.0
103	0x3f800000	1.0
104	0x3f800000	1.0
105	0x3f800000	1.0
106	0x3f800000	1.0
107	0x3f800000	1.0
108	0x3f800000	1.0
109	0x3f800000	1.0
110	0x3f800000	1.0
111	0x3f800000	1.0
112	0x3f800000	1.0
113	0x3f800000	1.0
114	0x3f800000	1.0
115	0x3f800000	1.0
116	0x3f800000	1.0
117	0x3f800000	1.0
118	0x3f800000	1.0
119	0x3f800000	1.0
120	0x3f800000	1.0
121	0x3f800000	1.0
122	0x3f800000	1.0
123	0x3f800000	1.0
124	0x3f800000	1.0
125	0x3f800000	1.0
126	0x3f800000	1.0
127	0x3f800000	1.0

bn1.bias f4 [128]
0	0x00000000	0.0
1	0x00000000	0.0
2	0x00000000	0.0
3	0x00000000	0.0
4	0x00000000	0.0
5	0x00000000	0.0
6	0x00000000	0.0
7	0x00000000	0.0
8	0x00000000	0.0
9	0x00000000	0.0
10	0x00000000	0.0
11	0x00000000	0.0
12	0x00000000	0.0
13	0x00000000	0.0
14	0x00000000	0.0
15	0x00000000	0.0
16	0x00000000	0.0
17	0x00000000	0.0
18	0x00000000	0.0
19	0x00000000	0.0
20	0x00000000	0.0
21	0x00000000	0.0
22	0x00000000	0.0
23	0x00000000	0.0
24	0x00000000	0.0
25	0x00000000	0.0
26	0x00000000	0.0
27	0x00000000	0.0
28	0x00000000	0.0
29	0x00000000	0.0
30	0x00000000	0.0
31	0x00000000	0.0
32	0x00000000	0.0
33	0x00000000	0.0
34	0x00000000	0.0
35	0x00000000	0.0
36	0x00000000	0.0
37	0x00000000	0.0
38	0x00000000	0.0
39	0x00000000	0.0
40	0x00000000	0.0
41	0x00000000	0.0
42	0x00000000	0.0
43	0x00000000	0.0
44	0x00000000	0.0
45	0x00000000	0.0
46	0x00000000	0.0
47	0x00000000	0.0
48	0x00000000	0.0
49	0x00000000	0.0
50	0x00000000	0.0
51	0x00000000	0.0
52	0x00000000	0.0
53	0x00000000	0.0
54	0x00000000	0.0
55	0x00000000	0.0
56	0x00000000	0.0
57	0x00000000	0.0
58	0x00000000	0.0
59	0x00000000	0.0
60	0x00000000	0.0
61	0x00000000	0.0
62	0x00000000	0.0
63	0x00000000	0.0
64	0x00000000	0.0
65	0x00000000	0.0
66	0x00000000	0.0
67	0x00000000	0.0
68	0x00000000	0.0
69	0x00000000	0.0
70	0x00000000	0.0
71	0x00000000	0.0
72	0x00000000	0.0
73	0x00000000	0.0
74	0x00000000	0.0
75	0x00000000	0.0
76	0x00000000	0.0
77	0x00000000	0.0
78	0x00000000	0.0
79	0x00000000	0.0
80	0x00000000	0.0
81	0x00000000	0.0
82	0x00000000	0.0
83	0x00000000	0.0
84	0x00000000	0.0
85	0x00000000	0.0
86	0x00000000	0.0
87	0x00000000	0.0
88	0x00000000	0.0
89	0x00000000	0.0
90	0x00000000	0.0
91	0x00000000	0.0
92	0x00000000	0.0
93	0x00000000	0.0
94	0x00000000	0.0
95	0x00000000	0.0
96	0x00000000	0.0
97	0x00000000	0.0
98	0x00000000	0.0
99	0x00000000	0.0
100	0x00000000	0.0
101	0x00000000	0.0
102	0x00000000	0.0
103	0x00000000	0.0
104	0x00000000	0.0
105	0x00000000	0.0
106	0x00000000	0.0
107	0x00000000	0.0
108	0x00000000	0.0
109	0x00000000	0.0
110	0x00000000	0.0
111	0x00000000	0.0
112	0x00000000	0.0
113	0x00000000	0.0
114	0x00000000	0.0
115	0x00000000	0.0
116	0x00000000	0.0
117	0x00000000	0.0
118	0x00000000	0.0
119	0x00000000	0.0
120	0x00000000	0.0
121	0x00000000	0.0
122	0x00000000	0.0
123	0x00000000	0.0
124	0x00000000	0.0
125	0x00000000	0.0
126	0x00000000	0.0
127	0x00000000	0.0

bn1.running_mean f4 [128]
0	0x00000000	0.0
1	0x00000000	0.0
2	0x00000000	0.0
3	0x00000000	0.0
4	0x00000000	0.0
5	0x00000000	0.0
6	0x00000000	0.0
7	0x00000000	0.0
8	0x00000000	0.0
9	0x00000000	0.0
10	0x00000000	0.0
11	0x00000000	0.0
12	0x00000000	0.0
13	0x00000000	0.0
14	0x00000000	0.0
15	0x00000000	0.0
16	0x00000000	0.0
17	0x00000000	0.0
18	0x00000000	0.0
19	0x00000000	0.0
20	0x00000000	0.0
21	0x00000000	0.0
22	0x00000000	0.0
23	0x00000000	0.0
24	0x00000000	0.0
25	0x00000000	0.0
26	0x00000000	0.0
27	0x00000000	0.0
28	0x00000000	0.0
29	0x00000000	0.0
30	0x00000000	0.0
31	0x00000000	0.0
32	0x00000000	0.0
33	0x00000000	0.0
34	0x00000000	0.0
35	0x00000000	0.0
36	0x00000000	0.0
37	0x00000000	0.0
38	0x00000000	0.0
39	0x00000000	0.0
40	0x00000000	0.0
41	0x00000000	0.0
42	0x00000000	0.0
43	0x00000000	0.0
44	0x00000000	0.0
45	0x00000000	0.0
46	0x00000000	0.0
47	0x00000000	0.0
48	0x00000000	0.0
49	0x00000000	0.0
50	0x00000000	0.0
51	0x00000000	0.0
52	0x00000000	0.0
53	0x00000000	0.0
54	0x00000000	0.0
55	0x00000000	0.0
56	0x00000000	0.0
57	0x00000000	0.0
58	0x00000000	0.0
59	0x00000000	0.0
60	0x00000000	0.0
61	0x00000000	0.0
62	0x00000000	0.0
63	0x00000000	0.0
64	0x00000000	0.0
65	0x00000000	0.0
66	0x00000000	0.0
67	0x00000000	0.0
68	0x00000000	0.0
69	0x00000000	0.0
70	0x00000000	0.0
71	0x00000000	0.0
72	0x00000000	0.0
73	0x00000000	0.0
74	0x00000000	0.0
75	0x00000000	0.0
76	0x00000000	0.0
77	0x00000000	0.0
78	0x00000000	0.0
79	0x00000000	0.0
80	0x00000000	0.0
81	0x00000000	0.0
82	0x00000000	0.0
83	0x00000000	0.0
84	0x00000000	0.0
85	0x00000000	0.0
86	0x00000000	0.0
87	0x00000000	0.0
88	0x00000000	0.0
89	0x00000000	0.0
90	0x00000000	0.0
91	0x00000000	0.0
92	0x00000000	0.0
93	0x00000000	0.0
94	0x00000000	0.0
95	0x00000000	0.0
96	0x00000000	0.0
97	0x00000000	0.0
98	0x00000000	0.0
99	0x00000000	0.0
100	0x00000000	0.0
101	0x00000000	0.0
102	0x00000000	0.0
103	0x00000000	0.0
104	0x00000000	0.0
105	0x00000000	0.0
106	0x00000000	0.0
107	0x00000000	0.0
108	0x00000000	0.0
109	0x00000000	0.0
110	0x00000000	0.0
111	0x00000000	0.0
112	0x00000000	0.0
113	0x00000000	0.0
114	0x00000000	0.0
115	0x00000000	0.0
116	0x00000000	0.0
117	0x00000000	0.0
118	0x00000000	0.0
119	0x00000000	0.0
120	0x00000000	0.0
121	0x00000000	0.0
122	0x00000000	0.0
123	0x00000000	0.0
124	0x00000000	0.0
125	0x00000000	0.0
126	0x00000000	0.0
127	0x00000000	0.0

bn1.running_var f4 [128]
0	0x3f800000	1.0
1	0x3f800000	1.0
2	0x3f800000	1.0
3	0x3f800000	1.0
4	0x3f800000	1.0
5	0x3f800000	1.0
6	0x3f800000	1.0
7	0x3f800000	1.0
8	0x3f800000	1.0
9	0x3f800000	1.0
10	0x3f800000	1.0
11	0x3f800000	1.0
12	0x3f800000	1.0
13	0x3f800000	1.0
14	0x3f800000	1.0
15	0x3f800000	1.0
16	0x3f800000	1.0
17	0x3f800000	1.0
18	0x3f800000	1.0
19	0x3f800000	1.0
20	0x3f800000	1.0
21	0x3f800000	1.0
22	0x3f800000	1.0
23	0x3f800000	1.0
24	0x3f800000	1.0
25	0x3f800000	1.0
26	0x3f800000	1.0
27	0x3f800000	1.0
28	0x3f800000	1.0
29	0x3f800000	1.0
30	0x3f800000	1.0
31	0x3f800000	1.0
32	0x3f800000	1.0
33	0x3f800000	1.0
34	0x3f800000	1.0
35	0x3f800000	1.0
36	0x3f800000	1.0
37	0x3f800000	1.0
38	0x3f800000	1.0
39	0x3f800000	1.0
40	0x3f800000	1.0
41	0x3f800000	1.0
42	0x3f800000	1.0
43	0x3f800000	1.0
44	0x3f800000	1.0
45	0x3f800000	1.0
46	0x3f800000	1.0
47	0x3f800000	1.0
48	0x3f800000	1.0
49	0x3f800000	1.0
50	0x3f800000	1.0
51	0x3f800000	1.0
52	0x3f800000	1.0
53	0x3f800000	1.0
54	0x3f800000	1.0
55	0x3f800000	1.0
56	0x3f800000	1.0
57	0x3f800000	1.0
58	0x3f800000	1.0
59	0x3f800000	1.0
60	0x3f800000	1.0
61	0x3f800000	1.0
62	0x3f800000	1.0
63	0x3f800000	1.0
64	0x3f800000	1.0
65	0x3f800000	1.0
66	0x3f800000	1.0
67	0x3f800000	1.0
68	0x3f800000	1.0
69	0x3f800000	1.0
70	0x3f800000	1.0
71	0x3f800000	1.0
72	0x3f800000	1.0
73	0x3f800000	1.0
74	0x3f800000	1.0
75	0x3f800000	1.0
76	0x3f800000	1.0
77	0x3f800000	1.0
78	0x3f800000	1.0
79	0x3f800000	1.0
80	0x3f800000	1.0
81	0x3f800000	1.0
82	0x3f800000	1.0
83	0x3f800000	1.0
84	0x3f800000	1.0
85	0x3f800000	1.0
86	0x3f800000	1.0
87	0x3f800000	1.0
88	0x3f800000	1.0
89	0x3f800000	1.0
90	0x3f800000	1.0
91	0x3f800000	1.0
92	0x3f800000	1.0
93	0x3f800000	1.0
94	0x3f800000	1.0
95	0x3f800000	1.0
96	0x3f800000	1.0
97	0x3f800000	1.0
98	0x3f800000	1.0
99	0x3f800000	1.0
100	0x3f800000	1.0
101	0x3f800000	1.0
102	0x3f800000	1.0
103	0x3f800000	1.0
104	0x3f800000	1.0
105	0x3f800000	1.0
106	0x3f800000	1.0
107	0x3f800000	1.0
108	0x3f800000	1.0
109	0x3f800000	1.0
110	0x3f800000	1.0
111	0x3f800000	1.0
112	0x3f800000	1.0
113	0x3f800000	1.0
114	0x3f800000	1.0
115	0x3f800000	1.0
116	0x3f800000	1.0
117	0x3f800000	1.0
118	0x3f800000	1.0
119	0x3f800000	1.0
120	0x3f800000	1.0
121	0x3f800000	1.0
122	0x3f800000	1.0
123	0x3f800000	1.0
124	0x3f800000	1.0
125	0x3f800000	1.0
126	0x3f800000	1.0
127	0x3f800000	1.0

fc2.weight f4 [128, 2]
0	0xbdd4c79a	-0.103896335
1	0xbe377b26	-0.17918071
2	0xbecbe451	-0.3982263
3	0x3efb5122	0.49085337
4	0x3db278e9	0.08714468
5	0xbe8775d7	-0.26457092
6	0x3f296b55	0.661794
7	0xbef411bd	-0.47669783
8	0x3c3204f8	0.010865442
9	0x3f241a73	0.6410286
10	0x3dbfc90d	0.09364519
11	0xbec823ce	-0.39089817
12	0xbdbe8706	-0.093030974
13	0xbf171a19	-0.59024197
14	0x3eed526e	0.4635195
15	0x3ed5601b	0.41674885
16	0xbf08f4ed	-0.5349873
17	0x3ed5185e	0.41620153
18	0xbe89c6e7	-0.26909563
19	0xbeda9767	-0.42693636
20	0xbe9ec00d	-0.31005898
21	0x3e1276a4	0.1430307
22	0xbe1c38df	-0.1525607
23	0x3e94655d	0.28983584
24	0xbf094a15	-0.53628665
25	0xbd17321a	-0.036913015
26	0xb8cf313a	-9.879698e-05
27	0xbdc7884e	-0.09742795
28	0x3e4711e1	0.19440414
29	0x3e8aad69	0.27085426
30	0xbda95ecf	-0.082700364
31	0xbf31f988	-0.6952138
32	0xbe4e22af	-0.20130418
33	0xbf0ffcae	-0.56244934
34	0xbe1a4d77	-0.15068613
35	0x3f0c0ec5	0.54710037
36	0xbe13c3ae	-0.14430115
37	0x3f14b0b6	0.5808214
38	0x3db48d62	0.08816029
39	0x3eec2a7c	0.46126163
40	0x3e64aae2	0.22330812
41	0x3e9724ac	0.29520166
42	0xbefac460	-0.48977947
43	0x3f147469	0.5799013
44	0xbed8d54e	-0.4235024
45	0xbf153fbc	-0.58300376
46	0xbecb5777	-0.39715168
47	0xbe5d799c	-0.21628422
48	0x3f15fb1c	0.5858629
49	0xbeba135b	-0.36342892
50	0x3e47ebb0	0.19523501
51	0x3e6d5892	0.23178318
52	0xbe7133e9	-0.23554958
53	0x3df87f3b	0.12133642
54	0xbdecd30c	-0.115636915
55	0xbe62b4fa	-0.2213935
56	0xbf2dfecc	-0.67966914
57	0xbf1b2d64	-0.60616136
58	0x3e0b6c4d	0.13615532
59	0x3eb85489	0.36001995
60	0xbe5af2d0	-0.21381688
61	0xbe285c4a	-0.16441455
62	0x3df8e688	0.12153345
63	0xbf27899f	-0.6544437
64	0xbe6195ea	-0.22029844
65	0x3e4a53fe	0.19758603
66	0x3e823b5b	0.2543591
67	0x3f1897c4	0.59606576
68	0x3f1199fd	0.5687559
69	0xbf2d1c9f	-0.676218
70	0xbf15b7e0	-0.58483696
71	0xbd0bd34f	-0.034137066
72	0xbef13b74	-0.47115672
73	0x3e2f3fce	0.17114183
74	0xbe0f2d96	-0.13982233
75	0x3e642bde	0.22282359
76	0xbe3cba6e	-0.18430492
77	0x3f1566f5	0.58360225
78	0xbf1553fd	-0.5833128
79	0xbd9f59a2	-0.07780768
80	0xbec2ba95	-0.38032976
81	0x3ef43720	0.47698307
82	0xbd8df372	-0.06931199
83	0x3ee49b46	0.44649714
84	0x3e4a239b	0.19740145
85	0xbea4ff52	-0.32226044
86	0xbefebe74	-0.4975468
87	0xbf28de01	-0.6596375
88	0xbe3f0fdf	-0.18658398
89	0xbe0671c9	-0.13129343
90	0x3edeb13a	0.43494588
91	0xbe795849	-0.24350084
92	0x3e7295b3	0.23689918
93	0x3f263c6e	0.6493596
94	0x3efe0ba6	0.49618262
95	0xbf084631	-0.53232104
96	0x3de4da84	0.11174491
97	0x3d0672fd	0.032824505
98	0x3ec15a03	0.37763986
99	0x3c0db26c	0.008648496
100	0xbdd96253	-0.10614457
101	0x3ec7bf8f	0.39013335
102	0x3ed34564	0.41263878
103	0xbf155809	-0.58337456
104	0x3cfbcba2	0.030736748
105	0x3e62e7bb	0.2215871
106	0xbebaa239	-0.3645189
107	0x3e198081	0.14990427
108	0xbe7d2ae2	-0.2472339
109	0xbc52d61a	-0.012868429
110	0x3eee55a2	0.46549708
111	0x3eebca45	0.46052757
112	0x3ed04c66	0.40683287
113	0xbf1602de	-0.58598125
114	0x3ed05161	0.40687087
115	0xbf03c74d	-0.51475984
116	0x3e29289b	0.16519396
117	0x3ec2a5f8	0.3801725
118	0x3eb81aae	0.35957855
119	0x3db53915	0.08848778
120	0xbe7040d6	-0.23462233
121	0xbeb77d53	-0.35837802
122	0xbdcacb38	-0.09902042
123	0x3cd02eda	0.025412966
124	0x3ef69906	0.48163623
125	0xbe9875b9	-0.29777315
126	0xbe513915	-0.20431931
127	0xbeb48633	-0.35258636
128	0xbe93550e	-0.2877583
129	0x3ef2d5c7	0.47428724
130	0x3e9c5868	0.305362
131	0x3e0b5fd2	0.13610771
132	0xbef12aa7	-0.47102854
133	0x3ed27257	0.4110286
134	0xbea46b6d	-0.3211321
135	0x3f08e0fd	0.53468305
136	0x3ec11799	0.37713316
137	0xbe1c812f	-0.15283655
138	0x3ec3a7c7	0.3821394
139	0x3e86927d	0.26283637
140	0xbebf98bd	-0.37421218
141	0xbeeb41ae	-0.45948547
142	0xbeb42281	-0.35182574
143	0x3f02b5d5	0.51058704
144	0x3f328292	0.69730484
145	0xbec28dfe	-0.37998956
146	0x3e20c0b4	0.1569851
147	0x3e2c2f6c	0.16814965
148	0xbd9dd5e6	-0.077068135
149	0xbf20afa0	-0.6276798
150	0xbe639a9d	-0.22226949
151	0xbea3ea8f	-0.32014892
152	0xbe9ecff9	-0.31018046
153	0xbc48a729	-0.012246885
154	0xbe0d03ed	-0.13771029
155	0x3e7fbedd	0.24975152
156	0xbee1f32d	-0.4413084
157	0xbf08f2f4	-0.5349572
158	0x3f2567d2	0.6461154
159	0x3e81fcb1	0.253881
160	0x3e69f967	0.22849046
161	0xbf267fbc	-0.6503866
162	0xbf1c22d4	-0.60990644
163	0x3eac5674	0.33659708
164	0x3e98afb4	0.2982155
165	0x3e40461e	0.18776748
166	0xbe52dd94	-0.20592338
167	0x3f2ea263	0.6821653
168	0x3f0ac199	0.54201657
169	0x3e762cc2	0.24040511
170	0xbe7e7f2e	-0.24853203
171	0xbf357342	-0.70878994
172	0x3e43f6ce	0.19137117
173	0x3e992793	0.29913005
174	0x3f23d07f	0.63990015
175	0xbd93e877	-0.072220735
176	0xbf2f91f2	-0.6858207
177	0xbe4d0396	-0.20020899
178	0x3f1f1ac6	0.6215023
179	0x3d5ad77a	0.05342815
180	0xbf0f8efd	-0.5607756
181	0x3e805491	0.2506452
182	0x3dca41a5	0.09875802
183	0x3f0d52f7	0.5520472
184	0xbdf2e7f9	-0.118606515
185	0xbe823a60	-0.25435162
186	0xbed0222d	-0.40651074
187	0x3f177c92	0.59174454
188	0x3e316734	0.17324525
189	0xbc67cf02	-0.014148476
190	0xbe99020d	-0.29884377
191	0xbe84d004	-0.25939953
192	0xbd0beb64	-0.034160033
193	0x3ed28feb	0.41125426
194	0x3e64aaf8	0.22330844
195	0xbdd3c12b	-0.10339578
196	0x3e0da10a	0.13830963
197	0xbd87ae07	-0.0662499
198	0x3d80498e	0.062640294
199	0x3ee8b1b0	0.45448065
200	0x3e9ce9e3	0.3064719
201	0xbe9b764d	-0.30363694
202	0x3ea41684	0.32048428
203	0xbe447a7f	-0.19187354
204	0xbecf0d8b	-0.4044002
205	0xbf2a802a	-0.6660181
206	0xbdc8f009	-0.09811408
207	0x3ea04c05	0.31307998
208	0xbf2c0f64	-0.67210984
209	0x3ec349ae	0.3814215
210	0xbea6bc71	-0.32565644
211	0x3d0812b1	0.03322095
212	0xbf0534ec	-0.5203388
213	0xbed1bd5b	-0.4096478
214	0xbec43ae7	-0.3832619
215	0x3e8af9f8	0.27143836
216	0xbf233768	-0.6375642
217	0xbe576714	-0.21035415
218	0xbef3f336	-0.47646493
219	0x3f1d6c03	0.6149294
220	0x3f1a985a	0.6038872
221	0x3eb4ea63	0.35335073
222	0x3f3237dd	0.6961649
223	0xbebe9151	-0.37220243
224	0xbf23d203	-0.6399233
225	0xbead5ec8	-0.33861375
226	0x3d1b0364	0.03784503
227	0x3ed7b69d	0.4213151
228	0x3ebb44c9	0.36575916
229	0xbf0fd552	-0.56184876
230	0xbf32acec	-0.6979511
231	0x3e7e50a5	0.24835451
232	0x3e852991	0.26008275
233	0xbf30f55b	-0.6912438
234	0xbeb65187	-0.35609075
235	0xbf0be954	-0.54652905
236	0xbecc37b8	-0.3988626
237	0x3f19b1b8	0.600368
238	0xbef3c332	-0.4760986
239	0x3eb312a1	0.3497515
240	0xbee4be55	-0.44676462
241	0xbe6f096e	-0.23343441
242	0x3edad1bf	0.4273815
243	0x3e56a2e8	0.20960581
244	0xbf2acaa0	-0.6671543
245	0xbe8d22c3	-0.27565584
246	0xbe3982e6	-0.1811634
247	0xbe776b0b	-0.24161927
248	0xbe008f15	-0.12554581
249	0x3ebf5aae	0.3737387
250	0x3ee7118f	0.45130584
251	0x3eb81538	0.3595369
252	0xbef05d1e	-0.46946043
253	0xbf11872f	-0.568469
254	0x3eecb847	0.46234342
255	0x3e379066	0.17926177

actor.linears.0.weight f4 [128, 384]
0	0x3c9ef817	0.019405408
1	0x3d2f455d	0.04279076
2	0xbb7f4331	-0.0038949961
3	0xbd41acf5	-0.047284085
4	0xbb0f461a	-0.0021861852
5	0x3c4a8b0c	0.012362253
6	0xbcfa0018	-0.030517623
7	0xbbfb0ef3	-0.007661694
8	0xbd418ec4	-0.047255293
9	0xbca1b9b2	-0.019741867
10	0x3d01a25a	0.03164897
11	0xbd041c82	-0.03225375
12	0xbcea2822	-0.02858359
13	0xbd397b0b	-0.04528336
14	0x3cd472be	0.02593362
15	0x3cc472b6	0.02398048
16	0x3c05ef80	0.008174777
17	0x3cdf045e	0.027223762
18	0x3d0b2321	0.03396905
19	0xbd38e3b5	-0.045139033
20	0x3d50221f	0.05081379
21	0xbd263b63	-0.04058398
22	0x3bfbc443	0.0076833083
23	0xbd37d508	-0.044880897
24	0x365bd19e	3.2755556e-06
25	0x3d2d7d26	0.04235568
26	0xbd56b274	-0.05241628
27	0x3ce0966c	0.027415477
28	0xbc948be9	-0.01813312
29	0xbcdaf2d0	-0.02672711
30	0xbc19f71e	-0.009397296
31	0xbbc9a3b0	-0.0061535463
32	0xbb801190	-0.0039083436
33	0x3d48f3f7	0.049060788
34	0x3d0b7f96	0.034057222
35	0x3d23f4d8	0.040028423
36	0xbbbd9f7e	-0.005786835
37	0xbd2745f6	-0.040838204
38	0x3ce37435	0.027765373
39	0x3c0c8b4a	0.008578131
40	0xbcaa9b30	-0.020825952
41	0xbcbdfa6d	-0.023190701
42	0x3aef08dd	0.0018236894
43	0xbce829be	-0.028340217
44	0xbd5330ee	-0.051560335
45	0xbcea99b2	-0.02863774
46	0xbcfcc9e1	-0.030857982
47	0xbd1c9529	-0.038228188
48	0xbc4e245d	-0.012581912
49	0x3d2743b9	0.04083607
50	0xbcdac15c	-0.026703529
51	0x3d28a5e3	0.041173827
52	0x3cee1af2	0.029065583
53	0xbc54be4d	-0.012984824
54	0xbcb935cb	-0.022608658
55	0x3c9c620e	0.019089725
56	0x3c73e84c	0.014886927
57	0x3d081030	0.033218563
58	0x3bdec1a5	0.0067979866
59	0xbd2219db	-0.03957544
60	0xbd382fef	-0.044967588
61	0xbd4bffd0	-0.04980451
62	0x3b900775	0.00439542
63	0xbcfcf702	-0.030879501
64	0x3d18c866	0.03730049
65	0x3a8a58a8	0.0010554986
66	0xbd3263a0	-0.04355204
67	0xbc129871	-0.008947478
68	0xbc7c468b	-0.015397678
69	0xbcd85a4a	-0.02641024
70	0xbb9846fe	-0.004647135
71	0x3cc63c41	0.024198653
72	0x3ceeb512	0.029139075
73	0x3cf4add6	0.029868048
74	0xb98eb725	-0.00027220804
75	0xbd5667de	-0.05234515
76	0x3b7a7948	0.0038219262
77	0x3d26cf2c	0.04072492
78	0xbb64c766	-0.003490889
79	0x3cb7f196	0.022454064
80	0xbd1bd9c1	-0.038049463
81	0xbcca294a	-0.024677891
82	0xbd4245a6	-0.047429703
83	0x3cf71736	0.030162435
84	0xbc1f93d7	-0.009739838
85	0xbcb0afc3	-0.021568185
86	0x3d2cb536	0.042165004
87	0xbd0c1324	-0.03419794
88	0x3d0047a1	0.03131831
89	0x3c2187fc	0.009859081
90	0x3b2d30d7	0.0026426816
91	0x3cd6892d	0.026188457
92	0xbd39f1a7	-0.045396473
93	0x3c9dc81f	0.019260464
94	0xbd19355e	-0.03740441
95	0x3cabad99	0.020956801
96	0x3d45665f	0.04819333
97	0xbb9b96bf	-0.004748195
98	0x3b85a39b	0.004078341
99	0x3c95e550	0.018297821
100	0xbc1fb4f5	-0.009747733
101	0xbc9e0aff	-0.019292353
102	0x3d117c79	0.035519097
103	0x3d10b7c8	0.035331517
104	0x3d00dd86	0.03146126
105	0xbcf1bb8f	-0.02950838
106	0xbb88f4c9	-0.0041795713
107	0xbd284072	-0.041077085
108	0xbce68d75	-0.028143624
109	0x3cfe00f0	0.031006306
110	0xba30c902	-0.00067438197
111	0x3d4eb34f	0.05046397
112	0xbcaf26d0	-0.021380812
113	0x3d0a9c32	0.033840366
114	0xbd1dcee1	-0.038527373
115	0x3d019092	0.031632014
116	0x3c861e54	0.016371883
117	0xbd14cac2	-0.036326177
118	0xbce54e3a	-0.027991403
119	0xbc991486	-0.018686544
120	0xbd467866	-0.048454665
121	0xbcf5430c	-0.029939197
122	0x3d10ecb6	0.035381995
123	0x3bc8c8ff	0.006127476
124	0x3c4dc3b9	0.012558871
125	0x3d0f0dfe	0.034925453
126	0xbd04e775	-0.032447297
127	0xbd01a13b	-0.031647902
128	0x3d0a8c8a	0.033825435
129	0x3cec6647	0.028857363
130	0xbc9065f4	-0.01762674
131	0xbd3348ab	-0.043770473
132	0x3ca69f4a	0.020339627
133	0xba8432b7	-0.0010085915
134	0x3b86b84f	0.0041113268
135	0x3bd3063c	0.006439952
136	0x3d2060cf	0.039154824
137	0x3c7fb3e0	0.01560685
138	0x3d338cfb	0.04383562
139	0xbd1fd24c	-0.039018914
140	0x3c63fb16	0.013914844
141	0x3cda6c90	0.026663095
142	0xbd44f019	-0.048080537
143	0x3cf152c0	0.029458404
144	0xbcfca3b6	-0.030839782
145	0xbc58a701	-0.013223411
146	0xbc1a99ac	-0.009436052
147	0x3baee0d9	0.0053368625
148	0xbc2d3faa	-0.010574261
149	0xbc8b7d1e	-0.017027434
150	0x3cba9f61	0.022781076
151	0xbd2e0d4e	-0.042493157
152	0xbc31665d	-0.010827628
153	0xbccbca64	-0.02487678
154	0x3a242491	0.00062615523
155	0xbc8a56a0	-0.01688701
156	0x3af4dd21	0.0018681624
157	0x3caaeb01	0.020864012
158	0x3d5b36aa	0.05351893
159	0xbcd9aec3	-0.02657259
160	0x3ccb5a69	0.024823384
161	0xbd562655	-0.05228265
162	0x3d113963	0.03545512
163	0xbbf88471	-0.0075841476
164	0xbcbdcfb7	-0.023170335
165	0xbd27af73	-0.040938806
166	0x3c1c69b3	0.009546685
167	0xbcf16610	-0.029467613
168	0xbd1f150e	-0.03883844
169	0x3d6648db	0.056221824
170	0x3cd4ae84	0.025962122
171	0xbd0c5cc7	-0.034268167
172	0x3d07dc8e	0.03316932
173	0x3cb897ed	0.022533381
174	0xbc7c2faa	-0.015392223
175	0xbc9eddb6	-0.01939283
176	0xbd45e0a4	-0.048309937
177	0x3ce47a3a	0.027890313
178	0xbc382ffe	-0.011241911
179	0xbd24d661	-0.04024351
180	0xbcd05fb5	-0.025436262
181	0x3d6e0132	0.05810661
182	0x3cfaba20	0.03060633
183	0xb9160bab	-0.00014309461
184	0xbd61dd25	-0.05514254
185	0xbbedc5fa	-0.0072562667
186	0x3d32bc88	0.04363683
187	0xbd29d665	-0.04146423
188	0xbcf38101	-0.0297246
189	0xbd26a7c8	-0.040687352
190	0x3bdbd022	0.006708161
191	0x3d146b04	0.03623487
192	0x3c78f94c	0.015196156
193	0xbbc15990	-0.0059005693
194	0xbd04d248	-0.032427102
195	0x3d11e7b6	0.035621367
196	0xbd2ce083	-0.0422063
197	0x3ccc4563	0.02493543
198	0xbcf5c756	-0.030002277
199	0xbd108276	-0.035280667
200	0x3c6535f2	0.013989912
201	0x3cd93019	0.026512193
202	0x3d15ca1c	0.0365697
203	0xbc59641f	-0.0132685
204	0x3d5cc273	0.05389638
205	0xbb6b3a61	-0.003589295
206	0x3d070a53	0.03296883
207	0xbc6dbabf	-0.014509856
208	0x3be2d411	0.006922253
209	0x3cb0eaf0	0.021596402
210	0xbcf43fbd	-0.029815549
211	0xbc5cfe15	-0.013488312
212	0xbd2d5878	-0.0423207
213	0x3c8f5363	0.017495817
214	0x3d01c5e6	0.03168287
215	0xbce156c5	-0.027507195
216	0x3d459c19	0.04824457
217	0xbca2a8da	-0.019855905
218	0xbd0c6343	-0.03427435
219	0x3c665374	0.014057983
220	0xbd1816d2	-0.03713114
221	0x3cc39318	0.02387385
222	0xbd685dc9	-0.056730065
223	0x3cc18806	0.023624431
224	0x3b31afdd	0.002711288
225	0xbd171d60	-0.03689325
226	0x3cf885eb	0.030337295
227	0xbcb190e4	-0.021675535
228	0xbd6c1d2e	-0.057645015
229	0xbcd268f9	-0.02568482
230	0x3c854e88	0.016272798
231	0x3d5ce63c	0.053930506
232	0x3d03febd	0.03222536
233	0x3d06c5af	0.03290337
234	0xbb38d4da	-0.0028203041
235	0x3d25319b	0.04033051
236	0x3d43339f	0.04765665
237	0xbce8c072	-0.028412078
238	0x3ac80a9c	0.0015261951
239	0xbbdcb5c2	-0.0067355344
240	0xbc13002b	-0.008972208
241	0x3c95405e	0.01821917
242	0x3b915453	0.004435101
243	0x3bc83a11	0.0061104377
244	0xbc346ee0	-0.011012763
245	0x3d1d7186	0.038438343
246	0xbc955812	-0.018230472
247	0xbd0fc749	-0.035102163
248	0x3cc6bb66	0.02425928
249	0x3bd43dfa	0.0064771147
250	0x3d186cbc	0.037213072
251	0x3c361187	0.011112577
252	0xbd030653	-0.031988453
253	0x3d32e6f2	0.043677278
254	0xbcfb72d9	-0.030694412
255	0xbc5092de	-0.012730328

actor.linears.0.bias f4 [128]
0	0x3d1193d9	0.03554139
1	0x3bb50dba	0.005525318
2	0x3d2e761d	0.04259311
3	0x3d3e9019	0.04652414
4	0x3cb95391	0.022622855
5	0xbd4d0491	-0.050053183
6	0xbc35cb62	-0.0110958535
7	0x3d4ea73f	0.050452467
8	0x3d1474bd	0.036244143
9	0x3c49ef2a	0.012325088
10	0x3cec428d	0.028840328
11	0x3cb5d935	0.022198299
12	0x3d22399e	0.03960573
13	0x3c42f858	0.01190003
14	0x3cc4db5c	0.02403038
15	0x3d1a7b08	0.037714988
16	0x3b47d054	0.0030489163
17	0x3d5e015e	0.054200523
18	0xbbadaf12	-0.005300411
19	0x3ce74d8f	0.028235225
20	0x3c12a75e	0.008951036
21	0xbd3ed40d	-0.046588946
22	0x3d38f235	0.04515286
23	0xbd631114	-0.05543621
24	0x3bdec594	0.0067984555
25	0xbd2b5941	-0.041833166
26	0xbcb1e560	-0.02171582
27	0x3d59808d	0.05310111
28	0x3cef339a	0.02919941
29	0xbcea03c5	-0.02856625
30	0xbd4b2f45	-0.049605627
31	0x3b84b967	0.004050422
32	0x3c93cf30	0.01804313
33	0x3d47549d	0.048664678
34	0xbc7b8a36	-0.015352776
35	0xbc880085	-0.01660181
36	0x3a9d0c27	0.0011981771
37	0xbcc0b618	-0.023524329
38	0xbcd80ae8	-0.026372388
39	0x3d1df97b	0.038568
40	0xbd567eaf	-0.05236691
41	0x3cf2e73b	0.029651275
42	0xbc71b236	-0.014751961
43	0x3cde15f8	0.027110085
44	0xbd45a7ae	-0.048255615
45	0xbcdccc1d	-0.026952798
46	0x3d04eedc	0.032454357
47	0x3d387efc	0.045042977
48	0x3d0df5c4	0.03465821
49	0xbcd98876	-0.026554327
50	0xbd1bd7d3	-0.038047623
51	0xbc245f21	-0.010032446
52	0x3cdb421f	0.026764927
53	0xbc46865b	-0.012116994
54	0xbd0d2cba	-0.034466483
55	0x3d6029db	0.054727416
56	0xbb3bc43d	-0.0028650903
57	0xbcb5c446	-0.022188317
58	0xbcf4a4c1	-0.029863717
59	0xbd343524	-0.04399599
60	0x3d264fb0	0.04060334
61	0xbcafcaee	-0.02145907
62	0xbd4d335d	-0.050097812
63	0x3d1df545	0.038563985
64	0x3d440b13	0.047862124
65	0xbc4ab1d3	-0.012371498
66	0x3b58f093	0.0033102378
67	0xbca48075	-0.020080784
68	0x3b321cfb	0.0027177918
69	0xbc3f8a4c	-0.011690687
70	0xbd40d246	-0.047075532
71	0x39e15562	0.0004297896
72	0x3cc69270	0.024239749
73	0xbd0cc8ba	-0.034371115
74	0x3bef7da3	0.0073086782
75	0x3d27e22a	0.04098717
76	0xbc933d25	-0.017973492
77	0x3cbdd310	0.023171932
78	0xbcdaa91b	-0.026691964
79	0x3d32a170	0.04361099
80	0x3cd3f50b	0.025873682
81	0x3bd4c732	0.0064934725
82	0xbd508514	-0.050908163
83	0xbc447b1e	-0.011992244
84	0xbd1362d4	-0.03598292
85	0xbd2abe6f	-0.041685518
86	0x3d1dd88a	0.038536586
87	0x3d1d6a46	0.03843143
88	0x3d4a6e81	0.04942179
89	0xbc285085	-0.010273104
90	0xbc4d5695	-0.01253285
91	0xbd3d5fe5	-0.04623403
92	0x3c991435	0.018686393
93	0x3cfd51f8	0.030922875
94	0x3d2cbb5f	0.04217088
95	0x3ce78268	0.028260425
96	0xb8007129	-3.0622967e-05
97	0x3d439498	0.047749132
98	0xbd28ec5c	-0.041241035
99	0xbcc62fed	-0.024192775
100	0xbd33fe03	-0.043943416
101	0x3ce11d80	0.027479887
102	0x3d16ab9d	0.036784757
103	0x388e3acc	6.7820394e-05
104	0x3c474de6	0.0121645685
105	0xbd5cfd90	-0.053952754
106	0xbd391d39	-0.045193885
107	0xbd19d782	-0.03755904
108	0x3a9509cc	0.0011370718
109	0xbd00ed74	-0.031476453
110	0x3c8fca2a	0.017552454
111	0x3c9cd800	0.019145966
112	0xbcbba9a0	-0.022908032
113	0x3d119d3b	0.035550337
114	0x3d302654	0.043005303
115	0x3cb8a39e	0.022538956
116	0x3c6c8b63	0.014437529
117	0x3ca7661e	0.020434435
118	0xbb98252a	-0.004643102
119	0x3cef4d2f	0.029211609
120	0xbcfb8e87	-0.03070761
121	0x3c3524b7	0.011056117
122	0x3d42402c	0.04742448
123	0xbd070fa1	-0.03297389
124	0x3d179196	0.037004076
125	0xbc2007c3	-0.009767476
126	0x3d0c5a0f	0.034265574
127	0x3d06acc6	0.032879613

actor.linears.1.weight f4 [128, 128]
0	0xbd2988c4	-0.041390195
1	0xbda9349f	-0.0826199
2	0x3da7eaa0	0.08199048
3	0x3d67301a	0.056442358
4	0x3c9d25f0	0.01918313
5	0x3ca6cfbb	0.020362725
6	0xbd79f895	-0.061028082
7	0x3d8f2a13	0.06990447
8	0xbd22a4f1	-0.03970808
9	0x3d4fdf46	0.05075004
10	0xbd2e2f66	-0.04252567
11	0x3c484d80	0.012225509
12	0xbc314ea9	-0.010821977
13	0x3ca89fd7	0.02058403
14	0x3cc97658	0.024592564
15	0x3d976fff	0.073944084
16	0xbd2a58ee	-0.041588716
17	0xbdbca5b7	-0.09211295
18	0x3d5efbeb	0.054439466
19	0x3cd90e6d	0.026496137
20	0x3c88ed93	0.016714847
21	0x3cf6cde2	0.03012747
22	0x3da1b7d3	0.0789639
23	0x3d4bc01e	0.049743764
24	0x3daa8d18	0.08327693
25	0x3d818fae	0.06326233
26	0xbd31c853	-0.043403935
27	0x3c11004f	0.008850171
28	0x3d7357fc	0.05941008
29	0x3d9322a2	0.0718434
30	0x3d88b61f	0.06675362
31	0xbcce0991	-0.025151046
32	0x3d791706	0.060812972
33	0xbd0bbf00	-0.0341177
34	0xbdb4f1ab	-0.08835157
35	0xbd96687f	-0.0734415
36	0x3d2d1c4e	0.04226332
37	0xbd1e4525	-0.03864016
38	0x3d9dff31	0.077146895
39	0xbcdd4d8a	-0.027014513
40	0xbd99f219	-0.075168796
41	0x3d3821a6	0.044953965
42	0xbd865174	-0.06558505
43	0x3d6b3f42	0.057433374
44	0x3d95a7e7	0.073074155
45	0xbd91a9de	-0.07112478
46	0xbdaee387	-0.08539491
47	0xbd717366	-0.058947943
48	0xbd6136bc	-0.05498384
49	0xbd9f0d91	-0.077662595
50	0xbda13bca	-0.07872732
51	0x3cb903e9	0.022584872
52	0xbc2637b3	-0.010145116
53	0x3be307f6	0.0069284393
54	0x3d7e34cc	0.06206207
55	0xbdb1b5d0	-0.08677256
56	0x3d89d135	0.06729356
57	0xbd24c772	-0.04022927
58	0x3d6b877a	0.057502247
59	0x3d992add	0.07478879
60	0xbcb404fe	-0.021975037
61	0xbd2684c9	-0.040653978
62	0x3d0b8798	0.03406486
63	0x3d173bf3	0.036922406
64	0xbb8e7795	-0.0043477514
65	0x3d585646	0.05281665
66	0xbd069e3c	-0.032865748
67	0xbc291c32	-0.010321664
68	0xbd206c78	-0.039165944
69	0xbdb0b3a8	-0.08628017
70	0x3d75bf13	0.059996676
71	0x3d33f0c2	0.043930776
72	0xbbbf6dd5	-0.0058419504
73	0xbd6684a1	-0.05627883
74	0x3da30d07	0.07961469
75	0x3d95eb92	0.07320322
76	0xbd6d0894	-0.05786951
77	0x3cb083cb	0.021547219
78	0xbcd539af	-0.026028482
79	0x3cf33d86	0.029692423
80	0xbb7e8cbf	-0.0038841215
81	0x3a50aa32	0.00079599314
82	0x3d1a57a4	0.037681237
83	0x3c13f645	0.009030883
84	0x3c64d6cb	0.013967226
85	0xbc110ba3	-0.008852872
86	0x3d4386eb	0.04773609
87	0xbcf540d0	-0.029938132
88	0xbd989979	-0.074511476
89	0xbcc39586	-0.02387501
90	0xbd52639b	-0.051364522
91	0xbcb73f69	-0.022369104
92	0xbd9e3f84	-0.077269584
93	0xbcda0f64	-0.026618667
94	0xbd9b890a	-0.075944975
95	0xbd515295	-0.051104147
96	0x3bf646fd	0.0075157867
97	0xbd12909e	-0.03578245
98	0xbd701013	-0.05860908
99	0xbc07ad71	-0.008281098
100	0x3d40932e	0.04701536
101	0xbd7b926e	-0.061418943
102	0xbd264f5d	-0.04060303
103	0xbc97d3e3	-0.018533653
104	0x3c850542	0.016237859
105	0x3d0b32dd	0.033984054
106	0x3c6943a0	0.014237314
107	0xbd75fd4b	-0.060056012
108	0xbd895524	-0.067056924
109	0x3d8495b8	0.06473869
110	0x3d6465f5	0.055761296
111	0xbd817c4b	-0.06322535
112	0xbcf31ce2	-0.029676858
113	0x3d9f820e	0.07788478
114	0xbcb5983e	-0.022167321
115	0xbd1b8a80	-0.03797388
116	0x3cc2934c	0.023751877
117	0xbd9664a3	-0.07343414
118	0x3d7637c4	0.060111776
119	0x3cd34d21	0.025793614
120	0xbd7f0f3e	-0.062270395
121	0xbd84f1b6	-0.06491415
122	0x3d5a89dc	0.05335413
123	0xbb94ebae	-0.004544697
124	0x3d17d066	0.03706398
125	0x3d9b6d84	0.07589248
126	0x3d16fde4	0.036863223
127	0x3d896694	0.06709018
128	0xbda47db3	-0.08031788
129	0x3cd4d78e	0.02598169
130	0xbdade4c8	-0.08490902
131	0x3d9c76c1	0.07639838
132	0x3d842028	0.06451446
133	0xbd0878c4	-0.033318296
134	0x3d027185	0.031846542
135	0x3d367032	0.04454059
136	0x3d354a64	0.044260398
137	0x3cffdeee	0.03123423
138	0xbd9f4291	-0.077763684
139	0x3aebda12	0.0017994067
140	0x3d9e34ed	0.077249385
141	0xbd9e508b	-0.07730206
142	0xbd9afc99	-0.075677104
143	0x3d8132f0	0.06308544
144	0xbda17d2c	-0.07885203
145	0x3d93d3f9	0.07218165
146	0x3d16bdde	0.036802165
147	0x3d847888	0.06468302
148	0x3c85e9e3	0.016346877
149	0x3d1fe5e6	0.039037608
150	0xbda39063	-0.07986524
151	0x3d9f0d75	0.077662386
152	0x392dfe5f	0.00016593326
153	0x3d87855b	0.066172324
154	0x3cab94f6	0.020945054
155	0x3c1b26f7	0.009469739
156	0xbd22c4b6	-0.03973838
157	0x3d858bbf	0.06520795
158	0xbd818231	-0.0632366
159	0x3d04d985	0.032434005
160	0xbc86f804	-0.016475685
161	0xbd67b167	-0.05656567
162	0xbd55e7ef	-0.052223142
163	0x3d4c1d30	0.049832523
164	0x3c6ad498	0.014332913
165	0xbcba7fab	-0.022765955
166	0x3d6be22d	0.057588745
167	0x3c20c2ba	0.009812051
168	0xbc40b14f	-0.011761024
169	0xbd819337	-0.06326907
170	0x3dab4aa2	0.083638445
171	0x3d48c496	0.049015604
172	0x3d26b57e	0.04070043
173	0x3d0b4dfd	0.034009922
174	0xbd4db225	-0.05021872
175	0xbdb48a94	-0.08815494
176	0xbcaa50bb	-0.020790448
177	0x3dac148a	0.08402355
178	0xbd58400f	-0.052795466
179	0xbda2a841	-0.07942248
180	0x3da48998	0.080340564
181	0x3d08b2ab	0.033373516
182	0x3c179273	0.009251225
183	0xbd88472e	-0.066542014
184	0xbd37bd9b	-0.044858556
185	0xbca0cf38	-0.01963006
186	0xbd554dce	-0.052076153
187	0x3aeb52f6	0.0017953801
188	0x3c8d5032	0.017250154
189	0x3d8cb977	0.06871312
190	0x3ce81407	0.028329862
191	0xbd9afa61	-0.07567287
192	0xbc52eadf	-0.01287338
193	0xbd013be5	-0.03155126
194	0xbd7c266e	-0.061560087
195	0x3d555b7b	0.052089196
196	0xbd52f0c8	-0.05149916
197	0x3d53a508	0.051671058
198	0x3dbdc616	0.092662975
199	0xbd8da548	-0.069162905
200	0xbc3c972b	-0.011510651
201	0xbcbc5a36	-0.022992235
202	0x3abd56d9	0.0014445438
203	0xbda0fe25	-0.07860974
204	0x3d82d52b	0.06388315
205	0xbd1e1ae8	-0.03859988
206	0xbd737095	-0.05943354
207	0xbda5dfbf	-0.08099317
208	0xbdbbd209	-0.091709204
209	0xbd88dd60	-0.06682849
210	0xbcb29430	-0.021799177
211	0x3ba4bcdb	0.005027396
212	0xbbcc01c7	-0.006225798
213	0xbccfdbd5	-0.025373379
214	0xbd8d19ed	-0.068897106
215	0xbc8812a6	-0.016610455
216	0x3ced2ef0	0.028953046
217	0x3d4bd65a	0.04976497
218	0xbbd4564b	-0.0064800135
219	0xbcfa0933	-0.030521965
220	0x3d7a6cc6	0.06113889
221	0x3cc40357	0.023927374
222	0xbd6ddb93	-0.05807073
223	0x3c326b18	0.010889791
224	0xbd43248f	-0.047642287
225	0x3d6aba9e	0.05730688
226	0xbd42332e	-0.04741209
227	0xbd8b7b96	-0.068106815
228	0xbd571dce	-0.05251866
229	0xbd6f72df	-0.05845916
230	0x3d834e53	0.064114235
231	0x3da431cf	0.08017313
232	0x3c4f5c3c	0.012656268
233	0x3bc0cf77	0.0058841067
234	0x3d25b190	0.04045254
235	0x3d3b491f	0.04572403
236	0xbd7e473a	-0.062079646
237	0x3d80389d	0.06260798
238	0x3c99d4a7	0.018778158
239	0x3d5615ba	0.052266814
240	0x3d2e965b	0.04262386
241	0x3d8e4eb4	0.06948605
242	0x3ce7566f	0.028239457
243	0xbd7468aa	-0.059670128
244	0xbd315ec5	-0.04330327
245	0x3bc90263	0.0061343177
246	0x3ce1e3f1	0.027574511
247	0xbd14fa63	-0.0363716
248	0xbd87472b	-0.06605371
249	0x3c7d17ab	0.015447537
250	0xbd5228a4	-0.05130829
251	0xbda933b6	-0.08261816
252	0x3da7fd0b	0.08202561
253	0xbc06e0e6	-0.008232331
254	0x3c9109ca	0.017704863
255	0x3d0570bd	0.03257822

actor.linears.1.bias f4 [128]
0	0x3d8ebc65	0.06969527
1	0x3d148b80	0.03626585
2	0xbd3f0150	-0.04663211
3	0x3d76547e	0.06013917
4	0xbd69feea	-0.05712787
5	0xbce0e255	-0.027451674
6	0x3db80693	0.08985629
7	0x3d6ab2db	0.057299476
8	0x3b13f568	0.0022576693
9	0xbc81dfa1	-0.015853705
10	0xbcbed7cb	-0.023296257
11	0x3d870fd7	0.06594818
12	0x3d922446	0.07135825
13	0xbd9b0fb8	-0.075713575
14	0x3d97962c	0.0740169
15	0x3d81003a	0.06298871
16	0xbc9ea079	-0.019363629
17	0xbd634990	-0.055490077
18	0x3d19b7cf	0.03752881
19	0xbc4adfd5	-0.012382467
20	0xbdad6905	-0.084672965
21	0x3d8ed59a	0.06974335
22	0xbd8647a2	-0.065566316
23	0xbbca2ad2	-0.0061696554
24	0xbc19ff35	-0.009399225
25	0x3d5d1ad2	0.053980656
26	0x3dab90cd	0.08377228
27	0x3cbd2378	0.023088202
28	0x3da6d330	0.081457496
29	0x3d0d441c	0.034488782
30	0xbcd0e440	-0.025499463
31	0x3ccfcefa	0.025367249
32	0xbc0e0466	-0.008668041
33	0x3d9fc7bb	0.078017674
34	0x3d8f3d7c	0.06994149
35	0x3d9dad7c	0.07699105
36	0x3dae2363	0.08502843
37	0xbc51572e	-0.012777133
38	0x3d89b424	0.06723812
39	0x3cc84bfa	0.024450291
40	0xbd32865a	-0.04358516
41	0xbc60e856	-0.013727268
42	0x3c024d9c	0.007953074
43	0xbd05f339	-0.03270266
44	0x3d3f776c	0.04674475
45	0xbd0162c7	-0.031588342
46	0x3c863ea9	0.0163873
47	0xbda2256c	-0.07917294
48	0xbd844a65	-0.06459502
49	0x3db991f6	0.09061043
50	0xbd53881d	-0.05164348
51	0xbd549784	-0.05190231
52	0x3c9d9632	0.019236658
53	0x3d8f5325	0.069982804
54	0xbd9b8e6a	-0.07595523
55	0xbd61eb58	-0.055156082
56	0x3ca5d786	0.020244371
57	0xbd56829a	-0.052370645
58	0x3afd55d0	0.0019327942
59	0x3cf4e933	0.029896354
60	0xbd80e730	-0.062940955
61	0xbcfe10de	-0.031013902
62	0x3d3e9889	0.046532188
63	0xbda45265	-0.08023528
64	0xbd7b41d1	-0.061342064
65	0x3db2385e	0.087021574
66	0xbc86ed3e	-0.016470548
67	0xbdb2cd25	-0.087305345
68	0xbdba7b46	-0.09105544
69	0x3d92d196	0.071688816
70	0xbc58101d	-0.013187435
71	0x3d087168	0.033311278
72	0xbcf741aa	-0.030182678
73	0x3cc7d535	0.024393657
74	0xbcb25f46	-0.021773946
75	0xbdb890a8	-0.09011966
76	0xbd3f173a	-0.04665301
77	0x3cec8cd0	0.028875738
78	0xbdbdf9d6	-0.09276168
79	0x3c02bffe	0.007980345
80	0xbd5d2ce4	-0.05399789
81	0xbd45e145	-0.048310537
82	0x3d38c73b	0.045111876
83	0xbc680bde	-0.014162986
84	0x3d742c75	0.05961271
85	0xbca2d6e9	-0.019877868
86	0x3d1dd160	0.038529754
87	0x3c0ef60f	0.008725657
88	0xbd218a66	-0.039438628
89	0x3d5e3241	0.054247145
90	0xbcef3957	-0.029202146
91	0xbc83157e	-0.01600146
92	0x3d96c691	0.07362092
93	0x3d9c976c	0.07646069
94	0x3d6c64f2	0.057713456
95	0x3d8357ea	0.06413253
96	0x3d9cf755	0.07664362
97	0x3d5693f4	0.052387193
98	0x3d8d215e	0.0689113
99	0xbcdbd125	-0.026833126
100	0x3d8d4c68	0.06899339
101	0xbd77bc65	-0.0604824
102	0x3d25bdbe	0.040464155
103	0xbdbb2fb1	-0.09139956
104	0x3d02343e	0.031788103
105	0xbc74b187	-0.014934904
106	0x3c3adca1	0.011405141
107	0x3cf6582e	0.030071344
108	0x3cdf5b64	0.027265258
109	0x3d21e3a8	0.03952375
110	0xbd956298	-0.07294196
111	0x3da23b35	0.07921449
112	0x3dbc9b42	0.092093006
113	0xbce7dd4e	-0.028303768
114	0x3d93a46e	0.07209097
115	0xbdac8c55	-0.08425204
116	0x3dac925a	0.08426352
117	0xbd7ab2d7	-0.06120571
118	0x3d8f1694	0.06986728
119	0x3d3b45c7	0.04572084
120	0xbc2b382d	-0.010450405
121	0xbd44cbed	-0.04804604
122	0x38de5867	0.00010602251
123	0x3d00fc61	0.031490687
124	0x3d357496	0.04430064
125	0x3da4c8fe	0.08046149
126	0xbccd313e	-0.025047895
127	0x3d97dcaf	0.07415139
