FJSP_MultiPPO/saved_network/FJSP_J50M205/best_value00/policy_job.pth (torch_old, 637559 bytes, 53 tensors)

_input f4 [128]
00000000: 0960 2c3f f4ed 673e 1e6a 533f 54d8 51bf
00000010: 5532 c2be 687a 783f 9493 89be 0b43 c6be
00000020: c022 2b3f 1617 5c3f e44f 633f 9c0a 94bc
00000030: ac4b 77be 4dcf 053e 33b0 5ebd b5e8 34bf
00000040: dcef 1ebf c77f e83e 4c64 133f 1b81 35be
00000050: a007 c5be e706 3d3f d5eb d7bd 9b96 4ebe
00000060: bd29 13bf 129e d23e a916 35bf 58fc 573f
00000070: a972 19bf dd1a 01bf 4e59 203e 5eae f83e
00000080: 5325 3e3f add8 08bf 562a bcbe 201f 02bd
00000090: 63c1 743f bb42 3a3f 866b e73e f8e1 79be
000000a0: 30f4 d2be aab7 d6be 1327 163c d15a 90bd
000000b0: b3ec e53c 6b69 383f b670 28bf 40b9 2d3f
000000c0: 3659 833d d458 f0be 880c 83be e093 82be
000000d0: 651f 73bf 9309 08bf 742f 69bf 24b2 c4be
000000e0: 4d21 583e 71d9 30bf 32af 7b3d 1038 1bbf
000000f0: 2a4f 4abf c779 b8bd ec63 b6be 589f 5fbf
00000100: 4fc0 623f fea8 c63e 03ee 10be c451 05bf
00000110: b0aa 75bf 7d41 193d 2afe fbbe 4c0c d6bd
00000120: 637f e9be bc1f 7dbe 48c0 3b3e 70c4 60bf
00000130: dc69 7e3f 503b fa3d 2dad 9dbe 30eb 483f
00000140: 2af7 113f b815 d9bc 1d2f 4a3e d65f 2d3e
00000150: ed85 08bf 4708 7ebf 2b74 523f 64e8 2a3e
00000160: 5176 463e b27b b43e 10d0 54bf 72e4 633f
00000170: 960e 363f 79f7 4d3f 573f 73bf b2b4 673f
00000180: 4d33 323f f229 80bf 6ec5 abbe 1fb8 9bbe
00000190: 247e 64bf 136d 63bf 080d 393e df8a 7ebf
000001a0: 86bb ba3e beaa 0fbf 5fc1 c83e 6f20 be3e
000001b0: f494 5fbe 56d3 613d 16ee b0bd d93d 2f3e
000001c0: 469b 943e 8b9d d63e f8a3 b4bc 6cb1 63bf
000001d0: 9b6d 753e a311 0d3f 047f 34be 357d 693f
000001e0: 12a0 7ebf 0ae0 b8be 8eae 603f fc3e 4dbc
000001f0: 889e 263f db86 ec3e 8806 253f 60b9 703f
0.6733404 0.22649366 0.82583797 -0.81970716 -0.37929025 0.9706178 -0.26870406 -0.38723025
0.668499 0.85972726 0.8879378 -0.018071465 -0.2414996 0.1306736 -0.054367255 -0.7066758
-0.62084746 0.45409986 0.57574916 -0.17725031 -0.3848238 0.7383866 -0.10543028 -0.20174639
-0.5748556 0.41136223 -0.707377 0.8436942 -0.5994058 -0.50431615 0.15659067 0.48570532
0.742757 -0.5345562 -0.3675105 -0.031767964 0.95607585 0.7275807 0.4519922 -0.24402606
-0.41201925 -0.41937 0.009164589 -0.07048572 0.028066969 0.72035855 -0.65796983 0.67860794
0.064135 -0.4694277 -0.25595498 -0.25503445 -0.9496978 -0.5313961 -0.9108803 -0.3841716
0.21106453 -0.6908179 0.061446376 -0.6063242 -0.79027045 -0.09007602 -0.3562311 -0.87352514
0.8857469 0.38800806 -0.14153294 -0.5207789 -0.95963573 0.03741597 -0.4921735 -0.10451564
-0.45605 -0.24719137 0.18335068 -0.8779974 0.9938028 0.12218344 -0.30796185 0.7848387
0.5701777 -0.026499614 0.19744535 0.1693109 -0.53329355 -0.9923138 0.8220851 0.16690212
0.19381072 0.35250622 -0.8312998 0.89020455 0.71116006 0.8045574 -0.95018524 0.90510094
0.6960953 -1.0012801 -0.33549064 -0.3041391 -0.89254975 -0.8883831 0.18071377 -0.9943065
0.36471194 -0.56119907 0.3921003 0.3713412 -0.21834165 0.055133186 -0.08639161 0.17113437
0.29024714 0.4191707 -0.022050843 -0.889426 0.23967592 0.55105036 -0.17626578 0.91206676
-0.99463 -0.36108428 0.8776635 -0.012527224 0.6508565 0.46196637 0.6446309 0.9403286

bn.weight f4 [2]
00000000: 0000 803f 0000 803f
1.0 1.0

bn.bias f4 [2]
00000000: 0000 0000 0000 0000
0.0 0.0

bn.running_mean f4 [2]
00000000: 0000 0000 0000 0000
0.0 0.0

bn.running_var f4 [2]
00000000: 0000 803f 0000 803f
1.0 1.0

encoder.feature_extract.mlps.0.linears.0.weight f4 [128, 2]
00000000: d721 113f d7db 58be adde c4be 0078 d9bd
00000010: b4fd d3be 31cb 033f 07bb b03e a90d 03bf
00000020: dd7e e33e 855f 1c3e 82df f2be e608 a9be
00000030: 5103 c9bc 234c e8be 2b46 d83e 9d53 893e
00000040: 73bb 59be ab7a 15bf aeac 1dbf c98e 0e3f
00000050: 50dc 353e 9f3e 42be c548 7e3c ec16 d33e
00000060: 6a68 62be 780c fd3e 9a07 f8be b41f a7bd
00000070: 3a9c 483e ed2f 2fbf 5ca7 f9be c3ab e0be
00000080: 208b 9a3e 4410 20bf 0a10 fdbe 166a f73e
00000090: 5413 91be 85c1 ebbd 9415 e2be 57bf 2f3f
000000a0: e63d 073f de0c fcbe c69b ea3e 28c8 cb3e
000000b0: c969 45be 2f38 cabd 4213 e6be d385 e53e
000000c0: d48a 6c3e 2c5e ac3e bee7 1b3f ac9d 0bbf
000000d0: fcb5 313f d490 653e 0980 3c3e 6f84 e5bb
000000e0: e293 fcbd 3c65 c73e 1f55 b7be 0f6b e5bd
000000f0: 0253 83be 48ec 24bf 252a bc3e 4b42 f03d
00000100: c071 ce3e 15bf 213f 36b9 323f 8b9c da3e
00000110: dcf9 043f 278d b43e 2a69 bc3e 99ea afbe
00000120: 8bb4 9d3e ad4c 04be 7e09 b33e 5d74 9fbd
00000130: cb16 193f 12b2 a0be ec73 2e3f ab70 0ebf
00000140: d236 343f f0e5 1e3f 3165 28bf 386d 0b3f
00000150: 71d2 153f 9a37 12bf 6aa9 87be f346 e4be
00000160: 592c fb3c 891e 813c 763b fdbe becb af3e
00000170: 96fe 3ebe f155 05bf d9a9 0fbf fdfd 86be
00000180: 18d3 0cbe 688e d5be 17a7 123f f5c0 853e
00000190: f91b 253e 9bb3 0b3f 36c1 31bf 92ae 3bbe
000001a0: 640b 28bf 4111 223f d36a 913e 79d7 973d
000001b0: 7472 d73c 3a70 c5bd ae46 193f 0ae8 8e3e
000001c0: 43f8 2cbf 61a3 1bbf d8fa 353f 93bb 0a3e
000001d0: 357e 9fbe e093 54bb 5a7d 2b3f f51c aa3e
000001e0: 314b 0b3f 098a a13d fa6e 2d3f 1f40 7bbd
000001f0: 8ca1 9fbe b8a3 063f 5bef ce3e dac5 fa3d
00000200: 615b c43d 4a74 243f ca0f e8bb cd15 e23d
00000210: f39b 903e 910c e73e 3db4 adbd 2aa3 e1bd
00000220: 7dfb 263e 3b5a 26be 1697 6dbe a38f 113f
00000230: f39f 1dbf 25a0 7d3e 0457 66bd e034 313f
00000240: 393a 20be 3823 a83e d971 063f 5135 bcbe
00000250: 82da 8e3e 69b9 173f 75b3 efbc d3a7 9bbe
00000260: 0076 013f 9f51 e9be babd 29bf 673b a33e
00000270: 2a91 83be a67a cebe 7009 e93c 874e 1f3f
00000280: 3559 d0bc c559 e6be b821 f6bd cfeb 1dbf
00000290: 3522 19bf 205f 77be 0cf7 013f 9e44 08bf
000002a0: f493 e3be 5b74 eabe b45d f9be 6448 933d
000002b0: a6d0 b6bc 0e30 21be 0280 a33d f517 253f
000002c0: 263d d23d 9e89 31bf cef3 673e 6b28 0a3e
000002d0: ceaa 9b3d b9f1 c3be 7da9 d8bd 7f3f 6e3e
000002e0: 3e79 f13e ccd3 173f 7644 0e3f 6b30 82be
000002f0: aa17 90be 0d4a 2abf 7b19 04bd d3ad 0f3f
00000300: 728a 33bf b954 263f 4abc 103f 44f6 843e
00000310: 51a1 dbbe 8a32 9f3b 3ffa 463e 46b7 283f
00000320: 6693 f03e 890d 343f 5e08 9abe 176a 073f
00000330: 8da3 b73e 2eea bb3e 3ad4 02bf 4712 f63e
00000340: 44aa b33d 3c7d 0a3d 2912 03be 5132 0e3f
00000350: 36bc 253f 7957 2bbf 656c aabb 1ea1 a03b
00000360: 8466 b1be 3f4a 233f 12cd 0e3f c267 10be
00000370: 9456 1dbd c968 aebe 21a9 28bf dd4b 243f
00000380: b66c 923d 2b34 32bf cc7b 3d3e 38db 85be
00000390: 4652 1dbf 00dd 19bf 071a 67be 16a2 083f
000003a0: 5dc0 653e 9e5c efbe 1b18 ac3b 52da 043e
000003b0: ba61 babe f64a 2e3f 6ce2 08bf 47a0 cb3e
000003c0: 27e0 1f3d ca80 c53e a497 b5be c5a7 84be
000003d0: 692b d9be bed2 0e3f 0a92 22bf df69 923e
000003e0: 16b9 a3be 77a2 253f 7ce6 0b3f e388 27bf
000003f0: 994a 233f e93c b03e afa1 523e ea23 06bf
0.5669226 -0.21177612 -0.38451138 -0.10618591 -0.41404498 0.5148192 0.3451769 -0.5119272
0.44432727 0.15270813 -0.47436148 -0.330146 -0.024537714 -0.45370588 0.42241034 0.26821604
-0.21262912 -0.583903 -0.61591613 0.5568662 0.17759824 -0.189692 0.015520279 0.41228426
-0.22110143 0.49423575 -0.484433 -0.08160344 0.19590846 -0.68432504 -0.48760498 -0.43881044
0.3018427 -0.6252482 -0.494263 0.48323125 -0.2833506 -0.1151152 -0.44157088 0.68651336
0.52828825 -0.49228567 0.4582197 0.39801145 -0.19278635 -0.098739974 -0.44936568 0.44828662
0.23099834 0.33665597 0.60900486 -0.54537463 0.6941831 0.22418529 0.18408217 -0.0070043127
-0.12332894 0.38944423 -0.3580713 -0.112020604 -0.25649267 -0.64423037 0.36750904 0.117313944
0.4032116 0.63182193 0.6981386 0.42697558 0.51943755 0.3526394 0.36798984 -0.3435867
0.30801806 -0.12919874 0.3496818 -0.077858664 0.59800404 -0.31385857 0.6814563 -0.5564067
0.7039615 0.62069607 -0.65779406 0.5446353 0.58524233 -0.5711609 -0.2649644 -0.4458538
0.030660795 0.01576163 -0.49459428 0.3433513 -0.18651804 -0.5208426 -0.5611854 -0.26365653
-0.13752401 -0.4171021 0.5728621 0.26123777 0.16123952 0.5457093 -0.6943544 -0.18328312
-0.6564238 0.6330758 0.28401813 0.07414145 0.026299693 -0.09640546 0.59873474 0.27911407
-0.6756632 -0.6079617 0.7108588 0.13548116 -0.31150976 -0.0032436773 0.66988146 0.33225217
0.5441161 0.07887656 0.6774746 -0.061340448 -0.31177938 0.52593565 0.4041699 0.122447684
0.09587742 0.64239943 -0.0070819603 0.110393144 0.2824398 0.45126775 -0.08481643 -0.11017449
0.16306873 -0.16245358 -0.23202166 0.568598 -0.6157219 0.24768122 -0.05623533 0.69221306
-0.1564721 0.3283937 0.5251747 -0.36759427 0.27901083 0.5926729 -0.029260376 -0.30401477
0.5057068 -0.45570084 -0.66305125 0.31881258 -0.2569669 -0.40327948 0.028446883 0.622292
-0.025433162 -0.44990364 -0.1201815 -0.6168794 -0.5981782 -0.24157381 0.5076759 -0.532297
-0.44448817 -0.45791897 -0.48704302 0.07191542 -0.022316288 -0.15740988 0.079834 0.6448968
0.102655694 -0.6935061 0.22651598 0.1349198 0.07600938 -0.38270357 -0.10579202 0.2326641
0.47162813 0.5930755 0.55573213 -0.25427565 -0.28143054 -0.6651924 -0.032250863 0.5612461
-0.70133126 0.64973027 0.56537306 0.25969136 -0.42896512 0.0048583196 0.19431399 0.65904653
0.46987456 0.70333153 -0.3008451 0.52896255 0.35866967 0.36702102 -0.5110508 0.4806082
0.0877271 0.03381084 -0.12799896 0.55545527 0.6474031 -0.6693035 -0.00520091 0.004902019
-0.34648526 0.63785166 0.5578166 -0.1410208 -0.038412645 -0.3406432 -0.6588307 0.6417826
0.07149641 -0.6961085 0.18504256 -0.26143813 -0.61453664 -0.60102844 -0.22568522 0.53372324
0.22436662 -0.4675035 0.005251897 0.12973908 -0.36402684 0.6808313 -0.5347049 0.3977072
0.039032128 0.3857482 -0.35467255 -0.25909248 -0.42415932 0.5579032 -0.6350409 0.28596398
-0.31977147 0.64701027 0.54648566 -0.6544325 0.637857 0.3442147 0.2056949 -0.5239855

encoder.feature_extract.mlps.0.linears.0.bias f4 [128]
00000000: e48c 153f fb73 7e3d be77 503e b7d3 8f3e
00000010: db7d 253e 2f17 893e 9476 2ebf c2ff 22be
00000020: 3a5a d4be afe4 213e f5c2 1abf c0a9 8f3e
00000030: 309c 18be 4f4c 3e3e 634c f0be 0288 11be
00000040: 95a2 d0be a96d 18bf 55eb d3be f7bc 1e3f
00000050: da7a 503e 7885 d03d 2920 b8be 2b58 9c3e
00000060: 160a 443d 0047 073f 2158 1c3f 9d91 b8be
00000070: e4c7 c63e 7231 ac3e e141 1cbe 579c 253f
00000080: 0912 1b3f 2f2a 34bd d449 b0be ae90 a73d
00000090: 5f63 cebc 6fdc 023e 1c54 55be f03b 95be
000000a0: d8cc 3b3d ee12 03be 289d 843e e861 97bc
000000b0: 6ff9 b23d 3c80 12be e2ca b93c 4322 2dbf
000000c0: c58e dc3e c6fe eb3e a3fd c33e 7338 2cbf
000000d0: ce93 dbbe 43e2 5d3e a602 153f 830b a1be
000000e0: 8c59 00bf 3d9c 193d dacd 833e 838e bb3e
000000f0: aeef f13e 36ad b3be ae17 533d a164 d23e
00000100: 3965 f73e a1c0 f13e 835d 0a3e c4ea ccbe
00000110: db88 e63e 3c1c 15bf abcb b33e a6dd 8cbe
00000120: c3bf 1bbe 1649 1fbf 681c ed3b 94cf c63e
00000130: 541f d43b ba72 9cbe 964d 30be 8c7f f53e
00000140: d118 59be 542b 013f 810d 9cbe 7566 2abe
00000150: c625 8ebe c374 dbbe 6691 69bd b1b8 26bf
00000160: 64e1 ff3e eff2 ef3e 3460 61be 1798 253f
00000170: 926d 263f c5ac 2bbf da0e e7be 5d2c 483e
00000180: c7fa 313e e090 0c3f 8332 1bbf bc1d 96be
00000190: 8505 a43e 9d82 2e3f 88ff 2fbe f229 cabe
000001a0: 454b 2ebf 144a 213f 5c21 f5be a807 603e
000001b0: c00d 083f 398a d7be f92d 843b e996 a03e
000001c0: d490 81bd d18e b13e 28b9 c03c 28eb 193f
000001d0: 957e b9be 69eb cb3e ecf4 193f c80b 003f
000001e0: 50fd e73e f8a0 b23e 7e47 6dbe 356a 2abc
000001f0: 6a15 25bf 89c7 25be 4d88 55be a03a b7be
0.5841811 0.062122326 0.20358178 0.28091213 0.16161291 0.267755 -0.68149686 -0.15917876
-0.41475087 0.15809892 -0.6045373 0.28059196 -0.14903331 0.18583797 -0.46933278 -0.14212039
-0.4074904 -0.5954233 -0.41390482 0.6200709 0.20359364 0.10181707 -0.35962036 0.30536017
0.04786118 0.5284271 0.61071974 -0.36048594 0.3882438 0.33631474 -0.15259506 0.6469168
0.60574394 -0.043985542 -0.34431326 0.08181892 -0.025193868 0.12779401 -0.20832866 -0.2914729
0.04584965 -0.1280019 0.2590115 -0.018479303 0.08738982 -0.1430673 0.02267975 -0.67630404
0.43077675 0.46092814 0.38279447 -0.67273635 -0.42886204 0.21668343 0.58207166 -0.31454095
-0.5013664 0.037502516 0.2574299 0.36632165 0.47253174 -0.35093087 0.051536255 0.410924
0.48319414 0.47217277 0.13512234 -0.40022862 0.45026287 -0.5824621 0.35116324 -0.27512854
-0.1520987 -0.62220895 0.0072360523 0.38830245 0.006473461 -0.3055628 -0.17217097 0.47948873
-0.21200873 0.5045674 -0.30479053 -0.16640647 -0.27763194 -0.4286252 -0.05702343 -0.65125567
0.49976647 0.4686503 -0.22009355 0.64685196 0.6501094 -0.670605 -0.45128518 0.19548173
0.1738082 0.5490856 -0.6062395 -0.2931956 0.3203546 0.6816805 -0.17187321 -0.39485127
-0.680836 0.6300366 -0.47877014 0.2187792 0.5314598 -0.42097643 0.0040338007 0.31365135
-0.06326452 0.34679273 0.02352579 0.60124445 -0.36229387 0.3982804 0.60139346 0.50017977
0.4531045 0.34888434 -0.23171803 -0.010401298 -0.644858 -0.16189398 -0.20852776 -0.35786915

encoder.feature_extract.mlps.0.linears.1.weight f4 [128, 128]
00000000: ba35 c53c 5be4 9cbd 4037 2b3d 5edb adbb
00000010: 2f56 b9bd 8c5d c43c c0b0 8d3c 0a99 47bd
00000020: 6688 a2bd a20b 90b9 0d2d 99bd ac1a 49bd
00000030: b6d1 a7bc acf9 713d 4031 173d 07e7 21bd
00000040: 1c02 d6bc 332f 12bc 1cdb b13d b78c a83d
00000050: 67df a1bd 289c 8ebd 09d2 a73d 48ed 74bd
00000060: 2d22 33bd dd13 813d 2a3e b13c 5013 b2bc
00000070: c1d5 eb3c 14c1 073c 63d9 47bd 305b e4bc
00000080: 8709 9f3d 05a9 433d 5602 7c3d 09ac 8b3d
00000090: 28d0 c63c 2803 a2bd 90a1 e83c cc4a b2bd
000000a0: aaa7 e4bc 959e 1f3b 9228 0c3b e146 16bb
000000b0: 2bb7 8b3d f81e b73d a902 cebc 72c4 4dbd
000000c0: 4415 943d 1318 7dbc 7e62 413c 632b 553d
000000d0: 9a93 3ebd e5f6 bfbb ff73 f13c f1d7 08bd
000000e0: a412 633d 3723 0cbd e133 873d 3894 44bd
000000f0: d2ca 04bd 797a a8bc ef65 4c3d 8d2b 773d
00000100: 3587 7d3d 1f0b aa3c 0992 21b8 da2c 83bc
00000110: 8474 de3c a2d7 99bd b32a 2abd 211e ae3d
00000120: 4803 5dbd db9e 933d 77af abbd 874f 89bd
00000130: bee0 9e3d 7582 ae3d b0c9 79bc da48 8c3d
00000140: b524 833d 0a79 4bbd 63d5 aabc af3f 6ebd
00000150: e23b 963b 327d 503c bd8c 6fbc 8144 a4bd
00000160: 86a4 4dbd 5c3b 403c eb69 76bd cbc2 5bbd
00000170: c29a 4f3c 96f3 2b3c 06f6 293d 6f30 bc3d
00000180: 9568 413d f46f b4bc 284a 863d 8959 ad3c
00000190: 4fd5 a9bd 98b8 86bd b51a a3bd 4b3d 86bd
000001a0: 3657 973d f233 58bd 199d 023c d463 6cbd
000001b0: d3c0 963d f207 0dba c126 983d e9b3 7e3d
000001c0: 2deb cebc 8913 523d 044a f4bc 6574 043d
000001d0: d803 6a3d b039 6bbd 1871 62bd 1d21 efbc
000001e0: 4c75 d5bc 4ee5 853c f766 23bd d03f 8f3d
000001f0: a80a a43b 4d17 7c3d c128 e9bc 4a79 07bd
00000200: ebe1 23bd 5282 2b3d 2320 1dbd 4fe9 b0bd
00000210: 7f19 66bd 5d0d 1cbd 76e1 363c c720 a53d
00000220: ebe4 80bd 69f5 4a3d 651c a13d c675 c0bb
00000230: 9fb9 fdbc e72c f03c 026e b33c 6beb 973d
00000240: 064a 1f3d 1cdb 5abd 050b 41bd 40f0 b2bd
00000250: 4d61 8f3c cad4 de3c cb29 953d 8ebb 9b3d
00000260: 7821 49bd 0c22 b7bd 9ab0 1e3b f36e a13d
00000270: 0238 bf3c c5b0 f63c ce10 7a3d 2bd2 36bc
00000280: 45a3 0ebd 41ab abbd 3ff4 e23c 0849 97bd
00000290: 7a92 e0bb 5b67 993d 6c20 9a3d ac5e adba
000002a0: 1e0f 71bd 0ee9 22bd b4c1 683d 0659 77bd
000002b0: e4d1 7a3d 6530 60bd effd 753d 9f85 083d
000002c0: e6f8 2e3d 68bc bdbd d92a 1abc dca5 45bb
000002d0: 3c33 85bc ca6e 37bb ef68 90bd bfcd a1bd
000002e0: eedf b63c fe58 a0bc 3939 b0bd 436c 313d
000002f0: cf01 60bd 7a5e 653d b515 91bd 5e4e ed3c
00000300: 001c acbc 6f51 3b3c 7d62 3fbd 93bd b13d
00000310: b3a5 ad3d ae7d 043d 1840 83bd 20b1 abbd
00000320: b6c8 3a3d a01f 6f3d ce55 ce3c 5bf1 7bbd
00000330: 8de9 3abd a3ad c8ba 1b4b 873d a520 06bd
00000340: 926d 89bd d2b3 b1bd a6b1 1dbd 6faf 413d
00000350: c32b ef3b 42b8 4a3c c52a ee3c 40f8 823d
00000360: 3747 353c ea41 0d3d 87a8 733d d3f5 83bd
00000370: d9d9 b5bc 44b7 22bd 1cbc f43c 87c4 893d
00000380: 3201 43bd 0b9a 92bd a6c2 0c3d 4dd5 9fbd
00000390: 4197 973d 19e3 b5bc ac91 7bbd 52ff 8a3c
000003a0: 5273 66bd 3f85 953d 713c 15bd 9f55 96bc
000003b0: 85a3 273d aed3 653d 5be4 19bd 536a a9bd
000003c0: bd5b 37bd b49e b1bd cce6 8c3d c95c 863d
000003d0: a721 5dbd 3c2d a4bd c569 30bd 82ad 473c
000003e0: d45b 483d 380b 05bd eb4c 95bd 703e 2e3d
000003f0: 5b57 3b3d 8fef 1c3d 14f5 cc3c ad96 ae3d
0.02407347 -0.07660743 0.041800737 -0.0053056916 -0.09049641 0.023970388 0.017296195 -0.048729934
-0.07936172 -0.00027474487 -0.07479296 -0.049097702 -0.02048574 0.059075996 0.036912203 -0.039526965
-0.026124053 -0.008922386 0.0868437 0.08229964 -0.07903939 -0.06963378 0.08194358 -0.0597966
-0.043733764 0.06302617 0.021636087 -0.021737725 0.02878845 0.0082857795 -0.0487913 -0.027875513
0.07765489 0.04776861 0.061525665 0.068199225 0.024269179 -0.07910758 0.028397352 -0.087056726
-0.02791198 0.0024355997 0.0021386486 -0.002293043 0.06822046 0.08941454 -0.025147753 -0.050236173
0.072306186 -0.015447634 0.0118032675 0.05204333 -0.046527483 -0.0058582895 0.029474257 -0.033409063
0.0554377 -0.03421327 0.06601692 -0.047992915 -0.032419987 -0.020566212 0.0499019 0.060344268
0.06189652 0.020757256 -3.8521397e-05 -0.016012598 0.027155168 -0.07511832 -0.041544627 0.085018404
-0.053958207 0.07208034 -0.08383077 -0.06704622 0.0775771 0.085209765 -0.01524584 0.06849833
0.06403486 -0.04967598 -0.020853704 -0.058166202 0.0045847753 0.012725161 -0.014620957 -0.080208786
-0.05020573 0.011732902 -0.060159605 -0.053652566 0.0126711745 0.010495087 0.04149439 0.091889255
0.047218878 -0.02202604 0.06557113 0.021160858 -0.082926385 -0.06578177 -0.07964078 -0.065546595
0.07389681 -0.052783914 0.007972025 -0.05771239 0.07360997 -0.0005379907 0.07429267 0.062183294
-0.025258625 0.05128816 -0.02982045 0.032337565 0.057132572 -0.057428062 -0.055283636 -0.029190594
-0.026056908 0.016344693 -0.039893117 0.06994593 0.005006153 0.06154566 -0.028461816 -0.033074655
-0.040010374 0.04187233 -0.038360726 -0.0863825 -0.05617666 -0.03809868 0.0111621525 0.080628924
-0.06293663 0.049550448 0.07866744 -0.0058734147 -0.0309723 0.029318286 0.021903042 0.07417949
0.038888954 -0.053431615 -0.04712965 -0.0873723 0.017502451 0.027201075 0.07283362 0.076041326
-0.049104184 -0.08942041 0.002421415 0.0788249 0.023342136 0.030113587 0.061051182 -0.011158506
-0.034823675 -0.083822735 0.027704356 -0.073869765 -0.006853399 0.074904166 0.07525715 -0.0013227067
-0.058852307 -0.03977304 0.056825355 -0.060387634 0.061235324 -0.054733653 0.060056623 0.033330556
0.042717837 -0.09264451 -0.00940963 -0.0030158674 -0.016259782 -0.002798962 -0.070512645 -0.07900571
0.022323575 -0.019573685 -0.08604664 0.043316137 -0.054689225 0.055998303 -0.070842184 0.028968032
-0.021009445 0.0114329895 -0.046724785 0.086787365 0.0847887 0.03234642 -0.06408709 -0.08383393
0.04560157 0.05837977 0.0251874 -0.06150947 -0.045632888 -0.0015310537 0.06606122 -0.032745976
-0.06710352 -0.08676876 -0.038499497 0.047286447 0.007298918 0.012373032 0.029073128 0.06395006
0.011064342 0.03448669 0.059486892 -0.064433716 -0.022198604 -0.039725557 0.029874854 0.06726938
-0.04760856 -0.071582876 0.03436532 -0.07804356 0.07401896 -0.022203015 -0.06141822 0.01696745
-0.05626232 0.07300805 -0.036434595 -0.018351374 0.04092743 0.056110077 -0.037571292 -0.08272233
-0.044765223 -0.08672848 0.068799585 0.06560666 -0.05398717 -0.0801644 -0.04306962 0.012187364
0.0489157 -0.032481402 -0.072900616 0.042540014 0.045737606 0.0383144 0.025019206 0.08524833

encoder.feature_extract.mlps.0.linears.1.bias f4 [128]
00000000: beb4 8ebd 9b03 c6bc ade2 5dbb c61f ab3d
00000010: 4d8f 9dbd 56ef 80bc 9993 923d 4523 2c3d
00000020: 5e51 df3c dc49 8d3d c064 9f3d a097 863c
00000030: 8407 12bd 28c2 a4bc e1d5 fa3c 8e84 60bd
00000040: 41d7 963d 1f1c 3b3d 62d3 1fbd 45b2 593d
00000050: 3ba8 9b3d 3cd5 873d d71c 8ebd a62f 723d
00000060: 9b85 ab3d 0a77 ad3d 6f35 ee3a ff5c 43bd
00000070: 8ab9 81bc 9e5d 783d edb0 bf3d de5d ecbc
00000080: def0 733d 33f7 513d d209 99bd 74eb a53d
00000090: 1514 a33c 6911 2ebd ec93 043c 4778 ab3d
000000a0: 7a8f 8dbd 2dc3 f43c ca6e 933d 377f 1d3b
000000b0: d1a3 c23d 146e 083d 9abc dfbc 5521 aebd
000000c0: 41c5 3d3c baba 0abd 6aaa 6c3d 5329 863d
000000d0: 24e1 2e3d 03d4 823c 443a b0bc c53e 8ebc
000000e0: 0b86 89bd 3e7c 803c 527e ea3c 9413 8a3d
000000f0: 9271 55b9 bfcb a73d 7bd6 963d 3080 543d
00000100: 8a7e 913c 89fc 88bb ed84 00bd 41bf bebd
00000110: 9049 d8bc 4c62 9cbd 877e cf3c 98be 4e3d
00000120: 98d0 6fbd 461d 9dbd 431d 213c 743c ef3c
00000130: e63b 2abc 1675 1f3d 29c6 6ebd 590b 473d
00000140: 739c a1bc 9754 a5bd 77b9 463d 649a 5a3d
00000150: 3138 823d 0626 adbd 09f6 3fbd 1224 373d
00000160: c77d a43d 3133 d23c 1ffa a23c 1508 5d3a
00000170: f767 323c 7426 a23b 3f1f a53d 7ea8 343d
00000180: 35de 973c 7f97 543d 9652 883c ba97 99bd
00000190: 97c4 36bd c65d 933d b436 42bc c184 52bd
000001a0: 2cb2 8fbd 99be 72bd 2bd7 333a 04cb 2338
000001b0: f515 5cbd caf3 72bc c649 e43c e9da 8cba
000001c0: 1b75 a1bd 7e1f 453c 3754 7c3d 2720 93bd
000001d0: bb99 a8bd be1f 95bd b932 babd 7bb9 d63b
000001e0: 5177 4cbd 6019 a03d 8a6f bfbc 9831 3c3d
000001f0: 2395 0d3d db87 41bd c341 7dbd 02a1 edbb
-0.069680676 -0.024171641 -0.0033857033 0.0835567 -0.07693348 -0.015739124 0.07157058 0.042025823
0.027260479 0.06898853 0.077828884 0.016429722 -0.0356517 -0.020112112 0.030619564 -0.054813914
0.07365275 0.045681115 -0.03901995 0.053148527 0.07600447 0.06632468 -0.069390945 0.059127472
0.083750926 0.084699705 0.0018173883 -0.04769611 -0.015835542 0.060636155 0.09359918 -0.028853353
0.05955588 0.05126114 -0.07472576 0.0810155 0.019907037 -0.042497072 0.008091908 0.083725505
-0.069121316 0.029878223 0.07198866 0.0024032125 0.09503902 0.033308104 -0.027311612 -0.08502451
0.0115826735 -0.033869483 0.057779707 0.06550851 0.04269518 0.015970236 -0.021512158 -0.017363915
-0.0671502 0.015684243 0.028624687 0.067420155 -0.00020355571 0.08193158 0.07365128 0.05188006
0.017760534 -0.004180495 -0.031376768 -0.093138225 -0.026402265 -0.07635936 0.025328888 0.050474733
-0.05854854 -0.07671599 0.009833637 0.029203631 -0.010390257 0.03893002 -0.05829445 0.048594806
-0.019727921 -0.08072775 0.048516717 0.053369895 0.06358374 -0.08454518 -0.046865497 0.044712134
0.080318026 0.025659176 0.019894658 0.0008431685 0.010889045 0.0049484316 0.080626 0.044106
0.018538574 0.05190229 0.016640943 -0.07499643 -0.044621076 0.0719562 -0.011853863 -0.051396135
-0.070164055 -0.0592638 0.00068603706 3.90513e-05 -0.053731877 -0.014828632 0.02786721 -0.0010746393
-0.07883664 0.012031434 0.06160375 -0.07183867 -0.08232447 -0.07281445 -0.09091706 0.0065528727
-0.049918476 0.0781734 -0.023368616 0.045945734 0.034566056 -0.047248702 -0.061830293 -0.0072518596

encoder.feature_extract.mlps.0.linears.2.weight f4 [128, 128]
00000000: 839c abbd 9a8f 82bd ef46 a3bd 7b24 2f3d
00000010: f2be 853c 2232 2ebd e737 163d 7af3 7f3d
00000020: afa4 213d 6916 6e3d 7528 2f3d f1b9 b53d
00000030: abf8 58bd e6a4 333d 56a1 4c3c 6ff3 3ebd
00000040: 7eba 813d 0e58 963d 05f5 123d 9716 18bc
00000050: 0ef7 1b3d fa94 43bd 8dc0 08bb fda1 913d
00000060: 3118 8fbd 5665 8bbc c9d9 9cbd 57bb 2fbd
00000070: b174 a83c e4aa 95bd 5170 5b3d 1ec6 1a3d
00000080: 5e63 21bc 24da a2ba 70f7 1f3a 66ed e23c
00000090: 53e9 523d 8872 4a3d e612 823d c4a9 e03c
000000a0: 5044 423c dbb8 36bd 939a 84bc c2ba 1c3d
000000b0: b1ba 1c3d c50f 513d e375 6e3a 1b67 72bd
000000c0: e67c 943d cb1c 823d 43e4 bcbc fa8a 97bb
000000d0: 3707 5ebd f1e9 c53d 6b88 15bc 14a0 3b3d
000000e0: ff77 0cbd 2da7 e9ba 325e 843d a7ca 32bd
000000f0: f754 8f3b ac64 34bd d0fd 2b3d 12e7 58bd
00000100: 7306 f8bc f47f fe3c ceb2 d93c 99c6 c83c
00000110: 5a34 913c 097e 923d 9d47 99bd 0570 8e3c
00000120: 7a26 e63c fc5a d6bb 667b d83c 455a df3c
00000130: 00fb 90bd 28d0 87bd 2bb0 f93c 71fa b03b
00000140: 209a 8fbd dc65 40bd 4204 68bc 6c25 1a3d
00000150: fd9b 35bc 7333 39bd 020d a23d b273 5c3d
00000160: a2b3 3cbd eef7 7b3d 2c5c f4bb c71d 4c3d
00000170: 8c56 913d 92e0 adbd 1a74 06bd 4eec 8abb
00000180: 8af6 38bd 209f 383c 9647 bbbc 3ef8 133d
00000190: 342e c7bc 4949 9fbd 36cf 45bd 3033 243d
000001a0: fd31 973d b437 a2bd ace8 323b 9dd3 a73d
000001b0: c424 c03d 37b8 5a3c 007b 8b3d fdad a73c
000001c0: 250a 8d3d e855 04bc 68b4 6cbd 69cc 06bd
000001d0: 8191 75bd d0eb 18bb 21d6 673d 5039 083b
000001e0: 8dbf 593d 83b4 46bb d4dc 23bd c8c5 74bd
000001f0: 3fe0 a4bd 94cd 323d a0d4 9a3d 38d3 b93d
00000200: a3b0 043d 7d4a 9bbd 4701 113d 33a1 823d
00000210: e511 8ebc cc99 3dbd 85d9 d1bb c7d6 3e3d
00000220: dcd4 453d 212b 91bd d9ee 663c 3dfe f13c
00000230: e820 8e3c 0a85 5cbc ce17 443d 442d 433d
00000240: 402d 283d 4e97 e43c 9ad1 3d3d c6f8 313c
00000250: fad6 97bd 785a 033d 7dea 21bd aea6 8d3d
00000260: 72bd a3bd d63b 703d 5f84 41bd 4291 a43a
00000270: e5ac 48bd 884c 243d 8dc4 48bc f760 99bd
00000280: faba 70bd 3709 23bd bf97 9a3d 6c01 7438
00000290: da92 18bc fe52 a33c 760f 03bd 40ae fabc
000002a0: f443 333c e711 2fba 31dd 82bd 6127 1ebd
000002b0: 6c84 cdbc 5904 a63d 818d 3ebd 2dbb 15bd
000002c0: 040d c1bc ef83 a23d b0c1 143d 6619 47bd
000002d0: 7b69 90bd 5786 f0bb 8641 743c c1b3 afbd
000002e0: 1297 e6bc 1dbc 9b3d edf8 c63c 2db5 333d
000002f0: 5cf8 4a3d d351 973d 1ecf 28bd 4ffb 863c
00000300: 8694 763d f198 0d3d 06ee 83bd 47ae fcbc
00000310: 3c4c 763d 67a1 a53d 58cd d7bc 3288 1fbd
00000320: ea15 afbd 0537 a7bd 5a5b 6b3c 01e1 7dbd
00000330: 0ab9 cd3c 6a68 a13c ec91 adbb 5613 a6bd
00000340: a3e9 76bd 24c6 0abd a3a0 a33c 6511 2dbd
00000350: fc7f 99bd 1b3e a53c 716e 8fbd bc15 fa3c
00000360: 952c 10bc 435a 4a3d 149f 8a3c 28b9 6a3d
00000370: 8932 d0bb 3ebc 0c3d 6956 0a3d be69 4dbd
00000380: acd7 b33d d463 703d 0f2f 943d 0f18 6abd
00000390: 3e00 ab3d 2608 9b3d ddb9 213c 14a4 46bd
000003a0: a834 413d 81ab a6bc c306 283d f842 663d
000003b0: fed8 b83c 0169 3bbd a425 923b 5cb7 8abd
000003c0: 59b4 ba3d ca2a 963d c5d3 8f3d 2ac9 86bc
000003d0: 7a4b 693c 27e6 1c3d 7005 55bd 0598 27bd
000003e0: f8f5 75bd e886 03bd b95f 523c 1621 5bbd
000003f0: 7f67 f3bb 311e c83c 4b5a 1c3d 46b0 853d
-0.083794616 -0.06375046 -0.07972514 0.0427594 0.016326401 -0.04252828 0.036674406 0.062488057
0.039463695 0.05812684 0.042763192 0.08873356 -0.052971523 0.04385843 0.012489637 -0.046618875
0.06334399 0.07341014 0.0358782 -0.00928273 0.038077407 -0.047749497 -0.0020866722 0.07110975
-0.06987036 -0.017016094 -0.07658727 -0.04290327 0.020563455 -0.073079854 0.05357391 0.037786596
-0.009850351 -0.001242463 0.000610224 0.027701091 0.051492047 0.04942563 0.06351261 0.0274247
0.011857107 -0.044609886 -0.016186988 0.038264044 0.03826398 0.05104043 0.0009096546 -0.05918036
0.07250385 0.06353148 -0.023058062 -0.0046247216 -0.0542061 0.096637614 -0.009126763 0.04580696
-0.034294125 -0.0017826312 0.06463279 -0.043650296 0.0043741423 -0.04404132 0.0419901 -0.05295474
-0.030276513 0.031066872 0.026574519 0.024508761 0.017725158 0.071529455 -0.07484362 0.0173874
0.028094519 -0.006541608 0.026426028 0.027264724 -0.070791245 -0.066314995 0.030479511 0.0054009487
-0.07011819 -0.04697214 -0.014161171 0.037633345 -0.011084554 -0.04521508 0.07912637 0.053821273
-0.04606975 0.06151574 -0.007457277 0.049833085 0.07096586 -0.08490099 -0.032825567 -0.0042395955
-0.045156993 0.011268407 -0.022861283 0.036125414 -0.024314024 -0.0777765 -0.048293315 0.04008788
0.073825814 -0.07920781 0.0027299328 0.08194659 0.093820125 0.013349584 0.0681057 0.020468706
0.068867005 -0.008077122 -0.057789236 -0.032909784 -0.059953216 -0.0023333915 0.056600694 0.0020786114
0.053161193 -0.0030319996 -0.04000552 -0.05975893 -0.08050584 0.043653086 0.07560086 0.0907349
0.032395016 -0.07582567 0.03540161 0.063784026 -0.017342517 -0.04628925 -0.006404104 0.046591546
0.0482987 -0.07088304 0.014095032 0.029540176 0.017349675 -0.013459453 0.047874264 0.04765059
0.04105878 0.027904179 0.04634247 0.010862535 -0.074140504 0.0320687 -0.039530266 0.06916557
-0.07995118 0.058650814 -0.04724538 0.0012555497 -0.04899301 0.04011205 -0.012253893 -0.07489198
-0.058772065 -0.03980371 0.075484745 5.8175458e-05 -0.009312356 0.019937035 -0.031997167 -0.030600667
0.010941494 -0.0006678388 -0.06389845 -0.038611773 -0.025087558 0.08106298 -0.046521667 -0.036555458
-0.023565777 0.079353206 0.036317527 -0.048608206 -0.07051369 -0.0073402333 0.0149082 -0.08579207
-0.028148208 0.07604239 0.024288619 0.043873955 0.04955326 0.073886536 -0.041213147 0.016477255
0.060200237 0.034569684 -0.06441884 -0.03084482 0.060131297 0.08087426 -0.026343033 -0.038948245
-0.08549102 -0.08164791 0.014365042 -0.06198216 0.025112648 0.019703109 -0.0052969363 -0.08109157
-0.060281407 -0.033880368 0.019974058 -0.042252917 -0.07495114 0.020171216 -0.07003487 0.030527942
-0.008799692 0.049402487 0.016921557 0.057305485 -0.0063536805 0.03435921 0.033773813 -0.05014967
0.087813705 0.058688954 0.07235538 -0.05715185 0.083496556 0.075699136 0.009870973 -0.04849632
0.047169358 -0.020345451 0.041022073 0.05621621 0.022564407 -0.045754436 0.0044600535 -0.06773254
0.0911643 0.0733238 0.07022814 -0.016453344 0.014239186 0.038305428 -0.05200714 -0.04091646
-0.060049027 -0.03211108 0.012840205 -0.05349835 -0.007428109 0.024428459 0.038172048 0.06527762

encoder.feature_extract.mlps.0.linears.2.bias f4 [128]
00000000: 344c 78bb 88d9 86bd 87ab 853c d0be 8c3d
00000010: 8e51 e7bb edbd fc3b bee1 90bd eef4 e33b
00000020: 46bf 163d 6b02 86bd 2891 8f3d 86fc 7a3d
00000030: 9b50 8cbd 12c9 9abd 26f6 1cbd d9fc 96bd
00000040: 15e1 863d b964 333d c1b2 7fbc 76c6 783d
00000050: 4a89 c73c 423f 0d3c e92a b53c 13a6 133b
00000060: 60c1 6f3d 93ca 8f3d f2d3 53bd 63d5 a5bc
00000070: 49eb 503c 970d 0bbd 54b0 a73d 1115 4f3d
00000080: 3030 3abd 2a5a 53bd 5e14 833c 521b 38bd
00000090: 278e 09bd c70a 34bc 652d 2d3d 2c07 9f3d
000000a0: c935 a93c 7f90 0d3d 6a3b b93c 9356 95bb
000000b0: aa5a a7bd c93b 96bd 6ced 4fbc af48 86bd
000000c0: 7fd6 9bbd f35f 50bb 4b0d 423d 62ba 0a3d
000000d0: a08e 733d d751 b2bd 6db6 b8bc dab2 7fbd
000000e0: caeb 1e3d 3032 223d 36b2 853d 2f5e a8bc
000000f0: ac30 88bd 0503 fcbb c928 9bbd cd22 833d
00000100: de27 8f3d d828 9cbd bacb 9abd a0c7 843d
00000110: 0f45 c83c df77 363d ff11 ad3c da8d a3bd
00000120: c47b 86bb 1372 823d 6920 01bd 6925 9fbd
00000130: c29c 353d cf66 8ebd a8dc 963c 4e17 223d
00000140: 0939 8fbd f74f 2fbd 9f70 22bc 359e b2bd
00000150: 7c67 37bd 6a4b 1a3d eb5c 89bd 79a1 2f3d
00000160: 1556 723d 5be0 323d 884f 793d 15f5 60bd
00000170: 644e 413c 7a6e a8bd 5cf3 16bd 00b1 a33d
00000180: ba64 993d 31ec b1bd 8f4f 333d 9955 a13d
00000190: 6923 7dbd cb7a 813d 7630 adbc ac7c 563d
000001a0: e187 b73b 7660 7a3d 1404 783d 3c43 5dbd
000001b0: 8f1a 733d 2af3 3dbd 54d0 353c 3d5b b4bd
000001c0: b26d 023d 38b6 f33c 2771 8abb a352 a6bd
000001d0: 6231 423d 42d5 813d 948b 40bc 3802 a03d
000001e0: ce25 8d3d 32ca babc 79ff 213b 0799 853d
000001f0: f970 25bd ef39 903d 73ef 923d 3dd5 1a3d
-0.0037887217 -0.065844595 0.016317142 0.06872332 -0.0070592826 0.0077130706 -0.07074307 0.006956688
0.036803506 -0.0654343 0.07010108 0.06127598 -0.06851312 -0.07557882 -0.038320683 -0.073724456
0.065859 0.04379723 -0.015606583 0.060736142 0.024357457 0.008621039 0.022115188 0.0022529408
0.058534026 0.0702106 -0.0517158 -0.020243352 0.012751409 -0.033948507 0.08187929 0.0505572
-0.04545611 -0.05159966 0.016000923 -0.04494793 -0.033582833 -0.010988898 0.04227962 0.0776504
0.02065553 0.03456163 0.022611339 -0.0045574396 -0.0817159 -0.07335622 -0.012690883 -0.06556832
-0.07609271 -0.0031795471 0.04737596 0.033869155 0.05946219 -0.08707016 -0.022547925 -0.062426426
0.038799085 0.039598644 0.06528132 -0.020552723 -0.066499084 -0.0076907896 -0.075761385 0.06403122
0.06990026 -0.07624978 -0.07558389 0.06483388 0.024446992 0.04454791 0.021126745 -0.079860404
-0.0041041095 0.06369414 -0.03152505 -0.07770807 0.04433895 -0.06953203 0.018415764 0.039573006
-0.069933005 -0.04280087 -0.009914546 -0.08721582 -0.044776425 0.037669577 -0.06707176 0.0428786
0.059164125 0.043670993 0.060866863 -0.05492123 0.011798475 -0.08224197 -0.03685318 0.079927444
0.07489915 -0.08687628 0.043777045 0.078776546 -0.061801348 0.06322249 -0.021141272 0.05236499
0.005600915 0.06112715 0.060550764 -0.054019198 0.0593515 -0.046374477 0.011097033 -0.08806465
0.031842895 0.029749975 -0.0042249146 -0.081212305 0.047410376 0.06339504 -0.011752028 0.07812923
0.06891976 -0.022801492 0.0024718924 0.06523328 -0.040390942 0.070423 0.071745776 0.037801016

encoder.feature_extract.mlps.0.batch_norms.0.weight f4 [128]
00000000: a281 7d3f d3d0 7f3f ea82 7e3f 5431 7f3f
00000010: 614d 803f 4945 7f3f 5ede 7e3f 7f90 7e3f
00000020: b44d 803f db16 803f 512a 813f 890f 7f3f
00000030: e636 803f 70ab 7f3f db77 7f3f 2a54 803f
00000040: 4b7c 7f3f 434c 803f 2f32 803f e9f3 7e3f
00000050: 6acf 803f 0b81 7f3f 42ec 7f3f 7dca 803f
00000060: 04dd 7f3f 292f 7f3f e665 803f 88c5 7f3f
00000070: 749a 7f3f aedb 7f3f 7922 803f bdd0 803f
00000080: a516 803f 8d54 7f3f 8ef0 7f3f 2eb9 803f
00000090: 32c5 803f 633a 803f aa98 7e3f 7b7e 7f3f
000000a0: 7828 7f3f 9c83 7e3f c148 813f c41c 803f
000000b0: 121b 803f 370f 7f3f 83d3 7f3f 1b10 7e3f
000000c0: ff0d 803f cafc 803f 2620 803f 4747 803f
000000d0: 9ed8 7d3f 213d 803f d6f1 7f3f f075 803f
000000e0: ff13 803f fd65 803f 8e1f 7f3f 0a1b 7f3f
000000f0: 6b7f 803f 9fbe 7f3f d7dd 7e3f 2f95 7f3f
00000100: 42d5 7f3f 7614 7f3f a41e 803f 6f11 7f3f
00000110: 9a4c 803f fda4 7f3f 6b4f 803f 3127 803f
00000120: ffb2 7f3f a11a 813f f97b 803f f439 803f
00000130: 0bc3 7f3f 9208 803f dc77 7f3f 74db 803f
00000140: 2629 803f a6d6 7f3f e675 7e3f 154b 803f
00000150: 66b7 803f acbc 803f 50fd 7e3f 247f 803f
00000160: c338 7f3f 073d 7f3f 94ec 803f 64da 7e3f
00000170: 5526 803f 874f 7f3f fd87 803f 4221 7f3f
00000180: 7abd 7f3f e229 803f 3276 7e3f 2753 7e3f
00000190: 3b67 803f c3ad 7f3f e5b2 7f3f bfae 803f
000001a0: 74b2 803f b1db 803f 27b7 7e3f 1823 7f3f
000001b0: b12f 803f 973c 803f d5aa 7f3f e25c 803f
000001c0: d30f 813f 0f4f 803f 1885 7e3f c7ee 7e3f
000001d0: 744f 7f3f 4e7d 803f d39c 803f 24bc 7f3f
000001e0: 9502 803f acfa 7d3f da0d 803f ad45 803f
000001f0: b6c1 7e3f ef96 7f3f 92cb 7f3f 3958 7f3f
0.9902593 0.99928015 0.9941851 0.99684644 1.0023614 0.99715096 0.99558055 0.99439234
1.0023713 1.0006975 1.0091039 0.9963308 1.0016754 0.9987097 0.9979226 1.0025685
0.9979903 1.0023273 1.0015315 0.9959093 1.0063298 0.9980628 0.99969876 1.0061795
0.9994662 0.99681336 1.0031097 0.99910784 0.9984505 0.9994458 1.001052 1.0063702
1.000691 0.9973839 0.9997643 1.0056512 1.0060179 1.0017818 0.99451697 0.9980237
0.99671125 0.9941957 1.0100328 1.0008779 1.0008261 0.9963259 0.99932116 0.99243325
1.0004271 1.0077145 1.0009811 1.0021752 0.99158657 1.0018655 0.9997839 1.0035992
1.0006102 1.0031124 0.99657524 0.99650633 1.0038885 0.9990024 0.9955725 0.9983701
0.9993478 0.99640596 1.0009351 0.99635977 1.0023377 0.9986113 1.0024236 1.001196
0.998825 1.0086251 1.0037833 1.0017686 0.99906987 1.0002615 0.99792266 1.0066972
1.0012558 0.999369 0.9939865 1.0022913 1.0055969 1.0057578 0.99605274 1.00388
0.99695987 0.99702495 1.0072198 0.9955199 1.0011698 0.99730724 1.00415 0.9966012
0.99898493 1.0012782 0.993991 0.9934563 1.0031503 0.99874514 0.99882346 1.0053328
1.005446 1.0067044 0.9949822 0.99662924 1.0014554 1.001849 0.99870044 1.0028346
1.0082954 1.0024127 0.99421835 0.99583095 0.9973061 1.003824 1.0047859 0.99896455
1.0000788 0.9921062 1.0004227 1.0021263 0.9951433 0.9983968 0.9992 0.9974399

encoder.feature_extract.mlps.0.batch_norms.0.bias f4 [128]
00000000: 3938 89bb de14 c5ba 17a0 6fbb 0932 fbba
00000010: b21a 693b da0e 3fbb 510e 5cba e064 f1bb
00000020: 451c 30ba c4bc 32bb 55a0 deba 1d22 1ebb
00000030: c0db 723a 0f12 253b c11c 96bb a8d1 c8bb
00000040: 9f59 643a 7b91 eb3a 8372 9dbb 7d6f 0d3b
00000050: 75d0 403b 15a5 3abb e54d 223c 5616 8d3a
00000060: 6b35 18bb bad5 53bb 21a7 c13b 5cd2 c7bb
00000070: abf7 aaba b703 d9bb 7f76 0abc 240b 4f3b
00000080: 77eb 633c e7f0 bdbb af4d 4ebb 6925 d03b
00000090: edd6 e53b 4c36 83ba 909a 45bb 814d 3e3a
000000a0: 0515 eabb cd74 dfba d779 e03b 32f4 82bb
000000b0: e7c8 daba 1f14 12ba e90b cd3a ca37 1bbc
000000c0: 0e28 c93b ef9a e43b 0d09 e7bb 9f02 6dba
000000d0: d303 f9bb bf72 c338 4a1d ad3b eee1 603a
000000e0: 3e9c 283b c7c4 beba 203c 26ba 46f0 3cbb
000000f0: c502 6a3b 82be ccba 85fc 823b 7bb7 253b
00000100: 31ee 8b3b f7fb eeba ebb1 e2bb c2d8 f13a
00000110: 9749 a53b f26d c6bb 7b5d 3abb 2c10 e83b
00000120: e169 033b 94f7 7d3b db9a e03b 3550 adbb
00000130: f5d0 1dbb c587 9c3a 7e02 e9bb 1edb f83b
00000140: b626 00b9 d0fc 23bc f540 21bb 2375 bcba
00000150: de1b ecb7 396a 603b 0565 32ba 08e7 443c
00000160: 8c43 9939 5ff5 80ba 65dc 0e3c c52e bcbb
00000170: a8f1 ed38 98cb 1b3b 9dfc 243c fb37 6b3b
00000180: 33b7 4c3b 7d64 cf3b 3524 be3b 4b76 05bc
00000190: 8dc1 d93b f0c3 123c 19d6 20bc 1229 8f3b
000001a0: 7e7f 1eba 5c32 963a 2d46 65bb 894b 5ebb
000001b0: 4af2 9a3b 06fc a33b bbd0 9cbb 52ec 4b3b
000001c0: 99c7 183c ebf1 34ba 9e3a c8bb b2c8 153b
000001d0: b57b 18bc efbc 273b e0a7 073c 608b 03ba
000001e0: 0580 29ba 3f6a 2dbc 76d2 b33b 89d1 3dba
000001f0: 798e f03a 0676 8838 0791 b0bb 3c20 83ba
-0.0041876105 -0.0015036126 -0.0036563927 -0.0019164692 0.003556889 -0.002915314 -0.00083944673 -0.0073667616
-0.00067180797 -0.0027273158 -0.0016985039 -0.002412922 0.00092643127 0.0025187766 -0.0045810645 -0.0061285086
0.00087108643 0.0017972434 -0.0048049106 0.0021581345 0.0029421125 -0.0028479744 0.009906267 0.0010764103
-0.00232252 -0.0032323436 0.005909816 -0.006098075 -0.0013043782 -0.0066227573 -0.008451103 0.0031592334
0.01391112 -0.00579654 -0.0031479408 0.006352116 0.0070141465 -0.0010010689 -0.003015194 0.0007259474
-0.007143619 -0.0017048359 0.006850462 -0.0039963955 -0.0016691954 -0.0005572456 0.0015643808 -0.00947375
0.006138808 0.0069764773 -0.0070506395 -0.0009041223 -0.007599333 9.319698e-05 0.0052830325 0.0008578588
0.0025727893 -0.0014554494 -0.0006341357 -0.0028829738 0.0035707217 -0.0015620741 0.003997388 0.0025286365
0.004270338 -0.001823305 -0.006918182 0.001845144 0.005044173 -0.006055587 -0.0028437066 0.007082006
0.0020052122 0.0038752304 0.0068543977 -0.0052891024 -0.0024080847 0.0011942318 -0.007110893 0.00759448
-0.00012221452 -0.010009006 -0.0024605368 -0.0014378171 -2.8146369e-05 0.0034243 -0.0006805214 0.012017973
0.0002923276 -0.0009838751 0.008719538 -0.00574288 0.000113460526 0.0023772474 0.010069993 0.0035891521
0.0031237125 0.006329118 0.005802656 -0.008145879 0.0066453875 0.008957848 -0.00981667 0.0043689096
-0.00060462195 0.00114591 -0.0034984455 -0.0033919534 0.00472859 0.005004409 -0.004785625 0.00311162
0.009324932 -0.00069025037 -0.0061105033 0.002285522 -0.009306838 0.002559479 0.008279771 -0.0005018022
-0.0006465915 -0.010584413 0.0054877354 -0.0007241001 0.0018353007 6.506969e-05 -0.0053883824 -0.0010004113

encoder.feature_extract.mlps.0.batch_norms.0.running_mean f4 [128]
00000000: ed14 d43e fe71 88bd 6cf3 2d3f f860 49be
00000010: 58ec ad3e b64d afbd 4e29 90bf 856d 053e
00000020: eeb9 7fbf 2b75 293f 483c 47bf fe2e 2f3f
00000030: 917f a33e ccc7 983d 6600 90bf e83b 1abf
00000040: 58a2 7fbf b351 1fbe 3f77 0bbf ea85 a13f
00000050: 18b4 78be 6c39 053f 55ee efbe dcc7 363f
00000060: 4291 c83e 61d2 103d 16f8 5f3f f2ef b5be
00000070: b6b7 423f 0b7a 503e 456e 4cbf aa11 493f
00000080: a1e3 9f3f 4347 d63e dc08 0b3d 685a 6bbe
00000090: 187f 06be 0495 983d 36b3 f3be f264 4abf
000000a0: a0ac 323f 57eb b83e a786 85be 2c44 f1be
000000b0: 5a97 d63d 14f6 233e d714 ffbe a669 78bf
000000c0: f51c 6c3c b1dd 403f 8923 6d3f d39e 65bf
000000d0: 164f 163e 2f7c 9d3e 05af fa3e aab0 40bb
000000e0: d7d0 91bf 574a 5d3e 3c9a 6f3e 6005 3c3f
000000f0: edc1 153f fbc6 bbbe c382 0b3f 9e8c 0e3f
00000100: 09f7 8e3f d15c 143f 9123 183f ea6b 03bf
00000110: 61b9 9a3e f9bb 2cbd 8192 0d3f 1e71 cb3e
00000120: 8d49 223e 2174 72bf a2b3 1a3f 6e2e b73d
00000130: b2bb cfbe 92d2 18bd 0233 15bf 386a 8b3f
00000140: c732 27bf 2eb1 d8bd 6666 14bf 963e 27bf
00000150: f2fb 40bf 86b8 c7be da52 59be ea39 84bc
00000160: c80d 2fbe 6c7c 1d3f 35c6 16bf 7d02 5e3f
00000170: 2d4b a13f 77ff 61bf b046 8fbf 08d9 3d3f
00000180: f346 433f 4eec 563f 4721 21bf 2df4 b93e
00000190: 11db 843f 29e2 963f cf01 573e 0a4c 293d
000001a0: c760 24bf 7d06 953f e591 8bbf 1196 643e
000001b0: 97e3 903f fdbc 05bf c092 a9be 41cc 653f
000001c0: b211 3dbf 46e8 d33d 9e81 1abf 11cf 8d3f
000001d0: 09e9 4dbf 2a7d 063f 6311 9f3f de95 5a3f
000001e0: 551a 553f f0f0 943d f63c 923e fe0c 693e
000001f0: fafb 09bd a0fb 43bf f444 2d3e 2936 5bbf
0.41422215 -0.06662367 0.6794956 -0.19665897 0.33969378 -0.08559744 -1.1262605 0.1303006
-0.9989308 0.6619441 -0.77826357 0.6843108 0.31933263 0.07459983 -1.1250122 -0.6024766
-0.9985709 -0.1555851 -0.5447883 1.2618992 -0.2428745 0.52040744 -0.4686152 0.7139871
0.39173323 0.035356883 0.87487924 -0.35534626 0.7606157 0.20359056 -0.7985576 0.7854258
1.2491342 0.41851243 0.033943996 -0.22983706 -0.1313442 0.074502975 -0.47597665 -0.7906028
0.69794655 0.3611705 -0.26079294 -0.47122324 0.10478087 0.1601184 -0.49820587 -0.97036207
0.014411201 0.75338274 0.9263235 -0.8969547 0.14678606 0.30758807 0.48961654 -0.0029402175
-1.1391858 0.2161039 0.2339868 0.734457 0.5849903 -0.36675248 0.544964 0.55683315
1.1169139 0.57954127 0.5942927 -0.5133654 0.30219558 -0.042171452 0.5530167 0.3973474
0.1584837 -0.9470845 0.6043035 0.08944403 -0.40572888 -0.03731019 -0.58280957 1.089179
-0.65311855 -0.10580669 -0.5796875 -0.65329874 -0.7538444 -0.39007968 -0.21223012 -0.016140897
-0.17095101 0.6151798 -0.5889619 0.86722547 1.2601067 -0.88280433 -1.1193447 0.7415929
0.76280135 0.8395432 -0.629414 0.36319104 1.0379354 1.1787769 0.20996784 0.041332282
-0.6421017 1.1642605 -1.0903898 0.22322871 1.1319455 -0.522415 -0.33119774 0.8976479
-0.73855126 0.10347037 -0.6035403 1.1078817 -0.8043371 0.52534735 1.2427181 0.8538493
0.83243304 0.07272518 0.28562135 0.22758862 -0.03368757 -0.76555824 0.16920835 -0.85629517

encoder.feature_extract.mlps.0.batch_norms.0.running_var f4 [128]
00000000: 216c d13a 86d6 8c39 fa8b 993b 3f06 913b
00000010: cbed de39 da36 af3a dba3 363b edc9 6b3a
00000020: 3a96 8d3b 5fa5 c83b 02ed 2e3a bc6d 173b
00000030: 6d78 7a3b 5350 bd39 423d e43b c0fc 163b
00000040: 99c2 ca3b 607d 923b ee00 5939 9c02 013c
00000050: 13e5 9a3b a7c8 f83a ecf4 0939 3a3e 7a3b
00000060: 4130 b43a 5137 c13b 10a9 803a 01b7 8638
00000070: f137 153b 7f64 8539 ab57 ab3b a4d7 8e39
00000080: 276d 9f3b 94df 163b 2ad1 c83a 86c9 163b
00000090: 3b14 0c3a b282 cd39 9ab2 2c3b e270 d13b
000000a0: 6529 973b a664 c73b 11ca cc3b 7d8f 1f3b
000000b0: f395 6036 ab1c 2d3b 0c8e 613b 47b6 803a
000000c0: 2b67 113b c2ab 803a 1184 7a3b 62a1 5f3a
000000d0: 88bc fc3b 61c1 1439 3b5c 1039 07ea 903a
000000e0: 09ea 903b 28f4 4f3a 07ab 2d39 8962 c63a
000000f0: 1ffb eb39 48b9 823a acd7 943b 3cc6 a539
00000100: 9900 b33b 2958 3239 28df 223b e456 1939
00000110: fe84 033a a7ab a33b fb9d 053b bb24 dc3b
00000120: 6345 df3a b487 453b c756 8f3b 5f58 a23a
00000130: 188d 863b 8058 3e3b 2aea 013b f325 ac3b
00000140: d37b 333b 6467 a33b f40e 703a 7948 ad3b
00000150: fa36 243b da3a 1f3a 2241 ac39 ce73 b53b
00000160: 1417 e13b 47eb 7239 dc17 0b3b bb8e 5e3a
00000170: 8e9f 8a3b 3bfb fb3a 4deb b53b 72cc 8f3b
00000180: 6b39 073c 7f29 7d3a e210 ac39 56b6 b63b
00000190: 3af4 c43b 8556 953b d9f7 d23a ce18 933b
000001a0: a284 9c37 61e0 933b 04aa 093c 2480 fa34
000001b0: e74a d73b 7b17 8f3a 5e07 cb3a 735f 013c
000001c0: d0ef df3b db12 993a 3d6b 8d3b ffe4 903b
000001d0: bb80 623b 8ec1 6f39 b995 f43b 34ee 5f3b
000001e0: 6288 023b bb2f 563a 8385 b13b 6275 213b
000001f0: 0ff1 d93b e5df fa3b 6bc4 cc3a 424f 8a3b
0.001597766 0.00026862713 0.004685876 0.0044257934 0.0004252031 0.0013367787 0.0027868662 0.0008994628
0.004320887 0.0061232294 0.000667289 0.0023106178 0.0038218752 0.00036108735 0.0069653103 0.0023038834
0.0061877486 0.0044705123 0.00020695079 0.007874157 0.004727015 0.0018980697 0.00013156579 0.0038184063
0.0013747291 0.005896487 0.000981601 6.423705e-05 0.002276894 0.00025442612 0.0052289567 0.00027245015
0.004865307 0.0023021447 0.0015321125 0.00230083 0.0005343591 0.00039198023 0.0026351572 0.0063916305
0.004613089 0.0060849963 0.006249674 0.0024347 3.3465883e-06 0.0026414793 0.0034416942 0.0009819948
0.0022186737 0.0009816813 0.003822569 0.0008530823 0.0077129044 0.00014186419 0.00013767269 0.0011056074
0.0044224304 0.00079328055 0.00016562278 0.0015135567 0.00045009793 0.0009973431 0.0045423117 0.0003161895
0.0054627177 0.00017008245 0.002485225 0.00014623586 0.0005017071 0.004994828 0.0020388353 0.006718246
0.0017034229 0.00301407 0.0043743583 0.0012385956 0.004106175 0.002904445 0.001982341 0.0052535473
0.0027387037 0.0049866904 0.00091575016 0.0052881804 0.0025057183 0.0006074138 0.00032854924 0.0055374866
0.006869206 0.00023166566 0.0021223938 0.00084898964 0.004230446 0.0019224653 0.0055517317 0.0043883855
0.008253436 0.00096573675 0.00032818975 0.0055759354 0.0060105594 0.004557433 0.0016095593 0.004489041
1.8658411e-05 0.004512832 0.008402351 4.6659363e-07 0.0065702084 0.0010917032 0.0015489866 0.007896292
0.006834008 0.0011678593 0.0043157623 0.0044218297 0.0034561593 0.00022864921 0.0074641374 0.003416908
0.0019917716 0.00081705645 0.005417527 0.0024636616 0.006651051 0.007656085 0.0015622502 0.004220874

encoder.feature_extract.mlps.0.batch_norms.1.weight f4 [128]
00000000: 5343 803f 7097 7f3f 5052 813f eeb0 803f
00000010: b6ae 803f aeed 7d3f 1a88 7f3f 9341 7e3f
00000020: 29bc 7e3f 220a 803f 76b5 803f c2ad 7e3f
00000030: 7b8e 7e3f ad74 803f dc5d 803f ea3c 803f
00000040: 56cc 7f3f b726 7e3f 3990 7f3f d1c3 7d3f
00000050: 0f2c 803f 6409 7f3f 19ee 803f 0659 803f
00000060: 6383 803f ab7c 7d3f b4fa 7d3f 7ef7 803f
00000070: 03e2 803f 5258 803f 27d4 7d3f ceb4 7e3f
00000080: 962a 803f b7da 7d3f 5839 803f 9515 803f
00000090: 2d6f 803f 2c25 803f cee9 7f3f a13f 7f3f
000000a0: 99e8 7e3f 3f5a 813f e3f1 803f d297 803f
000000b0: 3f1e 803f d44d 803f 86b0 803f bccb 7e3f
000000c0: 8421 803f ca74 7f3f 99e0 803f c876 803f
000000d0: 779e 7f3f 59bc 803f 9516 7e3f bd63 7f3f
000000e0: 7fc3 803f f6da 803f ae41 803f 94fb 7e3f
000000f0: 1490 7e3f 93ce 803f a98c 7f3f b9c8 803f
00000100: 68b6 803f def8 803f 9b6e 7f3f 3a65 803f
00000110: 5d71 803f d539 7d3f 994d 7f3f 167f 803f
00000120: 5425 7f3f b711 803f a6fa 803f f13f 803f
00000130: b477 803f 0c91 803f e2b5 7f3f f0c5 803f
00000140: 6336 803f cef9 7e3f c3ca 7f3f 6b7b 7f3f
00000150: 3813 803f 3049 803f de13 7f3f b7f1 803f
00000160: e49b 7e3f 93d5 7e3f c98a 7f3f d9d6 7e3f
00000170: 9d4b 7f3f 92ed 7f3f 6068 7f3f df5a 813f
00000180: 788e 803f 8097 7f3f 225b 803f 1de5 7e3f
00000190: 1c4f 7f3f 79ab 803f a59d 7e3f 3cc1 803f
000001a0: d526 7d3f c412 803f 0f7d 803f 373c 803f
000001b0: 75d0 7e3f 6326 7e3f 4534 803f dceb 7f3f
000001c0: 3cc5 803f 96ec 7f3f 57d8 7f3f 490b 803f
000001d0: 022d 803f f58b 803f 1276 7e3f 33f0 7d3f
000001e0: a366 803f f40e 7e3f 1c6a 7d3f be2c 7e3f
000001f0: 7617 813f 9a0a 803f b2c5 803f c1c7 7f3f
1.0020546 0.9984045 1.0103245 1.0053995 1.0053318 0.99190795 0.9981705 0.9931881
0.9950586 1.0003092 1.0055377 0.99483883 0.9943616 1.0035607 1.0028644 1.001859
0.99921167 0.99277824 0.9982944 0.9912692 1.0013446 0.99623704 1.0072662 1.0027168
1.0040096 0.99018353 0.9921067 1.0075529 1.0068973 1.0026953 0.99151844 0.99494636
1.0012996 0.9916186 1.00175 1.0006586 1.0033928 1.0011344 0.9996613 0.99706465
0.99573666 1.0105666 1.0073818 1.0046332 1.000923 1.0023751 1.0053871 0.99529624
1.0010228 0.9978758 1.0068542 1.0036249 0.99851173 1.0057479 0.9925321 0.99761564
1.0059661 1.0066822 1.0020044 0.9960263 0.99438596 1.0063041 0.99824005 1.0061256
1.0055666 1.0075948 0.99778146 1.0030892 1.0034596 0.9891637 0.9972778 1.0038784
0.99666333 1.0005406 1.0076492 1.0019513 1.003653 1.0044265 0.99886906 1.0060406
1.0016598 0.9959992 0.99918765 0.99797696 1.0005865 1.0022335 0.9963969 1.0073766
0.9945662 0.9954464 0.99821144 0.9954658 0.9972475 0.9997188 0.9976864 1.0105857
1.0043478 0.99840546 1.0027812 0.9956835 0.99730086 1.0052329 0.99459296 1.005897
0.9888738 1.0005727 1.0038165 1.0018376 0.9953683 0.99277323 1.0015951 0.9996927
1.0060191 0.99970376 0.99939483 1.0003444 1.0013735 1.0042711 0.9939891 0.9919464
1.0031322 0.99241567 0.98990035 0.9928702 1.0085285 1.0003235 1.0060332 0.99914175

encoder.feature_extract.mlps.0.batch_norms.1.bias f4 [128]
00000000: 59d0 fc3b 05a9 583b 53d5 3f3b dbf0 d4bb
00000010: 8b09 d8bb e1c1 43bb 07e8 c23a 395b ec3a
00000020: b343 a6ba f298 2f3b 9e6c 713b 4975 26bb
00000030: 45d0 02bc 0fbf 7e3b a46b 3e3b c7c3 eeba
00000040: e293 923a 198a 0bbb 7700 44bb b351 22bc
00000050: a43a 45bb a9da e7b9 e870 1c3c d7fe 263b
00000060: 5bbe adbb 7c17 feba ae6c 15bc a3ab f53b
00000070: d219 f13b 8603 ee3a f462 16bc 9416 c3bb
00000080: 7906 30bb 6ad0 87bb f51d 6e3a b6a3 42bb
00000090: c52c 883a b45e 63bb b1f5 1dba 089c 99bb
000000a0: 157d ddbb deeb 423c 93be 373b 5dc1 ffba
000000b0: f4f3 1fbc 0956 273c 4da1 87bb af79 07bb
000000c0: 419a 183b 048a 253a 7513 073c 3c1d c33b
000000d0: 83a4 5d3b cccd af3b 3714 6cba 0e4f 11bb
000000e0: ea98 afbb 4269 eabb e327 0cbc 6cc8 f6ba
000000f0: b1fc c9bb 3700 d3bb 81fa b838 f942 4b3b
00000100: f0d0 30b9 5c1e 06bc 9641 5eb9 e3c0 e03b
00000110: 75c3 f2ba f9e8 a0bb 399f 9e3b ee9c 083c
00000120: ac61 9abb 434a 5e3b 6e40 c83b 2cfa 0c3c
00000130: 7b0c 3dba d3e0 19bb 9d7e 30ba 5ebc 833b
00000140: fc7e 733b 9844 3d3a cd06 fbbb 9e7f 71bb
00000150: 172c 8c3b 4e8f 8aba d72b b2bb 25ad ca3b
00000160: 1e43 adba f69a 33ba 2083 4ebb 538c b33b
00000170: 8113 c5bb 5af3 beb8 d662 8bbb c2dc c33b
00000180: 46d4 e33b 5f35 5f3b b19a 243a 2ad5 acbb
00000190: f2a3 aebb 6c95 5ebb 67a4 f6bb 70ab b6ba
000001a0: 8e04 4fbc 1b7a 0ebb e67e 6eba d3af 783b
000001b0: 7e67 45bb 20b3 2fbc 53e5 933b e28e 0abb
000001c0: a6e1 0e3b c830 7aba dd09 1cbb 6452 7fbb
000001d0: ef87 853b 3edb 9a3a 2b5b 01bb ba52 b8bb
000001e0: bfcf 2abb 5dbe f3bb 7e64 90bb 410f f6bb
000001f0: fefe 103c 8475 0ebb eb0a e03b ee4b 86bb
0.0077152667 0.0033059728 0.0029271438 -0.006498439 -0.0065929345 -0.00298702 0.0014870175 0.0018032558
-0.0012684971 0.0026794043 0.0036838423 -0.0025399497 -0.007984226 0.0038871204 0.0029055858 -0.0018216305
0.0011182989 -0.002129203 -0.0029907504 -0.009907174 -0.0030094767 -0.00044222668 0.009548403 0.0025481486
-0.005302233 -0.0019385661 -0.00912015 0.0074972673 0.0073578143 0.0018159009 -0.009178866 -0.0059536193
-0.0026859327 -0.004144718 0.00090834434 -0.002969963 0.0010389319 -0.0034693899 -0.00060256856 -0.00468779
-0.0067592957 0.011897055 0.0028037175 -0.0019512583 -0.009762753 0.0102133835 -0.0041391016 -0.0020671894
0.0023285302 0.00063148164 0.008244385 0.0059544127 0.003381998 0.005365109 -0.0009005698 -0.0022172364
-0.005358805 -0.007153661 -0.008554432 -0.0018828041 -0.0061641564 -0.0064392346 8.820464e-05 0.003101526
-0.00016862503 -0.008185949 -0.00021196002 0.0068589314 -0.0018521386 -0.004910585 0.004840758 0.008338196
-0.0047113504 0.0033918775 0.0061111962 0.0086045675 -0.00072116376 -0.0023479953 -0.0006732734 0.004020258
0.0037154546 0.0007219999 -0.007660723 -0.0036849747 0.004277717 -0.0010571273 -0.005437355 0.006185191
-0.0013218855 -0.0006851399 -0.0031511262 0.0054793744 -0.006014288 -9.105234e-05 -0.0042537255 0.005977244
0.006952795 0.0034058911 0.00062791543 -0.0052744346 -0.0053296024 -0.0033963574 -0.0075269225 -0.001393659
-0.012635363 -0.002174026 -0.0009097889 0.0037946596 -0.00301215 -0.010723859 0.0045134216 -0.0021142294
0.0021801977 -0.0009544012 -0.002380959 -0.003895902 0.0040750424 0.0011814607 -0.0019738178 -0.005625096
-0.0026063768 -0.0074384646 -0.004406511 -0.0075091426 0.008849857 -0.0021737525 0.006837239 -0.004098407
