FJSP_MultiPPO/saved_network/FJSP_J50M605/best_value0/policy_job.pth (torch_old, 637559 bytes, 53 tensors)

_input f4 [128]
00000000: 0f00 92be 4210 6b3f 18df a0be 2f20 0abf
00000010: 5a74 503f e305 1a3e a9da c53e a37b 373f
00000020: 4244 a8be 5757 d8be 553e dd3e 4355 f53d
00000030: 18e3 6dbf 50c5 46bf 872c 54be dcb8 b4be
00000040: 93ca 9fbc 8cbf 6e3f 7795 bf3e 7a85 c83e
00000050: 554f 56bf 0dbd 993e 8775 7d3f 0fcb b9be
00000060: 93c9 8c3e 0462 673f e146 913e 7dd5 66bf
00000070: 19f2 5b3e 9885 4b3f c4c9 303f 5049 473f
00000080: 614b 3e3f 9f25 09bf 05f2 bbbe 6446 373f
00000090: cc9b 41bf 5801 3e3f 3fc0 ec3e d6c0 babe
000000a0: 1a81 cdbd 60c3 2cbf fd21 113f 5040 e9be
000000b0: b09b 9cbe 27ba 703d d93e 0fbf 1afa 7abf
000000c0: 75fd 68be 7200 583f 8ac0 763f 39c6 363f
000000d0: c809 183f 6bdc 103f 0445 5dbf 84f2 d7be
000000e0: c335 293f 4d50 4bbf 4213 ebbe a63e 04bf
000000f0: bfe5 ed3e 6f69 4f3f 8085 7b3f 8c96 d03e
00000100: 2778 b8be c267 25bf 688a 20bf 23b2 04bf
00000110: 5bc9 81bc 568f 23bf 1dc8 9b3e 645d 973e
00000120: e326 3c3f 00b3 fbbe 6cc0 943d 2c41 33bf
00000130: e9a3 6cbf 5499 dd3e 3405 ab3e 9ad6 85bd
00000140: 9670 4f3f d84f dd3e d557 373f e5e7 e2be
00000150: ca1b 7bbf 12f5 42bf 501c 70bf 3259 683f
00000160: 690e cb3e 5b78 3e3d 9b1f e13e 82bc 19bf
00000170: 533c f8be d0e7 c63e 8ba3 193e 0614 483f
00000180: 10d7 293f 5fac 4bbe 108e 79bf 8b9c 56bf
00000190: 75b3 1b3f 74ac 16bf 4a78 a6be 8945 833e
000001a0: ec6a 5e3f d727 93be 5a72 cdbe 842e 7fbe
000001b0: ca98 133f 57bb 2dbf 7061 debe f37c 50bf
000001c0: d5fd 503e 619c e63e 5598 7ebf 7d9c 043f
000001d0: 6b69 c1be d7d5 e93d b86c 34bf 7cce 39bf
000001e0: 1a78 333f e55e 64bf 13a3 62bf 90be d13e
000001f0: 98ce 07bf df9c b83d 6e92 3fbf 7ecb bb3e
-0.2851567 0.9182168 -0.31420207 -0.5395536 0.8142754 0.15041308 0.38643387 0.7167303
-0.32864577 -0.42254135 0.43211618 0.11979153 -0.9292464 -0.77644825 -0.20720111 -0.35297287
-0.019505775 0.9326103 0.3741872 0.39164335 -0.837148 0.30027047 0.9900746 -0.36287734
0.2749754 0.90383935 0.2837439 -0.9016951 0.21479072 0.7950072 0.6905787 0.7784624
0.7433377 -0.5357303 -0.36708084 0.7159178 -0.7562835 0.742208 0.46240422 -0.36475247
-0.1003439 -0.6748562 0.56692487 -0.4555688 -0.3058753 0.05877128 -0.5595527 -0.98037875
-0.22752936 0.8437568 0.9638754 0.71396214 0.59389925 0.5658633 -0.86433434 -0.42177212
0.6609766 -0.79419404 -0.4591313 -0.51658094 0.46464345 0.81020254 0.9825058 0.40739858
-0.3602917 -0.64611447 -0.6271119 -0.51834315 -0.015843084 -0.6389059 0.30426112 0.2956344
0.73496836 -0.49160004 0.07263264 -0.7002132 -0.9243761 0.43281043 0.33402407 -0.065350726
0.8103117 0.43224978 0.71618396 -0.44317546 -0.9808928 -0.761552 -0.937932 0.907611
0.39659432 0.0465015 0.43969426 -0.60053265 -0.48483524 0.38848734 0.15003793 0.78155553
0.66343784 -0.19889973 -0.97482395 -0.83832616 0.60820705 -0.5885689 -0.32513648 0.2563899
0.868819 -0.28741333 -0.40126306 -0.24920088 0.5765501 -0.6786398 -0.43433714 -0.8144066
0.20409329 0.45041183 -0.9945119 0.5180128 -0.3777574 0.1141774 -0.7047839 -0.72580695
0.70105135 -0.892073 -0.8853008 0.409657 -0.5304961 0.09014296 -0.7483281 0.3667869

bn.weight f4 [2]
00000000: 0000 803f 0000 803f
1.0 1.0

bn.bias f4 [2]
00000000: 0000 0000 0000 0000
0.0 0.0

bn.running_mean f4 [2]
00000000: 0000 0000 0000 0000
0.0 0.0

bn.running_var f4 [2]
00000000: 0000 803f 0000 803f
1.0 1.0

encoder.feature_extract.mlps.0.linears.0.weight f4 [128, 2]
00000000: 1ea6 1e3f adfe 8bbe 123f cbbe c305 083f
00000010: f787 0f3f ee18 20bf 3374 adbe eb6b 21bf
00000020: f814 da3e 42ad 82be 6997 7cbe e594 bdbe
00000030: 2cdb e03e 1cac 06bf 2f2f 8b3d 4a22 723d
00000040: 789d 2e3f 4fc2 17bf 0616 dbbe 2429 0abf
00000050: cfa4 2e3f b688 51be 29b6 a73e a94e 15bf
00000060: a327 253f fbe2 30bf a26c c43e 44b9 1a3e
00000070: 01c4 92be e390 94be 5eeb a03e eb72 c73e
00000080: 05d9 ae3d 04f0 6c3e 4db1 74be 52cb 45bd
00000090: 4e01 0e3f be08 0fbf 24a7 d0bd 56b4 8b3e
000000a0: eb71 7ebd 7c57 40be 2393 583e b47a 0ebf
000000b0: 4ee5 0b3d 889d a63c 625f 513e 82ea 2cbf
000000c0: 3df7 bc3e 85ce 09bf 020e 383e 8c53 a9be
000000d0: 3691 f0be 1303 153f 3b86 d1bd 7984 b5bd
000000e0: bd18 dc3c 401f 91be 0b95 b7bb bf58 8fbe
000000f0: 3cb4 8c3e ea72 7bbe 55eb 763e 16e6 98be
00000100: e30e 013f 15dd 083f cedd 16be 158d 69be
00000110: ac9a 87bb 350c 193e e3cf 44be 8509 edbe
00000120: c2ef 6e3e 2005 31bf f5a9 003f b6fa b83d
00000130: 5a73 03be e02d 2a3f d1ff 633e b040 67be
00000140: b989 37be 70ba 613e 6d16 1bbf 5647 6dbd
00000150: 2df9 2cbf d58a b53d ccce 0d3d 4366 b4bd
00000160: a979 b0be 3f00 23bf 0e5a febe 84af f43e
00000170: d35a cd3e 5fad 40bd fb7f 6f3d f51c 8fbd
00000180: c891 16bf ac33 b3bd 8692 223f 2f51 b83e
00000190: 91b9 88be c76d 0b3e 5a8e c33e 9bcb 0a3e
000001a0: ec82 e33d 310e 30be fb58 173e 9b2f efbe
000001b0: 1daa c6bd 2685 e63d 0cae 2e3f cfa4 943e
000001c0: 0751 22bf 9c27 1c3f 831b 21bf 8dec 0cbf
000001d0: e17d 113f edef 1a3f f630 bb3e d84d 8bbe
000001e0: 2706 0bbe 0ccb 283f 9a06 dcbd c2ff 06bf
000001f0: 5815 1dbf 6529 1fbf a08a 0ebf 552d 003f
00000200: 81e5 1abf 9ebe 113f a387 90be 05d6 03be
00000210: 4b34 bcbe 0907 333f de54 e8be f6c6 ddbe
00000220: 4a8e 12bf 15fd 1c3d 0300 253f 7a51 efbe
00000230: e3e8 e03e a427 69ba 9a7e 64be 8de4 09bf
00000240: 220e 0abd c358 9ebe e338 32bf f5c3 b9be
00000250: c8f1 a8be ac99 263f c3cb 203e cf39 c1be
00000260: 88df f53e 9d94 37be 7978 243e 574f 9a3e
00000270: c373 683d d83d fdbe fd90 2fbf 0f80 0b3f
00000280: 152c 31bf b1a4 c43d a655 0bbf f178 953e
00000290: 1e00 b0be 4447 29be a391 0d3f 6634 9bbe
000002a0: 37d4 153f 6848 753e 59d3 18bf 9010 093f
000002b0: 663e b1be fcb9 09bf 8a66 d5be f3bf 66bd
000002c0: 0dd4 b53d 9c14 213f 232a 9dbd ee1b 003f
000002d0: 5632 b53e 8885 65be 9423 273f d516 a63e
000002e0: d41b 63bd 2c20 17be f81d 03be 3444 03bf
000002f0: e419 80be e75d acbe 5593 1bbf 8f30 f93d
00000300: d4d6 2c3f 836b 1a3f f2ed 29bf ab32 d23e
00000310: f264 20bf e781 f0be 90e9 c53d c35c 003e
00000320: d2b0 de3e 4d42 39be ba42 8f3e cf02 05bf
00000330: 4dd3 ba3e 9f23 a4bc 8534 e3be 01a8 2bbf
00000340: 15f7 973d acf1 0cbe 425b 04bf 232d be3e
00000350: 7a75 273f 9990 f6be 6104 2d3f d3a0 7b3c
00000360: 6671 69be f547 333f 8acd 2c3f 273e 263f
00000370: 575b 343f ba88 81be b850 21bf 0295 04be
00000380: 45d6 2a3f 8778 2e3d a5b3 8bbd 0b0a 9d3d
00000390: 5cff ee3e 1c9c d2bd 68f6 bcbe cfe1 9abe
000003a0: d8d1 2d3f ca97 403e 1ffa 793e 6ac0 26bf
000003b0: fd02 e5be 5cec d1bd 6d04 02be 94af 97be
000003c0: ad2f 04bf c003 a1be 4ae0 08bf e0d7 fe3e
000003d0: 124d a3bd b29e 513e c3d3 593d 3990 b4bc
000003e0: 951e a83e 4330 a53d 7c26 2d3d e6e6 313f
000003f0: b95f 0fbe 2fc3 d6bd e5a1 673e e06e 77bd
0.61972225 -0.2734274 -0.39696556 0.5313379 0.5606684 -0.6253804 -0.33877715 -0.63055295
0.42594123 -0.2552281 -0.24667133 -0.3702766 0.43917215 -0.5260637 0.06796109 0.05911473
0.6820903 -0.59280866 -0.4279024 -0.53969026 0.6822023 -0.20462307 0.32756165 -0.5832315
0.64513606 -0.69096345 0.3836413 0.15109736 -0.28665164 -0.2901679 0.3142957 0.38954863
0.08537487 0.23138434 -0.2389576 -0.048289604 0.5547074 -0.55872715 -0.101881295 0.27286023
-0.06212036 -0.18783373 0.21149878 -0.5565598 0.03415423 0.020338789 0.20446542 -0.6754533
0.36907378 -0.5383075 0.17974094 -0.33071554 -0.46985787 0.58207816 -0.102306806 -0.08863158
0.026867265 -0.28344154 -0.005602484 -0.27997395 0.27481258 -0.24555555 0.2411321 -0.29863042
0.5041334 0.53462344 -0.1473305 -0.22807725 -0.0041383114 0.14946063 -0.19219927 -0.46296325
0.23333648 -0.69148445 0.50259334 0.09032194 -0.12836972 0.6647625 0.22265555 -0.2258327
-0.17923631 0.22043777 -0.60581094 -0.05792936 -0.6756771 0.08864371 0.034621045 -0.088085674
-0.3446782 -0.6367225 -0.4967808 0.47790158 0.40108356 -0.04704034 0.05847166 -0.06987945
-0.58816195 -0.0875009 0.6350483 0.35999438 -0.26704076 0.13616095 0.38194543 0.13554232
0.11108956 -0.17192914 0.14780037 -0.46716008 -0.09700415 0.11255865 0.68234324 0.2903199
-0.6340489 0.6099794 -0.62932605 -0.5504845 0.568327 0.6052235 0.36560792 -0.27207828
-0.13576566 0.65934825 -0.10743447 -0.52734005 -0.6136069 -0.6217254 -0.55680275 0.5006917
-0.60506445 0.56931484 -0.28228483 -0.1287461 -0.36758646 0.6993261 -0.4537725 -0.43315858
-0.57248366 0.038327295 0.6445314 -0.4674185 0.43927678 -0.00088941515 -0.2231392 -0.53864366
-0.033704884 -0.30927095 -0.6961805 -0.36282316 -0.32996964 0.65078235 0.15702729 -0.37739417
0.48022103 -0.17927785 0.16061582 0.30138656 0.056751024 -0.49461246 -0.6858061 0.54492277
-0.6920789 0.09601725 -0.54427564 0.29193833 -0.3437509 -0.16531092 0.5530035 -0.30313414
0.5852694 0.23953402 -0.5969749 0.535409 -0.3461792 -0.53799415 -0.41679794 -0.0563354
0.08878336 0.6292207 -0.076740526 0.5004262 0.35389966 -0.2241422 0.6528866 0.32439294
-0.05544646 -0.14758366 -0.12804401 -0.51275945 -0.25019753 -0.33665392 -0.60771686 0.12167465
0.675153 0.603203 -0.663787 0.41054282 -0.6265403 -0.46974108 0.09663689 0.12535386
0.43494278 -0.18091698 0.27980596 -0.5195741 0.36489335 -0.020036517 -0.44376007 -0.6705323
0.07420174 -0.13764066 -0.5170175 0.37143812 0.6541363 -0.48157194 0.67584807 0.015358168
-0.22797164 0.7003167 0.6750113 0.64938587 0.70451874 -0.25299627 -0.6301379 -0.12947467
0.667332 0.042595413 -0.06821374 0.07667931 0.466792 -0.10283682 -0.36906743 -0.30250403
0.6789832 0.18807903 0.2441182 -0.6513735 -0.44728842 -0.1025016 -0.12697001 -0.29626143
-0.5163525 -0.31448174 -0.5346724 0.49774075 -0.07973684 0.20470694 0.053180467 -0.022041427
0.32835832 0.08065846 0.04227303 0.6949295 -0.14001359 -0.10486447 0.22620352 -0.060408473

encoder.feature_extract.mlps.0.linears.0.bias f4 [128]
00000000: 4807 52be 2378 193f 734c f2be c785 2e3f
00000010: 2214 1c3f 9a28 803e 9624 c7be ce18 bdbe
00000020: 9e94 3cbe 70b0 cfbe b044 2d3f 590c cdbd
00000030: b814 5e3e 3e66 8fbe cac5 4fbe 3316 bebe
00000040: d55e 6bbb 5719 1dbf 588b 2b3f def2 a8bd
00000050: 0135 edbe f040 853e d118 9ebc e4ef b9be
00000060: f3df d23e 11f1 35be 48fc 21ba 97ac 2c3f
00000070: 0489 033f 0ae1 c43e d05c ac3c b8a5 cf3d
00000080: e9e2 87bd 6fbb 84be b9f1 b3bd 2c9d d13e
00000090: 96bf a4be 3508 0ebf b88a 3bbe 6157 d6be
000000a0: 27eb cb3e 837a 50be 23b9 3e3e d260 49be
000000b0: 52f3 98be b358 edbe 5ee0 c63d 5d25 d73e
000000c0: a7ce 323e b6af dd3d 7326 113e ab4b 013f
000000d0: 619f dbbc 0d6c e2be aa1e f53e e0c2 93bb
000000e0: 7ef5 0d3f 66fa 0fbf 97c4 ddbe 2286 14bf
000000f0: 15c8 b03e 7a08 07bf 43a8 5f3b 7373 f33e
00000100: 0504 2dbf 360a 1c3e 5020 14be 7ed4 23bd
00000110: 91a8 133f 89b8 1e3b 4131 e33e 4d46 5dbe
00000120: cd45 d93e c364 0b3f dc02 2bbe 1328 03bf
00000130: 1d21 ef3d 9c1e 753d 9aa3 9b3e 3ec6 243f
00000140: d331 fb3e 00ca 23bf c7a3 ca3e 1f94 d5be
00000150: 177f 453e c7a6 aa3e 6067 01bf c331 1d3f
00000160: 7fb4 2d3f 24a2 82be 89cc 953e 8ed3 a33e
00000170: 0a4c f5be f23d 033f 7e00 97be b30a f7be
00000180: 823a f4be ca92 823e 289c f73e 3137 2dbf
00000190: 25d4 08be 0279 763c b1ef 54be 8d9a cb3d
000001a0: 4ff3 ee3d 83aa 0e3b ae3a 19bf 387d b9bd
000001b0: 10fb 233f d942 42be 52b6 93be 021b 25bf
000001c0: 7c98 4bbe 0cb7 8cbe a785 36be d975 d73e
000001d0: 9ba1 273f 48e3 183f 3240 563d 06c4 c1be
000001e0: a12a d3bd 4278 7d3d aa59 0abe 2084 24bf
000001f0: 315c 9d3e ee91 703e b7d7 1bbe 75c0 96bc
-0.2051059 0.5994894 -0.4732395 0.6817288 0.6096822 0.25030977 -0.388951 -0.36932987
-0.18416068 -0.405643 0.67682934 -0.10012121 0.21687591 -0.28007692 -0.20290294 -0.37126312
-0.0035914679 -0.6136679 0.67009497 -0.08249448 -0.463295 0.26026106 -0.019298943 -0.36315835
0.41186485 -0.17767741 -0.00061792554 0.6745085 0.51380944 0.3845294 0.02104035 0.1013903
-0.066350766 -0.2592425 -0.08786339 0.40940225 -0.32177418 -0.5548127 -0.18314636 -0.4186354
0.39827845 -0.20359235 0.18625312 -0.1966584 -0.2987314 -0.46356735 0.097107634 0.42020693
0.17461644 0.1082453 0.14174823 0.50506085 -0.026809396 -0.4422306 0.47874957 -0.004509315
0.55452716 -0.5624145 -0.4331405 -0.5801717 0.3452765 -0.5274731 0.0034127391 0.47549018
-0.6758426 0.1523827 -0.14465451 -0.03999757 0.57679087 0.0024218878 0.44373515 -0.21608849
0.42436066 0.54450625 -0.1670031 -0.51233023 0.11676238 0.059843644 0.30398256 0.64364994
0.4906145 -0.639801 0.39578077 -0.4171457 0.19286762 0.33330366 -0.5054836 0.61404055
0.6785354 -0.25514328 0.2925761 0.3199734 -0.47909576 0.51266396 -0.29492563 -0.4825035
-0.47700888 0.25502616 0.48361325 -0.6766234 -0.13362177 0.015043499 -0.2079456 0.099415876
0.11667501 0.0021769113 -0.59855163 -0.09057087 0.64054966 -0.18970813 -0.28850037 -0.64494336
-0.19882387 -0.27483404 -0.17824422 0.42082098 0.65480965 0.59721804 0.052307315 -0.37844867
-0.10310865 0.061882265 -0.13510767 -0.64264107 0.307344 0.23493168 -0.15219007 -0.018402318

encoder.feature_extract.mlps.0.linears.1.weight f4 [128, 128]
00000000: 7f0c b63c 155c f8bc 2bf8 88bd b329 9a3d
00000010: d80f abba f2b0 a13d 78fd 16bd 543e 86bd
00000020: 54d1 0dbc 062a a2bd 795d 09bd 5258 823c
00000030: 5b9e f9bb 5438 cb3c adf6 07bc 4c6e 683c
00000040: 0a34 603d 0dc0 a6bd 7d09 80bd 6994 643d
00000050: 69eb 343d 696d 423d 6e16 773d 06e6 3ebd
00000060: d32e b63d 12a4 493d 62b8 12bd 266f 8dbd
00000070: f45f 8dbc ecb2 d43c 7488 24bc 9483 8ebd
00000080: df90 8dbd 8627 f43c bebe 21bd 629c 383d
00000090: 9110 8dbd 9dba 64bd 49bc 2e3d e2a7 a93d
000000a0: c97d 3abd a5f1 fdbc 785b b23d 791a 9c3d
000000b0: c46a 9e3c cb90 03bd 5a07 d83c 81bc 5ebd
000000c0: 534a 5dbd db14 78bd cca5 6fbd bc2c 5d3c
000000d0: 31a7 513d 9226 0a3d 42af 18bd 5325 47bc
000000e0: dbce 2fbd 7caf 5c3d a0ea 303d c0ae 6bbd
000000f0: 39b3 a53d ea2d 7f3b 8ffb c2bc 8d4e 88bd
00000100: 313d 443d 1074 8cbd f797 10bd b5ae 693d
00000110: eb5a 673d 46ba 5d3d 2c9e 783d 0b24 e03c
00000120: 9963 e33c 0c42 133d fc2e 363d 024a 0cbc
00000130: 4cf9 b33c a910 01bd ee34 9d3d c170 6a3d
00000140: 3667 4a3d 9168 b0ba 8226 8dbd c3c3 a3bb
00000150: 3423 11bd 2a5f 89bc b1bf 35bd 4d56 ef3c
00000160: 0df0 9e3c 8c95 15bc 0593 12bd b0ac 31bd
00000170: 39d1 c5bc 435d dbbc dc19 543d fb93 80b9
00000180: 57bc a63d 3301 a7bc 347e 2cbd deeb 42bd
00000190: 25bd a03c 9bd0 6abd 149a 9ebb 7053 843c
000001a0: b8d9 8f3d c6ee 123d c1ac 743c ab40 54bd
000001b0: 56d9 053d 207b ff3c 18aa 633d f359 76bd
000001c0: 1233 c0ba ab6a 1a3d 4529 9b3d ed57 19bd
000001d0: 5c51 f6bb 6bc0 a93d 715b 393d 740f 8fbd
000001e0: fdfd 60bd 3e98 59bc 99cf 9f3d c29b 043c
000001f0: 3bec b53a 887f 143b 0df3 91bd 2bc1 7c3d
00000200: 53e9 813d e80a a23d bce9 69bc 5134 223d
00000210: 2d2a 96bd 4108 65bd 7bd9 adbd 96d1 1c3d
00000220: 76bb 94bd 46ea 963d 2c27 e9bc a08b 813d
00000230: 2a0b 11bc 3230 a93d 7fd5 91bd e4dd debc
00000240: 6f3b a13d b780 8e3c 6c96 353d dfaa 2f3d
00000250: 7525 81bd 72a0 f2bc 8237 5b3d 2d41 1b3c
00000260: 3b6d 5d3c e4b2 113d a566 533c a725 6bbd
00000270: 6301 47bd 8044 de3c 55c3 94bd 5c9a b3bc
00000280: aaa5 a8bd f371 903d c38b 9b3d 2fef aebd
00000290: 3829 4a3b 78ac 9d3c e89e 8abc d89e f8bc
000002a0: af3f 70bd 7efe 90bc 283e 8a3d 5eb0 f1bc
000002b0: dd50 a4bd 2133 9f3b f6bd 133d 745b a33c
000002c0: 2023 923d 910d bebc b418 a5bd 6030 5d3d
000002d0: a830 c6bc 6c9b 9dbd e7ef 293d 32d3 3b3d
000002e0: 59be 9bbd f43a c2bc 8dbe 3e3c 9d7e 9abb
000002f0: 202c 553a 4c14 0bbd 8a67 bdbc 85bf 673d
00000300: 259d a63d 79a5 97bd 821f 1a39 ec31 873d
00000310: 4a62 abbd a30e bb3b 7e57 01bd aacb d13b
00000320: efcc 2fbd baaa b1bd 02e6 2aba 57c0 0a3d
00000330: 81f7 8dbc a963 1b3c e613 ce3c ab00 2f3d
00000340: 97f0 72bd 30a3 993d d1a0 47bd 0f05 a33d
00000350: a803 76bd c4cd 1cbd 6e13 80bd 412f 87bc
00000360: f87e dd3c 4dc3 ba3c 002a 3e3d fb8d 9cbd
00000370: 769a 36bd 8210 b1bd 8607 00bc f2c9 78bd
00000380: a2f3 ab3c bf94 54bd 5c4c c1bd 197a 933c
00000390: 6271 973d e2ee c13c ac29 563d f96d 383d
000003a0: 164b 843d 26bb a8bd a639 f6bc 0fb7 6abc
000003b0: a1c2 99bd 4e77 7b3d 01de 31bd 1d7d 663d
000003c0: 55c7 f0bc 8d96 f43c 1b9e 10bd 93fc c3bd
000003d0: 6b64 68bd 81b2 333d 137e 94bd 6bc8 763d
000003e0: a0ec 15bd 2cb9 b43d 3f3c f3bc ddc0 0a3d
000003f0: 8496 11bb caf8 59bd 690a c0bd 64cc 723d
0.022222755 -0.030317346 -0.06687959 0.07527485 -0.0013050986 0.07895078 -0.03686282 -0.06554857
-0.008655865 -0.079181716 -0.033536408 0.015911255 -0.0076177544 0.024807133 -0.008298558 0.014186453
0.05473713 -0.081420995 -0.0625181 0.055805597 0.044169817 0.047467623 0.060324125 -0.046606086
0.0889565 0.049228735 -0.035820372 -0.069059655 -0.017257668 0.025964223 -0.010042299 -0.0695869
-0.069123976 0.029804002 -0.039488547 0.045071013 -0.068879254 -0.05584203 0.04266003 0.08283974
-0.045530114 -0.030999014 0.087088525 0.07622237 0.01933802 -0.032120507 0.026370693 -0.05437899
-0.05402596 -0.060566764 -0.058507726 0.013499435 0.051184837 0.03372819 -0.037276514 -0.012154895
-0.042921882 0.053878292 0.043192506 -0.0575397 0.08090825 0.003893728 -0.023801593 -0.06655607
0.04790992 -0.06858075 -0.035301175 0.05705138 0.05648319 0.054132722 0.06069772 0.027360937
0.027757453 0.03595166 0.0444784 -0.008562567 0.02196946 -0.03151003 0.07676111 0.057236437
0.049414836 -0.0013458898 -0.068921104 -0.004997702 -0.035433963 -0.01676901 -0.044372264 0.029215956
0.019401575 -0.009129893 -0.03578474 -0.04337758 -0.024147617 -0.02677787 0.051782474 -0.00024524317
0.08141392 -0.020386314 -0.042112544 -0.04758822 0.019621441 -0.057327848 -0.004840145 0.016153067
0.070239484 0.035872243 0.014933766 -0.051819485 0.03267797 0.03118664 0.055582136 -0.060144376
-0.0014663658 0.037699383 0.07576231 -0.03743737 -0.007517023 0.08288654 0.04525322 -0.06985369
-0.054929722 -0.013280926 0.07803268 0.008093776 0.0013879606 0.0022659022 -0.071264364 0.061707657
0.06343331 0.079122365 -0.014276918 0.039600674 -0.07332263 -0.055916075 -0.08488747 0.038285814
-0.07262318 0.07368903 -0.028461061 0.063254595 -0.008852759 0.08261146 -0.07120799 -0.027205415
0.07872664 0.01739536 0.044332907 0.042887565 -0.063059725 -0.029617522 0.053519733 0.009475988
0.013514812 0.035570994 0.01290289 -0.057408955 -0.048585307 0.027132273 -0.07263819 -0.02192419
-0.08234723 0.07052984 0.07595017 -0.085417144 0.0030847322 0.019247279 -0.016921476 -0.03034918
-0.058654483 -0.017699476 0.067501366 -0.029503044 -0.08023236 0.00485839 0.036069833 0.01994107
0.07135606 -0.023199828 -0.08061352 0.054001212 -0.024193123 -0.0769566 0.041488554 0.04585571
-0.07604665 -0.023709752 0.0116421105 -0.0047148005 0.00081318803 -0.033954903 -0.02312066 0.05657913
0.08135442 -0.07404608 0.00014698322 0.06601319 -0.083683565 0.005708532 -0.03157758 0.0064024525
-0.04292005 -0.08675142 -0.0006519259 0.033874836 -0.017329933 0.00948421 0.025155973 0.042725246
-0.059311476 0.07501829 -0.04873735 0.07959949 -0.06006208 -0.03828217 -0.06253706 -0.016502025
0.027038082 0.022798205 0.046426773 -0.07644268 -0.0445809 -0.08645727 -0.007814294 -0.060739465
0.020990197 -0.051899668 -0.094383925 0.018002557 0.07394673 0.023673479 0.052285835 0.045026753
0.06459634 -0.08238821 -0.030056786 -0.014325871 -0.07507826 0.061393075 -0.04342461 0.05627166
-0.029391924 0.029856944 -0.03530703 -0.09569659 -0.05673639 0.043871406 -0.07250609 0.060249727
-0.036602616 0.08824381 -0.029691814 0.033875335 -0.0022214958 -0.05321578 -0.093769856 0.059276953

encoder.feature_extract.mlps.0.linears.1.bias f4 [128]
00000000: 4f66 843d dc01 683d e28c 4abd c17b 0bb8
00000010: c576 8ebc deb4 a33d 99c1 7b3d 46ca aabd
00000020: c731 933b d921 84bd b429 66bd 3e04 23bd
00000030: c00b 85bd 8b2c 853d bcf9 76ba bb1d 963d
00000040: 57e4 cebb 1b2f e6bb 52b5 5d3d a3fc 063d
00000050: c0d9 bb3c 80bc 2abd 383b 83bd 2354 8f3d
00000060: 3fcc 713d b884 80bd 8d30 2a3d 161a d63c
00000070: f462 75bd 597a 883c e7f8 18bd 1ab3 833d
00000080: af2a ab3d 7996 babb cc63 573d df80 7ebc
00000090: 653b 053d 4f9e a5bd a043 b4bd 6544 90bd
000000a0: 6074 513d 85e1 7c3d a962 6b3d 8b94 5b3d
000000b0: 839e 20bd 6687 11bd ded5 afbd 237d 97bd
000000c0: 3480 54bd 6f5d 853d 0357 903d 6dac 783d
000000d0: 2868 673c 11e8 8d3d d6ea c2bc 0816 933c
000000e0: e69c c83c 24fe 38bd 6e20 a03d 9063 11bd
000000f0: 3735 363d 8b5c 6b3d e4dc 5eba 5192 433d
00000100: d68b 7dbc 80f9 35bc a102 3dbd 0399 8f3d
00000110: 8611 8dbd 0b3a 9f3c 4ff6 96bd 492e 983d
00000120: b164 903c 9e27 df3c 928c a7bd 38af 173d
00000130: 1714 cebc e53a 733d 40b6 bbbc ff22 363d
00000140: 9f83 76bd 4254 a0bd a1cb 9abc f0a2 c1bb
00000150: ded8 61bd dc5b 91bd 50d6 aa3b 3100 5a3d
00000160: 927d 7b3c 329e 57bd 38bd 00bd 25a4 fcbc
00000170: 7e4c c6bc df81 8abd 55b1 1cbb 4f45 56bd
00000180: e20a 4d3c 96d2 a33c 012c a6bd 610d 9ebc
00000190: a0f1 243d 4a69 74bc 5383 acbc f65b 9e3d
000001a0: 0dde a4bd 84ad f2bc c2e7 863c 628f 3f3d
000001b0: d9b8 543d 514b 81bd d315 633d 4d04 2c3d
000001c0: cb69 273d d1aa 773d 5261 acba a1e5 66bd
000001d0: d155 623d d48d 57bd c8d7 99bd 467c 60bd
000001e0: b179 9e3c 1d14 723b a020 4a3d fba6 7bbd
000001f0: a9ca 903d a3e0 a83c 88a5 6abd 441a 8d3d
0.06464826 0.0566424 -0.049450763 -3.3255437e-05 -0.017390618 0.07993482 0.061463926 -0.08339362
0.004492018 -0.064517684 -0.056192115 -0.039798968 -0.06496382 0.065026365 -0.00094213686 0.073298894
-0.0063138413 -0.0070246584 0.054128 0.032955777 0.02293098 -0.041683674 -0.064077795 0.0699847
0.059032675 -0.06275314 0.041550208 0.026135486 -0.059908822 0.016659902 -0.037346747 0.06430645
0.083577506 -0.0056942073 0.052585408 -0.015533655 0.032527346 -0.080868356 -0.08801961 -0.07044295
0.051136374 0.06173851 0.057467137 0.05360846 -0.03921367 -0.035529517 -0.08585714 -0.07396915
-0.051880077 0.06511962 0.07047846 0.060711313 0.014123954 0.06929029 -0.02379362 0.017954841
0.024488878 -0.045164242 0.078186855 -0.03549534 0.044484343 0.057461303 -0.0008501543 0.04774696
-0.015475234 -0.011106849 -0.046145085 0.070116065 -0.06888108 0.019436857 -0.073711984 0.07430703
0.017626138 0.02724057 -0.081811085 0.037032336 -0.025156064 0.059382338 -0.022914052 0.04446697
-0.060184117 -0.07828571 -0.018895926 -0.0059093162 -0.05513846 -0.07097599 0.0052135363 0.05322284
0.0153497625 -0.0526411 -0.031430453 -0.030839989 -0.024206396 -0.06763052 -0.002390941 -0.05231219
0.012514802 0.019997876 -0.08113862 -0.019293489 0.040269494 -0.014917681 -0.021058714 0.07732384
-0.08050165 -0.029623754 0.016467933 0.0467676 0.051934097 -0.063131936 0.055440735 0.04199629
0.040872376 0.060465638 -0.0013151562 -0.056371335 0.055257622 -0.052625492 -0.0751186 -0.054806016
0.019345136 0.0036938258 0.04934752 -0.06143854 0.07069904 0.020614928 -0.05728677 0.068897754

encoder.feature_extract.mlps.0.linears.2.weight f4 [128, 128]
00000000: 03cd 0a3d 754f b43d 6c1a 823d 0e58 8bbd
00000010: a992 b33d 6e58 17bd 3959 1b3c 4834 c2bc
00000020: cd00 823d b49d 173d 2671 7ebd a429 adbd
00000030: c735 a93d 67c2 5c3c dbea 623c 58d1 8d3d
00000040: 44f1 eabc 36bf 83bd 5af7 0b3d b9cc 91bd
00000050: 8990 023c dfd2 83ba b04e bc3c 8dc8 9b3d
00000060: c063 b2bd 9095 8a3d 3120 30bd 9f06 203c
00000070: fe33 163c 4616 cc3c 0ac5 673d fb74 a6bd
00000080: fbf5 0a3d bc63 22bb 2a9b cbbc 5858 a2bc
00000090: ebd3 253b 6798 c33b 64c2 ee3c 5b47 6abd
000000a0: 1ff8 acbd cbda aebd 92da a83d 0c0d 433d
000000b0: 34e4 82bd 842b 843d 4be6 df3c 28ba 19bd
000000c0: 9a15 533d 6e51 953c 876e a93c d17f 49bd
000000d0: 730d 81bd 91bc 56bd 58d6 053c 2aac d23b
000000e0: 4342 9cbd 772f b4bc 321d 203d cf5e b5bd
000000f0: 338e b0bc bc17 9b3d 3718 e4bc 34b9 68bd
00000100: 8d1b f3bc 6741 ab3b 26b4 2bbd e3a0 193d
00000110: 54dc 233d 23ac 9dbb a9f3 9e3d 7c2d 203c
00000120: 8350 7bbd b034 09bb 4dbb 8cbd a84c d6bc
00000130: 0df1 523d c9df dfbc 3b34 4d3d feff bfbc
00000140: 8e01 62bd d233 b1ba a421 8b3d e953 5a3d
00000150: 1468 d9bc ae77 8cbd ce54 2d3d 7367 993d
00000160: ce38 60bd 4d4f 3cbd 4bbb 10bc df1b 84bd
00000170: 0102 043d 1d3e adbd d976 27bd 881c cfbc
00000180: e5a5 bbbb c1c1 9cbd b44f 95bc 7fe7 86bd
00000190: ea93 3fbd aab1 97bc 59cf 933c a249 173d
000001a0: e353 d43c 906c 21bc f73c c2bc 4947 8a3d
000001b0: 8d25 a33d 5f68 ef3a 4d23 763d 7ca9 01bd
000001c0: 3f3d 93bd edaa 91bd d178 5c3d 5048 453d
000001d0: 97ef c3bc 5652 bd39 30ba 863d 7557 1dbd
000001e0: eb06 483d a6b6 623d e3f6 e2bc fd94 83bd
000001f0: b17b 89bd 6548 39bd 6781 34bd bff8 7ebc
00000200: 504d 8abd 92ba ffbb 8c33 973d e799 6d3d
00000210: d2e7 0b3d 6f91 80bd 95fc e5bc 6646 723d
00000220: 9c9b 9cbd 671f bcbc 70eb 4ebc 1b2f 833d
00000230: 9e8e d73c 89fb a1bc 6052 33ba 3f79 ad3d
00000240: d563 71bd 6d99 c03c 0bb9 b33d 1dab 4fbb
00000250: 69b1 623d 14f3 4cbd 092e a5bd 0108 d1bc
00000260: 84a3 86bd 4945 913d 6012 a43a 12a7 f1bc
00000270: 2d12 983d 3926 1fbd f759 3bbd b29a 203d
00000280: 3470 6a3d eea7 a2bd 622a 02bd 676e af3d
00000290: d018 033d 139c 8b3d f0a3 2c3d f1df a03d
000002a0: a613 a33d 98ed b53c 4d09 763d 885a 5a3d
000002b0: bcdf 30bd c5ca 6dbd 3211 12bd 7814 febc
000002c0: 7361 bfbd 8dc6 823d dbc4 6abd ce17 42bd
000002d0: 5f05 c83b cbe8 b4bd 0c14 133c 28d7 ff3b
000002e0: d132 9dbc e539 f13c aa32 953d d15f 1f3d
000002f0: b4cd 85bd e896 943d 0511 443d f257 473d
00000300: 1e9d 1abd a6e1 abbd 86dd 19bd 0b23 92bd
00000310: fa07 b1bc 7380 ffbc 0e23 2abd 18aa dabc
00000320: dd61 04bd cea8 123d 1373 04bd cf68 87bc
00000330: e84f 9f3d f688 b8bc 6138 e33a 4cff 83bc
00000340: b752 9b3d 6764 46bd 1bf7 3c3d 9f40 88bd
00000350: 8391 aebb b27c 913d f1ad a03d 3736 3b3d
00000360: dcd4 f73c 1ba5 bc3c 8a2f bd3c e705 343b
00000370: 9afc 5c3d 6886 e8bc d12c 313d 30cb 113d
00000380: df8d 5a3d 80ad b23b 127b 313c 2bed 52bd
00000390: 49c4 433c fc0e b23d 98e5 0d3d 6a8c aebd
000003a0: 380b b5bc 6219 b63d 8967 8fbd ddc9 8dbd
000003b0: 7293 abbd 8b2d 14bc 560a 9cbd 6a29 633d
000003c0: 9144 b9bd 92da 853d a069 ae3a e3e2 3e3d
000003d0: 22a5 0cbd 0afd 993d 3185 b6bc 6c2b 14bd
000003e0: 8bfc 2bba 14f6 b8bd 4e35 17bd b757 6cbd
000003f0: c2cf 553d 2079 9d3d a138 c5bc 2861 053b
0.03388692 0.08804218 0.06352696 -0.068039045 0.087682076 -0.036949567 0.009481722 -0.02370657
0.06347809 0.03701563 -0.062119626 -0.08455208 0.0826221 0.0134740835 0.013849939 0.06924695
-0.028679498 -0.06432955 0.03417144 -0.07119126 0.00796903 -0.0010057351 0.02298674 0.076066114
-0.08710432 0.06766808 -0.04299945 0.009767204 0.009167669 0.024912965 0.056584395 -0.08127781
0.03392599 -0.0024778685 -0.024854261 -0.019817516 0.0025303315 0.0059690955 0.029145427 -0.057196956
-0.08445763 -0.08537825 0.08244814 0.047619864 -0.063911825 0.064536124 0.027331492 -0.037531048
0.051534273 0.018227305 0.020682586 -0.04919416 -0.06301393 -0.052425925 0.008168779 0.006429215
-0.07629826 -0.02199529 0.039090343 -0.08855974 -0.02155218 0.07572886 -0.027843578 -0.05681725
-0.029676223 0.0052263024 -0.04191985 0.03750695 0.040005043 -0.00481178 0.07761318 0.009776469
-0.06135608 -0.0020935945 -0.06871662 -0.0261596 0.051499415 -0.027328389 0.05009864 -0.023437496
-0.055177264 -0.0013519472 0.06793526 0.05330268 -0.026538886 -0.068587646 0.042317204 0.074904345
-0.054741673 -0.045974065 -0.008833717 -0.064506285 0.032228474 -0.08459113 -0.040884826 -0.02528216
-0.0057265633 -0.07654143 -0.018226482 -0.06587123 -0.04677192 -0.018517334 0.018043207 0.036935456
0.025918907 -0.0098525435 -0.02371071 0.06751878 0.079661466 0.0018265358 0.06009226 -0.031655774
-0.07189416 -0.0711268 0.053826157 0.048164666 -0.023917956 0.00036110234 0.06578481 -0.038413484
0.048834722 0.05534997 -0.027705615 -0.06424902 -0.067130454 -0.045235056 -0.04406872 -0.015562235
-0.067530274 -0.0078042233 0.07382879 0.0580081 0.034156628 -0.06277739 -0.028074542 0.05914917
-0.07646868 -0.022964193 -0.012629375 0.06405469 0.026313122 -0.019773262 -0.0006840583 0.084703915
-0.058933098 0.02351066 0.087755285 -0.0031687685 0.055344973 -0.050036505 -0.08065421 -0.025516512
-0.06574157 0.07093293 0.0012517683 -0.02949861 0.07425342 -0.03885481 -0.045740094 0.03921003
0.05723591 -0.07942186 -0.0317787 0.085659795 0.032006085 0.06816878 0.04214853 0.078552134
0.07962732 0.02220802 0.060067464 0.053308994 -0.04318212 -0.058054704 -0.03566093 -0.03101562
-0.09344759 0.06385527 -0.057316642 -0.047385983 0.006104156 -0.08833464 0.0089769475 0.007807631
-0.01918927 0.029446552 0.07285054 0.038909737 -0.065333754 0.072553456 0.047867794 0.048667856
-0.037747495 -0.083926484 -0.037564777 -0.0713559 -0.021610249 -0.031189179 -0.041537337 -0.026692435
-0.032319892 0.035805516 -0.032336306 -0.016529469 0.07778913 -0.022526246 0.0017335528 -0.016112946
0.07584136 -0.048435595 0.046134096 -0.066529505 -0.005327405 0.07103862 0.07845677 0.045706
0.030252866 0.023027947 0.023093957 0.0027469338 0.053951837 -0.028384402 0.04325563 0.035594165
0.053357955 0.0054528117 0.010832565 -0.051495712 0.0119486535 0.08694264 0.034642786 -0.085228756
-0.022100076 0.0889156 -0.0700217 -0.06923268 -0.08377732 -0.009044061 -0.07619159 0.055459417
-0.09046281 0.065358296 0.0013306625 0.046603095 -0.03433717 0.075189665 -0.022280307 -0.036174223
-0.0006560764 -0.09031311 -0.03691607 -0.05770084 0.052200086 0.076891184 -0.024074854 0.00203521

encoder.feature_extract.mlps.0.linears.2.bias f4 [128]
00000000: 9314 903d 2105 aebd 0fd0 c4bc c40c 4fbd
00000010: 7037 43bd e919 083d 0088 bcb9 5cb4 6cbd
00000020: de85 b23d 25b8 6dbd 239a 603d 2896 573d
00000030: c48a 75bd 78da 8c3d 8cf6 2dbb 2db5 963d
00000040: 9b0e b83d 0981 e93b 5e3e a4bc bdfd acbd
00000050: 9e60 003c 289e b83d 4d51 193d a92f a23d
00000060: bfc9 a5bd c114 9f3c 6cae b63a 4a32 613d
00000070: 9bd1 76bd be9c 86bd ade7 71bd 16be a33c
00000080: 5029 8f3c 59cf 443c bae9 e53c 18fe 5a3d
00000090: 188d f63c 23ba 3f3c 8b7d a6bc 5c9d 35bd
000000a0: 7c37 d63c fcad 703d 9782 2ebd ca56 a73d
000000b0: 6d09 09bd 40a2 6d3c 8c32 50bd 906b 7e3d
000000c0: 65b0 173d 109a a1bc 856c 313c 73cc d53c
000000d0: f03f a6bd a0b8 31bd c73b d0bc 1c7c 183d
000000e0: 0d4e 113d 7751 c8bc f1ba d0bc c201 983d
000000f0: c30a 69bb 7e80 86bd 7630 63bd 9751 7f3d
00000100: b7a1 81bb 32fb 88bd 5ba9 cfbc f21c 05bc
00000110: 2e3d 373d b453 7dbd acf9 8cbd 3008 5cbd
00000120: 9341 373d 33d5 d63c 6c5f a33c d457 8a3d
00000130: bdcb 97bd b06b a43d 313d 8cbd 9552 963d
00000140: cef5 1bbd db1c 48bd b890 23bd e574 37bc
00000150: 30f6 e13c 4c1e a63d c6f1 3fbd cfbe de3c
00000160: e63d 27bd f319 ae3d f48b 45bd 6e55 293c
00000170: e2e0 a63c 6dd3 d93c c231 be3c 5050 9dbd
00000180: 57e7 333d 173e b237 e95e 903d 4e50 adbc
00000190: 2591 94bc 46f3 013d 06d7 20bd 642c fabb
000001a0: b22a 7d3d 1d4f 36bd 655d 4c3c 90a1 9e3d
000001b0: 8dd0 f93c 17d8 9a3d ee2a 8b3d 360d 44bd
000001c0: 7a4e 783d d61c 80bd 01d8 a93d 3efe cdbc
000001d0: b7c3 8fbd 67d9 82bd 4c8e 69bd e2d2 51bd
000001e0: 7c73 adbb cfac 29bd d5b3 82bd 5749 f3bc
000001f0: 6681 7d3d 4f17 963b 7402 82bc c4cc a03d
0.07035174 -0.08497072 -0.024024991 -0.050549284 -0.04766029 0.033227835 -0.00035959482 -0.05778919
0.087169394 -0.058036942 0.054834496 0.052633435 -0.05994679 0.06877607 -0.0026544658 0.07358775
0.08987161 0.007125978 -0.02004927 -0.08446834 0.007835535 0.09014541 0.03743105 0.07919247
-0.08095121 0.019419076 0.001393748 0.0549796 -0.06025849 -0.06572865 -0.059058834 0.019988101
0.017475754 0.012012326 0.028065551 0.05346498 0.030096576 0.011702093 -0.020323535 -0.044339523
0.026149504 0.058759674 -0.04260501 0.081708506 -0.033456255 0.014504015 -0.050829455 0.0621143
0.037033457 -0.019726783 0.010829096 0.026098466 -0.08117664 -0.043388963 -0.025419129 0.037227735
0.035474826 -0.024452908 -0.025479766 0.0742221 -0.0035559393 -0.06567477 -0.055466138 0.06233367
-0.0039560455 -0.06688537 -0.02534931 -0.008124577 0.04473608 -0.061847404 -0.06883559 -0.053718746
0.04474027 0.026224708 0.019942962 0.06755033 -0.07411907 0.08028352 -0.06847609 0.0733997
-0.038076214 -0.048855644 -0.039932936 -0.011197303 0.027583212 0.081112474 -0.046861432 0.027190594
-0.040830515 0.08501043 -0.048229173 0.010335309 0.020370904 0.026590073 0.023217086 -0.07681334
0.043921795 2.1248166e-05 0.07049353 -0.021156456 -0.018135617 0.031726144 -0.039267562 -0.0076346863
0.061808296 -0.044509042 0.012473439 0.07745659 0.030494953 0.07560747 0.067952976 -0.04786416
0.060621716 -0.062555 0.082931526 -0.025145646 -0.070197515 -0.063891225 -0.05702047 -0.051226504
-0.005293308 -0.04142457 -0.063819565 -0.029698057 0.061890982 0.0045804153 -0.01587031 0.07851556

encoder.feature_extract.mlps.0.batch_norms.0.weight f4 [128]
00000000: 1b89 803f 3366 803f 2d1e 7f3f 8b56 803f
00000010: f910 803f 5a27 7f3f 3b65 803f f761 7e3f
00000020: f63c 803f 8827 803f 384b 803f 081a 803f
00000030: 0571 803f bfcd 7f3f 6a33 803f 078b 803f
00000040: 7250 7e3f d433 7e3f dd28 7f3f bc2e 803f
00000050: ee34 803f 8fff 7f3f 968f 803f b5a7 7f3f
00000060: ba87 7f3f 2061 803f 99a1 803f 8d63 803f
00000070: 3dec 803f a068 803f 030e 7f3f 3148 7f3f
00000080: 9d73 7f3f 5ce9 7e3f 2773 7f3f 852a 803f
00000090: ca4d 803f 6984 803f c483 803f 49b4 803f
000000a0: 2e7a 803f 3b49 7f3f 2351 7e3f 78b0 7f3f
000000b0: 3f1a 7f3f a117 803f 1ac6 803f f31c 7f3f
000000c0: cbd1 7d3f f29f 7f3f ed68 803f ca26 7e3f
000000d0: 8964 803f 9183 803f 8e57 7e3f fe98 803f
000000e0: 4773 803f eb74 803f 0563 7f3f 7b5e 7f3f
000000f0: a18a 803f 5bb2 7e3f 5cb1 7f3f 7fcc 7f3f
00000100: 77a7 803f d740 803f 8fff 803f caa5 7f3f
00000110: dfbc 803f 2f4f 7e3f 93ed 803f 01ba 803f
00000120: 2292 7f3f 15c7 803f d21f 803f a16e 7e3f
00000130: 7f70 803f df00 803f a922 7f3f 66a0 7f3f
00000140: 7624 803f 7133 803f 84de 7e3f ea3a 803f
00000150: ab0c 813f 8d3e 7f3f 1c68 803f 40cc 7f3f
00000160: b326 803f 879e 7f3f d3a4 803f dbd8 7f3f
00000170: a0f2 7e3f f491 7f3f 5b0c 803f 8d74 7f3f
00000180: bf0e 803f b41f 7e3f 4409 7e3f c9a1 803f
00000190: 497d 7f3f bae5 7f3f 4c39 803f 980e 813f
000001a0: bc82 7f3f bae2 7d3f abdc 7f3f 8974 803f
000001b0: 516f 7e3f fb46 803f cdf6 7f3f 81d1 7e3f
000001c0: 028b 7d3f 632e 803f 0016 7f3f e8dd 7f3f
000001d0: 0e7c 803f deb3 803f a710 7f3f 925b 803f
000001e0: f7af 803f 2763 803f eca5 7e3f 8827 803f
000001f0: f927 7d3f e86c 7f3f 9201 803f 2c30 803f
1.0041841 1.0031189 0.9965542 1.0026411 1.000518 0.9966942 1.0030893 0.9936823
1.0018604 1.0012064 1.0022955 1.0007944 1.0034491 0.9992332 1.001569 1.0042428
0.993415 0.99297833 0.9967173 1.0014262 1.0016153 0.99999326 1.0043819 0.99865276
0.9981648 1.002964 1.0049316 1.003038 1.0072094 1.0031929 0.99630755 0.9971953
0.99785787 0.9957483 0.99785084 1.0012976 1.0023739 1.0040408 1.0040212 1.0055019
1.0037286 0.99721116 0.99342555 0.99878645 0.99649423 1.0007211 1.0060456 0.9965355
0.99148244 0.9985343 1.0032021 0.9927794 1.0030681 1.0040151 0.9935235 1.004669
1.003518 1.003568 0.99760467 0.9975354 1.0042306 0.994909 0.99880004 0.9992141
1.0051106 1.0019788 1.007799 0.9986235 1.0057639 0.99339575 1.0072502 1.0056764
0.99832356 1.0060755 1.0009711 0.99387556 1.0034331 1.0000266 0.9966226 0.99854124
1.0011127 1.0015699 0.9955828 1.0017979 1.0081991 0.9970482 1.0031772 0.99921036
1.001181 0.9985127 1.00503 0.9994027 0.99588966 0.9983208 1.000377 0.9978722
1.00045 0.99267125 0.9923289 1.0049373 0.99800545 0.9995991 1.0017486 1.0082579
0.9980886 0.9917408 0.9994609 1.0035564 0.99388605 1.0021662 0.99985963 0.9953843
0.99040234 1.0014156 0.99642944 0.9994798 1.0037858 1.0054891 0.99634784 1.0027945
1.00537 1.0030259 0.99471927 1.0012064 0.9888912 0.9977555 1.0000479 1.0014701

encoder.feature_extract.mlps.0.batch_norms.0.bias f4 [128]
00000000: 01f6 65ba 161c 293c 014a 203b f769 5fb9
00000010: 071f 52bb 9424 69bb cdb9 2d3b 1f13 1f3b
00000020: a8f4 aa3b 32db eaba 897a c1bb 498d 2c3b
00000030: 8449 3e3b 0ee8 963a 2eb4 d13b 5123 003c
00000040: fd47 93bb 3d1d 193b d00d f3bb 9968 913b
00000050: 146c ad3b 877d a03b 655b aa3b 0fba 0dbb
00000060: 5fa0 e4ba 38ac 723b 8f5a e63a f75f b93b
00000070: a6aa cc3a 1daa 4abb 0a07 073c 482d e6bb
00000080: 38c2 cd3b f104 bebb 017f 83bb 2eb3 eebb
00000090: 6308 87ba bfb4 9bbb e0b0 ac3b 68ac da3a
000000a0: 1b70 83ba 6576 06bb 83a2 30bc cd8b 563b
000000b0: 329f f2bb 6577 703b efae 0fbc 08ab f2bb
000000c0: 1f00 403b f795 913b 5aaa 853b 160b 8abb
000000d0: 9b61 073c 3f9e 1d3b a689 e5bb d69e 9abb
000000e0: b23c c7b8 f671 0cbc 685f ebba 2ce5 51ba
000000f0: 25f6 5e3a c2af fab9 4c32 ac3b 1905 483a
00000100: 3731 033c 94bb 89ba 6ba6 ac3a 7489 0abc
00000110: c6c5 4039 12b5 0c3b ad9c dbba 2b6a 72ba
00000120: 83f1 863a eefd 963b 8654 0abb d659 5abb
00000130: 5662 663b 9d29 583b 2f71 f53b 7bad 8f3b
00000140: b0f3 d9b8 3b18 8ebb bb66 23bc f351 f6bb
00000150: bcbd efb8 ccd5 7bbb 3734 1f3b 28ea af39
00000160: c8d1 c53a 4519 03bb eac5 163c 821a 80bb
00000170: dc01 acbb 27ae 04bb 5f84 77bb b1a7 283b
00000180: 877d 2b3b 2621 03bc 8f83 7bbb 2d21 013c
00000190: 1702 8b3b b7a3 373b b520 213b bd59 303b
000001a0: 1866 87bb a155 fdbb 4f88 32bb c4e2 cdbb
000001b0: 3b67 b3bb b665 003b 3d5a 9ebb 8312 cbbb
000001c0: 4dff 6ebb 05de 4dba f52c 56bb a3ec 88ba
000001d0: ad5e 1d3a 1440 473b 6dad 79bb 9aa5 54bb
000001e0: 1ba8 cd3b fba2 03bb f4c5 15bc d77a c93b
000001f0: 95d9 bcbb 0821 a73b 01b7 8c3b f02d 50ba
-0.0008772314 0.010321638 0.0024458172 -0.00021306412 -0.003206195 -0.003557478 0.002650845 0.0024272872
0.0052171536 -0.0017918108 -0.0059045 0.002632933 0.0029035518 0.001151325 0.006399653 0.00782092
-0.0044946657 0.0023363375 -0.007417418 0.004437518 0.005292425 0.0048977765 0.0051988834 -0.0021625792
-0.0017442814 0.003702892 0.0017574596 0.005657192 0.0015614822 -0.003092415 0.008241424 -0.007024441
0.006279256 -0.005798929 -0.004012943 -0.0072845435 -0.0010302182 -0.004751771 0.0052701086 0.0016683461
-0.0010027917 -0.0020517346 -0.010780933 0.0032737136 -0.0074042315 0.0036692258 -0.008769735 -0.0074056424
0.0029296947 0.004442926 0.0040791454 -0.0042127473 0.008263017 0.002405062 -0.0070049344 -0.0047186418
-9.500365e-05 -0.008572092 -0.001795751 -0.00080068666 0.00085053063 -0.00047814666 0.0052550193 0.0007630154
0.008007339 -0.0010508173 0.0013172155 -0.008455623 0.00018384223 0.002147023 -0.0016755067 -0.00092473876
0.0010295365 0.0046079075 -0.0021107509 -0.0033317707 0.0035153828 0.0032983788 0.007490299 0.004384694
-0.00010392757 -0.0043363846 -0.009973223 -0.0075170933 -0.00011431749 -0.0038426993 0.0024292597 0.0003355306
0.0015092427 -0.0020004075 0.00920246 -0.00390941 -0.005249245 -0.0020245404 -0.0037768108 0.0025734717
0.002616735 -0.008003509 -0.0038377976 0.007881445 0.0042421925 0.0028021166 0.0024586145 0.0026908957
-0.0041320436 -0.007731155 -0.002724189 -0.006283136 -0.0054749525 0.0019591874 -0.0048325346 -0.006197275
-0.003646809 -0.0007853213 -0.0032680605 -0.00104465 0.00060031825 0.0030403184 -0.0038097755 -0.003244734
0.0062761432 -0.0020086158 -0.009141434 0.006148677 -0.0057632425 0.005100373 0.0042942767 -0.00079414155

encoder.feature_extract.mlps.0.batch_norms.0.running_mean f4 [128]
00000000: 7264 ecbe c83b 8e3f f878 89bf 714e 7b3d
00000010: 3242 bc3e c408 ebbd ca13 65bf b204 9fbe
00000020: 5f4e 40bf e058 70bf 6307 fa3e fade 29bf
00000030: 3098 e4be 7e8e 01be 6d23 fbbe 666d 603c
00000040: 12ca 643e 0025 2abf f573 093e bb4d 3a3e
00000050: 6cc0 25bf 3bdf 8ebe dd90 8e3a ea5e 82bf
00000060: 3d53 dbbd ad99 febe 3634 0f3f b51f 163f
00000070: 8f8d 733e 5530 e43d 8819 5bbe be60 3ebe
00000080: b522 ed3e 05d4 f7be a2d1 6c3d 8706 39bd
00000090: 8607 7ebf f8cc eabe 4d11 ed3e e19f 22bf
000000a0: ff3e 1c3f 7f2f 8abe 6804 863e b461 90be
000000b0: 25db 6cbf d0f5 b6bb b477 6c3d c2bd b43e
000000c0: 615b a33d f46c f03e ce57 8a3e 45b7 243f
000000d0: d44a 45be 8538 65bf c441 163f de4c 943e
000000e0: 8acd 913f 5301 8ebf cf3d 2a3e 02ee 56bf
000000f0: 686d 7c3f d28f 85bf ade0 1cbf dd68 743f
00000100: ef99 05be e461 b63c 3906 083f 3882 f0be
00000110: 74da 1a3f efc9 e2be e763 e63e e4b5 3ebf
00000120: 1c52 fa3d 64ba 373e 72ae ec3e f2b7 60bf
00000130: 31f7 4dbd c572 b63e 5bae 35be a1fb 943f
00000140: a7b2 123f ff54 babe 7881 6a3e c22b 34bf
00000150: 1432 df3e a282 583f 6a92 84bf 1c67 0d3f
00000160: 5b93 a53f b92a 6d3e 734b a33d f699 253f
00000170: 98b8 1fbf e02a 2d3c a594 20bf af54 bfbe
00000180: ea25 fa3d c005 253f 2f3c 7c3c 8e85 0dbf
00000190: d922 9bbe 1864 f9be 8ee4 62be e3c7 0fbf
000001a0: 03e5 85bc 8647 b63e 4c5e 87bf ae66 84bd
000001b0: 7eee a83f 25b1 e83e e417 06bf 430a 48bf
000001c0: aafe 15be 0afe 4dbe 22bc 8abe 8b76 f53d
000001d0: e765 593f 8858 0bbd fcd5 60bd 375e 2bbf
000001e0: 8616 d6be a2e1 093f bf7a 813d 42cc 29bf
000001f0: 935a c83e e1cc 693f 6f70 83be 33d4 96bd
-0.46170384 1.1111994 -1.0740042 0.061354104 0.36769253 -0.11476281 -0.8948332 -0.3105827
-0.75119585 -0.9388561 0.4883376 -0.6635586 -0.4464736 -0.12652013 -0.49050465 0.013697958
0.22342709 -0.6646271 0.1342314 0.18193714 -0.6474674 -0.27904686 0.0010876913 -1.0185215
-0.10709236 -0.4972662 0.5593904 0.5864213 0.23784469 0.11142031 -0.21396458 -0.18591592
0.46315542 -0.48403946 0.05781711 -0.04517224 -0.9923023 -0.45859504 0.46302262 -0.63525206
0.61033624 -0.26989362 0.26175237 -0.28199542 -0.9252189 -0.0055835024 0.057731345 0.35301024
0.079764135 0.46958125 0.27020115 0.6434215 -0.19266826 -0.89539367 0.586941 0.28964895
1.139085 -1.1094154 0.1662514 -0.8395692 0.9860444 -1.0434515 -0.6128033 0.9547251
-0.13047002 0.022263475 0.53134495 -0.4697435 0.60489583 -0.44294688 0.44998094 -0.74496293
0.12222692 0.17942196 0.4622684 -0.8778068 -0.05028457 0.35634437 -0.17742293 1.1639291
0.5730385 -0.36392972 0.22900951 -0.7037927 0.43592894 0.8457433 -1.0357182 0.5523546
1.2935594 0.23160829 0.07973375 0.6468805 -0.6239104 0.010569304 -0.62726814 -0.37369296
0.12214263 0.644619 0.015395208 -0.55281913 -0.30300024 -0.48709178 -0.22157499 -0.5616438
-0.016344553 0.35601443 -1.0575652 -0.06464897 1.3197782 0.4544765 -0.52380204 -0.7814066
-0.14647928 -0.2011644 -0.2709666 0.11985501 0.84921116 -0.034019977 -0.05489157 -0.66940635
-0.4181406 0.53859913 0.0632224 -0.663273 0.39131603 0.91328245 -0.25671718 -0.073646925

encoder.feature_extract.mlps.0.batch_norms.0.running_var f4 [128]
00000000: 6d1e be3a 8f2b 9d3b 1076 dc3b e149 c83b
00000010: 2100 9d3a eedd 083b c931 9b3b c807 5838
00000020: 4868 ca3b 6e18 903b 591b 6b3a 6180 ba3b
00000030: befb 063c a119 a339 5d69 a43a 4100 163b
00000040: 506c 5a3a 3fce f937 c467 b13b 9fd0 a03a
00000050: a058 103a 055b a73b 63f3 c536 e1f9 f43b
00000060: 7c80 a03b 0a83 ef3a fd90 bd3b 07bd f238
00000070: a7bf a93a b627 a43a 618b 8a3a b396 c73a
00000080: 4bf4 8b3b 7b03 503a add0 bb39 bedd 593b
00000090: 3bba 003c e37b da38 723b eb3b 57ba 673a
000000a0: 819b 593a 7e44 6038 62c1 8439 4649 0639
000000b0: d92a cc3b 2b4e 823b 4daa a238 5749 af38
000000c0: 12ea d038 5b0d f13a 8e73 b739 2f9f 8139
000000d0: 428e 023a 159f 6a3b bbde 6339 ede8 973a
000000e0: 4f48 d43b 4a6a 923b 0268 b33b 7a68 ad3a
000000f0: 51a6 e73b 5092 8f3b 22b6 bc3b 68ea 8f3b
00000100: f749 b93b c8ea 7039 42ad 053c 2f75 363b
00000110: abb9 ba38 c656 803b 0f1a c237 d577 933b
00000120: c6f2 c63a 14b7 f23a dd2c e73b a858 1a3b
00000130: aac3 293a 3516 b73a 556d 813b dc9e ac3b
00000140: ebcc 9539 0f03 d13a c8c8 c739 da8b e03a
00000150: efe1 4d3a 409b a43b 52b3 903b f501 3138
00000160: 0f60 cd3b 6ee3 843b de41 703a 8105 c13a
00000170: e1a1 b139 3446 873b 6c0e e13a b6c2 c239
00000180: ff13 b03b f22d 4a3b dba0 523b aa24 7939
00000190: 4c92 283a a1bb 933b 5750 0238 7a7c e03b
000001a0: 66e3 a539 6445 223b 53fc 873b 2bf0 3a38
000001b0: 4ce9 033c 5727 cd3b 7db5 aa3a 9498 6039
000001c0: 09df 4138 f7fe d338 902e 8539 62f9 af3a
000001d0: 1289 f239 f322 e53b 7099 0d39 2d42 b23a
000001e0: 6a46 b93a 1bc4 8d3b ad42 353a e442 2037
000001f0: 8855 b038 cf0b fc3b 17ef 2739 3f69 aa38
0.0014504917 0.0047964524 0.0067279413 0.0061123227 0.0011978188 0.0020884234 0.0047361595 5.150566e-05
0.006176982 0.0043974435 0.00089686137 0.0056915735 0.008238731 0.00031108878 0.0012543608 0.0022888335
0.000833218 2.9779154e-05 0.005413981 0.0012269205 0.000550637 0.005107286 5.8993915e-06 0.007476077
0.004898129 0.0018273306 0.005785106 0.00011574668 0.0012950794 0.0012524042 0.0010570103 0.0015227407
0.0042710654 0.0007935089 0.00035822895 0.003324374 0.007856901 0.00010418126 0.0071787173 0.00088397175
0.0008301065 5.346955e-05 0.00025321083 0.00012806532 0.006230694 0.0039766035 7.756483e-05 8.358311e-05
9.961812e-05 0.0018390821 0.00034990575 0.00024723398 0.00049803045 0.0035800387 0.0002173138 0.0011589803
0.0064783464 0.004468237 0.005475045 0.0013229989 0.007069387 0.0043814555 0.0057590166 0.004391957
0.0056545692 0.00022975646 0.008158984 0.0027840843 8.9037545e-05 0.003916594 2.3138737e-05 0.004500369
0.0015178553 0.0018517696 0.0070549087 0.0023551378 0.00064759946 0.001396841 0.003949801 0.005267961
0.0002857217 0.0015946346 0.00038105831 0.0017131523 0.0007853796 0.00502339 0.004415908 4.220191e-05
0.0062675546 0.004055432 0.00091650884 0.0014726372 0.0003388068 0.004128242 0.0017170436 0.00037147634
0.0053734775 0.003085014 0.0032139334 0.00023760149 0.00064304913 0.004508451 3.1069238e-05 0.0068507763
0.00031640677 0.0024760598 0.0041499524 4.456953e-05 0.008051228 0.006260793 0.0013024058 0.00021419144
4.6222503e-05 0.00010108755 0.0002540243 0.0013425762 0.00046259962 0.0069926917 0.00013503968 0.0013600044
0.0014135365 0.004326356 0.00069145375 9.552317e-06 8.4082654e-05 0.0076918374 0.00016015429 8.125835e-05

encoder.feature_extract.mlps.0.batch_norms.1.weight f4 [128]
00000000: 014e 803f 7663 7f3f b62d 803f a975 7f3f
00000010: 69c6 7e3f 1a80 7f3f 653d 803f 0d2a 803f
00000020: fe82 803f fd59 7e3f 339d 803f 112f 803f
00000030: 3a30 7f3f 5a38 7f3f 08f8 7f3f 8e92 7f3f
00000040: 3da8 803f fd64 803f 1c7d 803f dec6 7e3f
00000050: 5f11 803f d904 803f b60d 803f 6097 803f
00000060: 1256 7f3f 9bda 7f3f 6792 803f 1c9d 7f3f
00000070: fb23 803f 41f0 7e3f 9885 803f 9464 803f
00000080: bf5c 813f fd5e 803f 738e 803f d619 7f3f
00000090: f171 803f 81b5 7f3f c482 803f fabd 7e3f
000000a0: 8c07 813f 5066 803f 82d0 7f3f 488a 803f
000000b0: c66b 803f d2ce 803f 842a 7f3f 07db 7f3f
000000c0: 345c 803f 575c 803f b830 7f3f ea74 7e3f
000000d0: 62eb 7e3f fcbe 7f3f bc8c 7c3f a34e 7f3f
000000e0: ad1f 7f3f f086 803f 4231 803f 6942 803f
000000f0: 5bf9 7e3f abe5 7e3f a64c 7f3f 1d6e 803f
00000100: 6099 7d3f 7473 7e3f 7c31 7f3f ae0b 7f3f
00000110: c57e 7e3f 1f22 813f de60 7f3f 3290 7f3f
00000120: 1b94 7e3f 8629 803f 52f1 7e3f 6930 803f
00000130: 574f 7f3f 9664 803f 5242 803f b86c 7f3f
00000140: 4e1f 7e3f 1804 803f d328 803f 7707 7f3f
00000150: ed7d 803f 506d 803f cc1d 7f3f abc3 7f3f
00000160: e4d8 7f3f 6ad0 803f c610 803f fc4e 7e3f
00000170: d1f4 7e3f 0939 803f d026 7f3f 164d 803f
00000180: 2478 7e3f cc27 7f3f 6e60 813f b2dc 7e3f
00000190: ccc9 7f3f 0b86 813f 3963 7f3f 8e22 7f3f
000001a0: 8110 803f 5f81 7f3f 5db1 803f 7836 803f
000001b0: 27a7 7e3f 1926 7f3f e018 803f fbaf 7f3f
000001c0: 5314 813f 0f6c 803f 0a97 803f 424d 7e3f
000001d0: 3592 7f3f c077 803f b96a 7e3f 312d 803f
000001e0: 4034 7e3f 02f4 803f 721c 803f 420e 803f
000001f0: a757 813f f129 7e3f 2602 813f ab87 803f
1.0023805 0.9976114 1.001395 0.9978891 0.995215 0.9980484 1.0018736 1.0012833
1.0039976 0.9935606 1.0047973 1.0014364 0.9968296 0.9969536 0.9998784 0.99833
1.0051342 1.0030819 1.003818 0.995222 1.0005301 1.0001479 1.0004184 1.0046196
0.9974071 0.9994294 1.0044678 0.99849105 1.001098 0.9958535 1.004077 1.0030694
1.0106429 1.0028988 1.0043472 0.996488 1.0034772 0.9988633 1.0039907 0.9950863
1.0080428 1.0031223 0.9992753 1.00422 1.003289 1.0063117 0.9967425 0.99943584
1.0028138 1.002818 0.99683714 0.99397147 0.99577916 0.99900794 0.98652244 0.99729365
0.9965771 1.004118 1.0015032 1.0020267 0.99599236 0.99569196 0.9972633 1.0033604
0.99062157 0.9939492 0.9968488 0.99627197 0.99412185 1.0088538 0.9975718 0.998294
0.9944474 1.0012672 0.99586976 1.0014774 0.9973044 1.0030696 1.0020239 0.99775267
0.9926652 1.0001249 1.0012459 0.99620765 1.003843 1.003336 0.9965484 0.9990794
0.99940324 1.0063603 1.0005119 0.9933927 0.9959231 1.0017406 0.996686 1.0023525
0.9940207 0.996701 1.0107553 0.99555504 0.9991729 1.0119032 0.99760777 0.996621
1.0005037 0.9980678 1.0054127 1.0016623 0.99473804 0.9966751 1.0007591 0.998779
1.0084327 1.0032977 1.0046093 0.99336636 0.9983247 1.0036545 0.99381596 1.0013791
0.9929848 1.0074465 1.0008681 1.0004351 1.0104874 0.9928275 1.0078781 1.0041403

encoder.feature_extract.mlps.0.batch_norms.1.bias f4 [128]
00000000: 1830 d238 915e bebb c498 f73a 00c9 093b
00000010: f6d2 6e3b eedc 1b3b 6664 c1ba 183d 223b
00000020: 3ebb b43b abf2 fc3a 054f 583a 3099 f73a
00000030: b41e b0b9 5bfe 83ba ee57 a2bb 6dbe 10bc
00000040: 36cb 703b 1549 3dba d838 c83a 3b2d 24bc
00000050: 1446 e03b 2f64 823b af57 b93b 0f18 f1ba
00000060: a5c4 65bb a773 7e39 e48f ad3a 9d20 0d3b
00000070: 390d 15bb 5f86 133b dec3 b43b ecc7 133c
00000080: 292a f5ba f22b 743b 1b9b cc3b b5e4 8abb
00000090: 2716 c33a 4245 c8bb 55d7 9439 2a2d 37bb
000000a0: 869b b93b eb6e 863b 9d42 dbbb 9416 983b
000000b0: 54de e63a 57f0 a93a f895 0cba 7498 3d3a
000000c0: e2ab c73a 9e6a 303a a99e 1cbc 083a 29bc
000000d0: 290c feba 4cae cb3b 4900 0ebc 1f50 dbbb
000000e0: acdd c4bb 24d2 c93b 12fb c6bb 0196 98bb
000000f0: 1b91 1dbb 259a 8fba 3228 c9bb cc1a 6eba
00000100: 27f0 61bc c406 23bc 642b 98bb 6f6b 1e3b
00000110: a79b 0638 9938 ab3b 0fa5 2b3b 56c3 cbbb
00000120: 55e8 253a 532c f5ba 583a 43bc 12a3 b23b
00000130: 5385 62bb b9c7 9a3b b857 08ba d289 7dbb
00000140: faab f9bb af88 4d3b 0a35 95ba c33c a93b
00000150: 0c0b d53b e4e8 9f3b 833a 57bb 273d 003a
00000160: a37e f5b9 9c84 d839 5660 a3bb d6a9 d1bb
00000170: 4bb1 c7bb dc55 38bb 073e 9ebb bd53 06bb
00000180: b3ed 0dba 0f1a ccba 4892 1f3c 0ffa 713a
00000190: b064 d3ba 38ac 143c 055f 283b 9e65 f8bb
000001a0: 4841 00bb 5e9b 9739 48fc 23ba 87d4 9ebb
000001b0: 6942 033b 01fc 16bb 6663 083b 33db c5ba
000001c0: b997 b93b 0285 ff3b 8c34 1fba 3c7d ac3b
000001d0: 28e4 43bb 8f21 28bb 2fd7 813b 0c3d 1e3b
000001e0: 985a 013b 127e 183c 2f95 363b 6a86 b3b8
000001f0: 90aa ed3a 4c14 3c3b 0d54 053c 9557 b43b
0.000100225385 -0.005809613 0.0018890132 0.0021024346 0.003644166 0.0023782807 -0.0014754653 0.0024755653
0.005515485 0.0019298395 0.0008251521 0.0018890258 -0.00033592212 -0.0010070311 -0.0049543297 -0.008834464
0.0036742217 -0.0007220668 0.001527573 -0.010020549 0.0068442915 0.003979228 0.0056562047 -0.0018394011
-0.0035059836 0.00024266411 0.0013241735 0.0021534332 -0.0022743477 0.0022510511 0.0055165133 0.009019833
-0.0018704581 0.0037257639 0.006244076 -0.00423869 0.0014883921 -0.006111772 0.00028389195 -0.0027950504
0.005664292 0.004102578 -0.0066912905 0.0046413634 0.0017613866 0.0012965304 -0.0005362923 0.0007232495
0.001523372 0.00067297544 -0.009559312 -0.010328777 -0.0019382286 0.006215846 -0.00866706 -0.006692901
-0.0060078707 0.006159084 -0.0060724104 -0.0046565537 -0.0024042788 -0.0010955973 -0.006138825 -0.00090829725
-0.013790167 -0.0099503435 -0.0046438444 0.0024172922 3.2093052e-05 0.005225253 0.0026190912 -0.006218354
0.00063288707 -0.0018705226 -0.011915766 0.0054515684 -0.003456433 0.004723516 -0.00052010594 -0.0038686884
-0.007619378 0.0031361987 -0.0011383605 0.005164714 0.006501561 0.0048800576 -0.0032841272 0.0004891925
-0.00046824393 0.00041297532 -0.0049858494 -0.00639842 -0.006094133 -0.0028127348 -0.0048291716 -0.002049669
-0.0005414143 -0.0015571731 0.009739466 0.0009230682 -0.001612803 0.009074263 0.0025691402 -0.007580473
-0.001957016 0.00028916722 -0.00062555494 -0.0048471126 0.0020028597 -0.002303839 0.00208112 -0.0015095234
0.0056638387 0.007797838 -0.0006073199 0.0052639525 -0.002989063 -0.0025654768 0.0039624195 0.0024145273
0.0019737836 0.009307401 0.0027859916 -8.560422e-05 0.0018132497 0.0028698621 0.008137715 0.0055036047
