FJSP_MultiPPO/saved_network/FJSP_J50M605/best_value0/policy_mch.pth (torch_old, 271482 bytes, 14 tensors)

bn.weight f4 [128]
0	0x3f7f71a9	0.99782807
1	0x3f7f2d5c	0.9967859
2	0x3f7f7802	0.9979249
3	0x3f7f12aa	0.99637854
4	0x3f8086e2	1.0041163
5	0x3f7f4b71	0.9972449
6	0x3f7f7ef8	0.99803114
7	0x3f7e461a	0.99325716
8	0x3f80d5c4	1.0065236
9	0x3f7ead0c	0.994828
10	0x3f7ee6ee	0.9957112
11	0x3f80d473	1.0064834
12	0x3f7f8161	0.9980679
13	0x3f8011f8	1.0005484
14	0x3f7e1d4d	0.9926346
15	0x3f7ea872	0.9947578
16	0x3f809761	1.0046197
17	0x3f7ffdc7	0.9999661
18	0x3f7f12c2	0.99638
19	0x3f80d1af	1.006399
20	0x3f7edd21	0.99556166
21	0x3f809920	1.004673
22	0x3f80eb81	1.007187
23	0x3f8028a8	1.0012407
24	0x3f7e656b	0.993735
25	0x3f7dec85	0.99189025
26	0x3f80a49d	1.0050236
27	0x3f7e5239	0.9934421
28	0x3f7f0fcf	0.99633497
29	0x3f80b7c8	1.0056086
30	0x3f80c2f7	1.0059499
31	0x3f7fd747	0.9993786
32	0x3f7e8813	0.9942638
33	0x3f80d3ce	1.0064638
34	0x3f7fb416	0.99884164
35	0x3f7f4a42	0.99722683
36	0x3f7f4ee2	0.9972974
37	0x3f802af2	1.0013106
38	0x3f7f8beb	0.9982287
39	0x3f7e6336	0.99370134
40	0x3f7eed6a	0.99581015
41	0x3f7dd24a	0.99149
42	0x3f80b47d	1.0055081
43	0x3f807046	1.0034263
44	0x3f7f4a18	0.99722433
45	0x3f7fe81e	0.9996356
46	0x3f7f9032	0.998294
47	0x3f7e6cf8	0.99385023
48	0x3f7ee9f2	0.9957572
49	0x3f80cf60	1.0063286
50	0x3f7f12aa	0.99637854
51	0x3f7f79cc	0.9979522
52	0x3f80b988	1.005662
53	0x3f7e8a50	0.994298
54	0x3f8060d0	1.0029545
55	0x3f7f8265	0.9980834
56	0x3f7f9e0b	0.9985053
57	0x3f7f057b	0.9961774
58	0x3f7f13d6	0.9963964
59	0x3f7edf6b	0.9955966
60	0x3f80271e	1.0011938
61	0x3f7e7b5e	0.99406993
62	0x3f7df009	0.9919439
63	0x3f801be4	1.0008512
64	0x3f7fbb81	0.99895483
65	0x3f7e3afd	0.9930876
66	0x3f80d555	1.0065104
67	0x3f7eeee4	0.9958327
68	0x3f7f4d5b	0.9972741
69	0x3f7f63e1	0.9976178
70	0x3f7e4aa8	0.99332666
71	0x3f7f4346	0.99712026
72	0x3f7fb5c7	0.99886745
73	0x3f7fc74e	0.9991349
74	0x3f7f2d05	0.9967807
75	0x3f7f212e	0.99660003
76	0x3f80a19a	1.0049317
77	0x3f80b0c0	1.005394
78	0x3f7fc312	0.9990703
79	0x3f7edbf7	0.9955439
80	0x3f807e43	1.0038532
81	0x3f7f0b1d	0.9962633
82	0x3f7f8541	0.99812704
83	0x3f7f9736	0.99840105
84	0x3f801261	1.0005609
85	0x3f801c74	1.0008683
86	0x3f80d656	1.006541
87	0x3f7f5e30	0.99753094
88	0x3f7d1d27	0.9887261
89	0x3f7e779e	0.9940127
90	0x3f7fd73e	0.9993781
91	0x3f7e3f89	0.99315697
92	0x3f7e25d3	0.99276465
93	0x3f7e7df8	0.99410963
94	0x3f7f8e85	0.9982684
95	0x3f7dc7be	0.9913291
96	0x3f7edcbd	0.9955557
97	0x3f8004a6	1.0001419
98	0x3f7f3c16	0.9970106
99	0x3f800da5	1.0004164
100	0x3f7ea98a	0.99477446
101	0x3f7e8a71	0.99429995
102	0x3f7ee873	0.9957344
103	0x3f7f07ab	0.99621075
104	0x3f80303c	1.001472
105	0x3f801e84	1.0009313
106	0x3f7e8088	0.99414873
107	0x3f8091a1	1.0044442
108	0x3f7f7d8e	0.99800956
109	0x3f7f2ac0	0.99674606
110	0x3f809b7a	1.0047448
111	0x3f7f7cd5	0.99799854
112	0x3f803bd8	1.0018263
113	0x3f800488	1.0001383
114	0x3f7e7dc6	0.99410665
115	0x3f8012c4	1.0005727
116	0x3f7e01c3	0.9922144
117	0x3f80c9f7	1.0061635
118	0x3f800801	1.0002443
119	0x3f7e8a34	0.9942963
120	0x3f80ad77	1.0052937
121	0x3f7eef7e	0.99584186
122	0x3f7ff4b6	0.99982774
123	0x3f7ea7d7	0.99474853
124	0x3f7f1232	0.9963714
125	0x3f7f6186	0.99758184
126	0x3f808338	1.0040045
127	0x3f808180	1.003952

bn.bias f4 [128]
0	0xbb9fb21a	-0.0048735263
1	0x3b7f592f	0.003896307
2	0xbac51a57	-0.0015037757
3	0xbba4843e	-0.0050206473
4	0xbc326b03	-0.010889771
5	0x3b43fc7a	0.0029905126
6	0x399a8377	0.00029471118
7	0x3aed2a1f	0.0018094218
8	0xbb608470	-0.0034258626
9	0x3ae0d87a	0.0017154359
10	0x3b219866	0.0024657487
11	0x3b03b7de	0.0020098607
12	0x3c3d1dbb	0.011542733
13	0xbb8c6286	-0.004284206
14	0x3c136376	0.008995881
15	0x390e6ec3	0.00013583437
16	0xbad31fe8	-0.0016107531
17	0x3bb85acd	0.0056260587
18	0xbc2662cc	-0.010155391
19	0x3b119e3e	0.0022219564
20	0xbbb15db4	-0.0054127816
21	0xbb92a052	-0.004474678
22	0xbac3dac9	-0.0014942522
23	0x3ae6b10a	0.0017600369
24	0x3ae94daa	0.0017799635
25	0xbbee9f21	-0.0072821532
26	0xb80601eb	-3.1949876e-05
27	0xbbc2c639	-0.00594404
28	0xbbb45106	-0.005502823
29	0x3b240073	0.0025024682
30	0x3b732747	0.0037102269
31	0x3ba15228	0.004923124
32	0xbb40270d	-0.002932015
33	0xbb58d3b1	-0.0033085162
34	0xbbce7876	-0.006300981
35	0x3a966582	0.0011474343
36	0xbb01747e	-0.0019753273
37	0xbb7bf543	-0.0038445748
38	0x3ba7a95d	0.005116625
39	0x3acf3ac9	0.0015810366
40	0x3bd6a396	0.0065502627
41	0xbc242e74	-0.010020841
42	0xbc2786b3	-0.010224986
43	0x3c1f41f8	0.009720318
44	0xbb74f2ed	-0.003737624
45	0x3bbfb435	0.00585034
46	0x3c149e74	0.009070981
47	0x3c0d3ec1	0.008620919
48	0xbb2b717f	-0.0026160178
49	0xbc181ec2	-0.009284677
50	0x3c0c92d6	0.00857993
51	0xba817a12	-0.0009878299
52	0xbc1f378f	-0.009717836
53	0x3bf1f867	0.007384348
54	0xbb7add66	-0.0038278936
55	0xb9579e39	-0.0002056294
56	0xb9825b00	-0.00024863333
57	0x3b9d878a	0.0048074173
58	0x3b31b6e1	0.002711706
59	0xbba4f46f	-0.0050340216
60	0x3a65eedb	0.0008771249
61	0x3a5c8cea	0.0008413332
62	0x3b39e975	0.002836791
63	0xbb64d36a	-0.0034916052
64	0x3be31755	0.0069302716
65	0xb99f5ef1	-0.0003039758
66	0x3971af60	0.00023048883
67	0x3a984241	0.0011616425
68	0xb94e0104	-0.00019646069
69	0x3b3021fe	0.002687573
70	0xbb86dc09	-0.0041155857
71	0xba032469	-0.0005002679
72	0xbb99eeb5	-0.0046976455
73	0xbb099a5e	-0.002099655
74	0xbc0c680e	-0.00856973
75	0xba55916b	-0.0008146974
76	0xbb642d66	-0.0034817099
77	0xbc2d4028	-0.010574378
78	0x3bb083f9	0.005386826
79	0xbc28d7ae	-0.010305328
80	0xbb105a98	-0.0022026654
81	0xbba30cdf	-0.0049758996
82	0x3a33e4a5	0.0006862379
83	0x3b90eee3	0.0044230088
84	0x3b5e92c5	0.0033961993
85	0xbbb02036	-0.0053749336
86	0xbacf46e0	-0.0015813969
87	0x3bb06862	0.005383537
88	0x3b060bdf	0.0020453853
89	0x3c208211	0.009796635
90	0x3c0b4ab1	0.008501695
91	0xbc22d50d	-0.009938491
92	0xbba0eab6	-0.004910792
93	0xbc209ad3	-0.009802538
94	0xbbdfdb04	-0.0068315286
95	0xbc2225c1	-0.009896697
96	0x3be91731	0.0071133603
97	0x3acd8113	0.0015678726
98	0xbb5e702a	-0.0033941367
99	0xbb18debf	-0.0023326126
100	0xbbad7075	-0.005292947
101	0x3ad87ec5	0.0016517272
102	0x3a7abb3f	0.0009564645
103	0xbb0aa858	-0.002115747
104	0x3b8fe833	0.004391694
105	0x3b780782	0.0037846272
106	0x3bf8a8a3	0.0075884624
107	0xbb74b623	-0.0037340007
108	0x3c201555	0.009770711
109	0xba72c807	-0.0009261374
110	0x3a9df311	0.0012050589
111	0x3c0e7934	0.008695889
112	0xbbde2a0a	-0.006779914
113	0x3b96c0b3	0.0046006083
114	0x3b754bab	0.0037429135
115	0x3b4e5f83	0.0031490035
116	0xbba6943b	-0.0050835884
117	0x3b857ae1	0.004073486
118	0xbb4c2f2b	-0.0031156044
119	0xbc22170f	-0.009893193
120	0xb965a216	-0.00021899524
121	0xbaf79b5c	-0.0018890905
122	0xbb89da38	-0.004206922
123	0xb9e68a71	-0.00043972165
124	0x3c23174e	0.009954287
125	0x3af179ef	0.001842318
126	0xbbc648ec	-0.0060511734
127	0x3b9cbd71	0.0047833254

bn.running_mean f4 [128]
0	0xbb0f144d	-0.0021832169
1	0x3cb8fb76	0.022580843
2	0x3d446021	0.04794324
3	0xb88a4a8a	-6.594237e-05
4	0xbd3d86e3	-0.046271216
5	0x3c73829e	0.0148626845
6	0xbbbd18f6	-0.005770798
7	0x3c026013	0.007957476
8	0xbd078593	-0.03308637
9	0xbd2d9d00	-0.042386055
10	0x3c72adbd	0.01481193
11	0x3c9e4b77	0.019323094
12	0x3c5119e3	0.0127625195
13	0xbc56875d	-0.013093797
14	0xb8b678b4	-8.700919e-05
15	0x3c897e70	0.016783923
16	0xbc7c2252	-0.015389042
17	0x3b63f7a8	0.0034785066
18	0xbc9d1b7a	-0.01917814
19	0x3d1f1b8a	0.038844623
20	0xba544571	-0.0008097506
21	0xbca37fac	-0.01995834
22	0x3c9c3c4a	0.019071717
23	0xbcf3faa0	-0.029782593
24	0x3cc37985	0.023861656
25	0xbbf0f151	-0.007352986
26	0x3cd83e80	0.02639699
27	0xbcde55d4	-0.027140535
28	0xbc0e7649	-0.008695194
29	0x3ca6824b	0.0203258
30	0x3ced36b9	0.028956758
31	0xbc2c2c0e	-0.01050855
32	0xbcf7f7fc	-0.030269615
33	0xbb919d4e	-0.004443801
34	0x3a112ebe	0.0005538276
35	0x3d1f79c9	0.038934503
36	0x3bfe1e5d	0.0077550844
37	0xbc43eb8b	-0.011958013
38	0x3c122e52	0.008922176
39	0xbb3d0c61	-0.002884649
40	0xbba7fb14	-0.0051263664
41	0xbc8704b0	-0.016481727
42	0xbce2701f	-0.027641354
43	0x3af87626	0.0018956109
44	0x3cc26ae1	0.023732604
45	0x3bfd7c36	0.0077357544
46	0x3d44c283	0.048037063
47	0x3cf2bcd0	0.029631048
48	0x3bf4a043	0.0074653937
49	0xbcdf5f67	-0.027267171
50	0x3cd84d15	0.026403943
51	0xbb034928	-0.0020032618
52	0xbc9a878a	-0.018863458
53	0xbbb033ca	-0.0053772675
54	0x3bd74388	0.0065693296
55	0xbbd44050	-0.006477393
56	0xbc9efd8f	-0.019408016
57	0x3cff7750	0.031184822
58	0xbb47008f	-0.0030365323
59	0xbd1ed750	-0.038779557
60	0xbc547607	-0.012967593
61	0x3bc8df00	0.0061300993
62	0x3cf100e6	0.029419374
63	0x3c25a42e	0.010109944
64	0x3cc42d0b	0.02394726
65	0xbc1d59de	-0.009603946
66	0xbc883172	-0.01662514
67	0x3a232e58	0.00062248623
68	0x3ab5a2bc	0.0013857703
69	0x3c63ecc4	0.01391143
70	0xbcf48950	-0.029850632
71	0x3cb0e958	0.021595642
72	0x3ccaea4f	0.02476993
73	0xbcd6d47a	-0.026224364
74	0xbc347377	-0.011013857
75	0xbc1f6ec3	-0.0097309975
76	0xbd06db7c	-0.03292416
77	0xbc81425b	-0.015778711
78	0x3c084891	0.008318082
79	0x3c6ddfff	0.014518737
80	0xbd18d94e	-0.037316613
81	0x3c642f3b	0.013927276
82	0xbcc41dec	-0.02394005
83	0x3c1c707e	0.009548305
84	0x3bb17bb7	0.0054163593
85	0xbcd55d7f	-0.026045559
86	0x3d04bdee	0.032407694
87	0xbb828b5e	-0.003983899
88	0x3c6e8c91	0.014559881
89	0xbc1d172e	-0.009588046
90	0x3d1f98bd	0.038964022
91	0xbd100833	-0.03516407
92	0xbd13b504	-0.0360613
93	0xbd5c7c0d	-0.05382924
94	0x3c4d3b79	0.012526386
95	0xbcbc1d16	-0.022963088
96	0x3c3d8426	0.011567151
97	0xbcab6738	-0.020923242
98	0xbcb84402	-0.022493366
99	0xbc2a2209	-0.010384091
100	0xbd13bab8	-0.03606674
101	0x3caaabcd	0.020833874
102	0x3c049e55	0.00809439
103	0xbd379e54	-0.044828728
104	0x3c90101a	0.017585803
105	0x3c6915d3	0.014226395
106	0x3d0445b3	0.032293033
107	0xbcccfb4a	-0.025022168
108	0x3c860fd7	0.016364975
109	0xbc3617c6	-0.0111140665
110	0x3c6541d5	0.013992746
111	0x3c16c593	0.009202379
112	0x3c2fd920	0.010732919
113	0x3c583c40	0.0131979585
114	0x3c88fdfb	0.01672267
115	0xbd12e2f5	-0.035860974
116	0xbcc17fd8	-0.023620531
117	0x3cdd5f4b	0.027022978
118	0x3bdc8f56	0.006730954
119	0xbd195d8b	-0.037442725
120	0xbc5a5376	-0.013325563
121	0xbc3ef117	-0.01165416
122	0x3b0ece33	0.0021790385
123	0xbd301b67	-0.042994883
124	0x3c1ef314	0.009701509
125	0x3c22dcc6	0.009940332
126	0xbd3783f1	-0.044803564
127	0x3d1ecffc	0.038772568

bn.running_var f4 [128]
0	0x38a83dd6	8.022382e-05
1	0x38b437ec	8.593485e-05
2	0x39322b59	0.00016991551
3	0x383f5b94	4.5623237e-05
4	0x39279792	0.00015982825
5	0x37ba921d	2.2240967e-05
6	0x3881b544	6.184963e-05
7	0x372164f9	9.619857e-06
8	0x38cdc0f2	9.8111006e-05
9	0x38fe9d72	0.0001214099
10	0x3750bbb8	1.2441473e-05
11	0x380037c7	3.0569525e-05
12	0x378f90a5	1.7114284e-05
13	0x38285c6b	4.0140392e-05
14	0x37c659b2	2.3645207e-05
15	0x382f6dc1	4.1825468e-05
16	0x37de180d	2.6475662e-05
17	0x387f53f2	6.0874918e-05
18	0x381f1635	3.7929236e-05
19	0x39341144	0.0001717257
20	0x387ec215	6.0739072e-05
21	0x394dd5fa	0.00019630036
22	0x37f13019	2.8751836e-05
23	0x3895a30d	7.135244e-05
24	0x38273e7d	3.98741e-05
25	0x3736ea9e	1.0902671e-05
26	0x3826d7f9	3.9778624e-05
27	0x38c48434	9.370633e-05
28	0x378514bb	1.5864489e-05
29	0x38466e81	4.7309793e-05
30	0x38bd6cb6	9.032471e-05
31	0x38e151ff	0.00010744109
32	0x38595ae5	5.1821484e-05
33	0x35e40833	1.698971e-06
34	0x381d0e9c	3.7445323e-05
35	0x38d10f0b	9.9686986e-05
36	0x389c36b0	7.448846e-05
37	0x37b8505b	2.1971928e-05
38	0x38b03233	8.401684e-05
39	0x38a51262	7.871237e-05
40	0x36c63c48	5.9078775e-06
41	0x379e000c	1.883509e-05
42	0x38592d7c	5.1779192e-05
43	0x38e28f9c	0.00010803269
44	0x388b395b	6.63872e-05
45	0x3682c253	3.896924e-06
46	0x394f10d0	0.00019747321
47	0x38a57061	7.888745e-05
48	0x37a3f1fb	1.9543795e-05
49	0x3834e2a4	4.312642e-05
50	0x38f11db4	0.00011497308
51	0x37e5ee02	2.7409758e-05
52	0x38006593	3.0612176e-05
53	0x37dc1f7d	2.6240707e-05
54	0x37249196	9.809059e-06
55	0x37849456	1.58047e-05
56	0x38af9118	8.371676e-05
57	0x3916c014	0.0001437667
58	0x37d304d9	2.5155417e-05
59	0x392363bd	0.00015582047
60	0x38020b6c	3.1005053e-05
61	0x364b339a	3.0279393e-06
62	0x39497fd2	0.0001921647
63	0x376e1b31	1.4192236e-05
64	0x3937d72a	0.00017532395
65	0x3781f6a5	1.5492851e-05
66	0x37f69393	2.9394205e-05
67	0x36cb507f	6.0592424e-06
68	0x390a5954	0.00013193983
69	0x396722e8	0.0002204288
70	0x3913d9bc	0.00014100125
71	0x38b017a9	8.396741e-05
72	0x392d9c11	0.00016556705
73	0x390fbde8	0.00013708288
74	0x38a6bc58	7.9505786e-05
75	0x384249bd	4.632188e-05
76	0x38ce849f	9.847548e-05
77	0x380028c5	3.0555548e-05
78	0x392cf1f0	0.00016493327
79	0x380e176a	3.3877244e-05
80	0x3922ddd3	0.0001553216
81	0x38b429c4	8.590848e-05
82	0x390e9124	0.00013596244
83	0x381a217b	3.6747642e-05
84	0x37cd01bc	2.4438712e-05
85	0x3877fda7	5.912562e-05
86	0x38db0f99	0.00010445639
87	0x38b5283e	8.638248e-05
88	0x38587f03	5.1616702e-05
89	0x38334b33	4.274696e-05
90	0x3939cbb9	0.00017718867
91	0x38c1e711	9.2459966e-05
92	0x38f8d93f	0.00011866027
93	0x396ca239	0.00022567147
94	0x3877138a	5.8907586e-05
95	0x3889cf8b	6.571327e-05
96	0x38915acc	6.931051e-05
97	0x37efa883	2.856949e-05
98	0x393e610b	0.00018155963
99	0x3901ba5b	0.00012371822
100	0x38b72c03	8.734318e-05
101	0x37d3f3f7	2.5266765e-05
102	0x3694bf00	4.432979e-06
103	0x394e35ef	0.00019665783
104	0x37d060f9	2.4840689e-05
105	0x383bd33c	4.4781e-05
106	0x3896b508	7.186277e-05
107	0x381fb7e3	3.8079812e-05
108	0x39017dcc	0.00012349262
109	0x38300a01	4.1970987e-05
110	0x3739e392	1.1079845e-05
111	0x37d2c20b	2.512431e-05
112	0x37b632b6	2.1719705e-05
113	0x38dab003	0.00010427835
114	0x379a92a6	1.842652e-05
115	0x395e4ae1	0.00021199464
116	0x3925920c	0.00015790033
117	0x384a88e9	4.828806e-05
118	0x393b4731	0.0001786023
119	0x39372ff2	0.00017470101
120	0x37b03316	2.1004624e-05
121	0x384442e9	4.6792356e-05
122	0x3833b96d	4.2849617e-05
123	0x39038693	0.00012543266
124	0x38b20e06	8.4903135e-05
125	0x370aa8a8	8.264709e-06
126	0x3965416b	0.00021863512
127	0x394b8988	0.00019410823

bn1.weight f4 [128]
0	0x3f800000	1.0
1	0x3f800000	1.0
2	0x3f800000	1.0
3	0x3f800000	1.0
4	0x3f800000	1.0
5	0x3f800000	1.0
6	0x3f800000	1.0
7	0x3f800000	1.0
8	0x3f800000	1.0
9	0x3f800000	1.0
10	0x3f800000	1.0
11	0x3f800000	1.0
12	0x3f800000	1.0
13	0x3f800000	1.0
14	0x3f800000	1.0
15	0x3f800000	1.0
16	0x3f800000	1.0
17	0x3f800000	1.0
18	0x3f800000	1.0
19	0x3f800000	1.0
20	0x3f800000	1.0
21	0x3f800000	1.0
22	0x3f800000	1.0
23	0x3f800000	1.0
24	0x3f800000	1.0
25	0x3f800000	1.0
26	0x3f800000	1.0
27	0x3f800000	1.0
28	0x3f800000	1.0
29	0x3f800000	1.0
30	0x3f800000	1.0
31	0x3f800000	1.0
32	0x3f800000	1.0
33	0x3f800000	1.0
34	0x3f800000	1.0
35	0x3f800000	1.0
36	0x3f800000	1.0
37	0x3f800000	1.0
38	0x3f800000	1.0
39	0x3f800000	1.0
40	0x3f800000	1.0
41	0x3f800000	1.0
42	0x3f800000	1.0
43	0x3f800000	1.0
44	0x3f800000	1.0
45	0x3f800000	1.0
46	0x3f800000	1.0
47	0x3f800000	1.0
48	0x3f800000	1.0
49	0x3f800000	1.0
50	0x3f800000	1.0
51	0x3f800000	1.0
52	0x3f800000	1.0
53	0x3f800000	1.0
54	0x3f800000	1.0
55	0x3f800000	1.0
56	0x3f800000	1.0
57	0x3f800000	1.0
58	0x3f800000	1.0
59	0x3f800000	1.0
60	0x3f800000	1.0
61	0x3f800000	1.0
62	0x3f800000	1.0
63	0x3f800000	1.0
64	0x3f800000	1.0
65	0x3f800000	1.0
66	0x3f800000	1.0
67	0x3f800000	1.0
68	0x3f800000	1.0
69	0x3f800000	1.0
70	0x3f800000	1.0
71	0x3f800000	1.0
72	0x3f800000	1.0
73	0x3f800000	1.0
74	0x3f800000	1.0
75	0x3f800000	1.0
76	0x3f800000	1.0
77	0x3f800000	1.0
78	0x3f800000	1.0
79	0x3f800000	1.0
80	0x3f800000	1.0
81	0x3f800000	1.0
82	0x3f800000	1.0
83	0x3f800000	1.0
84	0x3f800000	1.0
85	0x3f800000	1.0
86	0x3f800000	1.0
87	0x3f800000	1.0
88	0x3f800000	1.0
89	0x3f800000	1.0
90	0x3f800000	1.0
91	0x3f800000	1.0
92	0x3f800000	1.0
93	0x3f800000	1.0
94	0x3f800000	1.0
95	0x3f800000	1.0
96	0x3f800000	1.0
97	0x3f800000	1.0
98	0x3f800000	1.0
99	0x3f800000	1.0
100	0x3f800000	1.0
101	0x3f800000	1.0
102	0x3f800000	1.0
103	0x3f800000	1.0
104	0x3f800000	1.0
105	0x3f800000	1.0
106	0x3f800000	1.0
107	0x3f800000	1.0
108	0x3f800000	1.0
109	0x3f800000	1.0
110	0x3f800000	1.0
111	0x3f800000	1.0
112	0x3f800000	1.0
113	0x3f800000	1.0
114	0x3f800000	1.0
115	0x3f800000	1.0
116	0x3f800000	1.0
117	0x3f800000	1.0
118	0x3f800000	1.0
119	0x3f800000	1.0
120	0x3f800000	1.0
121	0x3f800000	1.0
122	0x3f800000	1.0
123	0x3f800000	1.0
124	0x3f800000	1.0
125	0x3f800000	1.0
126	0x3f800000	1.0
127	0x3f800000	1.0

bn1.bias f4 [128]
0	0x00000000	0.0
1	0x00000000	0.0
2	0x00000000	0.0
3	0x00000000	0.0
4	0x00000000	0.0
5	0x00000000	0.0
6	0x00000000	0.0
7	0x00000000	0.0
8	0x00000000	0.0
9	0x00000000	0.0
10	0x00000000	0.0
11	0x00000000	0.0
12	0x00000000	0.0
13	0x00000000	0.0
14	0x00000000	0.0
15	0x00000000	0.0
16	0x00000000	0.0
17	0x00000000	0.0
18	0x00000000	0.0
19	0x00000000	0.0
20	0x00000000	0.0
21	0x00000000	0.0
22	0x00000000	0.0
23	0x00000000	0.0
24	0x00000000	0.0
25	0x00000000	0.0
26	0x00000000	0.0
27	0x00000000	0.0
28	0x00000000	0.0
29	0x00000000	0.0
30	0x00000000	0.0
31	0x00000000	0.0
32	0x00000000	0.0
33	0x00000000	0.0
34	0x00000000	0.0
35	0x00000000	0.0
36	0x00000000	0.0
37	0x00000000	0.0
38	0x00000000	0.0
39	0x00000000	0.0
40	0x00000000	0.0
41	0x00000000	0.0
42	0x00000000	0.0
43	0x00000000	0.0
44	0x00000000	0.0
45	0x00000000	0.0
46	0x00000000	0.0
47	0x00000000	0.0
48	0x00000000	0.0
49	0x00000000	0.0
50	0x00000000	0.0
51	0x00000000	0.0
52	0x00000000	0.0
53	0x00000000	0.0
54	0x00000000	0.0
55	0x00000000	0.0
56	0x00000000	0.0
57	0x00000000	0.0
58	0x00000000	0.0
59	0x00000000	0.0
60	0x00000000	0.0
61	0x00000000	0.0
62	0x00000000	0.0
63	0x00000000	0.0
64	0x00000000	0.0
65	0x00000000	0.0
66	0x00000000	0.0
67	0x00000000	0.0
68	0x00000000	0.0
69	0x00000000	0.0
70	0x00000000	0.0
71	0x00000000	0.0
72	0x00000000	0.0
73	0x00000000	0.0
74	0x00000000	0.0
75	0x00000000	0.0
76	0x00000000	0.0
77	0x00000000	0.0
78	0x00000000	0.0
79	0x00000000	0.0
80	0x00000000	0.0
81	0x00000000	0.0
82	0x00000000	0.0
83	0x00000000	0.0
84	0x00000000	0.0
85	0x00000000	0.0
86	0x00000000	0.0
87	0x00000000	0.0
88	0x00000000	0.0
89	0x00000000	0.0
90	0x00000000	0.0
91	0x00000000	0.0
92	0x00000000	0.0
93	0x00000000	0.0
94	0x00000000	0.0
95	0x00000000	0.0
96	0x00000000	0.0
97	0x00000000	0.0
98	0x00000000	0.0
99	0x00000000	0.0
100	0x00000000	0.0
101	0x00000000	0.0
102	0x00000000	0.0
103	0x00000000	0.0
104	0x00000000	0.0
105	0x00000000	0.0
106	0x00000000	0.0
107	0x00000000	0.0
108	0x00000000	0.0
109	0x00000000	0.0
110	0x00000000	0.0
111	0x00000000	0.0
112	0x00000000	0.0
113	0x00000000	0.0
114	0x00000000	0.0
115	0x00000000	0.0
116	0x00000000	0.0
117	0x00000000	0.0
118	0x00000000	0.0
119	0x00000000	0.0
120	0x00000000	0.0
121	0x00000000	0.0
122	0x00000000	0.0
123	0x00000000	0.0
124	0x00000000	0.0
125	0x00000000	0.0
126	0x00000000	0.0
127	0x00000000	0.0

bn1.running_mean f4 [128]
0	0x00000000	0.0
1	0x00000000	0.0
2	0x00000000	0.0
3	0x00000000	0.0
4	0x00000000	0.0
5	0x00000000	0.0
6	0x00000000	0.0
7	0x00000000	0.0
8	0x00000000	0.0
9	0x00000000	0.0
10	0x00000000	0.0
11	0x00000000	0.0
12	0x00000000	0.0
13	0x00000000	0.0
14	0x00000000	0.0
15	0x00000000	0.0
16	0x00000000	0.0
17	0x00000000	0.0
18	0x00000000	0.0
19	0x00000000	0.0
20	0x00000000	0.0
21	0x00000000	0.0
22	0x00000000	0.0
23	0x00000000	0.0
24	0x00000000	0.0
25	0x00000000	0.0
26	0x00000000	0.0
27	0x00000000	0.0
28	0x00000000	0.0
29	0x00000000	0.0
30	0x00000000	0.0
31	0x00000000	0.0
32	0x00000000	0.0
33	0x00000000	0.0
34	0x00000000	0.0
35	0x00000000	0.0
36	0x00000000	0.0
37	0x00000000	0.0
38	0x00000000	0.0
39	0x00000000	0.0
40	0x00000000	0.0
41	0x00000000	0.0
42	0x00000000	0.0
43	0x00000000	0.0
44	0x00000000	0.0
45	0x00000000	0.0
46	0x00000000	0.0
47	0x00000000	0.0
48	0x00000000	0.0
49	0x00000000	0.0
50	0x00000000	0.0
51	0x00000000	0.0
52	0x00000000	0.0
53	0x00000000	0.0
54	0x00000000	0.0
55	0x00000000	0.0
56	0x00000000	0.0
57	0x00000000	0.0
58	0x00000000	0.0
59	0x00000000	0.0
60	0x00000000	0.0
61	0x00000000	0.0
62	0x00000000	0.0
63	0x00000000	0.0
64	0x00000000	0.0
65	0x00000000	0.0
66	0x00000000	0.0
67	0x00000000	0.0
68	0x00000000	0.0
69	0x00000000	0.0
70	0x00000000	0.0
71	0x00000000	0.0
72	0x00000000	0.0
73	0x00000000	0.0
74	0x00000000	0.0
75	0x00000000	0.0
76	0x00000000	0.0
77	0x00000000	0.0
78	0x00000000	0.0
79	0x00000000	0.0
80	0x00000000	0.0
81	0x00000000	0.0
82	0x00000000	0.0
83	0x00000000	0.0
84	0x00000000	0.0
85	0x00000000	0.0
86	0x00000000	0.0
87	0x00000000	0.0
88	0x00000000	0.0
89	0x00000000	0.0
90	0x00000000	0.0
91	0x00000000	0.0
92	0x00000000	0.0
93	0x00000000	0.0
94	0x00000000	0.0
95	0x00000000	0.0
96	0x00000000	0.0
97	0x00000000	0.0
98	0x00000000	0.0
99	0x00000000	0.0
100	0x00000000	0.0
101	0x00000000	0.0
102	0x00000000	0.0
103	0x00000000	0.0
104	0x00000000	0.0
105	0x00000000	0.0
106	0x00000000	0.0
107	0x00000000	0.0
108	0x00000000	0.0
109	0x00000000	0.0
110	0x00000000	0.0
111	0x00000000	0.0
112	0x00000000	0.0
113	0x00000000	0.0
114	0x00000000	0.0
115	0x00000000	0.0
116	0x00000000	0.0
117	0x00000000	0.0
118	0x00000000	0.0
119	0x00000000	0.0
120	0x00000000	0.0
121	0x00000000	0.0
122	0x00000000	0.0
123	0x00000000	0.0
124	0x00000000	0.0
125	0x00000000	0.0
126	0x00000000	0.0
127	0x00000000	0.0

bn1.running_var f4 [128]
0	0x3f800000	1.0
1	0x3f800000	1.0
2	0x3f800000	1.0
3	0x3f800000	1.0
4	0x3f800000	1.0
5	0x3f800000	1.0
6	0x3f800000	1.0
7	0x3f800000	1.0
8	0x3f800000	1.0
9	0x3f800000	1.0
10	0x3f800000	1.0
11	0x3f800000	1.0
12	0x3f800000	1.0
13	0x3f800000	1.0
14	0x3f800000	1.0
15	0x3f800000	1.0
16	0x3f800000	1.0
17	0x3f800000	1.0
18	0x3f800000	1.0
19	0x3f800000	1.0
20	0x3f800000	1.0
21	0x3f800000	1.0
22	0x3f800000	1.0
23	0x3f800000	1.0
24	0x3f800000	1.0
25	0x3f800000	1.0
26	0x3f800000	1.0
27	0x3f800000	1.0
28	0x3f800000	1.0
29	0x3f800000	1.0
30	0x3f800000	1.0
31	0x3f800000	1.0
32	0x3f800000	1.0
33	0x3f800000	1.0
34	0x3f800000	1.0
35	0x3f800000	1.0
36	0x3f800000	1.0
37	0x3f800000	1.0
38	0x3f800000	1.0
39	0x3f800000	1.0
40	0x3f800000	1.0
41	0x3f800000	1.0
42	0x3f800000	1.0
43	0x3f800000	1.0
44	0x3f800000	1.0
45	0x3f800000	1.0
46	0x3f800000	1.0
47	0x3f800000	1.0
48	0x3f800000	1.0
49	0x3f800000	1.0
50	0x3f800000	1.0
51	0x3f800000	1.0
52	0x3f800000	1.0
53	0x3f800000	1.0
54	0x3f800000	1.0
55	0x3f800000	1.0
56	0x3f800000	1.0
57	0x3f800000	1.0
58	0x3f800000	1.0
59	0x3f800000	1.0
60	0x3f800000	1.0
61	0x3f800000	1.0
62	0x3f800000	1.0
63	0x3f800000	1.0
64	0x3f800000	1.0
65	0x3f800000	1.0
66	0x3f800000	1.0
67	0x3f800000	1.0
68	0x3f800000	1.0
69	0x3f800000	1.0
70	0x3f800000	1.0
71	0x3f800000	1.0
72	0x3f800000	1.0
73	0x3f800000	1.0
74	0x3f800000	1.0
75	0x3f800000	1.0
76	0x3f800000	1.0
77	0x3f800000	1.0
78	0x3f800000	1.0
79	0x3f800000	1.0
80	0x3f800000	1.0
81	0x3f800000	1.0
82	0x3f800000	1.0
83	0x3f800000	1.0
84	0x3f800000	1.0
85	0x3f800000	1.0
86	0x3f800000	1.0
87	0x3f800000	1.0
88	0x3f800000	1.0
89	0x3f800000	1.0
90	0x3f800000	1.0
91	0x3f800000	1.0
92	0x3f800000	1.0
93	0x3f800000	1.0
94	0x3f800000	1.0
95	0x3f800000	1.0
96	0x3f800000	1.0
97	0x3f800000	1.0
98	0x3f800000	1.0
99	0x3f800000	1.0
100	0x3f800000	1.0
101	0x3f800000	1.0
102	0x3f800000	1.0
103	0x3f800000	1.0
104	0x3f800000	1.0
105	0x3f800000	1.0
106	0x3f800000	1.0
107	0x3f800000	1.0
108	0x3f800000	1.0
109	0x3f800000	1.0
110	0x3f800000	1.0
111	0x3f800000	1.0
112	0x3f800000	1.0
113	0x3f800000	1.0
114	0x3f800000	1.0
115	0x3f800000	1.0
116	0x3f800000	1.0
117	0x3f800000	1.0
118	0x3f800000	1.0
119	0x3f800000	1.0
120	0x3f800000	1.0
121	0x3f800000	1.0
122	0x3f800000	1.0
123	0x3f800000	1.0
124	0x3f800000	1.0
125	0x3f800000	1.0
126	0x3f800000	1.0
127	0x3f800000	1.0

fc2.weight f4 [128, 2]
0	0xbf1ad688	-0.604836
1	0x3eae7d38	0.3407991
2	0x3c51daf3	0.012808549
3	0x3ee51ec8	0.44750047
4	0x3f22451e	0.63386714
5	0x3f10690f	0.56410307
6	0xbed88934	-0.42292178
7	0x3e891966	0.2677719
8	0xbf1a97da	-0.6038796
9	0xbf0ca86d	-0.549445
10	0x3f03851d	0.5137499
11	0xbcdd1474	-0.026987292
12	0xbf1b6771	-0.60704714
13	0x3e8a2501	0.26981357
14	0x3c8dfe96	0.01733331
15	0x3e192183	0.1495419
16	0xbeab15c3	-0.3341504
17	0xbee8f858	-0.4550197
18	0xbf219583	-0.6311876
19	0xbee847ab	-0.45367178
20	0x3ea92002	0.33032233
21	0x3db5a99d	0.08870242
22	0x3e63e3b0	0.22254825
23	0x3e7e4457	0.24830757
24	0x3dc95521	0.0983069
25	0x3e47a859	0.19497813
26	0xbf201059	-0.62524945
27	0x3e08d5a3	0.13362746
28	0xbe9c51de	-0.3053121
29	0x3e4521fe	0.19251248
30	0x3d2de649	0.042455945
31	0x3e9f9231	0.31166223
32	0xbdd5bb1a	-0.104360774
33	0xbe79fc14	-0.24412566
34	0xbed1ad56	-0.40952557
35	0x3ea95ab3	0.3307701
36	0xbe1cbdd8	-0.15306795
37	0xbe944576	-0.28959244
38	0x3e819bae	0.25314087
39	0x3f1f6d2a	0.62275946
40	0xbf00ea06	-0.5035709
41	0x3e9bb04c	0.3040794
42	0x3ec9fbb2	0.3944984
43	0xbf275c16	-0.65374887
44	0x3e6c0e38	0.23052299
45	0x3e73e066	0.2381607
46	0xbeb3f50b	-0.3514789
47	0xbec13125	-0.37732807
48	0x3f2f5944	0.68495584
49	0x3d3b0879	0.045662377
50	0x3c8bca78	0.017064318
51	0xbe230d7c	-0.15923113
52	0x3f1afb6d	0.60539895
53	0x3e16fb6e	0.1474435
54	0xbe071890	-0.13192964
55	0xbeed6bcb	-0.46371302
56	0x3cd45bb8	0.025922641
57	0xbe448ef0	-0.19195151
58	0x3e05bad9	0.13059558
59	0x3ea7730d	0.32704964
60	0x3e596ae9	0.21232189
61	0x3ee5feac	0.44920862
62	0x3ecdfee1	0.4023352
63	0xbeefa476	-0.4680516
64	0xbf291443	-0.6604654
65	0xbe431f64	-0.19054943
66	0xbd4358d1	-0.047692124
67	0xbd72fd4d	-0.059323598
68	0x3ec98dbb	0.39365944
69	0xbe750d0d	-0.2393076
70	0x3f1a0aeb	0.6017291
71	0x3ece37aa	0.40276843
72	0x3f314932	0.6925231
73	0xbe917d93	-0.28416118
74	0xbcc44962	-0.023960773
75	0xbe6779b9	-0.22605027
76	0xbebaea38	-0.3650682
77	0x3ed31ca8	0.412328
78	0xbf1d26f7	-0.6138758
79	0x3eaa2ff5	0.33239713
80	0xbe76ff28	-0.24120772
81	0x3d4cf27d	0.050035942
82	0xbe72d87e	-0.23715398
83	0xbe3a0a18	-0.18167913
84	0xbed1f2bb	-0.410055
85	0xbe97fca0	-0.29684925
86	0xbf1b7af0	-0.6073446
87	0x3ed97258	0.4247005
88	0x3e11bb32	0.14231566
89	0x3ec6d418	0.3883369
90	0x3df83445	0.121193446
91	0x3da1c175	0.07898227
92	0x3f050237	0.51956505
93	0x3f23838d	0.63872606
94	0x3e98a17c	0.29810703
95	0x3ed10390	0.4082303
96	0x3ed35d3a	0.41282064
97	0xbde571fa	-0.1120338
98	0xbf04fbf3	-0.51946944
99	0xbe60f385	-0.21967895
100	0x3cc44be2	0.023961965
101	0x3f047e10	0.51754856
102	0x3e909471	0.28238252
103	0xbe61623f	-0.22010134
104	0xbe4f5307	-0.20246516
105	0xbe80ed6d	-0.25181141
106	0xbed98de6	-0.42491072
107	0x3e25bf34	0.1618622
108	0x3e9ee4cd	0.31033936
109	0xbd84edef	-0.06490695
110	0x3db7d4f1	0.08976162
111	0xbe4053cf	-0.1878197
112	0x3d9d15c8	0.0767017
113	0xbee1804f	-0.44043204
114	0x3da5c7cd	0.080947496
115	0x3f13e820	0.5777607
116	0xbebfef21	-0.37487128
117	0x3e358265	0.17725523
118	0xbe9d11c6	-0.30677623
119	0xbf165a83	-0.5873186
120	0xbf114ab2	-0.567546
121	0x3dcbb07c	0.09945771
122	0x3d93d1da	0.072177604
123	0x3d9f4657	0.07777088
124	0xbded1154	-0.11575571
125	0x3f2ad400	0.66729736
126	0x3ecbbad3	0.39790973
127	0xbd4973ba	-0.04918263
128	0xbe6dd995	-0.23227532
129	0x3f218a69	0.6310182
130	0xbecfed32	-0.40610653
131	0x3d845186	0.06460862
132	0xbe00134e	-0.12507364
133	0xbe8303e3	-0.25588903
134	0x3e2ab005	0.16668709
135	0xbdbf7d7a	-0.09350105
136	0xbf2fd0ed	-0.6867817
137	0x3eee0ef7	0.46495792
138	0xbf1ad331	-0.604785
139	0x3f2a607b	0.6655347
140	0xbd3d8866	-0.046272658
141	0xbf12a9b4	-0.57290196
142	0xbc29ac1c	-0.0103559755
143	0x3ee27d02	0.44235998
144	0xbe3af0a2	-0.18255857
145	0x3f1db124	0.6159842
146	0x3d64c31e	0.05585014
147	0xbf1090c2	-0.5647088
148	0x3e975bb9	0.29562166
149	0xbed218f9	-0.41034678
150	0x3e4340cf	0.19067691
151	0xbea2a792	-0.3176847
152	0xbea6bf43	-0.32567796
153	0xbeea0df6	-0.45713776
154	0xbdae5d9b	-0.085139476
155	0xbe8747b9	-0.26421908
156	0xbf1d09b6	-0.6134294
157	0x3f0ee428	0.5581689
158	0x3f1a9a45	0.60391647
159	0xbdbafb8c	-0.0913001
160	0xbe8237f1	-0.25433305
161	0xbf1756c5	-0.59116775
162	0xbe7740f7	-0.24145876
163	0x3ede8d57	0.4346721
164	0x3df8d30a	0.121496275
165	0xbf0f7561	-0.5603848
166	0xbe156ea3	-0.14592986
167	0x3e923077	0.285526
168	0x3ed3fd77	0.41404316
169	0xbe1ddbb4	-0.15415841
170	0xbe8c6c9e	-0.27426618
171	0xbeb3bcd0	-0.3510499
172	0x3e8d6816	0.27618474
173	0x3ef4d7ba	0.47820836
174	0x3efba784	0.49151242
175	0xbec9491e	-0.39313596
176	0xbda4e868	-0.080521405
177	0x3eb0a844	0.34503376
178	0xbf168d41	-0.58809286
179	0x3e39104c	0.18072623
180	0x3e751aef	0.23936056
181	0x3f2249b4	0.6339371
182	0xbeea7306	-0.4579088
183	0xbed61e14	-0.41819823
184	0xbeb56277	-0.35426685
185	0xbf009372	-0.50224984
186	0xbf29f209	-0.6638494
187	0xbf29ee9b	-0.6637971
188	0xbe30da9c	-0.17270893
189	0x3eb9ae70	0.36265898
190	0xbdf30ab1	-0.118672736
191	0xbec694aa	-0.38785297
192	0xbe780968	-0.24222338
193	0x3ec66aec	0.3875345
194	0xbea7551a	-0.32682115
195	0xbe5b63e2	-0.21424821
196	0x3e941969	0.28925636
197	0xbf234fdd	-0.63793737
198	0x3ee876f9	0.4540327
199	0xbeff32de	-0.49843496
200	0xbf0ab143	-0.5417673
201	0xbec41fb2	-0.38305432
202	0x3f001758	0.5003562
203	0x3dd0f2bd	0.10202549
204	0x3e686570	0.22694945
205	0x3c9b0d31	0.018927189
206	0xbec92f24	-0.39293778
207	0xbf279126	-0.65455854
208	0x3e54f41a	0.20796242
209	0x3e63df7b	0.2225322
210	0x3f2a5ff1	0.66552645
211	0xbe0bacbf	-0.13640116
212	0x3eefdd30	0.4684844
213	0x3eb5029a	0.35353547
214	0xbf239e9d	-0.639139
215	0xbdc92e51	-0.09823287
216	0xbe98d6eb	-0.2985147
217	0x3f052998	0.5201659
218	0x3e05d728	0.13070357
219	0xbe9d67cc	-0.30743253
220	0x3e9d4a4b	0.30720744
221	0x3db1ee4c	0.0868803
222	0xbdac0d92	-0.08401026
223	0x3e74e2d7	0.23914658
224	0x3ef27d68	0.47361302
225	0xbdada1e6	-0.08478145
226	0xbea5863b	-0.32328972
227	0x3ef1ad25	0.4720241
228	0x3eeb648f	0.45975158
229	0x3d37ecbe	0.04490351
230	0xbd063e20	-0.03277409
231	0xbf33e8d7	-0.7027716
232	0x3e47726a	0.19477239
233	0xbf19be77	-0.6005625
234	0x3ed434eb	0.41446623
235	0x3e902936	0.2815644
236	0xbf2eff65	-0.6835845
237	0x3f121ec6	0.57078207
238	0xbe46308c	-0.19354457
239	0xbf21e46f	-0.63239187
240	0xbda234b7	-0.07920211
241	0xbe5fbd5e	-0.21849582
242	0xbf23ead6	-0.64030206
243	0x3e3063ab	0.1722552
244	0x3ee86d69	0.45395973
245	0xbe7ac249	-0.24488176
246	0xbf230273	-0.6367561
247	0xbeecc184	-0.4624139
248	0xbeb27917	-0.3485801
249	0x3ed5cac2	0.41756254
250	0x3de38581	0.11109448
251	0x3e0502d3	0.12989359
252	0xbea471df	-0.32118127
253	0xbf332021	-0.699709
254	0x3e382b1e	0.17985198
255	0x3f2afe07	0.66793865

actor.linears.0.weight f4 [128, 384]
0	0xbcf175a0	-0.029475033
1	0xbd0c0fc0	-0.034194708
2	0xbd077975	-0.033074815
3	0xbce9415b	-0.028473547
4	0xbcd53547	-0.026026381
5	0xbc567cd7	-0.013091288
6	0x3b8226bd	0.003971903
7	0x3bf44bc5	0.0074553215
8	0xbd082925	-0.033242363
9	0x3d40c0ec	0.047058985
10	0x3c7bfb67	0.015379763
11	0x3a41e35b	0.00073962443
12	0xbd4e14e1	-0.05031288
13	0xbd489d81	-0.048978332
14	0x3d28fb1a	0.041255094
15	0xbd420598	-0.047368616
16	0xbd11bb25	-0.035578866
17	0x3d37862d	0.044805694
18	0x3c906118	0.017624423
19	0xbc85f608	-0.016352668
20	0x3c45b35a	0.0120666865
21	0xbd3d6383	-0.04623748
22	0xbd28d26e	-0.041216306
23	0xbd01058e	-0.031499438
24	0xbd525849	-0.051353727
25	0xbc0376ef	-0.008023961
26	0x3cb2c29b	0.02182131
27	0x3d18185f	0.037132617
28	0x3d24ea78	0.04026267
29	0xbd0e7074	-0.034775212
30	0xbc986ed3	-0.018607533
31	0x3bcf4322	0.0063251415
32	0xbcc0e5ff	-0.02354717
33	0xbc1ddb7e	-0.009634851
34	0x3d4e2d73	0.050336313
35	0x3d3684de	0.044560306
36	0x3d34f12c	0.044175312
37	0x3c105d6b	0.008811335
38	0x3d033dc6	0.032041334
39	0xbd3708d7	-0.044686165
40	0x3d023c75	0.031795938
41	0x3ce97e46	0.028502595
42	0x3af23277	0.0018478174
43	0xbcc84224	-0.0244456
44	0xbc22cceb	-0.009936552
45	0xbd318eba	-0.043349005
46	0x3cfbd200	0.030739784
47	0x3c008d79	0.00784623
48	0x3d2571e2	0.04039181
49	0x3c3e40cb	0.011612128
50	0x3d249eb2	0.040190406
51	0x3cc0d0a2	0.023536984
52	0x3d38f0cf	0.045151528
53	0x3d40489d	0.04694425
54	0xbc96b9c8	-0.018399134
55	0x3ccc5f3b	0.024947753
56	0x3cd142ed	0.025544608
57	0xbd46e5cf	-0.048559006
58	0x3bc1e247	0.005916867
59	0xbcc0d0d4	-0.023537077
60	0x3ca7b499	0.020471858
61	0xbd55e844	-0.05222346
62	0xbcf70384	-0.030153044
63	0x3ca2e7dd	0.019885952
64	0xbc709f74	-0.014686454
65	0xbd45598f	-0.048181113
66	0x3b8b5d02	0.0042530308
67	0x3c4ed17a	0.012623185
68	0xbc9bbdfa	-0.019011486
69	0xbced78db	-0.028988292
70	0x3c215c42	0.009848656
71	0x3bf7bd58	0.0075604133
72	0x3be11479	0.0068688956
73	0x3bc36a84	0.0059636254
74	0x3cd0bff6	0.02548216
75	0xbbac7cfc	-0.0052639227
76	0x3cdd06a3	0.026980704
77	0x3d1f6888	0.03891805
78	0xbc87fa33	-0.016598796
79	0xbb58a068	-0.0033054594
80	0x3d2f66eb	0.04282276
81	0x3d137dbb	0.036008578
82	0xbd2b4f07	-0.041823413
83	0xbc1759fa	-0.009237761
84	0x3d0913ed	0.03346627
85	0xbccc87a2	-0.024967019
86	0x3ce2f9d5	0.02770702
87	0xbbc97a91	-0.0061486443
88	0x3cb44305	0.022004614
89	0x3c32b24c	0.010906767
90	0xbbab5d8e	-0.0052296584
91	0xbce93e62	-0.02847213
92	0x3d369d94	0.044583872
93	0xbce5e646	-0.028063904
94	0xbc60c48b	-0.0137187345
95	0x3d5e35e0	0.054250598
96	0xbb1cd752	-0.0023932052
97	0x3ce92aaa	0.028462727
98	0x3d4118e1	0.047142867
99	0xbd13b433	-0.036060523
100	0xbc19b4f7	-0.009381524
101	0x3d1f8178	0.03894183
102	0xbd513bea	-0.05108253
103	0x3d11c867	0.03559151
104	0x3ce7aa6e	0.02827951
105	0xbd37736f	-0.04478782
106	0xbc71da03	-0.014761451
107	0x3cf2bea3	0.029631918
108	0xbb5ef4aa	-0.0034020343
109	0xbcba051a	-0.02270751
110	0x3c0ef656	0.008725723
111	0x3bcb3341	0.0062011783
112	0xba893b7b	-0.0010469997
113	0xbd446d66	-0.047955893
114	0xbcc1200d	-0.023574853
115	0xbd4478d2	-0.047966786
116	0x3cd30096	0.025757115
117	0xbd029f0c	-0.03188996
118	0x3cf4f437	0.029901607
119	0x3d068efd	0.032851208
120	0x3c050a88	0.008120187
121	0x3d08eb19	0.03342733
122	0x3cbfbc92	0.023405347
123	0x3ba4cc90	0.0050292686
124	0x3ce03187	0.027367366
125	0x3c982bb2	0.018575523
126	0x3c1f49b3	0.009722161
127	0x3ced72ab	0.028985342
128	0xbca8cc48	-0.020605221
129	0x3d2ab76f	0.041678842
130	0x3cb9f2a2	0.022698704
131	0x3d269024	0.040664807
132	0x3d46964a	0.04848317
133	0x3d30a1e2	0.043123133
134	0x3d08d1a9	0.033403073
135	0xbc2ee211	-0.010674016
136	0xbd0e8335	-0.034793098
137	0xba1c60d7	-0.0005965358
138	0xbc785f85	-0.015159492
139	0x3cd1371e	0.025538977
140	0xbad2aa00	-0.0016072392
141	0xbd108d5b	-0.035291057
142	0xbd220d28	-0.039563328
143	0x3d3ce64d	0.04611807
144	0xbd348e3a	-0.04408095
145	0xbc375a2e	-0.011190934
146	0xbbc0f644	-0.005888732
147	0x3be7dd90	0.007075973
148	0xbd10305a	-0.03520236
149	0x3bf7c124	0.007560866
150	0x3c98bb53	0.01864401
151	0xbd26787d	-0.04064225
152	0x3c8494d5	0.01618425
153	0xbcaf45e6	-0.021395635
154	0x3d27c672	0.040960737
155	0x3d518f3a	0.051161982
156	0xba96ae7f	-0.0011496096
157	0x3cc47d92	0.023985658
158	0xbd2457d0	-0.040122807
159	0xbcd1857f	-0.025576351
160	0xbd151219	-0.036394212
161	0xbd3516bb	-0.04421113
162	0xbd0f52d4	-0.0349911
163	0xbcffd5d6	-0.031229895
164	0xbd35c2f1	-0.044375364
165	0x3c736299	0.0148550505
166	0x3b926669	0.0044677746
167	0xbd302f70	-0.04301399
168	0x398177d7	0.00024694085
169	0xbcf6e67a	-0.030139197
170	0xbce736b7	-0.028224332
171	0x3d26d5fb	0.04073141
172	0x3b9db742	0.004813106
173	0x3d0861d8	0.033296436
174	0xbc9da3c4	-0.019243129
175	0x3c4c0cd4	0.01245423
176	0xbd19ed27	-0.03757968
177	0x3cdf454e	0.027254727
178	0x3d285094	0.04109247
179	0x3bae9c03	0.0053286566
180	0xbcc83461	-0.024439039
181	0x3c40a627	0.011758364
182	0x3cc3efee	0.023918118
183	0x3bce017a	0.006286797
184	0x3d16ae00	0.036787033
185	0x3d12621f	0.035738107
186	0x3c36f762	0.011167379
187	0xbc41b506	-0.0118229445
188	0xbaf2ea8a	-0.0018533033
189	0xbb63a6fb	-0.003473698
190	0xbd097fab	-0.03356902
191	0xbc0a7d2f	-0.008452698
192	0xbd3cd54f	-0.046101864
193	0xbbc34336	-0.00595894
194	0x3d29aeb4	0.041426376
195	0x3cbde1cc	0.023178957
196	0xbca9674d	-0.02067914
197	0x3a9db146	0.0012030981
198	0x3c90823a	0.017640222
199	0x3d02ee2f	0.03196543
200	0xbd439860	-0.047752738
201	0xbb9a0f94	-0.004701564
202	0x3c4598c6	0.01206035
203	0xbc9e7f92	-0.01934794
204	0xbc0d8f37	-0.008640102
205	0x3d141b5a	0.036158897
206	0x3c93192e	0.017956343
207	0x3d00f394	0.031482294
208	0xbd27d736	-0.040976726
209	0xbba54e49	-0.0050447327
210	0xbcbc24b2	-0.022966716
211	0xbc8fe0e2	-0.017563287
212	0x3c83b0e3	0.016075557
213	0x3d5a6df9	0.053327534
214	0x3b76df27	0.003766963
215	0xbc192136	-0.009346297
216	0x3cefa2cf	0.029252438
217	0xbcf7f7c7	-0.030269517
218	0xbd27bc29	-0.040950928
219	0x3d5213fb	0.051288586
220	0x3d49309a	0.049118616
221	0x3ce7a14d	0.028275156
222	0x3d34f1a2	0.04417575
223	0x3d2a1f23	0.0415336
224	0x3cecbbff	0.028898237
225	0x3c1dc173	0.009628641
226	0x3bc0e618	0.0058868043
227	0xbbf20caa	-0.0073867636
228	0x3d0ecc49	0.03486279
229	0x3cedb58d	0.029017234
230	0xbce4b132	-0.027916525
231	0x3d177e5f	0.03698575
232	0xbd49dbff	-0.04928207
233	0xbd40be77	-0.04705664
234	0x3b285b8e	0.0025689336
235	0xbc869368	-0.01642771
236	0x3d0aa5e0	0.033849597
237	0xbd3c9573	-0.046040963
238	0x3a8c1dd0	0.0010690037
239	0x3c183b15	0.00929143
240	0x3cc354ab	0.023844084
241	0xbc017c83	-0.007903221
242	0xbd266dea	-0.040632166
243	0xbd08ef5b	-0.033431392
244	0x3cf17362	0.029473964
245	0xbd29fd2b	-0.041501205
246	0x3c1b18e7	0.009466386
247	0xbbbe2de2	-0.0058038095
248	0x3d4c5c9e	0.049893014
249	0x3d3dd4b7	0.04634544
250	0xbd2ffb69	-0.042964373
251	0xbd02dc1d	-0.031948198
252	0xbd17493e	-0.036935084
253	0xbd0b0abd	-0.033945788
254	0xbca16435	-0.019701103
255	0xbd1cc9a6	-0.038278244

actor.linears.0.bias f4 [128]
0	0xbd15ed4b	-0.036603253
1	0xbd16833d	-0.036746252
2	0xbbeb0f39	-0.0071734455
3	0x3d1c072e	0.038092785
4	0xbb4b056e	-0.0030978578
5	0x3c66157b	0.014043207
6	0xbccb9f46	-0.02485622
7	0x3bdffa5b	0.0068352646
8	0xba6e3378	-0.0009086649
9	0xbc6a9a1d	-0.01431897
10	0xbcddfd53	-0.027098333
11	0xbc9cbb57	-0.0191323
12	0x3b39dc8b	0.0028360214
13	0xbbb6b96f	-0.0055763046
14	0x3d2d692c	0.042336628
15	0x3c76dc3b	0.0150671555
16	0x3bb1e4d7	0.005428891
17	0xbccf59c6	-0.025311362
18	0x3c812137	0.015762908
19	0x3cad9d23	0.021193093
20	0x3cb7f3b0	0.022455066
21	0x3d16bef7	0.036803212
22	0xbc7cc271	-0.015427218
23	0xbd006b7e	-0.031352513
24	0x3cb59856	0.022167366
25	0x3c9aa349	0.018876689
26	0x3ca83be5	0.020536372
27	0xbcdd6baf	-0.027028887
28	0x3d296d4d	0.041364003
29	0x3c8d5166	0.017250728
30	0x3bc87f2c	0.0061186757
31	0xbb81929a	-0.003954244
32	0x3b1d1e7b	0.0023974467
33	0x3d1bc746	0.03803184
34	0xbcc4520b	-0.023964902
35	0xbd0e0df5	-0.03468128
36	0xbaf40919	-0.0018618434
37	0x3d3dee2e	0.046369724
38	0xbd19ea2b	-0.037576836
39	0xbd3dbc09	-0.046321902
40	0xbd202808	-0.039100677
41	0xbcb4612b	-0.02201899
42	0x3c3f3bd5	0.01167198
43	0xbd0407a8	-0.032233864
44	0xbc09a0e3	-0.008400175
45	0x3d5bfc98	0.05370769
46	0x3d56dca0	0.0524565
47	0x3b7d96bc	0.003869458
48	0xbd21506a	-0.03938333
49	0xbcf4eb8e	-0.029897477
50	0x3cd4922f	0.025948612
51	0xbcb4a630	-0.0220519
52	0x3ba0176a	0.0048856037
53	0x3cb4e7b8	0.022083148
54	0x3af1f2cb	0.0018459199
55	0x3c27ab33	0.010233688
56	0xbd1cbce6	-0.038266085
57	0x3d0c4558	0.03424582
58	0xbd34f53d	-0.04417919
59	0x3ccdace6	0.025106858
60	0xbd0fe6e0	-0.03513229
61	0x3d2e6193	0.042573523
62	0x3d070701	0.032965664
63	0xbd1f22c3	-0.03885151
64	0xbd3800fa	-0.044922806
65	0xbd66ed95	-0.05637892
66	0xbcfc90dc	-0.030830793
67	0x3b778098	0.0037765857
68	0x3d1f2ab5	0.038859088
69	0x3d6e0eaa	0.058119453
70	0xbc9fa05e	-0.019485649
71	0x3d2b7ddd	0.04186808
72	0xbc222f25	-0.009898935
73	0xbcd3a62d	-0.025836075
74	0xbccc0aa0	-0.02490741
75	0xbd3e2628	-0.046423107
76	0xbc6c7f90	-0.01443471
77	0xbd220a0d	-0.039560366
78	0xbd4d031c	-0.050051793
79	0xbcc4b90c	-0.024014018
80	0x3bac64a4	0.0052610207
81	0x3c9d342a	0.019189913
82	0x3c2d2640	0.010568202
83	0xbc937c16	-0.018003505
84	0xbc60eee5	-0.013728832
85	0x3ce4c5ca	0.027926344
86	0x3bd0f6ef	0.006377093
87	0x3cd9f85c	0.026607685
88	0x3d5c7587	0.05382302
89	0xbd30d1aa	-0.0431687
90	0xbb418999	-0.0029531477
91	0xbd0fcf36	-0.03510972
92	0xbc46f485	-0.012143259
93	0x3ce334e5	0.027735183
94	0xbcfa68d8	-0.030567572
95	0x3ba54397	0.0050434577
96	0xbbf64137	-0.0075150984
97	0xbd1727c2	-0.03690315
98	0x3c8a9701	0.016917707
99	0xbc4f982f	-0.012670561
100	0xbbc07804	-0.005873682
101	0x3cbde4c9	0.023180382
102	0x3d287434	0.041126445
103	0xbcd203e3	-0.025636619
104	0xbc730b9a	-0.014834309
105	0x3d2ce73c	0.04221271
106	0x3d21c496	0.03949412
107	0x3b9c2562	0.0047651986
108	0xbc6a816b	-0.014313082
109	0x3c88889d	0.016666705
110	0xbd236bc8	-0.03989771
111	0x3c8a6329	0.016892986
112	0x3c6b7a23	0.014372381
113	0xbcaa0174	-0.020752646
114	0x3cd708b8	0.026249275
115	0xbca5fc91	-0.020262035
116	0xbd28975a	-0.041159965
117	0xbd0d0dac	-0.034436867
118	0xbc82599b	-0.015911868
119	0xbbbceacf	-0.005765296
120	0xbd0660bc	-0.032807097
121	0xbcc6c2d7	-0.024262829
122	0xbd0af122	-0.03392137
123	0xbce6aa6c	-0.028157435
124	0x3d29484b	0.04132871
125	0x3d0ff060	0.03514135
126	0x3d02e5ca	0.031957425
127	0x3c22324b	0.009899686

actor.linears.1.weight f4 [128, 128]
0	0xbd70575e	-0.05867707
1	0xbd8b601f	-0.06805443
2	0xbd165e48	-0.036711007
3	0x3cadb646	0.021205079
4	0xbcd2bf85	-0.02572609
5	0x3d70fadd	0.058832992
6	0x3d3f1ebf	0.04666018
7	0x3da0bffc	0.07849118
8	0xbd1dc2ff	-0.03851604
9	0xbd12e165	-0.035859484
10	0xbc2a2d1b	-0.010386731
11	0x3d892239	0.066959806
12	0xbc085058	-0.008319937
13	0xbd82d765	-0.063887395
14	0x3da45ec1	0.080258854
15	0xbd115b4d	-0.03548746
16	0x3d6cc750	0.057807267
17	0xbc9d3cae	-0.019193973
18	0xbdb4484b	-0.08802851
19	0x3cc00e02	0.02344418
20	0x3d9a3b24	0.075308114
21	0x3c83f0a5	0.01610596
22	0x3d51f719	0.05126104
23	0xbda3abaa	-0.07991727
24	0xbcd2a59a	-0.02571373
25	0xbda4cf75	-0.08047382
26	0x3d9b2a93	0.0757648
27	0x3d1c0542	0.03809095
28	0x3da801b9	0.082034536
29	0xbce36d2c	-0.027762018
30	0xbd0f595d	-0.034997333
31	0xbd565e13	-0.05233581
32	0xbc58cc86	-0.013232356
33	0x3db32dc6	0.08748965
34	0x3d70d7d1	0.05879957
35	0x3d501833	0.05080433
36	0xbd3febf4	-0.04685588
37	0xbd197c1a	-0.037471868
38	0x3d707533	0.05870552
39	0xbdb86050	-0.09002745
40	0xb9eec7d5	-0.00045543784
41	0xbd9e08ab	-0.07716497
42	0xbd4f02a8	-0.050539643
43	0xbd956d4d	-0.07296238
44	0x3d46d0d9	0.048539016
45	0xbd1bbc97	-0.03802165
46	0xbc1d8d68	-0.009616233
47	0x3d9f8081	0.07788182
48	0x3ad72eb5	0.0016417118
49	0x3b8a0270	0.0042117164
50	0x3a2d1564	0.0006602614
51	0x3d69c7af	0.0570752
52	0xbda7ace6	-0.08187275
53	0xbd026357	-0.03183302
54	0xbbb457c1	-0.005503625
55	0x3d86cd2a	0.06582101
56	0x3d8946d5	0.06702963
57	0xbd8c90ab	-0.06863531
58	0x3bdf8f74	0.006822521
59	0xbd2a7eb3	-0.041624736
60	0x3da0802b	0.07836946
61	0x3b90bcab	0.004417022
62	0x3d8b6d57	0.06807964
63	0x3c5fb5a0	0.013654143
64	0x3b800131	0.003906392
65	0x3d22a7a9	0.039710674
66	0xbc114f25	-0.008868967
67	0x3cfeaf40	0.031089425
68	0xbba87ea4	-0.00514205
69	0xbd1fe276	-0.03903433
70	0xbc863931	-0.016384693
71	0x3ce3992e	0.027783003
72	0x3c801cd5	0.015638748
73	0x3ca59e52	0.020217095
74	0xbdad9cbb	-0.084771596
75	0xbd11f336	-0.035632335
76	0xbd8de083	-0.06927588
77	0x3d68b1f9	0.056810353
78	0x3d76b6e3	0.060233008
79	0x3dc28613	0.09498229
80	0xbc9d63f6	-0.019212704
81	0xbd4c6736	-0.049903117
82	0x3cb3ea65	0.021962354
83	0xbd994703	-0.074842475
84	0xbdb90f7d	-0.09036157
85	0xbc82cd11	-0.015966924
86	0x3c806fdf	0.015678344
87	0x3d7d7175	0.06187578
88	0xbc0b57ee	-0.008504851
89	0xbda29953	-0.079394005
90	0xbd761eee	-0.06008809
91	0x3da1b631	0.078960784
92	0xbd98072f	-0.07423245
93	0x3c9e4ee8	0.019324735
94	0x3d2080dc	0.03918539
95	0x3d1e2141	0.038605932
96	0xbda98e8a	-0.0827914
97	0xbcd761f6	-0.026291829
98	0xbd4e08a3	-0.050301205
99	0x3cf198ea	0.02949186
100	0x3da5c751	0.08094657
101	0x3daecd25	0.08535222
102	0x3d39e145	0.04538085
103	0xbc706ded	-0.014674646
104	0x3d75efa6	0.060043
105	0x3cab7dab	0.020933947
106	0xbc97cbb0	-0.018529743
107	0x3b78813a	0.0037918822
108	0x3b38a311	0.0028173367
109	0x3dabf657	0.08396595
110	0xbda30f06	-0.0796185
111	0x3cbdc81d	0.02316671
112	0xbcd71a0c	-0.026257537
113	0x3d56d2b6	0.052447043
114	0xbd7ee303	-0.062228214
115	0x3d91323e	0.07089661
116	0xbb799021	-0.0038080292
117	0x3ccf9095	0.025337497
118	0xbda50883	-0.08058264
119	0x3d80fa30	0.062977195
120	0xbdb8f723	-0.090315126
121	0x3d4e41df	0.05035579
122	0xbd358669	-0.044317637
123	0x3da1c043	0.07897999
124	0x3d3e4cf8	0.046460122
125	0xbd166009	-0.03671268
126	0x3d62adb5	0.05534144
127	0xbbe2c1f4	-0.0069200937
128	0x3d90f664	0.07078245
129	0x3db78511	0.08960927
130	0x3cae47df	0.021274505
131	0xbdaef9e0	-0.085437536
132	0xbc95e0b6	-0.018295627
133	0x3ce21d1f	0.027601777
134	0xba86fc40	-0.0010298565
135	0x3db3243c	0.087471455
136	0xbda51986	-0.08061509
137	0xbd862c16	-0.065513775
138	0xbb2c224a	-0.0026265555
139	0x3c689c4a	0.0141974185
140	0xbb85d9df	-0.00408481
141	0x3d9689f8	0.07350534
142	0x3ca4bb25	0.020108769
143	0xbd34d8e8	-0.04415217
144	0x3d31f668	0.043447882
145	0x3d218b22	0.039439328
146	0xbbdc45d6	-0.0067221923
147	0xbd2c69f2	-0.042093225
148	0xbc7e8b3c	-0.015536126
149	0x3cd146f1	0.025546523
150	0xbd90d825	-0.07072476
151	0xbd12018a	-0.035646
152	0x3d7a4210	0.06109816
153	0xbd27287f	-0.040810104
154	0x3d3b3dc2	0.045713194
155	0x3d6eb284	0.058275715
156	0xbd39d84e	-0.0453723
157	0xbcd2c08d	-0.025726581
158	0x3d8e0070	0.06933677
159	0x3cdf7553	0.027277624
160	0xbd15db5e	-0.036586158
161	0xbd878607	-0.066173606
162	0x3c562990	0.013071433
163	0xbc9c085b	-0.019046953
164	0xbc846ef8	-0.016166195
165	0xbd306652	-0.04306633
166	0xbcb58db4	-0.022162296
167	0xbcecfb0b	-0.0289283
168	0xbd48a053	-0.048981022
169	0x3d8be2cd	0.06830368
170	0xbd3a3580	-0.045461178
171	0x3d18e5cc	0.037328526
172	0x3d85a13a	0.06524892
173	0xbda1fda2	-0.07909705
174	0xbd896bfb	-0.06710049
175	0x3c38a0d4	0.011268813
176	0x3d0d0d3d	0.034436453
177	0x3d21b6c4	0.03948094
178	0xbd07b59e	-0.033132188
179	0x3c937f9e	0.018005189
180	0xbcf3f21b	-0.02977853
181	0xbd820228	-0.063480675
182	0x3d80c8a7	0.062882714
183	0xbbb23f92	-0.005439707
184	0xbda817e2	-0.0820768
185	0xbd77711e	-0.06041061
186	0xbdac766d	-0.084210254
187	0xbd36d98b	-0.04464106
188	0xbcbe04fa	-0.023195732
189	0x3d448e4f	0.04798728
190	0xbd87a941	-0.066240795
191	0x3c1c5da3	0.009543809
192	0xbda82675	-0.0821046
193	0x3d434b8c	0.04767947
194	0x3c942f65	0.018089006
195	0xbd541b1c	-0.051783666
196	0xbc83c9a1	-0.016087355
197	0x3d924dfa	0.07143779
198	0xbc0e6537	-0.008691124
199	0x3d61630b	0.055026095
200	0x3d26f874	0.040764287
201	0xbcaee1d9	-0.021347927
202	0x3d3caea6	0.046064995
203	0xbd6d829d	-0.05798589
204	0x3d9198fe	0.07109259
205	0x3d8a2e20	0.06747079
206	0x3c12765b	0.008939351
207	0xbd784c5c	-0.060619697
208	0x3d9b66b6	0.0758795
209	0x3c244ee2	0.010028573
210	0xbd4891bb	-0.048967104
211	0xbb8c4777	-0.00428098
212	0xbdabc816	-0.08387773
213	0xbccfc051	-0.025360258
214	0x3cd40917	0.02588324
215	0xbda60d7b	-0.0810804
216	0xbc4553e7	-0.01204393
217	0x3d5d585b	0.05403934
218	0x3d53ebe7	0.051738646
219	0xbd4c74dd	-0.049916137
220	0x3cba4c27	0.02274139
221	0xbd55a27d	-0.052156914
222	0xbd75e251	-0.060030285
223	0x3cb5d690	0.022197038
224	0x3d16c3c7	0.0368078
225	0xbd95d900	-0.0731678
226	0x3caaf6be	0.020869609
227	0xbd02479c	-0.031806573
228	0x3cd448eb	0.025913676
229	0x3c9b9dd2	0.018996153
230	0xbcfc7543	-0.030817633
231	0xbd8fc238	-0.07019466
232	0xbb89bcf1	-0.004203432
233	0xbc488f6b	-0.012241225
234	0x3d736dd5	0.059430916
235	0x3cc673fc	0.024225228
236	0xbc1def2f	-0.009639545
237	0x3d046b39	0.032328818
238	0x3d3cd2a4	0.04609932
239	0x3d921fee	0.07134996
240	0x3cecfea4	0.028930016
241	0x3d0ffa0c	0.035150573
242	0xbda9df98	-0.082946
243	0x3d63e146	0.05563476
244	0x3dbbec58	0.09175938
245	0x3ca9a193	0.020706927
246	0xbd8d8f17	-0.06912058
247	0xbce9833d	-0.028504962
248	0xbd8944e1	-0.06702591
249	0xbd2f48ef	-0.042794164
250	0x3c85ec09	0.016347902
251	0x3d4910c7	0.049088266
252	0x3d3d5908	0.046227485
253	0xbca446d2	-0.020053301
254	0xbd24c7fe	-0.04022979
255	0xbd6905d0	-0.05689031

actor.linears.1.bias f4 [128]
0	0xba82f0c4	-0.0009989967
1	0xbd6cc6dd	-0.05780684
2	0xbd1e1a13	-0.038599085
3	0xbcfe3d24	-0.031035013
4	0xbd9e9c16	-0.07744615
5	0xbc0ffa0a	-0.008787641
6	0xbd1adc65	-0.03780784
7	0x3c3bb90b	0.011457692
8	0xbd914ebc	-0.070950955
9	0xbd8747ee	-0.066055164
10	0xbccd6b5f	-0.025075613
11	0x3d0a9b9d	0.03383981
12	0xbd5284e2	-0.05139626
13	0xbcbba3c2	-0.022905234
14	0x3d99c38c	0.07508001
15	0x3d06f4a9	0.03294817
16	0xbd324ad9	-0.04352841
17	0xbda09601	-0.07841111
18	0xbd89daf9	-0.06731219
19	0x3d37d861	0.04488409
20	0xbd3d2500	-0.046177864
21	0xbd6b91d8	-0.057512134
22	0x3da557cd	0.08073387
23	0xbd028b65	-0.03187122
24	0x3d0424e5	0.032261748
25	0x3caf77e7	0.021419479
26	0x3d813d23	0.06310489
27	0x3d1c46df	0.038153525
28	0x3d492ec6	0.049116872
29	0xbcbc9bc4	-0.023023494
30	0x3dae4d19	0.08510799
31	0xbd83f11a	-0.06442471
32	0x3dbfb38e	0.09360419
33	0x3d93f938	0.07225269
34	0xbd9ef6f3	-0.077619456
35	0x3d4c2d24	0.049847737
36	0xbcf690e2	-0.030098382
37	0xbd3401d9	-0.043947075
38	0xbda645f2	-0.0811881
39	0x3d07a1eb	0.0331134
40	0x3d939e6e	0.072079524
41	0xbd2a6ee4	-0.04160966
42	0xbd9effae	-0.07763611
43	0x3cced13c	0.025246255
44	0x3da7e000	0.081970215
45	0x3c77450a	0.015092144
46	0x3af40717	0.0018617836
47	0xbd0f136a	-0.034930624
48	0x3ac7bc68	0.0015238645
49	0x3db7b621	0.08970285
50	0xbd6eda70	-0.058313787
51	0x3befe503	0.0073210015
52	0x3c6e4824	0.014543567
53	0xbd663808	-0.05620578
54	0xbbc6e447	-0.0060696932
55	0xbdb5903b	-0.088654004
56	0xbd27eb1d	-0.040995706
57	0xbd791db3	-0.06081934
58	0xbd32c86a	-0.04364816
59	0x3d822282	0.06354238
60	0xbd84a479	-0.06476683
61	0xbcd5fdd1	-0.026122006
62	0x3dad0822	0.08448817
63	0x3dbb0c7b	0.0913324
64	0xbd568191	-0.052369658
65	0x3d57c872	0.052681394
66	0xbd330b01	-0.043711666
67	0x3c183d51	0.009291963
68	0x3d0ab458	0.033863395
69	0xbd51b3b8	-0.051196784
70	0x3d56a8d6	0.05240711
71	0x3d827927	0.06370764
72	0xbc89f819	-0.016841935
73	0xbd47dd85	-0.04879524
74	0xbd027877	-0.031853165
75	0xbd1b8a6c	-0.037973806
76	0x3cd7bf2b	0.026336273
77	0x3c258fbe	0.010105072
78	0xbdbef1e8	-0.09323484
79	0xbcbd3386	-0.023095857
80	0xbcff1be8	-0.031141236
81	0x3d53b571	0.051686708
82	0xbd06606a	-0.03280679
83	0xbbf525ea	-0.0074813263
84	0xbd542523	-0.05179323
85	0xbd0ff5ad	-0.035146404
86	0xbd0f9724	-0.03505625
87	0xbccad368	-0.02475901
88	0xbce48b7c	-0.027898543
89	0x3d550d67	0.052014735
90	0xbd1112dd	-0.03541838
91	0x3d5f0d21	0.05445588
92	0xbda424b9	-0.08014817
93	0xbd07e76d	-0.03317969
94	0x3d6e0b82	0.058116443
95	0x3d8016b6	0.06254332
96	0x3c397c08	0.011321075
97	0x3d806f7a	0.062712625
98	0x3cf5ef05	0.0300212
99	0x3d2e1b8a	0.042506732
100	0xbd5117c2	-0.051048048
101	0xbd1f9d4e	-0.038968377
102	0xbccdc9fc	-0.025120728
103	0x3d33a76e	0.043860845
104	0x3ca80e4a	0.020514626
105	0x3d5de44c	0.0541728
106	0x3d182ade	0.037150256
107	0x3d446cec	0.04795544
108	0x3d16f52e	0.036854915
109	0xbdb084ae	-0.08619057
110	0x3d6ead48	0.058270723
111	0xbd026be6	-0.03184118
112	0x3db17e64	0.08666685
113	0xbd854dd9	-0.06508989
114	0xbd7c1d56	-0.061551414
115	0x3bdbf4ed	0.006712547
116	0x3d042860	0.032265067
117	0x3d591903	0.05300237
118	0xbd4d4b04	-0.05012037
119	0xbd22db6c	-0.03976004
120	0x39ce5531	0.00039354854
121	0x3d7920af	0.060822185
122	0x3d43988f	0.047752913
123	0x3d921e79	0.071347184
124	0x3c7ec6e6	0.015550351
125	0xbd74b208	-0.059740096
126	0x3d37d38b	0.044879477
127	0xbc97ae8a	-0.018515844
