FJSP_MultiPPO/saved_network/FJSP_J100M605/best_value10/policy_mch.pth (torch_old, 271482 bytes, 14 tensors)

bn.weight f4 [128]
000000 06 9f 80 3f 76 a9 80 3f 32 84 7e 3f f2 c7 80 3f
       1.004853 1.0051715 0.99420464 1.0061018
000010 ba 36 7e 3f 68 aa 7d 3f 1d d9 7d 3f 01 3d 7e 3f
       0.99302256 0.99088144 0.99159414 0.99311835
000020 f2 63 7d 3f 93 f8 7e 3f ce aa 80 3f 35 a0 80 3f
       0.9898063 0.99598044 1.0052125 1.0048891
000030 f2 e1 80 3f be 93 80 3f 77 88 7f 3f c3 db 7e 3f
       1.0068953 1.0045087 0.99817604 0.9955408
000040 d6 5e 80 3f aa fa 7e 3f f6 15 80 3f 80 e7 7e 3f
       1.0028942 0.99601233 1.0006702 0.9957199
000050 da 85 80 3f 0d 89 7e 3f a9 a2 80 3f ce bd 80 3f
       1.0040848 0.9942787 1.004964 1.0057924
000060 15 e8 7d 3f fe e3 7e 3f 95 0d 7f 3f 95 6c 80 3f
       0.99182254 0.9956664 0.996301 1.0033137
000070 ae c1 80 3f 0a 40 80 3f 39 e5 80 3f 2b a1 7e 3f
       1.0059106 1.0019543 1.0069953 0.9946467
000080 95 7e 80 3f fa 9a 80 3f 73 76 7f 3f 76 aa 80 3f
       1.003863 1.0047295 0.99790114 1.005202
000090 de ec 7e 3f 5c 84 7d 3f 81 d6 7e 3f b0 db 7f 3f
       0.9958018 0.9903009 0.99546057 0.9994459
0000a0 b6 0d 7f 3f a9 93 7f 3f 75 f4 7f 3f 25 87 80 3f
       0.99630296 0.99834687 0.99982387 1.0041243
0000b0 fe d3 7f 3f 85 bd 80 3f 7b 5e 80 3f 7f cd 7e 3f
       0.9993285 1.0057837 1.0028833 0.9953231
0000c0 65 a8 7e 3f 71 b2 7e 3f ab 73 80 3f dc 35 7f 3f
       0.994757 0.9949103 1.0035299 0.9969156
0000d0 28 00 7f 3f 1f 7a 80 3f 9d b4 7e 3f 60 e1 80 3f
       0.99609613 1.0037268 0.99494344 1.0068779
0000e0 83 c3 80 3f 1e 51 80 3f e6 54 80 3f 2c 10 7e 3f
       1.0059665 1.0024755 1.0025909 0.99243426
0000f0 b5 7e 80 3f 85 9f 7e 3f 8d 5a 7f 3f 65 0c 7f 3f
       1.0038668 0.9946216 0.99747545 0.9962829
000100 66 9f 80 3f e5 bc 7e 3f 43 fa 7f 3f 55 ac 7f 3f
       1.0048645 0.9950698 0.99991244 0.9987233
000110 c6 c8 80 3f 76 9d 80 3f a6 69 7e 3f da cf 7e 3f
       1.0061271 1.0048053 0.99379957 0.99535906
000120 57 ad 80 3f 9c 06 80 3f 2d b5 7f 3f 87 84 7f 3f
       1.0052899 1.0002017 0.9988583 0.99811596
000130 3b 4d 80 3f 3f bb 80 3f b9 5c 7e 3f 7e 7a 7e 3f
       1.0023569 1.0057143 0.99360234 0.9940566
000140 57 5e 80 3f ed 04 7f 3f c7 77 80 3f de 1f 80 3f
       1.002879 0.9961689 1.0036553 1.0009725
000150 19 b5 80 3f 54 87 7f 3f ea 44 7d 3f 03 24 7d 3f
       1.0055267 0.9981587 0.9893328 0.98883075
000160 3c b0 7e 3f 39 29 7f 3f ad f6 7d 3f c9 aa 80 3f
       0.9948766 0.99672276 0.9920452 1.005212
000170 8f 25 7f 3f 41 34 7f 3f 69 8d 7e 3f 11 50 7f 3f
       0.99666685 0.9968911 0.99434525 0.99731547
000180 7f bf 7f 3f f8 99 80 3f 59 07 80 3f 6b be 7f 3f
       0.99901575 1.0046988 1.0002242 0.9989993
000190 ac a1 80 3f 0e bb 80 3f 9f 9c 7e 3f ad c7 80 3f
       1.0049338 1.0057085 0.99457735 1.0060936
0001a0 78 ae 80 3f 54 9a 80 3f 39 95 80 3f 41 5b 80 3f
       1.0053244 1.0047097 1.0045539 1.0027848
0001b0 e6 16 7e 3f 5b d0 80 3f 62 a6 80 3f 56 b0 80 3f
       0.9925369 1.0063585 1.0050776 1.0053813
0001c0 b8 19 80 3f a8 3d 7e 3f 37 f3 7e 3f bb 78 80 3f
       1.0007849 0.9931283 0.99589866 1.0036844
0001d0 04 43 7e 3f 97 d3 80 3f c2 80 7e 3f 19 6b 80 3f
       0.9932101 1.0064572 0.9941522 1.0032684
0001e0 1f 4c 7f 3f b2 b0 7e 3f 5b 6e 7f 3f 68 21 7f 3f
       0.99725527 0.99488366 0.99777764 0.9966035
0001f0 7b b7 7e 3f 00 b1 80 3f f5 9e 7f 3f b9 8d 80 3f
       0.9949872 1.0054016 0.99851924 1.004325

bn.bias f4 [128]
000000 26 a1 55 bb 63 66 d2 bb 09 ee 87 3b 57 a4 85 bb
       -0.0032597273 -0.006420897 0.004148249 -0.0040784287
000010 59 93 c6 3b 44 82 a4 b9 4e 12 6e 3b dc 3e 8b bb
       0.0060600457 -0.00031377573 0.0036326828 -0.004249437
000020 24 1b 9c bb 4e 8f af ba 1b 1c 47 ba f7 a3 0e bb
       -0.0047639776 -0.0013394149 -0.00075954356 -0.002176521
000030 13 7e 4c 3a d3 8b 2a 3a 98 34 91 3b 68 fe a1 3b
       0.0007800769 0.0006505821 0.0044313185 0.0049436577
000040 0f 2d 62 3b 27 fc ff 3a a4 77 a1 bb 5e 92 90 3a
       0.003451172 0.0019530103 -0.0049275924 0.0011029949
000050 85 30 34 3b 6b f9 6d 3b df 3c a4 bb 1d e7 a2 bb
       0.002749474 0.0036311995 -0.005012139 -0.0049713985
000060 cd 6b a2 bb 1d 07 04 bc 27 74 80 3b b2 59 02 bc
       -0.0049566985 -0.008058337 0.0039200964 -0.007955955
000070 f2 c6 9b bb 55 77 80 ba 89 f1 8a bb 9b e0 db 3b
       -0.0047539407 -0.0009801189 -0.004240219 0.0067101247
000080 5b 5a 93 3b a9 96 12 3b 15 93 cb 3a 24 9e 8f 3b
       0.004496855 0.0022367632 0.0015531505 0.0043828655
000090 b8 f0 23 3b 4b ea a7 ba 1a 87 60 bb 17 64 a0 3b
       0.0025015306 -0.0012810914 -0.0034260214 0.004894744
0000a0 c1 34 12 3b 44 33 bd 3a db b6 4f 3b 55 4c 98 3b
       0.0022309276 0.0014434834 0.0031694684 0.0046477714
0000b0 7d 51 88 3b 5e e0 8d bb 5d 01 3c b9 c4 cb b8 3b
       0.004160105 -0.004329725 -0.00017929585 0.005639525
0000c0 c8 08 23 3b 6f b8 7a 3b 33 8d b6 3b 8b a3 dc bb
       0.002487706 0.0038256904 0.0055710315 -0.006733363
0000d0 12 b9 a2 bb a7 9f d4 3b f2 14 0f ba e0 27 6a 3a
       -0.0049659098 0.0064887586 -0.0005458138 0.00089323334
0000e0 cf fc c2 3b ca c2 a9 3a d2 6f b9 bb 73 db bb 3a
       0.0059505473 0.0012951728 -0.005659082 0.0014332369
0000f0 42 6a 00 bc 5d c8 af bb 8c c0 ac bb 25 b2 cc 3b
       -0.007837834 -0.0053644613 -0.005271977 0.0062468224
000100 1d 0e 1e bb 9d 08 22 bb b4 52 69 bb 82 02 86 bb
       -0.00241173 -0.0024724372 -0.0035602273 -0.0040896544
000110 93 e7 8d 3b 9d 22 10 bb 7e ea b2 3b 36 1d 33 3b
       0.0043305843 -0.0021993287 0.0054600826 0.0027330643
000120 ab 97 f2 3b e4 58 48 3b a1 ec 0e 3b 9b e1 a6 3b
       0.007403334 0.003057056 0.0021808522 0.0050928122
000130 59 9e eb bb 3f a1 23 bb e1 10 43 bb 33 6f 99 3a
       -0.0071905074 -0.0024967936 -0.00297647 0.0011706114
000140 96 2c ac 3b b8 e6 e7 bb 2d a9 c5 3b b8 47 e7 3b
       0.0052543385 -0.0070770644 0.00603213 0.00705811
000150 58 e6 8d bb 3a d6 a7 bb d4 e7 9c bb 13 71 03 3b
       -0.0043304376 -0.0051219733 -0.0047883783 0.002005641
000160 c1 88 88 bb 61 7c 7d 3b 2d 0f a4 bb 9c 2c c2 3b
       -0.004166693 0.0038678872 -0.005006692 0.005925728
000170 2a 23 db 3b f4 e5 cd 3b f1 3e 0b bb 7b b0 b5 3b
       0.0066875415 0.006283516 -0.0021247233 0.0055447198
000180 ab a4 a4 bb 0f f0 64 bb 13 e7 13 3b 28 a0 58 bb
       -0.0050245128 -0.0034933125 0.002256815 -0.0033054445
000190 ad 44 a8 3b 83 67 23 bb 69 a9 97 3b 7f ab 90 ba
       0.00513514 -0.0024933524 0.0046283496 -0.0011037438
0001a0 ad b5 89 bb 57 92 b8 3b 58 20 a9 3b 7d f9 6f bb
       -0.0042025656 0.0056326794 0.0051613264 -0.0036617212
0001b0 53 dc 64 bb 2d 5b 93 3b b2 57 b6 bb 33 1c 11 3b
       -0.0034921363 0.004496953 -0.0055646533 0.0022142052
0001c0 ae aa 56 3b db 2d 2d ba 3f 10 f5 3b d1 cc 0e 3b
       0.0032755542 -0.0006606259 0.0074787433 0.002178956
0001d0 eb 3f 4a ba 23 6c 58 bb f9 f6 c3 bb 27 d8 52 3b
       -0.0007715213 -0.003302344 -0.005980369 0.0032172294
0001e0 c9 d5 04 3b 88 6e bb bb 37 8c db bb c0 c6 cf 3a
       0.0020269027 -0.0057199635 -0.0067000645 0.0015852079
0001f0 53 67 bf bb e4 7f 8a 3b 09 2a 1e 3b ac 46 84 3b
       -0.0058411746 0.0042266715 0.0024133942 0.004036745

bn.running_mean f4 [128]
000000 9d 7a 59 3d b3 64 7b bd ac 9b 1a bd f3 1e ab bc
       0.05309545 -0.06137533 -0.037746117 -0.020888781
000010 20 94 90 3c 37 79 50 bc 52 69 2d bc 31 7e 09 bd
       0.017648757 -0.012724212 -0.010584192 -0.03356761
000020 a0 e6 27 bb 1c 06 17 bd 8a 01 18 bd f5 fe 75 bc
       -0.002561964 -0.03687106 -0.037110843 -0.0150144
000030 01 6f 08 bb 77 30 32 3d b6 cb 52 bc a6 c5 06 bd
       -0.0020818117 0.04350325 -0.012865951 -0.032903336
000040 6c 33 fa 3c fa e8 bd 3c 2c 32 a2 bc ec f3 9a 3c
       0.030542098 0.023182381 -0.019799314 0.01891514
000050 c4 b8 68 3c 0e 1b fe bc 96 04 fd bc f7 9b 07 3c
       0.014204208 -0.03101876 -0.030885976 0.008276931
000060 d6 d4 0e 3b 09 9d 16 3d 2b 3f 61 bd 13 58 04 bd
       0.002179434 0.036770854 -0.054991882 -0.032310557
000070 9b a9 85 bc 87 c0 b2 bb 66 92 b0 3c 15 89 ad 3c
       -0.016316226 -0.00545508 0.021554183 0.02118353
000080 b7 45 42 bc 87 ee 37 bd 55 68 7b 3b 72 c5 4a 3d
       -0.011857442 -0.04490521 0.0038361747 0.049504705
000090 fe cb 22 bd a4 ef 1e 3c 44 d7 47 3c e5 e5 05 3b
       -0.039745323 0.009700689 0.012197319 0.0020431217
0000a0 ce 42 2c bc ac 20 1e 3c c8 77 cb bc 6f 78 11 3d
       -0.010513974 0.009651344 -0.02483739 0.035515245
0000b0 85 f2 c6 bb f7 b0 1f 3d 42 cb 2d 3d b1 1f 56 3d
       -0.006071391 0.038987126 0.04243017 0.052276317
0000c0 5d 1b d3 3c 94 11 fc bc b6 03 92 bb b2 a6 e1 3c
       0.025769884 -0.0307701 -0.004456009 0.027545307
0000d0 b9 37 43 3d c2 0d 0f bd b1 e3 f6 bc 1f 09 3c 3c
       0.047660563 -0.03492523 -0.030137869 0.011476784
0000e0 b3 07 94 3b b6 7f e9 bb d0 b5 91 3a f0 72 8c bb
       0.0045175194 -0.00712582 0.0011116806 -0.0042861626
0000f0 58 f3 c5 bc 78 17 c7 3c 31 da bd 3c da 3e e9 3c
       -0.024163887 0.024303183 0.02317533 0.028472353
000100 c7 fa 94 3c 29 36 37 bc 72 a7 03 bc ea 75 d4 3c
       0.018185986 -0.011182346 -0.008035528 0.025935132
000110 55 a4 b2 bc 7c d8 a4 bc 4b fd 2c 3c 28 b9 15 bd
       -0.021806875 -0.020122759 0.010558437 -0.036553532
000120 57 9b 7d 3c fe 26 d2 3c ad 21 d3 3c ff 63 48 3d
       0.01547893 0.025653359 0.025772894 0.04892349
000130 30 fc 3f bd ce 1e 7f 3d 7c fc 52 3c e2 f9 c4 bc
       -0.046871364 0.062285237 0.01287758 -0.024044935
000140 91 48 2b 3d ea fc 57 3d 7e bf ea 3b 87 6a 4d 3d
       0.04181725 0.052731432 0.007163941 0.05015042
000150 1f e4 48 bd 9f 2b 1b 3c 9e 29 5b 3c c5 d1 01 bc
       -0.04904568 0.009470849 0.0133766215 -0.007923548
000160 a3 e3 4a 3d 3d 65 db bb 41 7c 01 3d fc 9b 29 bc
       0.049533498 -0.006695418 0.03161264 -0.010352131
000170 dd e2 cf bc 13 e6 83 3d ed ff 35 bc f6 26 0c 3d
       -0.025376732 0.064403675 -0.011108381 0.034216844
000180 f7 dd e1 39 5f 79 a9 3a 77 0e ef bc 55 f9 d1 3c
       0.0004308072 0.0012929848 -0.029181702 0.025631586
000190 bd 18 ce 3c 38 99 20 bd 80 d8 b3 bc e7 01 42 3d
       0.02515828 -0.03920862 -0.021953821 0.047365095
0001a0 4c 9f 3c 3d 29 8e 09 3d 4b 4d 59 3d 72 17 d0 bc
       0.046050355 0.03358284 0.053052228 -0.025401805
0001b0 3d 75 f2 bc b4 93 22 bd 78 9b 2a bd 48 d6 01 3c
       -0.02959692 -0.039691642 -0.041652173 0.007924624
0001c0 0e 8a 91 bc c4 e2 da 3c ee 12 2b bd 4c c0 50 bb
       -0.017766025 0.026719458 -0.0417661 -0.00318529
0001d0 97 00 11 bc 28 54 17 bd 27 a1 05 3c 27 f7 b4 bc
       -0.008850238 -0.036945492 0.0081560975 -0.022090508
0001e0 d6 08 e9 bc da eb f7 3c ea 14 05 3b 40 59 95 bc
       -0.028446596 0.03026383 0.0020306655 -0.018231034
0001f0 e9 0b 10 bd 9a 96 06 bc b6 ed a2 bc 0e 56 76 b8
       -0.03516761 -0.008214617 -0.01988874 -5.8731115e-05

bn.running_var f4 [128]
000000 eb 67 1d 39 24 97 02 39 5b 4e d6 37 76 d1 86 37
       0.00015011399 0.0001245407 2.5547275e-05 1.6071583e-05
000010 0d 64 c2 38 29 fd 00 38 e6 ab bf 38 e7 46 26 39
       9.269277e-05 3.0753352e-05 9.139608e-05 0.00015857407
000020 41 c0 59 37 d6 61 19 39 74 83 64 38 7d aa cd 38
       1.29789705e-05 0.00014627664 5.448186e-05 9.806918e-05
000030 b9 f4 a1 34 ff a9 12 38 cc 61 10 38 73 df bc 38
       3.0166646e-07 3.4967434e-05 3.4423356e-05 9.006159e-05
000040 d9 7b 89 37 70 9d 22 37 ba 71 33 38 31 c7 99 38
       1.6389344e-05 9.692609e-06 4.278284e-05 7.332711e-05
000050 87 d3 c6 36 3b fd 02 39 be 66 0d 39 f8 3a 57 39
       5.925485e-06 0.00012492102 0.00013485082 0.00020525965
000060 b8 4d ca 38 10 33 26 39 1f 8e b0 38 68 96 20 38
       9.646587e-05 0.00015850016 8.418806e-05 3.828705e-05
000070 8a db 02 37 77 b7 6f 37 3c 8b 1d 38 66 8d a2 38
       7.799719e-06 1.4288226e-05 3.756139e-05 7.7510995e-05
000080 2a 5b 0e 39 a9 4f 51 38 dd 90 02 38 f9 c5 5e 38
       0.00013576137 4.9903672e-05 3.112933e-05 5.31133e-05
000090 2f 3d 78 38 7a c2 99 38 5f fa 65 37 10 b4 07 39
       5.918479e-05 7.3318326e-05 1.3707758e-05 0.00012941682
0000a0 ef f8 16 39 42 d4 c6 36 67 7e 0a 38 e0 80 da 37
       0.0001439785 5.92557e-06 3.3019485e-05 2.6047637e-05
0000b0 51 fe 79 38 33 a4 4e 38 86 cc 6a 38 18 07 9a 38
       5.9603077e-05 4.926715e-05 5.5980425e-05 7.3446136e-05
0000c0 ef 76 06 39 e1 c9 55 39 20 b2 dc 37 05 3a 36 38
       0.00012823542 0.00020388469 2.630899e-05 4.3446216e-05
0000d0 0b f6 94 38 41 ce c5 37 5e 86 c7 37 19 f2 c5 36
       7.103019e-05 2.3580275e-05 2.3785218e-05 5.8992414e-06
0000e0 c1 15 09 39 c5 2c ff 38 55 b5 54 38 05 b5 14 39
       0.00013073442 0.000121676865 5.0713617e-05 0.00014181815
0000f0 78 f2 da 38 f8 48 25 37 2e 9d c6 38 30 0f 5d 37
       0.000104402134 9.851756e-06 9.470653e-05 1.3176163e-05
000100 11 92 27 38 c0 51 f3 37 f0 a0 9f 38 53 1a c1 38
       3.9951938e-05 2.9005925e-05 7.611688e-05 9.2078604e-05
000110 c4 43 34 37 ee c9 0b 38 90 b4 35 38 c7 03 d0 38
       1.0744614e-05 3.3328244e-05 4.3321925e-05 9.9189165e-05
000120 c0 48 e9 38 b5 32 df 37 c6 3b 27 38 4c aa d8 38
       0.000111238565 2.6607284e-05 3.987157e-05 0.00010331403
000130 67 40 db 38 e4 8c 5e 39 01 03 73 37 54 b3 3c 39
       0.000104547296 0.00021224056 1.4484628e-05 0.00017995882
000140 6c af f7 37 7b 19 9a 38 66 05 66 36 fb 92 42 39
       2.9526382e-05 7.348038e-05 3.4275813e-06 0.00018556036
000150 a6 51 c9 38 be e8 12 38 00 e2 bb 38 73 79 22 39
       9.599635e-05 3.502587e-05 8.958951e-05 0.00015494767
000160 72 b9 4a 39 1b be d1 36 a0 c3 e9 37 47 16 48 38
       0.00019333305 6.2508166e-06 2.786686e-05 4.7704463e-05
000170 c6 2c d6 37 d9 10 2d 39 7a 26 93 38 68 21 b4 38
       2.5531637e-05 0.00016504842 7.016673e-05 8.589291e-05
000180 5c 66 3f 38 dc 7e 73 38 76 a4 91 37 8d 4d 43 39
       4.563328e-05 5.805386e-05 1.736193e-05 0.00018625539
000190 da c2 7a 37 2a c6 4a 38 ac 5a 56 39 cf 03 60 38
       1.4946529e-05 4.8345108e-05 0.00020442408 5.340931e-05
0001a0 da 31 7a 38 a1 50 c4 37 df 75 41 39 10 cb 2d 37
       5.9651073e-05 2.3402567e-05 0.00018449825 1.0358883e-05
0001b0 3c 15 cd 37 47 bc 81 38 0f ab 1a 39 8e 38 d7 36
       2.4447792e-05 6.186269e-05 0.00014750309 6.414083e-06
0001c0 a4 dd af 38 10 89 15 38 9a dd fc 37 19 53 26 39
       8.385934e-05 3.5652018e-05 3.0143932e-05 0.0001586195
0001d0 ca ae 5f 39 5c 77 54 39 37 58 f1 38 42 00 02 37
       0.00021332051 0.0002026236 0.00011508207 7.748664e-06
0001e0 f0 70 0c 38 16 f4 45 39 36 ab 2f 39 23 e4 b4 37
       3.3483782e-05 0.00018878313 0.00016753082 2.1563907e-05
0001f0 34 4a b8 37 79 22 13 39 14 26 1c 38 1a 1a 29 39
       2.1969063e-05 0.00014031855 3.722876e-05 0.0001612682

bn1.weight f4 [128]
000000 00 00 80 3f 00 00 80 3f 00 00 80 3f 00 00 80 3f
       1.0 1.0 1.0 1.0
000010 00 00 80 3f 00 00 80 3f 00 00 80 3f 00 00 80 3f
       1.0 1.0 1.0 1.0
000020 00 00 80 3f 00 00 80 3f 00 00 80 3f 00 00 80 3f
       1.0 1.0 1.0 1.0
000030 00 00 80 3f 00 00 80 3f 00 00 80 3f 00 00 80 3f
       1.0 1.0 1.0 1.0
000040 00 00 80 3f 00 00 80 3f 00 00 80 3f 00 00 80 3f
       1.0 1.0 1.0 1.0
000050 00 00 80 3f 00 00 80 3f 00 00 80 3f 00 00 80 3f
       1.0 1.0 1.0 1.0
000060 00 00 80 3f 00 00 80 3f 00 00 80 3f 00 00 80 3f
       1.0 1.0 1.0 1.0
000070 00 00 80 3f 00 00 80 3f 00 00 80 3f 00 00 80 3f
       1.0 1.0 1.0 1.0
000080 00 00 80 3f 00 00 80 3f 00 00 80 3f 00 00 80 3f
       1.0 1.0 1.0 1.0
000090 00 00 80 3f 00 00 80 3f 00 00 80 3f 00 00 80 3f
       1.0 1.0 1.0 1.0
0000a0 00 00 80 3f 00 00 80 3f 00 00 80 3f 00 00 80 3f
       1.0 1.0 1.0 1.0
0000b0 00 00 80 3f 00 00 80 3f 00 00 80 3f 00 00 80 3f
       1.0 1.0 1.0 1.0
0000c0 00 00 80 3f 00 00 80 3f 00 00 80 3f 00 00 80 3f
       1.0 1.0 1.0 1.0
0000d0 00 00 80 3f 00 00 80 3f 00 00 80 3f 00 00 80 3f
       1.0 1.0 1.0 1.0
0000e0 00 00 80 3f 00 00 80 3f 00 00 80 3f 00 00 80 3f
       1.0 1.0 1.0 1.0
0000f0 00 00 80 3f 00 00 80 3f 00 00 80 3f 00 00 80 3f
       1.0 1.0 1.0 1.0
000100 00 00 80 3f 00 00 80 3f 00 00 80 3f 00 00 80 3f
       1.0 1.0 1.0 1.0
000110 00 00 80 3f 00 00 80 3f 00 00 80 3f 00 00 80 3f
       1.0 1.0 1.0 1.0
000120 00 00 80 3f 00 00 80 3f 00 00 80 3f 00 00 80 3f
       1.0 1.0 1.0 1.0
000130 00 00 80 3f 00 00 80 3f 00 00 80 3f 00 00 80 3f
       1.0 1.0 1.0 1.0
000140 00 00 80 3f 00 00 80 3f 00 00 80 3f 00 00 80 3f
       1.0 1.0 1.0 1.0
000150 00 00 80 3f 00 00 80 3f 00 00 80 3f 00 00 80 3f
       1.0 1.0 1.0 1.0
000160 00 00 80 3f 00 00 80 3f 00 00 80 3f 00 00 80 3f
       1.0 1.0 1.0 1.0
000170 00 00 80 3f 00 00 80 3f 00 00 80 3f 00 00 80 3f
       1.0 1.0 1.0 1.0
000180 00 00 80 3f 00 00 80 3f 00 00 80 3f 00 00 80 3f
       1.0 1.0 1.0 1.0
000190 00 00 80 3f 00 00 80 3f 00 00 80 3f 00 00 80 3f
       1.0 1.0 1.0 1.0
0001a0 00 00 80 3f 00 00 80 3f 00 00 80 3f 00 00 80 3f
       1.0 1.0 1.0 1.0
0001b0 00 00 80 3f 00 00 80 3f 00 00 80 3f 00 00 80 3f
       1.0 1.0 1.0 1.0
0001c0 00 00 80 3f 00 00 80 3f 00 00 80 3f 00 00 80 3f
       1.0 1.0 1.0 1.0
0001d0 00 00 80 3f 00 00 80 3f 00 00 80 3f 00 00 80 3f
       1.0 1.0 1.0 1.0
0001e0 00 00 80 3f 00 00 80 3f 00 00 80 3f 00 00 80 3f
       1.0 1.0 1.0 1.0
0001f0 00 00 80 3f 00 00 80 3f 00 00 80 3f 00 00 80 3f
       1.0 1.0 1.0 1.0

bn1.bias f4 [128]
000000 00 00 00 00 00 00 00 00 00 00 00 00 00 00 00 00
       0.0 0.0 0.0 0.0
000010 00 00 00 00 00 00 00 00 00 00 00 00 00 00 00 00
       0.0 0.0 0.0 0.0
000020 00 00 00 00 00 00 00 00 00 00 00 00 00 00 00 00
       0.0 0.0 0.0 0.0
000030 00 00 00 00 00 00 00 00 00 00 00 00 00 00 00 00
       0.0 0.0 0.0 0.0
000040 00 00 00 00 00 00 00 00 00 00 00 00 00 00 00 00
       0.0 0.0 0.0 0.0
000050 00 00 00 00 00 00 00 00 00 00 00 00 00 00 00 00
       0.0 0.0 0.0 0.0
000060 00 00 00 00 00 00 00 00 00 00 00 00 00 00 00 00
       0.0 0.0 0.0 0.0
000070 00 00 00 00 00 00 00 00 00 00 00 00 00 00 00 00
       0.0 0.0 0.0 0.0
000080 00 00 00 00 00 00 00 00 00 00 00 00 00 00 00 00
       0.0 0.0 0.0 0.0
000090 00 00 00 00 00 00 00 00 00 00 00 00 00 00 00 00
       0.0 0.0 0.0 0.0
0000a0 00 00 00 00 00 00 00 00 00 00 00 00 00 00 00 00
       0.0 0.0 0.0 0.0
0000b0 00 00 00 00 00 00 00 00 00 00 00 00 00 00 00 00
       0.0 0.0 0.0 0.0
0000c0 00 00 00 00 00 00 00 00 00 00 00 00 00 00 00 00
       0.0 0.0 0.0 0.0
0000d0 00 00 00 00 00 00 00 00 00 00 00 00 00 00 00 00
       0.0 0.0 0.0 0.0
0000e0 00 00 00 00 00 00 00 00 00 00 00 00 00 00 00 00
       0.0 0.0 0.0 0.0
0000f0 00 00 00 00 00 00 00 00 00 00 00 00 00 00 00 00
       0.0 0.0 0.0 0.0
000100 00 00 00 00 00 00 00 00 00 00 00 00 00 00 00 00
       0.0 0.0 0.0 0.0
000110 00 00 00 00 00 00 00 00 00 00 00 00 00 00 00 00
       0.0 0.0 0.0 0.0
000120 00 00 00 00 00 00 00 00 00 00 00 00 00 00 00 00
       0.0 0.0 0.0 0.0
000130 00 00 00 00 00 00 00 00 00 00 00 00 00 00 00 00
       0.0 0.0 0.0 0.0
000140 00 00 00 00 00 00 00 00 00 00 00 00 00 00 00 00
       0.0 0.0 0.0 0.0
000150 00 00 00 00 00 00 00 00 00 00 00 00 00 00 00 00
       0.0 0.0 0.0 0.0
000160 00 00 00 00 00 00 00 00 00 00 00 00 00 00 00 00
       0.0 0.0 0.0 0.0
000170 00 00 00 00 00 00 00 00 00 00 00 00 00 00 00 00
       0.0 0.0 0.0 0.0
000180 00 00 00 00 00 00 00 00 00 00 00 00 00 00 00 00
       0.0 0.0 0.0 0.0
000190 00 00 00 00 00 00 00 00 00 00 00 00 00 00 00 00
       0.0 0.0 0.0 0.0
0001a0 00 00 00 00 00 00 00 00 00 00 00 00 00 00 00 00
       0.0 0.0 0.0 0.0
0001b0 00 00 00 00 00 00 00 00 00 00 00 00 00 00 00 00
       0.0 0.0 0.0 0.0
0001c0 00 00 00 00 00 00 00 00 00 00 00 00 00 00 00 00
       0.0 0.0 0.0 0.0
0001d0 00 00 00 00 00 00 00 00 00 00 00 00 00 00 00 00
       0.0 0.0 0.0 0.0
0001e0 00 00 00 00 00 00 00 00 00 00 00 00 00 00 00 00
       0.0 0.0 0.0 0.0
0001f0 00 00 00 00 00 00 00 00 00 00 00 00 00 00 00 00
       0.0 0.0 0.0 0.0

bn1.running_mean f4 [128]
000000 00 00 00 00 00 00 00 00 00 00 00 00 00 00 00 00
       0.0 0.0 0.0 0.0
000010 00 00 00 00 00 00 00 00 00 00 00 00 00 00 00 00
       0.0 0.0 0.0 0.0
000020 00 00 00 00 00 00 00 00 00 00 00 00 00 00 00 00
       0.0 0.0 0.0 0.0
000030 00 00 00 00 00 00 00 00 00 00 00 00 00 00 00 00
       0.0 0.0 0.0 0.0
000040 00 00 00 00 00 00 00 00 00 00 00 00 00 00 00 00
       0.0 0.0 0.0 0.0
000050 00 00 00 00 00 00 00 00 00 00 00 00 00 00 00 00
       0.0 0.0 0.0 0.0
000060 00 00 00 00 00 00 00 00 00 00 00 00 00 00 00 00
       0.0 0.0 0.0 0.0
000070 00 00 00 00 00 00 00 00 00 00 00 00 00 00 00 00
       0.0 0.0 0.0 0.0
000080 00 00 00 00 00 00 00 00 00 00 00 00 00 00 00 00
       0.0 0.0 0.0 0.0
000090 00 00 00 00 00 00 00 00 00 00 00 00 00 00 00 00
       0.0 0.0 0.0 0.0
0000a0 00 00 00 00 00 00 00 00 00 00 00 00 00 00 00 00
       0.0 0.0 0.0 0.0
0000b0 00 00 00 00 00 00 00 00 00 00 00 00 00 00 00 00
       0.0 0.0 0.0 0.0
0000c0 00 00 00 00 00 00 00 00 00 00 00 00 00 00 00 00
       0.0 0.0 0.0 0.0
0000d0 00 00 00 00 00 00 00 00 00 00 00 00 00 00 00 00
       0.0 0.0 0.0 0.0
0000e0 00 00 00 00 00 00 00 00 00 00 00 00 00 00 00 00
       0.0 0.0 0.0 0.0
0000f0 00 00 00 00 00 00 00 00 00 00 00 00 00 00 00 00
       0.0 0.0 0.0 0.0
000100 00 00 00 00 00 00 00 00 00 00 00 00 00 00 00 00
       0.0 0.0 0.0 0.0
000110 00 00 00 00 00 00 00 00 00 00 00 00 00 00 00 00
       0.0 0.0 0.0 0.0
000120 00 00 00 00 00 00 00 00 00 00 00 00 00 00 00 00
       0.0 0.0 0.0 0.0
000130 00 00 00 00 00 00 00 00 00 00 00 00 00 00 00 00
       0.0 0.0 0.0 0.0
000140 00 00 00 00 00 00 00 00 00 00 00 00 00 00 00 00
       0.0 0.0 0.0 0.0
000150 00 00 00 00 00 00 00 00 00 00 00 00 00 00 00 00
       0.0 0.0 0.0 0.0
000160 00 00 00 00 00 00 00 00 00 00 00 00 00 00 00 00
       0.0 0.0 0.0 0.0
000170 00 00 00 00 00 00 00 00 00 00 00 00 00 00 00 00
       0.0 0.0 0.0 0.0
000180 00 00 00 00 00 00 00 00 00 00 00 00 00 00 00 00
       0.0 0.0 0.0 0.0
000190 00 00 00 00 00 00 00 00 00 00 00 00 00 00 00 00
       0.0 0.0 0.0 0.0
0001a0 00 00 00 00 00 00 00 00 00 00 00 00 00 00 00 00
       0.0 0.0 0.0 0.0
0001b0 00 00 00 00 00 00 00 00 00 00 00 00 00 00 00 00
       0.0 0.0 0.0 0.0
0001c0 00 00 00 00 00 00 00 00 00 00 00 00 00 00 00 00
       0.0 0.0 0.0 0.0
0001d0 00 00 00 00 00 00 00 00 00 00 00 00 00 00 00 00
       0.0 0.0 0.0 0.0
0001e0 00 00 00 00 00 00 00 00 00 00 00 00 00 00 00 00
       0.0 0.0 0.0 0.0
0001f0 00 00 00 00 00 00 00 00 00 00 00 00 00 00 00 00
       0.0 0.0 0.0 0.0

bn1.running_var f4 [128]
000000 00 00 80 3f 00 00 80 3f 00 00 80 3f 00 00 80 3f
       1.0 1.0 1.0 1.0
000010 00 00 80 3f 00 00 80 3f 00 00 80 3f 00 00 80 3f
       1.0 1.0 1.0 1.0
000020 00 00 80 3f 00 00 80 3f 00 00 80 3f 00 00 80 3f
       1.0 1.0 1.0 1.0
000030 00 00 80 3f 00 00 80 3f 00 00 80 3f 00 00 80 3f
       1.0 1.0 1.0 1.0
000040 00 00 80 3f 00 00 80 3f 00 00 80 3f 00 00 80 3f
       1.0 1.0 1.0 1.0
000050 00 00 80 3f 00 00 80 3f 00 00 80 3f 00 00 80 3f
       1.0 1.0 1.0 1.0
000060 00 00 80 3f 00 00 80 3f 00 00 80 3f 00 00 80 3f
       1.0 1.0 1.0 1.0
000070 00 00 80 3f 00 00 80 3f 00 00 80 3f 00 00 80 3f
       1.0 1.0 1.0 1.0
000080 00 00 80 3f 00 00 80 3f 00 00 80 3f 00 00 80 3f
       1.0 1.0 1.0 1.0
000090 00 00 80 3f 00 00 80 3f 00 00 80 3f 00 00 80 3f
       1.0 1.0 1.0 1.0
0000a0 00 00 80 3f 00 00 80 3f 00 00 80 3f 00 00 80 3f
       1.0 1.0 1.0 1.0
0000b0 00 00 80 3f 00 00 80 3f 00 00 80 3f 00 00 80 3f
       1.0 1.0 1.0 1.0
0000c0 00 00 80 3f 00 00 80 3f 00 00 80 3f 00 00 80 3f
       1.0 1.0 1.0 1.0
0000d0 00 00 80 3f 00 00 80 3f 00 00 80 3f 00 00 80 3f
       1.0 1.0 1.0 1.0
0000e0 00 00 80 3f 00 00 80 3f 00 00 80 3f 00 00 80 3f
       1.0 1.0 1.0 1.0
0000f0 00 00 80 3f 00 00 80 3f 00 00 80 3f 00 00 80 3f
       1.0 1.0 1.0 1.0
000100 00 00 80 3f 00 00 80 3f 00 00 80 3f 00 00 80 3f
       1.0 1.0 1.0 1.0
000110 00 00 80 3f 00 00 80 3f 00 00 80 3f 00 00 80 3f
       1.0 1.0 1.0 1.0
000120 00 00 80 3f 00 00 80 3f 00 00 80 3f 00 00 80 3f
       1.0 1.0 1.0 1.0
000130 00 00 80 3f 00 00 80 3f 00 00 80 3f 00 00 80 3f
       1.0 1.0 1.0 1.0
000140 00 00 80 3f 00 00 80 3f 00 00 80 3f 00 00 80 3f
       1.0 1.0 1.0 1.0
000150 00 00 80 3f 00 00 80 3f 00 00 80 3f 00 00 80 3f
       1.0 1.0 1.0 1.0
000160 00 00 80 3f 00 00 80 3f 00 00 80 3f 00 00 80 3f
       1.0 1.0 1.0 1.0
000170 00 00 80 3f 00 00 80 3f 00 00 80 3f 00 00 80 3f
       1.0 1.0 1.0 1.0
000180 00 00 80 3f 00 00 80 3f 00 00 80 3f 00 00 80 3f
       1.0 1.0 1.0 1.0
000190 00 00 80 3f 00 00 80 3f 00 00 80 3f 00 00 80 3f
       1.0 1.0 1.0 1.0
0001a0 00 00 80 3f 00 00 80 3f 00 00 80 3f 00 00 80 3f
       1.0 1.0 1.0 1.0
0001b0 00 00 80 3f 00 00 80 3f 00 00 80 3f 00 00 80 3f
       1.0 1.0 1.0 1.0
0001c0 00 00 80 3f 00 00 80 3f 00 00 80 3f 00 00 80 3f
       1.0 1.0 1.0 1.0
0001d0 00 00 80 3f 00 00 80 3f 00 00 80 3f 00 00 80 3f
       1.0 1.0 1.0 1.0
0001e0 00 00 80 3f 00 00 80 3f 00 00 80 3f 00 00 80 3f
       1.0 1.0 1.0 1.0
0001f0 00 00 80 3f 00 00 80 3f 00 00 80 3f 00 00 80 3f
       1.0 1.0 1.0 1.0

fc2.weight f4 [128, 2]
000000 98 ee e9 3e 43 85 14 3f 02 fa 30 bf c0 cc fc be
       0.45689845 0.5801584 -0.6913148 -0.49374962
000010 2d 25 10 bf 84 dc 1d be 8c 71 64 be e8 9d 39 be
       -0.56306726 -0.15416151 -0.2230894 -0.18126643
000020 eb cd 32 3f 25 a3 cc be ed 31 e2 be 57 7f 62 3e
       0.69845456 -0.3996822 -0.44178715 0.22118889
000030 4a 9f 67 3e 88 4f eb be 46 96 72 bd 96 9f 1d bf
       0.22619358 -0.45959115 -0.059225343 -0.61571634
000040 33 65 49 be 43 2f 25 3e 74 1e 14 be f8 0b 17 bf
       -0.1966751 0.1613131 -0.14464742 -0.5900264
000050 ba 83 c3 be a0 ea ac be da 30 26 3e 15 ca f5 be
       -0.38186437 -0.33772755 0.16229573 -0.4800574
000060 44 6b 6d bc d9 bf d8 bc 6f 75 23 3f 4f 86 41 3e
       -0.014490906 -0.026458668 0.63851064 0.18898891
000070 cc a4 ea be 11 e0 71 3e 01 b5 42 be 8d b1 eb be
       -0.45828855 0.23620631 -0.1901436 -0.46033898
000080 68 e6 11 3f 0c c0 54 3a a8 26 e0 3e 11 c6 a4 bb
       0.569922 0.00081157754 0.43779492 -0.005028494
000090 cb bf 17 bf 24 5a 77 3e 43 32 05 bd 3a 36 d6 3e
       -0.5927703 0.2415548 -0.032518636 0.41838247
0000a0 63 1b 2d 3e 31 ea d5 3d 55 ec 9a bd 86 d9 0b bf
       0.16904978 0.10445059 -0.07564608 -0.5462879
0000b0 6a 64 5a bd 83 5b 11 bf 8d 52 f1 be ce b8 2d 3f
       -0.05331842 -0.5678026 -0.47133294 0.67860115
0000c0 02 c9 e9 3e 57 d5 e6 be 5b 89 f5 3d c4 65 1d 3f
       0.4566117 -0.4508464 0.11989089 0.6148341
0000d0 a3 9f 2b bf 7e 34 c6 be 56 10 b1 be c2 22 8f be
       -0.6704046 -0.38711923 -0.34582776 -0.27956206
0000e0 72 10 47 be b8 3f f5 bd 3c 85 80 be 0e 80 25 3e
       -0.19439867 -0.11975044 -0.2510165 0.1616213
0000f0 38 d6 03 3e 8d 12 98 3e d2 f1 a9 ba 3f 68 dc 3e
       0.12874687 0.29701653 -0.0012965745 0.43048283
000100 24 bb 31 bf 5d 2f 03 3f 94 97 13 bf c1 b3 91 be
       -0.6942618 0.51244146 -0.57653165 -0.28457454
000110 ce 18 31 be 64 c6 87 3e ae 76 2c 3f 60 7a 8b 3e
       -0.17294618 0.26518548 0.6736859 0.27241802
000120 79 71 d7 be 4e a2 b2 be 89 b0 06 3f 2b 6b bf be
       -0.4207876 -0.34889454 0.5261312 -0.3738645
000130 63 06 7d 3d 75 6a 38 3e f9 59 e7 be 30 fe 07 3f
       0.06177367 0.1800936 -0.4518583 0.53122234
000140 a9 fa 2f bf 92 40 08 3f 74 96 81 3e 4c 8e a1 bd
       -0.6874185 0.53223526 0.253101 -0.07888469
000150 39 19 20 bf 61 0f 33 3e b7 e6 fc 3e 57 51 3c 3e
       -0.62538487 0.17486335 0.4939477 0.18390404
000160 e8 78 67 3e b8 6d bc be 4d f8 e2 3e 8d 46 9e 3e
       0.22604716 -0.3680246 0.44330063 0.309132
000170 cc dd fb 3e 3b fe a6 3e 6f b7 25 3f 8f d9 b6 3e
       0.49192655 0.32615837 0.6473302 0.3571286
000180 6d f7 ed bc e5 af 0d 3f f2 1a 8c 3d e3 89 32 bf
       -0.029048646 0.5534652 0.06841077 -0.6974165
000190 80 21 96 be 75 13 69 3e be 62 34 3f 21 dd 52 be
       -0.29322433 0.22761329 0.7046317 -0.20592166
0001a0 ab 16 0d 3f a3 60 bc 3e 93 45 00 bf d7 2e 28 be
       0.55112714 0.36792478 -0.5010616 -0.16424118
0001b0 ef c8 23 bf 30 36 aa 3d 4b a6 e1 3d d9 78 e7 3d
       -0.63978475 0.08311117 0.11018046 0.11302347
0001c0 c4 87 10 3f f2 40 05 bf 16 24 17 bf 43 ca fd 3e
       0.5645716 -0.52052224 -0.5903944 0.49568376
0001d0 aa 7d a5 3e 3d df a7 be 11 6d df 3e fc 53 0f bf
       0.32322437 -0.32787505 0.436379 -0.55987525
0001e0 85 cb 18 3c aa c5 ff be a1 7f c2 3e 58 c6 a4 3d
       0.009325867 -0.49955493 0.37987998 0.080456436
0001f0 65 42 c1 bb 0d 9e f3 3e 5c 6c 01 3f 87 c9 ea 3c
       -0.0058978074 0.4758152 0.5055597 0.028660549
000200 47 27 61 3d 5c 17 9e 3e 5f 72 d2 be 7c 55 60 3e
       0.0549691 0.30877197 -0.41102883 0.2190761
000210 c7 94 01 bf a2 9c c5 3e f0 49 54 3d c9 32 f0 3e
       -0.5061764 0.38596064 0.051828325 0.46913746
000220 a4 2a 95 be 2b e5 00 be 94 27 f1 bd a0 54 8f be
       -0.29134095 -0.1258742 -0.11775127 -0.2799425
000230 ec 5f e8 3e 8b 68 8e be 76 e6 74 be b1 57 f6 be
       0.45385683 -0.27814135 -0.23916039 -0.48113778
000240 f4 61 3a be 93 c6 02 3f a7 e1 1a 3f 6f 83 0b be
       -0.18201429 0.5108425 0.6050057 -0.13624357
000250 00 aa 2a 3f 89 78 4d be 7c a8 f5 3e 3b 10 f1 3e
       0.6666565 -0.20065512 0.47980106 0.47082695
000260 a2 23 de be f0 46 f5 be 3e a9 06 3f 83 fd 30 3f
       -0.4338656 -0.47905684 0.52601993 0.6913683
000270 8d 82 8f 3d f0 4f 3d 3e fe bb 1c 3e 82 28 27 bf
       0.070073225 0.18487525 0.15306088 -0.65296185
000280 8b ce 25 3f 7b 5f 14 3e 26 68 28 3f a3 bc b5 3e
       0.64768285 0.14489548 0.6578392 0.3549548
000290 cf fb 53 3d 6a 47 b6 3d 92 08 a9 3e 23 6d 28 3f
       0.051753815 0.0890034 0.3301435 0.6579153
0002a0 86 97 00 bf 11 d6 e5 be 2b c2 d0 3e 0c 16 80 be
       -0.50231206 -0.44889882 0.40773138 -0.2501682
0002b0 fb c1 1f 3f a9 a5 cf be 87 30 cb 3e 6e 38 17 bf
       0.62405366 -0.40556076 0.3968546 -0.5907048
0002c0 27 e3 9b 3e 58 5a 2c 3f 1d c9 5a be 35 9b c4 3d
       0.3044674 0.67325354 -0.21365781 0.09599916
0002d0 bb 93 2e 3f ec a0 ca bd e6 35 ec 3d f5 5f ab be
       0.6819417 -0.09893975 0.11533718 -0.33471647
0002e0 e8 82 18 bf 48 f9 06 3e 4d 1f 29 3f 0d 9e 16 3f
       -0.5957475 0.13181031 0.66063386 0.58834916
0002f0 2d ad 29 3e ad 2b cf be c4 f4 67 3e 1d 20 e5 3e
       0.16569968 -0.4046301 0.22651964 0.44751063
000300 07 2c 90 be 03 c2 a0 3e b0 f3 b1 3e 0d 80 b3 be
       -0.2815859 0.3139802 0.3475623 -0.35058632
000310 3c a5 13 bf e1 d0 0b 3d cf b5 09 be d2 3a 2a 3f
       -0.57674 0.03413475 -0.1344826 0.66496
000320 be cb a8 3e 7c d9 1b 3e 1a 86 e7 be c8 a2 9b be
       0.32967943 0.15219682 -0.452195 -0.3039763
000330 2c de 6a 3e 86 7d 31 bf 4a 55 1e 3f d9 ec 93 3e
       0.22936314 -0.6933216 0.6184889 0.28891638
000340 25 0e 0f 3f 1d 6a a7 3e aa 9d ee 3e 87 35 33 3e
       0.5588096 0.32698146 0.46604663 0.17500888
000350 61 6c c7 3e 45 00 27 3f 6a cf e3 be fc cd 03 bd
       0.38949874 0.65234786 -0.44494182 -0.032178864
000360 44 7b 23 bf 45 05 be 3d 19 f0 d1 be a1 0b b8 be
       -0.63859963 0.09278349 -0.41003492 -0.35946372
000370 c5 14 70 be 61 ea 16 bf a9 0b 0c 3d 98 d3 fc 3d
       -0.23445423 -0.58951384 0.034190807 0.12345046
000380 fa f8 2d bf fe f1 c0 3e cf 75 29 3f 18 9e 34 be
       -0.67958033 0.37684625 0.66195387 -0.17638433
000390 96 0a 23 bf b6 4d 1f be 3f 90 17 bf 3a c9 13 3f
       -0.6368803 -0.15556988 -0.5920448 0.5772892
0003a0 11 5e f2 3e d7 42 31 bf 00 6f 45 bd ba 32 32 bf
       0.47337392 -0.69242615 -0.04820156 -0.6960865
0003b0 2e 51 a3 be 79 d0 02 3f 71 3d c2 be 67 37 14 bd
       -0.31897873 0.51099354 -0.379375 -0.03618565
0003c0 6a ad 2c bf b2 be 1e 3e 71 39 5c bd 63 d9 2b 3f
       -0.6745211 0.15502432 -0.053765718 0.6712858
0003d0 e2 6f 16 3f 54 8d 18 bf f4 44 0a be c0 3e 64 be
       0.5876447 -0.5959065 -0.13502866 -0.22289562
0003e0 28 04 07 bf 04 f7 0f be 65 60 bb 3e 9d 28 10 bf
       -0.52740717 -0.14059073 0.3659698 -0.5631197
0003f0 cd d8 12 bf 68 3d 60 3e 76 45 0b bf 49 ac 16 3f
       -0.5736206 0.21898425 -0.54402864 0.58856636

actor.linears.0.weight f4 [128, 384]
000000 8d 76 ce bc 32 05 91 3b e8 72 35 3d f5 67 29 bd
       -0.025203014 0.004425668 0.044299036 -0.041358907
000010 41 2c 23 3b 47 ea b2 bc 5a a7 3c bc c9 2f e3 3b
       0.0024898204 -0.021840228 -0.011514509 0.0069331867
000020 c9 73 13 3d a5 ec a2 bc 79 41 f2 3c dd db c6 3c
       0.035999093 -0.019888232 0.029572235 0.02427476
000030 50 24 64 bc 6d cd 55 3d cb 3e a6 bb c4 21 13 3d
       -0.013924673 0.052197862 -0.0050734035 0.035920873
000040 be eb 45 3d 3b fd 82 3c ea a0 76 3c e1 ef cb bb
       0.048320524 0.01598989 0.015053013 -0.006223664
000050 71 c2 68 3d fc b8 e8 ba cc d5 45 bc ca f5 27 3d
       0.05682606 -0.0017755325 -0.012074899 0.041005887
000060 00 bb 12 3d 1d 6e 99 3b 72 c8 85 3c 6c 52 4a 3c
       0.03582287 0.004682316 0.016330931 0.0123487525
000070 9c 79 e5 bc 1a 50 1e 3c f6 38 5c 3b ab 8a 1d 3d
       -0.02801209 0.009662652 0.0033603287 0.038462322
000080 be be ff b9 9b 1b 33 3d d8 ca 26 3d dd 46 c1 bb
       -0.00048779504 0.0437275 0.04072079 -0.00589834
000090 33 89 09 3d 60 34 25 bd de aa ea 3c 71 52 34 3d
       0.03357811 -0.04033315 0.028645929 0.044023935
0000a0 e5 20 7d bc 4d c9 e4 3c 83 4c 43 bd c4 67 0d bd
       -0.015449737 0.027928019 -0.04768039 -0.034522787
0000b0 56 94 48 bb 3b 1e 28 bb 35 8d 65 3d fe 1f ca bc
       -0.0030605993 -0.0025652784 0.05604287 -0.024673458
0000c0 ae 41 79 3c 16 a1 67 bd 70 a6 93 3c ba 57 d4 3b
       0.015213413 -0.056550108 0.0180237 0.0064801844
0000d0 b3 c2 77 3b 95 34 84 bc 85 f4 84 3c d5 3b 6b 3d
       0.0037805259 -0.016138354 0.016229877 0.057430107
0000e0 c8 23 a7 3c 7f d3 2d 3d 59 38 6a bc ac 43 1c bd
       0.020402804 0.042438027 -0.014295661 -0.038150474
0000f0 49 ff 47 3c 2a a4 0f bd f4 f9 32 3c a5 8f 60 3d
       0.012206861 -0.03506867 0.010923851 0.05482449
000100 b3 eb 55 3c dd 96 8b bc 5c 0b d2 3c db be f5 bb
       0.013056683 -0.01703971 0.025640182 -0.0074995584
000110 fb 3c 42 bd 43 96 f6 bc c8 73 09 3d 2a 7c b4 ba
       -0.047421437 -0.030100947 0.033557683 -0.0013769914
000120 4a e6 c6 3b 56 4e 71 3c b3 ec 5e 3d 28 b9 8e bc
       0.006069933 0.014728149 0.054424953 -0.017422274
000130 6e 5a 13 3d f1 30 17 bc 22 d0 13 bd 72 75 67 3c
       0.035974912 -0.009227977 -0.036087163 0.014127122
000140 f3 4b 40 3c bc 11 37 3d e4 15 3c 3c fb 4e 23 bd
       0.011736858 0.044694647 0.0114798285 -0.039870244
000150 52 12 05 3d a5 49 0c 3d 4a 28 a6 3c 1d 2a 11 3d
       0.032488175 0.03424992 0.020282883 0.035440553
000160 16 01 90 3c 17 93 9d bc fd b2 11 3d fa 5c 1c 3c
       0.017578643 -0.019235177 0.035571087 0.009543652
000170 a1 a7 65 bd 75 9d 0d 3d 04 5e d5 3c 81 bf 01 bb
       -0.056068067 0.03457399 0.026045807 -0.0019797983
000180 48 f1 48 bb 33 3f ed 3c eb 2a 8c 3c c2 c0 9f bc
       -0.0030661393 0.0289608 0.017110309 -0.019501094
000190 f9 4e 53 bc 9f 18 1b bd 6f 5a 8b bc 2e 70 00 3c
       -0.0128972465 -0.037865277 -0.017010896 0.007839246
0001a0 78 5d f4 3c 16 5b d3 3c c0 2b f7 3c 91 5b 2f 3d
       0.029829726 0.02580027 0.030172229 0.042811934
0001b0 7e ee a9 bc ed 1e b1 3a 5d f1 1e 3d c9 6b 29 3d
       -0.020743605 0.0013513245 0.0388044 0.041362558
0001c0 80 e0 f0 3a 83 a2 ac bc 91 21 d1 bc 8a 0f 88 3c
       0.0018377453 -0.021073585 -0.025528701 0.016608972
0001d0 dd 90 ac 3b 6f ad 0f 3d d7 a5 8f bc 97 0d 9b 3c
       0.0052662925 0.03507751 -0.017535133 0.018927379
0001e0 33 b7 d8 bc cd 3c 15 3d 21 dc 30 3d 80 bb f2 3a
       -0.026454544 0.036434937 0.04317868 0.0018519014
0001f0 9a 2f 31 bc cc 4f 27 3d 09 cc 48 bd 57 26 3c 3d
       -0.010814572 0.040847585 -0.049022708 0.045935
000200 ad 72 d7 3b e7 13 1f 3d 14 78 71 3a 49 9b 01 3c
       0.0065749497 0.03883734 0.00092113134 0.007910558
000210 fd 9d 49 3d fe 65 31 bc e2 f2 df bc 9a 28 a3 3c
       0.049222935 -0.0108275395 -0.027337495 0.019916821
000220 eb 58 f1 3b 6e 3b 4d 3c 84 83 7d bc 88 13 46 bd
       0.007365336 0.012526376 -0.01547325 -0.04835847
000230 ef 6a 67 3c a4 23 7c bc 30 e2 52 bd 59 e6 14 bd
       0.014124616 -0.015389357 -0.05148524 -0.03635249
000240 8d f3 d0 bb c4 16 37 bd 65 ef 23 3d ea ca 06 3c
       -0.0063766898 -0.044699445 0.040023226 0.008227089
000250 c6 fa 06 bc 83 f9 10 3d c6 05 3f bd 01 6c 38 bd
       -0.0082385 0.035394203 -0.046636365 -0.045024876
000260 a2 ac ca 3c e8 54 15 3d 9e 6c 01 3d 25 1b 97 bb
       0.02474052 0.036457926 0.031597726 -0.00461139
000270 e6 b3 df bc 32 90 9e bc 56 03 2e bd da 65 46 bd
       -0.027307462 -0.019355867 -0.04248365 -0.048436977
000280 e9 82 c2 3c 37 3e 31 3d 1a 5a 4f 3d 29 36 49 3b
       0.023744063 0.043272223 0.050623037 0.0030702448
000290 35 e2 27 bc 82 b1 b9 3c f1 2f a2 3b d7 21 c0 3c
       -0.010246803 0.02266765 0.0049495627 0.023453636
0002a0 7f 57 86 bc ce 36 1c 3b 22 38 00 bb b9 83 a3 bc
       -0.016399143 0.0023836377 -0.0019564708 -0.019960271
0002b0 af cf e3 bc fd 7c 13 bc 11 fe fe bc 18 8a 83 bc
       -0.027808992 -0.0090019675 -0.031127008 -0.01605706
0002c0 f6 95 69 bc 42 04 10 3d 5b ad 2c 3d 2f 3c 97 bc
       -0.014256945 0.03516031 0.042157512 -0.018461315
0002d0 16 85 06 3d 4f 9f 87 bc 8d 33 08 3d 94 c0 5c 3c
       0.032841764 -0.016555456 0.033252288 0.013473649
0002e0 db 9e a5 bc 1a 6c fd bc b5 63 63 bc f4 f4 52 3c
       -0.02021735 -0.030935336 -0.0138787525 0.012875784
0002f0 be 8d 80 bc b9 a1 94 bc f5 17 29 bd f3 92 33 3c
       -0.015692588 -0.018143522 -0.041282613 0.010960328
000300 fa 31 1e bd 86 48 12 bb 86 7e 84 3c 5a 00 ab bc
       -0.03862188 -0.002232106 0.016173612 -0.020874191
000310 f5 53 29 3d 48 d3 3a bd c8 0a 69 bb e0 95 45 bd
       0.041339833 -0.04561165 -0.0035559405 -0.048238635
000320 9a c8 78 3c a4 93 91 3c 0b 68 40 3d 5c a3 09 3d
       0.015184546 0.017770596 0.046974223 0.033603057
000330 4d 70 38 bc cd e9 30 bc 56 9d fd bc 74 53 43 bd
       -0.011257243 -0.01079793 -0.030958813 -0.04768701
000340 fc df 12 3d 61 c0 2f 3d d1 86 92 3c 63 b0 db bc
       0.03585814 0.042908076 0.017886551 -0.026817506
000350 6f 5a 45 bd fa 41 ef 3c d4 3c 6b bc 18 86 96 bc
       -0.048181947 0.029206265 -0.014357764 -0.018374488
000360 73 97 a2 3c e8 58 80 3c 9e 4a 83 bc ba ab 06 3d
       0.019847607 0.015667394 -0.016026791 0.032878615
000370 79 48 2d bd 3b 1c c9 3c 3a 08 23 3d 7d f3 12 3d
       -0.042305443 0.024549594 0.039802767 0.03587674
000380 32 da ab 3c bd 23 39 3c 45 12 3f bd fb 5d 2f 3c
       0.020978067 0.011300025 -0.046648283 0.010703559
000390 b6 1e d0 bb cc d0 23 bd 20 83 2b 3d 15 ad 30 3d
       -0.0063513173 -0.039994046 0.041873097 0.043133814
0003a0 92 6f 36 3d dd 96 20 bd ea 30 a7 3c 76 61 0d 3d
       0.044539995 -0.039206374 0.020409066 0.034516774
0003b0 dd 42 41 bb b7 e8 41 bd 34 4b b7 bb 46 7e 60 3c
       -0.0029489317 -0.047341075 -0.0055936817 0.013701981
0003c0 ac 67 d1 3c c6 0e 00 bd 36 ce d4 3b cc 0d e3 bb
       0.02556213 -0.03126409 0.006494309 -0.006929135
0003d0 97 c3 28 bb 1a 3c 91 3c 41 62 28 3b 9b 60 60 3c
       -0.0025751346 0.017728854 0.002569333 0.013694908
0003e0 ff 60 bc bc e4 f9 a2 3c f6 09 9e 3c 06 8c 74 bb
       -0.02299547 0.019894548 0.01929186 -0.0037314906
0003f0 6f 23 3e bc 96 3f 40 bd 94 ea 70 bc 92 e4 07 bb
       -0.011605128 -0.04693564 -0.014704365 -0.0020735604

actor.linears.0.bias f4 [128]
000000 c6 ba 0a bd 10 b4 40 3d 5d 59 f6 bc 8c 39 c6 3c
       -0.033869527 0.04704672 -0.030071909 0.024197362
000010 85 3a 39 3d 61 4a 30 3c f1 e1 e2 bb 9d 58 bf bc
       0.045221824 0.010759921 -0.006923907 -0.023357684
000020 fc 7d d6 bc 3a 34 1b 3b 36 d1 05 bd df 3b f1 bc
       -0.02618312 0.0023682253 -0.032670222 -0.029447494
000030 3c 09 3a bd 94 e2 18 bd 4c fe 9e 3c aa 91 63 bc
       -0.045418963 -0.037325457 0.019408368 -0.0138897095
000040 5a 51 1d bd 69 29 a4 3a d4 49 0f 3b bd 4c d4 3a
       -0.03840766 0.0012524548 0.0021864073 0.0016197186
000050 48 7b ea 3b 3f 35 5a 3d c8 0a 19 3d 6c bc 30 bd
       0.0071558096 0.053273436 0.037363797 -0.043148443
000060 cd 1e 42 bc e7 b5 60 bd 4b f7 06 bd 35 e9 53 bd
       -0.011848164 -0.054860976 -0.03295068 -0.051736075
000070 2a 87 37 3d 0b a6 db 3c 3b 03 27 bd 36 14 02 bd
       0.044806637 0.026812574 -0.040774565 -0.031757556
000080 e7 2d 09 bd 48 58 b4 ba 0d 77 12 3d 0d 39 c7 3a
       -0.03349104 -0.001375922 0.035758067 0.0015199498
000090 67 b7 3f bd ef 2f 6d bc a7 10 45 bd 4e 29 51 3d
       -0.046805765 -0.01447676 -0.048111584 0.05106478
0000a0 c5 88 47 bd 60 c2 43 3d 0a 19 44 bc 3f 91 3e bd
       -0.048714418 0.047792792 -0.01196886 -0.046525236
0000b0 00 b5 22 bc 3d 5e 13 bd 3d 06 16 bd 5e c2 3c 3c
       -0.009930849 -0.035978545 -0.036627043 0.01152095
0000c0 7a 03 2d 3d 2f 2f fc bc ab 98 f0 bc c1 60 03 3d
       0.042239644 -0.030784218 -0.029369673 0.032074694
0000d0 50 5f de bc e8 08 36 3d f9 49 11 3c 7d 33 1d bd
       -0.027145058 0.044442087 0.008867734 -0.03837918
0000e0 ad 2c b7 bc 67 e8 89 bb 8b 45 3f 3d ca d0 b5 bb
       -0.02236017 -0.0042086127 0.04669718 -0.0055485712
0000f0 a8 8c 22 bc 5e 6a 89 3c 94 7b 0c bc b5 31 20 3d
       -0.00992123 0.016774353 -0.008574385 0.039109904
000100 39 03 36 bd ae 7d 3a bd 8d fb c9 bc 8c c3 1b 3d
       -0.044436667 -0.045530014 -0.024656082 0.038028285
000110 f7 2d 18 bd 5d d5 1f bd d6 da f0 3b 6f 1a d6 3c
       -0.03715321 -0.03902184 0.007350306 0.026135651
000120 03 b4 25 3d 9c be d5 3c 7a c2 2e 3d 98 d4 85 bc
       0.040454876 0.026091866 0.042665936 -0.016336724
000130 80 2d fd bc 61 c2 40 bc 87 b0 8f bc 69 4d 34 3d
       -0.030905485 -0.011765094 -0.01754023 0.044019137
000140 41 32 00 3d 68 45 46 3c fa ad 8a bc cc cc 7d bc
       0.031297926 0.012101509 -0.016928662 -0.015490722
000150 49 26 b2 3c 6b 19 ae 3c 71 7b d0 3c 42 ce df bc
       0.021746771 0.021252355 0.025449486 -0.027320031
000160 73 12 f9 bc 7b b6 38 bd 98 67 39 3d 76 90 60 3c
       -0.030404305 -0.045095902 0.04526481 0.013706317
000170 e3 5f 3a bd 38 bc 88 bc 9c 02 30 3d 5a 01 36 3d
       -0.0455016 -0.016691312 0.04297124 0.044434883
000180 6d e2 95 bc 26 04 18 3d 26 c5 a2 3c 56 53 22 3d
       -0.018296445 0.03711333 0.019869398 0.039630257
000190 e9 ab 48 3d 32 2a c6 3c 08 73 b0 bc 4c a9 45 bc
       0.04899207 0.024190042 -0.021539226 -0.012064289
0001a0 cd 4b 90 3a 6d ce ed 3c a4 6d 58 39 ab 16 2c bd
       0.0011008919 0.029029096 0.0002064021 -0.042013805
0001b0 6b 40 34 3c d0 e9 20 3b b4 dd b5 3c a9 8e 0d 3d
       0.011001687 0.0024553426 0.022200443 0.03455988
0001c0 bc f1 c0 3c 1d ce d0 3a 14 4f e8 bc ed f3 c5 3c
       0.023552768 0.0015930567 -0.02835802 0.024164164
0001d0 5a 20 cf bc f1 09 0c bd 28 33 2b 3d dc ae 2e bd
       -0.025283981 -0.03418917 0.041796833 -0.042647228
0001e0 61 e0 d8 bb d7 05 eb bc 3a c8 25 bc 17 d6 37 3d
       -0.006618545 -0.028689308 -0.0101185385 0.044881906
0001f0 a6 e0 a1 bc 06 ad 2b bd f4 c2 8f 3b 3b b0 75 3c
       -0.019760441 -0.041913055 0.004387254 0.01499563

actor.linears.1.weight f4 [128, 128]
000000 f6 d2 66 3d f6 a2 c1 bc 3c f4 57 3d 0d 27 4d 3d
       0.05635353 -0.023637276 0.052723154 0.05008607
000010 9b 32 af 3c 18 d6 0c bd d8 ec 16 bd ac d1 f5 bc
       0.021386435 -0.034383863 -0.036846966 -0.030007206
000020 4a 2d a1 3d b4 cd a9 3c ca 1e 61 bd 36 c2 7c 3d
       0.07869966 0.02072797 -0.054961003 0.06170865
000030 60 cc 82 3c 1b 4e b1 bc 05 d4 b2 3c 6c e5 9b 3d
       0.015966594 -0.021643689 0.021829614 0.07612118
000040 3e 1f 0f 3d 27 0c 49 3d cf 36 8d 3d 2f 1f 71 3c
       0.034941904 0.049083855 0.068952195 0.014716907
000050 53 88 15 3d d6 cb 41 bd 9f a9 49 3d 42 f0 0e bd
       0.036506962 -0.047313534 0.04923403 -0.034897096
000060 b7 1e 76 bd f4 0c 14 3d 90 35 af 3d 2c b0 ff bc
       -0.060087886 0.036145166 0.08555138 -0.031211935
000070 9a 7e 72 bc 6f f6 82 3d ea 25 53 3d ef fe 1f 3d
       -0.014800692 0.0639466 0.05154983 0.039061483
000080 db 99 a3 bc 42 85 28 3d 33 0b 0a bd de 46 f0 3c
       -0.019970825 0.04114271 -0.033702087 0.029330667
000090 12 a5 85 bd 6b 7e 9e 3d e5 c0 8a 3c e7 18 f4 bc
       -0.06525625 0.07738956 0.016937682 -0.02979703
0000a0 4d 75 94 3d 48 35 6b bd dc a4 85 bd 26 28 fb bc
       0.07248936 -0.05742386 -0.06525585 -0.030658793
0000b0 4c 9c 5d bd 7d 51 8f 3b e6 84 cd bb f3 a7 b4 3c
       -0.054104134 0.004373728 -0.0062719462 0.02205274
0000c0 09 47 2e 3d bc 57 e9 bc 97 41 a5 3d 61 12 74 3d
       0.042548213 -0.028484218 0.08069151 0.05958784
0000d0 69 96 3a bd 62 c8 b5 3d a0 6e 58 bb 0e e1 b7 3d
       -0.0455536 0.088761106 -0.0033024922 0.08978473
0000e0 d8 a5 68 bd 4c 77 e1 bc aa e3 b9 3b a4 06 5c 3d
       -0.056798786 -0.027522705 0.0056728916 0.05371727
0000f0 81 fd 40 bd fa 0e 97 bd 49 80 ab bd 3c e8 8e 3d
       -0.04711676 -0.073759034 -0.08374078 0.06977889
000100 4c 6b 87 bd e1 72 92 bd e7 87 1c 3d d6 e5 b2 3c
       -0.06612262 -0.07150818 0.038215544 0.02183811
000110 2b 0d 55 bd 6f a9 a3 bd 79 8f 0c 3d fc a5 a2 3d
       -0.05201451 -0.07991301 0.034316514 0.07941815
000120 2d b2 36 3d 7d be 81 3d 90 b6 3d bd 60 6d 9a 3d
       0.044603515 0.06335161 -0.046316683 0.07540393
000130 3a 5f 29 bd f8 59 01 bd a3 a1 0f bb 34 c4 fe bb
       -0.04135058 -0.03157994 -0.0021916411 -0.007774854
000140 5b 63 31 bd 97 bd d3 bc 28 14 a5 bd 76 a6 d2 bc
       -0.043307643 -0.02584724 -0.08060485 -0.02571414
000150 8d b6 a2 bb 5f 1a f0 3c c0 0c ae bc cb 44 81 3d
       -0.0049656094 0.02930945 -0.021246314 0.06311949
000160 de ce 98 bd 56 6e 6a bc 9a 01 b8 3d 5f 11 b9 bc
       -0.07461332 -0.014308533 0.089846805 -0.022591291
000170 57 9c 91 bd 78 99 bb bd 84 32 21 bd e1 62 47 3c
       -0.071098976 -0.09160131 -0.039354816 0.012169571
000180 c6 9e a1 bc f6 cb 80 bc e1 e6 2b bd fc 58 33 3c
       -0.01972903 -0.015722256 -0.04196823 0.0109465085
000190 fc 9f 72 3d ad 31 a7 bc 31 a4 3b bc 64 41 0f 3c
       0.059234604 -0.02040943 -0.0114527205 0.008743618
0001a0 90 46 ad 3d e6 55 7f 3d c0 94 09 bd 6c ba e8 3c
       0.08460724 0.06233778 -0.033589125 0.028409205
0001b0 d9 40 ac 3d 6f 5c 7f 3d bd be 57 bd bd 27 49 bd
       0.08410806 0.06234401 -0.052672137 -0.049110163
0001c0 4e f5 9b bc 18 07 30 3d 58 c1 08 3d cd 1a 38 bc
       -0.019037869 0.042975515 0.033387512 -0.011236859
0001d0 e8 94 f4 3c a3 90 f1 bc df 60 78 bc fe cc 65 bd
       0.02985616 -0.029487913 -0.015159815 -0.0561037
0001e0 2b cc 77 bd 8a 0b 94 bd 76 a9 93 bd df ea 88 bd
       -0.060497444 -0.072287634 -0.072100565 -0.06685423
0001f0 dc a5 2b bd 60 f5 81 bd 30 f6 77 bb 35 60 5c 3b
       -0.041906223 -0.0634563 -0.0037835948 0.003362668
000200 ac fc e7 3c 17 d5 5c bc c0 20 8a bd 82 c2 8f bc
       0.028318726 -0.013478539 -0.06744528 -0.017548803
000210 d3 5f 9c bd ee f1 9f bd de 48 79 bd ff 97 12 bd
       -0.076354645 -0.07809816 -0.060860507 -0.035789486
000220 a3 41 6b bd 28 8c 80 bd c9 3c 66 3d 86 6d 99 bd
       -0.057435643 -0.06276733 0.056210313 -0.07491593
000230 e8 36 29 bd 96 e1 91 bb 65 07 ad 3d 05 37 a5 3d
       -0.04131213 -0.004451941 0.08448676 0.08067135
000240 85 d5 a4 3d 9e ab 2f bd b6 39 84 3d ca 0c 36 3d
       0.08048538 -0.042888276 0.0645632 0.04444579
000250 e4 7b f9 3c 4a 53 74 bd 4f 80 12 bd 05 80 04 3c
       0.030454583 -0.059649743 -0.035766896 0.008087163
000260 b7 36 6b 3d 6b 5b c9 bc 45 f6 93 3d 58 f6 80 bd
       0.057425227 -0.024579724 0.072247066 -0.06296986
000270 49 a8 c8 bc f1 10 c8 bc 9d 3f a8 3d dd bd 7a 3d
       -0.024494307 -0.02442214 0.08215258 0.061216224
000280 6c 00 04 bd c4 26 83 3d a1 e6 a4 3d dc e0 ba bd
       -0.032226965 0.06403878 0.080518015 -0.0912492
000290 db 52 31 3d db af 53 bd 61 34 1d 3d 94 95 0f 3d
       0.043291908 -0.05168138 0.03838003 0.03505476
0002a0 4d 4f 9a 3d 88 09 a6 bd b1 b8 96 bd dc 81 95 3d
       0.07534657 -0.08107287 -0.07359446 0.07300159
0002b0 59 ca 20 bd c1 c3 a6 bc 5a ea a7 3d a9 8b 66 3d
       -0.039255474 -0.020357015 0.08198996 0.056285534
0002c0 27 11 4e bd fd 7c 0a bd b8 ce a3 bd 82 9b 8a 3d
       -0.050309326 -0.033810604 -0.07998413 0.06767942
0002d0 8d a9 84 3d c8 31 8a 3c f8 cc b1 3c d0 46 a9 3d
       0.06477652 0.01686944 0.021704182 0.082654595
0002e0 e6 3b ca 3c 34 2b f8 3c eb ed 9c 3c b3 fa aa bb
       0.024686765 0.030294038 0.019156417 -0.005217874
0002f0 57 6a 05 bd a2 96 ac bd 2d 31 6f 3d 2b 55 5b bc
       -0.032572117 -0.084271684 0.058396507 -0.013387005
000300 a0 ce 0b bd ad ca 2b 3d 91 c4 96 bc ba af be bc
       -0.0341326 0.041941334 -0.018404277 -0.023277152
000310 76 27 2c 3d 25 e7 50 3d da ee 0a 3d f2 c2 a7 3c
       0.04202982 0.051001687 0.033919193 0.0204787
000320 f7 1e 6f bd 63 4e ba bd 32 14 82 3d fc 2e 96 bc
       -0.05837914 -0.09096982 0.06351508 -0.01833295
000330 a5 9d 42 3d ef b6 b1 bd 1b 76 f1 bc 45 fc 00 3c
       0.047513623 -0.0867747 -0.029475262 0.007872646
000340 11 d6 61 bd e4 f9 c4 bc f7 27 0a bd 7a d3 56 bd
       -0.05513579 -0.024044938 -0.03372952 -0.052447774
000350 6f ec 77 bc 03 16 af bc 82 7a 95 3d 80 86 9d 3d
       -0.015132054 -0.0213728 0.07298757 0.076916695
000360 86 c4 1f bd 55 cb 6c 3c 03 f4 2b 3c 7d 39 9b bd
       -0.03900578 0.014452775 0.010495189 -0.075793244
000370 a4 f2 88 3d 66 c9 98 bb 71 dd da bc 4c 91 05 bd
       0.06686905 -0.0046626804 -0.02671692 -0.03260927
000380 e0 6e 93 3d a6 41 9d 3d 01 13 89 bd 2a 7e 88 bd
       0.07198882 0.07678537 -0.06693078 -0.06664689
000390 33 0a 45 3d 96 0b 49 3d 1a a2 8a bc 73 dd ea bc
       0.04810543 0.049083315 -0.016923 -0.028670048
0003a0 ea 28 00 bc 58 e1 a2 bd e7 1e 2b 3c 6f 7c a8 3d
       -0.007822255 -0.07953137 0.010444379 0.08226859
0003b0 ee f3 9f bd ec cc 13 3d f2 42 c8 bc 32 1a 73 bd
       -0.07810198 0.0360841 -0.024445985 -0.059351154
0003c0 2c e8 5d 3c 6a 89 38 bd 96 0a a4 3d ac 07 ad 3c
       0.013544124 -0.045052923 0.080098316 0.021121822
0003d0 58 cb 5a 3d 74 c0 a9 bd 91 a2 89 bc 8a a2 9c bd
       0.05341658 -0.08288661 -0.01680115 -0.07648189
0003e0 2b 0a b7 bd e0 21 2a 3d 3c 50 ac bc cc 72 43 bc
       -0.08937486 0.041536212 -0.021034352 -0.011929225
0003f0 2d d9 c0 bd 81 0e b1 bb a7 65 8c 3d 66 d4 2c bd
       -0.09416423 -0.0054033403 0.06855326 -0.042194746
