FJSP_MultiPPO/saved_network/FJSP_J100M405/best_value00/policy_mch.pth (torch_old, 271482 bytes, 14 tensors)

bn.weight f4 [128]
0.99771595 1.0075527 0.99675506 1.0065496 0.99822986 0.9981595 1.0017241 1.0009662
0.99962276 1.0018259 1.0066313 1.0038104 1.0065829 0.99711305 0.9953924 1.0019565
0.9998973 0.99600095 1.0005671 0.9954549 0.99440485 0.99781966 0.9948904 0.99687266
1.0039845 1.0024588 0.9994371 1.007281 1.0059536 1.0040247 1.00034 1.0087099
1.0040683 0.9930276 0.9965626 1.0043432 1.0050182 0.99747336 0.9947292 0.9993218
0.9989231 1.0061986 0.99740636 1.0039575 0.99979496 0.9931265 1.0057992 0.9975207
1.0017695 0.9983065 0.99554515 0.9984354 0.99866587 0.998902 0.9951454 0.99751896
1.0041193 0.9985282 1.006653 0.99478877 1.0011554 0.99354464 1.0042766 0.99792653
1.0067313 1.005251 0.99674594 1.005745 1.0045613 1.0054365 0.9988812 1.0060222
0.99876654 1.0007735 0.99499106 0.9968406 0.99394405 0.9904556 0.9938249 1.0035818
1.0058268 1.000098 0.9958481 0.99958056 0.9994335 1.0022353 0.9937474 0.9979935
0.99794304 0.99645466 1.0072418 1.0006996 1.0059879 0.9955769 0.99677634 0.9958909
0.99756235 0.9946935 0.99539655 1.0020204 0.99794143 1.0024388 1.0009048 1.0013783
0.99682075 0.9935926 0.99303323 0.99779767 0.99667674 1.0000472 1.0039527 0.99532646
1.0008034 0.9976906 0.9997763 0.9953718 0.9981491 1.0008154 1.0042205 0.99510264
0.9962503 1.0069617 0.9966907 0.997502 0.9952767 0.9923017 0.99337184 0.9968687
00000000: 506a 7f3f 7df7 803f 572b 7f3f 9ed6 803f
00000010: fe8b 7f3f 6287 7f3f 7f38 803f a91f 803f
00000020: 47e7 7f3f d53b 803f 4bd9 803f dc7c 803f
00000030: b5d7 803f cd42 7f3f 09d2 7e3f 1c40 803f
00000040: 45f9 7f3f ebf9 7e3f 9512 803f 22d6 7e3f
00000050: 5191 7e3f 1c71 7f3f 23b1 7e3f 0c33 7f3f
00000060: 9082 803f 9250 803f 1cdb 7f3f 95ee 803f
00000070: 16c3 803f e283 803f 240b 803f 681d 813f
00000080: 4f85 803f 0f37 7e3f ba1e 7f3f 518e 803f
00000090: 70a4 803f 6a5a 7f3f 93a6 7e3f 8ed3 7f3f
000000a0: 6db9 7f3f 1ecb 803f 0656 7f3f ae81 803f
000000b0: 90f2 7f3f 8a3d 7e3f 07be 803f 845d 7f3f
000000c0: fc39 803f 0491 7f3f 0cdc 7e3f 7699 7f3f
000000d0: 91a8 7f3f 0bb8 7f3f d9c1 7e3f 675d 7f3f
000000e0: fb86 803f 8b9f 7f3f 01da 803f 7aaa 7e3f
000000f0: dc25 803f f158 7e3f 238c 803f 1d78 7f3f
00000100: 92dc 803f 11ac 803f be2a 7f3f 41bc 803f
00000110: 7795 803f 25b2 803f aeb6 7f3f 56c5 803f
00000120: 2aaf 7f3f 5919 803f bcb7 7e3f f230 7f3f
00000130: 1e73 7e3f 808e 7d3f 4f6b 7e3f 5e75 803f
00000140: efbe 803f 3603 803f e7ef 7e3f 83e4 7f3f
00000150: e0da 7f3f 3f49 803f 3b66 7e3f 817c 7f3f
00000160: 3279 7f3f a717 7f3f 4ded 803f ed16 803f
00000170: 36c4 803f 21de 7e3f bc2c 7f3f b5f2 7e3f
00000180: 3f60 7f3f 3ca4 7e3f 4fd2 7e3f 3442 803f
00000190: 1779 7f3f ea4f 803f a61d 803f 2a2d 803f
000001a0: a52f 7f3f 165c 7e3f 6d37 7e3f ab6f 7f3f
000001b0: 3526 7f3f 8c01 803f 8681 803f b7cd 7e3f
000001c0: 531a 803f a768 7f3f 57f1 7f3f b0d0 7e3f
000001d0: b386 7f3f b81a 803f 4c8a 803f 0cbf 7e3f
000001e0: 420a 7f3f 1fe4 803f 1f27 7f3f 4b5c 7f3f
000001f0: 74ca 7e3f 7c07 7e3f 9e4d 7e3f ca32 7f3f

bn.bias f4 [128]
-0.0067198128 -0.0055638654 -0.0019196491 0.0053190985 0.00013689647 0.0059277695 -0.001089689 -0.0070285024
-0.0069992635 0.004362685 0.009083824 -0.00096855155 -0.006372777 0.005490046 0.0037094872 0.009272896
-0.0050915447 -0.0013584698 -0.0067925733 0.0028071555 0.0057421406 -0.0013032012 0.001033677 -0.0043808497
-0.004216085 0.0011693063 -0.00534853 -0.0029095118 -0.008101096 -0.0055321422 -0.0003479021 -0.009714505
0.0015493248 0.01003541 -0.005857209 -0.0057602166 0.0011674698 -0.0060912822 0.00023005219 0.0026168283
0.0064190556 0.0021317597 -0.0066914354 -0.006935793 -0.004780786 0.0027067983 0.0052779736 0.00566216
-0.00718395 0.0013948539 -0.009002103 0.0007876844 0.002467892 0.0055458248 -0.0061573316 0.007000179
-0.00071264594 0.0037212265 0.0051767165 0.008215762 0.00022305518 0.007148512 0.0026993575 0.0009399921
-0.0029549915 0.005027122 -0.0018626293 -0.0042500016 -0.007989288 0.00068189285 -0.007699261 0.00037396286
0.0026623649 -0.004292555 -0.0040673804 -0.004635984 0.0002548899 -0.0031851358 0.007365926 0.007142663
-0.006179402 0.0009372931 -0.0035470442 0.007811049 0.0019245339 0.004155074 0.0030288906 -0.0049402444
-0.0052146697 -2.9647232e-05 -0.0005633614 0.0067042476 0.0051438096 0.009413136 -0.0060863825 0.0042226454
-0.005275492 0.006455063 -0.0020385128 -0.0048667253 -0.0043406603 0.004992594 -0.0061665773 0.005359278
-0.0039112875 -0.00635978 0.0019293966 -0.0018534503 -0.0008926721 -0.0040343828 -0.002116908 -0.007334536
-0.0054221335 0.0022012992 0.0056672837 0.007936951 -0.008062243 -0.00557777 0.0047329864 -0.0058547477
-0.003896653 -0.0004363877 0.001151811 0.0021346197 0.0028327417 -0.0033860784 0.0063921367 -0.002080637
00000000: e031 dcbb 1651 b6bb bc9c fbba d54b ae3b
00000010: de8b 0f39 bc3d c23b e5d3 8eba 5a4f e6bb
00000020: 145a e5bb dbf4 8e3b 52d4 143c 65e6 7dba
00000030: bad2 d0bb d8e5 b33b de1a 733b 58ed 173c
00000040: f9d6 a6bb af0e b2ba 3c94 debb 41f8 373b
00000050: 9128 bc3b 2dd0 aaba 727c 873a 3b8d 8fbb
00000060: 1627 8abb 6943 993a b942 afbb 82ad 3ebb
00000070: 76ba 04bc f946 b5bb a166 b6b9 9629 1fbc
00000080: b712 cb3a 8f6b 243c d5ed bfbb 33c0 bcbb
00000090: c905 993a 6199 c7bb 2a3a 7139 187f 2b3b
000000a0: f156 d23b feb4 0b3b d443 dbbb a645 e3bb
000000b0: 24a8 9cbb 8a64 313b daf2 ac3b a489 b93b
000000c0: 5767 ebbb 88d3 b63a 8e7d 13bc 9b7c 4e3a
000000d0: 5bbc 213b c0b9 b53b 71c3 c9bb c261 e53b
000000e0: dcd0 3aba d2df 733b 72a1 a93b 679b 063c
000000f0: ebe3 6939 113e ea3b b4e7 303b cd69 763a
00000100: 88a8 41bb 8eba a43b 7823 f4ba 9943 8bbb
00000110: 81e5 02bc 0ec1 323a 154a fcbb 7210 c439
00000120: 127b 2e3b 90a8 8cbb a947 85bb 74e9 97bb
00000130: bea2 8539 b6bd 50bb de5d f13b 000d ea3b
00000140: 957c cabb adb4 753a 8775 68bb d4f3 ff3b
00000150: a440 fc3a 4927 883b 5a80 463b c6e1 a1bb
00000160: d2df aabb f2b2 f8b7 8bae 13ba 4eaf db3b
00000170: 678d a83b 8e39 1a3c 4770 c7bb 1e5e 8a3b
00000180: 09de acbb fe84 d33b 9298 05bb 0d79 9fbb
00000190: 193c 8ebb ea98 a33b 0011 cabb e29c af3b
000001a0: 422a 80bb b465 d0bb cfe3 fc3a 79ef f2ba
000001b0: 3602 6aba db32 84bb d3bb 0abb 8c56 f0bb
000001c0: 27ac b1bb ac43 103b 9fb4 b93b fc09 023c
000001d0: 8017 04bc bac5 b6bb 2b17 9b3b 2fd9 bfbb
000001e0: fd5e 7fbb f7ca e4b9 5df8 963a fae4 0b3b
000001f0: 85a5 393b f8e8 5dbb 2175 d13b 4c5b 08bb

bn.running_mean f4 [128]
0.019321844 -0.08436002 -0.049959037 -0.061480463 -0.023470795 0.054936804 0.021635162 -0.00606282
-0.014484753 -0.042827483 -0.051265657 0.04245117 0.08819778 0.0683249 0.043594625 -0.064133644
-0.048475325 -0.08106512 0.06304004 0.07867294 0.05681511 -0.0339068 -0.08217747 0.04847617
0.001910964 0.07263919 -0.03739167 -0.0946715 0.069456354 -0.05107308 -0.08134689 0.04054399
0.09151975 0.07648287 -0.047420993 0.013329225 0.032058507 -0.063224554 0.10426183 -0.072042815
-0.000946387 -0.022138635 0.052239407 -0.0037854728 0.073573805 0.0826835 -0.016355239 0.09153186
0.07563107 -0.053350065 -0.09486298 0.09315686 -0.013388895 0.011441286 -0.0450831 0.004310193
-0.0044710157 -0.0133965835 -0.06891483 0.117143564 0.004864287 0.009276129 0.06158812 0.060879078
0.06163849 0.07135447 0.003224201 0.018216517 0.104032725 -0.043621484 -0.088921 0.04754505
-0.021321457 -0.024315758 0.049382042 0.07514575 0.02416647 -0.025994342 0.02990481 0.074818216
-0.03847417 -0.0002666775 -0.09535262 0.052331656 0.039661642 -0.07415353 0.030210735 0.08693613
-0.08378368 -0.027125046 0.018025544 -0.05565968 -0.06265488 0.008681411 -0.05863475 -0.011655562
0.0611204 0.06560784 -0.003198005 0.0041106143 0.0035120784 0.028545616 -0.022906382 -0.0034706604
0.032383025 -0.02963609 0.041890435 0.04447353 0.04527776 0.030643066 0.053277038 -0.04273929
0.028364478 -0.04714887 -0.023301225 -0.08918625 -0.038853824 0.01850748 -0.11396662 -0.042641517
0.0066550155 0.10291417 -0.09578331 -0.05812508 0.0027094851 -0.0057146763 0.03737094 0.08174177
00000000: d848 9e3c f2c4 acbd d9a1 4cbd f0d2 7bbd
00000010: d345 c0bc 6a05 613d 393c b13c 9faa c6bb
00000020: 7551 6dbc df6b 2fbd f0fb 51bd 47e1 2d3d
00000030: 0aa1 b43d eded 8b3d 4790 323d 8058 83bd
00000040: 108e 46bd 7805 a6bd 231b 813d 471f a13d
00000050: f6b6 683d dbe1 0abd a94c a8bd f38e 463d
00000060: 5079 fa3a dbc3 943d 0228 19bd 22e3 c1bd
00000070: 223f 8e3d 0232 51bd 3399 a6bd 7411 263d
00000080: b56e bb3d 0da3 9c3d 843c 42bd d262 5a3c
00000090: c84f 033d e07b 81bd 3a87 d53d 2f8b 93bd
000000a0: f516 78ba 155c b5bc fdf8 553d b215 78bb
000000b0: ddad 963d f855 a93d 6cfb 85bc 0e75 bb3d
000000c0: 76e4 9a3d 9985 5abd 8647 c2bd 06c9 be3d
000000d0: 195d 5bbc 3b74 3b3c 0fa9 38bd 853c 8d3b
000000e0: 9981 92bb 587d 5bbc 3823 8dbd f7e8 ef3d
000000f0: 9964 9f3b e8fa 173c d343 7c3d 575c 793d
00000100: a478 7c3d 4b22 923d 1e4d 533b ce3a 953c
00000110: 1c0f d53d 71ac 32bd 371c b6bd 99be 423d
00000120: 56aa aebc d731 c7bc d344 4a3d 04e6 993d
00000130: c3f8 c53c 16f2 d4bc effa f43c 4b3a 993d
00000140: 1797 1dbd d9d0 8bb9 3c48 c3bd b859 563d
00000150: 3f74 223d cedd 97bd 817c f73c 920b b23d
00000160: c796 abbd 5835 debc 4eaa 933c 68fb 63bd
00000170: 3451 80bd 7a3c 0e3c fe2a 70bd f8f6 3ebc
00000180: 6259 7a3d 675d 863d 9f95 51bb 55b2 863b
00000190: e62a 663b 7fd8 e93c 2aa6 bbbc 0574 63bb
000001a0: 10a4 043d 63c7 f2bc 4e95 2b3d e029 363d
000001b0: 2c75 393d 2b07 fb3c 0639 5a3d 650f 2fbd
000001c0: 9f5c e83c 2c1f 41bd 36e2 bebc 48a7 b6bd
000001d0: 3025 1fbd 009d 973c 5567 e9bd dfa8 2ebd
000001e0: 5112 da3b aac4 d23d 0a2a c4bd 9014 6ebd
000001f0: 9e91 313b 2e42 bbbb 4512 193d 3b68 a73d

bn.running_var f4 [128]
3.0850246e-05 0.00016880578 2.3918254e-05 0.00012679757 8.970706e-05 0.0001495302 4.7630016e-05 0.00017855673
9.789766e-06 1.5762049e-05 2.2341153e-05 0.00011296461 0.00020196462 4.557465e-05 8.2181105e-05 7.4421376e-05
2.2429227e-05 5.8796384e-05 3.009861e-05 9.494981e-05 5.6235516e-05 0.00015249415 5.0553925e-05 1.7567605e-05
8.438695e-05 0.00012487441 0.00010361317 0.0001331393 8.263302e-05 9.274565e-05 4.9594717e-05 2.2990393e-05
0.0002361463 0.00012329024 1.9677173e-05 0.00015584427 0.00015136918 3.2159667e-05 0.00012279113 3.9109615e-05
0.00010026606 0.00013316722 0.00022977775 0.00019783867 0.0001630538 7.2155104e-05 1.470092e-05 8.3470506e-05
4.615136e-05 4.793769e-05 0.0001526136 8.519219e-05 6.6487364e-06 5.7630463e-05 7.3057425e-05 3.349118e-05
7.888353e-05 9.305753e-05 0.0001710477 0.00014443597 2.2463875e-05 7.494571e-07 0.0002754076 0.000108153065
4.999807e-05 0.00022141973 4.615056e-05 2.0733416e-05 0.00020697508 2.0874319e-05 5.915808e-05 1.8967832e-05
3.8613554e-05 3.4079963e-05 6.9603804e-05 8.214667e-05 1.9926421e-05 5.6332638e-06 1.0654873e-05 0.00014675905
3.0776206e-05 2.8493869e-05 0.00022757135 0.00010467556 7.201455e-05 6.4677464e-05 9.338007e-06 8.7765795e-05
9.768213e-05 0.00014617066 5.0166864e-06 7.786359e-05 4.3066622e-05 0.00010302662 2.945311e-05 0.0001558811
0.00022461016 6.104523e-05 1.4915759e-07 5.3117557e-05 7.6033786e-05 0.00013269654 1.28348165e-05 8.501432e-05
4.0265026e-05 5.4816508e-05 4.3670017e-05 4.2137668e-05 0.00023423972 3.0089566e-05 0.0002486641 1.3745713e-05
6.733023e-05 5.9458063e-05 1.5935813e-05 6.361063e-05 0.00024440442 0.00012607519 0.00017039385 1.4294835e-05
7.157843e-05 0.00023683757 0.000207855 0.00016594506 3.7169695e-05 7.0396804e-06 0.0001617441 7.959978e-05
00000000: 3365 0138 7501 3139 0fa4 c837 f7f4 0439
00000010: 1c21 bc38 35cb 1c39 57c6 4738 f53a 3b39
00000020: ba3e 2437 be38 8437 4369 bb37 6ae7 ec38
00000030: 77c6 5339 6827 3f38 a558 ac38 ac12 9c38
00000040: 6626 bc37 239c 7638 467c fc37 cb1f c738
00000050: 6dde 6b38 d6e6 1f39 dd09 5438 255e 9337
00000060: e6f8 b038 b8f0 0239 e64a d938 4f9b 0b39
00000070: 444b ad38 7180 c238 ec03 5038 7edb c037
00000080: 0a9e 7739 7947 0139 6810 a537 216a 2339
00000090: dbb8 1e39 2ee3 0638 7ec1 0039 a109 2438
000000a0: ee45 d238 cea2 0b39 7ff0 7039 ea72 4f39
000000b0: 6cf9 2a39 fa51 9738 f8a3 7637 e30c af38
000000c0: a592 4138 b410 4938 e706 2039 35a9 b238
000000d0: 3618 df36 3db8 7138 6836 9938 e178 0c38
000000e0: 466e a538 e227 c338 445b 3339 bc73 1739
000000f0: ce70 bc37 4d2e 4935 9564 9039 3cd0 e238
00000100: 05b5 5138 e82c 6839 c991 4138 acec ad37
00000110: 7307 5939 421b af37 8120 7838 1c1d 9f37
00000120: fdf4 2138 15f1 0e38 42f8 9138 2846 ac38
00000130: aa27 a737 5e05 bd36 55c2 3237 55e3 1939
00000140: b315 0138 1e06 ef37 38a0 6e39 4385 db38
00000150: 8406 9738 73a3 8738 6faa 1c37 e70e b838
00000160: b2da cc38 6345 1939 0255 a836 b24a a338
00000170: 6fa2 3438 ff0f d838 1212 f737 0474 2339
00000180: 5585 6b39 6905 8038 2028 2034 8bca 5e38
00000190: 5474 9f38 7524 0b39 1e55 5737 b749 b238
000001a0: 3ee2 2838 c7ea 6538 532a 3738 fabc 3038
000001b0: 3f9e 7539 da68 fc37 215f 8239 639d 6637
000001c0: a433 8d38 9c62 7938 e6ad 8537 b266 8538
000001d0: 6823 8039 0d33 0439 c0ab 3239 d9d3 6f37
000001e0: 611c 9638 9a57 7839 a7f3 5939 8a01 2e39
000001f0: a8e6 1b38 6536 ec36 da99 2939 ceee a638

bn1.weight f4 [128]
1.0 1.0 1.0 1.0 1.0 1.0 1.0 1.0
1.0 1.0 1.0 1.0 1.0 1.0 1.0 1.0
1.0 1.0 1.0 1.0 1.0 1.0 1.0 1.0
1.0 1.0 1.0 1.0 1.0 1.0 1.0 1.0
1.0 1.0 1.0 1.0 1.0 1.0 1.0 1.0
1.0 1.0 1.0 1.0 1.0 1.0 1.0 1.0
1.0 1.0 1.0 1.0 1.0 1.0 1.0 1.0
1.0 1.0 1.0 1.0 1.0 1.0 1.0 1.0
1.0 1.0 1.0 1.0 1.0 1.0 1.0 1.0
1.0 1.0 1.0 1.0 1.0 1.0 1.0 1.0
1.0 1.0 1.0 1.0 1.0 1.0 1.0 1.0
1.0 1.0 1.0 1.0 1.0 1.0 1.0 1.0
1.0 1.0 1.0 1.0 1.0 1.0 1.0 1.0
1.0 1.0 1.0 1.0 1.0 1.0 1.0 1.0
1.0 1.0 1.0 1.0 1.0 1.0 1.0 1.0
1.0 1.0 1.0 1.0 1.0 1.0 1.0 1.0
00000000: 0000 803f 0000 803f 0000 803f 0000 803f
00000010: 0000 803f 0000 803f 0000 803f 0000 803f
00000020: 0000 803f 0000 803f 0000 803f 0000 803f
00000030: 0000 803f 0000 803f 0000 803f 0000 803f
00000040: 0000 803f 0000 803f 0000 803f 0000 803f
00000050: 0000 803f 0000 803f 0000 803f 0000 803f
00000060: 0000 803f 0000 803f 0000 803f 0000 803f
00000070: 0000 803f 0000 803f 0000 803f 0000 803f
00000080: 0000 803f 0000 803f 0000 803f 0000 803f
00000090: 0000 803f 0000 803f 0000 803f 0000 803f
000000a0: 0000 803f 0000 803f 0000 803f 0000 803f
000000b0: 0000 803f 0000 803f 0000 803f 0000 803f
000000c0: 0000 803f 0000 803f 0000 803f 0000 803f
000000d0: 0000 803f 0000 803f 0000 803f 0000 803f
000000e0: 0000 803f 0000 803f 0000 803f 0000 803f
000000f0: 0000 803f 0000 803f 0000 803f 0000 803f
00000100: 0000 803f 0000 803f 0000 803f 0000 803f
00000110: 0000 803f 0000 803f 0000 803f 0000 803f
00000120: 0000 803f 0000 803f 0000 803f 0000 803f
00000130: 0000 803f 0000 803f 0000 803f 0000 803f
00000140: 0000 803f 0000 803f 0000 803f 0000 803f
00000150: 0000 803f 0000 803f 0000 803f 0000 803f
00000160: 0000 803f 0000 803f 0000 803f 0000 803f
00000170: 0000 803f 0000 803f 0000 803f 0000 803f
00000180: 0000 803f 0000 803f 0000 803f 0000 803f
00000190: 0000 803f 0000 803f 0000 803f 0000 803f
000001a0: 0000 803f 0000 803f 0000 803f 0000 803f
000001b0: 0000 803f 0000 803f 0000 803f 0000 803f
000001c0: 0000 803f 0000 803f 0000 803f 0000 803f
000001d0: 0000 803f 0000 803f 0000 803f 0000 803f
000001e0: 0000 803f 0000 803f 0000 803f 0000 803f
000001f0: 0000 803f 0000 803f 0000 803f 0000 803f

bn1.bias f4 [128]
0.0 0.0 0.0 0.0 0.0 0.0 0.0 0.0
0.0 0.0 0.0 0.0 0.0 0.0 0.0 0.0
0.0 0.0 0.0 0.0 0.0 0.0 0.0 0.0
0.0 0.0 0.0 0.0 0.0 0.0 0.0 0.0
0.0 0.0 0.0 0.0 0.0 0.0 0.0 0.0
0.0 0.0 0.0 0.0 0.0 0.0 0.0 0.0
0.0 0.0 0.0 0.0 0.0 0.0 0.0 0.0
0.0 0.0 0.0 0.0 0.0 0.0 0.0 0.0
0.0 0.0 0.0 0.0 0.0 0.0 0.0 0.0
0.0 0.0 0.0 0.0 0.0 0.0 0.0 0.0
0.0 0.0 0.0 0.0 0.0 0.0 0.0 0.0
0.0 0.0 0.0 0.0 0.0 0.0 0.0 0.0
0.0 0.0 0.0 0.0 0.0 0.0 0.0 0.0
0.0 0.0 0.0 0.0 0.0 0.0 0.0 0.0
0.0 0.0 0.0 0.0 0.0 0.0 0.0 0.0
0.0 0.0 0.0 0.0 0.0 0.0 0.0 0.0
00000000: 0000 0000 0000 0000 0000 0000 0000 0000
00000010: 0000 0000 0000 0000 0000 0000 0000 0000
00000020: 0000 0000 0000 0000 0000 0000 0000 0000
00000030: 0000 0000 0000 0000 0000 0000 0000 0000
00000040: 0000 0000 0000 0000 0000 0000 0000 0000
00000050: 0000 0000 0000 0000 0000 0000 0000 0000
00000060: 0000 0000 0000 0000 0000 0000 0000 0000
00000070: 0000 0000 0000 0000 0000 0000 0000 0000
00000080: 0000 0000 0000 0000 0000 0000 0000 0000
00000090: 0000 0000 0000 0000 0000 0000 0000 0000
000000a0: 0000 0000 0000 0000 0000 0000 0000 0000
000000b0: 0000 0000 0000 0000 0000 0000 0000 0000
000000c0: 0000 0000 0000 0000 0000 0000 0000 0000
000000d0: 0000 0000 0000 0000 0000 0000 0000 0000
000000e0: 0000 0000 0000 0000 0000 0000 0000 0000
000000f0: 0000 0000 0000 0000 0000 0000 0000 0000
00000100: 0000 0000 0000 0000 0000 0000 0000 0000
00000110: 0000 0000 0000 0000 0000 0000 0000 0000
00000120: 0000 0000 0000 0000 0000 0000 0000 0000
00000130: 0000 0000 0000 0000 0000 0000 0000 0000
00000140: 0000 0000 0000 0000 0000 0000 0000 0000
00000150: 0000 0000 0000 0000 0000 0000 0000 0000
00000160: 0000 0000 0000 0000 0000 0000 0000 0000
00000170: 0000 0000 0000 0000 0000 0000 0000 0000
00000180: 0000 0000 0000 0000 0000 0000 0000 0000
00000190: 0000 0000 0000 0000 0000 0000 0000 0000
000001a0: 0000 0000 0000 0000 0000 0000 0000 0000
000001b0: 0000 0000 0000 0000 0000 0000 0000 0000
000001c0: 0000 0000 0000 0000 0000 0000 0000 0000
000001d0: 0000 0000 0000 0000 0000 0000 0000 0000
000001e0: 0000 0000 0000 0000 0000 0000 0000 0000
000001f0: 0000 0000 0000 0000 0000 0000 0000 0000

bn1.running_mean f4 [128]
0.0 0.0 0.0 0.0 0.0 0.0 0.0 0.0
0.0 0.0 0.0 0.0 0.0 0.0 0.0 0.0
0.0 0.0 0.0 0.0 0.0 0.0 0.0 0.0
0.0 0.0 0.0 0.0 0.0 0.0 0.0 0.0
0.0 0.0 0.0 0.0 0.0 0.0 0.0 0.0
0.0 0.0 0.0 0.0 0.0 0.0 0.0 0.0
0.0 0.0 0.0 0.0 0.0 0.0 0.0 0.0
0.0 0.0 0.0 0.0 0.0 0.0 0.0 0.0
0.0 0.0 0.0 0.0 0.0 0.0 0.0 0.0
0.0 0.0 0.0 0.0 0.0 0.0 0.0 0.0
0.0 0.0 0.0 0.0 0.0 0.0 0.0 0.0
0.0 0.0 0.0 0.0 0.0 0.0 0.0 0.0
0.0 0.0 0.0 0.0 0.0 0.0 0.0 0.0
0.0 0.0 0.0 0.0 0.0 0.0 0.0 0.0
0.0 0.0 0.0 0.0 0.0 0.0 0.0 0.0
0.0 0.0 0.0 0.0 0.0 0.0 0.0 0.0
00000000: 0000 0000 0000 0000 0000 0000 0000 0000
00000010: 0000 0000 0000 0000 0000 0000 0000 0000
00000020: 0000 0000 0000 0000 0000 0000 0000 0000
00000030: 0000 0000 0000 0000 0000 0000 0000 0000
00000040: 0000 0000 0000 0000 0000 0000 0000 0000
00000050: 0000 0000 0000 0000 0000 0000 0000 0000
00000060: 0000 0000 0000 0000 0000 0000 0000 0000
00000070: 0000 0000 0000 0000 0000 0000 0000 0000
00000080: 0000 0000 0000 0000 0000 0000 0000 0000
00000090: 0000 0000 0000 0000 0000 0000 0000 0000
000000a0: 0000 0000 0000 0000 0000 0000 0000 0000
000000b0: 0000 0000 0000 0000 0000 0000 0000 0000
000000c0: 0000 0000 0000 0000 0000 0000 0000 0000
000000d0: 0000 0000 0000 0000 0000 0000 0000 0000
000000e0: 0000 0000 0000 0000 0000 0000 0000 0000
000000f0: 0000 0000 0000 0000 0000 0000 0000 0000
00000100: 0000 0000 0000 0000 0000 0000 0000 0000
00000110: 0000 0000 0000 0000 0000 0000 0000 0000
00000120: 0000 0000 0000 0000 0000 0000 0000 0000
00000130: 0000 0000 0000 0000 0000 0000 0000 0000
00000140: 0000 0000 0000 0000 0000 0000 0000 0000
00000150: 0000 0000 0000 0000 0000 0000 0000 0000
00000160: 0000 0000 0000 0000 0000 0000 0000 0000
00000170: 0000 0000 0000 0000 0000 0000 0000 0000
00000180: 0000 0000 0000 0000 0000 0000 0000 0000
00000190: 0000 0000 0000 0000 0000 0000 0000 0000
000001a0: 0000 0000 0000 0000 0000 0000 0000 0000
000001b0: 0000 0000 0000 0000 0000 0000 0000 0000
000001c0: 0000 0000 0000 0000 0000 0000 0000 0000
000001d0: 0000 0000 0000 0000 0000 0000 0000 0000
000001e0: 0000 0000 0000 0000 0000 0000 0000 0000
000001f0: 0000 0000 0000 0000 0000 0000 0000 0000

bn1.running_var f4 [128]
1.0 1.0 1.0 1.0 1.0 1.0 1.0 1.0
1.0 1.0 1.0 1.0 1.0 1.0 1.0 1.0
1.0 1.0 1.0 1.0 1.0 1.0 1.0 1.0
1.0 1.0 1.0 1.0 1.0 1.0 1.0 1.0
1.0 1.0 1.0 1.0 1.0 1.0 1.0 1.0
1.0 1.0 1.0 1.0 1.0 1.0 1.0 1.0
1.0 1.0 1.0 1.0 1.0 1.0 1.0 1.0
1.0 1.0 1.0 1.0 1.0 1.0 1.0 1.0
1.0 1.0 1.0 1.0 1.0 1.0 1.0 1.0
1.0 1.0 1.0 1.0 1.0 1.0 1.0 1.0
1.0 1.0 1.0 1.0 1.0 1.0 1.0 1.0
1.0 1.0 1.0 1.0 1.0 1.0 1.0 1.0
1.0 1.0 1.0 1.0 1.0 1.0 1.0 1.0
1.0 1.0 1.0 1.0 1.0 1.0 1.0 1.0
1.0 1.0 1.0 1.0 1.0 1.0 1.0 1.0
1.0 1.0 1.0 1.0 1.0 1.0 1.0 1.0
00000000: 0000 803f 0000 803f 0000 803f 0000 803f
00000010: 0000 803f 0000 803f 0000 803f 0000 803f
00000020: 0000 803f 0000 803f 0000 803f 0000 803f
00000030: 0000 803f 0000 803f 0000 803f 0000 803f
00000040: 0000 803f 0000 803f 0000 803f 0000 803f
00000050: 0000 803f 0000 803f 0000 803f 0000 803f
00000060: 0000 803f 0000 803f 0000 803f 0000 803f
00000070: 0000 803f 0000 803f 0000 803f 0000 803f
00000080: 0000 803f 0000 803f 0000 803f 0000 803f
00000090: 0000 803f 0000 803f 0000 803f 0000 803f
000000a0: 0000 803f 0000 803f 0000 803f 0000 803f
000000b0: 0000 803f 0000 803f 0000 803f 0000 803f
000000c0: 0000 803f 0000 803f 0000 803f 0000 803f
000000d0: 0000 803f 0000 803f 0000 803f 0000 803f
000000e0: 0000 803f 0000 803f 0000 803f 0000 803f
000000f0: 0000 803f 0000 803f 0000 803f 0000 803f
00000100: 0000 803f 0000 803f 0000 803f 0000 803f
00000110: 0000 803f 0000 803f 0000 803f 0000 803f
00000120: 0000 803f 0000 803f 0000 803f 0000 803f
00000130: 0000 803f 0000 803f 0000 803f 0000 803f
00000140: 0000 803f 0000 803f 0000 803f 0000 803f
00000150: 0000 803f 0000 803f 0000 803f 0000 803f
00000160: 0000 803f 0000 803f 0000 803f 0000 803f
00000170: 0000 803f 0000 803f 0000 803f 0000 803f
00000180: 0000 803f 0000 803f 0000 803f 0000 803f
00000190: 0000 803f 0000 803f 0000 803f 0000 803f
000001a0: 0000 803f 0000 803f 0000 803f 0000 803f
000001b0: 0000 803f 0000 803f 0000 803f 0000 803f
000001c0: 0000 803f 0000 803f 0000 803f 0000 803f
000001d0: 0000 803f 0000 803f 0000 803f 0000 803f
000001e0: 0000 803f 0000 803f 0000 803f 0000 803f
000001f0: 0000 803f 0000 803f 0000 803f 0000 803f

fc2.weight f4 [128, 2]
0.21633919 -0.23682149 -0.3921461 -0.57988113 -0.29865566 -0.14935909 -0.25170016 -0.5222071
-0.30872172 0.42185497 0.18581527 0.5808439 0.037217006 0.3338074 -0.25848705 0.6311655
-0.14418425 0.12495926 -0.31143817 0.033858445 -0.31807417 -0.119353674 0.12291847 0.5092105
0.3977396 0.6420395 0.51287895 -0.10083492 0.1588168 0.42772132 -0.32364815 -0.36627826
-0.3620353 0.06615507 -0.5960085 0.0831049 0.43426657 0.02073402 0.6429681 -0.2692297
0.47456115 -0.22431615 -0.03248886 -0.598632 -0.55723333 -0.0529309 0.32680613 0.036785316
-0.13690077 0.43904778 0.33791137 0.4985853 -0.40889406 0.42976588 -0.50421476 -0.4633863
0.35593626 0.3808212 -0.48309323 0.36669376 -0.54129404 -0.08250885 0.21938238 0.18837757
0.4008305 0.70095885 0.3690346 0.48627874 -0.3465951 0.04261222 -0.11301482 0.6028199
0.020201327 0.5967244 -0.4499063 0.021183673 0.59625 0.3906685 -0.4937338 -0.031146787
0.15689285 -0.47772527 0.036629315 -0.55985 0.5873234 -0.6473488 -0.25473607 0.66678905
0.31437543 0.5864632 0.63099146 -0.15220521 -0.051906925 -0.18289179 0.54125875 0.29094085
0.4787023 0.1484579 -0.44305626 0.20314975 -0.48747882 -0.5161978 0.55312693 0.28950632
-0.12762943 0.09900913 0.19968303 -0.3493535 -0.17922857 -0.39853382 -0.06516928 0.27855724
0.11460089 -0.42626277 -0.2462619 0.44544032 -0.27373636 -0.6098945 0.6824894 0.40220794
0.10969352 -0.22097608 0.05708195 0.022972614 0.67055756 -0.69929594 0.2632678 0.4761108
0.33884367 0.27084666 0.25919032 0.7022929 -0.08898376 0.32591847 0.052876115 0.21813188
0.51671386 0.6183499 -0.25137678 -0.15785386 -0.60193515 -0.06026915 0.2963562 0.106699966
-0.240178 0.2655661 -0.074765064 -0.27894002 0.21530727 0.381062 0.6085157 -0.24072291
0.09824083 0.2073013 -0.162411 -0.057214428 0.23364562 -0.07091268 0.6702812 -0.42787236
-0.18641223 -0.24236368 0.085239545 -0.25448474 -0.43541303 -0.6783247 0.5016328 -0.39511392
0.39335424 -0.3379346 -0.5779686 0.17177424 0.17735519 0.09979911 0.6759636 -0.19660719
-0.6732121 0.25305054 -0.37584203 0.5432029 0.095021494 0.0910966 -0.49499768 0.30765566
-0.361056 -0.2267428 0.22344002 -0.47521237 -0.42600492 0.04523763 0.12450194 -0.60214585
0.63979954 -0.61900234 0.353712 0.3085998 -0.025908308 0.010278087 0.14634115 -0.3434593
-0.118462466 0.41792983 0.37547526 -0.51307416 -0.20275904 0.123826504 0.1269096 -0.4417612
0.12498231 0.2972412 -0.08609286 -0.35467073 0.19165708 0.29691896 0.3844307 -0.21343912
0.54580814 -0.6684581 0.28443915 -0.2042069 0.60427207 -0.67564046 -0.2924274 -0.0198783
0.31847107 -0.35023975 -0.4238724 0.27394632 -0.21293041 0.14546615 -0.56669223 -0.16865785
-0.5103004 0.6961199 -0.056713652 0.54425335 -0.6270105 -0.4993086 -0.30050588 0.00572316
0.1823912 -0.396736 0.48753268 0.68072414 -0.4518767 -0.63903505 -0.58438134 0.51836425
0.11755739 -0.28802618 0.004063263 -0.12876223 0.050822027 0.61592865 0.638635 -0.19379868
00000000: 0588 5d3e 5581 72be 60c7 c8be 1773 14bf
00000010: 65e9 98be 97f1 18be d8de 80be 5daf 05bf
00000020: c610 9ebe 60fd d73e 5c46 3e3e 30b2 143f
00000030: dc70 183d cee8 aa3e 6a58 84be 1094 213f
00000040: 09a5 13be a4ea ff3d d374 9fbe 27af 0a3d
00000050: 9eda a2be b36f f4bd aebc fb3d 9f5b 023f
00000060: 86a4 cb3e b35c 243f 094c 033f 8a82 cebd
00000070: dfa0 223e 4afe da3e 36b5 a5be d388 bbbe
00000080: b15c b9be 4f7c 873d 0394 18bf e732 aa3d
00000090: 3058 de3e 64da a93c 8f99 243f 7ad8 89be
000000a0: aef9 f23e 22b3 65be 0a13 05bd f23f 19bf
000000b0: d8a6 0ebf 12ce 58bd 2253 a73e 33ac 163d
000000c0: b72f 0cbe dfca e03e b802 ad3e 9346 ff3e
000000d0: 905a d1be 460a dc3e 3814 01bf f840 edbe
000000e0: 473d b63e fffa c23e ff57 f7be 49bf bb3e
000000f0: 3f92 0abf 66fa a8bd c6a5 603e 0de6 403e
00000100: a839 cd3e 0a72 333f 1af2 bc3e 87f9 f83e
00000110: ea74 b1be 278a 2e3d 5074 e7bd 6852 1a3f
00000120: 417d a53c eec2 183f 1e5a e6be 6289 ad3c
00000130: d7a3 183f b405 c83e adca fcbe 8c27 ffbc
00000140: 85a8 203e 6898 f4be 9f08 163d 5452 0fbf
00000150: d45a 163f a7b8 25bf c46c 82be b0b2 2a3f
00000160: d1f5 a03e 7422 163f a888 213f afdb 1bbe
00000170: 5b9c 54bd fc47 3bbe ef8f 0a3f 33f6 943e
00000180: 7818 f53e 5905 183e 45d8 e2be 7d06 503e
00000190: d396 f9be 8a25 04bf ba99 0d3f 2c3a 943e
000001a0: 4ab1 02be 4cc5 ca3d b579 4c3e 76de b2be
000001b0: b287 37be a00c ccbe 7977 85bd 0e9f 8e3e
000001c0: dfb3 ea3d 1d3f dabe 142c 7cbe c110 e43e
000001d0: 2c27 8cbe 0c22 1cbf a0b7 2e3f 33ee cd3e
000001e0: ffa6 e03d 8e47 62be c3ce 693d 1031 bc3c
000001f0: a9a9 2b3f 0f05 33bf 09cb 863e cbc4 f33e
00000200: eb7c ad3e 6aac 8a3e 98b4 843e 78c9 333f
00000210: 1e3d b6bd c9de a63e a094 583d f75d 5f3e
00000220: 5c47 043f 2e4c 1e3f 75b4 80be 71a4 21be
00000230: 6c18 1abf c9dc 76bd 00bc 973e 8385 da3d
00000240: 39f1 75be 48f8 873e 6d1e 99bd 3ad1 8ebe
00000250: 8279 5c3e 8f1a c33e afc7 1b3f 1180 76be
00000260: 7d32 c93d cb46 543e 124f 26be ad59 6abd
00000270: cc40 6f3e ab3a 91bd 8c97 2b3f 1612 dbbe
00000280: d9e2 3ebe 2f2e 78be 1292 ae3d d34b 82be
00000290: 75ee debe b0a6 2dbf 026b 003f 5f4c cabe
000002a0: ba65 c93e c405 adbe c0f5 13bf 96e5 2f3e
000002b0: 999c 353e 7a63 cc3d f30b 2d3f 6553 49be
000002c0: a157 2cbf d78f 813e 5e6e c0be 580f 0b3f
000002d0: a19a c23d db90 ba3d 5670 fdbe 0b85 9d3e
000002e0: 55dc b8be 442f 68be 76cd 643e 094f f3be
000002f0: 511d dabe 184b 393d e0fa fe3d 3b26 1abf
00000300: e7c9 233f f076 1ebf bd19 b53e cb00 9e3e
00000310: a93d d4bc 6c65 283c 74da 153e e6d9 afbe
00000320: 739c f2bd e6fa d53e 4b3e c03e d458 03bf
00000330: 11a0 4fbe c098 fd3d 97f4 013e 862e e2be
00000340: baf6 ff3d 0030 983e 7451 b0bd 6797 b5be
00000350: c141 443e c305 983e 1ad4 c43e c98f 5abe
00000360: 15ba 0b3f 1220 2bbf 02a2 913e 9d1b 51be
00000370: 93b1 1a3f c6f6 2cbf 0bb9 95be d1d7 a2bc
00000380: a40e a33e a052 b3be ce05 d9be b142 8c3e
00000390: 6e0a 5abe 14f5 143e be12 11bf a5b4 2cbe
000003a0: 0ca3 02bf ea34 323f 934c 68bd 3054 0b3f
000003b0: c383 20bf 60a5 ffbe e8db 99be 5989 bb3b
000003c0: c2c4 3a3e fb20 cbbe e29d f93e f043 2e3f
000003d0: 625c e7be cd97 23bf 049a 15bf 85b3 043f
000003e0: eec1 f03d 2b78 93be 1f25 853b 3fda 03be
000003f0: c22a 503d 80ad 1d3f 957d 233f 2973 46be

actor.linears.0.weight f4 [128, 384]
0.049275346 0.050061747 0.018419644 0.045717325 0.027183695 -0.026943859 0.040839486 0.01035552
0.014994896 0.047005307 0.0472509 0.009715976 -0.05319301 -0.006355972 -0.006433979 0.013280579
0.008144657 -0.010061141 0.023294333 -0.03597207 -0.033069 -0.034754932 0.025800373 0.035558015
-0.011874231 0.01506579 -0.0010898409 0.045260236 -0.0296249 -0.025954604 0.024254095 0.019258186
-0.040749304 0.03358733 -0.03916071 0.01830464 0.002661407 0.007875757 0.0017161455 0.045007054
0.0038032045 0.013697742 0.03258211 -0.014097446 0.040518552 0.012964904 0.03140841 -0.0073944624
-0.044137184 0.013273091 0.036302697 0.006017527 -0.019723875 -0.046222437 0.051480953 -0.0522145
-0.020628626 -0.048782308 0.024609609 0.0110452855 -0.03304272 0.039348397 0.025770873 -0.015006432
0.0114686005 -0.055138398 -0.017911267 -0.0044156075 -0.018574458 -0.022916548 0.027922722 -0.0089131715
-0.015221267 0.05065892 0.037715007 -0.034659225 -0.02577931 0.004594107 0.019281033 0.011366569
0.04370705 0.052549373 0.017504709 -0.03159936 -0.035479136 -0.046652116 -0.017564036 -0.009354404
0.028975286 -0.050131235 -0.05651756 -0.004898562 0.029971581 -0.034452986 0.0023613551 -0.03161427
0.013496885 0.027264144 -0.00094690244 -0.00013794313 0.03366097 0.038380012 -0.019986765 0.028980095
-0.000221155 -0.005204929 -0.037080605 -0.00885527 -0.018872218 0.016451513 -0.02404417 0.05393477
-0.022945058 -0.046050288 0.008618412 -0.015562671 -0.036739722 0.04543288 0.02775619 -0.03814981
0.052251287 -0.027351292 -0.026221368 -0.014877268 0.02159232 0.037649397 -0.007862171 0.036267165
-0.00033448153 -0.005351115 0.0060801688 0.0046016127 -0.023652254 0.04268369 0.03848033 -0.009738351
-0.045924366 0.043562483 -0.022148937 -0.018176533 -0.014709941 0.016869944 -0.0140508395 -0.03312593
-0.032613996 -0.028207894 0.014945353 -0.02109434 -0.045484997 -0.00057139166 0.045023177 0.022609524
0.031185912 0.00075105607 -0.012411918 -0.045645013 0.03356845 -0.053917814 -0.02073029 0.037211377
0.005589021 -0.000678788 0.028791932 -0.027501319 -0.026040267 -0.0017563165 -0.026567265 -0.008768169
-0.027677683 0.010689794 -0.00070815283 0.006304866 -0.046762686 -0.00075875735 0.024220966 0.041153725
0.005518705 -0.018843137 0.011672723 -0.011309301 0.0046918816 -0.019641753 0.033547204 0.0074955993
-0.005092692 -0.01473926 -0.034439698 -0.01972913 -0.0042537665 0.05022805 -0.045070548 0.028000334
0.013699325 -0.045559652 -0.038657255 -0.025260376 -0.024702229 -0.003683789 0.024574848 -0.02369406
-0.04404684 -0.0040636593 -0.038299616 -0.021772632 0.03831992 0.013420915 0.045573033 -0.006700005
-0.049769808 -0.032164425 0.026499042 -0.04794214 0.03155587 0.014746334 0.012768718 -0.02034238
-0.019053185 0.03974943 -0.026989615 -0.0018284727 -0.010494954 0.05012277 0.020585932 0.04688518
-0.0016063818 -0.006145932 -0.044185534 -0.027787102 0.021328581 0.03519573 -0.011076955 -0.009148517
-0.0006729958 -0.03575735 -0.027605325 0.03444317 0.014760058 -0.018957496 0.015631948 -0.027248798
0.011444772 0.020785555 0.040580105 -0.04348556 -0.028527727 0.0009613344 -0.0076713087 0.008293351
0.053448256 -0.0012601438 0.0021306332 0.035753217 0.044279728 -0.015569776 -0.022801071 -0.0014588032
00000000: f2d4 493d 8c0d 4d3d cbe4 963c 1742 3b3d
00000010: 57b0 de3c 5eb9 dcbc 4e47 273d 33aa 293c
00000020: 27ad 753c a388 403d 298a 413d c22f 1f3c
00000030: eae0 59bd c245 d0bb 21d4 d2bb c996 593c
00000040: 2b71 053c 7cd7 24bc c2d3 be3c 7357 13bd
00000050: 5c73 07bd 305b 0ebd 4e5b d33c 48a5 113d
00000060: 228c 42bc 81d6 763c fed8 8eba cc62 393d
00000070: ebaf f2bc c09e d4bc 86b0 c63c 58c3 9d3c
00000080: bee8 26bd de92 093d fb66 20bd 9df3 953c
00000090: 006b 2e3b 5209 013c 4af0 e03a 5159 383d
000000a0: 2f3f 793b 7e6c 603c d274 053d f9f8 66bc
000000b0: c8f6 253d c06a 543c 1ba6 003d 3f4d f2bb
000000c0: 31c9 34bd 6177 593c 23b2 143d ad2e c53b
000000d0: f793 a1bc bd53 3dbd b1dd 523d dfde 55bd
000000e0: 5dfd a8bc f5cf 47bd 179a c93c 49f7 343c
000000f0: ce57 07bd c92b 213d 701d d33c 8add 75bc
00000100: cce6 3b3c cdd8 61bd a6ba 92bc cdb0 90bb
00000110: 7629 98bc 7cbb bbbc 31be e43c 8d08 12bc
00000120: 9f62 79bc ba7f 4f3d 0d7b 1a3d d5f6 0dbd
00000130: 222f d3bc 2a8a 963b 42f3 9d3c d93a 3a3c
00000140: 2a06 333d 033e 573d 0966 8f3c 556e 01bd
00000150: 9252 11bd 4a16 3fbd 74e2 8fbc 3743 19bc
00000160: 945d ed3c 6956 4dbd f57e 67bd 1e84 a0bb
00000170: f686 f53c 931e 0dbd f7c0 1a3b f77d 01bd
00000180: 0a22 5d3c 0e59 df3c 8c39 78ba d4a4 10b9
00000190: 16e0 093d 5c34 1d3d 49bb a3bc aa67 ed3c
000001a0: d8e5 67b9 1c8e aabb d5e1 17bd b215 11bc
000001b0: e999 9abc 53c5 863c 47f8 c4bc b5ea 5c3d
000001c0: 46f7 bbbc 3a9f 3cbd 3d34 0d3c 93fa 7ebc
000001d0: 647c 16bd d417 3a3d f360 e33c fa42 1cbd
000001e0: 7205 563d d10f e0bc 32ce d6bc c9bf 73bc
000001f0: 61e2 b03c 4136 1a3d 56d0 00bc e18c 143d
00000200: 5a5d afb9 6858 afbb 273c c73b 20c9 963b
00000210: 5fc2 c1bc 18d5 2e3d 8d9d 1d3d 9b8d 1fbc
00000220: 301b 3cbd 936e 323d b071 b5bc f4e6 94bc
00000230: f701 71bc d632 8a3c 7e35 66bc 0eaf 07bd
00000240: 4196 05bd 3e14 e7bc 5bdd 743c 0ace acbc
00000250: 7a4e 3abd 72c9 15ba 396a 383d 9c37 b93c
00000260: 9979 ff3c 85e2 443a 5b5b 4bbc 44f6 3abd
00000270: 127f 093d edd8 5cbd 92d2 a9bc f56a 183d
00000280: 1b24 b73b b1f0 31ba 0fdd eb3c 724a e1bc
00000290: 6652 d5bc 3434 e6ba 98a3 d9bc 5ea8 0fbc
000002a0: 4fbc e2bc 3f24 2f3c 55a3 39ba 0d99 ce3b
000002b0: 3b8a 3fbd 58e7 46ba 0c6b c63c cf90 283d
000002c0: 41d6 b43b ec5c 9abc f33e 3f3c a54a 39bc
000002d0: 5bbe 993b bee7 a0bc cb68 093d a59d f53b
000002e0: 99e0 a6bb f07c 71bc a410 0dbd fc9e a1bc
000002f0: 2e63 8bbb eebb 4d3d e59b 38bd f560 e53c
00000300: 2273 603c c29c 3abd 1257 1ebd d9ee cebc
00000310: 545c cabc b96b 71bb 3151 c93c 0c1a c2bc
00000320: 766a 34bd 7228 85bb 0fe0 1cbd 855c b2bc
00000330: 59f5 1c3d 66e3 5b3c caaa 3a3d b78b dbbb
00000340: 6ddb 4bbd d8be 03bd 8514 d93c fa5e 44bd
00000350: ba40 013d 9c9a 713c e333 513c 10a5 a6bc
00000360: 6d15 9cbc 4cd0 223d 5319 ddbc 5da9 efba
00000370: 07f3 2bbc 894d 4d3d d4a3 a83c ad0a 403d
00000380: 3b8d d2ba d063 c9bb e4fb 34bd c7a1 e3bc
00000390: 47b9 ae3c 6629 103d 1e7c 35bc a9e3 15bc
000003a0: fc6b 30ba 4d76 12bd 9024 e2bc 4814 0d3d
000003b0: 2cd4 713c c04c 9bbc 920e 803c df38 dfbc
000003c0: da82 3b3c 7846 aa3c 5337 263d ea1d 32bd
000003d0: fbb2 e9bc 0f02 7c3a 9a5f fbbb d6e0 073c
000003e0: 8fec 5a3d 692b a5ba 18a2 0b3b f771 123d
000003f0: a95e 353d 6018 7fbc 50c9 babc 5035 bfba

actor.linears.0.bias f4 [128]
0.03477748 0.052930176 -0.019495238 0.000795579 0.03195611 0.022944214 0.028518124 0.025471335
-0.02706366 0.019221133 -0.006012541 0.038659066 -0.023720255 -0.016535264 -0.02562878 -0.052800193
-0.0098451385 0.0030582512 0.03719291 -0.0044476837 0.023530839 -0.03799118 -0.04096134 -0.020578612
0.0057500238 -0.016858095 0.010743052 0.034767676 -0.0048552467 0.0012992654 -0.0023963547 0.045542695
-0.0368848 0.006462948 0.008077176 0.052655976 -0.049318407 0.013998907 -0.045053765 -0.011580978
0.026915528 0.054077756 0.03231219 -0.038775757 0.004638328 -0.013178246 0.0004733859 -0.0036011296
0.048911292 0.017875256 -0.0013518684 0.030936006 0.029485464 0.0007975465 -0.04459171 -0.024835983
0.018173434 0.020819739 0.008677522 0.042215377 -0.033821654 0.008130266 0.023677818 0.005023058
0.04299309 -0.026977273 -0.007496816 -0.04918361 -0.014475018 -0.013672218 0.03671238 -0.012116304
-0.013036499 -0.027947249 0.04186271 0.009742633 0.04140637 -0.025701573 -0.024885155 0.02116903
-0.012244115 -0.03976391 -0.0073564327 0.018825816 0.0051438664 -0.019027544 0.0249095 0.010413859
0.031192264 0.025396638 0.0492109 0.007852491 0.03707722 0.0027122663 -0.03712284 -0.016791232
-0.04491878 0.05025186 0.04269224 0.026822744 -0.03710371 0.059209425 0.018011345 -0.02393557
0.0151743665 0.05214538 0.03391508 0.031166786 -0.042912465 -0.023116183 0.03055153 -0.041589186
0.019883916 0.006482972 -0.0020472617 0.027595228 0.016893607 -0.007797464 -0.009691655 0.023906311
-0.03949357 -0.0024883403 -0.03158076 -0.04002359 -0.02554755 0.033387333 0.0018654804 -0.04097694
00000000: d572 0e3d 50cd 583d 7ab4 9fbc 678e 503a
00000010: 69e4 023d 81f5 bb3c d79e e93c 43a9 d03c
00000020: 9cb4 ddbc a375 9d3c d904 c5bb f858 1e3d
00000030: fb50 c2bc f674 87bc 72f3 d1bc 0445 58bd
00000040: 814d 21bc f16c 483b 9857 183d e0bd 91bb
00000050: bfc3 c03c a49c 1bbd 14c7 27bd 7a94 a8bc
00000060: b26a bc3b fd19 8abc a003 303c 8d68 0e3d
00000070: c318 9fbb 1d4c aa3a 290c 1dbb fa8a 3a3d
00000080: 8414 17bd 23c7 d33b 2256 043c cbad 573d
00000090: 1902 4abd ac5b 653c 4c8a 38bd 24be 3dbc
000000a0: f47d dc3c a380 5d3d c959 043d 54d3 1ebd
000000b0: 1efd 973b 92e9 57bc c830 f839 ee00 6cbb
000000c0: 3557 483d 216f 923c 2d31 b1ba 826d fd3c
000000d0: 808b f13c 7112 513a cca5 36bd d574 cbbc
000000e0: 74e0 943c 288e aa3c 2a2c 0e3c 08ea 2c3d
000000f0: 9388 0abd cf34 053c fcf7 c13c 7798 a43b
00000100: 8619 303d 71ff dcbc daa7 f5bb c174 49bd
00000110: a028 6dbc 7001 60bc b85f 163d 7683 46bc
00000120: 0a97 55bc a1f1 e4bc 3c78 2b3d 919f 1f3c
00000130: ba99 293d 1b8c d2bc f4db cbbc ac6a ad3c
00000140: 8a9b 48bc 7bdf 22bd 3b0e f1bb 9938 9a3c
00000150: e18d a83b a7df 9bbc 020f cc3c e49e 2a3c
00000160: eb86 ff3c 9c0c d03c 5e91 493d bca7 003c
00000170: 48de 173d 47c0 313b 1e0e 18bd c48d 89bc
00000180: c1fc 37bd e5d4 4d3d 0fde 2e3d 5fbb db3c
00000190: 0ffa 17bd 9585 723d 878c 933c 8714 c4bc
000001a0: e89d 783c 6596 553d 8aea 0a3d 7d51 ff3c
000001b0: fbc4 2fbd 265e bdbc 3447 fa3c 6c59 2abd
000001c0: 98e3 a23c 1c6f d43b 5a2b 06bb 630f e23c
000001d0: 7664 8a3c de81 ffbb bfc9 1ebc 2bd7 c33c
000001e0: 02c4 21bd 6c13 23bb d45a 01bd c7ef 23bd
000001f0: 1849 d1bc 28c1 083d 2383 f43a 70d7 27bd

actor.linears.1.weight f4 [128, 128]
-0.025553713 0.060519602 -0.092495486 -0.07985345 -0.007197463 -0.05338879 0.03630691 0.041539244
0.020391973 0.057323486 0.077380024 0.08281835 -0.055676404 0.017732555 0.07153176 -0.030777238
0.026754556 -0.06417981 0.0807974 -0.059270352 -0.024466526 0.08098957 0.008066884 -0.051687878
0.03830769 -0.08038079 -0.09039523 0.079720356 0.052634608 0.07575334 -0.060387377 0.07043472
-0.046937034 0.008646441 0.036092423 0.015094587 0.048487656 0.08048993 0.070819035 -0.015699973
-0.046179663 0.09322296 0.023380825 -0.05719218 -0.0040660542 -0.044678666 -0.024861995 0.043616
-0.019457718 -0.08716627 0.0029737747 -0.0671832 -0.07650659 -0.015560016 0.0024113548 -0.007672693
-0.044984743 0.06797742 -0.014220706 0.043776136 -0.08746272 -0.026023056 0.016215036 0.092436984
0.050849702 -0.024368167 -0.03957164 -0.03717686 0.061308887 -0.050441626 0.01514352 0.029162081
0.06586048 -0.022876782 -0.05127888 0.036906395 0.006309681 -0.056170117 -0.015105571 0.014693425
-0.087268434 -0.053965483 0.07832582 0.082326256 -0.018376514 -0.04040559 -0.029941173 -0.037717555
-0.06757373 -0.021752268 0.0138878655 -0.075767 0.061825667 -0.07427101 -0.009213714 0.07046591
-0.06577057 0.010731744 0.07663436 0.027760848 0.05820565 -0.0031925314 -0.022877147 -0.028198088
0.06127627 -0.03197633 0.082542956 0.073236525 0.04919135 -0.041472025 -0.06507183 0.02504062
0.0035030798 0.04695077 -0.05691547 0.07795886 0.049721938 -0.061625198 -0.069961466 -0.075314626
-0.029202057 -0.05057458 -0.08992863 -0.050567836 -0.005471302 -0.038489066 0.03543887 0.022901535
0.0742379 -0.03838713 0.036205154 -0.020391537 -0.06144645 -0.07311373 0.030367453 -0.092957504
0.0644345 -0.050406627 0.0067952746 -0.02383746 0.044336867 0.008682944 0.057518743 -0.046404615
0.07198513 0.043207116 -0.051672217 0.032232903 -0.0034584699 -0.020516085 -0.071387514 0.08020979
-0.0550052 0.06970827 0.022918014 0.060805682 0.09080347 0.084198736 -0.03643455 0.0150772305
-0.08120162 -0.047860365 0.016152041 -0.07303799 0.084245205 0.04978381 0.08840878 0.08499362
0.007850447 -0.08209098 -0.025259536 -0.08722899 -0.004879089 -0.00825152 -0.056947723 0.08204656
-0.012299994 -0.050659087 0.06472797 -0.049640957 -0.009557092 -0.02929673 0.020353062 0.012790603
0.07593993 0.049401604 0.081240565 0.0077851834 -0.059950694 0.024544565 -0.008573989 0.03965566
0.015928105 -0.008381561 0.05204482 -0.058518242 0.08173704 -0.012920893 0.027350403 0.029418597
-0.031757686 0.031595428 -0.018818302 -0.026591895 -0.020398863 -0.067938544 -0.041922152 -0.043551322
-0.0089046005 -0.049004607 0.015856719 -0.06365573 0.0632951 -0.06435309 -0.024843922 -0.006146726
-0.03343843 -0.027525641 0.08060637 -0.00016738247 0.06456484 -0.015773816 0.046001475 -0.0050499695
-0.043340895 -0.011790139 -0.0047117034 -0.07155119 0.07553599 -0.06145786 -0.035848223 0.06593741
-0.06273105 0.042466752 -0.005188914 -0.071003646 -0.05109721 -0.06897247 0.07591234 -0.078809194
0.054699868 -0.049695197 -0.031137591 0.032834288 -0.009028843 0.06370171 -0.03257808 0.03323705
0.009650175 -0.07079905 -0.07445786 -0.060222644 0.03730242 0.064905316 0.052118856 0.04187465
00000000: 0556 d1bc 67e3 773d 466e bdbd 358a a3bd
00000010: b2d8 ebbb 34ae 5abd 8eb6 143d 0e25 2a3d
00000020: 110d a73c 08cc 6a3d 6b79 9e3d ab9c a93d
00000030: f10c 64bd dd43 913c 3e7f 923d 8c20 fcbc
00000040: 5f2c db3c b470 83bd 1b79 a53d 78c5 72bd
00000050: 066e c8bc dcdd a53d f72a 043c abb6 53bd
00000060: 86e8 1c3d af9e a4bd 2221 b9bd 6d44 a33d
00000070: 6397 573d 9124 9b3d c158 77bd 1440 903d
00000080: 0c41 40bd cda9 0d3c a6d5 133d 494f 773c
00000090: fe9a 463d e8d7 a43d 9209 913d 3b9d 80bc
000000a0: e326 3dbd aeeb be3d 2589 bf3c 5942 6abd
000000b0: 893c 85bb fa00 37bd 62ab cbbc b1a6 323d
000000c0: cb65 9fbc 3b84 b2bd a9e3 423b 5897 89bd
000000d0: 7daf 9cbd 70ef 7ebc d207 1e3b 376b fbbb
000000e0: ec41 38bd bf37 8b3d f7fd 68bc 9b4e 333d
000000f0: a81f b3bd 4e2e d5bc 65d5 843c 9a4f bd3d
00000100: c747 503d c09f c7bc df15 22bd c346 18bd
00000110: 071f 7b3d e19b 4ebd 871c 783c 51e5 ee3c
00000120: dce1 863d 1768 bbbc ce09 52bd 292b 173d
00000130: 71c1 ce3b a312 66bd 5b7d 77bc b1bc 703c
00000140: cbb9 b2bd e90a 5dbd 4a69 a03d ab9a a83d
00000150: 588a 96bc 5580 25bd 3147 f5bc b97d 1abd
00000160: 1964 8abd d031 b2bc ee89 633c bb2b 9bbd
00000170: e93c 7d3d 661b 98bd 1ef5 16bc 6e50 903d
00000180: b8b2 86bd 32d4 2f3c 7af2 9c3d b86a e33c
00000190: 0c69 6e3d ca39 51bb db68 bbbc adff e6bc
000001a0: d3fc 7a3d 9df9 02bd 480c a93d 08fd 953d
000001b0: de7c 493d 92de 29bd 6144 85bd fc21 cd3c
000001c0: ed93 653b 734f 403d 3220 69bd e5a8 9f3d
000001d0: 3ba9 4b3d b46a 7cbd f547 8fbd 8e3e 9abd
000001e0: 2739 efbc 4a27 4fbd 802c b8bd 3820 4fbd
000001f0: 9c48 b3bb b6a6 1dbd 5928 113d 009c bb3c
00000200: 0a0a 983d d33b 1dbd db4b 143d 270c a7bc
00000210: 46af 7bbd a7bc 95bd 2ac5 f83c 8160 bebd
00000220: 3cf6 833d 2e77 4ebd e5aa de3b c746 c3bc
00000230: 939a 353d e842 0e3c c698 6b3d c412 3ebd
00000240: f16c 933d f2f9 303d 3fa6 53bd a606 043d
00000250: 7fa7 62bb 5911 a8bc 9e33 92bd 0845 a43d
00000260: 224d 61bd 36c3 8e3d 8fbe bb3c 610f 793d
00000270: 2bf7 b93d 6370 ac3d 653c 15bd 7d06 773c
00000280: 094d a6bd 3b09 44bd 4951 843c f194 95bd
00000290: c088 ac3d 1cea 4b3d aa0f b53d 2311 ae3d
000002a0: 299f 003c 511f a8bd 16ed cebc 1da5 b2bd
000002b0: c4e0 9fbb 6231 07bc 0442 69bd 0708 a83d
000002c0: ea85 49bc e77f 4fbd 1990 843d 5154 4bbd
000002d0: 5995 1cbc b2ff efbc 77bb a63c ad8f 513c
000002e0: 6586 9b3d 5659 4a3d 7461 a63d da1a ff3b
000002f0: dc8e 75bd af11 c93c eb79 0cbc f96d 223d
00000300: a87b 823c d152 09bc f32c 553d d3b0 6fbd
00000310: c065 a73d 27b2 53bc f40d e03c 45ff f03c
00000320: 5914 02bd 356a 013d d728 9abc 3fd7 d9bc
00000330: 841b a7bc 5d23 8bbd 90b6 2bbd df62 32bd
00000340: 9ae4 11bc 0eb9 48bd f3e5 813c ef5d 82bd
00000350: dda0 813d 8ecb 83bd 7b85 cbbc 7a6a c9bb
00000360: bcf6 08bd 747d e1bc f414 a53d 6483 2fb9
00000370: 923a 843d 1738 81bc 0b6c 3c3d 377a a5bb
00000380: 3986 31bd 6d2b 41bc a264 9abb 6e89 92bd
00000390: 9db2 9a3d 3dbb 7bbd 96d5 12bd 310a 873d
000003a0: 2379 80bd 9ef1 2d3d c407 aabb 5c6a 91bd
000003b0: 4f4b 51bd 7041 8dbd ee77 9b3d b766 a1bd
000003c0: f80c 603d 318d 4bbd 4314 ffbc 3f7d 063d
000003d0: b6ed 13bc 0b76 823d 9870 05bd 9323 083d
000003e0: c51b 1e3c 18ff 90bd 5d7d 98bd 05ac 76bd
000003f0: 6cca 183d 14ed 843d 957a 553d c184 2b3d

actor.linears.1.bias f4 [128]
-0.06575419 0.064337894 -0.04525654 0.084790275 -0.01974754 -0.028324334 -0.01469967 0.023937473
0.06991209 -7.967844e-05 -0.024736898 -0.08140898 0.08566906 -0.074058086 -0.058209844 -0.026083745
-0.009480437 0.06451759 0.031598955 0.061626997 -0.064526364 -0.08178699 -0.048625182 0.062418617
-0.049278993 -0.042104084 0.047106985 -0.08465938 0.003377618 0.042911958 0.00084419193 -0.057291858
-0.067135856 0.043811776 0.0595099 -0.07822583 0.040158905 0.030636959 -0.07161488 0.017102066
0.05908274 0.08226309 -0.03412569 -0.07674468 -0.07973551 0.041097067 -0.07375117 0.06296592
0.059609868 -0.080509484 0.085116364 -0.085684836 0.042734046 -0.043537006 0.00082096213 -0.024786
-0.013568433 -0.059872292 0.071042486 -0.029328385 0.08499739 0.034803513 0.025730072 0.019356277
0.013024897 -0.056868404 -0.070014745 0.07500041 0.0046655717 -0.022723606 -0.033777267 -0.027780512
-0.051268958 0.0691788 0.016928209 0.006796398 -0.005439807 0.050203282 -0.038395625 0.05101626
0.034576062 0.081660986 0.078409575 0.0013712808 0.07050856 0.037309542 0.07492673 0.010791266
-0.02644046 -0.010949156 0.022814166 -0.08504442 0.055917174 -0.0071764127 -0.060746636 -0.049058333
-0.077057675 -0.065200314 0.034129743 -0.022052828 0.041824207 -0.06577982 0.069492295 0.030294709
0.054618366 0.054177616 -0.06125238 0.0146522485 0.068779014 -0.00710792 0.020595761 -0.005103601
0.011289553 -0.0076572183 -0.007097077 -0.013683971 -0.037664305 -0.0072461185 -0.055612165 -0.021329891
-0.02835141 0.055410914 -0.05357177 0.014291231 -0.021831548 0.058196165 0.0702344 -0.067412
00000000: 22aa 86bd 96c3 833d ec5e 39bd 86a6 ad3d
00000010: 98c5 a1bc 6f08 e8bc e2d6 70bc 8518 c43c
00000020: 122e 8f3d 0919 a7b8 09a5 cabc c0b9 a6bd
00000030: 4373 af3d c4ab 97bd 726d 6ebd 94ad d5bc
00000040: d653 1bbc cc21 843d e86d 013d 976c 7c3d
00000050: 6626 84bd f07f a7bd 332b 47bd aaaa 7f3d
00000060: c5d8 49bd 5575 2cbd 41f3 403d e661 adbd
00000070: 075b 5d3b 73c4 2f3d c34c 5d3a deaa 6abd
00000080: 867e 89bd fa73 333d a7c0 733d dd34 a0bd
00000090: aa7d 243d 5cfa fa3c d2aa 92bd a219 8c3c
000000a0: be00 723d 8d79 a83d 61c7 0bbd 512c 9dbd
000000b0: 5f4c a3bd 6655 283d da0a 97bd 47f4 803d
000000c0: 7a29 743d 28e2 a4bd 7d51 ae3d 887b afbd
000000d0: e509 2f3d dc53 32bd d635 573a 020c cbbc
000000e0: 224e 5ebc a63c 75bd b97e 913d 1542 f0bc
000000f0: 1d13 ae3d 218e 0e3d dfc7 d23c 0e91 9e3c
00000100: 6166 553c d8ee 68bd e463 8fbd d199 993d
00000110: a7e1 983b db26 babc 085a 0abd f593 e3bc
00000120: 66ff 51bd 9dad 8d3d 07ad 8a3c 52b4 de3b
00000130: 6940 b2bb f5a1 4d3d bb44 1dbd 6df6 503d
00000140: a19f 0d3d e03d a73d 3395 a03d 8cbc b33a
00000150: cb66 903d e4d1 183d 2f73 993d dacd 303c
00000160: aa99 d8bc 1764 33bc c6e4 ba3c c52b aebd
00000170: 6809 653d 1d28 ebbb 77d1 78bd 64f1 48bd
00000180: 6ad0 9dbd be87 85bd a1cb 0b3d 22a8 b4bc
00000190: dc4f 2b3d 92b7 86bd fa51 8e3d 9c2c f83c
000001a0: 82b7 5f3d 59e9 5d3d c7e3 7abd fc0f 703c
000001b0: 03dc 8c3d 8ee9 e8bb 71b8 a83c 1c3c a7bb
000001c0: d1f7 383c 67e9 fabb 998e e8bb bc32 60bc
000001d0: e345 1abd d970 edbb 95c9 63bd 06bc aebc
000001e0: 3741 e8bc 8ef6 623d 136e 5bbd c425 6a3c
000001f0: 13d8 b2bc 1a5f 6e3d 0ed7 8f3d 4d0f 8abd

actor.linears.2.weight f4 [1, 128]
0.05312608 0.013127383 -0.07435871 0.06303817 0.06700768 -0.081577174 0.058923196 -0.031783942
0.075450994 -0.06517286 0.03886366 -0.045073856 0.035916056 -0.05148063 -0.0070365234 -0.006866013
0.07664744 -0.07148353 0.0072749034 0.032611743 -0.03920033 0.045649238 0.026988419 -0.0054924893
0.019516135 0.071053416 -0.08074232 0.07005921 -0.017033556 -0.059932817 0.00077555684 0.0056127743
0.022375345 -0.058429092 -0.045298927 -0.008491298 0.0047429 -0.047687672 0.048809983 -0.060601406
0.009052907 0.02673468 0.020052325 -0.0054546553 0.020776425 0.06976005 -0.06749505 0.049759127
-0.02540029 -0.05578226 0.03806869 -0.04086696 -0.009305045 0.078957655 -0.024515253 -0.061049264
-0.036195364 0.034042686 -0.005283456 -0.0006885918 0.014973016 -0.05813077 -0.039355334 0.0063909763
-0.07748339 -0.022369325 0.039031766 0.026764696 -0.0139548965 0.07809853 0.010071029 0.07018691
0.042099394 -0.04600935 0.011430745 -0.022303972 0.030875903 -0.06593682 -0.012157433 -0.004881861
-0.05905058 0.0069033005 -0.039626125 0.035439048 0.07078494 -0.06377716 0.0740194 -0.017490009
0.07788521 0.045594044 -0.035161022 -0.055959594 0.062366553 0.050066847 0.038820848 0.061704613
0.03127254 0.057062548 -0.04604768 0.016772404 0.038297094 -0.042833325 0.06948686 -0.060242835
0.013630382 0.02848768 -0.056409556 0.071668416 -0.04056807 -0.04394442 -0.015036013 -0.03456682
0.060755298 0.024423622 -0.04351369 -0.0040111863 -0.07519367 0.013135306 -0.05235035 -0.047460243
-0.038195807 -0.03598503 -0.06941066 -0.023497863 0.041568805 -0.040092062 0.019103408 -0.00013756493
00000000: bc9a 593d 3c14 573c 6149 98bd 281a 813d
00000010: 533b 893d ef11 a7bd 7359 713d e12f 02bd
00000020: 0d86 9a3d 5979 85bd 802f 1f3d 5d9f 38bd
00000030: b71c 133d 5add 52bd a392 e6bb 4bfc e0bb
00000040: 55f9 9c3d f565 92bd 5062 ee3b e493 053d
00000050: 8690 20bd b2fa 3a3d d116 dd3c 57fa b3bb
00000060: 4de0 9f3c 7484 913d 3b5c a5bd 347b 8f3d
00000070: f589 8bbc 1d7c 75bd bd4e 4b3a 5deb b73b
00000080: 804c b73c 5853 6fbd 5e8b 39bd 161f 0bbc
00000090: 546a 9b3b 2654 43bd faec 473d 2e39 78bd
000000a0: a552 143c b002 db3c c644 a43c f7bc b2bb
000000b0: 5233 aa3c 5bde 8e3d d83a 8abd 3ad0 4b3d
000000c0: 4514 d0bc f07b 64bd eaed 1b3d 1d64 27bd
000000d0: 3074 18bc 8db4 a13d 36d4 c8bc cb0e 7abd
000000e0: 9741 14bd 5870 0b3d d720 adbb 9d82 34ba
000000f0: 6251 753c 881a 6ebd 0f33 21bd 656b d13b
00000100: 9daf 9ebd e03f b7bc c6df 1f3d a341 db3c
00000110: 14a3 64bc 1ff2 9f3d f500 253c 28be 8f3d
00000120: 6a70 2c3d 4d74 3cbd 0548 3b3c d2b6 b6bc
00000130: 76ef fc3c e209 87bd f82f 47bc 05f8 9fbb
00000140: 05df 71bd 1535 e23b 014f 22bd 8928 113d
00000150: b2f7 903d 9a9d 82bd 7c97 973d 3547 8fbc
00000160: 4882 9f3d d2c0 3a3d 0105 10bd e335 65bd
00000170: 1274 7f3d e512 4d3d 9c02 1f3d fabd 7c3d
00000180: a317 003d 6bba 693d 7e9c 3cbd 4866 893c
00000190: 6add 1c3d ff71 2fbd 204f 8e3d 31c1 76bd
000001a0: f751 5f3c ff5e e93c b50d 67bd e4c6 923d
000001b0: b42a 26bd 10ff 33bd 9c59 76bc f095 0dbd
000001c0: 8cda 783d 0c14 c83c 693b 32bd 4570 83bb
000001d0: 24ff 99bd 7735 573c 526d 56bd ac65 42bd
000001e0: 3573 1cbd 0a65 13bd 2d27 8ebd 977e c0bc
000001f0: 0d44 2a3d 9337 24bd c07e 9c3c 4e3f 10b9
