FJSP_MultiPPO/saved_network/FJSP_J100M405/best_value00/policy_job.pth (torch_old, 637559 bytes, 53 tensors)

_input f4 [128]
000000 48 aa d4 bc ca 03 4b bf 17 c8 45 bf 97 5f 9e be
       -0.025960103 -0.79302657 -0.7725844 -0.30932304
000010 d0 83 02 bf 52 87 35 be c7 00 c1 be 53 5c 4a bf
       -0.5098238 -0.17727402 -0.37695906 -0.79047126
000020 b7 a6 dc be 0f b4 6e bf 10 6a 23 3e 0f ef d3 3d
       -0.43095943 -0.932435 0.15958428 0.10348331
000030 35 61 1b 3f 71 a0 21 bf 10 8e e1 be a7 9b c5 bd
       0.606952 -0.6313544 -0.44053698 -0.09648829
000040 86 6f e8 3e 94 79 20 bf ae 68 55 be 3e 23 6a 3e
       0.45397586 -0.62685513 -0.20840713 0.22865006
000050 f3 87 1e 3f 42 b2 4f 3f 22 d7 71 be c3 96 75 3e
       0.6192619 0.81131375 -0.23617223 0.23983292
000060 16 45 af bd 73 e9 5d bf eb 23 30 3f 13 a4 e7 be
       -0.08558099 -0.8668434 0.68804806 -0.45242366
000070 c6 99 46 3f 4a 6d 4c bd eb 67 63 bf 87 9e 8b 3e
       0.7757839 -0.049908914 -0.8883044 0.27269384
000080 27 92 7e 3f 9f 01 39 3f e8 df 7d 3e 02 17 23 bf
       0.9944176 0.722681 0.24792445 -0.6370698
000090 39 c5 c1 3e ab 2f f8 3d 46 b5 61 3f 28 00 b0 be
       0.3784578 0.12118467 0.88167226 -0.3437512
0000a0 5b 53 5d 3f 60 01 11 3f ca ad 10 3e 73 d8 83 bd
       0.86455315 0.56642723 0.14128795 -0.06437769
0000b0 ec e1 f4 be 54 ba 36 3f 1e 54 04 3d 33 3e ce 3e
       -0.47828615 0.71378064 0.032306783 0.4028183
0000c0 76 d1 98 be 7f af 36 3f e7 0d 16 3f 8d a6 35 bf
       -0.29847306 0.71361536 0.58614963 -0.7095726
0000d0 db dc 37 3f 5d b5 8e 3e ad 47 b0 bc 80 4b de bc
       0.71821374 0.27872744 -0.021518553 -0.02713561
0000e0 ff b1 a2 be 95 ce 3b 3f 44 a6 35 3f 5c 5d 6a 3e
       -0.31776425 0.73362094 0.70956826 0.22887176
0000f0 19 a3 5b 3f 21 97 0a bd 44 7a 3e 3f 93 01 e1 be
       0.8579574 -0.033835534 0.7440531 -0.43946514
000100 d9 c5 9f 3e 57 bd 04 3f bf de 32 bf 86 20 80 be
       0.31205633 0.5185141 -0.69871134 -0.25024813
000110 b4 87 88 3e 84 28 18 3f 88 e2 30 bf 4d 08 5a 3d
       0.26666033 0.5943682 -0.6909566 0.053230572
000120 88 20 39 3f 17 71 6f bf a8 93 65 be d7 e5 0a 3f
       0.72315264 -0.93531936 -0.22419608 0.5425696
000130 bd 1d 59 3f f5 55 fc 3e 55 b8 71 bf 1b 7c 79 3f
       0.84811 0.4928433 -0.94421893 0.97454995
000140 cb 48 65 3f 8c ab 6a 3f 72 af aa bd 07 eb f8 be
       0.895642 0.9166801 -0.08334245 -0.48616812
000150 70 6d 02 3e 02 2e 54 bf 87 84 d9 be 26 19 3f 3f
       0.1273706 -0.828827 -0.42483923 0.7464775
000160 d1 80 2d bf fa 65 a7 be ca ae 61 bf c2 6b 4e 3f
       -0.67774683 -0.3269499 -0.8815733 0.80633175
000170 15 ca 79 3d 06 1e b2 be 5c 69 70 3f 96 7a 52 3f
       0.060983736 -0.3478853 0.93910766 0.822183
000180 2c 85 04 3f 8c 35 a0 3e 9e f8 84 be 56 0a f9 be
       0.51765704 0.31290853 -0.2597093 -0.48640698
000190 af 06 59 3f b8 01 b9 be 7c 6a 41 bf 89 e4 49 3f
       0.84775823 -0.36134124 -0.7555311 0.7886434
0001a0 a9 37 d8 3d eb 76 18 3d b3 87 bc be 54 46 be 3e
       0.10557491 0.037222784 -0.3682228 0.3716303
0001b0 50 28 4e bf 72 14 26 3e 57 74 27 3f 2b da 70 3f
       -0.8053026 0.16218737 0.65411896 0.940829
0001c0 e3 64 f9 be 41 1a e9 3e 48 e0 c7 3e 2f eb 4c 3e
       -0.48709783 0.45527843 0.390383 0.2001159
0001d0 ac 86 2e 3f 8b 57 e3 3e e8 8f 6b 3e 4c 0b 72 3f
       0.6817424 0.44402727 0.23004115 0.9454849
0001e0 f5 7c 52 bf 5a 63 0d bf ca a8 78 3f 09 68 53 bf
       -0.8222192 -0.55229723 0.9713255 -0.8258062
0001f0 de 0b 12 bf 15 ee 4e 3f b0 7d 4e bf 9d 69 13 3f
       -0.5704936 0.80832034 -0.80660534 0.5758303

bn.weight f4 [2]
000000 00 00 80 3f 00 00 80 3f
       1.0 1.0

bn.bias f4 [2]
000000 00 00 00 00 00 00 00 00
       0.0 0.0

bn.running_mean f4 [2]
000000 00 00 00 00 00 00 00 00
       0.0 0.0

bn.running_var f4 [2]
000000 00 00 80 3f 00 00 80 3f
       1.0 1.0

encoder.feature_extract.mlps.0.linears.0.weight f4 [128, 2]
000000 d9 c1 26 3f c1 d1 d2 be 21 24 2f bf 96 4c c5 be
       0.6513954 -0.41175655 -0.68414503 -0.38534993
000010 0b f8 c0 be 4b c5 ae 3e 3a d1 f6 3d 6e c9 24 3f
       -0.37689242 0.34134898 0.120516255 0.6436986
000020 8b 75 15 3f a5 45 f8 3d ca cc dd be 2f 49 fe be
       0.5838248 0.12122659 -0.43320304 -0.4966521
000030 4f 41 76 be 92 cb ed be f6 bf f9 be 7e fe ee be
       -0.24048351 -0.46444374 -0.48779267 -0.46678537
000040 1d 25 21 3f 02 ee cd be 81 41 5b 3e fd 23 0f bf
       0.62947255 -0.40220648 0.21411707 -0.5591429
000050 a1 7a 9e 3e 0e e1 bf 3e 62 cb 2f bf c6 37 d1 be
       0.30952933 0.3747639 -0.6866971 -0.40862864
000060 2d 03 b7 3e 9f 61 30 be 54 56 0f bf 71 fc 55 3e
       0.3574461 -0.1722474 -0.559911 0.2089708
000070 b9 0f 60 be 67 b4 29 bf df d2 8c 3e 91 eb 08 3f
       -0.21880998 -0.662909 0.27504632 0.53484446
000080 4f 13 0d 3e 08 2d 0a 3f 25 68 1a 3f 2a 1e 96 3e
       0.13776897 0.5397496 0.6031516 0.29319888
000090 8c 12 6c 3e 3a 17 c4 be 5f 90 c6 be 39 b7 85 3d
       0.2305395 -0.3829897 -0.3878202 0.065290876
0000a0 c8 3b b0 3d f6 49 2b bf 56 3f 94 bd b8 49 fd 3c
       0.08605152 -0.6690973 -0.07238643 0.03091894
0000b0 35 48 12 be ac 36 1f be a2 97 26 3f 4f 6f 00 bf
       -0.14285357 -0.155482 0.65075123 -0.50169843
0000c0 e1 1f 33 3e 39 53 bc 3e 8b df d6 3e e8 23 dc bb
       0.1749263 0.36782244 0.41967425 -0.0067181475
0000d0 40 df 13 3f 27 ee 14 be 0f b5 7e bd 87 51 9e 3e
       0.5776253 -0.14543973 -0.06218439 0.30921575
0000e0 e2 b0 04 3e a7 0b 84 be 51 63 23 bf 8d c0 26 bf
       0.129581 -0.2579014 -0.6382342 -0.6513756
0000f0 ff 8b 0e bf 42 dc a7 3e 68 9a db 3b eb 8b 3d 3e
       -0.5568237 0.3278523 0.0067017563 0.18510406
000100 70 6d 0b 3f 6f d7 40 be 49 31 fa 3e 09 55 e2 3e
       0.54463863 -0.18832181 0.48865727 0.44205502
000110 2e 74 31 bf 66 7e 56 3e 16 1a 27 3f c1 2b 3f 3e
       -0.693179 0.20946655 0.6527418 0.18669035
000120 ac 33 1b 3f 86 7f 26 be f4 4d 9f 3e 56 aa 41 3e
       0.6062572 -0.16259584 0.3111416 0.18912634
000130 1a 89 12 3f 06 ec d7 be db 71 07 bf 7d 61 f4 3b
       0.5724045 -0.4217226 -0.52908105 0.0074579106
000140 5f bd a1 3e 80 ee 05 3f 86 b1 38 3e 6d 5c 2b 3f
       0.3158979 0.5231705 0.1803647 0.66937906
000150 21 f9 e7 3d 83 6f 0f 3f c3 b5 24 3f fd 0b 89 3d
       0.113268144 0.5602953 0.64339846 0.0669174
000160 51 c5 94 bd 55 8b 15 bf cb 87 b0 be e1 4f 07 3f
       -0.072641976 -0.5841573 -0.34478602 0.5285626
000170 4f 36 a3 3d c1 cc 1a bf 9b 3c f5 be 77 6a d7 3e
       0.07969343 -0.6046868 -0.478978 0.42073414
000180 c9 65 89 3e b8 5b a9 3e d8 27 0c bf a8 c6 fd be
       0.26835468 0.33077788 -0.54748297 -0.49565625
000190 c6 5e 29 be 32 7b 22 3f 6a ca 12 3f 4b d1 b8 3e
       -0.1654006 0.6346923 0.5734011 0.36097178
0001a0 d6 11 b1 3e f0 cd 8c be e7 c5 26 bf 05 0e be be
       0.3458392 -0.27500868 -0.65145725 -0.3712007
0001b0 ec aa d1 be a5 6e b2 be 58 ea 85 3e 3e c5 2f 3f
       -0.40950716 -0.3485004 0.26155353 0.6866034
0001c0 22 a9 26 3f 0d 91 c2 3e 07 f3 e6 be ef 60 07 3f
       0.65101826 0.3800129 -0.4510729 0.52882284
0001d0 e8 92 b8 3e 86 00 1f bf 8c 30 20 bf c7 d6 90 3e
       0.3604958 -0.62110174 -0.62574077 0.28288862
0001e0 5d 59 b0 be c7 75 31 bf 0d 82 fe bd 66 7f 32 be
       -0.3444318 -0.6932034 -0.12427149 -0.17431411
0001f0 04 8c f9 3d 70 cb d4 be fc a5 d6 3e fa cf 2b 3e
       0.12184909 -0.4156146 0.4192351 0.16778556
000200 28 8b 0e bf 85 49 78 3e f9 4c 83 3e d4 be 79 3e
       -0.55681086 0.24246795 0.25644663 0.24389201
000210 fc 56 1c bf 99 32 2b bf 48 60 99 3e b5 dc 2c 3d
       -0.6107023 -0.6687408 0.2995627 0.04220267
000220 17 57 d5 3e 03 0d 24 bf 99 a0 0e 3e 1d 00 c3 be
       0.41668007 -0.64082354 0.1392845 -0.38086024
000230 fa 0a 08 3f 2c d0 09 bf 85 57 d7 3e 06 88 3d 3e
       0.5314175 -0.5383327 0.4205896 0.1850892
000240 30 71 14 3c b7 31 23 3f f5 66 0d 3e cd 45 07 3e
       0.009060189 0.63747734 0.13808806 0.1321022
000250 c1 a5 7d be ce 77 0d bf 6a 83 38 3e 5f ac d9 bd
       -0.24770261 -0.5526093 0.1801888 -0.1062858
000260 ca 7d 0e 3f 11 38 85 3e 7e 86 19 bf 7a 78 5a 3c
       0.5566069 0.26019338 -0.59970844 0.013334388
000270 ba 4a 2d 3e 18 32 d1 be dc 64 9e be 25 a4 ae be
       0.16923037 -0.4085853 -0.30936325 -0.34109607
000280 08 e7 14 3f 87 c8 9e be 3d 91 12 be 79 07 c7 be
       0.58165026 -0.31012365 -0.14313217 -0.3887289
000290 23 c9 55 3c f8 f9 1d 3f ca 9d 06 3f b5 ac 8d be
       0.013048443 0.6170955 0.52584517 -0.27670828
0002a0 50 0c 0c 3f c9 09 98 3e e4 b2 df 3e 39 2d 66 be
       0.5470629 0.29694965 0.4369117 -0.22478189
0002b0 34 e4 aa be 9b 4b 31 be 56 a5 82 be 7b 14 05 3e
       -0.3337723 -0.17313997 -0.25516766 0.12996094
0002c0 66 e8 27 3f ba ba c7 bd ce ac a8 3e 04 1d 04 3e
       0.65588987 -0.09752412 0.3294434 0.12901694
0002d0 c2 d3 bb 3e af 9c 29 3f 53 52 9a be 0e d2 b4 3e
       0.36684996 0.66254705 -0.30140933 0.3531651
0002e0 3e 84 30 bf 02 29 25 bf 6a 83 03 be 73 63 de 3e
       -0.68951786 -0.645157 -0.12843099 0.4343525
0002f0 2e 50 0c be 1c 1f 0c bf 6c 41 da be 7a 62 43 3d
       -0.13702461 -0.5473497 -0.42628038 0.047701336
000300 8a 2a 24 be d4 d1 82 be 17 f1 32 bf 9c d5 dc 3d
       -0.16031852 -0.2555071 -0.69899124 0.1078293
000310 03 1d f9 3e 7b 9d cc 3e fe f3 27 bf 39 0e e8 be
       0.48654947 0.39963898 -0.6560668 -0.4532335
000320 75 d7 83 3e e9 82 74 3e 20 be 12 3f a4 7c 2e 3e
       0.25750318 0.23878063 0.5732136 0.17039734
000330 69 ab 21 3f 7d 76 e5 bd 84 bc ad be 83 85 88 3e
       0.63152176 -0.112042405 -0.33932889 0.2666436
000340 14 2a f4 be f4 e6 50 be 61 53 1c 3e b8 f3 53 be
       -0.47688353 -0.20400602 0.15266182 -0.2069844
000350 67 89 85 be 82 53 95 3e 76 a8 76 3e d2 27 56 3e
       -0.26081392 0.29165274 0.240877 0.20913628
000360 74 17 17 bf b9 11 0f 3f c7 1b 2d 3f 22 04 62 3e
       -0.5902016 0.5588642 0.6762051 0.22071889
000370 7a 42 c3 3e 25 4b 0d 3d b2 b4 83 be 87 70 84 3e
       0.38136655 0.03449549 -0.25723797 0.25867102
000380 d8 26 03 3f e2 37 39 3e e2 11 16 3f 59 a5 6e be
       0.51231146 0.18087724 0.58621037 -0.23305263
000390 1f c8 3b 3e 47 6e cc be e2 da 2e 3f 7e 2c 14 3f
       0.18338059 -0.39927885 0.6830274 0.5788039
0003a0 c8 52 35 bf 88 65 1f 3f 7f 75 2a bf 0f 09 f9 be
       -0.7082944 0.622643 -0.66585535 -0.48639724
0003b0 c0 b6 80 be 96 df ba 3d bc 7f 1e bf 87 6c 09 bf
       -0.25139427 0.09124677 -0.6191366 -0.53681225
0003c0 a5 43 97 3e d1 50 1f 3e e7 65 db 3e b5 91 f2 3e
       0.29543796 0.15558173 0.42851183 0.4737679
0003d0 19 ec d6 be 36 60 a0 bd 1b f2 98 be ea a5 02 bf
       -0.41977003 -0.07830851 -0.29872212 -0.51034415
0003e0 7d b2 03 3f 48 ac df 3d e3 3e 10 3e 35 b8 06 be
       0.51444227 0.10921532 0.1408649 -0.13156207
0003f0 d7 14 cd 3e f8 a6 12 bf 78 6f de be 52 e0 fa 3e
       0.40054962 -0.57286024 -0.4344442 0.48999268

encoder.feature_extract.mlps.0.linears.0.bias f4 [128]
000000 67 c9 d9 39 3f 21 27 3f ac ac 2d bf da fa 19 3f
       0.00041539522 0.65285105 -0.678416 0.60148394
000010 fa bb 36 3e 30 05 ab 3e 31 49 fd 3a bb 0d bb be
       0.17845145 0.33402395 0.0019324181 -0.36533913
000020 52 35 79 3e 1e d3 21 bf 14 69 2f 3f 25 41 20 3f
       0.24336746 -0.63212764 0.6851971 0.625994
000030 57 0a 21 3f c9 b6 b4 bc 06 bc e0 3e c1 e7 2a 3e
       0.629064 -0.022059815 0.4389345 0.1668997
000040 ff 97 51 3e 7c e3 7a be 0f 86 41 be 96 dd 9b be
       0.20468138 -0.24500841 -0.18898796 -0.30442494
000050 d4 bf 62 3e a2 0d bc bd 9a fc 73 bd 54 78 21 3e
       0.22143489 -0.09182288 -0.05956707 0.15768558
000060 74 d6 e6 3e 18 7a 20 bf 8e 21 1e bf 0f 0c 17 3e
       0.4508549 -0.626863 -0.6176995 0.14750694
000070 bc 3a 94 be 41 00 bf 3e 35 a2 2f 3f e2 8b bf bd
       -0.2895106 0.3730488 0.68606883 -0.093528524
000080 c9 bc d6 3e 56 d7 e9 3e e6 b4 76 3e 9a 76 e2 be
       0.41940907 0.456721 0.24092445 -0.4423111
000090 38 36 06 3f 0e fd d9 3e 03 20 2c 3f c1 37 44 be
       0.5242648 0.42575878 0.67236346 -0.19161893
0000a0 59 04 59 3e 8e de 0a 3d 02 a1 29 bf 9a 6c 48 3d
       0.21193065 0.03390365 -0.66261303 0.048931696
0000b0 28 5e cb be 3d 4f 45 3b 8b 71 3a 3d 13 2f 0d bf
       -0.39720273 0.0030107044 0.04551844 -0.55149955
0000c0 e6 9b 2d 3e 53 4f d5 be 3f 6a 8f be 65 3c 39 3e
       0.16954002 -0.41662082 -0.28010747 0.18089445
0000d0 2d d8 08 3f 43 95 a5 3e d2 55 2f 3f e1 0f 16 3f
       0.5345486 0.3234044 0.68490326 0.5861798
0000e0 e1 50 7a be e7 24 28 be 0f ae 26 bf de eb 03 3f
       -0.24444915 -0.16420327 -0.6510934 0.5153178
0000f0 2a 3a 27 bf c0 eb f2 be a9 e5 f1 3e ec a5 fc 3e
       -0.65323126 -0.47445488 0.4724553 0.49345338
000100 44 80 37 be ac 04 1e 3f 5d dd d3 3d 50 1b 32 3f
       -0.17920023 0.6172588 0.10344956 0.69572926
000110 29 9d 08 bf a0 4b 44 3e 3a d8 04 3f ca b0 b2 be
       -0.5336481 0.19169474 0.51892436 -0.34900504
000120 2f 26 11 3e 2a 6d 1e 3f 75 da fc bd 14 4f 24 3f
       0.14174722 0.6188532 -0.12346355 0.64183164
000130 b1 4e c2 be 91 73 2d 3f 29 d7 6f bd ce c7 e9 be
       -0.37950662 0.67754465 -0.058554802 -0.4566025
000140 3b 48 f0 3e 74 27 fe 3c 33 46 94 be 21 98 1f 3f
       0.46930107 0.031024672 -0.28959808 0.62341505
000150 f6 d3 cf bd 7d 3f 7b bd 1d 96 23 be 70 dd c0 be
       -0.1014785 -0.061339844 -0.15975232 -0.37668943
000160 70 2b eb be d4 73 e4 3d 57 e5 bb be 99 ed b1 3d
       -0.45931578 0.11154905 -0.3669841 0.08687896
000170 e6 34 03 be 8f 48 a0 3e a7 c5 1f 3f 63 ee 06 3f
       -0.12813148 0.31305358 0.6241097 0.527075
000180 d7 bd 91 3e 6b 0f d3 3e da 6a 26 bf 23 ec f2 3e
       0.2846515 0.412227 -0.6500679 0.47445783
000190 09 99 b6 bd 2e 0c 96 be 75 91 0f 3d 55 d4 22 bf
       -0.08915908 -0.29306167 0.035050828 -0.6360524
0001a0 f0 fd e7 3d 5f 88 0b bf 4d f8 87 3e 25 e4 23 bf
       0.113277316 -0.5450496 0.26556626 -0.64019996
0001b0 36 95 ff 3e b7 77 fa 3c d4 72 a0 bd ee 7c b5 3e
       0.49918526 0.030574663 -0.07834402 0.35446876
0001c0 a3 21 86 3e 4a 0d 39 be 2a 0a 14 bd d7 5a aa bd
       0.26197538 -0.18071476 -0.036142506 -0.083181076
0001d0 02 60 a6 be d8 1f 1b bd b9 19 9e 3e 88 bb d5 be
       -0.32495123 -0.037872165 0.30879 -0.41744637
0001e0 5a 81 b7 3e fc 4b a7 3e 1e c4 27 be 28 8a 80 3e
       0.35840875 0.3267516 -0.16383407 0.25105405
0001f0 f5 be 5d 3e 96 a1 25 3f ce 55 ca be 5e dc 8a bd
       0.21654876 0.64699686 -0.3951859 -0.06780313

encoder.feature_extract.mlps.0.linears.1.weight f4 [128, 128]
000000 04 83 01 bd 6c 76 e8 bc 7d 53 87 bb fe 6f 6a 3d
       -0.031619087 -0.02837678 -0.0041298256 0.05723571
000010 96 77 72 bc 30 19 3c 3d bf 67 b7 3d a1 a3 c6 bb
       -0.014799019 0.04592246 0.08955335 -0.0060619866
000020 ec c3 9d 3d b8 4c 6b bd dd 9c 5f 3c 32 2b 40 bd
       0.07703385 -0.05744621 0.013648239 -0.046916194
000030 52 46 d1 bc 95 38 16 3b f6 7a 99 bd bd d5 8e bd
       -0.025546227 0.002292191 -0.07494156 -0.06974361
000040 ed 1e 60 3b e2 73 9b 3c 66 a5 b1 3d 89 ba 31 bd
       0.003419812 0.018976156 0.086741254 -0.043390784
000050 8f 5c 6f 3d d9 34 aa bd 31 91 4f bd 89 66 c9 3c
       0.05843788 -0.08310861 -0.050675575 0.024585025
000060 d3 14 8e bd 7a e4 43 3d 6e 92 3b bd 31 10 2f 3d
       -0.06937566 0.047825314 -0.045793943 0.04274005
000070 79 c4 bd bc 35 ac 80 bd db f9 5e 3d e1 4c 23 3d
       -0.023164975 -0.06282846 0.0544375 0.03986824
000080 f2 fc 04 bc 5f ac 26 3c fd b1 ad bd 51 85 97 3d
       -0.0081169475 0.010172932 -0.08481214 0.07398475
000090 8d 09 06 bd 2a 26 9c 3c 45 93 8c bd 3a ac dc 3c
       -0.032723952 0.019061167 -0.06864027 0.026937593
0000a0 b4 d1 ae 3d b0 4e a4 3c 61 8f 3f bd 26 ec 93 bd
       0.085360914 0.020057052 -0.046767596 -0.07222776
0000b0 3b 34 a4 bd a5 47 e1 bc 29 18 7c bd fb 10 53 bd
       -0.08017775 -0.027499983 -0.06154648 -0.051529866
0000c0 23 d9 91 bd 7a 6b ab 3d 8b 59 93 3d 84 64 9a bd
       -0.07121494 0.08370109 0.07194813 -0.07538703
0000d0 20 c8 bb bc 32 c3 35 bc ce f8 d7 3c 47 cf 9e 3d
       -0.022922575 -0.0110939015 0.026363757 0.07754379
0000e0 26 f8 cf 3c 07 f8 94 3d 86 41 3d bd ea 7c c1 bc
       0.025386881 0.0727387 -0.046205066 -0.023619134
0000f0 fa 5c a8 bc 6b 07 46 bd 74 ba 6e bd a1 8d c9 bc
       -0.020552147 -0.048346918 -0.058283284 -0.024603667
000100 26 6f a3 bd d6 be 92 3d 26 69 0a 3d c3 9b c6 3c
       -0.07980184 0.07165305 0.033791684 0.024244195
000110 8f 7b 94 bd f0 44 93 3d 00 bf 90 3c e5 01 a0 bd
       -0.072501294 0.07190883 0.0176692 -0.07812861
000120 12 3b 8b bd c3 e0 32 3b 36 03 b3 3d 3b ce b0 bc
       -0.06798376 0.0027294613 0.08740847 -0.021582713
000130 ad c8 af bd f0 21 9d bd 5a 9b 57 3c 66 dc ce 3c
       -0.08583198 -0.07672489 0.013159597 0.025251579
000140 8e 11 8a 3d 7d ca cc bc 3c 75 39 bc cf b1 a7 bc
       0.067416295 -0.024998898 -0.011319455 -0.020470528
000150 c6 55 25 bd 6c 09 a4 3d 3b e0 cc 3c 08 a8 99 bd
       -0.040365003 0.080096096 0.025009265 -0.075027525
000160 db e2 85 3d 8f bf 7b bd 63 30 a8 bd 11 b2 00 3d
       0.0653741 -0.06146198 -0.08212354 0.031419817
000170 b2 62 df bc ea e0 1b bc 64 30 0b 3b 12 53 84 3d
       -0.027268741 -0.009514073 0.002123856 0.06461157
000180 ec b8 15 bd 89 df 9b 3c f9 0d 98 3c 7f a2 ea 3c
       -0.03655331 0.019027488 0.01856135 0.028641937
000190 ee c0 58 bd 4a 78 32 bd 98 6c b4 3d 15 ef 2f bd
       -0.052918367 -0.043571748 0.08809775 -0.042952616
0001a0 5c a3 2f 3d 80 aa 5f 3d 5d 41 aa bd b3 cb 6d 3c
       0.0428804 0.05460596 -0.08313248 0.014513898
0001b0 71 0f 99 3c 6f 66 51 3d 07 a1 17 3d d6 70 5c 3c
       0.01868412 0.05112308 0.037018802 0.013454637
0001c0 b7 fa 53 3d 0e ed 62 3d 9b 84 93 3d 49 f2 ae 3c
       0.051752772 0.055401854 0.07203027 0.021355765
0001d0 7a a1 85 3d bd 3a 3a bd 4e 08 98 bd b3 ad ce bc
       0.0652494 -0.045466173 -0.07423459 -0.02522931
0001e0 2c a4 6e 3c 96 a1 10 3b 5d d6 fa 3b 26 70 85 3d
       0.014565509 0.002206897 0.0076549486 0.06515531
0001f0 20 48 75 bd 74 35 34 3d 21 7f 74 3d 78 a9 79 3d
       -0.059883237 0.04399629 0.059691552 0.060952634
000200 1a 18 92 bd 99 0e 8f 3d 2d f6 d5 bc f8 5d 80 bd
       -0.07133503 0.06985206 -0.026118362 -0.06267923
000210 d7 02 63 bd 7c fd a6 bd 0d 1f 12 3d be 95 b5 3d
       -0.05542263 -0.08153817 0.035674144 0.08866452
000220 69 ef 2f 3c 33 54 24 3d 6f 01 5d bd 27 8d 08 3c
       0.010738232 0.04011936 -0.053956445 0.008334435
000230 a0 c9 4a 3d 9a 29 8e 3d 58 d6 88 3b 8c 69 a1 bd
       0.04950869 0.069415286 0.0041759424 -0.078814596
000240 37 16 94 3d fd f1 2f 3c 58 f0 a6 bd 0b 8f 43 bd
       0.072308 0.010738847 -0.08151311 -0.04774384
000250 6c 2f af 3d 6d 97 c0 3c 7f a1 5a bd f3 ee 14 bd
       0.08553967 0.023509705 -0.05337667 -0.036360692
000260 64 c5 43 bd da 3e b2 3d f6 7a af 3b 5d 21 4f 3d
       -0.04779567 0.08703394 0.0053552343 0.050568927
000270 e9 8d 76 3b a7 21 c6 3c aa ce a1 3d 0e 39 41 bc
       0.0037621206 0.024185969 0.07900746 -0.011793388
000280 ed ce e2 3c 2c ff 9d bd 31 60 6f 3b 35 0f f2 bc
       0.02768656 -0.07714686 0.003652584 -0.029548267
000290 31 cf 59 bd a0 33 77 3d c7 66 32 3a 07 a8 6d bc
       -0.05317611 0.060351968 0.0006805476 -0.014505393
0002a0 c7 af c7 bc 26 d2 b9 3c 84 69 aa 3d d5 12 1b 3d
       -0.02437581 0.022683214 0.08320907 0.037859756
0002b0 79 0b b3 3d 94 f7 85 3d 2a 0d 28 bd 75 06 21 3c
       0.087424226 0.065413624 -0.04102818 0.0098282
0002c0 ae 18 1a 3d 64 86 c2 bb 17 14 4e 3d 56 1e d3 bc
       0.037621193 -0.005936431 0.050312128 -0.025771301
0002d0 f2 05 8c 3d 0e e2 83 3a 93 41 19 bc aa ad a3 bd
       0.068370715 0.0010061876 -0.009354013 -0.07992108
0002e0 15 25 ac bd a2 60 16 3d 7a d9 a0 bd 0a 75 2b bc
       -0.0840551 0.03671325 -0.0785398 -0.010464916
0002f0 c3 1f 25 bd ef 2b 82 3d 91 63 ae bd 15 e6 bb bc
       -0.040313493 0.06356036 -0.085150845 -0.02293686
000300 ff b0 33 bd 42 19 ec bc 38 db 4b 3d 50 ef b3 3c
       -0.04386997 -0.028820638 0.04976961 0.021964699
000310 42 2d b1 ba c1 e4 e6 3c 3a d4 25 3d b2 0e 12 bd
       -0.0013517516 0.02818525 0.0404856 -0.035658546
000320 91 f2 8f 3d 8b 27 21 3d fc db 8b bd 08 d7 9e 3d
       0.07028688 0.03934435 -0.06829068 0.07755858
000330 86 8d 18 bd 54 8d 8d 3d 1c ca d1 bb 96 4d 1e 3d
       -0.037244342 0.06911722 -0.006402267 0.03864821
000340 1f 5f a6 3d a7 53 71 bd e1 d4 94 3c 83 1c 21 bd
       0.08123612 -0.058917668 0.018167915 -0.03933383
000350 c0 df de ba 3d a7 ed 3c 8c 53 80 3c d8 1f 10 3d
       -0.0017003939 0.02901041 0.015664838 0.03518662
000360 c8 aa 68 bd d0 29 70 3d 8f 29 db ba b5 94 bf bc
       -0.056803495 0.058633626 -0.001672076 -0.023386339
000370 88 ee b3 3d 26 9d 96 3d 64 75 af 3c f1 dd a0 bd
       0.087857306 0.073541924 0.02141828 -0.07854832
000380 7a a5 52 bd f9 7b af bb 6b 59 2e 3d f4 b7 7d bd
       -0.051427342 -0.005355355 0.042565744 -0.06194301
000390 06 81 25 bd 9b ff 2f 3d ea 90 5e bd 20 8e f6 3c
       -0.04040625 0.042968374 -0.05433742 0.030097067
0003a0 15 30 6c 3b ce 33 d0 3c 62 3c 94 3d c9 95 a4 bd
       0.0036039401 0.025415327 0.072380796 -0.08036382
0003b0 b5 2d 3d bc 2c 74 70 3d 0d 25 77 3d 98 70 b1 bd
       -0.011546542 0.05870454 0.06033807 -0.08664054
0003c0 14 a6 99 3d 39 08 1a 3b 59 13 c9 3c f8 a5 b3 bd
       0.0750238 0.0023503436 0.024545358 -0.087718904
0003d0 2f d6 89 bd ab 72 53 3d 7b c9 21 bb e4 60 22 bd
       -0.067303054 0.051623028 -0.0024686742 -0.039643183
0003e0 c4 8f 0f bd ca de d8 bc 15 47 15 3c 43 e1 41 bd
       -0.035049215 -0.026473422 0.009111186 -0.047333967
0003f0 5d fa e6 3c 34 06 09 bd 7a f1 87 3c 8a a2 05 3c
       0.028195554 -0.03345318 0.016594637 0.008156428

encoder.feature_extract.mlps.0.linears.1.bias f4 [128]
000000 1d 2a 74 bd 2d 2f 90 bd 83 1f f5 3c 18 56 92 3d
       -0.059610475 -0.07040248 0.029922253 0.07145327
000010 78 18 93 bd 0a fb 27 bd 3f 05 06 3c a7 8a 6d bd
       -0.071824014 -0.041010894 0.008179962 -0.057993557
000020 d7 9b 1d 3d ed 48 6c bd 26 49 64 bd 74 53 98 3c
       0.0384787 -0.057686735 -0.055733822 0.018594481
000030 f3 23 87 3d 20 cd dc bb db 2d f9 3c 41 32 fc 3c
       0.06598654 -0.00673832 0.030417373 0.030785682
000040 76 03 39 bd d3 45 6e 3d 2a fa 00 bd 47 e6 9e bd
       -0.045169316 0.05817206 -0.031488575 -0.07758766
000050 f4 48 9b 3d c9 08 16 bd fd 88 95 3d 0e 07 ab 3d
       0.07582274 -0.036629472 0.07301519 0.08350955
000060 41 b5 12 bd 1e d1 dc 3b 14 9c 44 3d c6 6f 20 3d
       -0.03581739 0.006738796 0.04800041 0.039169095
000070 82 36 fe 3c ff 92 a2 3d 47 92 85 3c 58 c2 25 3d
       0.03103185 0.079381935 0.016305102 0.040468544
000080 13 48 63 bd ab 14 29 bd eb ec 72 3c 45 f9 29 3d
       -0.055488657 -0.041279476 0.014826993 0.041497488
000090 d0 19 26 bb 71 db b5 bd 0e 0b 20 3d a6 5a 7a 3d
       -0.0025344975 -0.08879746 0.039073043 0.061121605
0000a0 63 d5 ad bd 59 bf 9b 3d 24 97 12 3d 4f 48 0a 3c
       -0.08487966 0.07604856 0.03578867 0.008440091
0000b0 45 db 95 bc 5d c8 e9 bb cf 3b 87 3a e1 da 92 bd
       -0.018293032 -0.007134481 0.0010317507 -0.07170654
0000c0 03 77 96 3d f2 95 17 bd 49 20 a3 3c 6c 84 9d bd
       0.073469184 -0.037008233 0.019912856 -0.07691273
0000d0 18 02 f9 3c 88 9b 92 3d 60 25 5b bd ab 70 da bc
       0.030396506 0.071585715 -0.05350244 -0.026665052
0000e0 28 0b ae 3d 55 5b 7c 3d f4 6e 70 bc d2 0a 41 3d
       0.08498222 0.06161054 -0.014674891 0.04712946
0000f0 0e f6 3a bd 5e ad 88 bd 95 06 e4 b9 14 31 6c 3d
       -0.045644812 -0.06673692 -0.00043492453 0.057663992
000100 0d 72 84 bd 10 8f 46 3c d3 5d 5c 3c 39 0d 28 bd
       -0.06467066 0.01211907 0.013450104 -0.041028235
000110 71 b6 c6 3c 8e 26 8f 3c 87 7f 8f 3d b9 fa f7 3c
       0.024256917 0.017474439 0.07006746 0.030270921
000120 11 4b 7b 3d 9e 1a 7d bb cc 4a 4f 3d e3 14 a0 3b
       0.061350886 -0.0038620601 0.05060844 0.0048853024
000130 4f cc 48 3d 82 81 eb 3b bf 36 98 3b f0 17 50 bc
       0.04902297 0.0071870694 0.004645198 -0.01270102
000140 ca e2 61 3d d6 76 9c 3d 2d fd 85 3d ed ee 87 3c
       0.055147924 0.07639854 0.0654243 0.01659342
000150 52 55 08 bd 52 13 60 3c db f6 5c bd 25 af 7b bd
       -0.033284493 0.013676481 -0.053946357 -0.061446328
000160 39 04 9e 3d ca 92 58 3d b2 a0 a4 3a d7 f6 95 3d
       0.07715649 0.052874364 0.0012560098 0.073224716
000170 c5 48 74 3d 59 3d 3e 3d 52 46 48 bd e1 eb 8d bd
       0.05963971 0.046445224 -0.048895188 -0.06929756
000180 bc 55 b4 3c e3 8e 75 bd a8 b1 e4 bc 5c 8d 9c 3b
       0.022013538 -0.05995072 -0.027916744 0.0047775935
000190 38 76 17 bd ed 09 0d 3d 4d d0 9c bd b3 7b 5c bd
       -0.036977977 0.034433294 -0.07656918 -0.053828906
0001a0 6e a8 94 3d 28 74 d1 bc 32 44 87 bd 51 28 a6 3d
       0.07258688 -0.025568083 -0.06604804 0.081131585
0001b0 24 86 4b bd a9 cf 70 3c 93 dd 8e bd 72 6b c4 3c
       -0.049688473 0.014697948 -0.06975856 0.023977015
0001c0 6c 34 f7 3b 99 41 3f 3d ff cd 8e 3c d3 13 9b bd
       0.007544091 0.04669342 0.017432211 -0.075721405
0001d0 3c 94 1f bb de d7 97 bd 6a fd f7 3b 5b 2b f6 bc
       -0.002434983 -0.0741422 0.007568051 -0.03004997
0001e0 48 8b 4c 3d a7 31 78 bb bb ba 49 3d e9 4c e0 bc
       0.049937516 -0.0037871392 0.049250346 -0.027380424
0001f0 7f dc 94 3c 24 2e 12 3d 24 80 3f 3d 50 4a b6 bd
       0.018171547 0.035688534 0.046753064 -0.08900893

encoder.feature_extract.mlps.0.linears.2.weight f4 [128, 128]
000000 f9 34 b0 bd 1c 53 7c bd 0f e7 b6 ba 9b 0d c4 3b
       -0.08603854 -0.061602697 -0.0013954359 0.005983067
000010 ab a8 8d ba 7c b6 8d bd 88 b6 95 bc ff 27 82 3d
       -0.0010807713 -0.06919572 -0.018275514 0.06355285
000020 3d a7 56 3d 31 9f a3 3d bc 49 8e 3c 54 23 34 bc
       0.052405585 0.07989348 0.017369144 -0.010994751
000030 72 e9 03 3d fb 05 2e bc e0 b0 a3 3d a4 9d 52 3d
       0.032205053 -0.010621543 0.079927206 0.05141987
000040 3b 54 81 bd 12 a5 a5 bd 50 01 23 bd e5 fd 33 bd
       -0.06314894 -0.08088125 -0.039796174 -0.043943305
000050 48 d1 a1 3d 3d 69 b3 3d b1 f0 82 3d 54 ba 76 bc
       0.07901245 0.08760307 0.063935645 -0.0150590725
000060 4c 71 29 bd df 00 21 3d 52 9a 8b 3d a5 61 96 bd
       -0.041367814 0.03930747 0.06816544 -0.07342843
000070 59 16 1e 3b 9a 96 a5 3d 2c 48 96 3d da b7 85 bd
       0.0024122207 0.080853656 0.073379844 -0.065292075
000080 aa e1 f9 bb 5c 68 6d 3d 4a b4 79 3d 8b 26 39 3d
       -0.007625778 0.057960853 0.060962953 0.045202773
000090 b1 26 81 3d e8 71 21 3d a8 42 b6 3d 70 87 4a 3d
       0.06306208 0.03941527 0.088994324 0.04944557
0000a0 48 56 63 3d d2 5a 17 bd b4 ea 3f bd ff 45 dc bb
       0.055502206 -0.036951847 -0.04685469 -0.0067222114
0000b0 52 8b 9e bd c1 5c 2d bb ae b6 b9 bd a1 f1 16 bd
       -0.07741417 -0.002645299 -0.090680465 -0.03685153
0000c0 de 5a a8 bd d5 96 df ba 25 eb 84 bd 66 4c 80 3d
       -0.082204565 -0.0017058501 -0.06490163 0.06264572
0000d0 60 ea 8e 3d e3 9d 2e 3d cc cf 7e 3d 5a d4 cf bb
       0.06978297 0.04263104 0.06220989 -0.006342453
0000e0 30 26 75 3b 8f af 05 3d 31 ee af 3d 7f 05 0f 3d
       0.0037406795 0.03263813 0.08590353 0.03491735
0000f0 00 23 87 bd 21 fb a4 3d bd 75 a3 3d a0 e5 82 3d
       -0.065984726 0.080557115 0.07981441 0.06391454
000100 65 e5 b8 3c 3f 78 6d bd bb db 10 3d d6 97 6e bd
       0.022570321 -0.057976004 0.0353658 -0.05825027
000110 9d 1e 6e 3d b6 ec a1 bd 48 51 83 bc 55 f1 82 3d
       0.058134664 -0.07906477 -0.016029969 0.06393687
000120 d0 a9 22 3d 81 21 b2 bd 78 8a b9 bb f4 9b fb 3c
       0.039712727 -0.086977966 -0.0056622587 0.030714013
000130 6b 1a 3a 3d e8 9b 1c bc 31 63 76 3d b5 3c 30 3d
       0.04543535 -0.009558655 0.06015319 0.043026645
000140 6b ef 24 bc 60 1b b3 3c dd a1 ee 3b f8 03 f2 bb
       -0.010066847 0.02186364 0.007282479 -0.007385727
000150 4f c9 88 3d a7 e8 74 bd 85 57 f1 3c 70 bf 26 3c
       0.066790216 -0.059792187 0.029460678 0.010177478
000160 f4 3b 1f 3d bb 0d 17 3d a2 14 a0 3d c2 ed 6a 3c
       0.038875535 0.03687833 0.078164354 0.014338912
000170 a8 32 a2 bb 0d 42 7e 3d e0 3b 87 3d 00 6b 59 3d
       -0.0049498864 0.06207471 0.06603217 0.05308056
000180 9d 97 19 3d 8e 00 64 bc 37 52 ac bd f7 bd ab 3d
       0.037498105 -0.013916148 -0.08414119 0.08385842
000190 7d 75 53 3d 0a 77 85 bd 9f 9e 8b bd e0 c9 70 bd
       0.051625717 -0.065168455 -0.06817364 -0.058786273
0001a0 a1 54 9d 3c 9e e3 2a 3c f8 49 bc bd 2d cd 5e bd
       0.019205393 0.010430245 -0.09193796 -0.05439489
0001b0 2b 5e 8a bd bb 05 0e 3d 01 8d aa 3c 4b 90 e7 3b
       -0.06756242 0.034673434 0.020819189 0.0070667616
0001c0 c1 4c b0 3c 0d 42 3b 3d c6 15 27 3c 6a cd b1 3c
       0.021520974 0.045717288 0.010198062 0.021704394
0001d0 42 46 20 3a 3c 4e 45 3d 56 c9 8d bd 0b be fd 3c
       0.0006113985 0.048170313 -0.069231674 0.030974409
0001e0 02 73 8e bd 66 26 3a bd b6 51 48 bd de d1 a5 bd
       -0.0695553 -0.045446776 -0.04890605 -0.080966696
0001f0 55 d7 ae bc a3 37 02 3d c5 c0 b4 bc da 37 0c bd
       -0.021342913 0.03179134 -0.022064576 -0.03423295
000200 55 f6 0d 3d 90 bf 80 3b 1e 7e 1e bc a1 c1 a5 3b
       0.03465875 0.003929086 -0.009673623 0.0050584828
000210 ea f7 2b bd 70 8c 8f bd 3e 80 02 bc ec 74 ce 3c
       -0.041984476 -0.07009208 -0.007965146 0.025202237
000220 41 0f a6 3d 79 68 79 bd df 53 e6 bc a6 98 05 bd
       0.08108378 -0.06089065 -0.028116165 -0.03261628
000230 a0 f0 5d bd d7 32 3c 3c e1 08 50 3d bd a8 76 bd
       -0.054184556 0.011486731 0.050789718 -0.060219515
000240 bc 7b 89 bd fb b7 48 bd f6 f8 dd 3c 03 2f 31 bd
       -0.067130536 -0.049003582 0.027096253 -0.043257724
000250 93 c7 4f 3d ff 24 a1 3b 68 17 b9 bc 4e f5 65 bd
       0.05072744 0.0049177404 -0.022594169 -0.056142144
000260 c8 c1 41 bc ff 8b aa bd 86 3e 28 bd 8c 29 f8 3b
       -0.011825986 -0.083274834 -0.041075252 0.007573312
000270 8c 50 3b 3d 54 b3 43 bd fa 4d 51 3d 59 1d e7 3c
       0.045731112 -0.047778443 0.051099755 0.028212236
000280 ec 8b a4 bd 5b 0c 0e bc 56 9c 97 bd c1 b0 1e bd
       -0.080345005 -0.008669938 -0.074028656 -0.038742784
000290 6e ae 3e 3d d6 cb 8a bb 51 f1 ac bc c6 d5 0f bd
       0.046553068 -0.004235725 -0.021111162 -0.03511598
0002a0 2d f0 a4 bd e1 ae f9 3c e0 d6 4a bc a9 88 be 3c
       -0.080536224 0.030478897 -0.012380332 0.023258524
0002b0 83 a1 96 3d 80 4c 89 bd 60 66 6a 3d 42 98 50 3c
       0.07355025 -0.06704044 0.05722654 0.012731614
0002c0 6b 3f f7 3c 41 69 ee 3c 44 14 4f bc cd bf de bc
       0.030181607 0.029102923 -0.012639109 -0.027191067
0002d0 71 16 2f bd 8f a1 55 bd e8 2b 3b 3a 12 66 97 3d
       -0.04274601 -0.052156027 0.00071400264 0.07392515
0002e0 0b 43 b4 bd 9c ce 7f bd 05 90 7a bd 3f 21 c8 bc
       -0.0880185 -0.062452897 -0.061172504 -0.024429915
0002f0 43 11 80 bd 88 2c 09 3c 0f 6c 6a 3d 3f f6 9a 3d
       -0.062532924 0.0083724335 0.05723196 0.07566499
000300 f4 c2 2f bd 0c 4c ca bc 65 01 1b 3d 10 e4 43 3d
       -0.04291053 -0.024694465 0.037843127 0.04782492
000310 77 f9 4c 3d 5d d7 91 bd 16 ad 2e bd 8d bc 03 3d
       0.050042596 -0.071211554 -0.042645536 0.032162238
000320 69 dd e5 bc 09 7f a9 3d 03 87 a8 bb f2 f8 8c bd
       -0.028059678 0.08276183 -0.005143048 -0.0688342
000330 b8 48 96 bd 5a f7 9e bd 11 ce 9f bd 34 e8 8e 3d
       -0.07338089 -0.07762022 -0.07802976 0.06977883
000340 ba 32 a6 bd 9a d3 88 3c 0e 97 e6 ba 93 c1 81 3b
       -0.08115144 0.016702462 -0.0017592625 0.0039598434
000350 ae 4d 71 bd b8 d7 8c bd 7d b6 ff 3c a2 8c 0b bd
       -0.05891197 -0.068770826 0.031214947 -0.034069665
000360 94 86 58 bd 6d 0d 79 bd c3 1d 4f bd c1 7b 9c ba
       -0.05286272 -0.06080382 -0.050565492 -0.0011938737
000370 aa 55 1c bc 86 ec 66 bb ab ff 33 bd 87 bd 2e bd
       -0.009541908 -0.0035236194 -0.043944996 -0.042661216
000380 71 63 ae bd b5 91 15 3d a8 72 3d bd 72 a8 84 bd
       -0.08515061 0.03651591 -0.046251923 -0.06477441
000390 47 ae 06 bd 09 ef 50 3d bb 8a fd 3c 18 09 8b bd
       -0.032881048 0.05100921 0.03094994 -0.06788844
0003a0 10 12 3f 3d 3f cc c3 3c e0 df c8 bc f4 87 8e 3d
       0.046648085 0.023901103 -0.024520814 0.06959525
0003b0 62 eb 5f 3d f1 8e 97 3d b3 e8 7e bc 53 fa ab bc
       0.054667838 0.07400311 -0.0155584095 -0.020993387
0003c0 f8 f8 30 bd 8b b6 18 3c 22 88 70 3d 1a 16 8c 3d
       -0.043206185 0.009320865 0.058723576 0.06840153
0003d0 7d c0 a7 3c 06 bb a9 3c da f1 8b bc 51 f0 ec bb
       0.020477528 0.020719063 -0.017083097 -0.0072307964
0003e0 9b 30 ab 3d 3b ec f1 3c b1 89 15 3d 42 bc 81 3a
       0.0835888 0.029531589 0.036508266 0.0009898024
0003f0 f3 45 0b bd a4 91 6b bd 66 b4 34 3d c3 40 62 bd
       -0.034002256 -0.05751194 0.044117354 -0.055237543

encoder.feature_extract.mlps.0.linears.2.bias f4 [128]
000000 16 1b 3a bd 4b d9 58 3b 73 23 0c bd 13 01 80 3d
       -0.045435987 0.00330885 -0.034213495 0.06250205
000010 41 f3 dd bb cf 73 a6 3c fa 15 0d 3d 86 07 0b bd
       -0.006773383 0.020318894 0.034444787 -0.03394272
000020 dd 7a fe bc 4a 28 7e 3d 4f bb 90 bc 12 4e 8c 3d
       -0.031064445 0.06205014 -0.01766744 0.06850828
000030 04 9c f7 bc 3b bc 56 3d f3 e1 22 bd 22 c9 33 3d
       -0.030225761 0.052425604 -0.039766263 0.043892987
000040 d3 1f 10 3d 0f f0 ff bc 2c e6 7b bd 65 67 05 bd
       0.0351866 -0.031242399 -0.061498806 -0.032569308
000050 d6 00 18 3d c4 65 8d 3d ff 57 7c 3d 84 07 50 bd
       0.037110172 0.06904176 0.061607357 -0.050788417
000060 88 e8 8e 3d a8 4c 82 bd db 24 ac 3d a1 48 ec bb
       0.069779456 -0.06362277 0.08405467 -0.0072108065
000070 33 43 9f bd 9e 29 8c bc 26 ff 7d bc 04 3a 6a 3d
       -0.07776489 -0.017109688 -0.015502727 0.057184234
000080 ec 1c 23 3d 7d 81 91 3d b0 75 01 bd b5 2d a1 bd
       0.039822504 0.07104776 -0.031606376 -0.07870046
000090 56 e2 b0 bd 5a 0f 84 3d 3e 24 27 bd 4b 9f df 3c
       -0.0863692 0.064482406 -0.040806048 0.027297636
0000a0 75 14 86 3d ca 67 b1 bd e3 eb 37 bd c4 a0 9f bd
       0.065468706 -0.08662374 -0.044902693 -0.077943355
0000b0 16 6b ae 3d ef 95 39 bd be 8b 38 3a 09 18 a0 3d
       0.08516519 -0.045309003 0.0007039866 0.07817084
0000c0 79 fc 0e 3d e4 a5 b2 bd 2f d7 87 3d a8 89 92 bd
       0.034908745 -0.087230474 0.0663284 -0.07155162
0000d0 8a 37 fb bc 2f 83 99 3c 8d 79 82 3d 9f 36 7c bc
       -0.030666132 0.018739311 0.0637084 -0.015393882
0000e0 78 fb 95 bd 77 29 82 3d a3 59 c2 3c 8d 5c 3f 3d
       -0.073233545 0.06355565 0.023724383 0.046719123
0000f0 55 2c fb 3c 61 15 6b bd 32 d4 46 3d fe 89 67 bd
       0.030660788 -0.057393435 0.04854221 -0.056528084
000100 64 45 a6 bd b7 69 29 bb 5b 83 a6 bd de 03 33 bd
       -0.08118704 -0.0025850364 -0.08130523 -0.04370486
000110 c1 a4 9a bd 0b da df 3c fe 23 90 bd f8 27 57 bd
       -0.075509556 0.02732565 -0.07038115 -0.05252835
000120 7a 06 1c 3d 20 96 6e bb f2 52 79 bd 27 b3 89 3d
       0.038092114 -0.00364054 -0.06087012 0.06723624
000130 e4 71 7c bd 44 75 80 bd d0 e0 33 3d 92 00 7c 3c
       -0.061632052 -0.06272367 0.04391557 0.015380995
000140 c9 90 8d 3d 99 48 b5 3d ef f0 7a bd f8 1a 8b 3d
       0.06912381 0.088517375 -0.06126493 0.06792253
000150 3d df 9c 3b 53 ac 8d bd 7a 2b 2c bd 8d 87 b4 3d
       0.0047873543 -0.06917634 -0.04203365 0.08814917
000160 19 91 7b bd c9 93 6c bd b9 ec 1f bd 3b 02 96 bd
       -0.061417673 -0.057758126 -0.039044116 -0.07324644
000170 00 bb c5 3c 74 71 9c 3d f6 27 8b 3d a5 9f c1 3c
       0.02413702 0.07638827 0.06794731 0.023635695
000180 f7 55 22 bd e1 4a ec 3b b0 79 32 3d e9 db a5 3c
       -0.039632764 0.0072110747 0.04357308 0.020246463
000190 e6 d9 8f bd f3 cf 22 bc 50 af 54 bd 64 b8 48 3d
       -0.07023983 -0.009937274 -0.051925004 0.049003974
0001a0 0f e2 b0 bd 5c d5 a5 bd e4 39 dd bc de b5 87 3d
       -0.08636867 -0.08097336 -0.027005143 0.06626485
0001b0 75 93 3c 3d bb fc 4f bc 8c 31 23 bd d8 fb 86 3d
       0.046039063 -0.012694533 -0.039842173 0.06591004
0001c0 44 04 82 3d 04 e7 39 bd b8 0b a1 bd ff ec 0c 3c
       0.0634847 -0.04538633 -0.07863563 0.008601426
0001d0 46 6e 3e 3c fe ea ff 3c b6 50 a3 3d b3 7a 94 bd
       0.011622971 0.031239983 0.07974379 -0.072499655
0001e0 3b 9f b6 3c 24 15 e6 bc ba 32 39 bd 62 fc f1 bc
       0.022292724 -0.028086253 -0.045214392 -0.02953929
0001f0 90 42 5c bc 63 3c e1 bb 2a f7 06 3d 36 b9 a0 bd
       -0.013443604 -0.0068736537 0.032950558 -0.07847826

encoder.feature_extract.mlps.0.batch_norms.0.weight f4 [128]
000000 10 2b 7f 3f df 68 80 3f ab 96 80 3f 28 81 80 3f
       0.99675083 1.0032004 1.004598 1.0039415
000010 6c d1 7f 3f 70 18 80 3f e1 2e 80 3f 10 09 80 3f
       0.9992893 1.0007458 1.0014306 1.0002766
000020 95 b3 7f 3f 03 33 7f 3f 2f 9b 80 3f fd 52 80 3f
       0.99883395 0.9968721 1.0047358 1.0025326
000030 69 5b 80 3f d4 57 7f 3f c3 52 80 3f 2f 3c 7e 3f
       1.0027896 0.9974339 1.0025257 0.9931058
000040 98 a3 7f 3f b5 1b 80 3f dc 17 80 3f 64 ff 7f 3f
       0.99859 1.0008456 1.0007281 0.9999907
000050 35 6e 81 3f 4f 63 80 3f 2a 4f 7f 3f 9d c3 80 3f
       1.0111758 1.0030307 0.9973017 1.0059696
000060 40 da 7e 3f 52 7f 80 3f 81 1c 80 3f 35 74 7f 3f
       0.99551773 1.0038855 1.0008699 0.9978669
000070 2f 95 7f 3f b6 41 81 3f c4 f2 7e 3f e9 06 80 3f
       0.9983701 1.0098178 0.9958918 1.0002109
000080 1e 34 7f 3f 14 fd 7f 3f 6a ef 80 3f 77 1d 80 3f
       0.996889 0.9999554 1.0073063 1.0008992
000090 44 2c 7f 3f c4 2c 80 3f 1f 9d 7e 3f b3 48 80 3f
       0.9967692 1.0013661 0.994585 1.0022186
0000a0 0b 39 80 3f 4f a7 80 3f ee 36 7f 3f e7 51 80 3f
       1.0017408 1.0051059 0.9969319 1.0024995
0000b0 8c 60 80 3f f5 05 80 3f 56 ac 7e 3f b3 cd 7f 3f
       1.0029464 1.0001818 0.99481714 0.9992325
0000c0 c4 16 7f 3f 99 55 80 3f 87 5c 80 3f 8c ef 7f 3f
       0.9964411 1.0026122 1.0028237 0.99974895
0000d0 c1 52 7f 3f 40 d2 7e 3f dd bd 7f 3f 5c 6b 80 3f
       0.9973565 0.99539566 0.99899083 1.0032763
0000e0 12 33 80 3f 6d 19 80 3f 02 83 7e 3f 76 ec 7e 3f
       1.0015585 1.0007759 0.9941865 0.9957956
0000f0 4b 30 7f 3f 48 53 7f 3f fc cc 7e 3f 54 e1 7f 3f
       0.99683064 0.9973645 0.9953153 0.999532
000100 66 a5 80 3f 0e b3 7f 3f cd a9 80 3f db 62 7f 3f
       1.0050476 0.9988259 1.0051819 0.99760216
000110 47 44 80 3f 57 7a 80 3f b5 6f 80 3f e9 09 7f 3f
       1.0020837 1.0037335 1.003409 0.99624497
000120 6c 6c 7f 3f eb 69 7f 3f e2 b2 7f 3f 04 00 81 3f
       0.99774814 0.99770993 0.9988233 1.007813
000130 9c da 7f 3f 80 51 7f 3f 48 46 80 3f 23 9f 7f 3f
       0.99942946 0.99733734 1.0021448 0.998522
000140 f3 c3 80 3f c7 5f 80 3f a9 c8 7f 3f 62 2f 7f 3f
       1.0059799 1.0029229 0.9991556 0.99681675
000150 38 96 7e 3f 15 e3 80 3f 08 4b 80 3f 4a 6c 80 3f
       0.99447966 1.00693 1.0022898 1.0033047
000160 e2 75 80 3f 35 1e 80 3f e8 f2 7f 3f 2f f4 7e 3f
       1.0035975 1.0009218 0.9998002 0.99591345
000170 b2 d6 7f 3f a8 28 7f 3f 53 c6 7f 3f 22 c3 7f 3f
       0.99936974 0.9967141 0.99911994 0.99907124
000180 71 6c 7f 3f c3 d6 7f 3f ed 8b 7f 3f 0b a2 7f 3f
       0.99774843 0.99937075 0.99822885 0.9985663
000190 ca 5a 80 3f 2d 2a 7e 3f cf 4d 80 3f ab 97 80 3f
       1.0027707 0.99283105 1.0023745 1.0046285
0001a0 95 70 7e 3f d5 5e 80 3f d7 3a 7f 3f ad f7 7f 3f
       0.99390537 1.002894 0.9969916 0.999873
0001b0 47 42 80 3f 98 27 80 3f 7f 4e 80 3f ab ec 7f 3f
       1.0020226 1.0012083 1.0023955 0.999705
0001c0 6b 58 80 3f a3 40 80 3f 10 51 80 3f 11 6b 80 3f
       1.0026983 1.0019726 1.0024738 1.0032674
0001d0 13 10 7f 3f ac 88 7f 3f 2a 28 80 3f 87 d2 7f 3f
       0.996339 0.9981792 1.0012257 0.99930614
0001e0 d9 ee 7e 3f 39 c9 7f 3f 38 9e 80 3f c6 c9 7e 3f
       0.995832 0.99916416 1.0048285 0.9952663
0001f0 47 dc 7e 3f 94 80 7f 3f 2f b0 80 3f 3f 8a 7f 3f
       0.99554867 0.9980557 1.0053767 0.9982032

encoder.feature_extract.mlps.0.batch_norms.0.bias f4 [128]
000000 be 70 2f 3b 7c 6d 6f 3b 4a 94 c8 3a 4b 2c d5 3a
       0.002677008 0.0036533764 0.0015302983 0.0016263811
000010 67 c9 74 bb 86 a1 b4 b9 cf 75 f8 3a e7 0d 27 ba
       -0.003735149 -0.0003445262 0.0018956008 -0.0006372616
000020 65 95 40 bb 45 62 44 bb 60 67 43 3b 37 c5 9f 3b
       -0.002938592 -0.00299658 0.0029816255 0.0048758048
000030 81 41 3f 3a 58 9c ed 3a c6 4b 33 3b b9 9b b7 bb
       0.00072958326 0.0018128259 0.0027358397 -0.0056032804
000040 58 20 0b bc 8f 93 98 3b 84 8c da 3b 8d 82 2b bb
       -0.008491598 0.004656262 0.006669583 -0.0026170344
000050 23 21 7e 3b cd 16 91 3b eb 41 04 3b f2 14 cd 3a
       0.0038777075 0.004427767 0.0020180892 0.0015646501
000060 c4 a4 b1 ba ed 44 f6 3a 38 16 5f 3a 95 ac 93 bb
       -0.0013553132 0.0018788852 0.0008510086 -0.0045066574
000070 4e c2 2e bb 2c b9 20 3c 7e 9e b6 ba 87 f4 8f 3a
       -0.0026666108 0.009809773 -0.0013932732 0.0010982909
000080 f1 8c 32 b8 48 b1 b9 36 8d 94 a4 3b d9 76 8b bb
       -4.256977e-05 5.534068e-06 0.0050225914 -0.004256111
000090 1c f8 84 3a 30 d5 f9 ba 59 96 68 3b 04 d9 68 bb
       0.0010144743 -0.0019060727 0.0035490005 -0.0035529742
0000a0 7c a4 3b 3b 0d 3f 84 39 aa 1b 66 bb fc d8 35 ba
       0.0028631976 0.00025223978 -0.0035111704 -0.0006936935
0000b0 b8 e9 54 b9 25 d7 b0 39 56 1f 09 3a 94 e2 ee ba
       -0.00020304963 0.0003372963 0.00052308047 -0.0018225485
0000c0 bb fb 3c b8 8c b9 8e bb 9d 98 0f 39 f2 01 db 3a
       -4.5057135e-05 -0.004355615 0.00013694396 0.0016708954
0000d0 66 ac a4 3b 3a fe d7 3a 7c b0 a6 bb 99 cc a6 3a
       0.0050254343 0.0016478964 -0.0050869565 0.001272577
0000e0 4c 12 85 bb f4 f2 05 39 6d f6 ff bb c9 c6 a3 39
       -0.004061019 0.00012774376 -0.0078113587 0.0003123789
0000f0 15 4e 0b bb 35 e0 8b b7 e0 32 88 3a 71 e7 ac 38
       -0.0021256257 -1.6674496e-05 0.0010391138 8.2447084e-05
000100 6d 7f 4f bb 88 12 7e 3b 83 6e 78 3b 11 e4 82 bb
       -0.0031661645 0.003876837 0.0037907667 -0.003994473
000110 bc 8d 6a bb 8b b8 78 bb 2a d7 d7 3b 00 11 97 bb
       -0.0035790047 -0.0037951793 0.006586929 -0.004610181
000120 a6 90 52 bb 6f 28 de ba b8 8c 04 bb 08 9c 2b ba
       -0.0032129674 -0.0016949306 -0.0020225476 -0.0006546383
000130 27 e3 33 3a cd 3d 90 ba 03 2e b5 3b 3e e3 8b ba
       0.00068621564 -0.0011004746 0.0055291667 -0.0010672582
000140 1e c4 31 3b ca 4b 8e 3b fa 95 28 bb 49 db 62 bb
       0.0027124952 0.004342531 -0.0025724159 -0.0034615567
000150 72 e3 c6 b9 f5 29 41 3b b1 51 09 3b 3f 6f 84 39
       -0.00037934963 0.0029474471 0.0020953233 0.00025259887
000160 c9 04 eb 3b d1 28 9e ba 53 aa b3 bb d6 96 bd 3a
       0.0071722013 -0.0012066608 -0.0054829507 0.0014464508
000170 3c bb 9f 3b 4f 65 03 bb b8 1c 33 3a 05 eb 85 b9
       0.004874615 -0.0020049398 0.00068325875 -0.0002554284
000180 6a 27 8f 3b 24 6f 92 ba fd 58 9e 37 ab 8d 59 ba
       0.004368712 -0.0011172039 1.8876506e-05 -0.0008299003
000190 f3 78 91 bb db 92 fd bb b3 9c df b9 9e bd 60 bb
       -0.004439467 -0.007738454 -0.00042650625 -0.0034292708
0001a0 8c 1f 4e bb 5e 26 d3 3a 52 a2 ee bb 0c be 5d bb
       -0.003145191 0.0016109457 -0.0072825337 -0.00338352
0001b0 46 9d d7 ba 2d 99 06 3b a5 1e a2 b9 97 ac a3 ba
       -0.0016450069 0.0020538077 -0.0003092188 -0.0012487349
0001c0 84 5e 8d 3b e4 07 f7 3b cd 33 35 3a f0 23 b7 bb
       0.0043142457 0.0075387824 0.0006912321 -0.005589001
0001d0 50 4d 18 bb 72 17 55 bb a6 b8 ed 3b 50 58 cb 3a
       -0.0023239441 -0.0032515195 0.007254678 0.001551399
0001e0 b4 e0 85 39 1f c5 4e 3b 38 0c b9 3b 16 c7 b9 bb
       0.00025535154 0.0031550599 0.0056472085 -0.005669485
0001f0 26 af 1a bb 1b ba 8b ba f7 9c 30 3a d0 09 a3 bb
       -0.0023602932 -0.0010660322 0.0006737257 -0.004975535

encoder.feature_extract.mlps.0.batch_norms.0.running_mean f4 [128]
000000 32 61 ba be 0d ca 67 3e d9 25 bb be 4a 8a 9f 3f
       -0.3640228 0.2263567 -0.36552313 1.2464077
000010 1b 86 ac 3e e4 80 3e be ed 72 f2 be 0a 05 5c bf
       0.33696064 -0.18603855 -0.47353306 -0.8594519
000020 3d 90 e7 bd 9f ec 95 bf 1d ca 89 3f d0 86 34 3e
       -0.11306808 -1.1712836 1.0764805 0.17629552
000030 97 e5 f6 3e db 4c 17 3e a9 0b 6d be 29 dd 36 3f
       0.48222038 0.14775412 -0.23148979 0.71431214
000040 3c 75 3f 3f a7 fa ad 3d f6 80 0d bf c1 e5 87 be
       0.7478826 0.08495074 -0.55274904 -0.26542476
000050 09 b6 de be ae 2e 87 bd 61 34 64 be 9e 72 97 be
       -0.43498257 -0.066007 -0.22285606 -0.29579633
000060 b3 8d 53 3f b3 15 1b bf c5 35 39 bf 77 15 e6 3e
       0.8263809 -0.60579985 -0.7234767 0.4493825
000070 ab 41 09 bf be 97 a0 be 04 46 79 3f 02 7d b8 3d
       -0.53615826 -0.3136577 0.9737246 0.09008218
000080 ed bc 89 3e c5 29 6d 3f 3a 0b ce 3e 91 9e 5b be
       0.2690195 0.9264186 0.4024294 -0.21447207
000090 99 8a ce 3e f6 29 22 3f 22 f0 95 3e 42 6f 60 be
       0.40340117 0.6334528 0.2928477 -0.21917441
0000a0 0a 20 40 3f 12 4c 35 3f db 3a ce bd ae 6a 21 3e
       0.7504889 0.708192 -0.100698195 0.15763351
0000b0 6a e4 7a bf e1 d6 00 3f 54 2e 0c bf b4 cb 2a be
       -0.9800478 0.5032788 -0.5475819 -0.16679269
0000c0 6c bb 03 3f 75 78 71 bf 91 8e ac 3e ab 71 13 3f
       0.5145786 -0.9432443 0.3370252 0.5759532
0000d0 8c 0c 92 3e b0 08 b2 bd 86 42 a0 3e 32 35 a4 3f
       0.28525198 -0.08693063 0.31300753 1.2828734
0000e0 47 c4 32 3e 98 9a a8 3e 73 f6 9e bf 89 01 41 3f
       0.17457686 0.32930446 -1.241896 0.7539297
0000f0 aa 53 ae bf 06 b8 27 bf 1a ca 8d 3d 25 ea 2f 3f
       -1.3619282 -0.6551517 0.069233134 0.6871665
000100 b1 52 c4 3c f8 22 60 3f 53 3f 19 bf 89 dc 41 3f
       0.023965212 0.8755336 -0.5986225 0.75727135
000110 e7 f3 91 bf 81 35 34 be aa 95 ae 3c bc 64 0d be
       -1.1402558 -0.17598535 0.0213116 -0.13807958
000120 8a ed 45 3f 93 39 42 3f 44 c8 2f bf 25 6e 0c 3f
       0.7731558 0.758691 -0.68664956 0.5485557
000130 ca a7 ae bd 12 b1 26 3f 37 44 e7 be e4 86 50 bf
       -0.08528097 0.6511394 -0.4516923 -0.81455827
000140 c3 a5 4d 3e fc e6 b9 be bd d0 a4 3e f5 c5 c4 3e
       0.20082764 -0.3630904 0.32190505 0.3843228
000150 eb f8 69 3e 11 85 82 be 46 cc b4 be ca a5 87 be
       0.22848861 -0.25492147 -0.35312098 -0.26493675
000160 ef 33 03 bf e4 9d 85 3e e5 2e a0 3e ba 38 d5 3e
       -0.5125112 0.26097023 0.31285778 0.4164484
000170 e2 e3 4f bf 81 00 3c 3f de 65 96 3d 2b cf 0b 3f
       -0.81207097 0.7343827 0.073436484 0.5461299
000180 aa eb ad 3c 60 0f f2 3e 13 d2 63 be ea 2e 8e bc
       0.021230537 0.47277355 -0.22248106 -0.017356355
000190 05 11 28 3e 90 59 b1 bd 3d c1 0b bd 81 09 ca be
       0.16412742 -0.08659661 -0.034119833 -0.39460376
0001a0 b1 ee f5 bd c6 62 3d bf 5b 75 09 3f 44 ae d5 be
       -0.120084174 -0.7397884 0.53694695 -0.41734517
0001b0 a0 b1 81 3f 6c 57 96 3e 29 df 9b bc 41 ec 17 3f
       1.0132332 0.29363573 -0.01902731 0.5934487
0001c0 9f 17 f3 3e 5e c8 be be 26 99 d6 be 22 e0 08 3f
       0.4747896 -0.37262243 -0.41913718 0.53467
0001d0 d0 46 7a 3e 96 2a 10 bf b4 d4 c3 3e 9a 51 7d bf
       0.24441075 -0.5631498 0.38248217 -0.9895264
0001e0 b4 28 08 3f 5c e8 52 3f c8 bf 89 be 75 1f 8c be
       0.5318711 0.823858 -0.2690413 -0.2736775
0001f0 2c 99 b7 3e 49 af 06 3f e1 83 6f bf 80 d9 c6 3e
       0.35859048 0.52611214 -0.93560606 0.38837814

encoder.feature_extract.mlps.0.batch_norms.0.running_var f4 [128]
000000 21 d4 05 3b 4e cd 96 3a a9 8c 8c 3a db ec 0d 3b
       0.0020420628 0.0011505277 0.0010723072 0.002165607
000010 a8 51 08 3a d1 b8 ab 3a 83 8f 8f 3a eb 28 9f 3a
       0.0005200156 0.0013101344 0.0010952804 0.0012142932
000020 13 fb fc 3a aa 67 01 3b db 93 41 3a 9c 3f a1 3a
       0.00193009 0.0019745626 0.0007384398 0.0012302282
000030 6a 0c f5 39 21 a7 74 3a e9 6a 13 3b e4 5e be 3a
       0.0004673929 0.00093327655 0.0022494143 0.0014524129
000040 0a 4d c5 3a fa ec 4b 3a c1 da 86 3a c9 2b a1 39
       0.0015052867 0.00077791477 0.0010288582 0.00030740935
000050 9d 3a 27 3b 69 ff 90 37 0b 2f 08 39 aa 43 29 3b
       0.0025517114 1.7285072e-05 0.00012987496 0.0025827684
000060 1b 0f 34 3a fa 23 98 39 bd 28 4f 3a 4b ba 12 3a
       0.0006868706 0.00029018504 0.0007902494 0.0005597218
000070 cf dc e8 39 7c e7 17 3b 68 05 b5 3a 4a 75 42 39
       0.00044415004 0.0023178747 0.0013810815 0.00018544975
000080 6e b2 5b 3a 7b ab 91 3a 43 d6 a3 3a 75 15 34 3a
       0.0008380775 0.0011113727 0.0012499768 0.00068696524
000090 e8 37 6b 3a 6b a6 87 39 89 79 f7 3a bc 4f f1 39
       0.0008972869 0.00025873198 0.0018880825 0.0004602651
0000a0 b0 da b6 3a 6c 6a 17 3b de 77 d6 3a 90 4f 24 3a
       0.0013950672 0.0023104204 0.0016362628 0.0006267959
0000b0 d8 d3 ec 3a 13 c5 03 3b 66 bc 08 3b 7f af d9 3a
       0.0018068505 0.002010648 0.0020864247 0.0016608088
0000c0 be 5b 16 3a 32 15 b7 3a 0d 39 1e 3b 8e 04 70 3a
       0.00057357165 0.0013968109 0.0024142892 0.0009155952
0000d0 a0 f1 46 3a 38 69 8a 3a 1a bc 39 3a 98 73 1d 3b
       0.00075891055 0.0010559922 0.0007085219 0.0024025198
0000e0 ba de 8d 3a 18 bb 12 3b de 6b 2f 3b c1 7e b1 3a
       0.0010823824 0.0022389349 0.0026767175 0.0013541804
0000f0 dd de 1f 3b 86 46 24 39 76 87 89 3a 87 4b ab 39
       0.0024394311 0.00015666531 0.0010492641 0.00032671934
000100 3e 30 88 3a 7e 2a ae 39 69 3b 1d 3b 21 98 0d 39
       0.0010390354 0.00033219525 0.002399171 0.0001350348
000110 a7 7a 41 3b b6 51 6e 3a 36 b7 23 3b 68 7f b7 39
       0.002952257 0.00090911554 0.0024981028 0.00034999405
000120 1c 08 11 3b 38 fa cb 38 9f 50 cb 3a f0 f0 17 39
       0.0022130078 9.726401e-05 0.0015511698 0.00014490238
000130 ba 2e 28 3a bf 64 1c 3a 9b 2b 8c 3a d8 5c 23 3a
       0.0006415654 0.000596594 0.0010694148 0.00062317913
000140 23 77 b2 3a aa 11 4a 3a e2 a3 07 3b db ff 8f 3a
       0.0013615828 0.00077083206 0.0020697047 0.0010986285
000150 5b b3 39 3a 00 8b 42 3a a2 54 84 39 be 71 83 39
       0.0007083916 0.00074212253 0.00025240058 0.00025071012
000160 b2 1d 5f 3a 56 e0 50 39 d1 38 12 3b fe ea 82 3a
       0.00085112 0.00019919997 0.0022311697 0.0009988246
000170 0c 35 19 3b 14 5e 96 3a 9a 0b cb 3a 9f e9 b1 39
       0.0023377566 0.0011472129 0.0015491128 0.00033934132
000180 ec c7 ae 39 3d b9 7f 3a ca 4c 78 3a 0e 91 b0 3a
       0.0003333682 0.00097550807 0.00094718917 0.0013470964
000190 52 70 a8 39 42 6c 0c 3a 46 fc 58 3a ee 9e 3c 3a
       0.00032127142 0.0005356708 0.0008277338 0.0007195313
0001a0 2a 4a e7 39 a4 04 a9 39 a1 98 36 3a bc 9c 84 39
       0.0004411501 0.0003223765 0.00069654925 0.00025293778
0001b0 50 5c 37 3b 97 c3 49 3a 82 02 68 39 24 d0 17 3a
       0.0027978607 0.00076966867 0.00022126178 0.0005791208
0001c0 7f 68 ef 39 40 74 8c 3a 57 b1 88 3a bd 53 00 3b
       0.00045663488 0.0010715798 0.0010428828 0.0019581162
0001d0 3e 42 6e 3b 8c 1c c4 3a d3 75 41 39 a1 8e da 3a
       0.0036355401 0.0014962121 0.00018449807 0.0016674587
0001e0 bd 54 52 39 3a 7b 9d 3a fd d8 8b 39 97 c9 ad 3a
       0.00020058728 0.0012014874 0.00026673815 0.0013258931
0001f0 34 24 d4 39 f8 eb 23 39 32 99 1e 3b 8b 4f 00 3b
       0.00040462764 0.00015632797 0.0024200198 0.0019578661
