FJSP_MultiPPO/saved_network/FJSP_J20M605/best_value0/policy_job.pth (torch_old, 637433 bytes, 53 tensors)

_input f4 [128]
0	0x3f2ffbac	0.68743396
1	0xbeb4e436	-0.3533036
2	0xbeb5de67	-0.35521242
3	0xbe1b46d6	-0.1516374
4	0x3f71d7f4	0.94470143
5	0xbf71a8e8	-0.94398355
6	0xbe85fee1	-0.2617102
7	0xbf174d70	-0.59102535
8	0xbeffec31	-0.49984887
9	0x3e57ee2c	0.21086949
10	0xbe76c0f9	-0.2409705
11	0x3e80c240	0.251482
12	0xbefc72f0	-0.4930644
13	0xbf073212	-0.52810776
14	0xbe86660e	-0.26249737
15	0x3e88ea14	0.26741087
16	0xbf35824c	-0.7090194
17	0x3e2c9477	0.1685351
18	0x3e20cb17	0.15702473
19	0xbf574624	-0.840914
20	0xbf21717c	-0.6306379
21	0xbf5be530	-0.8589659
22	0xbd0564d8	-0.032566875
23	0xbf0ac29d	-0.54203206
24	0x3e967efb	0.29393753
25	0x3f02f2c1	0.51151663
26	0x3ecc15b2	0.39860302
27	0xbf2e1770	-0.6800451
28	0x3f27b894	0.6551602
29	0x3ecb969a	0.39763337
30	0xbf63f491	-0.89045054
31	0xbf2618a3	-0.6488134
32	0xbe174a5c	-0.1477446
33	0xbf56a6bd	-0.8384817
34	0x3cf5e90e	0.030018356
35	0xbea1e6b3	-0.31621322
36	0x3f6e8fc6	0.9318813
37	0xbf248783	-0.64269274
38	0xbf38c7ae	-0.7217969
39	0x3f7128b2	0.9420272
40	0x3f5f4428	0.87213373
41	0x3f11c345	0.5693858
42	0x3ea01f20	0.31273746
43	0x3ea85be6	0.32882613
44	0x3ea0aad1	0.31380323
45	0xbec52a47	-0.38508818
46	0xbea4668c	-0.32109487
47	0xbea06dec	-0.31333864
48	0xbda5933b	-0.080847226
49	0xbe8ad19f	-0.27113053
50	0x3f714457	0.94244903
51	0xbc946155	-0.018112818
52	0x3f76da00	0.9642639
53	0x3eeead0b	0.46616396
54	0x3e3bb847	0.18332015
55	0xbf034719	-0.5128036
56	0xbed2f2b1	-0.41200784
57	0xbe9301a1	-0.2871218
58	0xbe262d27	-0.16228162
59	0xbf56f1a1	-0.83962446
60	0x3b13f69e	0.0022577415
61	0xbf2378ca	-0.63856184
62	0xbf4330e5	-0.7624648
63	0xbeb186e4	-0.34673226
64	0x3e269016	0.16265902
65	0xbe65fa1f	-0.22458695
66	0xbea3582d	-0.3190321
67	0xbf3d824e	-0.74026954
68	0x3f72d514	0.9485638
69	0xbf315568	-0.69270945
70	0xbf658e7a	-0.89670527
71	0xbf457108	-0.77125597
72	0x3e14b8fb	0.1452369
73	0x3ed0013b	0.4062594
74	0x3f2af3ac	0.66778064
75	0xbf6dff92	-0.92968094
76	0x3f6a198d	0.9144524
77	0xbea873b7	-0.32900783
78	0x3c8591a4	0.016304798
79	0x3f4d4eda	0.8019844
80	0xbd8669dd	-0.065631606
81	0xbe2e3d3f	-0.17015551
82	0xbf42b072	-0.76050484
83	0xbe2ad384	-0.1668225
84	0x3e67c21e	0.22632644
85	0xbddc35ed	-0.10752473
86	0x3ecc804d	0.39941636
87	0xbeaede84	-0.3415414
88	0x3ed4fe13	0.41600093
89	0x3f60ab3f	0.877613
90	0x3f08879f	0.5333194
91	0xbcf6294d	-0.03004899
92	0xbf44afce	-0.76830757
93	0x3e1e9465	0.15486296
94	0xbe34e2c1	-0.17664625
95	0xbed33290	-0.41249514
96	0x3d854a3d	0.065083005
97	0x3f046f13	0.51731986
98	0xbe935b70	-0.287807
99	0xbd609a60	-0.054834723
100	0x3d6ae3b9	0.05734608
101	0xbed35656	-0.41276807
102	0x3f7d8cfd	0.99043256
103	0xbf7d216b	-0.98879117
104	0xbf2ff768	-0.68736887
105	0xbf2e96ac	-0.6819866
106	0x3f2710da	0.6526009
107	0x3e1396e1	0.14413024
108	0x3ee8a00e	0.45434612
109	0xbdd84520	-0.105600595
110	0x3e82e3c6	0.25564402
111	0xbd6acf92	-0.05732686
112	0x3f4fee26	0.8122276
113	0x3f35e1d8	0.71047735
114	0x3f4d4db6	0.801967
115	0x3f2f3783	0.6844408
116	0xbe3321c3	-0.17493348
117	0x3f3609b5	0.7110856
118	0xbf0c25e5	-0.5474532
119	0xbeccab29	-0.39974335
120	0xbf2d0ec1	-0.6760064
121	0x3f645d14	0.89204526
122	0xbf800b41	-1.0003434
123	0xbf7d9c6a	-0.99066794
124	0xbe8a9b2e	-0.27071518
125	0xbdbc6bcf	-0.0920025
126	0xbee8fba1	-0.45504478
127	0x3f7b2ed2	0.9811832

bn.weight f4 [2]
0	0x3f800000	1.0
1	0x3f800000	1.0

bn.bias f4 [2]
0	0x00000000	0.0
1	0x00000000	0.0

bn.running_mean f4 [2]
0	0x00000000	0.0
1	0x00000000	0.0

bn.running_var f4 [2]
0	0x3f800000	1.0
1	0x3f800000	1.0

encoder.feature_extract.mlps.0.linears.0.weight f4 [128, 2]
0	0x3eeefeab	0.4667867
1	0xbe76b753	-0.2409337
2	0xbe79f11b	-0.2440838
3	0x3f140ba6	0.57830274
4	0xbf2673c3	-0.6502039
5	0xbebd5dd3	-0.36985645
6	0x3e1af1a4	0.15131241
7	0xbeb10c89	-0.34579876
8	0xbec999d1	-0.39375165
9	0x3e558614	0.20851928
10	0xbeb24ea8	-0.34825635
11	0x3dc0be36	0.0941128
12	0x3ed4f6a3	0.4159442
13	0x3ea4fceb	0.3222421
14	0xbf0a78de	-0.5409068
15	0x3e8690c2	0.26282316
16	0xbf06bbb9	-0.5263019
17	0x3e8d4318	0.2759025
18	0xbf2ee671	-0.68320376
19	0x3e8d23f1	0.27566484
20	0x3f231dcc	0.6371734
21	0xbe065a11	-0.13120295
22	0xbed8f329	-0.42373016
23	0xbeedfee6	-0.46483535
24	0xbee48d09	-0.4463885
25	0xbec78d07	-0.38974783
26	0xbe6ba694	-0.23012763
27	0x3e4f3568	0.20235217
28	0x3e1baa07	0.15201579
29	0x3e19702b	0.14984195
30	0xbee3f919	-0.44525984
31	0x3f32f8e7	0.69911045
32	0x3efb63b4	0.49099505
33	0xbd950357	-0.07276028
34	0xbefdc1b0	-0.49561834
35	0x3ebdf58e	0.37101406
36	0x3ef6b31d	0.48183528
37	0x3eb99646	0.36247462
38	0x3e6f9d68	0.2339989
39	0xbdb2f672	-0.08738412
40	0xbe92ec08	-0.28695703
41	0x3ea36041	0.31909373
42	0xbf17cd7d	-0.59297925
43	0x3f28afa6	0.6589302
44	0x3e49a8a5	0.19693239
45	0x3c4cfe3d	0.012511787
46	0xbe71a8f1	-0.23599602
47	0xbed7cc06	-0.42147845
48	0xbeb409ff	-0.35163876
49	0xbea17027	-0.31530878
50	0xbf2fb912	-0.6864177
51	0x3e141bd4	0.1446374
52	0x3edaf8d2	0.4276796
53	0xbdfe823c	-0.12427184
54	0x3e166383	0.14686398
55	0x3e294671	0.16530778
56	0xbeacdb75	-0.33761182
57	0xbf2a84cc	-0.6660888
58	0xbf309b2a	-0.6898676
59	0xbf273c8a	-0.6532675
60	0x3e871618	0.26384044
61	0xbdc98754	-0.09840265
62	0xbef02c90	-0.46908998
63	0xbea64e2c	-0.32481515
64	0xbf2389fa	-0.6388241
65	0x3e4fc2ce	0.20289156
66	0xbf143992	-0.57900345
67	0x3d962ae2	0.07332398
68	0x3d2344f7	0.039860692
69	0x3f33a13d	0.70167905
70	0xbf202e27	-0.6257042
71	0x3eb6e445	0.3572103
72	0xbef6316e	-0.48084587
73	0xbe75ad4e	-0.23991892
74	0xbcc32466	-0.023821067
75	0x3e8933ec	0.26797426
76	0x3ea7b365	0.32754055
77	0x3e9274d6	0.28604764
78	0x3eedfbef	0.46481273
79	0x3ed79e96	0.4211318
80	0x3df6093a	0.120134786
81	0xbf1fcd90	-0.6242304
82	0x3e87425f	0.26417825
83	0xbf2aec92	-0.6676723
84	0xbf13b6a2	-0.5770055
85	0xbe3b0c51	-0.18266417
86	0x3f021f96	0.50829446
87	0x3e069139	0.13141336
88	0x3d82f4e3	0.06394365
89	0xbe7d6712	-0.2474635
90	0x3e23eb96	0.16007838
91	0x3ebc2dc7	0.36753675
92	0x3e884a13	0.26619014
93	0xbf150eca	-0.5822569
94	0xbe51b069	-0.20477451
95	0xbe58922a	-0.21149507
96	0x3f129352	0.5725604
97	0x3eac043b	0.33596978
98	0xbe0222d7	-0.12708603
99	0xbebe52ed	-0.37172642
100	0xbf316ba7	-0.6930489
101	0x3f2b3d92	0.66890824
102	0x3f0a3cb5	0.5399888
103	0xbed02a26	-0.40657157
104	0xbecb10c8	-0.3966124
105	0xbea1bc34	-0.315889
106	0xbe993637	-0.29924175
107	0xbd817a1d	-0.063221194
108	0xbd3db6fd	-0.04631709
109	0x3eb76ec1	0.35826686
110	0x3ebe287f	0.3714027
111	0xbe818674	-0.25297892
112	0xbe881e2d	-0.26585522
113	0xbc34a869	-0.01102648
114	0x3ea97dc8	0.33103776
115	0xbd924f81	-0.071440704
116	0xbd0f7760	-0.035025954
117	0xbf0a166e	-0.53940475
118	0x3f1bd23c	0.6086767
119	0xbe0b7507	-0.13618861
120	0x3ed5880e	0.41705364
121	0xbf16fec4	-0.5898249
122	0x3b7b6ce8	0.0038364474
123	0x3f22243e	0.6333655
124	0x3f1e5458	0.6184745
125	0x3e43e88c	0.19131678
126	0xbf23464a	-0.6377913
127	0x3f022420	0.5083637
128	0xbdc059d3	-0.093921326
129	0xbf3419cc	-0.7035186
130	0xbeaf778b	-0.34270892
131	0x3f0a2469	0.5396181
132	0x3f2f0fed	0.68383676
133	0xbe077685	-0.13228805
134	0xbde9d60e	-0.11417781
135	0xbe615b89	-0.22007574
136	0xbd970714	-0.07374397
137	0xbeea297e	-0.4573478
138	0xbf2fbe4f	-0.6864976
139	0xbe597862	-0.21237329
140	0xbf21cdc9	-0.6320463
141	0xbee6dd3e	-0.4509067
142	0xbebb3eb9	-0.3657129
143	0x3e927762	0.28606707
144	0x3f045c6f	0.5170354
145	0x3e5f376d	0.21798487
146	0x3e1c0870	0.15237594
147	0x3f30b0ae	0.6901959
148	0x3f2b2f6d	0.6686924
149	0x3eb124fa	0.34598523
150	0x3ed9fcdd	0.42575732
151	0x3e93703c	0.28796566
152	0xbf0a127d	-0.5393446
153	0xbe551e47	-0.20812331
154	0x3e3b5929	0.1829573
155	0xbf1f9c22	-0.62347615
156	0x3f319ca1	0.6937962
157	0x3ebd215b	0.3693951
158	0xbe089739	-0.13338937
159	0xbf1caaaa	-0.6119791
160	0x3e32c96f	0.17459653
161	0x3d32f741	0.04369283
162	0xbecfe33c	-0.40603054
163	0x3de4944f	0.111611
164	0x3f209156	0.62721765
165	0x3ed8ade0	0.42320156
166	0xbf040780	-0.51573944
167	0xbf109705	-0.5648044
168	0x3f074a73	0.52847975
169	0xbe102aa8	-0.14078772
170	0x3da2407e	0.07922457
171	0xbea07bfd	-0.31344596
172	0x3e8a4448	0.2700522
173	0x3f30d0e3	0.69068736
174	0xbe385322	-0.18000463
175	0xbdf9965c	-0.12186882
176	0x3f2fdeb8	0.68699217
177	0xbea84d61	-0.32871535
178	0xbdcd77dc	-0.10032627
179	0x3ccb8ebb	0.024848333
180	0x3eed50fd	0.46350852
181	0x3cbc751b	0.023005059
182	0xbe396651	-0.18105437
183	0x3f0d574c	0.5521133
184	0xbeeb963a	-0.4601305
185	0xbd013f7f	-0.031554695
186	0x3ed8e043	0.42358598
187	0x3e2042e9	0.15650524
188	0x3dba9e81	0.091122635
189	0xbf1f0dba	-0.6213032
190	0xbf1d518c	-0.61452556
191	0xbf2aee3d	-0.6676977
192	0xbeaca12e	-0.3371672
193	0xbf0e6c58	-0.5563407
194	0x3e9569cb	0.29182276
195	0xbe8a4b1d	-0.27010432
196	0xbe150bcb	-0.1455528
197	0xbf301502	-0.68782055
198	0xbee19ecf	-0.44066474
199	0xbf2bae8e	-0.67063224
200	0xbc9c9b56	-0.019117039
201	0xbef95a42	-0.48701674
202	0xbe5fd203	-0.21857457
203	0xbf17d36a	-0.5930697
204	0x3ef5531f	0.4791498
205	0xbe6e1706	-0.2325097
206	0x3f30d41e	0.69073665
207	0x3ee48d6f	0.44639155
208	0xbda87a14	-0.082264096
209	0x3f16e565	0.5894378
210	0x3e95f34c	0.29287183
211	0x3ea9ec13	0.33187923
212	0x3ef35627	0.47526667
213	0x3dc549f0	0.09633243
214	0xbe082845	-0.13296612
215	0xbf1b7516	-0.60725534
216	0xbf1d9506	-0.61555517
217	0x3eba4abb	0.3638514
218	0x3ed824ba	0.4221552
219	0x3e3e24f9	0.18568791
220	0xbe5cf824	-0.21579033
221	0x3e9d95f9	0.30778483
222	0xbee6ae01	-0.4505463
223	0xbf098e48	-0.5373273
224	0x3efceccb	0.4939941
225	0xbf1b40e2	-0.6064588
226	0xbf30412c	-0.68849444
227	0x3eb44c94	0.35214674
228	0xbe509548	-0.20369446
229	0xbc9ffbd3	-0.019529259
230	0x3ed0067c	0.40629947
231	0xbdde9456	-0.108681366
232	0xbe9cb32b	-0.30605444
233	0x3f097de4	0.5370772
234	0xbddb1311	-0.10696996
235	0x3eef2b58	0.46712756
236	0xbeb1574f	-0.34636924
237	0xbf19a5cb	-0.60018605
238	0xbda5a73f	-0.0808854
239	0x3e9b9f56	0.30395
240	0xbf32d21b	-0.69851846
241	0x3c1cdc64	0.00957403
242	0x3f089f65	0.53368217
243	0xbeb4dad6	-0.3532321
244	0x3ebcadc0	0.3685131
245	0xbf17a9dc	-0.5924356
246	0xbf0b50a3	-0.54419917
247	0x3e414d63	0.18877177
248	0xbdd62a2e	-0.10457264
249	0xbecde2e2	-0.4021216
250	0xbf29c565	-0.66316825
251	0xbeaef11f	-0.34168336
252	0x3f298587	0.6621937
253	0x3f2158df	0.6302623
254	0xbf2d3193	-0.6765377
255	0x3d459e3e	0.048246615

encoder.feature_extract.mlps.0.linears.0.bias f4 [128]
0	0xbef52cd5	-0.47885767
1	0xbe7ba255	-0.24573644
2	0xbf32b90f	-0.69813627
3	0xbe1e0325	-0.15430887
4	0x3e33ff06	0.17577752
5	0x3e9491ee	0.29017586
6	0xbf176d6c	-0.5915134
7	0xbed87ed8	-0.42284274
8	0x3f30163e	0.6878394
9	0xbf0e52b3	-0.5559494
10	0x3e60a0be	0.21936318
11	0x3d35a999	0.044351194
12	0x3ebc2b29	0.3675168
13	0x3edd0277	0.43165943
14	0x3eb688a0	0.35651112
15	0x3f300846	0.68762624
16	0x3f2a62dd	0.66557103
17	0x3f3012c6	0.68778646
18	0xbf028968	-0.50990915
19	0x3cb85ab3	0.022504186
20	0xbf1cd0c9	-0.6125608
21	0x3f2b251a	0.6685349
22	0x3f218e7e	0.6310805
23	0x3ebccaa6	0.36873358
24	0x3ee0acfd	0.4388198
25	0xbe3d19ed	-0.18466921
26	0x3ef80e43	0.4844838
27	0xbe78178a	-0.2422773
28	0xbe50af38	-0.2037934
29	0xbe958d48	-0.29209352
30	0xbde762f7	-0.11298173
31	0xbd9c19a0	-0.07622075
32	0x3de3caa4	0.11122635
33	0x3d600916	0.054696165
34	0xbeb9f720	-0.36321354
35	0x3e1b79b8	0.15183151
36	0xbe90c1ac	-0.2827276
37	0x3f28c363	0.65923136
38	0x3f2e7fa6	0.68163526
39	0x3f35f070	0.71070004
40	0xbf05cca1	-0.52265364
41	0xbd4128cd	-0.04715805
42	0x3f2ab8c3	0.66688174
43	0x3cbbb6f2	0.022914384
44	0x3f1404ff	0.57820123
45	0xbee1047b	-0.4394873
46	0x3ed760bd	0.42065993
47	0xbed3cf55	-0.4136912
48	0xbe0f5b47	-0.13999663
49	0x3e819cde	0.25314993
50	0x3eb659de	0.35615438
51	0xbe585d39	-0.21129312
52	0xbec34dff	-0.38145444
53	0xbd62ea5a	-0.055399276
54	0xbec3bc54	-0.3822962
55	0x3f192924	0.598284
56	0x3f06dfbb	0.52685136
57	0xbb26791d	-0.002540178
58	0xbe8ac993	-0.27106914
59	0x3e907fbd	0.28222457
60	0xbe0707d2	-0.13186577
61	0xbeef29c0	-0.4671154
62	0x3e4617d4	0.19345027
63	0xbf077d3f	-0.52925485
64	0xbf315824	-0.69275117
65	0x3ece4926	0.40290183
66	0x3ea8524c	0.32875288
67	0xbecfc51e	-0.40580076
68	0xbf15fbaa	-0.58587134
69	0xbe0f5ba2	-0.13999799
70	0xbe822c4d	-0.25424424
71	0xbe8b6a38	-0.27229476
72	0x3eb2c26f	0.34913966
73	0x3e29933c	0.16560072
74	0x3d8d48c7	0.06898647
75	0xbf16867d	-0.5879896
76	0xbf2fa42e	-0.68609893
77	0x3e6029f4	0.21891004
78	0xbb5bb753	-0.0033526018
79	0x3f28dbb1	0.6596022
80	0xbb75f9cc	-0.0037532924
81	0xbf1a60a9	-0.6030374
82	0xbe9f9a70	-0.31172514
83	0xbf2e0777	-0.6798014
84	0xbf249c28	-0.64300776
85	0x3e80bcea	0.2514413
86	0x3f33f447	0.7029461
87	0x3e9baef4	0.30406916
88	0x3e45440e	0.19264242
89	0x3ee76f9a	0.45202333
90	0x3f2c1665	0.6722167
91	0xbf27c60e	-0.6553658
92	0xbf000f76	-0.5002359
93	0x3eb0da9d	0.3454179
94	0x3e3d86aa	0.18508402
95	0x3d8769ac	0.06611952
96	0xbef7ae8b	-0.48375353
97	0xbf328ac6	-0.69743
98	0x3f31d11d	0.69459707
99	0xbef1d154	-0.47230017
100	0xbec90626	-0.39262503
101	0x3d062d80	0.032758236
102	0xbe6b757a	-0.22994033
103	0xbf1e9dd2	-0.61959565
104	0x3f02eb84	0.5114062
105	0xbea3d591	-0.31998876
106	0x3ed7e797	0.42168877
107	0xbef1f89d	-0.4725999
108	0x3f2f0469	0.68366104
109	0x3e077373	0.13227634
110	0x3f2adad1	0.6674014
111	0x3ed103bd	0.40823165
112	0xbee9204c	-0.45532453
113	0xbef55103	-0.4791337
114	0x3e51615c	0.20447296
115	0x3e451c16	0.19248995
116	0xbe776f1b	-0.24163477
117	0xbdd61372	-0.10452928
118	0xbf12fce7	-0.5741715
119	0xbf0963a7	-0.5366768
120	0x3e254f93	0.16143636
121	0xbe4ee1b5	-0.20203288
122	0xbdf85037	-0.12124675
123	0x3f0a0ec0	0.53928757
124	0x3f077cf1	0.5292502
125	0xbe817308	-0.25283074
126	0xbd8e588c	-0.06950483
127	0x3efafb97	0.49020073

encoder.feature_extract.mlps.0.linears.1.weight f4 [128, 128]
0	0x3cb76daa	0.02239116
1	0xbd972cdd	-0.07381604
2	0x3cdc40da	0.026886392
3	0xbd7c7796	-0.061637484
4	0x3d1e8a1d	0.038705934
5	0x3d9ad5fd	0.07560346
6	0x3d6492cc	0.05580406
7	0x3cdf847a	0.02728485
8	0xbcb937b8	-0.022609577
9	0x3c873b74	0.016507842
10	0x3ba936a9	0.0051639867
11	0x3d861761	0.06547428
12	0x3c36237e	0.01111686
13	0xbdab1564	-0.08353689
14	0x3d734b58	0.059398025
15	0x3cc55d7a	0.024092425
16	0xbbf2be97	-0.007407974
17	0xbd8a6a1f	-0.06758522
18	0xbd974490	-0.07386124
19	0x3ba05185	0.0048925304
20	0x3cf490ac	0.029854141
21	0x3c27ad97	0.010234258
22	0x3c7733c9	0.01508803
23	0xbcdf9ca0	-0.027296364
24	0x3d6b6902	0.05747319
25	0xbca85a11	-0.02055076
26	0xbbbe351d	-0.0058046714
27	0x3d9d1173	0.07669344
28	0xbd9b8003	-0.07592776
29	0xbd6ceec6	-0.0578449
30	0x3d70624d	0.058687497
31	0x3d24ad9f	0.04020464
32	0x3da71797	0.08158796
33	0x3db7c5d5	0.0897328
34	0xbd2550f1	-0.040360395
35	0xbd3d89b1	-0.04627389
36	0xbcd84142	-0.026398305
37	0x3dac7fd9	0.084228225
38	0x3cff987b	0.031200638
39	0x3d8e20a8	0.069398224
40	0xbd955daf	-0.07293259
41	0x3d554b73	0.052073907
42	0xbd9ed518	-0.07755488
43	0xbd9ad008	-0.0755921
44	0xbd8f35b4	-0.06992665
45	0x3d920759	0.07130308
46	0x3c17c397	0.009262941
47	0x3cfad5e2	0.030619565
48	0x3cd4b796	0.025966447
49	0x3d81d76b	0.06339916
50	0x3cc60118	0.024170443
51	0x3d16bda2	0.03680194
52	0x3c60c11a	0.013717914
53	0x3d464234	0.04840298
54	0x3d50b90f	0.050957736
55	0xbd99a316	-0.07501809
56	0xbd103ec8	-0.035216123
57	0xbd4c3270	-0.04985279
58	0xbda41db5	-0.08013479
59	0xbc731a9c	-0.014837887
60	0xbaef6250	-0.0018263552
61	0xbd1df2db	-0.038561683
62	0xbcc99e12	-0.024611507
63	0x3d2efdf6	0.042722665
64	0xbda4bf08	-0.08044249
65	0xbce6b5e1	-0.028162898
66	0x399629ab	0.00028641275
67	0x3d803194	0.06259456
68	0xbd0c1a50	-0.03420478
69	0x3c991f2c	0.018691622
70	0x3d70b456	0.05876573
71	0x3d502669	0.05081788
72	0xbcd5a5dd	-0.026080066
73	0xbcd640d2	-0.026153956
74	0xbca52543	-0.02015937
75	0xbdb6022e	-0.088871345
76	0xbd5f957d	-0.054585923
77	0x3d919db8	0.071101606
78	0x3d47aeff	0.048750874
79	0xbd899147	-0.067171626
80	0x3dab9f11	0.08379949
81	0xbada426c	-0.0016651875
82	0xbd8de99a	-0.069293216
83	0xbd558abc	-0.05213426
84	0x3d0d3d52	0.034482308
85	0x3db5ead3	0.0888268
86	0xbd5fb40f	-0.054615077
87	0x3cf20a63	0.029545968
88	0x3c4caaf3	0.012491929
89	0x3d983755	0.07432429
90	0x3c1ed95a	0.009695375
91	0x3d3e6c5e	0.046490066
92	0x3b8d5615	0.0043132403
93	0xbd84ef05	-0.06490902
94	0x3d9dbb5d	0.07701752
95	0xbd9c5bf3	-0.076347254
96	0xbccca4b7	-0.024980886
97	0x3d6f9b55	0.058497746
98	0xbd42104e	-0.04737883
99	0xbd03616c	-0.03207533
100	0xbd93c580	-0.072154045
101	0x3d52299c	0.051309213
102	0xbd514fae	-0.05110138
103	0xbd9b52a4	-0.07584122
104	0xbcf98943	-0.03046096
105	0x3d275e07	0.040861156
106	0xbd9fe019	-0.07806415
107	0x3c9bed1e	0.019033965
108	0x3d7307e6	0.059333704
109	0xbd570c1c	-0.052501783
110	0xbc4a18df	-0.012335031
111	0x3cc4c8c4	0.024021514
112	0x3d516298	0.051119417
113	0xbd839fce	-0.06426965
114	0x3d65300f	0.055954035
115	0xbd9c2930	-0.076250434
116	0x3d41755b	0.04723106
117	0x3d8edef5	0.069761194
118	0xbd33200b	-0.04373173
119	0x3d6d7b27	0.057978775
120	0xbd8ff21f	-0.07028603
121	0xbd77759b	-0.06041489
122	0xbd8d74b2	-0.069070235
123	0x3d4db8c6	0.05022504
124	0xbc0b73ba	-0.008511478
125	0xbcb5453a	-0.022127736
126	0xbd318c26	-0.043346547
127	0x3cda93be	0.026681777
128	0x3ca844e5	0.020540664
129	0xbd4b325c	-0.049608573
130	0xbcc98b9c	-0.024602704
131	0xbd3e7c07	-0.046505
132	0x3d8aaeef	0.06771647
133	0x3cdf52de	0.027261194
134	0x3d9f21f6	0.077701494
135	0xbd8528f2	-0.0650195
136	0x3cefdf29	0.029281216
137	0x3d6afac4	0.057368055
138	0xbd88b92c	-0.06675944
139	0xbd46c5a2	-0.04852832
140	0xbdb052d7	-0.086095504
141	0x3d9a3f90	0.07531655
142	0xbce2d715	-0.02769045
143	0x3cef5872	0.029216979
144	0xbcf89492	-0.030344281
145	0xbd85ab31	-0.06526793
146	0x3d241ad1	0.040064637
147	0xbcbdca3a	-0.023167718
148	0x3baf3f0d	0.0053480924
149	0xbc829aba	-0.01594292
150	0xbda0fb1b	-0.078603946
151	0xbd249d8d	-0.040189315
152	0x3d5eef56	0.054427467
153	0xbd33240c	-0.04373555
154	0xbd5f23b9	-0.054477427
155	0xbda507f6	-0.08058159
156	0x3b11c463	0.00222423
157	0xbd46dd90	-0.048551142
158	0x3ba01494	0.0048852656
159	0xbb9b9e31	-0.0047490825
160	0xbd85c2c3	-0.065312885
161	0xbd8dcf34	-0.069242865
162	0xbd8b780f	-0.06810009
163	0x3d987205	0.074436225
164	0xbd10580d	-0.03524022
165	0xbd7c6abc	-0.061625227
166	0x3d60d415	0.054889757
167	0x3d9bfa7b	0.07616135
168	0xbd76999a	-0.06020508
169	0xbc08a21d	-0.008339432
170	0x3d861323	0.06546619
171	0x3b461ed1	0.003023077
172	0x3d5c7981	0.053826813
173	0x3d08b051	0.033371273
174	0xbbbd2ae3	-0.0057729348
175	0xbd716513	-0.058934283
176	0x3d1f58dd	0.038903106
177	0xbd770971	-0.06031174
178	0xbc53c189	-0.01292456
179	0xbd837379	-0.06418509
180	0xbd9a6eaf	-0.075406425
181	0x3d2e026e	0.042482786
182	0xbc06615e	-0.008201925
183	0x3d94fe93	0.07275119
184	0xbd82c32c	-0.06384882
185	0x393bdf33	0.00017916858
186	0x3daaa5ca	0.08332403
187	0x3d8fec00	0.07027435
188	0x39fcf716	0.0004824928
189	0xbd4c2d4a	-0.04984788
190	0x3bf1b814	0.00737668
191	0x3da37cf2	0.07982816
192	0x3ca2a324	0.019853182
193	0xbced30ac	-0.028953873
194	0xbd812d73	-0.06307497
195	0xbcd45e5f	-0.025923906
196	0xbd3c20bd	-0.04592966
197	0x3d2a181c	0.0415269
198	0xbcd330b9	-0.025780069
199	0xbd9a4100	-0.07531929
200	0xbd79d43c	-0.060993418
201	0x3d896feb	0.067108
202	0xbda86fcf	-0.08224451
203	0x3d1d5d7c	0.03841923
204	0x3d63a4de	0.05557715
205	0x3d335b62	0.04378832
206	0xbccd6898	-0.025074288
207	0xbd9ee516	-0.077585384
208	0x3c91aed6	0.017783564
209	0x3c9d70d7	0.019218845
210	0xbd4b08aa	-0.04956881
211	0xbd094976	-0.033517323
212	0xbc87e082	-0.016586546
213	0x3d1473fe	0.03624343
214	0xbb8b69d3	-0.0042545586
215	0x3d118814	0.035530165
216	0x3ccd2dae	0.025046196
217	0xbcb1d02f	-0.021705715
218	0xbda31ffc	-0.07965085
219	0xbd780326	-0.060549878
220	0x3d7bcbfb	0.061473828
221	0x3cd172af	0.02556738
222	0x3cdf9649	0.027293341
223	0xbdb37d4a	-0.08764131
224	0xbd97c31e	-0.074102625
225	0xbc6a911f	-0.014316826
226	0xbdbbff10	-0.09179509
227	0xbd8f08d3	-0.06984105
228	0x3d1ddd4b	0.03854112
229	0x3cc96186	0.024582636
230	0xbc1ba4b4	-0.0094997175
231	0x3dab86a7	0.08375292
232	0xbd26ac2c	-0.04069154
233	0xbd87a3a2	-0.06623007
234	0xbdaa4ec8	-0.083158076
235	0xbd63df60	-0.05563295
236	0x3dad487b	0.0846109
237	0xbd891851	-0.06694091
238	0x3ab50c12	0.0013812801
239	0xbc9d9451	-0.019235762
240	0xbcd881f2	-0.02642915
241	0x3dad7cc0	0.0847106
242	0xbd8299d1	-0.063769944
243	0xbd8f9e04	-0.07012561
244	0xbb57c105	-0.0032921445
245	0xbd559a4a	-0.052149095
246	0xbd62edc8	-0.055402547
247	0xbd78178e	-0.06056934
248	0xbd721d18	-0.059109777
249	0x3d22e714	0.039771155
250	0x3b63926c	0.0034724725
251	0x3d869d54	0.06572977
252	0x3d821122	0.06350924
253	0xbd68541e	-0.056720845
254	0x3bda3ba3	0.0066599413
255	0xbd91425b	-0.070927344

encoder.feature_extract.mlps.0.linears.1.bias f4 [128]
0	0x3d9fa92c	0.07795939
1	0x3c8cba71	0.017178746
2	0x3d8e7e14	0.06957641
3	0xbd173307	-0.036913898
4	0x3c756fdd	0.014980284
5	0x3d33e175	0.043916184
6	0x3cd03c1c	0.025419287
7	0xbdae1ef2	-0.08501996
8	0x3c710691	0.014711038
9	0x3d806f45	0.06271223
10	0x3d5a6e64	0.053327933
11	0xbc3ebbc1	-0.011641444
12	0xbd18bfb0	-0.037292182
13	0x3bbaa1e8	0.0056955703
14	0x3db968b5	0.090531744
15	0x3d2a7793	0.04161794
16	0x3c245cee	0.010031922
17	0xbc7979eb	-0.015226821
18	0x3d90e143	0.07074215
19	0x3d93c055	0.07214419
20	0xbcbc885d	-0.023014242
21	0xbd78d02d	-0.060745407
22	0x3ce5708d	0.02800777
23	0xbd5fded1	-0.054655854
24	0xbc88ca34	-0.01669798
25	0x3b7ee7a6	0.0038895397
26	0xbd9a2386	-0.07526307
27	0xbd8283ac	-0.06372771
28	0xbd7ab04d	-0.06120329
29	0xbcbecf77	-0.023292286
30	0x3cb36b17	0.02190165
31	0xbd8a1b09	-0.06743438
32	0x3d3bc45a	0.045841552
33	0x3d8ce193	0.06878962
34	0xbd9fad4e	-0.07796727
35	0x3da290ff	0.07937812
36	0xbcba7360	-0.022760093
37	0xbcafff6b	-0.021484097
38	0xbbcecd85	-0.006311121
39	0xbcd34379	-0.02578901
40	0xbd47829b	-0.04870854
41	0x3cd70476	0.026247244
42	0x3d78c621	0.060735825
43	0x3d709377	0.058734383
44	0x3c225620	0.009908229
45	0x3b625fce	0.0034541967
46	0xbd9b5c00	-0.07585907
47	0x3ce0a03d	0.027420158
48	0x3d6d326b	0.05790941
49	0xbc737338	-0.014859013
50	0xbd95fcac	-0.07323584
51	0xbc7fb77a	-0.015607709
52	0xbdaf2e99	-0.0855381
53	0x3d954b23	0.07289722
54	0x3d8115ce	0.06302987
55	0xbb74365f	-0.0037263853
56	0x3d94d0c6	0.07266383
57	0x3d8047f1	0.06263722
58	0xbd4f6a35	-0.050638396
59	0x3d8879f1	0.066638835
60	0xbcf63527	-0.030054642
61	0xbc4b915f	-0.012424796
62	0x3dac1ec1	0.08404303
63	0x3d7f1d76	0.062283956
64	0x3c826f29	0.015922146
65	0xbd885b27	-0.06658011
66	0x3d88c04a	0.06677301
67	0xbd687381	-0.056750778
68	0x3c5b3e59	0.013381564
69	0xbd800f98	-0.06252974
70	0xbdc227b5	-0.0948023
71	0xbd63c14f	-0.055604275
72	0xbbdafac0	-0.0066827238
73	0xbd49aeb4	-0.049238876
74	0xbd91ae37	-0.07113307
75	0xbcc4b29f	-0.024010954
76	0x3d3704b5	0.044682223
77	0x3cd287f3	0.025699591
78	0x3d5e9cfb	0.054348927
79	0x3c92bba0	0.017911732
80	0x3d856354	0.06513086
81	0x3d10b4e3	0.035328757
82	0x3db5b8ab	0.08873113
83	0xb929bc80	-0.00016187318
84	0xbd061f18	-0.032744497
85	0xba82d823	-0.0009982627
86	0x3c6eb158	0.014568649
87	0xbd9559af	-0.072924964
88	0x3da62e34	0.08114281
89	0xb950f77b	-0.0001992862
90	0xbd8223c0	-0.06354475
91	0x3da9d936	0.08293383
92	0x3d91c25f	0.071171515
93	0x3ca17852	0.019710694
94	0xbd952d41	-0.07284022
95	0xbd5c1a6b	-0.05373613
96	0xbd915ad3	-0.070974015
97	0x3dae3801	0.08506776
98	0xbc2f542b	-0.01070122
99	0x3d4f3ef1	0.050597135
100	0xbafd3446	-0.0019317947
101	0x3d860cda	0.0654542
102	0x3d9da5d3	0.07697644
103	0x3c2c675a	0.010522688
104	0x3db2e223	0.087345384
105	0x3d38c0e4	0.04510583
106	0x3d49b48b	0.049244445
107	0x3d9d8931	0.07692183
108	0xbd4ceaf0	-0.05002874
109	0xbc3de6ea	-0.011590699
110	0xbd114b48	-0.035472184
111	0x3d6fd382	0.05855132
112	0x3d208b5f	0.039195415
113	0x3d2245f5	0.039617497
114	0xbcd71812	-0.026256595
115	0xbc0867f3	-0.008325565
116	0xbdaeaf04	-0.08529475
117	0x3d49497c	0.049142346
118	0xbcf2d323	-0.029641693
119	0x3d89400b	0.06701668
120	0xbcd63bee	-0.026151624
121	0xbda93ede	-0.08263944
122	0x3c44064c	0.011964392
123	0x3d047f2f	0.032347854
124	0x3d12201c	0.035675153
125	0xbdab0cbb	-0.083520375
126	0x3c9501a3	0.018189257
127	0xbc9e809b	-0.019348433

encoder.feature_extract.mlps.0.linears.2.weight f4 [128, 128]
0	0x3d9672a4	0.07346085
1	0x3bd41834	0.006472612
2	0xbd9e3e1a	-0.07726689
3	0x3d5da7d9	0.05411515
4	0xbdb08292	-0.08618654
5	0x3d33fa36	0.04393979
6	0xbcd0b266	-0.025475692
7	0xbd42f348	-0.047595292
8	0xbd0181b4	-0.031617835
9	0x3d4cd907	0.05001166
10	0x3d063139	0.032761786
11	0xbdadd7c7	-0.08488422
12	0x3d9d3442	0.07675983
13	0xbc006a69	-0.00783787
14	0xbd84b38e	-0.0647956
15	0xbd927347	-0.07150894
16	0xbdc25575	-0.09488956
17	0xbd016064	-0.031586066
18	0xbd710a1b	-0.058847528
19	0x3cd447da	0.025913168
20	0x3cf35eed	0.02970835
21	0x3b81fbb0	0.003966771
22	0xbd9a2c65	-0.07527999
23	0xbd0de566	-0.0346426
24	0x3dbc2990	0.09187615
25	0xbdae4d31	-0.08510817
26	0x3c1e28ca	0.00965328
27	0x3d2b5699	0.041830633
28	0xbc17415f	-0.009231894
29	0xbcd62a2e	-0.02614316
30	0xbd7ff0b3	-0.062485408
31	0x3d2c8d52	0.04212696
32	0xbd5adadf	-0.053431388
33	0x3c6ec3a6	0.014573013
34	0xbd2f0e0a	-0.042737998
35	0xbdaebf18	-0.08532542
36	0xbc75acd3	-0.014994818
37	0xbd7ab622	-0.06120885
38	0x3be82f61	0.007085726
39	0x3cc4c071	0.024017544
40	0xbd456a24	-0.048196927
41	0xbd023db5	-0.03179713
42	0xbc866d7a	-0.016409624
43	0x3c03acc3	0.008036795
44	0x3d0df9c2	0.034662016
45	0xbdaf0f62	-0.08547856
46	0x3d932f9e	0.07186817
47	0xbccbba0c	-0.024868988
48	0xbd89d909	-0.06730849
49	0x3d2c1f54	0.042022064
50	0xbd9bf20e	-0.07614528
51	0x3d791631	0.06081218
52	0xbd0defe3	-0.034652602
53	0x3cfafe77	0.030638916
54	0x3d7b5cb6	0.061367713
55	0xbb0ea24d	-0.002176422
56	0x3d08bce8	0.03338328
57	0x3daf31b7	0.08554404
58	0x3dbcaa06	0.09212117
59	0xbd57092c	-0.05249898
60	0xbd4acf09	-0.04951385
61	0x3c1e54b3	0.009663749
62	0x3d6a334f	0.057177838
63	0x3cc3a979	0.023884522
64	0x3d71727c	0.05894707
65	0x3d9c74ee	0.0763949
66	0x3d26f223	0.040758263
67	0xbc72da55	-0.014822562
68	0xbccca230	-0.02497968
69	0xbd791755	-0.060813267
70	0xbd97efe5	-0.07418803
71	0xba95876e	-0.0011408159
72	0xbd1adf24	-0.03781046
73	0x3d7f8dd1	0.062391106
74	0xbd46d649	-0.048544202
75	0x3db5c781	0.08875943
76	0x3c97880a	0.018497486
77	0xbd89e4e2	-0.06733109
78	0xbc9dff74	-0.019286849
79	0xbd83dfca	-0.06439169
80	0x3bbd1279	0.0057700244
81	0xbbe614e3	-0.007021533
82	0xbd1e4db4	-0.038648322
83	0xbc9a4808	-0.018833175
84	0x3cb18c47	0.021673335
85	0xbd312849	-0.04325131
86	0x3c6818df	0.014166086
87	0xbd9382b5	-0.07202665
88	0x3d92bd56	0.07165019
89	0xbab98870	-0.0014155041
90	0x3cb76c21	0.022390427
91	0x3d961006	0.07327275
92	0x3d2c27cb	0.042030137
93	0xbd06e281	-0.032930855
94	0xbdb29a17	-0.087207966
95	0xbc8da26d	-0.017289365
96	0xbd9fa16f	-0.07794463
97	0xbd973072	-0.07382287
98	0xbd3ff5fb	-0.046865445
99	0x3d6183bd	0.055057276
100	0x3c187579	0.009305351
101	0xbcde3265	-0.02712364
102	0x3d9c9453	0.07645478
103	0xbd814aaf	-0.06313073
104	0xbc915f66	-0.017745685
105	0x3a80a59e	0.0009814983
106	0x3d67175a	0.056418754
107	0xbc74fdaf	-0.014953061
108	0x3d7e6498	0.062107652
109	0x3bb2aeaa	0.0054529505
110	0xbc96af06	-0.018394005
111	0x3d28a795	0.041175444
112	0xbd8ceb1a	-0.068807796
113	0xbc553125	-0.013012205
114	0x3d7cac0b	0.06168751
115	0xbc8c7bb5	-0.017148832
116	0x3dbd4136	0.092409536
117	0x3da77720	0.08177018
118	0xbd479e07	-0.04873469
119	0x3d164d15	0.036694605
120	0x3d732bfd	0.059368122
121	0xbd889128	-0.06668311
122	0x3ca5226e	0.020158019
123	0xbd6f0dd7	-0.058362808
124	0xba442362	-0.0007482079
125	0x3dae3749	0.085066386
126	0x3d67714a	0.056504525
127	0xbb09cad3	-0.0021025434
128	0x3c060208	0.008179195
129	0x3d16792b	0.03673665
130	0xbd2cf375	-0.042224366
131	0xbc87b0c3	-0.016563779
132	0xbca74f2b	-0.020423492
133	0x3d5b72a4	0.053576127
134	0x3dbe4194	0.09289852
135	0xbd8f2ac0	-0.06990576
136	0x3d4855f7	0.048910107
137	0xbda27332	-0.07932128
138	0x3c80442d	0.015657509
139	0x3d070f5e	0.03297364
140	0x3cd65b78	0.026166663
141	0xbd978b32	-0.07399596
142	0x3bb6d315	0.005579362
143	0xbc8a2a7a	-0.016865958
144	0x3d84e9a9	0.0648988
145	0xbd892c51	-0.06697906
146	0x3d9daea7	0.07699328
147	0x3d832abb	0.064046346
148	0xbc490043	-0.012268129
149	0xbd2ac3d4	-0.041690663
150	0x3c0e2b7b	0.008677359
151	0xbd05fafb	-0.032710057
152	0x3c2d742d	0.0105867805
153	0xbdae2ce1	-0.08504654
154	0xbdab580d	-0.08366404
155	0xbd006136	-0.031342708
156	0x3d562fcf	0.052291688
157	0xbc2a9423	-0.010411295
158	0xbc20a484	-0.009804849
159	0x3cdffcc4	0.027342208
160	0xbdb8aa41	-0.09016848
161	0x3d882df1	0.06649388
162	0x3c5466f7	0.012964002
163	0xbd2b2277	-0.041780915
164	0xbd40245c	-0.046909675
165	0x3d8be963	0.06831624
166	0x3d2148b1	0.039375965
167	0xbbeac477	-0.0071645337
168	0x3d95213c	0.072817296
169	0x3dac8b28	0.084249794
170	0x3d941f59	0.072325416
171	0x3daa47fa	0.0831451
172	0xbce624bf	-0.028093694
173	0xbd8d4d4f	-0.06899511
174	0xbbb5ef75	-0.005552227
175	0x3d759165	0.059953112
176	0xbd97959d	-0.07401583
177	0xbd8e4d6e	-0.06948362
178	0x3d8a8d15	0.067651905
179	0xbd878806	-0.06617741
180	0x3d289817	0.04116067
181	0x3d0b2ec5	0.03398015
182	0x3d4a474d	0.049384404
183	0x3d52947c	0.051411137
184	0xbd9bd4cb	-0.076089464
185	0x3d956b2e	0.072958335
186	0x3cbc9988	0.023022428
187	0xbd56d54e	-0.052449517
188	0xbd343aff	-0.044001576
189	0x3d8b347b	0.06797119
190	0x3ce7966f	0.028269975
191	0x3d4790db	0.04872213
192	0xbd86a8fd	-0.06575201
193	0x3d88c46b	0.06678089
194	0xbd21cfa9	-0.03950468
195	0x3d6d4159	0.05792365
196	0x3c55abb9	0.01304143
197	0xbda20f66	-0.07913093
198	0x3d3e9d80	0.046536922
199	0x3b68de63	0.0035532943
200	0x3d347f90	0.044066966
201	0xbba19b61	-0.0049318527
202	0xbd66e020	-0.056366086
203	0x3d87b3cd	0.06626091
204	0xbda9466a	-0.082653835
205	0x3d8cb594	0.06870571
206	0xbd080fbd	-0.033218134
207	0x3daf7ea6	0.08569078
208	0xbb2ddbca	-0.002652871
209	0x3d0d0f17	0.03443822
210	0x3d140765	0.036139864
211	0xbd135854	-0.03597291
212	0xbd0ce75b	-0.034400325
213	0xbcef9afb	-0.029248705
214	0xbd40bf87	-0.047057655
215	0x3c6589a5	0.014009868
216	0x3c78f0a6	0.015194094
217	0x3d90b684	0.07066062
218	0xbd0a20f1	-0.03372282
219	0x3b9b5551	0.004740395
220	0x3b68ed7b	0.003554194
221	0x3da7824b	0.08179148
222	0xbb7b3e3e	-0.003833666
223	0x3d9e056e	0.077158794
224	0xbd72bc97	-0.059261885
225	0x3b5f2f56	0.0034055314
226	0x3d8736d9	0.06602258
227	0x3d3c5ff4	0.045989946
228	0x3d1f89af	0.038949665
229	0x3d4ed6c0	0.05049777
230	0xbd95591d	-0.07292388
231	0x3d5fd867	0.054649737
232	0xbd030afb	-0.031992894
233	0xbd2536da	-0.040335514
234	0xbd806e98	-0.06271094
235	0x3da92931	0.0825981
236	0x3d4dbb63	0.050227534
237	0xbd01cbed	-0.03168862
238	0x3ceda480	0.029009104
239	0xbd888fdf	-0.06668066
240	0x3d88f25d	0.06686852
241	0xbc776a04	-0.01510096
242	0xbc575b55	-0.013144334
243	0xbd514e35	-0.051099975
244	0xbc4da117	-0.012550614
245	0x3d47dac1	0.048792604
246	0x3d858571	0.065195926
247	0xbcd2eeb9	-0.025748597
248	0xbc9398d7	-0.018017216
249	0x3d9ad175	0.07559482
250	0x3cb715e6	0.02234931
251	0xbc598334	-0.01327591
252	0xbc6bc11e	-0.014389304
253	0xbcf13d68	-0.029448226
254	0x3d5b043b	0.05347083
255	0x3c4d3bcd	0.012526465

encoder.feature_extract.mlps.0.linears.2.bias f4 [128]
0	0x3c0a2a42	0.008432927
1	0xbd9bd5a0	-0.07609105
2	0xbc911123	-0.017708367
3	0x3d968a67	0.07350617
4	0xbd967346	-0.073462054
5	0xbd1e47f8	-0.038642853
6	0xbce9355d	-0.028467828
7	0xbd7d2e43	-0.061811697
8	0x3cc3c36d	0.023896897
9	0x3c9d33ad	0.01918968
10	0x3cfe15ea	0.031016309
11	0x3d828151	0.063723214
12	0x3c443fc0	0.01197809
13	0x3d158fd2	0.03651411
14	0xbd86db82	-0.065848365
15	0x3c959c14	0.0182629
16	0x3d1acaf7	0.03779122
17	0x3d5df329	0.054186974
18	0x3d3bc6b1	0.045843784
19	0xbd5d7355	-0.054065067
20	0x3d7572e6	0.05992403
21	0x3b421a61	0.0029617774
22	0x3ccae9c4	0.024769671
23	0xbcb6e58a	-0.02232625
24	0xbcca8348	-0.024720803
25	0x3da08bde	0.078391775
26	0x3da94f88	0.082671225
27	0x3d798efe	0.060927384
28	0xbd4088e6	-0.047005557
29	0x3d7f5a6b	0.06234209
30	0xbdad1ba2	-0.08452536
31	0x3cd7f372	0.026361201
32	0xbd9fcca2	-0.078027025
33	0x3d3c0b83	0.045909416
34	0xbd673c15	-0.056453783
35	0xbc419bae	-0.011816902
36	0x3d669a33	0.0562994
37	0xbd5b175f	-0.053489085
38	0x3d350603	0.044195186
39	0x3d68c4e9	0.056828413
40	0x3a554b93	0.00081365666
41	0xbc0dcaa1	-0.0086542675
42	0xbd8b2592	-0.06794275
43	0xbc65877c	-0.014009353
44	0xbd0d5b12	-0.03451068
45	0xbc42e284	-0.011894826
46	0xbd9769f4	-0.07393256
47	0x3bd39f70	0.0064582154
48	0x3cc3546f	0.023843972
49	0x3d337222	0.043810017
50	0xbbb7d920	-0.0056106
51	0xbd29c480	-0.041447163
52	0xbd3d9a47	-0.04628971
53	0x3c2b19a2	0.010443123
54	0x3bf1f307	0.0073837074
55	0xbd88aacd	-0.06673203
56	0x3d6ad773	0.057334375
57	0x3d421ddc	0.047391757
58	0xbdb238b4	-0.087022215
59	0xbd5fcd43	-0.054639112
60	0x3ce76fdf	0.028251586
61	0xbd96dd32	-0.073664084
62	0x3c5e266f	0.013558968
63	0x3db5f989	0.08885486
64	0x3d6a8473	0.05725522
65	0x3d0c29fa	0.03421972
66	0xbd44a436	-0.048008166
67	0xbd382091	-0.044952933
68	0xbd0761bc	-0.03305219
69	0xbd5aff34	-0.053466037
70	0x3daf604a	0.085632876
71	0xbd91699c	-0.071002215
72	0xbd084967	-0.033273127
73	0x3cddeed6	0.027091425
74	0x3b4bba3f	0.0031086353
75	0x3da5a796	0.08088605
76	0xbda2d3a4	-0.079505235
77	0xbd0f005a	-0.034912445
78	0x3d9df929	0.07713539
79	0xbd14dbe1	-0.036342505
80	0x3d03bf62	0.03216494
81	0xbda17ce7	-0.07885151
82	0x3c967431	0.018365951
83	0xbd3c1a45	-0.04592349
84	0xbd8fb920	-0.07017732
85	0x3d328cae	0.043591194
86	0x3c92279e	0.017841157
87	0x3daabd2e	0.083368644
88	0x3c418891	0.011812345
89	0xbd9cdccd	-0.07659302
90	0x3caa886c	0.020817004
91	0xbc9d25e5	-0.019183109
92	0x3bb13342	0.0054077217
93	0x3cdd5472	0.027017806
94	0xbd5135ce	-0.051076703
95	0x3d86a29f	0.06573986
96	0x3b64aa1e	0.0034891437
97	0x3d2cc6b0	0.04218167
98	0xbcdab5db	-0.026698044
99	0xbd6baa2e	-0.057535343
100	0x3d0d0f2b	0.034438293
101	0x3d5e54c8	0.054280072
102	0xbd059b8c	-0.032619044
103	0xbd975c34	-0.07390633
104	0xbdae0933	-0.08497848
105	0x3d240722	0.040045865
106	0xbd66a2b1	-0.0563075
107	0xbd9d3435	-0.07675973
108	0x3d997266	0.07492523
109	0x3c0bf531	0.008542345
110	0x3d106e59	0.035261486
111	0xbd50e8ba	-0.051003195
112	0x3d97de0f	0.07415401
113	0x3d2bccb2	0.04194326
114	0xbd34a470	-0.044102132
115	0xbdb444ec	-0.08802208
116	0x3d1bb626	0.038015507
117	0x3baab082	0.0052090297
118	0x3d5a34b4	0.053272918
119	0x3c9d89aa	0.019230682
120	0x3cd868e6	0.026417207
121	0xbd094a45	-0.033518095
122	0x3d9d0184	0.07666305
123	0xbd8f0f79	-0.06985373
124	0x3d42a4c1	0.047520403
125	0xbd810e46	-0.063015506
126	0x3d97ef4f	0.07418691
127	0xbd51a28a	-0.0511804

encoder.feature_extract.mlps.0.batch_norms.0.weight f4 [128]
0	0x3f7ff0f6	0.9997705
1	0x3f7ef55f	0.99593157
2	0x3f8034d5	1.0016123
3	0x3f7fdeff	0.9994964
4	0x3f7ec24e	0.99515235
5	0x3f7e3de6	0.993132
6	0x3f806746	1.0031517
7	0x3f7f4843	0.9971964
8	0x3f7f198c	0.99648356
9	0x3f7eaeb0	0.994853
10	0x3f80b229	1.005437
11	0x3f7efd10	0.9960489
12	0x3f800a45	1.0003134
13	0x3f7f40af	0.99708074
14	0x3f8072dc	1.0035052
15	0x3f804e53	1.0023903
16	0x3f7ecaf3	0.99528426
17	0x3f8117c6	1.008538
18	0x3f801f3c	1.0009532
19	0x3f7f8f31	0.9982787
20	0x3f7fcfd3	0.9992649
21	0x3f7fa773	0.9986488
22	0x3f800584	1.0001683
23	0x3f7fc507	0.99910015
24	0x3f801dfb	1.0009149
25	0x3f7f62d4	0.99760175
26	0x3f80942f	1.0045222
27	0x3f8061f1	1.0029889
28	0x3f8069d5	1.0032297
29	0x3f7fd80a	0.99939024
30	0x3f7f4898	0.99720144
31	0x3f7f3648	0.996922
32	0x3f805292	1.0025198
33	0x3f8052a9	1.0025226
34	0x3f806da6	1.0033462
35	0x3f805335	1.0025393
36	0x3f7ffe8c	0.9999778
37	0x3f807af0	1.0037518
38	0x3f8019ce	1.0007875
39	0x3f7fab93	0.99871176
40	0x3f7f232e	0.99663055
41	0x3f8000f1	1.0000287
42	0x3f7f7452	0.99786866
43	0x3f803392	1.0015738
44	0x3f8004c7	1.0001458
45	0x3f7f7288	0.99784136
46	0x3f7fbf71	0.9990149
47	0x3f7f0276	0.9961313
48	0x3f7de9c4	0.99184823
49	0x3f7ed852	0.9954883
50	0x3f7f9493	0.9983608
51	0x3f801cec	1.0008826
52	0x3f7f9a0c	0.9984443
53	0x3f8033b6	1.0015781
54	0x3f7fb1a6	0.99880445
55	0x3f80236f	1.0010813
56	0x3f7ff3eb	0.99981564
57	0x3f809452	1.0045264
58	0x3f7fe5f3	0.9996025
59	0x3f7fc441	0.99908835
60	0x3f809453	1.0045265
61	0x3f7e77d5	0.994016
62	0x3f7fd79f	0.99938387
63	0x3f80d20d	1.0064102
64	0x3f801e26	1.00092
65	0x3f7f8d26	0.9982475
66	0x3f7e02e7	0.9922318
67	0x3f801b0a	1.0008252
68	0x3f800d5f	1.000408
69	0x3f8089ca	1.004205
70	0x3f806d6e	1.0033395
71	0x3f7f5260	0.9973507
72	0x3f8047e5	1.002194
73	0x3f7eb3d7	0.99493164
74	0x3f8085ee	1.0040872
75	0x3f80f90f	1.0076007
76	0x3f8010fd	1.0005184
77	0x3f803a40	1.0017776
78	0x3f7fc7f4	0.9991448
79	0x3f7fc1e7	0.99905246
80	0x3f7ff14d	0.9997757
81	0x3f7f82f2	0.9980918
82	0x3f7fc1b5	0.9990495
83	0x3f7feae7	0.9996781
84	0x3f80190f	1.0007647
85	0x3f800bfa	1.0003655
86	0x3f807c22	1.0037882
87	0x3f808c54	1.0042825
88	0x3f7ff1b8	0.9997821
89	0x3f800204	1.0000615
90	0x3f8013e8	1.0006075
91	0x3f802cff	1.0013732
92	0x3f7dda02	0.9916078
93	0x3f801b86	1.00084
94	0x3f8045ae	1.0021265
95	0x3f7f461b	0.9971635
96	0x3f7f2950	0.9967241
97	0x3f7f14b3	0.9964096
98	0x3f80d3d1	1.0064641
99	0x3f809d6f	1.0048045
100	0x3f7ffb16	0.999925
101	0x3f8020ba	1.0009987
102	0x3f8020e7	1.0010041
103	0x3f80053a	1.0001595
104	0x3f80bc2d	1.0057427
105	0x3f7ea3aa	0.9946848
106	0x3f7f076c	0.996207
107	0x3f7fb739	0.9988895
108	0x3f7fe988	0.99965715
109	0x3f801328	1.0005846
110	0x3f80297d	1.0012661
111	0x3f7f3079	0.9968334
112	0x3f805bda	1.0028031
113	0x3f7fea8c	0.99967265
114	0x3f80454b	1.0021147
115	0x3f804304	1.0020452
116	0x3f7f5f7e	0.99755085
117	0x3f80ac8c	1.0052657
118	0x3f7de7a9	0.9918161
119	0x3f803765	1.0016905
120	0x3f7f9bd0	0.99847126
121	0x3f801532	1.0006468
122	0x3f7f5741	0.99742514
123	0x3f7e9e14	0.9945996
124	0x3f804315	1.0020472
125	0x3f80439a	1.002063
126	0x3f802ce3	1.0013698
127	0x3f7ffa02	0.99990857

encoder.feature_extract.mlps.0.batch_norms.0.bias f4 [128]
0	0x3b595c05	0.003316642
1	0x3b572e2f	0.0032833924
2	0xba87c072	-0.0010357036
3	0xba93aa3f	-0.0011265947
4	0xbb1bf273	-0.0023795634
5	0xbc201bb5	-0.009772231
6	0xb8e233c5	-0.000107861626
7	0xbc07ca93	-0.008288044
8	0x3b23d2d0	0.002499748
9	0xbb36e40b	-0.002790692
10	0xbb968cea	-0.004594435
11	0xbc0ab60c	-0.008466255
12	0x3bac686c	0.0052614715
13	0xbb8d4b38	-0.0043119453
14	0x3b8f23e5	0.0043682926
15	0x3c23a915	0.009989043
16	0xbb4f0195	-0.0031586636
17	0x3ba71f4c	0.0051001664
18	0xb996768e	-0.0002869856
19	0xbacf1430	-0.0015798863
20	0x3bb6632f	0.005566023
21	0x3bc29148	0.005937729
22	0xba50d328	-0.0007966035
23	0x3ab11000	0.0013508797
24	0x3b3ac600	0.0028499365
25	0x3bfbca21	0.0076840078
26	0xbac959b1	-0.0015361813
27	0xba84d98d	-0.0010135636
28	0x3b3899bf	0.0028167812
29	0xba898f7c	-0.0010495032
30	0x3c1cb01c	0.009563472
31	0x39a048d1	0.0003057183
32	0x3a0e8cd1	0.00054378534
33	0xbb67503c	-0.0035295626
34	0xb9e7ae19	-0.00044189466
35	0x3c27cbca	0.010241458
36	0xbae396e2	-0.0017363692
37	0x39f75f2e	0.00047182426
38	0xb9862f9c	-0.00025593943
39	0x3bd57534	0.006514216
40	0xbc1669a6	-0.009180462
41	0x3a89c605	0.0010511285
42	0xbb445866	-0.0029959916
43	0x3a7094ea	0.00091774634
44	0xbb55d8f2	-0.003263053
45	0xbb044793	-0.0020184263
46	0x3b1a1328	0.0023509953
47	0xbb713e8f	-0.003681097
48	0xbb76db9c	-0.0037667518
49	0x3bbf4d65	0.0058380836
50	0xba18061a	-0.0005799249
51	0x3ba378ff	0.004988789
52	0xba0cd3cc	-0.00053721364
53	0x3a9eb084	0.0012107049
54	0xbb53696f	-0.0032258888
55	0x3a82b940	0.0009973422
56	0xbaa9e67c	-0.0012962366
57	0x3b703af9	0.0036656244
58	0x3aa90db4	0.0012897761
59	0xba3d41cb	-0.0007219582
60	0xbb2bfbfd	-0.0026242726
61	0xbaf6575e	-0.0018794348
62	0xbb745020	-0.0037279204
63	0x3c14f03d	0.00909048
64	0x3b211924	0.0024581635
65	0xbb9c018b	-0.004760926
66	0x3a3a42e6	0.00071053056
67	0x3aa63261	0.0012679809
68	0x3b694150	0.0035591908
69	0x3b9e2f4d	0.004827416
70	0x3a3b6fab	0.0007150124
71	0xbbca1699	-0.0061672446
72	0x3bcf58e5	0.0063277357
73	0xbbbb6339	-0.0057186154
74	0x3ad8b1a0	0.0016532429
75	0x3b4748f0	0.0030408464
76	0x3b08f5ec	0.0020898534
77	0x3ae80581	0.0017701836
78	0x3bb3baef	0.0054849307
79	0xbb4bd69c	-0.003110326
80	0xbac75664	-0.0015208242
81	0x3b95281f	0.004551902
82	0xbb931c6d	-0.0044894726
83	0x3bb7eb39	0.0056127575
84	0xbc069dd9	-0.008216345
85	0xbb223aff	-0.0024754403
86	0x3af3ffe2	0.0018615688
87	0xba083683	-0.0005196111
88	0xba223974	-0.0006188371
89	0x3b6ca889	0.0036111197
90	0xbb0ad713	-0.0021185323
91	0xbb079701	-0.002068937
92	0xbba986d3	-0.005173543
93	0x3b355c44	0.0027673403
94	0xbae7ed2f	-0.0017694588
95	0xbb645805	-0.0034842503
96	0xba9234e7	-0.0011154682
97	0xbbb2790c	-0.005446559
98	0xbbc77eb6	-0.006088103
99	0x3b042059	0.0020160882
100	0xbbe60d31	-0.0070206155
101	0xb9204e1f	-0.00015287891
102	0xb9cffccf	-0.00039670474
103	0xbb8a4011	-0.004219063
104	0x3bf39f3e	0.0074347546
105	0xbb5036fc	-0.0031771054
106	0xbb7c7b01	-0.0038525464
107	0xbb2d2523	-0.002641984
108	0x3b563326	0.0032684295
109	0xbaf7df15	-0.0018911088
110	0x3b02f043	0.0019979633
111	0xbb13b628	-0.0022538994
112	0x3a01b352	0.000494768
113	0x39f0ff47	0.00045966564
114	0x39ea5b3c	0.00044699933
115	0x3c10d73f	0.008840381
116	0xbbd0d1c2	-0.0063726613
117	0x3b9f857d	0.004868208
118	0xbc14de88	-0.009086259
119	0x3be016ea	0.006838669
120	0x3b0c5e1f	0.0021418405
121	0x3b91bc7a	0.004447517
122	0xb8f91c6f	-0.000118785414
123	0xbb03f794	-0.0020136582
124	0xbb3c9860	-0.0028777346
125	0xbaa357b4	-0.0012462051
126	0x3b1da8d0	0.002405692
127	0x3bcc1cf4	0.0062290374

encoder.feature_extract.mlps.0.batch_norms.0.running_mean f4 [128]
0	0xbf32bd27	-0.69819874
1	0x3e947f7d	0.29003516
2	0xbf8650ef	-1.0493449
3	0xbef3014d	-0.4746193
4	0x3ebb3f67	0.3657181
5	0x3ebf8944	0.37409413
6	0xbe9300cc	-0.28711545
7	0xbe3c52e4	-0.18390995
8	0x3f706915	0.9391034
9	0xbe9cf6e5	-0.30657116
10	0x3dd4f40b	0.1039811
11	0xbec926d2	-0.3928743
12	0xb8473917	-4.7498466e-05
13	0x3f1e1aa9	0.6175943
14	0x3efec796	0.49761647
15	0x3faab78f	1.3337268
16	0x3f1a611a	0.60304415
17	0x3f8392d3	1.0279182
18	0xbe2b5ff8	-0.16735828
19	0xbd66dc2e	-0.056362323
20	0xbea318fa	-0.31854993
21	0x3fa348f5	1.275664
22	0x3f2512b8	0.6448169
23	0xbcd61f55	-0.026137987
24	0x3e10f4a5	0.14155824
25	0xbd6ab671	-0.057302896
26	0x3ebf2553	0.37333164
27	0xbdb1d369	-0.086829014
28	0xbf53d450	-0.8274584
29	0xbf6855db	-0.90756005
30	0xbe4ea1e1	-0.2017894
31	0xbec46450	-0.38357782
32	0x3e962f22	0.29332834
33	0x3def3c1f	0.11681389
34	0x3e94b2a6	0.29042548
35	0x3ef49959	0.47773245
36	0xbf02dc77	-0.5111765
37	0x3f688fd9	0.90844494
38	0x3f738efd	0.9514006
39	0x3f8dc85e	1.1076772
40	0xbf8d1e86	-1.102494
41	0xbf2a7951	-0.66591364
42	0x3efb3ea8	0.4907124
43	0x3e1a423c	0.15064329
44	0x3eb26f9b	0.34850773
45	0xbdc3dd66	-0.09563713
46	0xbdf2cecd	-0.1185585
47	0xbf1cdd3f	-0.61275095
48	0x3e372261	0.17884208
49	0xbdc10667	-0.09425049
50	0x3f78b4fd	0.97151166
51	0xbf1584ab	-0.5840556
52	0xbf2e02ef	-0.67973226
53	0xbdf07e32	-0.1174282
54	0xbd49ca2f	-0.049265083
55	0x3ebbc254	0.36671698
56	0x3f038632	0.5137664
57	0xbd86373e	-0.06553505
58	0xbf4609fc	-0.77358985
59	0x3e25c8c8	0.16189873
60	0xbf2d3104	-0.67652917
61	0x3dfaf972	0.12254609
62	0x3ec1982f	0.3781142
63	0xbd808c78	-0.06276792
64	0xbfaca175	-1.3486773
65	0x3f66d037	0.9016146
66	0x3e59f6d5	0.21285565
67	0xbf1ca4a4	-0.6118872
68	0xbf8196bb	-1.0124124
69	0xbeb0a1ee	-0.34498543
70	0xbf2e432d	-0.6807125
71	0xbc21a074	-0.009864915
72	0x3f0ebbd8	0.55755377
73	0x3f4f4b5b	0.8097436
74	0x3ecbdcc2	0.39816862
75	0xbea17ba6	-0.3153965
76	0xbf62b4a4	-0.88556886
77	0xbeb818bd	-0.35956374
78	0x3eb21e80	0.34788895
79	0x3db532bc	0.088475674
80	0x3d1ed165	0.038773913
81	0xbf00e193	-0.503442
82	0x3db61185	0.0889006
83	0xbf9b043c	-1.2110667
84	0xbf44ba1f	-0.768465
85	0xbd21dae5	-0.039515395
86	0x3faca542	1.3487933
87	0x3e413ca5	0.1887079
88	0xbdd94182	-0.10608198
89	0x3ef2bc14	0.47409117
90	0x3f32d423	0.69854945
91	0xbe12becb	-0.14330594
92	0xbf08d47a	-0.53449214
93	0x3efdc01c	0.4956063
94	0xbec8e0eb	-0.392341
95	0xbf0fddfe	-0.5619811
96	0xbf80abe5	-1.0052458
97	0xbf721ed2	-0.9457828
98	0x3d58040e	0.05273824
99	0xbf8cf703	-1.1012882
100	0xbf58a0f7	-0.8462061
101	0xbf058c0c	-0.5216682
102	0xbee1f335	-0.44130865
103	0xbe496dc5	-0.1967078
104	0x3f8795db	1.0592607
105	0xbc01d6a6	-0.007924711
106	0x3f043366	0.5164093
107	0xbf850891	-1.0393239
108	0x3f820771	1.0158521
109	0x3e9e8636	0.3096177
110	0x3f739ead	0.95163995
111	0xbdc62bd5	-0.09676329
112	0xbf81e040	-1.0146561
113	0xbe226b2c	-0.15861195
114	0x3e3c8d06	0.18413171
115	0x3dc3d6f2	0.09562482
116	0x3e829ca9	0.25510147
117	0x3ea88ced	0.32920018
118	0xbf917b62	-1.1365778
119	0xbe825805	-0.2545778
120	0x3e26d996	0.1629394
121	0xbf0673f9	-0.5252071
122	0xbf2b3a19	-0.66885525
123	0x3f35914e	0.7092484
124	0x3e1d7bce	0.15379259
125	0xbf13f483	-0.5779497
126	0x3f063556	0.52425134
127	0x3f0726fc	0.5279386

encoder.feature_extract.mlps.0.batch_norms.0.running_var f4 [128]
0	0x3b33342a	0.0027344325
1	0x3c71fdf0	0.014770016
2	0x3bb4e810	0.005520828
3	0x3bad294d	0.0052844645
4	0x3b05f232	0.002043855
5	0x39ec0e82	0.00045024237
6	0x3b8bf4f2	0.004271143
7	0x3b565a49	0.0032707623
8	0x3b6ab265	0.0035811898
9	0x3b701d8b	0.0036638703
10	0x3a7139f1	0.00092020544
11	0x3c13e4dd	0.009026733
12	0x3bcdf57c	0.0062853675
13	0x3af45064	0.0018639681
14	0x3a74d9ac	0.0009340297
15	0x3cb27055	0.02178208
16	0x39a12212	0.00030733697
17	0x3bcf1317	0.0063194144
18	0x3bb0ced9	0.005395752
19	0x39c2b139	0.00037134605
20	0x3b965aff	0.0045884843
21	0x3ca04ad9	0.01956694
22	0x3692958f	4.36855e-06
23	0x3bf6bdc4	0.007529946
24	0x3b86f709	0.0041188044
25	0x3a91df80	0.001112923
26	0x3a4b7eb0	0.00077627134
27	0x3a95c6b1	0.0011427013
28	0x3c9a66c5	0.018847832
29	0x3c912fb2	0.017722938
30	0x39f6ec45	0.0004709681
31	0x3b8d507b	0.0043125725
32	0x3b05e502	0.0020430689
33	0x39ac06c9	0.00032811452
34	0x3cae95b3	0.021311617
35	0x3bc364e2	0.005962954
36	0x3b16be88	0.002300175
37	0x3b4cf40b	0.003127339
38	0x3b5de226	0.0033856719
39	0x3bf0dfba	0.007350889
40	0x3c8b9f60	0.01704377
41	0x3ca11a6a	0.019665916
42	0x3aa6f86b	0.0012738829
43	0x3a2833b8	0.0006416398
44	0x3b30071d	0.0026859709
45	0x3bbc98c7	0.005755517
46	0x3c75acfa	0.014994854
47	0x3af45c34	0.0018643201
48	0x3b9599ac	0.0045654383
49	0x3bc1ac83	0.0059104576
50	0x3ca62431	0.02028093
51	0x3bf89628	0.0075862594
52	0x3b86afb5	0.0041103014
53	0x3916c7d9	0.00014379564
54	0x3bb77ac0	0.0055993497
55	0x3b41a3f3	0.0029547184
56	0x36779f69	3.6898657e-06
57	0x398da8c4	0.00027019356
58	0x3c4e45c0	0.012589872
59	0x3a7f8fcf	0.0009748907
60	0x3c7ec74d	0.015550447
61	0x3c8e8c39	0.017400848
62	0x3ab6a3b8	0.001393429
63	0x3c41b6cc	0.011823367
64	0x3caef094	0.021354951
65	0x3c549a25	0.012976204
66	0x3a7899f2	0.0009483389
67	0x3b06c621	0.0020564871
68	0x3c13b134	0.0090144165
69	0x3ae10e84	0.0017170464
70	0x3c0865e0	0.00832507
71	0x3b759c8c	0.0037477342
72	0x3af540e2	0.0018711353
73	0x3ca7c3bc	0.020479076
74	0x3b9d326d	0.004797271
75	0x3b5dd442	0.003384844
76	0x3adda0cb	0.0016908882
77	0x3c8be0b6	0.017074924
78	0x3bb3952a	0.005480428
79	0x3c83e91b	0.016102364
80	0x389408a9	7.058803e-05
81	0x3a258c48	0.0006315154
82	0x3bef84af	0.0073095183
83	0x3c5a5567	0.013326026
84	0x3a845f15	0.0010099137
85	0x3b8d2c42	0.0043082545
86	0x3ca6d11f	0.020363389
87	0x3a1eee4f	0.00060627324
88	0x3ba7e201	0.0051233773
89	0x38059671	3.184978e-05
90	0x377afed0	1.4960489e-05
91	0x3c5bb297	0.013409278
92	0x37eb23a6	2.8030783e-05
93	0x3a79846b	0.0009518328
94	0x3c8a0cf5	0.016851882
95	0x3c9884f3	0.018618083
96	0x3c568ad3	0.013094622
97	0x3b5920c5	0.0033131104
98	0x3ca6aceb	0.020346126
99	0x3c9b8b33	0.018987274
100	0x3c2854ee	0.010274155
101	0x3c763865	0.015028094
102	0x3b27c71b	0.0025600854
103	0x3c04e3f9	0.008110994
104	0x3c786e9d	0.015163091
105	0x3b96f5db	0.004606945
106	0x39adc46a	0.0003314347
107	0x3c81e067	0.015854074
108	0x3bca353e	0.0061708977
109	0x3ab2a95d	0.0013630796
110	0x3b8ab7af	0.0042333226
111	0x3c463726	0.012098109
112	0x3c874a34	0.016514875
113	0x3bbf8ecb	0.0058458797
114	0x37413c31	1.1517711e-05
115	0x3a1da87d	0.00060141814
116	0x3c520668	0.01281891
117	0x3c1c9d70	0.00955902
118	0x3c79fd9c	0.015258219
119	0x3b84d2c3	0.004053445
120	0x382fe22c	4.193389e-05
121	0x3bbd1bb3	0.0057711243
122	0x3c800ee0	0.015632093
123	0x3ae529c0	0.0017483756
124	0x3be36a3d	0.006940155
125	0x3b99430d	0.0046771825
126	0x3c872ba2	0.016500298
127	0x394173f7	0.00018449115
