FJSP_MultiPPO/saved_network/FJSP_J10M10/best_value000/policy_mch.pth (torch_old, 271448 bytes, 14 tensors)

bn.weight f4 [128]
000000 73 79 7e 3f 0f 32 80 3f 56 77 7f 3f f3 f3 80 3f
       0.99404067 1.0015277 0.9979147 1.0074447
000010 f4 73 80 3f 1f 09 81 3f 62 b9 7e 3f 28 47 80 3f
       1.0035386 1.0080909 0.9950162 1.0021715
000020 67 53 80 3f 1c 9f 80 3f 4d e7 7d 3f 12 ae 80 3f
       1.0025452 1.0048556 0.9918106 1.0053122
000030 d3 a9 80 3f 54 ff 7d 3f 13 eb 80 3f fd 94 7e 3f
       1.0051826 0.99217725 1.0071739 0.9944609
000040 7e c0 7f 3f 67 f1 7e 3f 84 03 7f 3f 78 e7 80 3f
       0.99903095 0.995871 0.9961474 1.0070639
000050 21 8b 80 3f 89 29 7e 3f 4b c0 7f 3f 05 12 81 3f
       1.0042459 0.9928213 0.9990279 1.0083624
000060 d7 f7 7e 3f 29 d4 7f 3f af a7 7e 3f a4 a4 80 3f
       0.99596924 0.99933106 0.99474615 1.0050244
000070 93 58 7f 3f 9a 30 7f 3f 3c 35 81 3f 30 5d 7f 3f
       0.9974453 0.99683535 1.0094371 0.9975157
000080 a3 e4 7f 3f 2e 35 7d 3f f0 1c 7f 3f fa e5 80 3f
       0.99958247 0.9890927 0.9965353 1.0070183
000090 5e c1 80 3f a2 c0 80 3f 06 9c 7f 3f d6 31 7e 3f
       1.0059011 1.0058787 0.9984745 0.99294794
0000a0 fc ad 7f 3f 3f 17 81 3f 3d 05 7f 3f 2c 02 81 3f
       0.99874854 1.0085219 0.9961737 1.0078788
0000b0 15 eb 7e 3f f7 df 7f 3f 1c 2a 7f 3f 27 d0 80 3f
       0.99577457 0.9995112 0.9967363 1.0063523
0000c0 a8 34 7f 3f d6 e3 7f 3f 5a 3e 80 3f 39 77 80 3f
       0.9968972 0.99957025 1.0019028 1.0036384
0000d0 a9 98 80 3f 07 08 81 3f ab 40 80 3f 10 c8 7f 3f
       1.0046588 1.0080575 1.0019735 0.99914646
0000e0 83 1c 81 3f bd 1d 80 3f c7 ce 80 3f 24 48 7f 3f
       1.0086826 1.0009075 1.0063103 0.9971945
0000f0 9e 6f 80 3f 03 df 80 3f 30 75 7e 3f 62 43 80 3f
       1.0034063 1.0068058 0.99397564 1.0020564
000100 3d 8c 80 3f b8 eb 7e 3f 3e 91 80 3f da ff 80 3f
       1.0042797 0.9957843 1.0044324 1.007808
000110 ef e1 7f 3f 0b 63 7e 3f 07 16 81 3f ea 3b 7e 3f
       0.9995412 0.9936988 1.0084847 0.9931017
000120 5b c5 7e 3f 44 7c 7e 3f 3d fc 80 3f 53 f5 7d 3f
       0.9951989 0.99408364 1.0076977 0.9920246
000130 5a 22 81 3f 4a b3 7f 3f 3f 95 80 3f 23 f9 7e 3f
       1.0088608 0.9988295 1.0045546 0.995989
000140 92 e9 7e 3f 59 7c 80 3f 68 0a 80 3f 01 e3 80 3f
       0.9957515 1.0037948 1.0003176 1.0069276
000150 bc 14 7e 3f d6 62 80 3f 09 f0 80 3f b2 97 80 3f
       0.9925039 1.0030162 1.0073253 1.0046294
000160 3d 16 80 3f 3e 00 81 3f 44 96 80 3f 97 29 80 3f
       1.0006787 1.0078199 1.0045857 1.0012692
000170 a1 21 80 3f e5 2a 81 3f 0b ed 7e 3f b2 dd 80 3f
       1.0010263 1.0091215 0.9958045 1.0067656
000180 fa 2f 7e 3f 28 9c 7e 3f 3e 23 80 3f 98 ed 7e 3f
       0.99291956 0.99457026 1.0010755 0.9958129
000190 c0 64 7f 3f 7a 94 7f 3f 88 0a 7e 3f eb c1 80 3f
       0.9976311 0.9983593 0.9923482 1.0059179
0001a0 a3 01 81 3f 3f 54 7e 3f 73 e0 7f 3f d1 3d 80 3f
       1.0078624 0.993473 0.9995186 1.0018865
0001b0 6b e7 7e 3f dc f0 7e 3f a7 8b 80 3f 69 94 80 3f
       0.99571866 0.9958627 1.0042619 1.0045291
0001c0 c2 03 80 3f 85 34 80 3f db c2 80 3f 5b 12 81 3f
       1.0001147 1.0016028 1.0059465 1.0083727
0001d0 b6 0f 81 3f 2f 1e 81 3f 77 0c 7f 3f aa df 80 3f
       1.008292 1.0087336 0.99628395 1.0068257
0001e0 fe 18 80 3f be 89 80 3f 25 77 7d 3f 4f db 7f 3f
       1.0007627 1.0042036 0.99009925 0.99944013
0001f0 85 04 81 3f 0b 36 80 3f b6 13 80 3f 24 fe 7e 3f
       1.0079504 1.0016493 1.0006015 0.9960654

bn.bias f4 [128]
000000 30 3c 53 3a 46 cf 80 bb e8 91 13 bc ed 56 06 bb
       0.000805798 -0.003930959 -0.009006955 -0.002049859
000010 8e 99 0c bb c6 ab 06 bb eb 3e b3 39 1a 19 5f 3a
       -0.002145383 -0.0020549162 0.00034188418 0.00085105153
000020 0d 8f f8 39 ec 29 f9 3b 00 19 87 3a 8f df 8d 3b
       0.00047408827 0.0076038744 0.0010307133 0.004329629
000030 6b c1 4a 3a c1 b8 a6 3b 70 21 36 bb ac 30 5a bb
       0.000773451 0.0050879424 -0.0027790926 -0.003329317
000040 9d b3 48 3b a6 66 32 3b 79 3a a4 bb 6c 71 38 3b
       0.0030624636 0.0027221828 -0.0050118533 0.0028143777
000050 ac 24 ad 3a 1b cd ce bb b2 0b 0f 3b 70 86 06 3b
       0.0013209782 -0.0063110716 0.002182704 0.0020526908
000060 40 16 c1 ba d8 5b 1e bc 6a 67 47 bb 55 9f aa ba
       -0.0014731362 -0.009665452 -0.003042663 -0.0013017455
000070 f4 3a 07 3c 3b 2f 61 3b 34 13 c2 3a c9 a3 4f 3b
       0.008253802 0.0034360427 0.0014806748 0.0031683317
000080 68 2a cf 3b e7 8e 06 ba 0a 5c 41 bb 09 78 5b 3b
       0.006322194 -0.00051329884 -0.0029504322 0.0033488295
000090 15 59 f7 3b 57 ba 88 3b 0b 0f c5 ba 8e 5a 44 3a
       0.007548461 0.004172604 -0.001503439 0.00074903003
0000a0 16 3c 24 3b 03 dc 21 3b c3 ad 88 bb 97 22 19 3b
       0.0025060228 0.0024697788 -0.0041711046 0.0023366564
0000b0 99 48 1d bb b4 87 8d 3a 18 b5 fb b9 27 1d 40 39
       -0.002399957 0.0010797889 -0.00048009376 0.00018321407
0000c0 7b 11 8b bb 57 7b 5b 3b 7b a5 45 bb 9b 80 0d bb
       -0.004244027 0.0033490264 -0.0030158448 -0.0021591547
0000d0 22 38 89 3b ce 39 14 bb 89 50 0c 3c f4 ec 14 bb
       0.0041875998 -0.0022617462 0.008564123 -0.0022724243
0000e0 90 73 a3 bb 22 83 48 bb 09 2f d6 3a 46 7a ac 3b
       -0.0049881414 -0.003059574 0.0016340922 0.0052635996
0000f0 15 a8 e4 ba a1 09 c4 3b 67 3c be b9 70 1a 59 ba
       -0.0017445112 0.005982593 -0.00036284627 -0.00082818326
000100 97 1b 4c 3c 2d 0e 40 3b 6a cd ca bb cd 5b 2f bb
       0.01245775 0.0029305324 -0.006189038 -0.0026757598
000110 15 4d d4 bb 43 ae 37 bb 5a 74 60 3b a2 ad 97 3a
       -0.0064789155 -0.0028027452 0.0034249038 0.0011572132
000120 42 a6 68 ba 83 01 d2 b9 a0 89 65 3b 8a fa d8 3b
       -0.0008874872 -0.00040055448 0.0035024658 0.0066216635
000130 37 5b 32 3c e1 c7 8f ba df 83 63 bb cc 5b 39 3b
       0.010886005 -0.0010969603 -0.0034716052 0.0028283475
000140 25 ff c4 3b 88 4e 10 bb 1e 19 91 bb 7d 7b 0a 3b
       0.006011861 -0.0022019465 -0.004428043 0.0021130734
000150 1b da dd 3a f4 2e 57 3b 19 4a e7 bb 6e d6 3c 39
       0.0016925962 0.0032834383 -0.0070583937 0.00018008958
000160 f8 fc 2f bb 75 5e ba bb e4 d9 0f bc e1 e5 37 3b
       -0.0026853662 -0.0056875297 -0.0087799765 0.0028060602
000170 34 e8 44 3a e2 ff 2a 3b 62 20 a2 bb 46 9f 72 3b
       0.00075114076 0.002609246 -0.004947708 0.0037021204
000180 f6 ec e4 bb 18 f7 40 bb 00 a3 83 3b b2 bf 81 bb
       -0.0069862558 -0.0029444154 0.004017234 -0.0039596194
000190 fd 08 77 38 c1 cd 25 3b 49 87 dc ba 0f 5f 98 bb
       5.889776e-05 0.002529964 -0.0016824986 -0.0046500037
0001a0 77 ec 8f 3b 11 90 75 bb 1f b5 4d bb b9 1b 23 3b
       0.0043922025 -0.0037469903 -0.0031388474 0.002488835
0001b0 23 dd 39 bb 63 0e 1c b9 18 dc 02 bc 1b 0d 7e 3b
       -0.0028360568 -0.00014882679 -0.007987045 0.0038765136
0001c0 02 14 87 bb b9 7c 8b bb fb 7b 46 bb 6d 0c c3 bb
       -0.004122258 -0.0042568115 -0.00302863 -0.005952409
0001d0 b5 9e ab 3b 3f 71 1c ba ff 99 a2 bb c6 51 c5 3b
       0.005237425 -0.0005967803 -0.0049622054 0.006021711
0001e0 a8 44 85 3b df 2f e9 b7 91 44 89 bb 60 f2 b6 bb
       0.0040670224 -2.7798056e-05 -0.004189082 -0.0055830926
0001f0 68 e1 98 3b b3 8f 93 ba 44 90 fb 3a ef e2 14 bc
       0.0046655424 -0.0011258036 0.0019192775 -0.009087308

bn.running_mean f4 [128]
000000 56 36 d9 bd c7 b6 cb 3d 97 34 ca bd 90 99 8d 3c
       -0.10606067 0.099469714 -0.09873312 0.017285138
000010 11 fc c8 bd a9 31 8a 3d f2 f6 99 3d 3a 0b 09 3e
       -0.09813703 0.06747753 0.07517804 0.13383189
000020 6b dc de 3d 74 c9 3a be c4 22 14 be 83 e1 83 bc
       0.10881885 -0.18240911 -0.14466387 -0.016098743
000030 04 6c d1 bd 87 5c f0 3d 00 d4 20 3c c1 98 db 3c
       -0.102256805 0.11736398 0.00981617 0.026806237
000040 50 73 96 bd 50 6f 73 3d 76 f2 26 3e 7f a6 bf 3c
       -0.07346213 0.059432328 0.16303429 0.023394821
000050 e2 8a 7e 3c fb 5c f1 bd c4 04 92 bd 66 c1 97 bd
       0.015536042 -0.11785313 -0.07129815 -0.07409935
000060 f1 f9 cc 3d 73 93 fd 3c 48 8a 05 3e 14 02 c5 bc
       0.1000861 0.030954098 0.13041031 -0.024048842
000070 f6 89 4e 3c 57 a4 2d 3e de 00 a1 bd 1d 22 f3 3d
       0.012606135 0.16957222 -0.078614935 0.11871741
000080 0a df 08 be 75 89 1f 3e 5c d2 a4 bd 97 37 d4 bc
       -0.13366333 0.1557978 -0.08047935 -0.025905414
000090 80 4f 85 bd 0b b7 10 3c a7 cc a4 bd cb 27 20 be
       -0.06509304 0.008832703 -0.08046847 -0.1564018
0000a0 45 fe 8f bc 3c 12 d2 3d f0 4b ca bd ae 65 43 3e
       -0.0175773 0.10257384 -0.09877765 0.19081756
0000b0 b7 85 69 bd cc 81 da 3d 27 1a 90 bd 1f 2e d0 ba
       -0.057012286 0.10669288 -0.07036238 -0.0015882886
0000c0 85 00 09 3e 89 50 b2 bc 1d 74 0a 3b ec 6f 63 3d
       0.13379104 -0.021766918 0.0021126338 0.05552666
0000d0 e0 88 5c bc 38 74 5e 3d f4 80 a5 bd 2c 27 5a bd
       -0.013460368 0.054310054 -0.080812365 -0.053260013
0000e0 71 97 10 3e 57 95 38 3e 3a 59 ba bd 1e b4 df bd
       0.1412027 0.18025719 -0.0909905 -0.109230265
0000f0 54 2d f5 bd 9a 8c d9 bc 38 5c 45 bd a5 f2 06 3e
       -0.11971536 -0.026556302 -0.04818365 0.13178499
000100 47 7f 02 be b8 3a fd 3d 66 46 cd bc 61 4d 74 3d
       -0.12743865 0.12364715 -0.025057983 0.059644107
000110 6c 5a e0 bd 8f e3 cb bd 8d f4 29 3d 96 68 72 3d
       -0.109547466 -0.09955513 0.041492987 0.059181772
000120 eb d9 bf bd fc fa 47 be 90 b5 00 3e 77 32 21 be
       -0.093677364 -0.19529337 0.1256926 -0.15741907
000130 2b 71 c4 bd 0a 49 f9 3c f0 c8 24 3e e2 5b de bd
       -0.095918976 0.030430336 0.16092277 -0.10857369
000140 22 d0 87 3d 03 17 a8 bd 00 68 10 3e 77 fa 27 bb
       0.06631495 -0.08207514 0.14102173 -0.0025631466
000150 70 50 33 be 83 05 cb bd 29 7c e9 3d 3c d7 52 bd
       -0.17511153 -0.09913161 0.11400635 -0.051474795
000160 83 35 a3 bd 89 7f 0f 3e 4a c9 9e 3d ac 7d 1b 3e
       -0.07969191 0.14013495 0.077532366 0.15184659
000170 f8 3b 05 3e 28 c2 8e bd 67 f3 10 be 77 8e 0f 3d
       0.13011158 -0.06970626 -0.1415535 0.035047974
000180 0b 3c c5 bb 87 b1 08 be 69 ac e7 39 23 3e 48 bd
       -0.0060191206 -0.13348971 0.0004418821 -0.048887383
000190 bc 07 06 be 63 1b a3 bd 9c 40 31 3e 17 fc ff 3c
       -0.13088888 -0.07964208 0.17309803 0.031248135
0001a0 6b 25 91 bd 2f ec 04 bd 53 b8 60 bd 83 a0 1b bc
       -0.07087215 -0.032451805 -0.054863285 -0.009498718
0001b0 cd 3b c9 3d 1a 04 a7 3d 7b a4 6d 3d fe bc 96 3d
       0.09825859 0.08155079 0.05801819 0.07360266
0001c0 49 0f e3 bd 70 c5 bd bd 5f 92 52 bb c5 f8 e3 3c
       -0.110869 -0.09266174 -0.00321307 0.027828583
0001d0 54 4e 68 bd c1 55 eb 3d 85 b4 2d 3e 14 cf 3b bc
       -0.056715325 0.11490966 0.16963394 -0.0114629455
0001e0 da 70 b9 3d 05 73 25 3e 91 b1 08 be 33 00 09 3e
       0.09054728 0.16157158 -0.13348986 0.13378982
0001f0 f8 bb eb bd 23 dc 08 be d6 5d 7f 3c a1 27 a9 3d
       -0.115104616 -0.13365225 0.015586337 0.08259512

bn.running_var f4 [128]
000000 e9 6c 99 39 77 55 5d 39 d1 aa 36 39 0d 75 20 38
       0.00029263578 0.0002110804 0.00017420507 3.8255985e-05
000010 ca 68 42 39 37 ce 3c 39 c8 ce df 39 a7 2f a7 39
       0.00018540319 0.00018005898 0.0004268794 0.00031888226
000020 18 8d 5d 39 25 4e 1d 3a 93 25 0b 3a 74 43 50 39
       0.00021128764 0.0006000719 0.0005308028 0.00019861554
000030 f4 d6 5a 39 ab a7 80 39 6d de 78 38 db a4 32 39
       0.00020870176 0.00024538985 5.9334958e-05 0.00017036816
000040 f0 9e a2 39 f1 ae 06 39 e9 a3 04 3a 40 c2 c8 38
       0.00031017466 0.00012844407 0.0005059825 9.572925e-05
000050 f6 e3 96 37 be 24 97 39 72 98 df 38 17 79 15 39
       1.7987546e-05 0.0002882834 0.00010661864 0.00014254857
000060 91 90 63 39 8e da 86 39 53 ba bb 39 2a 90 03 38
       0.00021702262 0.00025721308 0.00035806242 3.1367097e-05
000070 fa dc 3f 39 c0 e5 08 3a f1 de 0f 39 01 60 84 39
       0.000182975 0.00052222237 0.00013720595 0.0002524853
000080 a2 54 0c 3a 99 e3 04 3a 38 c3 f1 38 c1 80 3c 39
       0.00053531874 0.0005069315 0.00011528138 0.00017977042
000090 55 c9 c2 38 2d 31 28 39 6d 91 51 39 cc 7b e8 39
       9.288142e-05 0.00016040048 0.00019985969 0.00044342724
0000a0 31 2a bc 36 d2 8d d2 39 86 f0 a8 39 ec fa 3a 3a
       5.6077483e-06 0.00040159986 0.0003222266 0.0007132727
0000b0 52 b9 0e 39 ac e2 06 3a 4a f7 b0 39 44 29 72 39
       0.00013611212 0.0005145471 0.0003375358 0.00023094291
0000c0 6f ea 06 3a 11 c2 e7 37 73 80 df 38 99 a3 93 39
       0.00051466277 2.7627715e-05 0.00010657394 0.00028159915
0000d0 21 fb b7 37 38 16 dd 38 14 cf 67 39 9d 76 5c 39
       2.1932241e-05 0.0001054224 0.0002210702 0.00021025022
0000e0 2a e4 dc 39 9d 0d 1b 3a 08 c6 1a 39 9b 57 fd 39
       0.00042131665 0.00059148093 0.00014760357 0.00048321192
0000f0 97 9d 86 39 92 24 77 39 5e 6e 88 38 f3 e6 3f 3a
       0.00025675885 0.00023569379 6.505543e-05 0.0007320486
000100 12 1e a6 39 eb 0e 34 3a dd a6 d0 38 41 aa ff 38
       0.0003168439 0.0006868678 9.9492936e-05 0.0001219106
000110 9d 91 ac 39 5b f1 5b 39 ce 4d b0 38 07 fd f3 38
       0.00032914887 0.0002097538 8.406826e-05 0.00011634273
000120 5b 46 d0 39 34 3c 3a 3a 19 b6 b9 39 0a ae f8 39
       0.0003972527 0.0007104308 0.00035421623 0.00047431915
000130 c4 ac 2b 39 2c 7d 02 39 98 a0 fb 39 95 2c 04 3a
       0.00016372191 0.00012444396 0.00047994102 0.00050420436
000140 1c 56 07 39 5a 49 54 39 54 16 e7 39 97 3d c2 37
       0.00012906682 0.00020245221 0.0004407639 2.3155282e-05
000150 05 04 10 3a d2 56 7a 39 66 84 86 39 8c c8 88 39
       0.0005493763 0.00023874201 0.00025657116 0.0002608936
000160 e7 54 0c 39 39 df d3 39 2b 59 e3 38 47 74 17 3a
       0.00013383069 0.0004041137 0.00010840812 0.00057775195
000170 62 81 25 3a b8 f2 2f 39 cc a4 e9 39 2d 45 1c 39
       0.000631353 0.0001677972 0.00044564006 0.0001490309
000180 66 61 a1 38 c0 42 a6 39 a7 0e 20 39 5b f4 e3 38
       7.69522e-05 0.0003171172 0.00015264247 0.00010869718
000190 53 f5 31 3a 07 39 fe 38 90 1f 0f 3a 4a 53 74 39
       0.00067885703 0.00012122286 0.000545972 0.00023300681
0001a0 77 66 8b 39 36 37 9d 37 f5 87 ba 38 ce a3 58 39
       0.00026588488 1.8741568e-05 8.894495e-05 0.00020660387
0001b0 57 bb 8e 39 91 60 d6 39 22 8f 49 39 bb 66 e0 38
       0.0002722393 0.00040889208 0.00019222175 0.000107002874
0001c0 94 cd 7f 39 26 da 0f 3a f8 13 73 39 e0 91 be 37
       0.00024395279 0.0005487524 0.00023181725 2.2717693e-05
0001d0 74 35 0e 39 8c a2 98 39 53 83 18 3a f6 16 d6 37
       0.00013562088 0.00029112806 0.00058179087 2.552148e-05
0001e0 87 4a 8a 39 a3 51 f6 39 a8 3e a6 39 97 37 a7 39
       0.00026376938 0.000469816 0.0003170867 0.0003189414
0001f0 81 cb a0 39 27 be dc 39 ef 13 92 36 75 67 00 39
       0.000306692 0.00042103344 4.3534596e-06 0.00012245572

bn1.weight f4 [128]
000000 00 00 80 3f 00 00 80 3f 00 00 80 3f 00 00 80 3f
       1.0 1.0 1.0 1.0
000010 00 00 80 3f 00 00 80 3f 00 00 80 3f 00 00 80 3f
       1.0 1.0 1.0 1.0
000020 00 00 80 3f 00 00 80 3f 00 00 80 3f 00 00 80 3f
       1.0 1.0 1.0 1.0
000030 00 00 80 3f 00 00 80 3f 00 00 80 3f 00 00 80 3f
       1.0 1.0 1.0 1.0
000040 00 00 80 3f 00 00 80 3f 00 00 80 3f 00 00 80 3f
       1.0 1.0 1.0 1.0
000050 00 00 80 3f 00 00 80 3f 00 00 80 3f 00 00 80 3f
       1.0 1.0 1.0 1.0
000060 00 00 80 3f 00 00 80 3f 00 00 80 3f 00 00 80 3f
       1.0 1.0 1.0 1.0
000070 00 00 80 3f 00 00 80 3f 00 00 80 3f 00 00 80 3f
       1.0 1.0 1.0 1.0
000080 00 00 80 3f 00 00 80 3f 00 00 80 3f 00 00 80 3f
       1.0 1.0 1.0 1.0
000090 00 00 80 3f 00 00 80 3f 00 00 80 3f 00 00 80 3f
       1.0 1.0 1.0 1.0
0000a0 00 00 80 3f 00 00 80 3f 00 00 80 3f 00 00 80 3f
       1.0 1.0 1.0 1.0
0000b0 00 00 80 3f 00 00 80 3f 00 00 80 3f 00 00 80 3f
       1.0 1.0 1.0 1.0
0000c0 00 00 80 3f 00 00 80 3f 00 00 80 3f 00 00 80 3f
       1.0 1.0 1.0 1.0
0000d0 00 00 80 3f 00 00 80 3f 00 00 80 3f 00 00 80 3f
       1.0 1.0 1.0 1.0
0000e0 00 00 80 3f 00 00 80 3f 00 00 80 3f 00 00 80 3f
       1.0 1.0 1.0 1.0
0000f0 00 00 80 3f 00 00 80 3f 00 00 80 3f 00 00 80 3f
       1.0 1.0 1.0 1.0
000100 00 00 80 3f 00 00 80 3f 00 00 80 3f 00 00 80 3f
       1.0 1.0 1.0 1.0
000110 00 00 80 3f 00 00 80 3f 00 00 80 3f 00 00 80 3f
       1.0 1.0 1.0 1.0
000120 00 00 80 3f 00 00 80 3f 00 00 80 3f 00 00 80 3f
       1.0 1.0 1.0 1.0
000130 00 00 80 3f 00 00 80 3f 00 00 80 3f 00 00 80 3f
       1.0 1.0 1.0 1.0
000140 00 00 80 3f 00 00 80 3f 00 00 80 3f 00 00 80 3f
       1.0 1.0 1.0 1.0
000150 00 00 80 3f 00 00 80 3f 00 00 80 3f 00 00 80 3f
       1.0 1.0 1.0 1.0
000160 00 00 80 3f 00 00 80 3f 00 00 80 3f 00 00 80 3f
       1.0 1.0 1.0 1.0
000170 00 00 80 3f 00 00 80 3f 00 00 80 3f 00 00 80 3f
       1.0 1.0 1.0 1.0
000180 00 00 80 3f 00 00 80 3f 00 00 80 3f 00 00 80 3f
       1.0 1.0 1.0 1.0
000190 00 00 80 3f 00 00 80 3f 00 00 80 3f 00 00 80 3f
       1.0 1.0 1.0 1.0
0001a0 00 00 80 3f 00 00 80 3f 00 00 80 3f 00 00 80 3f
       1.0 1.0 1.0 1.0
0001b0 00 00 80 3f 00 00 80 3f 00 00 80 3f 00 00 80 3f
       1.0 1.0 1.0 1.0
0001c0 00 00 80 3f 00 00 80 3f 00 00 80 3f 00 00 80 3f
       1.0 1.0 1.0 1.0
0001d0 00 00 80 3f 00 00 80 3f 00 00 80 3f 00 00 80 3f
       1.0 1.0 1.0 1.0
0001e0 00 00 80 3f 00 00 80 3f 00 00 80 3f 00 00 80 3f
       1.0 1.0 1.0 1.0
0001f0 00 00 80 3f 00 00 80 3f 00 00 80 3f 00 00 80 3f
       1.0 1.0 1.0 1.0

bn1.bias f4 [128]
000000 00 00 00 00 00 00 00 00 00 00 00 00 00 00 00 00
       0.0 0.0 0.0 0.0
000010 00 00 00 00 00 00 00 00 00 00 00 00 00 00 00 00
       0.0 0.0 0.0 0.0
000020 00 00 00 00 00 00 00 00 00 00 00 00 00 00 00 00
       0.0 0.0 0.0 0.0
000030 00 00 00 00 00 00 00 00 00 00 00 00 00 00 00 00
       0.0 0.0 0.0 0.0
000040 00 00 00 00 00 00 00 00 00 00 00 00 00 00 00 00
       0.0 0.0 0.0 0.0
000050 00 00 00 00 00 00 00 00 00 00 00 00 00 00 00 00
       0.0 0.0 0.0 0.0
000060 00 00 00 00 00 00 00 00 00 00 00 00 00 00 00 00
       0.0 0.0 0.0 0.0
000070 00 00 00 00 00 00 00 00 00 00 00 00 00 00 00 00
       0.0 0.0 0.0 0.0
000080 00 00 00 00 00 00 00 00 00 00 00 00 00 00 00 00
       0.0 0.0 0.0 0.0
000090 00 00 00 00 00 00 00 00 00 00 00 00 00 00 00 00
       0.0 0.0 0.0 0.0
0000a0 00 00 00 00 00 00 00 00 00 00 00 00 00 00 00 00
       0.0 0.0 0.0 0.0
0000b0 00 00 00 00 00 00 00 00 00 00 00 00 00 00 00 00
       0.0 0.0 0.0 0.0
0000c0 00 00 00 00 00 00 00 00 00 00 00 00 00 00 00 00
       0.0 0.0 0.0 0.0
0000d0 00 00 00 00 00 00 00 00 00 00 00 00 00 00 00 00
       0.0 0.0 0.0 0.0
0000e0 00 00 00 00 00 00 00 00 00 00 00 00 00 00 00 00
       0.0 0.0 0.0 0.0
0000f0 00 00 00 00 00 00 00 00 00 00 00 00 00 00 00 00
       0.0 0.0 0.0 0.0
000100 00 00 00 00 00 00 00 00 00 00 00 00 00 00 00 00
       0.0 0.0 0.0 0.0
000110 00 00 00 00 00 00 00 00 00 00 00 00 00 00 00 00
       0.0 0.0 0.0 0.0
000120 00 00 00 00 00 00 00 00 00 00 00 00 00 00 00 00
       0.0 0.0 0.0 0.0
000130 00 00 00 00 00 00 00 00 00 00 00 00 00 00 00 00
       0.0 0.0 0.0 0.0
000140 00 00 00 00 00 00 00 00 00 00 00 00 00 00 00 00
       0.0 0.0 0.0 0.0
000150 00 00 00 00 00 00 00 00 00 00 00 00 00 00 00 00
       0.0 0.0 0.0 0.0
000160 00 00 00 00 00 00 00 00 00 00 00 00 00 00 00 00
       0.0 0.0 0.0 0.0
000170 00 00 00 00 00 00 00 00 00 00 00 00 00 00 00 00
       0.0 0.0 0.0 0.0
000180 00 00 00 00 00 00 00 00 00 00 00 00 00 00 00 00
       0.0 0.0 0.0 0.0
000190 00 00 00 00 00 00 00 00 00 00 00 00 00 00 00 00
       0.0 0.0 0.0 0.0
0001a0 00 00 00 00 00 00 00 00 00 00 00 00 00 00 00 00
       0.0 0.0 0.0 0.0
0001b0 00 00 00 00 00 00 00 00 00 00 00 00 00 00 00 00
       0.0 0.0 0.0 0.0
0001c0 00 00 00 00 00 00 00 00 00 00 00 00 00 00 00 00
       0.0 0.0 0.0 0.0
0001d0 00 00 00 00 00 00 00 00 00 00 00 00 00 00 00 00
       0.0 0.0 0.0 0.0
0001e0 00 00 00 00 00 00 00 00 00 00 00 00 00 00 00 00
       0.0 0.0 0.0 0.0
0001f0 00 00 00 00 00 00 00 00 00 00 00 00 00 00 00 00
       0.0 0.0 0.0 0.0

bn1.running_mean f4 [128]
000000 00 00 00 00 00 00 00 00 00 00 00 00 00 00 00 00
       0.0 0.0 0.0 0.0
000010 00 00 00 00 00 00 00 00 00 00 00 00 00 00 00 00
       0.0 0.0 0.0 0.0
000020 00 00 00 00 00 00 00 00 00 00 00 00 00 00 00 00
       0.0 0.0 0.0 0.0
000030 00 00 00 00 00 00 00 00 00 00 00 00 00 00 00 00
       0.0 0.0 0.0 0.0
000040 00 00 00 00 00 00 00 00 00 00 00 00 00 00 00 00
       0.0 0.0 0.0 0.0
000050 00 00 00 00 00 00 00 00 00 00 00 00 00 00 00 00
       0.0 0.0 0.0 0.0
000060 00 00 00 00 00 00 00 00 00 00 00 00 00 00 00 00
       0.0 0.0 0.0 0.0
000070 00 00 00 00 00 00 00 00 00 00 00 00 00 00 00 00
       0.0 0.0 0.0 0.0
000080 00 00 00 00 00 00 00 00 00 00 00 00 00 00 00 00
       0.0 0.0 0.0 0.0
000090 00 00 00 00 00 00 00 00 00 00 00 00 00 00 00 00
       0.0 0.0 0.0 0.0
0000a0 00 00 00 00 00 00 00 00 00 00 00 00 00 00 00 00
       0.0 0.0 0.0 0.0
0000b0 00 00 00 00 00 00 00 00 00 00 00 00 00 00 00 00
       0.0 0.0 0.0 0.0
0000c0 00 00 00 00 00 00 00 00 00 00 00 00 00 00 00 00
       0.0 0.0 0.0 0.0
0000d0 00 00 00 00 00 00 00 00 00 00 00 00 00 00 00 00
       0.0 0.0 0.0 0.0
0000e0 00 00 00 00 00 00 00 00 00 00 00 00 00 00 00 00
       0.0 0.0 0.0 0.0
0000f0 00 00 00 00 00 00 00 00 00 00 00 00 00 00 00 00
       0.0 0.0 0.0 0.0
000100 00 00 00 00 00 00 00 00 00 00 00 00 00 00 00 00
       0.0 0.0 0.0 0.0
000110 00 00 00 00 00 00 00 00 00 00 00 00 00 00 00 00
       0.0 0.0 0.0 0.0
000120 00 00 00 00 00 00 00 00 00 00 00 00 00 00 00 00
       0.0 0.0 0.0 0.0
000130 00 00 00 00 00 00 00 00 00 00 00 00 00 00 00 00
       0.0 0.0 0.0 0.0
000140 00 00 00 00 00 00 00 00 00 00 00 00 00 00 00 00
       0.0 0.0 0.0 0.0
000150 00 00 00 00 00 00 00 00 00 00 00 00 00 00 00 00
       0.0 0.0 0.0 0.0
000160 00 00 00 00 00 00 00 00 00 00 00 00 00 00 00 00
       0.0 0.0 0.0 0.0
000170 00 00 00 00 00 00 00 00 00 00 00 00 00 00 00 00
       0.0 0.0 0.0 0.0
000180 00 00 00 00 00 00 00 00 00 00 00 00 00 00 00 00
       0.0 0.0 0.0 0.0
000190 00 00 00 00 00 00 00 00 00 00 00 00 00 00 00 00
       0.0 0.0 0.0 0.0
0001a0 00 00 00 00 00 00 00 00 00 00 00 00 00 00 00 00
       0.0 0.0 0.0 0.0
0001b0 00 00 00 00 00 00 00 00 00 00 00 00 00 00 00 00
       0.0 0.0 0.0 0.0
0001c0 00 00 00 00 00 00 00 00 00 00 00 00 00 00 00 00
       0.0 0.0 0.0 0.0
0001d0 00 00 00 00 00 00 00 00 00 00 00 00 00 00 00 00
       0.0 0.0 0.0 0.0
0001e0 00 00 00 00 00 00 00 00 00 00 00 00 00 00 00 00
       0.0 0.0 0.0 0.0
0001f0 00 00 00 00 00 00 00 00 00 00 00 00 00 00 00 00
       0.0 0.0 0.0 0.0

bn1.running_var f4 [128]
000000 00 00 80 3f 00 00 80 3f 00 00 80 3f 00 00 80 3f
       1.0 1.0 1.0 1.0
000010 00 00 80 3f 00 00 80 3f 00 00 80 3f 00 00 80 3f
       1.0 1.0 1.0 1.0
000020 00 00 80 3f 00 00 80 3f 00 00 80 3f 00 00 80 3f
       1.0 1.0 1.0 1.0
000030 00 00 80 3f 00 00 80 3f 00 00 80 3f 00 00 80 3f
       1.0 1.0 1.0 1.0
000040 00 00 80 3f 00 00 80 3f 00 00 80 3f 00 00 80 3f
       1.0 1.0 1.0 1.0
000050 00 00 80 3f 00 00 80 3f 00 00 80 3f 00 00 80 3f
       1.0 1.0 1.0 1.0
000060 00 00 80 3f 00 00 80 3f 00 00 80 3f 00 00 80 3f
       1.0 1.0 1.0 1.0
000070 00 00 80 3f 00 00 80 3f 00 00 80 3f 00 00 80 3f
       1.0 1.0 1.0 1.0
000080 00 00 80 3f 00 00 80 3f 00 00 80 3f 00 00 80 3f
       1.0 1.0 1.0 1.0
000090 00 00 80 3f 00 00 80 3f 00 00 80 3f 00 00 80 3f
       1.0 1.0 1.0 1.0
0000a0 00 00 80 3f 00 00 80 3f 00 00 80 3f 00 00 80 3f
       1.0 1.0 1.0 1.0
0000b0 00 00 80 3f 00 00 80 3f 00 00 80 3f 00 00 80 3f
       1.0 1.0 1.0 1.0
0000c0 00 00 80 3f 00 00 80 3f 00 00 80 3f 00 00 80 3f
       1.0 1.0 1.0 1.0
0000d0 00 00 80 3f 00 00 80 3f 00 00 80 3f 00 00 80 3f
       1.0 1.0 1.0 1.0
0000e0 00 00 80 3f 00 00 80 3f 00 00 80 3f 00 00 80 3f
       1.0 1.0 1.0 1.0
0000f0 00 00 80 3f 00 00 80 3f 00 00 80 3f 00 00 80 3f
       1.0 1.0 1.0 1.0
000100 00 00 80 3f 00 00 80 3f 00 00 80 3f 00 00 80 3f
       1.0 1.0 1.0 1.0
000110 00 00 80 3f 00 00 80 3f 00 00 80 3f 00 00 80 3f
       1.0 1.0 1.0 1.0
000120 00 00 80 3f 00 00 80 3f 00 00 80 3f 00 00 80 3f
       1.0 1.0 1.0 1.0
000130 00 00 80 3f 00 00 80 3f 00 00 80 3f 00 00 80 3f
       1.0 1.0 1.0 1.0
000140 00 00 80 3f 00 00 80 3f 00 00 80 3f 00 00 80 3f
       1.0 1.0 1.0 1.0
000150 00 00 80 3f 00 00 80 3f 00 00 80 3f 00 00 80 3f
       1.0 1.0 1.0 1.0
000160 00 00 80 3f 00 00 80 3f 00 00 80 3f 00 00 80 3f
       1.0 1.0 1.0 1.0
000170 00 00 80 3f 00 00 80 3f 00 00 80 3f 00 00 80 3f
       1.0 1.0 1.0 1.0
000180 00 00 80 3f 00 00 80 3f 00 00 80 3f 00 00 80 3f
       1.0 1.0 1.0 1.0
000190 00 00 80 3f 00 00 80 3f 00 00 80 3f 00 00 80 3f
       1.0 1.0 1.0 1.0
0001a0 00 00 80 3f 00 00 80 3f 00 00 80 3f 00 00 80 3f
       1.0 1.0 1.0 1.0
0001b0 00 00 80 3f 00 00 80 3f 00 00 80 3f 00 00 80 3f
       1.0 1.0 1.0 1.0
0001c0 00 00 80 3f 00 00 80 3f 00 00 80 3f 00 00 80 3f
       1.0 1.0 1.0 1.0
0001d0 00 00 80 3f 00 00 80 3f 00 00 80 3f 00 00 80 3f
       1.0 1.0 1.0 1.0
0001e0 00 00 80 3f 00 00 80 3f 00 00 80 3f 00 00 80 3f
       1.0 1.0 1.0 1.0
0001f0 00 00 80 3f 00 00 80 3f 00 00 80 3f 00 00 80 3f
       1.0 1.0 1.0 1.0

fc2.weight f4 [128, 2]
000000 fd 4e a8 be 26 44 19 bf af dc ab 3e eb 31 dd 3e
       -0.32872763 -0.5986961 0.33566806 0.43202147
000010 fb 45 c9 be 75 ce 14 be 7a 09 89 3c 39 33 8b 3e
       -0.39311203 -0.14531882 0.016728152 0.27187517
000020 b1 f9 d4 be 25 92 cd bc fc 7e 33 3e e3 81 0a 3f
       -0.4159675 -0.025094101 0.1752891 0.5410444
000030 2e d6 e7 3e ff 8a 1d bf 80 e5 06 3f cb 62 66 3e
       0.45280594 -0.61540216 0.5269394 0.22498624
000040 c3 a0 d5 3e c6 a4 71 3e dc a5 2f bf d3 b3 ea be
       0.41724214 0.23598012 -0.68612456 -0.4584032
000050 ff ed 2c bf 35 06 84 3e 8d b4 76 3d df a1 1c bf
       -0.67550653 0.25785986 0.06023078 -0.61184496
000060 21 aa b6 be 01 12 c7 be b6 8d e7 3e 8e bc 79 3e
       -0.35676673 -0.38880923 0.45225304 0.24388334
000070 bb 95 eb bc d2 b6 ab 3e d3 06 cf bb 89 01 13 3f
       -0.02875792 0.33537918 -0.006317952 0.5742422
000080 be e5 d4 be 39 55 f3 3e 0f 1f 24 3e a2 bb e5 3e
       -0.4158153 0.47525957 0.16027473 0.44869715
000090 d4 d4 2f 3f 76 2e 7c 3d b5 23 19 3c ff 99 dc 3e
       0.68684125 0.061567746 0.009346892 0.4308624
0000a0 f3 0c bf 3d 5f d4 00 be 5a 53 ce be 1f 4c f9 be
       0.09328642 -0.12581013 -0.40297967 -0.48690888
0000b0 46 60 78 be 0a d1 99 be a4 5f 6b be 1c b2 d5 be
       -0.24255475 -0.30042297 -0.22985703 -0.4173745
0000c0 4f b2 ab 3e 07 63 e4 3e 5b 3d 84 bc 8a 77 34 3f
       0.33534476 0.44606802 -0.016142538 0.704949
0000d0 24 14 13 3f 1d 8f 8e bd f4 1e 5a bd b6 1e 72 be
       0.5745261 -0.069608904 -0.053252175 -0.23644528
0000e0 9b 16 8e bd f5 8d 15 3f d1 e7 21 3f 0b 41 e7 3e
       -0.069379054 0.58419734 0.6324435 0.4516681
0000f0 39 62 85 be bb 63 ba be a1 2b f3 3e 93 f8 27 3e
       -0.260515 -0.36404213 0.47494224 0.16403417
000100 6d d2 26 bf f2 9c bc 3e a2 2e 2f 3f da 4b 96 bd
       -0.65164834 0.3683849 0.6843053 -0.07338686
000110 d1 00 a2 be 28 c6 0c be 12 37 5b 3c 0a e0 16 bf
       -0.31641248 -0.13747466 0.013379829 -0.58935606
000120 48 24 5e be 53 5a 97 be a8 8b 9d bd 06 14 0b 3f
       -0.21693528 -0.295611 -0.07692653 0.5432743
000130 a2 52 ca be a6 ec 70 3e 56 a5 15 bf 61 4f d2 be
       -0.3951617 0.23527774 -0.5845541 -0.41076186
000140 eb 59 86 bd 81 e9 3e bd 2f 8a 07 3f a6 e3 d7 be
       -0.06560119 -0.046609405 0.52945226 -0.4216587
000150 cd 20 8e be 4b 54 31 bf 25 39 2c 3f 95 43 31 3f
       -0.277594 -0.69269246 0.67274696 0.69243747
000160 82 e0 99 be b2 29 87 3e fb 7b 12 3f 35 4e 0a bf
       -0.30054098 0.26398998 0.5722043 -0.54025584
000170 98 f3 d3 be 1c 8b 07 3f 7f 17 03 3e e3 4a 23 bf
       -0.41396785 0.5294664 0.12801932 -0.63786143
000180 18 47 25 3f b9 ac ac be 23 26 fd bd c7 24 12 3e
       0.64561605 -0.33725527 -0.123607896 0.14271842
000190 0d cc a9 bd a2 c6 de 3e 31 fe b2 3e 1c b6 06 bf
       -0.08290873 0.4351092 0.34959558 -0.52621627
0001a0 bd c5 b9 bd e6 81 1f 3e 6b 1b 17 3e 1a 42 cf 3e
       -0.09070919 0.15576896 0.14756553 0.4048012
0001b0 bc 24 66 be 81 ee 13 bf 9a 88 a3 be 88 db db 3e
       -0.2247495 -0.57785803 -0.31940156 0.42940927
0001c0 ca 11 f5 3e 8e 64 1a 3f a1 ac 2b 3f 4e ec f9 3e
       0.47865134 0.60309684 0.67060286 0.488131
0001d0 ad 5f b8 be a5 b1 13 be d7 4b 12 bf 41 73 f8 3e
       -0.36010495 -0.14423235 -0.5714697 0.48525432
0001e0 b3 f0 e8 be 9e c1 8e be 60 4d e8 3c 9f 65 2c bf
       -0.4549614 -0.27882093 0.028357208 -0.6734256
0001f0 7f 5e 14 be 7c 09 96 be ca 1b 32 3f a1 76 1d bf
       -0.14489172 -0.2930411 0.6957365 -0.6150914
000200 de 96 e6 be 93 2d ea be 70 87 29 3f ba 2e 1f bf
       -0.45036978 -0.45737895 0.66222286 -0.62180674
000210 15 17 39 be d8 42 b1 3e 87 f9 28 3e 89 74 dc 3e
       -0.18075211 0.3462131 0.16501437 0.4305766
000220 35 b6 05 bf e4 2c 7c 3e 66 a9 ac be ce 4c da be
       -0.5223115 0.246265 -0.3372299 -0.42636722
000230 ee 38 c7 3d d3 cc c3 3e fa e4 29 3e 08 79 d5 3e
       0.09727655 0.38242206 0.16591254 0.41693902
000240 4e a8 00 bf bd 45 f3 3e 77 35 36 bf 38 4b 19 bf
       -0.5025681 0.47514144 -0.7117533 -0.598804
000250 1d 54 d4 3e 49 34 17 3f 87 4a 2a bf 53 76 4c bd
       0.41470423 0.59064156 -0.6651997 -0.04991753
000260 e9 d3 c0 be 7e 31 2a be 77 87 57 3e ac 66 c1 be
       -0.37661675 -0.16620442 0.2104777 -0.37773645
000270 5b bf 16 3f 7b e4 f6 3e 2e 39 13 bf 36 06 04 3f
       0.58885735 0.48221192 -0.57509124 0.5157198
000280 c8 af a4 3e ab 27 33 be 2d 06 cd be 87 12 69 3e
       0.3216536 -0.17495601 -0.40043774 0.22760974
000290 26 ea 21 3f bf 5a 03 be fd b2 04 3d 55 3c 52 be
       0.6324791 -0.12827586 0.03239726 -0.20530827
0002a0 8f 5d 33 bf 9f 4f 77 be 22 d0 a1 be d6 9b 04 bf
       -0.70064634 -0.24151467 -0.31604105 -0.51800287
0002b0 86 e5 cc 3e d6 0f d8 3e c1 eb a8 be b7 f3 03 3f
       0.40018862 0.42199582 -0.32992366 0.51543754
0002c0 75 7e 8a be 92 69 ad be ac 61 f6 3e 0d bd 11 3f
       -0.27049604 -0.33869606 0.48121393 0.56929094
0002d0 1a 5c a0 3e 5f 15 be 3d a8 e7 34 3f b1 cc 84 be
       0.31320268 0.0928142 0.7066598 -0.25937417
0002e0 00 04 2b 3f ec 9b 04 bf d0 d5 44 be 5f 96 01 bf
       0.6680298 -0.5180042 -0.19222188 -0.50620073
0002f0 05 b6 22 bf 78 5d 07 3e 3a f5 17 3d 9e 45 09 3f
       -0.6355899 0.13219249 0.0370991 0.5362185
000300 d3 19 ce bd c8 29 b5 3e 7d 3b 06 bf 6c d6 6b be
       -0.10063519 0.3538344 -0.5243452 -0.23031014
000310 08 f5 db bd 01 5d 04 3f 02 6d 86 be 22 3f 7f 3e
       -0.107400954 0.5170441 -0.2625504 0.24926427
000320 00 70 2e bf 7a c1 10 3f 9c 2a ac be 17 a7 d9 bc
       -0.6813965 0.5654522 -0.33626258 -0.026568932
000330 51 af 24 3f f3 9d f1 3e 16 11 00 bc 9a e9 2b 3f
       0.6433001 0.47190818 -0.007816574 0.6715332
000340 9b e7 22 be b9 c6 2f bf 9c 89 02 be 56 2d 65 bd
       -0.15908663 -0.686626 -0.12747806 -0.05595144
000350 85 7a 88 be 38 67 16 3e fa 1d b7 3d 63 a9 1d bf
       -0.26655975 0.14687812 0.089412645 -0.6158659
000360 f2 92 f1 3e 7c 5a 72 be 87 f5 ef 3e 2b a0 0f bf
       0.47182423 -0.2366733 0.4686701 -0.5610377
000370 88 5f ff 3d c2 9a 16 3f bf 3c 84 3e f4 b2 8b 3e
       0.12469393 0.5882989 0.25827596 0.27284968
000380 89 a9 c6 be 33 ef d4 be dc 86 09 bf 96 df 28 3f
       -0.3880122 -0.41588745 -0.53721404 0.65966165
000390 04 7d 16 be 84 45 21 3f 4b 36 a8 3d 5b ce 34 3e
       -0.14696127 0.629967 0.082134806 0.17656843
0003a0 47 72 12 be 4b 4a f3 be b1 90 c3 3e 66 cc 06 3f
       -0.14301406 -0.4751762 0.38196328 0.5265564
0003b0 be 79 16 3f bf 04 2a 3f aa 19 0f bb 96 c9 63 be
       0.58779514 0.6641349 -0.0021835365 -0.22244868
0003c0 5e f2 e5 3e 55 59 92 be 25 0a 1c 3f 79 91 cb 3e
       0.44911474 -0.2858378 0.6095298 0.39759424
0003d0 a4 24 06 bf 72 87 6d be 5b 4d 07 3f ba d5 5d 3e
       -0.5239966 -0.231962 0.5285241 0.21663561
0003e0 31 c3 bf be 73 ce 10 bf 7d 71 1c bf 24 11 35 3e
       -0.37453607 -0.56565017 -0.6111067 0.1768232
0003f0 04 8c 7f 3d e1 15 af 3c 8c bb a9 3e c5 47 df 3d
       0.06238939 0.021372737 0.331509 0.10902361

actor.linears.0.weight f4 [128, 384]
000000 4c 0f ae 3c 38 a3 1c 3d b2 93 39 bd 71 c6 b9 bc
       0.021247528 0.038241595 -0.04530687 -0.022677632
000010 17 31 80 3c f3 43 ae bc 99 64 0c bd 19 5f 53 bb
       0.015648408 -0.021272635 -0.034275625 -0.0032252728
000020 4c 0f 8a 3c c3 9c a1 bc 7f 1d d0 bc 40 79 c0 3c
       0.016852997 -0.01972807 -0.02540469 0.023495317
000030 86 c4 2d bc 29 84 90 bc 26 38 ec bc 1d 3b 55 3c
       -0.010605937 -0.017641144 -0.028835367 0.013014582
000040 43 d8 11 3d 3e 4a ef 3b 69 3b 32 bd d7 7a 1d bd
       0.035606634 0.0073025515 -0.04351369 -0.038447227
000050 56 42 5a bd c4 a1 05 3d dd 1c d2 bc 8d b9 02 ba
       -0.05328592 0.032624975 -0.025648529 -0.00049867557
000060 83 bf d8 bc b2 8a 57 3c 54 97 1d bd e4 4a ad bc
       -0.026458507 0.013155626 -0.038474396 -0.021153875
000070 a5 e3 aa bb 2a 0f e0 bc b9 ea 15 bc cd ab d7 b8
       -0.0052151256 -0.02735098 -0.0091502005 -0.00010283999
000080 65 ca 4a bc 38 53 01 bc 49 1e a9 bc 9d 68 29 bd
       -0.012377356 -0.007893376 -0.020644324 -0.041359533
000090 58 e2 2b bd 69 cc 35 3d 84 d3 e5 3b 40 9f 27 bd
       -0.041963905 0.044384394 0.00701374 -0.040923357
0000a0 c7 34 21 bd 9f 47 41 bc 8a 69 09 bc 01 32 c0 39
       -0.039356973 -0.011796861 -0.008386979 0.0003665835
0000b0 e7 6c ff bb 5e 26 46 bd e8 b3 d2 3c 52 dd 06 bc
       -0.0077949646 -0.048376434 0.025720552 -0.008231478
0000c0 f2 42 8c 3c 30 a7 99 bc 3a 15 3a bd a8 b3 a1 bc
       0.017121766 -0.018756479 -0.0454304 -0.019738987
0000d0 b1 27 3b bc 09 a3 20 bd 7c 7f 84 bb 6e c5 01 bd
       -0.011423037 -0.039217982 -0.0040435176 -0.031682424
0000e0 d0 6e 6a 3d 4b 05 31 3c 23 f2 e8 bc e5 25 96 3b
       0.057234585 0.010804485 -0.028435772 0.004582154
0000f0 4a 91 4e 3c 4c d4 12 3c 25 da 2b 3d 41 77 ed 3c
       0.012607882 0.008961748 0.041956086 0.028987529
000100 68 a3 60 bd 26 55 d7 bc fd ca a8 bc ee 05 d4 3c
       -0.054843336 -0.02628572 -0.020604605 0.025881734
000110 58 69 6b 3c 30 dd ae bc 1d f2 d7 bc bd 94 d5 3c
       0.014368378 -0.021345705 -0.026360566 0.0260719
000120 e3 c9 1a bc 11 bf 1e bd 01 fa dd 3c fb e9 ee bc
       -0.009447548 -0.038756434 0.02709675 -0.029164305
000130 be 8a 1f bd 4c 52 ca bc 27 c7 9b bc b2 f0 2e bd
       -0.038950674 -0.024697445 -0.019015862 -0.042710014
000140 d1 84 b9 3c 0e 3f 53 b9 25 27 04 3d 1a a7 84 bc
       0.02264634 -0.00020146018 0.032263894 -0.016192961
000150 8c 62 d8 bc c1 4c 0f 3d 4e da bf 3c 8d da a6 bc
       -0.026414178 0.034985308 0.023419525 -0.020367885
000160 9e 81 6c 3c 56 40 46 3b 7e e4 1a 3d 6c bc 3b 3d
       0.0144352 0.003025075 0.037815563 0.04583399
000170 40 6f 48 3c 18 1e 25 bd f4 42 4f bd bd e1 4f 3d
       0.012233555 -0.040311903 -0.05060096 0.05075239
000180 c3 c6 4a 3c d9 11 24 bd 9b 05 bd 3b 8a fa 36 bd
       0.01237649 -0.040056083 0.0057684905 -0.044672526
000190 6b ef de bc 3e 13 d3 bc 1f ef 8b 3c 77 d7 91 bc
       -0.027213773 -0.025766011 0.017081795 -0.017802937
0001a0 33 44 04 bd 3f 4c 92 3b 6f 4f 06 3d d4 44 b3 3b
       -0.032291602 0.0044646556 0.032790598 0.0054708514
0001b0 15 da ba 3c 7b 5a 47 3c a9 9c b1 3c 4c db 77 3c
       0.022809068 0.012167568 0.021681147 0.015127968
0001c0 41 42 2a 3d dc f2 fd bc 4a f7 34 3d a6 1f dd bc
       0.04156709 -0.030999593 0.044181146 -0.02699263
0001d0 14 67 0c 3d 42 b3 b3 bc 00 83 4c 3d 64 f8 33 bd
       0.03427799 -0.021936063 0.04992962 -0.043938056
0001e0 68 0c 80 bb 3c 1c 73 3d a1 f8 3b bd 64 42 39 3c
       -0.003907729 0.0593531 -0.045891408 0.011307333
0001f0 b9 d5 ee bc 96 07 68 3c b9 57 3b bc 89 0d cd 3c
       -0.029154645 0.014161965 -0.011434489 0.025030868
000200 47 4c a9 bc 97 71 56 bc f1 b4 04 bb fa 40 0d 3d
       -0.020666255 -0.013088605 -0.002024945 0.034485795
000210 f2 f1 5a 3d 92 3e 03 bd 43 57 20 3d 44 0e a7 bc
       0.053453393 -0.032042094 0.03914572 -0.020392545
000220 fb 4f 3d bc 4e 52 16 bd 51 6c d6 3c d6 fc 32 bd
       -0.011554713 -0.036699586 0.026174696 -0.043698154
000230 ea 7f 41 3d a3 9d f3 3c 82 3d 33 3d f6 c9 03 3c
       0.04724113 0.029738253 0.04375983 0.008043757
000240 22 3d 65 3d d7 37 44 bd 39 c5 c3 bc 76 ab 06 bb
       0.055966504 -0.047904816 -0.023897754 -0.0020548976
000250 ad 3b 33 3c 90 87 16 bc 85 ce 20 bd 34 56 f6 bc
       0.010939521 -0.009187594 -0.039259452 -0.030070402
000260 ef 09 21 bd d7 3d 0f 3d 29 e2 16 3d 4a a4 0f 3d
       -0.039316114 0.034971084 0.036836777 0.035068788
000270 57 16 c1 bc a0 c7 4e bd 84 94 4c 3d dd 46 61 bd
       -0.023570223 -0.050483346 0.049946323 -0.05499922
000280 cb 1c 75 3c 35 a2 9b 3c 44 ea 05 bd 12 86 72 bc
       0.014960478 0.018998245 -0.032694116 -0.014802473
000290 b3 67 1d 3d 0a ee 34 bd 1e 0a 6c 3c 77 a9 65 bc
       0.038428973 -0.044172324 0.014406709 -0.014017454
0002a0 76 81 c6 bc d4 f2 95 3c eb 01 e1 bc b2 1d 0b 3c
       -0.024231654 0.018304266 -0.027466735 0.008490967
0002b0 6f a1 5a bc c4 c7 50 bd a8 f4 f0 3c 84 e8 1f bd
       -0.013344153 -0.05097176 0.029413536 -0.039040104
0002c0 84 6a 32 bd 52 aa c5 3c 52 b8 e7 bc 0e 5b ab 3b
       -0.043558612 0.024129067 -0.028286133 0.0052293604
0002d0 65 86 06 3d b8 e0 40 bd 4f d1 f8 bc 62 96 4d bc
       0.032843012 -0.04708931 -0.030373244 -0.012548061
0002e0 54 29 2c 3d e1 76 f7 3b f7 9c 24 3d df 48 a2 3b
       0.0420316 0.0075520133 0.040188756 0.0049525346
0002f0 73 1b 08 3c 00 b6 c9 3c 50 5a 3a 3d 96 30 2a bd
       0.008307326 0.024622917 0.045496285 -0.04155024
000300 90 94 82 3b 08 2a 50 3c a0 06 87 bc 17 e6 c0 bc
       0.003984995 0.0127053335 -0.016482651 -0.023547215
000310 df ee 29 3d be a0 51 3d eb 85 19 bd b0 de 68 bc
       0.04148757 0.051178686 -0.03748123 -0.014213249
000320 83 92 2c 3c 61 f7 54 bc 30 f0 3f 3c 71 b8 b7 3c
       0.010532978 -0.012998433 0.01171498 0.022426816
000330 0b 51 cb 3c 13 42 75 bc 90 b9 19 bd 81 6e c2 bc
       0.024818918 -0.014969367 -0.03753048 -0.023734333
000340 51 c9 1b bd 0b 4c c3 ba 19 c1 0e 3d b8 d1 34 3d
       -0.038033787 -0.0014899982 0.03485212 0.044145316
000350 3a 6b 69 3d 22 20 58 3c 1a 1f 98 bc d7 0f d9 bc
       0.056987025 0.013191255 -0.018569518 -0.02649681
000360 90 5c 8b bc 7d 2e 1f 3d 65 96 97 3c 4b 06 85 3c
       -0.01701191 0.038862694 0.01850433 0.016238352
000370 6f d4 68 bb 50 99 3e 3d a3 f9 bd 3c 18 12 13 bd
       -0.003552701 0.04653293 0.023190325 -0.035905927
000380 a3 94 e9 3c 1f 7a 74 3d 47 0a 0d bd b2 63 6c 3c
       0.028513258 0.059686776 -0.03443363 0.014428066
000390 e5 29 09 bd a8 d3 5d 3d 64 78 03 bb 6b f1 03 3d
       -0.03348722 0.05415693 -0.0020060772 0.032212656
0003a0 58 17 b9 bb e2 14 2f bc 50 ab 15 bd ed eb 66 3a
       -0.0056485347 -0.010686131 -0.03654033 0.00088089594
0003b0 4c 64 3c bd 01 e6 59 3c b7 aa 9c 3c b7 18 4d 3c
       -0.045994088 0.013299466 0.019124372 0.0125180995
0003c0 c6 0e 0d bd 06 b9 f9 bc 14 43 2c bc 3b c9 9a bc
       -0.034437917 -0.030483734 -0.01051404 -0.018894782
0003d0 25 e1 56 3c ef 92 00 3c a4 c4 a0 bc 98 71 cd 3c
       0.013115202 0.007847532 -0.019625016 0.02507858
0003e0 ba 1a e9 bc 49 cc d3 3c 81 09 af 3c 35 be b6 bc
       -0.028455127 0.025854247 0.021366837 -0.022307495
0003f0 91 b4 2e 3b 80 ea 54 3d c6 ba 02 bd 92 8f 50 bd
       0.002665792 0.05198145 -0.031916402 -0.05091817

actor.linears.0.bias f4 [128]
000000 77 37 e2 bc 56 ef 4d bc 21 79 c6 3a 87 0c 72 3c
       -0.027614338 -0.012569269 0.00151423 0.014773495
000010 6a 20 14 3c 2c d3 02 3c 2c 5c 9e ba 5a 48 1f bd
       0.009040931 0.007984918 -0.0012081913 -0.03888736
000020 35 ef 36 3c 9c 3b 44 3d 15 7b 66 3d 9b 93 22 3d
       0.01116543 0.04790841 0.056269724 0.03969155
000030 72 c8 c6 3c e8 d2 fe ba f5 a3 c6 3c 8d 18 6e 3b
       0.024265502 -0.0019441517 0.024248103 0.0036330551
000040 f8 91 3a 3d 4c 68 8c bc 9b 29 3a bd e3 9d 11 3d
       0.045549363 -0.017139576 -0.045449834 0.035550963
000050 ab b0 59 bd d4 63 0e 3d cf 54 b7 bb cf be 2c bd
       -0.053147 0.034763172 -0.005594827 -0.042174157
000060 af 87 41 3d 39 e7 02 bd 00 49 b5 3c ca 0e 05 3d
       0.04724854 -0.031958792 0.022129536 0.032484807
000070 36 d8 ab bc 92 70 3b 3b 87 44 40 bb 71 93 4c 3c
       -0.02097712 0.0028601033 -0.002933772 0.012486325
000080 5d 54 ae 3c 2b 18 0d 3d dc 67 0d bd 9d 74 35 3d
       0.021280462 0.034446876 -0.034522876 0.044300664
000090 b5 de 23 bd a0 77 0b bd 71 28 f8 bb fd ae 19 3d
       -0.04000731 -0.03404963 -0.0075731804 0.037520397
0000a0 7c 22 1b 3c 88 c8 9e 3c c4 a3 0f 3d f1 f8 cc bc
       0.009468671 0.01938273 0.03506829 -0.025021048
0000b0 19 89 be bc 7b 7f 00 3d f2 5e 64 bd a9 f5 12 bd
       -0.023258733 0.031371575 -0.05575461 -0.03587881
0000c0 ba 4e 63 bc 93 65 8e bc 3d 3a 8a 3c b6 63 42 bd
       -0.01387375 -0.017382419 0.016873473 -0.047458373
0000d0 10 3e 41 bc 2e 61 cd 3c d3 28 91 3c fe f6 5f bd
       -0.011794582 0.025070753 0.017719662 -0.05467891
0000e0 93 ac af bc 39 3b 45 ba 7c 5a b8 bc a8 e3 4e bc
       -0.021444594 -0.00075237785 -0.022504084 -0.01262752
0000f0 4b 1c f5 3c 57 88 12 3d 2a 8e 8b 3c 81 fe ca bc
       0.029920718 0.035774555 0.017035563 -0.02477956
000100 a2 ee 1a bd 45 ab ea bc 27 c3 41 3d 48 cd 2a 3d
       -0.037825234 -0.02864612 0.047305252 0.041699678
000110 b0 63 2f 3d e8 6e 9a bc e2 0e 2b 3d c9 9e f1 bc
       0.04281968 -0.018851712 0.04176224 -0.02949466
000120 bd f9 93 bc 37 69 d8 bc 76 2a fd bc ef 1c e4 bc
       -0.01806342 -0.026417358 -0.030904036 -0.027845828
000130 bc 9b 1f ba 99 16 04 3d cc af a6 bc 9d b4 33 3c
       -0.0006088575 0.032248113 -0.020347498 0.0109683545
000140 db 56 a0 bc 6a ec 27 bd 84 b5 c3 3c a3 72 11 3d
       -0.019572666 -0.040996946 0.023890264 0.035509717
000150 7b ca db bb 12 58 2d bc 54 b3 01 bd 97 ba b9 bc
       -0.006707487 -0.01058008 -0.03166516 -0.02267198
000160 51 fc 7a bc 87 81 ba 3c 6e 02 6f 3c 38 46 37 bd
       -0.015318946 0.022766842 0.014587982 -0.0447447
000170 c0 96 3d bc 24 f2 26 bd 6e c2 9f 3c 0d 8d 29 3b
       -0.011571586 -0.040758267 0.019501891 0.0025871426
000180 56 30 b7 bc f8 05 02 bd 08 c4 31 bd 20 49 39 bd
       -0.022361916 -0.031743973 -0.04339984 -0.045235753
000190 9d d0 3c 3d ec 67 4a bd a6 86 6f bc 73 1c 81 bc
       0.046097387 -0.049415514 -0.014619505 -0.015760636
0001a0 60 b4 68 bc ad 7d cc 3c 74 ad 42 bc 66 40 7b bc
       -0.014203161 0.02496227 -0.011882175 -0.015335178
0001b0 53 a6 00 3c 02 92 ce 3b dd fd df 3a b5 6b 16 bd
       0.007852155 0.0063040266 0.0017089207 -0.03672381
0001c0 b1 dd 63 3c cf 20 f8 bc bf 98 a2 3c 2f e4 2d bd
       0.013907836 -0.030289082 0.019848226 -0.04245394
0001d0 0b 2e f5 3c 77 1a 0d bd e9 77 1b bc 29 12 fd 3c
       0.029929182 -0.034449067 -0.009489038 0.030892448
0001e0 23 9a 66 3b c7 1d 75 bc d3 38 d1 3b 22 bd 19 3d
       0.0035187087 -0.014960713 0.006384948 0.037533887
0001f0 e6 77 51 bd 19 84 8f bc de 7c f7 bb 37 99 39 3d
       -0.051139735 -0.017519044 -0.007552727 0.045312133

actor.linears.1.weight f4 [128, 128]
000000 7e c8 35 bd b4 87 9a bd 44 bc 0c 3d 0b 2c a9 bd
       -0.044380657 -0.075454146 0.03435923 -0.08260354
000010 e6 ef 3e bc 62 0e b0 bd 65 7c 8b bd e5 5e 93 3d
       -0.011653876 -0.08596493 -0.06810836 0.07195834
000020 e8 b8 94 bd f7 07 92 3d fe bb 5e 3a 83 a3 9e 3c
       -0.072618306 0.071304254 0.0008496641 0.019365078
000030 15 92 6a bd 75 7c b0 3d c7 d2 6a 3c 03 97 c6 3c
       -0.05726822 0.08617488 0.01433248 0.02424193
000040 6a fc 9e bd eb 15 e0 3c 21 c1 03 bd 0b 98 59 3d
       -0.07762988 0.027354201 -0.032166604 0.053123515
000050 5f c7 8a 3c 1a 73 de 3c 17 65 43 3d 31 ac 82 bd
       0.01694077 0.027154494 0.04770383 -0.06380499
000060 27 15 87 3d e0 7f 9c bd 8d 21 63 bc 31 9a 45 bd
       0.06595831 -0.07641578 -0.01386298 -0.04824275
000070 4c 69 dd bc 6b 23 33 3d 1a 49 5c 3d ce 4a 45 bd
       -0.027027749 0.04373495 0.053780653 -0.048167042
000080 33 0a b1 3d d3 f5 10 3d f4 f6 23 bd 5d 03 5f bc
       0.086445235 0.035390686 -0.040030435 -0.013611642
000090 1c 1a 90 bc 95 17 d6 3c ae 41 9e bd 9d 9b 83 3d
       -0.017590575 0.026134292 -0.07727371 0.06426165
0000a0 7f be 78 39 62 e5 8c bd 2a 3c 81 bd 9b 83 bc 3d
       0.00023722088 -0.06879689 -0.063103035 0.09204789
0000b0 44 df 30 3d fe 25 75 bd e9 00 b1 bd d5 08 18 bd
       0.043181673 -0.059850685 -0.08642752 -0.037117798
0000c0 c6 ac 5d bd f6 95 56 3a 7e c5 9b bb e4 71 71 bd
       -0.054119848 0.0008185798 -0.0047537675 -0.058946505
0000d0 95 69 10 bd 9f a6 aa bd 5d 75 ae 3d 08 7f 24 bd
       -0.03525694 -0.08332562 0.08518479 -0.04016021
0000e0 16 21 0f 3d 4a 82 30 bd c9 e1 d3 3b a7 4d 79 bc
       0.034943663 -0.043093003 0.0064661247 -0.015216268
0000f0 dd 95 98 3d 87 35 82 bd d0 d8 61 bd 88 04 7b bd
       0.07450459 -0.06357866 -0.05513841 -0.06128362
000100 c2 9b 86 3d ca 88 b2 3b a7 84 b6 bd c6 44 05 3c
       0.06572677 0.0054484354 -0.0891202 0.008134073
000110 d0 46 2f bd a0 7a 84 bd dc f4 92 3d 55 b2 d5 3c
       -0.04279214 -0.06468701 0.071756095 0.026086012
000120 35 d0 9c 39 27 d4 8f bd 7b b3 af 3d 21 ad 9f bd
       0.00029909765 -0.07022887 0.08579155 -0.077966936
000130 af c3 9e 3d 64 4c 42 bd 6d 39 ae bc 67 7d e4 3b
       0.077521674 -0.047436133 -0.021267617 0.006972957
000140 2d ad 3c bd 99 07 a0 bd bb b1 b7 bc 6d a0 51 bd
       -0.04606359 -0.07813949 -0.022423616 -0.051178385
000150 f8 8a 24 bc 2c f2 a0 bd 55 17 87 3d f2 23 52 bd
       -0.010042898 -0.078586906 0.06596247 -0.05130381
000160 69 1c 87 bd c4 34 a9 3d 90 38 94 3d 5a 7c 87 3d
       -0.06597216 0.08262017 0.07237351 0.06615515
000170 4a 72 ac bc f4 be 74 bd ad f1 ae bc 21 51 81 bd
       -0.021050591 -0.05975242 -0.021355474 -0.06314302
000180 4e 92 5b bc d3 92 74 bd 7c 1f 3a 3d 55 f9 37 bc
       -0.013401581 -0.059710335 0.045440182 -0.011228879
000190 09 ae 25 3d ab de 8a 3d bd 95 a7 bd bc f5 bd bd
       0.040449176 0.06780752 -0.08182857 -0.09275386
0001a0 b2 3f 97 3c fd 5f a1 bd 23 be ab 3c 49 45 b9 bd
       0.01846299 -0.078796364 0.020964688 -0.09046418
0001b0 ea 48 08 3d 20 28 8f bc 5f 4d 8b ba 66 10 b4 3d
       0.03327266 -0.017475188 -0.0010627917 0.0879219
0001c0 3d 32 f4 3c 13 33 f2 ba 91 d5 9c 3d f5 b1 d4 3c
       0.029809112 -0.0018478356 0.07657922 0.025963763
0001d0 1d dd bd 3c 7c 2f 72 bd 66 e7 3d 3d 48 e3 55 3b
       0.023176724 -0.059127316 0.046363257 0.003263669
0001e0 6a 12 50 bd 80 fe 30 bd 62 29 6e 3d 89 78 b7 3d
       -0.05079881 -0.04321146 0.058144934 0.08958537
0001f0 a1 2d 83 bd cb 35 25 3d 6c 6a a9 bd fd 02 07 3d
       -0.064051874 0.040334504 -0.082722515 0.032961834
000200 c4 d4 4d 3d 85 4c 4f bd 8f 2a 04 3d 18 0c f7 3c
       0.050251737 -0.050610084 0.03226715 0.030157134
000210 1a 61 6f bc 3f 07 6f 3d 2c 42 29 3d 4f 41 72 3d
       -0.014610553 0.05835652 0.041322872 0.059144314
000220 19 ee 89 3c 05 a3 72 bc 0d a8 92 3d 52 f3 e6 bc
       0.016837167 -0.014809375 0.071609594 -0.028192196
000230 da d2 3e bd 50 88 7b bd 42 c1 1b bd 5b 75 07 bd
       -0.046587802 -0.061409295 -0.038026102 -0.033070903
000240 b6 91 38 3d 29 aa 38 bd 5f a8 70 bd ba 26 89 bd
       0.045060836 -0.045084152 -0.05875432 -0.0669684
000250 11 af ff bb 2b 80 a5 bd ef 4a 4c bd 46 56 83 bc
       -0.007802852 -0.08081087 -0.04987615 -0.01603235
000260 fd 01 02 bd 10 62 39 bc 45 7c 1a bc c2 bc 39 bb
       -0.031740177 -0.011314884 -0.009429042 -0.0028341268
000270 c5 62 86 bd e4 1d c6 bc 56 63 2e bd d4 91 05 3d
       -0.065618075 -0.024184175 -0.042575203 0.032609776
000280 4d d2 4a bc 05 4a 16 3c 9d ea a1 bc 3b db 38 3d
       -0.012379241 0.009172921 -0.019765193 0.04513095
000290 8a 53 41 3d c5 9e b4 3d 02 21 1a 3c 8d 94 44 bd
       0.04719881 0.088193454 0.009407284 -0.04799323
0002a0 8f 46 3b bd 51 2d 01 3d 4a ac 9b 3c dc 1a 6b 3d
       -0.045721587 0.031537358 0.019003052 0.057398662
0002b0 cd 81 4f 3d 8f 4e 3d bd cf 34 8d 3d 32 46 86 bd
       0.050660897 -0.046217497 0.06894838 -0.065563574
0002c0 7d a8 e6 bb 8b 1c d3 bb d1 bc 97 3d 3e b8 01 3d
       -0.0070391283 -0.0064426116 0.07409061 0.031669848
0002d0 8b fc 59 bd b0 a5 7b bd b6 f8 9a 3c 70 1d 1d bd
       -0.05321936 -0.06143731 0.018917423 -0.038358152
0002e0 b1 66 ad bc c5 aa ab bd f6 ef 90 3d 28 31 66 bd
       -0.021167131 -0.08382181 0.07077019 -0.056199223
0002f0 5d 20 6f bd 84 16 6d bd 53 26 8b 3d 13 e2 d5 bc
       -0.058380473 -0.0578828 0.06794419 -0.026108777
000300 65 49 1a bd be 93 07 bd e8 66 83 3d 40 25 18 bd
       -0.03766765 -0.033099882 0.06416112 -0.0371449
000310 2b 4d a6 3d a7 b7 8f 3d 35 de cf bc 51 0e 29 3c
       0.08120187 0.07017451 -0.025374511 0.010318355
000320 8b b8 3e 3d 30 3a a3 3d f0 d5 5c 3d f9 94 47 3d
       0.046562713 0.07970083 0.053914964 0.048726056
000330 7f fd 5b 3d 27 76 71 3d 2b 04 bd bd 3e 9f 92 bd
       0.05370855 0.05895057 -0.092293106 -0.07159279
000340 32 93 0d bd 2b 65 9c bd 4b 08 69 bd 4a 4e 8f 3b
       -0.034564205 -0.07636484 -0.056892674 0.0043733465
000350 04 87 a9 3d 1f 84 08 3d 11 58 36 3d 7b 23 06 3d
       0.08277705 0.033329125 0.04451758 0.03274868
000360 c5 ac 85 3d df 39 45 3d 6c ea 88 3d 33 78 2f bd
       0.06527094 0.048150893 0.066853374 -0.04283924
000370 3a ee 8d 3d 66 de 3b bc a0 5e 20 3d 47 dc 5f bd
       0.06930204 -0.011466598 0.03915274 -0.054653432
000380 c8 9c 66 bd 79 25 80 bd 16 7a 7d bd 2c cc 87 3c
       -0.056301862 -0.06257147 -0.06188401 0.016576849
000390 9e 8c 94 3d 2f 35 ae 3b b9 40 15 3d d1 28 b3 bd
       0.07253383 0.0053163986 0.036438677 -0.087480195
0003a0 63 aa a5 bd 66 27 1c bc e5 e1 56 bd ae c6 0b 3c
       -0.08089139 -0.009530878 -0.052461524 0.008531256
0003b0 9e d3 ec 3b 5e aa 41 3d 5b 06 ac bd 20 ab b5 3d
       0.007227375 0.047281615 -0.0839965 0.0887053
0003c0 ca 57 41 3c 31 e6 38 bd a6 b3 43 bd d4 44 a4 3d
       0.011800716 -0.045141403 -0.047778748 0.080209404
0003d0 df f1 09 bd 03 6f 9b 3a ca 5a b9 bd d0 16 90 3b
       -0.033677932 0.0011858646 -0.0905052 0.0043972507
0003e0 89 7a 09 3d 75 5a 2b bd 0c 7e 91 3d 6d 65 b2 3d
       0.033564124 -0.041834313 0.0710412 0.08710752
0003f0 b1 86 84 3c f1 c4 0f bd 6c ed 8f bd cc 50 a6 bd
       0.016177507 -0.035099927 -0.070277065 -0.081208795
