FJSP_MultiPPO/saved_network/FJSP_J30M20/best_value0/policy_job.pth (torch_old, 637559 bytes, 53 tensors)

_input f4 [128]
00000000: 776c 8cbe 4eb7 13bf 21c8 a43e 6ff1 35bf
00000010: 5561 fdbe 1ae3 6fbc f07c 18bf fbbe 6cbf
00000020: 3cdd 73bf 933c 28bd 8c79 063f d62a b2be
00000030: 3cec e1be 7974 a0be 32c7 e53e 3398 083e
00000040: 44c6 0a3f 3c57 94bd 9636 7a3e 16e4 123f
00000050: ce64 e8be 9623 debe 6b87 ffbd 70da e33e
00000060: 125d 50bf e03a 77bf d70d 493f 0211 7cbe
00000070: 0682 3cbf 9f13 f5be ea87 dabc 0801 003f
00000080: 0df2 14be 3383 4bbf b3a7 f43e 7651 bbbe
00000090: 2466 69be b375 adbd db2b 4dbf d349 623f
000000a0: b7e2 8d3d f9af 343f 33cc 2cbf e67b 5e3f
000000b0: eaa7 a2be 6300 f2be 5b8d c9bc 156d 053f
000000c0: 9997 363f b988 a7be 52be adbe a7bb 713f
000000d0: 483f 7c3f b0fb 14bd 498a 043d e489 5fbf
000000e0: f175 62be e351 673f 424d ad3e fdf7 91be
000000f0: 3f04 033d b4c8 413f 198f 78bf 5deb 0bbf
00000100: e498 26be d916 19bd 0e4c e23d 8092 f4bd
00000110: 3b86 ba3b b393 16bf 9878 9b3d 74a9 653f
00000120: b03b 9c3e 015f c63d a8ce 013b 09f1 843e
00000130: 8a5f 7cbf 7019 d73c c405 f63d a4d7 c83e
00000140: 8ee0 01bf 07ae d9be fdc1 9cbd e168 633f
00000150: 58cf cf3d 2827 c13e ba6f 213f 887b 29bf
00000160: 4893 493f e517 7ebe 9f31 6f3e 5f69 cbbe
00000170: a10b 7dbf b364 a13e 9ea1 453f e637 633d
00000180: a689 69bf 9777 233d bd19 8abe 1597 133e
00000190: d968 36bf abb5 35bf 9e82 45bf c8ca b8bc
000001a0: 20c3 57bf b177 7dbe 0494 75bf e8f4 013f
000001b0: ffc0 363f 6d7d 50bf 3076 e7be 5bea 6fbf
000001c0: 779b 3c3f 1d16 46bf df4a 75bf bb2f 0dbf
000001d0: f49f 3d3f 00b6 5d3f d5d0 f1be 6db4 79bf
000001e0: e6ad 75be 0b92 943e 9af7 d63e 92b8 473f
000001f0: 6a8a 323e 782c c63e c080 b63e 7498 23bf
-0.27426502 -0.57701576 0.32183936 -0.71071523 -0.4948832 -0.014641548 -0.5956564 -0.92478913
-0.9525945 -0.041073393 0.52529216 -0.34798306 -0.44125545 -0.31338862 0.44878536 0.1333931
0.5420878 -0.07243201 0.24434885 0.5737928 -0.45389408 -0.43386525 -0.12477001 0.44502592
-0.81392014 -0.9657421 0.7853674 -0.24615863 -0.736359 -0.47866532 -0.026676137 0.50001574
-0.1454546 -0.7949707 0.47784194 -0.36585587 -0.2279287 -0.08469715 -0.80145043 0.88393897
0.06928008 0.7058101 -0.67499083 0.86907804 -0.31768733 -0.4726592 -0.024603536 0.5211957
0.7132507 -0.327215 -0.33934265 0.9442696 0.9853406 -0.03637284 0.03235844 -0.8731978
-0.22115304 0.90359324 0.33848006 -0.28509513 0.03198647 0.75696874 -0.9709335 -0.5465601
-0.1626926 -0.037375305 0.110496625 -0.11942005 0.005692271 -0.5881912 0.07591361 0.8971169
0.30514288 0.09686089 0.0019807015 0.25965145 -0.9858328 0.026257247 0.120128185 0.3922702
-0.5073327 -0.42515585 -0.07654188 0.8883191 0.101469696 0.37725186 0.63061106 -0.6620412
0.7874036 -0.24813803 0.23358773 -0.3972883 -0.9884587 0.3152214 0.77199733 0.05547323
-0.9122566 0.03990897 -0.26972762 0.14413102 -0.71253735 -0.7098033 -0.7715243 -0.022557631
-0.8428211 -0.2475269 -0.9592898 0.5076432 0.7138824 -0.81441385 -0.45207357 -0.93716973
0.7367472 -0.7737749 -0.9581737 -0.55150956 0.74072194 0.86605835 -0.4722964 -0.9754093
-0.23992118 0.29017672 0.4198578 0.78016007 0.17435613 0.38705802 0.35645103 -0.639045

bn.weight f4 [2]
00000000: 0000 803f 0000 803f
1.0 1.0

bn.bias f4 [2]
00000000: 0000 0000 0000 0000
0.0 0.0

bn.running_mean f4 [2]
00000000: 0000 0000 0000 0000
0.0 0.0

bn.running_var f4 [2]
00000000: 0000 803f 0000 803f
1.0 1.0

encoder.feature_extract.mlps.0.linears.0.weight f4 [128, 2]
00000000: 7768 833e 8b04 1dbf 8b5e 093f 6fd3 2cbf
00000010: 49a2 c53e 242c 1b3e d9ca 9f3e 0c29 87bd
00000020: 9dc5 a4bc 2093 a73e 179e 8dbe b91c e73c
00000030: ffdf 0b3f 695b 243f 8f3c 9abe f8a6 0fbe
00000040: bf2c 043f 5385 51be d9d3 283f b7c1 cebe
00000050: 0a07 1b3f cd63 f0be 54ad 303f dae3 2b3f
00000060: 999f 2ebf 0fd3 0b3f d499 cc3e 641e 9a3e
00000070: 7c1c 313f f193 b53d 903d 033f d211 2d3f
00000080: f3f5 623e 15b1 28bd e98a 2e3e e928 1a3f
00000090: d088 02bf 5560 24bf 07d2 913e 1d35 113d
000000a0: 0d30 b03c 1697 27be 3376 923e 893c 57bb
000000b0: 82cc 7a3e b3d6 2abf 3a19 c8be a694 a83e
000000c0: 2243 26bf f6d3 9c3e 32e4 e83d f57b 16be
000000d0: 29c5 38be b4bd 09bf 64b7 33be 67a0 1dbf
000000e0: e5e6 95be 0bfe 71be 267b dd3e d88c d53e
000000f0: a7cf a6be 09f2 133f b4bf 1b3f 8428 a53d
00000100: 54c3 95be 22e9 d43e 7719 863e f550 053f
00000110: 1a9e 72be d004 5dbe 38ff f3be 865d fa3e
00000120: 483c 073f d27f 283f d30a 763e ded8 563e
00000130: 9e03 33bf c48a d7bd 8bbd ce3e a2fb e73e
00000140: 07aa 87be 0248 343f e11c 793e 41a7 de3d
00000150: d900 dbbe c9eb e0be 03eb 0bbf 7780 2abf
00000160: 3edd ccbd 3701 4b3e 9a2a 143f 3b1c d43e
00000170: 4867 ad3d ff46 bb3e b9d7 93be e919 063f
00000180: 6964 113f cd0c 113f f40a e3be ac52 1bbf
00000190: a364 0dbf 1e08 603e ffea 84be 664b 5c3e
000001a0: 3336 01bf 6742 dbbe 91a2 b4be 730c 0bbf
000001b0: 03bc 133f 048f 4bbd 0506 04bf 7886 90be
000001c0: 2053 e63e f650 14be 3935 1b3f 9a93 503e
000001d0: 84a6 b4be 052d fa3e e0ea d3be f646 093f
000001e0: 5150 99be 2c36 df3d c4e3 2c3e 8639 ab3e
000001f0: 0074 32bf 8c60 043f fd7a d13e 0ed5 acbd
00000200: 5161 2b3f d861 02be ed00 0d3d 18ca f2be
00000210: 0e32 fbbe 61d2 8c3e 2984 2d3f e5b7 323f
00000220: a137 97be f95b 773e 46e6 8cbc a2b0 f33d
00000230: 3007 7b3e b3f4 c8be d482 f33d dc16 023f
00000240: 2f2f 363e 3976 1fbf 873a 03bf 4bdb 313f
00000250: c5ad 20bf a5dd 8bbe dbcc e13d a82c b4be
00000260: da0d 0bbd ebda 233f ed92 24bf ba45 99be
00000270: 0175 f5be 03a4 8bbe d55e 253b fb1a 4abe
00000280: 5617 1d3e e5de 3b3d 1d3a 223f 8446 1ebf
00000290: f836 4dbb ec1b b4bc 6cff f73e d16d 60be
000002a0: ae50 8cbe 4119 1e3f 0db4 263f da28 313f
000002b0: 1d6b 8c3e 5f81 0a3f 391b 0e3f 243d 673e
000002c0: 2a89 103f aeb4 053f 61a7 8dbe a6d2 af3e
000002d0: 90ef 4a3e 509c eabe a484 073f 2a0c ecbe
000002e0: a762 e63d ff14 8f3e be4e babe cd56 a6be
000002f0: a19f 233f 05d3 c23d 0ba0 d3be 0fe2 3fbe
00000300: 51b6 233f 657c e4bb 6602 1bbf c009 e43e
00000310: fdeb 4dbe 486c 823d 5ba7 27be d91d 56bd
00000320: 5096 14bf 2c7a 143f 716e 8e3d 0c44 90be
00000330: 744d 79be baa5 97be 90a5 753d 3eb0 91be
00000340: e7f4 193f fe1a 7f3e 2a34 483e 3d48 8fbe
00000350: ff44 13be 6a06 6fbe 998a 7e3e d420 003f
00000360: c981 d6bd d832 79be 182a 1d3f 9aa3 11be
00000370: 174f 203f 2b9e 0f3f a8a4 14bf 993c 87be
00000380: 270c 3cbd 1f56 cabe 79b9 5dbe f9b0 8dbe
00000390: 40f1 dabe 232d 843e e8ed 1b3d 9ae2 5ebe
000003a0: ec79 113f 2a1c 61be 4561 1fbf 2daa 3d3e
000003b0: d26e bb3d 293b 97be 5eef 833e 917c 0f3f
000003c0: f6b8 02bf 706e 96be 45b6 4f3e 7c3f bc3e
000003d0: 061b 43be 38fc 743e 11c7 19bf 7e20 d03e
000003e0: d211 81be d657 213f 420a 643e 62df 19bf
000003f0: 1fa0 e93e 7eea 0bbd 345d 6d3e 0d78 3fbe
0.25665638 -0.6133506 0.53659886 -0.6751012 0.38600376 0.15153557 0.31209448 -0.06599626
-0.02011376 0.32729435 -0.27659675 0.028211938 0.54638666 0.6420198 -0.30124328 -0.14028537
0.5163078 -0.20461015 0.65948254 -0.40382168 0.60557616 -0.46951142 0.6901448 0.6714455
-0.68212277 0.54618925 0.39961112 0.3010131 0.6918409 0.08866108 0.5126581 0.67605317
0.22164135 -0.041184504 0.17045178 0.60218674 -0.5099001 -0.6420949 0.2848055 0.035451043
0.021507287 -0.16366228 0.28605804 -0.0032842478 0.24492076 -0.66733855 -0.39081746 0.3292591
-0.64946187 0.30630463 0.1137165 -0.14695723 -0.1804396 -0.5380509 -0.17550427 -0.6157288
-0.2927772 -0.23632066 0.43258017 0.41709018 -0.325803 0.5779119 0.6083939 0.08064368
-0.29250586 0.41584116 0.26191303 0.52076656 -0.23693123 -0.21583867 -0.47655654 0.48899478
0.52826357 0.6582004 0.24027567 0.20981166 -0.69927394 -0.10524514 0.40378985 0.45309168
-0.26496908 0.70422375 0.24327423 0.10871745 -0.42774084 -0.4392989 -0.54655474 -0.6660227
-0.10003136 0.19824682 0.57877505 0.41427788 0.08466965 0.36577603 -0.2887552 0.52383286
0.5679384 0.5666016 -0.44344294 -0.6067302 -0.55231684 0.21878096 -0.25960538 0.21513137
-0.50473326 -0.42824098 -0.35280278 -0.5431587 0.5770876 -0.049696937 -0.51571685 -0.28227592
0.44985294 -0.14484009 0.60628086 0.20368806 -0.3528329 0.48862472 -0.41390133 0.536239
-0.2994409 0.10899004 0.1688376 0.33442324 -0.6970825 0.5170982 0.40914145 -0.084390745
0.6694537 -0.12732637 0.03442471 -0.4741981 -0.49061626 0.27504256 0.67779785 0.6981185
-0.2953463 0.24156179 -0.017199647 0.118989244 0.2451446 -0.3924919 0.11890188 0.5081613
0.17791437 -0.6228977 -0.5126118 0.6947524 -0.6276515 -0.2731754 0.11025401 -0.3519032
-0.033948757 0.6400592 -0.6428669 -0.2993601 -0.4794083 -0.2727357 0.0025233526 -0.19736855
0.15340933 0.045866866 0.63369924 -0.6182635 -0.0031313282 -0.02198597 0.4843706 -0.21916892
-0.27405304 0.61757284 0.65118486 0.6920296 0.2742547 0.54103655 0.5551029 0.22581917
0.56459296 0.5222882 -0.27666762 0.343404 0.19817948 -0.45822382 0.5293677 -0.4610303
0.11249285 0.27945706 -0.363882 -0.324881 0.6391545 0.09512905 -0.4133304 -0.18738578
0.6395007 -0.006972837 -0.60550535 0.4453869 -0.20109554 0.06368309 -0.16372435 -0.05227456
-0.5804186 0.5799892 0.06954659 -0.28176916 -0.24345952 -0.29618627 0.059972346 -0.28454775
0.60139316 0.2491264 0.19551149 -0.279848 -0.14381789 -0.2334229 0.24857558 0.5005009
-0.10473973 -0.24335802 0.61392355 -0.14222565 0.6262068 0.5610072 -0.58063745 -0.2641342
-0.045910027 -0.3951883 -0.21652783 -0.27674082 -0.42762184 0.25815687 0.038068682 -0.21766129
0.56826663 -0.219834 -0.62257797 0.18521948 0.09151997 -0.29537323 0.2576856 0.5604945
-0.5106348 -0.29381132 0.20284374 0.36767185 -0.19053277 0.23924339 -0.60069376 0.4064979
-0.25208908 0.6302465 0.22269538 -0.6010648 0.45629975 -0.034159176 0.23180085 -0.1869814

encoder.feature_extract.mlps.0.linears.0.bias f4 [128]
00000000: d265 e43d 1896 163f 2671 823c 7498 973e
00000010: 0e38 0abf 3bc5 5cbe 9e1a c7bb 3f9d de3e
00000020: 0f99 8abe ee21 d7bd 8244 103e 3dbf f33d
00000030: 60bd ca3e 9b93 4cbe 2ae7 1f3f 86c0 bc3e
00000040: ed15 04bf 3efb 1bbf 7d81 ac3e 3fb4 c1be
00000050: db14 e43e cfb4 f13e e928 203f 1a4c 09bf
00000060: 6eda 10bf 2ce0 30be dc98 c5be c2fd 44bd
00000070: dd2d 1fbe 11a1 0bbd 9f4f b0be 062a 32bf
00000080: 6f69 813e b51b 523e da2c dcbe 4011 04bb
00000090: ce00 5a3e 8ba3 69be e89f 91be bfe7 ddbe
000000a0: 11ca 8d3e 745d 89bd 073a bf3e 58f4 ebbe
000000b0: 6d71 373e ab96 d0be 43d0 443e 6b0c f53e
000000c0: aa3f 04bf cace 13bf 913a 983d bf07 adbe
000000d0: c234 1f3f bdfe 2fbf 0085 343f 08ee 22bf
000000e0: a823 1c3f db35 eb3d b2f1 fe3e d152 0e3e
000000f0: 6746 a4be 342c 433e b094 c93e ae03 1f3e
00000100: e672 6c3e 6bb8 3fbc 88b8 c6be 0b9b fabe
00000110: e474 d43e 261f 1f3f fa33 2dbf 4dc8 2cbf
00000120: 5c47 2a3f 97e6 81be 1e21 04be 4eb1 a83d
00000130: bcb7 6ebe 10a4 dc3e 71f8 3c3e 1f07 34bf
00000140: 8f62 c13e 63ad eabe 8566 66be 7206 24bf
00000150: c181 293f c10d 42be 121d 333d d833 d63d
00000160: b2b7 cfbc 614a ed3e 1acc 1ebf c395 723e
00000170: 7463 1abe 4874 343f 366b 19bf 119a 6c3d
00000180: 7b5e 32bf 85d2 34bf 2471 1cbe c928 6b3e
00000190: 7245 123f 3114 e8bd 7056 f2be 17a9 5d3e
000001a0: 8a38 2e3f f53c 33be 9c75 083f bf60 053f
000001b0: e6fd 8fbe 5374 23bf 72a3 1abf 9214 4bbe
000001c0: 7b2a 05be 54fc b63e 32c6 ca3e a0f7 6a3e
000001d0: 31f0 223f b82e 41bd 21b5 eb3e 0fd0 313e
000001e0: 61e5 2bbf 786f d0be d89c eabc ef93 92bd
000001f0: 8d35 9f3e a1ce e7bd 78dd aabe 8f7c a1be
0.11152233 0.58822775 0.015923094 0.296085 -0.5399178 -0.21559612 -0.006076171 0.43479344
-0.270699 -0.105045184 0.14088634 0.1190171 0.39597607 -0.19978182 0.62462103 0.36865634
-0.51595956 -0.6093024 0.33692542 -0.3783283 0.4454716 0.47208259 0.62562424 -0.53631747
-0.565833 -0.17273015 -0.38593185 -0.048093565 -0.15544839 -0.03408915 -0.34435746 -0.6959537
0.25275752 0.20518382 -0.4300297 -0.0020151883 0.2128937 -0.22816293 -0.2844231 -0.4334087
0.27693227 -0.06707278 0.3734896 -0.46084857 0.17914362 -0.4073995 0.1922007 0.47861037
-0.51659644 -0.5773741 0.07433046 -0.33794972 0.6218988 -0.68748075 0.7051544 -0.63644457
0.6099191 0.114848815 0.49793774 0.1389878 -0.32084963 0.19059831 0.39371252 0.15528747
0.23090705 -0.0117016835 -0.3881266 -0.48946413 0.4149543 0.62156904 -0.67657435 -0.67493135
0.66515136 -0.2537124 -0.12903258 0.08236943 -0.23312277 0.4309392 0.18454148 -0.70323366
0.37770507 -0.4583541 -0.22500046 -0.64072335 0.66213614 -0.18950559 0.043728895 0.10459107
-0.025356147 0.4634581 -0.62030184 0.23689942 -0.15077001 0.7048993 -0.59929216 0.057764117
-0.69675416 -0.7063373 -0.15277535 0.22964777 0.57137215 -0.11331976 -0.47331572 0.21646534
0.6805502 -0.17503722 0.5330446 0.5210075 -0.28123397 -0.6384937 -0.6040565 -0.19832066
-0.13004486 0.35739386 0.39604336 0.22946024 0.63647753 -0.047163695 0.46036628 0.17364524
-0.6714688 -0.40710044 -0.028639242 -0.07157122 0.31095544 -0.11318708 -0.33372092 -0.31540343

encoder.feature_extract.mlps.0.linears.1.weight f4 [128, 128]
00000000: e421 03bd f4c1 63bd e874 8a3d 3782 6abd
00000010: 6a1f 103d 2a1b 8cbd 6a1c 90bc 4107 8dbd
00000020: f584 143d a785 bfbc 19f2 65bd 1acd 80bd
00000030: 1c39 9cbd 857d 82bc 6269 5cbc acde 41bd
00000040: dd31 1b3d f1c5 b03d 718e a5bd 5016 93bd
00000050: 9e71 51bd 2b21 ebbc 6ded 413d a3a1 b6bd
00000060: 746f 92bb 7a55 7c3d a421 903d dc0e 8f3a
00000070: 9ac5 a6bc 72d2 7d3d c934 48bd 910f bb3c
00000080: f5d3 8f3d 3079 73bd d942 a6bd 7e27 59bc
00000090: f7b7 6d3b 700e 643c a548 91bd 5052 343d
000000a0: 5847 5dbd b283 923d bf81 143b cb0f 30bd
000000b0: 72e0 f1bc b7c5 80bd 8977 1dbd bbe0 8c3d
000000c0: 2110 0b3d 4130 553d e60d adbb b1d5 5f3d
000000d0: ff5c 32bd 350d 893d f34b 853d 345b 2dbd
000000e0: 6e94 b3bd 91b3 8d3b c8f3 29bd 470c 6b3a
000000f0: 28c3 153d 1abe a3bd a0c4 213d 268c a9bd
00000100: d65a 6a3b 65af ee3c 866b bbbd 3151 93bd
00000110: 8537 a83c cf7f 85bd 8704 c439 7e4d 18bd
00000120: d8f6 85bd 8e5b 633d be9e aa3d 7fcc 303d
00000130: 0861 093c 6e15 803b ee98 87bd 80bb 3fbd
00000140: 8958 b5bc bb5f 1d3d 9a9c 03bd 911e 31bd
00000150: 6d8c 773d cffc bd3c e1fd 0f3d 7b63 5bbd
00000160: 437b 833c 24a8 8abd 2661 5b3d 6039 133d
00000170: d1f1 4fbc dff3 cf3c cd00 92bc 6c06 943d
00000180: 2308 883c 1566 ae39 5ef9 6ebd f26f f7bb
00000190: b1c5 c6bc d03e 2cbd 81d7 a93d 0a33 713d
000001a0: 109e 803d 0391 e73c 92ee bd3c 0b93 393d
000001b0: 45dc 5f3b b655 273d 3bd0 973d f24d 63bd
000001c0: 46de 41bd 6e49 00bc 7913 b7bd 3868 4a3d
000001d0: c82e 873d e7cc e3bc e177 d9bc 344d 62bd
000001e0: 5c20 8e3d 8076 8a3c 949b acbd 0878 96bd
000001f0: 2e03 1dbd ba37 7b3d d73c 97bb 97b1 14bd
00000200: dd5a b9bd 7471 6bbd f52d 6d3d de38 35bd
00000210: 40d5 9f3d 3d65 6bbd a567 df3c 3a7b a23d
00000220: 3306 0c3c 32ba bb3c a3fd 3a3d 5fa6 be3c
00000230: f647 203d 3452 093d a203 aabd e17d 8abd
00000240: 77f6 2c3d ba12 3cbc ce98 96bd 21b2 ed3b
00000250: 55fc 183d 7973 993d df8f a7bc b684 97bd
00000260: 00e6 9b3c 4f6a 213d dded 9abc 4062 7c3c
00000270: b4ae 9b3d 1bc5 11bd 5035 8bbd aac9 423c
00000280: 15e8 b03d 94fe 2dbd 2b8f fb3c cf38 9f3d
00000290: 5f1a 77bd 6fa5 2bbc a6df 6f3d 7fd2 073b
000002a0: 00e3 723b 1f7b d8bb ea40 3d3a 09a4 02bd
000002b0: e04e 7bbb d330 813d 6094 4c3d 5069 2cbd
000002c0: 3721 88bd 4e0b 083d 4c66 5c3d 73d8 c23b
000002d0: a41e 08bd 3710 113d 2f46 4ebd 20a7 79bd
000002e0: 51f0 813b ceba 8bbd 408f 783d 2cd9 01bd
000002f0: 406b 22bd 0b04 b6ba a1dd af3d 84a6 8cbd
00000300: ee07 6dbd 0fd2 4639 c055 95bd 708c 36bd
00000310: 46a8 97bc 6c95 6ebd 070a 92bd 78bd 4fbc
00000320: cb6b c43c fadc 5f3d 9f17 4cbd 81a3 b9bd
00000330: 54bd 883d d278 a83d 16a8 863c e181 9e3c
00000340: c360 6b3d 6018 0b3d 8a54 28bc 34c0 943c
00000350: 270d 44bc 42be 413d 8591 71bd c6f6 083d
00000360: 95bc 9b3d 064f 9bbd d53c 86bc 76ca 27bd
00000370: 12d5 0bbd d498 903d 0971 023d bbad 043c
00000380: 683f 96bd 448f 43bd 28dd ee3b db56 8a3c
00000390: dda0 7a3b 5a78 2bbc 56d7 98bc 189a 10bc
000003a0: 7fc5 05bd ef15 903d a5b3 9fbd bf86 523c
000003b0: f166 c3bc 3c5f 25bd a520 ec3c c661 2d3d
000003c0: a376 973c 4cb0 a83d 9ca4 aebd b59a 38bc
000003d0: 7dd5 b0bd 54b8 b43d a6c8 d23c 3233 15bd
000003e0: 854a 9cbd 6ff1 2abd 1799 05bd 8cba 873d
000003f0: 49a5 243b 00a0 98bd 04c4 873d dca8 883c
-0.032014742 -0.05560489 0.06760579 -0.05725309 0.03518621 -0.06841119 -0.017591674 -0.06886149
0.03625961 -0.02337916 -0.056139085 -0.0628912 -0.0762808 -0.015928993 -0.01345286 -0.047331497
0.03788935 0.08631504 -0.08083809 -0.0718199 -0.051133744 -0.02870234 0.047345567 -0.089175485
-0.0044688527 0.061604954 0.070376664 0.0010914463 -0.020357896 0.061968274 -0.048878465 0.022834571
0.070228495 -0.059441745 -0.08118219 -0.013254045 0.0036272982 0.013919458 -0.07093934 0.04402381
-0.054023117 0.07154025 0.0022660343 -0.04298381 -0.02952597 -0.06287711 -0.038444076 0.068788014
0.03395093 0.05204797 -0.005281198 0.05464715 -0.04354572 0.06691972 0.06508627 -0.042323306
-0.08768545 0.0043243845 -0.041492254 0.0008966368 0.03656307 -0.07995243 0.039494157 -0.08278684
0.003575971 0.029136369 -0.09151368 -0.071932204 0.020534286 -0.06518518 0.00037387406 -0.037183277
-0.06541222 0.055507235 0.08331059 0.043163773 0.00838495 0.0039088046 -0.06620966 -0.046809673
-0.022136943 0.038421374 -0.03213177 -0.04324204 0.060436655 0.023191838 0.035154227 -0.05356167
0.016049987 -0.067703515 0.053559445 0.03594339 -0.012691931 0.025384841 -0.017822647 0.072277874
0.016605442 0.00033263923 -0.058343284 -0.0075511867 -0.024264188 -0.04205209 0.08293057 0.058886565
0.06280148 0.02826739 0.023185048 0.045306247 0.003415839 0.040853225 0.07412764 -0.055494256
-0.047331117 -0.007830007 -0.08939261 0.049415797 0.0660072 -0.027807666 -0.02654642 -0.055249408
0.06939766 0.016902208 -0.08428112 -0.07347113 -0.03833311 0.061332442 -0.004615407 -0.036302175
-0.09050534 -0.057481244 0.057905156 -0.044243686 0.07804346 -0.057469595 0.027271101 0.0793366
0.0085464 0.022915933 0.045652043 0.023272691 0.039131127 0.03352566 -0.08301474 -0.06762291
0.042227235 -0.011479074 -0.07353364 0.0072539006 0.037350018 0.07492728 -0.020454345 -0.073983595
0.019030571 0.039408024 -0.01891225 0.015404284 0.07601681 -0.035588365 -0.06797278 0.011888901
0.08638016 -0.042479113 0.030707916 0.07774507 -0.060327884 -0.010476454 0.058562897 0.002072483
0.0037061572 -0.006606474 0.0007219451 -0.031894717 -0.0038346574 0.063081406 0.04994619 -0.04209262
-0.0664696 0.033213906 0.053808495 0.005946213 -0.033232346 0.035415854 -0.0503599 -0.0609504
0.0039654155 -0.068227395 0.06068349 -0.031701252 -0.039653063 -0.0013886703 0.08587194 -0.06867698
-0.05786889 0.00018961004 -0.07291746 -0.044567525 -0.018512856 -0.05824797 -0.07130819 -0.01267945
0.023977181 0.0546541 -0.049827214 -0.09064389 0.066767365 0.0822617 0.016437571 0.01934904
0.057465326 0.033958793 -0.010274062 0.018158056 -0.011966026 0.047300585 -0.05897667 0.033438466
0.076043285 -0.07583432 -0.016386429 -0.040964566 -0.034138747 0.070604 0.03184608 0.008098061
-0.073363125 -0.04774405 0.0072895475 0.016887119 0.0038242855 -0.010465706 -0.018657368 -0.008825801
-0.03265905 0.070354335 -0.07797936 0.012849509 -0.023852797 -0.040374026 0.02882416 0.042329572
0.018489188 0.08236751 -0.085274905 -0.011267354 -0.0863447 0.0882422 0.025730442 -0.036425777
-0.07631401 -0.041734155 -0.0326167 0.06627378 0.0025122932 -0.074523926 0.06629184 0.01668208

encoder.feature_extract.mlps.0.linears.1.bias f4 [128]
00000000: 9adf aa3c d5d0 20bd b01d 8f3d f505 f4bc
00000010: e72a 973d b1b8 52bc e705 1cbd b81c 1f3c
00000020: ea87 98bd 4aba 1f3d 48b4 eabc 9210 6a3d
00000030: 4ed7 123d e725 ae3d cd46 4a39 21e3 acbd
00000040: 663a 913d 4957 9b3d c390 3b3d 822f 0d3d
00000050: afcc 04bd 58cf 603d 9e2f b23d 712f 22bd
00000060: 84ed 52bd 1263 c9bc 7818 903b 657e c23c
00000070: 2c04 97bd dab8 c2bb 0634 5d3c 18b0 e2bc
00000080: 7b73 7a3d f20b 9f3d 10a4 813d 9eca f1bc
00000090: d05a 97bd 68b3 b5bd 748d 36bc 3c0a 79bb
000000a0: 9714 afbd 044d 91bd 835c 993d fde4 2cbc
000000b0: 0123 fc3c d0a6 ae3d 535b f8bc a98e 59bc
000000c0: 3ac8 5abd fa28 863d ae62 21bd e89b bb3c
000000d0: cb94 9dbd 3942 a63d b479 9dbd 2ec3 7cbd
000000e0: fb3a 8a3c c777 1d3d 042e 4a3d c78b 7a3d
000000f0: be01 a53b ae43 573d 9d59 ab3d 9d96 333c
00000100: dc01 5b3d 53a6 753d 6478 8cbd 91cc c73c
00000110: 59a5 ae3d 7c64 ad3d 4d93 d73c 2e94 763d
00000120: 480d a43c 2d2b b2bd 2201 193d 8022 85bc
00000130: a9d7 65bd 5f93 1d3d e982 8bbd fd74 9f3d
00000140: fc4f b43c 6165 473d f969 84bd 60cd d83c
00000150: 76ee 193d 67d3 a93d 37fe 5f3d a5a9 8b3d
00000160: 45e1 f33c 5f32 533d fabc 7bbd 9f61 89bd
00000170: 8ed3 87bd 7b83 b73d f922 513d a218 72bd
00000180: 4ca0 aebd d403 3f3d 1091 2f3c 54a9 86bd
00000190: 3f2b 17bc ec98 823d 2f39 fabc f19b 56bc
000001a0: dae3 533d 3b4d 473c 7b42 cbbb 3207 3d3d
000001b0: 8aa3 59bd 46bf 433c 7dc8 3b3d 099c 43bd
000001c0: 916f 563d 1545 98bd fa75 243d 2702 9d3d
000001d0: 1607 493c d08b 46bd 664f d13c a18f 173d
000001e0: 3947 5cbc 91ec 82bd e078 77bb 5f84 293d
000001f0: 4506 5c3d 3147 9ebd 734e 0d3d 75c1 95bd
0.020858575 -0.039261658 0.06988084 -0.029787997 0.0738123 -0.012861417 -0.038091566 0.009711437
-0.074477986 0.03899602 -0.028650418 0.05714471 0.03584986 0.08503323 0.00019290597 -0.08441759
0.07091217 0.07585008 0.045792352 0.034469135 -0.032421764 0.05488524 0.087004885 -0.039596025
-0.051496044 -0.024583373 0.004397448 0.02374191 -0.073738426 -0.005942446 0.013501173 -0.027671859
0.061145287 0.0776595 0.063301206 -0.02951556 -0.07390368 -0.0887211 -0.0111421235 -0.0038000485
-0.08548849 -0.07094768 0.07488348 -0.010552642 0.03077841 0.08527911 -0.030316984 -0.013278642
-0.053413607 0.065507844 -0.03940075 0.02290149 -0.07694396 0.081181 -0.07689229 -0.061709575
0.016873827 0.038444307 0.04936029 0.06116846 0.005035608 0.05255478 0.08366702 0.010961202
0.05346857 0.059973072 -0.068589 0.024389537 0.08527631 0.084664315 0.026315356 0.06019991
0.020025864 -0.086996414 0.037354596 -0.016251802 -0.056113873 0.038470622 -0.068120785 0.077859856
0.022010796 0.048680667 -0.06465525 0.026465118 0.03758093 0.08292275 0.054685798 0.068194665
0.029770503 0.05156171 -0.06145952 -0.06708073 -0.06632148 0.08960625 0.051058743 -0.059105523
-0.08526668 0.04663451 0.010715738 -0.065752655 -0.009226619 0.06376824 -0.030544845 -0.013098703
0.051730968 0.012164409 -0.0062029934 0.04614944 -0.05313448 0.011947459 0.045845497 -0.04775623
0.05235249 -0.07435051 0.040151574 0.07666426 0.012269756 -0.04847318 0.025550555 0.03700221
-0.013444715 -0.06392778 -0.0037761256 0.041386005 0.053716917 -0.077284224 0.034498643 -0.073122896

encoder.feature_extract.mlps.0.linears.2.weight f4 [128, 128]
00000000: e97a 8139 cfe0 a53d 70d3 813d a668 033c
00000010: 365f 92bd a377 2c3c 6d56 823c e1ec 65bd
00000020: 2289 bcbd 752b 9a3d 975a 85bd 8e9e 473c
00000030: b757 963d 1458 543d a9c6 b63d ce01 193d
00000040: fdbd 86bc 09e9 acbd 2349 87bc 7eba 02bd
00000050: 006f 49bd 386c 483d 5b37 a8bb 4c0c 673d
00000060: e4c3 a8bd f2ee 773b e834 95bd e9c3 48bd
00000070: 9f76 4f3b f7ac 953c f345 593d 5d42 a83d
00000080: 5546 acbb 2d6a 0f3d 92f1 e03c d35e b43c
00000090: 7261 723d ae3e b63d b349 7e3d f5f0 8f3d
000000a0: a680 9f3d 17c7 313d f77d ab3b f172 83bb
000000b0: 6042 903b 79f1 023d efef 27bd 6f47 b9bb
000000c0: edbd 933d 3a56 8cbc 2620 0f3b ed04 0f3d
000000d0: 433d a03c a76f b03d 3c20 253b e3d0 8dbd
000000e0: 174b ea3c f94a 67bd 3bcb 49bd 7e88 9c3d
000000f0: b8de 00bb c933 e13c d8b5 723b 9bf7 02bd
00000100: b172 4f3d 5139 3d3d cfb4 e9bc 2f11 b33d
00000110: 7813 96bd f91a d13c c799 5e3d 5cf9 a2bd
00000120: 4374 0bbc 4fe5 0f3d 1dbf 863d 3e0d 4ebc
00000130: b889 45bd 39dc 963c 11df 293d ebd3 423d
00000140: 55a0 9fbd 067d a0bd e265 6dbd 60ec 82bd
00000150: 46f8 173d 3cb7 dfbb 84d2 d7bc 2b33 60bd
00000160: 90d2 aebc 18bb 05bc 19cc 9ebd 66d9 683d
00000170: 77f5 07bd f0e3 49bd 5bab 89bc f90b 5ebd
00000180: 2d3d 273d 46bf 993c a167 18bd da67 80bc
00000190: 049f 8dbd 15c7 553d f480 133c 6d00 85bd
000001a0: 2f0b 933d 5778 10bd cc9b 083c 9582 97bd
000001b0: e0c4 973c 5335 c4bc e852 32bd a77c 34bc
000001c0: 144c 173d c261 56bd 63a0 26bd 9bd0 793d
000001d0: eb79 8abd 4cf7 18bd d945 a5bd 542d 54bb
000001e0: 0741 833d 5cc6 6bbd ee2f 9fbd 0d66 973d
000001f0: 9cbd 8bbd 49d3 193d 65e0 a3bc 4966 97bd
00000200: 0ead 9f3d f616 813d ff0a 7d3c effd 7e3d
00000210: cced f03c d710 813c 7943 9cbd 39a5 1ebd
00000220: cffe 23bd 9477 06bb a68f d1bc 1c60 353d
00000230: ddaf 223d c52c 4d3d 18d8 9d3c 2c3e 82bd
00000240: d550 98bc d784 373d 9817 7e3d 7908 83bd
00000250: ed8d 3a3d 4469 a33d 4281 d8bc a689 123d
00000260: b462 8ebd 3a89 453c 7ad4 67bd 6482 a1bc
00000270: 2502 a5bd 3d98 a8bd ad3a 473d d03e a83c
00000280: 64b8 e1bc 0a6f 81bd d8d8 52bd a703 033c
00000290: 00e4 a03d 7cf8 6ebd f4ca e13c 2415 003d
000002a0: d7c4 423d 6c71 a4bd 5570 953c 3f9f 023d
000002b0: 49a1 553c 363c 38bd e4d2 6b3d 61dc 693d
000002c0: c8d0 8abd c8ad 9f3d 3c83 92bd dd62 053d
000002d0: f609 1c3d fb69 ae3d 9d29 a43d d107 67bd
000002e0: 8a79 273b 0b5d fb3c ec9f a43d 7585 39bd
000002f0: bf72 333d cf92 3cbd 993c b2bd 17c9 0f3c
00000300: 9c51 6b3d 028e 3e3d 1c31 9cbc 25f4 d93c
00000310: f642 b43d 1883 95bd d8ad 87bd e012 5e3d
00000320: 4868 b93c 96e5 40bc b479 18bd 5212 9cbc
00000330: 74bc 3a3d ce4d 2a3d 1ba5 153d 9836 84bd
00000340: 86c5 a4bd e8b3 8a3d 9948 10bd 859b ac3c
00000350: e49a a4bc 498c 013d 5057 19bc 5efe 343c
00000360: 1d2c 633d 3b28 b1bc dd4c 59bd 01d3 3cbd
00000370: 68ae 9b3c c6dc 583d 8a67 90bd 380f a43d
00000380: 47af a0bd 6319 b3bd 422d 053d 9e8e 283c
00000390: b581 acbd 9123 32bd db6d 4abd 6f3a aebd
000003a0: fbe9 96bd 647c 833d 87ad 443c d9e9 0f3c
000003b0: cd87 44bd 4001 acbd 1158 e8bb e79b 2e3d
000003c0: 8579 c73c 30f0 823d adfd 7e3d 956f 023d
000003d0: bb34 43bd e631 8a3d 4be6 1bbd 2bc4 9e3d
000003e0: cbdb ac3a 3182 27bd a215 36bc c193 cc3c
000003f0: 61b6 433c 8189 8dbd efec 4cbd 081d 523c
0.00024696373 0.080995195 0.06339157 0.008020556 -0.07147066 0.0105265705 0.015910352 -0.05613411
-0.092058435 0.0752782 -0.06511419 0.0121837985 0.07340949 0.05184181 0.0892461 0.037355237
-0.016448015 -0.084428854 -0.016514366 -0.031916134 -0.049178123 0.04893133 -0.005133552 0.05640821
-0.08240488 0.0037831631 -0.07285482 -0.04901496 0.0031656397 0.018270953 0.053045224 0.08215783
-0.0052574077 0.035013366 0.02745894 0.022017872 0.059174962 0.08898674 0.062082004 0.07028381
0.077882096 0.043402757 0.005233522 -0.004011505 0.0044024438 0.031968568 -0.041000303 -0.0056542675
0.0721396 -0.01713096 0.002183923 0.034916807 0.019560462 0.08615046 0.0025196215 -0.069246076
0.028600259 -0.056467984 -0.04926608 0.07643221 -0.0019664 0.027490513 0.0037034657 -0.031974416
0.050646488 0.04619724 -0.028528599 0.08743512 -0.07327932 0.025525557 0.054345872 -0.07957718
-0.008511606 0.035130795 0.06579421 -0.012576399 -0.048227042 0.018415557 0.0414725 0.047565382
-0.07794253 -0.07836346 -0.05795849 -0.06392741 0.037102006 -0.006827263 -0.026345499 -0.054736298
-0.021340638 -0.008162282 -0.07753772 0.056847952 -0.033193078 -0.049289644 -0.016805341 -0.054210637
0.040829826 0.018767964 -0.037208203 -0.01567452 -0.069150954 0.052191813 0.009002913 -0.06494222
0.071798675 -0.035271015 0.008337926 -0.073979534 0.018526495 -0.023951208 -0.043536097 -0.011016048
0.036937788 -0.052339323 -0.0406803 0.060989957 -0.06761535 -0.037345216 -0.08069963 -0.003237565
0.06408887 -0.057562217 -0.07772814 0.073925115 -0.068232745 0.037555013 -0.02000446 -0.07392556
0.077966794 0.063032076 0.015444516 0.06225389 0.029410265 0.0157551 -0.07630057 -0.038731787
-0.040037926 -0.0020518051 -0.025581192 0.04428111 0.039718498 0.050091524 0.01926808 -0.063595146
-0.018593231 0.04480442 0.06203422 -0.063981004 0.045545507 0.07979062 -0.026428822 0.035775803
-0.0695242 0.012056643 -0.056599118 -0.019715495 -0.0805705 -0.08232162 0.048639942 0.020537764
-0.027553745 -0.06320007 -0.05147633 0.007996476 0.078559875 -0.058342442 0.027562596 0.03127016
0.047551002 -0.08029446 0.01824204 0.03189015 0.013038942 -0.044979297 0.057574168 0.057094935
-0.06778103 0.07796818 -0.07153937 0.032564986 0.038095437 0.08516308 0.080157496 -0.05640394
0.002555462 0.030684015 0.08038315 -0.04529329 0.043810602 -0.046038445 -0.08702964 0.008775971
0.057450876 0.046522148 -0.019066386 0.026605675 0.08801834 -0.07300395 -0.06624955 0.05421722
0.022632733 -0.011773488 -0.03722544 -0.019051705 0.04558988 0.041578107 0.03653441 -0.064557254
-0.08045487 0.06772596 -0.035225485 0.021070251 -0.020093389 0.031627927 -0.009359196 0.011046974
0.05546199 -0.021625629 -0.05305182 -0.046099667 0.019004062 0.05294492 -0.070509985 0.08010715
-0.078459315 -0.087450765 0.032513864 0.010287909 -0.08423177 -0.04349095 -0.049421173 -0.08507239
-0.07368847 0.0642021 0.012004263 0.008783781 -0.047981072 -0.08398676 -0.0070905765 0.04262915
0.024349937 0.063934684 0.062253643 0.031844694 -0.04765771 0.067477986 -0.03806142 0.0775226
0.0013188062 -0.040895645 -0.011113556 0.024972798 0.011945338 -0.069109924 -0.050030645 0.012824304

encoder.feature_extract.mlps.0.linears.2.bias f4 [128]
00000000: f8ee 223b ef52 98bd bf60 573d e90a edbb
00000010: adfd 963d 5291 49bc 4a3e a53d da2b 163d
00000020: 1257 143c 1801 1c3c fc5f cdbc 3480 0d3d
00000030: 7e15 8f3d 8c7b 9e3d 48f7 f7bc 717e 3e3d
00000040: 1c44 fe3c 0815 ad3d 55db 933c c753 933d
00000050: 9622 aa3d df48 1f3b 7459 a7bd b8fb 8f3d
00000060: 3224 083d 58ee 233d 5f80 743d 2c89 a1bc
00000070: f8c0 973d e6ff e23c 7e24 603d 02dc 61b9
00000080: cc11 99bb 223d 0dbd fc15 ff3a 9b55 663d
00000090: 33ce 16bb c790 54bd dc59 43ba 31d0 48bc
000000a0: 52f5 0d3d 1258 72bd 1c8a c73c 28db 7cbd
000000b0: 719f 323c 389d 523c 5c56 813b b47a 963c
000000c0: 9d7c 7fbd fb27 233d 8076 46bd cc47 6d3d
000000d0: 4768 5cbd 52d4 523c 5743 a23d 3a23 b1bb
000000e0: f0b6 8f3d 1d9e 713c 7619 42bd b5ec 3a3c
000000f0: 7288 643c b186 763d 0296 49bd a327 85bc
00000100: 02fe e83c aa4c 45bd e786 30bd 131a 0bbd
00000110: 6703 8f3d a5d2 a7bd f264 3cbd e5ca 923d
00000120: dca8 19bd 5397 0abd 940b dabb 23e0 95bd
00000130: 56f7 29bd 6051 1d3c 6281 84bd 0878 263c
00000140: 9025 4c3c cb34 86bd 0b90 9b3d 7f2e 3dbb
00000150: 15f6 86bd 301c 823d c971 82bd 4b1b 91bc
00000160: 5c69 9a3c 1f3f abbd 8a6e 48bd a2eb 03bd
00000170: e9b1 a9bd 368b aabd 5176 07bd 9d1d 693c
00000180: bb4e 9b3d 668b 2f3d 9faf a43d ea32 743d
00000190: 378c abbd f2c9 a7bd 23c4 3b3d b03f 99bd
000001a0: e36c 863c 398f a5bd 98fd 99bd 2494 e33c
000001b0: 4950 8c3d 6280 02bd f0b9 553d 02cf 67bb
000001c0: d666 a7bd fcb4 aa3d c063 073d 6258 013d
000001d0: 16eb 90bc 2dba d43c 141b 48bd 4c30 89bc
000001e0: 15d5 72bd b28f 163b 71c6 0cbd d86a bd3c
000001f0: 231c eebc 452f 423d 4a43 11bd dee4 ffbc
0.0024861675 -0.07437693 0.0525825 -0.0072339666 0.073726036 -0.0123027135 0.08068521 0.036662914
0.009053962 0.009521745 -0.025070183 0.034546092 0.06986521 0.077384084 -0.03026928 0.046507303
0.031038336 0.08451277 0.018048922 0.07193714 0.08307378 0.002430491 -0.08171359 0.070304334
0.033237644 0.040022224 0.059692737 -0.019718729 0.07409853 0.027709913 0.0547223 -0.00021539631
-0.004671311 -0.03448213 0.0019461508 0.056233983 -0.0023011088 -0.051895883 -0.000745205 -0.012256668
0.034657784 -0.05916602 0.024357848 -0.06173244 0.010902272 0.012854867 0.0039470624 0.018369056
-0.0623747 0.03983305 -0.048452854 0.0579298 -0.053810384 0.012868004 0.07923 -0.0054058107
0.070173144 0.01474717 -0.047387563 0.011408974 0.013948547 0.060187045 -0.049215324 -0.016254252
0.028441433 -0.048168816 -0.043097403 -0.033960413 0.06983071 -0.08194474 -0.045994706 0.07167605
-0.037514552 -0.03383572 -0.0066542123 -0.07318141 -0.041495644 0.009601921 -0.0646999 0.010160454
0.0124601275 -0.06553038 0.075958334 -0.0028866825 -0.06589905 0.063530326 -0.06369359 -0.01771321
0.018849067 -0.08361649 -0.048933543 -0.03220714 -0.08285887 -0.08327334 -0.03307182 0.014228252
0.07583376 0.04285755 0.080413096 0.059618868 -0.08376353 -0.08192815 0.045841347 -0.074828506
0.016409343 -0.08083958 -0.07519072 0.0277806 0.06851251 -0.031860717 0.052179277 -0.003537119
-0.08173911 0.08335301 0.033054113 0.03157843 -0.017690223 0.025967682 -0.04885395 -0.016746663
-0.059285242 0.0022973833 -0.034368936 0.023122236 -0.029066151 0.04740836 -0.035464562 -0.031237062

encoder.feature_extract.mlps.0.batch_norms.0.weight f4 [128]
00000000: c869 7f3f ed0b 7f3f fa6b 7f3f 1ce5 7f3f
00000010: 8c0a 803f 25f1 7f3f 4e29 803f 3e12 7f3f
00000020: 7c85 7f3f aa2e 803f 5139 7f3f c239 803f
00000030: b516 803f b7f9 7f3f 5142 803f 7813 803f
00000040: 7ca8 7f3f 3e5a 7f3f 695e 803f 9158 7f3f
00000050: 886d 7f3f 9930 7e3f 25a6 803f 7e74 7f3f
00000060: d46b 803f 9b82 7f3f 91d2 7e3f 06a5 7f3f
00000070: 4d6a 803f a008 803f 4b6f 7e3f 8bb1 7e3f
00000080: dcf7 7f3f 0d6a 7f3f b9cf 7f3f 7219 803f
00000090: ada5 7e3f 288a 803f 0a4f 7f3f fd8a 803f
000000a0: daf3 7f3f d69f 7f3f 6ca6 7f3f da11 7f3f
000000b0: 4224 813f 1c2d 7f3f 9931 803f 1859 803f
000000c0: 4971 7f3f 4562 803f 9565 803f 3d4c 803f
000000d0: c3db 7d3f 7939 7f3f 9aaa 7f3f 18bf 803f
000000e0: ee55 803f d1f4 7e3f 4292 7e3f e93a 803f
000000f0: e640 7f3f af53 803f fe5f 803f c50b 7f3f
00000100: 7014 7f3f 66bb 7e3f 2966 803f f925 7f3f
00000110: 2364 803f 2e5f 7f3f 8b56 7e3f ddf8 7e3f
00000120: 3ce8 7f3f 4cb8 7e3f 6bad 803f 0735 803f
00000130: ab1d 803f ada5 803f bb33 803f c51c 803f
00000140: 060e 803f 717c 7f3f 5070 7e3f 9b49 7f3f
00000150: 6177 7f3f 8695 7f3f c06d 7f3f 7360 7f3f
00000160: 0ec5 803f fa6c 7f3f c579 803f 2aed 7f3f
00000170: 0132 803f 7494 7e3f 6666 803f 893c 803f
00000180: fb8f 7e3f 4b4c 803f f5db 803f b789 7f3f
00000190: ee08 803f aedc 7e3f bdcd 7f3f 196b 803f
000001a0: 367d 803f c4d8 7e3f 7327 7f3f bc5c 803f
000001b0: dfe0 7e3f edd8 803f 101c 803f 6861 803f
000001c0: 6084 803f 9906 803f 0b68 803f 1396 803f
000001d0: cc6e 803f 3fb1 7e3f b769 803f a945 803f
000001e0: e37e 803f df85 7f3f 332a 803f 5d78 803f
000001f0: 6513 803f f781 803f d49c 803f 8d41 803f
0.99770784 0.9962757 0.99774134 0.9995897 1.0003219 0.9997733 1.0012605 0.9963721
0.99813056 1.0014241 0.9969683 1.0017626 1.000693 0.9999041 1.0020238 1.0005941
0.9986646 0.99747074 1.0028812 0.99744517 0.99776506 0.99292904 1.0050703 0.9978713
1.0032907 0.99808663 0.9954005 0.9986118 1.003244 1.0002632 0.9938857 0.9948966
0.9998758 0.99771196 0.99926335 1.0007765 0.9947155 1.0042162 0.9972998 1.0042416
0.9998146 0.99853265 0.99863315 0.99636614 1.008919 0.99678206 1.0015136 1.0027189
0.99782234 1.002999 1.0031 1.0023266 0.99163455 0.9969707 0.9986969 1.0058317
1.0026224 0.9959231 0.9944192 1.0017978 0.997084 1.0025538 1.0029294 0.99627334
0.9964056 0.995047 1.0031177 0.99667317 1.0030559 0.9975461 0.99350804 0.99598485
0.99963737 0.99499965 1.0052923 1.0016183 1.0009054 1.005056 1.0015787 1.000878
1.000428 0.9979926 0.99390125 0.9972169 0.9979153 0.9983753 0.9977684 0.99756545
1.0060136 0.9977566 1.0037161 0.9997126 1.001526 0.9944527 1.003125 1.0018474
0.99438447 1.0023283 1.0067126 0.9981951 1.0002725 0.9955548 0.99923307 1.0032684
1.0038211 0.9954951 0.9966957 1.00283 0.99561876 1.00662 1.0008564 1.0029726
1.0040398 1.0002013 1.0031751 1.0045799 1.0033813 0.99489206 1.0032262 1.0021259
1.0038723 0.99813646 1.0012878 1.0036732 1.0005919 1.0039662 1.004786 1.0020005

encoder.feature_extract.mlps.0.batch_norms.0.bias f4 [128]
00000000: a412 97bb ac8e 9c3b 4fba bbbb 3e6f 6839
00000010: df61 5139 9194 7d3b dce5 ef3a ab89 18bb
00000020: 2c45 49bb 62fc 6cbb 5952 c0bb e346 e53b
00000030: 4cde 233c d06e cc3b d105 c4bb 47a0 2dbb
00000040: 862f c23b f797 973a 0a61 dd3b b3bb 95ba
00000050: 0fbc c73b 572b c6bb 4407 273b 2d4b 81b9
00000060: 9176 d63b aeae a73b 69d2 a43b 267a cebb
00000070: 833a bd3b b21e 743a a279 83bb 3039 89bb
00000080: c2a9 40ba 9a00 d53b b91d cd3b b76d 293b
00000090: cf84 20bb 9eb3 a3bb 9378 f2b9 5477 143b
000000a0: c1e1 06bc a399 66bb 8a30 3f3b 0a2c f0bb
000000b0: 11ae 8eb9 7789 96bb 24e0 c6b9 0f65 873b
000000c0: cb2b 80b9 ad42 993a 8bd2 e6ba 9eea 87bb
000000d0: a832 723b 32bd fdba 98e6 b5b9 def3 af3b
000000e0: 31c1 4a3b 0f72 33bc 169d 4cbb 8735 133c
000000f0: 4ab8 90bb b5e0 e63b 3f6f eab9 6a22 19b9
00000100: d8f7 0bbb b133 c6ba 2b4c 3c3b ba6e f9bb
00000110: 4036 cdbb 9007 27bb aaad 2f3b 82ad abbb
00000120: dd10 a23b e749 e6ba b4ba 843b d30c c43b
00000130: a90c fd3b 5fbd 2e3c 94da d4ba 54f9 99bb
00000140: 7d46 8fbb 0cf0 a23b 66c4 90bb cf98 73ba
00000150: e308 253b 0097 f439 6c0f a1bb 83c2 b43b
00000160: 0d1b 1f3c 807e f4bb 3397 a337 060c 0cbb
00000170: 1fbe 54bc 4a6e 5c3a f8b4 22b8 a704 2ebb
00000180: 8ae4 1cbc 227d 15bb b37a 883b 98e9 44bb
00000190: 8904 c53b 352a 42bc 392a a7bb 4c1d 8cb9
000001a0: f98b de3a f368 9c38 7de6 33bb 2b63 e6ba
000001b0: 6557 af3a 808d 3d3c fad5 b93b cf70 073a
000001c0: 792f 67bb ac42 bd3a d2d2 b33a 6f19 dcbb
000001d0: 957e d7b9 b154 efbb 4c99 0639 2638 b13a
000001e0: cd81 833b 9e98 77b9 ce76 23b9 7485 07bb
000001f0: cf11 523a 40aa bbbb 8be5 ec3b 7764 abbb
-0.0046103764 0.00477775 -0.005728997 0.00022166685 0.00019968253 0.0038693289 0.0018302756 -0.0023275416
-0.0030711396 -0.0036161174 -0.0058691916 0.0069969757 0.01000173 0.006238796 -0.0059821387 -0.0026493238
0.0059260754 0.0011565675 0.0067559527 -0.0011423737 0.0060954164 -0.006047647 0.0025486508 -0.00024660808
0.006544896 0.005117259 0.0050299657 -0.0063011823 0.0057747974 0.0009312435 -0.0040123025 -0.0041877255
-0.00073495146 0.006500316 0.0062596467 0.0025852749 -0.0024493223 -0.0049957773 -0.00046247672 0.0022654133
-0.008232535 -0.003518679 0.0029173219 -0.0073294686 -0.0002721404 -0.004594024 -0.000379325 0.00413192
-0.0002444669 0.0011692845 -0.0017610354 -0.0041478416 0.0036956463 -0.0019358753 -0.00034694816 0.0053696474
0.0030937905 -0.010952487 -0.003122156 0.00898493 -0.0044165 0.00704583 -0.00044714843 -0.00014604037
-0.0021357443 -0.0015121606 0.0028731923 -0.0076120766 -0.0062625706 -0.0025486685 0.0026806393 -0.0052391896
0.004945858 -0.0017569632 0.004050577 0.005982974 0.0077224565 0.010665267 -0.0016239458 -0.0046989117
-0.0043724165 0.0049724635 -0.004417944 -0.00092924846 0.00251823 0.0004665181 -0.0049151685 0.0055163517
0.009711039 -0.007461369 1.9501522e-05 -0.0021369471 -0.0129847815 0.00084087683 -3.879235e-05 -0.0026553066
-0.009575972 -0.002281018 0.0041650175 -0.003004646 0.0060125035 -0.011850883 -0.005101469 -0.0002672471
0.0016978971 7.458208e-05 -0.0027450614 -0.0017577162 0.0013377486 0.011569381 0.00567126 0.0005166651
-0.0035276099 0.0014439425 0.0013719446 -0.006716899 -0.00041102307 -0.007303797 0.00012836343 0.0013520762
0.004013276 -0.0002361261 -0.0001558915 -0.002067891 0.0008013518 -0.0057270825 0.007229512 -0.005230482

encoder.feature_extract.mlps.0.batch_norms.0.running_mean f4 [128]
00000000: df43 e3be 491e da3c ecd9 763e 787e 953e
00000010: 11fc 61be 97a8 77be e817 3c3f c409 733e
00000020: 9651 bebe 1cdf bfbe 5520 51be 4ac1 6a3f
00000030: 2144 4d3f 47d4 333e daf6 583f 1e78 913f
00000040: 1c65 03bf d8a6 983c d12c cbbe d940 93be
00000050: 877f 933e 9959 063f 7f92 6f3c de49 93be
00000060: bee9 c7be ed56 97be c2d6 73bf 62bd 30bf
00000070: eb62 e4be cebb ec3e 366c 263e f99d febe
00000080: 112b 1b3f 5b47 453f f582 30bf 3e70 c63e
00000090: f554 773f 5312 d53c 2070 06bf 5464 be3d
000000a0: 67a1 6b3f 00f4 b33d e267 13be d4d9 9cbf
000000b0: 5bec b53e 9148 eb3d bfe6 113f a178 703f
000000c0: 1daa 1d3e a7b0 a1bf 5fab 3a3e eb8d 34be
000000d0: 2371 cd3d cc7a a5bf 53dc 443f 130e 82bf
000000e0: 010f 0e3f 7381 de3e 784f 693f 5b65 163f
000000f0: bb2b 8bbe 0ac8 0d3f 9195 443f b8a7 1b3e
00000100: 2ed4 713e fa44 f2be 06a4 59be 3337 aa3e
00000110: e87e 183f 5256 3c3f 4f11 82bf 6384 19be
00000120: afea ad3d 10fa a93e bb84 05bf 3e5e 79be
00000130: ecd0 c83e dc05 1d3c b4d4 36be 60ca 65bf
00000140: 71f0 e73e f9e0 71bf e141 7dbe 392a 43bf
00000150: 3ef1 9b3f 7506 1f3f 41b0 213f c550 df3e
00000160: 06ce 193f 3097 3f3f 1f59 84bf 9400 ebbd
00000170: 95b3 163e ec37 a03e f4b8 c2be 091e 55be
00000180: 401a 14bf 0623 c5be 2257 04be 5d81 153e
00000190: 11e7 833f b57f c1be c33a 50bf 021a 58bd
000001a0: 15a8 853f 6682 d3be 0f82 8c3e 722b 883f
000001b0: 52c1 0abf 26a8 28bf b83e 943d cb9d 12bf
000001c0: 8c7b 07bf 3524 2b3d 6d39 113f 9e2a b43c
000001d0: fed4 073f 7100 643c 8f1a 3f3e 0c09 473f
000001e0: 75de 87bf a69b 8fbb 8765 2e3e 0c5f 593e
000001f0: 5149 623f e3c0 29bf 3c6d 8ebe 34cb e8be
-0.4438772 0.02662577 0.24106568 0.2919805 -0.22068812 -0.24185406 0.7347398 0.23734194
-0.3717162 -0.37474906 -0.2042249 0.91701186 0.8018208 0.17561446 0.84751666 1.1364782
-0.51326156 0.018634245 -0.3968263 -0.28760412 0.28808233 0.52480465 0.01462233 -0.28767294
-0.3904552 -0.29558507 -0.9524957 -0.69038975 -0.44606718 0.46237034 0.16252217 -0.497299
0.6061259 0.77062005 -0.68949825 0.3875751 0.9661401 0.026009714 -0.5251484 0.0929648
0.92043155 0.08786774 -0.14395097 -1.2253976 0.35531887 0.1148845 0.56992716 0.93934065
0.15396924 -1.2632035 0.18229435 -0.17632262 0.10031345 -1.29281 0.7689869 -1.0160545
0.55491644 0.43458137 0.91136885 0.58748406 -0.271818 0.5538336 0.7679072 0.15200698
0.23616096 -0.4731825 -0.21253976 0.3324524 0.59568644 0.73569214 -1.0161532 -0.14991908
0.08492028 0.33198595 -0.52155656 -0.24352357 0.39221895 0.0095839165 -0.17854577 -0.89761925
0.4530063 -0.94483906 -0.24732162 -0.762363 1.2182996 0.6211923 0.6315957 0.4361631
0.6007999 0.7484007 -1.0339698 -0.1147472 0.14716943 0.31292665 -0.38031733 -0.20812239
-0.57852554 -0.38503283 -0.12923864 0.1460013 1.0304891 -0.37792745 -0.81339663 -0.052759178
1.044192 -0.41310424 0.27442977 1.0638258 -0.54201233 -0.65881574 0.07238525 -0.5727202
-0.5292289 0.041782577 0.5672825 0.021992978 0.53059375 0.013916121 0.18662475 0.7774818
-1.0614763 -0.0043825684 0.17030917 0.21227664 0.8839312 -0.66309947 -0.27817714 -0.45467532

encoder.feature_extract.mlps.0.batch_norms.0.running_var f4 [128]
00000000: 45d9 bb3b 1d45 333c ec77 053b a442 cd3a
00000010: 610b 963a 8a44 973a 4f33 d43b 7b28 a53a
00000020: a4f6 9f3b fe71 1b3c 37c2 163c f7b2 0f3c
00000030: 778c 433c ab65 253b 4a73 d83b 0e46 d33b
00000040: dec3 4b3a 362b 683b 9e8d c63b 0fda 923a
00000050: 288b 9e39 a1fb 9a3a ed80 d13b 7522 853b
00000060: 093e 063c 7e88 043a 845e 3c3b a9d7 723b
00000070: 0cbb b73a 2552 603b 9088 c63b 2b37 a73b
00000080: 42af 733b 88f2 423b 5856 813a b42d e83b
00000090: 28b2 d23b c772 813a 850e dc3b 5dbf 5d3b
000000a0: bbc9 eb3b 8464 563a 6155 663b 0452 dc3b
000000b0: b0f7 2d3a caac a93b 4bea a93a bea6 a03b
000000c0: 6864 c63b ba03 a53b 7507 b73b 692c e83a
000000d0: 775b 8c3b f778 723b d044 a33b a582 783b
000000e0: f6d4 653b 5584 a33b 1814 ac3b 0d11 dc3b
000000f0: a108 d23a 3908 a13a 350b 423c 41cd 2f3b
00000100: 80fe e83b 68c2 1e3b 88c2 a43b 01ee 103c
00000110: c4d8 143b fe85 2939 0b3c 453b 8302 243b
00000120: c4c3 a63b b948 313c 7de7 b13b 4566 db3a
00000130: 599c 8e3b 9a09 bc3b dc92 583b 7d60 d339
00000140: ae33 a739 db80 443c a3d6 9d36 2b14 933b
00000150: 4837 c43b f654 093c 4414 533b a559 8a3b
00000160: db85 b93b 86f4 3b3b 502f 553b fc61 fa3b
00000170: bccf 513a 9189 163b 2ae8 b73b d4f7 1a3b
00000180: 1798 c13b de9e 113c af03 373a fe95 be39
00000190: 9541 283c 970a 833a 9490 ae3a d6e1 803a
000001a0: 4d9d a23b ce72 db3a c43a 2d3a b730 333b
000001b0: 07c2 213a ea28 c93b 0367 df3b 7af7 983b
000001c0: 4858 c83a 518e 913a f6c3 813b ebbf 113a
000001d0: 0c64 c03b d34e d83b 59fc 993a 56b7 5a3b
000001e0: 285c 763b 3666 ca3a 2972 b43a b03b 083c
000001f0: 241b c23b 50a3 aa3b 82ff 4a3b 9f96 b53a
0.0057326877 0.010941771 0.0020365668 0.0015660119 0.0011447483 0.0011540812 0.006475843 0.0012600565
0.004881697 0.009487627 0.009201578 0.008770696 0.011935345 0.00252376 0.0066055404 0.00644756
0.0007773022 0.0035426146 0.0060593626 0.0011203903 0.00030239788 0.0011824259 0.006393543 0.0040629455
0.008193501 0.00050557393 0.002874286 0.0037054813 0.0014017536 0.003422865 0.00605876 0.005103012
0.003718332 0.002974661 0.0009867651 0.0070855264 0.0064299293 0.0009876125 0.006715598 0.0033835985
0.007195679 0.000817843 0.0035146105 0.006723644 0.00066363346 0.0051780688 0.0012963502 0.0049026897
0.00605445 0.0050358446 0.0055856057 0.001771343 0.0042833644 0.003699837 0.0049825683 0.0037919667
0.0035069562 0.0049901404 0.005251419 0.0067159 0.00160243 0.0012285776 0.011843492 0.0026825222
0.007110417 0.0024224762 0.0050280727 0.008845807 0.002271221 0.00016167012 0.0030095603 0.002502591
0.005089255 0.010820561 0.005429207 0.0016738853 0.004352134 0.0057384493 0.003304652 0.00040316946
0.00031891227 0.011993612 4.7039516e-06 0.004488488 0.0059880354 0.008382073 0.0032208124 0.0042221122
0.005661709 0.0028679683 0.003252942 0.007641075 0.0008003672 0.002297018 0.005612393 0.0023646252
0.005908023 0.008887975 0.0006981445 0.00036351377 0.010269542 0.0009997663 0.0013318234 0.0009832929
0.0049625994 0.0016742588 0.0006608183 0.0027342269 0.0006170575 0.0061389105 0.0068177 0.0046681734
0.0015285099 0.0011105036 0.003960128 0.0005559909 0.0058713015 0.0066011935 0.0011748179 0.0033373437
0.003759155 0.0015441838 0.0013766933 0.008315012 0.0059236456 0.0052074566 0.0030975048 0.0013854093

encoder.feature_extract.mlps.0.batch_norms.1.weight f4 [128]
00000000: 68e0 7f3f 9bef 7e3f b414 803f 0c57 7e3f
00000010: 3e2b 7f3f ac6f 7e3f 7930 7d3f fc70 803f
00000020: c70f 803f d380 803f bd84 803f 5a1d 7f3f
00000030: a1b6 803f 7833 803f 103e 813f ac85 803f
00000040: 7c1f 803f c8dd 7e3f 4029 7f3f 020e 803f
00000050: 39bb 7f3f a28f 7f3f e6b7 803f 476e 7f3f
00000060: 2d7a 803f 8aa2 803f 292b 7f3f fc88 803f
00000070: 73ef 7f3f de58 7e3f 63f4 7f3f f4aa 7e3f
00000080: 04da 803f 556c 803f 065a 803f 3d0f 803f
00000090: 9f48 7f3f 830a 803f 320f 803f e637 813f
000000a0: a7bd 7f3f 01b0 7e3f 6cb9 7f3f e311 803f
000000b0: e147 803f 8e44 7f3f 0832 7f3f 49d8 7f3f
000000c0: 1549 803f 80b2 7e3f e664 803f 5432 7f3f
000000d0: 283f 803f 63c5 803f 0023 7e3f d0f1 7e3f
000000e0: ede9 7f3f 4ca5 7f3f 01c6 803f aafa 7f3f
000000f0: debc 7f3f 043f 7f3f 2d46 803f 42c8 7e3f
00000100: 2ca5 7f3f a1a2 7f3f e75a 803f 8180 7f3f
00000110: ac44 803f 5619 813f d7b0 7d3f b9ea 803f
00000120: a137 803f e67f 803f feab 7f3f 4e14 813f
00000130: 1f79 813f e9c7 7f3f 94fa 7f3f 2409 803f
00000140: 1a94 803f 6ae7 7f3f 277e 803f 6291 803f
00000150: cba3 7f3f 94d2 7e3f e92e 803f d21b 803f
00000160: 650e 7f3f 39d0 7f3f 9e03 803f 6b31 803f
00000170: c597 803f 3fc5 7e3f 8153 803f 7bb4 803f
00000180: c02d 803f a3c7 7f3f d218 7e3f 9a08 813f
00000190: 6fc0 7e3f eca4 7f3f e59e 803f 1fdc 803f
000001a0: 2215 803f 26d2 803f 0cbd 7f3f 851d 803f
000001b0: 4db8 803f 97cf 7e3f ba71 7e3f 795b 803f
000001c0: 15e8 7f3f 9513 803f 0df6 7f3f c400 7f3f
000001d0: cae2 7f3f a481 7e3f e138 813f 362e 7f3f
000001e0: 4771 803f 02fb 7e3f c7f9 7f3f b913 7f3f
000001f0: e262 803f 4671 7f3f 53cc 7c3f 9aa0 7e3f
0.9995179 0.9958436 1.0006318 0.99351573 0.9967536 0.9938915 0.9890209 1.003448
1.0004815 1.0039314 1.0040509 0.9965416 1.0055734 1.0015707 1.0097065 1.0040793
1.0009608 0.9955716 0.9967232 1.0004275 0.99895054 0.9982854 1.0056121 0.99777645
1.0037285 1.0049603 0.9967523 1.0041804 0.99974746 0.9935435 0.9998228 0.99479604
1.0066533 1.003306 1.0027473 1.000465 0.99720186 1.0003208 1.0004637 1.0095184
0.9989876 0.9948731 0.99892306 1.0005459 1.0021936 0.9971398 0.99685717 0.999394
1.0022303 0.9949112 1.0030792 0.9968617 1.0019274 1.0060238 0.99272156 0.99587727
0.9996632 0.998616 1.0060426 0.9999186 0.99897563 0.9970553 1.0021416 0.9952432
0.9986141 0.99857527 1.0027741 0.99805456 1.0020957 1.0085857 0.9909796 1.0071632
1.0016977 1.0039032 0.99871814 1.0084321 1.0115088 0.99914414 0.99991727 1.000279
1.0045197 0.99962485 1.0038499 1.0044367 0.99859303 0.99540067 1.0014316 1.000849
0.9963134 0.999271 1.0001104 1.0015081 1.0046316 0.99519724 1.0025483 1.0055078
1.0013962 0.99913996 0.9925662 1.008075 0.9951238 0.99861026 1.0048491 1.0067176
1.0006449 1.0064132 0.9989784 1.0009009 1.0056244 0.99535507 0.9939228 1.0027915
0.99963504 1.0005976 0.9998482 0.99610543 0.9995543 0.99416566 1.0095483 0.9967989
1.003457 0.9960176 0.99990505 0.9963947 1.0030177 0.99782217 0.98749274 0.9946381

encoder.feature_extract.mlps.0.batch_norms.1.bias f4 [128]
00000000: 8cf4 2b3b 9497 55bb d2c7 8cbb a8ba 843b
00000010: 46b1 893a 8730 c2bb 0193 4dbb e7ba ed3b
00000020: 7e54 13bb 7ef3 353b c4b2 a43a d378 2e3b
00000030: 43ca 04bb 63d7 343b deaa d63b a0e3 6a39
00000040: 1f52 f6ba 5b50 d5bb 4868 90ba 2940 2f3c
00000050: b7c0 ebbb fa4b 813b 828f 893b 8cf2 033a
00000060: 67a8 963b d0b5 fa3b 90fb 8e3b 50a8 073c
00000070: 2024 2bbb 3a73 5cbb 06c5 133c 8d31 213b
00000080: 6495 233a d185 453b dcf9 0b3c 26de 46ba
00000090: e3a3 1abc 5de7 47bb d372 37bc e44f 8d3b
000000a0: a6b3 0abc f81a af3b 01f6 1abb 9f21 243b
000000b0: 18f2 a0bb 16ff 313b 87ca 1abc cdfb c6bb
000000c0: 062c e83a 9bbd 05bc 88e4 e73b 4dc4 22bb
000000d0: 9de3 b4bb d425 debb 32b7 ccbb 0ce4 ac35
000000e0: de3c d3ba 796b 33bb 0d49 953a bd2c 7bbb
000000f0: e1d3 d2ba 4789 19b9 6d17 d1bb aa94 70bb
00000100: f70b bcb9 1150 cd3b ac06 53bb 43da ef3b
00000110: ddda abbb ce95 4f3b 3827 9bbb 2eb2 a439
00000120: 5a0a a23a eb07 c93b 4c92 343b 63db 113c
00000130: db7a 393c 2817 333a 8255 2eb9 b25f c4b8
00000140: f92b 2fbc bdaa 993b 7878 0b39 c830 893b
00000150: 127e 00bc d4f1 fbbb e9ae 74bb 0fe8 29bb
00000160: 777e 8cba 8807 0f3b 5b99 57bb 04dc e2ba
00000170: e359 653b 3cc8 4bbb 1028 6b3b 2312 883b
00000180: 6211 e23b 6e68 0339 b485 3bbc d251 e03b
00000190: d851 22bb 1c82 aeba f65d 05bb 355c ab3a
000001a0: fb48 903b 9e9d fd3a e05c 86bb b42a 52bb
000001b0: 5d4a 9f3b 5122 7d3a 4bd2 c8bb 04d4 7c3a
000001c0: 67d6 0c37 4f44 133b 10a0 5dbb b537 6bbc
000001d0: 6b25 49bb b4bb 77bb 85c6 623c 46db f9ba
000001e0: 6be6 f2ba eddc 89bb e22b b7b9 c2da c3ba
000001f0: 424e 003c 6baf 0c3b d7ac 7bbb ca74 cfbb
0.002623829 -0.0032591568 -0.0042962814 0.0040505715 0.0010505102 -0.005926195 -0.0031368139 0.0072549465
-0.0022480781 0.002776354 0.0012565483 0.002662231 -0.002026216 0.00275942 0.0065511307 0.00022400776
-0.0018792785 -0.0065098233 -0.0011017406 0.010696449 -0.0071946043 0.0039458247 0.0041980157 0.0005033396
0.004597712 0.0076510683 0.0043634847 0.008279875 -0.0026114061 -0.0033638016 0.009019142 0.0024596185
0.00062402175 0.0030139575 0.008543458 -0.0007586203 -0.009438488 -0.0030502893 -0.01119681 0.004312502
-0.008465683 0.005343791 -0.0023645165 0.0025044454 -0.0049116723 0.00271601 -0.0094477 -0.0060724975
0.0017713315 -0.008162881 0.0070768036 -0.0024836243 -0.0055202977 -0.006779412 -0.0062474245 1.2881369e-06
-0.0016116162 -0.002737729 0.0011389569 -0.0038326227 -0.0016084873 -0.00014642357 -0.0063809664 -0.0036709704
-0.0003586707 0.006265648 -0.0032200022 0.00731972 -0.0052445964 0.0031674984 -0.0047349 0.00031413272
0.0012362704 0.006134977 0.002755302 0.0089024035 0.011320795 0.00068317587 -0.00016625787 -9.363833e-05
-0.010691636 0.004689543 0.00013300951 0.0041867234 -0.0078425575 -0.0076887403 -0.00373357 -0.0025925671
-0.0010718842 0.0021824557 -0.0032897803 -0.0017308001 0.0034996204 -0.003109469 0.0035882033 0.0041525527
0.006899045 0.00012532037 -0.0114454515 0.0068456912 -0.002476802 -0.0013313922 -0.0020350195 0.0013073744
0.004403231 0.0019349342 -0.004100427 -0.003206891 0.0048611597 0.00096562976 -0.0061285845 0.000964463
8.39457e-06 0.0022471135 -0.0033817329 -0.014356543 -0.003069247 -0.0037801089 0.013841276 -0.0019062541
-0.0018531805 -0.0042072446 -0.00034937175 -0.0014942514 0.007831158 0.0021466862 -0.003840258 -0.006331061
