FJSP_MultiPPO/saved_network/FJSP_J30M20/best_value0/policy_mch.pth (torch_old, 271482 bytes, 14 tensors)

bn.weight f4 [128]
0	0x3f807190	1.0034657
1	0x3f7ed3e0	0.99542046
2	0x3f7e3a43	0.9930765
3	0x3f7e9023	0.99438685
4	0x3f80252e	1.0011346
5	0x3f7ec6cb	0.99522084
6	0x3f80e194	1.0068841
7	0x3f7e74d4	0.99397016
8	0x3f7ec3ae	0.99517334
9	0x3f7ed232	0.9953948
10	0x3f8008c2	1.0002673
11	0x3f7e2bbe	0.99285495
12	0x3f7e4e5a	0.99338305
13	0x3f80ae71	1.0053235
14	0x3f800ff9	1.0004874
15	0x3f7ee8a2	0.9957372
16	0x3f7f5a26	0.9974693
17	0x3f80d393	1.0064567
18	0x3f7f1902	0.99647534
19	0x3f7e683c	0.993778
20	0x3f7dc9c3	0.9913599
21	0x3f7f6742	0.99766934
22	0x3f7ebc62	0.995062
23	0x3f7f89a2	0.99819386
24	0x3f7fdf14	0.99949765
25	0x3f80e6d2	1.0070441
26	0x3f7f3266	0.99686277
27	0x3f806db4	1.0033479
28	0x3f7e6c47	0.9938397
29	0x3f7ec9b6	0.99526536
30	0x3f801154	1.0005288
31	0x3f7fd7a8	0.9993844
32	0x3f7e52d2	0.99345124
33	0x3f7dd17f	0.9914779
34	0x3f7fee8f	0.99973387
35	0x3f7fb974	0.99892354
36	0x3f7df544	0.9920237
37	0x3f80d327	1.0064439
38	0x3f7e24e2	0.9927503
39	0x3f7e5dd2	0.9936191
40	0x3f7f2155	0.99660236
41	0x3f7e1b7f	0.99260706
42	0x3f80f02c	1.0073295
43	0x3f8051c1	1.0024949
44	0x3f8032d2	1.0015509
45	0x3f7efcb4	0.99604344
46	0x3f80edb4	1.0072541
47	0x3f7fb233	0.99881285
48	0x3f7fea17	0.9996657
49	0x3f80c28c	1.0059371
50	0x3f7f10aa	0.996348
51	0x3f80f90a	1.0076001
52	0x3f809bd0	1.004755
53	0x3f801a32	1.0007994
54	0x3f7fc9c9	0.99917275
55	0x3f7fe5d4	0.99960065
56	0x3f7e0539	0.9922672
57	0x3f7e5e79	0.99362904
58	0x3f7e74bf	0.9939689
59	0x3f80a129	1.0049182
60	0x3f7ebf15	0.9951032
61	0x3f8021da	1.0010331
62	0x3f7fc336	0.99907243
63	0x3f7e6b7d	0.99382764
64	0x3f7e9df4	0.9945977
65	0x3f8046cd	1.0021607
66	0x3f7f4f49	0.99730355
67	0x3f7fa17f	0.998558
68	0x3f7f0613	0.99618644
69	0x3f805372	1.0025465
70	0x3f7e437d	0.9932173
71	0x3f7f65cd	0.9976471
72	0x3f7fe8b8	0.99964476
73	0x3f7e864d	0.99423677
74	0x3f7ecbe3	0.99529856
75	0x3f809c4a	1.0047696
76	0x3f7eb482	0.99494183
77	0x3f7f0ea8	0.9963174
78	0x3f80bb12	1.0057089
79	0x3f7ed738	0.9954715
80	0x3f801b13	1.0008262
81	0x3f7f33bf	0.99688333
82	0x3f7ed229	0.9953943
83	0x3f7f7efa	0.99803126
84	0x3f808c2f	1.0042781
85	0x3f7f85b5	0.99813396
86	0x3f80fa40	1.007637
87	0x3f7eb13c	0.9948919
88	0x3f7fa0f5	0.99854976
89	0x3f806339	1.003028
90	0x3f7ede95	0.99558383
91	0x3f7fc0d6	0.9990362
92	0x3f7dffe9	0.9921861
93	0x3f7f65b3	0.99764556
94	0x3f80bb49	1.0057155
95	0x3f7f78ed	0.99793893
96	0x3f80b1e9	1.0054294
97	0x3f7e7d49	0.9940992
98	0x3f80372b	1.0016836
99	0x3f80956c	1.00456
100	0x3f7f1a11	0.9964915
101	0x3f7eec67	0.9957947
102	0x3f7eb23b	0.9949071
103	0x3f7eeb1d	0.99577504
104	0x3f7e1b67	0.9926056
105	0x3f7e9109	0.99440056
106	0x3f7f3e08	0.9970403
107	0x3f7eae7b	0.99484986
108	0x3f802ba6	1.001332
109	0x3f7e7fc9	0.99413735
110	0x3f7e8ab0	0.9943037
111	0x3f810d3a	1.0082161
112	0x3f80cef3	1.0063156
113	0x3f7ebc70	0.9950628
114	0x3f7e7c7c	0.994087
115	0x3f7efede	0.99607646
116	0x3f80b4da	1.0055192
117	0x3f7faf2c	0.99876666
118	0x3f7d9da7	0.99068683
119	0x3f7fce40	0.9992409
120	0x3f7dca50	0.9913683
121	0x3f7eccfd	0.9953154
122	0x3f801c4e	1.0008638
123	0x3f7ff053	0.9997608
124	0x3f80b165	1.0054137
125	0x3f80f41c	1.0074496
126	0x3f7f2d42	0.9967843
127	0x3f7f3987	0.99697155

bn.bias f4 [128]
0	0xba2a59c2	-0.00064983603
1	0xbb1f5032	-0.0024309275
2	0x3ac601ba	0.0015106716
3	0xbb52fbb5	-0.0032193486
4	0xbb92600b	-0.0044670156
5	0xba851651	-0.0010153746
6	0xbb4313fe	-0.0029766555
7	0x3a9dfdf4	0.0012053833
8	0x3b038820	0.002007015
9	0x3b033ac8	0.002002405
10	0xbb63a2d8	-0.0034734514
11	0x3b980bdb	0.004640085
12	0x3b7c6570	0.003851261
13	0xbaa40114	-0.0012512528
14	0x3ae9cb02	0.001783699
15	0xbb6c7280	-0.003607899
16	0xba34f4d7	-0.0006902939
17	0xbb9641be	-0.004585474
18	0xba662a41	-0.00087801
19	0x3b5b7bfc	0.0033490648
20	0x3b779128	0.003777573
21	0x3b1339ed	0.0022464946
22	0xbb603fa4	-0.003421762
23	0xbad4aec9	-0.0016226406
24	0x3b552e50	0.0032528825
25	0xbb95db2f	-0.004573248
26	0x3b2e37a5	0.002658346
27	0xba1354e3	-0.0005620254
28	0x3b386336	0.0028135306
29	0x37a41072	1.9557981e-05
30	0xba1e385e	-0.0006035621
31	0xbba8849e	-0.0051427623
32	0xbb82f7db	-0.003996832
33	0xb9343787	-0.00017186823
34	0x3accc858	0.0015623672
35	0x3b5f03ae	0.0034029293
36	0xba0de7f1	-0.0005413285
37	0xba755516	-0.0009358687
38	0xbb2e259e	-0.0026572715
39	0xbb6f1a15	-0.0036484052
40	0xbac3bc0c	-0.0014933362
41	0xbb1c63a0	-0.0023863092
42	0xb9dd2578	-0.0004218032
43	0x3aa5b4b9	0.001264236
44	0xbb048477	-0.0020220557
45	0xbb07f9e9	-0.0020748323
46	0xbb1d904a	-0.0024042302
47	0xbb87e441	-0.004147083
48	0x3a8e7f3a	0.0010871657
49	0xbb72a9bc	-0.003702744
50	0xbbbf1555	-0.0058314004
51	0x3b5ea994	0.0033975588
52	0xba9b753b	-0.0011860499
53	0x3bc8f786	0.0061330227
54	0xbbc3e9b5	-0.005978788
55	0xb98d2851	-0.00026923654
56	0x3b99c431	0.0046925773
57	0xbb8f8558	-0.0043799095
58	0xba4c700a	-0.00077986775
59	0x3950c09c	0.00019908178
60	0x3b91b5ba	0.0044467123
61	0x3ab8abd3	0.0014089294
62	0xbb8e8d68	-0.004350353
63	0x3b826dc3	0.00398037
64	0x3b3d7473	0.002890852
65	0xbb2e12d9	-0.0026561527
66	0x3b8ec80e	0.0043573445
67	0x3b2ad54a	0.0026067072
68	0x3b59b96d	0.0033222095
69	0x3be65144	0.0070287306
70	0xba807d28	-0.0009802924
71	0x3b8dc6d6	0.0043266816
72	0x3b297dc6	0.002586232
73	0xbb9b8e78	-0.004747208
74	0xbb0d2f99	-0.0021543263
75	0x385514b1	5.0802428e-05
76	0x3bb69a93	0.005572626
77	0x3b814a05	0.0039455914
78	0xba56285e	-0.00081694673
79	0x3b439aaa	0.0029846826
80	0xbaa5ddac	-0.0012654564
81	0xbb54077e	-0.0032353099
82	0xbaf8fe70	-0.0018996727
83	0x3b8c9990	0.004290767
84	0x3bacb411	0.005270489
85	0xbbbb114c	-0.005708849
86	0xba80de9b	-0.0009831967
87	0xbb43ee45	-0.0029896658
88	0xbb89e4cf	-0.0042081843
89	0xbb7d1208	-0.0038615484
90	0xbb79d87d	-0.0038123422
91	0xbb89e2dc	-0.004207952
92	0xbba73215	-0.005102406
93	0xbbf6bb4b	-0.0075296513
94	0x3b204d42	0.0024460112
95	0xba8496c5	-0.0010115734
96	0xbb4f9fa6	-0.0031680851
97	0xbb9b95e1	-0.0047480916
98	0x3b25bafe	0.0025288458
99	0xbb2a0116	-0.0025940589
100	0xbb42799b	-0.0029674533
101	0xba7b4ec2	-0.0009586626
102	0x39944690	0.00028281333
103	0xbacea3d2	-0.0015765375
104	0x3be9d766	0.007136273
105	0x3bc088e0	0.005875692
106	0x3a10e70e	0.0005527594
107	0x3ba7d4d4	0.0051218066
108	0xba1e5382	-0.00060396653
109	0x3a708d62	0.0009176341
110	0xbae9b4c3	-0.001783036
111	0xbb72d27c	-0.0037051728
112	0x3b6147f4	0.0034375163
113	0x3b3dff21	0.002899118
114	0xba0ff1b7	-0.00054910354
115	0x3b848cb1	0.004045092
116	0x3b0d13a0	0.002152659
117	0x3a8fb01b	0.0010962518
118	0x3ac24c07	0.0014823683
119	0x3b87da43	0.004145892
120	0xbb043b53	-0.0020176962
121	0x3b96d95e	0.004603549
122	0x3bf42865	0.0074511045
123	0xbb7fc294	-0.003902589
124	0x3baadce8	0.0052143224
125	0xbb1a0c15	-0.0023505737
126	0x3b81f82f	0.0039663534
127	0xbc2a6fad	-0.010402602

bn.running_mean f4 [128]
0	0x3e6c2883	0.23062329
1	0xbd51cebe	-0.051222555
2	0x3d32aed6	0.043623768
3	0xbe7dbedb	-0.24779837
4	0xbc962ee2	-0.018332902
5	0xbe06bec8	-0.13158715
6	0x3dae6195	0.08514706
7	0xbdd6e0dc	-0.10492107
8	0x3cd91559	0.026499437
9	0x3e7d7476	0.24751458
10	0x3e1ea61f	0.15493058
11	0x3e8eb4bb	0.2787226
12	0x3e895748	0.26824403
13	0x39392789	0.00017657703
14	0xbcfb72c9	-0.030694382
15	0xbd7d28ca	-0.061806478
16	0x3d4b4437	0.0496256
17	0xbcd0c6d1	-0.025485428
18	0x3e5e89fc	0.21732324
19	0x3ddb870e	0.10719119
20	0xbe47d424	-0.19514519
21	0x3e6048b7	0.21902739
22	0xbde6a228	-0.112613976
23	0xbc4ca900	-0.012491465
24	0x3cdb79c0	0.026791453
25	0xbdd20aa7	-0.10255938
26	0xbe60ab8d	-0.21940441
27	0xbce6a385	-0.028154144
28	0x3e93c394	0.28860152
29	0x3e84cd0a	0.25937682
30	0x3dab61fa	0.08368297
31	0xbd264736	-0.040595256
32	0x3e77a361	0.24183418
33	0x3e765bb4	0.2405842
34	0x3d485847	0.048912313
35	0x3e85e1f4	0.2614895
36	0xbe239f4d	-0.15978737
37	0xbe694a57	-0.22782265
38	0x3e34677f	0.17617606
39	0x3e5b06ac	0.21389264
40	0x3baa1bce	0.005191303
41	0xbe4db44c	-0.20088309
42	0x3df6b856	0.12046878
43	0x3d9edfc5	0.077575244
44	0x3e7a318b	0.24432962
45	0x3dc3554c	0.095377535
46	0x3d8a240b	0.06745156
47	0xbe416eec	-0.1888997
48	0x3d825b2b	0.06365045
49	0xbc056f70	-0.008144245
50	0xbe29e335	-0.16590579
51	0xbd4400e7	-0.047852423
52	0x3d1a57ef	0.037681516
53	0xbe11a64c	-0.14223593
54	0xbdf57445	-0.11985067
55	0x3e4c1408	0.19929516
56	0xbe16564c	-0.14681357
57	0xbde36d38	-0.11104816
58	0xbe0ad9a5	-0.13559587
59	0xbe695790	-0.22787309
60	0x3dd42e95	0.10360447
61	0xbdda0aec	-0.106466144
62	0xbdd9835b	-0.10620757
63	0xbe97d364	-0.29653466
64	0x3e488ed2	0.19585732
65	0x3e58efe7	0.21185265
66	0x3e099579	0.13435926
67	0xbe1f02f8	-0.15528476
68	0x3e812b9a	0.25228578
69	0xbe2e57ed	-0.17025729
70	0x3e5d723f	0.21625613
71	0xbdf8be9d	-0.121457316
72	0x3d0aaa34	0.033853725
73	0x3e106655	0.14101537
74	0xbe9612e3	-0.29311284
75	0x3e883959	0.26606253
76	0x3c800fd4	0.015632547
77	0x3e8d86a8	0.27641797
78	0xbe9a6b3a	-0.30159932
79	0x3e6a5244	0.22882944
80	0x3e57e6be	0.21084115
81	0xbd869761	-0.06571842
82	0xbe08e6d4	-0.13369304
83	0x3d6a8a7c	0.057260975
84	0xbe019086	-0.12652788
85	0xbe3d6b08	-0.1849786
86	0xbc722ea1	-0.014781625
87	0xbe6f7ba0	-0.23387003
88	0x3db9c150	0.090700746
89	0xbe02cbfe	-0.1277313
90	0x3d9044b4	0.07044354
91	0x3ddb35a3	0.1070359
92	0xbe4fcc0e	-0.20292684
93	0x3e1e3a3b	0.154519
94	0xbe8e2eee	-0.2777018
95	0xbe895159	-0.26819876
96	0x3e2075ea	0.1566998
97	0xbd617a6c	-0.05504839
98	0x3e77fadb	0.24216788
99	0x3de87584	0.11350539
100	0x3d9d1cc1	0.076715
101	0xbd870710	-0.06593144
102	0xbdff0152	-0.12451424
103	0xbd15e55e	-0.036595695
104	0x3d04a1dd	0.032380927
105	0x3e663dcb	0.2248451
106	0x3e244016	0.16040072
107	0x3e1ed306	0.15510187
108	0xbc9775b1	-0.018488737
109	0x3e74fdd7	0.23924957
110	0xbea1d5bd	-0.31608382
111	0xbd67e6ce	-0.056616597
112	0xbe2652c8	-0.16242516
113	0x3bfb1247	0.007662091
114	0xbe8037b5	-0.250425
115	0x3dbf2401	0.09333039
116	0x3d85cdef	0.06533419
117	0xbde0ba1a	-0.10972996
118	0x3e6d9d18	0.23204458
119	0x3e2e2a76	0.17008385
120	0xbdb15190	-0.08658135
121	0x3d9db0a4	0.07699707
122	0x3d08dfdd	0.033416618
123	0xbbbcf09f	-0.005765989
124	0x3bedbe0f	0.0072553228
125	0x3e08f669	0.13375248
126	0x3e3e339e	0.18574378
127	0x3e14aa87	0.14518176

bn.running_var f4 [128]
0	0x392a92fb	0.00016267218
1	0x38985550	7.2638155e-05
2	0x37d85f22	2.5793506e-05
3	0x3935f407	0.00017352412
4	0x38ac59c4	8.218319e-05
5	0x3870a7ac	5.7376616e-05
6	0x39183faf	0.00014519574
7	0x3802372f	3.104581e-05
8	0x36055c92	1.9872427e-06
9	0x393a7da4	0.00017785147
10	0x389254ea	6.977639e-05
11	0x3965f4dc	0.00021930359
12	0x3956cb68	0.00020484405
13	0x3945a799	0.00018849819
14	0x38e84dc5	0.00011077108
15	0x3904f439	0.00012679481
16	0x38eacc94	0.00011196095
17	0x3818c566	3.6423466e-05
18	0x39a9d781	0.00032394755
19	0x380bf92b	3.337224e-05
20	0x39339024	0.00017124467
21	0x399b7785	0.00029652953
22	0x38c0956d	9.183106e-05
23	0x3848d05d	4.787777e-05
24	0x369b0b33	4.6206637e-06
25	0x396d94cd	0.00022657514
26	0x39aec89c	0.00033337332
27	0x361c4c45	2.3290206e-06
28	0x39777860	0.00023600599
29	0x398f7094	0.00027358963
30	0x391a9789	0.00014743036
31	0x391f6025	0.00015199238
32	0x3972f39a	0.00023169667
33	0x3983fce0	0.00025174674
34	0x394cd98f	0.00019536003
35	0x39c4a3d3	0.00037506092
36	0x39a6e93a	0.00031835755
37	0x398dac60	0.00027022045
38	0x399a7f69	0.00029468097
39	0x394768e7	0.00019017198
40	0x3786dfb6	1.6078218e-05
41	0x399610c1	0.00028622712
42	0x38b1bc8b	8.4751366e-05
43	0x37943a7a	1.7670205e-05
44	0x393353c8	0.00017101981
45	0x38a6f873	7.961774e-05
46	0x38ef67cd	0.000114157425
47	0x38d34a4f	0.00010075105
48	0x39816b57	0.00024684772
49	0x37a64e07	1.9825076e-05
50	0x38c16461	9.221654e-05
51	0x39686f3a	0.00022166679
52	0x369fb08b	4.7591216e-06
53	0x388f831e	6.843194e-05
54	0x39610610	0.0002145993
55	0x3966fd94	0.00022028974
56	0x38907077	6.887403e-05
57	0x382ace35	4.0723204e-05
58	0x385bfbb8	5.24481e-05
59	0x3935d58d	0.00017341059
60	0x38885d24	6.502334e-05
61	0x381f527a	3.7985366e-05
62	0x39389850	0.00017604348
63	0x398de3f2	0.00027063448
64	0x38e7fa04	0.000110615074
65	0x39af3ff2	0.00033426244
66	0x38601a12	5.343004e-05
67	0x3924143f	0.00015647801
68	0x39aee142	0.00033355696
69	0x38f60c33	0.000117324664
70	0x393b9fdb	0.0001789326
71	0x38e8d8ab	0.000111029796
72	0x3865d36a	5.479475e-05
73	0x386c8c72	5.6397585e-05
74	0x39b375d1	0.0003422932
75	0x395f7ecd	0.00021314174
76	0x37b7b78a	2.1900767e-05
77	0x396b547f	0.00022442824
78	0x39d476e6	0.00040524377
79	0x39237a7d	0.00015590522
80	0x3931b27c	0.00016946526
81	0x38b8d82a	8.8140674e-05
82	0x3881e895	6.194521e-05
83	0x388310bf	6.249686e-05
84	0x38d8fbea	0.00010346605
85	0x391eb1fb	0.00015134357
86	0x3776c83d	1.4709364e-05
87	0x39630961	0.00021651901
88	0x395f8d59	0.00021319593
89	0x38414944	4.608302e-05
90	0x38ca4e37	9.646679e-05
91	0x381086e9	3.445792e-05
92	0x39a588ce	0.0003157318
93	0x39358f0b	0.00017314793
94	0x399c41a1	0.00029803536
95	0x3954ee70	0.0002030672
96	0x392c2e80	0.00016420521
97	0x3758217c	1.28823995e-05
98	0x39389b81	0.00017605537
99	0x3846cdf1	4.7398677e-05
100	0x382e9ce2	4.163094e-05
101	0x38f019ee	0.000114489216
102	0x39608444	0.00021411577
103	0x38d51b72	0.000101617436
104	0x38e5901a	0.00010946412
105	0x393ae91f	0.00017825187
106	0x39183c5e	0.00014518338
107	0x38b4820f	8.607294e-05
108	0x395f2565	0.00021280868
109	0x397d250b	0.0002414176
110	0x39e9b8c7	0.00044578893
111	0x3853413c	5.0367074e-05
112	0x391cb7d6	0.00014945804
113	0x343772a1	1.7084905e-07
114	0x398cbc2b	0.00026843077
115	0x3802a025	3.114356e-05
116	0x383b0aef	4.4594457e-05
117	0x38b610d7	8.681573e-05
118	0x39231f6d	0.00015556598
119	0x38b7411c	8.7382476e-05
120	0x37d2b595	2.5118507e-05
121	0x38919512	6.941905e-05
122	0x390c4bad	0.00013379632
123	0x378a2e0e	1.6472328e-05
124	0x3741ac2e	1.1543785e-05
125	0x39084746	0.00012996522
126	0x39727efc	0.00023126224
127	0x38aa5d91	8.12366e-05

bn1.weight f4 [128]
0	0x3f800000	1.0
1	0x3f800000	1.0
2	0x3f800000	1.0
3	0x3f800000	1.0
4	0x3f800000	1.0
5	0x3f800000	1.0
6	0x3f800000	1.0
7	0x3f800000	1.0
8	0x3f800000	1.0
9	0x3f800000	1.0
10	0x3f800000	1.0
11	0x3f800000	1.0
12	0x3f800000	1.0
13	0x3f800000	1.0
14	0x3f800000	1.0
15	0x3f800000	1.0
16	0x3f800000	1.0
17	0x3f800000	1.0
18	0x3f800000	1.0
19	0x3f800000	1.0
20	0x3f800000	1.0
21	0x3f800000	1.0
22	0x3f800000	1.0
23	0x3f800000	1.0
24	0x3f800000	1.0
25	0x3f800000	1.0
26	0x3f800000	1.0
27	0x3f800000	1.0
28	0x3f800000	1.0
29	0x3f800000	1.0
30	0x3f800000	1.0
31	0x3f800000	1.0
32	0x3f800000	1.0
33	0x3f800000	1.0
34	0x3f800000	1.0
35	0x3f800000	1.0
36	0x3f800000	1.0
37	0x3f800000	1.0
38	0x3f800000	1.0
39	0x3f800000	1.0
40	0x3f800000	1.0
41	0x3f800000	1.0
42	0x3f800000	1.0
43	0x3f800000	1.0
44	0x3f800000	1.0
45	0x3f800000	1.0
46	0x3f800000	1.0
47	0x3f800000	1.0
48	0x3f800000	1.0
49	0x3f800000	1.0
50	0x3f800000	1.0
51	0x3f800000	1.0
52	0x3f800000	1.0
53	0x3f800000	1.0
54	0x3f800000	1.0
55	0x3f800000	1.0
56	0x3f800000	1.0
57	0x3f800000	1.0
58	0x3f800000	1.0
59	0x3f800000	1.0
60	0x3f800000	1.0
61	0x3f800000	1.0
62	0x3f800000	1.0
63	0x3f800000	1.0
64	0x3f800000	1.0
65	0x3f800000	1.0
66	0x3f800000	1.0
67	0x3f800000	1.0
68	0x3f800000	1.0
69	0x3f800000	1.0
70	0x3f800000	1.0
71	0x3f800000	1.0
72	0x3f800000	1.0
73	0x3f800000	1.0
74	0x3f800000	1.0
75	0x3f800000	1.0
76	0x3f800000	1.0
77	0x3f800000	1.0
78	0x3f800000	1.0
79	0x3f800000	1.0
80	0x3f800000	1.0
81	0x3f800000	1.0
82	0x3f800000	1.0
83	0x3f800000	1.0
84	0x3f800000	1.0
85	0x3f800000	1.0
86	0x3f800000	1.0
87	0x3f800000	1.0
88	0x3f800000	1.0
89	0x3f800000	1.0
90	0x3f800000	1.0
91	0x3f800000	1.0
92	0x3f800000	1.0
93	0x3f800000	1.0
94	0x3f800000	1.0
95	0x3f800000	1.0
96	0x3f800000	1.0
97	0x3f800000	1.0
98	0x3f800000	1.0
99	0x3f800000	1.0
100	0x3f800000	1.0
101	0x3f800000	1.0
102	0x3f800000	1.0
103	0x3f800000	1.0
104	0x3f800000	1.0
105	0x3f800000	1.0
106	0x3f800000	1.0
107	0x3f800000	1.0
108	0x3f800000	1.0
109	0x3f800000	1.0
110	0x3f800000	1.0
111	0x3f800000	1.0
112	0x3f800000	1.0
113	0x3f800000	1.0
114	0x3f800000	1.0
115	0x3f800000	1.0
116	0x3f800000	1.0
117	0x3f800000	1.0
118	0x3f800000	1.0
119	0x3f800000	1.0
120	0x3f800000	1.0
121	0x3f800000	1.0
122	0x3f800000	1.0
123	0x3f800000	1.0
124	0x3f800000	1.0
125	0x3f800000	1.0
126	0x3f800000	1.0
127	0x3f800000	1.0

bn1.bias f4 [128]
0	0x00000000	0.0
1	0x00000000	0.0
2	0x00000000	0.0
3	0x00000000	0.0
4	0x00000000	0.0
5	0x00000000	0.0
6	0x00000000	0.0
7	0x00000000	0.0
8	0x00000000	0.0
9	0x00000000	0.0
10	0x00000000	0.0
11	0x00000000	0.0
12	0x00000000	0.0
13	0x00000000	0.0
14	0x00000000	0.0
15	0x00000000	0.0
16	0x00000000	0.0
17	0x00000000	0.0
18	0x00000000	0.0
19	0x00000000	0.0
20	0x00000000	0.0
21	0x00000000	0.0
22	0x00000000	0.0
23	0x00000000	0.0
24	0x00000000	0.0
25	0x00000000	0.0
26	0x00000000	0.0
27	0x00000000	0.0
28	0x00000000	0.0
29	0x00000000	0.0
30	0x00000000	0.0
31	0x00000000	0.0
32	0x00000000	0.0
33	0x00000000	0.0
34	0x00000000	0.0
35	0x00000000	0.0
36	0x00000000	0.0
37	0x00000000	0.0
38	0x00000000	0.0
39	0x00000000	0.0
40	0x00000000	0.0
41	0x00000000	0.0
42	0x00000000	0.0
43	0x00000000	0.0
44	0x00000000	0.0
45	0x00000000	0.0
46	0x00000000	0.0
47	0x00000000	0.0
48	0x00000000	0.0
49	0x00000000	0.0
50	0x00000000	0.0
51	0x00000000	0.0
52	0x00000000	0.0
53	0x00000000	0.0
54	0x00000000	0.0
55	0x00000000	0.0
56	0x00000000	0.0
57	0x00000000	0.0
58	0x00000000	0.0
59	0x00000000	0.0
60	0x00000000	0.0
61	0x00000000	0.0
62	0x00000000	0.0
63	0x00000000	0.0
64	0x00000000	0.0
65	0x00000000	0.0
66	0x00000000	0.0
67	0x00000000	0.0
68	0x00000000	0.0
69	0x00000000	0.0
70	0x00000000	0.0
71	0x00000000	0.0
72	0x00000000	0.0
73	0x00000000	0.0
74	0x00000000	0.0
75	0x00000000	0.0
76	0x00000000	0.0
77	0x00000000	0.0
78	0x00000000	0.0
79	0x00000000	0.0
80	0x00000000	0.0
81	0x00000000	0.0
82	0x00000000	0.0
83	0x00000000	0.0
84	0x00000000	0.0
85	0x00000000	0.0
86	0x00000000	0.0
87	0x00000000	0.0
88	0x00000000	0.0
89	0x00000000	0.0
90	0x00000000	0.0
91	0x00000000	0.0
92	0x00000000	0.0
93	0x00000000	0.0
94	0x00000000	0.0
95	0x00000000	0.0
96	0x00000000	0.0
97	0x00000000	0.0
98	0x00000000	0.0
99	0x00000000	0.0
100	0x00000000	0.0
101	0x00000000	0.0
102	0x00000000	0.0
103	0x00000000	0.0
104	0x00000000	0.0
105	0x00000000	0.0
106	0x00000000	0.0
107	0x00000000	0.0
108	0x00000000	0.0
109	0x00000000	0.0
110	0x00000000	0.0
111	0x00000000	0.0
112	0x00000000	0.0
113	0x00000000	0.0
114	0x00000000	0.0
115	0x00000000	0.0
116	0x00000000	0.0
117	0x00000000	0.0
118	0x00000000	0.0
119	0x00000000	0.0
120	0x00000000	0.0
121	0x00000000	0.0
122	0x00000000	0.0
123	0x00000000	0.0
124	0x00000000	0.0
125	0x00000000	0.0
126	0x00000000	0.0
127	0x00000000	0.0

bn1.running_mean f4 [128]
0	0x00000000	0.0
1	0x00000000	0.0
2	0x00000000	0.0
3	0x00000000	0.0
4	0x00000000	0.0
5	0x00000000	0.0
6	0x00000000	0.0
7	0x00000000	0.0
8	0x00000000	0.0
9	0x00000000	0.0
10	0x00000000	0.0
11	0x00000000	0.0
12	0x00000000	0.0
13	0x00000000	0.0
14	0x00000000	0.0
15	0x00000000	0.0
16	0x00000000	0.0
17	0x00000000	0.0
18	0x00000000	0.0
19	0x00000000	0.0
20	0x00000000	0.0
21	0x00000000	0.0
22	0x00000000	0.0
23	0x00000000	0.0
24	0x00000000	0.0
25	0x00000000	0.0
26	0x00000000	0.0
27	0x00000000	0.0
28	0x00000000	0.0
29	0x00000000	0.0
30	0x00000000	0.0
31	0x00000000	0.0
32	0x00000000	0.0
33	0x00000000	0.0
34	0x00000000	0.0
35	0x00000000	0.0
36	0x00000000	0.0
37	0x00000000	0.0
38	0x00000000	0.0
39	0x00000000	0.0
40	0x00000000	0.0
41	0x00000000	0.0
42	0x00000000	0.0
43	0x00000000	0.0
44	0x00000000	0.0
45	0x00000000	0.0
46	0x00000000	0.0
47	0x00000000	0.0
48	0x00000000	0.0
49	0x00000000	0.0
50	0x00000000	0.0
51	0x00000000	0.0
52	0x00000000	0.0
53	0x00000000	0.0
54	0x00000000	0.0
55	0x00000000	0.0
56	0x00000000	0.0
57	0x00000000	0.0
58	0x00000000	0.0
59	0x00000000	0.0
60	0x00000000	0.0
61	0x00000000	0.0
62	0x00000000	0.0
63	0x00000000	0.0
64	0x00000000	0.0
65	0x00000000	0.0
66	0x00000000	0.0
67	0x00000000	0.0
68	0x00000000	0.0
69	0x00000000	0.0
70	0x00000000	0.0
71	0x00000000	0.0
72	0x00000000	0.0
73	0x00000000	0.0
74	0x00000000	0.0
75	0x00000000	0.0
76	0x00000000	0.0
77	0x00000000	0.0
78	0x00000000	0.0
79	0x00000000	0.0
80	0x00000000	0.0
81	0x00000000	0.0
82	0x00000000	0.0
83	0x00000000	0.0
84	0x00000000	0.0
85	0x00000000	0.0
86	0x00000000	0.0
87	0x00000000	0.0
88	0x00000000	0.0
89	0x00000000	0.0
90	0x00000000	0.0
91	0x00000000	0.0
92	0x00000000	0.0
93	0x00000000	0.0
94	0x00000000	0.0
95	0x00000000	0.0
96	0x00000000	0.0
97	0x00000000	0.0
98	0x00000000	0.0
99	0x00000000	0.0
100	0x00000000	0.0
101	0x00000000	0.0
102	0x00000000	0.0
103	0x00000000	0.0
104	0x00000000	0.0
105	0x00000000	0.0
106	0x00000000	0.0
107	0x00000000	0.0
108	0x00000000	0.0
109	0x00000000	0.0
110	0x00000000	0.0
111	0x00000000	0.0
112	0x00000000	0.0
113	0x00000000	0.0
114	0x00000000	0.0
115	0x00000000	0.0
116	0x00000000	0.0
117	0x00000000	0.0
118	0x00000000	0.0
119	0x00000000	0.0
120	0x00000000	0.0
121	0x00000000	0.0
122	0x00000000	0.0
123	0x00000000	0.0
124	0x00000000	0.0
125	0x00000000	0.0
126	0x00000000	0.0
127	0x00000000	0.0

bn1.running_var f4 [128]
0	0x3f800000	1.0
1	0x3f800000	1.0
2	0x3f800000	1.0
3	0x3f800000	1.0
4	0x3f800000	1.0
5	0x3f800000	1.0
6	0x3f800000	1.0
7	0x3f800000	1.0
8	0x3f800000	1.0
9	0x3f800000	1.0
10	0x3f800000	1.0
11	0x3f800000	1.0
12	0x3f800000	1.0
13	0x3f800000	1.0
14	0x3f800000	1.0
15	0x3f800000	1.0
16	0x3f800000	1.0
17	0x3f800000	1.0
18	0x3f800000	1.0
19	0x3f800000	1.0
20	0x3f800000	1.0
21	0x3f800000	1.0
22	0x3f800000	1.0
23	0x3f800000	1.0
24	0x3f800000	1.0
25	0x3f800000	1.0
26	0x3f800000	1.0
27	0x3f800000	1.0
28	0x3f800000	1.0
29	0x3f800000	1.0
30	0x3f800000	1.0
31	0x3f800000	1.0
32	0x3f800000	1.0
33	0x3f800000	1.0
34	0x3f800000	1.0
35	0x3f800000	1.0
36	0x3f800000	1.0
37	0x3f800000	1.0
38	0x3f800000	1.0
39	0x3f800000	1.0
40	0x3f800000	1.0
41	0x3f800000	1.0
42	0x3f800000	1.0
43	0x3f800000	1.0
44	0x3f800000	1.0
45	0x3f800000	1.0
46	0x3f800000	1.0
47	0x3f800000	1.0
48	0x3f800000	1.0
49	0x3f800000	1.0
50	0x3f800000	1.0
51	0x3f800000	1.0
52	0x3f800000	1.0
53	0x3f800000	1.0
54	0x3f800000	1.0
55	0x3f800000	1.0
56	0x3f800000	1.0
57	0x3f800000	1.0
58	0x3f800000	1.0
59	0x3f800000	1.0
60	0x3f800000	1.0
61	0x3f800000	1.0
62	0x3f800000	1.0
63	0x3f800000	1.0
64	0x3f800000	1.0
65	0x3f800000	1.0
66	0x3f800000	1.0
67	0x3f800000	1.0
68	0x3f800000	1.0
69	0x3f800000	1.0
70	0x3f800000	1.0
71	0x3f800000	1.0
72	0x3f800000	1.0
73	0x3f800000	1.0
74	0x3f800000	1.0
75	0x3f800000	1.0
76	0x3f800000	1.0
77	0x3f800000	1.0
78	0x3f800000	1.0
79	0x3f800000	1.0
80	0x3f800000	1.0
81	0x3f800000	1.0
82	0x3f800000	1.0
83	0x3f800000	1.0
84	0x3f800000	1.0
85	0x3f800000	1.0
86	0x3f800000	1.0
87	0x3f800000	1.0
88	0x3f800000	1.0
89	0x3f800000	1.0
90	0x3f800000	1.0
91	0x3f800000	1.0
92	0x3f800000	1.0
93	0x3f800000	1.0
94	0x3f800000	1.0
95	0x3f800000	1.0
96	0x3f800000	1.0
97	0x3f800000	1.0
98	0x3f800000	1.0
99	0x3f800000	1.0
100	0x3f800000	1.0
101	0x3f800000	1.0
102	0x3f800000	1.0
103	0x3f800000	1.0
104	0x3f800000	1.0
105	0x3f800000	1.0
106	0x3f800000	1.0
107	0x3f800000	1.0
108	0x3f800000	1.0
109	0x3f800000	1.0
110	0x3f800000	1.0
111	0x3f800000	1.0
112	0x3f800000	1.0
113	0x3f800000	1.0
114	0x3f800000	1.0
115	0x3f800000	1.0
116	0x3f800000	1.0
117	0x3f800000	1.0
118	0x3f800000	1.0
119	0x3f800000	1.0
120	0x3f800000	1.0
121	0x3f800000	1.0
122	0x3f800000	1.0
123	0x3f800000	1.0
124	0x3f800000	1.0
125	0x3f800000	1.0
126	0x3f800000	1.0
127	0x3f800000	1.0

fc2.weight f4 [128, 2]
0	0x3f07fc73	0.5311958
1	0x3e7b942e	0.24568245
2	0xbd9df0e1	-0.0771196
3	0xbeca1644	-0.39470112
4	0x3e04b7aa	0.12960687
5	0xbe48b1d3	-0.19599085
6	0xbf16ba89	-0.5887838
7	0xbde948e9	-0.1139086
8	0xbdc141da	-0.09436388
9	0x3ed434e7	0.4144661
10	0xbe989ece	-0.29808658
11	0xbe3a2713	-0.18178968
12	0x3e103c6d	0.1408555
13	0x3f0cfc8c	0.55072856
14	0xbe80339c	-0.25039375
15	0xbd2037cb	-0.03911571
16	0x3d82ac7d	0.06380556
17	0x3ba9aee2	0.0051783184
18	0x3f1aadc7	0.60421413
19	0xbca61ce9	-0.020277457
20	0x3ec1bbf2	0.37838703
21	0xbc68c85c	-0.014207926
22	0x3f29d26f	0.6633672
23	0x3df38d4b	0.11892184
24	0x3f221dd8	0.6332679
25	0x3e212e24	0.15740258
26	0x3d9e8fc2	0.077422634
27	0xbf2411c9	-0.6408964
28	0xbe06d564	-0.1316734
29	0x3ef320c1	0.47485927
30	0xbdb2cc6a	-0.08730395
31	0xbf062d0c	-0.52412486
32	0x3e344d6c	0.17607659
33	0xbeec34ea	-0.4613412
34	0xbce4bedf	-0.027923046
35	0xbe91128a	-0.28334457
36	0x3f18cb83	0.59685534
37	0xbf11ee10	-0.5700388
38	0x3e85ff4e	0.26171345
39	0xbc1630e5	-0.009166931
40	0xbf02de6f	-0.51120657
41	0x3e9ca3ac	0.30593622
42	0x3f183d3a	0.59468424
43	0xbf047960	-0.51747704
44	0xbe6898f4	-0.22714597
45	0xbec6d210	-0.3883214
46	0xbd8c4053	-0.06848206
47	0x3ea26dd9	0.31724432
48	0x3d95a490	0.073067784
49	0xbd8730d2	-0.066011086
50	0xbe2a67a4	-0.16641098
51	0xbf30bdd3	-0.6903965
52	0xbf1a6bfd	-0.6032103
53	0x3f14b088	0.58081865
54	0xbd8d52c3	-0.06900551
55	0x3b97547e	0.0046182266
56	0x3f321bd6	0.69573724
57	0x3d4a5a8b	0.049402755
58	0x3f2bd7ff	0.6712646
59	0xbead3ab9	-0.33833864
60	0x3e86d8ae	0.26337188
61	0xbeff5a20	-0.49873447
62	0xbe290fbb	-0.16509907
63	0x3f0d7f21	0.5527211
64	0x3f083a47	0.53213924
65	0x3eedef57	0.46471664
66	0x3f20b49a	0.62775576
67	0xbeb686e0	-0.35649776
68	0x3e469395	0.19392236
69	0xbf1fd3d2	-0.6243259
70	0x3f335e8c	0.7006614
71	0xbf0a5004	-0.54028344
72	0xbef09882	-0.46991354
73	0x3f2d8377	0.67778724
74	0xbef6d174	-0.48206675
75	0xbf19139c	-0.59795547
76	0x3f00744d	0.5017746
77	0xbf1c7fb9	-0.6113239
78	0x3f0e1823	0.5550558
79	0xbe9542e7	-0.29152605
80	0xbc244daf	-0.010028287
81	0x3e41102a	0.18853822
82	0xbf0dc26e	-0.553748
83	0x3f0b3ef1	0.54392916
84	0x3e8066ea	0.25078517
85	0x3eb3768f	0.3505139
86	0x3e390afd	0.18070598
87	0x3d86b38f	0.06577217
88	0x3f17d738	0.5931277
89	0x3bf75b43	0.007548721
90	0x3e89cdcb	0.2691482
91	0xbe9ecac0	-0.3101406
92	0x3dd68775	0.10475055
93	0x3efc7d69	0.4931443
94	0xbee830aa	-0.45349628
95	0xbd44d012	-0.048049994
96	0x3e73e404	0.2381745
97	0xbf31c4e2	-0.69441044
98	0x3bb09890	0.0053892806
99	0xbe56b7a3	-0.2096849
100	0xbed5fbff	-0.4179382
101	0x3df874ae	0.1213163
102	0xbd037009	-0.032089267
103	0xbf338a6c	-0.7013309
104	0x3dae745c	0.085182875
105	0x3d5b4952	0.05353672
106	0xbeb7bc86	-0.3588602
107	0x3dde601a	0.10858174
108	0xbe598912	-0.21243694
109	0xbf283f63	-0.6572172
110	0x3f08e00d	0.53466874
111	0xbed5a1bd	-0.4172496
112	0xbebbd1bf	-0.3668346
113	0x3da89673	0.08231821
114	0xbe80e154	-0.25171912
115	0xbe1bbbf9	-0.15208425
116	0xbea3b19b	-0.3197144
117	0xbda9c110	-0.08288777
118	0xbf03f5d0	-0.51546955
119	0xbea450fd	-0.3209304
120	0x3e5bb1e1	0.21454574
121	0x3e9f2a74	0.31087077
122	0xbe89532f	-0.26821277
123	0x3d9f9fc2	0.07794143
124	0xbea472a5	-0.32118717
125	0x3f062dc8	0.52413607
126	0xbf2e9723	-0.68199366
127	0xbea61203	-0.32435617
128	0x3ef42762	0.47686297
129	0xbbb902e7	-0.005646098
130	0x3f164f36	0.58714616
131	0xbf19953c	-0.5999334
132	0x3ea8f918	0.33002543
133	0xbce51e01	-0.027968409
134	0xbed906ab	-0.423879
135	0x3ec57cc2	0.38571745
136	0x3f08888f	0.5333337
137	0x3f2a9248	0.6662946
138	0xbee17741	-0.44036296
139	0x3e613167	0.21991502
140	0x3ef4eca7	0.478368
141	0x3eca10d4	0.39465964
142	0xbe7963b2	-0.24354437
143	0xbedc90e8	-0.43079305
144	0x3df82df5	0.121181406
145	0xbea5acd4	-0.3235842
146	0x3eaaeae3	0.3338233
147	0x3d99dab1	0.07512415
148	0xbf24f995	-0.6444333
149	0xbf1158bd	-0.5677603
150	0x3f1d80d9	0.6152473
151	0x3e86c9b6	0.26325768
152	0x3d816a6c	0.063191265
153	0xbe56aa3f	-0.20963381
154	0x3f2d6bef	0.6774282
155	0xbd375b4b	-0.044764798
156	0xbf270417	-0.65240616
157	0xbf2c5318	-0.6731429
158	0x3f1020eb	0.5630023
159	0xbd62d69d	-0.055380452
160	0x3f0a88d4	0.54115033
161	0xbe733bbb	-0.23753254
162	0xbe52e332	-0.2059448
163	0x3ec4bffd	0.38427725
164	0xbe99d66e	-0.3004641
165	0xbe518779	-0.20461835
166	0x3dc47404	0.09592441
167	0x3eb88320	0.3603754
168	0xbeb0c190	-0.34522676
169	0x3ea04142	0.31299788
170	0xbef79e47	-0.48362944
171	0x3e907410	0.2821355
172	0xbc69d87f	-0.014272808
173	0xbe38ac51	-0.18034483
174	0xbf03c1b7	-0.5146746
175	0xbee5d826	-0.4489147
176	0x3e96913f	0.2940769
177	0xbf1cbf8b	-0.6122977
178	0xbe9b807a	-0.30371457
179	0xbd691737	-0.056906905
180	0x3e608d7c	0.21928972
181	0xbecca9d9	-0.39973333
182	0x3e873012	0.26403862
183	0xbd01b2cf	-0.031664666
184	0xbf1070fb	-0.56422395
185	0x3f16fb22	0.5897695
186	0x3e9f89f2	0.3115993
187	0x3f088d5d	0.53340703
188	0xbf1d0485	-0.6133502
189	0xbf03bd3c	-0.51460624
190	0xbf24ca55	-0.64371234
191	0xbd8e6e72	-0.069546595
192	0x3ea3c37c	0.3198508
193	0x3f024465	0.5088561
194	0xbdf58500	-0.11988258
195	0xbdede956	-0.11616771
196	0x3f0f78ac	0.56043506
197	0x3e7198d7	0.2359346
198	0x3e81566c	0.25261247
199	0x3e470adf	0.1943774
200	0x3e1f027e	0.15528294
201	0x3e851cb9	0.25998476
202	0xbe5b6c19	-0.21427955
203	0x3ee6108d	0.44934502
204	0xbe65c1ee	-0.2243726
205	0xbf26f99b	-0.6522462
206	0xbd03043c	-0.03198646
207	0xbef2e0d2	-0.4743715
208	0x3c9fd064	0.019508548
209	0x3efc6285	0.49293914
210	0x3f00fd08	0.50386095
211	0x3eb66a43	0.35627946
212	0x3eabcd72	0.3355518
213	0x3ee7f77a	0.45305997
214	0x3eca0de9	0.39463738
215	0xbe1583a6	-0.14601001
216	0xbe00d637	-0.12581716
217	0x3f2c5251	0.67313105
218	0x3f05896f	0.5216283
219	0x3efff343	0.4999028
220	0xbf2effa2	-0.68358815
221	0xbf34ebca	-0.70672286
222	0xbdcb46be	-0.099256024
223	0xbea3a2dc	-0.3196019
224	0xbeaddf9a	-0.33959657
225	0xbeebb494	-0.46036208
226	0x3c995bc6	0.018720519
227	0xba4852cf	-0.0007641734
228	0xbf26f531	-0.6521788
229	0x3eb8a546	0.36063594
230	0x3e73244f	0.2374432
231	0xbdb3857d	-0.08765695
232	0x3dfe3f4c	0.12414417
233	0x3e93e563	0.28885946
234	0xbe9b264e	-0.30302662
235	0x3e9a75cf	0.30168006
236	0x3f10bef0	0.5654135
237	0xbc2a1cf2	-0.010382878
238	0x3ed70b9a	0.4200104
239	0xbd5d388c	-0.054009005
240	0xbe5f5966	-0.21811447
241	0x3d81be86	0.063351676
242	0x3e6620b7	0.22473417
243	0xbe9ff5cc	-0.31242216
244	0x3c81196c	0.015759192
245	0x3f0b8c4b	0.54510945
246	0xbd1569ef	-0.03647798
247	0x3e3f7046	0.18695173
248	0xbad0bac7	-0.0015924805
249	0x3e23eea5	0.16009004
250	0x3e8a0f81	0.26964954
251	0x3eecb59b	0.46232304
252	0x3ec20c92	0.37900215
253	0x3f1ab1a7	0.60427326
254	0x3ea43ea9	0.32079056
255	0x3e892e20	0.26793003

actor.linears.0.weight f4 [128, 384]
0	0x3c59eea7	0.013301528
1	0x3d12f83d	0.03588127
2	0xbcbf3472	-0.023340438
3	0xbc388b9d	-0.011263755
4	0x3d30fe97	0.043211546
5	0xbb12c6a7	-0.0022396238
6	0xbd1ef13f	-0.03880429
7	0xbd02e50e	-0.031956725
8	0x3b08a555	0.0020850499
9	0xbd10e918	-0.035378546
10	0xbd0a6ad5	-0.03379329
11	0xba9acb7d	-0.0011809912
12	0xbcbee861	-0.023304166
13	0x3d014f4a	0.031569757
14	0x3c87e8d7	0.016590519
15	0x3d484b09	0.048899684
16	0x3c8f9adb	0.017529896
17	0xbcf89fa0	-0.030349553
18	0x3c1de2c0	0.009636581
19	0x3cd121d8	0.025528833
20	0xbbd7f563	-0.0065905317
21	0xbd3bb066	-0.045822524
22	0xbd202da3	-0.039106023
23	0x3d1aa0d2	0.037751026
24	0xbd5cfd63	-0.053952586
25	0xbd32e33f	-0.04367375
26	0x3d543d19	0.05181608
27	0xbccb6ace	-0.024831202
28	0xbd4bd3bc	-0.049762473
29	0x3d16bfc5	0.03680398
30	0xbd0e58b7	-0.034752574
31	0x3d096837	0.033546653
32	0xba969b03	-0.0011490289
33	0x3d006dcc	0.03135471
34	0x3d1e7417	0.03868493
35	0xbd1e2dd0	-0.03861791
36	0xbd20bb4b	-0.039241116
37	0xbcc53b7a	-0.024076212
38	0xbd3e7899	-0.04650173
39	0xbd2344c8	-0.039860517
40	0x3cec4519	0.028841542
41	0xbd2d9c41	-0.042385343
42	0xbd1ae3e5	-0.037814993
43	0xbd3e31d5	-0.046434242
44	0x3d37244e	0.044712357
45	0xbc10dd18	-0.008841775
46	0xbc476365	-0.012169694
47	0xbba78edc	-0.0051134657
48	0x3c083a12	0.008314626
49	0x3c242ccd	0.010020447
50	0x3d22ee6c	0.039778158
51	0xbc0dc91a	-0.008653903
52	0xbd55acb4	-0.052166656
53	0xbb9a0fa6	-0.0047015725
54	0x3c164f03	0.009174111
55	0x3ce0add7	0.027426643
56	0x3cef1039	0.02918254
57	0x3cf4a42a	0.029863436
58	0x3ceeeb88	0.029165044
59	0x3d594b94	0.053050593
60	0xba91e44d	-0.0011130661
61	0xbce1cd0e	-0.027563598
62	0xbb338e4b	-0.0027398046
63	0xbcaa3cbf	-0.02078092
64	0x3cf8a9bb	0.030354371
65	0xbd48c490	-0.04901558
66	0x3d2c80c2	0.04211498
67	0x3a8eefd3	0.0010905213
68	0x3d31d6b5	0.04341765
69	0x3d1c3626	0.038137577
70	0x3d02b33b	0.03190921
71	0xbc1fe412	-0.009758966
72	0xbd359d3b	-0.0443394
73	0x3ba587a1	0.0050515686
74	0x3c2d31c5	0.010570948
75	0x3cfd9106	0.030952942
76	0xbd4b1b5f	-0.04958665
77	0x3c2ea539	0.010659509
78	0xbd1d8615	-0.03845795
79	0x3d3605a1	0.044438962
80	0xbd006ebc	-0.031355605
81	0xbd342490	-0.04398018
82	0x3d42aa11	0.04752547
83	0xbccab334	-0.024743654
84	0xbafbda29	-0.0019214797
85	0x3d0cc9ae	0.034372024
86	0xbcf1897e	-0.029484507
87	0xbd34c08d	-0.044128943
88	0xbc69c209	-0.014267453
89	0xbc1d2321	-0.009590895
90	0x3b0c1952	0.0021377397
91	0xbcb13935	-0.021633724
92	0xbd0e9e87	-0.034819152
93	0xbaad2621	-0.0013210216
94	0x3d3e09ee	0.04639619
95	0xbc38a7f1	-0.011270509
96	0x382a8856	4.065813e-05
97	0x3d042b86	0.03226807
98	0xba5d20a1	-0.0008435343
99	0xbcbac86c	-0.022800647
100	0x3cffec41	0.031240584
101	0xbc9b6452	-0.018968735
102	0xbc8f2105	-0.0174718
103	0x3d2866cd	0.041113663
104	0xbd3a34d5	-0.04546054
105	0xbcd67f28	-0.02618368
106	0xbd216620	-0.039404035
107	0xbd427238	-0.04747221
108	0xbcfabdd2	-0.030608092
109	0xbd61fdfb	-0.055173855
110	0x3d50433d	0.050845373
111	0x3d059fbb	0.032623034
112	0xbca74663	-0.020419305
113	0x3ca034ef	0.01955649
114	0xbc8175f6	-0.015803318
115	0xbc3b03a2	-0.01141444
116	0xbc2f4dee	-0.010699732
117	0x3cb8665b	0.022509744
118	0xbc25e4a2	-0.010125311
119	0x3d139d34	0.036038592
120	0x3c9434ea	0.018091638
121	0x3d2de166	0.042451285
122	0xbc21481d	-0.009843853
123	0xbc8c4921	-0.017124714
124	0xbc097521	-0.008389742
125	0x3c8412b0	0.016122192
126	0xbbe8b698	-0.007101845
127	0x3c5a1da1	0.013312728
128	0xbab1058d	-0.0013505683
129	0xbcbcebd6	-0.023061674
130	0x3d2597d0	0.040427983
131	0x399f08dd	0.00030333447
132	0x3d1a378f	0.03765064
133	0xbc476adb	-0.012171472
134	0x3b3ca7b8	0.0028786492
135	0x3cb0edee	0.021597829
136	0xbd215a71	-0.039392892
137	0x3d201f3d	0.03909229
138	0x3cc5b9c9	0.02413644
139	0x3a9592c6	0.001141154
140	0xbca02a64	-0.019551463
141	0x3d1c2454	0.038120583
142	0xbd3c06a4	-0.04590477
143	0x3c1aebbf	0.00945562
144	0xbd32418a	-0.043519534
145	0x3c9c0333	0.019044494
146	0x3d06b137	0.03288385
147	0xbc35bd78	-0.011092536
148	0x3c1c9bb0	0.009558603
149	0xbcda45d3	-0.026644623
150	0x3cda017d	0.026612038
151	0x3b3eb735	0.00291009
152	0xbc10bb65	-0.008833741
153	0x3d17b29e	0.037035577
154	0xbce9f263	-0.028557962
155	0xbcaa3455	-0.020776907
156	0x3c1ce572	0.009576188
157	0x3d48b5e1	0.04900158
158	0x3d125e4a	0.035734452
159	0xbce4bda7	-0.027922465
160	0xbc4634de	-0.012097565
161	0xbd33a619	-0.043859575
162	0x3c07a4a9	0.008279004
163	0xbbd7b435	-0.0065827616
164	0x3d016b81	0.031596664
165	0x3c82a7ce	0.015949156
166	0x3d39a751	0.04532558
167	0x3cf360be	0.029709216
168	0x3c01c8e8	0.007921435
169	0x3d15f317	0.03660878
170	0x3d44f219	0.048082445
171	0x3cd38c6c	0.025823794
172	0x3cc0d764	0.023540206
173	0x3d10a90e	0.035317473
174	0x3d1b5976	0.037927113
175	0x3b0988a1	0.0020985978
176	0xbaa3a04c	-0.0012483685
177	0xbd567f07	-0.052367236
178	0xbd3d6bcc	-0.04624538
179	0xbcab544a	-0.020914216
180	0xbb8bf217	-0.0042708027
181	0xbd4c7044	-0.049911752
182	0xbd1abcc7	-0.03777769
183	0xbd399613	-0.045309138
184	0xbd0d5ec3	-0.0345142
185	0xbca94bfb	-0.020666113
186	0xbc75f6a9	-0.015012422
187	0xbd5de88f	-0.054176863
188	0x3c778102	0.015106441
189	0x3c40b6c0	0.011762321
190	0xbcefc925	-0.029270718
191	0xbc5a4deb	-0.013324241
192	0xbd2800b9	-0.041016314
193	0x3acf1368	0.001579863
194	0x3d4adb63	0.04952563
195	0x3d0cd870	0.0343861
196	0xbb9451db	-0.0045263595
197	0xbc90d3c9	-0.017679112
198	0xbd210d35	-0.039319236
199	0x3d18f02c	0.03733842
200	0xbb40bcc9	-0.00294094
201	0x3d141c1d	0.036159623
202	0xbbf7bb45	-0.007560166
203	0x3cf0adec	0.029379807
204	0x3d17723c	0.036974177
205	0xbcf8748e	-0.030329015
206	0x3b88df32	0.0041769976
207	0xbcee14fe	-0.029062744
208	0x3c67472f	0.014116093
209	0xbd427541	-0.047475103
210	0xbc8a35fd	-0.016871447
211	0xbc8370ca	-0.016044993
212	0x3b60ea62	0.003431939
213	0x3c264484	0.010148171
214	0xbba9df32	-0.0051840777
215	0xbd4c401e	-0.049865834
216	0xbcfd043d	-0.03088581
217	0x3c972e19	0.018454598
218	0x3bb1f59e	0.005430891
219	0xbc481a51	-0.012213306
220	0xbd0210d6	-0.031754337
221	0x3d18f3fb	0.037342053
222	0x3d05e488	0.032688648
223	0x3d3266c7	0.043555047
224	0xbc8e0d26	-0.017340254
225	0x3ce6b45e	0.028162178
226	0x3c868f3e	0.016425725
227	0x3d5927b7	0.05301639
228	0x3c209464	0.009801004
229	0xbc632f43	-0.013866249
230	0x3c0069b1	0.007837699
231	0x3d1cba55	0.038263638
232	0xbd199d85	-0.037503738
233	0x3d340c11	0.04395682
234	0x3b674c7f	0.0035293398
235	0xbcebf825	-0.028804848
236	0xbd20e3fe	-0.03927993
237	0x3cc02cea	0.023458917
238	0xbc04d47f	-0.008107304
239	0xbb470248	-0.003036635
240	0xbcead14a	-0.02866425
241	0xbcc9519d	-0.024575049
242	0x3cc6c215	0.024262467
243	0xbd0e4469	-0.03473321
244	0xbb8f1c50	-0.004367389
245	0xbc144cbd	-0.009051499
246	0x3d5aa5da	0.053380825
247	0xbcc7409d	-0.024322802
248	0xbcc6e5bb	-0.024279466
249	0xbd000d9e	-0.031262986
250	0x3c328765	0.010896538
251	0x3c7c95fa	0.015416617
252	0xbd34e121	-0.044160012
253	0xbcb12aed	-0.021626914
254	0x3bc47a7f	0.005996048
255	0x3c893871	0.016750546

actor.linears.0.bias f4 [128]
0	0x3cf3d465	0.029764364
1	0x3cb782e0	0.022401273
2	0xbc61828f	-0.013764038
3	0x3d3ac829	0.045601044
4	0x3b69cb96	0.0035674325
5	0x3b905d4f	0.0044056545
6	0x3d1a5438	0.037677974
7	0xbd25c213	-0.040468287
8	0x3d33a582	0.043859012
9	0x3cd03bee	0.025419202
10	0xbd22e556	-0.039769493
11	0x3d56f8d0	0.05248338
12	0xbd494987	-0.049142387
13	0xbd395de3	-0.045255553
14	0xbb34208c	-0.002748522
15	0x3d326b16	0.043559156
16	0x3d252dd0	0.040326893
17	0x3d34dc3b	0.04415534
18	0x3d20a6b2	0.039221473
19	0x3a588dc6	0.0008260872
20	0xbbd07105	-0.006361129
21	0x3d1d00d0	0.038330853
22	0xbd2ddbe8	-0.042446047
23	0x3cf81b23	0.030286377
24	0xbaa0c2b7	-0.0012265061
25	0xbca78f7c	-0.02045416
26	0xbd50e35d	-0.05099808
27	0x3d5eba6e	0.054377012
28	0xbd544bb4	-0.05183001
29	0x3c9eff91	0.019408973
30	0x3c521ce9	0.0128242755
31	0xbd07b9dd	-0.033136237
32	0xbce88edd	-0.028388435
33	0xbcd6b3a9	-0.026208716
34	0x3c951bbe	0.018201705
35	0xbc4feb41	-0.012690366
36	0xbca36f3a	-0.019950498
37	0xbcbfcd1b	-0.023413232
38	0x3ad11668	0.0015952112
39	0xbcf9b082	-0.030479673
40	0x3cbad3ce	0.022806074
41	0x3b10c988	0.0022092778
42	0x3d0210dd	0.031754363
43	0xbd237a56	-0.03991159
44	0xbab410c3	-0.0013737906
45	0xbc0d670c	-0.008630525
46	0x3cd1d5be	0.025614616
47	0xbcdbd017	-0.026832623
48	0xbd1e272a	-0.03861157
49	0x3b95977d	0.004565178
50	0xbca90c57	-0.020635767
51	0xbd0ffca8	-0.03515306
52	0x3d3e5582	0.046468265
53	0xbd06fe6d	-0.032957483
54	0xbce54f14	-0.027991809
55	0xbd21916f	-0.039445337
56	0x3d137273	0.03599782
57	0x3b2b8e71	0.002617743
58	0x3c335f6c	0.010948043
59	0xbd2b7f95	-0.04186972
60	0xbbf871bd	-0.007581918
61	0xbcb983cd	-0.022645855
62	0xbce79850	-0.02827087
63	0x3d3128e6	0.043251894
64	0xbcb419b3	-0.02198491
65	0x3ca1526c	0.019692622
66	0xbce569e0	-0.028004587
67	0xbcb426a9	-0.02199109
68	0xbd53213d	-0.05154537
69	0xbd4e5d9a	-0.050382234
70	0xbcb0a960	-0.02156514
71	0x3d0eb068	0.034836203
72	0xbd2a79eb	-0.041620176
73	0x3c1cbe7d	0.0095669
74	0xb8eadab9	-0.0001119873
75	0x3c1bfec3	0.009521189
76	0xbd01da31	-0.031702224
77	0xbcd73bb0	-0.026273578
78	0xbbbac5c4	-0.005699845
79	0x3d1552cc	0.036455914
80	0xbc9451fa	-0.018105496
81	0x3cb232b3	0.02175269
82	0x3cbdb220	0.023156226
83	0xbd30fd7b	-0.043210488
84	0x3d27fbe3	0.041011702
85	0xbc6b2f8c	-0.014354598
86	0xbc7b5bd1	-0.015341715
87	0x3ca52084	0.020157106
88	0xbd078bdd	-0.03309237
89	0xbcde76f0	-0.027156323
90	0x3d36b3fb	0.044605237
91	0x3d0d5493	0.034504484
92	0x3c463c22	0.012099298
93	0xbcfb18d5	-0.03065149
94	0xbd402aee	-0.04691594
95	0x3c226171	0.009910927
96	0xbcb8f593	-0.022578036
97	0xbd22b150	-0.03971988
98	0xbcf8d9b0	-0.030377239
99	0x3cf753d7	0.030191345
100	0x3b909dd8	0.0044133477
101	0x3a51e52c	0.00080068666
102	0xbc7ea70e	-0.015542759
103	0x3d28ce4e	0.041212372
104	0xbd0bdeb4	-0.034147933
105	0xbd038bd0	-0.032115757
106	0x3c97472e	0.018466558
107	0x3c65db83	0.014029386
108	0x3d4afe19	0.049558733
109	0xbd2b0a24	-0.041757718
110	0x3cc1c64a	0.023654122
111	0xbc941cb0	-0.018080086
112	0xbd1753cd	-0.036945153
113	0xbbc93e13	-0.006141433
114	0x3c73de00	0.014884472
115	0x3d1e5d1a	0.038663007
116	0xbc266404	-0.0101556815
117	0x3cbf83ad	0.023378218
118	0xbd2d9d6b	-0.042386454
119	0x3c6c010e	0.014404548
120	0x3928cf3b	0.00016098928
121	0x3c119fb6	0.008888176
122	0x3d00b084	0.03141834
123	0xbd511f6d	-0.05105536
124	0x3c159622	0.009130033
125	0xbcacde60	-0.02110213
126	0xbd3d97e4	-0.046287432
127	0xbd5b2ab8	-0.053507537

actor.linears.1.weight f4 [128, 128]
0	0xbd6d1725	-0.0578834
1	0x3cbddb5e	0.023175891
2	0x3c18dca0	0.009329945
3	0x3c888734	0.016666032
4	0x3d6c1598	0.05763778
5	0x3d79c5d5	0.060979683
6	0x3da29116	0.07937829
7	0x3ce422cf	0.02784863
8	0x3d80e297	0.062932186
9	0xbd9a77e8	-0.075424016
10	0xbd2ccaa8	-0.042185456
11	0x3c859a58	0.016308948
12	0xbdac1fd9	-0.08404512
13	0x3d949b36	0.07256167
14	0x3d8c7faf	0.06860291
15	0x3bd08e05	0.0063645863
16	0xbd8be78c	-0.068312734
17	0x3d8e4da2	0.06948401
18	0xbd3cc858	-0.0460895
19	0x3b0de5ae	0.0021651792
20	0xbd933137	-0.07187121
21	0x3d56a5e7	0.05240431
22	0x3d49da51	0.04928047
23	0xbda2de22	-0.07952525
24	0xbd54f94f	-0.05199557
25	0xbd81ef6b	-0.063444935
26	0xbca11f12	-0.019668136
27	0x3c64b208	0.013958462
28	0xbd5a0d18	-0.053235143
29	0x3d4867e4	0.048927203
30	0xbd7146f8	-0.05890557
31	0x3d49531c	0.049151525
32	0x3c7f7342	0.015591444
33	0x3da04533	0.07825699
34	0x3c4d20f5	0.012520065
35	0xbcf40a4f	-0.029790072
36	0xbcc8e553	-0.024523413
37	0xbdb93777	-0.09043782
38	0xbd3bca04	-0.045846954
39	0x3d8c67f5	0.06855766
40	0x3c47e0b0	0.012199566
41	0x3ab80463	0.0014039393
42	0xbd9d4977	-0.07680028
43	0xbd5d6be5	-0.054057974
44	0xbc9df3ba	-0.019281257
45	0x3c060038	0.008178763
46	0x3d693f1d	0.056944955
47	0xbbe3e2ee	-0.0069545424
48	0xbd887134	-0.06662217
49	0xbd384dc5	-0.04499604
50	0xbdadb8d0	-0.08482516
51	0x3d657fed	0.056030203
52	0x3caffb44	0.021482117
53	0xbda61ae2	-0.08110596
54	0x3c23a5f8	0.0099883005
55	0xbd703c2c	-0.058651134
56	0x3d243e63	0.04009856
57	0x3d9d57cd	0.07682762
58	0x3c79dee8	0.015250899
59	0x3da27ee9	0.079343624
60	0xbd9053a6	-0.07047205
61	0x3c810ab0	0.015752167
62	0x3d828263	0.063725255
63	0xbd890e52	-0.066921845
64	0xbc882926	-0.016621184
65	0x3d32cb17	0.043650713
66	0x3d2c1467	0.042011645
67	0xbd44d78b	-0.04805712
68	0xbdb9e3ec	-0.09076676
69	0xbd645e87	-0.05575421
70	0xbda8ae15	-0.082363285
71	0x3d18c5fa	0.03729818
72	0x3d9cbf5d	0.07653687
73	0x3c540c16	0.012942335
74	0xbcbeffc8	-0.023315325
75	0xbd580ddc	-0.052747592
76	0x3d4afbe3	0.049556624
77	0x3ba7cd2b	0.0051208935
78	0xbc3745be	-0.011186061
79	0x3d0d041e	0.034427755
80	0x3d5bbf4f	0.053649243
81	0x3ce1e088	0.027572885
82	0x3cb08451	0.021547468
83	0xbd440f29	-0.04786602
84	0xbd972a68	-0.07381135
85	0x3cd52fc6	0.026023757
86	0xbcef805f	-0.029236017
87	0xbd97628b	-0.073918425
88	0x3d528104	0.05139257
89	0xbda887fe	-0.082290635
90	0xbd496c0e	-0.049175315
91	0x3cd419d0	0.025891215
92	0x3cc4df16	0.024032157
93	0x3cb0fb08	0.021604076
94	0xbd8bb304	-0.06821254
95	0xbc098661	-0.008393855
96	0x3d6d3e7c	0.057920918
97	0xbd340a6e	-0.04395526
98	0x3d503c64	0.050838843
99	0x3d99d674	0.07511607
100	0x3ce21341	0.027597072
101	0x3d8a2ea7	0.067471795
102	0xbd76a53d	-0.060216177
103	0x3d7b5936	0.061364375
104	0xbd159787	-0.03652146
105	0x3cf9edf6	0.030508976
106	0x3d671db6	0.05642482
107	0x3d5b1165	0.053483386
108	0x3d900cc0	0.07033682
109	0x3db6d093	0.08926501
110	0x3d038ea0	0.03211844
111	0x3b6fe868	0.003660703
112	0xbdb701f5	-0.0893592
113	0x3c309a24	0.0107789375
114	0x3c61e587	0.013787634
115	0x3d20f043	0.03929163
116	0xbd8de915	-0.069292225
117	0xbd9440eb	-0.072389446
118	0x3c8b244e	0.016985085
119	0xbd88069a	-0.06641884
120	0xbc97b496	-0.018518727
121	0xbd9254f4	-0.0714511
122	0xbc730480	-0.014832616
123	0xbcdcd15c	-0.0269553
124	0x3cf5d193	0.03000716
125	0x3b752390	0.003740523
126	0xbd7d0930	-0.06177634
127	0x3d7cd35e	0.061725013
128	0x3db6042d	0.08887515
129	0x3da4d59e	0.08048557
130	0xbca3de35	-0.020003418
131	0xbd11d794	-0.035605982
132	0x3cd22619	0.025652932
133	0xbd980328	-0.07422477
134	0xbc43cf6b	-0.011951308
135	0x3d0ea2cd	0.034823228
136	0x3c64ae49	0.013957568
137	0x3ce931fc	0.028466217
138	0x3bcd8c6b	0.0062728426
139	0x3cc210ed	0.023689711
140	0x3d8f1c30	0.06987798
141	0xbcc6f07d	-0.024284596
142	0xbd2a514f	-0.04158145
143	0x3d4c6aba	0.04990647
144	0x3c222569	0.009896615
145	0x3c15bfcc	0.009139966
146	0x3cbe4d29	0.023230152
147	0x3db4dccd	0.08831177
148	0xbd214af7	-0.039378133
149	0xbd73f242	-0.059557207
150	0x3d569bfc	0.052394852
151	0x3d9e6e4f	0.077358834
152	0x3d7fe824	0.062477246
153	0x3d59524a	0.053056993
154	0xbaf69cf6	-0.0018815089
155	0xbd8ac80e	-0.06776439
156	0x3d870e93	0.06594577
157	0xbd82431f	-0.063604586
158	0xbdac829d	-0.0842335
159	0x3c13ce57	0.009021363
160	0x3d856208	0.065128386
161	0x3da1dcee	0.07903467
162	0xbda262af	-0.07928979
163	0xbd877427	-0.06613951
164	0x3bbf0753	0.0058297305
165	0x3d8bc0e4	0.068239
166	0xbce68d96	-0.028143685
167	0xbd92dbd8	-0.07170838
168	0xbd51016d	-0.05102675
169	0x3c92caec	0.017919026
170	0x3d9f5fc6	0.07781939
171	0xbd53a077	-0.051666703
172	0x3db5ccf9	0.08876986
173	0x3c88f086	0.016716253
174	0x3cdf2a27	0.02724178
175	0xbdb838ca	-0.08995207
176	0x3d0087dd	0.03137957
177	0x3c00fe3d	0.007873115
178	0x3cb5174c	0.022105835
179	0x3d796766	0.060889624
180	0xbb40a829	-0.0029397106
181	0xbcc881ff	-0.02447605
182	0xbd8711ce	-0.06595193
183	0x3d862778	0.06550497
184	0xbd138493	-0.036015105
185	0xbd93f8df	-0.07225203
186	0xbc552335	-0.013008882
187	0x3cac1066	0.021003913
188	0xbc8e80b0	-0.017395347
189	0xbbc23607	-0.0059268507
190	0x3d164f61	0.036696795
191	0x3d1032a5	0.03520455
192	0x3da4efbf	0.080535404
193	0xbcb11670	-0.021617144
194	0xbc092491	-0.0083705345
195	0xbb94281d	-0.0045213834
196	0xbd43b2db	-0.04777799
197	0x3ca2b761	0.019862833
198	0xbbf3e726	-0.0074433265
199	0x3cd7e783	0.02635551
200	0xbd9b9146	-0.07596068
201	0xbcdae3bc	-0.02671992
202	0xbdb29da1	-0.087214716
203	0xbdc26b94	-0.09493175
204	0x3d9748cf	0.07386934
205	0xbc2d00bf	-0.01055926
206	0x3ceca3e9	0.028886752
207	0xbd3ac3a0	-0.04559672
208	0xbd5c9f65	-0.053862948
209	0x3c2ae020	0.010429412
210	0x3c328c79	0.010897749
211	0xbd5b276f	-0.053504404
212	0xbd863323	-0.06552722
213	0x3d8e40c7	0.06945949
214	0x3da07233	0.07834282
215	0x3d10ef57	0.035384502
216	0x3d550f44	0.05201651
217	0xbda0a8d9	-0.07844705
218	0xbd8d027e	-0.06885241
219	0xbd155c66	-0.03646507
220	0xbd96d0f0	-0.073640704
221	0x3d42ea84	0.047586933
222	0xbcdaf973	-0.026730275
223	0xbdaadd6a	-0.08343013
224	0x3d46203b	0.04837058
225	0x3c21fadc	0.00988647
226	0xbd914934	-0.070940405
227	0xbd259050	-0.04042083
228	0xbd6a0dfe	-0.05714225
229	0x3d4d993b	0.05019496
230	0xbaa33719	-0.0012452333
231	0xbd84d945	-0.064867534
232	0xbc2f59bd	-0.010702548
233	0x3b31ce91	0.002713118
234	0xbd83b1b6	-0.0643038
235	0xbd533485	-0.05156376
236	0xbd975d20	-0.07390809
237	0x3d47685f	0.04868352
238	0x3da6014a	0.081057146
239	0x3cd80e04	0.02637387
240	0xbb94a7ff	-0.0045366283
241	0xbd9762b1	-0.07391871
242	0xbd86a561	-0.06574512
243	0xbda594df	-0.080850355
244	0xbc902a53	-0.017598307
245	0x3d3cf288	0.046129733
246	0xbc54a63e	-0.012979088
247	0xbd979ad7	-0.0740258
248	0xbda63e27	-0.08117323
249	0x3d11ae0c	0.035566375
250	0x3d802d51	0.062586434
251	0x3dbe0799	0.09278793
252	0xbb92c697	-0.00447924
253	0x3b8ff6e1	0.004393444
254	0x3cef14e8	0.029184774
255	0xbd742c4a	-0.05961255

actor.linears.1.bias f4 [128]
0	0xbc65947f	-0.014012455
1	0xbd54607d	-0.05184983
2	0x3da04a66	0.078266904
3	0x3c6eb2db	0.01456901
4	0xbda3475c	-0.07972595
5	0xbd83045f	-0.06397318
6	0xbb959087	-0.004564348
7	0xbd7255a7	-0.059163716
8	0xbd165a5f	-0.03670728
9	0x3d117f1c	0.03552161
10	0xbd2f4f12	-0.042800017
11	0x3bcd95f7	0.0062739807
12	0xbc351d83	-0.011054399
13	0xbd16edc7	-0.036847856
14	0xbcc41722	-0.023936812
15	0x3d2dfa27	0.042474892
16	0xbd967ec1	-0.07348395
17	0x3d9b74f4	0.075906664
18	0x3d81ca9a	0.06337471
19	0x3b86a6cc	0.004109239
20	0x3c1d061a	0.009583974
21	0x3cb0e640	0.021594167
22	0xbd82b142	-0.063814655
23	0xbc17cf6b	-0.009265761
24	0x3be8e2d9	0.0071071205
25	0xbc1e58aa	-0.009664694
26	0x3cb08bb7	0.021550996
27	0x3d6c2669	0.05765382
28	0x3d5a6ea2	0.053328164
29	0x3d0760cc	0.033051297
30	0x3c85c34e	0.01632848
31	0xbda99f9a	-0.08282395
32	0x3c9bfdc6	0.019041907
33	0xbd9036dc	-0.070417136
34	0x3d982806	0.07429509
35	0x3d7ca34a	0.061679162
36	0x3d736919	0.0594264
37	0xbd4a695b	-0.04941688
38	0xbd678335	-0.056521613
39	0xbcd2199f	-0.025646983
40	0xbdab158c	-0.08353719
41	0xbce124ab	-0.027483305
42	0x3c0d402a	0.008621255
43	0xbb0c565b	-0.0021413777
44	0x3da8d6c7	0.082440905
45	0x3b07e702	0.0020737057
46	0x3d85cb6d	0.06532941
47	0x3d05b550	0.032643616
48	0x3c67e18b	0.014152895
49	0xbd26cbe3	-0.040721785
50	0xbdbd2c72	-0.09236993
51	0x3d0c7a43	0.034296285
52	0xbc592435	-0.013253261
53	0x3d65b3fa	0.056079842
54	0x3d34d6cc	0.04415016
55	0x3db8fe2b	0.09032854
56	0x3d8d4c7d	0.068993546
57	0xbd4e4ab9	-0.05036423
58	0x3db0bf8a	0.08630283
59	0x3d00be1a	0.031431295
60	0x3c7c11e4	0.015385125
61	0xbd4680cc	-0.048462674
62	0xbca71795	-0.020396987
63	0x3d8e0046	0.06933646
64	0xbdb7a9f8	-0.08967966
65	0x3dac504e	0.084137544
66	0xbc81efd4	-0.01586143
67	0xbd32aaf9	-0.043620083
68	0xbc2381c6	-0.009979671
69	0xbb5fc2b7	-0.0034143159
70	0x3c8e8083	0.017395264
71	0xbcabbade	-0.020963129
72	0xbd855710	-0.065107465
73	0xbd3ae529	-0.0456287
74	0xbc611e00	-0.013740063
75	0x3cefd199	0.029274749
76	0xbccb161d	-0.024790818
77	0x3d205b5a	0.03914962
78	0xbd0c3e14	-0.03423889
79	0x3da3388a	0.07969768
80	0x3d8dab50	0.06917441
81	0xbd9f5328	-0.07779533
82	0xbd3abbbf	-0.045589205
83	0xbd847d82	-0.06469251
84	0xbd972dd8	-0.07381791
85	0xbc97201c	-0.018447928
86	0x3d2964d7	0.041355934
87	0x3d9afc75	0.075676836
88	0x3cbe3331	0.02321777
89	0xbda5123e	-0.0806012
90	0x3d39ae1e	0.045332067
91	0x3d2f4f44	0.042800203
92	0x3bc641d4	0.006050328
93	0xbd2d9356	-0.04237684
94	0xbd7b00f1	-0.061280195
95	0x3d85ac1d	0.06526969
96	0x3c85eda8	0.016348675
97	0x3d9ce406	0.076606795
98	0xbbb563ed	-0.0055355937
99	0xbcbedf1a	-0.023299742
100	0x3da25699	0.079266734
101	0xbc00d8a3	-0.00786415
102	0xbca327b3	-0.019916391
103	0xbcff54f8	-0.031168446
104	0x3dac8fd3	0.0842587
105	0x3d9ab165	0.075533666
106	0xbc66a08a	-0.014076361
107	0x3db268a9	0.087113686
108	0xbce561ed	-0.028000796
109	0xbcdf3889	-0.027248638
110	0x3d61fbfa	0.055171944
111	0x3dbc40ac	0.09192023
112	0xbd95f506	-0.07322125
113	0xbcff5f0a	-0.031173248
114	0x3dacecb0	0.08443582
115	0x3d6db4cc	0.05803375
116	0x3c397079	0.0113183195
117	0x3d9d5889	0.07682902
118	0xbd3293c6	-0.04359796
119	0x3d15e10f	0.036591586
120	0x3d66214a	0.05618409
121	0x3bed6b53	0.00724546
122	0xbda085e5	-0.07838038
123	0x3c889ae4	0.01667542
124	0x3ce8ef97	0.028434558
125	0xbd995f2d	-0.074888565
126	0xba6ab037	-0.00089526497
127	0x3d950ec7	0.07278209
