FJSP_MultiPPO/saved_network/FJSP_J15M15/best_value5/policy_job.pth (torch_old, 991211 bytes, 93 tensors)

_input f4 [128]
00000000: b335 033e e575 55bf 7fc0 a13e f02f bfbe
00000010: 05b9 25bf dc1e ce3e d0c2 5bbf 931b 503f
00000020: b723 6fbe 70e4 093f 2621 a2bd 17ac 0b3e
00000030: b8f3 06bf 1ba8 113f 1788 f8be 0997 f3be
00000040: 3361 593f edeb 65bf 5784 ea3e 8f86 ebbe
00000050: e700 bb3e 670d 233e 0075 d73e 41de 123f
00000060: d102 163f ae07 51bf b75d 7a3f 529c 243f
00000070: 73aa 73bd e436 0cbf 4a30 3cbf e9b9 2b3f
00000080: d567 113f c830 40bf 04cd 53be 0abf 5f3f
00000090: 100a 603d 0216 063f b250 c6bd dcba 10bf
000000a0: 2e74 383e 0bb7 90be b921 7a3f b171 1ebf
000000b0: 704f 323f 6202 49bf 0cae 213f 6798 6e3f
000000c0: 7f26 ce3e 2771 523e 6ddb 9c3d 0bc9 513e
000000d0: ae26 783f 2889 98be 2156 d13e 27d4 3abf
000000e0: 8e23 113f d92b 183f 42c1 d23c cf04 fdbe
000000f0: 069c 703f d671 67bf a29f 60bf 42a9 a73e
00000100: a061 70bf 2384 edbe daba 85be c6d8 42bf
00000110: 8688 64bf be35 bfbe 8a24 debc f6ad dabe
00000120: b9c7 1c3e 5663 6b3f c01f 023f ddb4 10be
00000130: ed26 abbe 8c45 66bf a47f 7a3f 81a3 853e
00000140: 8ed7 8d3e 2eab 553f b57f babe ef9f b1be
00000150: 2609 523f 1cfd 11bf 072e 49bf f048 44be
00000160: 31fd 0fbf fc85 933e 7d3c 67bf ddc3 bfbe
00000170: c379 d13d 5ddd 5dbf a0bd 64be 0645 df3d
00000180: 4df4 2b3e 9c78 f6be 386f 6ebc 046c 40be
00000190: d180 59bf c094 52bf b715 2dbf a801 2e3f
000001a0: d876 43bf 72a8 893e e122 6cbf 230d 1bbf
000001b0: 6d9f 04bf 6d4a 733d 6b92 653f d72e d4be
000001c0: 3f74 563f 216e 103e b5c4 113f 680f 133e
000001d0: 44c6 063e 200c 6d3e 463c b33e b285 5c3f
000001e0: 2a1d 2dbf 30b3 8e3e c4e5 0abf 660a 17be
000001f0: 6f57 503f 1fa3 ac3d f034 363e 0d5d a83e
0.12813453 -0.8338302 0.31592175 -0.3734126 -0.6473544 0.4025792 -0.85844135 0.81292075
-0.23353468 0.5386419 -0.07916479 0.13639866 -0.52715635 0.56897134 -0.48541328 -0.47576168
0.8491394 -0.8981312 0.45804092 -0.46001098 0.36524126 0.15923081 0.4208145 0.5737038
0.5859805 -0.81652343 0.9779925 0.64301026 -0.059488725 -0.54771256 -0.73511183 0.6708055
0.5679906 -0.75074434 -0.20683676 0.8740088 0.054697096 0.5237733 -0.0968336 -0.56535125
0.18013069 -0.2826465 0.97707707 -0.6189223 0.6965246 -0.7851926 0.631562 0.932013
0.40263745 0.20550977 0.0765904 0.20486848 0.9693402 -0.29792142 0.40886024 -0.7297997
0.5669488 0.59441906 0.025726918 -0.4941773 0.9398807 -0.90408075 -0.8774358 0.3274632
-0.93898964 -0.46389875 -0.2611912 -0.7611202 -0.8927082 -0.3734569 -0.027117033 -0.42710847
0.15310563 0.9194845 0.50829697 -0.14131494 -0.33428136 -0.8994987 0.97851014 0.26101306
0.27703518 0.83464324 -0.36425558 -0.34692332 0.8204521 -0.5702684 -0.7858586 -0.19168448
-0.56245714 0.2881316 -0.9032667 -0.3745412 0.10228302 -0.866659 -0.22337961 0.10901837
0.16792412 -0.48138893 -0.014552884 -0.18791205 -0.84962183 -0.82258224 -0.6761126 0.6797128
-0.76353216 0.26886326 -0.9224072 -0.6056692 -0.51805764 0.05939715 0.8967654 -0.41441986
0.8377113 0.14104511 0.56940776 0.14361346 0.1316157 0.23149157 0.35006922 0.861415
-0.67622626 0.27871084 -0.54256845 -0.1475006 0.81383413 0.084295504 0.17793632 0.32883492

bn.weight f4 [2]
00000000: 0000 803f 0000 803f
1.0 1.0

bn.bias f4 [2]
00000000: 0000 0000 0000 0000
0.0 0.0

bn.running_mean f4 [2]
00000000: 0000 0000 0000 0000
0.0 0.0

bn.running_var f4 [2]
00000000: 0000 803f 0000 803f
1.0 1.0

feature_extract.mlps.0.linears.0.weight f4 [128, 2]
00000000: bd3e 1a3f d813 a5bd 72e4 fbbe 6086 c73d
00000010: b058 9a3d e06c 18bf d2ee ba3e 2376 1b3f
00000020: 2fda 103f 42a7 dc3e 9fb7 163f e069 babe
00000030: 3b6b 2b3f 686e dd3d d240 1bbf 44c6 69be
00000040: fafe de3e 407c 273c adbd 143f b40f 07bf
00000050: 70b0 7abe 1198 023f 7905 02bf b8c3 7fbe
00000060: e216 f03e 62c3 ecbe 38cf 43be 5ff0 d5be
00000070: f4eb 0ebf 8704 023f e24a db3e b2ee f33e
00000080: 93f4 dabe 30b8 043e 2031 78be 8078 c0bb
00000090: b183 023f 44b9 3ebe 0410 01bf 1873 ebbe
000000a0: f3de 97be 8093 a4bc 9072 37bd 607a b43c
000000b0: 10b2 153d f255 b43e 0b6c 193f 9a65 913e
000000c0: b291 f2be dccc 68be dc85 0cbf 8f36 b9be
000000d0: 7c37 24be b4b7 7f3e 20b9 21be a699 f53e
000000e0: 18fe d6bd 0e2c 9c3e fe66 c6be 131e 33bf
000000f0: 7c8e 93be f088 2d3d c4aa 853e 0bec a8be
00000100: 80c6 f1bd 49d8 0a3f e1ef 013f c861 94bd
00000110: f177 223f 0d4f 2a3f ce67 fd3e 5e90 ed3e
00000120: ed94 2ebf be14 b53e 5c16 453e 9a6a 1abf
00000130: 8035 ff3c 73d7 80be 6b22 2f3f 8368 2b3f
00000140: 82b7 d33e 39f6 1c3f ab18 343f 7013 9f3d
00000150: 9d55 1abf 8092 803d b03c 673d e47e 01be
00000160: 5af1 b53e 4645 f6be 289a 7f3e f27c c2be
00000170: 8407 b0be ffd8 2b3f 6013 d1bc 064e ed3e
00000180: cc00 3e3e 1053 fabd 5047 8a3e 6957 a3be
00000190: 7695 e83e a860 ef3d 2425 3a3e fc27 6abe
000001a0: 9694 f23e 215e 12bf 826c c13e 5e49 c3be
000001b0: 0cf8 5ebe ae38 bbbe 8d47 10bf e019 a7bd
000001c0: 91b3 12bf e1c1 213f a0ff 503e f89c 7f3e
000001d0: c610 963e 22a1 f53e d238 18bf 99dd 2f3f
000001e0: f6a8 d23e 1ecd fc3e c834 1a3e 742c 553e
000001f0: b0db 17bd e568 b5be b818 33bf a4f3 10bf
00000200: 6415 b9be c0a4 8ebc a880 6d3e a0fe dbbe
00000210: 484d 45be b816 febd b9f6 203f 8810 863d
00000220: 126d 30bf 071f 28bf 89bb 0f3f 305a 6fbd
00000230: 3286 d9be c430 1c3e 4644 f3be 5818 f9bd
00000240: 60d6 5e3e 1e30 edbe 366d bf3e 12c5 e33e
00000250: 907e 24bf 10d0 cc3d 30db 113d 7e84 d7be
00000260: a801 ccbd 7c86 3d3e d1d0 253f 40e2 283d
00000270: 4a98 cd3e eca8 853e 8cc2 0b3e d23c 1fbf
00000280: fd27 e7be 9aa5 9e3e f0cd 753d 32aa ce3e
00000290: 6500 1c3f 1e2b 0fbf 8ac5 8c3e e86c db3d
000002a0: 83c8 253f 40fc b43d f8d3 6dbe 6d62 9dbe
000002b0: de05 c53e 63ec 05bf 98d2 01be ac56 6fbe
000002c0: eee5 a53e 5e18 d23e d8c2 fcbd c834 96bd
000002d0: 405b ccbd cfbe f6be bab0 c93e a012 033e
000002e0: 20b6 4bbd a76f 2e3f 480b e3be 7da3 bfbe
000002f0: 0834 bebd f538 febe d23f 983e 98e0 85bd
00000300: dd77 b1be 1cc2 30be 0abd 2ebf c9f4 283f
00000310: 6bbd 1c3f 7ab1 8e3e 41b0 2abf 6da7 adbe
00000320: 7819 613e 480c 2d3e 5bed 91be e6c7 2cbf
00000330: e4a8 acbe 6091 b83d a5fb 193f bcc7 42be
00000340: 71a3 13bf 2091 0fbf 40fc a2be 16ed 66be
00000350: 1ce5 2b3e 0000 e13b c0b7 97bc faba 823e
00000360: 782d 1bbf e3dd 06bf f8ce f73d 6091 c6bd
00000370: d7bd d2be 6e68 0cbf 6a70 e33e 558a 293f
00000380: 1244 bc3e 8c8d 0c3e 20c7 813e 1605 2ebf
00000390: 567f a93e f44c 23be b6e6 a5be c66f 22bf
000003a0: a6f9 a73e 96d7 9f3e 7320 0ebf a83e dbbd
000003b0: b7e6 c4be 0254 e23e 40ea 963d 58fb 1a3e
000003c0: 46be f73e 806e f03d e475 02be 6927 153f
000003d0: fb9a fcbe 0e09 923e 99ce aabe 3db7 87be
000003e0: f0f4 7d3e 5224 933e 8022 e3bc 3462 683e
000003f0: 7c98 51be 7367 04bf e078 85bc c8ae afbd
0.6025198 -0.080604255 -0.49197727 0.09742427 0.07536447 -0.5954113 0.3651033 0.6072714
0.5658292 0.43096358 0.58873934 -0.364089 0.66960496 0.10812074 -0.6064578 -0.22829539
0.43553907 0.010222495 0.5810192 -0.52758336 -0.24481368 0.51013285 -0.507896 -0.24977005
0.46892458 -0.46242815 -0.19122016 -0.4178495 -0.55828786 0.5078816 0.4283057 0.47643048
-0.4276472 0.12960887 -0.2423749 -0.0058737397 0.50982195 -0.1862536 -0.5041506 -0.45986247
-0.29662284 -0.020089865 -0.04478699 0.02203101 0.036546767 0.3522182 0.59930485 0.28397828
-0.47376782 -0.22734398 -0.54891753 -0.36174437 -0.1603679 0.24972421 -0.15793276 0.47968787
-0.10497683 0.3050236 -0.38750452 -0.69967765 -0.28819644 0.042366922 0.26106846 -0.32992586
-0.11805439 0.54236275 0.5075665 -0.07245213 0.63464266 0.6652687 0.4949326 0.46399206
-0.6819599 0.35367388 0.1924681 -0.6031891 0.03115344 -0.25164375 0.6841189 0.6695635
0.41350943 0.61313206 0.7035014 0.07767379 -0.60286885 0.06277943 0.05645436 -0.12646061
0.355357 -0.48099726 0.2496115 -0.3798595 -0.34380734 0.67127985 -0.025521934 0.4634859
0.18554991 -0.12222874 0.27007532 -0.31902626 0.4542653 0.116883576 0.1817823 -0.22866815
0.47378987 -0.5717488 0.37778097 -0.38141912 -0.2177431 -0.3656668 -0.5635918 -0.08159232
-0.57305247 0.6318646 0.20410013 0.24962223 0.29309672 0.47974497 -0.594617 0.68697506
0.41144532 0.49375242 0.15059197 0.20817739 -0.037074745 -0.3543159 -0.6995959 -0.56621766
-0.36149132 -0.017412543 0.2319361 -0.429677 -0.19267762 -0.12406677 0.6287647 0.06546122
-0.6891643 -0.65672344 0.5614553 -0.05843562 -0.42485195 0.15252978 -0.47513026 -0.12162846
0.21761465 -0.46325773 0.3738801 0.4448629 -0.6425562 0.10000622 0.035609424 -0.4209327
-0.099612534 0.18508333 0.64771754 0.041231394 0.4015525 0.2610544 0.13648432 -0.6220218
-0.45147696 0.3098572 0.06001085 0.40364224 0.609381 -0.55925167 0.2749446 0.107141316
0.6475908 0.08837175 -0.23225391 -0.30739155 0.3848104 -0.5231382 -0.12677991 -0.23372906
0.32401985 0.41034216 -0.12341851 -0.07334286 -0.09978342 -0.4819245 0.39392644 0.12800074
-0.049734235 0.6813912 -0.44344544 -0.3742942 -0.09287268 -0.4965283 0.2973619 -0.065369785
-0.3466176 -0.17261547 -0.682572 0.6599851 0.6122653 0.2786978 -0.6667519 -0.33916798
0.21982372 0.16899216 -0.285014 -0.6749252 -0.33722603 0.09012103 0.60149604 -0.19021505
-0.57671267 -0.5608082 -0.31833076 -0.22551379 0.16786617 0.006866455 -0.018520236 0.25533277
-0.60616255 -0.5268232 0.12100023 -0.09695697 -0.4116046 -0.5484685 0.44421703 0.662267
0.36770684 0.13725871 0.25347233 -0.6797651 0.33104962 -0.15947324 -0.3240258 -0.634518
0.32807654 0.31219167 -0.55518264 -0.1070531 -0.3845727 0.44204718 0.073688984 0.15134943
0.48387355 0.11739826 -0.12740284 0.5826326 -0.4933699 0.28522533 -0.33360747 -0.26506987
0.24800467 0.28738648 -0.027726412 0.22693712 -0.20468324 -0.5172035 -0.01629299 -0.08578259

feature_extract.mlps.0.linears.0.bias f4 [128]
00000000: c064 fdbc b246 c23e f461 753e ee01 c33e
00000010: 2088 003d 562b c83e b4c2 f9be f096 b4be
00000020: 5465 4b3e e6b3 7bbe dc75 1abe 48b2 49be
00000030: af9b eebe ee3a bd3e 41d7 333f 16e3 f33e
00000040: b459 333e 7ae2 02bf d2c6 d53e 10db 75bd
00000050: a50e 093f 4089 edbc 3406 3ebe 784f 1ebf
00000060: 440f 5fbe c42e 1fbe 4b52 c1be 0000 6e37
00000070: a855 ff3d b9b6 0e3f 8e55 e73e e007 a43c
00000080: e67c cdbe b808 653e c18a 263f 76a9 b1be
00000090: 9d6d bdbe 6feb b1be f811 a1be 3090 28be
000000a0: 80ea 9ebb a098 c5bc c8b9 0cbe 88ce 25be
000000b0: 32e5 863e 4843 873d de2b e43e acce 89be
000000c0: d82f 83bd 5a53 eb3e c85f 19be c031 603e
000000d0: 16ff 8e3e 7d78 143f e8fd 6ebe 2781 313f
000000e0: 6da3 a1be 0312 fabe 5ad5 06bf e078 47bd
000000f0: f6de 99be ed46 cfbe 408d c5be 3e5c f63e
00000100: 59df 1d3f 8ee8 d73e 7fae 293f 2737 173f
00000110: 1f6f 24bf 906d 353e 5877 7dbe a2ab 9b3e
00000120: 2042 3b3d 5d9b 0c3f dd09 133f 08d6 f93d
00000130: 922d d63e 9327 023f 5c33 133e d6e7 803e
00000140: 58c6 02be e20f ee3e d14a b8be 7209 08bf
00000150: 8081 debb 776f 96be 0cac 933e c3b1 1abf
00000160: 8a8b a63e 87dd f1be 57c8 013f a22c ae3e
00000170: b7e3 1c3f b8c2 1bbe 204f 57bd 143e 053e
00000180: 3013 30be 7a9a a43e 409c 2c3d 8efb f53e
00000190: 47be 013f 908f bebd 7b22 a9be feb3 953e
000001a0: d0bd 70be d9a7 093f d4fa 41be 0a6a ff3e
000001b0: 26d5 ea3e b830 bebd 98d6 ecbe 401c 23be
000001c0: 10a5 943e 91bc 1e3f c09f 473e 8497 8b3e
000001d0: d678 fc3e ec46 febe 3b5e 0c3f 42bc db3e
000001e0: 48ea f2bd cc39 15be e19d cbbe 917a 0abf
000001f0: 9592 323f 84b6 60be 3d5f dfbe 283b 1c3e
-0.03093183 0.3794456 0.23963147 0.3808741 0.03137982 0.39095563 -0.4878136 -0.35271406
0.19862872 -0.24580345 -0.15084022 -0.19696915 -0.46603152 0.36959022 0.70250326 0.4763419
0.17514688 -0.51126826 0.4175325 -0.060023367 0.5353797 -0.02899611 -0.18557054 -0.6184001
-0.21783167 -0.15545183 -0.37758097 1.41859055e-05 0.124675095 0.5574756 0.4518246 0.020023286
-0.40134352 0.22366607 0.6505547 -0.346996 -0.3699769 -0.34749934 -0.31459022 -0.16461253
-0.004849732 -0.024120629 -0.13742745 -0.16192067 0.26346737 0.0660463 0.44564718 -0.2691549
-0.0640561 0.4596203 -0.14977944 0.21893978 0.2792899 0.5799635 -0.23339045 0.69337696
-0.31569996 -0.48841867 -0.526693 -0.04869926 -0.30052918 -0.404838 -0.38584328 0.4811725
0.61668926 0.42169613 0.66281885 0.5906853 -0.6423206 0.17717576 -0.24752557 0.30404383
0.04571736 0.54924566 0.57436925 0.12199026 0.41831642 0.50841635 0.14375061 0.25176877
-0.12770975 0.46496493 -0.3599458 -0.5313941 -0.00679034 -0.29381916 0.288422 -0.6042749
0.32528335 -0.47239324 0.5069632 0.34018427 0.61284965 -0.15210998 -0.052565694 0.13011962
-0.1719482 0.32149106 0.0421412 0.48043483 0.50680965 -0.09304726 -0.3303412 0.29238886
-0.23509908 0.5377174 -0.1894334 0.4988559 0.45865744 -0.09286636 -0.46257472 -0.15928745
0.29032183 0.6200648 0.19494534 0.27264035 0.4931094 -0.49663484 0.54831284 0.42917067
-0.11861092 -0.14572829 -0.3976889 -0.5409327 0.69754916 -0.21944624 -0.4362735 0.15256941

feature_extract.mlps.0.linears.1.weight f4 [128, 128]
00000000: 2fb1 9dbd a8c7 bc3c c0e9 2dbb 50c9 3bbc
00000010: 65a3 40bd 4747 15bd 32fe a0bd 888d bc3c
00000020: 2c43 86bc d8dd 52bd e11f 0abd 1efd 273d
00000030: b432 8d3c 307c b23b be0e 5b3d 4883 6d3c
00000040: e085 5a3b c4e0 a2bd 2b4a 6ebd 278e 54bd
00000050: 177f 5fbd 8a7e 82bd c594 983d af6d 873d
00000060: a6ec 483d 8805 183c a9e8 0bbd 22fa 263d
00000070: 681d 8dbc e45b 9ebc fc56 a6bd 7486 7abd
00000080: 0cbe b23c 6c3d e4bc 74bd 78bd c998 883d
00000090: 5cdc afbc 54a3 9dbc 876b 41bd 90b9 1f3c
000000a0: 7f14 a13d d56d 4cbd 8056 0e3c 2826 043d
000000b0: 908e 51bc 3c8b 8cbc baf4 4cbd 38ab ffbc
000000c0: 68a8 5bbc 401c bdbb ceb8 403d a187 b33d
000000d0: 397a 2ebd 7058 89bb 48c9 1ebd 84e2 8b3c
000000e0: a600 163d 2538 91bd 8fc6 10bd 5046 cb3b
000000f0: baa2 9ebd aa58 e5bc c0ff 78bd 16a4 263d
00000100: ec09 a5bc c44d b3bc 1839 303c 0f4a 963d
00000110: e4e9 db3c 1069 bfbb f82f a53c c858 7fbc
00000120: dfd2 05bd 312e aebd 1648 7e3d 3aff 353d
00000130: 9531 b03d 4e8c 6ebd f091 013c 9259 3e3d
00000140: be55 463d fd38 9a3d 5112 8e3d 3406 a4bc
00000150: 30ba 2fbd 00cc ffba 8169 a6bd 83cf a73d
00000160: 7b97 ad3d f014 52bc 5433 d73c 1d71 923d
00000170: fa31 1fbd f896 54bd 28f2 013c 72a6 6f3d
00000180: a74f 84bd 78c8 b8bc 0003 ed3c 7c58 fa3c
00000190: f4ea 89bd 1eae 34bd 10d8 00bc 6c75 80bc
000001a0: 8083 92bd 7693 5b3d e88f 5f3c 4084 983b
000001b0: 5df3 993d 083b 223c d81d 83bc 00ba d03a
000001c0: 53e1 9a3d fbc9 28bd 75bf 62bd a6f4 edbc
000001d0: a083 52bc d73e 8fbd 767c fabc 831d 11bd
000001e0: d894 0b3d 92bc 623d 7ee1 96bd 7c42 a6bc
000001f0: 5a54 0c3d 2f8f 9b3d b8fd 063c 1ee3 403d
00000200: f4ca 8bbc 307e 3bbc be6d 3d3d 7d66 9d3d
00000210: 384c 70bc bf75 913d 5af6 443d 4912 953d
00000220: 9c22 073d 511d 8cbd 0007 c439 005b cb39
00000230: 96f3 82bd 08d2 f93c 6018 8a3c 6820 e5bc
00000240: 0280 dfbc a638 423d 6b98 923d 623e 323d
00000250: 70e5 adbc 416e 5bbd 48a8 5e3c 5b93 b03d
00000260: 4093 163c 208c 5c3b 1adb 1e3d 4008 9b3a
00000270: c0ee 8a3a 1255 413d 407d 403b 60ba af3c
00000280: c51f 8f3d 94e3 f33c 3882 8c3c 8d2d a73d
00000290: 8071 60bc 46c0 683d eed0 39bd 1b9c 8dbd
000002a0: 5043 5abd a622 1f3d 180a f23c 59a8 8dbd
000002b0: a880 43bc bf8d b3bd 1d06 47bd 8ae3 033d
000002c0: 7831 6f3c ff3b 903d 0643 103d 47c6 a23d
000002d0: b835 0bbd ae67 b2bd bbc4 813d 2c13 96bc
000002e0: 931a 813d 007c b939 c1c2 22bd f5a9 a9bd
000002f0: b0bc d93b 781d 77bc ce94 273d d2e9 f6bc
00000300: c21d e9bc 2453 fa3c 879a 9bbd 468d 60bd
00000310: 4447 76bd ecff 023d 6b77 a3bd d670 9dbd
00000320: d040 c73b c0e9 8f3c 6a9a 24bd da63 5d3d
00000330: 704b 9b3c 3540 9b3d 1644 623d 7ca9 8f3c
00000340: 00a1 14bb a3cb 973d c9c0 893d 11fc 0cbd
00000350: a897 17bc 806d 44bc 2e5c 393d cb65 67bd
00000360: 4481 8a3c 0930 8a3d ca24 5b3d c8ab 18bd
00000370: 5256 1b3d 5c0d b8bc 7405 b3bc ee2c 393d
00000380: 9e0f b2bd b2b1 3c3d 7811 7a3c d7d4 26bd
00000390: 4b70 7bbd 9eab 443d 80d4 28ba 8ddc 9e3d
000003a0: cc9e ef3c a651 6cbd e04d 2abc 4082 f03a
000003b0: 1f61 803d 6876 183c 0f24 8d3d c01f 55bc
000003c0: fc8c ca3c 3d8f 3cbd 50a7 95bc e0a9 d3bc
000003d0: 3850 14bd bfd5 9b3d c699 8dbd 07df a03d
000003e0: 358a 9f3d 1839 b73c 8336 b4bd b60c 703d
000003f0: eed9 1d3d 6739 a8bd 0254 4f3d da4e 82bd
-0.07699811 0.023044422 -0.002653703 -0.011461571 -0.047030825 -0.03644493 -0.07860984 0.023016706
-0.016389452 -0.051481098 -0.03372181 0.041012876 0.017236091 0.005446933 0.053480856 0.014496632
0.0033343956 -0.07953027 -0.0581762 -0.05189338 -0.05456456 -0.06371792 0.074502505 0.06612717
0.04905381 0.0092786625 -0.03415743 0.04076589 -0.017225936 -0.019330926 -0.0812206 -0.06116338
0.021819137 -0.02786132 -0.06072755 0.066697665 -0.02146738 -0.01924292 -0.047221687 0.009748831
0.078652374 -0.04990943 0.008687615 0.03226295 -0.012790337 -0.017156236 -0.050038077 -0.031209573
-0.01340685 -0.00577119 0.047051243 0.087661035 -0.04259703 -0.004191451 -0.038766176 0.017075785
0.036621712 -0.07090787 -0.03534561 0.0062034503 -0.077458814 -0.02799638 -0.060790777 0.04068383
-0.020146333 -0.021887667 0.0107558 0.07338344 0.026844926 -0.005841382 0.020164475 -0.015585132
-0.032671805 -0.08504904 0.062080465 0.044432856 0.08603207 -0.058239274 0.007908329 0.04647214
0.048421614 0.07530401 0.06937087 -0.02002249 -0.04290217 -0.0019515753 -0.08125592 0.081938766
0.08476158 -0.012822375 0.026269592 0.07150481 -0.03886602 -0.051901788 0.00793127 0.058508344
-0.06460505 -0.022556528 0.028932095 0.03055977 -0.06734267 -0.044111364 -0.007864013 -0.015680991
-0.07153988 0.053607427 0.01364515 0.0046544373 0.07517121 0.009901769 -0.016005442 0.0015924573
0.075625084 -0.04120825 -0.05535837 -0.029047322 -0.012848765 -0.069944076 -0.030576926 -0.035428535
0.034077495 0.055355616 -0.07367228 -0.020295374 0.03426013 0.075956695 0.008239202 0.047091596
-0.017064549 -0.01144366 0.046247236 0.07685564 -0.0146666095 0.071025364 0.0480865 0.07278878
0.03299199 -0.06841529 0.0003738925 0.00038786978 -0.063941166 0.030495659 0.016857326 -0.027969554
-0.027282719 0.047417305 0.07157978 0.043516524 -0.021227568 -0.053571943 0.013589926 0.08621856
0.009190381 0.0033652857 0.03878317 0.001182802 0.0010599717 0.04720027 0.002937153 0.021451175
0.069884814 0.029771604 0.017151937 0.08162985 -0.0136989355 0.05682399 -0.045365267 -0.069145404
-0.05328685 0.038851403 0.029545829 -0.069168754 -0.0119325295 -0.0876727 -0.048589814 0.03219942
0.014599197 0.07042693 0.03522017 0.07947975 -0.033986777 -0.087111816 0.063363515 -0.018319689
0.06303897 0.00035378337 -0.039736513 -0.0828437 0.0066448078 -0.0150827095 0.040913396 -0.030140791
-0.028456572 0.030557223 -0.07597833 -0.05482223 -0.060126558 0.031982347 -0.079817615 -0.07687537
0.0060807243 0.017567515 -0.040186323 0.054050304 0.01895687 0.07580606 0.055240713 0.017536871
-0.0022678971 0.074118875 0.06726224 -0.034420077 -0.009252466 -0.011988997 0.045253925 -0.05649356
0.016907342 0.06747443 0.05350188 -0.0372732 0.03792412 -0.022467308 -0.021853186 0.045208864
-0.08694385 0.0460679 0.015262954 -0.040730324 -0.061386388 0.04801523 -0.00064403564 0.077569105
0.029250525 -0.057695054 -0.010394543 0.0018349364 0.062685244 0.009305574 0.06891643 -0.013008058
0.02472543 -0.04603504 -0.018268257 -0.025837839 -0.036209315 0.07609128 -0.069140956 0.07855039
0.07790033 0.022366092 -0.0879946 0.058605872 0.038537912 -0.08214074 0.050617225 -0.06362696

feature_extract.mlps.0.linears.1.bias f4 [128]
00000000: 80f5 813c 72dd 35bd ab7b adbd 0cf4 cd3c
00000010: e856 74bd 4090 ab3a 273f 983d d0cd df3c
00000020: 27d7 4bbd c089 cc3c bc00 e53c 9fe7 823d
00000030: 0cdf adbc 81e8 8e3d 0e38 233d 6926 873d
00000040: 0080 e9b9 905f 20bc bb79 933d 11ec 953d
00000050: c690 723d f4c4 a1bc 812d a8bd 50a2 ffbb
00000060: 5b69 7fbd ffbb 8a3d a1ab 95bd 5acf 0a3d
00000070: a879 3a3c 2665 8bbd a79a b23d 94e7 f73c
00000080: 90a8 c43b 0a45 31bd 80bb 3cbb bd0f 8f3d
00000090: 4456 c33c 4b9b b33d b012 43bd 265a 673d
000000a0: 3dd2 8c3d 9dc9 ab3d 75bb 12bd 5054 06bc
000000b0: e3bf a53d 99b9 823d a8c5 ae3c f05f 2fbc
000000c0: 809b 5e3c a7d5 91bd 581a 3fbd 3470 cabc
000000d0: 21f6 a6bd a722 1dbd a2c2 593d b241 abbd
000000e0: 00b6 323a 6464 e6bc 6e65 08bd 28d7 86bd
000000f0: 00f7 a13c 34b3 a43c b241 473d 0052 8bbd
00000100: c848 90bc d865 a9bc 0efc 1c3d dbdd 973d
00000110: fe4d 82bd 7225 04bd b006 e03c d87f 78bc
00000120: 8ff8 803d 8032 9ebd d3c1 8a3d 00e0 823c
00000130: 103f b63b 1049 e03c 02b2 373d fccb b7bc
00000140: 2fac b23d c16e a13d 90ce 8bbd 164c 73bd
00000150: 8844 8abc 9cad 9cbd d87e 3e3c 75e1 a33d
00000160: 6ab6 efbc a153 2abd 49a4 a4bd 62eb 1bbd
00000170: b605 1ebd 84b9 81bc cf0a 883d 55db 42bd
00000180: 219d 8b3d f438 d43c 40bb f93c 0197 34bd
00000190: 4216 043d a80c 1ebc e238 1a3d 10a3 66bc
000001a0: 1d9c 46bd 0aae 273d 5711 903d 561e a5bd
000001b0: ae37 613d fa9b adbd ccb1 013d 2a5b 3b3d
000001c0: 5c18 4fbd 583d 38bc 6d95 9ebd 737e 89bd
000001d0: 62b9 90bd 6860 0dbc c088 cc3b 2c00 a1bc
000001e0: b0e1 5dbd e01d 44bd 54f9 cd3c fdb5 2fbd
000001f0: 4f8c a13d 37d3 973d 80df 653b 109d c13b
0.015864134 -0.04440064 -0.084708534 0.025140785 -0.059653193 0.0013089254 0.0743392 0.027319819
-0.049765732 0.024968028 0.027954452 0.063918345 -0.021224521 0.0697794 0.03984838 0.06599123
-0.0004453659 -0.009788409 0.072009526 0.07320417 0.059220098 -0.019747235 -0.08211804 -0.0078013316
-0.062356334 0.06774139 -0.07308126 0.033889152 0.011381544 -0.06806402 0.08720904 0.030261792
0.0060015395 -0.04327873 -0.0028798282 0.06985424 0.023844846 0.08769854 -0.047625244 0.056482457
0.06876037 0.08388064 -0.035823304 -0.008198813 0.0809324 0.06383056 0.021334484 -0.010704026
0.013586879 -0.07120829 -0.046655983 -0.024711706 -0.08152414 -0.038363125 0.053164132 -0.0836214
0.0006817281 -0.028124042 -0.033299856 -0.065840065 0.0197711 0.020104982 0.048646636 -0.0680275
-0.01761283 -0.020678446 0.038326316 0.074153624 -0.06362532 -0.032262273 0.027346939 -0.015167199
0.06297409 -0.07724476 0.0677525 0.015975952 0.005561717 0.027378589 0.044847496 -0.022436135
0.08724248 0.07882453 -0.06826508 -0.059398733 -0.016878381 -0.07650301 0.011626922 0.08001987
-0.029261786 -0.04158366 -0.080391474 -0.038066275 -0.038579665 -0.015835531 0.066426866 -0.047572453
0.06817079 0.025906064 0.030484796 -0.04408932 0.03224779 -0.009646572 0.037651904 -0.014076963
-0.048488725 0.04093746 0.07034557 -0.08062427 0.05498474 -0.08477016 0.0316637 0.045741238
-0.05056034 -0.011245094 -0.077433445 -0.067135714 -0.07066609 -0.008628942 0.006241888 -0.019653402
-0.05417031 -0.047880054 0.025143303 -0.042898167 0.0788809 0.07413333 0.0035075843 0.005908616

feature_extract.mlps.0.linears.2.weight f4 [128, 128]
00000000: 3884 be3c f7e7 96bd 6ff3 17bd 52c9 753d
00000010: ddbf 8cbd 6e00 eabc 00c8 663a bc33 083d
00000020: 183c 2dbc 2edf 42bd c820 7c3c 58fb 2ebc
00000030: 0a6f a0bd aa32 62bd 053e 8abd dfa3 8d3d
00000040: c7a7 5cbd 564d 1e3d 7064 53bd f288 5c3d
00000050: e6a4 e5bc f07d c5bb f01a fcbb a00d 09bb
00000060: 85a8 4dbd 00d7 46ba 4c4e 84bc a3ca 3cbd
00000070: ca23 0a3d c08a aabd 184f 703c e0e8 88bc
00000080: 6a03 93bd 0aab 1b3d 48da 843c 00f7 9fbc
00000090: 6a05 82bd 1003 9cbb d267 223d 4c82 a9bd
000000a0: db2b 8a3d 08e6 ebbc 41ed 20bd a0d3 81bb
000000b0: f042 6c3c 504d 9a3b c7c1 b23d 986b 59bc
000000c0: 445b d1bc 80b1 ecba 7363 873d f06b b53c
000000d0: 1805 8d3c b012 af3c d953 9a3d efee 9f3d
000000e0: 38bf 74bc 97e6 98bd 0b58 8b3d 3a45 5a3d
000000f0: fa0f 773d 505a 82bb 5099 d33c 1edc 7a3d
00000100: da21 4abd b006 c73c 904e e73c 5e83 61bd
00000110: 4e57 6d3d b8c4 bcbc 675b 35bd b585 16bd
00000120: ed23 98bd d86f 90bc 95db 2cbd cbbe 8c3d
00000130: 6011 0c3b eb7c 8b3d d8f8 6ebd b269 603d
00000140: baf9 fbbc 7d04 a6bd 0e75 193d 12d1 d5bc
00000150: 296e 833d 0c6d 0f3d 90fe 3bbc dd3f 833d
00000160: c0c6 aa3c 194e b03d b664 513d 4d7d 87bd
00000170: 1de3 b03d 30e0 5cbc d991 a73d 65b7 af3d
00000180: 0a9e 3a3d e8b9 3fbc 60b2 283b 127e 2a3d
00000190: 5048 46bd 3cd6 e7bc ba30 65bd c09e 75bd
000001a0: 1684 403d a18e 30bd e0e6 70bb 1653 393d
000001b0: f387 a7bd 6ed9 12bd 5077 eb3c e784 57bd
000001c0: ac69 7ebd 00f7 ea3a 0e02 20bd 9265 503d
000001d0: a0ed 6fbc 9c1a f73c 5f40 02bd a09c 56bb
000001e0: 307f f83c 6b6a 5dbd 46ab 703d 73de 16bd
000001f0: 1ce9 07bd 1e28 a6bd 1c68 07bd fa50 26bd
00000200: fc4f 87bc 80a1 293c 6e89 4c3d f1ad 5ebd
00000210: b8a4 afbd ec41 813c da74 9cbd a724 863d
00000220: 7039 143c 1464 a13c 1496 fdbc 1f40 993d
00000230: e425 133d 38aa 57bc a36a 83bd b8be 393c
00000240: a0ec 783b 7ea5 503d 54eb f13c 69f4 b2bd
00000250: b392 9d3d 02b0 243d 0208 64bd b5fd 8bbd
00000260: 0067 7abb c7bc 883d ad71 96bd 5470 89bc
00000270: 80b3 863b ae07 2a3d beab 04bd 8d83 a5bd
00000280: 3629 4d3d 6175 26bd 702a 9abc 92c7 2a3d
00000290: 4680 013d 8034 313a 8a4a 8bbd 00c5 91bd
000002a0: 65fa 983d 6765 8c3d e091 8d3c 24f2 e3bc
000002b0: 20ca 8bbc d6e1 17bd 9697 663d b66f 003d
000002c0: 953e 89bd 5a9f 4abd 78dd 133d ca9e 413d
000002d0: d0ad 993b 706f d53c 2fe2 2dbd ccd6 3dbd
000002e0: 9070 96bd 1066 a63c 0071 a53c cc1f f73c
000002f0: 3e39 713d 4491 85bd 14c8 a3bc 0089 04ba
00000300: 39e0 87bd d00f 8e3b 2057 1cbc 72c2 4c3d
00000310: d06f dbbb a64f 753d 26e9 153d aca3 bf3c
00000320: 77bd 5ebd 961e 3fbd 4b15 a63d ea12 053d
00000330: e34d 8c3d 555b 963d 400c 6f3b 9325 853d
00000340: 987a b03c 10ce 4b3c ca8a 3f3d 9ac0 703d
00000350: 22b3 b0bd a68f 593d 203a 413c 20cf b13b
00000360: b0fe 8fbd 32c9 a4bd 5c63 9dbc 2017 09bd
00000370: c750 b23d 927c 4d3d e854 68bc 3e1f 263d
00000380: 94d7 fcbc 2af6 85bd 2387 4ebd c0fe 67bd
00000390: 009c fabb 929c 293d 300d 53bd 83eb 82bd
000003a0: eb87 42bd c3c7 43bd e0d6 00bc 4dc6 13bd
000003b0: c5ad 993d 4301 a93d 8809 b03c 76f5 243d
000003c0: 2c73 f93c 2d54 8e3d 8274 2f3d af8e a8bd
000003d0: 70e1 963b 00e8 413c b089 4ebc f2c4 92bd
000003e0: 10fa 203c 2cc7 e43c 0e81 7e3d 5ccf 833c
000003f0: eed7 293d 601e dc3b e6f7 3b3d 9d5f ae3d
0.023256406 -0.073684625 -0.03709739 0.060006447 -0.068725325 -0.028564658 0.0008803606 0.033252463
-0.0105734095 -0.047576122 0.015388675 -0.010680042 -0.07833679 -0.0552241 -0.067501105 0.069160216
-0.053870942 0.038647972 -0.051609457 0.05384154 -0.028032731 -0.006026976 -0.007693641 -0.0020912662
-0.05020954 -0.0007585138 -0.016150616 -0.046091687 0.033725537 -0.08327246 0.014667295 -0.016712606
-0.071783856 0.038004912 0.016217366 -0.019526958 -0.06348689 -0.0047611073 0.039649792 -0.08276805
0.06746646 -0.02879621 -0.039288763 -0.0039619952 0.014420256 0.0047089234 0.08728366 -0.013270281
-0.025556214 -0.001805827 0.06610765 0.022146195 0.017214343 0.021371216 0.07535524 0.07809245
-0.014938168 -0.074658565 0.06803902 0.053288676 0.06031797 -0.0039780512 0.025829941 0.061245076
-0.04934869 0.024295181 0.028235704 -0.055056922 0.05794459 -0.023043022 -0.04427662 -0.036748607
-0.07428727 -0.017631456 -0.042201597 0.06872328 0.002137266 0.068109356 -0.058342785 0.0547883
-0.030758727 -0.08106325 0.037465148 -0.026100669 0.06417496 0.035016105 -0.011474267 0.06408665
0.020846725 0.08608646 0.051121436 -0.06615696 0.086370684 -0.013481185 0.08182115 0.085799016
0.045560874 -0.011702038 0.0025741085 0.041624136 -0.048408806 -0.028300397 -0.055954672 -0.05996585
0.047000967 -0.04310477 -0.0036758706 0.045245253 -0.08180227 -0.03585189 0.028743416 -0.05261698
-0.062112495 0.0017926395 -0.03906446 0.050878115 -0.014644057 0.030164056 -0.03179967 -0.0032747164
0.030334085 -0.054056566 0.05875709 -0.036833238 -0.033181295 -0.081131205 -0.03305827 -0.04060457
-0.016517632 0.010353446 0.04993575 -0.054365102 -0.085763395 0.015778504 -0.07639475 0.0654996
0.009046897 0.019701041 -0.030955352 0.07482933 0.035924807 -0.013163142 -0.06416824 0.011336975
0.0037982836 0.050939076 0.029531159 -0.08738024 0.07693996 0.040206917 -0.0556717 -0.068355
-0.0038208365 0.066766314 -0.07345901 -0.016777195 0.0041107535 0.04151123 -0.03239035 -0.08081732
0.05008813 -0.040639285 -0.018819064 0.04169423 0.03161647 0.0006759837 -0.068013266 -0.07117653
0.07469634 0.068552785 0.017281473 -0.027825423 -0.017064154 -0.03708061 0.056296907 0.031356536
-0.0670139 -0.049468376 0.03609988 0.047270574 0.0046899095 0.026054114 -0.042452034 -0.046347424
-0.07345688 0.020312339 0.020195484 0.03016653 0.05889248 -0.06521848 -0.019992866 -0.0005055815
-0.06634564 0.004335381 -0.009542257 0.049990125 -0.0066966787 0.05989041 0.0365993 0.023393475
-0.054379907 -0.04666003 0.0810953 0.03248874 0.06850793 0.07341639 0.0036475807 0.06501307
0.021542832 0.012439266 0.04676322 0.05877743 -0.08627917 0.05311551 0.011793643 0.0054263026
-0.07031 -0.080461875 -0.019212417 -0.03346932 0.08706813 0.050167628 -0.0141803995 0.04055714
-0.030864514 -0.06541093 -0.050421845 -0.056639433 -0.007647991 0.041409083 -0.05152625 -0.063925765
-0.047492903 -0.04779793 -0.00786373 -0.036077786 0.07503847 0.08252194 0.02148892 0.040273152
0.030450426 0.06949649 0.04283572 -0.0823034 0.004604511 0.011835098 -0.012606069 -0.071664706
0.009825245 0.027927004 0.062134795 0.016090088 0.041465692 0.006717488 0.04589071 0.085143305

feature_extract.mlps.0.linears.2.bias f4 [128]
00000000: ab8f 2cbd 0475 98bc 442c 8dbd fbee 63bd
00000010: ccd4 80bd a0df debc 2742 923d 6a83 7a3d
00000020: 4040 37bb 138b 913d fc12 c93c b654 87bd
00000030: 0522 843d 2f87 823d 00ca 173b fb25 a73d
00000040: f429 fa3c 10d8 d73b fd9e 853d cd71 a33d
00000050: d95b ae3d 8e2e 66bd 529b a3bd bc0d 0a3d
00000060: bb34 843d 9a54 15bd de2c a3bd 86af 3b3d
00000070: f781 11bd 734f 5bbd bc27 fd3c ea6d 743d
00000080: ba20 3d3d 40d0 f23a 1cb4 b7bc 50b9 ea3b
00000090: 15e8 8a3d 0cdf a93c 4036 c43c 48d2 3dbc
000000a0: 5a9a 7ebd 9abf adbd 2781 36bd a22d 13bd
000000b0: b481 98bd 5993 833d 60fd b33c be5b 043d
000000c0: 2dab 00bd 7a67 0c3d edee 4abd 1676 2b3d
000000d0: f3a0 b33d a62a 423d 1cbc 0c3d bc2b 62bd
000000e0: 0a42 88bd 25ce acbd a07b 80bc a606 29bd
000000f0: 95ae 823d d22a a6bd f7e3 72bd d8d6 cf3c
00000100: 0f5b a5bd 60ff cabb 18e0 2ebc 56b3 143d
00000110: 50e4 e93b b0de e1bb 528f 2f3d 2a02 b2bd
00000120: 985b 5e3c 286d 9abd ce33 523d e341 8dbd
00000130: 805b ebba a0e9 0cbc e83c 433c 889d dc3c
00000140: 4a87 fabc 5fa7 a73d 82ce 2b3d 3839 29bc
00000150: 47b8 a43d 8b55 a33d 5262 523d bf72 943d
00000160: 2a14 3b3d 7a74 423d 1f0c b33d f00f 8abd
00000170: d845 4bbc 98fa 4e3c de00 86bd a3c2 893d
00000180: 6a4c dbbc b85b c2bc 69b8 a93d abe6 81bd
00000190: 55e1 3abd 00c2 9cbd a889 b63c 4e3d 4f3d
000001a0: 3ca5 f53c fc9f b93c bfe2 80bd 4000 383b
000001b0: 6052 b63c deb4 773d 6788 b0bd f65f 723d
000001c0: 30aa b7bb fc2f abbd 0894 2f3c 75cf 85bd
000001d0: 9c01 bf3c 58ab 623c 2daa 3abd 70d2 82bb
000001e0: 1ec9 67bd 3320 5ebd 387e 42bc e0e5 9b3c
000001f0: fac6 713d e066 8b3b 44c1 a23c af60 09bd
-0.0421292 -0.018610485 -0.068932086 -0.05564783 -0.06290588 -0.027206242 0.07141524 0.061160482
-0.002796188 0.071066044 0.024545185 -0.06607954 0.06451801 0.063734405 0.0023161173 0.08161541
0.030537583 0.006587036 0.06524465 0.0798069 0.08513612 -0.05619674 -0.079886094 0.033704504
0.0645537 -0.036457635 -0.07967542 0.04582169 -0.035524335 -0.053542566 0.030902736 0.059675135
0.04617379 0.0018525198 -0.02242475 0.0071632043 0.067825474 0.02073624 0.02395165 -0.0115857795
-0.06215892 -0.08483811 -0.044556763 -0.03593219 -0.07446614 0.06424589 0.021971405 0.032314055
-0.031413246 0.03427837 -0.049544264 0.041860662 0.08770933 0.047403954 0.034359083 -0.05521749
-0.06653221 -0.084377564 -0.015683949 -0.041266106 0.06380955 -0.08113636 -0.059299435 0.025371
-0.08074009 -0.006194994 -0.010673545 0.03630384 0.0071378127 -0.0068930015 0.04286129 -0.08691819
0.013571642 -0.07540351 0.051318936 -0.068973325 -0.0017956346 -0.008600622 0.011916377 0.026930586
-0.030582089 0.081862204 0.041944988 -0.010328583 0.080429606 0.079753004 0.051363297 0.072484486
0.045673527 0.047474362 0.08742546 -0.06741321 -0.012406789 0.012632988 -0.06543134 0.06726577
-0.026769836 -0.023725376 0.082871266 -0.063428245 -0.04562505 -0.0765419 0.022282436 0.050595574
0.029986016 0.022659294 -0.062932484 0.002807632 0.022256076 0.060475223 -0.08619767 0.059173547
-0.0056050047 -0.08358762 0.010716446 -0.0653371 0.023316197 0.013834797 -0.04557245 -0.0039923713
-0.056588285 -0.054229926 -0.011870913 0.019030511 0.05902765 0.004254207 0.019867547 -0.03353947

feature_extract.mlps.0.batch_norms.0.weight f4 [128]
00000000: 0000 803f 0000 803f 0000 803f 0000 803f
00000010: 0000 803f 0000 803f 0000 803f 0000 803f
00000020: 0000 803f 0000 803f 0000 803f 0000 803f
00000030: 0000 803f 0000 803f 0000 803f 0000 803f
00000040: 0000 803f 0000 803f 0000 803f 0000 803f
00000050: 0000 803f 0000 803f 0000 803f 0000 803f
00000060: 0000 803f 0000 803f 0000 803f 0000 803f
00000070: 0000 803f 0000 803f 0000 803f 0000 803f
00000080: 0000 803f 0000 803f 0000 803f 0000 803f
00000090: 0000 803f 0000 803f 0000 803f 0000 803f
000000a0: 0000 803f 0000 803f 0000 803f 0000 803f
000000b0: 0000 803f 0000 803f 0000 803f 0000 803f
000000c0: 0000 803f 0000 803f 0000 803f 0000 803f
000000d0: 0000 803f 0000 803f 0000 803f 0000 803f
000000e0: 0000 803f 0000 803f 0000 803f 0000 803f
000000f0: 0000 803f 0000 803f 0000 803f 0000 803f
00000100: 0000 803f 0000 803f 0000 803f 0000 803f
00000110: 0000 803f 0000 803f 0000 803f 0000 803f
00000120: 0000 803f 0000 803f 0000 803f 0000 803f
00000130: 0000 803f 0000 803f 0000 803f 0000 803f
00000140: 0000 803f 0000 803f 0000 803f 0000 803f
00000150: 0000 803f 0000 803f 0000 803f 0000 803f
00000160: 0000 803f 0000 803f 0000 803f 0000 803f
00000170: 0000 803f 0000 803f 0000 803f 0000 803f
00000180: 0000 803f 0000 803f 0000 803f 0000 803f
00000190: 0000 803f 0000 803f 0000 803f 0000 803f
000001a0: 0000 803f 0000 803f 0000 803f 0000 803f
000001b0: 0000 803f 0000 803f 0000 803f 0000 803f
000001c0: 0000 803f 0000 803f 0000 803f 0000 803f
000001d0: 0000 803f 0000 803f 0000 803f 0000 803f
000001e0: 0000 803f 0000 803f 0000 803f 0000 803f
000001f0: 0000 803f 0000 803f 0000 803f 0000 803f
1.0 1.0 1.0 1.0 1.0 1.0 1.0 1.0
1.0 1.0 1.0 1.0 1.0 1.0 1.0 1.0
1.0 1.0 1.0 1.0 1.0 1.0 1.0 1.0
1.0 1.0 1.0 1.0 1.0 1.0 1.0 1.0
1.0 1.0 1.0 1.0 1.0 1.0 1.0 1.0
1.0 1.0 1.0 1.0 1.0 1.0 1.0 1.0
1.0 1.0 1.0 1.0 1.0 1.0 1.0 1.0
1.0 1.0 1.0 1.0 1.0 1.0 1.0 1.0
1.0 1.0 1.0 1.0 1.0 1.0 1.0 1.0
1.0 1.0 1.0 1.0 1.0 1.0 1.0 1.0
1.0 1.0 1.0 1.0 1.0 1.0 1.0 1.0
1.0 1.0 1.0 1.0 1.0 1.0 1.0 1.0
1.0 1.0 1.0 1.0 1.0 1.0 1.0 1.0
1.0 1.0 1.0 1.0 1.0 1.0 1.0 1.0
1.0 1.0 1.0 1.0 1.0 1.0 1.0 1.0
1.0 1.0 1.0 1.0 1.0 1.0 1.0 1.0

feature_extract.mlps.0.batch_norms.0.bias f4 [128]
00000000: 0000 0000 0000 0000 0000 0000 0000 0000
00000010: 0000 0000 0000 0000 0000 0000 0000 0000
00000020: 0000 0000 0000 0000 0000 0000 0000 0000
00000030: 0000 0000 0000 0000 0000 0000 0000 0000
00000040: 0000 0000 0000 0000 0000 0000 0000 0000
00000050: 0000 0000 0000 0000 0000 0000 0000 0000
00000060: 0000 0000 0000 0000 0000 0000 0000 0000
00000070: 0000 0000 0000 0000 0000 0000 0000 0000
00000080: 0000 0000 0000 0000 0000 0000 0000 0000
00000090: 0000 0000 0000 0000 0000 0000 0000 0000
000000a0: 0000 0000 0000 0000 0000 0000 0000 0000
000000b0: 0000 0000 0000 0000 0000 0000 0000 0000
000000c0: 0000 0000 0000 0000 0000 0000 0000 0000
000000d0: 0000 0000 0000 0000 0000 0000 0000 0000
000000e0: 0000 0000 0000 0000 0000 0000 0000 0000
000000f0: 0000 0000 0000 0000 0000 0000 0000 0000
00000100: 0000 0000 0000 0000 0000 0000 0000 0000
00000110: 0000 0000 0000 0000 0000 0000 0000 0000
00000120: 0000 0000 0000 0000 0000 0000 0000 0000
00000130: 0000 0000 0000 0000 0000 0000 0000 0000
00000140: 0000 0000 0000 0000 0000 0000 0000 0000
00000150: 0000 0000 0000 0000 0000 0000 0000 0000
00000160: 0000 0000 0000 0000 0000 0000 0000 0000
00000170: 0000 0000 0000 0000 0000 0000 0000 0000
00000180: 0000 0000 0000 0000 0000 0000 0000 0000
00000190: 0000 0000 0000 0000 0000 0000 0000 0000
000001a0: 0000 0000 0000 0000 0000 0000 0000 0000
000001b0: 0000 0000 0000 0000 0000 0000 0000 0000
000001c0: 0000 0000 0000 0000 0000 0000 0000 0000
000001d0: 0000 0000 0000 0000 0000 0000 0000 0000
000001e0: 0000 0000 0000 0000 0000 0000 0000 0000
000001f0: 0000 0000 0000 0000 0000 0000 0000 0000
0.0 0.0 0.0 0.0 0.0 0.0 0.0 0.0
0.0 0.0 0.0 0.0 0.0 0.0 0.0 0.0
0.0 0.0 0.0 0.0 0.0 0.0 0.0 0.0
0.0 0.0 0.0 0.0 0.0 0.0 0.0 0.0
0.0 0.0 0.0 0.0 0.0 0.0 0.0 0.0
0.0 0.0 0.0 0.0 0.0 0.0 0.0 0.0
0.0 0.0 0.0 0.0 0.0 0.0 0.0 0.0
0.0 0.0 0.0 0.0 0.0 0.0 0.0 0.0
0.0 0.0 0.0 0.0 0.0 0.0 0.0 0.0
0.0 0.0 0.0 0.0 0.0 0.0 0.0 0.0
0.0 0.0 0.0 0.0 0.0 0.0 0.0 0.0
0.0 0.0 0.0 0.0 0.0 0.0 0.0 0.0
0.0 0.0 0.0 0.0 0.0 0.0 0.0 0.0
0.0 0.0 0.0 0.0 0.0 0.0 0.0 0.0
0.0 0.0 0.0 0.0 0.0 0.0 0.0 0.0
0.0 0.0 0.0 0.0 0.0 0.0 0.0 0.0

feature_extract.mlps.0.batch_norms.0.running_mean f4 [128]
00000000: 0000 0000 0000 0000 0000 0000 0000 0000
00000010: 0000 0000 0000 0000 0000 0000 0000 0000
00000020: 0000 0000 0000 0000 0000 0000 0000 0000
00000030: 0000 0000 0000 0000 0000 0000 0000 0000
00000040: 0000 0000 0000 0000 0000 0000 0000 0000
00000050: 0000 0000 0000 0000 0000 0000 0000 0000
00000060: 0000 0000 0000 0000 0000 0000 0000 0000
00000070: 0000 0000 0000 0000 0000 0000 0000 0000
00000080: 0000 0000 0000 0000 0000 0000 0000 0000
00000090: 0000 0000 0000 0000 0000 0000 0000 0000
000000a0: 0000 0000 0000 0000 0000 0000 0000 0000
000000b0: 0000 0000 0000 0000 0000 0000 0000 0000
000000c0: 0000 0000 0000 0000 0000 0000 0000 0000
000000d0: 0000 0000 0000 0000 0000 0000 0000 0000
000000e0: 0000 0000 0000 0000 0000 0000 0000 0000
000000f0: 0000 0000 0000 0000 0000 0000 0000 0000
00000100: 0000 0000 0000 0000 0000 0000 0000 0000
00000110: 0000 0000 0000 0000 0000 0000 0000 0000
00000120: 0000 0000 0000 0000 0000 0000 0000 0000
00000130: 0000 0000 0000 0000 0000 0000 0000 0000
00000140: 0000 0000 0000 0000 0000 0000 0000 0000
00000150: 0000 0000 0000 0000 0000 0000 0000 0000
00000160: 0000 0000 0000 0000 0000 0000 0000 0000
00000170: 0000 0000 0000 0000 0000 0000 0000 0000
00000180: 0000 0000 0000 0000 0000 0000 0000 0000
00000190: 0000 0000 0000 0000 0000 0000 0000 0000
000001a0: 0000 0000 0000 0000 0000 0000 0000 0000
000001b0: 0000 0000 0000 0000 0000 0000 0000 0000
000001c0: 0000 0000 0000 0000 0000 0000 0000 0000
000001d0: 0000 0000 0000 0000 0000 0000 0000 0000
000001e0: 0000 0000 0000 0000 0000 0000 0000 0000
000001f0: 0000 0000 0000 0000 0000 0000 0000 0000
0.0 0.0 0.0 0.0 0.0 0.0 0.0 0.0
0.0 0.0 0.0 0.0 0.0 0.0 0.0 0.0
0.0 0.0 0.0 0.0 0.0 0.0 0.0 0.0
0.0 0.0 0.0 0.0 0.0 0.0 0.0 0.0
0.0 0.0 0.0 0.0 0.0 0.0 0.0 0.0
0.0 0.0 0.0 0.0 0.0 0.0 0.0 0.0
0.0 0.0 0.0 0.0 0.0 0.0 0.0 0.0
0.0 0.0 0.0 0.0 0.0 0.0 0.0 0.0
0.0 0.0 0.0 0.0 0.0 0.0 0.0 0.0
0.0 0.0 0.0 0.0 0.0 0.0 0.0 0.0
0.0 0.0 0.0 0.0 0.0 0.0 0.0 0.0
0.0 0.0 0.0 0.0 0.0 0.0 0.0 0.0
0.0 0.0 0.0 0.0 0.0 0.0 0.0 0.0
0.0 0.0 0.0 0.0 0.0 0.0 0.0 0.0
0.0 0.0 0.0 0.0 0.0 0.0 0.0 0.0
0.0 0.0 0.0 0.0 0.0 0.0 0.0 0.0

feature_extract.mlps.0.batch_norms.0.running_var f4 [128]
00000000: 0000 803f 0000 803f 0000 803f 0000 803f
00000010: 0000 803f 0000 803f 0000 803f 0000 803f
00000020: 0000 803f 0000 803f 0000 803f 0000 803f
00000030: 0000 803f 0000 803f 0000 803f 0000 803f
00000040: 0000 803f 0000 803f 0000 803f 0000 803f
00000050: 0000 803f 0000 803f 0000 803f 0000 803f
00000060: 0000 803f 0000 803f 0000 803f 0000 803f
00000070: 0000 803f 0000 803f 0000 803f 0000 803f
00000080: 0000 803f 0000 803f 0000 803f 0000 803f
00000090: 0000 803f 0000 803f 0000 803f 0000 803f
000000a0: 0000 803f 0000 803f 0000 803f 0000 803f
000000b0: 0000 803f 0000 803f 0000 803f 0000 803f
000000c0: 0000 803f 0000 803f 0000 803f 0000 803f
000000d0: 0000 803f 0000 803f 0000 803f 0000 803f
000000e0: 0000 803f 0000 803f 0000 803f 0000 803f
000000f0: 0000 803f 0000 803f 0000 803f 0000 803f
00000100: 0000 803f 0000 803f 0000 803f 0000 803f
00000110: 0000 803f 0000 803f 0000 803f 0000 803f
00000120: 0000 803f 0000 803f 0000 803f 0000 803f
00000130: 0000 803f 0000 803f 0000 803f 0000 803f
00000140: 0000 803f 0000 803f 0000 803f 0000 803f
00000150: 0000 803f 0000 803f 0000 803f 0000 803f
00000160: 0000 803f 0000 803f 0000 803f 0000 803f
00000170: 0000 803f 0000 803f 0000 803f 0000 803f
00000180: 0000 803f 0000 803f 0000 803f 0000 803f
00000190: 0000 803f 0000 803f 0000 803f 0000 803f
000001a0: 0000 803f 0000 803f 0000 803f 0000 803f
000001b0: 0000 803f 0000 803f 0000 803f 0000 803f
000001c0: 0000 803f 0000 803f 0000 803f 0000 803f
000001d0: 0000 803f 0000 803f 0000 803f 0000 803f
000001e0: 0000 803f 0000 803f 0000 803f 0000 803f
000001f0: 0000 803f 0000 803f 0000 803f 0000 803f
1.0 1.0 1.0 1.0 1.0 1.0 1.0 1.0
1.0 1.0 1.0 1.0 1.0 1.0 1.0 1.0
1.0 1.0 1.0 1.0 1.0 1.0 1.0 1.0
1.0 1.0 1.0 1.0 1.0 1.0 1.0 1.0
1.0 1.0 1.0 1.0 1.0 1.0 1.0 1.0
1.0 1.0 1.0 1.0 1.0 1.0 1.0 1.0
1.0 1.0 1.0 1.0 1.0 1.0 1.0 1.0
1.0 1.0 1.0 1.0 1.0 1.0 1.0 1.0
1.0 1.0 1.0 1.0 1.0 1.0 1.0 1.0
1.0 1.0 1.0 1.0 1.0 1.0 1.0 1.0
1.0 1.0 1.0 1.0 1.0 1.0 1.0 1.0
1.0 1.0 1.0 1.0 1.0 1.0 1.0 1.0
1.0 1.0 1.0 1.0 1.0 1.0 1.0 1.0
1.0 1.0 1.0 1.0 1.0 1.0 1.0 1.0
1.0 1.0 1.0 1.0 1.0 1.0 1.0 1.0
1.0 1.0 1.0 1.0 1.0 1.0 1.0 1.0

feature_extract.mlps.0.batch_norms.1.weight f4 [128]
00000000: 0000 803f 0000 803f 0000 803f 0000 803f
00000010: 0000 803f 0000 803f 0000 803f 0000 803f
00000020: 0000 803f 0000 803f 0000 803f 0000 803f
00000030: 0000 803f 0000 803f 0000 803f 0000 803f
00000040: 0000 803f 0000 803f 0000 803f 0000 803f
00000050: 0000 803f 0000 803f 0000 803f 0000 803f
00000060: 0000 803f 0000 803f 0000 803f 0000 803f
00000070: 0000 803f 0000 803f 0000 803f 0000 803f
00000080: 0000 803f 0000 803f 0000 803f 0000 803f
00000090: 0000 803f 0000 803f 0000 803f 0000 803f
000000a0: 0000 803f 0000 803f 0000 803f 0000 803f
000000b0: 0000 803f 0000 803f 0000 803f 0000 803f
000000c0: 0000 803f 0000 803f 0000 803f 0000 803f
000000d0: 0000 803f 0000 803f 0000 803f 0000 803f
000000e0: 0000 803f 0000 803f 0000 803f 0000 803f
000000f0: 0000 803f 0000 803f 0000 803f 0000 803f
00000100: 0000 803f 0000 803f 0000 803f 0000 803f
00000110: 0000 803f 0000 803f 0000 803f 0000 803f
00000120: 0000 803f 0000 803f 0000 803f 0000 803f
00000130: 0000 803f 0000 803f 0000 803f 0000 803f
00000140: 0000 803f 0000 803f 0000 803f 0000 803f
00000150: 0000 803f 0000 803f 0000 803f 0000 803f
00000160: 0000 803f 0000 803f 0000 803f 0000 803f
00000170: 0000 803f 0000 803f 0000 803f 0000 803f
00000180: 0000 803f 0000 803f 0000 803f 0000 803f
00000190: 0000 803f 0000 803f 0000 803f 0000 803f
000001a0: 0000 803f 0000 803f 0000 803f 0000 803f
000001b0: 0000 803f 0000 803f 0000 803f 0000 803f
000001c0: 0000 803f 0000 803f 0000 803f 0000 803f
000001d0: 0000 803f 0000 803f 0000 803f 0000 803f
000001e0: 0000 803f 0000 803f 0000 803f 0000 803f
000001f0: 0000 803f 0000 803f 0000 803f 0000 803f
1.0 1.0 1.0 1.0 1.0 1.0 1.0 1.0
1.0 1.0 1.0 1.0 1.0 1.0 1.0 1.0
1.0 1.0 1.0 1.0 1.0 1.0 1.0 1.0
1.0 1.0 1.0 1.0 1.0 1.0 1.0 1.0
1.0 1.0 1.0 1.0 1.0 1.0 1.0 1.0
1.0 1.0 1.0 1.0 1.0 1.0 1.0 1.0
1.0 1.0 1.0 1.0 1.0 1.0 1.0 1.0
1.0 1.0 1.0 1.0 1.0 1.0 1.0 1.0
1.0 1.0 1.0 1.0 1.0 1.0 1.0 1.0
1.0 1.0 1.0 1.0 1.0 1.0 1.0 1.0
1.0 1.0 1.0 1.0 1.0 1.0 1.0 1.0
1.0 1.0 1.0 1.0 1.0 1.0 1.0 1.0
1.0 1.0 1.0 1.0 1.0 1.0 1.0 1.0
1.0 1.0 1.0 1.0 1.0 1.0 1.0 1.0
1.0 1.0 1.0 1.0 1.0 1.0 1.0 1.0
1.0 1.0 1.0 1.0 1.0 1.0 1.0 1.0

feature_extract.mlps.0.batch_norms.1.bias f4 [128]
00000000: 0000 0000 0000 0000 0000 0000 0000 0000
00000010: 0000 0000 0000 0000 0000 0000 0000 0000
00000020: 0000 0000 0000 0000 0000 0000 0000 0000
00000030: 0000 0000 0000 0000 0000 0000 0000 0000
00000040: 0000 0000 0000 0000 0000 0000 0000 0000
00000050: 0000 0000 0000 0000 0000 0000 0000 0000
00000060: 0000 0000 0000 0000 0000 0000 0000 0000
00000070: 0000 0000 0000 0000 0000 0000 0000 0000
00000080: 0000 0000 0000 0000 0000 0000 0000 0000
00000090: 0000 0000 0000 0000 0000 0000 0000 0000
000000a0: 0000 0000 0000 0000 0000 0000 0000 0000
000000b0: 0000 0000 0000 0000 0000 0000 0000 0000
000000c0: 0000 0000 0000 0000 0000 0000 0000 0000
000000d0: 0000 0000 0000 0000 0000 0000 0000 0000
000000e0: 0000 0000 0000 0000 0000 0000 0000 0000
000000f0: 0000 0000 0000 0000 0000 0000 0000 0000
00000100: 0000 0000 0000 0000 0000 0000 0000 0000
00000110: 0000 0000 0000 0000 0000 0000 0000 0000
00000120: 0000 0000 0000 0000 0000 0000 0000 0000
00000130: 0000 0000 0000 0000 0000 0000 0000 0000
00000140: 0000 0000 0000 0000 0000 0000 0000 0000
00000150: 0000 0000 0000 0000 0000 0000 0000 0000
00000160: 0000 0000 0000 0000 0000 0000 0000 0000
00000170: 0000 0000 0000 0000 0000 0000 0000 0000
00000180: 0000 0000 0000 0000 0000 0000 0000 0000
00000190: 0000 0000 0000 0000 0000 0000 0000 0000
000001a0: 0000 0000 0000 0000 0000 0000 0000 0000
000001b0: 0000 0000 0000 0000 0000 0000 0000 0000
000001c0: 0000 0000 0000 0000 0000 0000 0000 0000
000001d0: 0000 0000 0000 0000 0000 0000 0000 0000
000001e0: 0000 0000 0000 0000 0000 0000 0000 0000
000001f0: 0000 0000 0000 0000 0000 0000 0000 0000
0.0 0.0 0.0 0.0 0.0 0.0 0.0 0.0
0.0 0.0 0.0 0.0 0.0 0.0 0.0 0.0
0.0 0.0 0.0 0.0 0.0 0.0 0.0 0.0
0.0 0.0 0.0 0.0 0.0 0.0 0.0 0.0
0.0 0.0 0.0 0.0 0.0 0.0 0.0 0.0
0.0 0.0 0.0 0.0 0.0 0.0 0.0 0.0
0.0 0.0 0.0 0.0 0.0 0.0 0.0 0.0
0.0 0.0 0.0 0.0 0.0 0.0 0.0 0.0
0.0 0.0 0.0 0.0 0.0 0.0 0.0 0.0
0.0 0.0 0.0 0.0 0.0 0.0 0.0 0.0
0.0 0.0 0.0 0.0 0.0 0.0 0.0 0.0
0.0 0.0 0.0 0.0 0.0 0.0 0.0 0.0
0.0 0.0 0.0 0.0 0.0 0.0 0.0 0.0
0.0 0.0 0.0 0.0 0.0 0.0 0.0 0.0
0.0 0.0 0.0 0.0 0.0 0.0 0.0 0.0
0.0 0.0 0.0 0.0 0.0 0.0 0.0 0.0

feature_extract.mlps.0.batch_norms.1.running_mean f4 [128]
00000000: 0000 0000 0000 0000 0000 0000 0000 0000
00000010: 0000 0000 0000 0000 0000 0000 0000 0000
00000020: 0000 0000 0000 0000 0000 0000 0000 0000
00000030: 0000 0000 0000 0000 0000 0000 0000 0000
00000040: 0000 0000 0000 0000 0000 0000 0000 0000
00000050: 0000 0000 0000 0000 0000 0000 0000 0000
00000060: 0000 0000 0000 0000 0000 0000 0000 0000
00000070: 0000 0000 0000 0000 0000 0000 0000 0000
00000080: 0000 0000 0000 0000 0000 0000 0000 0000
00000090: 0000 0000 0000 0000 0000 0000 0000 0000
000000a0: 0000 0000 0000 0000 0000 0000 0000 0000
000000b0: 0000 0000 0000 0000 0000 0000 0000 0000
000000c0: 0000 0000 0000 0000 0000 0000 0000 0000
000000d0: 0000 0000 0000 0000 0000 0000 0000 0000
000000e0: 0000 0000 0000 0000 0000 0000 0000 0000
000000f0: 0000 0000 0000 0000 0000 0000 0000 0000
00000100: 0000 0000 0000 0000 0000 0000 0000 0000
00000110: 0000 0000 0000 0000 0000 0000 0000 0000
00000120: 0000 0000 0000 0000 0000 0000 0000 0000
00000130: 0000 0000 0000 0000 0000 0000 0000 0000
00000140: 0000 0000 0000 0000 0000 0000 0000 0000
00000150: 0000 0000 0000 0000 0000 0000 0000 0000
00000160: 0000 0000 0000 0000 0000 0000 0000 0000
00000170: 0000 0000 0000 0000 0000 0000 0000 0000
00000180: 0000 0000 0000 0000 0000 0000 0000 0000
00000190: 0000 0000 0000 0000 0000 0000 0000 0000
000001a0: 0000 0000 0000 0000 0000 0000 0000 0000
000001b0: 0000 0000 0000 0000 0000 0000 0000 0000
000001c0: 0000 0000 0000 0000 0000 0000 0000 0000
000001d0: 0000 0000 0000 0000 0000 0000 0000 0000
000001e0: 0000 0000 0000 0000 0000 0000 0000 0000
000001f0: 0000 0000 0000 0000 0000 0000 0000 0000
0.0 0.0 0.0 0.0 0.0 0.0 0.0 0.0
0.0 0.0 0.0 0.0 0.0 0.0 0.0 0.0
0.0 0.0 0.0 0.0 0.0 0.0 0.0 0.0
0.0 0.0 0.0 0.0 0.0 0.0 0.0 0.0
0.0 0.0 0.0 0.0 0.0 0.0 0.0 0.0
0.0 0.0 0.0 0.0 0.0 0.0 0.0 0.0
0.0 0.0 0.0 0.0 0.0 0.0 0.0 0.0
0.0 0.0 0.0 0.0 0.0 0.0 0.0 0.0
0.0 0.0 0.0 0.0 0.0 0.0 0.0 0.0
0.0 0.0 0.0 0.0 0.0 0.0 0.0 0.0
0.0 0.0 0.0 0.0 0.0 0.0 0.0 0.0
0.0 0.0 0.0 0.0 0.0 0.0 0.0 0.0
0.0 0.0 0.0 0.0 0.0 0.0 0.0 0.0
0.0 0.0 0.0 0.0 0.0 0.0 0.0 0.0
0.0 0.0 0.0 0.0 0.0 0.0 0.0 0.0
0.0 0.0 0.0 0.0 0.0 0.0 0.0 0.0

feature_extract.mlps.0.batch_norms.1.running_var f4 [128]
00000000: 0000 803f 0000 803f 0000 803f 0000 803f
00000010: 0000 803f 0000 803f 0000 803f 0000 803f
00000020: 0000 803f 0000 803f 0000 803f 0000 803f
00000030: 0000 803f 0000 803f 0000 803f 0000 803f
00000040: 0000 803f 0000 803f 0000 803f 0000 803f
00000050: 0000 803f 0000 803f 0000 803f 0000 803f
00000060: 0000 803f 0000 803f 0000 803f 0000 803f
00000070: 0000 803f 0000 803f 0000 803f 0000 803f
00000080: 0000 803f 0000 803f 0000 803f 0000 803f
00000090: 0000 803f 0000 803f 0000 803f 0000 803f
000000a0: 0000 803f 0000 803f 0000 803f 0000 803f
000000b0: 0000 803f 0000 803f 0000 803f 0000 803f
000000c0: 0000 803f 0000 803f 0000 803f 0000 803f
000000d0: 0000 803f 0000 803f 0000 803f 0000 803f
000000e0: 0000 803f 0000 803f 0000 803f 0000 803f
000000f0: 0000 803f 0000 803f 0000 803f 0000 803f
00000100: 0000 803f 0000 803f 0000 803f 0000 803f
00000110: 0000 803f 0000 803f 0000 803f 0000 803f
00000120: 0000 803f 0000 803f 0000 803f 0000 803f
00000130: 0000 803f 0000 803f 0000 803f 0000 803f
00000140: 0000 803f 0000 803f 0000 803f 0000 803f
00000150: 0000 803f 0000 803f 0000 803f 0000 803f
00000160: 0000 803f 0000 803f 0000 803f 0000 803f
00000170: 0000 803f 0000 803f 0000 803f 0000 803f
00000180: 0000 803f 0000 803f 0000 803f 0000 803f
00000190: 0000 803f 0000 803f 0000 803f 0000 803f
000001a0: 0000 803f 0000 803f 0000 803f 0000 803f
000001b0: 0000 803f 0000 803f 0000 803f 0000 803f
000001c0: 0000 803f 0000 803f 0000 803f 0000 803f
000001d0: 0000 803f 0000 803f 0000 803f 0000 803f
000001e0: 0000 803f 0000 803f 0000 803f 0000 803f
000001f0: 0000 803f 0000 803f 0000 803f 0000 803f
1.0 1.0 1.0 1.0 1.0 1.0 1.0 1.0
1.0 1.0 1.0 1.0 1.0 1.0 1.0 1.0
1.0 1.0 1.0 1.0 1.0 1.0 1.0 1.0
1.0 1.0 1.0 1.0 1.0 1.0 1.0 1.0
1.0 1.0 1.0 1.0 1.0 1.0 1.0 1.0
1.0 1.0 1.0 1.0 1.0 1.0 1.0 1.0
1.0 1.0 1.0 1.0 1.0 1.0 1.0 1.0
1.0 1.0 1.0 1.0 1.0 1.0 1.0 1.0
1.0 1.0 1.0 1.0 1.0 1.0 1.0 1.0
1.0 1.0 1.0 1.0 1.0 1.0 1.0 1.0
1.0 1.0 1.0 1.0 1.0 1.0 1.0 1.0
1.0 1.0 1.0 1.0 1.0 1.0 1.0 1.0
1.0 1.0 1.0 1.0 1.0 1.0 1.0 1.0
1.0 1.0 1.0 1.0 1.0 1.0 1.0 1.0
1.0 1.0 1.0 1.0 1.0 1.0 1.0 1.0
1.0 1.0 1.0 1.0 1.0 1.0 1.0 1.0
