FJSP_MultiPPO/saved_network/FJSP_J30M20/best_value5/policy_mch.pth (torch_old, 271482 bytes, 14 tensors)

bn.weight f4 [128]
0.99290437 0.99588376 0.9952969 0.99648446 1.0030662 0.9968923 0.9916722 0.9981759
0.99812466 1.0025187 0.9979837 1.0036215 1.0063701 0.99955845 1.007986 0.99617845
1.0005276 1.0057716 0.99932134 0.9975195 0.99468285 0.9941756 0.9985133 1.0024966
0.9988525 1.002835 1.0021799 0.99098235 0.9960473 1.0024432 0.99921376 0.99257797
1.0061224 0.99498284 0.99466366 1.0062088 0.99508864 1.0021629 1.0046268 0.99633384
0.9990088 1.0002105 0.99848187 0.9941286 0.99611384 0.9987104 0.99950916 1.0050108
0.9945683 0.9980602 0.99080133 0.9929128 0.992399 0.9953118 1.0067406 0.9941091
1.0068705 0.9947202 1.0072193 1.0073766 1.0045513 0.9962781 0.99296814 1.0033177
0.99898857 1.0024086 0.99977416 0.995791 0.9998638 0.99423856 0.9988338 0.9975032
0.9987596 0.99476045 0.99475455 1.0050683 0.9980966 0.9985148 1.0072881 1.0032163
0.99267983 0.99551475 0.99521244 0.99587405 0.9977285 0.99899936 0.9969206 0.99167514
1.0006502 0.9987425 1.0027782 1.0051491 1.0052165 0.9999833 0.99609715 0.9969772
0.9936844 0.99709713 0.99307877 1.0068614 1.0007131 0.99456865 1.0010235 0.99463075
0.9999513 0.99641246 0.9906169 0.9922999 1.0031037 0.99038815 1.0051734 0.99110144
1.0009792 0.99684817 1.0002292 0.9970459 1.001859 0.9996904 0.9952966 0.99974155
0.99768037 0.99440557 1.0026628 1.0063634 0.99419427 0.9984101 0.9919592 0.9948922
00000000: fb2e 7e3f 3df2 7e3f c7cb 7e3f 9b19 7f3f
00000010: 7964 803f 5534 7f3f 3bde 7d3f 7588 7f3f
00000020: 1985 7f3f 8852 803f dc7b 7f3f ab76 803f
00000030: bcd0 803f 10e3 7f3f af05 813f 8d05 7f3f
00000040: 4a11 803f 20bd 803f 86d3 7f3f 705d 7f3f
00000050: 89a3 7e3f 4b82 7e3f 919e 7f3f cf51 803f
00000060: ccb4 7f3f e65c 803f 6e47 803f 05b1 7d3f
00000070: f5fc 7e3f 0f50 803f 79cc 7f3f 9719 7e3f
00000080: 9ec8 803f 32b7 7e3f 47a2 7e3f 73cb 803f
00000090: 21be 7e3f e046 803f 9c97 803f bc0f 7f3f
000000a0: 0abf 7f3f e606 803f 829c 7f3f 367f 7e3f
000000b0: 5101 7f3f 7cab 7f3f d5df 7f3f 32a4 803f
000000c0: 079c 7e3f e080 7f3f 28a5 7d3f 892f 7e3f
000000d0: dc0d 7e3f c1cc 7e3f e0dc 803f ef7d 7e3f
000000e0: 22e1 803f fca5 7e3f 90ec 803f b7f1 803f
000000f0: 2395 803f 150c 7f3f 2933 7e3f b76c 803f
00000100: b7bd 7f3f ed4e 803f 33f1 7f3f 29ec 7e3f
00000110: 13f7 7f3f 6b86 7e3f 92b3 7f3f 5f5c 7f3f
00000120: b6ae 7f3f 9fa8 7e3f 3ca8 7e3f 14a6 803f
00000130: 4283 7f3f aa9e 7f3f d1ee 803f 6469 803f
00000140: 4420 7e3f 0eda 7e3f 3ec6 7e3f 9af1 7e3f
00000150: 236b 7f3f 6cbe 7f3f 3036 7f3f 6cde 7d3f
00000160: 4e15 803f 97ad 7f3f 095b 803f baa8 803f
00000170: efaa 803f e8fe 7f3f 3900 7f3f e639 7f3f
00000180: 1a62 7e3f c241 7f3f 693a 7e3f d6e0 803f
00000190: 5e17 803f 0d9c 7e3f 8a21 803f 1fa0 7e3f
000001a0: cffc 7f3f e314 7f3f 1299 7d3f 5e07 7e3f
000001b0: b465 803f 148a 7d3f 86a9 803f d3b8 7d3f
000001c0: 1620 803f 7131 7f3f 8307 803f 663e 7f3f
000001d0: ea3c 803f b6eb 7f3f c2cb 7e3f 10ef 7f3f
000001e0: fb67 7f3f 5d91 7e3f 4157 803f 84d0 803f
000001f0: 8483 7e3f ce97 7f3f 0af1 7d3f 41b1 7e3f

bn.bias f4 [128]
-0.00022589466 -0.00039739325 0.008241487 -0.0060556247 0.0027607637 -0.0033359414 -0.003192646 -0.00062295207
0.010023221 -0.00045737732 0.004286157 0.00061200536 0.001883125 -0.00028340475 0.001989065 0.0049253535
0.0008285553 -0.0055426816 -0.0036376284 -0.00020567063 0.005844014 -0.008577363 -0.0076030735 -0.0018695255
-0.0035518215 6.819952e-05 0.0017963964 -0.0034422514 -0.0065624407 -0.0035568778 -0.0010116119 -0.005006917
0.0069187307 0.0054768682 -0.0007480861 -0.002819995 -0.005708684 0.0055646203 -0.0054911976 0.0067067007
0.0024886616 0.0054491675 0.009593955 -0.0013722775 0.0015501727 -0.008361571 0.00401333 -0.0034171497
-0.006472575 -0.0042056427 0.0018522976 0.005254937 -0.00039530013 0.007022582 -0.0012006772 -0.0020042222
0.005743156 0.00575441 0.004713341 0.0035343284 0.00454525 0.0025475977 0.008433397 0.0013775199
-0.0056827343 -0.0061371657 0.008134489 0.006217901 -0.0051130787 0.0013836084 0.004965434 0.004179904
-0.0057615414 0.00055743475 -0.0036834092 0.004569317 0.00070462155 0.00043938833 -0.005955527 0.005229026
-0.010833437 -0.0021522383 0.001107704 -0.0046802866 0.0012288893 -0.0029556032 0.0030292345 -0.006214658
0.009472246 0.006902153 0.0048502497 -0.0011150261 0.005135511 -0.011037781 0.008215934 0.002861169
0.0004571408 0.0047483407 0.0013066006 0.007870515 -0.0023956466 0.0102464175 -0.008319125 0.00077205757
0.0012490597 0.0043618707 -0.0044447416 -0.0047311545 -0.0026061696 -0.0008917503 0.0015680174 -0.003932761
-0.0021314344 0.004676625 -0.0013585674 -0.00019161483 -0.005196225 0.0015524034 0.0048427037 0.003704791
0.005223512 -0.005363479 0.0009366515 -0.0017989562 -0.00068779243 0.0009677603 0.0068750093 -0.0008187991
00000000: 23de 6cb9 3859 d0b9 4d07 073c 436e c6bb
00000010: eeed 343b cf9f 5abb b63b 51bb 9b4d 23ba
00000020: 7038 243c 25cc efb9 e472 8c3b fc6e 203a
00000030: 31d3 f63a f195 94b9 f95a 023b dc64 a13b
00000040: 6833 593a 629f b5bb 4765 6ebb 4aa9 57b9
00000050: 257f bf3b 1188 0cbc 3423 f9bb de0a f5ba
00000060: adc5 68bb 5706 8f38 1075 eb3a 6597 61bb
00000070: be09 d7bb 821a 69bb 1098 84ba 1011 a4bb
00000080: 85b6 e23b 4d77 b33b 351b 44ba aacf 38bb
00000090: ea0f bbbb 6b57 b63b 81ef b3bb e2c3 db3b
000000a0: d018 233b ee8e b23b f72f 1d3c fedd b3ba
000000b0: 2a2f cb3a f8fe 08bc 4182 833b 42f2 5fbb
000000c0: e517 d4bb 7dcf 89bb cbc8 f23a 9b31 ac3b
000000d0: 4940 cfb9 b01d e63b 0b60 9dba 4559 03bb
000000e0: 1631 bc3b 7d8f bc3b 5f72 9a3b 31a0 673b
000000f0: 52f0 943b 99f5 263b 3b2c 0a3c e68d b43a
00000100: 3b36 babb 471a c9bb 8546 053c 89bf cb3b
00000110: 9d8b a7bb 325a b53a 14b5 a23b 93f7 883b
00000120: 50cb bcbb d020 123a 5a65 71bb 36ba 953b
00000130: 5ab6 383a b45d e639 9526 c3bb 4058 ab3b
00000140: ba7e 31bc 910c 0dbb 6130 913a 175d 99bb
00000150: af12 a13a cbb2 41bb 1f86 463b 54a4 cbbb
00000160: 7b31 1b3c 752b e23b d8ee 9e3b 1126 92ba
00000170: ca47 a83b cfd7 34bc 209c 063c 7382 3b3b
00000180: 66ac ef39 f897 9b3b 3e42 ab3a 55f3 003c
00000190: 4800 1dbb 97e0 273c f04c 08bc e863 4a3a
000001a0: 7db7 a33a 06ee 8e3b 32a5 91bb cd07 9bbb
000001b0: 45cc 2abb 59c4 69ba ef85 cd3a 64de 80bb
000001c0: 89af 0bbb 603e 993b f511 b2ba 37ec 48b9
000001d0: 1845 aabb 047a cb3a 8baf 9e3b 14cc 723b
000001e0: ff29 ab3b 1fc0 afbb 9e89 753a f4ca ebba
000001f0: f84c 34ba 4bb1 7d3a c247 e13b ada4 56ba

bn.running_mean f4 [128]
0.08089655 0.25570497 0.3011261 0.03361729 0.03799129 0.11505709 -0.019482417 -0.03143015
-0.29427433 -0.16289036 -0.057402734 0.07162152 0.26254475 0.13388494 -0.022438966 -0.18517725
-0.2814425 0.25934988 0.13889775 -0.19295995 -0.019423774 0.17602386 0.017956065 -0.29601783
0.24398072 -0.0043395525 -0.26788256 -0.25754413 0.27591285 0.13218676 -0.06982842 -0.15616092
-0.19698405 -0.1715828 0.23995821 0.19922273 0.19387808 0.20324066 0.016519204 0.13328995
-0.16400613 -0.12005869 -0.1035733 0.10085701 0.07893342 0.06769633 -0.192961 0.29258263
-0.12983552 0.049365863 -0.10458571 -0.0066267936 -0.091008544 0.022236254 -0.17991094 -0.0071386644
-0.21550256 -0.29837245 -0.15748411 -0.13081077 -0.22752164 0.0018548167 -0.015729848 -0.036903758
0.17641395 0.18092328 -0.24186914 0.01254732 -0.06246081 -0.19097866 0.19263634 -0.23151505
-0.044026848 0.25000006 0.01955944 -0.14933147 -0.21120173 -0.16238388 -0.21061657 -0.23450376
0.21724783 0.27500367 -0.26947835 0.2288258 -0.185331 0.1819304 -0.12948231 -0.13917883
-0.2794101 -0.11827262 -0.0537195 0.13233213 -0.03027723 0.07593072 -0.12062036 0.07451358
-0.20693134 -0.002579411 0.20662807 -0.091086686 0.074381575 -0.23493151 0.1178959 0.1960821
0.09002424 -0.06752279 0.023747543 -0.15398195 0.2952468 -0.22051392 0.2857037 -0.066402756
0.25987646 -0.07700012 0.105018035 0.26905066 0.12244754 0.05045834 0.13266167 -0.1996746
0.07646406 0.29759347 -0.29172483 0.19519658 -0.24077663 -0.07262064 -0.032065984 0.24778943
00000000: 17ad a53d c3eb 823e 332d 9a3e 49b2 093d
00000010: c19c 1b3d 0da3 eb3d 9799 9fbc e7bc 00bd
00000020: 20ab 96be bbcc 26be 211f 6bbd 4eae 923d
00000030: 446c 863e 2219 093e ecd1 b7bc 1b9f 3dbe
00000040: 3b19 90be 82c9 843e 363b 0e3e 4b97 45be
00000050: 9b1e 9fbc 993f 343e 9918 933c a68f 97be
00000060: 15d6 793e ce32 8ebb e727 89be d3dc 83be
00000070: 7344 8d3e f75b 073e 3402 8fbd a6e8 1fbe
00000080: 30b6 49be 67b3 2fbe 9bb7 753e 0b01 4c3e
00000090: fa87 463e 521e 503e 4853 873c 297d 083e
000000a0: 39f1 27be 55e1 f5bd 3d1e d4bd 1f8e ce3d
000000b0: d8a7 a13d 60a4 8a3d 9297 45be 64cd 953e
000000c0: 9af3 04be dc33 4a3d 0831 d6bd 9325 d9bb
000000d0: b062 babd ce28 b63c 933a 38be 75eb e9bb
000000e0: b4ac 5cbe 46c4 98be 8443 21be 42f3 05be
000000f0: 6ffb 68be 521d f33a e2db 80bc 6528 17bd
00000100: dca5 343e f443 393e 8bac 77be 4693 4d3c
00000110: e8d6 7fbd e98f 43be 7642 453e 4812 6dbe
00000120: 7f55 34bd 0200 803e 1e3b a03c 59ea 18be
00000130: 4445 58be f647 26be dfab 57be c121 70be
00000140: 3776 5e3e 48cd 8c3e 11f9 89be 4f51 6a3e
00000150: 69c7 3dbe f64b 3a3e 0397 04be e584 0ebe
00000160: d70e 8fbe ea38 f2bd fa08 5cbd 1382 073e
00000170: f407 f8bc 9181 9b3d cf07 f7bd 939a 983d
00000180: cfe5 53be 560b 29bb 4f96 533e a88b babd
00000190: 5e55 983d e391 70be 6873 f13d bfc9 483e
000001a0: a15e b83d 6349 8abd 358a c23c 72ad 1dbe
000001b0: 972a 973e 67ce 61be c147 923e 2bfe 87bd
000001c0: 870e 853e 3db2 9dbd b213 d73d 02c1 893e
000001d0: c7c5 fa3d 68ad 4e3d 76d8 073e 8077 4cbe
000001e0: 3099 9c3d 2c5e 983e f55c 95be 9de1 473e
000001f0: 268e 76be 21ba 94bd 9f57 03bd 83bc 7d3e

bn.running_var f4 [128]
0.00015044295 0.00019356376 0.00038692227 0.00019581175 0.000108689805 0.00010114156 7.3063435e-05 1.1814646e-05
0.00032703675 6.618051e-05 0.0002361978 1.2800238e-05 0.00023387087 9.668863e-05 2.4841263e-05 0.00028398592
0.0001965293 0.00019016617 0.00020996344 0.00024344014 3.3225657e-05 7.687438e-05 2.1372774e-05 0.00025508157
0.0001931871 1.089121e-06 0.00032770052 0.00022551422 0.00035195754 0.00013089424 0.0001527267 0.00021861245
0.00027569104 0.0002206715 0.00032314417 0.00016014012 0.0002826029 0.00013150153 1.219734e-05 0.00014870997
0.00019474719 3.893868e-05 4.3880664e-05 6.27354e-05 0.00012986631 2.3297789e-05 0.00029117882 0.00032854214
0.0002585438 0.00012897488 0.00015684233 1.9593847e-06 3.101506e-05 0.0001146365 0.00018695387 1.7778867e-06
0.00024904707 0.00030212748 0.00025520142 0.00015918088 0.00013597611 1.32868045e-05 8.842036e-05 0.00017552523
0.00018776329 9.297942e-05 0.00016506315 1.6147533e-05 6.44835e-05 0.00023555261 0.00012784165 0.00035999194
0.0002039276 0.00018727813 3.8887647e-06 0.000119910976 0.00012524123 0.00011083005 0.00028456468 0.00013926417
0.00015390517 0.00025020487 0.00018367846 0.00013043232 8.7957036e-05 0.00022018685 0.00014055973 5.983246e-05
0.0002053266 3.7163543e-05 9.8869714e-05 6.85883e-05 2.6222228e-06 1.6401473e-05 0.00017707326 0.0002115962
0.00013927708 0.0001208078 0.00012300609 0.00013725228 3.1997915e-05 0.00014972241 5.2027535e-05 0.00011157028
0.00023512864 0.00012495929 0.00021334033 0.00022888857 0.00021862125 0.0002824436 0.00033356348 0.00018636334
0.00026103688 0.00023632466 0.00010511486 0.00018543263 4.3859563e-05 3.104705e-05 4.4551583e-05 0.00014774775
4.8942096e-05 0.0002908373 0.0003260501 0.00029358038 0.00014608704 2.3881486e-05 3.876509e-06 0.00034807934
00000000: 39c0 1d39 60f7 4a39 d4db ca39 d152 4d39
00000010: 65f0 e338 f61b d438 a239 9938 8537 4637
00000020: 2176 ab39 64ca 8a38 ddab 7739 9bc0 5637
00000030: 3c3b 7539 50c5 ca38 3562 d037 f2e3 9439
00000040: 6f13 4e39 5867 4739 a229 5c39 f743 7f39
00000050: c75b 0b38 9e37 a138 af49 b337 78bc 8539
00000060: 4492 4a39 ea2d 9235 38cf ab39 0378 6c39
00000070: f186 b839 a840 0939 4325 2039 553b 6539
00000080: a08a 9039 0e64 6739 ad6b a939 49eb 2739
00000090: 522a 9439 ace3 0939 2da3 4c37 07ef 1b39
000000a0: 0d35 4c39 1752 2338 810c 3838 d090 8338
000000b0: b92c 0839 9f6f c337 5ca9 9839 2e40 ac39
000000c0: 298d 8739 6e3d 0739 0b76 2439 f97d 0336
000000d0: 2b16 0238 0169 f038 0c09 4439 b99f ee35
000000e0: 8892 8239 dd66 9e39 8ecc 8539 cbe9 2639
000000f0: cf94 0e39 64ea 5e37 526e b938 320d 3839
00000100: 53e2 4439 f2fd c238 cd14 2d39 9074 8737
00000110: 513b 8738 acfe 7639 3b0d 0639 4dbd bc39
00000120: 66d5 5539 1760 4439 3c7c 8236 b778 fb38
00000130: 3053 0339 6e6d e838 a031 9539 7107 1239
00000140: 9b61 2139 ee2d 8339 d099 4039 a9c4 0839
00000150: 9375 b838 f5e1 6639 3763 1339 9df4 7a38
00000160: f14c 5739 0de0 1b38 4658 cf38 10d7 8f38
00000170: 72f9 2f36 e595 8937 beac 3939 ecdf 5d39
00000180: e80a 1239 325a fd38 32fb 0039 61eb 0f39
00000190: 8035 0638 cefe 1c39 2438 5a38 d7fa e938
000001a0: dd8c 7639 8107 0339 1cb4 5f39 cf01 7039
000001b0: b23d 6539 f014 9439 22e2 ae39 876a 4339
000001c0: c7db 8839 ebcd 7739 1c71 dc38 b170 4239
000001d0: d9f5 3738 8438 0238 e6dc 3a38 bcec 1a39
000001e0: 2d47 4d38 867b 9839 b4f1 aa39 b1eb 9939
000001f0: f12e 1939 1a55 c837 f512 8236 6b7e b639

bn1.weight f4 [128]
1.0 1.0 1.0 1.0 1.0 1.0 1.0 1.0
1.0 1.0 1.0 1.0 1.0 1.0 1.0 1.0
1.0 1.0 1.0 1.0 1.0 1.0 1.0 1.0
1.0 1.0 1.0 1.0 1.0 1.0 1.0 1.0
1.0 1.0 1.0 1.0 1.0 1.0 1.0 1.0
1.0 1.0 1.0 1.0 1.0 1.0 1.0 1.0
1.0 1.0 1.0 1.0 1.0 1.0 1.0 1.0
1.0 1.0 1.0 1.0 1.0 1.0 1.0 1.0
1.0 1.0 1.0 1.0 1.0 1.0 1.0 1.0
1.0 1.0 1.0 1.0 1.0 1.0 1.0 1.0
1.0 1.0 1.0 1.0 1.0 1.0 1.0 1.0
1.0 1.0 1.0 1.0 1.0 1.0 1.0 1.0
1.0 1.0 1.0 1.0 1.0 1.0 1.0 1.0
1.0 1.0 1.0 1.0 1.0 1.0 1.0 1.0
1.0 1.0 1.0 1.0 1.0 1.0 1.0 1.0
1.0 1.0 1.0 1.0 1.0 1.0 1.0 1.0
00000000: 0000 803f 0000 803f 0000 803f 0000 803f
00000010: 0000 803f 0000 803f 0000 803f 0000 803f
00000020: 0000 803f 0000 803f 0000 803f 0000 803f
00000030: 0000 803f 0000 803f 0000 803f 0000 803f
00000040: 0000 803f 0000 803f 0000 803f 0000 803f
00000050: 0000 803f 0000 803f 0000 803f 0000 803f
00000060: 0000 803f 0000 803f 0000 803f 0000 803f
00000070: 0000 803f 0000 803f 0000 803f 0000 803f
00000080: 0000 803f 0000 803f 0000 803f 0000 803f
00000090: 0000 803f 0000 803f 0000 803f 0000 803f
000000a0: 0000 803f 0000 803f 0000 803f 0000 803f
000000b0: 0000 803f 0000 803f 0000 803f 0000 803f
000000c0: 0000 803f 0000 803f 0000 803f 0000 803f
000000d0: 0000 803f 0000 803f 0000 803f 0000 803f
000000e0: 0000 803f 0000 803f 0000 803f 0000 803f
000000f0: 0000 803f 0000 803f 0000 803f 0000 803f
00000100: 0000 803f 0000 803f 0000 803f 0000 803f
00000110: 0000 803f 0000 803f 0000 803f 0000 803f
00000120: 0000 803f 0000 803f 0000 803f 0000 803f
00000130: 0000 803f 0000 803f 0000 803f 0000 803f
00000140: 0000 803f 0000 803f 0000 803f 0000 803f
00000150: 0000 803f 0000 803f 0000 803f 0000 803f
00000160: 0000 803f 0000 803f 0000 803f 0000 803f
00000170: 0000 803f 0000 803f 0000 803f 0000 803f
00000180: 0000 803f 0000 803f 0000 803f 0000 803f
00000190: 0000 803f 0000 803f 0000 803f 0000 803f
000001a0: 0000 803f 0000 803f 0000 803f 0000 803f
000001b0: 0000 803f 0000 803f 0000 803f 0000 803f
000001c0: 0000 803f 0000 803f 0000 803f 0000 803f
000001d0: 0000 803f 0000 803f 0000 803f 0000 803f
000001e0: 0000 803f 0000 803f 0000 803f 0000 803f
000001f0: 0000 803f 0000 803f 0000 803f 0000 803f

bn1.bias f4 [128]
0.0 0.0 0.0 0.0 0.0 0.0 0.0 0.0
0.0 0.0 0.0 0.0 0.0 0.0 0.0 0.0
0.0 0.0 0.0 0.0 0.0 0.0 0.0 0.0
0.0 0.0 0.0 0.0 0.0 0.0 0.0 0.0
0.0 0.0 0.0 0.0 0.0 0.0 0.0 0.0
0.0 0.0 0.0 0.0 0.0 0.0 0.0 0.0
0.0 0.0 0.0 0.0 0.0 0.0 0.0 0.0
0.0 0.0 0.0 0.0 0.0 0.0 0.0 0.0
0.0 0.0 0.0 0.0 0.0 0.0 0.0 0.0
0.0 0.0 0.0 0.0 0.0 0.0 0.0 0.0
0.0 0.0 0.0 0.0 0.0 0.0 0.0 0.0
0.0 0.0 0.0 0.0 0.0 0.0 0.0 0.0
0.0 0.0 0.0 0.0 0.0 0.0 0.0 0.0
0.0 0.0 0.0 0.0 0.0 0.0 0.0 0.0
0.0 0.0 0.0 0.0 0.0 0.0 0.0 0.0
0.0 0.0 0.0 0.0 0.0 0.0 0.0 0.0
00000000: 0000 0000 0000 0000 0000 0000 0000 0000
00000010: 0000 0000 0000 0000 0000 0000 0000 0000
00000020: 0000 0000 0000 0000 0000 0000 0000 0000
00000030: 0000 0000 0000 0000 0000 0000 0000 0000
00000040: 0000 0000 0000 0000 0000 0000 0000 0000
00000050: 0000 0000 0000 0000 0000 0000 0000 0000
00000060: 0000 0000 0000 0000 0000 0000 0000 0000
00000070: 0000 0000 0000 0000 0000 0000 0000 0000
00000080: 0000 0000 0000 0000 0000 0000 0000 0000
00000090: 0000 0000 0000 0000 0000 0000 0000 0000
000000a0: 0000 0000 0000 0000 0000 0000 0000 0000
000000b0: 0000 0000 0000 0000 0000 0000 0000 0000
000000c0: 0000 0000 0000 0000 0000 0000 0000 0000
000000d0: 0000 0000 0000 0000 0000 0000 0000 0000
000000e0: 0000 0000 0000 0000 0000 0000 0000 0000
000000f0: 0000 0000 0000 0000 0000 0000 0000 0000
00000100: 0000 0000 0000 0000 0000 0000 0000 0000
00000110: 0000 0000 0000 0000 0000 0000 0000 0000
00000120: 0000 0000 0000 0000 0000 0000 0000 0000
00000130: 0000 0000 0000 0000 0000 0000 0000 0000
00000140: 0000 0000 0000 0000 0000 0000 0000 0000
00000150: 0000 0000 0000 0000 0000 0000 0000 0000
00000160: 0000 0000 0000 0000 0000 0000 0000 0000
00000170: 0000 0000 0000 0000 0000 0000 0000 0000
00000180: 0000 0000 0000 0000 0000 0000 0000 0000
00000190: 0000 0000 0000 0000 0000 0000 0000 0000
000001a0: 0000 0000 0000 0000 0000 0000 0000 0000
000001b0: 0000 0000 0000 0000 0000 0000 0000 0000
000001c0: 0000 0000 0000 0000 0000 0000 0000 0000
000001d0: 0000 0000 0000 0000 0000 0000 0000 0000
000001e0: 0000 0000 0000 0000 0000 0000 0000 0000
000001f0: 0000 0000 0000 0000 0000 0000 0000 0000

bn1.running_mean f4 [128]
0.0 0.0 0.0 0.0 0.0 0.0 0.0 0.0
0.0 0.0 0.0 0.0 0.0 0.0 0.0 0.0
0.0 0.0 0.0 0.0 0.0 0.0 0.0 0.0
0.0 0.0 0.0 0.0 0.0 0.0 0.0 0.0
0.0 0.0 0.0 0.0 0.0 0.0 0.0 0.0
0.0 0.0 0.0 0.0 0.0 0.0 0.0 0.0
0.0 0.0 0.0 0.0 0.0 0.0 0.0 0.0
0.0 0.0 0.0 0.0 0.0 0.0 0.0 0.0
0.0 0.0 0.0 0.0 0.0 0.0 0.0 0.0
0.0 0.0 0.0 0.0 0.0 0.0 0.0 0.0
0.0 0.0 0.0 0.0 0.0 0.0 0.0 0.0
0.0 0.0 0.0 0.0 0.0 0.0 0.0 0.0
0.0 0.0 0.0 0.0 0.0 0.0 0.0 0.0
0.0 0.0 0.0 0.0 0.0 0.0 0.0 0.0
0.0 0.0 0.0 0.0 0.0 0.0 0.0 0.0
0.0 0.0 0.0 0.0 0.0 0.0 0.0 0.0
00000000: 0000 0000 0000 0000 0000 0000 0000 0000
00000010: 0000 0000 0000 0000 0000 0000 0000 0000
00000020: 0000 0000 0000 0000 0000 0000 0000 0000
00000030: 0000 0000 0000 0000 0000 0000 0000 0000
00000040: 0000 0000 0000 0000 0000 0000 0000 0000
00000050: 0000 0000 0000 0000 0000 0000 0000 0000
00000060: 0000 0000 0000 0000 0000 0000 0000 0000
00000070: 0000 0000 0000 0000 0000 0000 0000 0000
00000080: 0000 0000 0000 0000 0000 0000 0000 0000
00000090: 0000 0000 0000 0000 0000 0000 0000 0000
000000a0: 0000 0000 0000 0000 0000 0000 0000 0000
000000b0: 0000 0000 0000 0000 0000 0000 0000 0000
000000c0: 0000 0000 0000 0000 0000 0000 0000 0000
000000d0: 0000 0000 0000 0000 0000 0000 0000 0000
000000e0: 0000 0000 0000 0000 0000 0000 0000 0000
000000f0: 0000 0000 0000 0000 0000 0000 0000 0000
00000100: 0000 0000 0000 0000 0000 0000 0000 0000
00000110: 0000 0000 0000 0000 0000 0000 0000 0000
00000120: 0000 0000 0000 0000 0000 0000 0000 0000
00000130: 0000 0000 0000 0000 0000 0000 0000 0000
00000140: 0000 0000 0000 0000 0000 0000 0000 0000
00000150: 0000 0000 0000 0000 0000 0000 0000 0000
00000160: 0000 0000 0000 0000 0000 0000 0000 0000
00000170: 0000 0000 0000 0000 0000 0000 0000 0000
00000180: 0000 0000 0000 0000 0000 0000 0000 0000
00000190: 0000 0000 0000 0000 0000 0000 0000 0000
000001a0: 0000 0000 0000 0000 0000 0000 0000 0000
000001b0: 0000 0000 0000 0000 0000 0000 0000 0000
000001c0: 0000 0000 0000 0000 0000 0000 0000 0000
000001d0: 0000 0000 0000 0000 0000 0000 0000 0000
000001e0: 0000 0000 0000 0000 0000 0000 0000 0000
000001f0: 0000 0000 0000 0000 0000 0000 0000 0000

bn1.running_var f4 [128]
1.0 1.0 1.0 1.0 1.0 1.0 1.0 1.0
1.0 1.0 1.0 1.0 1.0 1.0 1.0 1.0
1.0 1.0 1.0 1.0 1.0 1.0 1.0 1.0
1.0 1.0 1.0 1.0 1.0 1.0 1.0 1.0
1.0 1.0 1.0 1.0 1.0 1.0 1.0 1.0
1.0 1.0 1.0 1.0 1.0 1.0 1.0 1.0
1.0 1.0 1.0 1.0 1.0 1.0 1.0 1.0
1.0 1.0 1.0 1.0 1.0 1.0 1.0 1.0
1.0 1.0 1.0 1.0 1.0 1.0 1.0 1.0
1.0 1.0 1.0 1.0 1.0 1.0 1.0 1.0
1.0 1.0 1.0 1.0 1.0 1.0 1.0 1.0
1.0 1.0 1.0 1.0 1.0 1.0 1.0 1.0
1.0 1.0 1.0 1.0 1.0 1.0 1.0 1.0
1.0 1.0 1.0 1.0 1.0 1.0 1.0 1.0
1.0 1.0 1.0 1.0 1.0 1.0 1.0 1.0
1.0 1.0 1.0 1.0 1.0 1.0 1.0 1.0
00000000: 0000 803f 0000 803f 0000 803f 0000 803f
00000010: 0000 803f 0000 803f 0000 803f 0000 803f
00000020: 0000 803f 0000 803f 0000 803f 0000 803f
00000030: 0000 803f 0000 803f 0000 803f 0000 803f
00000040: 0000 803f 0000 803f 0000 803f 0000 803f
00000050: 0000 803f 0000 803f 0000 803f 0000 803f
00000060: 0000 803f 0000 803f 0000 803f 0000 803f
00000070: 0000 803f 0000 803f 0000 803f 0000 803f
00000080: 0000 803f 0000 803f 0000 803f 0000 803f
00000090: 0000 803f 0000 803f 0000 803f 0000 803f
000000a0: 0000 803f 0000 803f 0000 803f 0000 803f
000000b0: 0000 803f 0000 803f 0000 803f 0000 803f
000000c0: 0000 803f 0000 803f 0000 803f 0000 803f
000000d0: 0000 803f 0000 803f 0000 803f 0000 803f
000000e0: 0000 803f 0000 803f 0000 803f 0000 803f
000000f0: 0000 803f 0000 803f 0000 803f 0000 803f
00000100: 0000 803f 0000 803f 0000 803f 0000 803f
00000110: 0000 803f 0000 803f 0000 803f 0000 803f
00000120: 0000 803f 0000 803f 0000 803f 0000 803f
00000130: 0000 803f 0000 803f 0000 803f 0000 803f
00000140: 0000 803f 0000 803f 0000 803f 0000 803f
00000150: 0000 803f 0000 803f 0000 803f 0000 803f
00000160: 0000 803f 0000 803f 0000 803f 0000 803f
00000170: 0000 803f 0000 803f 0000 803f 0000 803f
00000180: 0000 803f 0000 803f 0000 803f 0000 803f
00000190: 0000 803f 0000 803f 0000 803f 0000 803f
000001a0: 0000 803f 0000 803f 0000 803f 0000 803f
000001b0: 0000 803f 0000 803f 0000 803f 0000 803f
000001c0: 0000 803f 0000 803f 0000 803f 0000 803f
000001d0: 0000 803f 0000 803f 0000 803f 0000 803f
000001e0: 0000 803f 0000 803f 0000 803f 0000 803f
000001f0: 0000 803f 0000 803f 0000 803f 0000 803f

fc2.weight f4 [128, 2]
0.13007377 0.5555568 0.583246 0.3067976 0.65282154 0.64783925 0.15783878 -0.6431253
0.034390848 0.4857111 0.32226282 -0.3657501 0.00031144483 -0.40021738 -0.09248473 0.13740444
-0.6482014 -0.54691726 -0.39461243 -0.0011589174 -0.22168116 0.69534063 0.17356674 1.2690891e-05
0.5867528 0.41685265 0.361735 -0.3139148 -0.026959874 -0.2308986 -0.5231158 0.6261588
-0.6756819 -0.053630754 0.59628993 0.27133802 0.40432343 -0.5702575 -0.5317557 0.5400875
-0.07818949 0.26204684 0.42270467 0.032616667 0.06830179 -0.20873393 -0.67709863 -0.33915144
0.62356204 -0.27197677 -0.0047609597 -0.04846832 -0.57568955 -0.6189504 -0.66203713 0.31917945
0.59200305 0.6454522 0.26565614 0.46052232 -0.10196379 -0.56639826 -0.4449221 0.55983937
-0.3989203 -0.66066146 -0.34480107 -0.59802157 0.5019821 0.6697737 0.4350446 0.40214044
0.54211414 -0.60858 0.45837906 0.2876344 0.020854982 0.16149901 0.37696567 -0.45431706
-0.45677948 0.49958816 -0.2983174 0.062030494 -0.27187732 0.17580628 0.2762722 -0.26825023
0.13028732 0.51369506 0.1817944 -0.1493784 -0.541794 0.6246 0.64310694 0.5552946
-0.23024248 -0.7107621 0.18010877 -0.5092692 -0.31444138 0.5135836 -0.008373251 -0.06472645
-0.23658702 0.135042 -0.0056623616 0.50147814 -0.37492365 -0.51431495 -0.024279568 0.058776736
-0.45354274 -0.5786017 -0.6668007 -0.47392416 -0.30113122 -0.67804706 -0.25431913 -0.5279119
-0.5313609 -0.16856733 -0.015760489 0.17057417 0.014198074 -0.44057673 -0.015865486 -0.61952174
0.48214942 -0.46001515 0.45368132 -0.12825494 -0.5563039 -0.2513203 0.008120949 0.18767647
-0.19112742 0.33481863 -0.52562785 0.5289183 0.4959724 -0.2453557 -0.6397823 0.6629671
-0.1840573 0.65147823 0.56911135 0.30940256 0.056501724 -0.0766425 -0.3141678 -0.40188608
-0.48621255 -0.21571344 -0.42749652 0.28609952 -0.43269545 -0.65444666 -0.55404323 -0.12004624
0.5555757 -0.24501546 0.6167827 0.41822493 -0.6370017 -0.13519874 0.54572153 0.0742493
-0.45442173 0.044538353 0.5022595 -0.516786 -0.3662598 0.44186655 -0.31532705 -0.18493055
-0.6901765 0.109907985 -0.2928358 0.052319124 -0.07592523 -0.45692366 0.29009664 0.25767276
-0.06946594 -0.032911334 0.19045018 -0.054223478 -0.35565132 0.5333849 0.25704312 -0.64393246
-0.5290206 0.23192887 0.054778397 -0.51393694 0.5193304 -0.15651476 -0.15890123 -0.5207557
0.20240907 -0.1865455 -0.54456025 -0.20863396 0.30647007 -0.17482327 0.44875175 0.22261669
0.1349207 0.7010171 -0.22136125 0.48611814 -0.023717573 0.6843659 -0.29757604 -0.63651437
0.7007999 0.12382435 -0.6003331 0.55527 0.6228638 0.58538043 -0.0860442 -0.6305486
0.6779672 -0.40573177 -0.102393694 -0.7091368 0.20337473 0.43054754 0.6597684 -0.065250985
0.30848595 -0.09891021 0.14881092 -0.22341035 0.32393304 -0.020543346 -0.5184662 0.29114285
0.21625404 -0.2606369 0.66815317 0.4466371 -0.64136845 -0.5524294 0.39066657 0.69368863
-0.58676916 0.027526695 -0.19269386 0.14066939 -0.083422564 0.04811465 0.51766795 0.69750047
00000000: 0f32 053e f838 0e3f 9c4f 153f 9314 9d3e
00000010: 501f 273f cbd8 253f 7da0 213e dca3 24bf
00000020: 6bdd 0c3d 20af f83e a2ff a43e 9943 bbbe
00000030: 6b49 a339 4be9 ccbe a268 bdbd c0b3 0c3e
00000040: 87f0 25bf c502 0cbf a40a cabe d1e6 97ba
00000050: 6300 63be d801 323f 7bbb 313e f6ea 5437
00000060: 6e35 163f b66d d53e 5435 b93e 71b9 a0be
00000070: f4da dcbc af70 6cbe ebea 05bf f14b 203f
00000080: 7df9 2cbf ecab 5bbd 75a6 183f d1ec 8a3e
00000090: 7b03 cf3e 65fc 11bf 2421 08bf 2d43 0a3f
000000a0: d021 a0bd 012b 863e bf6c d83e 0e99 053d
000000b0: cfe1 8b3d 59be 55be 5656 2dbf 42a5 adbe
000000c0: c3a1 1f3f 8a40 8bbe d301 9cbb b886 46bd
000000d0: 6460 13bf 8973 1ebf 447b 29bf 7d6b a33e
000000e0: 838d 173f 5b3c 253f 1504 883e 95c9 eb3e
000000f0: 64d2 d0bd 7aff 10bf d4cc e3be a251 0f3f
00000100: 483f ccbe 1c21 29bf c489 b0be f117 19bf
00000110: e681 003f 4a76 2b3f 2abe de3e 5ae5 cd3e
00000120: fec7 0a3f e6cb 1bbf a9b0 ea3e d144 933e
00000130: 11d8 aa3c ff5f 253e a501 c13e 3f9c e8be
00000140: 00df e9be 05ca ff3e 0fbd 98be b013 7e3d
00000150: 8133 8bbe 9006 343e 8d73 8d3e 1858 89be
00000160: 0a6a 053e 8581 033f 5028 3a3e a7f6 18be
00000170: 03b3 0abf c9e5 1f3f a8a2 243f c927 0e3f
00000180: afc4 6bbe 81f4 35bf 6f6e 383e 775f 02bf
00000190: 76fe a0be 377a 033f f62f 09bc 4d8f 84bd
000001a0: de43 72be 7348 0a3e 558b b9bb df60 003f
000001b0: fef5 bfbe 25aa 03bf f2e5 c6bc e0bf 703d
000001c0: c136 e8be 3e1f 14bf 73b3 2abf 30a6 f2be
000001d0: df2d 9abe 7e94 2dbf 1e36 82be 3c25 07bf
000001e0: 4507 08bf ea9c 2cbe 241c 81bc ffaa 2e3e
000001f0: 0a9f 683c 4693 e1be 56f8 81bc fa98 1ebf
00000200: 4adc f63e 1b87 ebbe eb48 e83e 4355 03be
00000210: ef69 0ebf 0ead 80be bb0d 053c 432e 403e
00000220: e8b6 43be 596d ab3e 8c8f 06bf 3167 073f
00000230: 18f0 fd3e 863e 7bbe c6c8 23bf 36b8 293f
00000240: 8479 3cbe 47c7 263f 48b1 113f 036a 9e3e
00000250: 5a6e 673d bef6 9cbd 9ada a0be 03c4 cdbe
00000260: daf0 f8be fce3 5cbe d3e0 dabe a37b 923e
00000270: 428a ddbe d189 27bf c7d5 0dbf ceda f5bd
00000280: 363a 0e3f 55e5 7abe 79e5 1d3f 9421 d63e
00000290: 8b12 23bf 8a71 0abe 68b4 0b3f 0410 983d
000002a0: f7a9 e8be d96d 363d 1494 003f 164c 04bf
000002b0: 6886 bbbe 553c e23e 8c72 a1be 6f5e 3dbe
000002c0: 68af 30bf 7017 e13d 93ee 95be 944c 563d
000002d0: b07e 9bbd e6f1 e9be 8c87 943e afed 833e
000002e0: 2944 8ebd 09ce 06bd 5f05 433e 7019 5ebd
000002f0: ee17 b6be ea8b 083f 289b 833e c2d8 24bf
00000300: e56d 07bf c37e 6d3e 505f 603d 5f91 03bf
00000310: d6f2 043f 6845 20be 01b7 22be 3f50 05bf
00000320: 5344 4f3e c905 3fbe 4d68 0bbf 24a4 55be
00000330: a5e9 9c3e df04 33be cac2 e53e a1f5 633e
00000340: a728 0a3e db75 333f 86ac 62be 7ae4 f83e
00000350: 5b4b c2bc 9b32 2f3f e35b 98be 9bf2 22bf
00000360: 9f67 333f 9f97 fd3d 6eaf 19bf 2d26 0e3f
00000370: 0174 1f3f 7edb 153f f137 b0bd a26b 21bf
00000380: 428f 2d3f 13bc cfbe c9b3 d1bd fd89 35bf
00000390: 7741 503e ba70 dc3e 95e6 283f 4fa2 85bd
000003a0: dff1 9d3e 7091 cabd e461 183e afc5 64be
000003b0: 8dda a53e 854a a8bc 33ba 04bf ad10 953e
000003c0: b371 5d3e 3372 85be 160c 2b3f 9ead e43e
000003d0: b930 24bf 036c 0dbf 7305 c83e 9495 313f
000003e0: 8136 16bf aa7f e13c 8a51 45be a30b 103e
000003f0: 73d9 aabd de13 453d e385 043f 648f 323f

actor.linears.0.weight f4 [128, 384]
0.021420527 -0.017201008 0.017320158 0.014585581 0.03180562 -0.022151563 -0.043540303 0.0038610802
0.0018617657 -0.029992957 0.022588473 -0.029615354 0.0010380674 -0.04590653 -0.031489573 -0.040172637
-0.03269957 0.03606346 0.040938888 0.0245079 0.0039580385 -0.025099838 0.039068025 -0.05389206
-0.0077260723 -0.014006797 -0.05116021 0.006469847 0.04525323 -0.036214616 0.01822916 0.04508122
-0.047001857 0.03331513 0.043429505 0.05783522 0.02324888 0.020041505 0.0268971 0.033603817
-0.020472694 0.0015403331 -0.002616171 -0.023242824 0.038948826 0.0019467828 -0.0076956805 0.03927834
-0.03406456 0.021694724 0.04572639 0.008896937 0.03512432 -0.026916834 0.027716411 -0.033309687
-0.0012694446 -0.0011131477 0.020291483 -0.0065655336 -0.020256411 0.042671684 0.00097603543 -0.036835734
-0.018568741 0.044991624 -0.0298437 0.04407214 -0.046657633 -0.010619581 0.030427149 0.03420464
0.017032808 -0.024320865 0.008162006 0.002818127 -0.0041217427 -0.010390885 0.02658269 -0.0141193345
0.027136225 0.018075522 -0.046677876 0.0021879235 -0.009418112 0.03398848 -0.03238219 -0.016542982
-0.011087764 -0.012231929 -0.0048934175 -0.017751522 -0.021360846 -0.010229806 0.025012508 -0.035278495
-0.0036401683 0.03338928 -0.030003864 0.012398948 0.023234477 -0.047077127 0.0011977564 -0.009877511
-0.03274356 -0.040380493 0.024327587 -0.016919512 -0.014457834 -0.048300732 0.030430704 -0.025123557
0.046210974 0.027648037 -0.032824468 0.001007493 -0.026392814 0.013300782 0.008180312 -0.00039271743
-0.006318219 -0.03999285 0.011744778 -0.03551818 0.005950619 0.039474312 -0.00014696606 -0.022130355
-0.0038489099 -0.025276752 0.023606194 -0.0084644575 -0.024663331 0.009272709 0.027840393 -0.013126231
0.034950428 -0.0004446128 -0.04789533 0.037091188 0.045284126 0.016930507 -0.02796339 0.029788472
0.026945783 -0.022613335 0.0001151018 -0.027151532 -0.01238734 0.008289909 -0.04266423 -0.048341934
0.009823827 0.011639048 0.026696222 -0.045760006 0.04903969 0.019085612 0.021458851 -0.00740843
-0.03545596 0.039990425 -0.031612325 0.04778867 0.037138827 0.049617205 -0.03915767 0.0003643552
-0.014395205 -0.0337035 -0.009711482 0.024360558 0.04696437 0.041310593 -0.03185972 -0.021898812
0.024970459 0.008026789 0.011773341 0.042985428 -0.03922083 0.012541047 -0.04335165 0.004429222
0.036052693 0.012170775 0.029902458 -0.015737282 0.018931683 0.039674893 0.022067467 0.03207498
-0.018063245 0.030463694 0.037522264 0.046321463 0.04504568 0.008025733 -0.0054391916 0.017466554
-0.036291193 0.037462585 0.015763573 -0.046069752 0.038468365 -0.046947416 -0.03468959 0.046540666
0.0010938188 0.017918887 -0.017460534 -0.0031260864 0.03835092 -0.042897463 -0.03416503 0.017848976
0.017735528 -0.03574634 0.026436443 -0.009532174 0.043087844 0.044036105 -0.025876809 0.03723661
-0.004060184 0.025625944 0.03009937 0.008821552 -0.016888073 -5.3614604e-05 -0.012717735 -0.0007181392
-0.036723685 -0.028974015 -0.043121126 0.03666721 -0.033306036 0.041186895 0.0023771038 -0.032349735
0.028440155 0.042077776 0.027357237 -0.036159545 0.040488023 -0.018861793 0.027321097 0.014159097
0.047533084 0.03717902 -0.04849291 -0.042356063 -0.020894254 0.0060772477 0.009444548 0.03692779
00000000: 1a7a af3c 21e9 8cbc 01e3 8d3c 5cf8 6e3c
00000010: 9c46 023d 3277 b5bc 5157 32bd 2d0a 7d3b
00000020: 7e06 f43a cab3 f5bc 760b b93c e69b f2bc
00000030: c30f 883a 7c08 3cbd 36fb 00bd 108c 24bd
00000040: fcef 05bd 47b7 133d 89af 273d cbc4 c83c
00000050: 6fb2 813b 2d9e cdbc cb05 203d ecbd 5cbd
00000060: fe2a fdbb c47c 65bc 5e8d 51bd 0301 d43b
00000070: 735b 393d c755 14bd 5255 953c 16a7 383d
00000080: 0585 40bd 7275 083d 23e3 313d a0e4 6c3d
00000090: 6f74 be3c 152e a43c 4f57 dc3c 28a4 093d
000000a0: 5ab6 a7bc 01e5 c93a 1174 2bbb bc67 bebc
000000b0: ce88 1f3d 312b ff3a 0c2c fcbb 53e2 203d
000000c0: 4887 0bbd 22b9 b13c 984b 3b3d 75c4 113c
000000d0: 85de 0f3d b180 dcbc 870d e33c bd6f 08bd
000000e0: 7e63 a6ba 0ae7 91ba 533a a63c b023 d7bb
000000f0: c6f0 a5bc 81c8 2e3d a1dc 7f3a 11e1 16bd
00000100: 791d 98bc 2349 383d c67a f4bc fd84 343d
00000110: 131c 3fbd c0fd 2dbc 5b42 f93c 2a1a 0c3d
00000120: 6388 8b3c 8d3c c7bc efb9 053c 53b0 383b
00000130: af0f 87bb 883e 2abc f1c3 d93c c854 67bc
00000140: ca4c de3c 1e13 943c 4d31 3fbd 4463 0f3b
00000150: 6d4e 1abc 8137 0b3d 30a3 04bd 2685 87bc
00000160: 74a9 35bc 6e68 48bc f658 a0bb a46b 91bc
00000170: f1fc aebc eb9a 27bc 08e7 cc3c 2f80 10bd
00000180: e48f 6ebb 33c3 083d aaca f5bc f524 4b3c
00000190: 3b56 be3c f2d3 40bd 09fe 9c3a 49d5 21bc
000001a0: 1c1e 06bd 0466 25bd a64a c73c ca9a 8abc
000001b0: 8de0 6cbc fdd6 45bd d049 f93c ebcf cdbc
000001c0: b847 3d3d 237e e23c f372 06bd db0d 843a
000001d0: be35 d8bc 86eb 593c b706 063c a4e5 cdb9
000001e0: 1009 cfbb 8bcf 23bd 2b6d 403c 837b 11bd
000001f0: 69fd c23b d1af 213d e71a 1ab9 b84a b5bc
00000200: fe3d 7cbb 3111 cfbc c761 c13c 82ae 0abc
00000210: c10a cabc 8fec 173c 8911 e43c 670f 57bc
00000220: 2e28 0f3d eb1a e9b9 e52d 44bd eeec 173d
00000230: d97b 393d d9b1 8a3c 7b13 e5bc f406 f43c
00000240: 67bd dc3c 9a3f b9bc cf62 f138 e46c debc
00000250: 45f4 4abc 66d2 073c b0c0 2ebd 3102 46bd
00000260: 1ef4 203c b5b1 3e3c 09b2 da3c d86e 3bbd
00000270: d8dd 483d 6e59 9c3c 79ca af3c 6ac2 f2bb
00000280: 453a 11bd 00cd 233d ed7b 01bd 0dbe 433d
00000290: e21e 183d 693b 4b3d cb63 20bd ed06 bf39
000002a0: ded9 6bbc ae0c 0abd e81c 1fbc cb8f c73c
000002b0: b65d 403d 4c35 293d 567f 02bd 2365 b3bc
000002c0: d98e cc3c cb82 033c f9e4 403c 7d11 303d
000002d0: 05a6 20bd f778 4d3c 8091 31bd 0223 913b
000002e0: fdab 133d ee67 473c 00f6 f43c 79eb 80bc
000002f0: 9e16 9b3c 2482 223d d5c6 b43c 0e61 033d
00000300: 5ff9 93bc ff8e f93c f2b0 193d 93bb 3d3d
00000310: d281 383d 5d7e 033c 3f3b b2bb 0516 8f3c
00000320: 13a6 14bd 5e72 193d 9c22 813c a3b3 3cbd
00000330: 0191 1d3d ef4b 40bd ac16 0ebd 6da1 3e3d
00000340: 785e 8f3a a1ca 923c 6509 8fbc 07df 4cbb
00000350: db15 1d3d 40b5 2fbd a1f0 0bbd 0438 923c
00000360: 194a 913c c16a 12bd 3d91 d83c d62c 1cbc
00000370: e17c 303d 345f 343d 9afb d3bc 6a85 183d
00000380: 4b0b 85bb 80ed d13c f492 f63c 4588 103c
00000390: db58 8abc 3ee0 60b8 0c5e 50bc 8241 3cba
000003a0: 936b 16bd ea5a edbc c79f 30bd 5b30 163d
000003b0: e96b 08bd 97b3 283d 2fc9 1b3b 2881 04bd
000003c0: 54fb e83c bf59 2c3d 491c e03c 081c 14bd
000003d0: c5d6 253d 0c84 9abc 7ed0 df3c 8ffb 673c
000003e0: 0db2 423d 0749 183d 80a0 46bd 8d7d 2dbd
000003f0: 6d2a abbc a623 c73b 4ebd 1a3c 9841 173d

actor.linears.0.bias f4 [128]
-0.045720898 -0.047194038 0.021366794 0.031564604 0.023188666 -0.049289037 -0.009960741 0.014505774
-0.03199979 0.02574705 -0.0024642793 -0.035172343 0.008381241 0.03369417 0.036904793 0.008253209
-0.027704343 0.047057323 -0.0050736167 -0.047913678 0.018386802 -0.024548724 0.010238578 -0.00846648
0.0056690588 0.024971707 0.05214828 -0.002014209 0.023801723 0.043805633 -0.0443857 0.032099713
-0.01575569 -0.028437424 0.026736502 -0.025983049 0.04867943 0.016289843 0.018581988 0.017621221
-0.009258303 -0.053713884 -0.025281012 -0.013090945 0.032692634 -0.0069974377 -0.039012156 0.0538728
-0.03613331 0.030963268 -0.05545821 0.017376453 -0.046991233 0.012225734 0.002330916 0.05073285
-0.0146752205 0.051362537 -0.021934748 -0.024649575 0.021702403 -0.034033004 0.034107942 0.021217382
0.036475915 -0.055208243 -0.016591242 -0.00971451 -0.0023797 0.018683955 0.05135368 0.013925817
-0.044624407 0.051806085 -0.02974699 -0.0026370927 -0.03599462 0.03491047 0.020441826 -0.020584954
0.021326313 -0.025525156 -0.0421231 0.017057449 0.008459119 0.0060422877 -0.019664617 0.01695854
-0.034952767 -0.024041003 0.012903254 0.0053210435 -0.03016975 -0.034862865 -0.023024585 -0.0046243346
-0.0033155454 0.0016793212 0.0029848884 -0.01929225 0.02617434 0.009719019 -0.03657043 -0.03527285
0.012846764 0.045370538 -0.056739513 0.03867081 -0.025602305 0.024282418 0.03744102 0.008300609
-0.016007952 0.024320008 -0.022329714 0.030630533 0.019207641 0.017600037 0.005203731 0.034874693
-0.017933978 -0.0073545985 0.00065988675 0.044684727 0.010305895 0.033697568 -0.01210316 0.019474326
00000000: d645 3bbd 894e 41bd 6a09 af3c e349 013d
00000010: 28f6 bd3c 4de3 49bd 6032 23bc a0a9 6d3c
00000020: 3612 03bd 7aeb d23c bf7f 21bb e010 10bd
00000030: 7951 093c e602 0a3d 7b29 173d 7838 073c
00000040: 38f4 e2bc 2ebf 403d 9540 a6bb 2241 44bd
00000050: eb9f 963c 681a c9bc b5bf 273c feb6 0abc
00000060: 83c3 b93b 7791 cc3c 6f99 553d d200 04bb
00000070: d5fb c23c 896d 333d c8cd 35bd fd7a 033d
00000080: 1412 81bc 9af5 e8bc 8206 db3c 67da d4bc
00000090: 1564 473d 4772 853c 4139 983c 615a 903c
000000a0: 23b0 17bc 1703 5cbd 201a cfbc 677b 56bc
000000b0: b6e8 053d c34a e5bb 36cb 1fbd baa9 5c3d
000000c0: 8600 14bd aea6 fd3c 2628 63bd 1059 8e3c
000000d0: e179 40bd 724e 483c 48c2 183b 40cd 4f3d
000000e0: 5670 70bc 8661 523d 80b0 b3bc e8ed c9bc
000000f0: 3dc9 b13c 3166 0bbd c5b4 0b3d 13d0 ad3c
00000100: c567 153d 0a22 62bd 5bea 87bc 9c29 1fbc
00000110: bef4 1bbb 180f 993c 3d58 523d 1c29 643c
00000120: 15c8 36bd 9e32 543d f6af f3bc 13d3 2cbb
00000130: 186f 13bd 48fe 0e3d 9e75 a73c c7a1 a8bc
00000140: 85b4 ae3c 221a d1bc 4689 2cbd 10bc 8b3c
00000150: 1e98 0a3c 62fe c53b b117 a1bc a3ec 8a3c
00000160: a22a 0fbd a3f1 c4bc 2b68 533c 265c ae3b
00000170: 8d26 f7bc 5dcc 0ebd 0e9e bcbc bb87 97bb
00000180: 9f49 59bb ab1c dc3a 1e9e 433b c80a 9ebc
00000190: 926b d63c 853c 1f3c e0ca 15bd 447a 10bd
000001a0: 3c7b 523c 75d6 393d b167 68bd 4965 1e3d
000001b0: edbb d1bc eceb c63c c15b 193d 47ff 073c
000001c0: 1c23 83bc c13a c73c ceec b6bc e2ec fa3c
000001d0: 5859 9d3c f42d 903c 0f84 aa3b c4d8 0e3d
000001e0: 47ea 92bc d8fe f0bb 40fc 2c3a 5507 373d
000001f0: 0eda 283c 7606 0a3d 554c 46bc 9f88 9f3c

actor.linears.1.weight f4 [128, 128]
-0.07905159 0.024748033 0.059802238 -0.019530816 -0.07172397 0.05214624 -0.049268905 -0.014081392
0.0073520066 -0.019092884 -0.032834094 -0.015688457 -0.0065965145 -0.08367772 -0.06744872 0.07830042
0.039161216 0.012308616 0.026144521 0.036273193 -0.012115874 -0.07502647 -0.07808125 0.0026411559
0.033051603 -0.08124953 0.08902147 -0.02008585 -0.014673001 -0.08082819 -0.0065839826 -0.051956665
0.0004993187 -0.0676236 0.041155443 -0.030567775 0.0073681762 -0.001698743 -0.057664692 0.031540915
0.045036744 -0.055788573 0.05848673 -0.039149754 0.005970233 -0.087847486 0.054261636 -0.057817843
-0.06846459 -0.040717646 0.084429055 0.061940737 -0.0015615101 0.043106973 -0.025065338 0.056358118
0.03522951 -0.020631291 0.061202552 0.011495871 -0.032852426 -0.08500897 0.054515373 0.04617664
0.07493489 -0.058380242 0.045413565 -0.065001786 -0.045404237 -0.06792972 -0.015462241 0.0410944
-0.010077148 -0.07866672 -0.014918349 0.03802711 -0.053445164 -0.047488432 0.08265223 9.506508e-05
0.039031032 -0.032911696 -0.008200774 0.043119155 0.07746962 -0.044864196 -0.061591133 0.07914272
-0.040033303 0.041853968 0.027352216 0.0052820994 -0.036034394 0.027431838 0.05678398 -0.017642166
-0.046288725 -0.017975323 0.050123885 -0.07257851 0.0071725515 -0.07725293 0.053733774 0.036180943
-0.059463147 0.036537938 0.069431044 -0.022883026 0.06852012 -0.028910505 -0.0010986226 -0.016281884
0.00036695006 -0.002749512 0.01873979 0.03513188 0.016192546 0.020967545 0.084635876 0.07833145
0.05138752 0.0795073 -0.07929953 0.051439136 -0.0013755291 -0.009807945 -0.07066235 0.021593623
-0.04601036 0.043563347 -0.009362955 -0.0050633987 -0.032867145 0.07627062 -0.05996669 0.06601517
0.021338286 0.05845317 -0.029686838 -0.09016977 -0.027878622 -0.055648617 -0.023601925 0.0922178
-0.009004712 -0.08543857 0.008935353 0.08047488 -0.06281017 0.07973958 0.024605032 -0.00067205966
0.028189493 -0.07596254 -0.061832037 0.066446945 0.041824903 -0.070915416 0.028738322 0.084097765
-0.0143052135 0.06459798 0.07349961 -0.05539053 -0.034581106 -0.046160366 -0.0870752 -0.043818794
-0.03498289 0.045481957 0.06987126 -0.08576087 0.012383112 0.00042732887 -0.0023538459 0.07044895
0.068738975 0.01277469 0.0041142763 -0.08603056 0.07170039 0.049725328 -0.03832388 0.05452001
0.032422226 0.070729956 -0.024722476 0.009852976 -0.083991475 0.06646399 -0.08010565 -0.07416129
0.030695308 0.047518015 0.034409937 0.06802851 -0.061832894 -0.059556462 -0.033470556 0.042235762
-0.02048152 0.058045633 -0.071012564 -0.04446129 -0.06650757 0.044698156 -0.07638779 0.0504103
0.013880966 0.03856752 0.05066854 0.0052707363 0.066354536 0.029876692 -0.06605041 -0.01243446
-0.07380748 0.08752102 0.046834014 -0.014867096 0.029286657 -0.014167434 -0.024879932 -0.03744446
0.088093214 -0.07328577 0.00082710094 0.03172853 -0.0025318451 0.082143135 -0.07828015 -0.014958336
0.077367485 -0.03256408 0.059559617 0.03974643 -0.016701892 0.0842485 -0.08217431 -0.06256116
0.06447652 0.06934119 -0.06999134 -0.011032958 -0.06835027 -0.01816593 -0.020214748 -0.0044388133
0.013993005 0.06683187 -0.027579853 0.03150405 -0.01378463 -0.08014421 0.08787929 -0.06989553
00000000: cde5 a1bd 63bc ca3c 31f3 743d 17ff 9fbc
00000010: 04e4 92bd 4c97 553d 31ce 49bd a4b5 66bc
00000020: 1ae9 f03b ae68 9cbc 0b7d 06bd 1485 80bc
00000030: 9327 d8bb 395f abbd 8e22 8abd f85b a03d
00000040: 8367 203d 14aa 493c 092d d63c 3393 143d
00000050: a981 46bc 7aa7 99bd 10e9 9fbd 3e17 2d3b
00000060: 1e61 073d 2766 a6bd e350 b63d 158b a4bc
00000070: 0767 70bc 4089 a5bd 73be d7bb 83d0 54bd
00000080: b6e4 023a 3e7e 8abd 9c92 283d 4569 fabc
00000090: be70 f13b 5ba8 deba d031 6cbd 0c31 013d
000000a0: 7378 383d 8f82 64bd c88f 6f3d 7e5b 20bd
000000b0: f2a1 c33b 62e9 b3bd 7341 5e3d 67d2 6cbd
000000c0: 2a37 8cbd 8cc7 26bd 24e9 ac3d 92b5 7d3d
000000d0: 96ab ccba f090 303d d355 cdbc c5d7 663d
000000e0: d24c 103d f402 a9bc 87af 7a3d 2d59 3c3c
000000f0: 4490 06bd 2f19 aebd 834b 5f3d b723 3d3d
00000100: 7777 993d 1f20 6fbd 9303 3a3d a81f 85bd
00000110: cbf9 39bd bd1e 8bbd 5755 7dbc 9a52 283d
00000120: 9f1a 25bc 041c a1bd 176c 74bc 51c2 1b3d
00000130: 51e9 5abd 3b83 42bd 9345 a93d ad5d c738
00000140: 01df 1f3d 6ace 06bd 8a5c 06bc b69d 303d
00000150: 64a8 9e3d 85c3 37bd fc46 7cbd 9415 a23d
00000160: f6f9 23bd 116f 2b3d c111 e03c 7615 ad3b
00000170: cd98 13bd bcb8 e03c 5296 683d 4e86 90bc
00000180: 3f99 3dbd fc40 93bc b44e 4d3d 0ba4 94bd
00000190: b907 eb3b c936 9ebd f217 5c3d 7832 143d
000001a0: a18f 73bd cea8 153d dd31 8e3d 2f75 bbbc
000001b0: 4754 8c3d b9d5 ecbc a8ff 8fba 9661 85bc
000001c0: 3463 c039 2831 34bb 3084 993c 72e6 0f3d
000001d0: 3ba6 843c 21c4 ab3c 9355 ad3d 3d6c a03d
000001e0: b87b 523d b9d4 a23d cb67 a2bd d8b1 523d
000001f0: 194b b4ba 81b1 20bc 6cb7 90bd 1ce5 b03c
00000200: 5c75 3cbd 7b6f 323d 1467 19bc deea a5bb
00000210: b39f 06bd c533 9c3d a29f 75bd f632 873d
00000220: a1cd ae3c 976c 6f3d d031 f3bc eeaa b8bd
00000230: b561 e4bc ceef 63bd d358 c1bc b0dc bc3d
00000240: 8088 13bc 6bfa aebd 9665 123c 04d0 a43d
00000250: 9ea2 80bd 814e a33d 7e90 c93c 292d 30ba
00000260: a7ed e63c 4092 9bbd 9743 7dbd 5615 883d
00000270: 9750 2b3d 1a3c 91bd a16c eb3c 733b ac3d
00000280: 6a60 6abc f24b 843d f786 963d 2ee1 62bd
00000290: eba4 0dbd a712 3dbd 7c54 b2bd 567b 33bd
000002a0: 384a 0fbd 4a4b 3a3d aa18 8f3d 65a3 afbd
000002b0: 89e2 4a3c 1c0b e039 fb42 1abb 8a47 903d
000002c0: 05c7 8c3d ef4c 513c 0dd1 863b ca30 b0bd
000002d0: a7d7 923d c9ac 4b3d 80f9 1cbd 6050 5f3d
000002e0: 2bcd 043d deda 903d ca86 cabc 606e 213c
000002f0: b903 acbd 461e 883d 6e0e a4bd e0e1 97bd
00000300: ba74 fb3c 40a2 423d 6ff1 0c3d 8852 8b3d
00000310: 7d44 7dbd 7af1 73bd 6c18 09bd 68ff 2c3d
00000320: dcc8 a7bc 42c1 6d3d 096f 91bd 0b1d 36bd
00000330: 1f35 88bd 6a15 373d 3471 9cbd 087b 4e3d
00000340: fe6c 633c faf8 1d3d d189 4f3d 24b6 ac3b
00000350: e3e4 873d f7bf f43c 7045 87bd e8b9 4bbc
00000360: 6028 97bd 383e b33d 06d5 3f3d 1f95 73bc
00000370: 92ea ef3c 861e 68bc 00d1 cbbc 5d5f 19bd
00000380: 376a b43d da16 96bd ced1 583a c6f5 013d
00000390: 50ed 25bb a93a a83d 5851 a0bd cf13 75bc
000003a0: d872 9e3d ea61 05bd c9f4 733d 27cd 223d
000003b0: 68d2 88bc 7a8a ac3d 014b a8bd 1120 80bd
000003c0: 440c 843d c102 8e3d 9f57 8fbd 94c3 34bc
000003d0: 3afb 8bbd b7d0 94bc 6699 a5bc 7773 91bb
000003e0: eb42 653c 26df 883d 25ef e1bc 640a 013d
000003f0: eed8 61bc a622 a4bd 0ffa b33d 6325 8fbd

actor.linears.1.bias f4 [128]
-0.08307952 0.057420865 0.04039746 -0.062347423 -0.005873346 0.047826853 -0.054949123 0.066025116
0.020660575 -0.08529 -0.004118859 0.0032903468 0.039379004 0.076468006 -0.0051463516 -0.06882856
-0.0045657875 0.059281778 0.06543942 -0.0889611 -0.027742647 -0.053117342 0.070770875 0.0034010836
-0.02796022 0.01888917 0.068865895 0.031964667 -0.006665526 -0.037913837 0.043618154 -0.007038488
-0.0032087215 0.09073162 0.07074578 0.027722219 -0.067989126 0.030234963 -0.049690798 0.02230348
0.045759212 0.0020878613 0.046695948 0.009848365 0.047211118 -0.016010001 -0.077973515 -0.04852839
0.065655604 -0.06294994 0.023440005 -0.070918545 0.023059547 -0.008441949 -0.03133536 0.025277035
-0.052755374 0.03077174 -0.018459791 0.0758662 -0.01729626 0.026692254 -0.065341555 -0.06789506
0.08794603 0.01003362 -0.009722894 0.0059615592 0.022446478 0.018520635 -0.009709566 0.08832275
-0.00023293062 0.036540117 0.023822997 0.078446664 0.005103912 0.079743825 -0.07901853 0.051688474
0.04542073 -0.006512633 -0.05772489 -0.07947104 0.030992517 0.015844187 -0.04469954 -0.09069716
-0.07713594 -0.016520614 -0.05233527 0.049576357 -0.026078627 0.012464402 0.04806854 -0.034840085
-0.022245618 0.0077019655 -0.02718598 0.01454995 -0.04808096 0.07641026 -0.03936272 0.05461171
-0.026964962 -0.0042964225 -0.016133878 -0.025860453 0.016524268 -0.052359153 -0.027699864 -0.08312162
0.048352476 0.03519015 0.0051747514 0.060211018 0.01947903 0.061011273 -0.032363184 -0.059231464
0.013426353 -0.027966276 0.050640333 0.05953993 -0.063156836 0.043096002 0.01668943 0.015376818
00000000: 9825 aabd 2432 6b3d cf77 253d 0360 7fbd
00000010: 3275 c0bb 17e6 433d 5512 61bd 2d38 873d
00000020: 5e40 a93c 86ac aebd 7ef7 86bb dca2 573b
00000030: e14b 213d 429b 9c3d baa2 a8bb fdf5 8cbd
00000040: 9a9c 95bb 73d1 723d 1a05 863d 3d31 b6bd
00000050: 8c44 e3bc 9291 59bd 52f0 903d b7e4 5e3b
00000060: d50c e5bc 76bd 9a3c 9009 8d3d 62ed 023d
00000070: 7c6a dabb 8a4b 1bbd f3a8 323d 1ea3 e6bb
00000080: 6a49 52bb 80d1 b93d 2ae3 903d b519 e33c
00000090: e23d 8bbd 50af f73c 9488 4bbd cab5 b63c
000000a0: 036e 3b3d 80d4 083b 4044 3f3d 095b 213c
000000b0: 7260 413d 6827 83bc 94b0 9fbd b4c5 46bd
000000c0: 7276 863d e6eb 80bd 4105 c03c be3d 91bd
000000d0: 60e7 bc3c 1a50 0abc 8259 00bd c911 cf3c
000000e0: 0516 58bd 0415 fc3c fd38 97bc bd5f 9b3d
000000f0: e3b0 8dbc b7a9 da3c cbd1 85bd 910c 8bbd
00000100: 0c1d b43d 0d64 243c c64c 1fbc 2f59 c33b
00000110: ade1 b73c 96b8 973c df14 1fbc 8fe2 b43d
00000120: d63e 74b9 17ab 153d 7228 c33c a5a8 a03d
00000130: b83e a73b bb50 a33d 78d4 a1bd 4bb7 533d
00000140: 160b 3a3d ed67 d5bb ef70 6cbd b6c1 a2bd
00000150: 05e4 fd3c abcb 813c dd16 37bd 6fbf b9bd
00000160: 73f9 9dbd 3d56 87bc 825d 56bd 9410 4b3d
00000170: d8a2 d5bc 7e37 4c3c 84e3 443d 7ab4 0ebd
00000180: 713c b6bc c560 fc3b 22b5 debc ea62 6e3c
00000190: 8af0 44bd fb7c 9c3d ce3a 21bd 87b0 5f3d
000001a0: a0e5 dcbc 01c9 8cbb 322b 84bc 4dd9 d3bc
000001b0: e75d 873c 8d76 56bd d3ea e2bc ab3b aabd
000001c0: 3f0d 463d 8c23 103d f690 a93b d49f 763d
000001d0: 7d92 9f3c f5e6 793d 428f 04bd b19c 72bd
000001e0: 35fa 5b3c 8819 e5bc 3d6c 4f3d 24e0 733d
000001f0: 5f58 81bd 6f85 303d 46b8 883c 0def 7b3c

actor.linears.2.weight f4 [1, 128]
0.06225278 0.0814385 -0.014021995 0.07897174 -0.08256865 -0.059551373 0.07484289 0.0008928638
-0.04412003 -0.057190374 -0.04191627 -0.03366693 0.020835731 -0.010098052 0.0062141726 -0.022658471
-0.0019343252 0.031714614 -0.00016154081 -0.071744815 0.04844989 -0.00068676093 0.0575555 -0.07193827
-0.053131633 -0.022392934 0.087492764 -0.07677981 0.05956328 0.07990605 -0.006195262 0.07895138
-0.054378472 0.041145816 -0.0063314503 -0.013950237 -0.059375778 -0.022789888 0.056934718 -0.061834924
0.083532155 -0.04413168 -0.07185156 -0.03774187 -0.057039864 -0.034135815 0.035156365 0.019830963
-0.043534245 0.0017041183 0.05582156 0.022080956 0.08070034 0.0099480115 0.06823776 -0.002729716
0.0019019211 0.05781343 -0.07532922 -0.05485052 0.08093382 0.06377676 -0.016043106 0.007629596
0.071707405 -0.074312665 -0.017261341 0.0329277 -0.021723228 -0.02775693 -0.012454983 0.045498
-0.0051170643 0.076588914 0.022445336 -0.06931255 0.011203952 -0.062753715 -0.0045115757 -0.061447106
-0.07415455 0.032236375 0.023209158 0.006747811 0.051406275 0.063971415 -0.060277138 0.016262248
-0.02570784 -0.036750026 0.029663725 0.073028535 0.07904688 -0.05970149 0.040680684 0.026758151
0.023676798 -0.031492855 -0.029618902 -0.0143656 -0.015713511 -0.05146029 0.031349324 0.014463505
-0.039511733 0.08481088 -0.0033623897 0.08058069 -0.027947292 -0.06394469 -0.037317976 0.00048438573
-0.060214683 -0.0023370013 -0.046189025 0.073683836 -0.0041462826 0.042026624 0.039367232 -0.0031955186
-0.021204596 0.06962654 0.06357715 -0.013445318 -0.00237259 0.050395142 -0.0067450413 0.023838604
00000000: c5fc 7e3d 3ac9 a63d 82bc 65bc f0bb a13d
00000010: c119 a9bd 24ec 73bd 3b47 993d 130f 6a3a
00000020: 34b7 34bd 7440 6abd 65b0 2bbd 56e6 09bd
00000030: b2af aa3c 4d72 25bc 42a0 cb3b 429e b9bc
00000040: 2f89 fdba 2fe7 013d 4863 29b9 f2ee 92bd
00000050: 6473 463d bf07 34ba 51bf 6b3d 5f54 93bd
00000060: 8ea0 59bd 6371 b7bc 682f b33d bc3e 9dbd
00000070: a0f8 733d c8a5 a33d a001 cbbb 43b1 a13d
00000080: f6bb 5ebd 8488 283d 0e78 cfbb 898f 64bc
00000090: 0434 73bd dcb1 babc 6134 693d 9e46 7dbd
000000a0: e812 ab3d 6cc3 34bd e926 93bd 3897 1abd
000000b0: a2a2 69bd ffd1 0bbd 1f00 103d 8b74 a23c
000000c0: f750 32bd b95c df3a 26a5 643d 1fe3 b43c
000000d0: 3846 a53d fcfc 223c 3dc0 8b3d 09e5 32bb
000000e0: e249 f93a c6cd 6c3d 3546 9abd f0aa 60bd
000000f0: a1c0 a53d 649d 823d d56c 83bc b101 fa3b
00000100: 55db 923d 3d31 98bd a867 8dbc 32df 063d
00000110: e9f4 b1bc 8062 e3bc fc0f 4cbc 1c5c 3a3d
00000120: 0cad a7bb a6da 9c3d 48df b73c bdf3 8dbd
00000130: c890 373c 0585 80bd d7d5 93bb f6af 7bbd
00000140: 57de 97bd 4a0a 043d 2221 be3c be1c dd3b
00000150: 638f 523d 7203 833d 29e5 76bd 6838 853c
00000160: 4099 d2bc 3287 16bd 5701 f33c fc8f 953d
00000170: 55e3 a13d 8d89 74bd caa0 263d e933 db3c
00000180: d8f5 c13c a7fe 00bd 57a3 f2bc b25d 6bbc
00000190: 9fb9 80bc 06c8 52bd 2668 003d 56f8 6c3c
000001a0: 0ed7 21bd 54b1 ad3d 8a5b 5cbb 7d07 a53d
000001b0: b8f1 e4bc 6ff5 82bd bcda 18bd 27f5 fd39
000001c0: aca3 76bd 6028 19bb b430 3dbd 8de7 963d
000001d0: 8add 87bb 1c24 2c3d 893f 213d e86b 51bb
000001e0: 43b5 adbc 5c98 8e3d bd34 823d c049 5cbc
000001f0: 747d 1bbb 236b 4e3d 8205 ddbb 2d49 c33c
