FJSP_MultiPPO/saved_network/FJSP_J30M20/best_value5/policy_job.pth (torch_old, 637559 bytes, 53 tensors)

_input f4 [128]
0	0x3e822b7c	0.254238
1	0xbf3ae966	-0.7301239
2	0xbe579cfa	-0.21055976
3	0xbf516dd1	-0.8180819
4	0xbe58c59c	-0.21169132
5	0x3e69c35b	0.22828428
6	0xbf29ea1e	-0.6637286
7	0xbe6eda49	-0.23325457
8	0xbe1b51f5	-0.15167983
9	0xbc1d4f0c	-0.009601366
10	0xbf00287a	-0.5006176
11	0xbf15a2cb	-0.5845153
12	0xbf04ff83	-0.5195238
13	0xbdce7c08	-0.10082251
14	0xbf369a38	-0.7132907
15	0x3eee93ac	0.4659704
16	0x3e38fbc3	0.1806479
17	0xbf4e015f	-0.8047084
18	0x3c215b7b	0.009848471
19	0xbeb9954a	-0.3624671
20	0xbee9e106	-0.45679492
21	0xbc7b2b48	-0.015330143
22	0xbe868ebf	-0.26280782
23	0xbf118247	-0.5683941
24	0xbf18b159	-0.5964561
25	0x3f6c3e45	0.92282516
26	0x3de02cf8	0.10946077
27	0xbf06fb82	-0.5272752
28	0xbeb72a56	-0.35774487
29	0x3f1f39f5	0.6219781
30	0x3f03be48	0.5146222
31	0xbe09d689	-0.13460745
32	0xbf0de9f3	-0.55435103
33	0xbea3bbb5	-0.31979147
34	0x3eebdbd6	0.4606616
35	0xbeab5510	-0.33463335
36	0x3ecae16b	0.39625105
37	0xbed469f5	-0.4148709
38	0x3f399a8b	0.7250144
39	0x3f6350bf	0.88795084
40	0x3eea813b	0.4580172
41	0xbf789a26	-0.9711021
42	0xbf02f5d3	-0.5115635
43	0xbe8efcf3	-0.2792736
44	0x3e87ee9a	0.26549226
45	0xbf555b3e	-0.8334235
46	0xbf0bc298	-0.545938
47	0x3f25935f	0.64677995
48	0x3f78fd3f	0.9726142
49	0xbf7c2d4f	-0.98506635
50	0xbe96a42d	-0.2942213
51	0x3e208df5	0.15679152
52	0xbf68c086	-0.9091877
53	0x3ea572f5	0.32314268
54	0xbf72efc4	-0.94897103
55	0xbf05eb1c	-0.52311873
56	0x3e84618f	0.2585568
57	0xbf5260df	-0.82179064
58	0xbe47c13e	-0.1950731
59	0x3e8ce53f	0.2751865
60	0xbf1c1edf	-0.60984606
61	0x3f1be790	0.6090021
62	0xbf0e322f	-0.55545324
63	0x3ea38f36	0.319452
64	0xbed610e5	-0.41809765
65	0xbd992f4b	-0.074797235
66	0xbecfba4c	-0.4057182
67	0xbe0e0a45	-0.13871105
68	0x3dcb3975	0.099230684
69	0x3eb518e3	0.3537055
70	0xbf58569c	-0.84507155
71	0x3da26018	0.07928485
72	0x3f6a683c	0.915653
73	0xbf2d168a	-0.67612517
74	0x3e8a1f80	0.26977158
75	0xbf579091	-0.84204966
76	0xbe87d1ac	-0.26527154
77	0xbf044205	-0.5166324
78	0x3f74f6b2	0.9568893
79	0xbf126d27	-0.57197803
80	0x3ef1a23d	0.4719409
81	0xbe249f60	-0.16076422
82	0xbee72f0f	-0.4515309
83	0xbd10dc5d	-0.035366405
84	0xbd629a53	-0.055322956
85	0x3f6e8c31	0.93182665
86	0xbf1124d7	-0.5669684
87	0x3e52cd12	0.2058604
88	0xbf0eb190	-0.5573969
89	0x3f57041a	0.83990633
90	0x3da70d9a	0.08156891
91	0x3f26df45	0.6518443
92	0x3f449fb6	0.768062
93	0xbdc3835c	-0.09546539
94	0x3ec010ea	0.37512904
95	0x3d61d4db	0.055134635
96	0x3f677c56	0.90424097
97	0xbe24acfa	-0.1608161
98	0xbe45d81a	-0.19320717
99	0xbeb5ad14	-0.3548361
100	0x3ed12862	0.40851122
101	0xbf7017a5	-0.9378608
102	0xbe9d24f7	-0.30692264
103	0x3f742fed	0.9538563
104	0xbed2aeb1	-0.41148904
105	0x3e881d5e	0.26584905
106	0x3f19ed70	0.60127926
107	0x3f0bef8b	0.5466239
108	0xbf1a5573	-0.60286635
109	0xbf0df3fb	-0.5545041
110	0x3f180008	0.5937505
111	0xbf0230d6	-0.5085577
112	0xbf1bd847	-0.6087689
113	0x3f80824a	1.0039761
114	0x3f730beb	0.9494006
115	0x3f237c4c	0.63861537
116	0xbec6952d	-0.38785687
117	0xbef2d31a	-0.47426683
118	0xbf25e869	-0.64807755
119	0xbf38572f	-0.7200803
120	0x3ea82a7b	0.3284491
121	0x3ee50116	0.4472739
122	0xbde571a7	-0.11203318
123	0xbdc4064d	-0.09571514
124	0xbf7f6b3a	-0.9977299
125	0xbea4d7ad	-0.32195798
126	0x3f0e10e0	0.554945
127	0xbf10dbac	-0.5658519

bn.weight f4 [2]
0	0x3f800000	1.0
1	0x3f800000	1.0

bn.bias f4 [2]
0	0x00000000	0.0
1	0x00000000	0.0

bn.running_mean f4 [2]
0	0x00000000	0.0
1	0x00000000	0.0

bn.running_var f4 [2]
0	0x3f800000	1.0
1	0x3f800000	1.0

encoder.feature_extract.mlps.0.linears.0.weight f4 [128, 2]
0	0x3dd0eefa	0.10201831
1	0xbf05eeec	-0.5231769
2	0x3f06dbb9	0.5267902
3	0x3d6675bb	0.05626462
4	0x3f158976	0.58412874
5	0x3f1bcd05	0.6085971
6	0xbf356f90	-0.70873356
7	0xbf255292	-0.6457912
8	0x3da47763	0.08030584
9	0x3f08b276	0.5339731
10	0xbecf0881	-0.40436175
11	0x3e81c186	0.2534296
12	0xbd154aa9	-0.036448155
13	0xbee5bbda	-0.44869882
14	0x3cb27d7e	0.021788355
15	0x3eff61e8	0.49879384
16	0xbeb96fae	-0.36218017
17	0xbe7c90fe	-0.24664685
18	0xbf3228e4	-0.69593644
19	0xbe990172	-0.29883915
20	0x3f19502e	0.5988797
21	0xbf203eb3	-0.6259567
22	0xbccdcaf1	-0.025121184
23	0xbf2cf0c7	-0.675549
24	0xbdcdee8f	-0.10055267
25	0xbe2dbfb9	-0.16967668
26	0xbe6e8070	-0.23291183
27	0x3e5b4eb9	0.21416749
28	0x3eca36af	0.39494845
29	0x3ea826f7	0.32842228
30	0xbf2f02bd	-0.68363553
31	0xbef531fa	-0.47889692
32	0x3e86e18e	0.2634396
33	0x3eda0394	0.42580855
34	0xbcc84803	-0.0244484
35	0xbf036751	-0.51329523
36	0xbf350440	-0.7070961
37	0x3f006d52	0.5016681
38	0xbde71fa2	-0.1128533
39	0xbf26588f	-0.6497888
40	0x3e646a47	0.22306167
41	0xbe842ed5	-0.2581698
42	0xbf0196bd	-0.50620633
43	0xbe8fe617	-0.28105232
44	0x3d9a80d1	0.07544101
45	0x3f3172ed	0.6931599
46	0x3de9af5a	0.11410399
47	0xbf1b4bd9	-0.6066261
48	0xbe34535a	-0.17609921
49	0x3e0e7e64	0.13915402
50	0x3ed0610d	0.40699044
51	0xbe6a5a06	-0.22885904
52	0xbe48ddc4	-0.19615847
53	0x3f1c8b70	0.61150265
54	0xbf0bb21f	-0.54568666
55	0x3e10ff0c	0.14159793
56	0xbdfe4e7d	-0.12417314
57	0xbf24f6a7	-0.6443886
58	0x3ee2ef48	0.44323182
59	0xbf1e6197	-0.6186766
60	0xbec4ec6a	-0.3846162
61	0xbc86e4d0	-0.016466528
62	0x3f3167d7	0.6929907
63	0x3d23cdfd	0.039991368
64	0x3f14636d	0.5796421
65	0xbf2f4bbd	-0.6847494
66	0xbf05320a	-0.5202948
67	0xbe501510	-0.20320535
68	0x3e272e1c	0.16326183
69	0x3f2c23cb	0.67242116
70	0x3e6716a2	0.22567227
71	0xbd51b655	-0.051199276
72	0x3eff2ef6	0.49840516
73	0x3bc2a8e0	0.0059405416
74	0x3e15b77f	0.1462078
75	0xbdf6fb52	-0.12059654
76	0x3f066d53	0.52510566
77	0x3ee7de42	0.45286757
78	0xbed578cd	-0.41693726
79	0xbf13bd6d	-0.57710916
80	0x3d2fea65	0.042948145
81	0x3eb78c4d	0.35849229
82	0x3eecde3e	0.46263307
83	0x3e0d3ad3	0.13791971
84	0x3f2709fb	0.65249604
85	0x3e91b1ae	0.2845587
86	0xbeef0f63	-0.46691427
87	0x3da2e9be	0.07954739
88	0xbeb9bbcf	-0.362761
89	0xbf02f4d6	-0.5115484
90	0x3dcc8897	0.0998699
91	0x3d4b8270	0.04968494
92	0x3ee621cd	0.44947663
93	0x3eb0f4c7	0.3456175
94	0x3f32f6c8	0.6990781
95	0x3ca8b6b2	0.020594928
96	0xbf074014	-0.5283215
97	0x3eb79b5b	0.35860714
98	0xbdc14bb9	-0.09438271
99	0x3e8e4e8f	0.2779431
100	0xbc522309	-0.012825736
101	0x3ed96ad9	0.4246433
102	0x3ededd16	0.4352805
103	0x3dc23a5e	0.09483789
104	0x3e88d2a0	0.26723194
105	0xbe2a2c8c	-0.16618556
106	0x3f2f9d2e	0.6859921
107	0xbf23251b	-0.63728493
108	0xbe3fbc20	-0.18724108
109	0x3ed7b34c	0.4212898
110	0x3e8fb292	0.28065926
111	0xbe8b0dd2	-0.27158982
112	0xbe76febd	-0.24120612
113	0x3f2ad218	0.6672683
114	0xbf0bb53c	-0.54573417
115	0x3ee50590	0.44730806
116	0x3f24c0af	0.6435651
117	0xbe18a79f	-0.14907692
118	0xbebeb93f	-0.37250707
119	0xbe5511ac	-0.20807523
120	0x3f24ed8f	0.64424986
121	0x3eeeffaf	0.46679446
122	0xbebeb16c	-0.37244737
123	0x3f281b18	0.6566634
124	0xbdbc3903	-0.091905616
125	0xbf170b4e	-0.59001625
126	0xbf242989	-0.6412588
127	0x3e662183	0.22473721
128	0x3e425c44	0.18980509
129	0x3f0fa9a9	0.56118256
130	0xbdcb0684	-0.09913352
131	0x3d4cbe9c	0.049986467
132	0x3ec1401b	0.3774422
133	0xbdcf002a	-0.10107453
134	0x3f24dbb0	0.64397717
135	0xbf1e0493	-0.6172573
136	0xbea76ac7	-0.32698652
137	0x39e4a44d	0.00043609962
138	0xbef6b46d	-0.4818453
139	0x3ee81d42	0.45334822
140	0x3e84f398	0.25967097
141	0x3d6a7023	0.05723585
142	0x3e66788d	0.22506924
143	0xbddeb29e	-0.10873912
144	0xbf04c868	-0.51868296
145	0x3f1f80e4	0.62306046
146	0x3ece8b98	0.40340877
147	0x3f1061da	0.5639931
148	0xbdf496bc	-0.11942813
149	0xbd0762fe	-0.03305339
150	0xbf2c0939	-0.6720157
151	0xbee20d70	-0.44150877
152	0xbc6e7092	-0.014553206
153	0xbdca3ee9	-0.098752804
154	0x3f2ebca8	0.68256617
155	0xbf20dfb9	-0.62841374
156	0xbed1e5d3	-0.40995654
157	0xbe467116	-0.19379076
158	0x3d8c51c8	0.06851536
159	0xbde51104	-0.11184886
160	0xbe0a6bbb	-0.13517658
161	0x3e53f246	0.20697889
162	0x3ed5b816	0.4174201
163	0x3ea8a304	0.3293687
164	0x3ea8d09d	0.3297166
165	0x3e84db5a	0.25948602
166	0xbf12344c	-0.5711105
167	0x3f068ff5	0.5256341
168	0xbe973792	-0.29534584
169	0xbecf2ca0	-0.40463734
170	0xbf0613b8	-0.5237384
171	0xbe2a3d9f	-0.16625069
172	0xbde90330	-0.11377561
173	0x3e287a89	0.16452993
174	0x3efec43a	0.49759084
175	0x3f1d1d08	0.61372423
176	0x3f0763c1	0.5288659
177	0xbf2eb6d2	-0.6824771
178	0x3f31afdc	0.69408965
179	0x3e874718	0.26421428
180	0x3f2606bd	0.6485403
181	0x3e5b04fd	0.21388622
182	0x3ef023db	0.46902356
183	0x3ec20791	0.37896398
184	0x3f24c09b	0.6435639
185	0xbe384c8e	-0.17997953
186	0xbda8d3a0	-0.08243489
187	0xbe5f9b45	-0.21836574
188	0x3f17bd45	0.5927318
189	0x3ce8abc3	0.028402215
190	0xbd3d48db	-0.04621206
191	0x3debd221	0.11514688
192	0xbf30c4d7	-0.69050354
193	0xbefb5ef1	-0.49095872
194	0x3e6d7dc3	0.23192506
195	0xbf0e2158	-0.5551963
196	0xbd2c4cbf	-0.04206538
197	0xbedc2eb6	-0.43004388
198	0xbdb51121	-0.08841158
199	0xba8b4118	-0.0010624258
200	0x3e53f6df	0.20699643
201	0xbd8d165b	-0.068890296
202	0xbf2a961c	-0.666353
203	0x3f11522a	0.56766
204	0x3e84e89f	0.25958726
205	0x3efe1c66	0.4963104
206	0x3e87d097	0.2652633
207	0x3c97be91	0.018523486
208	0x3f243b32	0.64152825
209	0xbf00c5dd	-0.50301915
210	0xbf20c605	-0.62802154
211	0xbf13de77	-0.5776133
212	0xbe86104e	-0.26184314
213	0xbe659f59	-0.22424068
214	0xbeed38e0	-0.46332455
215	0xbf289a27	-0.6586022
216	0xbf31dcbd	-0.69477445
217	0xbf01004d	-0.50391084
218	0xbe3c8e57	-0.18413673
219	0x3f156c17	0.58368057
220	0x3ea6b975	0.32563367
221	0x3ea29acb	0.31758723
222	0x3f10cf5d	0.5656641
223	0x3f0ce360	0.55034447
224	0xbf1910c9	-0.5979124
225	0xbe28837d	-0.16456409
226	0xbeaf41d5	-0.34229913
227	0xbe11b5a8	-0.14229453
228	0x3f241168	0.6408906
229	0xbec6cd36	-0.3882844
230	0x3eb0086f	0.34381434
231	0xbdac2be2	-0.084068075
232	0x3e9bb402	0.30410773
233	0x3e8bf2ab	0.27333578
234	0xbf231d54	-0.63716626
235	0xbebea530	-0.37235403
236	0xbf17339f	-0.5906314
237	0x3e1a0f32	0.15044859
238	0xbe4bb8c9	-0.19894709
239	0x3eaed793	0.34148845
240	0xbed8cfd6	-0.42346066
241	0xbf052264	-0.520056
242	0x3ea91415	0.33023134
243	0x3f0c0d78	0.5470805
244	0xbe8f6458	-0.28006244
245	0xbe83a8c0	-0.25714684
246	0xbecbaa27	-0.39778253
247	0x3ef44685	0.47710052
248	0xbeac6e80	-0.33678055
249	0xbc8319cb	-0.01600351
250	0xbdc7ce48	-0.09756142
251	0x3ebc6ea6	0.36803168
252	0xbe668f66	-0.2251564
253	0xbf0d663c	-0.5523412
254	0xbe0b955d	-0.13631196
255	0xbec5463c	-0.38530147

encoder.feature_extract.mlps.0.linears.0.bias f4 [128]
0	0x3f07e76b	0.5308749
1	0xbe8226ec	-0.2542032
2	0x3dd2e71e	0.10297988
3	0x3de7d343	0.11319592
4	0xbe032969	-0.12808765
5	0x3eadf450	0.33975458
6	0x3f17fb37	0.593677
7	0xbd1bbe5e	-0.038023345
8	0x3f068d25	0.5255912
9	0xbf24acc4	-0.6432612
10	0x3eedbfc9	0.46435383
11	0x3e12e52f	0.14345239
12	0x3ee4ce18	0.44688487
13	0xbf1eec58	-0.6207938
14	0xbe3bd9e8	-0.18344843
15	0x3f27dcc7	0.65571254
16	0x3f11700f	0.5681161
17	0x3e39ef65	0.18157728
18	0xbf0fb1fb	-0.5613095
19	0x3f02a1a0	0.5102787
20	0x3e98fa2e	0.29878372
21	0x3f20a23f	0.6274757
22	0xbed56a87	-0.41682836
23	0x3e602dc6	0.21892461
24	0x3ed7bf92	0.42138344
25	0xbf31c321	-0.6943837
26	0x3f09a109	0.53761345
27	0x3e8ff095	0.28113237
28	0xbebb55e0	-0.36588955
29	0x3e1974e0	0.1498599
30	0xbeca9aab	-0.39571127
31	0xbe9b86b3	-0.30376205
32	0xbebbec8c	-0.36703908
33	0x3ee7a1f8	0.4524076
34	0x3e5d99c9	0.21640696
35	0xbf2d6b7a	-0.6774212
36	0xbeebbca7	-0.46042368
37	0x3e4a3b38	0.19749153
38	0xbe925c8c	-0.28586233
39	0x3e9fa09c	0.31177223
40	0xbec187d0	-0.3779893
41	0xbe8c5170	-0.27405882
42	0xbe5ef2f0	-0.21772361
43	0xbf1a9a3d	-0.603916
44	0xbdb4337c	-0.08798882
45	0x3f2d854e	0.6778153
46	0x3f352061	0.7075253
47	0xbe61fede	-0.2206988
48	0xbe8ec761	-0.2788649
49	0x3ec32db5	0.3812081
50	0x3f14baee	0.5809773
51	0xbf22b5fc	-0.63558936
52	0xbeba5f37	-0.36400768
53	0x3f1a834d	0.603566
54	0xbd87723a	-0.06613584
55	0xbf25dd99	-0.64791256
56	0x3e253880	0.16134834
57	0xbe670cda	-0.22563496
58	0x3e2b193c	0.16708845
59	0x3f1de2b8	0.6167407
60	0xbf0e9dae	-0.5570935
61	0x3f2e9035	0.6818879
62	0x3e6f0761	0.23342659
63	0xbecd20b3	-0.4006401
64	0xbf29ac2d	-0.66278344
65	0xbe00768b	-0.1254522
66	0xbd31edce	-0.04343968
67	0xbedf35cf	-0.4359574
68	0xbeb1f88a	-0.34759933
69	0x3df30e54	0.11867967
70	0xbf134dd9	-0.5754066
71	0x3f1ef2f5	0.62089473
72	0x3d4ba1e9	0.049714956
73	0xbe29a2bb	-0.16565983
74	0xbef357ac	-0.47527826
75	0x3f2d4357	0.6768088
76	0xbf13ee74	-0.57785726
77	0x3d447398	0.0479618
78	0xbe8491cf	-0.25892493
79	0x3e843fd9	0.25829962
80	0x3c6f5038	0.014606528
81	0xbf36dee7	-0.7143387
82	0x3ea07151	0.31336454
83	0xbe905556	-0.28190106
84	0x3e01a7b9	0.12661637
85	0x3e2bf8f8	0.16794193
86	0x3f2f65e2	0.68514836
87	0x3d30d732	0.043173976
88	0xbf1f9606	-0.6233829
89	0xbf050b83	-0.5197069
90	0xbee4799b	-0.44624028
91	0x3ea895be	0.32926744
92	0xbbf4d6c8	-0.007471893
93	0x3eafaa1e	0.34309477
94	0xbf08acb3	-0.5338852
95	0xbeba5b46	-0.3639776
96	0x3e77e22e	0.24207374
97	0xbe77322e	-0.24140236
98	0x3e5ac397	0.21363674
99	0x3e95c5e0	0.2925253
100	0xbce0bd84	-0.027434118
101	0x3d7f235a	0.062289573
102	0xbe9bdad0	-0.30440378
103	0x3f1bf0be	0.6091422
104	0x3f334767	0.70030826
105	0xbe5e8c39	-0.21733178
106	0xbda20388	-0.0791083
107	0x3e994f3d	0.29943267
108	0xbe24283f	-0.16030978
109	0x3f2460af	0.6421003
110	0x3e330582	0.1748257
111	0x3f10e118	0.56593466
112	0xbf16c181	-0.58889014
113	0x3ede8fb2	0.43469006
114	0x3ed84fcb	0.42248377
115	0x3eb65af7	0.35616276
116	0x3e363aa4	0.17795807
117	0x3e5198e2	0.20468476
118	0xbeb1ad06	-0.3470232
119	0x3ee4d66f	0.4469485
120	0xbe32bfb5	-0.17455943
121	0xbc1cf71e	-0.009580402
122	0x3e9b262a	0.30302554
123	0x3ee270e3	0.4422675
124	0xbe51a501	-0.204731
125	0xbe623f54	-0.2209447
126	0xbf23524d	-0.63797456
127	0xbeb8a2f6	-0.3606183

encoder.feature_extract.mlps.0.linears.1.weight f4 [128, 128]
0	0xbd609425	-0.05482878
1	0x3da7de91	0.08196748
2	0x3d8987d1	0.06715358
3	0x3d72e7c1	0.05930305
4	0xbdb23093	-0.08700671
5	0x3d010d70	0.031506956
6	0x3d91d524	0.071207315
7	0xbce41058	-0.027839825
8	0xbba598f2	-0.005053633
9	0x3d5509e7	0.052011397
10	0x3cb8e320	0.02256924
11	0x3d825024	0.06362942
12	0x3cb6a4c5	0.022295365
13	0x3cf7cc23	0.030248707
14	0x3d8cb33d	0.068701245
15	0x3d40359e	0.046926133
16	0xbd44ee20	-0.048078656
17	0xbcb8e154	-0.022568382
18	0x3ca28a09	0.01984121
19	0x3d8827ad	0.066481926
20	0x3dae8d57	0.08523052
21	0x3d15d562	0.03658045
22	0x3dac87fd	0.08424375
23	0xbc38b3e3	-0.011273357
24	0x3cba4895	0.022739688
25	0xbdb444cb	-0.08802184
26	0xbcdaaba0	-0.026693165
27	0xbd40da92	-0.047083445
28	0xbd14facc	-0.03637199
29	0xbcc7540e	-0.024332073
30	0x3c321408	0.010869034
31	0xbd3f3b25	-0.046687264
32	0x3caa1f4e	0.02076688
33	0xbd227fff	-0.039672848
34	0x3ca1fd55	0.019774118
35	0xbd2a447c	-0.041569218
36	0xbd67f99a	-0.056634523
37	0xbd8ede65	-0.06976012
38	0x3d8ce062	0.06878735
39	0x3d4a9e7c	0.04946755
40	0x3cd1ec1b	0.02562528
41	0x3db0facb	0.08641585
42	0xbd64cc61	-0.055858973
43	0x3d897012	0.06710829
44	0xbd3b0ce0	-0.045666575
45	0xbd11504d	-0.03547697
46	0x3d9ed5e8	0.07755643
47	0x3c459df3	0.012061584
48	0xbd8d9e6f	-0.069149844
49	0x3d1fcd55	0.03901418
50	0xbcb56913	-0.02214483
51	0x3cc74061	0.02432269
52	0xbda8e7d0	-0.0824734
53	0x3d9d8495	0.07691304
54	0x3b760757	0.0037540996
55	0xbd33e6bf	-0.04392123
56	0x3d652e44	0.055952325
57	0x3bf8fae8	0.0075982697
58	0x3c04fe83	0.008117321
59	0x3d69fac7	0.057123926
60	0xbce8ec09	-0.028432863
61	0xbd32a514	-0.043614462
62	0x3d920baa	0.07131131
63	0xbda4ed04	-0.0805302
64	0x3d3a2706	0.045447372
65	0xbd3e0f00	-0.046401024
66	0x3d649142	0.05580259
67	0x3b40caac	0.0029417677
68	0xbd8a6889	-0.0675822
69	0x3d3f675d	0.046729434
70	0xbd836e78	-0.064175546
71	0xbcd8c58b	-0.026461383
72	0xbd406826	-0.046974324
73	0x3cbae6a2	0.022815052
74	0xba88d786	-0.0010440208
75	0x3cd179e8	0.025570825
76	0x3bdde1fc	0.006771324
77	0xbd2de255	-0.042452175
78	0x3d6f74a2	0.05846084
79	0xbd597d42	-0.05309797
80	0x3da1bbfb	0.078971826
81	0xbb055652	-0.002034564
82	0xbd679626	-0.056539677
83	0x3dacb74c	0.084333986
84	0xbd95390a	-0.0728627
85	0x3d8e985b	0.06962653
86	0x3cca0af6	0.02466343
87	0xbdae8f53	-0.08523431
88	0x3d661d3a	0.056180216
89	0x3d76548a	0.060139216
90	0x3d3c2628	0.045934826
91	0xbd7cc233	-0.06170864
92	0xbcd91265	-0.026498029
93	0x3d8dd292	0.06924929
94	0x3c9cc2a7	0.019135786
95	0xbd3f24e4	-0.04666604
96	0xbd6bd3e2	-0.057575114
97	0x3daf12e7	0.08548527
98	0x3d1bac4c	0.038006112
99	0xbcd85ed4	-0.026412405
100	0xbd0b3806	-0.033988975
101	0xbcec2a61	-0.028828802
102	0x3d1f2d7c	0.038861737
103	0x3d506332	0.05087585
104	0xbcb25797	-0.021770282
105	0x3d19ab2d	0.03751676
106	0xbd25eecb	-0.040510934
107	0x3cc1f93d	0.023678416
108	0xbd46025a	-0.048342086
109	0xbd8346eb	-0.06410011
110	0x3d5a4472	0.05328793
111	0xbd4bfd05	-0.049801845
112	0x3d2812e7	0.04103365
113	0x3d803b75	0.062613405
114	0xbd9fb285	-0.07797722
115	0x3d7f2c18	0.06229791
116	0x3d4db6a8	0.050223023
117	0xbcbca56c	-0.023028098
118	0x3ca368ef	0.019947497
119	0x3d445040	0.047928095
120	0xbd961857	-0.07328861
121	0xbcae28ec	-0.021259747
122	0x3cd3fd23	0.02587754
123	0x3cbe800d	0.023254419
124	0xbd0836d4	-0.033255413
125	0xbcbc03fd	-0.02295112
126	0x3c651228	0.01398138
127	0x3d9dc105	0.07702831
128	0xbd9a602e	-0.07537876
129	0xbcac0672	-0.020999167
130	0x3da83666	0.08213501
131	0xbdac94b3	-0.084267996
132	0x3b6e38bd	0.0036349737
133	0xbd9962c0	-0.07489538
134	0xbcbbf894	-0.02294568
135	0xbd583d51	-0.05279285
136	0x3ca1a78e	0.019733217
137	0xbd305adb	-0.043055397
138	0x3d13dfd4	0.03610213
139	0xbb514815	-0.0031933833
140	0xbd4ad306	-0.049517654
141	0x3da9097d	0.08253763
142	0xbdafb682	-0.085797325
143	0x3d90bbc3	0.07067063
144	0xbccde666	-0.025134277
145	0xbd787a52	-0.06066353
146	0x3d1cca57	0.038278904
147	0x3d90d54f	0.070719354
148	0x3d429f62	0.04751528
149	0xbd0bede1	-0.034162406
150	0xbd408025	-0.04699721
151	0x3c137326	0.0089996215
152	0x3daa8f16	0.08328073
153	0xbae68291	-0.0017586519
154	0xbd64eb47	-0.05588844
155	0x3ba5fc2b	0.005065461
156	0xbd83f816	-0.06443803
157	0x3c64ae38	0.013957553
158	0xbc27b3e7	-0.010235763
159	0x3caccf84	0.021095045
160	0xbdb0e3db	-0.0863721
161	0xbce43032	-0.027855013
162	0xbda10fd4	-0.07864347
163	0xbda776de	-0.08176969
164	0xbd9018ea	-0.07036002
165	0xbc92d6fa	-0.017924774
166	0xbc658b4f	-0.014010265
167	0x3d55c641	0.052191023
168	0xbc7f3d22	-0.01557854
169	0x3dad1c92	0.08452715
170	0x3ce10615	0.02746872
171	0xbaa8706a	-0.0012850885
172	0xbd6150ac	-0.055008575
173	0xbd0cefeb	-0.03440849
174	0xbc48d0ed	-0.012256843
175	0xbda5eaa9	-0.081013985
176	0xbd540923	-0.051766526
177	0x3da9c3b7	0.08289283
178	0x3cbbac8e	0.022909429
179	0x3d222e63	0.03959502
180	0xbc1104c7	-0.008851237
181	0xbd7b2d19	-0.061322305
182	0x3d8476c8	0.06467968
183	0x3d9dd9d7	0.07707565
184	0x3c73e90f	0.0148871085
185	0xbdb20170	-0.086916804
186	0x3d3b7d24	0.04577364
187	0xbd44509f	-0.04792845
188	0xbda0b148	-0.07846314
189	0xbd608501	-0.054814342
190	0x3d9bbfe7	0.07604962
191	0x3daff6d2	0.08591999
192	0xbc732dde	-0.014842479
193	0xbc1b5290	-0.009480134
194	0xbca79915	-0.020458737
195	0x3cc7840c	0.024354957
196	0xbccc610d	-0.024948621
197	0xbd4b68ae	-0.049660377
198	0x3cccd6b8	0.02500473
199	0x3cd9cbd0	0.026586443
200	0x3b0e1013	0.0021677061
201	0xbbca7e74	-0.006179625
202	0x3db26702	0.087110534
203	0x3aca6441	0.0015441255
204	0xbd395f43	-0.045256864
205	0x3d2a43ad	0.041568447
206	0xbd0ee2ef	-0.03488439
207	0xbd310d90	-0.043225825
208	0xbd536f9c	-0.05162011
209	0x3c9c3615	0.019068757
210	0x3b96cb9d	0.0046019093
211	0x3cc2eac4	0.023793586
212	0x3cba81d9	0.022766994
213	0x3c387e77	0.01126062
214	0x3c10f658	0.008847795
215	0xbd543807	-0.051811244
216	0xbd31440d	-0.04327779
217	0x3da89e33	0.08233299
218	0x3d2c7ed8	0.042113155
219	0xbd491d75	-0.049100358
220	0x3b1504b1	0.0022738392
221	0x3c8d9c55	0.017286459
222	0xbdb7f23c	-0.089817494
223	0xbcc560e3	-0.02409405
224	0xbcbc2f9d	-0.022971923
225	0xbd4c0f68	-0.04981938
226	0xbd216705	-0.039404888
227	0x3d3c7bff	0.04601669
228	0xbd750e24	-0.05982794
229	0x3d84de40	0.06487703
230	0x3d24939a	0.040179826
231	0xbd724765	-0.05915012
232	0xbd92b00e	-0.07162486
233	0x3da1413a	0.07873769
234	0xbcc41ae3	-0.023938602
235	0xbc8aa4b0	-0.016924232
236	0x3d051c2e	0.032497577
237	0xbda5f7ab	-0.081038795
238	0xbbe0584a	-0.0068464624
239	0x3d57b3f4	0.05266185
240	0xbd61cb98	-0.055125803
241	0x3ce4bbe2	0.02792162
242	0xbd945b6c	-0.07244
243	0xb606dcbb	-2.0096038e-06
244	0x3d93da35	0.07219354
245	0x3ba6f4a4	0.0050950814
246	0x3d7e769f	0.062124845
247	0xbd540ffc	-0.051773056
248	0xbd237ac1	-0.03991199
249	0x3ab081f6	0.0013466466
250	0x3c986601	0.018603327
251	0xbd7db40b	-0.06193928
252	0x3d8ddc54	0.0692679
253	0xbd9430c1	-0.072358616
254	0xbc2f7f33	-0.010711479
255	0xbcf37bbf	-0.029722093

encoder.feature_extract.mlps.0.linears.1.bias f4 [128]
0	0x3c1446fd	0.009050128
1	0xbd9851f0	-0.07437503
2	0x3d06d6f8	0.032919854
3	0x39978dd1	0.00028906626
4	0xbc3009dc	-0.010744538
5	0x3c89bac5	0.016812691
6	0x3d8e6c46	0.06954245
7	0xbd899d8e	-0.06719504
8	0xbd93ef3d	-0.072233655
9	0x3d002587	0.03128579
10	0xbd8d76e9	-0.06907446
11	0xbcd44083	-0.025909668
12	0xbd001a85	-0.03127529
13	0x3d911499	0.07084007
14	0xbb1ac081	-0.0023613276
15	0xbd24a2e7	-0.04019442
16	0x3d8acdca	0.067775324
17	0x3d4d69da	0.050149776
18	0xbcaad572	-0.020853732
19	0x3db65e0c	0.08904657
20	0x3ccb6e1c	0.024832778
21	0x3d40566b	0.046957415
22	0xbcd78b7a	-0.026311625
23	0x3c8bcad9	0.017064499
24	0xbd85e357	-0.06537502
25	0x3d262b76	0.04056879
26	0x3ca0bae8	0.019620374
27	0xbd8207fb	-0.063491784
28	0xbcbbc5e2	-0.022921506
29	0xbd17c5e8	-0.037053972
30	0x3d0c8450	0.03430587
31	0xbd76a139	-0.060212348
32	0x3da80482	0.08203985
33	0xbd9a09b4	-0.07521382
34	0xbd28b845	-0.041191358
35	0xbc390396	-0.011292359
36	0xbdab23e7	-0.08356457
37	0x3db080a3	0.086182855
38	0xbd8e328d	-0.069432355
39	0xbd4d0e0c	-0.050062224
40	0xbcb47a90	-0.022031099
41	0x3d618d6d	0.055066515
42	0x3ac1f30b	0.0014797164
43	0x3c4a2379	0.012337559
44	0x3c5587bb	0.013032849
45	0x3ccaf0ad	0.024772966
46	0xbc46451c	-0.012101438
47	0x3c61d08e	0.0137826335
48	0x3dab1535	0.08353654
49	0x3d613df7	0.054990735
50	0xbc2b5185	-0.0104564475
51	0x3d7c8e84	0.06165935
52	0x3db2d079	0.08731169
53	0xbda1fbe2	-0.07909371
54	0xbd820782	-0.06349088
55	0x3d671e36	0.056425296
56	0x3bb926fd	0.0056503997
57	0xbd76fb07	-0.060297992
58	0x3d8382f0	0.06421459
59	0xbcf52344	-0.029924043
60	0xbd04dd59	-0.032437656
61	0x3d5114a7	0.051045086
62	0xbd417a38	-0.047235698
63	0x3c49e334	0.012322236
64	0x3d973284	0.07382682
65	0xbd17ed4c	-0.03709154
66	0x3d3256c4	0.043539777
67	0xbd24e901	-0.040261272
68	0x3d12e542	0.03586317
69	0xbd189bc1	-0.037257914
70	0xbce3532b	-0.027749619
71	0x3da52855	0.08064333
72	0xbd293214	-0.041307524
73	0x3c422379	0.011849278
74	0xbc20f3a9	-0.009823718
75	0xbd967563	-0.073466085
76	0xbd3d21cc	-0.04617481
77	0x3c4f3e26	0.012649095
78	0xbceec2cd	-0.029145623
79	0x3d9fecc4	0.07808831
80	0xbca96284	-0.020676859
81	0x3daea846	0.08528189
82	0x3d940ca8	0.072289765
83	0xbd580d79	-0.052747224
84	0x3a8ba857	0.0010655028
85	0xbd696f22	-0.05699075
86	0xbd628ef9	-0.05531213
87	0x3cbfd799	0.023418235
88	0xbc4dff25	-0.012573038
89	0x39ac6a71	0.00032885702
90	0xbb94314c	-0.004522478
91	0xbda32a5e	-0.07967065
92	0x3d2e4a2a	0.042551197
93	0xbd71a078	-0.058990926
94	0xbd04aab7	-0.03238937
95	0x3bfad77b	0.007655082
96	0xbdbd824a	-0.09253366
97	0xbd2fbeeb	-0.042906683
98	0xbcd111fe	-0.025521275
99	0xbb065820	-0.0020499304
100	0x3c072c97	0.008250377
101	0x3c1182aa	0.00888125
102	0xbd8d87b7	-0.06910651
103	0x3c896f3e	0.016776677
104	0xbda65ad2	-0.08122791
105	0x3d28d142	0.04121519
106	0xbcef7615	-0.02923111
107	0x3da69159	0.081331916
108	0x3d041f30	0.032256305
109	0x3d8117e6	0.063033864
110	0xbc83c9f0	-0.016087502
111	0x3d139766	0.036033057
112	0xbd046003	-0.032318126
113	0xbd74191b	-0.059594255
114	0xbd7adb24	-0.061244145
115	0xbd8b3128	-0.06796485
116	0x3d2ba5b9	0.041906092
117	0xbd818b15	-0.06325356
118	0x3c11d24d	0.008900237
119	0xbdb17e40	-0.086666584
120	0xbdb3774e	-0.0876299
121	0xbdaf5594	-0.085612446
122	0x3db11d25	0.08648137
123	0xbdb0b7a2	-0.08628775
124	0xbd9bd30e	-0.07608615
125	0x3d1cc793	0.038276266
126	0xbd2c9cb9	-0.04214165
127	0x3d1e73e0	0.038684726

encoder.feature_extract.mlps.0.linears.2.weight f4 [128, 128]
0	0xbd6577f3	-0.056022596
1	0xbda4ef67	-0.08053475
2	0x3db8f57f	0.090312
3	0xbcba97f5	-0.022777537
4	0xbdb2eca7	-0.08736544
5	0xbd3eb84c	-0.046562478
6	0x3c0fe27b	0.0087820245
7	0x3ad31cda	0.0016106621
8	0x3d776cab	0.06040637
9	0x3d85da31	0.06535757
10	0x3db0b0d4	0.08627477
11	0x3abde18a	0.0014486772
12	0xbd8d57c4	-0.069015056
13	0xbb278b0f	-0.0025565063
14	0x3c9742c3	0.018464452
15	0x3d6ccead	0.05781429
16	0x3c904bb4	0.017614223
17	0x3d808783	0.06275847
18	0x3d764f5e	0.060134284
19	0xbc9a237e	-0.018815752
20	0xbd8665f2	-0.06562413
21	0x3d345162	0.044022925
22	0x3d1bfe5f	0.038084384
23	0x3d1cf00a	0.038314857
24	0xbcc84a0c	-0.02444937
25	0xbd97cb12	-0.074117795
26	0xbd2e8dc2	-0.04261566
27	0xbd4a6138	-0.04940912
28	0x3d55890e	0.05213266
29	0xbda0095e	-0.07814287
30	0x3d5de534	0.054173663
31	0x3d8c0b33	0.068380736
32	0xbd4ffe03	-0.050779354
33	0x3d357769	0.04430333
34	0x3b9798b5	0.0046263584
35	0x3d505738	0.05086443
36	0xbd43e642	-0.047827013
37	0xbcfee431	-0.03111467
38	0x3c705d33	0.014670658
39	0xbd91cda2	-0.071192995
40	0x3d052415	0.032505114
41	0xbd2e19ae	-0.04250496
42	0x3d89c4ae	0.06726967
43	0xbcde260b	-0.02711775
44	0xbd16b9ed	-0.036798406
45	0xbd9577c2	-0.072982326
46	0x3b2f9896	0.002679383
47	0xbd1f21a7	-0.038850453
48	0x3bff467d	0.0077903853
49	0x3dad932c	0.084753364
50	0x3d53803a	0.05163596
51	0xbd1553a8	-0.036456734
52	0xbd076a74	-0.033060506
53	0xbdad0e7b	-0.084500276
54	0x3d26e621	0.04074681
55	0xbdc8836e	-0.09790693
56	0xbd9b9241	-0.07596255
57	0xbd0b0e5a	-0.033949234
58	0xbce1b809	-0.027553575
59	0x3d121cc0	0.03567195
60	0x3d1dd561	0.038533572
61	0xbd62ecb2	-0.05540151
62	0x3d924071	0.071411975
63	0x3d6f6803	0.058448803
64	0x3bb6552c	0.0055643525
65	0x3da9c078	0.082886636
66	0xbb93c9a7	-0.004510123
67	0xbcd69bd2	-0.026197348
68	0x3d7e97e7	0.062156584
69	0x3d157222	0.0364858
70	0xbcc3c4a2	-0.023897473
71	0x3d3287dd	0.0435866
72	0xbd4a967c	-0.04945992
73	0xbd877ef7	-0.066160135
74	0xbda128f7	-0.078691415
75	0x3b388c56	0.0028159819
76	0xbc45eefb	-0.012080903
77	0x3c831d19	0.016005086
78	0xbd1395ba	-0.036031462
79	0xbdc282f5	-0.09497634
80	0xbdb4c2cd	-0.08826218
81	0x3c60c9f4	0.013720024
82	0x3d8538d1	0.065049775
83	0xbd52a707	-0.05142882
84	0x3d157638	0.036489695
85	0xbd3ddf49	-0.04635552
86	0xba84077c	-0.0010073031
87	0x3d9ea5b2	0.077464476
88	0x3dbf9384	0.09354308
89	0x3c85f781	0.01635337
90	0x3dade655	0.08491198
91	0x3d0c493e	0.034249537
92	0x3da375da	0.07981463
93	0x3b2119ae	0.0024581957
94	0x3d455ad8	0.04818234
95	0x3cd5682b	0.026050648
96	0x3d8feece	0.0702797
97	0x3c27a94a	0.010233233
98	0xbdaab9c1	-0.08336211
99	0x3d92f679	0.07175917
100	0x3cfd93f9	0.030954348
101	0x3c438e46	0.011935776
102	0x3d7ebcc2	0.062191732
103	0x3dbbe253	0.09174027
104	0xbce891fb	-0.028389921
105	0x3ccc4c5e	0.024938758
106	0xbc919bbc	-0.017774455
107	0x3c8d6d78	0.017264113
108	0x3d80e922	0.062944666
109	0x3c25a179	0.010109299
110	0x3d98921b	0.074497424
111	0xbc469c2b	-0.012122194
112	0x3cba0936	0.02270947
113	0xbd948274	-0.072514445
114	0x3db207cc	0.086928934
115	0xbd0a1279	-0.033709023
116	0xbdc0015c	-0.09375259
117	0xbd4bf2a5	-0.04979195
118	0xbcc59f1b	-0.024123719
119	0x3d7f1106	0.062272094
120	0x3ccc6f2d	0.024955356
121	0xbd21d399	-0.039508436
122	0xbd480d2d	-0.04884069
123	0x3cd5a819	0.026081132
124	0x3c8c7a33	0.017148113
125	0xbda96da0	-0.082728624
126	0x3d6b2afc	0.05741404
127	0xbdc47c41	-0.09594012
128	0x3d496822	0.049171574
129	0x3d397f0f	0.04528719
130	0xbd007e91	-0.031370703
131	0x3d9217ee	0.071334705
132	0x3d9f9ea4	0.0779393
133	0xbd51b564	-0.05119838
134	0x3c82bc2e	0.015958872
135	0xbdbd5571	-0.09244812
136	0xbd0c83e9	-0.034305487
137	0x3c9ce905	0.019154081
138	0xbce702d3	-0.028199589
139	0x3d716cc6	0.058941625
140	0x3d559314	0.052142218
141	0xbd237ed3	-0.03991587
142	0x3d9bd6e1	0.07609344
143	0x3ba4653c	0.005016951
144	0x3cd7be2c	0.026335798
145	0xbd0745d0	-0.033025563
146	0x3d959135	0.07303087
147	0x3c7b9d84	0.015357379
148	0xbd7814fa	-0.06056688
149	0xbd22f481	-0.03978396
150	0x3cca5c3a	0.02470218
151	0x3cd6ea4a	0.026234765
152	0x3d8a85fe	0.06763838
153	0xbca689a4	-0.020329304
154	0xbd748d5d	-0.059705127
155	0x3d00867d	0.031378258
156	0xbd19b1e3	-0.03752316
157	0x3db9f725	0.09080342
158	0x3da85160	0.08218646
159	0xbd930d4e	-0.07180272
160	0x3d809428	0.062782586
161	0x3b1138e2	0.002215915
162	0x3d1c49f6	0.038156472
163	0xbd8f588c	-0.06999311
164	0x3c43744a	0.011929581
165	0xbd923391	-0.07138742
166	0xbdae77be	-0.08518933
167	0xbd5b1aa6	-0.05349221
168	0x3daf4b93	0.085593365
169	0xbc965ec6	-0.018355738
170	0xbdaf0d41	-0.0854745
171	0x3d308af9	0.043101285
172	0x3db6a43e	0.089180455
173	0x3d71d7aa	0.059043564
174	0xbd5b17fa	-0.053489663
175	0xbd9672d9	-0.07346124
176	0xbd922484	-0.07135871
177	0x3d526d7e	0.05137395
178	0xbd34dd23	-0.044156205
179	0x3d89720a	0.06711204
180	0x3d93cc72	0.07216729
181	0x3d81f6e8	0.06345922
182	0x3d5b77af	0.053580936
183	0xbdab6953	-0.083696984
184	0xbd9a437a	-0.075324014
185	0xbd6c3f0f	-0.057677325
186	0x3d3962a8	0.0452601
187	0xbd0e58dc	-0.03475271
188	0x3d743372	0.059619375
189	0xbc8f30c5	-0.01747931
190	0x3d51aaea	0.051188387
191	0xbd2ec24e	-0.042665772
192	0xbd955a0f	-0.07292568
193	0x3cc3451a	0.023836661
194	0xbdb0cf34	-0.08633271
195	0x3d47872d	0.048712898
196	0xbd021790	-0.031760752
197	0x3d4e443f	0.050358053
198	0x3c99b6f7	0.018764002
199	0xbc8dc61c	-0.01730638
200	0xbd90e4bb	-0.07074877
201	0x3d4c7372	0.049914785
202	0xbb0c9807	-0.002145292
203	0xbd28001f	-0.04101574
204	0x3d84a551	0.06476844
205	0x3cb00cd7	0.021490498
206	0x3d61f8f0	0.055169046
207	0x3d564f5c	0.052321777
208	0xbdbe883f	-0.09303331
209	0x3d4a3922	0.049370892
210	0xbd9cb64e	-0.07651959
211	0x3cc38ab4	0.02386985
212	0x3ba90224	0.005157726
213	0xbd8a17bf	-0.067428105
214	0xbd046bca	-0.03232936
215	0xbc55a1ec	-0.013039093
216	0xbd6fbcc6	-0.058529638
217	0x3b86a423	0.004108922
218	0xbd9ceeef	-0.076627605
219	0xbd0bdb70	-0.03414482
220	0xbd261b04	-0.040553108
221	0xbd9f3cba	-0.077752545
222	0x3ba25730	0.004954241
223	0xbd1371dd	-0.03599726
224	0xbc3ce404	-0.011528973
225	0x3c93219a	0.017960358
226	0x3d7d8a0c	0.06189923
227	0xbd5c76ea	-0.053824343
228	0x3db53be9	0.088493176
229	0xb9e3f5a3	-0.00043479828
230	0x3d488333	0.048953246
231	0xbb275235	-0.0025531177
232	0xbda6cae4	-0.08144167
233	0xbc3f5838	-0.011678748
234	0x3d65465a	0.055975296
235	0x3d2bd9e5	0.041955847
236	0xbd860543	-0.06543972
237	0xbbbae876	-0.005703981
238	0xbd466c8e	-0.04844337
239	0xbbd33e7a	-0.006446657
240	0xbd9c4316	-0.07629983
241	0x3d4af15c	0.049546584
242	0xbda9328b	-0.082615934
243	0xbd61f512	-0.055165358
244	0x3dae50c6	0.085115
245	0xbd52e9cc	-0.051492497
246	0x3ca1e3f8	0.019762024
247	0xbd56bf61	-0.052428607
248	0x3c987924	0.018612452
249	0x3d42cc56	0.04755815
250	0x3da2a8ea	0.07942374
251	0xbd9b6c3c	-0.075890034
252	0x3d1ba958	0.038003296
253	0x3b5f782a	0.0034098723
254	0xbda86d7e	-0.08224009
255	0x3da8292b	0.08210977

encoder.feature_extract.mlps.0.linears.2.bias f4 [128]
0	0xbd058d6b	-0.03260557
1	0x3d2c86f7	0.0421209
2	0x3bb935f6	0.0056521846
3	0xbd54e291	-0.051973883
4	0x3d9995fd	0.07499311
5	0xbd9b6a74	-0.07588664
6	0xbdab0718	-0.083509624
7	0x3d80b1ec	0.06283936
8	0xbda421db	-0.0801427
9	0xbce55855	-0.027996222
10	0xbcc26a0c	-0.023732208
11	0xbb760a63	-0.0037542812
12	0xbc8958a5	-0.016765902
13	0x3d9b8b52	0.075949326
14	0x3d4834be	0.048878424
15	0x3d56c137	0.052430358
16	0xbd402381	-0.04690886
17	0x3d9d375e	0.07676576
18	0xbda6fda7	-0.08153849
19	0x3d8d4e39	0.068996854
20	0xbbc89b84	-0.0061220545
21	0xbc33cc43	-0.010973993
22	0x3db7cfd8	0.0897519
23	0xbd82b5ce	-0.06382333
24	0x3d68fcb6	0.05688163
25	0xbbe92463	-0.0071149333
26	0xbcd526fe	-0.02601957
27	0xbd2e64ca	-0.04257659
28	0xbda87e06	-0.08227162
29	0xbd3601bf	-0.04443526
30	0xbc642ac3	-0.013926211
31	0xbda035a2	-0.0782273
32	0xbbb71796	-0.0055875285
33	0x3c4d4d20	0.012530595
34	0xbdb11032	-0.08645667
35	0xbd89df6c	-0.067320675
36	0x3dab3eb9	0.08361573
37	0xbd6fa7fa	-0.058509804
38	0xb9e8dae8	-0.00044413586
39	0x3d9af02f	0.07565343
40	0x3cc82825	0.024433205
41	0x3d7470d5	0.059677918
42	0x3b38741c	0.0028145378
43	0x3d012f28	0.031539112
44	0xbcd0cf3d	-0.025489444
45	0x3da73050	0.08163512
46	0xbd8327f2	-0.06404103
47	0x3d2a508f	0.041580733
48	0x3d130ed1	0.035902802
49	0x3cb8e09b	0.022568038
50	0x3d802038	0.06256145
51	0x3d9b698c	0.07588491
52	0xbd564225	-0.052309174
53	0xbd8c7ff0	-0.0686034
54	0x3c0f4549	0.008744546
55	0x3cc85235	0.024453262
56	0x3cabe94c	0.020985268
57	0xbc12b2c4	-0.008953754
58	0xbdb20c51	-0.086937554
59	0x3d124ff8	0.035720795
60	0x3d75df3a	0.06002734
61	0xbd8983f5	-0.06714622
62	0x3d7eaa0d	0.06217389
63	0xbcc774e1	-0.024347724
64	0xbc901e50	-0.01759258
65	0x39e8a29e	0.00044371648
66	0x3cac0745	0.02099956
67	0x3c803f62	0.015655223
68	0x3c9f3f2a	0.019439299
69	0xbd0e7f3a	-0.0347893
70	0xbd8bc2c7	-0.0682426
71	0xbccbcd74	-0.024878241
72	0x3b8c6cb2	0.0042854184
73	0x3daf0c1c	0.085472316
74	0x3d049a8c	0.03237395
75	0x3d0edf04	0.034880653
76	0x3daf1f32	0.08550872
77	0xbd5fe1f8	-0.05465886
78	0xbcb81397	-0.022470279
79	0x3dabc154	0.08386484
80	0xbd41e92c	-0.04734151
81	0x3d60e640	0.054907084
82	0x3da09d57	0.0784251
83	0xbc63736f	-0.013882502
84	0xbccf022a	-0.025269587
85	0x3d057cf7	0.03258988
86	0x3d6a02df	0.057131644
87	0x3d97f3ab	0.07419523
88	0x3db3cf76	0.087798044
89	0x3d870efd	0.06594656
90	0x3d0d06ef	0.03443044
91	0x3d0a5130	0.033768833
92	0xbd16c51d	-0.036809076
93	0x3c941ff7	0.018081648
94	0x3d83226d	0.064030506
95	0x3cd06e29	0.025443153
96	0x3d733b1c	0.059382543
97	0x3d95c656	0.0731322
98	0xbcdaf7e2	-0.026729528
99	0xbd91f9bd	-0.07127712
100	0x3c6080e2	0.013702603
101	0x3cd5c903	0.026096826
102	0xbd440c32	-0.047863193
103	0x3da4bd62	0.080439344
104	0xbd916aa3	-0.071004175
105	0xbd8b16bc	-0.067914456
106	0xbdac5e8b	-0.0841647
107	0xbc44573b	-0.011983688
108	0xbca9eefa	-0.020743836
109	0x3cb7ce85	0.022437343
110	0x3c55df7b	0.01305377
111	0xbd556c29	-0.052105103
112	0x3d5ebab6	0.05437728
113	0x3da8cd17	0.08242243
114	0xbda58eb9	-0.08083863
115	0x3d6ebf33	0.05828781
116	0xba6ca1ee	-0.0009026815
117	0x3d77db5e	0.06051194
118	0xbb5cb772	-0.0033678678
119	0xbd3424ba	-0.043980338
120	0xbd325d3d	-0.04354595
121	0xbd62d7e6	-0.055381678
122	0xbd55726a	-0.052111067
123	0x399511cc	0.00028432754
124	0xbc5d3920	-0.013502389
125	0x3d19a2ec	0.03750889
126	0xbbbaea32	-0.005704188
127	0x3d801dc4	0.06255677

encoder.feature_extract.mlps.0.batch_norms.0.weight f4 [128]
0	0x3f805dbd	1.0028607
1	0x3f800d48	1.0004053
2	0x3f800b7a	1.0003502
3	0x3f7f759a	0.9978882
4	0x3f801365	1.0005919
5	0x3f80be73	1.005812
6	0x3f7f6bd3	0.997739
7	0x3f8064d5	1.0030771
8	0x3f7f6935	0.9976991
9	0x3f7f130e	0.9963845
10	0x3f7e9bcd	0.99456483
11	0x3f7ffd65	0.99996024
12	0x3f7d8995	0.9903806
13	0x3f803599	1.0016357
14	0x3f7ef258	0.9958854
15	0x3f807ba0	1.0037727
16	0x3f801c32	1.0008605
17	0x3f7f239d	0.99663717
18	0x3f804733	1.0021728
19	0x3f7fb2ca	0.99882185
20	0x3f7fd64c	0.99936366
21	0x3f7e85cf	0.99422926
22	0x3f8058a0	1.0027046
23	0x3f80b1ae	1.0054224
24	0x3f8007a8	1.0002337
25	0x3f80a6f3	1.0050949
26	0x3f7f0bcf	0.99627393
27	0x3f80acf3	1.005278
28	0x3f7f503f	0.9973182
29	0x3f806628	1.0031176
30	0x3f7ec655	0.9952138
31	0x3f7e5555	0.99348956
32	0x3f805e6a	1.0028813
33	0x3f7e5518	0.9934859
34	0x3f7ff0a7	0.9997658
35	0x3f80562d	1.0026299
36	0x3f7f8df6	0.9982599
37	0x3f7fb69e	0.99888027
38	0x3f7faa53	0.9986927
39	0x3f800277	1.0000752
40	0x3f801c42	1.0008624
41	0x3f7f650c	0.9976356
42	0x3f801940	1.0007706
43	0x3f7e4663	0.9932615
44	0x3f802d21	1.0013772
45	0x3f80229d	1.0010563
46	0x3f8079a4	1.0037122
47	0x3f7f5540	0.99739456
48	0x3f813799	1.0095092
49	0x3f805485	1.0025793
50	0x3f803d4c	1.0018706
51	0x3f7e27a1	0.9927922
52	0x3f806eb5	1.0033785
53	0x3f809d75	1.0048052
54	0x3f80cb32	1.006201
55	0x3f801d2a	1.00089
56	0x3f80551a	1.0025971
57	0x3f8050a8	1.0024614
58	0x3f8003a7	1.0001115
59	0x3f7eed88	0.99581194
60	0x3f7f37f9	0.9969478
61	0x3f7fa671	0.99863344
62	0x3f803236	1.0015323
63	0x3f8030bf	1.0014876
64	0x3f80461d	1.0021397
65	0x3f80077a	1.0002282
66	0x3f807f1f	1.0038794
67	0x3f7f2ce7	0.9967789
68	0x3f7fe74c	0.99962306
69	0x3f805aa4	1.0027661
70	0x3f810fc4	1.0082936
71	0x3f80224a	1.0010464
72	0x3f7d98c7	0.99061245
73	0x3f7e6cfd	0.9938505
74	0x3f80a2a6	1.0049636
75	0x3f801c8a	1.000871
76	0x3f808ff4	1.0043931
77	0x3f7f18fc	0.996475
78	0x3f7e9ec9	0.99461037
79	0x3f80c7a9	1.0060931
80	0x3f7f1ec7	0.9965634
81	0x3f7fffd5	0.99999744
82	0x3f7faa12	0.9986888
83	0x3f8002dc	1.0000873
84	0x3f80198f	1.00078
85	0x3f802d2e	1.0013788
86	0x3f7dc674	0.9913094
87	0x3f805e71	1.0028821
88	0x3f7f0b01	0.99626166
89	0x3f7f9d20	0.9984913
90	0x3f80723c	1.0034862
91	0x3f800183	1.0000461
92	0x3f7f0901	0.99623114
93	0x3f80f5eb	1.0075048
94	0x3f7f822b	0.99807996
95	0x3f7fac89	0.9987264
96	0x3f803c71	1.0018445
97	0x3f80898a	1.0041974
98	0x3f805d9b	1.0028566
99	0x3f8107ef	1.0080546
100	0x3f8086c9	1.0041133
101	0x3f7fd618	0.99936056
102	0x3f802f56	1.0014446
103	0x3f8005a0	1.0001717
104	0x3f804188	1.0019999
105	0x3f8076ad	1.0036217
106	0x3f7ef487	0.9959187
107	0x3f7fd761	0.9993802
108	0x3f7eef4e	0.995839
109	0x3f80609a	1.002948
110	0x3f800639	1.0001899
111	0x3f7fec7c	0.9997022
112	0x3f7e5572	0.9934913
113	0x3f803c1a	1.0018342
114	0x3f7e7ac9	0.99406105
115	0x3f7fee1d	0.9997271
116	0x3f7f6121	0.9975758
117	0x3f7f464e	0.9971665
118	0x3f8018af	1.0007533
119	0x3f80038a	1.000108
120	0x3f80b227	1.0054368
121	0x3f7fe5db	0.99960107
122	0x3f80b9df	1.0056723
123	0x3f7f272b	0.9966914
124	0x3f8071cf	1.0034732
125	0x3f7e57b2	0.9935256
126	0x3f7ee2fa	0.9956509
127	0x3f7ff583	0.99983996

encoder.feature_extract.mlps.0.batch_norms.0.bias f4 [128]
0	0xb9a8d16f	-0.00032199497
1	0x3adec790	0.001699673
2	0xbb1b41df	-0.0023690385
3	0x3b6df394	0.0036308514
4	0x3ba24e48	0.0049531795
5	0x3a697495	0.00089056167
6	0xbab12a04	-0.001351655
7	0x38e77616	0.000110369336
8	0x3c2c755a	0.010526026
9	0xba4a8827	-0.0007725977
10	0x3925e0a6	0.00015819314
11	0xbbfdc2e1	-0.0077441786
12	0xbc3009d9	-0.010744535
13	0xb9dfffb8	-0.000427244
14	0xbbe9c644	-0.007134231
15	0x3ba06f24	0.0048960615
16	0xba301f3b	-0.0006718521
17	0xbc0c5b4d	-0.00856669
18	0xbb14b81b	-0.0022692743
19	0xbaf5d3f9	-0.0018755189
20	0x3b6ed8bf	0.0036445109
21	0xbb494e1b	-0.003071672
22	0x3a92de95	0.0011205251
23	0x3838b27c	4.4035245e-05
24	0x3b4444d9	0.0029948263
25	0x3c017aa4	0.007902775
26	0xbaee0cd3	-0.0018161781
27	0x3b94a9ac	0.004536828
28	0xbb27aa15	-0.0025583555
29	0x3ba02bcb	0.004888033
30	0xbb25156d	-0.0025189773
31	0xbb64416f	-0.003482904
32	0x3b68e856	0.0035538874
33	0xbaaf0560	-0.0013353042
34	0xbb0fed35	-0.0021961455
35	0x3b9c2b67	0.004765916
36	0x3b38921d	0.0028163262
37	0x3b96fec9	0.0046080095
38	0xbb2c049d	-0.0026247867
39	0x3c423b36	0.011854937
40	0xbbdefd3e	-0.006805091
41	0x3b2b9123	0.0026179038
42	0x3c0e873b	0.008699234
43	0xbb140f31	-0.0022592063
44	0x3ba0ba18	0.0049049966
45	0xbaa60a80	-0.0012667924
46	0x3bcc4c91	0.0062347134
47	0x3acf9c3b	0.0015839407
48	0xbaba7cf4	-0.0014227913
49	0x3ab6fb7c	0.0013960446
50	0xbb4a6f2f	-0.0030889024
51	0xba467977	-0.00075712
52	0x3a705a8a	0.0009168765
53	0x3b9e164b	0.004824435
54	0x3b62aab3	0.0034586608
55	0x3ac57c84	0.0015067016
56	0x3b55f0c4	0.0032644728
57	0xbac242bb	-0.0014820913
58	0x3bbeb713	0.005820164
59	0xbba881e6	-0.005142438
60	0xbbacdf37	-0.0052756327
61	0xbba45ac4	-0.005015703
62	0xbb2187bd	-0.0024647557
63	0xbb263ac1	-0.002536461
64	0x3b637fab	0.0034713547
65	0xbb970b03	-0.004609467
66	0x3b575299	0.0032855629
67	0xb998c8c5	-0.00029141284
68	0xbab5f23e	-0.0013881398
69	0x3b88fa22	0.004180209
70	0x3baf1b87	0.0053438577
71	0x3b63a73d	0.0034737133
72	0xbbe97906	-0.007125023
73	0xbc0a2c15	-0.008433362
74	0x3b0cee86	0.0021504476
75	0xbb1e7ca0	-0.002418317
76	0x3b3e5c2b	0.0029046636
77	0x3bcbf8af	0.0062247138
78	0xbbea319e	-0.007147028
79	0x3b9a2f6f	0.0047053616
80	0x3af701ac	0.0018845103
81	0x3b0821ec	0.0020772172
82	0xbb9ef095	-0.004850457
83	0x3c0cd5fd	0.008595941
84	0xbb046e7b	-0.0020207453
85	0xbae4fbc3	-0.001747005
86	0xbc0fd563	-0.008778903
87	0x3a8d27ac	0.001076927
88	0xbb8bcda7	-0.004266459
89	0xbb07af79	-0.0020703955
90	0xbb7ec2cb	-0.003887343
91	0xbb107768	-0.0022043828
92	0xba89561f	-0.0010477937
93	0x3b05b196	0.002040004
94	0xbbb60d21	-0.0055557643
95	0x3a989720	0.0011641718
96	0x3c08f94c	0.008360218
97	0x3b1eebf4	0.0024249526
98	0x3a9f192c	0.0012138239
99	0x391a8d55	0.00014739235
100	0x3b776bba	0.003775342
101	0x3b6f8d24	0.0036552632
102	0xbbcfbb71	-0.0063394834
103	0x39573353	0.00020523118
104	0x3bdc88d2	0.0067301774
105	0x3b345bfe	0.0027520652
106	0x3bce89c6	0.006303045
107	0xbbb93d1a	-0.005653036
108	0xbb661020	-0.0035104826
109	0xbb6fa4f6	-0.003656683
110	0xbb99e1c3	-0.0046961023
111	0xbbaafe3c	-0.0052182954
112	0x3a01c6f8	0.0004950608
113	0xba10f504	-0.0005529674
114	0x3a3ddc05	0.00072425633
115	0xbb4fcc07	-0.0031707303
116	0xbb0093db	-0.0019619379
117	0xbbd77c1e	-0.006576075
118	0x3b98fdbf	0.0046689208
119	0x3b5712a1	0.00328175
120	0x3b91907d	0.004442273
121	0x3beb33c6	0.0071778027
122	0xbb63c70b	-0.003475609
123	0xb9daaecb	-0.0004171043
124	0x3ba685d1	0.00508187
125	0xbc09b0e5	-0.008403991
126	0xbbb879f1	-0.005629771
127	0x3b0ddf6e	0.0021648067

encoder.feature_extract.mlps.0.batch_norms.0.running_mean f4 [128]
0	0x3d0ec6aa	0.03485743
1	0xbdbb28d3	-0.09138646
2	0x3f52b3ae	0.8230542
3	0xbf2b427b	-0.66898316
4	0x3ed4d7ed	0.41570988
5	0x3f01fd5b	0.50777215
6	0x3e1278fc	0.14303964
7	0x3eeb10cc	0.45911252
8	0x3e5539b1	0.20822789
9	0xbf8a4171	-1.0801221
10	0xbd033d75	-0.032041032
11	0xbf0769c4	-0.5289576
12	0x3e8482ef	0.25881144
13	0xbee9cee2	-0.45665652
14	0x3e62aca5	0.22136171
15	0x3d322a61	0.043497447
16	0x3f856bbc	1.0423503
17	0xbea92d54	-0.33042395
18	0xbe56bf6a	-0.20971456
19	0xbe1e4139	-0.15454568
20	0x3db6a259	0.08917684
21	0x3e7cbb2c	0.24680775
22	0x3e91025a	0.28322107
23	0xbeb6d0d7	-0.35706207
24	0x3f05e291	0.5229884
25	0xbf566ca8	-0.83759546
26	0x3f8d04e3	1.1017116
27	0x3e9ead07	0.30991384
28	0xbf838b1d	-1.0276829
29	0xbebdf798	-0.37102962
30	0xbefb0517	-0.4902732
31	0xbdfc48fb	-0.123186074
32	0xbf6ce8a8	-0.92542505
33	0x3e154414	0.14576751
34	0x3f69f20a	0.9138495
35	0xbf2e9b23	-0.6820547
36	0xbeb4c8d0	-0.35309458
37	0x3ddd7448	0.108131945
38	0x3e8967ad	0.2683691
39	0xbeafb313	-0.3431631
40	0xbc77f2a6	-0.0151335355
41	0xbd32c54e	-0.043645196
42	0x3e48e584	0.19618803
43	0xbf1ed1ea	-0.62039053
44	0xbf2ac96c	-0.66713595
45	0x3f3f4a08	0.7472234
46	0x3f91f94a	1.1404202
47	0xbd6dbeab	-0.058043163
48	0xbd03d981	-0.03218985
49	0x3f22f47d	0.6365431
50	0x3f7f7152	0.9978229
51	0xbee816e8	-0.45329976
52	0xbef290fb	-0.47376236
53	0x3de8e34f	0.11371481
54	0x3e9fb00b	0.31188998
55	0xbf5beac0	-0.85905075
56	0x3f4577ed	0.7713612
57	0x3dd7454e	0.10511266
58	0x3e1a76de	0.15084407
59	0x3eabb658	0.33537555
60	0x3d0ff89e	0.03514921
61	0x3fa09a57	1.2547101
62	0xbebc7672	-0.36809117
63	0xbe9e4e2d	-0.30919018
64	0xbd8efc97	-0.069817714
65	0xbdc5227b	-0.09625717
66	0xbd881341	-0.066442974
67	0xbf6a21dd	-0.9145792
68	0xbed3d4e4	-0.4137336
69	0x3eefd218	0.46839976
70	0xbeee98a6	-0.46600837
71	0x3f0f2e5c	0.55930114
72	0x3f0f4051	0.55957514
73	0x3ef2772f	0.47356555
74	0xbf0840e5	-0.5322402
75	0x3dd4c481	0.10389043
76	0xbf2da96e	-0.67836654
77	0xbede1e3b	-0.4338244
78	0xbf08a752	-0.5338031
79	0x3e25a5b1	0.16176488
80	0x3e4422ab	0.1915385
81	0xbe9ba859	-0.30401877
82	0x3f230575	0.636802
83	0x3df7e8f8	0.12104982
84	0xbeaa996d	-0.3332018
85	0xbdd2bb19	-0.10289592
86	0x3f5312e9	0.8245073
87	0x3f402d92	0.75069535
88	0xbf984d4c	-1.1898589
89	0xbdf07bc9	-0.1174236
90	0xbdd2d3a8	-0.102942765
91	0x3f4c90a3	0.799082
92	0xbd5e2c44	-0.054241434
93	0x3de28a44	0.11061528
94	0xbec5348b	-0.3851665
95	0xbe84f029	-0.25964478
96	0xbec45406	-0.38345355
97	0xbf3e1b21	-0.74260145
98	0xbe60fd64	-0.21971661
99	0x3e8c0541	0.27347758
100	0xbd5a7f7b	-0.05334423
101	0x3ef987cb	0.48736414
102	0x3e746a9e	0.23868796
103	0x3f2e72cb	0.6814391
104	0x3eab0622	0.33403116
105	0xbf6a6d90	-0.9157343
106	0xbeb53410	-0.35391283
107	0xbee4111a	-0.44544297
108	0xbf4cac10	-0.79950047
109	0x3f973069	1.1811649
110	0x3f0e08d8	0.55482244
111	0x3f9cc33a	1.2247078
112	0xbf5f8783	-0.8731615
113	0x3e65d694	0.22445136
114	0x3e2d7a71	0.16941239
115	0x3eafac78	0.3431127
116	0x3f028657	0.50986236
117	0xbe95edb3	-0.29282913
118	0xbea325d4	-0.31864798
119	0x3f3e675c	0.74376464
120	0xbf464377	-0.77446693
121	0x3f191949	0.5980421
122	0xbc02f330	-0.007992551
123	0x3f5522d0	0.83256245
124	0xbe9404a9	-0.28909805
125	0x3dfb59f7	0.12273019
126	0xbf9d5d18	-1.2294035
127	0xbf44dab5	-0.7689622

encoder.feature_extract.mlps.0.batch_norms.0.running_var f4 [128]
0	0x3b4abe7c	0.0030936291
1	0x3b802bad	0.0039114566
2	0x3bd8dea0	0.006618336
3	0x3c11272b	0.008859436
4	0x3b2bcc6f	0.0026214381
5	0x3b697ef3	0.0035628646
6	0x3af66a11	0.0018799921
7	0x3b1a7ac0	0.00235717
8	0x3b03e7b5	0.0020127122
9	0x3bde5a49	0.006785665
10	0x3c35469d	0.011064199
11	0x3b8e18bf	0.004336446
12	0x39ae9c7f	0.00033304465
13	0x3ac5779d	0.0015065555
14	0x3b2b00ba	0.0026092962
15	0x3bed591a	0.0072432877
16	0x3b0d3b9b	0.002155042
17	0x3b234faa	0.002491931
18	0x3c3ef78f	0.011655702
19	0x3b7dee80	0.0038746893
20	0x3adcc8cc	0.001684451
21	0x3b73e756	0.0037216744
22	0x3b91d914	0.0044509266
23	0x3b875f13	0.004131207
24	0x3a4a9f7d	0.0007729454
25	0x3b60ac84	0.0034282515
26	0x3b9e7a1b	0.0048363334
27	0x3ba24fd6	0.004953365
28	0x3b79aae4	0.0038096244
29	0x3c042137	0.00806456
30	0x3b0b21b1	0.0021229798
31	0x3be0c964	0.006859945
32	0x3c3e0fd2	0.011600452
33	0x3b76d8cc	0.0037665842
34	0x3b889752	0.0041684294
35	0x3a59a790	0.0008302862
36	0x3b6c1c5a	0.003602764
37	0x3a0fc475	0.00054842915
38	0x3b9a327a	0.0047057243
39	0x3b91aa0f	0.0044453214
40	0x3a9ba75e	0.0011875441
41	0x3b419706	0.002953948
42	0x3bc3bbf3	0.005973333
43	0x3b616b95	0.00343964
44	0x3b61617f	0.0034390388
45	0x39150962	0.00014213243
46	0x3b5526e1	0.0032524394
47	0x3be6d6cb	0.0070446483
48	0x3bcfe95a	0.0063449563
49	0x3a85d45d	0.0010210384
50	0x3ae91c40	0.0017784908
51	0x3b2bd4bf	0.0026219336
52	0x3acb2966	0.0015500009
53	0x3c57d3f7	0.013173095
54	0x3b2e5204	0.0026599178
55	0x3b1543c4	0.0022775987
56	0x3bc5d72e	0.0060376143
57	0x3bf94b1e	0.0076078316
58	0x3bdde6ef	0.006771914
59	0x3b043de9	0.0020178503
60	0x3bd5843a	0.006516007
61	0x3bf6c673	0.007530981
62	0x3b51a197	0.0031987184
63	0x3bee12fd	0.007265447
64	0x3b443303	0.0029937632
65	0x394bd45d	0.000194387
66	0x3b1c2077	0.0023823061
67	0x3c42f58b	0.011899362
68	0x3acc3fac	0.001558294
69	0x3bd7182e	0.0065641617
70	0x3a748da9	0.00093289703
71	0x3a813a4b	0.0009859292
72	0x3c1ab0c6	0.00944156
73	0x3b89f559	0.004210156
74	0x394e612f	0.00019681895
75	0x3be064ce	0.0068479544
76	0x38bc19a3	8.969314e-05
77	0x3c5430e5	0.0129511105
78	0x3b1be176	0.0023785508
79	0x39729519	0.00023134462
80	0x3a5a8cb8	0.0008337009
81	0x3b3a0bcc	0.002838838
82	0x3ae7defb	0.0017690355
83	0x3c1483f6	0.009064665
84	0x3b107909	0.0022044799
85	0x3b78484c	0.003788489
86	0x3a10ed32	0.0005528509
87	0x3bb7221e	0.005588784
88	0x3c2ceba4	0.010554228
89	0x3bdb55af	0.006693564
90	0x3bbe7e04	0.005813362
91	0x3b6d9f13	0.0036258146
92	0x3be4aee9	0.0069788587
93	0x39f289bc	0.00046260457
94	0x3ba4f2f0	0.005033843
95	0x3945b3fc	0.00018854433
96	0x3bf37d1b	0.007430685
97	0x3b928355	0.0044712224
98	0x3ae134bf	0.0017181857
99	0x38edbda4	0.00011336364
100	0x3a440f94	0.0007479128
101	0x3c3ee988	0.011652358
102	0x3b2e9db0	0.0026644282
103	0x3a8345a3	0.001001526
104	0x3c273736	0.010206034
105	0x3be54e35	0.0069978484
106	0x3a98c1e5	0.0011654465
107	0x3bb99439	0.0056634215
108	0x3bf86b3a	0.007581142
109	0x3b8f8321	0.0043796455
110	0x3b0046e3	0.0019573502
111	0x3bc13590	0.0058962777
112	0x3ba1a730	0.0049332604
113	0x3ad6978b	0.0016372068
114	0x3c103176	0.008800855
115	0x3aff5621	0.0019480624
116	0x3ad3fca7	0.0016173319
117	0x3bc36175	0.0059625455
118	0x3bbd9510	0.005785592
119	0x3b0816b0	0.0020765476
120	0x3b840fbe	0.004030197
121	0x3b657d1b	0.0035017196
122	0x3ab634e1	0.0013901257
123	0x3bb5b06c	0.0055447128
124	0x3ad507d6	0.0016252946
125	0x3ad7c893	0.0016462974
126	0x3b459317	0.0030147487
127	0x3aba60dc	0.001421954
