FJSP_MultiPPO/saved_network/FJSP_J50M405/best_value00/policy_mch.pth (torch_old, 271482 bytes, 14 tensors)

bn.weight f4 [128]
000000 63 34 7e 3f b8 ac 7e 3f 62 5d 7f 3f 07 a8 7e 3f
       0.99298686 0.994823 0.99751866 0.9947514
000010 2e f7 7e 3f ce 0e 7f 3f 30 d7 80 3f ed 44 7e 3f
       0.99595916 0.99631965 1.006567 0.9932392
000020 ed 0d 80 3f 19 0b 7e 3f aa dc 80 3f e0 d5 80 3f
       1.000425 0.99235684 1.0067341 1.006527
000030 7a 65 7e 3f 1a 08 80 3f a7 5a 7e 3f 21 b9 80 3f
       0.9937359 1.0002472 0.99357074 1.0056497
000040 95 7f 7f 3f 9a 5c 7f 3f fa 38 7e 3f ae a7 7e 3f
       0.9980405 0.99750674 0.9930569 0.9947461
000050 23 a4 7e 3f 11 af 80 3f e7 ec 7f 3f 30 ca 80 3f
       0.994692 1.0053426 0.9997086 1.0061703
000060 5f 44 80 3f 36 34 80 3f c0 f8 7d 3f 0a b4 80 3f
       1.0020865 1.0015934 0.9920769 1.0054944
000070 aa 81 80 3f e4 4e 7e 3f d7 de 80 3f 0e 23 80 3f
       1.003957 0.9933913 1.0068005 1.0010698
000080 dc be 7e 3f 48 bf 7d 3f 89 9f 7e 3f 57 2e 7e 3f
       0.9950998 0.9912 0.9946218 0.9928946
000090 4b fd 80 3f 95 a7 7f 3f 8c a9 7f 3f 06 73 7e 3f
       1.0077299 0.99865085 0.99868083 0.9939426
0000a0 12 2b 80 3f d0 f4 7e 3f 64 a3 80 3f 76 8b 7f 3f
       1.0013144 0.99592304 1.0049863 0.99822176
0000b0 3c e7 80 3f 35 da 80 3f af 9b 7f 3f 4d 8c 80 3f
       1.0070567 1.0066592 0.9984693 1.0042816
0000c0 f0 2f 7f 3f f5 f2 7f 3f 26 65 7f 3f 2d 18 80 3f
       0.9968252 0.999801 0.99763715 1.0007378
0000d0 1d ee 7e 3f f3 c1 80 3f 7f 71 7e 3f 3c 13 7e 3f
       0.9958208 1.0059189 0.9939193 0.992481
0000e0 dd a9 80 3f cc 7f 7e 3f 9d d8 80 3f c8 10 80 3f
       1.0051838 0.9941375 1.0066105 1.0005121
0000f0 46 b9 7f 3f ce 8a 7d 3f 04 89 7e 3f fc bc 80 3f
       0.9989208 0.99039924 0.9942782 1.0057673
000100 f5 e2 80 3f 62 85 80 3f b2 58 7f 3f 96 28 80 3f
       1.0069262 1.0040705 0.99744713 1.0012386
000110 a8 71 7e 3f d4 0c 7f 3f 61 c1 7f 3f 30 2c 80 3f
       0.99392176 0.9962895 0.9990445 1.0013485
000120 0d 84 7e 3f 7c a7 80 3f 22 5d 7f 3f 79 0e 7e 3f
       0.99420244 1.0051112 0.99751484 0.99240834
000130 7d a5 7f 3f d7 ab 80 3f 14 ed 80 3f ea fc 7f 3f
       0.9986189 1.0052441 1.007235 0.9999529
000140 18 23 7e 3f b8 50 7e 3f e4 98 80 3f b7 a9 80 3f
       0.992723 0.9934192 1.0046659 1.0051793
000150 5b cd 7d 3f 16 78 7e 3f 20 81 7f 3f 93 67 7e 3f
       0.9914147 0.99401987 0.99806404 0.9937679
000160 ee 24 7f 3f e5 c4 7e 3f 6c ab 7f 3f 0c da 80 3f
       0.99665725 0.9951919 0.99870944 1.0066543
000170 14 d7 7f 3f c3 0d 80 3f 88 c7 80 3f 00 b1 80 3f
       0.9993756 1.00042 1.0060892 1.0054016
000180 fe 76 7e 3f 72 d1 80 3f 65 3c 7f 3f a5 9c 7f 3f
       0.9940032 1.0063918 0.9970153 0.99848396
000190 ff e0 80 3f 4f ca 80 3f 72 3e 7f 3f 4e 6f 7f 3f
       1.0068663 1.006174 0.9970466 0.9977921
0001a0 a4 e2 80 3f 55 db 80 3f 33 01 80 3f 7a 8d 80 3f
       1.0069165 1.0066935 1.0000366 1.0043175
0001b0 2e 05 7e 3f 9a fb 7e 3f 89 e4 80 3f ac 69 7f 3f
       0.99226654 0.99602664 1.0069743 0.9977062
0001c0 9e ba 7f 3f eb 51 80 3f 3d ba 7f 3f 40 af 7e 3f
       0.9989413 1.0024999 0.9989355 0.9948616
0001d0 3e cd 80 3f 3c c4 7e 3f a9 cb 7f 3f 20 cd 80 3f
       1.0062635 0.9951818 0.99920136 1.0062599
0001e0 f2 f2 7f 3f 64 84 7f 3f d5 fc 7f 3f 0a 88 7f 3f
       0.9998008 0.9981139 0.99995166 0.99816954
0001f0 52 31 7e 3f d8 52 7e 3f 71 31 7f 3f 09 90 7e 3f
       0.99294007 0.9934516 0.99684817 0.9943853

bn.bias f4 [128]
000000 67 6e dd ba f3 44 05 3b 31 a0 f9 b9 83 cf aa bb
       -0.0016893864 0.0020335286 -0.00047612333 -0.0052127256
000010 34 c9 19 b9 03 07 98 bb 18 5c 1a bb 91 dc 79 bb
       -0.00014666171 -0.0046395077 -0.0023553427 -0.0038125853
000020 d3 92 3e 3b 31 f9 9f 3a 54 3e 92 bb 23 2d 90 3a
       0.0029079213 0.0012205002 -0.0044629965 0.001099978
000030 c1 d1 b5 3b 63 30 b8 ba 7e 47 83 3b ed 4a b2 b9
       0.0055486863 -0.0014052506 0.0040063253 -0.0003400663
000040 b0 22 ca 3a 41 88 bb 3b 35 f7 04 3b 23 0d 47 bb
       0.0015421715 0.00572303 0.0020288948 -0.003037282
000050 81 5d f6 ba b2 3e 0c 3c b6 5e 52 37 99 39 8a 3b
       -0.0018796177 0.00855987 1.2539027e-05 0.004218292
000060 38 97 b6 3b 40 d3 e5 bb 58 84 ba bb bc ad b7 3b
       0.005572226 -0.0070137084 -0.005692046 0.0056054275
000070 0c 4d 02 3c 13 9e 19 3a 1b 22 9b 3a 1a 3d 6c ba
       0.00795294 0.0005860042 0.0011835726 -0.00090117904
000080 67 28 c8 3b ca 5c 91 ba 45 a1 27 3a 61 fc 0f bb
       0.006108332 -0.0011090275 0.00063945755 -0.0021970498
000090 81 19 6b 3b 3b b6 ea bb c7 fc a9 bb 6c bc 8c bb
       0.0035873356 -0.007162837 -0.005187604 -0.0042949226
0000a0 a9 16 92 3a cb 1b ae 3a bf e7 e8 bb 41 92 22 3b
       0.0011145669 0.001328343 -0.0071077044 0.0024806412
0000b0 34 c9 d4 3b 6c ee 11 ba 03 95 be 39 ac 4c c3 3b
       0.006493712 -0.00055668387 0.00036350646 0.0059600677
0000c0 3e c7 50 3b f1 2b 7b ba 6f a6 3e bb 4d 65 11 bb
       0.003185704 -0.0009581438 -0.0029090901 -0.0022185624
0000d0 e1 bf 1f b9 a2 10 4f bb 6f 97 c9 3b d0 5c 9b 3b
       -0.00015234902 -0.0031595607 0.0061520855 0.0047412887
0000e0 e7 36 3f bb 40 fc e8 b8 72 5e 8a 3a 19 2c eb 3b
       -0.0029177011 -0.00011109607 0.0010556711 0.0071768877
0000f0 7b d0 ca 3b bf 01 ee ba d0 1b fb 3b fe 0e 59 bb
       0.0061894036 -0.0018158479 0.0076632276 -0.0033120508
000100 02 8b b7 39 7a 92 85 3b f1 95 fc ba dc 23 ce 39
       0.0003500805 0.0040762993 -0.001927076 0.000393181
000110 7f 6f 98 3b 5c 14 3d 3a f5 f2 b3 3b aa 06 d5 ba
       0.0046519632 0.00072128116 0.005491609 -0.0016252596
000120 6d a5 50 bb ed 8c 9c ba 0d c4 6a bb 9c 82 13 bb
       -0.0031836883 -0.0011943855 -0.0035822422 -0.002250827
000130 38 e3 02 3b 4e 97 9d 3a 25 54 07 3b 40 ba c7 3b
       0.0019971859 0.0012023242 0.002064952 0.006095201
000140 fa 48 8e bb 6b b7 0b 3b 03 05 21 bb 8d 41 ef bb
       -0.0043421956 0.0021319042 -0.0024569638 -0.0073015154
000150 f6 6f 5e b9 87 c8 43 bb 10 3e 49 b8 5d a1 02 bc
       -0.00021213279 -0.0029874162 -4.7979935e-05 -0.007973042
000160 f8 0c e8 3b 23 98 89 3b c3 29 db 3a fb d5 b1 bb
       0.007081624 0.0041990443 0.001672082 -0.00542712
000170 a3 d7 aa 3b 58 6c 36 bb b0 83 bf bb 71 42 80 3b
       0.005213694 -0.0027835574 -0.005844556 0.0039141704
000180 a4 30 8f 3b 34 2c 9f 3b b4 15 ad 3b c1 5b 2d bb
       0.004369812 0.0048575643 0.005282128 -0.0026452395
000190 ae 71 7f 3b d1 36 92 b9 d6 68 d3 3b 08 04 c8 bb
       0.003897767 -0.0002788813 0.0064517064 -0.006103996
0001a0 17 3c ff 3b 8e 8a e7 3b 61 b7 96 bb 38 b3 fe 3b
       0.0077891457 0.0070660776 -0.004599497 0.0077728294
0001b0 e4 a3 bf 3b f9 2b 81 ba b6 19 e6 3b 73 61 dd 3b
       0.0058483947 -0.0009855024 0.007022108 0.0067560016
0001c0 1a f3 c6 39 98 8d 28 3a f2 f5 74 3b d8 aa 75 bb
       0.00037946628 0.00064297905 0.003737804 -0.0037485864
0001d0 fa 5d ce ba b9 f2 e9 3a e7 8f 2f 3a 30 0a 10 3c
       -0.001574456 0.0017848826 0.00066971633 0.008791491
0001e0 e8 b9 98 3b 49 b4 a6 3b 7e 4b 91 3b cd eb e3 3a
       0.0046608336 0.0050874096 0.004434048 0.0017389
0001f0 cc 1e 4c ba b4 23 ae bb 33 f7 4a 3a 43 25 4d 3b
       -0.00077865715 -0.0053143147 0.0007742524 0.0031302727

bn.running_mean f4 [128]
000000 a1 6f 8f 3b c5 9b d4 3c f6 e4 d8 bc c5 32 17 bc
       0.004377321 0.025953183 -0.026476365 -0.009228413
000010 4c 05 72 bc 72 20 00 bc ed c0 fe bc 45 c3 52 bc
       -0.014771771 -0.007820236 -0.031097854 -0.012863939
000020 5e 11 80 bc 55 78 be 3c aa a0 0b bd 29 d8 4e 3d
       -0.015633281 0.023250738 -0.034088768 0.050499115
000030 3c 05 29 3d 9a e5 a6 bc 7f b6 7f 3d 47 04 85 bd
       0.041264758 -0.020373154 0.0624299 -0.064949565
000040 78 18 6d 3c e0 51 aa 3c e5 28 e2 bb 19 5c 81 3c
       0.014471166 0.020790994 -0.0069018477 0.015790986
000050 26 14 08 bd 43 8c 06 3d 16 0c 2e 3d 5d 1c 00 3d
       -0.03322234 0.032848608 0.042491995 0.03127705
000060 fd 0c 35 3d e9 50 2d bc 78 cd ce bc 93 79 67 3c
       0.04420184 -0.0105783725 -0.02524446 0.014128107
000070 4e 89 7a 3c c0 c2 89 bb 4a 22 26 bd 27 72 4c bd
       0.015291525 -0.004204124 -0.040560044 -0.04991355
000080 0d d4 5a 3d 0c 07 aa 3b bc 19 4c bd a8 e9 16 bc
       0.053424884 0.0051888283 -0.04982923 -0.009210981
000090 64 2a 2a 3d dc e1 f7 bc c4 69 07 3b 74 27 0c bd
       0.041544333 -0.030259065 0.0020662406 -0.034217313
0000a0 29 82 84 bc f1 39 03 3b 6a 4e 0e bd 3e b4 79 bb
       -0.016175346 0.002002355 -0.03474275 -0.0038101817
0000b0 a9 bb ed 3c ab f0 24 bd d6 54 80 3b 61 c7 d8 3c
       0.029020147 -0.04026858 0.003916363 0.026462259
0000c0 a1 4f 68 3b 78 9d 2f 3d 47 c8 ba 3c 8d e9 b9 bc
       0.0035447853 0.042874783 0.022800578 -0.022694374
0000d0 5c d2 03 3d 87 2e e8 3c 3c fd dc 3c 25 5b b6 3c
       0.032183036 0.028342498 0.02697622 0.022260258
0000e0 70 d4 0e bd 93 53 d4 3b a6 81 9f 3c 58 e3 7b 3c
       -0.034870565 0.0064796894 0.019471 0.015374027
0000f0 e6 8d 67 b8 c4 0e 94 bc 80 f1 ff 3c 40 ca 35 bd
       -5.5206845e-05 -0.018073447 0.031243086 -0.044382334
000100 a8 50 0e 3d 0c 82 f5 3b ca 07 32 bc 8f a2 2e 3a
       0.03474489 0.0074923094 -0.010866115 0.00066617964
000110 fd 98 2a 3d bb 4c 0e 3d 5c 54 e0 3c 17 3a 2a bc
       0.041649807 0.034741145 0.027383976 -0.010389826
000120 3b df 14 bd 29 20 42 3d f0 b0 3b 3c d3 30 48 bb
       -0.0363457 0.04739395 0.011455759 -0.003054668
000130 1a a6 34 3b 80 6c f2 3c 3e c1 e4 3c d8 b4 70 bc
       0.0027564825 0.029592752 0.027924176 -0.014691554
000140 e9 1e 04 3c d1 a8 9a bb de a8 77 bd 3b 3c 42 bd
       0.00806401 -0.0047198315 -0.06046378 -0.04742072
000150 c9 06 81 bc d2 30 51 3b d2 2c 2f bc f2 08 b4 bc
       -0.015750306 0.0031919968 -0.010691838 -0.021976922
000160 f0 bc 09 3d c4 ec 61 3c b5 71 9d bb a3 19 28 bd
       0.03362745 0.0137893595 -0.0048048147 -0.041040074
000170 4d e1 38 bc af 6b 1d bd 0c 51 34 bd 55 40 19 3d
       -0.011284185 -0.038432773 -0.044022605 0.037414867
000180 a5 56 f9 3c 85 d8 1b 3d bb 08 8b 3c 52 44 2f 3c
       0.030436823 0.038048286 0.016971936 0.010697441
000190 da 62 05 3d ff bf 73 bd a7 65 9c 3c 47 14 dc bc
       0.032564975 -0.059509274 0.01909144 -0.026865138
0001a0 d3 7b 80 3c d6 65 3f 3d 6f 9f 0a b9 db 58 2f bd
       0.015684044 0.046727978 -0.00013220099 -0.04280935
0001b0 92 96 db bb ba 04 35 bc 72 a0 63 3d 1f 0a 01 3d
       -0.006701299 -0.01104849 0.055572934 0.031503793
0001c0 5e ba bc 3b 06 25 0a 3d 75 5b 44 3d 99 e0 2b bd
       0.0057595214 0.033726715 0.047938783 -0.04196224
0001d0 78 4d 8b bd 48 58 8d bb 1b 9b 08 3d ee 91 41 3d
       -0.06801885 -0.0043135025 0.033351045 0.04725831
0001e0 7c e9 39 3c 47 d6 c9 bb 53 d3 67 3b 19 91 d4 3c
       0.011347171 -0.006159577 0.0035373762 0.025948094
0001f0 bd ae 6e bc a9 98 44 bc 10 0b 07 3c a0 37 79 bc
       -0.014568028 -0.011999288 0.008242384 -0.015211016

bn.running_var f4 [128]
000000 a7 34 20 38 91 03 ca 37 c7 84 ad 37 74 b1 e1 38
       3.819601e-05 2.4081937e-05 2.0685036e-05 0.00010761889
000010 e2 1d 03 39 c5 6d da 38 60 89 a4 38 f1 26 0c 38
       0.00012504266 0.00010415496 7.8457175e-05 3.3414868e-05
000020 0f 37 d2 38 07 78 fe 37 39 9c 85 38 75 f1 5f 39
       0.00010023836 3.0335052e-05 6.371033e-05 0.00021356887
000030 ff 0c 47 38 bf ce c0 38 d3 68 76 39 d0 51 56 39
       4.74574e-05 9.193783e-05 0.00023499438 0.00020439108
000040 0c 5d f8 37 cc 04 20 39 b1 b8 13 38 56 75 ed 36
       2.9607232e-05 0.00015260576 3.521954e-05 7.07681e-06
000050 b8 42 f8 38 2c 28 3f 39 d5 05 02 39 e8 cf 04 39
       0.00011837989 0.00018230145 0.00012399939 0.00012665952
000060 13 81 46 39 f7 2f 93 36 2a 3a be 37 25 d2 1b 37
       0.00018930835 4.3865252e-06 2.267685e-05 9.287648e-06
000070 9b 38 37 38 0f ae 44 38 ea f6 85 38 9f 0a db 38
       4.3683318e-05 4.6892146e-05 6.3879255e-05 0.00010444712
000080 55 3b 0b 39 00 87 0d 38 dd 32 33 39 6d 59 9b 36
       0.00013278176 3.374275e-05 0.00017089718 4.6297705e-06
000090 a6 a8 3c 39 ee 34 25 38 ab 93 21 37 43 1a 33 39
       0.00017991904 3.938836e-05 9.630729e-06 0.00017080554
0000a0 3a ca 71 37 ce eb 23 38 6e c7 30 39 b3 09 28 39
       1.4411804e-05 3.908184e-05 0.00016858961 0.00016025342
0000b0 dd e8 c6 38 f0 dd e0 38 5d ab 9d 38 f7 a6 cb 38
       9.48475e-05 0.000107224914 7.518262e-05 9.710894e-05
0000c0 4b 46 69 39 8d c1 dc 38 e5 01 31 38 55 3f ef 37
       0.00022246798 0.00010526469 4.2201853e-05 2.8520511e-05
0000d0 bc 89 19 38 06 24 b0 38 11 9b ac 37 f5 fa 83 38
       3.6606318e-05 8.399044e-05 2.0576206e-05 6.293311e-05
0000e0 ad 63 50 39 b0 ca 29 36 e2 ea c4 37 53 bb 11 37
       0.00019873558 2.5300942e-06 2.3474397e-05 8.686288e-06
0000f0 d1 d6 84 38 46 48 c7 38 6e 6f 55 38 6c b0 77 38
       6.334263e-05 9.5025214e-05 5.0886934e-05 5.9053695e-05
000100 63 0e 67 38 1e be d4 35 8b bc 6b 38 88 e2 ab 34
       5.508809e-05 1.5850562e-06 5.620396e-05 3.2016055e-07
000110 88 a0 99 38 3a ed 5e 38 c5 51 cf 38 7a 44 7b 36
       7.32551e-05 5.314986e-05 9.88576e-05 3.7441773e-06
000120 ec e7 36 38 6b a4 a3 38 43 8a ff 37 56 0e 42 38
       4.3608175e-05 7.803071e-05 3.0462752e-05 4.6266556e-05
000130 c9 93 57 39 a9 e7 79 38 18 a3 85 38 17 c8 4a 39
       0.00020559052 5.9581977e-05 6.372313e-05 0.0001933876
000140 f7 76 a5 36 26 06 a0 38 66 ba 62 39 bc 4c 04 39
       4.9312325e-06 7.63054e-05 0.00021622478 0.00012617087
000150 c5 bd 8a 38 be ec 2c 38 9f 3d 2a 39 24 b3 19 38
       6.6157e-05 4.122848e-05 0.00016235419 3.664488e-05
000160 8d a1 0e 38 72 e7 0a 37 42 bf fe 36 66 99 15 39
       3.4005894e-05 8.2793285e-06 7.592055e-06 0.00014266893
000170 a6 46 9c 38 fd c6 67 39 5a 4c 7d 38 5a 5e 4a 38
       7.451819e-05 0.00022104006 6.039101e-05 4.8248425e-05
000180 0c d1 ed 37 ba 9d 04 39 bc ce 02 38 6f 70 15 39
       2.8349947e-05 0.00012647259 3.118695e-05 0.00014251632
000190 46 28 d4 38 c2 4f 56 39 4d 09 dc 37 ed 5c 18 38
       0.00010116449 0.00020438342 2.6230375e-05 3.6326168e-05
0001a0 ba 28 06 38 91 fe 0e 39 a2 25 4f 38 50 97 5f 38
       3.198602e-05 0.00013637009 4.9387694e-05 5.3308264e-05
0001b0 e7 f8 a0 37 fa 36 2a 39 54 c3 54 39 98 d3 67 38
       1.918939e-05 0.00016232944 0.00020290661 5.5271754e-05
0001c0 31 e7 81 37 df 74 04 38 72 70 4a 39 a9 75 93 38
       1.5485655e-05 3.1580097e-05 0.0001930611 7.031422e-05
0001d0 06 5e 7e 39 cc ba c1 38 9b c8 97 38 a9 07 67 39
       0.00024258354 9.237751e-05 7.237607e-05 0.0002203273
0001e0 99 31 de 38 28 8c 2d 37 aa d4 6e 38 32 ce ab 37
       0.00010595023 1.0344236e-05 5.694168e-05 2.0480806e-05
0001f0 1a ea 39 38 b9 c2 d2 38 88 92 b8 37 d3 85 00 39
       4.432546e-05 0.0001004985 2.2002743e-05 0.00012256885

bn1.weight f4 [128]
000000 00 00 80 3f 00 00 80 3f 00 00 80 3f 00 00 80 3f
       1.0 1.0 1.0 1.0
000010 00 00 80 3f 00 00 80 3f 00 00 80 3f 00 00 80 3f
       1.0 1.0 1.0 1.0
000020 00 00 80 3f 00 00 80 3f 00 00 80 3f 00 00 80 3f
       1.0 1.0 1.0 1.0
000030 00 00 80 3f 00 00 80 3f 00 00 80 3f 00 00 80 3f
       1.0 1.0 1.0 1.0
000040 00 00 80 3f 00 00 80 3f 00 00 80 3f 00 00 80 3f
       1.0 1.0 1.0 1.0
000050 00 00 80 3f 00 00 80 3f 00 00 80 3f 00 00 80 3f
       1.0 1.0 1.0 1.0
000060 00 00 80 3f 00 00 80 3f 00 00 80 3f 00 00 80 3f
       1.0 1.0 1.0 1.0
000070 00 00 80 3f 00 00 80 3f 00 00 80 3f 00 00 80 3f
       1.0 1.0 1.0 1.0
000080 00 00 80 3f 00 00 80 3f 00 00 80 3f 00 00 80 3f
       1.0 1.0 1.0 1.0
000090 00 00 80 3f 00 00 80 3f 00 00 80 3f 00 00 80 3f
       1.0 1.0 1.0 1.0
0000a0 00 00 80 3f 00 00 80 3f 00 00 80 3f 00 00 80 3f
       1.0 1.0 1.0 1.0
0000b0 00 00 80 3f 00 00 80 3f 00 00 80 3f 00 00 80 3f
       1.0 1.0 1.0 1.0
0000c0 00 00 80 3f 00 00 80 3f 00 00 80 3f 00 00 80 3f
       1.0 1.0 1.0 1.0
0000d0 00 00 80 3f 00 00 80 3f 00 00 80 3f 00 00 80 3f
       1.0 1.0 1.0 1.0
0000e0 00 00 80 3f 00 00 80 3f 00 00 80 3f 00 00 80 3f
       1.0 1.0 1.0 1.0
0000f0 00 00 80 3f 00 00 80 3f 00 00 80 3f 00 00 80 3f
       1.0 1.0 1.0 1.0
000100 00 00 80 3f 00 00 80 3f 00 00 80 3f 00 00 80 3f
       1.0 1.0 1.0 1.0
000110 00 00 80 3f 00 00 80 3f 00 00 80 3f 00 00 80 3f
       1.0 1.0 1.0 1.0
000120 00 00 80 3f 00 00 80 3f 00 00 80 3f 00 00 80 3f
       1.0 1.0 1.0 1.0
000130 00 00 80 3f 00 00 80 3f 00 00 80 3f 00 00 80 3f
       1.0 1.0 1.0 1.0
000140 00 00 80 3f 00 00 80 3f 00 00 80 3f 00 00 80 3f
       1.0 1.0 1.0 1.0
000150 00 00 80 3f 00 00 80 3f 00 00 80 3f 00 00 80 3f
       1.0 1.0 1.0 1.0
000160 00 00 80 3f 00 00 80 3f 00 00 80 3f 00 00 80 3f
       1.0 1.0 1.0 1.0
000170 00 00 80 3f 00 00 80 3f 00 00 80 3f 00 00 80 3f
       1.0 1.0 1.0 1.0
000180 00 00 80 3f 00 00 80 3f 00 00 80 3f 00 00 80 3f
       1.0 1.0 1.0 1.0
000190 00 00 80 3f 00 00 80 3f 00 00 80 3f 00 00 80 3f
       1.0 1.0 1.0 1.0
0001a0 00 00 80 3f 00 00 80 3f 00 00 80 3f 00 00 80 3f
       1.0 1.0 1.0 1.0
0001b0 00 00 80 3f 00 00 80 3f 00 00 80 3f 00 00 80 3f
       1.0 1.0 1.0 1.0
0001c0 00 00 80 3f 00 00 80 3f 00 00 80 3f 00 00 80 3f
       1.0 1.0 1.0 1.0
0001d0 00 00 80 3f 00 00 80 3f 00 00 80 3f 00 00 80 3f
       1.0 1.0 1.0 1.0
0001e0 00 00 80 3f 00 00 80 3f 00 00 80 3f 00 00 80 3f
       1.0 1.0 1.0 1.0
0001f0 00 00 80 3f 00 00 80 3f 00 00 80 3f 00 00 80 3f
       1.0 1.0 1.0 1.0

bn1.bias f4 [128]
000000 00 00 00 00 00 00 00 00 00 00 00 00 00 00 00 00
       0.0 0.0 0.0 0.0
000010 00 00 00 00 00 00 00 00 00 00 00 00 00 00 00 00
       0.0 0.0 0.0 0.0
000020 00 00 00 00 00 00 00 00 00 00 00 00 00 00 00 00
       0.0 0.0 0.0 0.0
000030 00 00 00 00 00 00 00 00 00 00 00 00 00 00 00 00
       0.0 0.0 0.0 0.0
000040 00 00 00 00 00 00 00 00 00 00 00 00 00 00 00 00
       0.0 0.0 0.0 0.0
000050 00 00 00 00 00 00 00 00 00 00 00 00 00 00 00 00
       0.0 0.0 0.0 0.0
000060 00 00 00 00 00 00 00 00 00 00 00 00 00 00 00 00
       0.0 0.0 0.0 0.0
000070 00 00 00 00 00 00 00 00 00 00 00 00 00 00 00 00
       0.0 0.0 0.0 0.0
000080 00 00 00 00 00 00 00 00 00 00 00 00 00 00 00 00
       0.0 0.0 0.0 0.0
000090 00 00 00 00 00 00 00 00 00 00 00 00 00 00 00 00
       0.0 0.0 0.0 0.0
0000a0 00 00 00 00 00 00 00 00 00 00 00 00 00 00 00 00
       0.0 0.0 0.0 0.0
0000b0 00 00 00 00 00 00 00 00 00 00 00 00 00 00 00 00
       0.0 0.0 0.0 0.0
0000c0 00 00 00 00 00 00 00 00 00 00 00 00 00 00 00 00
       0.0 0.0 0.0 0.0
0000d0 00 00 00 00 00 00 00 00 00 00 00 00 00 00 00 00
       0.0 0.0 0.0 0.0
0000e0 00 00 00 00 00 00 00 00 00 00 00 00 00 00 00 00
       0.0 0.0 0.0 0.0
0000f0 00 00 00 00 00 00 00 00 00 00 00 00 00 00 00 00
       0.0 0.0 0.0 0.0
000100 00 00 00 00 00 00 00 00 00 00 00 00 00 00 00 00
       0.0 0.0 0.0 0.0
000110 00 00 00 00 00 00 00 00 00 00 00 00 00 00 00 00
       0.0 0.0 0.0 0.0
000120 00 00 00 00 00 00 00 00 00 00 00 00 00 00 00 00
       0.0 0.0 0.0 0.0
000130 00 00 00 00 00 00 00 00 00 00 00 00 00 00 00 00
       0.0 0.0 0.0 0.0
000140 00 00 00 00 00 00 00 00 00 00 00 00 00 00 00 00
       0.0 0.0 0.0 0.0
000150 00 00 00 00 00 00 00 00 00 00 00 00 00 00 00 00
       0.0 0.0 0.0 0.0
000160 00 00 00 00 00 00 00 00 00 00 00 00 00 00 00 00
       0.0 0.0 0.0 0.0
000170 00 00 00 00 00 00 00 00 00 00 00 00 00 00 00 00
       0.0 0.0 0.0 0.0
000180 00 00 00 00 00 00 00 00 00 00 00 00 00 00 00 00
       0.0 0.0 0.0 0.0
000190 00 00 00 00 00 00 00 00 00 00 00 00 00 00 00 00
       0.0 0.0 0.0 0.0
0001a0 00 00 00 00 00 00 00 00 00 00 00 00 00 00 00 00
       0.0 0.0 0.0 0.0
0001b0 00 00 00 00 00 00 00 00 00 00 00 00 00 00 00 00
       0.0 0.0 0.0 0.0
0001c0 00 00 00 00 00 00 00 00 00 00 00 00 00 00 00 00
       0.0 0.0 0.0 0.0
0001d0 00 00 00 00 00 00 00 00 00 00 00 00 00 00 00 00
       0.0 0.0 0.0 0.0
0001e0 00 00 00 00 00 00 00 00 00 00 00 00 00 00 00 00
       0.0 0.0 0.0 0.0
0001f0 00 00 00 00 00 00 00 00 00 00 00 00 00 00 00 00
       0.0 0.0 0.0 0.0

bn1.running_mean f4 [128]
000000 00 00 00 00 00 00 00 00 00 00 00 00 00 00 00 00
       0.0 0.0 0.0 0.0
000010 00 00 00 00 00 00 00 00 00 00 00 00 00 00 00 00
       0.0 0.0 0.0 0.0
000020 00 00 00 00 00 00 00 00 00 00 00 00 00 00 00 00
       0.0 0.0 0.0 0.0
000030 00 00 00 00 00 00 00 00 00 00 00 00 00 00 00 00
       0.0 0.0 0.0 0.0
000040 00 00 00 00 00 00 00 00 00 00 00 00 00 00 00 00
       0.0 0.0 0.0 0.0
000050 00 00 00 00 00 00 00 00 00 00 00 00 00 00 00 00
       0.0 0.0 0.0 0.0
000060 00 00 00 00 00 00 00 00 00 00 00 00 00 00 00 00
       0.0 0.0 0.0 0.0
000070 00 00 00 00 00 00 00 00 00 00 00 00 00 00 00 00
       0.0 0.0 0.0 0.0
000080 00 00 00 00 00 00 00 00 00 00 00 00 00 00 00 00
       0.0 0.0 0.0 0.0
000090 00 00 00 00 00 00 00 00 00 00 00 00 00 00 00 00
       0.0 0.0 0.0 0.0
0000a0 00 00 00 00 00 00 00 00 00 00 00 00 00 00 00 00
       0.0 0.0 0.0 0.0
0000b0 00 00 00 00 00 00 00 00 00 00 00 00 00 00 00 00
       0.0 0.0 0.0 0.0
0000c0 00 00 00 00 00 00 00 00 00 00 00 00 00 00 00 00
       0.0 0.0 0.0 0.0
0000d0 00 00 00 00 00 00 00 00 00 00 00 00 00 00 00 00
       0.0 0.0 0.0 0.0
0000e0 00 00 00 00 00 00 00 00 00 00 00 00 00 00 00 00
       0.0 0.0 0.0 0.0
0000f0 00 00 00 00 00 00 00 00 00 00 00 00 00 00 00 00
       0.0 0.0 0.0 0.0
000100 00 00 00 00 00 00 00 00 00 00 00 00 00 00 00 00
       0.0 0.0 0.0 0.0
000110 00 00 00 00 00 00 00 00 00 00 00 00 00 00 00 00
       0.0 0.0 0.0 0.0
000120 00 00 00 00 00 00 00 00 00 00 00 00 00 00 00 00
       0.0 0.0 0.0 0.0
000130 00 00 00 00 00 00 00 00 00 00 00 00 00 00 00 00
       0.0 0.0 0.0 0.0
000140 00 00 00 00 00 00 00 00 00 00 00 00 00 00 00 00
       0.0 0.0 0.0 0.0
000150 00 00 00 00 00 00 00 00 00 00 00 00 00 00 00 00
       0.0 0.0 0.0 0.0
000160 00 00 00 00 00 00 00 00 00 00 00 00 00 00 00 00
       0.0 0.0 0.0 0.0
000170 00 00 00 00 00 00 00 00 00 00 00 00 00 00 00 00
       0.0 0.0 0.0 0.0
000180 00 00 00 00 00 00 00 00 00 00 00 00 00 00 00 00
       0.0 0.0 0.0 0.0
000190 00 00 00 00 00 00 00 00 00 00 00 00 00 00 00 00
       0.0 0.0 0.0 0.0
0001a0 00 00 00 00 00 00 00 00 00 00 00 00 00 00 00 00
       0.0 0.0 0.0 0.0
0001b0 00 00 00 00 00 00 00 00 00 00 00 00 00 00 00 00
       0.0 0.0 0.0 0.0
0001c0 00 00 00 00 00 00 00 00 00 00 00 00 00 00 00 00
       0.0 0.0 0.0 0.0
0001d0 00 00 00 00 00 00 00 00 00 00 00 00 00 00 00 00
       0.0 0.0 0.0 0.0
0001e0 00 00 00 00 00 00 00 00 00 00 00 00 00 00 00 00
       0.0 0.0 0.0 0.0
0001f0 00 00 00 00 00 00 00 00 00 00 00 00 00 00 00 00
       0.0 0.0 0.0 0.0

bn1.running_var f4 [128]
000000 00 00 80 3f 00 00 80 3f 00 00 80 3f 00 00 80 3f
       1.0 1.0 1.0 1.0
000010 00 00 80 3f 00 00 80 3f 00 00 80 3f 00 00 80 3f
       1.0 1.0 1.0 1.0
000020 00 00 80 3f 00 00 80 3f 00 00 80 3f 00 00 80 3f
       1.0 1.0 1.0 1.0
000030 00 00 80 3f 00 00 80 3f 00 00 80 3f 00 00 80 3f
       1.0 1.0 1.0 1.0
000040 00 00 80 3f 00 00 80 3f 00 00 80 3f 00 00 80 3f
       1.0 1.0 1.0 1.0
000050 00 00 80 3f 00 00 80 3f 00 00 80 3f 00 00 80 3f
       1.0 1.0 1.0 1.0
000060 00 00 80 3f 00 00 80 3f 00 00 80 3f 00 00 80 3f
       1.0 1.0 1.0 1.0
000070 00 00 80 3f 00 00 80 3f 00 00 80 3f 00 00 80 3f
       1.0 1.0 1.0 1.0
000080 00 00 80 3f 00 00 80 3f 00 00 80 3f 00 00 80 3f
       1.0 1.0 1.0 1.0
000090 00 00 80 3f 00 00 80 3f 00 00 80 3f 00 00 80 3f
       1.0 1.0 1.0 1.0
0000a0 00 00 80 3f 00 00 80 3f 00 00 80 3f 00 00 80 3f
       1.0 1.0 1.0 1.0
0000b0 00 00 80 3f 00 00 80 3f 00 00 80 3f 00 00 80 3f
       1.0 1.0 1.0 1.0
0000c0 00 00 80 3f 00 00 80 3f 00 00 80 3f 00 00 80 3f
       1.0 1.0 1.0 1.0
0000d0 00 00 80 3f 00 00 80 3f 00 00 80 3f 00 00 80 3f
       1.0 1.0 1.0 1.0
0000e0 00 00 80 3f 00 00 80 3f 00 00 80 3f 00 00 80 3f
       1.0 1.0 1.0 1.0
0000f0 00 00 80 3f 00 00 80 3f 00 00 80 3f 00 00 80 3f
       1.0 1.0 1.0 1.0
000100 00 00 80 3f 00 00 80 3f 00 00 80 3f 00 00 80 3f
       1.0 1.0 1.0 1.0
000110 00 00 80 3f 00 00 80 3f 00 00 80 3f 00 00 80 3f
       1.0 1.0 1.0 1.0
000120 00 00 80 3f 00 00 80 3f 00 00 80 3f 00 00 80 3f
       1.0 1.0 1.0 1.0
000130 00 00 80 3f 00 00 80 3f 00 00 80 3f 00 00 80 3f
       1.0 1.0 1.0 1.0
000140 00 00 80 3f 00 00 80 3f 00 00 80 3f 00 00 80 3f
       1.0 1.0 1.0 1.0
000150 00 00 80 3f 00 00 80 3f 00 00 80 3f 00 00 80 3f
       1.0 1.0 1.0 1.0
000160 00 00 80 3f 00 00 80 3f 00 00 80 3f 00 00 80 3f
       1.0 1.0 1.0 1.0
000170 00 00 80 3f 00 00 80 3f 00 00 80 3f 00 00 80 3f
       1.0 1.0 1.0 1.0
000180 00 00 80 3f 00 00 80 3f 00 00 80 3f 00 00 80 3f
       1.0 1.0 1.0 1.0
000190 00 00 80 3f 00 00 80 3f 00 00 80 3f 00 00 80 3f
       1.0 1.0 1.0 1.0
0001a0 00 00 80 3f 00 00 80 3f 00 00 80 3f 00 00 80 3f
       1.0 1.0 1.0 1.0
0001b0 00 00 80 3f 00 00 80 3f 00 00 80 3f 00 00 80 3f
       1.0 1.0 1.0 1.0
0001c0 00 00 80 3f 00 00 80 3f 00 00 80 3f 00 00 80 3f
       1.0 1.0 1.0 1.0
0001d0 00 00 80 3f 00 00 80 3f 00 00 80 3f 00 00 80 3f
       1.0 1.0 1.0 1.0
0001e0 00 00 80 3f 00 00 80 3f 00 00 80 3f 00 00 80 3f
       1.0 1.0 1.0 1.0
0001f0 00 00 80 3f 00 00 80 3f 00 00 80 3f 00 00 80 3f
       1.0 1.0 1.0 1.0

fc2.weight f4 [128, 2]
000000 88 bb ae 3e b6 0c 84 be 8d 51 ad 3e 6d 56 3a 3e
       0.3412745 -0.25790948 0.3385128 0.18197031
000010 fe 3c fe be 69 55 03 bd a4 a2 94 3e e4 a9 f6 be
       -0.49655908 -0.032063875 0.29030335 -0.4817649
000020 28 0e 66 3e 9e 03 07 bf 17 b3 12 bf 4d da d8 3e
       0.22466338 -0.52739894 -0.5730452 0.4235405
000030 59 0d 5b be 4a 50 d3 be 8d c3 81 3c e7 a8 8d be
       -0.2139181 -0.41272193 0.015840316 -0.27667925
000040 d9 cd 1f 3e af 4a f3 be 81 6d 10 3f 9d c7 d0 bd
       0.15605868 -0.47517917 0.5641709 -0.10194323
000050 c2 94 aa be 8f 54 b4 be bc 8d ab 3e 44 c6 2e 3f
       -0.33316618 -0.35220763 0.33506572 0.6827128
000060 96 0f 2e 3f 99 e9 14 3e 1f af 39 3d 35 e1 ea be
       0.6799253 0.14542235 0.045333024 -0.45874944
000070 dd 2b 11 3f 0f 54 30 3f 49 77 31 bf 23 99 1c bf
       0.56707555 0.68878263 -0.6932264 -0.6117117
000080 e2 14 06 3d 88 12 85 3e a1 01 28 be d9 79 16 3f
       0.03273476 0.259907 -0.16406871 0.58779675
000090 64 d4 0b 3e 71 96 8e be 3e af 91 3e ed 4d fd 3c
       0.1365524 -0.27849153 0.28454012 0.030920947
0000a0 ae 97 1e be 3b 06 04 bf 69 b2 9b 3c ee 68 25 3f
       -0.15487549 -0.51572007 0.019005971 0.64613235
0000b0 40 df b0 3e a7 8c 02 3f 95 80 c3 3d 12 62 09 3f
       0.34545326 0.5099587 0.095460095 0.5366527
0000c0 dc 79 78 3e 98 24 26 3f 0f e0 69 be ed 9f 90 3c
       0.24265236 0.6489959 -0.22839378 0.017654384
0000d0 55 53 06 bf ef f5 af 3c 7c b8 1e 3e 72 e1 03 3e
       -0.52470905 0.021479575 0.15500063 0.1287897
0000e0 66 33 d5 bb 31 fc a1 3e 76 ba 66 3e 78 c3 a0 be
       -0.0065063713 0.3163772 0.22532067 -0.3139913
0000f0 6e 49 00 bf 8f 1e a0 be 17 32 16 bf 37 a2 d4 be
       -0.50112045 -0.31273314 -0.5867018 -0.4153001
000100 b0 11 16 3f 4f 4f f9 3e 62 0f 26 be c1 23 8a 3e
       0.5862074 0.4869332 -0.16216806 0.26980403
000110 ea fe ce be c3 4d 19 bf 9d f4 62 be 83 a9 1d 3d
       -0.4042886 -0.5988428 -0.22163625 0.038491737
000120 e0 4c 50 3e bd 8f 22 3f bd 0f b3 be 29 ff 83 be
       0.20341825 0.6350058 -0.34972945 -0.2578061
000130 a8 49 cb bd 34 16 12 3e 89 56 8a bd 4b e3 1f bf
       -0.09926158 0.14266282 -0.067547865 -0.62456197
000140 e7 52 21 be 55 b4 2b be 81 89 73 be 59 6e 90 3e
       -0.15754281 -0.1676801 -0.23782922 0.2820919
000150 42 d8 a8 bd 75 bd 1e bf 4e be f8 3e dc 10 12 bf
       -0.08244373 -0.6200784 0.4858269 -0.57056975
000160 02 d7 fc 3d ec cc ec 3e 4b 5e ad be 93 98 f1 be
       0.12345697 0.46250093 -0.33861002 -0.47186717
000170 fd a7 e2 3e e3 8f bd be 30 1c 84 3d 20 ec f0 3e
       0.4426879 -0.3702384 0.06450689 0.4705515
000180 8e 72 35 3f 18 e3 25 bf c4 9e cf 3e b3 d7 e9 3e
       0.7087792 -0.6479964 0.40550816 0.45672378
000190 0d 7f 20 3e 13 fd 9a 3e f2 69 0c bf 4b 40 c7 3d
       0.15673466 0.30271205 -0.5484916 0.0972906
0001a0 99 96 d8 3e bd ae 63 3e e8 64 0d 3e 1f 2b de 3e
       0.42302397 0.22234626 0.13808024 0.43392274
0001b0 b5 41 dc 3e 05 72 e0 3d c6 a6 2e 3f 2d b6 77 be
       0.4301888 0.109592475 0.68223226 -0.24190588
0001c0 94 ac 00 bd 6a ab 2c bf 69 6f 24 3e db 51 02 bd
       -0.031414583 -0.6744906 0.16058125 -0.031816345
0001d0 3d 3f 31 3e d9 e5 5f 3e 7d ca a5 3e 03 99 8e bc
       0.1730928 0.21865024 0.3238105 -0.017406946
0001e0 62 e6 b0 3e 76 39 b4 be 78 b0 c7 3d 9f 27 ee be
       0.34550768 -0.3520009 0.097504556 -0.46514603
0001f0 8a 31 a2 3e 4e 55 9f 3e 4d 1c 29 bf 3f b1 69 be
       0.3167842 0.3111977 -0.6605881 -0.2282152
000200 b4 bc c5 3e 97 8e 9f 3e 1e 45 f5 3d 45 02 f7 3c
       0.38620532 0.31163475 0.11976074 0.03015245
000210 8e 2d 00 bf 46 a4 93 3e 82 22 11 3d 83 3b b8 bc
       -0.5006951 0.28836268 0.0354333 -0.022489315
000220 35 79 f9 3e 07 a2 b2 3e 19 72 ca 3e 7a bc 9a 3e
       0.48725286 0.34889242 0.39540175 0.3022192
000230 2f 34 a2 3d 82 d7 f2 3e 60 a2 0d be 94 5f 8f bd
       0.079201095 0.47430044 -0.13831472 -0.07000652
000240 70 38 00 bf 4b 16 69 be c2 58 21 3f fd d9 a3 3e
       -0.50086117 -0.2276241 0.6302606 0.3200225
000250 3f ba 00 bd bc 28 87 3e 22 a8 b1 be df bc 94 3e
       -0.031427618 0.26398265 -0.34698588 0.29050347
000260 33 a6 2b 3f 45 06 20 bf 66 73 78 3e 62 c6 b4 3e
       0.67050475 -0.62509567 0.24262771 0.35307604
000270 5b 1a 43 3e b7 8e be 3e 63 b5 b1 3e 16 6d 26 bf
       0.19053023 0.37218258 0.347087 -0.650102
000280 85 a6 5a 3e 57 18 5b bd 4a f8 98 3e 99 4d cc be
       0.21352585 -0.05349001 0.2987693 -0.39902952
000290 dc c3 0e bf 6b 93 28 bf b3 39 e9 be 2e fd fe be
       -0.5576761 -0.6584994 -0.45551834 -0.49802536
0002a0 7f 11 8c 3d 19 ec c6 be 02 4a aa 3e c5 d4 8b be
       0.068392746 -0.38852003 0.33259588 -0.27310768
0002b0 f1 7b bc 3e ca 27 17 bf 9d fe 14 bf 7a 5d 15 3e
       0.3681331 -0.5904509 -0.5820101 0.1458644
0002c0 84 88 ff 3e 39 8b 32 3e d4 e8 21 3e 04 3b f3 3d
       0.4990884 0.17435922 0.15811473 0.11876491
0002d0 53 cb 08 3d 8c 66 06 be 2e 93 89 be 5c f9 0e bf
       0.03339703 -0.13125056 -0.26870102 -0.5584924
0002e0 d1 dc 33 3e 5d 5e d0 be da c6 88 bd 7f f2 35 bf
       0.17564704 -0.40696993 -0.06678553 -0.71073145
0002f0 83 3d 22 bf 7a 23 7e be d9 0f 00 3f d3 e8 7f 3e
       -0.6337511 -0.2481822 0.5002418 0.24991159
000300 fa bd e3 3e 0f ce 28 3e ed c1 75 3e cf eb 06 3f
       0.44480878 0.16484855 0.23999758 0.52703565
000310 14 52 9f 3d cf 94 87 3e fb 53 aa be 18 f7 0d 3f
       0.07779327 0.2648072 -0.33267197 0.5545516
000320 38 37 3b 3e 42 b2 f2 3e a6 38 0f bf 9c 29 23 bf
       0.18282783 0.47401625 -0.55945814 -0.63735366
000330 19 26 18 3e 52 83 71 3e bf fb 8e be 44 6f 85 be
       0.14858283 0.23585251 -0.27926442 -0.2606145
000340 45 a4 41 3d 69 17 8a 3e 01 2e d3 3e aa 18 07 3f
       0.0472758 0.26970986 0.41246036 0.5277201
000350 69 c5 9d be b4 da 9e 3e cf 34 28 bf 67 bc 4c be
       -0.30814674 0.31026232 -0.6570558 -0.19993745
000360 4b 34 91 3d e9 bd 54 be fe 2d b9 3e ba 53 17 bf
       0.07090052 -0.2077557 0.36167902 -0.5911213
000370 37 9a f0 3e 8c 06 26 3f 14 d1 9b 3e 67 83 a8 3e
       0.46992657 0.6485374 0.3043295 0.32912752
000380 2f 78 8c bd 34 cd 3e 3e 98 91 11 3f bc 92 d8 3d
       -0.06858861 0.18632966 0.56862783 0.10574862
000390 7d 44 a2 3e 43 36 26 3f 49 54 02 bf b0 83 aa be
       0.31692877 0.64926547 -0.5090986 -0.33303595
0003a0 28 d3 2f bf 95 2e 2e bf 79 02 fb be df 2c d2 3e
       -0.68681574 -0.6803983 -0.49025324 0.4104986
0003b0 45 9a 91 3e b3 0b c6 3e e4 52 81 3e 47 69 33 3f
       0.2843801 0.386808 0.25258553 0.70082515
0003c0 f8 f1 21 3f c2 3c d3 be f8 6a e8 3c f1 46 1d be
       0.6325984 -0.41257292 0.02837132 -0.15359093
0003d0 dc 55 c6 3e 43 bb a4 be 61 2b c3 3e b8 d9 0d 3e
       0.3873738 -0.3217412 0.38119033 0.13852584
0003e0 e5 3d 04 bf fb ff 6a 3e 5c 7d 21 bf 66 8c cb 3e
       -0.51656944 0.22949211 -0.6308191 0.39755553
0003f0 43 f5 63 bd b0 da 64 3e 09 9a 58 3e 56 e0 05 bf
       -0.05565382 0.22349048 0.2115251 -0.52295434

actor.linears.0.weight f4 [128, 384]
000000 2d 3a 0f 3d a3 2f 03 3b 47 bd 41 bd 83 18 eb 3c
       0.03496759 0.0020017407 -0.04729965 0.028698212
000010 80 f2 0d 3d 1f 1b 2f bd b5 e5 7e 3b 43 02 d3 bc
       0.034655094 -0.042750474 0.003889424 -0.025757914
000020 f8 a2 39 bd 93 5f 29 3d 88 3b 2f bd db 26 1a bc
       -0.045321435 0.041350912 -0.042781383 -0.009408678
000030 c8 34 d6 bc 5f 63 02 bd 69 16 e4 bc 68 71 26 3d
       -0.026148215 -0.03183305 -0.027842717 0.040635496
000040 1c 52 8c bb f4 cd da bc 57 62 74 bc 08 a9 73 3b
       -0.004282249 -0.026709534 -0.014916024 0.0037179608
000050 78 c8 fd bc e2 ff ca 3c 47 ed 81 bc ba 35 53 3d
       -0.03097938 0.024780218 -0.015860213 0.05156491
000060 70 fb 6a 3d 1e de cd 3a c2 09 ab bc e8 58 f6 3c
       0.057368696 0.0015706455 -0.020878676 0.03007169
000070 d6 ce ec 3b 09 99 91 bc c9 c5 a4 3c 19 77 a9 bb
       0.007226805 -0.017773168 0.020113843 -0.0051716683
000080 34 c3 3f 3d 8b ac 1b bd 59 b4 ff 3c 1c dd 34 bc
       0.04681702 -0.038006347 0.031213926 -0.011039045
000090 d5 af 94 bc 7f be 0c bd 8f 5d cd bc 9c 84 68 bd
       -0.01815025 -0.03436136 -0.025069026 -0.05676709
0000a0 58 6d 2d bd 69 5f b9 bb 2e f4 2f bd e3 d3 4c bd
       -0.042340606 -0.0056571257 -0.042957477 -0.05000676
0000b0 32 3f db bc 7b ea 02 3d 1e f0 f3 ba 63 0f 49 3d
       -0.026763532 0.0319619 -0.0018610989 0.04908694
0000c0 ac e9 3a 3c eb cc 10 3b 9e f0 11 3c 98 a9 cb bb
       0.011408251 0.0022094797 0.008907465 -0.0062152855
0000d0 10 c4 41 3d 89 8d a0 3c 54 8d 96 3c 46 20 b2 3c
       0.04730612 0.01959874 0.018377937 0.021743905
0000e0 34 d3 1b bd 62 6a 41 3d 21 b1 2d bd 73 84 2b bd
       -0.038043216 0.047220595 -0.04240525 -0.04187436
0000f0 ff 41 49 bd 7a 64 a7 3c a5 26 0f bd 56 53 8f 3c
       -0.049135204 0.020433653 -0.034948964 0.017495792
000100 d1 8e 5b 3c b6 aa be 3c 69 65 28 bd c3 34 49 3c
       0.013400749 0.02327476 -0.041112337 0.012280646
000110 7d a1 13 3d 16 2c 6b 3c 2a 74 f2 bc 60 4d ca bc
       0.03604268 0.014353773 -0.029596407 -0.024695098
000120 30 47 cd 3b 31 f0 27 bd b2 e6 be bc da 3c 49 3d
       0.0062645897 -0.04100055 -0.023303363 0.0491303
000130 5f 0e 14 bc b5 87 9d bc 34 98 76 3c e3 83 ba bb
       -0.009036629 -0.01922975 0.0150509365 -0.0056919917
000140 ab 52 0a 3d d6 5f 2e 3d 94 c8 0c 3d 24 dc 2f bd
       0.033770245 0.042571865 0.034370974 -0.04293455
000150 d2 2c 54 bd 2a 1e d5 3c 94 3b 39 bc ad 83 a9 bc
       -0.051800556 0.02601536 -0.011305708 -0.02069267
000160 6e 2f 16 3d 70 95 bf 3c a6 6c 42 3c 2a ac 2b bd
       0.036666326 0.023386687 0.011866724 -0.041912235
000170 c5 59 03 3d 09 b0 25 3d ca 6c 68 3c d0 ad 29 bc
       0.032068033 0.040451083 0.014186094 -0.010356382
000180 54 0f 3d bd 38 e9 e4 bc 79 fd 24 3d 84 59 ac 3c
       -0.046157196 -0.027943239 0.040280793 0.021038778
000190 b5 10 8d 3c 47 24 55 bd 85 f0 04 bd 8f a2 d6 bc
       0.01721988 -0.05203655 -0.03245594 -0.02620056
0001a0 f5 e8 3d 3d 66 3e 25 bd d5 5e 13 3d 43 55 56 bd
       0.046364743 -0.04034271 0.03597911 -0.052327406
0001b0 cd d5 63 bc fa ef 01 bb 49 87 1f 3d 1e 84 0e 3d
       -0.013905955 -0.0019826875 0.038947377 0.034793966
0001c0 29 3e 57 3d 0b 3a 99 3c 82 d5 28 bd 80 42 8b 3c
       0.052549515 0.018704435 -0.041219242 0.016999483
0001d0 49 e4 46 3c 69 f7 10 bd 9d 29 c8 3c 99 25 0f 3d
       0.012139388 -0.0353922 0.024433905 0.034947965
0001e0 26 0f 44 bd 20 92 fe bc 99 b9 3c 3c d6 c3 f6 3c
       -0.04786601 -0.031075537 0.011518859 0.030122679
0001f0 8b b4 65 bc 6c 86 ed 3c e0 4c 7e 3b a7 8f 25 3d
       -0.014020096 0.028994761 0.0038803145 0.0404202
000200 c2 dd 42 3d 5d f5 8b 3c 02 92 c9 ba ee 71 14 bd
       0.047574766 0.017084772 -0.0015378597 -0.036241464
000210 47 5d fc bb f9 b6 79 3c 6f fc 90 bb 49 6a 38 bd
       -0.007701549 0.015241378 -0.0044246237 -0.045023236
000220 2c 91 f2 bc bc 01 20 3d 23 4d 49 bb ab 19 f0 3c
       -0.029610239 0.039064154 -0.0030716143 0.029309114
000230 dd 6a 53 bb a6 de 29 bd 60 d4 a5 bc 92 64 00 bd
       -0.003225974 -0.0414721 -0.02024287 -0.03134591
000240 81 58 c2 bc 32 6c fd 3c a9 b1 52 3d 8a 8d ec bc
       -0.023723843 0.03093538 0.05143896 -0.028876085
000250 37 2e 32 3d bc ea 2b 3b 56 29 fa bb 04 8e 63 bc
       0.043501105 0.0026232442 -0.007634322 -0.01388884
000260 ed ff 08 bc 0c a0 35 3d 91 21 95 bb 3a 28 73 3c
       -0.008361799 0.044342086 -0.0045511206 0.014841134
000270 e9 54 1b 3c f1 aa 30 bd ba bf 92 bc 6b 6b 11 bd
       0.009480693 -0.043131772 -0.017913688 -0.035502832
000280 ef 01 35 bd a7 13 0d bd d5 7d 54 bd fe df 60 bc
       -0.044191297 -0.03444257 -0.051877815 -0.013725279
000290 b7 83 87 3c 8a 7f c7 3c 86 ca 73 3c 61 c4 0f 3d
       0.016542299 0.024352808 0.014879828 0.03509939
0002a0 04 15 11 bd 82 25 93 bc 9a ca b5 3c a5 c4 c1 bc
       -0.035420433 -0.017962221 0.022191335 -0.023653338
0002b0 4d ea 67 3b 69 fc dc bc d2 d9 c8 bc 99 e8 78 b9
       0.0035387457 -0.026975827 -0.024517927 -0.00023737772
0002c0 21 81 0a bd 93 be 09 3c 50 7f 9b bb d7 d3 34 3c
       -0.033814553 0.008407253 -0.0047454014 0.011036835
0002d0 5e a2 cd bc e7 ad 8f bb 63 e5 15 3d c2 d3 06 3d
       -0.025101837 -0.0043847444 0.036595713 0.03291679
0002e0 52 20 09 bc 17 54 22 bd c8 0d 42 3d a2 17 95 3b
       -0.008369522 -0.039630976 0.047376424 0.0045499364
0002f0 31 0f 2d 3d 6e 92 4b 3d ba fd 8d bb f4 79 5b bd
       0.042250816 0.049700193 -0.004333225 -0.0535831
000300 3f 4b 08 bd dc 96 1c 3d d4 0c 9c bb 02 00 52 3c
       -0.033274885 0.03822981 -0.0047622714 0.012817385
000310 b0 91 20 bd ed 79 04 bc 9f 3e c3 bb 01 53 52 bd
       -0.03920144 -0.00808571 -0.0059583928 -0.05134869
000320 21 6f 35 39 3e 85 40 bd 1b 83 23 3c 99 39 8d bc
       0.00017302904 -0.04700207 0.009979988 -0.017239379
000330 cf 21 fa 3b e3 28 20 bc 03 e7 13 bd f8 f2 1e 3d
       0.007633425 -0.009775373 -0.03610898 0.03880593
000340 f1 a5 31 3d 87 63 60 3d c2 54 3e bd b4 1c 33 bd
       0.043371145 0.054782417 -0.04646755 -0.043728545
000350 d9 d6 ca 3c ca ed 35 3d 80 a5 d9 bc ee 06 5e bc
       0.02476065 0.044416226 -0.026568174 -0.013551457
000360 ad 37 dc bb 31 77 2e bd 8e be 9c bc 8b 35 14 3d
       -0.0067205043 -0.04259414 -0.019133832 0.036183875
000370 ed 10 c9 bc f4 f5 2d bc 91 f9 1e bd f0 17 f9 3a
       -0.024544204 -0.010617722 -0.038812224 0.0019004326
000380 ea ca 8f 3c 07 4f 03 3c b9 f6 27 bd 94 a3 b8 bc
       0.017552812 0.008014447 -0.041006777 -0.022538938
000390 b6 86 eb ba 03 0b 03 bd e7 70 a0 3c de d4 3c 3d
       -0.0017969224 -0.031992923 0.019585086 0.046101443
0003a0 d0 5d 61 3c f6 38 40 3c 1a 30 5a bd 7c f2 04 3d
       0.013755277 0.011732331 -0.05326853 0.032457814
0003b0 91 e2 dd bb 5f 28 44 bc b1 30 76 3c 4f 2a 69 bc
       -0.0067713936 -0.011972516 0.015026257 -0.014231279
0003c0 03 45 3e bd a8 31 11 bd 93 32 c9 3b 45 4b 3a 3d
       -0.046452533 -0.035447747 0.006140062 0.04548194
0003d0 2f a5 39 3d d2 98 09 bd de 41 39 bc 38 e6 44 bc
       0.045323547 -0.033593006 -0.011307208 -0.012017779
0003e0 29 90 1b bd 85 fd 24 3d c7 ce ae 3c 57 70 08 bd
       -0.03797928 0.040280838 0.021338833 -0.03331026
0003f0 67 d9 26 3d 6d 6b cc 3c 31 e3 bd bc 17 f0 32 bd
       0.040734675 0.024953568 -0.023179622 -0.043686

actor.linears.0.bias f4 [128]
000000 6c e9 90 3c e9 5e a8 3b 85 1f 38 3c be 47 bf 3b
       0.01768943 0.0051382673 0.011237984 0.0058374098
000010 31 c6 be bc 70 b6 34 3c dc 92 16 bb c5 28 13 bd
       -0.023287864 0.011029825 -0.0022975719 -0.035927553
000020 77 fd 02 bd a9 42 f0 bc a4 d3 0d bd 8f 26 b4 bc
       -0.031980004 -0.029328661 -0.034625664 -0.021991042
000030 a5 90 19 bd a9 51 20 bd 90 30 11 bd 48 2b 97 3c
       -0.03749146 -0.039140377 -0.035446703 0.018453255
000040 db 6b c3 3b 0b 89 2b 3d e0 10 2d 3d 5a e9 0c bd
       0.005963785 0.04187874 0.04225242 -0.03440223
000050 c7 77 26 bd 7b 64 bb bc e9 1c 3d 3d 00 b8 61 3c
       -0.040641572 -0.022875061 0.04617015 0.013776779
000060 85 31 d0 3c 6e 91 15 bd 8f bb 00 bd ea 42 79 bc
       0.025414238 -0.036515646 -0.03142887 -0.015213707
000070 e9 a4 b4 3c 1a 0b 4c 3d c1 70 b7 bb 1b a4 04 3d
       0.022051292 0.049815275 -0.005598158 0.032383066
000080 8b c0 31 3d 0f 41 2c bd 36 d0 0c 3d 4b b8 68 3d
       0.043396514 -0.042054232 0.034378253 0.05681638
000090 e4 84 15 3d fc 18 0d 3d fa 6a 29 bd b4 38 4f 3d
       0.036503688 0.034447655 -0.041361786 0.050591186
0000a0 c7 9f 86 bc cb 83 fc bc 3b 33 26 bd 0d b3 20 bd
       -0.01643361 -0.030824563 -0.0405762 -0.039233256
0000b0 f3 bf 56 3c c9 2f fa bc 17 42 86 3b 75 77 29 3b
       0.013107288 -0.030540364 0.004097234 0.0025858555
0000c0 24 8c 4b bd 96 15 5d bd 5c e8 36 bb 76 08 5d bd
       -0.049694195 -0.053975664 -0.0027909493 -0.053963147
0000d0 ec 41 50 bd a8 c6 2a 3d 94 f0 24 bc d9 ac 85 bc
       -0.050844118 0.04169336 -0.010067124 -0.016317772
0000e0 e3 bf 21 bd 25 39 b2 3c d5 d4 e2 3c f6 52 e3 3c
       -0.039489638 0.021755764 0.027689377 0.02774952
0000f0 29 ab d1 3c a7 6e 19 bd ee 26 c3 bc c1 18 fa bc
       0.02559431 -0.037459042 -0.023822274 -0.030529382
000100 a9 b2 bb bc ff db 32 3d 0d af c4 bc b0 73 60 3d
       -0.02291234 0.043666836 -0.024009252 0.05479783
000110 9a e0 37 bc 71 02 7b 3c 35 e2 97 bb e8 39 d6 3c
       -0.011222983 0.015320406 -0.0046351203 0.026150659
000120 a9 4a c1 3b af cf 16 bd 1c 10 9e bb 43 4d 96 bc
       0.0058987928 -0.036819156 -0.0048236977 -0.018347388
000130 c2 97 18 bd 12 4a ab 3c 98 93 d4 bc 41 59 fe 3c
       -0.037254103 0.020909343 -0.025949284 0.031048419
000140 82 7b e7 bc 53 28 c4 bc da eb d0 3b f2 12 0d 3d
       -0.028257135 -0.02394501 0.006375772 0.034441896
000150 7c a7 d5 ba c3 9e 07 3b 27 2f 2b bd 02 c7 b3 3b
       -0.0016300525 0.0020693995 -0.041793015 0.00548637
000160 05 43 1b bd 8c 75 4e bd 55 f2 1a 3d 78 50 b8 3c
       -0.03790571 -0.05040507 0.037828762 0.022499308
000170 ae 5c 3c ba c2 fc 4b 3d 11 26 4f 3d e6 63 3d bd
       -0.0007185441 0.049801596 0.050573412 -0.04623785
000180 ad 98 b4 37 98 e1 34 3d b2 c1 db 3c 95 ae e5 bc
       2.1528767e-05 0.044160455 0.02682576 -0.028037349
000190 a4 62 93 bc 3b e4 82 3c fd 25 13 3d a0 78 29 3d
       -0.017991371 0.01597797 0.0359249 0.041374803
0001a0 af 90 6f 3c 66 a5 e2 3c d6 da 6c bc 34 c5 2d 3b
       0.014621898 0.027666759 -0.014456471 0.0026515247
0001b0 3a 4d 81 bb f3 bd 26 bd 8e ef 19 3d b1 a5 e3 3c
       -0.0039459737 -0.040708493 0.037581973 0.027788969
0001c0 08 37 37 3c 3b 8c a2 bc fd 21 0c bd 35 da 33 bd
       0.011182554 -0.019842258 -0.0342121 -0.04390927
0001d0 8e 2a 2a bc c8 e3 14 3c 3e 9d 1d bd 9a 67 33 bd
       -0.010386122 0.00908751 -0.038480036 -0.043799974
0001e0 ba 02 c7 3c 99 5c 9e ba 0c 49 38 3d e7 75 72 3c
       0.024293292 -0.001208204 0.044991538 0.014798618
0001f0 84 ce 97 3c 21 62 4f bd fe 47 a3 3c ac 7c d2 bc
       0.018531092 -0.050630692 0.01993179 -0.025694214

actor.linears.1.weight f4 [128, 128]
000000 9b 58 30 3d 62 a8 c3 bc 6c 53 39 3d c3 f9 cb 3c
       0.04305325 -0.023884002 0.045245573 0.02489937
000010 5f 7c 01 bd 66 52 44 bd 7e 20 5e 3c 05 d2 b8 3d
       -0.03161275 -0.047930144 0.013557551 0.09024433
000020 c0 3f 3b bd 72 24 99 3d f0 a1 b4 3d 8c 08 c3 bc
       -0.045715094 0.074776545 0.088199496 -0.023807786
000030 fa b0 4e bc 8e fc 95 bd 4c 09 a3 bd 10 b9 f4 bc
       -0.012615437 -0.073235616 -0.079607576 -0.0298734
000040 65 98 f9 bb 78 75 84 3d ff d9 d0 bc 5f 0f 5b bd
       -0.007617044 0.06467718 -0.025494574 -0.053481456
000050 16 70 b1 bc b2 fe 8e 3c 40 6c af bd 9b ed cd 3c
       -0.021659892 0.017455433 -0.08565569 0.025137713
000060 40 60 4d 3d 7b 53 92 3d 92 04 1b bb e1 1f 15 bd
       0.05014062 0.07144829 -0.0023653847 -0.036407355
000070 e5 b3 c9 3b 33 0f 07 3c 52 76 5a bd 9e 0b b9 3c
       0.0061554783 0.00824337 -0.053335495 0.022588547
000080 dc 38 cf bc c8 8e ce 3c 7e 55 fd ba 74 da 54 ba
       -0.025295667 0.025214568 -0.0019327847 -0.000811971
000090 a2 60 39 3c e1 99 9c bc f2 f0 8f 3c 3c 29 a6 3d
       0.011314543 -0.019116344 0.017570946 0.081133336
0000a0 3f 8b 14 bc b5 36 ab bd 64 3f 0f 3d fb 22 83 3d
       -0.009066402 -0.08360044 0.034972563 0.06403156
0000b0 60 63 31 3d 9f 16 a4 bd b1 78 13 3d 21 51 5b 3b
       0.043307662 -0.08012127 0.036003772 0.0033465105
0000c0 95 75 d2 3b 5b cc 44 3d 3e 4d 5e 3d ac 71 a3 3c
       0.0064227083 0.04804645 0.054272883 0.019951664
0000d0 b9 b1 f4 bc c6 40 2a 3c 95 51 88 bd 2f 2b 8d bc
       -0.029869901 0.01039142 -0.066561855 -0.017232506
0000e0 ee 87 d2 bc 61 c0 28 bd 9d 00 58 bb 86 27 4c 3b
       -0.025699582 -0.04119909 -0.003295935 0.0031151487
0000f0 ee 1c 57 bd cf 3a 81 bd 28 f9 a3 3d 90 ff 76 bd
       -0.052517824 -0.06310045 0.08006507 -0.060302317
000100 60 d0 d4 bc d4 31 4f bd d0 0d ad bd 64 4c a3 3d
       -0.025978267 -0.05058463 -0.084499 0.07973555
000110 83 c2 47 3c 0c c1 31 bc 8e c2 db 3c 8e 4f 75 3d
       0.012192371 -0.010849249 0.02682617 0.059890322
000120 45 f1 5d 3d 2b ee 21 bb c5 d3 1e bd 12 01 02 bc
       0.05418517 -0.002470861 -0.038776178 -0.0079348255
000130 61 2d 98 bd 04 7a af bd 5b 9c 84 bd 4d 06 05 bd
       -0.0743053 -0.085681945 -0.06475135 -0.032476712
000140 ea 7f 99 3c ad 3a 5a 3c 70 4b 66 bd e8 ce 17 bd
       0.018737752 0.013319653 -0.056224287 -0.037062556
000150 ee fa 61 3d cf 6e d2 3b e3 f3 48 3d 0b 6a ee 3b
       0.055170946 0.006421901 0.049060713 0.007275825
000160 c8 2d b5 bd 05 ee 70 3c 50 ac fd bc d8 89 60 3c
       -0.08846623 0.014705186 -0.030965954 0.0137047395
000170 1f 89 1f bd 91 6d c1 bb c2 31 59 bd 94 a9 b1 bd
       -0.03894913 -0.005902954 -0.05302597 -0.086749226
000180 38 d0 3e 3d 84 cf b9 bc 4e 81 b1 bd 95 4e 10 3d
       0.04658529 -0.022681959 -0.08667241 0.03523119
000190 d7 54 34 bc a1 b6 08 bd f2 e4 dd bc a5 2c 45 3d
       -0.0110065555 -0.033377293 -0.027086709 0.04813828
0001a0 39 35 e1 3c f7 8f f2 bc c8 f4 93 39 3e 04 38 3d
       0.027491199 -0.029609663 0.000282204 0.04492592
0001b0 5f 39 03 3d 54 b4 56 bd 01 1a 00 bc a8 54 9e 3d
       0.032037135 -0.052418068 -0.0078187 0.07730991
0001c0 76 7a 58 bd a9 de f9 bc 72 30 b0 3d ee ef 14 3d
       -0.052851163 -0.03050168 0.0860299 0.036361627
0001d0 6a 96 91 3d 2d 4d c3 3c 9d cb 8f bd bf f6 8c ba
       0.07108767 0.023840511 -0.07021258 -0.0010754688
0001e0 bb 6d 8a bd 51 3c 91 bd 3c ed b1 bd 2f e5 96 bd
       -0.06759211 -0.070915826 -0.08687827 -0.07367932
0001f0 fc 2c 97 bc 25 75 a3 3d 6c 8b 00 3d 14 80 b0 3d
       -0.018454067 0.07981328 0.031382963 0.08618179
000200 79 b6 f0 bc 3f 0c de 3c c3 d1 41 3d 57 6c 80 3c
       -0.029383885 0.027105449 0.047319185 0.01567666
000210 6f cd 4c bd 8a b3 90 3d 51 7b 65 bd 6d 76 75 3d
       -0.050000604 0.07065494 -0.056025807 0.059927393
000220 81 c2 03 bd 04 df 4c 3d fb 78 ad 3d 9d 88 76 bc
       -0.032167915 0.05001737 0.08470341 -0.01504722
000230 b7 68 51 bd 02 77 71 3c 05 94 ad bd cf 4d aa bd
       -0.051125254 0.014737846 -0.08475498 -0.08315622
000240 f4 e5 ad 3d 05 e8 2a bd 00 f7 12 3c 47 61 f3 3a
       0.08491126 -0.041725177 0.008970022 0.001856842
000250 bc 4c d8 3b 79 4d 1d bd 97 1c 75 bb fa 9c cd 3b
       0.0066009443 -0.03840396 -0.0037401074 0.0062748166
000260 08 bd 70 3c 4e 08 80 3c d4 5a 96 bd dc 33 fa 3c
       0.014693506 0.01562896 -0.07341543 0.030542307
000270 83 ac b2 3b 5e 19 0a bd 79 ee 04 bd 3c fe 85 bd
       0.005452694 -0.0337156 -0.032453988 -0.06542632
000280 76 0b ca bc 5b 54 8a bd ad c7 46 3d 47 71 63 3d
       -0.024663668 -0.06754371 0.04853027 0.05552795
000290 1a ce 94 bd cb 99 24 bd 09 86 a3 3d 36 ea 6c bd
       -0.07265873 -0.04018573 0.079845496 -0.05784055
0002a0 c0 cb 9b bd 44 93 a6 3d f6 dc 76 3d dd 88 9d 3c
       -0.076072216 0.081335574 0.06026932 0.0192303
0002b0 8b 1a 50 bc 25 74 b2 3d c8 79 20 3d 3a e3 cf bb
       -0.012701641 0.08713559 0.03917864 -0.006344226
0002c0 70 25 9b bd 70 b3 07 3c 93 cb a4 bd 23 bb b8 bd
       -0.075755 0.008282527 -0.08046641 -0.090200685
0002d0 3a d9 e2 3c 60 c0 9c 3d c0 c0 f0 bc 3f e8 d1 bc
       0.027691472 0.0765388 -0.029388785 -0.025623439
0002e0 6c b6 af 3d b3 ef 84 3d 35 70 5a 3d 3a e7 9e bd
       0.08579716 0.064910315 0.053329665 -0.07758947
0002f0 34 a4 20 bc e5 e3 f2 bc 8b 7f 27 3c 5b 6e da 3c
       -0.009804774 -0.029649684 0.01022328 0.02666395
000300 71 c7 5b 3c 5f ca 0a 3d de 08 70 bd 2c 10 94 3d
       0.01341425 0.033884402 -0.058602206 0.07229647
000310 b7 02 3c bd c7 ff a0 3b 6a 32 ac bd dd 53 99 3d
       -0.045901027 0.0049133035 -0.08408053 0.07486699
000320 3f d6 4b bd 27 c8 9d bd c4 da 4d 3d 80 23 95 3d
       -0.049764868 -0.07704192 0.05025746 0.07282162
000330 8a a9 83 bd a3 1d 11 3d e9 5e 24 3c 22 69 05 3c
       -0.064288214 0.035428654 0.010032394 0.008142741
000340 f0 25 4f bd 78 f0 c0 bd 27 18 88 3c d4 22 0c 3d
       -0.05057329 -0.09420866 0.01661308 0.034212902
000350 c8 d0 60 bd 9f 6f aa 3c c7 31 93 bd 1f 9a 76 3d
       -0.05488661 0.020805178 -0.07187229 0.060205575
000360 7d 12 6b bc 60 ee 9a 3d eb 1f 11 3d bd 43 08 3d
       -0.01434767 0.07564998 0.03543083 0.033267725
000370 0a 6e ce bc 8c d9 29 3d 92 00 09 bd 1c bc 1b bd
       -0.025198955 0.041467234 -0.03344781 -0.038021192
000380 f0 fc 44 bc 97 9f ae 3d 7b 29 ef bc e0 e5 21 3c
       -0.012023196 0.08526533 -0.029194584 0.009881467
000390 e1 3a cb bb eb 0f 10 3b 4d 53 92 bd 4c 5d b5 bc
       -0.0062020873 0.0021982144 -0.071447946 -0.022139214
0003a0 a5 3d 90 bc 73 46 a3 bb 07 12 60 3d ad 35 2d bd
       -0.01760752 -0.0049827634 0.054704692 -0.042287517
0003b0 2f 84 a2 3d 50 b2 ae 3d 92 4d a9 3d 17 8e 87 3d
       0.07935368 0.08530104 0.082667485 0.06618898
0003c0 87 c5 58 bd de dc 3a bb 5b 5a 00 3b fa 46 47 bc
       -0.05292275 -0.0028512995 0.0019585106 -0.012162918
0003d0 ff f4 77 bd 9a 23 58 bd e5 62 93 bd f0 00 d7 bc
       -0.06053638 -0.052768327 -0.07196597 -0.026245564
0003e0 bc 6d 28 3b db d0 45 bd 78 65 9c 3c ba 22 5e 3d
       0.0025700172 -0.048294883 0.019091353 0.054232337
0003f0 2f 0a 82 bd 7b 73 2c 3c cb 51 16 bd d8 c1 be bd
       -0.063495986 0.01052558 -0.036699098 -0.093143165
