FJSP_MultiPPO/saved_network/FJSP_J50M405/best_value00/policy_job.pth (torch_old, 637559 bytes, 53 tensors)

_input f4 [128]
000000 51 3c b8 be c4 73 34 3c 73 0f d3 3e 27 bf 12 bf
       -0.35983518 0.011013929 0.41222724 -0.57322925
000010 9e 6f 53 3f aa de 6a 3f 10 13 3d bf b4 f8 62 3f
       0.8259219 0.9174601 -0.7385721 0.8866074
000020 b2 39 57 be 54 01 98 3e 11 b9 15 3f 77 71 24 bf
       -0.21018103 0.29688513 0.58485514 -0.64235634
000030 84 60 5e 3f 84 46 74 be 4f 63 1b bf b8 6a ee 3e
       0.8686602 -0.23855025 -0.6069841 0.46565795
000040 86 93 4d be db 42 6c 3f 3d a8 e7 3e bc 22 57 3f
       -0.20075807 0.92289513 0.45245543 0.84037375
000050 da ec dd be 91 84 ca be c4 d2 72 3f 31 c7 e9 bd
       -0.43344766 -0.39554265 0.9485285 -0.11414946
000060 40 fc 78 bf a7 8a 11 bf 52 37 8c be f5 58 d0 be
       -0.972599 -0.5685219 -0.27385956 -0.4069287
000070 68 20 47 bf 55 5c 42 3e af 2c 5d 3e 75 6f 92 3e
       -0.77783823 0.18980534 0.21599077 0.2860066
000080 f5 b2 67 bf 21 3c ab 3e b8 e7 47 be ac 8e 78 bf
       -0.9050744 0.33444312 -0.19521987 -0.970927
000090 c7 dc 54 bf 80 cf 0f 3f ae 35 5b 3f dd 07 58 bf
       -0.8314938 0.56175995 0.85628784 -0.84387
0000a0 c3 01 8c 3d 41 2a 4b be 4d 6b 25 3d 85 23 5c 3e
       0.068362735 -0.19840337 0.040385533 0.21497925
0000b0 df 63 1a bf f9 bc de 3e e3 c7 a4 3e 85 1c 30 3f
       -0.6030864 0.4350355 0.3218375 0.6879352
0000c0 3a 40 78 bf c9 f8 e5 3e 99 2e 8d 3e 57 90 12 be
       -0.96973 0.4491637 0.27574614 -0.14312874
0000d0 6d 05 4e bf f6 64 75 3f 0f 41 08 3f bc b2 d6 3e
       -0.8047703 0.9585718 0.5322427 0.41933239
0000e0 9b ce ce bd 01 81 26 be 10 d8 9f 3e 43 37 07 3f
       -0.100980006 -0.16260149 0.3121953 0.528187
0000f0 7f 59 60 3d 87 ad de 3e af 1d e5 3e 86 50 17 3f
       0.05477285 0.43491766 0.4474921 0.59107244
000100 51 54 63 bf 69 bf d7 3d 1c 49 85 3e 9c ce 5a 3f
       -0.8880053 0.105345555 0.2603234 0.8547151
000110 0e 5c 5d bf 1c 2d d5 be 10 f9 cf be 6c e1 77 3f
       -0.8646859 -0.41635978 -0.40619707 0.9682834
000120 0b 78 40 3f 20 33 34 bf f6 9c af 3e 95 5b 4e bf
       0.7518317 -0.7039051 0.3429944 -0.80608493
000130 2e f8 38 bf 76 9a e6 3c 3e a0 96 3d 40 63 26 3e
       -0.7225369 0.028149825 0.073547825 0.16248798
000140 94 0c ef 3c ae 15 31 3f b7 92 75 3f 5a 95 03 bf
       0.029180802 0.69173706 0.95926994 -0.5139977
000150 75 5f aa be 74 a5 22 bf 97 52 68 3f fc 1f 89 3e
       -0.33275953 -0.6353371 0.9075102 0.26782215
000160 25 fe 25 bf ee 06 0a bf d2 21 2d bd eb 85 6f bf
       -0.6484092 -0.53916824 -0.04226858 -0.9356372
000170 42 7e d7 3d 03 83 eb 3c ca e3 a6 3d ed cf 45 bf
       0.10522129 0.028748995 0.08148916 -0.77270395
000180 d9 c0 b6 3e ce 6a 1b bf 6b f3 27 bf 4d 43 3a 3f
       0.35694006 -0.60709846 -0.656058 0.7275894
000190 24 6a 03 3f 0c 2b 1f 3f b4 16 44 bf 8a ae da 3c
       0.5133383 0.6217506 -0.7659714 0.026694555
0001a0 38 99 b3 be 12 07 16 bf 2a 2b 35 bf ed 9f 63 bf
       -0.35077834 -0.5860454 -0.7076899 -0.889159
0001b0 bf 41 ea be bd eb d1 3b c2 0b 2a bf 96 03 44 3d
       -0.45753285 0.006406276 -0.6642419 0.047854982
0001c0 07 f2 a0 be 0f d3 5e bf 8b d4 05 3f 8a ae 2c bf
       -0.31434652 -0.870408 0.5227744 -0.67453825
0001d0 d5 61 2f bf 17 bf 9a be 53 3b d6 3e 23 a6 10 be
       -0.68508655 -0.30223915 0.41842136 -0.14125876
0001e0 a6 af ca be 2b 88 c5 3e e9 74 45 3c b6 6c 73 3e
       -0.39587134 0.3858045 0.012051799 0.23771939
0001f0 ed c4 d8 be 39 dd 3d bf 7b 19 4e bf fa 9b f3 be
       -0.42337742 -0.74165684 -0.8050763 -0.47579938

bn.weight f4 [2]
000000 00 00 80 3f 00 00 80 3f
       1.0 1.0

bn.bias f4 [2]
000000 00 00 00 00 00 00 00 00
       0.0 0.0

bn.running_mean f4 [2]
000000 00 00 00 00 00 00 00 00
       0.0 0.0

bn.running_var f4 [2]
000000 00 00 80 3f 00 00 80 3f
       1.0 1.0

encoder.feature_extract.mlps.0.linears.0.weight f4 [128, 2]
000000 13 09 f1 3e ec 32 1b be 8d 1b 86 be 1e a7 2f 3c
       0.47077236 -0.15156144 -0.26192895 0.010720996
000010 f8 eb d6 bd bb 7e 15 3f 12 fd 67 3e 7f af 4b 3e
       -0.10494226 0.583965 0.22655132 0.19891165
000020 a1 c1 fa 3e c4 57 1d bf c9 32 0a bd 7e b7 31 bf
       0.48975852 -0.61462045 -0.03373984 -0.6942061
000030 93 6c dc be bb 4c d2 be f6 95 09 3f 91 04 19 bf
       -0.43051586 -0.41074166 0.5374445 -0.5977259
000040 53 4a 34 3e c3 cd c3 bc c9 23 a4 be 7a 92 33 3f
       0.17606477 -0.023901826 -0.32058552 0.7014538
000050 b6 ac dd 3e bd 96 2e 3f 57 be b4 be 8c d9 c5 bd
       0.4329583 0.6819876 -0.35301468 -0.096606344
000060 27 f6 79 be 69 1f 32 3f 24 8d 06 3f a5 12 13 3f
       -0.24410306 0.6957918 0.52559114 0.57450324
000070 0f 43 97 3d 60 ef 9a 3d b0 9f 49 3d 3a 26 09 3e
       0.07385837 0.075651884 0.049224555 0.13393489
000080 57 e0 61 be 93 58 a5 be d9 ca c0 be 6f 19 d7 3c
       -0.22058235 -0.3229414 -0.3765476 0.026257245
000090 21 3c 15 be cc 8b 01 be 02 d1 d7 3e 41 51 16 bf
       -0.14573719 -0.12650985 0.42151648 -0.58717734
0000a0 53 1c 1c bf 75 f6 19 bf 44 e8 1e 3f 70 fc 8b be
       -0.6098072 -0.6014169 0.6207316 -0.27341032
0000b0 ea 6e 00 3f bd 7a 90 3d b3 3f 76 3e 00 8e 42 be
       0.5016924 0.070546605 0.24047737 -0.18999481
0000c0 fe 2e bb bd bd 86 e4 3e 40 56 92 3d 49 58 20 bf
       -0.091398224 0.44634047 0.07145357 -0.6263471
0000d0 c4 db ce be 99 89 75 be 6f f5 c6 be ce c6 00 3f
       -0.40402043 -0.2397827 -0.38859126 0.5030335
0000e0 15 b8 ef 3e 49 df 07 3f 84 24 21 3f 29 c3 01 ba
       0.4682013 0.5307508 0.62946343 -0.00049500406
0000f0 83 4a 2d 3d 69 72 10 3e ba f4 b8 bd 8e bc db 3d
       0.042307388 0.14106144 -0.09031053 0.10729323
000100 b0 f6 07 bf ea bb 33 3f 4e 14 a2 be 7c 1d 0b 3f
       -0.5311079 0.7020861 -0.31656116 0.54341865
000110 40 fe 29 3f 00 5e 81 be 21 b8 01 3f fd 10 bc 3e
       0.6640358 -0.2526703 0.50671583 0.3673171
000120 22 96 03 3f ac 2b 09 bf 05 84 3c 3e 5b 7e 26 bf
       0.5140096 -0.53582263 0.18409736 -0.65036553
000130 38 64 8a be a1 05 55 3e 70 20 31 3f 4e 63 e0 be
       -0.27029586 0.20802929 0.6919012 -0.43825763
000140 46 b8 26 3f 1a 27 04 3e a6 26 19 be 5d ec 01 3f
       0.6512493 0.12905541 -0.1495615 0.50751287
000150 da 74 a5 be b1 fd fc be 35 ea aa 3e 04 05 1d 3f
       -0.32315713 -0.494123 0.3338181 0.6133578
000160 07 11 9c be 32 b0 5e 3e dd fe d3 3e 71 8a a3 3e
       -0.3048174 0.217469 0.41405383 0.3194156
000170 4f 7a f1 3e 8d 78 78 3e 6d 74 17 3e ed c7 0b 3e
       0.47163627 0.24264736 0.14790507 0.13650484
000180 9e 02 34 3f a7 6c 70 3e 53 ec d9 3d ef 98 b7 bd
       0.70316494 0.23478948 0.106407784 -0.08964717
000190 24 20 0b 3f be 7f b1 be 59 6a 3e be b4 fe ad be
       0.5434592 -0.34667772 -0.18595256 -0.33983386
0001a0 35 8c 11 3e 74 18 cf be 62 c4 46 3e 41 1f 80 be
       0.14213641 -0.40448344 0.19410852 -0.25023845
0001b0 ce e9 55 be 4c 76 a1 3e 3f 15 96 be ec cd f8 3e
       -0.2088997 0.31535566 -0.29313084 0.48594606
0001c0 88 7e 2f bf 62 57 1b 3f 79 b9 34 3f 76 ed d0 3e
       -0.68552446 0.6068021 0.7059551 0.40806168
0001d0 8b 73 2d bf 95 d8 0b bf 9c ff c6 3d 34 a5 14 bf
       -0.6775443 -0.5462735 0.09716722 -0.5806458
0001e0 7a 98 c5 be 65 54 6e be eb f7 bf bd d1 66 08 3e
       -0.38592893 -0.23274381 -0.093734585 0.13320471
0001f0 31 7e d3 be f2 72 c2 be d0 fe b2 3e 09 af 58 be
       -0.41307214 -0.3797832 0.34960032 -0.2116052
000200 fe bd 15 bf c0 21 80 bc 8a d8 3b 3e 23 08 a1 be
       -0.5849303 -0.015641093 0.18344322 -0.3145152
000210 93 09 45 3e c6 a2 9c 3e 04 42 a9 3e 25 4e 12 3f
       0.19241934 0.30592936 0.33058178 0.5715049
000220 74 32 17 3f 8b e8 f9 3e 00 02 8a 3e 8d d7 4a 3d
       0.5906136 0.4881023 0.2695465 0.04952197
000230 16 5a d5 be 1f b0 24 bf c9 a0 e8 3d 79 16 d2 3e
       -0.41670293 -0.6433124 0.11358792 0.4103277
000240 9b 10 1f 3e 98 56 d3 be cd 31 fd be e7 c0 34 3e
       0.15533678 -0.41277003 -0.49452057 0.17651711
000250 93 98 78 be 58 3d b8 3e 60 3c 03 3d ee 0b c9 be
       -0.24276952 0.35984302 0.03204 -0.39266914
000260 8d 66 e2 bd cf de 8b 3e f1 74 67 bd c7 9f 09 3f
       -0.11054716 0.27318427 -0.05650801 0.53759426
000270 64 c2 a7 3d c6 d0 07 be 4e 7b 3a 3e 5a e7 87 3e
       0.08191374 -0.13263234 0.182111 0.26543695
000280 48 ce da 3d 7a 79 27 bf d9 47 32 be c3 a6 ed bc
       0.10683876 -0.65419734 -0.1741022 -0.029010182
000290 8e 96 f1 3e 93 2f d8 be 58 a0 b4 be 8a 68 18 3f
       0.47185177 -0.42223796 -0.35278583 0.59534514
0002a0 7f 3a a9 be a7 c6 5d be 87 da d1 be fd 7d 8b 3d
       -0.3305244 -0.21657811 -0.40987036 0.0681114
0002b0 9d 1c a5 3e 8f 38 20 bf a7 d6 a4 3e 19 e9 d1 3d
       0.32248393 -0.625863 0.32195017 0.10249538
0002c0 3d 04 80 3e c3 6a f3 bd d3 6c cf be 4c 68 e1 3e
       0.25003234 -0.118855976 -0.40512714 0.44024885
0002d0 b1 f5 0e 3f 2b d4 c8 be b3 12 5b be 3c cf 08 3f
       0.55843645 -0.3922437 -0.21393852 0.53441215
0002e0 4b 7c 92 3e ca f0 a8 3d e6 61 d0 be e5 fe 96 be
       0.28610453 0.08249052 -0.4069969 -0.29491344
0002f0 68 eb f3 3e c0 42 ee be 00 41 8b be b6 5b 26 bf
       0.47640538 -0.465353 -0.2719803 -0.6498369
000300 b5 59 24 be e6 40 e0 bd 8d f2 ef bc a7 b6 d1 3d
       -0.16049846 -0.109498784 -0.029290462 0.10239916
000310 da 0c 7e 3e 3f be 1e 3f a7 7a 04 be 37 aa 05 3f
       0.2480959 0.6200904 -0.12937413 0.5221285
000320 b3 77 48 3e b1 f8 6d be 6c ee 2a 3f c1 92 19 3f
       0.19576912 -0.232394 0.6677005 0.59989554
000330 b7 83 03 bd 6d 99 fd be c3 61 87 bd 1e f4 1f be
       -0.032108035 -0.49531117 -0.066104434 -0.15620467
000340 55 92 21 bf f3 73 15 be ad ff 4c be 17 a4 28 bd
       -0.6311391 -0.14595012 -0.20019408 -0.041172113
000350 5c 21 33 bd f6 ca 91 3e 88 5a 21 bf 66 36 07 3f
       -0.043732986 0.2847516 -0.63028765 0.5281738
000360 87 92 ed 3e d6 7b f7 3c 2c da f6 be 5f a3 2f bf
       0.46400854 0.030210417 -0.48213327 -0.6860866
000370 e3 4e 29 be ab 62 87 3d a4 99 a9 3e d3 0c 05 bf
       -0.16533999 0.06610616 0.3312503 -0.51972693
000380 0d 58 13 3f fc be b1 be 87 17 17 3f e0 47 f0 3e
       0.5755623 -0.34716022 0.59020275 0.46929836
000390 22 0a c1 be 88 35 5f 3d c6 88 85 3e f2 37 21 3f
       -0.37703043 0.05449441 0.26080912 0.6297599
0003a0 32 90 c8 3e e0 ab 2c 3d a3 6d 6e 3e 5b 98 31 3f
       0.39172512 0.0421561 0.2328401 0.693731
0003b0 88 0e 8a 3e f0 be 00 bf 5e 49 cc 3e 8b d1 d4 3e
       0.2696421 -0.5029135 0.39899725 0.4156612
0003c0 3e ca 10 3f bc fa fd be 38 dd e3 3e ce c5 6a 3e
       0.565586 -0.49605358 0.44504714 0.22927019
0003d0 54 f5 99 3e 03 6a df be 31 b8 1d bf 0d d8 32 be
       0.30069983 -0.43635568 -0.6160918 -0.1746523
0003e0 8b 5b 74 3e a4 c9 12 bf cb 04 03 3e ab 90 18 3f
       0.23863046 -0.5733893 0.12794797 0.59595746
0003f0 94 6d 51 3e 18 e7 0f 3f b5 27 20 bf e1 b7 ac be
       0.20451957 0.56211996 -0.6256059 -0.33734038

encoder.feature_extract.mlps.0.linears.0.bias f4 [128]
000000 e0 2b 30 3f d6 af 1f be 71 c4 e8 3e 75 08 b5 bd
       0.6881695 -0.1559442 0.45462373 -0.08839504
000010 e0 66 f4 3e f3 36 12 3f e9 9a 61 bd 48 35 31 3f
       0.47734737 0.57115096 -0.055079374 0.69221926
000020 55 ba 6b 3e c2 91 2a be 31 29 eb be 04 fb 1f 3f
       0.23020299 -0.16657165 -0.45929864 0.62492394
000030 ac 15 1d bf ef 4b 0e 3f 0d e9 09 bf bc cc 9b be
       -0.61361194 0.55584615 -0.5387123 -0.30429637
000040 20 74 27 3e de 64 f7 be 96 17 81 be 0c c8 32 bf
       0.16352892 -0.48319143 -0.25213307 -0.698365
000050 ca 01 2f 3f e2 76 97 3e 5c 4a a3 be c0 8d 30 bf
       0.68362105 0.29582888 -0.3189267 -0.68966293
000060 f9 a5 bb 3d 73 51 8e be 37 b2 be be 92 46 04 bf
       0.09162516 -0.27796516 -0.37245342 -0.5167018
000070 ee 8e e6 be 37 95 2c bf 2a 5e b5 3e 85 8b 1f bf
       -0.45030922 -0.67415184 0.35423404 -0.62322265
000080 73 cb 30 bf 8f d0 17 bf f7 cc 0d 3f 3e 97 5d 3e
       -0.6906044 -0.5930261 0.55390877 0.21639726
000090 af 2b 16 3f 47 e8 24 3f 49 d3 dd be 51 9b af be
       0.58660406 0.6441693 -0.4332526 -0.34298185
0000a0 43 2f 0a be f3 f4 dc be 21 f9 ce be 57 3e 0f be
       -0.13494591 -0.4315563 -0.40424445 -0.13988625
0000b0 89 ba 99 be ac 44 25 bf 39 62 04 bf 30 54 67 3d
       -0.30025128 -0.6455791 -0.51712376 0.05647677
0000c0 7f f5 b7 3e a8 4e 0c bf 58 3e 8a 3e c7 8d 00 bf
       0.35929486 -0.5480752 0.2700069 -0.50216335
0000d0 2e 41 fb be ac 3a 0a bf 4d 74 84 3e 37 0c 81 be
       -0.49073166 -0.53995776 0.2586998 -0.25204632
0000e0 1b d8 12 bf 13 63 da be df f8 a9 be b0 3e 89 be
       -0.57361 -0.42653713 -0.33197686 -0.2680564
0000f0 8d 5d da 3e 11 97 07 bf b9 1c 2e 3e 7e 48 ef 3e
       0.426495 -0.52964884 0.17003144 0.46734995
000100 19 d9 83 be b0 ee c1 be 5e c3 2f 3f c9 7d 84 bc
       -0.2575157 -0.37877417 0.6865748 -0.01617326
000110 16 27 e8 3d 49 f3 4c bd dd 78 18 bf 99 d7 96 bd
       0.1133558 -0.050036702 -0.5955942 -0.07365341
000120 8c a8 e3 be 40 d7 29 bf 80 cf a1 be 8e 42 22 bf
       -0.4446453 -0.6634407 -0.31603622 -0.63382804
000130 d0 f3 fc 3e 76 1c 1c 3e 8c 34 e0 3d de 33 05 3f
       0.49404764 0.15245232 0.109475225 0.5203227
000140 ec 83 2b be b3 be fc 3e 3d a3 92 be 53 31 16 bf
       -0.16749543 0.49364242 -0.28640166 -0.5866901
000150 17 1e a3 be 73 8a 6b bc 1b 10 74 be c0 c6 42 be
       -0.31858894 -0.014376271 -0.23834269 -0.1902113
000160 ee 68 d1 be 90 e8 af 3e 63 48 96 3e e4 2f de 3e
       -0.40900367 0.3435712 0.29352102 0.43395913
000170 58 4b 2c bf 3a 53 05 3f 8f f7 33 3f 25 53 93 3d
       -0.67302465 0.5208012 0.7029962 0.07193593
000180 ad cc df 3e b1 cb 2e bf d5 77 00 3e 2e 3b a3 be
       0.43710843 -0.6827956 0.12545712 -0.31881088
000190 f7 d4 89 be 17 53 97 3e ee 59 90 3e 8f 51 b7 3d
       -0.26920292 0.2955558 0.2819361 0.08951103
0001a0 16 74 ca be 89 1b 01 3e ff aa 98 be 77 2a a7 3e
       -0.39541692 0.1260816 -0.2981796 0.32649586
0001b0 db ba cf be c4 1f 92 3e 26 e5 30 bf 07 6a f0 be
       -0.40572247 0.2853986 -0.6909965 -0.46955892
0001c0 9d 3a 0a 3d 9a 9d 17 3f 73 79 7f 3e 09 66 51 3e
       0.033747304 0.59224856 0.24948673 0.2044908
0001d0 78 a6 a4 3e 28 64 81 3e 91 37 28 3f 9f eb f3 3e
       0.32158256 0.25271726 0.6570979 0.47640702
0001e0 24 ee ac be 5e 13 63 bd 5d 93 9d be a0 47 2b be
       -0.33775437 -0.055438392 -0.30776492 -0.16726542
0001f0 4d 6a c0 3e 37 5d 53 3e 50 7e dd 3d 36 1b cc 3d
       0.375811 0.20641027 0.10815108 0.099661276

encoder.feature_extract.mlps.0.linears.1.weight f4 [128, 128]
000000 d9 56 5d bc 8c 97 23 bc 17 e7 12 3d f9 60 29 3d
       -0.013509476 -0.009984862 0.035864916 0.041352246
000010 44 a8 11 3b ec 2d 9a 3c 8e e0 b4 bd b0 c6 8f bd
       0.0022225538 0.018820725 -0.08831893 -0.070203185
000020 fd 87 91 3c f8 bb 48 bd 03 3e 65 bd 8a 9b 62 3d
       0.01776504 -0.049007386 -0.055967342 0.055324115
000030 b6 59 70 3d aa 1d d3 bc e5 e8 c3 3c bd eb 44 bc
       0.058679305 -0.02577098 0.023914764 -0.012019095
000040 a4 88 36 3d a6 4e a1 bd 13 6f 86 bd 91 43 44 bd
       0.044563904 -0.07876329 -0.065641545 -0.047916
000050 8b 11 23 3c e6 78 db 3c a6 bb 9a 3d 6f 93 09 3c
       0.009952913 0.026791047 0.07555322 0.008396967
000060 a7 aa 9e 3d 0c d5 10 bd d0 ac 8e bc 60 4e 55 bc
       0.07747393 -0.035359427 -0.017416388 -0.013019174
000070 ca d3 31 bc 67 74 9f 3c f1 75 bc 3d f0 10 a8 bd
       -0.010853717 0.019464685 0.09202183 -0.082063556
000080 ad db a3 bd e7 ac 15 bd 35 ce 15 3d 07 97 05 3c
       -0.08000884 -0.036541846 0.036573607 0.0081536835
000090 b3 31 d7 bc fe be be 3c 80 c9 97 3d 79 2f a0 bb
       -0.026268816 0.023284432 0.0741148 -0.0048884717
0000a0 58 38 84 3c ce dd c1 bb 87 b9 a8 3c 97 d0 b3 3d
       0.016140148 -0.0059163338 0.020596279 0.0878002
0000b0 0c 71 57 bd 99 55 9a bd 29 4c 11 bb fc c1 7a bc
       -0.052598044 -0.07535858 -0.002217064 -0.015305039
0000c0 4a bf bc 3d e4 d9 54 3d 69 b0 91 bd c2 95 cb bc
       0.09216173 0.05196561 -0.07113726 -0.024851684
0000d0 87 0c 12 bd e4 3f 23 3d f6 96 ce 3c c7 92 36 3d
       -0.03565648 0.039855853 0.025218468 0.04457357
0000e0 fb 30 15 bc 23 ab bc 3d 81 4d 85 3c 67 39 93 3d
       -0.009105916 0.09212329 0.016272308 0.07188683
0000f0 ba 2c 30 3d 4c f4 b7 3d c9 23 94 3c eb 3d 64 3d
       0.043011405 0.08982143 0.01808347 0.055723112
000100 e3 ea f3 bc 0b b6 83 bd 76 b9 57 3d 31 2c 90 3d
       -0.029775089 -0.06431206 0.052667104 0.07039679
000110 c5 4f a4 3d 44 38 cf 3a cd 54 3f bc 95 4d ca 3c
       0.08023027 0.0015809615 -0.011677933 0.024695197
000120 df 28 92 bd 6c 89 1d bd 45 fa a8 3d 50 3c b1 bd
       -0.07136702 -0.038461134 0.0825086 -0.08654082
000130 f4 ad 85 bd cd e6 a9 3d 32 ff 26 bd d2 dd 41 bc
       -0.065273196 0.08295975 -0.040770717 -0.011832671
000140 7c de 84 bd 09 ae 89 3d 86 43 a5 3c b0 66 55 bd
       -0.06487748 0.06722648 0.0201738 -0.052099884
000150 85 99 a0 3c f7 42 78 3d 57 f9 a4 3d 46 15 a7 bd
       0.019604454 0.060610738 0.0805537 -0.081583545
000160 31 d4 27 3d f2 65 ac bc 23 97 8f 3d 15 02 8d bc
       0.040973846 -0.021044705 0.07011249 -0.017212907
000170 8e 00 0f bd 00 29 3a 3d 03 00 f6 bb 8e 20 26 bc
       -0.03491264 0.045449257 -0.0075073256 -0.010139598
000180 c8 32 86 bc 98 ca 84 3d 13 3d db ba c3 22 42 3d
       -0.016381636 0.06483954 -0.0016726576 0.047396433
000190 48 a8 ed 3c bb 35 a5 bd ff cd 5e bd d6 5d 83 bd
       0.029010907 -0.08066889 -0.054395672 -0.06414382
0001a0 7a f5 d3 b8 f5 9e 82 bd 51 85 6c bd 26 12 2c 3d
       -0.000101069876 -0.06377975 -0.057744328 0.042009495
0001b0 7a 16 22 3d 3b 48 31 3d 44 4f 51 bc b7 68 3a bd
       0.039572217 0.043281775 -0.012775246 -0.04551002
0001c0 57 f3 b3 3d 9f e6 a2 bd 2f 83 97 3d 07 21 55 3d
       0.08786648 -0.07954144 0.07398068 0.05203345
0001d0 ed eb b9 3c 63 79 9a bd 92 c5 22 bd c1 f0 18 bc
       0.022695506 -0.07542684 -0.0397392 -0.009334744
0001e0 fc dd 66 bd d2 69 6d bd 53 3d 03 bd fa d5 1e bd
       -0.056364045 -0.057962246 -0.032040905 -0.038778283
0001f0 8e 5e df 3c f5 53 b7 3d f0 12 70 bd e3 a7 e0 bc
       0.027266767 0.089515604 -0.05861181 -0.027423805
000200 4d 01 91 bd 08 ca 91 bc 2a 64 94 bd 7b ea 3a 3d
       -0.07080326 -0.017796531 -0.07245667 0.045633774
000210 38 d8 6c 3d 82 53 ad bd 6c 52 9d bd af b6 fb bc
       0.05782339 -0.084631935 -0.07681736 -0.030726759
000220 c2 2b 47 bd 05 2d 7b 3d cd 6e 85 bd 59 a2 97 3d
       -0.048625715 0.06132223 -0.06515274 0.07404012
000230 21 1e af bd 44 e9 75 3d 68 c1 ab bd 6c 17 6a bd
       -0.085506685 0.060036913 -0.08386499 -0.057151243
000240 64 8a f4 3a db 8c 71 bd 34 e4 63 bd 6d 34 8d bd
       0.0018656966 -0.05897222 -0.055637553 -0.06894765
000250 ce fd 22 bd 46 76 82 3d 14 8f 35 bd 03 46 d7 3c
       -0.03979283 0.06370215 -0.044325903 0.026278501
000260 ef ec 96 3d c8 1d 2b 3c 2e 11 dd 3c 41 e9 8a bd
       0.0736941 0.010444112 0.026985731 -0.06782771
000270 a7 88 f5 3c 2d 88 f0 3c 47 66 5d bd d5 10 ba bd
       0.029972387 0.029361809 -0.054052617 -0.09085242
000280 85 96 df bc b9 7c a7 3d dc 05 f1 bc ca 57 b5 3c
       -0.027293453 0.08178086 -0.02942174 0.022136588
000290 f6 79 53 bc ef e2 96 3d c7 44 65 bd 69 cd 77 bb
       -0.012907496 0.07367503 -0.055973794 -0.0037811643
0002a0 00 46 6e 3d 51 7f 82 3c 39 6e 00 3b d0 dd 14 bd
       0.058172226 0.01592985 0.0019596948 -0.03634435
0002b0 d1 1c 23 3c 43 76 86 bd 1a 91 62 3d 37 76 b3 bc
       0.009955601 -0.065655254 0.05531416 -0.021906955
0002c0 bb 3d 68 3d a7 cb d2 3c 54 a2 be bb d7 b6 5c bd
       0.056699496 0.025731875 -0.005817691 -0.053885307
0002d0 50 da ae 3d 46 79 01 3a ee a4 18 3b a3 97 8b bd
       0.085377336 0.00049390306 0.0023291665 -0.06816032
0002e0 3a 25 d1 bc f5 8b ea 3c 52 d2 9d 3d f8 24 21 3d
       -0.025530446 0.02863119 0.07706131 0.039341897
0002f0 b9 da 5f 3d cd c3 93 3d 3b aa 83 3d 2c 1d 9a 3d
       0.05465195 0.072150804 0.06428953 0.07525095
000300 1f 79 92 3d d7 88 51 bd a8 98 af bc 3d c8 1e bd
       0.07152008 -0.05115589 -0.021435097 -0.03876518
000310 8d ec 62 3d d9 4a 90 3d 03 91 04 3d 26 62 24 bd
       0.055401374 0.07045526 0.032364856 -0.040132664
000320 81 e4 ad 3c 73 ce 85 bd 56 2a 9b bd 0a d6 ae 3c
       0.021227123 -0.06533518 -0.07576434 0.021342296
000330 85 cf 46 3d 4f bc 65 bd bf 67 ba bd 91 e7 8a bd
       0.04853775 -0.05608779 -0.09101819 -0.06782449
000340 50 14 07 bd 91 31 0c bd 73 0f c5 bb e8 6e 83 3d
       -0.032978356 -0.034226958 -0.0060138046 0.06417638
000350 3e 47 3b 3d 27 d0 d1 bc 44 5a 0e 3c f5 44 cc 3b
       0.04572224 -0.02561195 0.008688513 0.0062338063
000360 c6 62 a1 bd b6 5f 08 bd 66 1f 80 3d fc d6 09 3b
       -0.07880168 -0.033294402 0.06255989 0.0021032682
000370 6b 9e 84 bd 29 f4 a4 3d 6a c4 81 bc 83 fa 17 bd
       -0.06475528 0.08054382 -0.015840728 -0.03710414
000380 3a 64 a0 3d e6 06 9f bd d3 88 1a bb 75 5f 85 3d
       0.07831617 -0.07764988 -0.0023580089 0.065123476
000390 94 97 43 3d a5 99 b9 bc c2 27 ac 3d 12 76 22 3d
       0.047751978 -0.022656271 0.08406021 0.039663382
0003a0 1a bf bc bb 9e 26 34 bd 96 a3 b3 bd db 9f 98 bd
       -0.005760086 -0.04398214 -0.08771436 -0.07452365
0003b0 47 31 02 bc 03 dd 5a 3d 40 f5 f4 bc 28 cd 44 3d
       -0.007946319 0.05343343 -0.0299021 0.048047215
0003c0 f7 8a 73 3d 79 09 a1 3c 85 bf 5d 3c be ea ae bc
       0.0594587 0.019657837 0.013534431 -0.021352168
0003d0 9d 3a 16 3d bb fb 07 bc 53 48 87 3d e2 dd 93 bd
       0.03667699 -0.008299763 0.066055916 -0.07220055
0003e0 d1 0e 4a bd 82 fa 10 3d 39 0d 91 bc c2 b3 5b bd
       -0.049330536 0.035395153 -0.0177065 -0.053638227
0003f0 1d 0c 4a bc 37 75 5a 3d d1 78 a7 3d e1 0a a4 3d
       -0.01233199 0.05333444 0.08177341 0.080098875

encoder.feature_extract.mlps.0.linears.1.bias f4 [128]
000000 f6 0d 2e bd 59 f1 13 bd 32 b9 96 bd 18 23 9a bd
       -0.042493783 -0.03611884 -0.07359542 -0.07526225
000010 b9 58 33 3c b6 4a 5f ba d2 f4 66 bd 95 21 5e 3d
       0.010946446 -0.00085179077 -0.056385823 0.054231245
000020 62 ac 8d 3d 34 ec 5c 3d d6 43 7f 3d 69 47 28 3c
       0.06917645 0.0539362 0.062320553 0.010270932
000030 a4 69 d6 bc 81 da 0d bd 50 36 8e bd 85 dc 96 3d
       -0.02617342 -0.03463221 -0.06943953 0.073662795
000040 f2 7e 8f bd 5b b0 03 bc 1c cc 3b 3d 12 28 8b 3d
       -0.07006635 -0.008037652 0.04584895 0.06794752
000050 07 b4 46 3c 47 bc 85 3d 6e db aa 3d e7 79 87 3d
       0.012127883 0.06530052 0.08342634 0.06615048
000060 15 5e 79 3d d8 9a 24 bd a0 9c 82 bd a5 b5 7c bd
       0.06088074 -0.040186733 -0.0637753 -0.061696667
000070 48 25 79 3d b9 9d 49 bd 2b b6 a8 3d d9 52 88 bd
       0.06082657 -0.04922268 0.08237871 -0.06656427
000080 73 c2 50 3d 85 7c aa bd c5 3c a1 3d 00 62 06 bd
       0.05096669 -0.083245315 0.07872919 -0.032808304
000090 67 c9 91 3d d7 00 9e bd 74 d1 ae 3d da d6 0e 3d
       0.071184926 -0.07715004 0.08536044 0.034872867
0000a0 df e3 cc 3c 3a 73 0f bd c3 da 90 3d ce 89 8a 3d
       0.025011001 -0.035021998 0.070729755 0.067645654
0000b0 79 d7 1d bd 8a 16 b4 3d ab d2 6a 3c 08 3a 4e bd
       -0.03853557 0.087933615 0.014332454 -0.05034831
0000c0 4b 54 64 3d db 13 bb bd 05 c7 ab 3d 31 13 42 bd
       0.05574445 -0.091346465 0.08387569 -0.047381584
0000d0 62 cf a1 3d 75 17 93 3d 51 5f ad 3d 8e eb b6 3d
       0.07900883 0.071822084 0.08465446 0.08931647
0000e0 c3 6d 04 3d 17 7b b7 3d 85 a4 a4 bb 88 20 8e 3d
       0.03233124 0.089590244 -0.005024495 0.069397986
0000f0 47 6f 3f 3d b5 e7 80 3d 40 75 8d 3d 36 3f 41 bd
       0.04673698 0.062941946 0.06907129 -0.047179423
000100 04 b7 14 bd 64 32 0d bd 1c cd 7e 3d 9a 5e 4e bd
       -0.03630735 -0.034471884 0.062207326 -0.050383188
000110 1c b6 4d 3d 10 fc 57 3d 42 69 9f bd 59 45 1a bc
       0.0502225 0.05273062 -0.07783748 -0.009415948
000120 d6 a7 37 bd 92 e9 3b bd 55 3b ab 3d 8f 94 56 bd
       -0.044837795 -0.045877047 0.08360926 -0.05238777
000130 c9 0d 6a 3c d7 14 87 bc 3a 55 37 bb b6 fa 97 bd
       0.014285513 -0.01648943 -0.0027974383 -0.07420866
000140 c3 e8 7d 3d 7c 63 03 3d d9 df 7c 3d 95 2f ab 3d
       0.061989557 0.032077298 0.061736915 0.08358685
000150 d9 12 aa bc 4b 30 3a bc 05 86 74 bc 55 96 9d ba
       -0.02076094 -0.011364053 -0.014924531 -0.0012022952
000160 f4 70 18 3d d6 96 96 3c 43 65 b8 3d 30 b8 5c bd
       0.037217095 0.018382471 0.09003689 -0.053886592
000170 de d2 b9 bc a9 95 4e bb 5f af 89 3d d9 b5 b7 bd
       -0.022683557 -0.003152231 0.067229025 -0.089702316
000180 65 6b b0 3c 29 54 ae 3d 26 89 af bc 53 d9 19 bd
       0.021535585 0.08512146 -0.021427702 -0.037560772
000190 29 7e a9 bd 3d ae 16 bc 1c ce 34 3c 03 f4 95 3a
       -0.08276016 -0.009196815 0.011035468 0.0011440519
0001a0 c4 7c 2d 3d 47 3a 85 bd b6 42 0c 3c 96 26 9a bc
       0.042355314 -0.06505256 0.008560827 -0.018817227
0001b0 a7 19 95 3d 06 04 79 bd 52 76 4f bd 87 ab 90 3d
       0.072802834 -0.060794853 -0.05064995 0.07063966
0001c0 7b fc 94 bb 4b 08 77 bc 2f c3 ce bc 8b f6 af bb
       -0.0045466996 -0.015077661 -0.025239555 -0.0053699664
0001d0 b0 7f 26 bd 40 5f 7a 3d 2a d8 a5 bd 08 da 8f 3c
       -0.040649116 0.061125994 -0.08097871 0.01756002
0001e0 21 e1 aa bd 77 f0 89 bd d3 00 bd bb 6c 87 d7 bb
       -0.08343721 -0.06735318 -0.0057679205 -0.006577423
0001f0 7c 8f ae 3d 18 8d 8b 3c 33 97 83 bd 23 b2 8e 3c
       0.08523461 0.017035052 -0.06425323 0.017418927

encoder.feature_extract.mlps.0.linears.2.weight f4 [128, 128]
000000 63 49 72 bd eb ec 65 bd f6 23 a3 bc c1 09 92 3c
       -0.05915202 -0.056134146 -0.019914608 0.017826917
000010 60 6a d0 bb 12 26 a1 bc 9c 83 29 3d 38 09 32 3d
       -0.006360337 -0.019671474 0.041385278 0.043465823
000020 a8 95 71 3d 1a 58 81 bd 6a ea 16 bd 69 dd e2 bc
       0.058980614 -0.06315632 -0.03684465 -0.027693467
000030 f6 59 ce bb d9 20 b5 3d 4e d0 4c 3d 6b f7 81 3c
       -0.0062973453 0.08844156 0.050003342 0.015865048
000040 b1 80 0c bd 53 a6 9e bd 8d 21 82 bd 5e c7 d1 bb
       -0.034302417 -0.077465676 -0.063540556 -0.0064019402
000050 0b 9c b9 3c 90 a1 5a bd cb d8 de bc 48 84 05 3d
       0.022657415 -0.053376734 -0.027202984 0.032596856
000060 6d 14 42 bd 0b 39 8b 3d aa 21 7a 3d 89 a7 c3 b9
       -0.04738276 0.067979895 0.06106726 -0.00037318122
000070 e2 7f 64 bd 0d 35 96 3d 0c 9a a4 bd d8 8b 2f 3d
       -0.05578602 0.073343374 -0.080371946 0.042857975
000080 bc 84 ab bd 29 58 44 bc 33 97 85 bd 29 de 87 bc
       -0.083749264 -0.01198391 -0.065229796 -0.016585426
000090 fd b8 af 3d e1 88 94 bc 57 74 b9 3d 52 7b 7c 3d
       0.085802056 -0.018131675 0.09055393 0.061641045
0000a0 f3 a4 6d bd 5f 16 af ba df f8 46 3d d5 67 0a bd
       -0.058018636 -0.0013358108 0.048577186 -0.03379043
0000b0 c4 58 79 bd 6f f2 09 bd 26 3d ac 3d 59 a2 4f 3c
       -0.06087567 -0.03367847 0.08410101 0.012672984
0000c0 95 7a 18 3c 91 fb 18 bd 55 ca 59 bd ed 2c 52 bd
       0.00930657 -0.037349287 -0.053171474 -0.051312376
0000d0 e1 d7 3a bd 7d 22 08 bc 99 44 98 3b f2 97 1b 3d
       -0.045616034 -0.008309004 0.0046468494 0.037986703
0000e0 79 10 9d 3d 2d 2d 5c bd 7b 4f 5c bd d9 c7 0e 3d
       0.076691575 -0.05375402 -0.053786736 0.03485856
0000f0 93 33 9c bd e2 15 be 3d 35 fc f2 bc 18 50 8c 3d
       -0.076270245 0.092815176 -0.029661277 0.06851214
000100 6f fa 8b bd ce 2b 24 3d 8d 12 1c bb 9f 33 42 3d
       -0.06834876 0.040080838 -0.0023814768 0.04741251
000110 3c e9 63 3d 57 9d 61 bc cb 35 1b bd 5a 72 92 bd
       0.05564235 -0.013770423 -0.037893098 -0.07150717
000120 20 de 8c 3c 7b 0e 8f 3b a6 39 9a ba 92 3f a7 3b
       0.017195761 0.00436574 -0.0011766448 0.0051040137
000130 f2 92 84 3d 56 f7 09 bd 7f 08 98 bd f8 08 9f 3d
       0.0647334 -0.033683144 -0.074234955 0.077653825
000140 c8 ee 73 bd df 0e 83 3d e5 80 ab 3c bf 2e f1 3c
       -0.05955389 0.06399321 0.020935485 0.029441236
000150 94 03 2d 3d 56 cc 32 3c 3a 69 b9 bc 54 1d 18 3d
       0.04223974 0.010912975 -0.022633184 0.037137344
000160 bc f2 a0 3d 51 95 05 3d 4b 83 03 3d 16 13 79 3d
       0.07858798 0.032613102 0.032107633 0.060809217
000170 25 7c fe 3c 56 39 41 bd 45 5f 07 bd 7f e0 9f bc
       0.031065056 -0.04717382 -0.03304984 -0.019516228
000180 91 82 c7 bc 73 6d 08 bd b4 a6 39 3c 6f 56 06 3d
       -0.024354251 -0.033307504 0.011331249 0.032797273
000190 67 91 19 3d 25 76 eb bb 43 a3 81 bd cd e8 40 3d
       0.037492182 -0.007185715 -0.06329968 0.047097016
0001a0 25 71 3b 3d ec 9b 82 bc 0c 2c 95 3c 99 22 8f 3d
       0.0457622 -0.01594349 0.01820948 0.06989021
0001b0 e1 b9 98 3c 42 8f 32 3d e5 b1 e2 bc aa 2e 85 3b
       0.018643321 0.043593653 -0.027672717 0.0040644007
0001c0 9c 57 4d bd ff 46 3b bd 03 82 4c bd 4f 92 71 bd
       -0.05013238 -0.045722004 -0.049928676 -0.05897742
0001d0 a1 d3 49 3d 8b 47 6f bd b3 91 81 bd cf 1f 97 3d
       0.04927409 -0.058417838 -0.06326618 0.07379114
0001e0 e5 d2 2f 3c d0 52 3a 3c d1 e1 9b bd 63 f5 6e 3d
       0.0107314335 0.011372283 -0.076114304 0.058339488
0001f0 1f 85 a0 3c b5 f6 d0 bc 9c ce 21 bc 13 1a a0 3d
       0.019594727 -0.025508264 -0.00987592 0.07817473
000200 85 00 9a 3a 84 e4 c9 3c e1 55 96 3d 8e ab 6c bd
       0.0011749422 0.024645098 0.07340599 -0.057780795
000210 1a 00 9d 3d 87 2b 08 bd a1 f1 24 bc 65 c0 a7 bb
       0.07666035 -0.033244636 -0.010067374 -0.0051193708
000220 d2 1d 59 3c c9 75 97 3b ad b6 5d 3a 16 a2 60 bd
       0.013251739 0.0046221954 0.0008457702 -0.054842077
000230 26 f0 61 bd 43 a4 3b bd 41 8d e8 bc 9a d7 9b 3d
       -0.055160664 -0.04581095 -0.028387668 0.07609482
000240 f8 22 5b 3b 35 f9 3a 3a 47 5d 00 bc bb e5 b1 bd
       0.003343759 0.00071324717 -0.007834739 -0.08686396
000250 83 38 fa 3b 04 05 86 bd a1 4b 60 3d 1f 03 47 3d
       0.0076361313 -0.065439254 0.054759625 0.04858696
000260 b6 d8 b0 3d 17 3f 93 bd ce 28 12 bc 7a 02 89 bd
       0.08635084 -0.07189768 -0.008920861 -0.066899255
000270 b0 bb 87 3d fe f9 0c 3d 2c e2 87 3d d8 18 16 3c
       0.066275954 0.0344181 0.06634936 0.009161197
000280 c9 57 be b7 9f 46 21 bd 56 77 78 bc 0f a2 0b bd
       -2.2690643e-05 -0.03937399 -0.015165171 -0.034090098
000290 5f c2 a5 3d e8 4e ba bd fd 9a 98 3c c5 9b 8c 3d
       0.08093714 -0.090970814 0.018628592 0.06865648
0002a0 07 64 bc bc 92 6d 84 bd e6 b7 6d 3d 90 9d 3a bd
       -0.022996916 -0.064662114 0.058036707 -0.04556042
0002b0 61 00 93 bd 77 37 08 3d 21 30 9a 3d 67 86 0b 3d
       -0.07177807 0.03325602 0.07528711 0.034063723
0002c0 52 78 39 3d 1d f6 b9 3d 2d e1 d2 3c 85 17 fc 3c
       0.045280762 0.090801455 0.025742138 0.030772934
0002d0 7a f7 7b bd 89 88 cd 3c 57 40 66 bd 69 7f 91 bc
       -0.06151531 0.02508952 -0.056213703 -0.01776095
0002e0 62 50 9d 3b 36 7b a8 3c 8c 44 e4 3c 9e 3d 39 bc
       0.004800842 0.020566564 0.027864717 -0.011306195
0002f0 6e b8 ac ba ff 78 9b bd b3 fe f4 3c 0f 22 7e bd
       -0.0013177523 -0.075914375 0.029906606 -0.0620442
000300 ea 48 1b 3d 81 2d e8 bb 16 4a ed bc 9c 72 b3 bd
       0.037911333 -0.0070855026 -0.028965991 -0.087620944
000310 28 e4 3b bd 05 ee eb bc 3d 01 35 bd d1 c9 9e 3c
       -0.045871884 -0.02880002 -0.044190634 0.019383343
000320 1a de f7 bc 27 5a 83 bd 18 27 27 3d 86 7d 8c bd
       -0.030257273 -0.064136796 0.040808767 -0.06859879
000330 ae 32 70 bd 2d 7e 01 bd ca a0 99 3d 52 94 c4 3c
       -0.058642082 -0.03161447 0.07501371 0.023996506
000340 de cb 37 3d e0 5b 0d 3c 86 0f 5b bd db a1 35 bd
       0.044872157 0.008627862 -0.0534816 -0.04434381
000350 d9 d2 1b 3c 1f 2f 41 bb 95 08 94 3d 98 dd 97 bc
       0.009510719 -0.002947755 0.072281994 -0.018538281
000360 f9 3d a4 bd 7e 1b 97 bd af b5 a2 bd 4e e8 57 bd
       -0.08019633 -0.073782906 -0.0794481 -0.052711777
000370 90 da b0 bd 1a 96 4f 3d ac f4 24 3b 75 5c 96 bc
       -0.086354375 0.050680257 0.002517025 -0.018354634
000380 79 0d 6e 3d fb e7 99 3d 59 02 61 3d 99 6e 82 3d
       0.058118317 0.0751495 0.05493388 0.06368751
000390 33 cc 43 3b 62 a6 db 3c 09 9a 02 3c fe 71 ef bc
       0.002987635 0.026812736 0.007971295 -0.02922916
0003a0 c7 47 1c 3d 35 53 77 3d 0f e3 a7 bc ca 4c 4f bd
       0.03815439 0.060382087 -0.020494012 -0.05061034
0003b0 5d 23 99 bd c2 32 b5 3d 1f b3 bb 3b 27 ca 09 3d
       -0.07477448 0.08847572 0.00572814 0.033640053
0003c0 71 db aa 3d 92 51 a8 3d 00 21 46 bd df e9 02 bc
       0.083426364 0.08218683 -0.048371315 -0.0079903295
0003d0 b1 96 a9 bd a3 00 71 bd 9a 0c 92 3b cf e9 c0 bc
       -0.08280695 -0.058838498 0.0044570686 -0.023548989
0003e0 2a 73 49 3d 7f 24 15 bd 07 f3 4c bd de 76 9f 3c
       0.049182095 -0.03641176 -0.050036456 0.01946586
0003f0 00 87 57 3d b6 2c 2a 3b d8 e2 6d bd 22 8a 37 3c
       0.05261898 0.0025966591 -0.058077663 0.011202367

encoder.feature_extract.mlps.0.linears.2.bias f4 [128]
000000 f2 39 97 3d e6 ae 76 3d 84 2e d8 bc 21 24 8e bd
       0.07384099 0.06022539 -0.026389368 -0.06940485
000010 b8 ef 98 3d d3 13 9e bd c1 71 82 3d 10 86 a8 3d
       0.07467598 -0.07718625 0.06369353 0.082286954
000020 f7 0a f8 39 0a c0 94 3d 9a f3 97 3d 0a 05 22 bd
       0.00047310416 0.07263191 0.0741951 -0.039555587
000030 70 39 9f bd c9 63 17 bc e7 9d 88 3d 05 36 a8 bc
       -0.07774627 -0.009240099 0.066707425 -0.020533571
000040 9e f0 39 bd ae f6 19 bd f6 08 9c bd 8c e6 33 bc
       -0.045395486 -0.037588768 -0.07618897 -0.01098026
000050 d8 0c a3 bd 05 61 44 3c 8c ee 2f bc 08 c9 a7 bd
       -0.07961434 0.011986022 -0.010738026 -0.081926405
000060 f2 a0 47 bd 47 dd 91 3d 94 27 3c 3d 81 06 60 bd
       -0.048737474 0.071222834 0.045936182 -0.054693703
000070 3e ce b5 bd 32 48 e0 3b 67 e0 a9 bd 06 f1 31 bd
       -0.08877228 0.006844544 -0.082947545 -0.04344275
000080 d8 a7 81 3c 0f 9c 81 3d 27 6f fb bc fc 0a 0c bd
       0.015827104 0.06328594 -0.03069265 -0.034190163
000090 fd c7 1d bd c3 e0 9b bc 33 12 e1 3c d0 9a 89 bd
       -0.0385208 -0.019028073 0.027474498 -0.06718981
0000a0 94 e8 a4 bd bf bf 45 3c 76 91 48 bd cb 92 60 3d
       -0.08052173 0.012069642 -0.048966847 0.054827493
0000b0 90 3d 99 bd f3 d6 6c bd 06 33 ad bc 50 c9 80 3c
       -0.07482445 -0.05782218 -0.021142494 0.015720993
0000c0 29 8e b7 bd c9 12 0b 3d 01 f0 b2 bd ad 31 3e bd
       -0.08962662 0.03395346 -0.08737183 -0.046434093
0000d0 59 f2 29 3d ad b3 9c 3d ce 5b af 3d 11 df 8c 3c
       0.041490886 0.07651458 0.08562432 0.01719621
0000e0 82 ff 51 bd 16 cd 35 bd 03 72 dc 3c 5b e3 24 3d
       -0.051269062 -0.04438504 0.026909834 0.040255886
0000f0 13 1a 57 3c 4c 05 53 bd c0 0c 47 bd 93 ad 83 bd
       0.013128775 -0.051518723 -0.048596144 -0.06429591
000100 34 f8 31 bd 46 97 b8 bd a8 72 22 3d f0 3c 3c 3d
       -0.043449596 -0.09013228 0.039660126 0.045956552
000110 6d 10 ee 3b 47 32 ee 3c bf 51 92 bc d9 aa 1d 3c
       0.0072651417 0.029076708 -0.017861245 0.009623253
000120 cc cd 00 bd 5f fb de bc f3 10 30 3d 96 c1 86 3d
       -0.031446263 -0.027219472 0.042984914 0.06579892
000130 15 08 5c 3c bf 8f f0 3c b3 54 85 bb 79 08 19 bd
       0.013429661 0.029365418 -0.004068935 -0.037361596
000140 bd f6 04 bd 35 86 52 3d ef 9c a8 bd 56 d9 86 bd
       -0.03246187 0.05139752 -0.08233058 -0.06584422
000150 81 df 72 3d 34 ec 96 bd 8d b3 2b bd c4 b1 a1 bd
       0.05929518 -0.07369271 -0.04191928 -0.07895234
000160 9f 15 c6 bc 7a 1a 31 bd 78 19 64 bc 0e 8d e8 3c
       -0.024180232 -0.04323814 -0.013922088 0.028387573
000170 77 74 12 3d ab 7b 5f b9 db 83 41 3d 75 75 bf 3c
       0.0357556 -0.00021313007 0.047244888 0.023371438
000180 9d 17 53 3d 5e 6b 8f bd 6c 72 9e 3d 11 4f 5a bd
       0.05153619 -0.070029005 0.07736668 -0.05329806
000190 26 d3 2c bd ed 99 50 3b 21 01 de 3c 58 5d 8b bd
       -0.042193554 0.0031830028 0.027100148 -0.06804913
0001a0 ec ea 80 bd c8 9a 81 3d dc af 8f bd c5 93 1b bc
       -0.06294808 0.0632835 -0.070159644 -0.00949568
0001b0 24 b4 6d bd fd 0d a7 bd 37 d4 9d 3d 24 e3 2e 3d
       -0.058033124 -0.08156965 0.077064924 0.042697087
0001c0 8b c1 1b 3d 60 0d 0f 3d ee 61 fc 3b 81 64 ff bb
       0.038026374 0.034924865 0.007702104 -0.0077939634
0001d0 c6 4e 78 3d 86 02 f6 bb e3 95 a4 3d 83 cb d5 bb
       0.060622 -0.007507625 0.08036401 -0.0065245046
0001e0 a3 ae 80 3c 04 ac bc bc e9 19 31 3d 77 b1 25 3d
       0.015708273 -0.023031242 0.0432376 0.040452447
0001f0 58 22 60 3d 6d 4c 2b 3d 96 eb 94 3c 70 04 8e bd
       0.054720253 0.041820932 0.018178742 -0.0693444

encoder.feature_extract.mlps.0.batch_norms.0.weight f4 [128]
000000 fd 6d 7f 3f 7f da 7f 3f 62 f9 7e 3f 75 3f 7f 3f
       0.99777204 0.99942774 0.9959928 0.997062
000010 94 d5 7f 3f b4 3e 80 3f b0 67 80 3f 44 2b 7f 3f
       0.9993527 1.0019135 1.0031643 0.99675393
000020 1a 36 80 3f 69 33 80 3f 14 62 7e 3f 53 e0 7e 3f
       1.001651 1.0015689 0.99368405 0.9956104
000030 31 5c 80 3f 29 fc 7e 3f 8b 38 80 3f fd 6f 7f 3f
       1.0028135 0.99603516 1.0017256 0.99780256
000040 b4 42 7f 3f 8d 93 7f 3f f7 67 7f 3f cf 72 80 3f
       0.99711156 0.9983452 0.9976801 1.0035037
000050 8c 63 7f 3f c8 4e 80 3f 7a 92 7f 3f 2a eb 7e 3f
       0.9976127 1.0024042 0.9983288 0.9957758
000060 0e c4 80 3f 69 3f 80 3f 5b 08 80 3f c8 b7 7f 3f
       1.0059831 1.0019351 1.000255 0.998898
000070 af fe 7f 3f b7 8a 7e 3f 0a cf 80 3f ed 01 80 3f
       0.9999799 0.9943041 1.0063183 1.0000588
000080 48 f0 7f 3f 0c d9 7f 3f 17 1f 80 3f f0 74 80 3f
       0.99976015 0.9994056 1.0009488 1.0035686
000090 46 71 80 3f 7c 78 80 3f 09 94 7f 3f 36 51 80 3f
       1.0034568 1.0036769 0.9983526 1.0024784
0000a0 98 d8 7f 3f d1 32 7f 3f 9d e9 7f 3f 07 6d 7f 3f
       0.9993987 0.99686915 0.9996584 0.9977574
0000b0 04 5e 80 3f 8b 24 80 3f 7a 78 7f 3f 98 d5 7f 3f
       1.0028691 1.0011152 0.9979321 0.99935293
0000c0 88 14 80 3f a4 58 80 3f 57 84 7f 3f e8 63 7e 3f
       1.0006266 1.0027051 0.9981131 0.99371195
0000d0 6c 67 7e 3f d8 5a 80 3f f8 f4 7e 3f 5f a4 7f 3f
       0.9937656 1.0027723 0.9959254 0.99860185
0000e0 de ba 80 3f 38 30 80 3f 1d 10 7f 3f fa f2 7f 3f
       1.0057027 1.0014715 0.9963396 0.9998013
0000f0 91 1a 7f 3f b9 64 80 3f b3 05 80 3f d8 4c 7f 3f
       0.9964991 1.0030738 1.0001739 0.9972663
000100 38 2c 7f 3f 97 49 7e 3f 20 60 80 3f 51 3d 80 3f
       0.9967685 0.9933104 1.0029335 1.0018712
000110 19 00 80 3f bf 01 80 3f b4 ee 80 3f 00 ca 80 3f
       1.000003 1.0000533 1.0072846 1.0061646
000120 30 f9 7e 3f 70 85 7e 3f 30 09 7f 3f df 5e 80 3f
       0.9959898 0.9942236 0.99623394 1.0028952
000130 54 45 7f 3f 5f ac 7f 3f 8c 81 80 3f 9e 93 7e 3f
       0.9971516 0.9987239 1.0039535 0.99443996
000140 50 bf 80 3f 11 7f 80 3f aa 6f 7e 3f 29 a9 80 3f
       1.0058384 1.0038778 0.99389136 1.0051624
000150 f0 92 80 3f 68 94 80 3f f3 60 80 3f ca 88 7e 3f
       1.0044842 1.004529 1.0029587 0.99427474
000160 d2 a7 7f 3f 79 49 80 3f 2c 60 80 3f e3 0f 7f 3f
       0.9986545 1.0022422 1.0029349 0.99633616
000170 66 86 7f 3f 22 73 7e 3f 95 a7 80 3f 20 68 7f 3f
       0.9981445 0.9939443 1.0051142 0.9976826
000180 e5 fc 7d 3f 59 dd 80 3f d8 eb 7f 3f 7f 4e 80 3f
       0.9921401 1.006755 0.99969244 1.0023955
000190 29 27 7f 3f e5 ad 7e 3f b5 cf 80 3f a4 3b 80 3f
       0.9966913 0.9948409 1.0063387 1.0018201
0001a0 6f ad 80 3f de 90 80 3f df 75 7f 3f 0f 2f 80 3f
       1.0052928 1.004421 0.9978923 1.0014361
0001b0 5f 17 80 3f 10 d2 7e 3f 07 d9 80 3f 9f 75 80 3f
       1.0007132 0.9953928 1.0066231 1.0035895
0001c0 c7 c1 7f 3f 6c 56 80 3f 66 3f 80 3f 32 b9 7f 3f
       0.99905056 1.0026374 1.0019348 0.9989196
0001d0 d8 ae 80 3f e8 db 7e 3f ee ec 7f 3f 58 aa 7f 3f
       1.0053358 0.995543 0.999709 0.998693
0001e0 f7 2b 80 3f d1 b2 80 3f f9 f9 7f 3f 27 27 80 3f
       1.0013417 1.005457 0.99990803 1.0011948
0001f0 d7 e7 80 3f cf 1d 7f 3f 2b 53 7f 3f f2 29 80 3f
       1.0070752 0.9965486 0.9973628 1.0012801

encoder.feature_extract.mlps.0.batch_norms.0.bias f4 [128]
000000 1b 90 a1 3b 42 36 bc bb bd c8 04 bc df a0 32 ba
       0.004930509 -0.0057437727 -0.0081045 -0.0006814133
000010 fa 49 88 ba 3c 52 b4 bb 52 fc 7b 3b 60 32 7e 3b
       -0.0010398023 -0.005502967 0.0038449955 0.003878735
000020 08 22 03 3c f1 9b e1 3b 99 4e a8 3a 5b 16 3e 39
       0.008003719 0.0068850447 0.0012840807 0.0001812814
000030 40 e4 4e 3a 27 54 66 bb 9c bb 99 3b 7a cb e3 3a
       0.0007892288 -0.0035145374 0.0046915542 0.0017379366
000040 7d fa a2 bb 37 bf 9c 3a a9 0f 87 ba 67 a9 8f 3a
       -0.004973708 0.0011958842 -0.001030435 0.001096052
000050 cb 6a 8a bb 9e 0c 89 bb ee be 96 bb bd a7 0b bb
       -0.0042241565 -0.0041824123 -0.0046003973 -0.0021309697
000060 c3 01 b4 3b d3 e3 a8 b9 4f 72 29 3b ab 31 33 bb
       0.005493374 -0.000322132 0.0025855487 -0.0027342837
000070 a8 d3 25 ba df a2 a4 bb 4c 7b 80 3b 8e a8 47 3b
       -0.000632579 -0.0050242986 0.003920948 0.0030465457
000080 8e a8 a9 bb 84 4c b8 39 2e 01 74 3b eb 0e ac 3b
       -0.005177564 0.00035152223 0.0037232148 0.005250802
000090 29 9b 85 bb 7c f6 7d bb 9c 87 50 3b f6 29 d5 3a
       -0.0040773344 -0.0038751652 0.003181911 0.0016263116
0000a0 12 3e bd 3b 71 24 99 ba a2 6d 51 bb 13 19 e9 bb
       0.0057752216 -0.0011683834 -0.0031956215 -0.007113585
0000b0 e9 ee d2 3a 03 f0 64 ba e2 3c 9a bb f8 ff 06 bb
       0.0016092929 -0.00087332743 -0.004706965 -0.0020599347
0000c0 26 26 c5 b8 64 8e 46 bb 5c 83 d5 ba 86 5e d6 3a
       -9.400798e-05 -0.0030297274 -0.0016289758 0.0016355074
0000d0 a5 09 14 bc b0 91 27 3b 89 68 19 bb 95 0e dd ba
       -0.009035503 0.0025569014 -0.0023408255 -0.0016865308
0000e0 38 8d 92 3a 94 b6 31 3b c3 c9 62 bb 8c a1 f3 ba
       0.0011181002 0.0027116882 -0.0034605123 -0.0018587573
0000f0 6e 76 06 bb ff d0 08 3b a4 26 ae b9 c8 c9 ad bb
       -0.0020517367 0.0020876525 -0.00033216656 -0.005303595
000100 09 a6 21 3b 62 00 49 ba a6 01 84 3b 65 0e b3 bb
       0.0024665615 -0.00076675985 0.004028517 -0.0054643624
000110 ac ec 9b 3a 6e 5e 21 3b a3 2b ee 3b 1d 61 1c 3c
       0.0011896095 0.0024622935 0.0072683855 0.009544638
000120 df 7e 60 bb 71 55 61 bb 56 6c 85 ba e4 e7 e2 3a
       -0.0034255309 -0.0034383202 -0.0010179381 0.001731154
000130 2b 2f fd ba da 4a c8 bb b9 74 0f bb f6 85 cd bb
       -0.0019316425 -0.0061124386 -0.002188964 -0.006272073
000140 83 fa 43 3b 72 a1 03 3b 9b 27 4a 3b 2a 82 0c 3c
       0.0029903955 0.0020085243 0.003084636 0.008575955
000150 a2 84 0b 3a 15 78 06 bb f8 e5 2b 3a 25 d4 a4 bb
       0.0005322193 -0.0020518352 0.00065574003 -0.0050301724
000160 f4 6d ba bb 87 b5 fb 39 68 5a 17 3c 7b c0 7c ba
       -0.005689377 0.000480097 0.009237863 -0.0009641719
000170 76 ed 3e bb b5 e1 69 bb 16 2d 15 3c f0 c4 82 3b
       -0.0029133237 -0.003568751 0.009104988 0.003990762
000180 c6 9f 41 bc 4f 35 e3 3b df 3b 0d 39 bc 96 86 3b
       -0.011817878 0.006933845 0.00013469112 0.0041073244
000190 4e 40 14 3a a6 ab 95 bb 16 c0 bf 3b 75 57 02 ba
       0.0005655334 -0.004567581 0.005851756 -0.00049721386
0001a0 ba 22 0e 3c 8c 29 73 3b ef 14 86 3a 8d 78 a4 3a
       0.008675272 0.0037103621 0.0010229627 0.0012548134
0001b0 ac a3 af bb eb 3f ca ba 31 5c 88 3a 38 39 d1 3b
       -0.0053600874 -0.0015430426 0.0010403452 0.006384995
0001c0 e6 cc dd 3b 0a 5f ea ba 15 f4 3c ba c4 8d d4 b9
       0.0067688106 -0.0017881107 -0.0007208002 -0.00040541415
0001d0 e6 d3 3f ba 06 a1 17 bb d1 a8 42 bb 53 1c a2 ba
       -0.0007317647 -0.002313675 -0.0029702673 -0.001236806
0001e0 84 61 19 3b 16 12 2a 3b 48 92 15 3b cb 08 e3 3a
       0.002340407 0.0025950721 0.0022822786 0.0017321346
0001f0 74 60 14 3b 44 2d 0f 3b f1 cd f0 bb 00 32 2e 3b
       0.0022640498 0.0021847049 -0.007348769 0.0026580095

encoder.feature_extract.mlps.0.batch_norms.0.running_mean f4 [128]
000000 95 40 0d 3f 58 83 1b be 81 cb 82 3f 97 be e3 3d
       0.5517667 -0.15186822 1.0218354 0.111203365
000010 25 17 e2 bd 74 24 db bd eb c2 ee be 5a 1b fa 3d
       -0.11039571 -0.10700312 -0.46633086 0.12212248
000020 e9 3d 58 3e 7e 90 02 3f 5a dd 5d 3e d0 a5 05 3f
       0.21117367 0.5100173 0.2166647 0.52206135
000030 7a f6 72 3d 7f 89 90 3f 4d 1b ed be 23 8e 30 be
       0.05931709 1.129196 -0.4630989 -0.17241721
000040 b1 b4 20 be f3 f9 ee be 02 1c c2 be 40 68 a1 bf
       -0.15693928 -0.4667507 -0.37911993 -1.260994
000050 37 da a7 3d 4f 05 35 3d 4b 93 73 be 67 82 5e bf
       0.08195918 0.044194516 -0.23786657 -0.8691773
000060 19 5f 06 3f 2a 29 63 bf e6 c2 1d bf 85 dd 10 bd
       0.5248886 -0.88734686 -0.61625516 -0.035367507
000070 fd b1 a1 3d 50 c7 28 bf 1a 5d fc 3e 23 4f 05 bf
       0.07895277 -0.65929127 0.4928978 -0.5207388
000080 a3 cb 97 bc 70 73 90 bd 67 aa a5 3e aa 4e 16 3f
       -0.018529719 -0.07053268 0.3235657 0.5871378
000090 4f 55 9c 3d 83 02 67 3c 8e 8d 72 be f2 f3 40 bf
       0.07633459 0.01409972 -0.23686811 -0.7537223
0000a0 2b 58 e0 3b 1f a8 75 3d 6d ec 64 bf 41 f3 ee 3e
       0.006846448 0.059974786 -0.8942326 0.46669963
0000b0 84 94 c3 bd c2 cd a5 be 78 aa 89 be 3a e8 45 3e
       -0.095498115 -0.32383543 -0.2688787 0.19326869
0000c0 15 03 1b 3f f8 08 22 bf ee 44 61 bd cf 98 56 bf
       0.6055158 -0.63294935 -0.054997377 -0.8382692
0000d0 65 c5 61 bf 93 85 47 bf 46 b1 0f 3f ec 19 5c 3e
       -0.88191825 -0.77938193 0.5612987 0.21494263
0000e0 b0 23 e3 3a 89 49 37 bc 36 a9 61 bf 6c 0c 55 bf
       0.0017329361 -0.011186966 -0.8814882 -0.8322208
0000f0 e1 8f 42 3e 90 ce cd be 89 a4 57 be 0b f0 89 3e
       0.19000198 -0.40196657 -0.21058859 0.2694095
000100 23 f6 92 be 49 61 2e bf ea 60 7d 3f d8 ab 0c 3f
       -0.28703412 -0.68117195 0.98976004 0.5494971
000110 11 9f 1a 3f 47 fa 9e 3b e0 e0 9d bf 22 b0 a8 3e
       0.60398966 0.0048516127 -1.2334251 0.3294688
000120 f1 f5 57 bf 33 d6 00 bf 49 bc ee 3c df 11 82 bf
       -0.8435965 -0.5032684 0.029142516 -1.0161704
000130 7e 05 42 3f 3e f4 2c 3f be ef 92 bc a2 a3 48 3f
       0.7578963 0.67560184 -0.017936584 0.78374684
000140 ad 9d 4d bf 7a 14 ec 3e fe d6 2f bf 15 2e 6c bc
       -0.8031872 0.46109372 -0.6868743 -0.014415284
000150 af b7 09 bf 8e 65 2c 3d 68 54 57 bf 46 ac a8 bd
       -0.53795904 0.042089038 -0.8411317 -0.082359836
000160 10 d5 04 bf fb 63 43 3f eb c7 9a bd 13 3e 73 3f
       -0.5188761 0.76324433 -0.075576626 0.9501659
000170 96 e7 15 bf b6 7d 64 3e 04 69 85 3e 90 98 11 bf
       -0.585565 0.2231358 0.26056683 -0.56873417
000180 8b 18 a7 3e cb 66 15 bf bd 8c 3c 3f b7 f8 3f 3e
       0.32635912 -0.58359975 0.7365225 0.18747221
000190 7f 7b fb be 47 ab 65 3f 15 f8 4e be c7 1c 84 bd
       -0.49117658 0.89714473 -0.20211823 -0.06450801
0001a0 b6 9e 0d bf 5c f3 a5 3d a8 6f af bc 7e 93 53 3f
       -0.553203 0.08103058 -0.021415547 0.8264693
0001b0 fc d8 ba be 6c a1 ca be 49 6a 21 bf c6 f4 77 bf
       -0.3649367 -0.3957628 -0.63052803 -0.9685787
0001c0 b8 f6 94 be 5a 42 88 3f 3d 41 96 3e df 46 53 3f
       -0.2909448 1.0645249 0.29346648 0.82530016
0001d0 1f 99 be 3e 38 6d 6f 3f 08 22 31 3e cd 45 64 3f
       0.37226197 0.9352603 0.17298138 0.8916901
0001e0 c1 d6 4e bf c0 67 37 3e 42 e7 39 bf bc 93 b4 be
       -0.8079644 0.17910671 -0.72618496 -0.35268962
0001f0 86 17 36 be d8 7e 4a 3f 2a 5e 29 3f 02 9a 7a be
       -0.17782411 0.790998 0.6615931 -0.24472812

encoder.feature_extract.mlps.0.batch_norms.0.running_var f4 [128]
000000 01 9b 06 3a bf c3 bc 37 04 9f ad 3b d8 30 0f 3a
       0.0005134792 2.2502498e-05 0.005298497 0.00054622954
000010 4a e6 cd 3b 7a af ef 3b 41 aa 19 3b d4 11 c5 3b
       0.006283556 0.0073146196 0.0023447427 0.006014088
000020 f1 c8 bd 37 a8 0b 01 3c 9d ff da 3b 31 b7 fa 38
       2.2624126e-05 0.007876314 0.0066833035 0.00011955051
000030 28 04 fb 3b c4 db 97 3b 82 b9 a7 38 6a 6b 8a 39
       0.0076604076 0.0046343524 7.997734e-05 0.0002640144
000040 a6 9d c3 3a ad 64 7a 38 6b 78 67 39 18 39 ba 3b
       0.0014924302 5.9698406e-05 0.00022074736 0.0056830756
000050 68 26 a5 3b 84 d9 c3 3a 2c fb aa 38 53 70 26 3a
       0.005039979 0.0014942144 8.153016e-05 0.0006349135
000060 8f 64 4b 3b 5c 60 c6 3b b0 f1 48 3a 01 89 89 3b
       0.003103528 0.0060539674 0.0007665409 0.0041972403
000070 f5 f1 81 3b cc d9 c7 38 72 84 9a 39 d4 d5 49 39
       0.003965611 9.529627e-05 0.00029471848 0.00019248511
000080 2c b6 05 3c bf 12 9d 3b 1e 64 af 3a 16 25 f0 3a
       0.008161109 0.0047934945 0.0013381278 0.0018321599
000090 2e 7d 9f 3b ee b7 d9 3b 91 5b 48 3a 64 28 66 3b
       0.0048672175 0.0066442406 0.0007643039 0.003511929
0000a0 b0 d1 6c 39 6f be 84 3b 3b 8c 65 3b 3d 8c b2 3b
       0.00022584829 0.0040510218 0.003502621 0.0054488466
0000b0 2a bb 5d 3a 5e 99 b6 3a 72 14 4b 3a 55 6b 87 39
       0.00084583706 0.0013931205 0.0007746882 0.00025829175
0000c0 7e a7 38 3a 4a ce 12 39 38 d1 0f 3b e0 2e db 3a
       0.0007044001 0.00014000494 0.0021944772 0.0016722344
0000d0 2f ab 29 3b e0 30 88 3a a9 81 d5 3a c0 cb 7b 3b
       0.0025889387 0.0010390542 0.0016289252 0.0038421005
0000e0 37 be d0 3b e0 21 11 3b 4f 08 86 3b 58 6e ab 3b
       0.0063703316 0.0022145435 0.004090346 0.00523166
0000f0 2b 9a 3d 3a 4d 17 99 39 0e fd 02 3b 91 9e 58 3a
       0.00072327506 0.00029199795 0.0019987258 0.00082633743
000100 22 eb 95 38 f2 7a d2 3a 4b 5d b0 3a d4 8b 9a 3b
       7.1486706e-05 0.0016058369 0.0013455538 0.004716376
000110 46 77 56 3b c7 6d 0f 38 e1 a5 c2 3b d1 c9 23 3b
       0.00327249 3.4196095e-05 0.0059401845 0.0024992118
000120 73 2b 31 3b 06 3a 2f 3a c2 30 0b 3b bf 69 1b 3b
       0.0027033954 0.00066843664 0.0021238779 0.0023714153
000130 09 b0 9b 3a 25 01 92 3b 5b 4d 96 39 9a 1e 84 3a
       0.0011878024 0.004455703 0.00028667864 0.0010079921
000140 66 85 d9 3b bd 4e 4e 37 eb d8 49 3b 02 bd bc 3b
       0.006638217 1.22968895e-05 0.003079946 0.005759836
000150 45 72 25 3a f7 82 21 39 41 ca ce 3b 14 a3 0c 39
       0.0006311278 0.00015402945 0.0063107316 0.00013412192
000160 4b d9 90 39 ad 58 56 3b 67 d4 34 3b b3 e0 94 3b
       0.00027627716 0.0032706663 0.0027592422 0.004543388
000170 65 5f b6 38 34 cc 9a 3a 5f 70 72 3b 52 b3 ca 3b
       8.696205e-05 0.0011810125 0.0036993248 0.0061859274
000180 87 ca 29 39 67 c4 2c 39 7b e1 b8 3b 72 cc 8b 3b
       0.00016192543 0.00016476364 0.0056421137 0.004266315
000190 27 be 6c 3a 87 1b a3 3b 9b a3 73 3b 3f 50 bb 39
       0.00090310205 0.0049776467 0.0037176374 0.00035727207
0001a0 45 cd 91 39 7a a8 be 37 7e ad a4 3a f9 5e 9f 3b
       0.00027809493 2.2728218e-05 0.0012563912 0.0048636165
0001b0 2f c3 37 38 cb 5b dc 3b d2 dd bc 38 e2 90 90 3b
       4.381238e-05 0.0067248098 9.005856e-05 0.0044118026
0001c0 61 de 11 3b f7 9a 45 3b b4 cd e8 38 1b 72 be 3b
       0.0022257792 0.003015218 0.00011100937 0.0058119423
0001d0 7c d5 20 38 33 ca e8 3b 8f d5 85 3b eb 6d 1e 3b
       3.8345795e-05 0.007104182 0.004084296 0.0024174403
0001e0 ff ac 8b 3b be 53 35 3a 20 03 4d 3b 4a 81 cc 39
       0.004262566 0.00069170806 0.003128238 0.0003900624
0001f0 e8 ae ab 3b 33 c8 ad 3b 7a 70 98 3b 61 19 c5 3a
       0.0052393563 0.0053034066 0.00465208 0.0015037471
