FJSP_MultiPPO/saved_network/FJSP_J20M405/best_value000/policy_job.pth (torch_old, 637433 bytes, 53 tensors)

_input f4 [128]
0.5863249 0.11657969 0.28587288 -0.36891323 -0.92956614 0.12690961 0.6395141 -0.2447579
-0.35374898 -0.22166833 -0.18894091 -0.07666716 0.45854267 -0.89255023 -0.96616834 -0.7780269
0.35427237 0.84446496 0.15534061 0.13296866 0.84228396 0.02967515 0.6296922 0.5418521
-0.8916741 0.45643938 -0.16657633 0.2783571 0.21739128 -0.69027597 -0.006447841 0.9337867
0.5262893 -0.093936324 0.12647586 0.6792657 -0.29073682 -0.43914327 0.3789623 0.79194707
-0.61106735 -0.4428669 0.5451914 -0.07871829 -0.42777944 -0.5497148 0.11585503 0.34024975
-0.58981675 0.9949778 -0.1476637 -0.28305578 0.62272197 0.8698561 -0.65938896 0.4953889
0.06284662 0.0042342213 0.624185 -0.8328656 0.2663394 -0.36741722 -0.53627044 0.6956763
-0.5654126 0.14587022 -0.51969355 -0.28915456 0.6462619 0.81126654 -0.9938125 0.54095536
0.2956447 0.7730486 -0.9522727 -0.73270905 -0.31842726 -0.29732394 0.85603046 0.85655963
0.7085543 -0.4552929 -0.2543823 0.6698375 -0.48914322 -0.2582515 -0.58555615 0.12912168
-0.63794684 -0.9715536 0.08489793 -0.6176299 0.20391804 0.27168202 -0.5715181 0.26945677
-0.028644748 0.40261868 0.30411527 -0.28282413 -0.10667344 0.61640394 -0.85184026 -0.968435
-0.2793139 -0.8719773 0.8312362 0.9707692 0.49507946 0.079639845 0.91825616 -0.35917854
0.8830946 -0.7366072 0.63134366 0.45398906 -0.47816917 -0.9225299 -0.4207483 0.086694025
0.62740695 0.06431315 -0.06632969 -0.1978528 0.5859877 0.55426216 0.0072066556 -0.5519736
00000000: 6319 163f 55c1 ee3d ee5d 923e 32e2 bcbe
00000010: 0cf8 6dbf 98f4 013e 32b7 233f d1a1 7abe
00000020: 961e b5be 06fd 62be ba79 41be ac03 9dbd
00000030: 1bc6 ea3e 2c7e 64bf cf56 77bf c52c 47bf
00000040: 3063 b53e db2e 583f 9c11 1f3e f028 083e
00000050: ec9f 573f 4d19 f33c 8233 213f d2b6 0a3f
00000060: c144 64bf 6cb2 e93e fc92 2abe d284 8e3e
00000070: d29b 5e3e edb5 30bf 6948 d3bb a50c 6f3f
00000080: e5ba 063f b061 c0bd e382 013e 5be4 2d3f
00000090: 75db 94be 63d7 e0be 5907 c23e 0bbd 4a3f
000000a0: e96e 1cbf 73bf e2be aa91 0b3f 0e37 a1bd
000000b0: e805 dbbe 1cba 0cbf 6745 ed3d 3735 ae3e
000000c0: 3bfe 16bf ddb6 7e3f 2735 17be b0ec 90be
000000d0: b56a 1f3f e4ae 5e3f b7cd 28bf 9da3 fd3e
000000e0: bbb5 803d 39bf 8a3b 97ca 1f3f ae36 55bf
000000f0: a35d 883e 1c1e bcbe 0549 09bf d817 323f
00000100: e1be 10bf 015f 153e a30a 05bf 110c 94be
00000110: 6b71 253f 2aaf 4f3f 7f6a 7ebf 0d7c 0a3f
00000120: be5e 973e 83e6 453f 25c8 73bf d292 3bbf
00000130: e608 a3be d83a 98be d024 5b3f 7e47 5b3f
00000140: d163 353f 271c e9be 663e 82be 787a 2b3f
00000150: fb70 fabe 8a39 84be 02e7 15bf 7938 043e
00000160: 7c50 23bf bdb7 78bf f7de ad3d fe1c 1ebf
00000170: e4cf 503e e819 8b3e 034f 12bf 3df6 893e
00000180: 64a8 eabc 0924 ce3e ffb4 9b3e 53ce 90be
00000190: 9b77 dabd a6cc 1d3f 3412 5abf 5beb 77bf
000001a0: 3b02 8fbe e839 5fbf e5cb 543f 5584 783f
000001b0: 0e7b fd3e 371a a33d d612 6b3f 40e6 b7be
000001c0: 7d12 623f 4a92 3cbf bd9f 213f 4171 e83e
000001d0: 97d2 f4be eb2a 6cbf 526c d7be a38c b13d
000001e0: be9d 203f 9db6 833d dcd7 87bd ed99 4abe
000001f0: 4a03 163f 20e4 0d3f cf25 ec3b 244e 0dbf

bn.weight f4 [2]
1.0 1.0
00000000: 0000 803f 0000 803f

bn.bias f4 [2]
0.0 0.0
00000000: 0000 0000 0000 0000

bn.running_mean f4 [2]
0.0 0.0
00000000: 0000 0000 0000 0000

bn.running_var f4 [2]
1.0 1.0
00000000: 0000 803f 0000 803f

encoder.feature_extract.mlps.0.linears.0.weight f4 [128, 2]
0.43159193 -0.65834916 0.28485525 -0.5792676 0.045843244 0.37288967 -0.43466836 -0.1711403
0.050131384 0.017921936 0.5701936 0.6865153 -0.3360233 -0.09215259 -0.2517712 -0.38918895
-0.32293117 -0.2307972 -0.63990015 0.15340564 -0.07650127 0.2034622 0.42637601 -0.42952475
0.65260166 -0.033907685 -0.65425843 0.017094808 0.34579116 0.042032436 0.0094477795 0.6979941
0.48552585 -0.6013272 0.41060257 -0.22982238 0.55702484 -0.69735223 -0.33714688 -0.41441283
-0.22397463 -0.034398295 -0.4802181 0.51746464 -0.47419417 0.23400739 -0.68528 0.25245544
0.58236575 0.4748468 -0.54723525 -0.41697192 0.2751006 -0.14491312 -0.44546697 -0.047160596
-0.6408716 0.36105242 0.68076605 0.11364061 0.39310774 -0.3173285 -0.5567189 -0.22591293
-0.13703091 0.54350895 0.30357063 0.61320084 0.12540638 -0.01710821 -0.33577684 0.26094016
-0.0110239955 0.524402 0.5707156 -0.6364937 -0.1992269 -0.5841004 -0.20651251 -0.59521794
-0.27618563 0.60022175 -0.046805263 -0.37059247 -0.46520826 0.5196345 -0.6444666 -0.0072576716
0.65970016 -0.39356872 -0.32534766 -0.4735164 0.16619703 -0.26770064 -0.003582821 -0.11785453
-0.6475362 0.00964557 -0.60302347 -0.5216611 -0.64319056 0.5389893 -0.69418544 -0.4492445
0.21837142 0.17738257 -0.4797469 -0.57552254 -0.56120616 0.66501826 -0.3976001 -0.09748387
-0.12290301 -0.5419186 -0.5751447 -0.6183502 -0.5985569 0.6723504 0.612227 -0.4450092
0.5863742 -0.19229017 -0.078603804 0.32176802 -0.4125762 -0.27149355 -0.6155591 -0.02222813
0.29884335 -0.20464951 -0.51536256 0.28144807 0.44262135 0.21973512 -0.1324761 -0.5869127
0.004145488 -0.6117999 -0.65212584 0.0031379494 -0.078218944 0.21555816 0.4643722 -0.52971804
-0.18236375 0.038990512 -0.03558811 -0.3701231 0.68780935 -0.036490183 -0.5458992 0.4528908
0.28970197 0.22462621 -0.048995666 0.330056 -0.58635706 0.08267578 -0.49285597 -0.5276712
-0.27333626 0.00897983 -0.06580318 -0.23823163 -0.19494212 -0.011865615 -0.6305945 -0.31065434
-0.3768294 0.034818433 -0.6884709 -0.7136592 0.107783176 0.5369849 -0.41771552 -0.18950479
0.5636108 0.043856677 -0.69436854 0.28567776 -0.12689187 -0.62825096 0.6202214 0.61864066
-0.2044584 -0.5442024 -0.29257414 -0.6880132 0.110644326 -0.54240733 0.010940491 -0.366148
0.22455275 0.6803899 -0.43828598 -0.19047174 0.44062793 -0.1831559 0.33072624 0.15741152
-0.55942875 -0.46075818 -0.478337 0.69034314 -0.3287797 0.3760613 0.52779526 -0.4173278
-0.32393682 -0.64574474 0.42398813 -0.6879096 -0.05540037 0.36490887 0.46250117 0.15750341
-0.36557373 -0.4534366 -0.17119774 -0.68981713 -0.49932122 0.24724199 0.11309488 -0.22497495
0.3650619 -0.097169034 0.27338436 0.37728935 -0.07964288 0.18410137 0.48955923 -0.4168423
-0.634673 0.4205907 0.47302538 -0.5148001 -0.70155096 -0.20409934 -0.41616705 -0.16361585
-0.024034625 0.1060517 -0.2410731 -0.4085069 0.51320976 -0.29998913 0.3706923 0.3443583
0.2663289 0.111478545 0.027096437 0.17593895 0.18734668 -0.4033094 0.2606312 -0.5867907
00000000: 9ef9 dc3e 9289 28bf 8cd8 913e e24a 14bf
00000010: 20c6 3b3d 65eb be3e da8c debe 673f 2fbe
00000020: 9156 4d3d 06d1 923c 35f8 113f 77bf 2f3f
00000030: 3f0b acbe 7fba bcbd 28e8 80be c643 c7be
00000040: 3c57 a5be 1a56 6cbe 7fd0 23bf 5e16 1d3e
00000050: b3ac 9cbd 6558 503e f54d da3e abea dbbe
00000060: e710 273f c9e2 0abd 7b7d 27bf 690a 8c3c
00000070: 8a0b b13e 342a 2c3d dcca 1a3c beaf 323f
00000080: d896 f83e 94f0 19bf 803a d23e 8f56 6bbe
00000090: 2e99 0e3f ad85 32bf 849e acbe eb2d d4be
000000a0: 9b59 65be 3ae5 0cbd 26df f5be 9078 043f
000000b0: 94c9 f2be a29f 6f3e 836e 2fbf d741 813e
000000c0: ec15 153f 1f1f f33e 9c17 0cbf 587d d5be
000000d0: fcd9 8c3e 1b64 14be 3f14 e4be 782b 41bd
000000e0: 2910 24bf dddb b83e af46 2e3f 68bc e83d
000000f0: 6b45 c93e e278 a2be 2185 0ebf b855 67be
00000100: d551 0cbe 6723 0b3f 9c6d 9b3e bbfa 1c3f
00000110: 886a 003e 8426 8cbc f1ea abbe f399 853e
00000120: fd9d 34bc 363f 063f 6b1a 123f 40f1 22bf
00000130: 2302 4cbe 9b87 15bf 0478 53be 3460 18bf
00000140: 3468 8dbe 22a8 193f e0b6 3fbd 4cbe bdbe
00000150: c72f eebe c406 053f c3fb 24bf c3d1 edbb
00000160: 1ce2 283f d781 c9be f893 a6be be70 f2be
00000170: 8e2f 2a3e 0f10 89be c3cd 6abb b75d f1bd
00000180: efc4 25bf 7408 1e3c bf5f 1abf 958b 05bf
00000190: 23a8 24bf 34fb 093f 23b6 31bf 6003 e6be
000001a0: c29c 5f3e c7a3 353e 63a1 f5be 7255 13bf
000001b0: 35ab 0fbf a33e 2a3f 3e92 cbbe a0a5 c7bd
000001c0: 93b4 fbbd 2dbb 0abf af3c 13bf 334c 1ebf
000001d0: 063b 19bf 281f 2c3f e9ba 1c3f 3fd8 e3be
000001e0: 9f1c 163f b7e7 44be 08fb a0bd c7be a43e
000001f0: 303d d3be 3401 8bbe 4895 1dbf c417 b6bc
00000200: ff01 993e a48f 51be cdee 03bf f619 903e
00000210: 449f e23e 3e02 613e d1a7 07be e93f 16bf
00000220: e0d6 873b eb9e 1cbf b8f1 26bf 0ea6 4d3b
00000230: 4131 a0bd 47bb 5c3e 31c2 ed3e 9a9b 07bf
00000240: 90bd 3abe 84b4 1f3d d7c4 11bd c680 bdbe
00000250: 4614 303f bb76 15bd 0dc0 0bbf 4ee1 e73e
00000260: d153 943e 6a04 663e aeaf 48bd 1afd a83e
00000270: 7f1b 16bf eb51 a93d 9e57 fcbe 7615 07bf
00000280: bbf2 8bbe 2320 133c d1c3 86bd fef2 73be
00000290: e89e 47be ff67 42bc a46e 21bf 160e 9fbe
000002a0: c8ef c0be c69d 0e3d a13f 30bf 5fb2 36bf
000002b0: 6dbd dc3d d877 093f cfde d5be 8b0d 42be
000002c0: cc48 103f 0fa3 333d 23c2 31bf 5b44 923e
000002d0: f1ef 01be 0ed5 20bf d4c6 1e3f 3c5f 1e3f
000002e0: 8b5d 51be d950 0bbf 47cc 95be a221 30bf
000002f0: 7e99 e23d 35db 0abf bf3f 333c c077 bbbe
00000300: 28f1 653e 082e 2e3f 0567 e0be 060b 43be
00000310: fc99 e13e 388d 3bbe f354 a93e 7c30 213e
00000320: b936 0fbf 7fe8 ebbe 96e8 f4be 54ba 303f
00000330: d055 a8be 1b8b c03e 971d 073f fdab d5be
00000340: 0cdb a5be 874f 25bf f914 d93e d81a 30bf
00000350: 80eb 62bd 56d5 ba3e f4cc ec3e 9348 213e
00000360: 7b2c bbbe d828 e8be 764e 2fbe db97 30bf
00000370: 08a7 ffbe 012d 7d3e 4a9e e73d d55f 66be
00000380: 65e9 ba3e 8f00 c7bd 09f9 8b3e 122c c13e
00000390: ce1b a3bd 1285 3c3e 82a7 fa3e 5b6c d5be
000003a0: ee79 22bf aa57 d73e 6230 f23e f0c9 03bf
000003b0: d898 33bf 6bff 50be d913 d5be ea8a 27be
000003c0: 43e4 c4bc a231 d93d dedb 76be d127 d1be
000003d0: b761 033f 2d98 99be 62cb bd3e bb4f b03e
000003e0: 435c 883e dd4e e43d 59f9 dd3c 5729 343e
000003f0: cfd7 3f3e 927e cebe 7471 853e ea37 16bf

encoder.feature_extract.mlps.0.linears.0.bias f4 [128]
-0.4770416 -0.5269501 -0.21230815 -0.038980037 -0.41879374 -0.20514038 0.28625038 -0.3465469
0.42950416 0.4841432 0.38659847 -0.2861907 -0.17321976 0.45538193 0.66332364 -0.3586174
0.037567817 -0.60034585 0.36342016 0.50574815 -0.3908769 -0.46028993 -0.1684287 0.29649118
0.6170325 0.5832621 -0.45358574 -0.2775461 -0.6775977 -0.51353526 -0.67182684 -0.688834
-0.213039 -0.017718676 0.49812254 -0.0040862635 0.36465055 -0.590759 -0.054941364 0.20480323
-0.14408405 -0.69069767 0.49001276 0.18165183 -0.3817617 -0.56479675 -0.18201762 0.57513875
-0.5154561 0.23495446 -0.38387728 -0.5960405 -0.25083244 -0.4107078 -0.61035 0.22873674
0.28646293 -0.6902648 -0.45701304 -0.5683468 0.03308578 0.66531783 -0.6423703 -0.60198295
-0.5153758 0.22053106 -0.17856798 -0.65229684 -0.35688484 0.013066878 -0.37493038 0.38661468
0.14201029 -0.6441574 0.5887302 0.2122232 0.5522311 -0.29917493 -0.090244934 -0.39676866
-0.14553587 0.028033989 0.6423403 -0.25989902 -0.287607 -0.6810294 0.2989771 -0.27715036
-0.4168414 -0.10254139 0.377681 0.1846443 0.5869818 0.4478932 -0.16733362 0.21790662
-0.203991 0.54406726 -0.6463109 -0.35000148 -0.5832423 0.59806883 -0.41940045 -0.3947495
0.41162816 0.16002968 0.4849105 -0.26886284 -0.06252758 0.19959402 -0.21124859 0.5188986
-0.1225119 0.12139362 -0.3681025 -0.19731782 0.5506259 -0.31929526 -0.6556829 -0.59725136
-0.17998497 0.3254192 0.5307745 0.37748864 -0.62658083 -0.53657264 0.41858342 0.103550985
00000000: cc3e f4be 34e6 06bf 4f67 59be 88a9 1fbd
00000010: 226c d6be 5210 52be 698f 923e 986e b1be
00000020: f8e7 db3e 9ee1 f73e 3cf0 c53e 9687 92be
00000030: 8560 31be d227 e93e 94cf 293f b39c b7be
00000040: b6e0 193d 44b0 19bf 3512 ba3e b678 013f
00000050: 0421 c8be 1fab ebbe 9378 2cbe b1cd 973e
00000060: d8f5 1d3f aa50 153f 643c e8be 861a 8ebe
00000070: 0b77 2dbf 0c77 03bf d8fc 2bbf 6d57 30bf
00000080: e526 5abe c226 91bc eb09 ff3e 10e6 85bb
00000090: 7ab3 ba3e fb3b 17bf 320a 61bd f0b7 513e
000000a0: c58a 13be 90d1 30bf f4e2 fa3e f002 3a3e
000000b0: 4576 c3be 8596 10bf d462 3abe 4b3c 133f
000000c0: eef4 03bf e797 703e 908b c4be 1c96 18bf
000000d0: 1c6d 80be 4b48 d2be e63f 1cbf f739 6a3e
000000e0: 45ab 923e 32b5 30bf 9dfd e9be 2d7f 11bf
000000f0: f484 073d 4552 2a3f 6172 24bf 8e1b 1abf
00000100: abef 03bf e5d2 613e 86da 36be edfc 26bf
00000110: 9cb9 b6be 7516 563c e0f6 bfbe 5cf2 c53e
00000120: 256b 113e 80e7 24bf 06b7 163f 0a51 593e
00000130: 045f 0d3f 752d 99be 56d2 b8bd 4325 cbbe
00000140: 5b07 15be 89a7 e53c 6a70 243f 7c11 85be
00000150: 3a41 93be f157 2ebf 8713 993e a7e6 8dbe
00000160: 3c6c d5be 3801 d2bd 675f c13e 6513 3d3e
00000170: 7044 163f 4252 e53e 8159 2bbe ea22 5f3e
00000180: 04e3 50be fe47 0b3f a274 25bf 6533 b3be
00000190: 5e4f 15bf 0a1b 193f a8bb d6be 9b1c cabe
000001a0: edc0 d23e d2de 233e 3046 f83e 64a8 89be
000001b0: 760e 80bd 6062 4c3e 8d51 58be 8ad6 043f
000001c0: 85e7 fabd 389d f83d ee77 bcbe af0d 4abe
000001d0: d2f5 0c3f ab7a a3be d6da 27bf 77e5 18bf
000001e0: fb4d 38be 589d a63e d6e0 073f 3146 c13e
000001f0: 9a67 20bf d35c 09bf 9150 d63e 8a12 d43d

encoder.feature_extract.mlps.0.linears.1.weight f4 [128, 128]
0.016594319 -0.049929705 -0.020797187 -0.05239546 0.060370415 -0.037473317 -0.025042469 0.021340704
-0.043014128 -0.07465726 0.019203678 -0.07116653 -0.03079609 -0.009462421 -0.0027948834 -0.0047497638
-0.011874711 -0.036281012 -0.05069714 -0.0045480393 0.017867342 -0.057772286 0.0685373 -0.026194746
0.04695438 -0.035176 0.026304046 -0.026444951 0.05504873 -0.04900982 -0.036116023 -0.053095177
-0.035506837 -0.002323834 0.007190204 0.021432197 -0.04886692 0.0741042 0.0019831713 0.010312275
0.0007011691 -0.059514087 0.0784432 -0.026277808 -0.06946379 -0.045990467 0.008212324 -0.026632462
0.008386238 -0.019518564 -0.0055084038 -0.017435955 0.07408891 -0.050979674 0.045163944 -0.055273935
0.037463594 0.031111345 -0.038133625 0.062768444 -0.007848774 0.047497492 0.08837306 -0.030404968
0.047923725 0.047476612 0.08264473 0.05965556 -0.04718279 0.016531972 0.0019389744 -0.017279265
0.07545017 0.059849586 0.0022235846 0.06376243 0.03586942 -0.01844396 0.07287456 0.001517417
-0.057697434 0.056601804 -0.08002011 -0.0829981 0.070959635 0.04205949 -0.017807167 0.07569044
0.04753404 -6.3981715e-05 0.017525068 -0.008240894 -0.01188831 0.036788646 -0.031329107 0.00038931295
-0.015328819 -0.041755833 0.05469274 -0.0184307 -0.054411814 -0.049867082 0.0972652 -0.060037177
-0.04615226 -0.01997546 -0.00036578535 0.002599937 -0.019865768 0.05681123 -0.0636081 -0.06899334
-0.030744188 0.06183404 0.024010295 -0.059559748 -0.032450296 -0.018087538 0.06464741 -0.080443315
-0.024202446 -0.047407094 0.073537156 0.068862006 0.009623219 -0.05641112 -0.08412754 -0.037926167
0.0685931 -0.07284865 0.040233612 -0.07493874 0.06650872 0.028795099 -0.06213847 -0.009661732
0.03745039 0.0008732865 -0.047521133 0.035244007 -0.01951771 0.045095626 -0.025631065 0.02055537
-0.07519538 -0.044472486 0.06238359 0.08967159 -0.07871428 -0.030588262 -0.036653105 0.080074854
0.068577796 0.020154705 0.028732922 0.027481364 0.05141908 0.0017291378 -0.06369076 0.08164421
-0.0032596681 0.024768654 -0.051409274 -0.06902506 0.032116488 0.004394152 0.0034318909 -0.04472729
0.07818067 0.07422834 -0.058979142 -0.022289887 0.09198222 0.08853706 0.07037447 0.055751707
-0.007002021 -0.0724826 -0.03007236 -0.083369896 -0.013338665 -0.01747841 0.0036690962 0.014155044
-0.0032523335 -0.03249002 -0.041284144 0.037682503 0.09496156 0.015433497 0.03935313 -0.068518385
0.054596618 0.047185235 0.03742636 -0.0011861041 -0.03507849 -0.049808055 -0.05777291 -0.032609545
-0.06067996 -0.04206806 0.019501861 -0.062712036 0.058011632 0.035740603 -0.069717556 0.092079125
-0.012102129 -0.011506363 0.0012525703 0.05914796 -0.00096676813 0.06939223 0.05140727 -0.027779898
-0.03209533 0.070380926 -0.048010122 -0.05392818 0.0006994051 0.03880469 -0.0014012352 0.038879104
0.04498939 0.050278883 0.071484104 0.069913276 -0.021317529 0.050222248 0.052534778 0.09049655
0.0662457 0.03769372 -0.02801196 0.0018831679 -0.015284129 -0.0609183 -0.05073186 -0.030676752
-0.053357314 -0.063305296 0.0008790356 -0.062425382 0.05455825 -0.055979483 -0.01521562 -0.01551134
-0.08838301 -0.0596504 0.0579171 -0.05353851 0.05336932 0.027594218 0.052507706 -0.008056293
00000000: cff0 873c 1783 4cbd dd5e aabc 9f9c 56bd
00000010: f846 773d 9f7d 19bd dd25 cdbc b3d2 ae3c
00000020: 952f 30bd e8e5 98bd 0851 9d3c c2bf 91bd
00000030: 1548 fcbc 4508 1bbc 5d2a 37bb e8a3 9bbb
00000040: 268e 42bc 669b 14bd cea7 4fbd b807 95bb
00000050: 885e 923c a2a2 6cbd 495d 8c3d 5d96 d6bc
00000060: 3c53 403d b614 10bd 957b d73c 15a3 d8bc
00000070: c77a 613d 85be 48bd 65ee 13bd 547a 59bd
00000080: 9e6f 11bd 774b 18bb ce9b eb3b 9392 af3c
00000090: ae28 48bd f1c3 973d 18f8 013b d1f4 283c
000000a0: a9ce 373a 0bc5 73bd d4a6 a03d 8f44 d7bc
000000b0: 0843 8ebd 8060 3cbd fc8c 063c 522c dabc
000000c0: 6e66 093c 65e5 9fbc d77f b4bb d9d5 8ebc
000000d0: edbb 973d 10d0 50bd d4fd 383d ec66 62bd
000000e0: 6d73 193d 38dd fe3c 0132 1cbd be8c 803d
000000f0: 2598 00bc bb8c 423d effc b43d d713 f9bc
00000100: ab4b 443d d676 423d a441 a93d 6359 743d
00000110: be42 41bd 0f6e 873c 2f25 fe3a 3f8d 8dbc
00000120: 9e85 9a3d d724 753d 8fb9 113b e095 823d
00000130: d0eb 123d ca17 97bc 423f 953d 11e4 c63a
00000140: 2554 6cbd 4bd7 673d 95e1 a3bd e8fa a9bd
00000150: 4953 913d 9246 2c3d 56e0 91bc 9703 9b3d
00000160: 0eb3 423d ec2d 86b8 bb90 8f3c d104 07bc
00000170: 30c7 42bc b1af 163d f352 00bd b31c cc39
00000180: ba25 7bbc 2a08 2bbd 7f05 603d fbfb 96bc
00000190: ecde 5ebd 6d41 4cbd fa32 c73d 8be9 75bd
000001a0: 270a 3dbd 93a3 a3bc e1c6 bfb9 b463 2a3b
000001b0: 89bd a2bc e4b2 683d f744 82bd 614c 8dbd
000001c0: 3cdb fbbc b145 7d3d 3db1 c43c ecf4 73bd
000001d0: 9aea 04bd 512c 94bc dc65 843d 77bf a4bd
000001e0: 3544 c6bc f12d 42bd a69a 963d 8607 8d3d
000001f0: b5aa 1d3c 590f 67bd 0f4b acbd 7858 1bbd
00000200: 8a7a 8c3d ac31 95bd 00cc 243d 7b79 99bd
00000210: b935 883d b3e3 eb3c e984 7ebd 3e4c 1ebc
00000220: 9565 193d 44ed 643a 85a5 42bd 055c 103d
00000230: 9be3 9fbc 31b6 383d 3df8 d1bc bc63 a83c
00000240: 0900 9abd c828 36bd ef85 7f3d bda5 b73d
00000250: f434 a1bd 3c94 fabc 9121 16bd 49fe a33d
00000260: 8472 8c3d 7b1b a53c 4e61 eb3c 9920 e13c
00000270: d09c 523d 3da4 e23a 4d70 82bd 1435 a73d
00000280: 28a0 55bb a2e7 ca3c 8892 52bd 035d 8dbd
00000290: 948c 033d d2fc 8f3b 93e9 603b f633 37bd
000002a0: 301d a03d 0705 983d 1d94 71bd 4899 b6bc
000002b0: 2d61 bc3d eb52 b53d 7d20 903d e75b 643d
000002c0: 3671 e5bb c271 94bd 4f5a f6bc d6bd aabd
000002d0: 6a8a 5abc e22e 8fbc 3875 703b 8fea 673c
000002e0: 1a25 55bb 4114 05bd 9019 29bd f858 1a3d
000002f0: 357b c23d c7dc 7c3c bf30 213d 5e53 8cbd
00000300: b4a0 5f3d 4e45 413d 624c 193d 0d77 9bba
00000310: 76ae 0fbd 8803 4cbd 49a3 6cbd 9691 05bd
00000320: 8d8b 78bd 8f4f 2cbd 5ec2 9f3c 2b6f 80bd
00000330: 9b9d 6d3d bd64 123d 14c8 8ebd fb93 bc3d
00000340: 0248 46bc 2f85 3cbc 492d a43a 2245 723d
00000350: b66e 7dba 831d 8e3d 6e90 523d ab92 e3bc
00000360: 6576 03bd e023 903d 43a6 44bd cce3 5cbd
00000370: 4858 373a abf1 1e3d a7a9 b7ba b23f 1f3d
00000380: cb46 383d 3bf1 4d3d 4266 923d b12e 8f3d
00000390: 19a2 aebc d8b5 4d3d b52e 573d 4156 b93d
000003a0: d3ab 873d bb64 1a3d 5779 e5bc a1d4 f63a
000003b0: 496a 7abc 7885 79bd 36cc 4fbd d04d fbbc
000003c0: 338d 5abd 35a6 81bd 156f 663a c2b1 7fbd
000003d0: 7978 5f3d be4a 65bd f04a 79bc 4723 7ebc
000003e0: 2702 b5bd fa53 74bd 7b3a 6d3d 324b 5bbd
000003f0: ca99 5a3d 450d e23c 5212 573d 8bfe 03bc

encoder.feature_extract.mlps.0.linears.1.bias f4 [128]
0.01250016 0.0813996 0.03564496 0.01773971 0.031829502 -0.08024795 0.007152367 0.05266185
-0.07981868 0.0169908 -0.024225924 -0.00035190085 -0.02425496 -0.015654802 0.049459893 0.058273338
0.061842326 0.032792866 -0.051603507 0.058077216 0.029705135 -0.054744132 -0.06391418 -0.049337074
-0.020614345 0.07772239 -0.041253496 0.03144864 0.07180739 -0.067704305 0.02991463 0.06037559
0.0245865 0.01728149 -0.010019197 -0.0048128674 -0.036910407 0.031089706 0.0069387355 0.007862398
0.059482668 0.07210108 -0.044023927 -0.027921861 0.081971824 0.056901213 -0.028854255 -0.03621876
0.007525409 -0.0743875 -0.030864906 -0.051392492 0.029648067 -0.03777107 -0.048253402 0.016775828
-0.0245808 0.08103926 0.052316744 0.06981852 -0.07031725 -0.055296686 -0.035715904 -0.04234154
0.03214563 0.067275584 -0.032480318 0.048913006 0.059309613 -0.055327427 0.05309351 -0.051401407
0.003346515 -0.02743801 -0.06290018 -0.008188751 -0.009605782 -0.030712362 -0.08661559 0.04603272
-0.010564843 -0.025480598 0.0114980815 0.06408299 -0.08995586 -0.050089285 -0.054143663 -0.033537917
-0.011012639 -0.07371742 0.069484256 -0.06402675 0.022050649 -0.07476983 0.058884386 0.063928396
0.024717959 0.016347444 -0.054560967 -0.06399186 -0.07469006 -0.05337714 0.007492074 0.02939799
-0.070618354 -0.0055254595 0.026536088 0.03491307 -0.081389494 0.022678427 0.009044144 0.013397975
0.042938333 -0.073236205 -0.044291154 -0.055854 0.008083527 0.07812248 -0.08655602 0.08111194
0.03349694 -0.064673655 -0.04818335 -0.022092316 -0.014600654 -0.032797508 -0.020958437 -0.06320227
00000000: 79cd 4c3c d5b4 a63d 7300 123d de52 913c
00000010: a75f 023d 0a59 a4bd 675e ea3b f4b3 573d
00000020: fa77 a3bd 4a30 8b3c 7275 c6bc 557f b8b9
00000030: 56b2 c6bc 803e 80bc 7596 4a3d 06b0 6e3d
00000040: 614e 7d3d d051 063d 335e 53bd 60e2 6d3d
00000050: 2f58 f33c 623b 60bd 70e5 82bd ac15 4abd
00000060: 6adf a8bc eb2c 9f3d 6df9 28bd 4ad0 003d
00000070: c10f 933d 8ea8 8abd 870f f53c 654c 773d
00000080: a169 c93c e991 8d3c 8f27 24bc 42b5 9dbb
00000090: 5e2f 17bd d7af fe3c 555e e33b 4ad1 003c
000000a0: 19a4 733d bba9 933d 6f52 34bd 63bc e4bc
000000b0: d8e0 a73d 3f11 693d c25f ecbc 1f5a 14bd
000000c0: b597 f63b 7958 98bd 66d8 fcbc ef80 52bd
000000d0: 81e0 f23c d6b5 1abd 5ca5 45bd 766d 893c
000000e0: ad5d c9bc e9f7 a53d 154a 563d 03fd 8e3d
000000f0: 7e02 90bd c77e 62bd d74a 12bd 536e 2dbd
00000100: 23ab 033d c8c7 893d 150a 05bd 0159 483d
00000110: a3ee 723d 039f 62bd 9578 593d 488a 52bd
00000120: 3451 5b3b adc5 e0bc cfd1 80bd 1c2a 06bc
00000130: 9261 1dbc 7e98 fbbc 8463 b1bd ce8c 3c3d
00000140: 2a18 2dbc b0bc d0bc 7362 3c3c f13d 833d
00000150: c73a b8bd 6c2a 4dbd bfc5 5dbd 0e5f 09bd
00000160: 5b6e 34bc 29f9 96bd c34d 8e3d 7520 83bd
00000170: 90a3 b43c ed20 99bd c130 713d e4ec 823d
00000180: 517d ca3c 13eb 853c 527b 5fbd 2a0e 83bd
00000190: 1af7 98bd fda1 5abd 1280 f53b 0ed4 f03c
000001a0: 5ba0 90bd ea0e b5bb 3662 d93c 0201 0f3d
000001b0: 89af a6bd 1cc8 b93c e42d 143c 2e83 5b3c
000001c0: 1be0 2f3d ddfc 95bd a46a 35bd 2ac7 64bd
000001d0: c570 043c aefe 9f3d 4844 b1bd 041e a63d
000001e0: 1634 093d 9f73 84bd e85b 45bd f2fa b4bc
000001f0: 9537 6fbc ae56 06bd 07b1 abbc 3170 81bd

encoder.feature_extract.mlps.0.linears.2.weight f4 [128, 128]
-0.017773464 -0.012937337 0.07271306 0.062402923 -0.07766623 -0.027126214 0.0018823291 0.04209225
-0.027494062 -0.043428168 -0.0594849 -0.023912502 -0.082588 0.0712917 -0.05900143 -0.014739186
0.06481236 -0.0015703134 -0.016546242 -0.029885804 -0.025280412 0.080462895 -0.07089246 0.060298394
0.016488306 0.027858444 0.07748695 0.010722716 -0.0436651 -0.075863704 -0.024736317 -0.060635112
0.092043184 -0.019740801 -0.03879444 -0.061806876 0.05231016 -0.013302261 -0.02019425 -0.011090214
0.0009301557 0.00884846 0.03562168 -0.070297964 -0.03586003 0.0049598846 -0.030177612 -0.03546094
0.065349475 -0.05024628 0.053375054 -0.090259954 0.059867922 0.0048569976 -0.0909764 0.05518139
0.013066129 -0.049156368 -0.021639213 -0.03514122 0.060103897 0.044410117 -0.06581099 -0.008917408
0.065815 -0.04527396 -0.07803699 0.06716534 0.069116645 0.0553765 0.04835921 0.07764423
-0.003415775 0.07021161 -0.02767905 -0.008964527 0.064278975 0.055286605 -0.046670668 0.025112862
0.061414573 -0.031675335 0.044258155 0.07315631 0.003631033 0.07088983 -0.02898619 -0.009314369
-0.07291829 0.045376163 -0.08612804 0.078115605 0.062102042 -0.08569051 -0.011671169 -0.04400117
0.07264611 -0.08487325 -0.028871618 -0.0529034 0.01379579 -0.05879282 0.0043236827 -0.0027247998
-0.019137958 0.07445759 0.007754464 -0.0923214 0.06765343 -0.04613371 -0.023084003 0.047373775
0.025743509 -0.035485443 -0.07563321 0.07124473 0.02486189 -0.0500061 0.064025916 -0.05923817
0.02281314 0.023900198 0.02465167 0.032777384 -0.056186806 0.002203179 -0.016509686 0.041489545
-0.055766113 -0.06955788 -0.0013136114 0.072396874 -0.018365065 -0.034334958 -0.010010288 -0.028609063
0.051066227 0.028409865 0.035348613 -0.048786975 -0.08301957 0.035548147 -0.029970355 0.04231138
0.007078468 -0.013774217 0.066354156 -0.010950864 0.015211756 0.042909354 -0.0472477 0.06414054
-0.018667694 0.09126266 0.07965223 -0.053250942 -0.05887828 0.003022263 -0.0068232785 0.079512015
0.07156745 0.037817206 0.01312202 -0.049689557 0.0006845489 0.05668469 0.028569272 -0.03808684
-0.051285237 -0.032596316 -0.016109407 -0.056846064 -0.085590184 -0.03847897 0.020741383 0.032650623
0.0076301987 0.045966677 -0.03720236 0.0039250604 -0.039031483 0.00572925 -0.04061737 -0.06257988
-0.009734062 -0.0050736163 -0.068089925 -0.01231342 0.0783308 0.084391244 -0.057826508 -0.026552372
-0.07765796 0.031297956 0.08651969 -0.06433573 -0.073625304 0.04988219 0.054201055 0.056029394
0.034240562 0.05986384 0.02289301 -0.05729176 -0.03211872 0.01819128 0.09829952 -0.06683612
0.03700996 0.066614635 0.0046888613 -0.062439814 0.021227451 0.072108515 -0.06997359 -0.011476392
-0.022695392 0.04583916 0.02742319 0.028409207 -0.035529573 -0.059663948 0.07663695 0.011233399
0.044972803 -0.061658602 0.09200584 -0.047686927 -0.031883407 -0.0016720645 0.02737057 -0.033550084
-0.03307204 0.07710328 -0.060534216 -0.033174682 0.07271788 -0.014423592 -0.053882502 -0.049915977
0.016295599 0.034370266 0.07371727 0.00014486967 -0.08390966 0.014352724 0.05413724 0.0159495
-0.044924464 0.030923327 0.035400543 -0.015662482 0.076203145 -0.057259854 0.035913855 0.034084093
00000000: a899 91bc 20f7 53bc 96ea 943d 359a 7f3d
00000010: 790f 9fbd cb37 debc 7cb8 f63a ec68 2c3d
00000020: 3a3b e1bc bce1 31bd 70a6 73bd 27e4 c3bc
00000030: e623 a9bd 6201 923d 7cab 71bd a07c 71bc
00000040: 58bc 843d f9d2 cdba fc8b 87bc 13d3 f4bc
00000050: de18 cfbc bbc9 a43d 1130 91bd 73fb 763d
00000060: 7c12 873c 6437 e43c 7ab1 9e3d 55ae 2f3c
00000070: 2dda 32bd 6e5e 9bbd d1a3 cabc 865c 78bd
00000080: 2381 bc3d 76b7 a1bc ebe6 1ebd 3529 7dbd
00000090: 2e43 563d baf1 59bc 696e a5bc bbb3 35bc
000000a0: b1d5 733a 22f9 103c 0ae8 113d 61f8 8fbd
000000b0: f8e1 12bd 8786 a23b 0a37 f7bc 7e3f 11bd
000000c0: f2d5 853d 0bcf 4dbd cd9f 5a3d 36da b8bd
000000d0: 1138 753d 7327 9f3b d651 babd e205 623d
000000e0: 5113 563c 3058 49bd b844 b1bc 3df0 0fbd
000000f0: 812f 763d 62e7 353d eac7 86bd 521a 12bc
00000100: 04ca 863d 3071 39bd dbd1 9fbd fb8d 893d
00000110: 078d 8d3d 78d2 623d 4f14 463d f003 9f3d
00000120: 32db 5fbb 1bcb 8f3d 2dbf e2bc f4df 12bc
00000130: b2a4 833d 3574 623d be29 3fbd 7db9 cd3c
00000140: d98d 7b3d ffbd 01bd 0a48 353d fad2 953d
00000150: a0f6 6d3b b02e 913d 7274 edbc 4c9b 18bc
00000160: 2f56 95bd 5bdc 393d e663 b0bd 13fb 9f3d
00000170: b65e 7e3d 827e afbd 6e38 3fbc 923a 34bd
00000180: 7cc7 943d 07d2 adbd 2c84 ecbc 3cb1 58bd
00000190: bd07 623c bdd0 70bd aead 8d3b 8e92 32bb
000001a0: 35c7 9cbc 397d 983d 2919 fe3b 0113 bdbd
000001b0: e28d 8a3d b3f6 3cbd aa1a bdbc 010b 423d
000001c0: 0de4 d23c 2f59 11bd 96e5 9abd c2e8 913d
000001d0: 2aab cb3c 32d3 4cbd 0520 833d b9a3 72bd
000001e0: 9fe2 ba3c 59ca c33c 4df2 c93c 9441 063d
000001f0: 2324 66bd 3663 103b 523f 87bc f1f0 293d
00000200: 026b 64bd 5d74 8ebd 7c2d acba d044 943d
00000210: 5572 96bc d0a2 0cbd 3102 24bc 8e5d eabc
00000220: d22a 513d cebb e83c b5c9 103d dad4 47bd
00000230: 2a06 aabd ef9a 113d 6484 f5bc b34e 2d3d
00000240: 7ef2 e73b 41ad 61bc b0e4 873d 416b 33bc
00000250: bb3a 793c b8c1 2f3d ce86 41bd 1e5c 833d
00000260: feec 98bc ebe7 ba3d b520 a33d a91d 5abd
00000270: 5a2a 71bd 2911 463b cf95 dfbb 32d7 a23d
00000280: f591 923d 37e6 1a3d befd 563c 4787 4bbd
00000290: 4d73 333a 352e 683d 1b0a ea3c f200 1cbd
000002a0: 7810 52bd b783 05bd e0f7 83bc 6bd7 68bd
000002b0: e849 afbd 209c 1dbd d5e9 a93c a9bc 053d
000002c0: bf06 fa3b 8e47 3c3d 8061 18bd cb9d 803b
000002d0: 7adf 1fbd 6fbc bb3b 665e 26bd e129 80bd
000002e0: 9d7b 1fbc 9440 a6bb bb72 8bbd 3abe 49bc
000002f0: e66b a03d 51d5 ac3d 7ddb 6cbd 5c84 d9bc
00000300: 230b 9fbd 4932 003d 3c31 b13d 74c2 83bd
00000310: ddc8 96bd 4451 4c3d ed01 5e3d 147f 653d
00000320: d53f 0c3d c933 753d 1f8a bb3c c4aa 6abd
00000330: eb8e 03bd e105 953c 4251 c93d 60e1 88bd
00000340: c197 173d 416d 883d 05a5 993b e4c0 7fbd
00000350: 31e5 ad3c a1ad 933d 504e 8fbd 7a07 3cbc
00000360: b0eb b9bc d8c1 3b3d 99a6 e03c 6dba e83c
00000370: 7587 11bd 2f62 74bd d5f3 9c3d 4a0c 383c
00000380: 6735 383d bb8d 7cbd 8f6d bc3d 5e53 43bd
00000390: 2d98 02bd 2d29 dbba 3f38 e03c d06b 09bd
000003a0: 8c76 07bd 53e8 9d3d baf2 77bd 2de2 07bd
000003b0: 1ded 943d ee50 6cbc e6b3 5cbd b274 4cbd
000003c0: 597e 853c d6c7 0c3d 14f9 963d 28e8 1739
000003d0: d4d8 abbd b027 6b3c 03bf 5d3d 87a8 823c
000003e0: b702 38bd eb52 fd3c 2900 113d 9b4e 80bc
000003f0: 6510 9c3d 4f89 6abd 681a 133d c39b 0b3d

encoder.feature_extract.mlps.0.linears.2.bias f4 [128]
0.035581686 -0.0088759065 0.018480234 0.017144883 -0.045006283 0.035102185 0.020936793 0.021575578
-0.022455452 -0.08068037 0.023188528 0.01198432 -0.071637146 0.013973515 0.071696796 0.059747998
-0.007406551 -0.05460132 -0.06312716 -0.064150885 -0.010665506 -0.046898518 0.010520257 -0.075904556
0.045939114 0.07740291 0.08665812 0.08381342 0.019965969 -0.032658227 -0.00048568746 -0.026573772
0.062837034 0.04229195 -0.06284065 0.024061102 0.004729579 0.025702976 -0.017451061 0.031129753
0.0055010887 0.054247655 -0.008823372 -0.039988637 0.061380666 0.06482935 -0.05676199 0.0022999719
-0.05439548 0.037654646 0.051243097 -0.016562741 -0.012602189 0.03253059 -0.005057063 0.05269826
0.062819675 -0.07551784 -0.017201446 0.00063988526 -0.011610564 -0.079496 -0.05278231 -0.044177003
-0.05449303 -0.011530324 -0.07919156 0.0044248863 -0.04809118 0.018338425 -0.031687316 0.05745459
0.0057907896 0.070599206 0.08655647 -0.003910141 -0.03226687 0.071525596 -0.003948234 0.02280732
-0.022763714 -0.06981915 0.07204032 0.027568802 -0.08458082 -0.06713639 0.020551475 -0.07347164
-0.07824908 -0.03881954 0.04257129 -0.0567297 -0.043035187 -0.04949241 -0.08391606 0.074675485
-0.047403194 0.037982915 0.08871462 0.087166935 -0.0046151644 0.062241558 -0.055961024 -0.024998367
-0.020388516 0.050541583 0.030724434 -0.03340818 -0.06176552 -0.059037615 -0.04570598 -0.08770373
0.048474763 0.008083857 0.0116460165 -0.030142436 -0.07084291 0.08309991 -0.02918495 0.08260379
0.01791095 -0.06898318 -0.03457378 -0.06143637 0.03229289 0.040891856 0.06818679 -0.009560259
00000000: 1abe 113d 406c 11bc dc63 973c 6d73 8c3c
00000010: 8258 38bd 4fc7 0f3d a383 ab3c 44bf b03c
00000020: 7ff4 b7bc c03b a5bd def5 bd3c e259 443c
00000030: 7fb6 92bd 2bf1 643c c5d5 923d 51ba 743d
00000040: a7b2 f2bb a2a5 5fbd d048 81bd 8a61 83bd
00000050: 60be 2ebc a918 40bd 285d 2c3c d973 9bbd
00000060: a72a 3c3d 6b85 9e3d d079 b13d 5fa6 ab3d
00000070: ac8f a33c a2c4 05bd dea3 feb9 3db1 d9bc
00000080: b4b0 803d 533a 2d3d 99b2 80bd ca1b c53c
00000090: 96fa 9a3b 0c8f d23c 87f5 8ebc d303 ff3c
000000a0: 7a42 b43b ca32 5e3d e88f 10bc 20cb 23bd
000000b0: 4b6a 7b3d 40c5 843d 437f 68bd 20bb 163b
000000c0: cbcd 5ebd c23b 1a3d 48e4 513d 96ae 87bc
000000d0: 6979 4ebc cc3e 053d b8b5 a5bb 21da 573d
000000e0: 9aa7 803d 19a9 9abd 0cea 8cbc f9bd 273a
000000f0: 3c3a 3ebc cdce a2bd 4332 58bd f2f2 34bd
00000100: 1534 5fbd afe9 3cbc 2f2f a2bd a3fe 903b
00000110: 42fb 44bd 773a 963c 8fca 01bd 8155 6b3d
00000120: aac0 bd3b 5196 903d 8544 b13d a420 80bb
00000130: 442a 04bd 037c 923d 3060 81bb 6bd6 ba3c
00000140: f87a babc 58fd 8ebd e089 933d f8d7 e13c
00000150: b538 adbd ce7e 89bd 915b a83c 4d78 96bd
00000160: 0e41 a0bd 3d01 1fbd 3c5f 2e3d 675d 68bd
00000170: aa45 30bd 8eb8 4abd 2fdc abbd 76ef 983d
00000180: da29 42bd f993 1b3d 03b0 b53d 9484 b23d
00000190: ce3a 97bb 01f1 7e3d 6337 65bd 60c9 ccbc
000001a0: d105 a7bc b104 4f3d cfb1 fb3c 04d7 08bd
000001b0: d8fd 7cbd 6dd1 71bd 3236 3bbd 039e b3bd
000001c0: 798d 463d 2772 043c efce 3e3c 45ed f6bc
000001d0: 1616 91bd 4930 aa3d 4715 efbc 2d2c a93d
000001e0: fcb9 923c 0e47 8dbd 3c9d 0dbd b4a4 7bbd
000001f0: 8d45 043d 387e 273d 84a5 8b3d a2a2 1cbc

encoder.feature_extract.mlps.0.batch_norms.0.weight f4 [128]
0.9966235 0.9990403 0.99329555 0.9958194 0.99685025 1.0030763 1.0036058 0.99668247
0.9992383 0.9946198 1.0050673 1.0045696 1.0047202 1.003839 1.0049953 1.006751
0.9951716 1.004049 1.0016627 0.99667215 0.99472624 0.9965043 0.99668056 1.0002118
0.9971703 1.0028839 0.99500346 1.0004073 0.9980218 1.0060133 1.0064182 0.998877
0.991982 1.005571 0.9984285 1.0028051 1.0038531 0.9897455 0.99638593 1.0028952
1.0027131 1.0013033 1.0023116 0.9991356 1.0031925 0.9990975 1.0023739 1.002522
0.99678683 1.0009952 1.003024 0.9939143 0.99426466 0.9911735 0.9987591 0.9986761
1.0029395 0.99034065 0.99526834 1.0016745 1.0089536 1.0026795 0.99784285 1.0011919
1.0015942 0.99919 0.9977804 0.99757165 0.9915376 0.99652827 1.0024327 0.9992076
0.9994379 1.001301 0.9978811 1.0014639 0.9907743 0.9928928 1.0050243 0.9989244
0.99115324 1.0017476 1.0015465 1.0002842 1.000278 1.0019083 1.0016648 1.006149
1.0079811 0.9925293 1.0047207 0.9986676 0.99918956 0.995217 0.9977312 1.0034258
0.99727154 0.99493796 0.99630684 1.0006878 0.99928474 0.99898523 0.99609244 1.0072073
1.0054969 0.9999623 1.0065435 1.0061486 0.9975937 1.0045214 1.0032494 1.0031724
1.0019202 1.0076379 0.9994066 1.0054591 0.9996013 1.0085377 0.99739873 1.0054151
0.9941163 1.0012543 0.99977946 1.0001935 1.0063756 0.9937029 1.0004486 1.0033754
00000000: b822 7f3f 1bc1 7f3f 9e48 7e3f 05ee 7e3f
00000010: 9431 7f3f ce64 803f 2876 803f 9526 7f3f
00000020: 15ce 7f3f 679f 7e3f 0ca6 803f bd95 803f
00000030: ac9a 803f cc7d 803f b0a3 803f 37dd 803f
00000040: 91c3 7e3f ad84 803f 7c36 803f e825 7f3f
00000050: 61a6 7e3f e81a 7f3f 7526 7f3f f106 803f
00000060: 8e46 7f3f 805e 803f 8cb8 7e3f 590d 803f
00000070: 5b7e 7f3f 0bc5 803f 50d2 803f 67b6 7f3f
00000080: 88f2 7d3f 8db6 803f 0399 7f3f eb5b 803f
00000090: 427e 803f f65f 7d3f 2613 7f3f df5e 803f
000000a0: e758 803f b52a 803f bf4b 803f 5ac7 7f3f
000000b0: 9d68 803f dbc4 7f3f ca4d 803f a452 803f
000000c0: 6c2d 7f3f 9c20 803f 1763 803f 2b71 7e3f
000000d0: 2188 7e3f 8cbd 7d3f adae 7f3f 3da9 7f3f
000000e0: 5260 803f f786 7d3f e8c9 7e3f df36 803f
000000f0: 6425 813f cd57 803f a172 7f3f 0e27 803f
00000100: 3d34 803f eaca 7f3f 896e 7f3f db60 7f3f
00000110: 68d5 7d3f 7a1c 7f3f b74f 803f 12cc 7f3f
00000120: 2adb 7f3f a22a 803f 2375 7f3f f82f 803f
00000130: 62a3 7d3f 392e 7e3f a3a4 803f 82b9 7f3f
00000140: 38bc 7d3f 4439 803f ad32 803f 5009 803f
00000150: 1c09 803f 883e 803f 8d36 803f 7ec9 803f
00000160: 8605 813f 6616 7e3f b09a 803f aea8 7f3f
00000170: e3ca 7f3f 8bc6 7e3f 506b 7f3f 4270 803f
00000180: 304d 7f3f 41b4 7e3f f70d 7f3f 8a16 803f
00000190: 20d1 7f3f 7fbd 7f3f eaff 7e3f 2bec 803f
000001a0: 1fb4 803f 87fd 7f3f 6bd6 803f 7ac9 803f
000001b0: 4d62 7f3f 2894 803f 7a6a 803f f467 803f
000001c0: ec3e 803f 47fa 803f 1cd9 7f3f e2b2 803f
000001d0: dfe5 7f3f c317 813f 8655 7f3f 71b1 803f
000001e0: 687e 7e3f 1a29 803f 8cf1 7f3f 5706 803f
000001f0: ead0 803f 5063 7e3f b30e 803f 9b6e 803f

encoder.feature_extract.mlps.0.batch_norms.0.bias f4 [128]
0.0012985838 -0.007051065 -0.0072393524 -0.0023335323 -0.0053765443 -0.006312014 -0.002375104 -0.0047756634
0.001081695 0.0030546375 0.0055145905 0.00039732826 -0.00315889 0.006589057 0.011975547 0.006981023
0.0015889002 0.0046845 0.0010948572 -0.0036332605 -0.009152187 -0.001908141 -0.005250888 0.009507123
-0.004848463 0.0039722943 -0.0042556273 0.002079508 -0.0022326296 0.0004598037 0.0044842702 -0.005187522
-0.008105783 0.009742355 0.0028097446 0.0011063676 -0.002580504 -0.0057249055 -0.0025517985 -0.00025764617
0.00048674722 0.0015169122 0.0045422595 -0.0047579687 -0.0023156214 -0.002819484 0.0022660466 0.0028175653
0.006171817 -0.000995265 0.011284932 -0.010181062 -0.003962294 -0.0018779413 -0.0055266838 -0.0008648432
0.0103239305 0.001712588 0.0031347852 -0.0036062198 0.0044600493 0.0006257731 -0.008093265 0.0033658855
-0.00509538 -0.0012824455 0.0031528005 0.00727096 -0.0018341916 0.0008107708 0.008231427 0.00024794647
-0.00043987614 0.0037479203 -0.00027484627 0.0033674687 -0.0021727846 -0.009443414 0.0026598321 -0.0031131166
-0.0063414164 0.0019790663 -0.0013910218 0.0033063593 0.0068763513 -0.002748843 0.00074315956 0.0065959888
0.004146684 -0.0057617333 0.0032622311 -0.0009379102 -0.0015885783 -0.010983517 0.0014609118 0.0038431124
0.003055587 -0.0049481755 -0.00082778325 0.00037626992 -0.0018379405 -0.00047810556 0.0043644793 -7.119847e-05
0.0028771702 0.0047558886 0.0036888155 0.010734894 0.0018358734 0.0006163869 0.00038473107 0.006649306
-0.0023955768 0.0024909675 0.00073093636 0.0066252355 -0.0044720187 0.0046866257 0.004096356 -0.004548291
-0.005693005 0.0025547985 -0.006262174 -0.006306086 0.0080653895 -0.0022090615 -0.0026373302 0.0035042104
00000000: 3e35 aa3a 9f0c e7bb 1738 edbb 2dee 18bb
00000010: b92d b0bb 03d5 cebb a2a7 1bbb 2b7d 9cbb
00000020: a9c7 8d3a 5030 483b bdb3 b43b 7f50 d039
00000030: 6105 4fbb 04e9 d73b 1635 443c 11c1 e43b
00000040: a542 d03a 6f80 993b 5081 8f3a ff1b 6ebb
00000050: 0ef3 15bc 961a faba a40f acbb c4c3 1b3c
00000060: dbdf 9ebb 052a 823b ca72 8bbb 5b48 083b
00000070: 4f51 12bb cf11 f139 c9f0 923b 17fc a9bb
00000080: 1ece 04bc 669e 1f3c b123 383b 8903 913a
00000090: ac1d 29bb fd97 bbbb 133c 27bb af14 87b9
000000a0: 1b32 ff39 21d3 c63a 3cd7 943b bce8 9bbb
000000b0: aec1 17bb 18c7 38bb f481 143b e7a6 383b
000000c0: f43c ca3b 8d73 82ba 6fe4 383c 78ce 26bc
000000d0: 22d6 81bb 4125 f6ba 2f19 b5bb a5b6 62ba
000000e0: b425 293c eb78 e03a f870 4d3b 5456 6cbb
000000f0: 9b25 923b ec0a 243a 9d99 04bc 3096 5c3b
00000100: 25f7 a6bb bb17 a8ba 379f 4e3b 3c41 ee3b
00000110: 4269 f0ba e889 543a 1bdd 063c d0fe 8139
00000120: 2d9f e6b9 ab9f 753b 3e19 90b9 c0b0 5c3b
00000130: 4765 0ebb 8db8 1abc 9450 2e3b 6e05 4cbb
00000140: a8cb cfbb 39b3 013b f252 b6ba 81af 583b
00000150: 0453 e13b ef25 34bb 98d0 423a 2a23 d83b
00000160: e8e0 873b eccc bcbb 28cb 553b 17de 75ba
00000170: d837 d0ba 36f4 33bc 117c bf3a badc 7b3b
00000180: 3e40 483b 4e24 a2bb 98ff 58ba 1846 c539
00000190: 0de7 f0ba 3eaa fab9 e803 8f3b 6350 95b8
000001a0: e88e 3c3b 49d7 9b3b 0ec0 713b 69e1 2f3c
000001b0: b0a1 f03a 0695 213a bbb5 c939 6ce2 d93b
000001c0: 1cff 1cbb 803f 233b 4f9c 3f3a 8118 d93b
000001d0: 038a 92bb 4492 993b ba3a 863b d509 95bb
000001e0: 638c babb 686e 273b ec32 cdbb 49a3 cebb
000001f0: b224 043c e7c5 10bb 0fd7 2cbb e5a6 653b

encoder.feature_extract.mlps.0.batch_norms.0.running_mean f4 [128]
-1.083454 -1.0619464 0.13552897 -0.20484124 -0.40135512 0.44255602 0.1954073 -0.71265465
0.20978425 0.6173372 0.5748643 -0.67965347 -0.19497453 0.461459 0.70765346 0.29133418
-0.5149476 -0.80812895 -0.2774166 0.11487435 -0.4262684 0.014232266 0.04229474 0.5212158
1.0678554 0.18684709 -0.58435863 -0.32814893 -0.35110527 -0.39750424 -0.9613383 -0.9075227
0.29088962 0.55771506 0.48408088 0.23379199 0.8526856 -1.1747321 -0.6017149 -0.3524298
0.41054988 -1.0364102 0.9667802 0.16520543 -0.73824257 -1.010516 -0.42873943 0.46536624
-0.5162122 -0.2597614 0.10823331 -1.0247095 -0.082411885 -0.95371324 0.00032205458 0.13200423
-0.2198931 -1.2745767 0.15992337 -0.97342974 -0.13711374 0.9636916 -0.9013247 -0.631932
-0.70140386 0.47480115 0.032653123 -1.2006851 -0.926385 0.006183258 -0.1754289 -0.099553294
0.17556721 -0.9892656 0.5651002 0.62564135 0.7657069 0.0073596304 -0.022092609 -0.8954232
-0.14128573 -0.19474113 0.6283627 -0.5585889 -0.2608581 -1.3557736 0.80051315 -0.45985368
-0.36753863 0.15297514 -0.20910773 0.7699034 0.07727319 -0.19702314 -0.67063344 -0.12280055
0.43280554 0.36015454 -0.8101984 -0.19848424 -1.020605 1.2335634 -0.07424314 -0.7753319
-0.19440931 -0.4740168 0.82379526 -0.11527847 -0.49015826 -0.44517726 0.011418045 0.31115463
-0.20748426 0.47674793 -0.19790754 -0.57802325 0.9326395 -0.79144436 -0.8562405 -0.7558291
-0.08161574 -0.05851181 0.25921097 0.7036481 -0.5187933 -0.37237152 0.045932516 -0.43881282
00000000: 9fae 8abf dced 87bf 1bc8 0a3e e7c1 51be
00000010: 6b7e cdbe b496 e23e da18 483e 8970 36bf
00000020: afd1 563e d009 1e3f 4f2a 133f c5fd 2dbf
00000030: 67a7 47be 5b44 ec3e c728 353f c129 953e
00000040: 9bd3 03bf 8ae1 4ebf 8c09 8ebe 3e43 eb3d
00000050: da3f dabe 732e 693c 403d 2d3d 666e 053f
00000060: 7caf 883f d854 3f3e 8798 15bf 2303 a8be
00000070: 12c4 b3be ad85 cbbe 441a 76bf 6853 68bf
00000080: 7cef 943e 6ac6 0e3f 73d9 f73e 2b67 6f3e
00000090: 9a49 5a3f 9f5d 96bf fd09 1abf ae71 b4be
000000a0: 9833 d23e 17a9 84bf e87e 773f 9d2b 293e
000000b0: 77fd 3cbf 9758 81bf bc83 dbbe 7c44 ee3e
000000c0: 7c26 04bf 72ff 84be 6da9 dd3d ae29 83bf
000000d0: 90c7 a8bd 8d26 74bf 6fd9 a839 1e2c 073e
000000e0: a82b 61be 5425 a3bf f4c2 233e b132 79bf
000000f0: 8b67 0cbe 7eb4 763f 37bd 66bf 4cc6 21bf
00000100: 348f 33bf 2319 f33e 48bf 053d 0db0 99bf
00000110: 9127 6dbf ed9c ca3b a2a3 33be 99e2 cbbd
00000120: e4c7 333e 8340 7dbf 68aa 103f 082a 203f
00000130: 5e05 443f 0e29 f13b 8ffb b4bc 743a 65bf
00000140: 35ad 10be 386a 47be 61dc 203f afff 0ebf
00000150: 318f 85be fd89 adbf 6eee 4c3f f171 ebbe
00000160: 062e bcbe 84a5 1c3e 5620 56be 6418 453f
00000170: 6841 9e3d 6fc0 49be a2ae 2bbf db7e fbbd
00000180: b098 dd3e 2d66 b83e 2a69 4fbf 743f 4bbe
00000190: 2fa3 82bf 68e5 9d3f ca0c 98bd 277c 46bf
000001a0: 3c13 47be 54b2 f2be 3fe4 523f 1e17 ecbd
000001b0: 06f6 fabe 46ee e3be c012 3b3c a94f 9f3e
000001c0: c176 54be 4e18 f43e 46a8 4abe 55f9 13bf
000001d0: 76c1 6e3f 199c 4abf 9432 5bbf 047e 41bf
000001e0: 2726 a7bd 14aa 6fbd 4db7 843e 4822 343f
000001f0: a3cf 04bf 7ba7 bebe bc23 3c3d 13ac e0be

encoder.feature_extract.mlps.0.batch_norms.0.running_var f4 [128]
0.019612376 0.015028457 0.005993732 0.0010930395 1.1813694e-05 0.019453272 0.0002981456 0.0063222297
0.0021246357 0.0013327288 0.0018406811 0.00852731 0.00015749373 9.100866e-05 5.1041694e-05 0.021143788
0.016519083 0.002567388 0.022204043 0.007095897 3.628561e-05 0.012326095 0.002702754 0.0032872383
0.009086972 0.0069708996 0.0010280539 6.234548e-05 0.0063317907 0.00040468236 0.004727292 0.0019128561
0.013033662 0.015841251 2.0263442e-05 0.0032062428 0.011960212 0.018612023 0.014509963 0.015062132
0.01610349 0.0059188805 0.012404038 3.6439655e-05 0.007476446 0.009335866 0.0032357085 0.0006021679
6.806677e-05 0.011013544 0.013598914 0.007980243 0.0012676899 0.013669008 0.020250177 0.00032614623
0.012578191 0.015686955 0.020759705 0.009377824 0.0019485133 0.0045659025 0.0029189654 2.7251708e-05
0.0019939519 0.00386131 0.0018572462 0.014754549 0.016264666 5.3811138e-05 0.0020643517 0.012874994
8.893248e-05 0.0059149195 0.00017870418 0.009608639 0.0020257502 0.004775557 0.0004661953 0.011420735
1.8525147e-05 0.0024234005 4.1615485e-06 0.0037087894 0.00010398951 0.020851742 0.012370098 0.001366238
5.2709704e-05 0.0041335183 0.016930962 0.015633043 0.012568613 0.020028014 0.012941996 0.0058339443
0.019701634 0.001372535 0.0016963611 0.00094831915 0.00856206 0.02161554 0.006487988 0.008189572
0.017560238 0.021360472 0.0058386005 0.0009053457 0.008498992 0.020353775 0.0030157976 0.0022684128
0.00052067585 0.0059134457 0.0015123844 0.008123975 0.008448053 0.012192432 0.001479021 0.0009988266
0.00049544824 0.0069896393 0.0043533174 0.0048222546 0.00046779035 0.0013317607 0.0072726444 0.015375485
00000000: 22aa a03c eb39 763c 1167 c43b 5244 8f3a
00000010: 6e33 4637 785c 9f3c 6d50 9c39 b52a cf3b
00000020: 793d 0b3b f5ae ae3a 0243 f13a 21b6 0b3c
00000030: e724 2539 e7db be38 9a15 5638 bd35 ad3c
00000040: 0753 873c 9f41 283b 41e5 b53c b384 e83b
00000050: 6131 1838 64f3 493c b020 313b b56e 573b
00000060: 86e1 143c 256c e43b c4bf 863a 7abf 8238
00000070: e97a cf3b 8c2b d439 66e7 9a3b cdb8 fa3a
00000080: 248b 553c 83c5 813c 69fb a937 d41f 523b
00000090: c4f4 433c 3e78 983c 32bb 6d3c 29c7 763c
000000a0: 77eb 833c 2bf3 c13b 4e3a 4b3c c8d6 1838
000000b0: fafc f43b 76f5 183c 2e0e 543b ceda 1d3a
000000c0: 12bf 8e38 2772 343c fbcd 5e3c 91bf 023c
000000d0: 9d28 a63a faf3 5f3c b3e3 a53c 9bfe aa39
000000e0: c214 4e3c ee81 803c 4210 aa3c 72a5 193c
000000f0: 4265 ff3a 919d 953b 1d4c 3f3b 999a e437
00000100: f6ac 023b 080e 7d3b d76e f33a 10bd 713c
00000110: 7a3d 853c 45b3 6138 134a 073b a4f1 523c
00000120: 4381 ba38 f1d1 c13b 8a62 3b39 8e6d 1d3c
00000130: 73c2 043b 477c 9c3b ad6b f439 091e 3b3c
00000140: 7366 9b37 ead1 1e3b 6ea3 8b36 290f 733b
00000150: f114 da38 46d1 aa3c f4ab 4a3c 5713 b33a
00000160: 9d14 5d38 7772 873b cdb2 8a3c de10 803c
00000170: 95ec 4d3c ca11 a43c aa0a 543c ac2a bf3b
00000180: 5265 a13c a2e6 b33a 6f58 de3a 9f98 783a
00000190: e247 0c3c 1313 b13c 3099 d43b 8e2d 063c
000001a0: 7dda 8f3c 28fc ae3c bb51 bf3b b954 6d3a
000001b0: 5b3f 0b3c f6bc a63c b0a4 453b a7a9 143b
000001c0: f77d 083a 94c5 c13b 333b c63a 6c1a 053c
000001d0: b469 0a3c c4c2 473c b6db c13a 0feb 823a
000001e0: f8e0 013a 5809 e53b 46a6 8e3b 0104 9e3b
000001f0: c241 f539 798e ae3a 5d4f ee3b 75e9 7b3c

encoder.feature_extract.mlps.0.batch_norms.1.weight f4 [128]
0.9958449 0.99910355 1.0043055 1.0000706 1.0041342 1.0072173 1.0000249 1.0009675
1.0023634 0.99748105 0.9972692 1.0074674 0.9990649 1.0092068 1.0102632 0.99703974
1.001053 1.007404 1.0060354 1.0048491 0.99305314 0.99233973 0.9967899 0.9974695
0.993611 1.0016024 0.9945902 1.0038528 0.9974246 0.9975096 1.0026709 0.99612904
0.9997186 0.9992464 0.9937898 1.0035831 1.005 1.0038722 1.0011516 1.0004368
0.9977822 1.005699 1.000758 0.9887472 1.0029677 1.0006591 0.99527985 1.000465
0.99671006 1.0078189 0.9986401 0.99213266 0.99515635 1.0007013 0.99333197 0.99795246
1.0011947 1.0052738 0.9975361 1.0010103 0.99697584 0.99237996 0.9965518 1.0008916
1.0041709 1.0087081 0.99931455 1.000568 0.99606395 1.0004578 0.9959764 1.0012183
0.99440616 0.9980375 1.0041008 0.9966427 1.0066428 0.9963138 1.0003909 1.0001531
1.0047748 1.0027401 0.9929395 0.9986955 0.9955833 1.0064635 1.0059333 0.9999656
1.0000093 1.0046047 1.0025501 0.99896616 1.0050235 1.0017956 0.99419135 0.9997873
1.0085288 1.0031776 1.004556 0.99378777 1.0026921 1.0033416 0.99785644 0.99501055
0.99757797 0.9943786 0.9925002 1.0015357 1.0052996 0.9964424 1.007482 0.9982499
0.99383825 1.0035828 1.0011467 0.99487084 0.9959959 0.99385 0.9994443 1.0036393
1.0008591 1.0034406 1.0016915 0.99939674 0.99581134 0.99907404 1.0008847 0.99717635
00000000: b1ef 7e3f 40c5 7f3f 158d 803f 5002 803f
00000010: 7887 803f 7fec 803f d100 803f b41f 803f
00000020: 724d 803f eb5a 7f3f 094d 7f3f b1f4 803f
00000030: b8c2 7f3f b02d 813f 4e50 813f ff3d 7f3f
00000040: 8122 803f 9df2 803f c5c5 803f e59e 803f
00000050: bb38 7e3f fa09 7e3f 9f2d 7f3f 295a 7f3f
00000060: 4a5d 7e3f 8234 803f 779d 7e3f 407e 803f
00000070: 3857 7f3f ca5c 7f3f 8557 803f 5002 7f3f
00000080: 8fed 7f3f 9dce 7f3f 0269 7e3f 6975 803f
00000090: d7a3 803f e27e 803f bc25 803f 500e 803f
000000a0: a76e 7f3f bfba 803f d718 803f 891e 7d3f
000000b0: 3f61 803f 9915 803f a9ca 7e3f 3d0f 803f
000000c0: 6428 7f3f 3600 813f e1a6 7f3f 68fc 7d3f
000000d0: 91c2 7e3f fb16 803f 014b 7e3f d079 7f3f
000000e0: 2627 803f d0ac 803f 875e 7f3f 1b21 803f
000000f0: cf39 7f3f 9d0c 7e3f 051e 7f3f 371d 803f
00000100: ac88 803f 591d 813f 14d3 7f3f 9d12 803f
00000110: 0cfe 7e3f 000f 803f 4ff8 7e3f ec27 803f
00000120: 6791 7e3f 637f 7f3f 6086 803f fa23 7f3f
00000130: acd9 803f 6c0e 7f3f cf0c 803f 0405 803f
00000140: 769c 803f ca59 803f 4831 7e3f 82aa 7f3f
00000150: 8cde 7e3f ccd3 803f 6cc2 803f bffd 7f3f
00000160: 4e00 803f e396 803f 9053 803f 3fbc 7f3f
00000170: 9ca4 803f d73a 803f 5383 7e3f 0ff2 7f3f
00000180: 7917 813f 2068 803f 4a95 803f e068 7e3f
00000190: 3758 803f 7f6d 803f 8573 7f3f 03b9 7e3f
000001a0: 4561 7f3f 998f 7e3f 7e14 7e3f 5232 803f
000001b0: a8ad 803f d916 7f3f 2cf5 803f 4e8d 7f3f
000001c0: 2f6c 7e3f 6775 803f 9325 803f dbaf 7e3f
000001d0: 96f9 7e3f f46c 7e3f 95db 7f3f 4177 803f
000001e0: 271c 803f be70 803f 6d37 803f 77d8 7f3f
000001f0: 7eed 7e3f 51c3 7f3f fd1c 803f f346 7f3f

encoder.feature_extract.mlps.0.batch_norms.1.bias f4 [128]
-0.0027880438 -0.0057901056 0.005679312 0.00783953 0.0021343736 0.0005534962 -0.0012449066 0.006792478
0.005592749 7.53714e-05 -0.0016638334 0.00057265675 -0.0018822419 0.0037120676 0.004872417 -0.0042355494
-0.001763359 0.009664677 -0.0025849398 0.009530418 0.00010709534 -0.008597618 -0.006760694 0.0017775539
-0.004071983 -0.004321105 -0.003818153 0.0019093836 -0.0061280183 0.0043395353 0.0010899095 -0.00032746056
-0.0030952191 0.0035947477 -0.003800718 0.0035534843 0.0007381185 0.0032555102 0.0003028115 0.0025987558
-0.008555057 -0.008265948 0.00399932 -0.0045174626 0.008165531 -0.0044830986 -0.001573395 -0.006013449
-0.009439784 0.0034889379 0.002927836 -0.0057935547 0.0062611266 -0.001761632 0.0018973111 0.0023482556
0.0009428111 0.006090719 -0.006598663 0.0029197384 -0.0017093599 -0.0067331768 -0.005827551 0.00047907574
0.0105973445 0.0040974766 -0.0008003132 -0.0059176832 -0.0016030902 -0.0050529833 -0.0015803282 0.004237221
1.14154445e-05 -0.0036313802 0.0023591628 -0.0041668857 0.008179531 -0.006192287 -0.0026070187 0.004850885
0.0028356246 0.0029700405 -0.0008211655 -0.0071955216 -0.004136051 0.0015827874 0.0046956474 0.0029926635
0.0051815654 0.0036018826 -0.001388915 -0.0035666795 0.006397414 0.003569937 -0.0032261207 0.0038495054
-0.0018087347 0.008130926 0.0029711202 0.004932704 0.0045400215 -0.0014666853 0.0014801396 -0.0034227506
-0.0014367431 -0.0033111377 -0.003117135 0.009206713 0.004717817 -0.007295843 0.006009304 0.0019482732
-0.002087772 -0.0013644014 -0.008547984 0.0021388545 0.0024833756 -0.004745691 0.00011352107 0.0057057436
-0.002761688 0.0005677427 0.0049467385 -0.001783745 0.00726124 -0.0010285486 -0.00027745657 0.002732197
00000000: 9db7 36bb edba bdbb 8619 ba3b 5f71 003c
00000010: d9e0 0b3b 8018 113a 222c a3ba 6f93 de3b
00000020: 6143 b73b b610 9e38 fc14 daba 581e 163a
00000030: 8fb5 f6ba 2946 733b cca8 9f3b 5dca 8abb
00000040: 8220 e7ba 9858 1e3c 1868 29bb 7825 1c3c
00000050: 5f98 e038 06dd 0cbc d088 ddbb d0fc e83a
00000060: 456e 85bb 0e98 8dbb fa39 7abb 4844 fa3a
00000070: 8bcd c8bb a932 8e3b 4bdb 8e3a 03af abb9
00000080: 29d9 4abb dc95 6b3b 7815 79bb 93e1 683b
00000090: 4b7e 413a 665a 553b acc2 9e39 e34f 2a3b
000000a0: 832a 0cbc e66d 07bc ba0c 833b 3907 94bb
000000b0: b8c8 053c f5e6 92bb 603a ceba 770c c5bb
000000c0: 53a9 1abc aaa6 643b f0e0 3f3b dcd7 bdbb
000000d0: 232a cd3b 90e6 e6ba 32af f83a 31e5 193b
000000e0: fb26 773a a794 c73b 9939 d8bb 1559 3f3b
000000f0: 9a0c e0ba fba1 dcbb 0af5 bebb 752c fb39
00000100: 7ca0 2d3c 2044 863b 1ccc 51ba 20e9 c1bb
00000110: c81e d2ba 7f93 a5bb 0423 cfba 63d8 8a3b
00000120: f684 3f37 73fc 6dbb 2f9c 1a3b 5f8a 88bb
00000130: 7103 063c abe8 cabb 84da 2abb 2cf4 9e3b
00000140: e3d5 393b 03a5 423b 7c43 57ba 69c8 ebbb
00000150: b687 87bb 8875 cf3a f2dd 993b 9020 443b
00000160: 1fca a93b 900d 6c3b 410c b6ba f4be 69bb
00000170: 66a1 d13b 9bf5 693b 536d 53bb fc47 7c3b
00000180: 1113 edba 9337 053c 20b7 423b 85a2 a13b
00000190: 76c4 943b cb3d c0ba 3e01 c23a 3a50 60bb
000001a0: 1951 bcba acff 58bb d948 4cbb c1d7 163c
000001b0: eb97 9a3b f811 efbb b2e9 c43b 335d ff3a
000001c0: 00d3 08bb b7d5 b2ba d80c 0cbc 062c 0c3b
000001d0: 21c0 223b be81 9bbb 2912 ee38 3ff7 ba3b
000001e0: 70fd 34bb 91d4 143a 4018 a23b 8dcc e9ba
000001f0: b2ef ed3b 5dd0 86ba 9777 91b9 a90e 333b
