FJSP_MultiPPO/saved_network/FJSP_J20M20/best_value0/policy_mch.pth (torch_old, 271482 bytes, 14 tensors)

bn.weight f4 [128]
000000 70 83 80 3f 42 92 7f 3f 1f ef 7f 3f 6d 55 80 3f
       1.0040112 0.99832547 0.99974245 1.002607
000010 88 80 7f 3f ef e2 7d 3f 7c c4 80 3f ca 72 80 3f
       0.998055 0.991744 1.0059962 1.0035031
000020 17 8f 80 3f 19 72 7f 3f e7 17 7e 3f ab 8e 80 3f
       1.0043668 0.99783474 0.9925522 1.0043539
000030 85 56 80 3f 30 9f 80 3f 58 84 7e 3f 98 a7 80 3f
       1.0026404 1.004858 0.9942069 1.0051146
000040 f4 76 80 3f 58 a7 7e 3f f3 69 7e 3f 1b 2e 7e 3f
       1.0036302 0.99474096 0.99380416 0.992891
000050 46 97 7e 3f 6e 84 80 3f 4b 2b 80 3f 89 69 7e 3f
       0.99449575 1.0040414 1.0013212 0.99379784
000060 38 0f 80 3f 82 b8 80 3f eb 7b 80 3f 6f 21 80 3f
       1.0004644 1.0056307 1.0037817 1.0010203
000070 35 80 7e 3f 28 0a 80 3f a1 73 80 3f 74 ba 80 3f
       0.9941438 1.00031 1.0035287 1.0056901
000080 3f 97 80 3f 9b cc 7e 3f 29 a4 80 3f 7a d0 80 3f
       1.0046157 0.99530953 1.0050098 1.0063622
000090 ce 89 80 3f f5 ab 7e 3f b6 df 7e 3f 9f b0 80 3f
       1.0042055 0.99481136 0.99560106 1.00539
0000a0 7b b3 80 3f f2 ed 7f 3f cd 3e 7f 3f f3 e8 7e 3f
       1.0054773 0.9997245 0.997052 0.995742
0000b0 e9 8b 7e 3f df f6 7e 3f 93 1a 7f 3f 99 54 7e 3f
       0.99432236 0.99595445 0.99649924 0.99347836
0000c0 27 b4 7e 3f 23 d2 7e 3f 96 69 7e 3f d9 40 7f 3f
       0.9949364 0.99539393 0.9937986 0.99708325
0000d0 c0 bd 7e 3f 62 ef 7e 3f 8a 7a 7f 3f 76 2d 7e 3f
       0.99508286 0.9958402 0.99796355 0.9928812
0000e0 40 ed 7f 3f a4 2f 80 3f 3e 40 80 3f d2 95 7f 3f
       0.9997139 1.0014539 1.0019605 0.9983798
0000f0 e2 9c 80 3f 13 75 7e 3f 56 84 80 3f 4c 43 80 3f
       1.0047877 0.9939739 1.0040386 1.0020537
000100 dc 41 7e 3f fe 82 80 3f 46 a5 7e 3f 0a 6c 7e 3f
       0.99319243 1.0039976 0.9947094 0.99383605
000110 e3 98 80 3f 74 28 7e 3f 58 e2 7f 3f 4b 05 7e 3f
       1.0046657 0.99280477 0.9995475 0.99226826
000120 35 4c 80 3f e9 43 80 3f 5f d8 7e 3f 3c 23 7f 3f
       1.0023257 1.0020725 0.99548906 0.9966314
000130 96 ca 7f 3f d8 7c 80 3f b5 8b 80 3f 91 a5 7f 3f
       0.99918497 1.0038099 1.0042635 0.9986201
000140 d6 16 80 3f 61 83 7e 3f 8f 95 7e 3f 70 a5 7f 3f
       1.0006969 0.9941922 0.9944696 0.9986181
000150 fd 90 80 3f 66 57 7f 3f c6 5d 80 3f 70 97 7f 3f
       1.0044247 0.99742734 1.0028617 0.9984045
000160 df 45 7e 3f 97 fa 7f 3f 0a 65 80 3f 27 53 80 3f
       0.99325365 0.99991745 1.0030835 1.0025376
000170 f4 bc 80 3f f7 32 80 3f 1b da 7e 3f cb d8 7f 3f
       1.0057664 1.0015553 0.9955155 0.99940175
000180 b2 d8 80 3f 0c ef 7e 3f c8 d5 7e 3f df cb 7f 3f
       1.006613 0.99583507 0.99544954 0.9992046
000190 be a7 80 3f 56 7e 80 3f 42 39 7e 3f c9 14 80 3f
       1.0051191 1.0038555 0.9930612 1.0006343
0001a0 1c c3 80 3f 39 99 7e 3f a8 77 7f 3f bf 87 80 3f
       1.0059543 0.9945255 0.99791956 1.0041426
0001b0 2d 6d 7f 3f 1e 9e 80 3f 01 02 80 3f 6c 75 80 3f
       0.99775964 1.0048254 1.0000612 1.0035834
0001c0 0b a1 80 3f d3 43 80 3f 70 ab 7e 3f 74 ae 7e 3f
       1.0049146 1.0020698 0.9948034 0.99484944
0001d0 51 89 80 3f 4b b5 7f 3f e9 76 7e 3f 18 67 7f 3f
       1.0041906 0.99886006 0.9940019 0.99766684
0001e0 23 4b 7e 3f a3 09 80 3f 05 43 7e 3f 0b bd 7e 3f
       0.993334 1.0002941 0.99321014 0.99507207
0001f0 00 6d 7f 3f 7a b5 80 3f 53 43 80 3f 41 54 7f 3f
       0.99775696 1.0055382 1.0020546 0.99737936

bn.bias f4 [128]
000000 c2 0f f1 ba 16 a5 a5 3a d9 f1 5f ba ff 3b 65 bb
       -0.0018391537 0.00126377 -0.0008542813 -0.0034978387
000010 ae 13 6f ba f2 39 cb b8 dc 51 c8 ba 72 28 b3 3b
       -0.0009120059 -9.6905875e-05 -0.0015283185 0.005467468
000020 36 e3 e2 39 90 1d 87 3b 06 67 ba 3a b4 d1 ab 3a
       0.00043275364 0.004123397 0.0014221377 0.0013108761
000030 d6 4a 55 bb 70 f1 fa b9 2f ca 3a bb 6a 48 72 ba
       -0.0032545826 -0.000478636 -0.0028501858 -0.0009242358
000040 4e 2b f0 ba 35 db da 3b 6d bc 30 ba 72 7c 26 3b
       -0.0018323453 0.0066789635 -0.0006741945 0.0025403765
000050 aa 14 e8 3a d6 89 10 3b 1d b5 3c ba 1a 92 bd bb
       0.0017706354 0.0022054813 -0.0007198619 -0.005785239
000060 56 76 00 bb 88 05 1a bb f7 78 96 ba d0 8a d6 3b
       -0.0019601784 -0.0023501832 -0.0011480142 0.0065473095
000070 36 a2 0a ba ce bc b0 ba 70 d2 fd b9 1e 6f 1e b9
       -0.00052884535 -0.0013484003 -0.0004841271 -0.00015109449
000080 c6 4f ac 3b e5 27 dd ba d0 eb 08 3b aa 0a 04 3b
       0.005258533 -0.0016872851 0.0020892508 0.0020147958
000090 33 38 f1 ba 50 d8 16 bb 6d eb ba ba 6a 25 6a bb
       -0.001840359 -0.0023017116 -0.0014260836 -0.0035727867
0000a0 7e 70 b0 ba 1d e0 7e 3b f5 97 92 ba 7e a7 7e b9
       -0.001346126 0.0038890906 -0.0011184203 -0.00024285723
0000b0 22 24 84 bb a0 5e 85 ba 58 a8 41 bb 6a c9 83 3b
       -0.0040326277 -0.0010175295 -0.0029549804 0.004021813
0000c0 ef bb f8 ba f3 20 1a 3a 0c 66 5a bb 96 77 4a 3b
       -0.0018976907 0.00058795436 -0.0033324985 0.0030894033
0000d0 43 d3 7c 3b c4 5b 78 3b 59 20 d8 bb d7 75 7e 3a
       0.003857807 0.0037896493 -0.006595653 0.00097068906
0000e0 78 00 33 3b 3b b3 40 37 7d 39 17 bb 0b 16 65 3b
       0.0027313512 1.1485822e-05 -0.0023075037 0.0034955766
0000f0 0a 1a 5a bb ee 82 6a bb 02 d1 69 3b 81 be 90 3b
       -0.003327968 -0.0035783607 0.0035677557 0.004417241
000100 f5 2c e9 39 c5 58 2d 3b 5f 31 21 3b 3e 31 a8 bb
       0.0004447472 0.0026450616 0.0024596078 -0.0051328233
000110 0b 66 bc bb 00 22 0f bb eb 22 32 ba e0 e3 f8 3a
       -0.005749469 -0.0021840334 -0.00067953643 0.001898881
000120 6d bc c7 3a 80 55 7c 3b 7d a0 ab 3b c9 ec 12 3b
       0.001523865 0.003850311 0.0052376376 0.0022418967
000130 7f dd 28 3b 66 7c 51 3a ea 29 5e 3a da d6 91 3b
       0.0025766788 0.0007991254 0.00084748736 0.004450661
000140 50 ae 9c bb 53 3f 0c ba 2a 23 35 3b b7 54 2f 3c
       -0.004781522 -0.0005350012 0.0027639368 0.01070135
000150 75 a4 90 3b 61 3a 14 3b a4 56 88 bb 85 cc b2 3a
       0.004414136 0.0022617804 -0.004160719 0.0013641274
000160 02 c7 d4 3b a7 af 71 3a b7 69 79 bb 2f 56 ce 3a
       0.00649345 0.00092195946 -0.0038057396 0.0015742237
000170 19 f9 66 b9 f6 bf 0a 3b 8e a8 21 bb c4 6b 60 ba
       -0.00022027305 0.0021171547 -0.0024667117 -0.000856098
000180 0b f7 8f 3b 40 3f d6 39 c6 98 ad b9 2b 54 bc 3b
       0.0043934635 0.00040864386 -0.00033110956 0.0057473383
000190 13 00 c6 b7 22 13 2c bb 12 42 8e bb bb 44 91 3a
       -2.3603474e-05 -0.0026256521 -0.0043413723 0.0011083105
0001a0 24 04 92 b9 c2 4e 95 ba f4 ae 7e bb 3e 31 b7 bb
       -0.00027850375 -0.001139127 -0.0038861604 -0.005590587
0001b0 76 4a 75 3b 10 81 f1 ba f6 9b 01 3b a7 c1 df 3a
       0.0037428415 -0.0018425304 0.0019776798 0.0017071263
0001c0 14 b4 9b 3b 35 33 f8 3b 41 40 4b 3a c4 17 94 3a
       0.0047516916 0.0075744637 0.000775341 0.0011298587
0001d0 eb a1 a1 bb 9e 34 d2 bb 2a 0a 43 bb 15 b8 61 bb
       -0.004932632 -0.006414964 -0.0029760697 -0.0034441997
0001e0 59 d0 cb bb 40 ea 53 bb be ad d7 bb e8 74 a1 3a
       -0.0062199053 -0.0032335669 -0.006581991 0.0012318166
0001f0 34 56 eb 3a 78 35 58 bb 11 cc c0 bb 93 2c ea ba
       0.0017954768 -0.0032990854 -0.0058837016 -0.0017866067

bn.running_mean f4 [128]
000000 0c 5e e3 3c 84 88 19 3e 25 f5 5d be 91 22 c1 3d
       0.027754806 0.14993483 -0.21675546 0.09430421
000010 8f f9 d9 bd 1f c8 43 be b4 51 53 be 5d ff 0b bd
       -0.10643303 -0.19119309 -0.20636636 -0.03417908
000020 7c 6a 52 3e af 9f be 3d bc cc ad bd a0 87 3f 3e
       0.20548433 0.09307801 -0.084863156 0.1870408
000030 1d b9 e9 3d f5 af 28 3e 5f ff 1d be 70 79 b0 bd
       0.11412261 0.16473372 -0.15429448 -0.08616912
000040 84 84 7d 3c b5 c4 31 be 57 36 49 be d8 2a 56 be
       0.015473489 -0.17360194 -0.19649635 -0.20914781
000050 2d 48 4a be 48 7c ab bd dc 4a 45 3e 80 86 69 be
       -0.19754095 -0.08373314 0.19266838 -0.22805214
000060 2e dc a4 3d cb b2 a5 bd 3c 14 8d bd 26 8c 7a be
       0.080498084 -0.08090743 -0.06888625 -0.24467525
000070 83 db 0d 3d 5c 61 52 be fb fa 13 bd f8 f7 0a be
       0.03463317 -0.20544952 -0.036128026 -0.13571155
000080 c4 bb 03 bd 1d cb 3f 3e 52 78 8a 3d 9c 21 68 3d
       -0.03216149 0.18729825 0.067612305 0.056672677
000090 1d c1 b8 3c f8 96 42 be 71 8d 38 be 3c a1 db bc
       0.022553021 -0.19002903 -0.18022706 -0.026810281
0000a0 b5 ae 41 be c7 1c fb 3d 28 b3 07 3e 94 99 50 bb
       -0.18914302 0.12261348 0.13251936 -0.003182982
0000b0 99 df 65 be 57 ad 6d 3e 36 04 da 3d 5e db c4 bd
       -0.22448577 0.23210655 0.106453344 -0.096121535
0000c0 4b 02 13 bd ba 80 94 bd 98 77 6f 3c a5 6f 13 3c
       -0.03589086 -0.07251115 0.014615916 0.008998786
0000d0 db 46 4a be f6 e0 4c bd 7d 16 81 be f2 78 10 bd
       -0.19753592 -0.050019227 -0.2521247 -0.035271592
0000e0 9f 06 69 bd 72 bc 11 bd f3 26 0e 3b ed 41 19 be
       -0.05689108 -0.035580106 0.0021690696 -0.14966555
0000f0 fa 1e 33 be 10 29 05 3e 8e e8 2f 3e 4a 2e 41 3e
       -0.17492285 0.13003945 0.17178556 0.18865314
000100 27 fa 47 3e c4 49 2f be c8 5f 24 3e 86 c1 c4 bd
       0.1952902 -0.17117983 0.16052163 -0.09607224
000110 08 2d 61 3e 0d ab 51 be 7a c4 01 3e 7f 19 e1 bd
       0.21989834 -0.20475407 0.12672606 -0.10991191
000120 8f 5e 8f bc 27 0c 95 bd e0 d0 49 be 17 19 b4 bc
       -0.017501144 -0.072777085 -0.19708586 -0.02198462
000130 84 87 66 3c 09 b6 43 3e f1 bc 24 3e 03 57 02 3d
       0.014070395 0.1911241 0.160877 0.031821262
000140 5a 2a 53 3e 90 c0 ce 3d 9d 8b 1d be c9 d5 9a bd
       0.20621625 0.10095322 -0.1538529 -0.075603075
000150 b3 01 4a be 3d 46 2f 3e e5 1b b4 b9 35 c5 5f 3d
       -0.1972721 0.17116638 -0.00034353058 0.05463143
000160 87 e3 77 3d 8c c3 b2 bd 5c af bb 3d 35 57 43 be
       0.06051972 -0.08728704 0.091643065 -0.19076236
000170 f0 9f 00 be 22 7a 09 3e 7c 53 93 3d 9b f1 9b 3d
       -0.12561011 0.13425496 0.07193658 0.07614442
000180 62 c5 42 be b4 60 38 3e ff 52 aa bd 61 1f a2 bd
       -0.19020608 0.1800564 -0.083166115 -0.07916141
000190 aa 87 78 bc 40 27 41 be 19 6b d3 bd 9a 06 11 3e
       -0.015169064 -0.18862629 -0.10323162 0.14162675
0001a0 cc a5 e2 3d cd f4 9d 3d d9 d2 0c 3e e1 f7 ee 3d
       0.110667795 0.07712708 0.13752307 0.11668373
0001b0 08 c4 fc bc dc 81 a1 bd 7b 77 72 bd 81 02 13 3e
       -0.030855194 -0.07886097 -0.059195977 0.14356424
0001c0 ec b3 1a be 72 b4 56 be b8 a9 07 3d 7f 4b 46 bd
       -0.15107697 -0.20967272 0.03312084 -0.048411842
0001d0 1d 21 d5 bd 2b b0 28 3e d4 90 7a bc d2 61 76 3b
       -0.104067065 0.16473453 -0.015293319 0.0037594927
0001e0 c6 e7 09 be 20 93 a0 bd 1d 59 22 3e fa 21 e4 bd
       -0.13467321 -0.07840562 0.15854307 -0.11139293
0001f0 47 34 ac 3d ee b7 13 be 30 f9 08 3e fc b5 60 bd
       0.084084086 -0.14425632 0.13376307 -0.054861054

bn.running_var f4 [128]
000000 7c 17 3c 38 71 89 4d 39 6e 0e c4 39 10 83 84 38
       4.4844564e-05 0.00019601524 0.00037394784 6.318663e-05
000010 d0 8e b5 39 73 9d c6 39 54 99 c8 39 01 48 d0 38
       0.00034629414 0.00037882812 0.0003826121 9.931625e-05
000020 53 77 ad 39 93 e3 b7 38 3b 66 5b 38 43 36 82 39
       0.00033086035 8.768509e-05 5.230888e-05 0.0002483596
000030 a3 91 c1 38 9f 58 4e 39 54 9f 9f 39 c0 b1 80 38
       9.230084e-05 0.00019678705 0.00030445552 6.136624e-05
000040 76 46 20 39 b7 e7 f4 39 35 62 d6 39 f0 ce a1 39
       0.00015285038 0.00046711948 0.0004089043 0.00030862493
000050 ff b5 95 39 fb 5b 80 39 63 1d 93 39 c5 a4 f1 39
       0.00028555092 0.00024482593 0.0002805992 0.00046089865
000060 7d 08 1b 39 36 02 69 39 a1 41 11 38 f2 87 ef 39
       0.00014785114 0.00022221435 3.4631816e-05 0.0004568692
000070 b6 f9 bb 38 69 21 9e 39 db d1 1a 37 8c cf 37 39
       8.963367e-05 0.00030161 9.227976e-06 0.00017529557
000080 89 8b 67 38 49 e6 81 39 29 44 20 39 8c 07 2a 39
       5.5204644e-05 0.00024776373 0.0001528418 0.00016215275
000090 37 bb c2 37 2a a4 87 39 17 ce 71 39 20 bf 2d 39
       2.321378e-05 0.00025871518 0.00023060325 0.00016569765
0000a0 fc fc a1 39 24 d3 a0 39 80 f2 b3 39 e9 e4 4b 39
       0.000308968 0.0003067489 0.00034322217 0.00019444864
0000b0 8f 2a bf 39 39 f2 d1 39 e1 fe c7 38 aa 91 ee 38
       0.00036462068 0.00040044056 9.536534e-05 0.000113758564
0000c0 72 d2 70 39 55 98 36 38 13 03 00 39 a8 10 50 39
       0.0002296658 4.353405e-05 0.00012208176 0.0001984263
0000d0 a9 58 a5 39 04 d2 79 38 9d 34 08 3a 0d 3b d7 38
       0.0003153731 5.956182e-05 0.0005195828 0.00010262998
0000e0 28 fb 5a 38 bd 0a 18 37 03 3f 1d 38 54 0a 35 39
       5.2209158e-05 9.062406e-06 3.74904e-05 0.00017265353
0000f0 72 57 73 39 f3 fb cc 39 4e 63 80 39 fb 1c 8f 39
       0.00023206862 0.0003909763 0.0002448805 0.00027296678
000100 a5 f4 d4 39 84 47 7d 39 e7 99 75 39 65 60 67 39
       0.00040618065 0.00024154602 0.00023422354 0.00022065786
000110 1f c5 be 39 b7 ba a7 39 46 04 f9 38 11 b7 27 39
       0.0003638649 0.00031991836 0.00011874041 0.00015994559
000120 0c d6 54 39 84 36 1d 38 49 1d e6 39 a4 bb 21 38
       0.00020297634 3.748249e-05 0.00043890838 3.8560145e-05
000130 e3 5a 81 36 14 da 8c 39 dd 5d 45 39 b5 7c 09 39
       3.85508e-06 0.00026865362 0.00018822351 0.00013111795
000140 9c 6f c5 39 d3 54 66 39 f6 09 3a 39 f8 2f bc 38
       0.00037657924 0.00021966109 0.00017742053 8.9734735e-05
000150 e7 4c 90 39 cb 2b c1 39 96 67 ff 36 b5 4e 28 39
       0.00027523117 0.00036844457 7.611651e-06 0.00016051049
000160 67 4e 17 38 b3 72 b3 38 09 52 d1 38 6b 12 8c 39
       3.6074223e-05 8.5567495e-05 9.981177e-05 0.00026716603
000170 46 52 1e 39 45 62 08 39 95 41 24 38 89 3c ad 38
       0.00015098703 0.00013006579 3.9161725e-05 8.2605584e-05
000180 e6 8e c6 39 68 91 bf 39 ff 89 75 38 97 23 73 39
       0.0003787197 0.00036538695 5.854107e-05 0.00023187544
000190 79 ef e2 38 a8 ae a8 39 19 f2 9d 38 9a 32 16 39
       0.00010821125 0.00032173586 7.5314376e-05 0.00014323965
0001a0 22 00 00 39 ec 5e 7a 38 26 29 a5 39 f2 a1 cc 38
       0.0001220708 5.9693048e-05 0.0003150191 9.757643e-05
0001b0 f7 a0 8c 37 f8 2c 58 38 a6 0a 40 39 31 8b 41 39
       1.6764256e-05 5.1540293e-05 0.00018314514 0.00018457767
0001c0 cc 19 64 39 35 5e a2 39 a2 da 00 39 6d 72 a3 38
       0.00021753384 0.00030969238 0.00012288478 7.793759e-05
0001d0 57 ca 33 39 bf 3f aa 39 a1 d9 37 38 ca 49 62 38
       0.00017146148 0.0003247242 4.3833283e-05 5.395132e-05
0001e0 a6 90 44 39 6e 3e de 38 ba 91 3b 39 b4 f5 19 39
       0.00018745902 0.00010597413 0.00017887997 0.00014682749
0001f0 53 e8 94 38 ea 71 ba 39 e0 46 a4 39 f5 dd 17 38
       7.100464e-05 0.00035561557 0.00031333324 3.620792e-05

bn1.weight f4 [128]
000000 00 00 80 3f 00 00 80 3f 00 00 80 3f 00 00 80 3f
       1.0 1.0 1.0 1.0
000010 00 00 80 3f 00 00 80 3f 00 00 80 3f 00 00 80 3f
       1.0 1.0 1.0 1.0
000020 00 00 80 3f 00 00 80 3f 00 00 80 3f 00 00 80 3f
       1.0 1.0 1.0 1.0
000030 00 00 80 3f 00 00 80 3f 00 00 80 3f 00 00 80 3f
       1.0 1.0 1.0 1.0
000040 00 00 80 3f 00 00 80 3f 00 00 80 3f 00 00 80 3f
       1.0 1.0 1.0 1.0
000050 00 00 80 3f 00 00 80 3f 00 00 80 3f 00 00 80 3f
       1.0 1.0 1.0 1.0
000060 00 00 80 3f 00 00 80 3f 00 00 80 3f 00 00 80 3f
       1.0 1.0 1.0 1.0
000070 00 00 80 3f 00 00 80 3f 00 00 80 3f 00 00 80 3f
       1.0 1.0 1.0 1.0
000080 00 00 80 3f 00 00 80 3f 00 00 80 3f 00 00 80 3f
       1.0 1.0 1.0 1.0
000090 00 00 80 3f 00 00 80 3f 00 00 80 3f 00 00 80 3f
       1.0 1.0 1.0 1.0
0000a0 00 00 80 3f 00 00 80 3f 00 00 80 3f 00 00 80 3f
       1.0 1.0 1.0 1.0
0000b0 00 00 80 3f 00 00 80 3f 00 00 80 3f 00 00 80 3f
       1.0 1.0 1.0 1.0
0000c0 00 00 80 3f 00 00 80 3f 00 00 80 3f 00 00 80 3f
       1.0 1.0 1.0 1.0
0000d0 00 00 80 3f 00 00 80 3f 00 00 80 3f 00 00 80 3f
       1.0 1.0 1.0 1.0
0000e0 00 00 80 3f 00 00 80 3f 00 00 80 3f 00 00 80 3f
       1.0 1.0 1.0 1.0
0000f0 00 00 80 3f 00 00 80 3f 00 00 80 3f 00 00 80 3f
       1.0 1.0 1.0 1.0
000100 00 00 80 3f 00 00 80 3f 00 00 80 3f 00 00 80 3f
       1.0 1.0 1.0 1.0
000110 00 00 80 3f 00 00 80 3f 00 00 80 3f 00 00 80 3f
       1.0 1.0 1.0 1.0
000120 00 00 80 3f 00 00 80 3f 00 00 80 3f 00 00 80 3f
       1.0 1.0 1.0 1.0
000130 00 00 80 3f 00 00 80 3f 00 00 80 3f 00 00 80 3f
       1.0 1.0 1.0 1.0
000140 00 00 80 3f 00 00 80 3f 00 00 80 3f 00 00 80 3f
       1.0 1.0 1.0 1.0
000150 00 00 80 3f 00 00 80 3f 00 00 80 3f 00 00 80 3f
       1.0 1.0 1.0 1.0
000160 00 00 80 3f 00 00 80 3f 00 00 80 3f 00 00 80 3f
       1.0 1.0 1.0 1.0
000170 00 00 80 3f 00 00 80 3f 00 00 80 3f 00 00 80 3f
       1.0 1.0 1.0 1.0
000180 00 00 80 3f 00 00 80 3f 00 00 80 3f 00 00 80 3f
       1.0 1.0 1.0 1.0
000190 00 00 80 3f 00 00 80 3f 00 00 80 3f 00 00 80 3f
       1.0 1.0 1.0 1.0
0001a0 00 00 80 3f 00 00 80 3f 00 00 80 3f 00 00 80 3f
       1.0 1.0 1.0 1.0
0001b0 00 00 80 3f 00 00 80 3f 00 00 80 3f 00 00 80 3f
       1.0 1.0 1.0 1.0
0001c0 00 00 80 3f 00 00 80 3f 00 00 80 3f 00 00 80 3f
       1.0 1.0 1.0 1.0
0001d0 00 00 80 3f 00 00 80 3f 00 00 80 3f 00 00 80 3f
       1.0 1.0 1.0 1.0
0001e0 00 00 80 3f 00 00 80 3f 00 00 80 3f 00 00 80 3f
       1.0 1.0 1.0 1.0
0001f0 00 00 80 3f 00 00 80 3f 00 00 80 3f 00 00 80 3f
       1.0 1.0 1.0 1.0

bn1.bias f4 [128]
000000 00 00 00 00 00 00 00 00 00 00 00 00 00 00 00 00
       0.0 0.0 0.0 0.0
000010 00 00 00 00 00 00 00 00 00 00 00 00 00 00 00 00
       0.0 0.0 0.0 0.0
000020 00 00 00 00 00 00 00 00 00 00 00 00 00 00 00 00
       0.0 0.0 0.0 0.0
000030 00 00 00 00 00 00 00 00 00 00 00 00 00 00 00 00
       0.0 0.0 0.0 0.0
000040 00 00 00 00 00 00 00 00 00 00 00 00 00 00 00 00
       0.0 0.0 0.0 0.0
000050 00 00 00 00 00 00 00 00 00 00 00 00 00 00 00 00
       0.0 0.0 0.0 0.0
000060 00 00 00 00 00 00 00 00 00 00 00 00 00 00 00 00
       0.0 0.0 0.0 0.0
000070 00 00 00 00 00 00 00 00 00 00 00 00 00 00 00 00
       0.0 0.0 0.0 0.0
000080 00 00 00 00 00 00 00 00 00 00 00 00 00 00 00 00
       0.0 0.0 0.0 0.0
000090 00 00 00 00 00 00 00 00 00 00 00 00 00 00 00 00
       0.0 0.0 0.0 0.0
0000a0 00 00 00 00 00 00 00 00 00 00 00 00 00 00 00 00
       0.0 0.0 0.0 0.0
0000b0 00 00 00 00 00 00 00 00 00 00 00 00 00 00 00 00
       0.0 0.0 0.0 0.0
0000c0 00 00 00 00 00 00 00 00 00 00 00 00 00 00 00 00
       0.0 0.0 0.0 0.0
0000d0 00 00 00 00 00 00 00 00 00 00 00 00 00 00 00 00
       0.0 0.0 0.0 0.0
0000e0 00 00 00 00 00 00 00 00 00 00 00 00 00 00 00 00
       0.0 0.0 0.0 0.0
0000f0 00 00 00 00 00 00 00 00 00 00 00 00 00 00 00 00
       0.0 0.0 0.0 0.0
000100 00 00 00 00 00 00 00 00 00 00 00 00 00 00 00 00
       0.0 0.0 0.0 0.0
000110 00 00 00 00 00 00 00 00 00 00 00 00 00 00 00 00
       0.0 0.0 0.0 0.0
000120 00 00 00 00 00 00 00 00 00 00 00 00 00 00 00 00
       0.0 0.0 0.0 0.0
000130 00 00 00 00 00 00 00 00 00 00 00 00 00 00 00 00
       0.0 0.0 0.0 0.0
000140 00 00 00 00 00 00 00 00 00 00 00 00 00 00 00 00
       0.0 0.0 0.0 0.0
000150 00 00 00 00 00 00 00 00 00 00 00 00 00 00 00 00
       0.0 0.0 0.0 0.0
000160 00 00 00 00 00 00 00 00 00 00 00 00 00 00 00 00
       0.0 0.0 0.0 0.0
000170 00 00 00 00 00 00 00 00 00 00 00 00 00 00 00 00
       0.0 0.0 0.0 0.0
000180 00 00 00 00 00 00 00 00 00 00 00 00 00 00 00 00
       0.0 0.0 0.0 0.0
000190 00 00 00 00 00 00 00 00 00 00 00 00 00 00 00 00
       0.0 0.0 0.0 0.0
0001a0 00 00 00 00 00 00 00 00 00 00 00 00 00 00 00 00
       0.0 0.0 0.0 0.0
0001b0 00 00 00 00 00 00 00 00 00 00 00 00 00 00 00 00
       0.0 0.0 0.0 0.0
0001c0 00 00 00 00 00 00 00 00 00 00 00 00 00 00 00 00
       0.0 0.0 0.0 0.0
0001d0 00 00 00 00 00 00 00 00 00 00 00 00 00 00 00 00
       0.0 0.0 0.0 0.0
0001e0 00 00 00 00 00 00 00 00 00 00 00 00 00 00 00 00
       0.0 0.0 0.0 0.0
0001f0 00 00 00 00 00 00 00 00 00 00 00 00 00 00 00 00
       0.0 0.0 0.0 0.0

bn1.running_mean f4 [128]
000000 00 00 00 00 00 00 00 00 00 00 00 00 00 00 00 00
       0.0 0.0 0.0 0.0
000010 00 00 00 00 00 00 00 00 00 00 00 00 00 00 00 00
       0.0 0.0 0.0 0.0
000020 00 00 00 00 00 00 00 00 00 00 00 00 00 00 00 00
       0.0 0.0 0.0 0.0
000030 00 00 00 00 00 00 00 00 00 00 00 00 00 00 00 00
       0.0 0.0 0.0 0.0
000040 00 00 00 00 00 00 00 00 00 00 00 00 00 00 00 00
       0.0 0.0 0.0 0.0
000050 00 00 00 00 00 00 00 00 00 00 00 00 00 00 00 00
       0.0 0.0 0.0 0.0
000060 00 00 00 00 00 00 00 00 00 00 00 00 00 00 00 00
       0.0 0.0 0.0 0.0
000070 00 00 00 00 00 00 00 00 00 00 00 00 00 00 00 00
       0.0 0.0 0.0 0.0
000080 00 00 00 00 00 00 00 00 00 00 00 00 00 00 00 00
       0.0 0.0 0.0 0.0
000090 00 00 00 00 00 00 00 00 00 00 00 00 00 00 00 00
       0.0 0.0 0.0 0.0
0000a0 00 00 00 00 00 00 00 00 00 00 00 00 00 00 00 00
       0.0 0.0 0.0 0.0
0000b0 00 00 00 00 00 00 00 00 00 00 00 00 00 00 00 00
       0.0 0.0 0.0 0.0
0000c0 00 00 00 00 00 00 00 00 00 00 00 00 00 00 00 00
       0.0 0.0 0.0 0.0
0000d0 00 00 00 00 00 00 00 00 00 00 00 00 00 00 00 00
       0.0 0.0 0.0 0.0
0000e0 00 00 00 00 00 00 00 00 00 00 00 00 00 00 00 00
       0.0 0.0 0.0 0.0
0000f0 00 00 00 00 00 00 00 00 00 00 00 00 00 00 00 00
       0.0 0.0 0.0 0.0
000100 00 00 00 00 00 00 00 00 00 00 00 00 00 00 00 00
       0.0 0.0 0.0 0.0
000110 00 00 00 00 00 00 00 00 00 00 00 00 00 00 00 00
       0.0 0.0 0.0 0.0
000120 00 00 00 00 00 00 00 00 00 00 00 00 00 00 00 00
       0.0 0.0 0.0 0.0
000130 00 00 00 00 00 00 00 00 00 00 00 00 00 00 00 00
       0.0 0.0 0.0 0.0
000140 00 00 00 00 00 00 00 00 00 00 00 00 00 00 00 00
       0.0 0.0 0.0 0.0
000150 00 00 00 00 00 00 00 00 00 00 00 00 00 00 00 00
       0.0 0.0 0.0 0.0
000160 00 00 00 00 00 00 00 00 00 00 00 00 00 00 00 00
       0.0 0.0 0.0 0.0
000170 00 00 00 00 00 00 00 00 00 00 00 00 00 00 00 00
       0.0 0.0 0.0 0.0
000180 00 00 00 00 00 00 00 00 00 00 00 00 00 00 00 00
       0.0 0.0 0.0 0.0
000190 00 00 00 00 00 00 00 00 00 00 00 00 00 00 00 00
       0.0 0.0 0.0 0.0
0001a0 00 00 00 00 00 00 00 00 00 00 00 00 00 00 00 00
       0.0 0.0 0.0 0.0
0001b0 00 00 00 00 00 00 00 00 00 00 00 00 00 00 00 00
       0.0 0.0 0.0 0.0
0001c0 00 00 00 00 00 00 00 00 00 00 00 00 00 00 00 00
       0.0 0.0 0.0 0.0
0001d0 00 00 00 00 00 00 00 00 00 00 00 00 00 00 00 00
       0.0 0.0 0.0 0.0
0001e0 00 00 00 00 00 00 00 00 00 00 00 00 00 00 00 00
       0.0 0.0 0.0 0.0
0001f0 00 00 00 00 00 00 00 00 00 00 00 00 00 00 00 00
       0.0 0.0 0.0 0.0

bn1.running_var f4 [128]
000000 00 00 80 3f 00 00 80 3f 00 00 80 3f 00 00 80 3f
       1.0 1.0 1.0 1.0
000010 00 00 80 3f 00 00 80 3f 00 00 80 3f 00 00 80 3f
       1.0 1.0 1.0 1.0
000020 00 00 80 3f 00 00 80 3f 00 00 80 3f 00 00 80 3f
       1.0 1.0 1.0 1.0
000030 00 00 80 3f 00 00 80 3f 00 00 80 3f 00 00 80 3f
       1.0 1.0 1.0 1.0
000040 00 00 80 3f 00 00 80 3f 00 00 80 3f 00 00 80 3f
       1.0 1.0 1.0 1.0
000050 00 00 80 3f 00 00 80 3f 00 00 80 3f 00 00 80 3f
       1.0 1.0 1.0 1.0
000060 00 00 80 3f 00 00 80 3f 00 00 80 3f 00 00 80 3f
       1.0 1.0 1.0 1.0
000070 00 00 80 3f 00 00 80 3f 00 00 80 3f 00 00 80 3f
       1.0 1.0 1.0 1.0
000080 00 00 80 3f 00 00 80 3f 00 00 80 3f 00 00 80 3f
       1.0 1.0 1.0 1.0
000090 00 00 80 3f 00 00 80 3f 00 00 80 3f 00 00 80 3f
       1.0 1.0 1.0 1.0
0000a0 00 00 80 3f 00 00 80 3f 00 00 80 3f 00 00 80 3f
       1.0 1.0 1.0 1.0
0000b0 00 00 80 3f 00 00 80 3f 00 00 80 3f 00 00 80 3f
       1.0 1.0 1.0 1.0
0000c0 00 00 80 3f 00 00 80 3f 00 00 80 3f 00 00 80 3f
       1.0 1.0 1.0 1.0
0000d0 00 00 80 3f 00 00 80 3f 00 00 80 3f 00 00 80 3f
       1.0 1.0 1.0 1.0
0000e0 00 00 80 3f 00 00 80 3f 00 00 80 3f 00 00 80 3f
       1.0 1.0 1.0 1.0
0000f0 00 00 80 3f 00 00 80 3f 00 00 80 3f 00 00 80 3f
       1.0 1.0 1.0 1.0
000100 00 00 80 3f 00 00 80 3f 00 00 80 3f 00 00 80 3f
       1.0 1.0 1.0 1.0
000110 00 00 80 3f 00 00 80 3f 00 00 80 3f 00 00 80 3f
       1.0 1.0 1.0 1.0
000120 00 00 80 3f 00 00 80 3f 00 00 80 3f 00 00 80 3f
       1.0 1.0 1.0 1.0
000130 00 00 80 3f 00 00 80 3f 00 00 80 3f 00 00 80 3f
       1.0 1.0 1.0 1.0
000140 00 00 80 3f 00 00 80 3f 00 00 80 3f 00 00 80 3f
       1.0 1.0 1.0 1.0
000150 00 00 80 3f 00 00 80 3f 00 00 80 3f 00 00 80 3f
       1.0 1.0 1.0 1.0
000160 00 00 80 3f 00 00 80 3f 00 00 80 3f 00 00 80 3f
       1.0 1.0 1.0 1.0
000170 00 00 80 3f 00 00 80 3f 00 00 80 3f 00 00 80 3f
       1.0 1.0 1.0 1.0
000180 00 00 80 3f 00 00 80 3f 00 00 80 3f 00 00 80 3f
       1.0 1.0 1.0 1.0
000190 00 00 80 3f 00 00 80 3f 00 00 80 3f 00 00 80 3f
       1.0 1.0 1.0 1.0
0001a0 00 00 80 3f 00 00 80 3f 00 00 80 3f 00 00 80 3f
       1.0 1.0 1.0 1.0
0001b0 00 00 80 3f 00 00 80 3f 00 00 80 3f 00 00 80 3f
       1.0 1.0 1.0 1.0
0001c0 00 00 80 3f 00 00 80 3f 00 00 80 3f 00 00 80 3f
       1.0 1.0 1.0 1.0
0001d0 00 00 80 3f 00 00 80 3f 00 00 80 3f 00 00 80 3f
       1.0 1.0 1.0 1.0
0001e0 00 00 80 3f 00 00 80 3f 00 00 80 3f 00 00 80 3f
       1.0 1.0 1.0 1.0
0001f0 00 00 80 3f 00 00 80 3f 00 00 80 3f 00 00 80 3f
       1.0 1.0 1.0 1.0

fc2.weight f4 [128, 2]
000000 ab 73 1f 3d e1 01 9c 3e c8 68 d0 3e b8 49 bf 3e
       0.03892867 0.30470183 0.40704942 0.3736093
000010 66 a7 32 bf fa 7b 2b 3e 1a d2 93 3e 43 40 c1 3c
       -0.6978668 0.16746512 0.28871232 0.023590213
000020 7e fa de be b1 b4 2e 3f cd 10 27 bf 99 3f c6 3e
       -0.43550485 0.68244463 -0.6526001 0.38720396
000030 ec 41 0e bf 72 2e 0b bf 4f 68 2e be 8b 1b d5 3e
       -0.5556934 -0.54367745 -0.17031978 0.41622576
000040 9f 92 13 3f 0b 94 c8 3e f4 ef a1 3e 30 ac 37 be
       0.576456 0.39175448 0.31628382 -0.17936778
000050 f3 28 87 be a0 fa ba 3b 4d 50 0d 3f 9f 7e 38 3e
       -0.2639843 0.0057061464 0.55200654 0.18017052
000060 91 cc ac 3e 01 09 d8 3d a7 cb f4 3e d9 cc 57 3e
       0.33749822 0.10548592 0.47811624 0.21074237
000070 e0 e9 0b bf f8 c1 e1 3e 26 4d 73 be 85 a8 43 be
       -0.5465374 0.440933 -0.23759899 -0.19107254
000080 81 5a 26 bd c1 a1 12 3f b2 81 22 bf be e7 1f 3f
       -0.040613655 0.57278067 -0.6347915 0.62462986
000090 31 ee 01 bf 68 3c 28 bf 3f 7a 1f bf b5 74 28 be
       -0.50754076 -0.6571717 -0.6229591 -0.1645077
0000a0 07 03 12 bf 76 3a 8b be dd 8b b3 be fb c6 16 3f
       -0.5703587 -0.2719304 -0.35067645 0.5889737
0000b0 8d 29 1c 3f bb 7b a8 bd b9 c9 1d bf f3 0a 16 bf
       0.610009 -0.08226725 -0.6163593 -0.5861046
0000c0 e1 89 a0 3e 9d c9 d3 be b6 ae 18 be 82 62 28 bf
       0.31355193 -0.41364756 -0.14910397 -0.6577531
0000d0 0b fa 4b be 02 51 be bd 12 72 31 bf fe 7c d8 be
       -0.19919603 -0.09292795 -0.6931468 -0.4228286
0000e0 79 bf 24 3d e1 43 de 3e 94 3f 1a bf 60 c5 63 be
       0.040221665 0.43411162 -0.6025326 -0.22243261
0000f0 08 91 db bd 5a 65 fe bc b6 4e b8 be dc 27 c9 be
       -0.10721022 -0.031054188 -0.35997552 -0.39288223
000100 e6 fb 42 bd d9 7f ac be 62 a6 11 3f 87 10 9b 3d
       -0.04760351 -0.3369129 0.56894505 0.07571512
000110 f4 5d 00 3e 42 78 0b 3f 09 61 b1 3d 5a 76 13 3f
       0.1253584 0.54480374 0.08661086 0.57602465
000120 75 11 15 3d 51 0d 5e 3e 01 5c 0e bf 57 9a 5a be
       0.0363936 0.21684767 -0.55609137 -0.21347938
000130 4b 21 0d bf b6 bd 44 bd 11 52 17 3c 7a dd 18 bf
       -0.55128926 -0.048032485 0.009235875 -0.59712946
000140 e9 cd 03 bf a9 c3 ec be 1c 10 f0 3e 83 ea 12 bf
       -0.5148607 -0.46243027 0.4688729 -0.57389086
000150 ca d1 00 3f 9a e9 18 bf ed de dd bd 52 04 23 3f
       0.5032011 -0.5973145 -0.10833535 0.6367847
000160 5f 05 27 bf 5d 0e 90 be c1 39 2a 3f 9c d8 b4 3e
       -0.6524257 -0.28135958 0.66494375 0.3532151
000170 a7 17 b2 3e e2 0d ec bd 30 37 ad be a4 65 85 3e
       0.3478367 -0.115260854 -0.33831167 0.26054108
000180 d0 3a 5a be a2 88 28 3f d2 a0 71 be ca 06 94 3d
       -0.21311498 0.65833485 -0.23596504 0.072278574
000190 df c4 0a bd db 15 03 3f ac c5 01 3e 3a 8c 23 bf
       -0.033879157 0.51205224 0.12673062 -0.63885844
0001a0 f8 64 0c bf 61 b9 d3 be 5c df d5 bd 59 a9 a7 be
       -0.54841566 -0.4135237 -0.10442993 -0.3274639
0001b0 7d 91 32 bf 75 36 0b bf cf d7 32 be 0d 25 d8 3e
       -0.6975325 -0.5437997 -0.17465137 0.42215768
0001c0 19 66 56 be a5 9a 5a 3e 2d 69 d5 bd 4d db 21 bd
       -0.20937385 0.21348055 -0.10420451 -0.039515782
0001d0 91 e5 16 bd 06 3d 90 3e ff 42 d8 be 96 c3 89 be
       -0.036840025 0.28171557 -0.42238614 -0.26907033
0001e0 74 59 fe be 39 b5 96 be d3 f1 01 3f fe e8 2c bf
       -0.49677622 -0.29435137 0.5075962 -0.6754302
0001f0 cd 36 f2 3e e3 f4 c4 3e 39 b4 19 3f 45 f5 cd bd
       0.47307435 0.38468084 0.6004062 -0.10056547
000200 17 82 2b 3f f7 a9 d5 be 8e 72 0e bf 83 85 2a 3e
       0.66995376 -0.41731235 -0.55643547 0.16652493
000210 be 9f dc 3e 4c fa dc 3e fb 13 c1 be a7 31 03 3f
       0.43090624 0.4315971 -0.37710556 0.5124764
000220 5f 65 20 3f 20 ac b6 3e e8 7f 14 bf 1d 19 b5 be
       0.6265468 0.35678196 -0.5800767 -0.35370722
000230 39 5a ba 3e f0 6c 3f 3e 3a b8 89 be 08 98 ed be
       0.3639696 0.186939 -0.26898366 -0.46405053
000240 4b d5 43 3d 0d f5 28 bf c4 d2 5c be 33 4a 84 bd
       0.047810834 -0.6599892 -0.21564776 -0.06459465
000250 43 f0 2e bf 8e 94 ef 3e af 26 c5 bc d3 fe 91 be
       -0.6833536 0.46793026 -0.024066297 -0.28514728
000260 93 73 ff 3c bd e3 a4 3d 5e e5 0c 3f a9 8a 8b 3e
       0.03118304 0.0805125 0.55037487 0.27254227
000270 b3 a7 ee 3e ef 12 58 3e 6c b8 32 3e 57 28 fb be
       0.4661232 0.21100973 0.17453164 -0.49054214
000280 c7 91 2e 3f d9 0b 8d be 20 6a 5e 3e 67 87 1e 3f
       0.6819119 -0.27548102 0.21720171 0.6192536
000290 ff d2 e0 be ea b3 7a be ac d6 8d be f2 30 8d 3e
       -0.43910977 -0.24482694 -0.27702844 0.27576405
0002a0 77 c5 15 bf 6d bf 2f be 12 29 d9 3e 8c 4c 30 3f
       -0.5850443 -0.17162867 0.42414147 0.688668
0002b0 7e 78 a8 bc ee 2f 01 3e 8b d9 a4 3d 88 1e 13 3f
       -0.020565268 0.1261594 0.080493055 0.5746846
0002c0 f8 7f 51 3e b8 a3 e0 bd c8 c9 9a be ed 0c 52 3e
       0.20458972 -0.10968727 -0.30232072 0.20512743
0002d0 1c 20 a4 3e 6a 76 71 be a5 be 18 bf a9 7f 0b 3d
       0.32055748 -0.23580328 -0.596659 0.034057293
0002e0 7f 5a aa be b0 b4 bb be 83 21 c8 3e e4 ce 27 3e
       -0.33272168 -0.3666129 0.39088067 0.16387516
0002f0 6a 52 69 3e 00 5c 00 bd fd 99 8c 3e 13 42 7f be
       0.22785345 -0.031337738 0.27461234 -0.24927549
000300 16 41 fc be b8 8a 20 bf 91 c0 1f 3f 4e ec d9 be
       -0.49268407 -0.6271167 0.6240321 -0.425631
000310 ec 29 69 be fb 87 47 be d1 2d 10 be b5 2a 2d bf
       -0.22769898 -0.19485466 -0.14079978 -0.6764329
000320 3e 25 f3 bd 2b 65 ed 3e 7f 68 20 bf 19 81 8a 3e
       -0.11872338 0.46366248 -0.6265945 0.2705162
000330 ab ee 9c be 8d 48 b3 bd 3e 09 df 3e 69 f6 b6 3c
       -0.3065084 -0.08754072 0.4356174 0.022334294
000340 7e 8f 94 3e 8f 43 af 3e b4 ba 4e 3e 1a 89 76 3e
       0.29015726 0.3423123 0.20188409 0.24075738
000350 ec 40 02 3f 38 7e 08 bf 4a cb ae 3e 18 c8 06 3e
       0.5088031 -0.53317595 0.34139472 0.13162267
000360 8d ec eb bd 57 5e 01 3e c6 7b 5e be 2a 43 34 be
       -0.11519728 0.12633644 -0.21726903 -0.17603746
000370 95 bd 88 be 5c 51 0a 3f ce 1a c6 3e f8 8a c0 3e
       -0.2670714 0.54030395 0.38692325 0.37606025
000380 c0 19 cd be 52 65 e0 be e3 f4 21 bf 2f 3f e6 bd
       -0.40058708 -0.438273 -0.6326429 -0.1124252
000390 38 6b c0 3c d9 12 03 3f 61 d9 4d be 67 98 a8 3e
       0.023488626 0.51200634 -0.20102455 0.32928774
0003a0 29 80 c3 be 42 17 c4 3e 26 b1 13 3f 55 44 db be
       -0.38183716 0.38298994 0.5769218 -0.4282557
0003b0 60 a0 88 38 34 2a 9d be be 99 81 3d bc f2 aa be
       6.5148575e-05 -0.3069626 0.06328152 -0.33388317
0003c0 3c 3d eb be fe e3 8a 3e d3 5b 95 be 3d 03 a1 3e
       -0.45945156 0.2712707 -0.2917162 0.31447783
0003d0 dc e7 f8 3e f2 e8 0d 3d 57 6b 8f be ae f2 d7 be
       0.48614395 0.034645982 -0.2801158 -0.42177337
0003e0 7f 53 61 3e fe 88 86 3e 48 32 09 bf 33 de 12 3f
       0.22004507 0.26276392 -0.5359235 0.573703
0003f0 33 73 ff 3e e4 75 0b bf 7d e8 44 be 3b 3b 13 3e
       0.49892578 -0.5447676 -0.19229312 0.14378063

actor.linears.0.weight f4 [128, 384]
000000 eb 6e 87 bc ef 61 a5 bb 73 49 3e bc 15 96 1c bd
       -0.016532382 -0.005047075 -0.011614191 -0.038229067
000010 c1 cb ad bc 06 ff 0a 3c 76 16 10 3d cf 76 1b bc
       -0.021215321 0.008483654 0.03517767 -0.009488775
000020 b1 ff 46 bc 1f ea a9 ba bf 0e 24 3d 43 e6 31 bd
       -0.0121459225 -0.001296345 0.040053125 -0.043432485
000030 12 ef 42 bc a7 be 2b bc 50 d2 27 bd 7f e9 c7 3c
       -0.011897819 -0.010482467 -0.040972054 0.024403332
000040 77 fd b4 3c b5 97 e0 3c 02 67 2d bd d1 de b4 3c
       0.022093518 0.02741609 -0.042334564 0.022078903
000050 29 a5 3b 3d 87 cb 31 3c 78 ea 2c bd e3 0f b4 bc
       0.045811806 0.010851747 -0.042215794 -0.021980232
000060 9b 5e 50 3d bc 2c 41 3b fb 8c 25 bd 92 35 3f 3d
       0.050871473 0.0029476127 -0.040417653 0.046681948
000070 47 f8 b4 bc b6 69 36 3d bc 95 3f bb cf 4d 1a 3d
       -0.022091044 0.044534408 -0.0029233536 0.03767186
000080 5c 77 95 bc 68 95 91 3c 30 4a 40 bd e8 31 b9 bb
       -0.018245392 0.017771438 -0.04694575 -0.0056517012
000090 b5 3e f2 bc 96 12 05 bd 08 c7 39 3d 6a 74 50 3d
       -0.029570917 -0.032488428 0.045355827 0.05089227
0000a0 a9 9c 6f 3d 73 7b 8d 3c cb 60 ad bc 6a fe a5 3c
       0.058499012 0.01727078 -0.021164319 0.020262916
0000b0 7b b2 2e 3d c8 18 03 bd 49 c0 3f bc 6d 13 81 3c
       0.04265068 -0.032006055 -0.011703559 0.015756333
0000c0 3b ec 3a bd 6d f0 f4 ba 6c 1e d3 3b 93 e7 75 bb
       -0.045635443 -0.0018687375 0.0064428356 -0.0037522062
0000d0 7a d3 11 3d 09 91 2c bd 46 a2 67 3d 97 08 0d bd
       0.03560207 -0.042130504 0.05655124 -0.03443202
0000e0 0c a6 15 bc ba bc d4 3b 43 ba 0f bd 4c ab 4f 3b
       -0.009133827 0.0064922245 -0.035089742 0.0031687794
0000f0 58 6e 24 3d 04 0e d1 ba 77 f8 2c 3d cc 5e 1b bd
       0.040144295 -0.0015949612 0.042229142 -0.037932202
000100 91 5f 4e 3d 17 77 9d bc 6e 99 19 3d 7a fa 3b bd
       0.050384108 -0.019221826 0.037499838 -0.04589317
000110 8e 7a 1f bd 57 35 0c 3d 0e c7 ca 3b 5c ad 12 bd
       -0.038935237 0.034230556 0.00618828 -0.03580986
000120 f7 b8 76 bc ca 0b 35 3d 28 3a a8 3c 88 4e 84 bb
       -0.0150587475 0.044200696 0.020535544 -0.004037682
000130 09 4f 0a bd 82 4c 51 bd 4c 39 bc bc e1 f0 26 3d
       -0.03376678 -0.051098354 -0.02297654 0.040757064
000140 7c 37 45 3d 4c fc 0d 3d 6b bc 90 3c 73 64 db 3c
       0.048148617 0.034664437 0.01766797 0.026781296
000150 b9 29 09 3d cf 2c 65 bd f7 08 08 bd 39 a9 1e bd
       0.033487055 -0.055950936 -0.033211675 -0.038735602
000160 2b f1 dd bc 21 00 3c 3c 0d 5e 14 3d 67 5b 43 bd
       -0.027092537 0.01147464 0.036222506 -0.04769459
000170 ba f8 af ba 78 98 0d bd 45 47 28 3d 15 ba a4 bc
       -0.0013425567 -0.034569234 0.041083593 -0.020108262
000180 11 20 fc 3c da c8 85 3c da c6 33 bc 3e 84 ad ba
       0.03077701 0.016331125 -0.010972703 -0.0013238264
000190 b9 65 ad 3c c1 da 81 3c 2c b6 ed 3c 4b b9 28 bd
       0.02116667 0.01585138 0.02901753 -0.041192334
0001a0 92 37 66 3c 8e 61 ad 3c aa 65 57 bc 7b 16 55 bc
       0.014051335 0.021164682 -0.013146797 -0.013005848
0001b0 1e 62 87 3b 13 e9 e5 bc f3 f3 13 3d 7d 6f 2d bd
       0.0041315695 -0.02806524 0.03612132 -0.04234265
0001c0 03 08 89 3c bb 29 c0 3c c2 d5 9a bc 5e 4a ed 3c
       0.016727453 0.023457399 -0.018900756 0.028966125
0001d0 f5 3a 1f bd 14 e7 27 bd fd 33 6b 3c ac 16 31 3d
       -0.038874585 -0.040991858 0.014355657 0.043234512
0001e0 61 a2 1f 3d 4d 92 27 bc 8e 28 33 3d 35 4a 0c bd
       0.038973216 -0.010227752 0.043739848 -0.034250457
0001f0 36 a2 c0 bc 65 f1 20 3d 88 60 07 bd 46 55 cc 3c
       -0.023514848 0.03929271 -0.033051044 0.024943005
000200 5a 29 08 3d a8 2b 7f 3c ac 5a 19 3c cb 3e 34 bd
       0.03324256 0.015574373 0.009359997 -0.044005197
000210 67 c4 aa bc d3 6a 05 3c 30 d6 c0 3c de 66 46 bd
       -0.020845605 0.008143145 0.023539633 -0.048437946
000220 2a 58 c9 3c be eb 2c 3d f7 ca 40 bd 35 68 af 3c
       0.024578173 0.04221701 -0.047068562 0.021411994
000230 90 bb 21 3d 81 40 b5 bb d7 88 96 3b 02 eb 0d bc
       0.039485514 -0.005531371 0.0045939493 -0.008661987
000240 b4 53 a8 bc b4 34 3f 3c d0 fe e0 3a c1 22 ad bc
       -0.020547725 0.01167028 0.0017165784 -0.021134736
000250 8f 12 52 bd b8 29 32 bd d6 1f 3e bd 63 c6 9b bb
       -0.05128723 -0.043496817 -0.04641708 -0.004753874
000260 df 14 4e bb 54 1a a0 3c 6d 87 13 3d 3a 27 fd 3c
       -0.0031445546 0.019543804 0.036017824 0.030902494
000270 ec cf b5 bb e3 6b 8d bc ba 5b 0e bd e4 12 4e ba
       -0.005548468 -0.017263358 -0.034755446 -0.0007861091
000280 7e 24 21 bd cb f0 ba 3c 8f f2 0c 3d 47 fb d2 3c
       -0.039341442 0.022819897 0.03441101 0.025754584
000290 64 b4 0a bc ae 73 1f bc c2 16 bf bc 65 a8 d5 bb
       -0.00846586 -0.00973217 -0.023326281 -0.0065203183
0002a0 c1 78 14 3d 20 a8 2e 3d 7e 04 d1 3b 6e ef 87 3c
       0.036247972 0.042640805 0.0063787093 0.016593661
0002b0 61 3a ed bc cf ba b6 bc 05 6e 31 38 bb 9f 00 3d
       -0.028958501 -0.022305874 4.2302552e-05 0.03140233
0002c0 ec 32 4a bd a9 4c 43 3d e4 9b 8b 3c 61 a0 ed bc
       -0.04936497 0.04768053 0.017042108 -0.029007139
0002d0 4a d0 d1 3c e2 3c 54 bd 07 05 67 bc 9b fe 87 bc
       0.025612015 -0.051815875 -0.01410032 -0.016600898
0002e0 c5 49 33 bc 2f cd 39 bd 22 3d e5 bc 5c 64 8a 3c
       -0.010942881 -0.045361694 -0.027983252 0.016893558
0002f0 16 a3 fe bb 82 28 50 3d 65 6a 1c bd 69 99 92 3c
       -0.007770906 0.05081988 -0.038187403 0.017895417
000300 db b1 ba bc 01 b4 0e 3d a0 a1 ea bc ae b4 01 3d
       -0.022789886 0.034839634 -0.028641522 0.03166645
000310 29 94 ae 3c 29 3e e4 3c a9 e6 c3 3c 7c de ba 3a
       0.021310883 0.027861672 0.023913698 0.0014256979
000320 73 c0 2d 3d b1 2d 48 3c e2 4d 48 3d d3 53 28 3d
       0.042419862 0.012217925 0.0489024 0.041095566
000330 da da 63 3d 47 fe 16 bd 8e 3e c5 3c fd 19 36 bd
       0.055628635 -0.03686359 0.02407768 -0.044458378
000340 af 75 07 3c ac 42 1a bb 8f 49 2f 3d d2 76 ef bb
       0.008267804 -0.0023538275 0.04279476 -0.0073078657
000350 c4 62 30 3c 04 a8 44 3d c0 b4 46 bc 4c dd c6 3c
       0.010765735 0.048011795 -0.012128055 0.024275444
000360 71 d0 c2 3c ba b3 13 bd ac fe e3 bc e2 e5 1c 3d
       0.023781033 -0.036060072 -0.027831398 0.03830517
000370 c8 2f 29 3d 65 95 26 3d 0e 9e 14 3d 18 00 bf bc
       0.041305333 0.040669817 0.036283545 -0.023315474
000380 7c c4 1e 3d 9c 32 e8 3c ba 38 86 3c 20 ea cc bc
       0.0387616 0.028344445 0.016384471 -0.025013983
000390 7a bf bc bc 7f a2 bb 3c 12 ca 9d 3c 9d b0 b8 bc
       -0.023040522 0.022904633 0.019261394 -0.022545153
0003a0 e1 65 26 3d fa 2f 99 ba 3f 48 c9 3c 23 3c 83 3c
       0.040624503 -0.0011687272 0.024570582 0.016019886
0003b0 f5 b0 24 bc 41 7c 39 3d a5 86 23 3c 3b fb 19 3d
       -0.0100519555 0.045284513 0.009980832 0.037593108
0003c0 a4 93 0f 3d a7 87 00 bc 36 bf 8e bc 6c aa cd bc
       0.03505291 -0.007844842 -0.01742516 -0.025105678
0003d0 60 7c 12 bd f7 bd 51 3d 98 0c 30 3a 4f 59 0f bd
       -0.035763144 0.051206555 0.0006715744 -0.03499728
0003e0 2d dd af 3c 1b c7 d0 bc 25 b2 3f 3c a3 5e 87 bc
       0.02146777 -0.025485566 0.011700188 -0.016524618
0003f0 68 b1 c1 3b f7 d8 40 3b 3d 8e b5 bc 13 2d b4 bc
       0.005911041 0.0029426196 -0.022162551 -0.02199415

actor.linears.0.bias f4 [128]
000000 da d8 30 3d 41 3e 95 bc d6 c6 fa bc 84 7b a5 3b
       0.043175556 -0.018218162 -0.03061239 0.0050501246
000010 64 a5 4e 3d 4b 78 3b bc 6c 98 47 3d ad 30 e0 3c
       0.050450698 -0.011442254 0.048729345 0.02736696
000020 5b c2 32 bb 02 38 53 bd 14 68 03 bd f0 08 e1 bb
       -0.002727649 -0.051567085 -0.03208168 -0.0068675205
000030 20 f2 3d bd d8 8e 53 3d 57 89 dd b9 3d 48 43 3d
       -0.046373487 0.0516499 -0.0004225473 0.047676314
000040 62 38 da 3c 82 35 98 bc fe e8 4e 3d 6b 90 59 3d
       0.026638214 -0.018580202 0.050515167 0.053116243
000050 b1 32 30 bc c8 a2 b2 bb 61 1f 73 3c 51 5b 36 3d
       -0.010754273 -0.005451534 0.014839024 0.04452068
000060 b5 1c dc bc b1 93 d0 3c f4 f7 41 3d 14 3e 43 bc
       -0.026869157 0.02546105 0.047355607 -0.011916656
000070 11 b6 0f bd 57 a7 fc bc 84 62 04 3d 2c 04 ef 3c
       -0.03508574 -0.030841513 0.032320514 0.029176794
000080 ef fd c2 bc 5c 28 2b bc 0b 8f 6f 3c cc 43 4c bd
       -0.023802726 -0.010446634 0.014621506 -0.049869344
000090 f2 7a 6a bc 5b ba 29 bc 55 c4 12 3b 0f 81 80 bb
       -0.014311539 -0.010359372 0.0022394855 -0.003921635
0000a0 86 e7 c2 bc 21 22 e8 bc a2 ea 18 3d 0b da 16 3d
       -0.02379204 -0.028336586 0.03733314 0.036829036
0000b0 29 00 22 3c e8 c4 cc b8 17 23 4d bd 98 52 48 3d
       0.0098877335 -9.764155e-05 -0.050082292 0.048906893
0000c0 61 52 88 bc 78 3c ca bc 68 ac 87 bc 72 79 7f ba
       -0.016640844 -0.024687037 -0.016561702 -0.0009745575
0000d0 20 07 39 bd 20 b8 0f bd 3d ea 43 bb 58 b8 02 bd
       -0.04517281 -0.035087705 -0.0029894256 -0.031914085
0000e0 c4 b8 6f 3c 9e e9 8d bc 86 a8 1c 3d 55 b4 1f 3d
       0.014631454 -0.017323311 0.038246654 0.038990337
0000f0 84 17 26 bd be cb 00 3c 03 eb f2 bb 30 a3 e6 bc
       -0.04054977 0.007861076 -0.0074132695 -0.028153986
000100 3b 9f 93 bb 26 1b 33 bd c5 89 33 bd b7 44 fb bb
       -0.0045050657 -0.043727063 -0.04383256 -0.0076681036
000110 b0 d0 92 3c 59 f7 5d bd 15 9e c1 bc 34 c4 6a bc
       0.017921776 -0.054190967 -0.02363495 -0.014329005
000120 e8 ed a5 bc 8e d3 56 bc 37 51 07 bd b0 21 02 ba
       -0.020255044 -0.013111962 -0.033036437 -0.0004964126
000130 95 dc 59 3d 57 52 3f bd 83 96 02 bc 22 79 fd bc
       0.05318888 -0.046709385 -0.007970455 -0.03094155
000140 f3 2a ec bc 3d 9c 1f bc b0 04 8d 3c e5 0b dc 3c
       -0.028829074 -0.00974184 0.01721415 0.02686114
000150 40 fe 81 3c cf e6 11 bd 84 81 a0 bc b6 8d ff 3c
       0.015868306 -0.035620507 -0.019593008 0.031195503
000160 8f 53 7a bb c7 ae 74 3c b6 c3 f3 bc 91 12 83 3b
       -0.0038196777 0.014934248 -0.029756408 0.004000016
000170 9b a4 14 bd d2 87 38 3c 7a 9e 31 3d ec a3 12 3d
       -0.036289793 0.011262851 0.043364026 0.03580086
000180 15 79 ee 3c a8 a5 5f bb 57 8d 22 bd b5 49 18 bd
       0.02911047 -0.0034125838 -0.039685573 -0.037179668
000190 95 43 99 3c 2c 93 a3 3b a4 cf 28 bd 6e 87 a5 bc
       0.018708983 0.0049919095 -0.041213647 -0.02020618
0001a0 01 43 05 3d c3 de a2 bc c2 91 62 bc 59 86 3f bb
       0.032534603 -0.019881612 -0.013828697 -0.0029224365
0001b0 87 eb 48 bd c2 bd 0f bb 29 5f 61 3d f8 04 1b 3d
       -0.04905274 -0.0021933173 0.055022392 0.037846535
0001c0 00 dd 44 3d 98 5b 3a bd 1d 77 cf bb 39 c9 f7 bc
       0.048062325 -0.045497507 -0.006331338 -0.030247318
0001d0 16 98 54 3d 03 95 1b 3d 9b e2 c4 3c 10 9c 15 bd
       0.051902853 0.037983906 0.024033835 -0.036525786
0001e0 b1 76 90 3c dd 93 76 bb 19 ba 45 bd 0b 36 10 bc
       0.017634721 -0.0037624754 -0.04827318 -0.008801947
0001f0 e9 b6 8a bc 0d 4a fa bb da ec 56 3d 21 0c c4 3c
       -0.016932921 -0.007638222 0.052471973 0.023931565

actor.linears.1.weight f4 [128, 128]
000000 91 a4 7a 3d 52 ab 7b 3c d0 53 04 3d 3f 7a 24 bd
       0.0611921 0.01536067 0.032306492 -0.040155645
000010 25 5c 44 3d 80 eb dc bc 03 1b 63 3d 8b 48 19 bd
       0.04793944 -0.026967764 0.055445682 -0.037422698
000020 5d 53 84 bc df 00 58 3c a9 27 8d 3d 68 82 c5 3c
       -0.016153032 0.013183801 0.0689233 0.024110034
000030 d3 16 fc bc 02 76 84 bc 2b 93 8b 3d 96 95 22 bd
       -0.030772602 -0.016169552 0.068151794 -0.039693438
000040 12 8f d6 3c 93 a8 19 bd e9 25 b1 3d 0a 15 aa bc
       0.026191268 -0.03751428 0.08649809 -0.020761985
000050 86 28 91 3d a3 2e 87 3d 40 5f 93 3c c4 6d 50 3d
       0.07087807 0.06600692 0.017989755 0.05088593
000060 cb 35 b1 bc 0d 95 18 bd c3 1f 8d bd f4 52 86 3c
       -0.021632096 -0.03725152 -0.06890824 0.016396977
000070 4d 0f c9 bc ce 5d c8 3c af cf 71 3d 06 d0 9e 3d
       -0.024543429 0.024458792 0.059035953 0.07754521
000080 25 e0 26 bd b7 be a9 bd 62 50 5d bd d9 35 94 bd
       -0.040741105 -0.08288329 -0.054031737 -0.07236833
000090 2f 0f fa 3c f0 3b 34 3d 8c 4b a2 bd 27 7f 1f bd
       0.030524818 0.044002473 -0.07924566 -0.03893962
0000a0 8c e6 59 3d ee 38 de bc 2e d1 28 3b 57 14 9e bd
       0.053198382 -0.027126756 0.0025759446 -0.07718723
0000b0 4a 90 02 3d 37 3e df bc 40 7a 61 bd 27 65 33 3d
       0.031875886 -0.027251346 -0.055048227 0.04379764
0000c0 aa 68 6b 3d 3a d4 c9 3a cf 68 86 3d 4c e0 b3 3d
       0.057472862 0.0015398331 0.065629594 0.087830156
0000d0 4e c9 b3 3d 62 30 b0 bb 3d b6 f4 bc 75 a1 88 3b
       0.0877863 -0.0053768614 -0.029872054 0.004169638
0000e0 33 f5 95 3c 74 0c 9f bd e5 63 3e bc 50 71 49 bc
       0.018305397 -0.07766047 -0.011620496 -0.012295082
0000f0 e2 99 4c bc 2f be a8 3d 0e e1 13 bd 88 fd 91 bd
       -0.01248786 0.082394 -0.0361033 -0.071284354
000100 b7 5f 96 bd 85 9d ba bc d6 55 08 3c 87 f2 11 3d
       -0.07342475 -0.02278019 0.008321246 0.035631683
000110 1b f1 a4 3d 3b 57 11 bd 33 08 8b 3d 3f ab 96 bc
       0.080538 -0.03548358 0.06788673 -0.018392203
000120 23 c3 b2 bd f9 a9 7d 3d 4b 74 b0 bc b8 21 15 3d
       -0.087286256 0.061929677 -0.021539828 0.03640911
000130 92 78 e6 3b ba 2e 39 bb 01 c2 27 bd 61 a6 b6 bc
       0.007033416 -0.002825661 -0.0409565 -0.022296133
000140 80 b7 7f bd 04 d4 a2 3c de c8 15 bd 46 17 82 3d
       -0.06243086 0.019876488 -0.036568515 0.06352095
000150 c4 b6 fc 3c 8c 4d 67 bd 54 8b ab 3c 01 97 9d bd
       0.030848868 -0.05647044 0.02094046 -0.07694817
000160 97 d9 01 bc eb a5 48 3d 69 d1 36 3d 9d 59 eb 3c
       -0.007925413 0.048986357 0.044633303 0.028729254
000170 9a 44 76 bd 86 d5 9a bb a8 b2 48 3d 39 10 91 bd
       -0.060124017 -0.004725161 0.048998505 -0.07083172
000180 30 82 b7 bc 25 da 99 3c dc fd 05 bd fc 6e 5d 3d
       -0.022400945 0.018780777 -0.032712802 0.05406092
000190 29 fe 11 bc c9 4d f3 bc c0 70 6a bc 92 91 8d 3d
       -0.008910694 -0.029700177 -0.014309108 0.06912531
0001a0 95 0a 92 bd b3 92 8f bd d6 03 0c bd ad 6b 2e 3d
       -0.071309246 -0.070104025 -0.034183346 0.042583156
0001b0 05 e8 3e bc 6e 1e 5c bc 78 da 01 bd 8e 0d 45 bb
       -0.011651997 -0.013434989 -0.03170249 -0.0030067894
0001c0 f0 e1 04 3d eb 46 f1 bc 6d 19 a5 3c 00 c9 a7 3d
       0.032442033 -0.029452762 0.020153726 0.081926346
0001d0 10 e0 4b 3d 78 2c b9 3d b7 2a bb 3d 64 96 73 bd
       0.04977423 0.09041685 0.091390066 -0.059469596
0001e0 a1 6a 90 bc d1 2b 23 3d da 61 89 bb be 8f 3b bd
       -0.01762897 0.03983671 -0.004192573 -0.04579138
0001f0 dd 51 1c bc 5e c0 24 bc 70 c3 4d 3d d3 82 39 bd
       -0.009541002 -0.01005563 0.05023521 -0.04529078
000200 6d ec 56 bd df 7e 99 bd 1b 16 11 3c d0 b8 bf 3a
       -0.052471567 -0.07494902 0.008855368 0.0014627222
000210 75 c0 05 bd b0 ea 48 3d 97 66 16 bc ac 9c 9c 3d
       -0.032654244 0.04905194 -0.009179733 0.0764707
000220 82 3c 13 bd d1 b7 26 3d f3 c8 71 bd 05 4e 95 bd
       -0.035946377 0.040702645 -0.05902953 -0.07290272
000230 ca 3f 34 bd 7a 74 b5 bd 1d 24 8e bd 25 20 91 3c
       -0.044006146 -0.08860107 -0.06940482 0.017715523
000240 d3 e5 89 3d 11 d7 8a 3d 1d 78 5d 3d ce c5 1f bd
       0.067332886 0.06779302 0.054069627 -0.039007
000250 c3 98 a3 3a 74 9d b4 3c cc f4 20 bc a4 d6 b3 3d
       0.001248144 0.022047736 -0.009823989 0.08781174
000260 7d d8 1e bc 48 a4 b8 bd d2 cf 93 3d 3a 55 2b bc
       -0.0096951695 -0.09015709 0.07217373 -0.010457331
000270 a3 61 73 bc 2e 30 5c 3d 8a 59 68 bd 01 18 49 3b
       -0.014854821 0.053756885 -0.056726016 0.0030684473
000280 32 2c 63 bd 79 76 13 bd 30 fe 9f bd 91 c6 ae bd
       -0.05546207 -0.036001656 -0.07812154 -0.08533967
000290 15 25 a8 bd b4 23 13 bc 66 0a 98 bd aa de d9 3c
       -0.08210198 -0.00898068 -0.07423858 0.026595432
0002a0 cf 97 f0 3b bf a8 b9 3d 60 e7 30 3c 53 e0 e8 bc
       0.0073423157 0.09065389 0.010797352 -0.028427279
0002b0 49 ca 72 3d 9d 17 39 3c f0 72 69 3c 59 d6 89 bc
       0.059274945 0.011297134 0.014248595 -0.016825842
0002c0 32 9c 7b 3d 08 4b 86 bd e5 de 9b 3d d4 cf 9f bc
       0.061428256 -0.0655728 0.07610873 -0.01950828
0002d0 f8 82 a1 3d e1 55 d2 b7 c8 ec 44 3d 00 01 e4 bc
       0.078863084 -2.5073941e-05 0.048077375 -0.027832508
0002e0 31 fb a8 bd d2 ab bc bd 2b dc ba 3d 41 c3 46 bd
       -0.08251036 -0.092124596 0.09124025 -0.048526052
0002f0 01 c8 96 bd 53 de a2 3c 6f 97 51 bd 58 ac c3 bb
       -0.073623665 0.019881403 -0.05116981 -0.0059714727
000300 e1 5f 00 bc 06 f8 7d bd 39 78 78 bb 09 b9 af 3b
       -0.007835359 -0.06200411 -0.0037913455 0.005362634
000310 c2 2c ab 3d 70 cf fa 3c ba 4a 96 bd 62 2b d1 bb
       0.08358146 0.030616492 -0.07338472 -0.0063833455
000320 7a ad 72 b8 84 de 51 3d 22 56 1e bd 16 b8 7f 3c
       -5.785886e-05 0.051237598 -0.03865636 0.015607854
000330 08 58 9d 3d f6 ff 59 3d 30 41 b2 3d e9 aa 2e bc
       0.07682806 0.05322262 0.0870384 -0.010660865
000340 a5 78 a1 3d 7e 99 4e 3c ba a8 1d 3d 9b b2 b0 bd
       0.07884339 0.012609838 0.03849099 -0.08627816
000350 91 9b 41 3d c7 b3 a0 3d fe 42 f6 3c bc 76 3a bd
       0.0472675 0.0784679 0.030061241 -0.04552339
000360 8e 0a 89 3d f4 5e 56 bd ca 52 6d 3c 80 38 7d bc
       0.06691466 -0.052336648 0.0144850705 -0.015455365
000370 2e 70 ed bb 41 db 6c bd aa 43 ed bb ea 22 31 bd
       -0.007246039 -0.057826284 -0.007240732 -0.043246187
000380 c2 75 6c bd 3f 37 ae bd fa 69 77 3d ff 53 97 3d
       -0.05772949 -0.08506631 0.0604038 0.07389068
000390 a1 61 48 bd 87 4d 02 bc b7 79 84 bd e4 a4 56 3d
       -0.04892123 -0.007953054 -0.06468528 0.052403346
0003a0 d7 6f 88 bd f6 05 14 bd 3e f7 da 3c 3a 1e b1 bb
       -0.06661957 -0.036138497 0.026729222 -0.0054052146
0003b0 f3 8b 7f 3d a1 ec 92 bc b1 8b b6 3d ed d9 09 3d
       0.062389325 -0.0179351 0.08913363 0.033655096
0003c0 84 17 7b 3d 24 1e 72 bb 50 90 ea 3c 8a b1 b4 ba
       0.061301723 -0.0036944235 0.028633267 -0.0013785821
0003d0 01 35 6e 3c dc 82 98 bd 24 86 8c bd a4 2a f8 bc
       0.014539004 -0.074468344 -0.06861523 -0.03029377
0003e0 7e 5d 85 3c 72 26 54 bc 32 5e ba bd 5f 42 81 bc
       0.016279932 -0.012948619 -0.090999976 -0.015778719
0003f0 a9 7f 04 3d 3c 6e f0 bc bb b6 64 3b 9a 7c 84 3d
       0.03234831 -0.029349439 0.0034898955 0.06469078
