FJSP_MultiPPO/saved_network/FJSP_J20M20/best_value0/policy_job.pth (torch_old, 637559 bytes, 53 tensors)

_input f4 [128]
0	0x3e87b788	0.2650721
1	0xbf21f6b7	-0.6326708
2	0xbef1e968	-0.47248387
3	0x3f2bb5db	0.67074364
4	0x3f0c35cb	0.5476958
5	0x3f11009a	0.5664154
6	0x3e8917c7	0.26775953
7	0x3f67aa44	0.9049418
8	0xbf677d20	-0.904253
9	0xbf4cf66f	-0.8006353
10	0xbf5cf2da	-0.8630806
11	0x3e84a2dd	0.25905505
12	0xbed751e6	-0.4205467
13	0x3efb1227	0.49037287
14	0xbf41630f	-0.75541776
15	0x3eb4551f	0.35221192
16	0x3f1853a5	0.5950263
17	0x3f307ab3	0.68937224
18	0xbf4584b3	-0.7715561
19	0xbf6cf60a	-0.92562926
20	0x3e40e4c4	0.18837267
21	0xbe8a7ed1	-0.27049878
22	0x3ebf68ba	0.37384588
23	0x3f68658d	0.90779954
24	0xbec2fcf7	-0.38083622
25	0xbf0cae9f	-0.5495395
26	0xbea11c81	-0.3146706
27	0xbf053b4f	-0.5204362
28	0x3f23ea51	0.64029413
29	0xbf080803	-0.53137225
30	0xbe67c242	-0.22632697
31	0x3f15ba58	0.58487463
32	0x3dc48d5f	0.09597277
33	0x3f1913a7	0.5979561
34	0xbf2b9a8d	-0.670327
35	0x3e971c3e	0.29513735
36	0x3f33f857	0.7030081
37	0x3f07c970	0.53041744
38	0xbd46a3cb	-0.04849605
39	0xbe0714bf	-0.13191508
40	0xbf63e6fc	-0.8902433
41	0xbf40235b	-0.7505395
42	0xbf12d5b6	-0.57357347
43	0x3eb62a53	0.35579166
44	0xbf0abbd0	-0.5419283
45	0xbf5b1e55	-0.8559316
46	0x3e06ba9f	0.13157128
47	0x3f61e069	0.8823305
48	0x3f316bb2	0.69304955
49	0x3f2f346a	0.6843935
50	0x3ee8f4e7	0.45499346
51	0xbf7d09bc	-0.9884298
52	0x3eafd9ca	0.34345847
53	0x3f76c4b8	0.9639392
54	0xbeed9348	-0.4640143
55	0xbcc86700	-0.024463177
56	0xbe152d68	-0.14568102
57	0xbf502576	-0.8130716
58	0x3f40c0d2	0.7529422
59	0x3f6c6957	0.92348236
60	0x3f614cdd	0.8800791
61	0xbf49f554	-0.78889966
62	0xba7a8134	-0.0009555996
63	0x3f1fa61d	0.62362844
64	0xbed45479	-0.41470698
65	0x3f7066b2	0.939067
66	0x3f253128	0.6452813
67	0xbebe6dc2	-0.37193114
68	0xbe047193	-0.1293395
69	0x3f7906b6	0.97275865
70	0x3f435dfd	0.7631529
71	0xbf4224ad	-0.7583721
72	0xbf77ee67	-0.9684815
73	0x3f355a5c	0.70841
74	0x3f5dd7f1	0.86657625
75	0xbf4f2459	-0.8091484
76	0xbee2c582	-0.44291312
77	0xbe9d39bc	-0.3070811
78	0xbec8f317	-0.39247963
79	0x3f3dc820	0.7413349
80	0x3f5e5b0c	0.86857677
81	0xbee9db51	-0.45675138
82	0x3f5a0f1c	0.85179305
83	0xbf2c0422	-0.67193806
84	0xbbdff2b8	-0.0068343543
85	0xbf1b52e8	-0.6067338
86	0x3ed74fc6	0.4205305
87	0xbf67e78a	-0.90587676
88	0xbe889e3e	-0.2668323
89	0xbf44ce10	-0.76876926
90	0x3f69d843	0.91345614
91	0x3e56f01e	0.20990035
92	0x3f7a0ecd	0.97678834
93	0x3f5c07a3	0.8594915
94	0x3cdff360	0.02733773
95	0xbed96539	-0.4246004
96	0x3e9b1270	0.30287504
97	0xbe369085	-0.17828567
98	0x3f5bf7a4	0.85924745
99	0x3f4d0923	0.80092067
100	0x3a984581	0.0011617393
101	0xbddf0517	-0.10889643
102	0x3f18c670	0.5967779
103	0xbed50f61	-0.41613296
104	0x3f55ab1b	0.8346421
105	0xbf178664	-0.5918944
106	0x3f17f649	0.59360176
107	0x3e87671b	0.2644585
108	0xbe0f267b	-0.13979523
109	0xbf545f75	-0.82958156
110	0x3e2a6000	0.16638184
111	0x3e31fd64	0.17381817
112	0xbea86046	-0.3288595
113	0x3d7cbd94	0.061704233
114	0xbe95a2ef	-0.2922587
115	0xbe70675e	-0.23476931
116	0xbf257092	-0.64624894
117	0x3ebdf670	0.3710208
118	0xbf5bf81f	-0.8592548
119	0xbf573dd8	-0.8407874
120	0x3f1a4873	0.602668
121	0xbee3f37a	-0.44521695
122	0xbea66962	-0.32502276
123	0xbf3de9ca	-0.7418486
124	0x3eb8c56a	0.36088115
125	0xbeac88be	-0.33698076
126	0xbed33aef	-0.412559
127	0xbf26bd92	-0.6513301

bn.weight f4 [2]
0	0x3f800000	1.0
1	0x3f800000	1.0

bn.bias f4 [2]
0	0x00000000	0.0
1	0x00000000	0.0

bn.running_mean f4 [2]
0	0x00000000	0.0
1	0x00000000	0.0

bn.running_var f4 [2]
0	0x3f800000	1.0
1	0x3f800000	1.0

encoder.feature_extract.mlps.0.linears.0.weight f4 [128, 2]
0	0xbee8e13f	-0.4548435
1	0xbe69fd88	-0.22850621
2	0x3ef25a2a	0.47334415
3	0x3f190eb7	0.5978808
4	0xbf2598c0	-0.64686203
5	0xbf0352c8	-0.5129819
6	0x3eaefda8	0.341779
7	0xbee424ab	-0.44559225
8	0xbe290169	-0.16504444
9	0xbe354da6	-0.17705402
10	0xbead264c	-0.3381828
11	0xbe9f3bb1	-0.31100228
12	0xbe65eca4	-0.22453552
13	0xbd7d033c	-0.061770663
14	0x3ea75be9	0.3268731
15	0x3f29c706	0.6631931
16	0x3ec097c0	0.37615776
17	0xbf2ed4ee	-0.68293655
18	0x3e9350e5	0.28772655
19	0xbe973f3e	-0.29540437
20	0x3e27e37b	0.1639537
21	0xbe60cfe6	-0.21954307
22	0xbd1ba894	-0.038002566
23	0x3f31d4c5	0.69465286
24	0xbe3d7272	-0.18500689
25	0xbf1633a1	-0.5867253
26	0x3e9f166e	0.310718
27	0x3f1e8a78	0.61930037
28	0xbd8d7821	-0.069076784
29	0xbd658af7	-0.05604073
30	0x3df20bfc	0.11818692
31	0x3e5c1312	0.2149165
32	0xbf256021	-0.64599806
33	0x3f30c1cd	0.69045717
34	0xbeefc375	-0.4682881
35	0xbf1985c1	-0.5996972
36	0xbef2faae	-0.47456878
37	0xbd983ec0	-0.074338436
38	0xbe3187ae	-0.17336914
39	0x3d02abfb	0.031902295
40	0x3deee7af	0.11665284
41	0x3ec4f4d1	0.3846803
42	0x3e39e5e7	0.18154107
43	0xbf109824	-0.5648215
44	0x3f2188c9	0.6309934
45	0x3f019f92	0.5063411
46	0xbf16478f	-0.5870294
47	0xbed6c9bc	-0.41950786
48	0x3dbd540b	0.092445455
49	0x3e05d3e4	0.13069111
50	0xbeead0ac	-0.4586233
51	0xbf13f4c0	-0.57795334
52	0x3b069ab5	0.002053899
53	0x3f1643a5	0.5869697
54	0xbf14a75a	-0.5806786
55	0xbf054cf0	-0.5207052
56	0xbef94d98	-0.48692012
57	0xbeea9a09	-0.45820644
58	0xbe613411	-0.21992518
59	0x3ea854be	0.32877153
60	0xbe99859d	-0.2998475
61	0xbf0f731a	-0.56035006
62	0xbe3ab8bf	-0.18234538
63	0xbe729355	-0.23689015
64	0xbf049f15	-0.5180524
65	0xbe2974b8	-0.16548431
66	0x3ece1241	0.40248302
67	0x3f0cec5f	0.55048174
68	0xbefcf748	-0.4940741
69	0x3f29f19c	0.6638429
70	0xbec710ed	-0.388801
71	0x3e4d5652	0.2005246
72	0xbdfe697a	-0.12422462
73	0x3f00d205	0.50320464
74	0xbebdc223	-0.37062177
75	0x3eb4aecc	0.3528961
76	0xbf26594e	-0.6498002
77	0x3dc92f5e	0.09823488
78	0x3e69e3c4	0.22840792
79	0x3e5e67d9	0.21719302
80	0xbdb15dce	-0.0866047
81	0xbf1528ae	-0.582652
82	0xbdda4706	-0.10658078
83	0xbd85c594	-0.06531826
84	0xbf2ee231	-0.6831389
85	0x3f16db49	0.5892835
86	0xbe9ed6f1	-0.31023362
87	0x3f22fa28	0.6366296
88	0x3f2d024d	0.67581636
89	0xbcbbd9f1	-0.022931071
90	0xbf135120	-0.5754566
91	0x3e15e7d9	0.14639224
92	0xbe4df67a	-0.20113555
93	0x3f01081a	0.50402987
94	0x3f00b62d	0.5027798
95	0xbf1f8f55	-0.6232808
96	0xbdf207e7	-0.118179135
97	0xbc2419b3	-0.010015893
98	0x3f1a305c	0.6023004
99	0x3ed73512	0.42032677
100	0x3f2bf3b1	0.6716872
101	0x3f0bf99d	0.54677755
102	0x3e814687	0.2524912
103	0x3ea5a61d	0.32353297
104	0xbe2618a3	-0.16220336
105	0x3f2a1d7a	0.6645123
106	0xbf2c8636	-0.6739229
107	0x3e3857c5	0.18002231
108	0x3e91ce15	0.2847754
109	0x3eaa4e31	0.3326278
110	0x3f0864a4	0.53278565
111	0x3dcc656b	0.099802814
112	0x3e970704	0.2949754
113	0xbed69bb5	-0.4191567
114	0x3f15c504	0.58503747
115	0xbdfc5860	-0.12321544
116	0x3f27bf02	0.6552583
117	0x3ea0533f	0.31313512
118	0xbebbb584	-0.36661923
119	0x3eac35d4	0.33634818
120	0x3f0b8772	0.5450355
121	0x3eb5ed86	0.35532779
122	0xbe2271ec	-0.1586377
123	0x3c0d5d91	0.008628265
124	0x3f253c7c	0.64545417
125	0xbe988734	-0.29790652
126	0x3ee2d410	0.44302416
127	0x3e79a882	0.24380687
128	0xbde960c4	-0.1139541
129	0xbede2a2d	-0.43391553
130	0xbe40ed41	-0.18840505
131	0xbe6398e3	-0.2222629
132	0xbebfada3	-0.37437162
133	0x3e93a5c4	0.28837407
134	0x3f10b438	0.5652499
135	0xbed05c59	-0.40695456
136	0x3e171b2d	0.1475646
137	0xbee776df	-0.4520788
138	0xbee650f6	-0.44983643
139	0x3eaab721	0.3334284
140	0x3f1a6d32	0.6032287
141	0xbf2a4c50	-0.66522694
142	0x3ec93153	0.39295444
143	0xbef49627	-0.47770807
144	0xbf1b634f	-0.6069841
145	0xbec6f287	-0.3885691
146	0x3f096868	0.53674936
147	0xbf0f63ba	-0.56011546
148	0xbf08496e	-0.53237045
149	0x3ec31a14	0.38105834
150	0xbe7ef970	-0.2489984
151	0x3d22d458	0.039753288
152	0xbf1e5e29	-0.61862427
153	0xbf07b115	-0.5300458
154	0xbdb655a3	-0.08903053
155	0x3eb3f6b8	0.3514917
156	0xbed65e68	-0.418689
157	0x3ed23e03	0.41062936
158	0x3ce64ec3	0.028113728
159	0xbf0abfc2	-0.5419885
160	0xbec3dc6c	-0.38254106
161	0x3e405e56	0.18785986
162	0xbf0cfc05	-0.5507205
163	0xbea3899c	-0.31940925
164	0xbf1f10c6	-0.6213497
165	0x3e2388b9	0.15970124
166	0xbea50953	-0.32233676
167	0xbea4fddb	-0.32224926
168	0x3f3291eb	0.69753903
169	0x3ecc60c5	0.3991758
170	0xbf28e70c	-0.6597755
171	0xbeff3685	-0.49846283
172	0xbd13847f	-0.03601503
173	0x3f264fa7	0.6496529
174	0x3ef6e025	0.48217884
175	0xbd24242b	-0.040073555
176	0x3e513565	0.20430525
177	0x3dd35527	0.10318976
178	0x3ecc58f1	0.39911607
179	0x3e6d0047	0.23144637
180	0x3f001aed	0.50041085
181	0xbf073808	-0.5281987
182	0xb9bf0379	-0.00036432946
183	0xbedbe6f2	-0.42949635
184	0xbeac36a4	-0.33635437
185	0xbeda1943	-0.42597398
186	0x3f2ea932	0.6822692
187	0xbebd1184	-0.36927426
188	0xbeae0552	-0.33988434
189	0x3d07a81a	0.0331193
190	0x3f0d55ef	0.5520925
191	0x3f1995d8	0.5999427
192	0xbe39a1a9	-0.18128075
193	0x3e946e74	0.2899052
194	0x3f2ac015	0.66699344
195	0xbf36bba3	-0.7138006
196	0xbf1b4734	-0.6065552
197	0x3ebef62e	0.37297195
198	0xbec19d15	-0.37815157
199	0x3e6307ca	0.2217094
200	0xbc1df241	-0.009640277
201	0xbeab98e8	-0.33515096
202	0x3d9fa1a1	0.077945
203	0xbf1fac99	-0.6237274
204	0x3ec119d4	0.37715018
205	0x3d89f246	0.06735663
206	0xbec5680d	-0.38555947
207	0x3f21b1f5	0.63162166
208	0xbe8a9116	-0.27063817
209	0x3debf70c	0.1152173
210	0xbec03e8c	-0.3754772
211	0x3f0e499e	0.5558108
212	0x3de47d7f	0.11156749
213	0x3d1b1789	0.03786424
214	0x3f2e753e	0.6814765
215	0xbe5cc4f7	-0.21559511
216	0x3ec129fc	0.37727344
217	0x3ca6b650	0.020350605
218	0xbed3c4eb	-0.41361174
219	0x3e8e6f51	0.27819303
220	0xbee8e634	-0.4548813
221	0xbe1de08c	-0.15417689
222	0xbf0a1ad0	-0.5394716
223	0x3f21d0a4	0.63208985
224	0x3cfcdf0f	0.030868081
225	0x3ebe808a	0.37207443
226	0xbeb179a4	-0.34663117
227	0x3e676fab	0.22601192
228	0xbefd1a42	-0.49434096
229	0xbe94b519	-0.29044417
230	0xbe3c6872	-0.18399218
231	0x3e819906	0.2531206
232	0x3f14571e	0.5794543
233	0x3ee5194f	0.4474587
234	0xbf007872	-0.50183785
235	0x3dd5e6aa	0.10444386
236	0x3ee102b9	0.4394739
237	0x3f2ec345	0.6826671
238	0x3e6f6254	0.23377353
239	0xbecedfb8	-0.4040506
240	0xbdbcfbed	-0.092277385
241	0x3daa0f2a	0.083036736
242	0x3ec21298	0.3790481
243	0xbc5999ab	-0.013281266
244	0x3d8b07bc	0.067885846
245	0x3eb8f6e7	0.36125872
246	0xbe21e395	-0.15809472
247	0xbf1e025e	-0.6172236
248	0x3e107d9a	0.14110413
249	0xbf2c16b8	-0.67222166
250	0xbe1d823f	-0.15381716
251	0xbf0af6b6	-0.542827
252	0xbf348add	-0.7052439
253	0xbea7a7aa	-0.32745105
254	0xbf10af35	-0.56517345
255	0x3eba79d1	0.36421064

encoder.feature_extract.mlps.0.linears.0.bias f4 [128]
0	0x3ec09d31	0.37619928
1	0xbf2bfad9	-0.6717964
2	0xbed9cbea	-0.42538387
3	0xbed94c2b	-0.42440924
4	0xbd2981ee	-0.041383676
5	0xbdd1f5b9	-0.10251946
6	0x3e86c6f4	0.26323664
7	0x3ccef298	0.025262162
8	0xbd84210b	-0.06451615
9	0x3c71f6cd	0.014768315
10	0x3eed825a	0.46388513
11	0x3e440561	0.19142677
12	0x3ebebb37	0.3725221
13	0xbe7f7579	-0.24947156
14	0xbf196667	-0.5992188
15	0x3e820e8b	0.2540172
16	0x3ce81589	0.028330581
17	0x3eeb9256	0.46010083
18	0x3cdb16c7	0.02674426
19	0xbeba993e	-0.3644504
20	0x3e8b7202	0.2723542
21	0xbdc1ef82	-0.094695106
22	0xbde60f63	-0.112334035
23	0x3f15bd8c	0.5849235
24	0xbed338d6	-0.412543
25	0xbc916fa7	-0.017753435
26	0x3f069b23	0.5258047
27	0xbf34ff51	-0.7070208
28	0x3f1bbe38	0.60837126
29	0x3ed5a014	0.41723692
30	0x3d88576c	0.066572994
31	0x3eaecd64	0.34141076
32	0xbd45ba23	-0.048273217
33	0x3e64442b	0.22291629
34	0xbe38eb21	-0.18058445
35	0x3d898356	0.067145035
36	0xbf0f9d80	-0.560997
37	0x3e6308f4	0.22171384
38	0x3e649e71	0.22326066
39	0x3da0d2c8	0.07852703
40	0x3ca5bacb	0.020230671
41	0x3d841524	0.06449345
42	0x3c5eb7bd	0.013593611
43	0x3e5c045f	0.21486042
44	0xbdebc142	-0.115114704
45	0x3bc69bde	0.0060610613
46	0xbe38a2f5	-0.18030913
47	0xbd3c7517	-0.046010103
48	0x3f346870	0.7047186
49	0xbef038fc	-0.46918476
50	0x3ee35064	0.4439727
51	0x3dfae27f	0.12250232
52	0xbe04a6f7	-0.12954317
53	0xbf219274	-0.63114095
54	0xbf0ae9a4	-0.5426276
55	0x3e765fb6	0.24059948
56	0xbe6f519a	-0.23370972
57	0x3ecf9c0f	0.4054875
58	0xbe9b2c6f	-0.30307338
59	0x3e6fcfee	0.23419163
60	0x3eea0226	0.45704764
61	0xbf270bd2	-0.6525241
62	0xbe349566	-0.17635116
63	0xbe9cf29d	-0.3065385
64	0xbe462e8a	-0.1935369
65	0x3f2842e5	0.6572707
66	0xbd90a431	-0.07062567
67	0x3e5dafb4	0.21649057
68	0xbed3ae0e	-0.4134373
69	0xbf0d416a	-0.5517794
70	0xbf05d51a	-0.5227829
71	0x3f1f396b	0.6219699
72	0x3e56e003	0.20983891
73	0x3f139a3b	0.5765721
74	0x3ea66051	0.3249536
75	0xbeaa24af	-0.33231112
76	0xbe2e5913	-0.17026167
77	0xbd48e22b	-0.049043816
78	0x3ea85f11	0.3288503
79	0xbf049a35	-0.517978
80	0x3e3864a3	0.1800714
81	0xbd9259da	-0.07146044
82	0xbf1b4650	-0.60654163
83	0x3dfb66c8	0.12275463
84	0xbefbe77e	-0.49200052
85	0xbecc973b	-0.3995913
86	0x3f1ca5de	0.61190593
87	0x3f1f9446	0.6233562
88	0x3e545ba5	0.20738085
89	0xbdaa1e2e	-0.083065376
90	0x3d420aad	0.047373462
91	0xbf06a8c1	-0.5260125
92	0xbee51fb3	-0.44750747
93	0x3f2f5e7f	0.68503565
94	0x3ee71e7d	0.45140448
95	0x3ef13e02	0.4711762
96	0xbf229559	-0.63509136
97	0x3eb20da7	0.3477604
98	0xbe04bb0a	-0.12961975
99	0x3f029336	0.51005876
100	0xbf32e60c	-0.69882274
101	0xbf025efa	-0.5092617
102	0xbe8d62b5	-0.2761437
103	0x3ee4a3b3	0.44656143
104	0x3f1babf1	0.60809237
105	0xbd315360	-0.043292403
106	0xbf2ac11d	-0.6670092
107	0x3ea5aa05	0.32356277
108	0xbf203b14	-0.62590146
109	0x3f1a6143	0.6030466
110	0x3e0c2ffc	0.1369018
111	0x3f2a5614	0.66537595
112	0xbe02bdd3	-0.12767725
113	0xbcf2d840	-0.029644132
114	0xbca3e636	-0.020007234
115	0xbf108139	-0.5644718
116	0xbebd8e9e	-0.3702287
117	0x3e5c7e1e	0.21532485
118	0x3ee82ba7	0.45345804
119	0x3f162362	0.5864774
120	0x3f0dfeb4	0.5546677
121	0x3e638669	0.22219242
122	0xbf23f918	-0.6405196
123	0xbee0a2dc	-0.43874252
124	0xbebf304d	-0.37341538
125	0xbe9952a8	-0.29945874
126	0xbf012971	-0.5045386
127	0x3ef32213	0.47486934

encoder.feature_extract.mlps.0.linears.1.weight f4 [128, 128]
0	0xbdb71ab8	-0.08940643
1	0x3b48372c	0.0030550463
2	0x3d4bc5c9	0.04974917
3	0x3cce3181	0.02517009
4	0x3cf3901b	0.0297318
5	0x3c687960	0.014189094
6	0xbc62a8e3	-0.013834211
7	0x3d965041	0.07339526
8	0x3da1c8be	0.07899617
9	0xbd248180	-0.040162563
10	0xbd3693c9	-0.044574533
11	0x3d214075	0.03936811
12	0xbc701cc9	-0.0146553
13	0x3d8862fd	0.066595055
14	0xbdaa9619	-0.0832941
15	0x3d8ec164	0.0697048
16	0xbcd6e27f	-0.026231049
17	0xbcf8378c	-0.030299924
18	0x3c97f102	0.018547539
19	0x3ce74685	0.028231869
20	0x3da755cb	0.081706606
21	0x3d65b963	0.056085
22	0x3d0e80f7	0.03479096
23	0x3d6dcf15	0.058058817
24	0x3d9bb456	0.07602756
25	0x3bbad55e	0.005701705
26	0x3ca9f668	0.020747378
27	0xbc965872	-0.01835272
28	0x3d1024dd	0.035191406
29	0xbdac106d	-0.084015705
30	0xbc36359c	-0.01112118
31	0x3db17dbc	0.0866656
32	0x3d330708	0.043707877
33	0xbd953692	-0.07285799
34	0x3da0bc8a	0.07848461
35	0x3b2fcd98	0.0026825424
36	0x3db3ec82	0.08785345
37	0xbd7feb08	-0.062480003
38	0xbd22fbda	-0.039790966
39	0x3d905321	0.070471056
40	0x3d3c6c70	0.04600185
41	0x3be7bb6f	0.0070719044
42	0xbbefa9c3	-0.0073139383
43	0xbd8be0eb	-0.06830009
44	0x3d9ce4fa	0.07660861
45	0xbdb3eda5	-0.087855615
46	0x3d9ae41d	0.075630404
47	0x3d9c5d3a	0.07634969
48	0x3d91183f	0.07084703
49	0xbc8e557c	-0.017374747
50	0x3bcfb2cb	0.0063384525
51	0x3d567466	0.0523571
52	0x3d03dbfc	0.032192215
53	0xbd06f563	-0.032948863
54	0xbca35bc6	-0.019941222
55	0x3d451858	0.04811892
56	0xbcee7147	-0.02910675
57	0xbd5a3b7a	-0.053279378
58	0x3d708435	0.058719832
59	0xbd71577d	-0.058921326
60	0xbda46e57	-0.08028858
61	0x3c6c9e01	0.014441968
62	0x3d37a80a	0.04483799
63	0x3c87d1a6	0.01657946
64	0xbc2e0188	-0.010620482
65	0xbd81bfc9	-0.06335408
66	0x3d950bf5	0.07277671
67	0x3da7d40c	0.081947416
68	0xbd862d26	-0.0655158
69	0x3c4730d5	0.012157639
70	0x3d92b904	0.07164195
71	0x3d79ac33	0.060955238
72	0xbda1fb35	-0.07909242
73	0xbc90d133	-0.017677879
74	0x3dad10db	0.084504806
75	0xbcbce6b9	-0.023059236
76	0xbc8a1e9e	-0.016860303
77	0x3da374ce	0.07981263
78	0x3d8f82f9	0.07007403
79	0xbccdb383	-0.025110012
80	0xbd8d32cd	-0.06894455
81	0x3cbb4e94	0.022864617
82	0x3d37a081	0.044830803
83	0x3cad8bdf	0.02118486
84	0x3c531839	0.012884193
85	0xbda8da59	-0.082447715
86	0xbd856a5a	-0.065144256
87	0xbd9602d2	-0.07324757
88	0x3da33fce	0.07971154
89	0xbc7b219a	-0.015327835
90	0x3d8b25a4	0.06794289
91	0x3b956001	0.0045585637
92	0xbd9ab9f4	-0.07554999
93	0x3d981c85	0.07427315
94	0x3b6c1833	0.0036025166
95	0xbda8fe39	-0.08251614
96	0xbc12b912	-0.008955257
97	0x3db15585	0.0865889
98	0xbc120c17	-0.008914015
99	0x3d47aa9e	0.048746698
100	0x3ca534b3	0.02016673
101	0xbd9dc864	-0.07704237
102	0xbce5b7ae	-0.028041687
103	0xbd48900b	-0.048965495
104	0xbca94a21	-0.02066523
105	0x3c90bb79	0.017667519
106	0x3d46da8a	0.04854826
107	0xbd81a51f	-0.063303225
108	0x3d983207	0.07431417
109	0xbdb1ec6b	-0.08687671
110	0x3d9a8d34	0.075464636
111	0x3be1994a	0.0068847286
112	0x3d68d4ac	0.056843445
113	0xbd9ee6f7	-0.07758897
114	0xbb532e94	-0.0032223808
115	0x3d42f130	0.047593296
116	0x3ce175ec	0.02752205
117	0x3cc0e67e	0.023547407
118	0xbc3e7a57	-0.011625848
119	0xbd8082a4	-0.06274918
120	0x3d7675aa	0.060170807
121	0x3d6af58c	0.057363078
122	0xbd11c200	-0.035585403
123	0xbda2a449	-0.07941491
124	0x3c8e75d4	0.01739017
125	0xbd8c3de7	-0.068477444
126	0x3caa7913	0.020809686
127	0xbcecc5a5	-0.028902838
128	0x3cfbd2eb	0.030740222
129	0xbcfc83ac	-0.030824505
130	0x3d20ea54	0.039285973
131	0x3d784989	0.060617004
132	0xbdb42da0	-0.08797765
133	0xba9b4efb	-0.00118491
134	0x3b1b9e29	0.0023745394
135	0xbc946dde	-0.018118795
136	0x3db4dd7d	0.08831308
137	0x3d0fbb4a	0.035090722
138	0x3db62c05	0.08895115
139	0xbd1971d9	-0.03746209
140	0xbd585d1f	-0.052823182
141	0xbd803391	-0.062598355
142	0xbd52fd7b	-0.05151127
143	0xbda761d0	-0.08172953
144	0x3d8951d0	0.067050576
145	0x3cf32389	0.02968003
146	0xbcc79eee	-0.024367776
147	0x3d4e7ba9	0.0504109
148	0x3d7d027c	0.061769947
149	0xbd88fb62	-0.066885725
150	0xbd10c632	-0.035345264
151	0xbd6804b9	-0.05664513
152	0x3d01c20c	0.0316792
153	0x3d10d8e9	0.03536311
154	0x3d924718	0.07142466
155	0x3d35cf2d	0.04438703
156	0xbcdff206	-0.027337085
157	0xbd6717eb	-0.056419294
158	0x3d3b6f3c	0.04576038
159	0x3d174fe7	0.036941435
160	0xbca6c3c3	-0.020357018
161	0xbc89e217	-0.01683144
162	0xbd912677	-0.07087415
163	0x3dab1bd5	0.08354918
164	0x3acd167e	0.0015646962
165	0x3c8c2f69	0.01711245
166	0x3daacae3	0.08339479
167	0xbcc604de	-0.024172243
168	0xbd924978	-0.07142919
169	0xbd19d095	-0.037552435
170	0xbcbf6cb2	-0.02336726
171	0xbd76d7d4	-0.060264423
172	0xbd46205a	-0.048370697
173	0x3d1900b9	0.037354205
174	0xbccb9cab	-0.024854979
175	0x3cd007ae	0.025394287
176	0xbc00e5d9	-0.0078673
177	0x3cc81871	0.024425717
178	0x3d6f3dc2	0.058408506
179	0x3d8f6483	0.07001593
180	0xbce5b4da	-0.028040338
181	0x3da98c67	0.08278733
182	0xbcbac3f3	-0.022798514
183	0x3da2cf79	0.079497285
184	0xbc61da68	-0.013784982
185	0x3c86f148	0.016472474
186	0x3d9bf2da	0.0761468
187	0x3d9dd38d	0.07706366
188	0xbcb93481	-0.022608044
189	0xbc15afa3	-0.009136113
190	0xbd3f0210	-0.046632826
191	0xbc64fb44	-0.013975922
192	0x3d9205c4	0.07130006
193	0x3da33419	0.07968921
194	0x3d07810f	0.033082064
195	0x3d7c0800	0.061531067
196	0x3c82e871	0.015979977
197	0xbd97ee0d	-0.074184515
198	0x3c3c080a	0.011476526
199	0xbc96180e	-0.018322017
200	0xbc81e17e	-0.015854593
201	0x3c2ccce9	0.010546901
202	0x3d84907e	0.06472872
203	0x3b324301	0.0027200582
204	0x3d24295e	0.040078513
205	0xbd0b5478	-0.034016103
206	0xbd607504	-0.054799095
207	0xbd82d29f	-0.06387829
208	0xbc505317	-0.012715123
209	0x3d7cbae5	0.061701674
210	0x3d903b41	0.07042552
211	0x3da26242	0.079288974
212	0xbd41c4e7	-0.04730692
213	0xbc9d1e70	-0.019179553
214	0x3cb79da8	0.022414044
215	0xbc2ca6d5	-0.010537823
216	0xbd2bd8d0	-0.041954815
217	0xbd9058ba	-0.07048173
218	0x3d6c036f	0.057620462
219	0xbc20b50c	-0.00980879
220	0xbba09353	-0.004900375
221	0x3d9d2e92	0.07674898
222	0xbd4ed729	-0.05049816
223	0xbd49df05	-0.049284954
224	0x3d60803e	0.0548098
225	0xbda6f1b0	-0.08151567
226	0xbdbc7b46	-0.092032
227	0xbc9e6764	-0.01933641
228	0x3d1277cb	0.035758775
229	0x3da00a95	0.07814518
230	0x3da74b67	0.08168679
231	0xbd83206a	-0.06402667
232	0x3d49f6d5	0.049307663
233	0xbd52c0e2	-0.05145348
234	0xbc7a921a	-0.015293622
235	0x3bf36456	0.0074277325
236	0xbd3b98d0	-0.04580003
237	0x3d2a3de9	0.04156295
238	0x3ceeece1	0.029165687
239	0x3cfa4189	0.030548828
240	0xbd58d41e	-0.052936666
241	0xbda4d10a	-0.080476835
242	0x3c0964d3	0.008385855
243	0xbce7a54d	-0.028277064
244	0x3c911ed0	0.017714888
245	0x3d98690c	0.07441911
246	0xbd3a3b1d	-0.04546653
247	0xbd38ebeb	-0.045146864
248	0x3d22c127	0.039734986
249	0x3db01f7b	0.085997544
250	0xbd983968	-0.074328244
251	0x3d9ec3fb	0.07752224
252	0xbd06154b	-0.03273515
253	0xbd0901fe	-0.033449166
254	0x3d43770c	0.047720954
255	0xbdbba427	-0.09162169

encoder.feature_extract.mlps.0.linears.1.bias f4 [128]
0	0x3d8d73b2	0.06906833
1	0x3cccd76b	0.025005063
2	0xbb9ba62d	-0.0047500343
3	0xbc7e1167	-0.015507079
4	0x3cbe6593	0.023241794
5	0xbd45e101	-0.048310284
6	0xbd9052f6	-0.070470735
7	0x3d8c3361	0.06845737
8	0x3dace7b0	0.084426284
9	0xbd3384ac	-0.043827698
10	0xbd98e8e9	-0.07466299
11	0xbd7fb0ca	-0.06242446
12	0x3d01263f	0.031530615
13	0x3c739e08	0.014869221
14	0x3d9aa54a	0.07551058
15	0xbd2903b3	-0.041263293
16	0xbcf603db	-0.030031135
17	0xba09fd6a	-0.0005263897
18	0xbd9c96a8	-0.07645923
19	0xbdb35ee5	-0.08758334
20	0x3a07de51	0.0005182969
21	0xbd962925	-0.073320664
22	0x3d2508cb	0.04029159
23	0x3bc487a2	0.005997614
24	0x3d41f2ab	0.047350567
25	0x3d59b737	0.053153243
26	0xbcd0e2ee	-0.025498834
27	0x3cea970a	0.028636474
28	0xbbb1de6d	-0.0054281265
29	0x3d53d720	0.05171883
30	0x3d215654	0.03938897
31	0x3bad2889	0.005284373
32	0x3d1a882c	0.03772752
33	0xb967293f	-0.00022045242
34	0x3c45ac50	0.012065008
35	0x3d29bd1f	0.041440126
36	0x3d557b91	0.052119795
37	0x3b845d98	0.0040394776
38	0x3da7b7d4	0.08189359
39	0x3d952c8f	0.072838895
40	0x3cf465a7	0.029833628
41	0x3d65893d	0.056039084
42	0xbd1ca254	-0.038240746
43	0xbccfd84d	-0.025371695
44	0xbcc02a92	-0.0234578
45	0xbcb718dc	-0.022350721
46	0xbc04a2eb	-0.008095483
47	0x3d65fdf7	0.056150403
48	0xbca64ea7	-0.020301176
49	0x3d2327bb	0.03983281
50	0xbd1f75a2	-0.038930543
51	0x3dac93fd	0.08426664
52	0x3cd63620	0.026148856
53	0x3d66e025	0.056366105
54	0xbc55d080	-0.013050199
55	0xbb38b496	-0.002818381
56	0x3d491ade	0.04909789
57	0xbc05fb8b	-0.008177648
58	0xbda1301f	-0.078705065
59	0xbc8951c9	-0.016762631
60	0xbd70fa7b	-0.058832627
61	0xbd45cca5	-0.048290867
62	0xbbdf21bb	-0.006809441
63	0xbdacae02	-0.08431627
64	0x3db3cb3c	0.08778998
65	0x3d74a4fb	0.05972765
66	0x3d95c54d	0.07313023
67	0x3d2a3e36	0.041563235
68	0xbc0605da	-0.008180106
69	0x3c9f9b87	0.01948334
70	0x3d9f1bd4	0.0776898
71	0xbd694315	-0.05694874
72	0xbd046b1b	-0.032328706
73	0x3b5e9df7	0.0033968666
74	0xbd34500d	-0.044021655
75	0xb9976137	-0.00028873395
76	0x3d4e5a60	0.050379157
77	0xbdaae1c7	-0.08343845
78	0xbd54e1d4	-0.05197318
79	0x3d4e8165	0.05041637
80	0xbd644b4d	-0.055735875
81	0x3db74c87	0.08950143
82	0xbd88d8af	-0.06681954
83	0xba41a742	-0.0007387289
84	0x3d2438bf	0.04009318
85	0xbc2faf72	-0.010722982
86	0x3d43f7db	0.047843795
87	0x3d17723e	0.036974184
88	0x3da6dc09	0.08147437
89	0x3d9d3ef3	0.07678022
90	0x3d9121b9	0.0708651
91	0x3cbd8bba	0.023137916
92	0x3d04db49	0.03243569
93	0x3d454829	0.04816452
94	0xbccb50bb	-0.024818769
95	0xbd8ca06d	-0.06866536
96	0x3d157a5b	0.03649364
97	0xbd213d67	-0.0393652
98	0xbcd9f6a9	-0.026606875
99	0x3d03ca98	0.03217563
100	0xbda5c9c9	-0.08095128
101	0x3d5e6a41	0.05430055
102	0xbd44524f	-0.047930058
103	0xbd7e10cf	-0.06202775
104	0xbccf0dad	-0.025275076
105	0xbc984ec5	-0.018592248
106	0x3d5635d8	0.052297443
107	0x3d1b663a	0.037939288
108	0x3ca45557	0.020060224
109	0xbd6246d7	-0.05524334
110	0xbca8186a	-0.020519454
111	0x3c9bdb94	0.019025601
112	0xbd8a0016	-0.06738298
113	0x3d138972	0.03601975
114	0x3bb13a25	0.0054085427
115	0xbd0b77c1	-0.034049753
116	0x3db2ab86	0.08724122
117	0x3dafca03	0.085834526
118	0x3d801453	0.062538765
119	0x3d73ce59	0.05952296
120	0x3d0c6211	0.03427321
121	0x3d0cc522	0.034367688
122	0x3d7a322c	0.061083004
123	0x3bb18a50	0.0054180995
124	0x3ca26ef2	0.019828293
125	0x3c4ce7ac	0.012506407
126	0x3d66c7d6	0.056342922
127	0x3cd26af9	0.025685774

encoder.feature_extract.mlps.0.linears.2.weight f4 [128, 128]
0	0x3b31cb57	0.0027129257
1	0xbb0510a7	-0.0020304115
2	0xbcbdfef0	-0.023192853
3	0xbcf82877	-0.030292733
4	0x3d128ca0	0.03577864
5	0x3c92ae05	0.017905245
6	0x3cd40ca5	0.025884936
7	0xbc344fb8	-0.011005335
8	0x3cf9cd7e	0.030493494
9	0x3ce4e99f	0.02794343
10	0x3d016804	0.031593338
11	0xbd3e97e9	-0.04653159
12	0x3d8c4a20	0.06850076
13	0xbd443acc	-0.047907636
14	0xbd1529a0	-0.03641665
15	0x3d9f7bbd	0.07787273
16	0xbd0ef6ff	-0.034903523
17	0x3cbd684b	0.02312102
18	0x3d7d83a7	0.06189313
19	0x3d92406e	0.07141195
20	0x3b1714f7	0.0023053268
21	0x3da4c546	0.080454394
22	0xbc3a07a2	-0.011354359
23	0x3d9413d9	0.07230348
24	0xbd41a86d	-0.047279764
25	0xbca2388a	-0.01980235
26	0xbce9d630	-0.028544515
27	0xbcc33dbd	-0.02383315
28	0x3c5fac66	0.013651943
29	0xbd3a18ac	-0.045433685
30	0x3cc30fcd	0.023811245
31	0x3c53a834	0.012918521
32	0xbceb0980	-0.028691053
33	0x3ba76cf6	0.0051094247
34	0x3b3e759a	0.0029061795
35	0x3d8f77db	0.070052825
36	0x3d830b50	0.06398642
37	0xbd9928cf	-0.07478487
38	0x3b136c0f	0.0022494828
39	0x3c4030fe	0.011730431
40	0x3d6a2050	0.05715972
41	0x3d2e3831	0.042534057
42	0xbc4d53f4	-0.012532223
43	0xbcd04ee2	-0.02542824
44	0x3d99093b	0.07472464
45	0x3d13a044	0.036041513
46	0xbcc8543c	-0.024454229
47	0x3c8f5476	0.017496329
48	0x3d0878a8	0.03331819
49	0xbc7cb3e8	-0.015423752
50	0xbd8e7f09	-0.06957824
51	0xbd6e434b	-0.058169644
52	0xbd0edb79	-0.034877274
53	0x3da8a7f1	0.08235157
54	0x3d741c0b	0.059597056
55	0x3c9890fd	0.018623823
56	0xbdb232ff	-0.08701133
57	0xbd6d74aa	-0.057972588
58	0xbd3dee90	-0.04637009
59	0x3db33eae	0.087521896
60	0xbd54e96b	-0.051980417
61	0x3d664a9c	0.056223497
62	0x3d2e69ef	0.042581495
63	0x3d91f3aa	0.07126553
64	0xbbd2f6e2	-0.006438122
65	0x3d6e29dc	0.05814539
66	0x3daf4e1b	0.08559819
67	0x3d5b973e	0.053611033
68	0x3db66e7c	0.08907792
69	0xbd5a5835	-0.053306777
70	0x3d22c3c7	0.03973749
71	0x3d71e25e	0.05905377
72	0x3d8702ad	0.06592307
73	0xbd6dc882	-0.058052547
74	0x3d834be3	0.064109586
75	0xbda53253	-0.08066239
76	0x3c0ee069	0.008720496
77	0x3be1ce16	0.0068910224
78	0x3d05c232	0.032655902
79	0x3d7824bc	0.060581908
80	0xbd8ddca4	-0.069268495
81	0x3cbaa429	0.022783356
82	0xbad22852	-0.0016033745
83	0xbd5c07b3	-0.05371828
84	0x3d825b4f	0.06365072
85	0xbc45425f	-0.01203975
86	0xbd948fbd	-0.072539784
87	0x3d25e8ec	0.040505335
88	0xbcfd0388	-0.030885473
89	0x3c70cae9	0.014696815
90	0xbc0511d0	-0.008121923
91	0x3d96c3fc	0.073616
92	0xbcfb9c1e	-0.03071409
93	0x3d2630ed	0.040574003
94	0xbd358c49	-0.04432324
95	0x3d119949	0.035546575
96	0x3cc9c12c	0.024628244
97	0xbd98ee07	-0.07467275
98	0xbda7cc82	-0.08193304
99	0x3d8cc78c	0.06873998
100	0x3c4cca0d	0.012499345
101	0xbd74f273	-0.05980153
102	0xbd7e1566	-0.062032126
103	0xbdbb4d30	-0.09145582
104	0x3d7c7b0e	0.06164079
105	0x3d85f4ec	0.06540856
106	0xbd2c2626	-0.04202857
107	0x3d3b260f	0.045690592
108	0xbd9abd94	-0.075556904
109	0xbba27314	-0.004957566
110	0xbd58586e	-0.052818708
111	0xbd849a8c	-0.0647479
112	0x3d912235	0.070866026
113	0x3d6745b5	0.056462962
114	0x3d331668	0.04372254
115	0x3d7656e1	0.060141448
116	0xbbe2edae	-0.0069253063
117	0x3bafa4c6	0.0053602187
118	0x3d608ec2	0.054823644
119	0xbd8150b7	-0.06314223
120	0xbd07ee32	-0.033186145
121	0x3b9c05ef	0.0047614495
122	0xbdb06ce6	-0.08614521
123	0xbdadd046	-0.08486991
124	0xbd3dd726	-0.04634776
125	0xbdaebc51	-0.08532012
126	0xbd8c2c9c	-0.06844446
127	0xbd75a246	-0.05996921
128	0x39b7c59d	0.00035051713
129	0x3ce53d32	0.027983282
130	0x3d1efa9c	0.03881322
131	0x3d84c53d	0.06482933
132	0xbcc87c23	-0.024473256
133	0xbc940e20	-0.018073142
134	0x3d033204	0.03203012
135	0xbc91e9e9	-0.017811732
136	0x3c70ae8e	0.014690055
137	0xbdb33a90	-0.08751404
138	0x3d925e5b	0.07146903
139	0x3c9da818	0.019245192
140	0x3d4b510b	0.049637835
141	0x3db65ae5	0.089040555
142	0xbd96c828	-0.073623955
143	0x3c165dbd	0.009177622
144	0x3d3322c2	0.04373432
145	0xbcfc5c6a	-0.030805785
146	0x3d85a578	0.06525701
147	0xbda62d15	-0.081140675
148	0xbdad2b1c	-0.08455488
149	0x3da10939	0.07863087
150	0x3d5b5adb	0.053553443
151	0xbd248871	-0.040169183
152	0x3d3332c7	0.043749597
153	0x3bd8c5a5	0.006615358
154	0xbda83110	-0.08212483
155	0xbcf62fe2	-0.03005213
156	0xbd6a6f34	-0.057234958
157	0xbd2c0e2e	-0.04200571
158	0xbc302362	-0.010750623
159	0x3d916779	0.07099814
160	0xbd9dac92	-0.07698931
161	0xbd95977f	-0.07304286
162	0xbd3c8ddf	-0.046033736
163	0x3d79e700	0.061011314
164	0xbc88bf6f	-0.016692845
165	0xbd9f9acc	-0.07793197
166	0xbc0588f4	-0.008150328
167	0xbdca7232	-0.09885062
168	0x3c1b777f	0.009488939
169	0x3d8ca6e0	0.068677664
170	0xbb9c173d	-0.0047635124
171	0x3cacc7ed	0.021091426
172	0xbcab7b9b	-0.020932963
173	0xbbceb765	-0.0063084834
174	0x3da54d67	0.08071404
175	0x3da46a85	0.080281295
176	0xbcda0418	-0.02661328
177	0xbc38e00c	-0.011283886
178	0x3d34cbc4	0.04413964
179	0xbd233a7d	-0.0398507
180	0xbcdbb3be	-0.026819106
181	0x3c05ab80	0.008158565
182	0x3d456a4d	0.04819708
183	0x3d316adb	0.043314796
184	0xbd29c021	-0.041442994
185	0xbda90ba8	-0.082541764
186	0x3d768439	0.06018469
187	0x3d849566	0.06473808
188	0xbc3c96fe	-0.011510609
189	0x3ca24793	0.01980952
190	0x3d8f4598	0.06995696
191	0xbd5ca10d	-0.053864527
192	0xbd7aec31	-0.061260406
193	0xbc36ddb2	-0.011161255
194	0x3d0a751b	0.033803087
195	0xbd301a9d	-0.04299413
196	0xbaf99467	-0.001904142
197	0x3b7e503b	0.0038805145
198	0xbd75f362	-0.06004656
199	0xbc9eddeb	-0.019392928
200	0xbd8d5f56	-0.069029495
201	0x3d526b21	0.051371697
202	0x3da421d2	0.08014263
203	0x3d97f9aa	0.074206665
204	0x3ca222a8	0.019791916
205	0xbd47d48a	-0.048786677
206	0x3b8c7e0e	0.004287488
207	0x3d7ec65f	0.0622009
208	0xbd762968	-0.06009808
209	0x3d6db31d	0.058032144
210	0x3dacab28	0.08431083
211	0x3d99fe5f	0.075192206
212	0xbb007fa6	-0.0019607334
213	0xbda3f9d1	-0.08006633
214	0x3d439882	0.047752865
215	0xbd74d8b5	-0.05977698
216	0xbdafda0d	-0.08586512
217	0xbd55a995	-0.05216368
218	0x3bae0062	0.005310104
219	0xbd4268a9	-0.047463093
220	0xbaa1fd36	-0.0012358788
221	0xbb9a736f	-0.004713468
222	0x3c899991	0.016796859
223	0xbd840500	-0.06446266
224	0x3d278b63	0.040904414
225	0x3d52d70e	0.051474623
226	0xbdb15883	-0.086594604
227	0xbdae4c1b	-0.0851061
228	0x3da425b5	0.080150045
229	0x3d668f15	0.056288797
230	0xbce33189	-0.027733581
231	0x3d9a414d	0.075319864
232	0x3c8432da	0.01613753
233	0x3cd7db11	0.026349576
234	0xbc1bf774	-0.009519447
235	0xbc5fa7a7	-0.013650811
236	0x3d4c814a	0.049927987
237	0xbd221091	-0.03956658
238	0x3b329477	0.0027249136
239	0x3cb9afd6	0.022666853
240	0x3daa3873	0.08311548
241	0xbd7c631b	-0.06161795
242	0xbdbb7284	-0.091527015
243	0xbc135ceb	-0.008994321
244	0xbd8637db	-0.06553622
245	0x3d9f2709	0.07771117
246	0xbcaacb1f	-0.020848809
247	0xbd3f8a9c	-0.046763048
248	0xbc449659	-0.011998736
249	0xbd0f2fdc	-0.03495775
250	0x3d91441b	0.07093068
251	0xbd7b6624	-0.061376706
252	0xbd4ae8ad	-0.049538303
253	0x3d8f4246	0.069950625
254	0xbd9fe99f	-0.078082316
255	0x3d7e3e87	0.06207135

encoder.feature_extract.mlps.0.linears.2.bias f4 [128]
0	0x3d92d6c8	0.071698725
1	0xbd234df0	-0.03986925
2	0xbd0329f4	-0.03202243
3	0x3c7fb076	0.015606036
4	0xbda50747	-0.08058029
5	0x3d16be00	0.036802292
6	0x3d9d6cb4	0.07686749
7	0xbd0088ae	-0.031380348
8	0x3d963768	0.07334787
9	0xbd31c06b	-0.043396395
10	0xbb36710c	-0.0027838377
11	0xbd23dacd	-0.040003587
12	0x3d6f0366	0.05835285
13	0xbdb2af0c	-0.08724794
14	0x3d448f02	0.047987945
15	0x3d756c56	0.05991777
16	0xbd64f171	-0.05589432
17	0x3d5b72ef	0.053576406
18	0xbd32db24	-0.04366602
19	0xbd9f3395	-0.0777351
20	0xbdb7d61d	-0.08976386
21	0xbcdc8910	-0.026920825
22	0xbd9478e2	-0.07249619
23	0xbda8f8a4	-0.082505494
24	0x3d8f1b72	0.06987657
25	0x3d39865a	0.045294143
26	0xbd9d5ae4	-0.07683352
27	0x3d67ed23	0.056622636
28	0x3b80ede6	0.0039346097
29	0xbcd2736d	-0.025689805
30	0xbd9b744e	-0.07590543
31	0xbda0c8d1	-0.07850803
32	0x3cf22571	0.02955887
33	0xbd52db2d	-0.051478554
34	0xba312051	-0.00067568297
35	0xbd8ac7e2	-0.06776406
36	0x3d6078b4	0.05480261
37	0xbd6b8224	-0.05749716
38	0x3c585f51	0.013206319
39	0xbc848f9d	-0.016181761
40	0xbd07fbfe	-0.033199303
41	0xbd5040f5	-0.050843198
42	0xbdb4c008	-0.088256896
43	0xbc793745	-0.015210931
44	0xbd9b5501	-0.075845726
45	0xbd74ea83	-0.05979396
46	0x3d33c3a6	0.043887757
47	0x3d991b1b	0.07475873
48	0xbd84bb11	-0.064809926
49	0x3daeb27d	0.08530138
50	0xbd7a4a76	-0.061106168
51	0x3d9174e6	0.07102375
52	0x3d665c45	0.05624034
53	0x3d2b2c96	0.041790567
54	0x3daeaff5	0.08529655
55	0xbd46a1d8	-0.04849419
56	0x3db0de7a	0.08636184
57	0x3d1d1365	0.038348574
58	0x3d15df15	0.0365897
59	0xbd069b54	-0.032862976
60	0xbc83320c	-0.016015075
61	0xbd183046	-0.037155412
62	0xbc0a5987	-0.008444197
63	0xbcde114f	-0.027107863
64	0x3d5237ba	0.051322676
65	0x3d34a607	0.04410365
66	0xbc8ae354	-0.016954102
67	0xbcd54d45	-0.026037822
68	0x3da5cdca	0.08095892
69	0x3d229613	0.039693903
70	0xbd5669d6	-0.052347027
71	0x3ce182d3	0.027528202
72	0x3da8b662	0.08237912
73	0xbd871061	-0.06594921
74	0xbc4824c8	-0.012215801
75	0x3b734fae	0.003712635
76	0xbd8fb36c	-0.07016644
77	0xbacaaaaf	-0.0015462245
78	0x3d611f9e	0.054961793
79	0x3b501828	0.003175268
80	0xbd585045	-0.052810926
81	0x3d9b2b91	0.07576669
82	0x3c23932a	0.009983817
83	0xbca5d611	-0.020243676
84	0x3cd8b0ce	0.026451495
85	0xbcb39608	-0.021922126
86	0xbd480706	-0.048834823
87	0x3d6d2798	0.057899088
88	0xbd0160c8	-0.03158644
89	0xbd7c30dd	-0.061570037
90	0xbd629991	-0.055322234
91	0x3d4ab9a8	0.04949346
92	0x3d423ba5	0.047420163
93	0xbd9d3a77	-0.07677167
94	0xbd92b1bf	-0.071628086
95	0xbc579d51	-0.013160066
96	0x3c0b2b57	0.00849422
97	0xbd69d435	-0.057087142
98	0xbdadaa77	-0.08479779
99	0x3bbd631c	0.005779637
100	0xbcce076f	-0.025150029
101	0x3d61baa4	0.055109635
102	0x3d7ab95b	0.061211925
103	0x3d010a29	0.03150383
104	0xbd789e89	-0.060698066
105	0x3c738267	0.014862633
106	0x3dae9003	0.08523562
107	0xbc6c1945	-0.014410322
108	0x3bca9ac3	0.006183
109	0x3d82dc86	0.06389718
110	0x3d90fc99	0.07079429
111	0xbd45fab1	-0.04833478
112	0x3c858160	0.016297042
113	0xbdac413d	-0.08410881
114	0x3d845b3f	0.06462716
115	0x3cf6f4d3	0.030146038
116	0x3cc963ec	0.02458378
117	0xbca8f780	-0.02062583
118	0x3c1fc0bc	0.009750541
119	0xbd74b53f	-0.059743162
120	0xbd8ec297	-0.06970709
121	0x3c92b045	0.017906317
122	0xbd905952	-0.070482865
123	0xbd75cd4e	-0.060010247
124	0xbd43c704	-0.047797218
125	0xbd1c1bc5	-0.03811242
126	0x3d34e67d	0.044165123
127	0x3d5bd318	0.05366811

encoder.feature_extract.mlps.0.batch_norms.0.weight f4 [128]
0	0x3f7f82d1	0.99808985
1	0x3f7f31ba	0.9968525
2	0x3f7f12d7	0.9963812
3	0x3f7f82fa	0.9980923
4	0x3f7efec1	0.99607474
5	0x3f8035bb	1.0016397
6	0x3f80d22d	1.006414
7	0x3f803159	1.001506
8	0x3f8034af	1.0016078
9	0x3f812e78	1.0092306
10	0x3f8032fd	1.001556
11	0x3f7fc112	0.99903977
12	0x3f80135f	1.0005912
13	0x3f7e0797	0.9923033
14	0x3f7f533b	0.99736375
15	0x3f7f68ed	0.9976948
16	0x3f803f93	1.0019401
17	0x3f80353c	1.0016246
18	0x3f7f7841	0.9979287
19	0x3f80a0fb	1.0049127
20	0x3f7fdfd8	0.99950933
21	0x3f7e3f9e	0.9931582
22	0x3f7f77ee	0.99792373
23	0x3f7ec6ab	0.99521893
24	0x3f801abc	1.0008159
25	0x3f801125	1.0005232
26	0x3f7fe73e	0.9996222
27	0x3f7ff5cd	0.9998444
28	0x3f808553	1.0040687
29	0x3f7f9e37	0.9985079
30	0x3f7e082b	0.99231213
31	0x3f8014e9	1.0006381
32	0x3f8052cc	1.0025268
33	0x3f7ee9ef	0.99575704
34	0x3f7f9e8a	0.99851286
35	0x3f7ebbb9	0.9950519
36	0x3f803b20	1.0018044
37	0x3f7ff714	0.99986386
38	0x3f7fa774	0.9986489
39	0x3f802618	1.0011625
40	0x3f80737e	1.0035245
41	0x3f807536	1.003577
42	0x3f800601	1.0001832
43	0x3f80684c	1.0031829
44	0x3f802af8	1.0013113
45	0x3f808f6e	1.0043771
46	0x3f7f8a40	0.9982033
47	0x3f7f6b4e	0.9977311
48	0x3f7fbb69	0.9989534
49	0x3f7ec28d	0.9951561
50	0x3f7f67e2	0.9976789
51	0x3f8028b9	1.0012428
52	0x3f7f3263	0.9968626
53	0x3f7e6436	0.9937166
54	0x3f8023a2	1.0010874
55	0x3f806ec7	1.0033807
56	0x3f801c08	1.0008554
57	0x3f7dcf71	0.99144655
58	0x3f8043a9	1.0020648
59	0x3f7fc4fe	0.9990996
60	0x3f7e6974	0.9937966
61	0x3f7f27fd	0.9967039
62	0x3f802cc8	1.0013666
63	0x3f80192b	1.0007681
64	0x3f80fc7d	1.0077053
65	0x3f7f0770	0.99620724
66	0x3f80a3d9	1.0050002
67	0x3f800190	1.0000477
68	0x3f80ebdd	1.007198
69	0x3f7fb5f9	0.99887043
70	0x3f7f1eef	0.99656576
71	0x3f803b74	1.0018144
72	0x3f7f4253	0.9971058
73	0x3f7e9739	0.994495
74	0x3f7ebf5d	0.9951075
75	0x3f807d0f	1.0038165
76	0x3f7feb36	0.9996828
77	0x3f7f830f	0.99809355
78	0x3f803f29	1.0019275
79	0x3f80d5a8	1.0065203
80	0x3f8007d1	1.0002385
81	0x3f7fdbe0	0.9994488
82	0x3f7fea7a	0.9996716
83	0x3f7f1f21	0.99656874
84	0x3f80cd07	1.0062569
85	0x3f80035e	1.0001028
86	0x3f7eb15f	0.99489397
87	0x3f7facb6	0.9987291
88	0x3f7f42a6	0.9971107
89	0x3f7f7aaa	0.99796546
90	0x3f7fc3ee	0.9990834
91	0x3f80bbd8	1.0057325
92	0x3f7fea78	0.99967146
93	0x3f80bec7	1.0058221
94	0x3f801024	1.0004926
95	0x3f8056fc	1.0026546
96	0x3f804866	1.0022094
97	0x3f80912e	1.0044305
98	0x3f802a81	1.0012971
99	0x3f7fc9d8	0.99917364
100	0x3f7fbfbb	0.9990193
101	0x3f804b9f	1.0023078
102	0x3f808c78	1.0042868
103	0x3f7fdd3b	0.99946946
104	0x3f807600	1.0036011
105	0x3f8064c2	1.0030749
106	0x3f806c59	1.0033065
107	0x3f7e4c1f	0.993349
108	0x3f80508d	1.0024582
109	0x3f7fe5b4	0.99959874
110	0x3f80850e	1.0040605
111	0x3f7f8164	0.9980681
112	0x3f800a3c	1.0003123
113	0x3f7fe92d	0.99965173
114	0x3f810384	1.0079198
115	0x3f7f957c	0.9983747
116	0x3f7e630d	0.9936989
117	0x3f80471b	1.00217
118	0x3f804847	1.0022057
119	0x3f809eab	1.0048422
120	0x3f7f9a75	0.9984506
121	0x3f80aa4f	1.0051974
122	0x3f804116	1.0019863
123	0x3f7f33c6	0.99688375
124	0x3f7f5762	0.9974271
125	0x3f7e2388	0.99272966
126	0x3f7f1e18	0.99655294
127	0x3f805e77	1.0028828

encoder.feature_extract.mlps.0.batch_norms.0.bias f4 [128]
0	0xbc013070	-0.007885084
1	0x3ba4509b	0.0050144917
2	0xbb524347	-0.0032083557
3	0xba5011bf	-0.00079372147
4	0x3c2c285c	0.010507669
5	0xba01ff42	-0.0004958996
6	0x3c647dc7	0.013946003
7	0xba43a00f	-0.000746251
8	0xbb9de841	-0.0048189466
9	0x3b7f2b37	0.003893567
10	0x3b619aa6	0.0034424453
11	0x3bfe18f3	0.007754439
12	0x3c0a2f5e	0.008434145
13	0xbbb9971e	-0.0056637665
14	0x3b9558e9	0.004557718
15	0x3b5f0d7c	0.0034035137
16	0x3bcc83f6	0.006241317
17	0x398449d1	0.00025232
18	0x3b4039ff	0.0029331443
19	0x3b94707c	0.0045300107
20	0xbb07a8ea	-0.0020700046
21	0x3b003f9b	0.0019569162
22	0x39ece844	0.0004518648
23	0x3b3faa48	0.0029245783
24	0xbbdb927d	-0.0067008124
25	0xba816eff	-0.0009874998
26	0xbb40570c	-0.002934876
27	0x3a4c56bf	0.00077949086
28	0x3b5b303c	0.0033445498
29	0x3bb5c6dd	0.005547388
30	0xbb954f7f	-0.004556596
31	0x3a61d11e	0.000861423
32	0xbbb54a74	-0.005532557
33	0xbb614359	-0.0034372418
34	0x3b95d224	0.00457217
35	0xbbc5c385	-0.0060352706
36	0x3ae7e540	0.0017692223
37	0x3a3a1520	0.0007098485
38	0x3a843fb7	0.0010089789
39	0xbb842f61	-0.0040339683
40	0xbc312170	-0.010811195
41	0x3c05ad2b	0.008158962
42	0xb84108e0	-4.602305e-05
43	0x3ba2ddae	0.004970274
44	0xbb683cf6	-0.0035436726
45	0x3adadd58	0.0016698046
46	0xbaac5e6f	-0.0013150702
47	0x39ce416d	0.00039340128
48	0x3c32a059	0.010902488
49	0xbc83c7c9	-0.016086476
50	0xba632f66	-0.0008666426
51	0xbb6c82c2	-0.003608868
52	0x3b970470	0.0046086833
53	0x3ac70699	0.0015184461
54	0x3ba6f77b	0.00509542
55	0xbb222c40	-0.0024745613
56	0xbb0c4e53	-0.002140899
57	0x3beae651	0.007168569
58	0xbb8c8801	-0.004288674
59	0xbc0091a5	-0.007847224
60	0xbc4e488a	-0.012590537
61	0xba8c3546	-0.0010697029
62	0x3abf7f14	0.0014610016
63	0xba3eca83	-0.00072781014
64	0xbbc18ba6	-0.00590654
65	0xbab37f36	-0.0013694528
66	0xbb65df3c	-0.0035075685
67	0xbb4e1e05	-0.0031450999
68	0x3ba7f806	0.0051260022
69	0xba8e682f	-0.0010864789
70	0xbb762f58	-0.003756484
71	0x3bde000a	0.006774907
72	0x3aecd4a9	0.0018068749
73	0xbc05db37	-0.008169941
74	0xba9e0f0d	-0.0012058929
75	0x37ae597d	2.0784088e-05
76	0x3c614531	0.013749407
77	0x3a8ada2c	0.0010593585
78	0x3b666b9f	0.0035159362
79	0xbbc58698	-0.0060280077
80	0x3a6941c6	0.00088980456
81	0x3ad7a27e	0.0016451625
82	0xbb8e57f4	-0.004343981
83	0xbc0df272	-0.0086637605
84	0xbb135f86	-0.0022487356
85	0x3a3acd07	0.00071258884
86	0xbb9677eb	-0.004591932
87	0xbbc13559	-0.005896252
88	0x3b3aaf36	0.0028485782
89	0xbbbeae29	-0.0058191014
90	0x3bbcdeca	0.005763863
91	0x3b116ec4	0.0022191266
92	0x3c08b09f	0.008342891
93	0x3ba25f34	0.0049551968
94	0x3bb01d42	0.0053745816
95	0x3a9a6a6b	0.0011780983
96	0xb8ff64bc	-0.00012178111
97	0xb982c14a	-0.00024939544
98	0x3baf1922	0.0053435722
99	0xbbd4bdd7	-0.0064923572
100	0xbbbaf144	-0.0057050306
101	0x3988bf00	0.00026082247
102	0xbbd1f7ad	-0.006407699
103	0x3aff9965	0.0019500671
104	0x3b227c82	0.002479345
105	0x3bb22803	0.0054368987
106	0xbbd98096	-0.006637643
107	0xbb3bf084	-0.0028677294
108	0xbc4f0c54	-0.012637217
109	0xbba1ba85	-0.004935565
110	0x382ba61e	4.0924286e-05
111	0xbba6d2a6	-0.005091029
112	0xbb4b4707	-0.0031017677
113	0xbb2dfbe0	-0.0026547834
114	0x3c1361b5	0.008995463
115	0xbb81ea3c	-0.0039646905
116	0xbc0452c8	-0.008076377
117	0xbc36e206	-0.011162287
118	0x3a37da2c	0.0007013406
119	0x3af15ea9	0.0018415052
120	0xbbec7479	-0.007216033
121	0x3b86541f	0.0040993835
122	0xbbe2eaa6	-0.006924945
123	0xbbdeb78e	-0.006796784
124	0xbbc17dcd	-0.005904889
125	0xbabc8e9e	-0.0014385765
126	0xbb1690a7	-0.0022974403
127	0xba18be70	-0.0005826717

encoder.feature_extract.mlps.0.batch_norms.0.running_mean f4 [128]
0	0x3da5c942	0.080950275
1	0xbc3a3e7f	-0.011367439
2	0xbf83cc24	-1.0296674
3	0xbf4ed8ca	-0.80799544
4	0xbe769f70	-0.24084258
5	0xbeebbc81	-0.46042255
6	0x3e2b9496	0.167559
7	0x3f3a129d	0.7268465
8	0xbf2cf0ca	-0.67554915
9	0xbe6b81e8	-0.22998774
10	0x3e8c6203	0.27418527
11	0x3f5de6d8	0.86680365
12	0xbe6d6f58	-0.23187006
13	0x3ed024a7	0.40652964
14	0xbf2a3cb5	-0.6649888
15	0x3ef77127	0.48328516
16	0x3f1ac324	0.6045401
17	0xbe4e2180	-0.20129967
18	0xbdf6878f	-0.120375745
19	0xbeb87434	-0.36026156
20	0x3f2afa5b	0.6678826
21	0xbf1ecc7a	-0.62030756
22	0x3ef74419	0.48294142
23	0x3da7479e	0.08167957
24	0xbe8a3290	-0.269917
25	0xbf280548	-0.6563306
26	0x3f8d086a	1.1018193
27	0xbfa77dba	-1.3085244
28	0x3da99f40	0.08282328
29	0x3f348e6b	0.7052981
30	0xbf07a71c	-0.52989364
31	0x3da50104	0.08056834
32	0xbe954b7f	-0.2915916
33	0x3f536515	0.82576114
34	0x3ec9587d	0.39325324
35	0x3e4fe378	0.20301616
36	0xbdb1e6bf	-0.086865894
37	0x3f02877e	0.50987995
38	0x3e5f3a69	0.21799625
39	0x3ea78f8f	0.32726714
40	0xbf10950d	-0.56477433
41	0xbc84f7f9	-0.016231524
42	0x3ef831bf	0.48475453
43	0x3f4a6f4d	0.7907608
44	0xbd02e5b8	-0.031957358
45	0x3d745df0	0.0596599
46	0x3e90b4c3	0.2826291
47	0xbf14267d	-0.5787123
48	0x3f2d2893	0.67640036
49	0x3d189f17	0.037261095
50	0x3f8aea6b	1.0852789
51	0x3ef569ba	0.47932225
52	0x3efe63f0	0.4968562
53	0xbf0f58c2	-0.5599481
54	0xbe2ff9ae	-0.17185089
55	0x3ed7f56f	0.42179438
56	0xbf1944f8	-0.5987086
57	0x3ec09584	0.3761407
58	0x3dda1a01	0.10649491
59	0x3f01bb5e	0.50676525
60	0x3f640a33	0.8907806
61	0xbf2b3b35	-0.6688722
62	0xbebc3b29	-0.36763886
63	0x3af4f14c	0.0018687635
64	0xbf230e08	-0.63693285
65	0x3ed1d29a	0.4098099
66	0x3e1d5b65	0.15366895
67	0xbdc1039a	-0.09424515
68	0xbf557221	-0.8337727
69	0xbe9715a3	-0.29508695
70	0xbf8a5b8b	-1.0809187
71	0x3e5c0d8b	0.21489541
72	0xbe8848e3	-0.26618108
73	0x3de3a098	0.11114615
74	0x3f1d8e21	0.61544997
75	0xbeaa1ea1	-0.33226493
76	0xbf496fb7	-0.7868609
77	0x3e9046ab	0.28178915
78	0x3f2a870b	0.6661231
79	0xbf85c797	-1.0451535
80	0x3e9be854	0.3045069
81	0xbef113c0	-0.4708538
82	0xbf0c0c89	-0.5470663
83	0xbe798d5d	-0.24370332
84	0x3c0cb843	0.008588853
85	0xbf7ddd23	-0.9916555
86	0x3f9f29e1	1.2434655
87	0x3f28cfed	0.6594227
88	0x3eae5ad5	0.34053674
89	0x3e534feb	0.20635955
90	0xbec8ed8c	-0.39243734
91	0xbf728453	-0.9473316
92	0xbf6afa60	-0.9178829
93	0x3edbec6b	0.4295381
94	0x3edc8a2c	0.43074167
95	0x3f92adcf	1.1459292
96	0xbec21a6e	-0.3791079
97	0xbe7dfd5d	-0.24803682
98	0x3e10ba9c	0.14133686
99	0x3f2b1ba9	0.6683908
100	0xbf83b708	-1.0290232
101	0xbf8dedd6	-1.1088207
102	0xbe1abcd1	-0.1511109
103	0x3f80bd25	1.0057722
104	0x3f2dc4f0	0.6787863
105	0x3ee2e23c	0.44313228
106	0xbf1cc7f9	-0.61242634
107	0x3e5fe645	0.21865185
108	0xbf0c0580	-0.5469589
109	0x3f4fad6e	0.8112401
110	0xbdaefede	-0.08544706
111	0x3f99b9a1	1.2009774
112	0x3e77e69e	0.24209067
113	0x3e0d21fc	0.13782495
114	0xbec3aa50	-0.38215876
115	0xbeb0a08c	-0.34497488
116	0x3e231126	0.1592451
117	0x3e7508d7	0.23929153
118	0x3f988aed	1.1917397
119	0x3e682db7	0.22673689
120	0x3f1f265e	0.6216792
121	0x3e896fa3	0.26842985
122	0xbe8d1a98	-0.27559352
123	0xbf88cfa6	-1.0688369
124	0xbf815de9	-1.0106784
125	0xbf5b1db7	-0.85592216
126	0xbf6f9bd3	-0.93597144
127	0x3f3e64b1	0.7437239

encoder.feature_extract.mlps.0.batch_norms.0.running_var f4 [128]
0	0x3b03c527	0.0020106526
1	0x3bb927bd	0.005650489
2	0x3bb96202	0.0056574354
3	0x3babbaea	0.0052407878
4	0x3a0c5bf7	0.000535428
5	0x3aefc92e	0.0018294209
6	0x39e29c4f	0.00043222538
7	0x3bce700f	0.0062999795
8	0x3c29c81c	0.010362651
9	0x3b327e85	0.0027236056
10	0x3aa40e68	0.00125165
11	0x3bfbe618	0.0076873414
12	0x3ba08a95	0.0048993328
13	0x3bb444c9	0.005501364
14	0x388a9186	6.6074586e-05
15	0x3a2f4d08	0.0006687199
16	0x3c6c55c0	0.014424741
17	0x3bb94bec	0.0056548025
18	0x3afe343b	0.0019394228
19	0x39afac3d	0.0003350693
20	0x3b0a279c	0.0021080738
21	0x3bc3e92a	0.005978723
22	0x3bb293ff	0.0054497714
23	0x3b8a2d8f	0.004216857
24	0x39884777	0.00025993187
25	0x3bad2b99	0.0052847383
26	0x3baeec70	0.005338244
27	0x3bab621d	0.005230202
28	0x3b7fd0b6	0.0039034314
29	0x3b2cc91a	0.0026364983
30	0x3b947d5d	0.004531546
31	0x3a661326	0.0008776657
32	0x3b18801d	0.002326972
33	0x3b98a229	0.004658003
34	0x3c3b1b4a	0.01142008
35	0x3b293753	0.002582033
36	0x3b93df09	0.004512672
37	0x3b876cfe	0.004132866
38	0x3b94b1fa	0.004537818
39	0x3a642de1	0.0008704346
40	0x3ba34f67	0.0049838307
41	0x39014c68	0.00012330862
42	0x3c4df53e	0.012570677
43	0x3c0c7d82	0.008574845
44	0x3b8f772c	0.00437822
45	0x3b8387fc	0.0040140133
46	0x3ba4e475	0.005032117
47	0x3c2d7a0d	0.010588181
48	0x39018abd	0.00012354083
49	0x3b8e7e33	0.00434854
50	0x3bcd72cf	0.0062697898
51	0x3ad7b209	0.0016456257
52	0x3c00b3cd	0.007855368
53	0x3bb7429e	0.005592658
54	0x3aed0876	0.0018084187
55	0x3b1f38c5	0.0024295312
56	0x3b906737	0.0044068354
57	0x3b80f56d	0.003935507
58	0x3b85e9db	0.0040867156
59	0x3b7e017c	0.003875821
60	0x3b5ceb42	0.003370956
61	0x3980bfaa	0.00024556863
62	0x3bd8c1f3	0.0066149174
63	0x3b02c15b	0.0019951675
64	0x3b30a915	0.002695625
65	0x3a52b464	0.00080377446
66	0x3b5bf829	0.0033564663
67	0x3bead749	0.0071667773
68	0x3b7be299	0.0038434623
69	0x3b98eba6	0.0046667634
70	0x3c5651be	0.013081012
71	0x3bce7532	0.006300592
72	0x3b872507	0.004124287
73	0x3c1e67d3	0.009668308
74	0x3bcf2e02	0.006322623
75	0x3a304eac	0.000672559
76	0x3bb86944	0.005627783
77	0x3b10e825	0.0022111025
78	0x3bb2e83e	0.0054598143
79	0x3b991ec8	0.004672859
80	0x3b1e7401	0.002417803
81	0x3b504127	0.0031777115
82	0x3b99d8c7	0.0046950313
83	0x3af2aae8	0.0018514069
84	0x3ba5b5c9	0.005057071
85	0x3bb7c0f2	0.0056077177
86	0x3bdc682b	0.006726285
87	0x3b18b063	0.0023298494
88	0x39d532d0	0.00040664384
89	0x3adabc27	0.0016688154
90	0x3c0ba1a5	0.008522426
91	0x3b3b8681	0.0028614106
92	0x3b3bc66f	0.0028652211
93	0x3c06d2a2	0.00822893
94	0x3a99decd	0.0011739373
95	0x3bc7fdd2	0.006103256
96	0x3b01c1e9	0.0019799417
97	0x3c7c5762	0.015401693
98	0x3beb49ab	0.0071804128
99	0x3b300614	0.0026859092
100	0x3ae195f4	0.0017210827
101	0x3bd2e170	0.0064355657
102	0x3a9fc965	0.0012190758
103	0x3c182ee7	0.009288526
104	0x3a914883	0.0011084232
105	0x3bf83a48	0.007575307
106	0x38e3f2b3	0.0001086941
107	0x3bc76fe8	0.0060863383
108	0x3aa7dab3	0.0012806266
109	0x3b6c482a	0.0036053755
110	0x3aecd77d	0.0018069592
111	0x3c39506d	0.011310679
112	0x3b081a3c	0.002076759
113	0x3b217b80	0.0024640262
114	0x3b292444	0.002580897
115	0x3ad698e4	0.0016372469
116	0x3b90cd8b	0.004419034
117	0x3b3d377e	0.0028872187
118	0x3be2ff0f	0.006927378
119	0x3b72ee83	0.0037068434
120	0x397bef1e	0.00024026303
121	0x3ab4b42e	0.0013786608
122	0x3af882ef	0.001895992
123	0x3bb2e7e9	0.0054597748
124	0x3c00da82	0.007864596
125	0x3b89dd88	0.004207317
126	0x3b997221	0.0046827947
127	0x3bd47cd9	0.0064846096

encoder.feature_extract.mlps.0.batch_norms.1.weight f4 [128]
0	0x3f7f40ad	0.9970806
1	0x3f7f4af6	0.99723756
2	0x3f81388b	1.009538
3	0x3f7fa290	0.99857426
4	0x3f7d10a5	0.9885352
5	0x3f803f10	1.0019245
6	0x3f7f6358	0.9976096
7	0x3f7f3db4	0.99703526
8	0x3f7ecea9	0.9953409
9	0x3f8041d5	1.002009
10	0x3f7ed981	0.99550635
11	0x3f7f0bd9	0.99627453
12	0x3f7fb4b8	0.9988513
13	0x3f805152	1.0024817
14	0x3f7e725c	0.9939325
15	0x3f7fd9d6	0.99941766
16	0x3f7fe89b	0.999643
17	0x3f7f4ed5	0.99729663
18	0x3f7dd039	0.9914585
19	0x3f80a2fd	1.004974
20	0x3f806002	1.0029299
21	0x3f8038f3	1.001738
22	0x3f7f8a15	0.9982007
23	0x3f80f398	1.0074339
24	0x3f8026fc	1.0011897
25	0x3f803a36	1.0017765
26	0x3f7fd22b	0.99930066
27	0x3f81ba62	1.0135005
28	0x3f7fe395	0.9995664
29	0x3f8037d8	1.0017042
30	0x3f8005e9	1.0001804
31	0x3f7eb0be	0.9948844
32	0x3f7fa927	0.9986748
33	0x3f7ed035	0.9953645
34	0x3f7d72fc	0.9900358
35	0x3f819e75	1.0126482
36	0x3f805524	1.0025983
37	0x3f80c9a2	1.0061533
38	0x3f7e521f	0.99344057
39	0x3f7e72b0	0.9939375
40	0x3f7ed096	0.99537027
41	0x3f7ff4c2	0.99982846
42	0x3f7eca53	0.9952747
43	0x3f80519c	1.0024905
44	0x3f80751f	1.0035743
45	0x3f7f1bde	0.99651897
46	0x3f812393	1.0088981
47	0x3f7e8229	0.9941736
48	0x3f7f9a6b	0.99845
49	0x3f7db82e	0.9910916
50	0x3f804386	1.0020607
51	0x3f7dfbfb	0.99212617
52	0x3f7feb7f	0.99968714
53	0x3f8074f3	1.003569
54	0x3f7f7f65	0.99803764
55	0x3f800558	1.0001631
56	0x3f80a6a1	1.0050851
57	0x3f7f57e5	0.9974349
58	0x3f8017aa	1.0007222
59	0x3f7d0d2e	0.98848236
60	0x3f807b28	1.0037584
61	0x3f7ecfb3	0.99535674
62	0x3f7f6a38	0.9977145
63	0x3f80dd3e	1.0067518
64	0x3f7fa107	0.99855083
65	0x3f7fcecb	0.99924916
66	0x3f8013e0	1.0006065
67	0x3f8077eb	1.0036596
68	0x3f81bc60	1.0135612
69	0x3f8063eb	1.0030493
70	0x3f8013cb	1.000604
71	0x3f7ddc8e	0.99164665
72	0x3f7fa96b	0.99867886
73	0x3f7fa42b	0.99859875
74	0x3f7f4fb5	0.99731
75	0x3f80191b	1.0007662
76	0x3f80ea0b	1.0071424
77	0x3f7f46e8	0.9971757
78	0x3f80bffb	1.0058588
79	0x3f7f58e1	0.99744993
80	0x3f80583e	1.0026929
81	0x3f7f90a5	0.99830085
82	0x3f7dfead	0.9921673
83	0x3f7ed6a0	0.9954624
84	0x3f7f7a31	0.99795824
85	0x3f813a19	1.0095855
86	0x3f812e8f	1.0092334
87	0x3f7f15c1	0.9964257
88	0x3f7fb236	0.99881303
89	0x3f80a93e	1.0051649
90	0x3f8127af	1.0090235
91	0x3f7ec116	0.99513376
92	0x3f7e3ed0	0.99314594
93	0x3f8022c7	1.0010613
94	0x3f802a6e	1.0012949
95	0x3f7e94af	0.99445623
96	0x3f800d11	1.0003988
97	0x3f7f410e	0.9970864
98	0x3f804193	1.0020012
99	0x3f7de1b2	0.9917251
100	0x3f805e84	1.0028844
101	0x3f7ec050	0.99512196
102	0x3f806fba	1.0034096
103	0x3f8018d4	1.0007577
104	0x3f801144	1.0005269
105	0x3f8060f3	1.0029587
106	0x3f80b20a	1.0054333
107	0x3f7f8dd5	0.99825794
108	0x3f7f52b9	0.997356
109	0x3f804fe1	1.0024377
110	0x3f806d4f	1.0033358
111	0x3f7ffa1c	0.9999101
112	0x3f7f751c	0.9978807
113	0x3f80b3a6	1.0054824
114	0x3f803a8f	1.0017871
115	0x3f7e6736	0.9937624
116	0x3f80802a	1.0039113
117	0x3f8024dc	1.0011249
118	0x3f7ef569	0.99593216
119	0x3f807757	1.003642
120	0x3f80501f	1.0024451
121	0x3f7ef307	0.9958958
122	0x3f804236	1.0020206
123	0x3f7f73c9	0.9978605
124	0x3f7f89ae	0.9981946
125	0x3f803da2	1.0018809
126	0x3f7dfeb5	0.9921678
127	0x3f7eb865	0.99500114
