FJSP_MultiPPO/saved_network/FJSP_J10M10/best_value5/policy_job.pth (torch_old, 637433 bytes, 53 tensors)

_input f4 [128]
00000000: 1a0b 62bf a75a 65bf 0f58 33bf f044 ad3e
00000010: 3d3e 27bf 60f9 18bf b0af 933d 7b91 14bf
00000020: fb22 68be 8fbf 1bbe 1ba6 d6be 0398 18bf
00000030: da3d 043f 8881 683e 0a2c 55bf 7355 13bf
00000040: 279a 6b3f bcc9 85bd 0700 b63e 0452 c03b
00000050: 7e2f d73e d981 4c3f 91d9 4abf 0ec4 103f
00000060: 8b4b 583d 1ea5 993e 3473 61bf 488c 153f
00000070: f3fb 2e3f 7fbb 443e 8aa1 83be 7544 7bbe
00000080: 7c87 eb3e 010a 423e 61a2 653e 2dac 4cbf
00000090: ade1 583f 4432 99be efdd 2a3f 4c88 13bf
000000a0: 4fff 563f 447e 2e3f e455 39bf 0426 db3e
000000b0: eb04 6d3f 373c 42bf 4518 45bf 007e 29bd
000000c0: 0a2a dd3c 1aed 76bf 6f7f ce3e 4e1a 303f
000000d0: af5b 0d3f 75fa 143f c2e5 43bf 7aaf 1f3e
000000e0: 5901 8bbe a619 26bf 3547 383f 2b6f 8dbe
000000f0: 9f7d 8cbe d1b9 f6be b59f 3b3f cfc4 1bbf
00000100: 33d6 25bf f901 7b3c 408a afbe 1613 163f
00000110: f7c9 0abf 9e6d 19be 5017 ec3d 53a3 20bf
00000120: 639e cdbe 8ff0 71bf 4fea 17bf 918c 30bf
00000130: 7e89 673f 0a7c 1d3f 686f f43e 0f1b 0f3f
00000140: 5a9a 69bf 7a4c 3fbe 8550 d8be 9b63 cebd
00000150: 99d9 63bf 1750 683f 0b1b b6be a577 25bf
00000160: 1031 123f c595 7e3f ff65 233f 48ff 51bf
00000170: 9862 373e 92c4 e73d edd5 44bd 0242 4b3f
00000180: 28d0 483f 1927 623f 9375 2a3f 54d3 df3d
00000190: 87ee 243e 225b 46be 2f70 c93e 3427 6a3f
000001a0: 2639 f1be b4cf 093f 6a5e 393d 88b4 c4be
000001b0: dbf7 6b3e 0b2e 663f ccec 103e d926 283f
000001c0: 141d 12bf b268 43bf 8475 fabd 0d6f 6f3f
000001d0: 495b 073e 235c 7cbf b9c5 30bf ab01 28be
000001e0: 3c3d ffbe e30a a63d ebf4 d53e 1f25 9b3c
000001f0: 4b98 78bf 69c6 4d3f 9510 d93d fb87 8e3d
-0.8829819 -0.8959145 -0.7005624 0.33841658 -0.65329343 -0.59755516 0.07211244 -0.58034486
-0.22669594 -0.15209793 -0.41923603 -0.5960695 0.5165688 0.22705662 -0.83270323 -0.5755226
0.9203209 -0.065326184 0.35546896 0.005869152 0.4202842 0.7988563 -0.7923823 0.56549156
0.05280642 0.30008787 -0.8806641 0.5841718 0.68353194 0.19212149 -0.25709182 -0.24537833
0.46001804 0.18949129 0.22425224 -0.7995022 0.84719354 -0.29921162 0.66744894 -0.5762985
0.8398332 0.68161416 -0.72396684 0.4280244 0.9258563 -0.7587313 -0.7699016 -0.04137993
0.026997585 -0.9645554 0.403316 0.6879014 0.55218023 0.5819467 -0.7652246 0.15594283
-0.27149466 -0.64882886 0.71983653 -0.27623877 -0.2743959 -0.48188642 0.7329057 -0.6084718
-0.6477997 0.015320295 -0.34285164 0.5862287 -0.54214424 -0.14983222 0.11527884 -0.62749213
-0.40159902 -0.9450769 -0.593419 -0.6896449 0.9044417 0.61517394 0.47741246 0.55900663
-0.91251147 -0.18681517 -0.42248932 -0.10077592 -0.890039 0.9074721 -0.35567507 -0.6463569
0.57106113 0.9944728 0.6382751 -0.82030153 0.17908704 0.1131679 -0.048055578 0.79397595
0.7844262 0.8834091 0.66585654 0.109289795 0.16106616 -0.19370702 0.39343402 0.9146607
-0.47113913 0.53832555 0.045256056 -0.38418984 0.23043768 0.89914006 0.14152831 0.65684277
-0.5707562 -0.7633163 -0.122294456 0.93528825 0.13218416 -0.9857809 -0.690517 -0.16406886
-0.49851406 0.08107545 0.4178842 0.0189386 -0.9710738 0.80380875 0.10598866 0.0695953

bn.weight f4 [2]
00000000: 0000 803f 0000 803f
1.0 1.0

bn.bias f4 [2]
00000000: 0000 0000 0000 0000
0.0 0.0

bn.running_mean f4 [2]
00000000: 0000 0000 0000 0000
0.0 0.0

bn.running_var f4 [2]
00000000: 0000 803f 0000 803f
1.0 1.0

encoder.feature_extract.mlps.0.linears.0.weight f4 [128, 2]
00000000: 6d06 473d eaaf 85bc 16ca 2cbf ce45 4c3e
00000010: 74fb 65bd 1f16 4d3d e871 ed3e a938 86be
00000020: 81a2 3e3e 50bc 563e 7a38 b03e e2d8 a6be
00000030: 7e58 4b3e 0c4c aa3d 3dab c7be b479 aabe
00000040: d1ca dc3e 2056 dbbd 527a 3cbe 08f4 2dbf
00000050: f9b4 84be d398 90bd cfa6 ec3e d0ae f5bd
00000060: 6300 31bf 07f0 c73d 4141 413e 144a 513d
00000070: ad35 ea3d c633 3e3e 4514 3b3e 694f 51be
00000080: dab7 09bc f541 12bf 4f76 e2be d890 593e
00000090: 9bdb 8e3e f0b3 3a3e 30ca 2abf 17e5 7fbc
000000a0: dae5 b1be de01 fabe cd5d 2cbf 5fc1 18bd
000000b0: 6304 debd f049 a4bd ce55 00bd 35c2 da3e
000000c0: 5808 41be 9f08 2cbf 69f1 f03e 5892 083d
000000d0: 22ca 803d 793e 10bf 7db2 0f3f 2fe1 d43e
000000e0: 6558 7d3d 3d5c 1a3e ee4c f33e 7adb babe
000000f0: 0dee b4be 3348 8ebe c8a7 443e 7a4b 9bbe
00000100: 777a 023d 58c0 09bf a04d 28be f341 3bbe
00000110: dcd3 0ebf dc66 103f 727f b23e 98a7 473e
00000120: a48b 93be 3502 23bf 7afe cb3e aa3d fd3e
00000130: 695c 0e3f 5b90 ce3e 670a 32bf bbd3 9e3e
00000140: a50c ed3e 202c 093f 4d24 033f 4d22 953e
00000150: 1765 6cbe 840e a33d 4df2 2d3b 68ce b7be
00000160: 9516 8cbe 9a6b f43e 67d9 c83e d24e 543e
00000170: e657 32bf e0dd 153f ecb6 513d 7a36 e83e
00000180: eed2 08be e9d6 c8be cc2c bfbe be90 053f
00000190: 5ce0 e63d 10a3 8fbd 286a f3bd c40f bbbe
000001a0: 21bc 84be 92b4 15bf 405f 323f b3c2 bb3c
000001b0: 118d 1fbf fd06 303f 41d4 953c fa2e 0bbf
000001c0: c112 153f c688 fc3e d922 d9be 4ccf c8bd
000001d0: 93fc 513e b13b e03e 6dd5 fb3e 41d3 b0be
000001e0: a2c6 0d3f 0a9f aabe b8f0 6abe e3ec 9c3e
000001f0: 6e16 fd3e 5f7e 2cbf aa36 813e dcd5 f6bd
00000200: 3f22 793e a7b3 2cbe f94e 9bbe bd8b e43d
00000210: f7b9 a3be eac5 cdbe f8c7 aebe e70d 82be
00000220: 44b8 053f 56f8 f3be 8775 043f 68d1 15be
00000230: 28aa 2cbf da42 553d bb6e 12be dc7a c2bd
00000240: fae3 6b3e 3401 9fbe 4da7 1cbf 147c dc3e
00000250: 3ae8 3e3e e227 933e 4ef9 08bf a037 fb3e
00000260: 4223 1bbf c99e e2be f5a9 cc3e 5d72 20bf
00000270: 8a59 fc3e f360 d73e 0d78 e7bd db15 2dbf
00000280: cc78 19bf edc7 34bf b60d 423d 95f2 d03e
00000290: f482 a93e 558b 16bf 0266 febe 94a0 c0be
000002a0: 5f0a 1a3e 2e86 db3d 5409 283f 93b0 b53e
000002b0: 7e66 ccbe 0024 853e 7945 133d f1c2 82be
000002c0: 0533 1abf 63ba 2e3f 4524 3fbe 6067 c53e
000002d0: 8ea5 553e 899e 05bf 733c 1b3f 47ef 90be
000002e0: 3260 0f3e 7551 ddbe 2a55 3a3d adba 073e
000002f0: c58d 20bf d59f 00be 84b6 b1bd 7ded 173f
00000300: f467 553e 7792 42be 20c2 9fbd f40e 023f
00000310: a598 ebbe a904 c8be 09c5 af3e 51a5 263f
00000320: 4533 1bbe ffa9 ce3e 6583 053f 8922 f9be
00000330: 3861 c13d 8186 42be 3b78 ab3d 0a44 193d
00000340: 8f4c 59be 3acf 683e 2a6a 0abf 9172 4f3e
00000350: 2361 6abe 2421 85bd c320 f43e 724b a4bc
00000360: e9f2 cfbe dd8a 1e3f 9dea 0c3f 816e ab3b
00000370: f038 f1be cb5e 533d 96a5 11be 620e 123e
00000380: a856 013f b546 5d3e 186d 0e3f 042b fc3e
00000390: 1a6b 033f f98b 5d3c b3fd e23d 8ef0 de3e
000003a0: 9e79 093f 26e2 243f 985c 8a3e 7870 bd3e
000003b0: 646a 153c 5259 653c 7a3f 623c 554d 893d
000003c0: edda d5be 55a0 d23e c2e1 2dbf e5a9 83be
000003d0: e47f 093e 2648 cfbd 897c 31bf aa8c fe3d
000003e0: 4b92 c63e eb80 163f 8df6 8f3d 50ff b43d
000003f0: 3cc8 983e f179 113f c7e5 d1be a762 053f
0.048590112 -0.016319234 -0.6749586 0.19948503 -0.056148008 0.050069924 0.46375966 -0.26215103
0.18616678 0.20970273 0.34418088 -0.32587343 0.19857976 0.08315286 -0.38997832 -0.33295977
0.43123487 -0.107097864 -0.18406036 -0.6795049 -0.2591932 -0.07060399 0.46221015 -0.119962335
-0.69141215 0.097625785 0.18872549 0.051096037 0.11436019 0.18574437 0.18269451 -0.20440449
-0.00840565 -0.5713189 -0.44230887 0.2124666 0.2790192 0.18232703 -0.66714764 -0.015618584
-0.34745675 -0.4882955 -0.6733063 -0.037293788 -0.108406805 -0.08021915 -0.03133183 0.42726293
-0.18850839 -0.67200655 0.4705918 0.03334269 0.06288554 -0.56345326 0.56131727 0.4157805
0.061851878 0.15074249 0.4751963 -0.36495572 -0.35337868 -0.2778946 0.19204628 -0.30331022
0.031855073 -0.5380912 -0.16435862 -0.18286876 -0.5579202 0.5640695 0.34862858 0.19497526
-0.28817475 -0.6367524 0.39842588 0.49461108 0.55609757 0.4034451 -0.6954712 0.31020913
0.4629871 0.53582954 0.51227266 0.29127732 -0.23085438 0.07961753 0.0026542128 -0.35899663
-0.2736098 0.47738343 0.39228365 0.20733193 -0.6966537 0.5854168 0.05119984 0.45354062
-0.13361713 -0.39226463 -0.37338865 0.52173984 0.11273262 -0.070135236 -0.11885482 -0.36535466
-0.2592478 -0.58478653 0.6967659 0.022919988 -0.62324625 0.68760663 0.018289687 -0.54368556
0.5823174 0.493231 -0.424094 -0.09805164 0.20506506 0.4379554 0.49186268 -0.34536174
0.55381215 -0.33324462 -0.2294339 0.3064948 0.49431175 -0.67380327 0.25237018 -0.12052509
0.2432947 -0.16865407 -0.3033369 0.111594655 -0.31977817 -0.4019006 -0.3413694 -0.25401232
0.5223429 -0.47650403 0.5174183 -0.14630663 -0.6744714 0.052065708 -0.14300053 -0.0949609
0.23036185 -0.31055605 -0.6119278 0.43063414 0.18643275 0.28741366 -0.5350541 0.49065876
-0.60600674 -0.44261768 0.39973417 -0.62674505 0.49287063 0.42066154 -0.11302195 -0.67611474
-0.59949946 -0.7061756 0.047376357 0.40810075 0.33107722 -0.58806354 -0.496872 -0.3762251
0.15043019 0.10718952 0.65639234 0.35486278 -0.39921945 0.26004028 0.035954926 -0.25539353
-0.602341 0.68253154 -0.1866618 0.3855543 0.20863935 -0.5219503 0.60639113 -0.28307554
0.1400154 -0.4322621 0.045491375 0.13254805 -0.62716323 -0.12560971 -0.0867739 0.59346753
0.20840436 -0.19001184 -0.07800698 0.50804067 -0.46014896 -0.39066055 0.34330013 0.65096
-0.15156277 0.40364072 0.5215362 -0.4865916 0.09442371 -0.18996622 0.083725415 0.037418403
-0.21220611 0.227353 -0.54068244 0.20258547 -0.22888617 -0.06500462 0.47681245 -0.020055506
-0.40615013 0.6193064 0.5504549 0.005231679 -0.47113752 0.051604073 -0.14223322 0.14263299
0.5052285 0.21609004 0.55635214 0.49251568 0.513353 0.013522142 0.110835455 0.43542904
0.537012 0.64407575 0.27023768 0.3699987 0.009119604 0.013998346 0.013809079 0.06704203
-0.4176859 0.4113795 -0.67922604 -0.25715557 0.13427693 -0.10121183 -0.6933065 0.12429173
0.38783488 0.58790463 0.07029448 0.088377595 0.29840267 0.5682669 -0.4099562 0.52103657

encoder.feature_extract.mlps.0.linears.0.bias f4 [128]
00000000: 8c71 873e 2aa2 3ebe 17ce 17bf d3c3 5e3e
00000010: ed90 21bf 148a 183f dc70 87be b6b5 f23e
00000020: f6ae 303f e932 1f3f f98a bcbe 823a c5be
00000030: 563f 1d3f bebb 77be 9363 04bd 5ce0 25bf
00000040: 6426 e8be 7bff 223f 625e 093f b5f9 cd3d
00000050: a1fa 38be 1c43 b33e 0131 16bf 5186 fb3b
00000060: b3d2 22bf 2dd9 9bbd 6681 22bf 6c55 a8be
00000070: 853f 233f aaab cebe 0ed7 27bf 692e 96bc
00000080: bc44 043f 257d bb3d 32ce 973d 1133 1cbf
00000090: c6fb e73b 18dd 08be 711a 473c 5e55 293f
000000a0: 9550 fdbe 6b04 2cbf b6bc c9bd 6d30 29bf
000000b0: 9755 5c3d 6620 0b3c 81ca 1dbe 653d 2f3f
000000c0: 92af c1be aed9 063f d762 273f 97d6 31bf
000000d0: bbf1 91be a107 d6be def8 463e aed1 033d
000000e0: 6493 1b3f 7556 02bd 5d57 f6be 7460 dfbe
000000f0: 2bd1 753e 9b8f a1be e328 a4be 0b46 11bf
00000100: 528c a73d 337e 013e 0d9e 303f cdcd 2b3f
00000110: 4547 4c3e a814 af3d 481a ec3e 5893 333f
00000120: b8ba d2be 022b cdbb 618c 003e 26c0 2fbf
00000130: e820 f7be c9df 2c3f d88a 86bd 8f9f 5ebe
00000140: 7f6d 22bf 977a 9dbe 4c0e 6f3e 09f6 80be
00000150: c76f 2c3f b9e2 9bbe cd6f 773e 33c0 c23e
00000160: 3730 b73e 9038 d63e 6328 dbbe e941 21bf
00000170: ce1c 1dbf f857 98be 31c4 c0be 4b7e f8be
00000180: 9981 09bf 9faf 333f 8fe4 0b3f 0e39 aebd
00000190: bed9 b0be e093 efbd a745 e23e 4e4e 203f
000001a0: 8945 8bbd 4635 f4be 53a8 333f dcb4 c9bc
000001b0: a649 d1bd 8795 60be b5a0 e9be 8f2a 26be
000001c0: 87fc 1c3f 868f 08bd f9b5 013f e566 d8bd
000001d0: 9b48 1cbf cd0f e0be 1e22 f53d 7a2e 073e
000001e0: 7c9c 1fbf 5341 81bd 828a 18bf 2f8b 5f3e
000001f0: 3636 1b3e ad72 103f 7cf5 b1be bfba 6a3d
0.26453817 -0.18616548 -0.59298843 0.21754389 -0.63111764 0.5958569 -0.26453292 0.4740426
0.6901697 0.6218706 -0.36824778 -0.385212 0.6142477 -0.24192712 -0.032321524 -0.6479547
-0.4534179 0.6367108 0.5365964 0.100573935 -0.18064357 0.35012138 -0.58668524 0.007675924
-0.6360275 -0.07609782 -0.63478696 -0.32877672 0.637688 -0.40365344 -0.6556252 -0.018332677
0.5166738 0.09154729 0.074123755 -0.6101542 0.0070795743 -0.1336559 0.0121523 0.66145885
-0.49475542 -0.6719424 -0.09850447 -0.66089517 0.053792562 0.008491611 -0.1540928 0.68453056
-0.37829262 0.526759 0.6538519 -0.69468063 -0.28504738 -0.41802695 0.19430873 0.032182388
0.60771775 -0.031820733 -0.48113528 -0.43628275 0.24005572 -0.31554875 -0.32062444 -0.567475
0.08181061 0.12645797 0.68991166 0.671109 0.19949062 0.08548862 0.461138 0.70146704
-0.4115808 -0.0062612304 0.1255355 -0.6865257 -0.48267293 0.6752897 -0.06569451 -0.21740554
-0.6344833 -0.3075759 0.23345298 -0.2518771 0.6735806 -0.30446413 0.24163742 0.3803726
0.35778973 0.4184003 -0.4280425 -0.62991196 -0.6137208 -0.29754615 -0.37649682 -0.48533854
-0.53713375 0.7018985 0.5464563 -0.08506976 -0.34541124 -0.11698127 0.44193766 0.62619483
-0.06800372 -0.47696894 0.7017872 -0.024622373 -0.102191254 -0.2193204 -0.45630422 -0.16227172
0.61322826 -0.03334 0.50668293 -0.105665006 -0.6104829 -0.43762055 0.11969398 0.13201323
-0.6234815 -0.06311288 -0.59586346 0.21830438 0.15157399 0.5642498 -0.34757602 0.057307

encoder.feature_extract.mlps.0.linears.1.weight f4 [128, 128]
00000000: ef55 b2bb e5d1 813d 8581 c1bc 94a2 923d
00000010: 335d 7d3d 2bb0 ac3d eba1 483d b898 8dbd
00000020: f526 97bc cb81 83bd 60c1 5cbd 2287 a1bd
00000030: 835d b4bd e0d8 1ebd 7b2c 3e3d a0bf 443d
00000040: 31aa a4bd e67a 893d 68a7 aa3c 30a4 663d
00000050: 5be0 b13d 4e9b 98bd 1b05 3fbd 5f19 643d
00000060: 54c4 a8bd a54e cfbc 4bd6 82bc 98c0 a83d
00000070: 050a 07bd d4ee 0ebd c2d3 513d d25c a53d
00000080: da59 ab3d 3a3c 5bbb e25f 25bd f7cb 55bc
00000090: bbeb 893d e320 27bd 5f4a 8e3d dfa4 90bd
000000a0: b7aa a63d 1e4d ad3c 36c9 48bc ce03 0bbd
000000b0: c518 413d e2bc 09bc 8c52 a8bd 44de a8bd
000000c0: 6364 a0bd 35fd 623d f0b4 873d f247 efbc
000000d0: d445 713c 614d b8bd a0b6 a03c cc2f a4bc
000000e0: d266 853c d616 abbd 49fe 85bc c5c2 83bc
000000f0: d956 15bd d966 993c f972 583d dd5c a0bd
00000100: 9ebe 583d 2498 343d d0ce 713c 48c1 0dbc
00000110: 6a1c 92bd 5566 48bd 0721 94bd 0072 acbd
00000120: 3054 a9bd ab2f bf3c 7c63 b3bd 1d7f ddb9
00000130: 50d9 233c 7a9c a73c 2454 14bc 78bf f6bc
00000140: 9681 81bc ab57 0cbd ab07 033d 50c2 a8bb
00000150: 46e8 aebd 373b c1bc 7b3a 873d 77d4 ca3c
00000160: ec35 55bd 3ead 8c3d 2955 48bd 70ed cb3c
00000170: 4a84 363d 8c52 71bd 898d 6dbc 2eb8 79bd
00000180: f531 203d d7d4 cbbc ccf2 9cbd f10d 86bd
00000190: d183 a0b9 4e2a 0e3d ecd5 143d 606b 4fbd
000001a0: e575 3a3d 3fc7 a73d 3c7b 20bc 8c25 91bd
000001b0: 7071 b2bd bf03 433d 34bb efbc ec35 6b3b
000001c0: 2f3e 3bbd ed76 babd 2074 a6bc 4802 85bd
000001d0: f68c babc e913 0bbd 5f0a 11bd df36 853d
000001e0: a860 943d 9f9d 473d 145c 883d 4c12 76bb
000001f0: 4e25 803b 4bd2 873d a0c5 0ebc 8fef 1bbd
00000200: d465 0f3c 3252 b0bd 8e43 203d b141 493d
00000210: 80c0 a83d 502a 09bc 801e 823d 9dc1 13bd
00000220: 0e85 003d 0f2c 86bd eb48 55bd 3556 8f3d
00000230: 1c9f a33c 3c14 cc3c 7c11 30bd b612 65bd
00000240: 4d59 6c3d d1cf d93c 5545 a23d de1e 79bd
00000250: 44f3 1fbd 813b 7abd cb73 7dbd c097 a2bd
00000260: a832 8e3c 8993 4bbd 93ab 613b 5767 923d
00000270: 9973 72bd 9208 9f3b e6f3 313d d9d3 103c
00000280: aa4f ff3c fc09 70bd 0b56 80bd a6f3 673d
00000290: b8c7 803d a6d5 2eb9 0d6e 20bd 90e3 273d
000002a0: 336e 593d 6fb7 603d 623a 473c e58b 97bd
000002b0: d757 1abd 2416 9fbd 18dc 53bd 6a25 07bd
000002c0: e829 5b3d c174 b3bd b6a2 6cbd df97 433d
000002d0: fc08 4ebd 62f1 a9bd 4081 b83c 2caf 373d
000002e0: 84ad cd3a 91cc 68bc 5997 b1bd 4d37 ec3b
000002f0: 9130 3cbd 67b6 9bbb 7053 c0bc 0279 5cbd
00000300: ea5d 1b3d 4901 5c3d 4301 ba3d c93d 993d
00000310: 1cdc 7a3c 2ab2 673b 1115 2f3d 7d52 753d
00000320: 31b7 103d a127 10bd 96d2 11bd b387 f7bc
00000330: d903 74bd 2b29 ae3d 374f db3c a1f2 5b3d
00000340: 8310 89bd 2254 1fbd a6f8 4dbd fef4 253d
00000350: 5d55 efbc 71d8 97bd f5ee 89bd 9231 6e39
00000360: e157 87bd a558 b5bd 573b 9b3b 3fe7 4d3d
00000370: f719 4d39 54c5 5cbd fbe7 613d a687 0cbd
00000380: f0ea 513d 9d98 edbc 1e15 7bbb e536 afbd
00000390: 9307 e43b 93f8 38bd d040 1f3d bfcd c9b9
000003a0: 2fa1 883d d18d a73d e030 d03c a158 8d3d
000003b0: 768c 8c38 936b 48bd a576 6ebd ed74 a13d
000003c0: 6b69 4f3d f321 513c 9db6 a5bd 3d47 823d
000003d0: d530 f63c 2d10 6a3d 4b18 433d 9af3 bf3c
000003e0: 6ec1 a83d 42fd 083d 8a71 76bc 2044 7bbd
000003f0: 716b 99bd bbf5 a03c 35f7 823c 2686 f7bc
-0.005442373 0.06338862 -0.02362133 0.071599156 0.06185646 0.08432039 0.048982542 -0.069138944
-0.018451193 -0.064212404 -0.053895354 -0.07887103 -0.088068984 -0.038781047 0.04642914 0.04803431
-0.08040274 0.06712894 0.020831779 0.056308925 0.086853705 -0.07451497 -0.04663573 0.05568826
-0.082405716 -0.025306055 -0.015971323 0.08239859 -0.03296854 -0.034895733 0.05122734 0.08074345
0.08366747 -0.0033452646 -0.040374644 -0.013049117 0.06734415 -0.040802848 0.06947779 -0.07062697
0.0813803 0.021154936 -0.012255004 -0.033939175 0.047142763 -0.00840685 -0.082188696 -0.08245519
-0.07831647 0.05541726 0.06626308 -0.02920911 0.014726121 -0.08999134 0.019618332 -0.020042323
0.01628438 -0.08353965 -0.016356604 -0.016084084 -0.036459778 0.0187258 0.05284402 -0.07830212
0.05291616 0.044090405 0.014758781 -0.008652039 -0.07134326 -0.048925716 -0.07232862 -0.08420181
-0.082680106 0.02333816 -0.087592095 -0.00042247112 0.010000542 0.020460356 -0.009053264 -0.030120596
-0.015808862 -0.034263294 0.031989735 -0.005150117 -0.085403964 -0.023587806 0.06602951 0.024759514
-0.052053377 0.06868981 -0.04890934 0.024893492 0.044559754 -0.058916613 -0.014499077 -0.060966663
0.039110143 -0.024881763 -0.07663497 -0.06545628 -0.0003061579 0.034708314 0.036336824 -0.05063951
0.04552259 0.081923 -0.009795006 -0.070872396 -0.08713043 0.047610994 -0.02926407 0.0035890294
-0.0457136 -0.091047145 -0.020319045 -0.06494576 -0.022772294 -0.033954535 -0.03541028 0.065046065
0.07244998 0.048734304 0.066581875 -0.0037547527 0.003910697 0.06631907 -0.00871411 -0.038070258
0.008752305 -0.086094275 0.039126925 0.049134914 0.082398415 -0.0083719045 0.06353474 -0.036073316
0.03137689 -0.06551372 -0.052071493 0.069988646 0.01997333 0.024911992 -0.042985424 -0.055926047
0.05770235 0.026588352 0.0792338 -0.060820453 -0.039050356 -0.061091904 -0.061878007 -0.079391
0.01735814 -0.049701247 0.0034434542 0.07148617 -0.059192274 0.0048533166 0.04344549 0.008839571
0.031165916 -0.05860327 -0.062664114 0.056628846 0.06288093 -0.00016673523 -0.039167453 0.040988505
0.05308361 0.054862436 0.012159916 -0.0739973 -0.037681427 -0.07767895 -0.05172357 -0.032994665
0.05350676 -0.087625034 -0.05777236 0.047752257 -0.050301537 -0.08297993 0.022522569 0.04484479
0.001569197 -0.014208929 -0.086714454 0.007208741 -0.045944754 -0.0047519687 -0.023477286 -0.05382634
0.03793136 0.053712163 0.09082272 0.07482488 0.015311267 0.0035353997 0.0427447 0.05989312
0.035330955 -0.035194043 -0.03560122 -0.030216074 -0.059573982 0.08503946 0.026771171 0.053698186
-0.066926025 -0.038898595 -0.050285958 0.040516846 -0.02921551 -0.0741433 -0.067350306 0.00022715915
-0.066085584 -0.08854798 0.0047372985 0.05026936 0.00019559996 -0.053899124 0.055152874 -0.034309052
0.051249444 -0.029003436 -0.0038312147 -0.08555392 0.0069589107 -0.045158934 0.03888017 -0.00038491
0.06671368 0.08181346 0.02541393 0.0690167 6.701883e-05 -0.048930716 -0.058218617 0.0788363
0.050637644 0.012764442 -0.08091471 0.06361244 0.030052582 0.057144333 0.04763059 0.023431588
0.08240019 0.03344465 -0.015041718 -0.061344266 -0.07491196 0.019648423 0.015987018 -0.030215334

encoder.feature_extract.mlps.0.linears.1.bias f4 [128]
00000000: a789 3dbd df9d 653d 9ebc 083d 3530 a3bd
00000010: 26d6 aebd 3768 903d 833a 8abd cc4d 32bb
00000020: 2089 ad3d 9881 dfbc a760 c3bc 938c 0b3d
00000030: 28dd e03c 1375 0f3c f2f9 513d 874a 0fbc
00000040: f4a1 a7bc b12c 283d 95c9 7c3d e14a 5abd
00000050: 2512 b1bc 4fc8 81bd 6ae0 a7bd 6480 a93d
00000060: 28e3 1bbd 0b58 acbd ebf0 a53d f52c 9d3d
00000070: b253 6ebd 7f18 863d 1337 053b 07e3 193b
00000080: 355a 46bd c48a 80bd e18d 07bd 4fab 52bb
00000090: 2b23 523d 8af1 8d3d 64a3 37bd 33bc b53b
000000a0: abd4 343d f21c ac3d 874c a83d 137c 9cbd
000000b0: 74c6 2a3d 5710 1bbd d18e 63bd 7009 05bd
000000c0: 9f82 243d b1a3 41bd 2f90 9cbd b1ee dcbc
000000d0: 43ed 8c3c 4023 633c d6d3 89bd b32f 933d
000000e0: 176d 77bd 3686 b63d 7bab 53bd bbb2 4a3d
000000f0: 2ab8 15bc d1dd 9fbd 26ec 8ebd 6bc4 96bd
00000100: 0742 2cbd bb47 b43c 7104 7b3d 2b44 dabb
00000110: 4b78 fd3c 631c 91bc 0969 a1bd 4c1a 403d
00000120: 61b9 ac3d 89e4 fb3b 2610 4239 de99 42bd
00000130: 357d 2abb ea60 b93c f1fd 683d ecb8 093d
00000140: 11d8 aabd a4c4 963c 6f7f e13b e4ea c73c
00000150: f0f0 c33b 8b6c 623d 8125 923d 90c4 89bd
00000160: 8346 15bd 9c24 c6bc 9671 17bd b708 a6bc
00000170: 732b bd3d daae b53c c805 87bd e6b2 59bd
00000180: 04cc 3cbd 612d 5f3c 211f dd3c 7805 74bd
00000190: ff37 2ebd 7158 593d d837 3a3d a283 e9bc
000001a0: 9773 7bbd 359f 0ebd 4a8e 15bc 3743 4f3d
000001b0: 718a 1d3d e60c c0bc cb16 853c 25dd 803d
000001c0: 84f0 cfbc 001f aa3d 0dbe a43d e47e 843d
000001d0: 8e87 3abd 84da a93d 0aa3 b5bd 37d4 9b3d
000001e0: 7f90 4e3d bd1e 0e3d 8974 21bd d3f2 97bd
000001f0: e4c1 63bc a2b8 7d3d e078 5b3d 27bf 97bc
-0.046273854 0.05605876 0.033383004 -0.07968179 -0.08536939 0.070511274 -0.067494415 -0.0027207015
0.0847342 -0.027283475 -0.023849798 0.03406961 0.027449206 0.00875594 0.051263757 -0.008745796
-0.020462967 0.041058246 0.06171568 -0.053294066 -0.021615097 -0.06337034 -0.081971005 0.08276442
-0.03805843 -0.0841523 0.08102592 0.076745905 -0.058185287 0.06547641 0.0020327016 0.0023481266
-0.048425872 -0.062764674 -0.03309429 -0.0032145565 0.05130307 0.069308355 -0.044833556 0.0055461167
0.04414813 0.084039584 0.082177214 -0.07640853 0.041693166 -0.03785738 -0.055556122 -0.032479703
0.040163632 -0.04727525 -0.07644688 -0.026969286 0.017202979 0.013863385 -0.067298576 0.07186832
-0.06040677 0.089123175 -0.05167721 0.049486857 -0.009138146 -0.0780598 -0.069786355 -0.073616825
-0.042055156 0.02200686 0.061283533 -0.0066609583 0.03094115 -0.017713731 -0.07881362 0.04690008
0.08433796 0.0076871556 0.00018507298 -0.04751002 -0.002601457 0.02262922 0.056882802 0.03362362
-0.08341993 0.018404312 0.0068816463 0.024403997 0.0059796497 0.055279296 0.071360596 -0.067269444
-0.0364442 -0.024187379 -0.03697356 -0.020267827 0.09236803 0.022178102 -0.065928996 -0.053149126
-0.046093002 0.013621659 0.026992382 -0.059575528 -0.04253387 0.05306286 0.045463413 -0.02850515
-0.061389532 -0.0348198 -0.009128163 0.05060121 0.038462106 -0.02344365 0.01624622 0.0629218
-0.025383241 0.08306694 0.08044062 0.06469515 -0.04553943 0.08293632 -0.08868988 0.07608836
0.05043077 0.034697283 -0.039417777 -0.07419362 -0.013901208 0.061943658 0.053582072 -0.018523766

encoder.feature_extract.mlps.0.linears.2.weight f4 [128, 128]
00000000: ce22 9c3d 7c8a d9ba a6b1 e3ba a682 833d
00000010: 4b8a 633d 6723 95bd 1d7f 9ebd a8ac 7bbd
00000020: b678 a53d 125c 68bd 1c54 19bd 12c9 af3d
00000030: 23b0 92bd 4189 043d 9420 63bd 9ff6 88bd
00000040: ea0f f53c 6e16 f23b 746a 0bbd f4c1 34bd
00000050: ab3a 3c3d a609 ad3c 33bb bc3c 03a2 aabd
00000060: 33e5 e93c 083a be3c 1735 e83c b3c2 293b
00000070: 3458 72bd fa04 0abc 6ac0 973d 1b7b 8a3c
00000080: c067 173d 6f8a 4c3d 2cb4 a2bd 9206 c53c
00000090: 11cc 5fbd a45f e2bc 068d 22bd 62a3 593d
000000a0: 3ec5 65bd e52c bdbc ee93 50bd b14a 31bd
000000b0: 5e26 3cbd 92bc a7bd e930 a5bc db0d a9bc
000000c0: f6eb 7e3c e2ce 62bd 5f98 a7bd cc1c 4bbd
000000d0: 119f 5abc 354b e53c aa55 72bc d2b5 b73c
000000e0: 5efc 293c a7c9 5ebc c684 333d 9b29 fabb
000000f0: d00c 553c b856 7abd 1c92 4fbc ea19 c33b
00000100: 20a2 bfbd 1396 753d e131 84bd 6253 2abd
00000110: 746c ed3c e767 9abd 94e6 39bd d7d8 453c
00000120: a34c 893d 4064 9ebd 8bec 563d 45cf f7bc
00000130: 229b e53c 077e 433d a453 4e3d 5371 483d
00000140: 3386 a4bc 41b4 e63c ed4a 093d d091 803d
00000150: f144 94bd 8c40 8f3d 7ed2 253d 4a3c 78bd
00000160: 8f7a e5ba 25ec afb9 3e0b 0dbd f8f7 0d3d
00000170: c78d aa3c 0867 4abc 640b a4bc 3410 b8bd
00000180: 3e41 203d 07f2 a03d 803f 7bbd 1947 6eb9
00000190: 051f 2c3d 6998 2d3c ed68 9ebb 20d9 873d
000001a0: b3f5 9cbd a105 3d3d 7cad df3c 9f8e 46bd
000001b0: 5c55 943d 14cb 4bbd 6f39 a93c 9942 d73c
000001c0: b8da 2dbd e573 02bd d7b5 20bd f1ec 0abd
000001d0: a4d4 a9bc 712d 833d f21b bbbb 02bc 413d
000001e0: 8d70 ce3c 884e cabc 55d6 adbd 9013 a7bc
000001f0: ddd6 79bd 9e35 81bc 457f 9dbd e4c3 83bd
00000200: 7151 9d3d ebca 273d 43ab 8abd adaa a53c
00000210: 19b0 2abd 44b8 653c 3bd9 69bd 9033 883d
00000220: 5615 5cbd 910c b9bc 2b1b 903b 96e8 873d
00000230: 4b23 7c3d e4f2 47bd 10e3 d5bc 767a 27ba
00000240: fa3c 9b3d 4b04 dcbc 8211 7b3d 5c7b 2d3d
00000250: 3758 953d 5bb8 353c 48ef 453d 8867 74bb
00000260: 2624 8ebd 3c2f f03c c52f 80bd 2945 09bd
00000270: 3409 013d d959 0cbd dc97 813d a6e4 be3c
00000280: fcbd b7bd 3b19 9ebb 428b 65bd 6c3b 923d
00000290: 624d 793d c9c8 8b3d 5464 fb3c 2399 b7bc
000002a0: 131d 503d e755 a0bc 9b0c 7ebc daee 973d
000002b0: da41 2b3d 5745 10bc 3b9a b83c 0830 063d
000002c0: 051b 07bd 2936 77bd 9ade 00bd 01a3 87bc
000002d0: 6427 b2bd a3ac 173d d29e 88bc 7c9a a73c
000002e0: d8a8 993d cffc dcbc 0349 93bc 0a75 40bd
000002f0: 9989 c6bc 020c d23c fc9c c23c 9b21 3ebd
00000300: 4aa0 5d3d 69db a93d e5d1 833d 559b 1d3c
00000310: a95f a23d 0710 6dbb a851 7b3d 9125 f63c
00000320: 6c0b 713d 63cb 863c ec67 213d efd2 39bd
00000330: ca27 513d bd41 af3d 25b0 1b3d e389 393d
00000340: 0ee1 b23d 4188 103d a024 b33d ee40 bcbd
00000350: ed0c 4ebd 9012 43bd eceb 073b 82d7 e2bc
00000360: 9f35 3cbd b213 0fbd 6f13 29bd f5d8 3bbd
00000370: 638b 493d e39e 6f3c 2ff8 97bd d26b 85bd
00000380: 0ae1 aa3d 8613 843d b121 bdbd c3c7 453d
00000390: 95d0 cebc 487c 94bd 7c23 97bc 8c71 933d
000003a0: 71a5 78bc 810f d83b a5c5 ebba ac05 983c
000003b0: 5a66 033c b373 7bbd 6a4f adbd d09f b53b
000003c0: 82c0 703d f691 9dbc ed94 c5bc ca44 313d
000003d0: 2c7a ed3c 2c60 db3c 4658 f3bc 3fb4 a53c
000003e0: 1d98 223d be52 223d 22ca 68bc 5031 25bd
000003f0: 4198 06bd 0a21 3ebd 1147 0a3d b63f 8ebd
0.07623826 -0.0016597058 -0.0017371669 0.064214036 0.05555181 -0.07282143 -0.07739089 -0.061443955
0.080796644 -0.05672843 -0.03743373 0.08583273 -0.07162502 0.032357458 -0.05545099 -0.06687664
0.029914815 0.0073879277 -0.03403707 -0.04413028 0.045954388 0.021122765 0.023038482 -0.083316825
0.028551674 0.02322103 0.028345628 0.0025903403 -0.05916615 -0.008424038 0.07409747 0.016904404
0.036964178 0.049936708 -0.07944521 0.024050985 -0.054637972 -0.027633496 -0.03968527 0.05313433
-0.056096308 -0.023092696 -0.050922327 -0.043284122 -0.045935027 -0.08190264 -0.020164924 -0.02063649
0.015559187 -0.05537308 -0.08183359 -0.04958801 -0.013343588 0.027989963 -0.014790932 0.022425566
0.01037511 -0.013597882 0.043827794 -0.0076343543 0.013003543 -0.061117858 -0.0126691125 0.005954017
-0.09357095 0.059957575 -0.06454826 -0.041583426 0.028982379 -0.07539349 -0.045385912 0.012075624
0.067040704 -0.07733965 0.05247168 -0.030250201 0.028028075 0.04772761 0.050372735 0.0489362
-0.020083522 0.028162124 0.03351872 0.062778115 -0.07239712 0.06994733 0.040483944 -0.06060437
-0.0017507839 -0.00033554542 -0.03443455 0.03466031 0.020819558 -0.012353666 -0.020024963 -0.089874655
0.03912472 0.07858663 -0.061339855 -0.00022723935 0.04202177 0.010595419 -0.0048342855 0.0663321
-0.07664051 0.046147946 0.027304403 -0.048475858 0.072428435 -0.049754217 0.02065727 0.026276873
-0.042444915 -0.031848807 -0.039235916 -0.03391737 -0.020731278 0.06405152 -0.0057101185 0.04729844
0.025200153 -0.02469565 -0.08488146 -0.02039507 -0.060995925 -0.015772637 -0.0769029 -0.064338475
0.07681549 0.040965002 -0.06770947 0.020222986 -0.041671846 0.014020983 -0.057091933 0.0665046
-0.053731285 -0.022589 0.00439777 0.06636159 0.061557095 -0.048815623 -0.026109248 -0.00063887925
0.0757999 -0.026857516 0.061295994 0.042353973 0.07292216 0.011091317 0.0483239 -0.0037293155
-0.069404885 0.029319398 -0.06259111 -0.033513222 0.031502917 -0.034265373 0.06327793 0.023302387
-0.089717835 -0.004824785 -0.05604101 0.0714024 0.060864814 0.06825406 0.030687489 -0.022411888
0.050808977 -0.019572211 -0.015505935 0.07418604 0.041810848 -0.008805594 0.02253448 0.03276065
-0.032984752 -0.060354386 -0.03146229 -0.016557219 -0.086989194 0.037029874 -0.016677294 0.020459406
0.075029075 -0.026976017 -0.01797915 -0.046986617 -0.024235534 0.025640491 0.023756497 -0.046418767
0.05410794 0.08293802 0.064365186 0.009619554 0.07928402 -0.0036172883 0.06135717 0.03004721
0.058848783 0.016454404 0.03940575 -0.045367178 0.051063336 0.085574605 0.03800978 0.045297515
0.08734332 0.03528619 0.0874722 -0.09192072 -0.050305296 -0.047625124 0.0020739986 -0.027690653
-0.045949575 -0.034930892 -0.0412783 -0.045861203 0.049205195 0.014625284 -0.07420384 -0.06514706
0.08343704 0.06449036 -0.09234942 0.04828621 -0.025245944 -0.07250267 -0.018449537 0.07199392
-0.015176163 0.006593645 -0.001798798 0.018557392 0.008020008 -0.061389636 -0.08462413 0.005542733
0.05877734 -0.019234639 -0.024118865 0.043278493 0.02898892 0.026779257 -0.029705178 0.02022755
0.039695848 0.03962969 -0.0142083485 -0.04033023 -0.032860044 -0.046418227 0.03375918 -0.06945746

encoder.feature_extract.mlps.0.linears.2.bias f4 [128]
00000000: 381e 60bc 3449 953c 7293 193d 4545 54bd
00000010: 0ac1 4bbc ece5 913c 9c31 f7bc 40f6 38bc
00000020: 2f61 203d fece 87bd 7aff 1abd f150 4dbd
00000030: c0d0 86bd 6d76 913d 9448 893d 288e 07bd
00000040: e0ab 693d e3b3 b83b 626e 073d 85b7 903c
00000050: 875a 41bd d9f3 92bd 0557 44bd 7774 99bd
00000060: e93f 093d bdd4 1abb c3a1 533c 6f14 12bc
00000070: 1cfa 97bd a7ff 64bd 3e64 353d b02e 24bd
00000080: 479b ab3d 5cac 2fbd 2e88 a4bc cafa 3f3d
00000090: 18eb 643c fdba b9bc 70dc aebc ca41 933d
000000a0: 5f5e 64bc 036b 043d 73e0 873d 8316 37bd
000000b0: f786 b13c 858d 0a3d b5b3 983d 191a ef3c
000000c0: 9aaa dc3c adbe 2bbc 111f e4bc e23a bc3c
000000d0: a555 15bd 4a3f 82bc 3321 0abd f751 b2bd
000000e0: 65ab 433c caf9 893d 3326 acbd 0472 abbd
000000f0: 1970 21bd 0913 7c3d fc75 0c3d ae93 28bd
00000100: 649f a9bc 5e01 043d 3f5a 98bc b63c 373a
00000110: f2ec 0bbd ad3d 67bd f709 bfbc 347d 413d
00000120: 949d cdbc 94da 67bd d76a 743c 5ab7 b53d
00000130: 7f3a 7d3b 8cbe 8cbc 5c56 a1bc 7a9b 843d
00000140: 345f 82bc 42e7 93bc fcca 97bd b2b2 3dbd
00000150: 7f95 ba3d 6285 323d 7cab bfbc fc30 c6bc
00000160: cc0b 263c 4966 953d 9909 753c ff13 973d
00000170: a0a0 813d fcd6 743d f9fe 8fbd 3b6b 94bc
00000180: cdd9 6c3d 85af 17bd 7acd 533d 023b 893d
00000190: f1f6 73bd 4e32 0c3d c9f3 4c3c b06e a7bd
000001a0: ef70 8cbd 4a42 febc c7e5 503b 8642 1e3d
000001b0: a545 31bc 8ee6 483d 9e00 a0bc 0318 6c3c
000001c0: cbc3 ad3d acd9 e93c 28e9 e23c 0d52 a4bd
000001d0: 915e e8bb 89ff 8c3d 0cda 733d ca64 a93d
000001e0: a839 923b 4fc7 263d ebad cebb 2e17 b03d
000001f0: 4617 79bd 72e9 83bc 2e2b 7cbd 5930 a13d
-0.01367908 0.018223383 0.03749413 -0.051823873 -0.012436161 0.01780983 -0.030175023 -0.011289179
0.03915518 -0.066312775 -0.037841298 -0.05012602 -0.06582785 0.07102666 0.06703296 -0.033094555
0.05704868 0.0056366785 0.033064254 0.017665634 -0.047205474 -0.071754165 -0.04793455 -0.07492917
0.033508215 -0.0023625337 0.012916985 -0.008916005 -0.074207515 -0.05590787 0.04428505 -0.040083587
0.08379226 -0.042888984 -0.020084467 0.04687003 0.013972066 -0.02267217 -0.021345347 0.07190283
-0.013938515 0.032328617 0.06634607 -0.044699203 0.021670802 0.03382637 0.074561514 0.029187249
0.026936818 -0.010482472 -0.027846845 0.022977296 -0.03645863 -0.01589932 -0.033723067 -0.0870704
0.011942719 0.067370966 -0.084057234 -0.08371356 -0.039413545 0.06154159 0.034292206 -0.041156463
-0.020705886 0.032227866 -0.01859772 0.00069899426 -0.034161516 -0.056455303 -0.023320181 0.047238544
-0.025099553 -0.056604937 0.014918051 0.08872862 0.0038639603 -0.017180704 -0.0196945 0.06474967
-0.015914537 -0.018054608 -0.07411763 -0.046312995 0.09110545 0.043584235 -0.0233972 -0.02419328
0.0101346485 0.072949 0.014955902 0.07376861 0.06329465 0.059775338 -0.07031054 -0.018117538
0.0578249 -0.037032623 0.05170963 0.06700708 -0.059561674 0.03422766 0.012509295 -0.08175409
-0.06857478 -0.031037468 0.003187524 0.03863766 -0.010819827 0.049048 -0.019531544 0.014410022
0.0848461 0.028546177 0.027699068 -0.080234624 -0.0070913513 0.06884677 0.059534118 0.08271177
0.0044624396 0.04071742 -0.0063073537 0.08598171 -0.06081321 -0.016102526 -0.061564617 0.0787055

encoder.feature_extract.mlps.0.batch_norms.0.weight f4 [128]
00000000: 5978 7f3f 6673 7e3f 71d7 803f 62b7 803f
00000010: b4a0 803f 346c 803f c7d6 7f3f 62c4 7f3f
00000020: 0916 803f 7fe2 803f bf66 7f3f 9de9 7f3f
00000030: 5a29 803f a934 803f e8b9 7e3f d660 803f
00000040: 2578 803f b50a 803f f3b1 803f f4bf 7f3f
00000050: 54c9 7f3f c673 803f e87d 7f3f 8485 7f3f
00000060: de84 7f3f b715 813f 716a 803f a09c 803f
00000070: c33e 803f 948c 803f e0f1 7e3f 82ae 7e3f
00000080: 29e7 803f 5072 7f3f 63f5 7e3f ff5d 803f
00000090: 2f75 7f3f 312f 7f3f 9314 803f d126 803f
000000a0: 5ead 7f3f add0 7e3f 865e 7f3f 2cf4 7f3f
000000b0: 2d68 7f3f 6f04 803f e184 803f 8eec 7f3f
000000c0: 8c6b 7e3f aa8e 803f df0e 803f f9be 7f3f
000000d0: 22b3 803f b41e 7f3f a9c6 7f3f 784f 7f3f
000000e0: 8768 803f 1bd9 7e3f d7f8 7f3f 1eac 803f
000000f0: 2df5 7e3f 9a8d 7e3f d5cb 7e3f 09b6 7e3f
00000100: 2aa8 7f3f db16 7e3f 7014 803f fc5b 7f3f
00000110: 3963 803f c937 803f 8ea7 803f 4847 7f3f
00000120: dc1a 803f 4d53 803f 3e10 7f3f cefd 7f3f
00000130: d18d 803f 0600 803f 2c23 7e3f 268f 803f
00000140: 7c9e 7e3f 174e 803f d94e 7e3f 1857 803f
00000150: 8d0f 813f 667e 7f3f ca4c 7f3f fcd0 7d3f
00000160: 14e4 7f3f 05a5 7d3f 7195 7f3f 5a8b 803f
00000170: 417c 7f3f 7005 803f d848 803f 656f 7f3f
00000180: ca35 7f3f b42d 7e3f 5f6f 803f d586 7f3f
00000190: c2cb 7f3f 9975 7e3f fd6f 7f3f 2704 803f
000001a0: 7be3 7f3f d28d 7f3f ece2 7f3f 246e 803f
000001b0: 4089 803f 56d8 803f a24d 813f 5a8d 803f
000001c0: 0e02 7f3f 3645 803f 96c0 7e3f 0c73 7f3f
000001d0: 93dc 7f3f 249e 7f3f 4541 7f3f f273 803f
000001e0: 5417 7e3f f7b7 7f3f 83ce 7f3f 9dc5 7f3f
000001f0: 488a 7f3f 6583 7f3f b21c 803f e4ae 7f3f
0.9979301 0.99394834 1.0065747 1.0055964 1.0049043 1.0033021 0.999371 0.9990903
1.0006725 1.0069121 0.99766153 0.9996584 1.001262 1.0016071 0.9950242 1.0029552
1.0036665 1.0003268 1.0054306 0.9990227 0.9991658 1.0035331 0.9980149 0.99813104
0.99812114 1.0084752 1.0032483 1.0047798 1.0019153 1.0042901 0.9958782 0.9948503
1.0070544 0.997838 0.9959318 1.0028685 0.9978818 0.99681383 1.0006279 1.0011846
0.9987391 0.99537164 0.99753606 0.9998195 0.99768335 1.0001353 1.0040551 0.9997033
0.99382854 1.0043538 1.0004538 0.99900776 1.0054667 0.99656224 0.99912506 0.99730635
1.0031899 0.99550027 0.99989074 1.0052526 0.9959286 0.99434817 0.99529773 0.99496514
0.99865973 0.99253625 1.0006237 0.9974973 1.003028 1.0017024 1.0051134 0.9971814
1.0008197 1.0025421 0.9963416 0.9999665 1.0043279 1.0000007 0.9927242 1.0043685
0.9946058 1.0023831 0.9933906 1.0026579 1.0082871 0.99802244 0.99726546 0.9914701
0.99957395 0.99079925 0.99837404 1.0042527 0.9979897 1.0001659 1.002223 0.9977935
0.9969145 0.9928849 1.0033988 0.9981511 0.99920285 0.9939819 0.99780256 1.0001267
0.9995648 0.99825776 0.9995563 1.0033612 1.0041885 1.006602 1.0101817 1.0043137
0.9961251 1.0021122 0.9951261 0.9978492 0.99945945 0.9985068 0.9970897 1.0035384
0.99254346 0.99890083 0.99924487 0.9991091 0.99820375 0.9980987 1.0008757 0.99876237

encoder.feature_extract.mlps.0.batch_norms.0.bias f4 [128]
00000000: 17d7 3bbb 4922 603a fffa f03a e5f5 7c3b
00000010: 0e7e ab3a 4a9e 7fbb 99fd e0ba 5184 d9bb
00000020: a155 9a3b c44f 153b e919 2fba f403 45bb
00000030: 0fe3 d0bb 079b 3dbb c533 0cbb d156 113b
00000040: 5381 423b bc1e 67ba 6a9f b0bb ec4a c83b
00000050: 39c9 1abb 9519 c73b 5a3c 11bb cb53 4aba
00000060: 3e3c 6bbb 6bef d73b a5fc 74b9 b09b 913b
00000070: 787f 3cbb e776 21bb 2e90 5aba 0ece efb9
00000080: 3ed0 9d3b d768 dabb 3782 2d3b 745d e23a
00000090: 9c8c 2db8 aea1 113b e80a 57b9 4680 f6ba
000000a0: 9e26 363a af46 99bb a04d 4fbb 0500 763b
000000b0: bb3b 0abc 037e a1ba c49b 173c d043 2a3b
000000c0: 064f 2fbc a765 aabb ae72 b43a 7458 f43b
000000d0: 3bc4 063b ff44 03bc 4ef2 713a a4ae 3a3b
000000e0: 5198 b0b9 915c 6f3b ce5a 05bb 5ff3 2b3b
000000f0: 51ad 133c 3c59 d0bb 0b66 01bc fd14 b6b9
00000100: 88ca 3a3b fe19 833a a3f7 0f3b 8de6 2a3b
00000110: 463c b4bb 2524 e73b 0eca 553b 2f1e bbbb
00000120: 2b4f e33b 7071 aa3b 73c8 55b9 153f 973a
00000130: b102 ee3b 286c ba3b 58d0 ebb9 e2c6 8cbb
00000140: fe65 94ba 6b56 5c3b 3b04 e9ba c7ee 763b
00000150: c867 b33b f190 96ba ed96 13bb a3e0 be39
00000160: 483a 763b 80c4 aabb ff22 0fbb ffb1 b33b
00000170: ce78 9abb 0d3d ed39 f74c 353b ce1b bebb
00000180: b390 393c 1843 1bbb b67e bcbb 8371 163b
00000190: a4e4 15bb 2952 45bb a8c4 983a f0d5 193a
000001a0: 59fe 7fbb 2baf d43a 593b 223b 57d9 943a
000001b0: 738b cd39 88e1 853b 027e 6c3b 34d4 8d3b
000001c0: 132c 03bb 0148 dc39 430c acbb 8cca c6b9
000001d0: 71d4 853b 9c1b 9ab9 b839 d53b e07a 21bc
000001e0: 5832 96ba 1c12 acba de9f caba a600 4eb9
000001f0: 235a 0d3a 8925 62bb d20a c33b a38c 5e3b
-0.002866214 0.0008550031 0.001838535 0.0038598713 0.0013083832 -0.003900426 -0.0017165422 -0.006638088
0.004709915 0.002278314 -0.0006679581 -0.003006217 -0.0063747237 -0.0028931515 -0.0021393162 0.002217699
0.0029679134 -0.00088165305 -0.0053900974 0.006112447 -0.0023618473 0.0060760477 -0.0022161216 -0.00077181746
-0.0035894061 0.00658982 -0.00023363771 0.004443608 -0.00287625 -0.0024637522 -0.00083375245 -0.00045739155
0.004816084 -0.00666533 0.002647532 0.0017270283 -4.1377367e-05 0.0022221613 -0.0002050806 -0.0018806539
0.00069485034 -0.0046776156 -0.0031631961 0.0037536633 -0.008437092 -0.001232088 0.009253446 0.002598036
-0.010699993 -0.005200106 0.0013767087 0.0074568335 0.002056374 -0.008012055 0.00092295266 0.0028485442
-0.0003368282 0.003652368 -0.0020348313 0.002623759 0.00901349 -0.006358294 -0.007897864 -0.00034729383
0.0028502066 0.0010002253 0.0021967671 0.002607736 -0.005500349 0.0070538693 0.0032621655 -0.0057103853
0.006936928 0.005201511 -0.00020387936 0.0011539186 0.0072635044 0.0056891628 -0.0004497792 -0.0042961696
-0.00113219 0.0033620845 -0.001777775 0.0037678943 0.005475018 -0.0011487288 -0.0022520379 0.0003640699
0.003757136 -0.005211413 -0.0021840928 0.0054838653 -0.004714108 0.0004524965 0.0027664283 -0.0058016544
0.011326003 -0.0023691114 -0.00575241 0.0022955842 -0.0022871876 -0.0030108786 0.0011655288 0.0005868366
-0.0039061515 0.001622652 0.0024754612 0.0011356276 0.00039204545 0.0040857233 0.0036085849 0.004328275
-0.0020015284 0.00042015317 -0.005250485 -0.00037916412 0.004084163 -0.0002939374 0.0065071248 -0.009855956
-0.0011459095 -0.0013127956 -0.0015459021 -0.00019645932 0.00053921546 -0.0034507236 0.0059522176 0.0033958338

encoder.feature_extract.mlps.0.batch_norms.0.running_mean f4 [128]
00000000: 99fa 823e 4c9f b8bd d3d9 0dbf fdf5 133d
00000010: d498 d3be ae16 ae3e 02c1 25be 833d ed3d
00000020: b4c9 253f fcff efbc 293a efbe 5907 dfbe
00000030: 2a36 1d3f 2038 2ebe a4bb 1d3e 3111 50bf
00000040: d457 7bbf 546b 463f 52c5 3d3f e360 70ba
00000050: c939 2dbf 0e4a 693e 6dc4 2cbf e4bc cb3e
00000060: 0bf3 a3bf eadd 833c 36c4 92bf 1a4e 033e
00000070: 67ee 483f cfaf 2dbf 824e 75bf 87e1 8bbe
00000080: fd47 c63c db19 cabd c29b 053f 6af7 c4be
00000090: 9643 1ebf 8deb bf3e b707 ea3e c163 5b3f
000000a0: 42a2 763d c628 acbe 36e8 61bd 05ec 7dbf
000000b0: edd7 ea3e 5289 803e c22f 973e 170e 8e3f
000000c0: 31fd 41bf bfa5 753f ea94 1a3f 0d11 86bf
000000d0: bdcd 5bbf 0fa3 9cbe a861 3f3f 8d37 efbe
000000e0: f9c8 913f e8ee 35be 4077 4dbd 7fda 30bf
000000f0: 4e6a 9c3b 763d 80bd dfc3 60bf 6351 25bf
00000100: 5969 2cbd 296b 423e c5f2 8d3e 43c3 c83e
00000110: 0440 30be 285e 933c 46a2 d73e 575c 183f
00000120: 2f0b 2bbf 7065 9f3e 7f8c d43e d065 9bbe
00000130: 3c64 78bf e596 183e 4815 c63e 132e 5bbf
00000140: 93a7 aebf 8d22 9a3d 1f3c 88be 75f9 29bf
00000150: f3c9 4a3f a8ab de3d e2eb db3e b6ef 183e
00000160: 6ebb 683f 3ef8 3f3f 25ee 61bf 0fe1 4fbf
00000170: f690 7ebf 4056 2dbe 4d04 13bf 1b31 513d
00000180: fe6f 2fbf d78e 943f 58dc 003e 4c7f 0f3f
00000190: 50a6 f03b bbfa febe 6ad0 8e3e bcf1 2b3f
000001a0: 8bbe e93d d29b b8be d1a6 1c3f 9179 9c3c
000001b0: 1a30 d53e f111 12be 0bba f0be 8c7f 49bd
000001c0: 94ec 603f 6cd8 fc3e f30e 163f 1611 9f3e
000001d0: 4c66 5d3d 134a 79bd e703 093e 6063 483e
000001e0: 2dbd 98be c338 c7be c4f7 2bbf 5959 783e
000001f0: faaa 3e3f 89ad 273f 8f07 5d3e cc28 f83e
0.25581816 -0.090147585 -0.554105 0.036123265 -0.41327536 0.34001678 -0.16186908 0.11583998
0.647609 -0.029296868 -0.4672406 -0.43560293 0.6141077 -0.17013597 0.1540361 -0.8127623
-0.9818089 0.7750752 0.7412921 -0.00091697107 -0.676663 0.22782156 -0.6748722 0.3979255
-1.2808546 0.016097028 -1.1466129 0.12822762 0.78488773 -0.6784639 -0.9582292 -0.273205
0.024204249 -0.09868213 0.5219079 -0.38470012 -0.6182188 0.37484398 0.4570901 0.8569909
0.060213335 -0.33624858 -0.055153094 -0.9918826 0.45867863 0.25104767 0.29528624 1.109805
-0.75776964 0.95956033 0.60383475 -1.0473953 -0.85860807 -0.30593154 0.74758387 -0.4672207
1.1389457 -0.17766917 -0.050162554 -0.690834 0.0047734147 -0.06261723 -0.87798876 -0.6457731
-0.042092655 0.18986191 0.2772428 0.39211473 -0.1721192 0.017989233 0.42115992 0.595159
-0.6681394 0.31132078 0.4151344 -0.30351114 -0.97027946 0.14901312 0.3868811 -0.8561718
-1.364489 0.07526121 -0.2660837 -0.66396266 0.792144 0.108725846 0.42953402 0.14935192
0.90910995 0.7498816 -0.88254005 -0.8120279 -0.9943994 -0.16927433 -0.5742844 0.05107222
-0.6853026 1.1606091 0.12584054 0.56053615 0.0073440447 -0.49800667 0.27893382 0.6716573
0.11413296 -0.3605638 0.6119204 0.019100936 0.4163826 -0.14264657 -0.4701694 -0.049193904
0.8786099 0.49383867 0.5861656 0.31067723 0.054052636 -0.06086166 0.13380395 0.19569159
-0.2983183 -0.38910493 -0.67174935 0.24252833 0.7447964 0.6549917 0.21584915 0.48468626

encoder.feature_extract.mlps.0.batch_norms.0.running_var f4 [128]
00000000: e747 3b38 3900 fb3b 42fd 5739 7b75 f03b
00000010: 378e ee3a 4c2e 0b3c 1ae9 a639 d930 913b
00000020: 0ea1 313b a93e b63c a5f4 c039 8a32 533b
00000030: a15b a23b eefb 4b39 a4e1 c53a 64ed 4c3b
00000040: f85c 8c3c 537e b23b d902 ad3a a583 363b
00000050: f03c 273c 550c 2c3b 70ad 8539 0a0b 223c
00000060: 28b5 b13c 91ab a23a 95e4 8e3c 6b73 e03b
00000070: 809b 893a 9d0e 413c 0c08 493b aee4 ca3b
00000080: 23b2 7f3c 7f14 b53a 46d8 ca3c 2332 ca3a
00000090: e7a2 973c 3258 283c 643f d33b 2b42 4a3c
000000a0: 457a 433c 2fd4 603b 8f8d 873a 096e df3b
000000b0: 344d 753c 8a08 e83a a940 ed3c 83fe 2a3c
000000c0: 14c7 ed3b ff2f 9b3c d716 013a 123b cf3b
000000d0: 0b3a 803c 7d52 423b 09b0 113d 7452 813c
000000e0: 8e30 1f3c 1e11 733a cbd8 0e3c 89b1 353c
000000f0: 172b 3a3c d91a d93b 025d 023d aed3 e63a
00000100: 539d 2e3b 19ac f93a 80b8 de3b c690 273b
00000110: b241 973c 77fa 8d3b 9141 7b3b 0c8d bb39
00000120: bf47 de3b 2310 8d3c 770e 6b3b 3000 a03c
00000130: 4749 fe3b cdfb d83c 4ebe e73b e892 ba3c
00000140: a336 aa3c f64b 0a3c 125c b93c 1de7 b73b
00000150: f68e ee39 3dd9 a83b e47a d73b 7b67 6d3b
00000160: ae25 0e3d 9b6a 1a3c badb 883c a323 223c
00000170: 4243 363c ce06 593a 21ae 013b 7590 a03c
00000180: 9b75 403b aaf9 6b3c 75c5 c73b 394f 9b3c
00000190: a825 223c a928 9c3c e0b7 163b 17d8 8138
000001a0: e9d5 803b 7514 ca3b 1bdb 9939 23ef e03a
000001b0: a569 d53c daf1 003b 160c 083b c435 d03a
000001c0: 22f1 0a3b 8667 1f3c db7f d63a 6071 163c
000001d0: 0efb 8d3c 2746 bf3b faa5 0e37 14d6 6739
000001e0: bc1d 5a3c 93c5 573b 55f7 6f3a bea0 b83b
000001f0: 583f 753c 7553 ac39 c8da 6c3c b851 9f3c
4.465124e-05 0.0076599387 0.00020598344 0.0073382235 0.0018200342 0.008494925 0.00031835662 0.004430872
0.0027104053 0.022246676 0.00036803368 0.0032226169 0.0049547707 0.0001945344 0.0015097153 0.0031269426
0.017134175 0.005447188 0.0013199701 0.0027849462 0.0102074 0.0026252468 0.00025496958 0.009890327
0.021692827 0.001241075 0.01744298 0.0068496964 0.0010498613 0.011783269 0.0030674962 0.0061918115
0.015606436 0.0013815312 0.02476133 0.0015426319 0.018510295 0.010274934 0.0064467657 0.012344877
0.011931007 0.0034306159 0.001034187 0.006818537 0.01497202 0.001770274 0.028961496 0.010436657
0.007256398 0.018943785 0.0004924363 0.0063241804 0.015652677 0.0029651218 0.03556827 0.015786387
0.009716166 0.0009272265 0.00871868 0.011089691 0.0113628125 0.006625515 0.03182698 0.0017610693
0.0026644066 0.0019048481 0.0067968965 0.002556847 0.018463943 0.0043328363 0.0038338641 0.00035772508
0.006783455 0.017219609 0.0035866776 0.01953134 0.0077602 0.026487255 0.0070722466 0.022775128
0.020778006 0.008440962 0.02262691 0.0056122676 0.00045501412 0.00515285 0.006575929 0.003622501
0.034703903 0.009424831 0.016706336 0.009896192 0.011124434 0.0008278907 0.0019787627 0.019600132
0.0029366973 0.014402786 0.0060965368 0.018958675 0.009896673 0.019062357 0.0022997782 6.191449e-05
0.00393175 0.0061669894 0.0002934568 0.0017161112 0.026051352 0.0019675405 0.0020759157 0.0015885164
0.0021200855 0.009729272 0.0016365008 0.009182304 0.017331626 0.0058372202 8.502504e-06 0.00022109627
0.013312753 0.003292416 0.0009153982 0.0056343963 0.014968716 0.00032868577 0.014456458 0.019448146

encoder.feature_extract.mlps.0.batch_norms.1.weight f4 [128]
00000000: 5253 813f 61e9 7f3f 56bb 7f3f bb18 7f3f
00000010: 33e6 7e3f a122 803f a0ec 7e3f f021 7f3f
00000020: c84b 7f3f 8e66 803f 34f0 7d3f 540c 803f
00000030: 968c 7e3f e225 7f3f 9f20 7e3f ae49 7f3f
00000040: ad3b 7e3f e47c 7f3f b8c0 7e3f 74c3 7e3f
00000050: 2c24 7e3f 37f0 7f3f 7be5 7e3f 6b06 813f
00000060: c91a 803f 7ff2 7f3f 48ec 803f a999 803f
00000070: 4797 7f3f 6b68 803f 1f9b 803f 0101 803f
00000080: 341b 803f d747 803f 7497 803f 88b2 7f3f
00000090: f498 7f3f 6a3b 7f3f cff2 7f3f a2da 7e3f
000000a0: 5e9b 7f3f a6a3 7e3f b3b2 7e3f f5b4 7e3f
000000b0: e7f3 7f3f a331 803f 4cce 7f3f 285f 7e3f
000000c0: 4f4e 803f 00e9 7e3f 2511 803f 4e4b 7f3f
000000d0: e9df 7f3f 66a9 803f 4ed9 803f 8c9b 7f3f
000000e0: 1f2f 803f c60c 7f3f 1e51 803f 0b50 803f
000000f0: 8ab9 803f be12 803f ec80 7f3f 7abe 7f3f
00000100: b770 803f bbbe 803f dae9 7e3f ea47 7e3f
00000110: 7519 803f 4967 803f a143 7f3f 28f9 7f3f
00000120: 3045 803f 4a66 803f 30f1 803f bf53 803f
00000130: 37a2 803f 32a2 803f 58c0 803f 3408 7f3f
00000140: a424 803f 2343 7f3f ceaf 7e3f 29ca 7d3f
00000150: 42bd 7f3f 2dec 803f f31a 803f 9800 803f
00000160: 6131 7f3f ad7a 803f f9b8 803f 3331 803f
00000170: 0426 7f3f 9904 803f 57ef 7f3f d904 803f
00000180: a90f 803f 1515 803f 0de8 7e3f de7a 803f
00000190: 9613 7f3f ffe9 803f 5364 7e3f 147b 7e3f
000001a0: a104 7f3f 8722 803f a927 813f 654e 7f3f
000001b0: 8395 803f b1ac 803f c392 803f bec7 7e3f
000001c0: c8ac 7e3f 1f84 7e3f cf6b 7f3f 30ad 803f
000001d0: 4e29 803f 8565 803f e710 7f3f d9a0 7f3f
000001e0: 462f 7f3f e39f 7e3f 124c 803f 7a63 813f
000001f0: 5eb6 7f3f 863c 803f 0501 803f 559a 7f3f
1.0103552 0.9996548 0.99895227 0.9964711 0.99570006 1.0010568 0.9957981 0.9966116
0.9972501 1.0031297 0.99194646 1.0003762 0.9943327 0.9966718 0.99268526 0.997218
0.9930981 0.9979994 0.99512815 0.9951699 0.99273944 0.99975914 0.9956891 1.0080084
1.0008174 0.99979395 1.0072107 1.0046893 0.99840206 1.0031866 1.0047339 1.0000306
1.0008302 1.0021924 1.004622 0.9988179 0.9984276 0.99700034 0.9997987 0.9955236
0.99846447 0.9946846 0.99491423 0.9949487 0.9998154 1.0015148 0.9992416 0.99363947
1.0023898 0.9957428 1.0005232 0.9972428 0.99951035 1.0051696 1.0066316 0.9984672
1.001438 0.99628866 1.0024755 1.0024427 1.0056622 1.000572 0.99806094 0.9990002
1.0034398 1.0058206 0.9957558 0.9932848 1.0007769 1.003152 0.9971257 0.9998956
1.0021114 1.0031216 1.0073605 1.0025557 1.0049504 1.0049498 1.0058699 0.9962189
1.0011182 0.9971182 0.99487007 0.99136597 0.9989816 1.0072075 1.0008224 1.0000181
0.9968472 1.0037438 1.0056449 1.0015014 0.9966738 1.0001403 0.9997458 1.0001479
1.0004779 1.0006434 0.9957283 1.0037496 0.9963926 1.007141 0.9937183 0.9940655
0.9961644 1.0010537 1.0090228 0.99728996 1.0045627 1.0052701 1.0044788 0.9952353
0.99482393 0.9942035 0.9977388 1.0052853 1.0012605 1.0030981 0.99635166 0.9985481
0.9968151 0.9946272 1.0023215 1.0108483 0.99887645 1.001847 1.0000311 0.99844867

encoder.feature_extract.mlps.0.batch_norms.1.bias f4 [128]
00000000: 1d98 2c3c 38ff e0bb c20c 5cbb 836e 27b9
00000010: aef3 e83a 2acd 2c3b af66 daba 5bde e738
00000020: db6f 013a 09c1 33ba 1614 4cbb 89f6 28b7
00000030: 0406 00bc 95b5 0fbc fbcb b2ba 72e4 f13b
00000040: 1625 82bb 93b9 2ebb 7bf0 abbb fb30 76bb
00000050: 983e ec39 6dbd 7abb ba79 85bb 4765 adbb
00000060: 0289 dd39 7f2a 2bbb 25f2 013c 084b be3b
00000070: d06c 8a3b 905c 723a c20d be3a a0fa 5ebb
00000080: 4dfd af3b 03f4 d83b c859 2f3a b8a9 7c3a
00000090: 3adf a3bb 1a57 b0bb e2db dd3b fc63 81bb
000000a0: dea7 1538 1a9f 34bb 2363 7abb cfab feb9
000000b0: 7b7e 983b e8fc 2937 26c5 77bb f8e8 6dbb
000000c0: 3e89 813b 05a2 25bb 0b9d 04bb 7b97 19bc
000000d0: 60b2 1f3a 7905 b93b 892e d7bb a6c9 a5ba
000000e0: 785f e2bb 8fd4 ccba dab5 5e3a c9ed 623b
000000f0: 30f8 e23b c87d c7bb 6681 81bb 7af5 44bb
00000100: 630d 113c 48cc 253b a122 883b 3440 a5bb
00000110: db96 4b3b 8ba8 dcbb b391 93bb 6b66 04ba
00000120: cbc1 0c3b 0f95 2c3c ebf3 a83b 5499 be3b
00000130: c3d9 883b ec1c 8bb9 b9fa 053c ad6b 70bb
00000140: 14d1 1abc 7886 a2bb 9f3d 42bb 74bb 1bbc
00000150: ca76 f33a c3eb ec3b a491 b93b 0115 0c3a
00000160: 1d3e b0bb 155b 4e3b 6a29 66ba b5c2 8f3b
00000170: 7918 4abb 6c2f 50ba 40bf cebb 1071 41bb
00000180: 48ef 9eba b883 fe39 f715 533b e9c3 aa3b
00000190: 1860 873b 7ce5 ac3b 313a 8dbb 2161 d9bb
000001a0: d3a3 a3ba b059 46bb 818a 9b3b f45d 38b9
000001b0: bc94 223b 44d4 c03b a01e 033a 9418 f7bb
000001c0: 8d8a 9dbb 1ea1 1cbc dfca a5ba d53b 15bb
000001d0: 6835 d6ba a94f 83bb f89e 5ebb 8081 47bb
000001e0: c684 403b 7580 0bbc c09f 7d3b c992 2c3c
000001f0: 2504 3a3a 7905 c2ba ecdd cd39 ccc3 8abb
0.0105343135 -0.006866362 -0.003357694 -0.0001596753 0.0017772818 0.0026367404 -0.0016662682 0.00011056355
0.0004937627 -0.00068570726 -0.0031139902 -1.0070981e-05 -0.007813934 -0.00877132 -0.0013641113 0.007381969
-0.003971706 -0.0026660904 -0.0052471734 -0.0037565816 0.00045060064 -0.003825988 -0.004073349 -0.005291614
0.00042254484 -0.002611786 0.007931267 0.0058072843 0.0042243972 0.000924536 0.001449995 -0.0034023896
0.005370772 0.0066208853 0.00066890987 0.0009638327 -0.005000976 -0.005381477 0.006770597 -0.0039486866
3.5680707e-05 -0.0027560652 -0.0038206063 -0.00048574663 0.0046537495 1.0132069e-05 -0.0037806719 -0.003630219
0.003953128 -0.0025273573 -0.0020235206 -0.009374495 0.00060919486 0.0056464043 -0.0065668267 -0.0012648597
-0.0069083534 -0.0015627312 0.0008495726 0.0034626594 0.006926559 -0.0060879923 -0.003952193 -0.0030053542
0.008853289 0.0025298763 0.0041545187 -0.005043054 0.0031065259 -0.006733959 -0.0045034527 -0.0005050662
0.0021477814 0.010533585 0.0051560304 0.005816618 0.00417635 -0.00026533694 0.008177453 -0.0036685274
-0.009449262 -0.0049598776 -0.002963878 -0.0095051415 0.0018574831 0.0072302534 0.0056631137 0.0005343706
-0.005378498 0.0031487395 -0.0008779975 0.0043872246 -0.003083734 -0.0007941637 -0.00630942 -0.0029516853
-0.0012125755 0.00048544793 0.0032209137 0.0052113426 0.0041313283 0.00527638 -0.0043099155 -0.006633893
-0.0012484737 -0.003026586 0.0047467356 -0.00017582608 0.002480789 0.005884679 0.0005001817 -0.0075407717
-0.0048077763 -0.009559898 -0.0012648961 -0.0022771258 -0.0016342821 -0.004007299 -0.0033969264 -0.0030442178
0.0029376014 -0.008514513 0.0038699955 0.010533043 0.00070959545 -0.0014802656 0.00039265992 -0.0042347666
