FJSP_MultiPPO/saved_network/FJSP_J10M10/best_value5/policy_mch.pth (torch_old, 271448 bytes, 14 tensors)

bn.weight f4 [128]
0	0x3f7ed1cb	0.9953887
1	0x3f7f6ad9	0.9977241
2	0x3f80c21f	1.0059241
3	0x3f7fefe7	0.99975437
4	0x3f7e6b1d	0.9938219
5	0x3f7f8d11	0.99824625
6	0x3f7eb8b3	0.9950058
7	0x3f803fb4	1.0019441
8	0x3f80bb2b	1.0057119
9	0x3f80343c	1.0015941
10	0x3f7f310a	0.996842
11	0x3f7ffc70	0.99994564
12	0x3f7ee40e	0.99566734
13	0x3f7fe9a3	0.99965876
14	0x3f7d9ee2	0.9907056
15	0x3f7fe91d	0.9996508
16	0x3f803e49	1.0019008
17	0x3f7fbed7	0.99900573
18	0x3f7f769c	0.9979036
19	0x3f7db7da	0.9910866
20	0x3f80d27b	1.0064234
21	0x3f807d34	1.0038209
22	0x3f80c098	1.0058775
23	0x3f7eb087	0.9948811
24	0x3f7ee1f9	0.99563557
25	0x3f7e9a77	0.99454445
26	0x3f7e849a	0.99421084
27	0x3f80583a	1.0026925
28	0x3f7eff6c	0.9960849
29	0x3f810e34	1.008246
30	0x3f7e2da8	0.99288416
31	0x3f7eb6f0	0.9949789
32	0x3f7fc208	0.99905443
33	0x3f7dd4d7	0.9915289
34	0x3f80672b	1.0031484
35	0x3f80b913	1.005648
36	0x3f800982	1.0002902
37	0x3f801521	1.0006448
38	0x3f7e6d81	0.9938584
39	0x3f80a64b	1.0050749
40	0x3f805b6c	1.00279
41	0x3f7e7e89	0.9941183
42	0x3f7f4f22	0.9973012
43	0x3f80d8a1	1.006611
44	0x3f81350c	1.0094314
45	0x3f80ae94	1.0053277
46	0x3f7eb21d	0.9949053
47	0x3f7edd5b	0.9955651
48	0x3f7fbbbb	0.9989583
49	0x3f808b42	1.0042498
50	0x3f7e3682	0.9930192
51	0x3f7ffaaf	0.9999189
52	0x3f80a85c	1.0051379
53	0x3f807b40	1.0037613
54	0x3f806781	1.0031587
55	0x3f80e6cd	1.0070435
56	0x3f80c3e7	1.0059785
57	0x3f80aa00	1.005188
58	0x3f7efdc6	0.9960598
59	0x3f7f7da7	0.99801105
60	0x3f7f1a9e	0.9964999
61	0x3f804ad8	1.002284
62	0x3f7f081b	0.9962174
63	0x3f7fee42	0.9997293
64	0x3f7f3a75	0.99698573
65	0x3f80d9fa	1.0066521
66	0x3f7f12ee	0.9963826
67	0x3f810459	1.0079452
68	0x3f7f9353	0.99834174
69	0x3f80b7df	1.0056113
70	0x3f7f4a3a	0.99722636
71	0x3f80843f	1.0040358
72	0x3f7fdb21	0.9994374
73	0x3f7f596b	0.99745816
74	0x3f7ec852	0.99524415
75	0x3f7e8238	0.9941745
76	0x3f806126	1.0029647
77	0x3f7e0f66	0.99242246
78	0x3f7e9c1f	0.9945697
79	0x3f7ed2d8	0.9954047
80	0x3f7f2ec2	0.9968072
81	0x3f7deaee	0.991866
82	0x3f80dbc1	1.0067064
83	0x3f7ea11c	0.99464583
84	0x3f7fb978	0.9989238
85	0x3f7f77b9	0.9979206
86	0x3f7ed1d2	0.9953891
87	0x3f7fe1ac	0.9995372
88	0x3f7e9ab1	0.9945479
89	0x3f7ef463	0.99591655
90	0x3f7e8d6d	0.9943455
91	0x3f7ec9ae	0.9952649
92	0x3f80650e	1.003084
93	0x3f7e7d52	0.99409974
94	0x3f80c7ec	1.0061011
95	0x3f7fe77c	0.9996259
96	0x3f7e7bd5	0.994077
97	0x3f80b382	1.0054781
98	0x3f7f95a2	0.99837697
99	0x3f8089ff	1.0042113
100	0x3f7e936d	0.99443704
101	0x3f7eb228	0.99490595
102	0x3f7db5e4	0.9910567
103	0x3f7f3b7a	0.9970013
104	0x3f80d74a	1.0065701
105	0x3f7e67fb	0.9937741
106	0x3f802fa0	1.0014534
107	0x3f8034f3	1.0016159
108	0x3f7e9fdc	0.99462676
109	0x3f7e7b04	0.99406457
110	0x3f806948	1.0032129
111	0x3f806871	1.0031873
112	0x3f7fcee4	0.99925065
113	0x3f8023df	1.0010947
114	0x3f7f3e8a	0.997048
115	0x3f80d46c	1.0064826
116	0x3f80447a	1.0020897
117	0x3f7e6abe	0.99381626
118	0x3f803e66	1.0019042
119	0x3f7ed21e	0.99539363
120	0x3f80e0d7	1.0068616
121	0x3f7e6134	0.9936707
122	0x3f7f9bcb	0.99847096
123	0x3f7ee05a	0.99561083
124	0x3f7ecf94	0.9953549
125	0x3f80b67d	1.0055691
126	0x3f7fc36c	0.99907565
127	0x3f80361f	1.0016516

bn.bias f4 [128]
0	0xbc0ea02d	-0.008705181
1	0x3b775247	0.003773825
2	0xba99f8de	-0.0011747142
3	0xb9b05c1a	-0.00033637957
4	0x3b913dbc	0.004432408
5	0x3b0414c0	0.002015397
6	0x3b5e60c4	0.0033932189
7	0xba81b2cc	-0.0009895205
8	0xba6d16b0	-0.0009044213
9	0x3a8f3beb	0.0010927891
10	0xbb8ff92c	-0.0043937173
11	0x3b1ac187	0.0023613886
12	0xbb691a15	-0.0035568525
13	0xbb476819	-0.0030427037
14	0xbb878dfe	-0.0041368
15	0x3b56e7e6	0.003279203
16	0xbba16247	-0.0049250457
17	0x3871cdb7	5.7650464e-05
18	0xbbc404ac	-0.0059820022
19	0x3b84ebdd	0.0040564374
20	0xbbcce814	-0.006253252
21	0x3af72bd4	0.0018857666
22	0xbbb63f30	-0.0055617318
23	0xbbac051c	-0.0052496325
24	0xbb994f14	-0.0046786163
25	0x3a60c1ed	0.0008573819
26	0x3b84c2fc	0.0040515643
27	0x3ad12d43	0.0015958924
28	0xbb6e958c	-0.0036405055
29	0xbae51396	-0.001747715
30	0x3ba2ac29	0.0049643707
31	0x3ba35d47	0.0049854848
32	0xbb8bb9a6	-0.0042640744
33	0x3b8031b9	0.0039121774
34	0x3bb04c65	0.0053802007
35	0xba836c1e	-0.0010026728
36	0x3b93274b	0.004490768
37	0xba7a2798	-0.0009542643
38	0x3afc1f9e	0.0019235497
39	0x3bc44d47	0.0059906575
40	0xbb594d8d	-0.0033157796
41	0xbb449158	-0.0029993858
42	0x3b2517b3	0.0025191128
43	0x3b41456d	0.0029490844
44	0x3b6c4887	0.0036053972
45	0xbb02ee61	-0.001997851
46	0x3b7b76f6	0.0038370467
47	0x3b5d593b	0.003377511
48	0x3b5ebef7	0.0033988336
49	0xbba48cea	-0.005021681
50	0xbb8c0c16	-0.0042739017
51	0xbbc4ec7e	-0.0060096374
52	0x3b78ff7a	0.0037994073
53	0x3b54a9a2	0.0032449742
54	0xbb12ecbd	-0.002241894
55	0xbb85c19a	-0.004081917
56	0xbbbbd018	-0.005731594
57	0x3afc55b0	0.0019251611
58	0x3a600c9f	0.00085468026
59	0x3b8f9f9a	0.0043830397
60	0xba90d70d	-0.0011050418
61	0x3ba83785	0.0051335716
62	0xbb40ec1f	-0.0029437614
63	0xbaa4bf3a	-0.0012569197
64	0xbb5f4c1f	-0.0034072471
65	0x3b0e8bdc	0.0021750843
66	0xbbe06aff	-0.0068486924
67	0xba98b927	-0.0011651859
68	0xbb8f8cb3	-0.0043807863
69	0xbb8f1091	-0.0043659885
70	0x3adcb18c	0.0016837581
71	0x3b7ba52f	0.0038398018
72	0x3b3875e2	0.0028146436
73	0x3b9d02a8	0.0047915764
74	0x3b7f4326	0.0038949936
75	0xbb91b9a6	-0.00444718
76	0xbb2903c2	-0.0025789593
77	0xbb82da09	-0.003993277
78	0xbbdc0eb6	-0.006715621
79	0x3b96887f	0.0045939083
80	0xbbac7a3c	-0.005263595
81	0x3b93f923	0.0045157834
82	0x3aeb9b27	0.0017975316
83	0xbb67e21f	-0.0035382581
84	0x3a51f8fb	0.0008009818
85	0x3b8bb0fd	0.004263042
86	0xbb26daee	-0.0025460082
87	0xbb5c9f09	-0.0033664128
88	0x3c08d764	0.008352134
89	0xba936062	-0.0011243934
90	0xbba01a42	-0.0048859427
91	0x3b582824	0.003298291
92	0xbbe095d6	-0.0068537993
93	0xb961ec4b	-0.00021545698
94	0x3b2e13e9	0.002656216
95	0x3896786b	7.174987e-05
96	0xbbd86010	-0.0066032484
97	0xbb93c74c	-0.004509842
98	0x3bb1da8b	0.0054276637
99	0xbb2f45dd	-0.0026744523
100	0xbb996c8b	-0.004682129
101	0x3b35587d	0.0027671151
102	0xbad49df1	-0.0016221387
103	0xbb952d86	-0.004552546
104	0xbba75a5f	-0.0051072086
105	0xbb147019	-0.0022649823
106	0xbac0338a	-0.0014663797
107	0x3b9773ea	0.0046219723
108	0x3ba12ba9	0.004918535
109	0xbb786d20	-0.003790684
110	0x3b84db48	0.0040544607
111	0x3ae03b90	0.0017107595
112	0xbb1acc1f	-0.00236202
113	0xbb75b9fb	-0.0037494886
114	0x3aa37bd5	0.0012472818
115	0x3baad7ab	0.005213698
116	0xbaeecb50	-0.0018218551
117	0x3b7c9143	0.0038538731
118	0x3b58468d	0.0033001036
119	0xbad30b38	-0.0016101366
120	0xbb17ec66	-0.0023181676
121	0xbab182ff	-0.0013543068
122	0xbbd025f7	-0.006352182
123	0x3b1e3333	0.0024139404
124	0xbbe83ce3	-0.0070873364
125	0xbb1a5d60	-0.002355419
126	0xbad988eb	-0.0016596591
127	0x3b4f4df0	0.0031632148

bn.running_mean f4 [128]
0	0xbe2b2a92	-0.16715458
1	0x3cd24632	0.025668237
2	0x3a77f609	0.00094589643
3	0xbdabba37	-0.08385127
4	0x3e0d9424	0.13826042
5	0x3d8df326	0.069311425
6	0x3b384f15	0.0028123308
7	0xbe1f2992	-0.15543202
8	0xb92fce62	-0.00016766184
9	0x3d4dfe12	0.05029113
10	0xbe284760	-0.16433477
11	0xbd4bcb9e	-0.04975473
12	0x3dcd70d3	0.10031285
13	0xbde1efa9	-0.1103204
14	0xbdf87de1	-0.121333845
15	0x3d34e5f0	0.044164598
16	0xbd2f8c99	-0.042858694
17	0x3d641f52	0.055693932
18	0xbd89be8c	-0.06725797
19	0xbe0ae3b6	-0.13563427
20	0xbe061f89	-0.13097967
21	0xbe0b397a	-0.13596144
22	0xbdf5ba3d	-0.11998413
23	0xba67f12a	-0.0008847887
24	0x3e06080b	0.13089006
25	0xbd4d2e65	-0.050093073
26	0x3cd23800	0.025661469
27	0x3e04c953	0.12967424
28	0x3db0281b	0.086013995
29	0x3d90814e	0.07055913
30	0x3d9212a6	0.07132463
31	0xbdf92377	-0.121649675
32	0x3ddbb158	0.10727185
33	0x3d1fa1f6	0.038972817
34	0xbd278b85	-0.04090454
35	0x3c9ca760	0.01912278
36	0x3dcc151f	0.09964966
37	0xbe41f4c3	-0.18941025
38	0xbda1ef18	-0.07906932
39	0x3e20fea6	0.1572214
40	0xbd24810c	-0.04016213
41	0xbd4e5fa9	-0.050384197
42	0x3dc3e424	0.09564999
43	0xbda86eb5	-0.08224241
44	0xbe07acc7	-0.13249503
45	0xbe4928d5	-0.19644482
46	0x3e2447fa	0.16043082
47	0x3c99c5d4	0.01877109
48	0x3e219c2d	0.15782233
49	0xbe1ed3f5	-0.15510543
50	0x3e0a7658	0.13521707
51	0x3de0a3e7	0.10968762
52	0x3b31e7ed	0.0027146295
53	0xbb14926d	-0.0022670284
54	0x3db541b6	0.08850424
55	0x3d00c762	0.031440146
56	0xbcb9867f	-0.02264714
57	0x3e325a71	0.17417313
58	0x3e36ff3d	0.17870803
59	0xbd869a18	-0.0657236
60	0xbda913fb	-0.08255764
61	0x3e2a3d31	0.16624905
62	0x3c7e172c	0.015508454
63	0x3e1a6d50	0.15080762
64	0x3e214737	0.15749823
65	0xbc963e35	-0.01834021
66	0xbe08c8bb	-0.13357823
67	0xbe026094	-0.12732154
68	0xbe2defbc	-0.16985983
69	0xbd28328b	-0.041063827
70	0xbdf711a0	-0.120639086
71	0x3c6f5958	0.014608704
72	0x3d9f7e3a	0.07787748
73	0x3d7171c3	0.058946382
74	0xbdc8fcc0	-0.09813833
75	0xbe0eef26	-0.13958415
76	0x3e442718	0.19155538
77	0x3d0c0626	0.03418555
78	0xbe048ce8	-0.12944376
79	0x3c22c603	0.009934905
80	0xbe0b1c53	-0.13585024
81	0x3dfee68f	0.12446319
82	0x3d856059	0.065125175
83	0xbd92a70f	-0.0716077
84	0xbd169182	-0.03675986
85	0xbe14474a	-0.1448032
86	0x3d71149c	0.058857545
87	0x3d4481f5	0.0479755
88	0x3dcb01a4	0.09912422
89	0xbe0b855d	-0.13625093
90	0x3c672179	0.014107102
91	0xbd8a6ed1	-0.06759418
92	0xbd826e40	-0.06368685
93	0x3daa480c	0.08314523
94	0xbe04d9b4	-0.12973672
95	0x3c47899e	0.012178807
96	0xbe2627ca	-0.16226116
97	0x3e311ea6	0.17296848
98	0x3df4275c	0.1192157
99	0x3d30a4b0	0.04312581
100	0xbe232a78	-0.1593417
101	0xbd8b05b9	-0.06788201
102	0xbdc95894	-0.09831348
103	0xbd569a47	-0.052393224
104	0x3dfc96c0	0.12333441
105	0x3d920d5d	0.07131455
106	0xbd97e4bf	-0.07416677
107	0x3d1c9f8f	0.038238104
108	0xbb5b87a4	-0.0033497596
109	0xbb008f19	-0.0019616543
110	0xbc7e505f	-0.015522092
111	0x3caea0a6	0.021316838
112	0x3de48033	0.111572646
113	0xbd886944	-0.06660703
114	0xbe0c2d6f	-0.13689207
115	0xbbb2d110	-0.005457051
116	0xbd1617c8	-0.036643773
117	0x3cbb32b7	0.022851331
118	0xbe144345	-0.14478786
119	0xbbe63663	-0.0070255264
120	0x3cf70877	0.030155404
121	0x3d3b0f27	0.045668747
122	0xbdd24fdb	-0.102691375
123	0xbdee8712	-0.11646856
124	0xbde94aba	-0.11391206
125	0x3e3fa90c	0.1871683
126	0x3b389b31	0.0028168673
127	0xbca860a6	-0.020553898

bn.running_var f4 [128]
0	0x39f18b26	0.00046070776
1	0x37320f47	1.0613184e-05
2	0x398cf742	0.00026887102
3	0x38e1bf23	0.00010764438
4	0x399679ea	0.00028701063
5	0x39618f86	0.00021511139
6	0x369ab165	4.610209e-06
7	0x39beba89	0.00036378604
8	0x3969b741	0.00022288879
9	0x390b834a	0.00013304982
10	0x39d5a8dc	0.00040752336
11	0x38155245	3.5600988e-05
12	0x39843c0d	0.00025221743
13	0x3978975f	0.00023707513
14	0x39d247b0	0.00040107733
15	0x38086536	3.2519187e-05
16	0x391205e9	0.00013925847
17	0x3843eb2f	4.6710655e-05
18	0x38881941	6.489689e-05
19	0x39b8ac06	0.00035223382
20	0x39a840b6	0.0003209167
21	0x3989ee48	0.0002630821
22	0x398ac642	0.00026469125
23	0x3912c164	0.00013995689
24	0x39c18023	0.00036907298
25	0x383a4dd0	4.4418324e-05
26	0x394c4579	0.00019480837
27	0x39981c0a	0.0002901259
28	0x38e30780	0.000108256005
29	0x3940be91	0.00018381538
30	0x39b3092b	0.0003414837
31	0x39a42c36	0.00031313457
32	0x396e102f	0.00022703478
33	0x3904d642	0.00012668318
34	0x37c9c8e5	2.4054616e-05
35	0x3941d490	0.000184851
36	0x395d7d19	0.00021122805
37	0x3a0c226d	0.0005345706
38	0x39b41dd5	0.00034354502
39	0x39ca4f87	0.00038587695
40	0x397a5149	0.00023872139
41	0x39673169	0.00022048283
42	0x39978b73	0.00028904862
43	0x398d22f0	0.00026919646
44	0x39c19067	0.00036919417
45	0x3a1b5396	0.0005925236
46	0x39f64b25	0.00046976763
47	0x390a0c4c	0.00013165287
48	0x39eca2a8	0.00045134616
49	0x39b56494	0.00034597947
50	0x3a377b8a	0.0006999305
51	0x3a15e3b4	0.00057178293
52	0x3863d894	5.432272e-05
53	0x3841232d	4.6047546e-05
54	0x38eab708	0.00011192082
55	0x3980a0c5	0.00024533845
56	0x39391e7c	0.00017654331
57	0x39ea81cf	0.00044728673
58	0x3a0c1841	0.000534419
59	0x39270216	0.00015927138
60	0x3924f6f0	0.0001573225
61	0x39d30ee1	0.00040256142
62	0x3946a2cb	0.00018943397
63	0x39c352ca	0.0003725498
64	0x39df3963	0.0004257663
65	0x37d79467	2.5699102e-05
66	0x39b6f409	0.00034895565
67	0x399ffa58	0.00030513364
68	0x39fb35e2	0.00047914597
69	0x3805a6a1	3.1864856e-05
70	0x399a6b99	0.00029453335
71	0x38e6668f	0.00010986358
72	0x390dcc00	0.00013522804
73	0x38f52bd7	0.00011690676
74	0x39f0a665	0.0004590034
75	0x39917d38	0.0002774985
76	0x3a0c6e37	0.00053569995
77	0x39463b5b	0.00018904863
78	0x39913342	0.00027694745
79	0x38a0d05e	7.668206e-05
80	0x399ac1c9	0.0002951755
81	0x398a59ee	0.00026388414
82	0x396fabf7	0.00022856878
83	0x38ef6fd5	0.000114172384
84	0x381339fc	3.5101533e-05
85	0x39c2eeda	0.00037180522
86	0x386ff7dd	5.721288e-05
87	0x38be7c31	9.0830385e-05
88	0x3922849d	0.00015498926
89	0x39c51aab	0.00037594637
90	0x367507b1	3.6512322e-06
91	0x3888a807	6.516283e-05
92	0x39c00a97	0.00036628984
93	0x39a437ae	0.00031322002
94	0x398443b7	0.00025227453
95	0x37a94b03	2.01813e-05
96	0x39e7b7e5	0.00044196766
97	0x39eec3e8	0.0004554086
98	0x3953f8d6	0.00020215227
99	0x37f57b00	2.9263552e-05
100	0x39d24289	0.00040103894
101	0x39885436	0.00026002683
102	0x39d0b1a6	0.0003980521
103	0x3823f0bf	3.908644e-05
104	0x398f8faa	0.00027382124
105	0x3926cb92	0.0001590683
106	0x39b1533c	0.00033822085
107	0x38183167	3.6285634e-05
108	0x38df08b2	0.00010635088
109	0x38a09451	7.6570206e-05
110	0x38b3597e	8.552054e-05
111	0x3930dd32	0.0001686707
112	0x394ed041	0.00019723272
113	0x388ebf4e	6.806721e-05
114	0x3a0cfe59	0.0005378477
115	0x3778f1ad	1.4838221e-05
116	0x37b38cd2	2.1404037e-05
117	0x39394bfe	0.00017671284
118	0x39a63c34	0.00031706842
119	0x39068f83	0.00012832698
120	0x38739afe	5.8080062e-05
121	0x395a9217	0.00020844523
122	0x39323d59	0.00016998257
123	0x39992a90	0.00029214146
124	0x3985e3da	0.000255375
125	0x3a0d7882	0.000539668
126	0x380c92f8	3.3515476e-05
127	0x36c9a08b	6.0089565e-06

bn1.weight f4 [128]
0	0x3f800000	1.0
1	0x3f800000	1.0
2	0x3f800000	1.0
3	0x3f800000	1.0
4	0x3f800000	1.0
5	0x3f800000	1.0
6	0x3f800000	1.0
7	0x3f800000	1.0
8	0x3f800000	1.0
9	0x3f800000	1.0
10	0x3f800000	1.0
11	0x3f800000	1.0
12	0x3f800000	1.0
13	0x3f800000	1.0
14	0x3f800000	1.0
15	0x3f800000	1.0
16	0x3f800000	1.0
17	0x3f800000	1.0
18	0x3f800000	1.0
19	0x3f800000	1.0
20	0x3f800000	1.0
21	0x3f800000	1.0
22	0x3f800000	1.0
23	0x3f800000	1.0
24	0x3f800000	1.0
25	0x3f800000	1.0
26	0x3f800000	1.0
27	0x3f800000	1.0
28	0x3f800000	1.0
29	0x3f800000	1.0
30	0x3f800000	1.0
31	0x3f800000	1.0
32	0x3f800000	1.0
33	0x3f800000	1.0
34	0x3f800000	1.0
35	0x3f800000	1.0
36	0x3f800000	1.0
37	0x3f800000	1.0
38	0x3f800000	1.0
39	0x3f800000	1.0
40	0x3f800000	1.0
41	0x3f800000	1.0
42	0x3f800000	1.0
43	0x3f800000	1.0
44	0x3f800000	1.0
45	0x3f800000	1.0
46	0x3f800000	1.0
47	0x3f800000	1.0
48	0x3f800000	1.0
49	0x3f800000	1.0
50	0x3f800000	1.0
51	0x3f800000	1.0
52	0x3f800000	1.0
53	0x3f800000	1.0
54	0x3f800000	1.0
55	0x3f800000	1.0
56	0x3f800000	1.0
57	0x3f800000	1.0
58	0x3f800000	1.0
59	0x3f800000	1.0
60	0x3f800000	1.0
61	0x3f800000	1.0
62	0x3f800000	1.0
63	0x3f800000	1.0
64	0x3f800000	1.0
65	0x3f800000	1.0
66	0x3f800000	1.0
67	0x3f800000	1.0
68	0x3f800000	1.0
69	0x3f800000	1.0
70	0x3f800000	1.0
71	0x3f800000	1.0
72	0x3f800000	1.0
73	0x3f800000	1.0
74	0x3f800000	1.0
75	0x3f800000	1.0
76	0x3f800000	1.0
77	0x3f800000	1.0
78	0x3f800000	1.0
79	0x3f800000	1.0
80	0x3f800000	1.0
81	0x3f800000	1.0
82	0x3f800000	1.0
83	0x3f800000	1.0
84	0x3f800000	1.0
85	0x3f800000	1.0
86	0x3f800000	1.0
87	0x3f800000	1.0
88	0x3f800000	1.0
89	0x3f800000	1.0
90	0x3f800000	1.0
91	0x3f800000	1.0
92	0x3f800000	1.0
93	0x3f800000	1.0
94	0x3f800000	1.0
95	0x3f800000	1.0
96	0x3f800000	1.0
97	0x3f800000	1.0
98	0x3f800000	1.0
99	0x3f800000	1.0
100	0x3f800000	1.0
101	0x3f800000	1.0
102	0x3f800000	1.0
103	0x3f800000	1.0
104	0x3f800000	1.0
105	0x3f800000	1.0
106	0x3f800000	1.0
107	0x3f800000	1.0
108	0x3f800000	1.0
109	0x3f800000	1.0
110	0x3f800000	1.0
111	0x3f800000	1.0
112	0x3f800000	1.0
113	0x3f800000	1.0
114	0x3f800000	1.0
115	0x3f800000	1.0
116	0x3f800000	1.0
117	0x3f800000	1.0
118	0x3f800000	1.0
119	0x3f800000	1.0
120	0x3f800000	1.0
121	0x3f800000	1.0
122	0x3f800000	1.0
123	0x3f800000	1.0
124	0x3f800000	1.0
125	0x3f800000	1.0
126	0x3f800000	1.0
127	0x3f800000	1.0

bn1.bias f4 [128]
0	0x00000000	0.0
1	0x00000000	0.0
2	0x00000000	0.0
3	0x00000000	0.0
4	0x00000000	0.0
5	0x00000000	0.0
6	0x00000000	0.0
7	0x00000000	0.0
8	0x00000000	0.0
9	0x00000000	0.0
10	0x00000000	0.0
11	0x00000000	0.0
12	0x00000000	0.0
13	0x00000000	0.0
14	0x00000000	0.0
15	0x00000000	0.0
16	0x00000000	0.0
17	0x00000000	0.0
18	0x00000000	0.0
19	0x00000000	0.0
20	0x00000000	0.0
21	0x00000000	0.0
22	0x00000000	0.0
23	0x00000000	0.0
24	0x00000000	0.0
25	0x00000000	0.0
26	0x00000000	0.0
27	0x00000000	0.0
28	0x00000000	0.0
29	0x00000000	0.0
30	0x00000000	0.0
31	0x00000000	0.0
32	0x00000000	0.0
33	0x00000000	0.0
34	0x00000000	0.0
35	0x00000000	0.0
36	0x00000000	0.0
37	0x00000000	0.0
38	0x00000000	0.0
39	0x00000000	0.0
40	0x00000000	0.0
41	0x00000000	0.0
42	0x00000000	0.0
43	0x00000000	0.0
44	0x00000000	0.0
45	0x00000000	0.0
46	0x00000000	0.0
47	0x00000000	0.0
48	0x00000000	0.0
49	0x00000000	0.0
50	0x00000000	0.0
51	0x00000000	0.0
52	0x00000000	0.0
53	0x00000000	0.0
54	0x00000000	0.0
55	0x00000000	0.0
56	0x00000000	0.0
57	0x00000000	0.0
58	0x00000000	0.0
59	0x00000000	0.0
60	0x00000000	0.0
61	0x00000000	0.0
62	0x00000000	0.0
63	0x00000000	0.0
64	0x00000000	0.0
65	0x00000000	0.0
66	0x00000000	0.0
67	0x00000000	0.0
68	0x00000000	0.0
69	0x00000000	0.0
70	0x00000000	0.0
71	0x00000000	0.0
72	0x00000000	0.0
73	0x00000000	0.0
74	0x00000000	0.0
75	0x00000000	0.0
76	0x00000000	0.0
77	0x00000000	0.0
78	0x00000000	0.0
79	0x00000000	0.0
80	0x00000000	0.0
81	0x00000000	0.0
82	0x00000000	0.0
83	0x00000000	0.0
84	0x00000000	0.0
85	0x00000000	0.0
86	0x00000000	0.0
87	0x00000000	0.0
88	0x00000000	0.0
89	0x00000000	0.0
90	0x00000000	0.0
91	0x00000000	0.0
92	0x00000000	0.0
93	0x00000000	0.0
94	0x00000000	0.0
95	0x00000000	0.0
96	0x00000000	0.0
97	0x00000000	0.0
98	0x00000000	0.0
99	0x00000000	0.0
100	0x00000000	0.0
101	0x00000000	0.0
102	0x00000000	0.0
103	0x00000000	0.0
104	0x00000000	0.0
105	0x00000000	0.0
106	0x00000000	0.0
107	0x00000000	0.0
108	0x00000000	0.0
109	0x00000000	0.0
110	0x00000000	0.0
111	0x00000000	0.0
112	0x00000000	0.0
113	0x00000000	0.0
114	0x00000000	0.0
115	0x00000000	0.0
116	0x00000000	0.0
117	0x00000000	0.0
118	0x00000000	0.0
119	0x00000000	0.0
120	0x00000000	0.0
121	0x00000000	0.0
122	0x00000000	0.0
123	0x00000000	0.0
124	0x00000000	0.0
125	0x00000000	0.0
126	0x00000000	0.0
127	0x00000000	0.0

bn1.running_mean f4 [128]
0	0x00000000	0.0
1	0x00000000	0.0
2	0x00000000	0.0
3	0x00000000	0.0
4	0x00000000	0.0
5	0x00000000	0.0
6	0x00000000	0.0
7	0x00000000	0.0
8	0x00000000	0.0
9	0x00000000	0.0
10	0x00000000	0.0
11	0x00000000	0.0
12	0x00000000	0.0
13	0x00000000	0.0
14	0x00000000	0.0
15	0x00000000	0.0
16	0x00000000	0.0
17	0x00000000	0.0
18	0x00000000	0.0
19	0x00000000	0.0
20	0x00000000	0.0
21	0x00000000	0.0
22	0x00000000	0.0
23	0x00000000	0.0
24	0x00000000	0.0
25	0x00000000	0.0
26	0x00000000	0.0
27	0x00000000	0.0
28	0x00000000	0.0
29	0x00000000	0.0
30	0x00000000	0.0
31	0x00000000	0.0
32	0x00000000	0.0
33	0x00000000	0.0
34	0x00000000	0.0
35	0x00000000	0.0
36	0x00000000	0.0
37	0x00000000	0.0
38	0x00000000	0.0
39	0x00000000	0.0
40	0x00000000	0.0
41	0x00000000	0.0
42	0x00000000	0.0
43	0x00000000	0.0
44	0x00000000	0.0
45	0x00000000	0.0
46	0x00000000	0.0
47	0x00000000	0.0
48	0x00000000	0.0
49	0x00000000	0.0
50	0x00000000	0.0
51	0x00000000	0.0
52	0x00000000	0.0
53	0x00000000	0.0
54	0x00000000	0.0
55	0x00000000	0.0
56	0x00000000	0.0
57	0x00000000	0.0
58	0x00000000	0.0
59	0x00000000	0.0
60	0x00000000	0.0
61	0x00000000	0.0
62	0x00000000	0.0
63	0x00000000	0.0
64	0x00000000	0.0
65	0x00000000	0.0
66	0x00000000	0.0
67	0x00000000	0.0
68	0x00000000	0.0
69	0x00000000	0.0
70	0x00000000	0.0
71	0x00000000	0.0
72	0x00000000	0.0
73	0x00000000	0.0
74	0x00000000	0.0
75	0x00000000	0.0
76	0x00000000	0.0
77	0x00000000	0.0
78	0x00000000	0.0
79	0x00000000	0.0
80	0x00000000	0.0
81	0x00000000	0.0
82	0x00000000	0.0
83	0x00000000	0.0
84	0x00000000	0.0
85	0x00000000	0.0
86	0x00000000	0.0
87	0x00000000	0.0
88	0x00000000	0.0
89	0x00000000	0.0
90	0x00000000	0.0
91	0x00000000	0.0
92	0x00000000	0.0
93	0x00000000	0.0
94	0x00000000	0.0
95	0x00000000	0.0
96	0x00000000	0.0
97	0x00000000	0.0
98	0x00000000	0.0
99	0x00000000	0.0
100	0x00000000	0.0
101	0x00000000	0.0
102	0x00000000	0.0
103	0x00000000	0.0
104	0x00000000	0.0
105	0x00000000	0.0
106	0x00000000	0.0
107	0x00000000	0.0
108	0x00000000	0.0
109	0x00000000	0.0
110	0x00000000	0.0
111	0x00000000	0.0
112	0x00000000	0.0
113	0x00000000	0.0
114	0x00000000	0.0
115	0x00000000	0.0
116	0x00000000	0.0
117	0x00000000	0.0
118	0x00000000	0.0
119	0x00000000	0.0
120	0x00000000	0.0
121	0x00000000	0.0
122	0x00000000	0.0
123	0x00000000	0.0
124	0x00000000	0.0
125	0x00000000	0.0
126	0x00000000	0.0
127	0x00000000	0.0

bn1.running_var f4 [128]
0	0x3f800000	1.0
1	0x3f800000	1.0
2	0x3f800000	1.0
3	0x3f800000	1.0
4	0x3f800000	1.0
5	0x3f800000	1.0
6	0x3f800000	1.0
7	0x3f800000	1.0
8	0x3f800000	1.0
9	0x3f800000	1.0
10	0x3f800000	1.0
11	0x3f800000	1.0
12	0x3f800000	1.0
13	0x3f800000	1.0
14	0x3f800000	1.0
15	0x3f800000	1.0
16	0x3f800000	1.0
17	0x3f800000	1.0
18	0x3f800000	1.0
19	0x3f800000	1.0
20	0x3f800000	1.0
21	0x3f800000	1.0
22	0x3f800000	1.0
23	0x3f800000	1.0
24	0x3f800000	1.0
25	0x3f800000	1.0
26	0x3f800000	1.0
27	0x3f800000	1.0
28	0x3f800000	1.0
29	0x3f800000	1.0
30	0x3f800000	1.0
31	0x3f800000	1.0
32	0x3f800000	1.0
33	0x3f800000	1.0
34	0x3f800000	1.0
35	0x3f800000	1.0
36	0x3f800000	1.0
37	0x3f800000	1.0
38	0x3f800000	1.0
39	0x3f800000	1.0
40	0x3f800000	1.0
41	0x3f800000	1.0
42	0x3f800000	1.0
43	0x3f800000	1.0
44	0x3f800000	1.0
45	0x3f800000	1.0
46	0x3f800000	1.0
47	0x3f800000	1.0
48	0x3f800000	1.0
49	0x3f800000	1.0
50	0x3f800000	1.0
51	0x3f800000	1.0
52	0x3f800000	1.0
53	0x3f800000	1.0
54	0x3f800000	1.0
55	0x3f800000	1.0
56	0x3f800000	1.0
57	0x3f800000	1.0
58	0x3f800000	1.0
59	0x3f800000	1.0
60	0x3f800000	1.0
61	0x3f800000	1.0
62	0x3f800000	1.0
63	0x3f800000	1.0
64	0x3f800000	1.0
65	0x3f800000	1.0
66	0x3f800000	1.0
67	0x3f800000	1.0
68	0x3f800000	1.0
69	0x3f800000	1.0
70	0x3f800000	1.0
71	0x3f800000	1.0
72	0x3f800000	1.0
73	0x3f800000	1.0
74	0x3f800000	1.0
75	0x3f800000	1.0
76	0x3f800000	1.0
77	0x3f800000	1.0
78	0x3f800000	1.0
79	0x3f800000	1.0
80	0x3f800000	1.0
81	0x3f800000	1.0
82	0x3f800000	1.0
83	0x3f800000	1.0
84	0x3f800000	1.0
85	0x3f800000	1.0
86	0x3f800000	1.0
87	0x3f800000	1.0
88	0x3f800000	1.0
89	0x3f800000	1.0
90	0x3f800000	1.0
91	0x3f800000	1.0
92	0x3f800000	1.0
93	0x3f800000	1.0
94	0x3f800000	1.0
95	0x3f800000	1.0
96	0x3f800000	1.0
97	0x3f800000	1.0
98	0x3f800000	1.0
99	0x3f800000	1.0
100	0x3f800000	1.0
101	0x3f800000	1.0
102	0x3f800000	1.0
103	0x3f800000	1.0
104	0x3f800000	1.0
105	0x3f800000	1.0
106	0x3f800000	1.0
107	0x3f800000	1.0
108	0x3f800000	1.0
109	0x3f800000	1.0
110	0x3f800000	1.0
111	0x3f800000	1.0
112	0x3f800000	1.0
113	0x3f800000	1.0
114	0x3f800000	1.0
115	0x3f800000	1.0
116	0x3f800000	1.0
117	0x3f800000	1.0
118	0x3f800000	1.0
119	0x3f800000	1.0
120	0x3f800000	1.0
121	0x3f800000	1.0
122	0x3f800000	1.0
123	0x3f800000	1.0
124	0x3f800000	1.0
125	0x3f800000	1.0
126	0x3f800000	1.0
127	0x3f800000	1.0

fc2.weight f4 [128, 2]
0	0xbf11d4b7	-0.569652
1	0xbf18b3ac	-0.5964916
2	0x3db50ec2	0.088407055
3	0x3db21df8	0.08697122
4	0x3e157baa	0.14597955
5	0xbf34a687	-0.705666
6	0xbeb0561b	-0.34440693
7	0xbc01fce3	-0.007933828
8	0x3f0fe40a	0.56207335
9	0x3d2bcf34	0.04194565
10	0x3ebd761b	0.3700417
11	0xbed5b359	-0.41738394
12	0xbbfb3ca4	-0.007667141
13	0x3dc408e5	0.09572009
14	0xbf2206d0	-0.63291645
15	0xbd2c16b4	-0.04201384
16	0xbe05641d	-0.13026471
17	0x3f24c092	0.6435634
18	0x3e8e30e8	0.27771688
19	0xbeb281c5	-0.3486463
20	0xbf1600a6	-0.5859474
21	0xbeea5fc5	-0.4577619
22	0xbe3d2162	-0.18469766
23	0xbdd1a68b	-0.10236844
24	0x3ef2afed	0.47399846
25	0xbe98c024	-0.29834092
26	0xbefb63bb	-0.49099526
27	0x3e35eb81	0.17765619
28	0xbf1576e4	-0.5838454
29	0x3ed38245	0.41310325
30	0x3e403dc3	0.1877356
31	0xbcdf9095	-0.027290622
32	0xbe83222c	-0.2561201
33	0x3ec9940a	0.39370757
34	0x3e4b9c23	0.1988378
35	0x3e1d8dcd	0.15386124
36	0xbe80464d	-0.25053635
37	0xbe094efe	-0.1340904
38	0xbf19d556	-0.6009115
39	0x3e51b1a8	0.20477927
40	0xbed9453e	-0.4243564
41	0xbf13a535	-0.5767396
42	0xbf05df0c	-0.5229347
43	0xbe41c369	-0.189222
44	0xbec85437	-0.3912675
45	0xbf0406f7	-0.5157313
46	0xbdd94752	-0.106093064
47	0x3f02415e	0.5088099
48	0x3f18edda	0.5973793
49	0xbe91a5d3	-0.28446826
50	0xbe5e45fe	-0.21706387
51	0x3d52c153	0.0514539
52	0xbca54c48	-0.020177975
53	0x3f204b94	0.62615323
54	0x3eddf7f5	0.4335324
55	0x3f0120fa	0.50440943
56	0x3eb0034e	0.3437752
57	0x3d62e785	0.055396575
58	0x3e3593fc	0.17732233
59	0x3f10bd3e	0.5653876
60	0x3ed47843	0.41498002
61	0xbf196d3c	-0.59932303
62	0xbf0d8500	-0.55281067
63	0x3e8145ed	0.25248662
64	0x3ef541b4	0.4790169
65	0xbe38fa2a	-0.1806418
66	0x3e73a267	0.2379242
67	0xbec41519	-0.38297346
68	0xbe248de9	-0.1606976
69	0xbd249b3b	-0.0401871
70	0xbd315db4	-0.043302253
71	0x3f1b641d	0.60699636
72	0x3e9dc4e3	0.30814275
73	0x3f0307f3	0.51184005
74	0xbf2e54e7	-0.680983
75	0xbeffd3c5	-0.49966255
76	0xbee1a114	-0.44068205
77	0x3f117901	0.5682526
78	0x3f0cc800	0.54992676
79	0x3efb54e7	0.49088213
80	0xbe8fe019	-0.2810066
81	0x3f1294a0	0.57258034
82	0xbe9eef8e	-0.3104214
83	0x3f025961	0.5091763
84	0x3ef32c87	0.4749491
85	0xbecc1907	-0.39862844
86	0xbe4cde16	-0.20006594
87	0xbf311ea4	-0.6918738
88	0xbed29f8a	-0.41137344
89	0xbf2c1aa2	-0.6722814
90	0xbf317c18	-0.6932998
91	0xbf152955	-0.5826619
92	0x3f3391c9	0.70144325
93	0xbe48989a	-0.19589463
94	0xbcd4d452	-0.025980148
95	0x3f038550	0.51375294
96	0x3f3048b8	0.6886096
97	0xbe3e116a	-0.1856133
98	0xbf1365b8	-0.57577085
99	0xbea367d7	-0.3191516
100	0x3f32e3ac	0.6987865
101	0xbf330f8f	-0.69945616
102	0x3f17ca0c	0.59292674
103	0xbf3267f0	-0.69689846
104	0x3d982cdf	0.074304335
105	0xbea0786d	-0.31341878
106	0x3d4da705	0.05020811
107	0xbe9777ed	-0.29583684
108	0x3eb05289	0.3443797
109	0x3dd3d467	0.10343247
110	0xbc430458	-0.011902891
111	0x3f3417ba	0.70348704
112	0x3cd8660a	0.026415844
113	0xbf18694e	-0.5953568
114	0x3f218b8c	0.63103557
115	0x3edef42c	0.43545663
116	0x3f1aea1a	0.6051346
117	0x3f28340f	0.65704435
118	0xbeac8dd1	-0.33701947
119	0x3ea75faa	0.32690173
120	0xbe7df427	-0.24800168
121	0xbeeba585	-0.4602472
122	0x3f1bcc6f	0.60858816
123	0x3ec4e301	0.3845444
124	0x3e35f111	0.17767741
125	0xbf108c6c	-0.56464267
126	0x3f03f42d	0.5154446
127	0x3f07dbbc	0.53069663
128	0x3f0715b4	0.5276749
129	0x3f1b6951	0.60707575
130	0xbcf8d2e7	-0.030374004
131	0xbe666c20	-0.22502184
132	0xbed9f8e9	-0.42572716
133	0xbf1f894e	-0.62318885
134	0xbed2b648	-0.41154695
135	0xbf10bd42	-0.56538785
136	0xbf13ba97	-0.5770659
137	0xbf1d77ff	-0.61511225
138	0xbe07b822	-0.13253835
139	0xbe3bb66d	-0.18331309
140	0xbec26f15	-0.37975374
141	0xbf161a7c	-0.5863416
142	0xbd0aecd1	-0.033917252
143	0x3eef8c36	0.4678666
144	0x3eb77820	0.35833836
145	0xbe3c1a56	-0.18369421
146	0x3e97d807	0.29657003
147	0xbe87a087	-0.2648966
148	0xbf07e310	-0.53080845
149	0x3f2004bb	0.6250722
150	0xbf09e63d	-0.5386694
151	0xbe3dc410	-0.18531823
152	0x3f33211f	0.69972414
153	0x3ee6adb0	0.45054388
154	0x3e7a82b6	0.24463925
155	0xbf03b267	-0.51444095
156	0xbf0c702e	-0.5485867
157	0x3d92fa42	0.07176639
158	0xbd190fa4	-0.03736843
159	0x3ec7479b	0.38921818
160	0xbf1198ef	-0.56873983
161	0x3d262531	0.040562812
162	0x3f086b91	0.53289133
163	0xbdc460d2	-0.095887795
164	0x3e0b8182	0.13623622
165	0x3f287844	0.6580851
166	0xbea8a4ce	-0.32938236
167	0x3e2c6a60	0.16837454
168	0xbdd8cfc0	-0.105865
169	0xbe690be2	-0.22758439
170	0xbf20b6cc	-0.62778926
171	0x3e19f78e	0.15035841
172	0x3e4d4033	0.20044021
173	0x3e57cc80	0.21074104
174	0x3e7f7cc0	0.24949932
175	0xbe830c73	-0.25595436
176	0x3eb09461	0.34488204
177	0x3ea31ebc	0.31859386
178	0xbf1ccbaf	-0.61248296
179	0x3e7f9ad6	0.24961409
180	0x3d7d0388	0.061770946
181	0xbc90d286	-0.01767851
182	0xbe8260f7	-0.25464603
183	0xbdf6ecd5	-0.12056891
184	0xbecab130	-0.39588308
185	0x3f2937e6	0.6610092
186	0x3ee3d5bb	0.44499
187	0xbf0190a1	-0.5061131
188	0xbeeddfe3	-0.46459875
189	0xbeb3e94c	-0.3513893
190	0x3c1dbd72	0.009627687
191	0x3e4ea11d	0.20178647
192	0xbf30fc7b	-0.69135255
193	0x3dddb905	0.10826305
194	0x3f1d0dc6	0.6134914
195	0x3efeed6d	0.49790516
196	0x3ee90369	0.45510414
197	0x3e3b4ee0	0.18291807
198	0x3e19d797	0.15023647
199	0x3e0cf982	0.13767055
200	0xbf29e9af	-0.663722
201	0x3cfcd287	0.030862106
202	0xbec2cd55	-0.3804728
203	0x3eff39fa	0.4984892
204	0xbf040d4d	-0.51582795
205	0x3f0c0d41	0.54707724
206	0xbe4b2e72	-0.19841936
207	0xbdb4d22d	-0.0882915
208	0x3ecf9949	0.40546635
209	0x3f038d2a	0.51387274
210	0x3eb4ec35	0.35336462
211	0xbe964562	-0.2934981
212	0xbed8c7d4	-0.42339957
213	0x3f153862	0.5828916
214	0x3de54301	0.111944206
215	0x3e6926be	0.22768685
216	0xbdd173e7	-0.10227185
217	0x3ee0ed5e	0.43931097
218	0x3d8c30aa	0.068452194
219	0xbec2a8a9	-0.38019302
220	0xbe0d4aba	-0.13798037
221	0x3ebc0112	0.36719567
222	0x3e44a4f9	0.19203557
223	0xbf045476	-0.5169138
224	0x3eee405b	0.46533474
225	0xbcc907ef	-0.024539916
226	0xbe8c37cc	-0.2738632
227	0xbba03658	-0.004889291
228	0xbf2a8598	-0.666101
229	0x3f00b66d	0.5027836
230	0x3c467130	0.012111947
231	0xbe3020d7	-0.17200027
232	0xbe1ce1ba	-0.15320483
233	0x3c229291	0.0099226395
234	0x3e4d17c9	0.20028605
235	0xbf06c4f3	-0.5264427
236	0xbf174bc8	-0.5910001
237	0xbd03496f	-0.032052454
238	0xbdffdc8b	-0.12493237
239	0x3ef3fb43	0.47652635
240	0x3d6906b9	0.056891177
241	0x3eabc29f	0.33546922
242	0x3e94c98c	0.29060018
243	0xbf01e318	-0.5073714
244	0xbeb508fb	-0.35358414
245	0xbeb26c2e	-0.3484816
246	0xbeb79684	-0.35857022
247	0xbf1b281c	-0.6060808
248	0xbeb97459	-0.3622158
249	0xbf091bab	-0.5355784
250	0x3f28cac6	0.6593441
251	0x3f0faa2d	0.5611904
252	0xbd21731c	-0.039416417
253	0x3e81cb7c	0.2535056
254	0xbda0b5e5	-0.07847194
255	0xbd01046b	-0.031498354

actor.linears.0.weight f4 [128, 384]
0	0x3ce0fa41	0.02746308
1	0xbcbdaa2c	-0.023152433
2	0xbc984d50	-0.018591553
3	0x3cd54fa2	0.026038948
4	0x3b749ef3	0.0037326186
5	0xbd32bf2f	-0.043639358
6	0xbd0ba151	-0.03408939
7	0x3c572bb6	0.01313298
8	0x3c33d1d2	0.010975318
9	0x3b8cfc28	0.0043025203
10	0xbd5a8b56	-0.053355537
11	0xbd622a13	-0.055215906
12	0xbaa5e2f1	-0.0012656135
13	0xbd3b3821	-0.045707826
14	0xbc053d9b	-0.008132364
15	0x3d4a7f5f	0.049437877
16	0x3cd6954b	0.026194235
17	0xbccef700	-0.025264263
18	0x3cee166c	0.029063426
19	0xbd329b1e	-0.043604963
20	0x3c0e5c80	0.008689046
21	0xbcaadea0	-0.020858109
22	0x3d21f2f4	0.03953834
23	0x3bb4cd58	0.005517643
24	0x3d3d7e98	0.046263307
25	0x3c277929	0.010221758
26	0x3d13a4ff	0.036046024
27	0xbbc42d28	-0.0059868284
28	0xbd0aad1e	-0.033856504
29	0x3b086b95	0.0020816077
30	0x3b3d0f71	0.0028848315
31	0x3c0099b1	0.007849143
32	0x3cc8e019	0.02452092
33	0x3ce66fdf	0.028129516
34	0x3ce8933a	0.028390516
35	0x3cee0d5e	0.029059108
36	0x3a2396cf	0.0006240429
37	0x3c9fcbfc	0.019506447
38	0x3d12947d	0.03578614
39	0x3d0a6fc6	0.033798
40	0xbc61ab2d	-0.013773722
41	0x3c8496d9	0.016185211
42	0x3d05a9bf	0.032632586
43	0x3d1c6687	0.038183715
44	0x3cde1377	0.027108891
45	0xbb04ecb8	-0.0020282697
46	0x3c950a91	0.018193515
47	0xbcbe3fe5	-0.023223827
48	0xbc3e60d3	-0.011619764
49	0xbcf6eb8e	-0.030141618
50	0xbce225b0	-0.027605861
51	0x3c6aed44	0.014338795
52	0xbca51a93	-0.020154273
53	0x3b89a202	0.004200221
54	0xbc192382	-0.009346845
55	0x3d2d33d2	0.042285748
56	0xbcde3f66	-0.02712984
57	0x3d468fe4	0.04847707
58	0xbce93fa5	-0.02847273
59	0xbc5f438b	-0.013626943
60	0xbb27a760	-0.002558194
61	0xbca070de	-0.01958507
62	0x3d36d809	0.04463962
63	0x3cbdc176	0.023163538
64	0xbd392214	-0.045198515
65	0x3b85f56f	0.004088096
66	0x3b0d843e	0.0021593715
67	0x3d29c5e5	0.041448493
68	0xbd20fdbc	-0.03930448
69	0xbd4a2ef8	-0.0493612
70	0xbcddc5a5	-0.027071783
71	0x3d3e37e0	0.046440005
72	0x3b2ccc13	0.0026366755
73	0x3d24667d	0.040136803
74	0xbd22ac7c	-0.039715275
75	0xbd507d23	-0.05090059
76	0x3d4b0397	0.04956397
77	0xbcffd94d	-0.031231547
78	0x3d4656c3	0.048422586
79	0x3c4e5af4	0.012594927
80	0xbb9a68cb	-0.0047121993
81	0x3ca951f8	0.020668969
82	0x3d4acb0e	0.049510054
83	0xbd264ec9	-0.04060248
84	0xbd358b4a	-0.04432229
85	0xbccd7a44	-0.025082715
86	0x3b817d86	0.003951731
87	0xbcdbdcc0	-0.02683866
88	0x3ccbebe7	0.02489276
89	0xbd42a8fd	-0.04752444
90	0xbd2f757c	-0.04283665
91	0xbb1cefac	-0.0023946567
92	0xbd1272b5	-0.035753924
93	0xbc0f8d35	-0.008761694
94	0xbb63345e	-0.0034668664
95	0xbc5dc4a4	-0.013535652
96	0x3c57972e	0.013158603
97	0xbcac2082	-0.021011595
98	0x3d29dbc7	0.04146936
99	0x3c4d6f99	0.012538814
100	0x3d30aefb	0.043135624
101	0xbc6cbb7a	-0.014448995
102	0x3cbf3dd9	0.023344921
103	0x3d0cde5c	0.034391746
104	0xbcd6d9a1	-0.02622682
105	0xbd5153a8	-0.05110517
106	0x3d25f34b	0.040515225
107	0xbb69b3ce	-0.003566015
108	0x3b50f676	0.0031885183
109	0xbcb97f44	-0.022643693
110	0xba47dee8	-0.0007624463
111	0x3d123589	0.035695586
112	0x3cff6de0	0.031180322
113	0xbd2a5cba	-0.041592337
114	0x3c09e4cd	0.008416367
115	0xbd630eb2	-0.055433936
116	0x3cee5340	0.029092431
117	0x3d30c2bf	0.043154474
118	0x3c71ea0a	0.014765272
119	0x3d00a3fc	0.031406388
120	0x3d54ac9f	0.051922437
121	0x3aa716b7	0.0012747858
122	0xbd2e2942	-0.042519815
123	0x3cfbcb1b	0.030736497
124	0xbcb01213	-0.021492993
125	0x3cb14431	0.021638962
126	0x3d098cb4	0.03358145
127	0x3c0ffcda	0.008788312
128	0x3d125896	0.035729013
129	0xbc65df88	-0.014030345
130	0xbd54ca48	-0.051950723
131	0xbb313934	-0.0027042152
132	0xbd294b2d	-0.04133146
133	0x3d3a47a4	0.045478478
134	0x3cbf9588	0.023386732
135	0x3c9b5fb6	0.018966537
136	0xbd19b844	-0.037529245
137	0x3d00b4c2	0.031422384
138	0x3ce95fe7	0.028488113
139	0xbc0ec216	-0.008713266
140	0x3cf01102	0.029304985
141	0x3d0c27a5	0.034217495
142	0xbba13070	-0.0049191043
143	0xbd3ed87a	-0.046593167
144	0xbd323bec	-0.043514177
145	0xbc934098	-0.017975137
146	0xbc6cb261	-0.014446826
147	0x3d4799ff	0.048730846
148	0xbb98ecf8	-0.0046669208
149	0x3d0db872	0.03459973
150	0x3d0f9a62	0.03505934
151	0x3d063b19	0.032771204
152	0x3ce05b57	0.027387304
153	0xbc8682e2	-0.016419832
154	0xbd002bd8	-0.031291813
155	0x3d00b4f2	0.031422563
156	0x3d441060	0.04786718
157	0x3d11742f	0.035511192
158	0x3c4fcd7f	0.012683271
159	0x3c006502	0.007836582
160	0xbc61e08b	-0.013786445
161	0x3d414a89	0.047190223
162	0xbce4637f	-0.027879475
163	0x3d430109	0.04760841
164	0x3d40914b	0.047013562
165	0xbc2bd7ea	-0.01048849
166	0xbd070850	-0.03296691
167	0x3d38dc8e	0.045132212
168	0x3d029a16	0.03188523
169	0xbd332a58	-0.043741554
170	0xbc988e49	-0.018622534
171	0xbcfac2ba	-0.030610431
172	0x3bd29061	0.0064259027
173	0xbd3c3b40	-0.045954943
174	0xbc5f6a37	-0.013636163
175	0xbd203fca	-0.039123334
176	0xbc7b6e02	-0.015346052
177	0x3d47a739	0.04874346
178	0x3b90953e	0.0044123223
179	0xbca74133	-0.020416832
180	0xbc51290b	-0.012766133
181	0xbd1afe8c	-0.03784041
182	0x3c535542	0.012898745
183	0x3ca4cbdc	0.020116739
184	0x3c870c5b	0.016485384
185	0xbd1d5b61	-0.038417224
186	0xbb884985	-0.004159155
187	0x3ca5721b	0.020196011
188	0xbc9cbcba	-0.01913296
189	0x3c48493c	0.012224492
190	0xbbbd8f2d	-0.00578489
191	0xbd3df754	-0.04637845
192	0xbc660d3a	-0.014041239
193	0x3d204914	0.039132193
194	0xbcd7a305	-0.026322851
195	0xbcd59958	-0.026074097
196	0x3d0e839b	0.034793478
197	0xbad953df	-0.0016580782
198	0x3d3adbbd	0.045619715
199	0x3cdf0847	0.027225627
200	0xb9a78ff9	-0.0003195999
201	0xbb9bd372	-0.004755431
202	0xbcbaa877	-0.022785408
203	0x3d28dff2	0.041229196
204	0x3d1d582f	0.038414177
205	0x3d2c893a	0.042123057
206	0xbcb6ea93	-0.02232865
207	0x3d36dc1e	0.044643514
208	0x3d2f9354	0.042865112
209	0x3c7ffe04	0.015624527
210	0xbd08d241	-0.03340364
211	0xbd42920e	-0.04750257
212	0xbc3a7312	-0.011379974
213	0xbd1e943c	-0.038715586
214	0x3c178c57	0.009249768
215	0xbc2923d7	-0.010323486
216	0xbcbbe48d	-0.02293613
217	0xbd3e112a	-0.046403088
218	0xbcb24f4c	-0.021766327
219	0xbbed5fae	-0.007244072
220	0x3c9d0034	0.019165136
221	0xbd544c09	-0.051830325
222	0xbcbbdb1a	-0.022931624
223	0xbb02e0fb	-0.0019970525
224	0xbd322232	-0.043489642
225	0xbcc756f6	-0.024333458
226	0xbd45ed31	-0.048321906
227	0x3c9d09c5	0.019169698
228	0x3cae75b1	0.021296354
229	0xbc8175a4	-0.015803166
230	0xbcd8d827	-0.026470257
231	0x3cbacf21	0.022803845
232	0xbc31e376	-0.010857454
233	0xbd475aea	-0.048670687
234	0xbce452d2	-0.027871523
235	0x3d073420	0.033008695
236	0x3a984545	0.0011617324
237	0x3bac5af9	0.005259868
238	0x3d417542	0.047230966
239	0x3d14a760	0.036292434
240	0xbae1468f	-0.0017187166
241	0x3d25dbb6	0.040492736
242	0x3d2e5f95	0.042571623
243	0x3c278f4e	0.010227038
244	0xbca6ba4d	-0.020352507
245	0x3d41a1d8	0.047273487
246	0xbccfe740	-0.025378823
247	0x3d226093	0.03964288
248	0xbc879796	-0.016551774
249	0x3c9c32d7	0.019067211
250	0xbd4e4275	-0.050356347
251	0xbd39215b	-0.045197826
252	0x3c56e9a2	0.013117226
253	0xbd35276e	-0.044227056
254	0x3d20433d	0.039126623
255	0xbcfece3f	-0.031104205

actor.linears.0.bias f4 [128]
0	0xbd13daca	-0.036097325
1	0x3d50c569	0.050969515
2	0x3c8f677c	0.0175054
3	0xbd3482b4	-0.04406996
4	0x3cf1c663	0.029513543
5	0x3d5f1903	0.054467212
6	0x3d042495	0.03226145
7	0x3cd5947b	0.026071778
8	0x3c3328ad	0.010934991
9	0xbb8e7cd1	-0.0043483754
10	0xbce243fa	-0.027620304
11	0x3c9b3bbc	0.018949382
12	0x3c5be2eb	0.013420801
13	0x3c079895	0.0082761245
14	0xbce71e1f	-0.028212605
15	0xbc941b64	-0.018079467
16	0xbccbea81	-0.024892094
17	0xbd15efad	-0.036605526
18	0x3d04ef47	0.032454755
19	0xbc03d0ff	-0.008045434
20	0x3c6cb910	0.014448419
21	0x3c106222	0.008812459
22	0x3c650930	0.013979241
23	0xbce4ca20	-0.027928412
24	0x3d590540	0.052983522
25	0xbcbf7936	-0.023373228
26	0x3cbee7d4	0.023303904
27	0xbc5a8998	-0.013338469
28	0x3c234a95	0.009966512
29	0xbc1dbb53	-0.009627181
30	0xbcdd0352	-0.026979122
31	0x3acb696f	0.0015519093
32	0xbbded77e	-0.006800591
33	0xbb9e1abb	-0.004824964
34	0xbcd94ae3	-0.026524967
35	0xb80dabad	-3.3776905e-05
36	0x3c8d3927	0.017239166
37	0x3cb4397f	0.022000073
38	0xbc9f0191	-0.019409927
39	0x3d1682a5	0.036745686
40	0xbcff6109	-0.0311742
41	0xbc2d6b69	-0.010584691
42	0x3c4961dc	0.012291398
43	0xbcf88bac	-0.030340038
44	0x3cf4f761	0.029903116
45	0xbcd98f8a	-0.026557703
46	0xbce448e0	-0.02786678
47	0x3cc49311	0.023995908
48	0xbccb514c	-0.024819039
49	0x3ceb90b2	0.02875552
50	0x3b5ac8b0	0.003338378
51	0x3c618234	0.013763953
52	0xbc93ef8e	-0.018058565
53	0xbc3a5745	-0.011373346
54	0x3cb47923	0.022030419
55	0xbd1e6c6e	-0.038677625
56	0xbd3dc4ca	-0.04633025
57	0x3d0130c7	0.03154066
58	0x3d0f9e22	0.035062917
59	0xbc9133d2	-0.017724905
60	0xbd1d6c15	-0.038433153
61	0x3d15e4d8	0.036595196
62	0x3d47f7de	0.04882037
63	0xbb85e900	-0.0040866137
64	0x3d4e7139	0.050400946
65	0xbce41e2f	-0.027846424
66	0xbd22e924	-0.03977312
67	0x3c747675	0.0149208205
68	0xbd1f04a3	-0.03882278
69	0xbce90830	-0.028446287
70	0xbbf3b3e4	-0.007437216
71	0xbd07b133	-0.033127975
72	0xbd0de126	-0.034638546
73	0xbbb79f7f	-0.00560373
74	0xbca897e7	-0.020580245
75	0xbcf057b4	-0.029338695
76	0x3af59afa	0.0018738203
77	0xbd126647	-0.03574207
78	0x3c446c12	0.011988657
79	0x3c6095e2	0.01370761
80	0x3ce34da0	0.027746975
81	0x3bedeb3a	0.007260707
82	0xbd249e9c	-0.040190324
83	0xbbcc1dd5	-0.006229142
84	0xbd4184f2	-0.047245927
85	0x3d3abbca	0.045589246
86	0x3cedf722	0.029048506
87	0xbc06ca56	-0.008226952
88	0x3d1730a5	0.036911625
89	0xbbc19aaf	-0.0059083323
90	0xbd03a939	-0.032143805
91	0xbc8565b4	-0.016283847
92	0xbd324eb9	-0.043532107
93	0xba9480b7	-0.0011329864
94	0x3d36a2cc	0.04458885
95	0x3d4cc93c	0.0499966
96	0xbc0fd608	-0.008779056
97	0xbbd14ae0	-0.0063870996
98	0xbd16add5	-0.036786873
99	0xbd499718	-0.04921636
100	0x3cf8b282	0.030358557
101	0xbcb1a5cf	-0.021685509
102	0x3bac41ab	0.0052568517
103	0xbcf49eb0	-0.029860824
104	0xbd4cdb55	-0.05001386
105	0xbd2eb184	-0.04264976
106	0xbc75b2c0	-0.014996231
107	0x3c88e88d	0.016712451
108	0x3d18eb45	0.037333746
109	0x3c78011c	0.015136983
110	0x3d3afade	0.0456494
111	0x3c906046	0.017624032
112	0xbd36c54b	-0.044621747
113	0xbd5e9ae6	-0.05434694
114	0xbd2e7666	-0.042593382
115	0xbcb09bfa	-0.02155875
116	0xbabbaec1	-0.0014319048
117	0xbc2d37ff	-0.010572433
118	0x3ce98790	0.028507024
119	0xbd391045	-0.04518153
120	0x3cca44ff	0.024691103
121	0xbd2168d6	-0.03940662
122	0x3ad81bd2	0.0016487783
123	0xbcf47f54	-0.029845871
124	0x3d1a0dd6	0.03761085
125	0x3cb158df	0.021648822
126	0xbc8e9a3a	-0.017407525
127	0x3c0e4a95	0.008684774

actor.linears.1.weight f4 [128, 128]
0	0xbd2e8a2b	-0.042612236
1	0xbd0140c2	-0.0315559
2	0x3c694c51	0.014239387
3	0x3db25b74	0.087088495
4	0xbdb9c4fe	-0.090707764
5	0xbd7aab8b	-0.061198752
6	0xbb215e5c	-0.0024622893
7	0x3d2360ad	0.03988712
8	0x3da56fd7	0.080779724
9	0x3da7d1de	0.08194326
10	0x3d1fe58f	0.039037284
11	0x3d14758e	0.03624492
12	0xbd74a370	-0.05972618
13	0xbd67e868	-0.056618124
14	0xbd4ff972	-0.050775
15	0x3cb03fd4	0.02151481
16	0xbd164ddf	-0.036695357
17	0x3db1bd9f	0.086787455
18	0xbd40ae35	-0.047041137
19	0x3b84dad7	0.004054408
20	0xbd9c2d58	-0.07625836
21	0xbd29dc34	-0.041469768
22	0x3d922e34	0.07137719
23	0xbd98919c	-0.07449648
24	0x3d8eb9bf	0.06969022
25	0x3c845e90	0.016158372
26	0xbc9b7213	-0.018975293
27	0xbca53528	-0.020166948
28	0x3c4ea928	0.012613572
29	0xbd587c8a	-0.052853145
30	0xbc6d7608	-0.014493473
31	0xbc8140a8	-0.0157779
32	0xbd30d7c1	-0.04317451
33	0xbd041cbb	-0.032253962
34	0xbd894893	-0.067032956
35	0xbdb65df3	-0.08904638
36	0xbc9c24aa	-0.019060452
37	0x3d948680	0.07252216
38	0xbda312b1	-0.079625495
39	0x3c025f32	0.007957267
40	0xbdac76de	-0.084211096
41	0x3b092039	0.0020923747
42	0xbd8e9548	-0.06962067
43	0xbd070035	-0.03295918
44	0xbd8331ad	-0.06405959
45	0xbbc9f3d5	-0.0061631002
46	0x3c2e99b8	0.010656767
47	0xbd4c419e	-0.049867265
48	0x3b961ede	0.0045813164
49	0x3c89b721	0.016810955
50	0x3bfd698b	0.007733529
51	0x3d5eb1c6	0.054368757
52	0xbd9ef918	-0.077623546
53	0x3d3cd5ce	0.046102338
54	0x3cd20376	0.025636416
55	0xbd2b9f1d	-0.04189979
56	0xbb220f0e	-0.0024728212
57	0x3bfc73cf	0.007704235
58	0x3d980973	0.07423677
59	0xbd850d2e	-0.064966545
60	0xbd7c08ae	-0.061531715
61	0x3da08fdb	0.07839938
62	0xbbb3f5a8	-0.005491931
63	0xbda283ac	-0.07935271
64	0xbd44617b	-0.047944527
65	0xbc033621	-0.008008511
66	0xbdad6bfa	-0.084678605
67	0xbd82d4c6	-0.063882396
68	0xbcca6605	-0.02470685
69	0x3cbe61a5	0.02323992
70	0xbd1243c8	-0.035709172
71	0xbc8f4fa2	-0.017494027
72	0xbd5a93d8	-0.05336365
73	0x3d4c58f8	0.049889535
74	0x3d67a783	0.056556236
75	0xbd1399de	-0.03603541
76	0xb860eb06	-5.3624644e-05
77	0x3c948abb	0.018132558
78	0xbd293f70	-0.041320264
79	0xbd2864b4	-0.041111663
80	0x3d90d7e0	0.07072425
81	0xbd2792bb	-0.040911417
82	0xbd699d37	-0.057034697
83	0x3dafc66e	0.08582769
84	0x3da20f52	0.07913078
85	0x3d2c6e0d	0.04209714
86	0x3d692b4d	0.05692606
87	0xbd1f45b4	-0.038884833
88	0xbd9fa543	-0.07795193
89	0x3d7609f1	0.060068075
90	0xbab6318e	-0.0013900266
91	0xbc2f31ec	-0.010693055
92	0x3d6129b4	0.05497141
93	0x3da91281	0.082554825
94	0xbd849295	-0.06473271
95	0x3c68f130	0.01421766
96	0xbdb07e34	-0.08617821
97	0x3cfed1a0	0.031105816
98	0x3daaf23b	0.08346983
99	0x3cf15cfd	0.029463286
100	0x3db8a34c	0.090155214
101	0x3d834873	0.06410303
102	0x3d8b0c0c	0.06789407
103	0x3d23229e	0.039827935
104	0x3da76bde	0.08174871
105	0xbd0d815e	-0.034547202
106	0xbd37d39f	-0.044879552
107	0x3c1f4d95	0.009723087
108	0x3cbd12a5	0.02308018
109	0x3b877cb2	0.004134738
110	0x3d823ab5	0.06358854
111	0x3d75400f	0.059875544
112	0x3d89fe1b	0.0673792
113	0x3c5aa6f9	0.013345473
114	0x3d49af85	0.049239654
115	0xbd5756d1	-0.05257303
116	0x3d6c76d3	0.057730507
117	0x3caf0a89	0.021367328
118	0x3d19762e	0.03746622
119	0xbda17423	-0.078834794
120	0xbcac73c8	-0.021051303
121	0x3d81678f	0.0631858
122	0x3d859603	0.06522753
123	0xbd759ceb	-0.0599641
124	0x3d85af07	0.065275244
125	0x3da61029	0.08108551
126	0x3d70dd0f	0.058804568
127	0x3d9da27c	0.07697007
128	0x3ae97dc4	0.001781397
129	0x3b91b548	0.0044466592
130	0xbda1ef95	-0.07907025
131	0x3da40bea	0.08010085
132	0x3d277680	0.040884495
133	0xbca94f3e	-0.020667668
134	0xbc3d524a	-0.011555264
135	0xbd9785b6	-0.0739855
136	0x3dadd5cb	0.084880434
137	0x3d842537	0.06452411
138	0xbd2b419b	-0.041810613
139	0x3d456693	0.048193526
140	0xbd91605a	-0.07098456
141	0x3da1555d	0.0787761
142	0xba006420	-0.0004897732
143	0xbd17ebc2	-0.03709007
144	0x3d2687ec	0.04065697
145	0x3d16ff07	0.036864307
146	0xbc9ac8be	-0.01889455
147	0xbb07f8cf	-0.0020747667
148	0x3a7abc74	0.0009564825
149	0x3d21e772	0.039527364
150	0xbd81704e	-0.063202485
151	0x3d536667	0.05161133
152	0x3cbfd63a	0.02341758
153	0xbc16412f	-0.009170814
154	0x3c1c77ca	0.009550044
155	0x3d3a497f	0.045480248
156	0xbcea6736	-0.028613668
157	0x3d5daddd	0.054120887
158	0xbbf5baae	-0.0074990606
159	0x3cb69b35	0.022290805
160	0x3da2fb76	0.079581186
161	0x3d5922ad	0.053011585
162	0xbda51018	-0.0805971
163	0xbc0c79ab	-0.00857393
164	0x3c9d1b3b	0.019178024
165	0x3da378f4	0.07982054
166	0xbd076693	-0.033056807
167	0x3c60dd65	0.01372466
168	0xbd2e7ca9	-0.042599354
169	0x3c342070	0.010994062
170	0xbcb10892	-0.021610532
171	0xbd57d7a1	-0.052695874
172	0x3c89cd4f	0.016821532
173	0x3d75dbc3	0.060024034
174	0xbd174cfb	-0.03693865
175	0xbda40410	-0.08008587
176	0xbd90f9cf	-0.07078897
177	0xbc9f08c2	-0.019413356
178	0xbcc37002	-0.02385712
179	0xbd98784d	-0.074448206
180	0x3da6bca1	0.08141447
181	0x3d8d2a8d	0.068928815
182	0xbd46f966	-0.04857769
183	0x3d4a0dbf	0.049329516
184	0x3d57a0ec	0.0526437
185	0x3d579eb5	0.05264159
186	0x3d664e35	0.056226928
187	0xbc761549	-0.015019723
188	0xbb0a1c0a	-0.0021073841
189	0x3ce7bc49	0.028288024
190	0xbcfb7769	-0.030696588
191	0x3d2a52bb	0.041582804
192	0xbb8e3b1f	-0.004340544
193	0x3d54685a	0.05185733
194	0x3d168392	0.03674657
195	0xbd870059	-0.06591863
196	0xbd07cb60	-0.033152938
197	0x3d96fec6	0.07372813
198	0xbc14463f	-0.009049951
199	0xbbb2ae28	-0.00545289
200	0xbc1a4ffe	-0.009418486
201	0xbd4fa0a7	-0.05069032
202	0x3c3cf6df	0.011533468
203	0xbda6ea67	-0.081501774
204	0xbcf5b1cc	-0.029992007
205	0x3d94be17	0.07262819
206	0xbd623d48	-0.055234224
207	0xbb2a2bae	-0.0025965977
208	0x3d24d34b	0.040240567
209	0xbc56e571	-0.0131162265
210	0xbd8d502f	-0.069000594
211	0x3c32422e	0.010880036
212	0x3c1e76fd	0.009671924
213	0x3d9ecb81	0.07753659
214	0x3c2c383b	0.010511453
215	0xbd84717e	-0.064669594
216	0xbdad4d8e	-0.08462058
217	0xbd576fe6	-0.05259695
218	0x3bdc34cb	0.0067201606
219	0x3d499050	0.049209893
220	0xbd4a1e95	-0.04934557
221	0x3d35c1c2	0.044374235
222	0xbdbc8cad	-0.09206519
223	0xbd709f80	-0.05874586
224	0xbd54fa37	-0.051996436
225	0x3c63dbd0	0.013907388
226	0x3d949499	0.07254905
227	0xbd8715e8	-0.06595975
228	0x3d042b93	0.032268118
229	0xbd88f019	-0.0668642
230	0xbdb66670	-0.08906257
231	0x3da9f3b2	0.08298434
232	0xbda34404	-0.07971957
233	0xbd15531b	-0.03645621
234	0x3d9403b5	0.072272696
235	0xbc1b3c7a	-0.009474868
236	0x3d33b2a3	0.043871533
237	0xbd763095	-0.060104925
238	0x3d244acd	0.040110398
239	0x3da5c38e	0.0809394
240	0x3d03828c	0.03210692
241	0x3daf6f35	0.08566133
242	0x388de200	6.7655e-05
243	0x3d1b010c	0.037842795
244	0x3d80c190	0.06286919
245	0xbdb8f498	-0.090310276
246	0x3cbb5459	0.022867369
247	0x3d1866e6	0.037207507
248	0xbc4f87e4	-0.012666676
249	0xbd2206d1	-0.039557282
250	0xbc0ae1ca	-0.008476684
251	0x3d426af5	0.047465283
252	0x3ad41da9	0.0016183156
253	0xbda6c208	-0.08142477
254	0x3c542c43	0.012950006
255	0x3d83e83c	0.064407796

actor.linears.1.bias f4 [128]
0	0x3cf1c21d	0.029511506
1	0x3cfd6149	0.030930178
2	0xbc1b20ba	-0.009468252
3	0x3d8203d8	0.063483894
4	0xbce70c1e	-0.02820402
5	0xbd69435d	-0.05694901
6	0x3d97bc7b	0.07408997
7	0xbc89fa61	-0.016843023
8	0xbc1f230c	-0.009712946
9	0x3db8783b	0.09007307
10	0x3c8b957f	0.017039059
11	0xbb2ea3d3	-0.002664794
12	0xbd778d54	-0.060437515
13	0xbd851d21	-0.064996965
14	0x3d8fba44	0.07017949
15	0xbce44935	-0.02786694
16	0xbd80e7ca	-0.0629421
17	0xbd4550a6	-0.048172615
18	0xbc69ba96	-0.014265677
19	0xbcbcdc90	-0.023054391
20	0xbd63efc8	-0.055648595
21	0xbda5a641	-0.08088351
22	0xbd61bf56	-0.055114113
23	0xbaa83eb7	-0.0012836073
24	0xbd21c7cf	-0.039497193
25	0x3c58eb02	0.013239624
26	0xbd63f6aa	-0.05565516
27	0xbd9b6209	-0.07587058
28	0xbb1ef15e	-0.0024252753
29	0xbd5b115e	-0.05348336
30	0xbd1276bd	-0.03575777
31	0x39f6e2f8	0.0004708988
32	0xbca6d335	-0.020364383
33	0x3c5ec9db	0.013597931
34	0x3d49784d	0.049186993
35	0x3d55c1d0	0.052186787
36	0x3d95bb37	0.07311099
37	0xbd706242	-0.058687456
38	0xbc58d559	-0.01323446
39	0x3cd66eea	0.026175935
40	0xbd5ab4b7	-0.053395
41	0x3d747801	0.059684757
42	0x3d0473f2	0.032337137
43	0xbd81fc25	-0.06346921
44	0x3c4d6a4e	0.012537552
45	0xbd820000	-0.06347656
46	0xbcf8e716	-0.030383628
47	0x3d76c425	0.06024565
48	0xbd909ff5	-0.070617594
49	0x3cd8c2d6	0.026460093
50	0xbd072a93	-0.032999586
51	0xbd83029e	-0.063969836
52	0xbda5ea55	-0.08101336
53	0xbc663f41	-0.014053167
54	0x3d69ec9b	0.05711041
55	0xbc9a687e	-0.018848654
56	0xbdac6a2a	-0.08418687
57	0xbd20b7c9	-0.03923777
58	0x3d3bf8d8	0.045891613
59	0xbcd4788f	-0.025936393
60	0xbd03ea06	-0.032205604
61	0x3d9283e1	0.0715406
62	0x3d09d8de	0.033654086
63	0x3d78ee55	0.060774166
64	0xbc1404f2	-0.009034382
65	0x3d3db2bd	0.046313036
66	0xbd8a3106	-0.06747632
67	0xbd8558a4	-0.065110475
68	0xbd8318d5	-0.06401221
69	0xbc6f2fc8	-0.014598794
70	0x3da8b183	0.08236983
71	0xbbf23fae	-0.007392845
72	0x3cbfc73e	0.023410436
73	0x3da47c78	0.08031553
74	0xbceec42f	-0.029146282
75	0xbd25ec52	-0.040508576
76	0xbd67aedd	-0.056563247
77	0x3d7c3955	0.061578114
78	0x3d684024	0.056701794
79	0xbd825bc6	-0.06365161
80	0x3d5bf046	0.05369594
81	0x3d8d6931	0.06904829
82	0xbbd0389f	-0.006354406
83	0xbdb2f3e9	-0.087379284
84	0x3d5ea7b9	0.05435917
85	0xbcaa3d2c	-0.020781122
86	0x3d4c28b4	0.049843505
87	0xbd95baed	-0.07311044
88	0xbd4d61bb	-0.05014203
89	0x3da1b2a0	0.07895398
90	0x3da4a39e	0.0803902
91	0x3da6636a	0.081244305
92	0x3d3ccbeb	0.04609291
93	0x3d7aec9a	0.061260797
94	0xbb783b85	-0.0037877273
95	0x3d32be8d	0.043638755
96	0x3c814c3c	0.015783422
97	0x3ce2fafe	0.027707573
98	0x3d1a8ebd	0.037733782
99	0xbd9e8cb0	-0.07741678
100	0xbd50b674	-0.05095525
101	0xbd8ad02c	-0.06777987
102	0xbd8c92fe	-0.06863974
103	0xbb87079b	-0.0041207797
104	0x39ac2969	0.0003283725
105	0xbd809166	-0.062777326
106	0x3d9b7925	0.07591466
107	0x3d8689dc	0.06569263
108	0x3d49d472	0.04927487
109	0xbd844758	-0.0645892
110	0x3c93a84b	0.018024584
111	0x3ce07861	0.027401151
112	0xbda5e4b1	-0.0810026
113	0xbda832cf	-0.08212816
114	0x3d3209a2	0.043466218
115	0xba4f3178	-0.0007903795
116	0x3d81fe6c	0.06347355
117	0x3d1fb5f9	0.038991902
118	0xbc949fa9	-0.018142538
119	0x3d9508c9	0.07277066
120	0x3d9c98c9	0.07646329
121	0xbda1c526	-0.07898931
122	0xbd9cb478	-0.07651609
123	0x3cf3ddee	0.02976891
124	0x3d625b4e	0.055262856
125	0x3dad301f	0.08456444
126	0xbccc2f88	-0.024925008
127	0x3d96545c	0.07340309
