FJSP_MultiPPO/saved_network/FJSP_J10M10/best_value55/policy_job.pth (torch_old, 637433 bytes, 53 tensors)

_input f4 [128]
000000 b3 2c 0d bf 3e 8f 51 3f 53 db be be 23 1e f1 3d
       -0.5514633 0.81859195 -0.37276706 0.11773326
000010 9d 2d aa be 93 5f b6 3e c5 53 0c 3f ca 43 0e bf
       -0.33237925 0.35619792 0.5481532 -0.5557219
000020 cd bb f0 bd d1 c9 1f 3e 52 41 5c bf c8 8f 35 bf
       -0.1175457 0.1560433 -0.8603717 -0.7092252
000030 5f 60 1d bf 91 3d 7f bd bb ba 1c 3f 85 a8 c5 3e
       -0.61475176 -0.062314574 0.6122243 0.38605133
000040 26 9b c7 3e 34 49 7e 3f 4d 22 5c bf b7 5d 57 3f
       0.38985556 0.9933045 -0.8598984 0.8412737
000050 ba 5d 7e 3f d2 25 1d bd da e1 22 bf 61 b0 bf 3e
       0.99361765 -0.038366146 -0.6362587 0.37439254
000060 78 ef 19 bf f7 5b 2b bf 38 fd eb 3e ec 19 c9 3e
       -0.60131025 -0.669372 0.46091628 0.3927759
000070 1f 87 80 3f 3c 23 6c bd 8b f9 42 bf da c8 75 be
       1.0041236 -0.05765079 -0.7616202 -0.240024
000080 c5 69 19 3e 43 21 f5 be f7 d1 ea be ee c4 9b bd
       0.14981754 -0.4787694 -0.45863315 -0.07605921
000090 40 e3 75 3f e4 9f 40 bf bd ee 19 3f bc 72 36 3f
       0.9604988 -0.75243974 0.6012991 0.7126882
0000a0 de 98 08 bf 9b 34 08 bf 20 da 5c bf cd 97 f9 3e
       -0.53358257 -0.5320527 -0.8627033 0.48748627
0000b0 b1 43 49 3f 86 23 70 bf 8c a5 b3 be be e2 d5 3e
       0.78618914 -0.93804204 -0.3508724 0.41774553
0000c0 2c 63 05 3d 54 20 fe be 7a 64 7a 3f c6 20 6f 3e
       0.03256528 -0.4963404 0.97809565 0.23352346
0000d0 4d fb 5b 3f 7d e4 4a 3d 4c 8d d6 3e 91 cd 11 bf
       0.8593033 0.04953431 0.41904676 -0.56954294
0000e0 a1 c7 04 3e fa f6 67 3f d0 ed 63 be d3 54 6b bf
       0.12966777 0.9061123 -0.22258687 -0.91926306
0000f0 0e 66 68 3f 32 dc be be 38 71 30 3e 58 bc 24 bf
       0.90780723 -0.3727737 0.1723069 -0.6434989
000100 dd fc 3b 3f d2 91 72 bf 77 11 da be be f6 a4 be
       0.73432714 -0.94753754 -0.4259145 -0.322195
000110 13 1a 07 bc aa 4b a5 3e d3 f0 41 bf 2a 36 08 be
       -0.008245963 0.3228429 -0.75758094 -0.13301912
000120 36 a5 18 3e 63 d4 3d be 40 4c 67 3f 32 44 69 3f
       0.14906773 -0.1853805 0.90350723 0.9111968
000130 88 60 22 3f 36 8a 4c 3f 04 d8 3c bf ed 75 eb bc
       0.63428545 0.79898393 -0.73767114 -0.028742755
000140 5e 5c 32 3e 60 65 1b 3f 34 60 20 bf 72 de 9c be
       0.17418048 0.6070156 -0.62646794 -0.30638462
000150 3b b6 d0 bd df 72 00 bf 64 c8 7f 3f 88 6c 09 be
       -0.10191008 -0.5017528 0.99915147 -0.13420308
000160 c9 23 f3 be ce 48 42 3f 15 88 65 bf e3 89 e8 3d
       -0.4748824 0.7589234 -0.8966077 0.11354425
000170 92 cb 0e 3f b2 86 0c 3f d1 6c 56 3f 77 13 72 bd
       0.55779374 0.5489303 0.8375979 -0.059100594
000180 75 bb 56 bf 47 43 0b be 3c b5 47 3e 0b 56 00 3f
       -0.83879787 -0.13599883 0.19502729 0.5013129
000190 13 7d 89 be 05 f2 33 3f 2d c7 51 bf e5 6b 76 3f
       -0.26853237 0.7029117 -0.81944543 0.96258384
0001a0 fa dd 01 3e 43 31 50 3f dd d5 45 3f b9 07 9d 3e
       0.12682334 0.8132517 0.77279454 0.30669954
0001b0 22 89 ce be e4 f1 56 be f5 89 67 bf c9 7c 41 bf
       -0.40339 -0.20990711 -0.9044488 -0.7558103
0001c0 e8 a1 51 3f 6f cf b9 be e1 64 66 bf 27 a6 45 bf
       0.81887674 -0.36291072 -0.8999768 -0.77206653
0001d0 e3 61 46 bf a7 a0 d5 be 68 a8 2f bf 19 c0 00 bf
       -0.77493113 -0.4172413 -0.6861634 -0.5029312
0001e0 89 c5 5a be 0d ef ed be 45 98 8c bd 04 a6 0f 3f
       -0.21364416 -0.46471444 -0.068649806 0.56112695
0001f0 3e 8b 7a 3f 47 61 1c be c7 20 04 bf 2e 80 74 bf
       0.97868717 -0.15271483 -0.51612514 -0.95508087

bn.weight f4 [2]
000000 00 00 80 3f 00 00 80 3f
       1.0 1.0

bn.bias f4 [2]
000000 00 00 00 00 00 00 00 00
       0.0 0.0

bn.running_mean f4 [2]
000000 00 00 00 00 00 00 00 00
       0.0 0.0

bn.running_var f4 [2]
000000 00 00 80 3f 00 00 80 3f
       1.0 1.0

encoder.feature_extract.mlps.0.linears.0.weight f4 [128, 2]
000000 16 76 09 bf 9a ae 94 be 2e 27 0d bc ef 04 88 be
       -0.5369581 -0.2903946 -0.008615298 -0.26566264
000010 09 e3 bb 3d bc 95 27 bf 32 27 23 3f 1f c1 25 3e
       0.09174163 -0.6546285 0.6373168 0.16186951
000020 d8 65 09 bf 64 76 09 3e 7f 73 bf be 43 cd b3 bd
       -0.53671026 0.13424069 -0.37392804 -0.08779385
000030 12 42 c1 3c 5b f0 23 3f 71 71 11 be bf 1c 08 3f
       0.023591075 0.6403863 -0.1420343 0.53168863
000040 6b 7e a9 3e 75 29 18 3f b0 12 de 3e 9d 6f eb bd
       0.33104262 0.5943826 0.43373632 -0.11495898
000050 1c e4 dc be cd 57 df bd 6d b1 a2 3d 85 8e d4 bd
       -0.43142784 -0.109054185 0.079439975 -0.10378746
000060 5d a7 51 3e d1 3f 72 3e 52 5c e0 3d a1 de 2e 3f
       0.20474 0.23657157 0.10955109 0.68308455
000070 9a 67 7e 3e 2d db 15 be ac da 09 3f b1 14 45 be
       0.24844208 -0.1463439 0.5384929 -0.19246174
000080 af a5 a5 3e 89 21 0f bf 33 b4 3e be b9 d8 1a bf
       0.3235297 -0.55910546 -0.18623428 -0.6048694
000090 f0 60 7e be a2 58 f5 3e a5 81 12 bf dd 72 2e bf
       -0.24841666 0.47919184 -0.5722907 -0.6814402
0000a0 4d 56 83 be 85 ac 0e 3e d8 55 85 3e cc ef fc 3d
       -0.2565178 0.13932998 0.26042056 0.12350425
0000b0 4b 17 d7 be 5d 71 7f 3b 99 7f c9 be 5a 82 2f 3d
       -0.4200996 0.0038977482 -0.39355162 0.042848922
0000c0 6f 95 c9 be 76 ac b2 3e c8 83 d0 be 42 75 2d be
       -0.3937182 0.34897202 -0.4072554 -0.16939262
0000d0 4e 83 17 3f 31 fb db 3d ff cc a3 be 08 40 84 3d
       0.5918473 0.1074127 -0.31992337 0.064575255
0000e0 aa 10 16 3f 80 72 ad 3d da 46 35 3f 18 e7 0f bf
       0.5861918 0.08469105 0.70811236 -0.56211996
0000f0 d8 cb 11 3f de 27 66 be d4 90 ef be 50 86 cf 3e
       0.56951666 -0.22476146 -0.46790183 0.4053216
000100 ca 6f b0 3e 51 bb ac 3c 7c d3 c0 be 47 19 b1 bd
       0.34460288 0.021085413 -0.3766135 -0.086473994
000110 7f d4 32 be 30 de 14 3f f9 2a 07 bf 39 c0 05 3f
       -0.17463873 0.5815153 -0.52799946 0.52246433
000120 72 06 0d 3f 60 8b 2f bf ff f9 f8 be fa 11 9c 3e
       0.5508796 -0.68572044 -0.48628232 0.30482465
000130 c2 ec 09 bf 92 08 b0 be ba cb 1c be f7 5e 35 3e
       -0.5387689 -0.3438154 -0.1531209 0.17712007
000140 9a 39 20 bf c6 5f e4 be ca 5a e9 be fe 40 8e 3e
       -0.62587893 -0.4460432 -0.4557708 0.2778396
000150 13 74 fa be 96 0e 2d bf 0d 17 9f be 98 f1 13 3f
       -0.48916683 -0.6760038 -0.31072274 0.5779052
000160 e2 a5 d8 be 3a 57 d6 be ef a8 2c 3e 79 d4 1d 3f
       -0.4231406 -0.41863424 0.16861318 0.6165233
000170 29 f3 0c 3f 06 30 13 bd 3e 60 db be 57 fe 24 be
       0.5505853 -0.03593447 -0.42846864 -0.16112648
000180 ef ee 0b 3e 46 31 d3 be 63 a8 b8 3e 40 1a 2f bf
       0.13665365 -0.4124853 0.3606597 -0.6839943
000190 fc ef d0 3e 13 74 b6 3e f8 6d a0 be 76 51 aa 3d
       0.40808094 0.35635433 -0.313339 0.08316319
0001a0 a0 1d 9b bd ae fa d6 be 45 29 ee 3e 97 43 d1 be
       -0.0757401 -0.41988128 0.4651586 -0.4087188
0001b0 38 b7 40 3e 78 3f c2 3e 01 31 be 3d d3 fa 19 3f
       0.18819892 0.37939048 0.092866905 0.6014835
0001c0 ce 04 8c 3b 94 83 b5 3c 49 00 03 bf 81 86 7a be
       0.0042730337 0.022157468 -0.5117231 -0.24465372
0001d0 81 f8 73 3e d6 ba 6c 3e aa b2 15 3f 34 95 06 bf
       0.23825265 0.23118147 0.58475745 -0.52571416
0001e0 f6 92 89 3e 51 63 76 3e d0 7a 42 bd 99 be 9d 3c
       0.26869935 0.24061324 -0.047480404 0.019255923
0001f0 26 85 79 3d 46 02 2b bf 86 7d aa 3e b3 1c 6a be
       0.060917996 -0.66800344 0.33298892 -0.2286251
000200 98 ea 66 3e b7 2c db be e9 33 58 bd d0 11 c5 be
       0.22550428 -0.42807552 -0.05278388 -0.38490152
000210 c9 b6 d9 bb 9e af 80 3d 66 3d b6 3e 37 3f 67 be
       -0.006644104 0.06283496 0.35593718 -0.22582708
000220 2a 2d 23 bf 00 6a ed 3e 15 4f f6 be db d1 11 3e
       -0.6374079 0.46369934 -0.4810721 0.1424021
000230 3b 3c e5 bc a1 b0 84 be 2e df 2e 3f 1b 55 1a be
       -0.027982822 -0.25916007 0.68309295 -0.15071528
000240 aa 2b 22 bf 38 7c 04 bf cc 9f 3a be 09 df eb 3e
       -0.63347876 -0.5175204 -0.1822502 0.460686
000250 ef e6 21 bf fe a4 02 bf 0d b2 d4 3d cb d1 15 bf
       -0.63243 -0.5103301 0.10385523 -0.58523244
000260 ce 99 18 3f 8b 1a c3 3e 05 0c 93 3d 58 3c 90 3e
       0.5960969 0.38106188 0.07180027 0.2817104
000270 79 ac cd 3e 3f 73 9d 3e 4a 37 d7 bd 46 db 96 be
       0.4017065 0.30751988 -0.105085924 -0.29464167
000280 84 ca dc bd 5e 6b c7 be 50 b0 93 bd fc 97 86 be
       -0.10780814 -0.38949102 -0.07211363 -0.2628783
000290 5d ab 87 3e 40 3b 30 bf a6 9e dd 3e b4 6f 15 bf
       0.26497927 -0.6884041 0.43285102 -0.5837357
0002a0 e7 81 a0 be a8 b1 1e bf 97 78 0b 3f db 76 d6 3d
       -0.31349108 -0.6198983 0.5448088 0.10471889
0002b0 7c e2 19 bf e8 07 b7 3d e3 45 f5 bd 88 a6 9a 3e
       -0.6011121 0.08937055 -0.119762205 0.30205178
0002c0 05 7a fb 3e f0 b5 ce 3e f8 c3 c2 be 3e 3e c6 be
       0.4911653 0.40373182 -0.38040137 -0.38719362
0002d0 17 05 61 3e 55 11 c3 3e ef 51 80 3e 2d 8d 1e bf
       0.21974598 0.3809916 0.2506251 -0.6193417
0002e0 72 7d 9f 3c c9 56 91 3c e0 ac 65 3d 0d 64 dc bd
       0.019468997 0.017741578 0.05607307 -0.10761271
0002f0 49 19 d8 3e d2 ca 83 3e 74 01 ec be e8 13 1f 3f
       0.4220679 0.25740677 -0.4609486 0.6213975
000300 6c 82 91 3e 87 77 d3 be 1a 6d ad be 56 84 1b 3f
       0.28419816 -0.4130213 -0.338723 0.60748804
000310 df 6a b3 be cd e5 ba 3e a5 bb bd be 85 92 9f 3d
       -0.35042474 0.3650345 -0.37057224 0.07791618
000320 e5 86 4a bd b1 99 27 bf f7 5a 54 be 8c b9 b7 be
       -0.04944505 -0.6546889 -0.20737825 -0.3588375
000330 14 6c d0 3d 0f 99 00 3f 7e c0 e2 3c 09 88 e9 be
       0.10176864 0.5023355 0.027679678 -0.456116
000340 88 ce 3f be b5 1c 0d bf 13 74 85 3e 71 2b a6 3e
       -0.18731129 -0.5512193 0.2606512 0.32455018
000350 fc a7 1c 3f e4 80 18 3f 2b aa 07 bf fc 2a eb be
       0.61193824 0.5957167 -0.5299403 -0.45931232
000360 8a 0f 10 3f 89 48 f7 3e e5 e0 87 3e d4 be 28 bf
       0.5627371 0.48297527 0.26538768 -0.6591618
000370 1a 84 a5 bd d3 30 1c 3f 30 dc 87 3e 1e fe ae be
       -0.08081837 0.61012 0.26535177 -0.3417825
000380 2c 61 e4 be 43 c5 2e 3f 22 66 c8 be 33 17 de 3e
       -0.44605386 0.6826975 -0.3914042 0.43377075
000390 02 19 da bc 1f 70 b4 3e 56 86 09 3f 62 ba ab bb
       -0.026623253 0.35241792 0.53720605 -0.0052407244
0003a0 a9 54 ca bd e6 be cd 3e 65 e1 29 bf d6 f4 b3 3e
       -0.09879429 0.40184706 -0.6635955 0.35147732
0003b0 94 1f 05 bf 04 49 b0 3e 38 b8 c3 3d cb 64 08 3f
       -0.5200131 0.34430707 0.09556621 0.532788
0003c0 86 d8 9f 3e e5 c4 2f 3f 2c 70 fc be 6e e1 c3 be
       0.31219882 0.6865981 -0.4930433 -0.38257927
0003d0 1d ea 29 3f 58 b4 e0 bd ff 9f 94 bd 71 e3 8f be
       0.66372854 -0.10971898 -0.07257079 -0.28103212
0003e0 de 36 24 3f ee f7 ce 3e e0 fb 90 be 87 c4 3e 3e
       0.6414622 0.4042353 -0.28317165 0.18629657
0003f0 19 99 26 bf 65 88 ca 3e d8 8c 9d bd 26 14 35 be
       -0.6507736 0.39557186 -0.076928794 -0.17683467

encoder.feature_extract.mlps.0.linears.0.bias f4 [128]
000000 ea 7a 33 3e 7b 07 53 3e 6e de 4b 3e 54 9b 04 bf
       0.17527357 0.20608322 0.19909069 -0.5179951
000010 27 d6 27 3e 82 66 ce be 3e 14 24 bd 0a 45 d2 be
       0.16390286 -0.40312582 -0.040058367 -0.41068298
000020 88 ab b9 3e ed bf 0b bc e2 60 86 3e c3 56 19 3e
       0.3626368 -0.008529645 0.2624579 0.14974503
000030 fd ea ff be a4 e1 90 bc 35 6f 0b ba 86 1e ab be
       -0.4998397 -0.017685719 -0.00053190003 -0.33421725
000040 01 d5 a7 3e 43 65 fb bd 3e 92 1e 3e 3e fe 55 3e
       0.32779697 -0.122751735 0.15485474 0.20897767
000050 b2 4c 96 bd 3a f2 21 3f 58 40 a8 3e 5c 7e 56 be
       -0.07338847 0.63260233 0.3286159 -0.2094664
000060 3c aa 5b be d3 e4 29 bf 3c 64 58 be 58 d0 0b bf
       -0.21451658 -0.66364783 -0.21131986 -0.5461478
000070 9c f0 20 bf a1 0a 1f 3e 8f 3c 08 be ba ba 21 3f
       -0.6286714 0.15531398 -0.13304351 0.6317555
000080 f4 40 ab be af 74 9d bc d2 ad 82 bd 40 1b cf 3e
       -0.33447993 -0.019220678 -0.0638081 0.40450478
000090 e9 a7 a1 3d 01 a2 db 3e a5 87 ff 3b 68 0d 83 3e
       0.078933544 0.42897037 0.0077981525 0.25596166
0000a0 91 6d 2d bf e3 98 07 bf bc fb 3c 3d 17 f7 12 bf
       -0.6774531 -0.5296766 0.04613851 -0.5740828
0000b0 79 2c b7 3e 1b ae 86 bd b6 b9 9e be b8 5b d8 3d
       0.35776117 -0.06576177 -0.3100106 0.10564369
0000c0 b4 94 d7 3d b9 c6 1f bf b2 cc fc 3e c7 fb 30 3f
       0.1052641 -0.624126 0.4937492 0.6913418
0000d0 d4 5e 4d 3d 08 c3 ef 3e 23 71 26 3f ee 83 10 be
       0.050139263 0.46828485 0.6501638 -0.14112827
0000e0 6d a9 1a bf 2c d7 26 bf 2d b1 46 be 0a 13 36 bf
       -0.60414773 -0.65172076 -0.19403525 -0.711228
0000f0 9f 50 0e 3f e6 11 b8 3e 58 06 e9 bb 41 f1 18 bf
       0.5559177 0.35951155 -0.007111352 -0.59743124
000100 10 21 a3 3e ea 87 43 be 24 a5 8b bb de 82 0d 3f
       0.31861162 -0.19094816 -0.0042616297 0.5527781
000110 ec 4b df 3e b7 07 21 bf bc b1 93 bc 63 2c 0b bf
       0.4361261 -0.62902397 -0.018029086 -0.54364604
000120 a4 3c b0 be 91 11 e4 3d 47 07 86 be 26 ce 83 3e
       -0.34421265 0.11136163 -0.26177427 0.25743216
000130 ab c9 8d 3e ff 50 4c be d2 26 31 3e c4 80 13 bf
       0.27692923 -0.19952773 0.17299965 -0.57618356
000140 2b 76 4e 3c 06 16 21 3f 20 a8 4a 3e 54 c0 ae be
       0.012601416 0.6292423 0.19790697 -0.3413111
000150 16 79 03 3d 88 e3 24 bf 3d d6 d6 be 05 39 26 3f
       0.0320979 -0.64409685 -0.41960326 0.64930755
000160 cb 51 51 be 2a 2e 00 3e ab d3 ab 3e f4 43 51 3e
       -0.20441358 0.1251761 0.33559927 0.20436078
000170 60 10 26 3f 64 4d e8 3d 13 26 97 3e ec 16 ee bd
       0.64868736 0.11342886 0.29521236 -0.11625466
000180 0d 47 30 3f 5c 0c 61 be 3a e6 31 3f 78 ed 12 bf
       0.68858415 -0.21977371 0.6949192 -0.573936
000190 d2 7a bd 3e 8b 99 ba 3e e6 5a 27 bf 0a eb ee be
       0.37007767 0.3644527 -0.65373075 -0.46663696
0001a0 47 0b 80 be 76 2a 64 3d 6f 13 e8 be b3 53 9f be
       -0.25008604 0.055704556 -0.45327327 -0.31118545
0001b0 42 83 10 be 02 8c e7 be 71 28 0e 3f 83 ce b6 3e
       -0.14112571 -0.45224005 0.5553046 0.3570443
0001c0 20 ac d9 3e 04 ea 06 3f 99 41 17 bf d6 3a 67 be
       0.42514133 0.5270083 -0.5908447 -0.22581038
0001d0 2a e6 f4 3e 09 44 3b 3d 07 82 33 3f ac 6d 2d bf
       0.4783185 0.04571918 0.7012028 -0.6774547
0001e0 9a e0 02 3f 61 88 0a bc bf ab 72 be 29 d4 16 3e
       0.51123965 -0.008455367 -0.23698328 0.1472937
0001f0 3a c0 06 bf 0b ca b1 3d 0b 2a f8 3e 2b 2f 00 be
       -0.52637064 0.08681115 0.48469576 -0.12517993

encoder.feature_extract.mlps.0.linears.1.weight f4 [128, 128]
000000 1b 99 20 3d d5 2f aa bc 86 12 ff bc 31 1d 20 bb
       0.039208513 -0.020774761 -0.031136762 -0.0024431462
000010 9c 82 71 bb 82 0d c6 ba 32 3a f8 3c 69 c6 58 3d
       -0.003685153 -0.0015110227 0.030301187 0.052923594
000020 c9 37 01 bc fc 39 36 3d 96 2a 3a 3d ea d5 b6 bc
       -0.007886835 0.044488892 0.04545077 -0.022318799
000030 18 8f 18 3c c7 8b a1 bc ba ef 80 bd 09 64 70 bd
       0.00931146 -0.019719971 -0.06295724 -0.05868915
000040 a6 53 b0 bd 30 b8 7b 3d b3 80 85 3d 27 e3 77 3d
       -0.08609705 0.06145495 0.06518688 0.060519364
000050 c9 45 6a 3d 25 0b 4e 3d 1a d2 08 3b ab ed 9b 3d
       0.05719546 0.050303597 0.0020877183 0.07613691
000060 bd fb 6d bd f8 13 9c bc be 89 76 bd a6 35 07 3d
       -0.058101404 -0.01905249 -0.060189955 0.033010148
000070 e6 b5 3d 3d 97 a5 a8 bb 33 93 e1 ba a1 11 1f bd
       0.04631605 -0.005146693 -0.0017210006 -0.03883517
000080 d5 db 69 3d 88 6a 7a 3c ef 63 cc bc a9 c0 90 3d
       0.057094414 0.015284188 -0.024949996 0.07067997
000090 ec 42 83 3d 90 e4 ce 3b 80 a9 b4 bd 48 aa fd 3c
       0.06409249 0.006313868 -0.08821392 0.030964985
0000a0 f7 4f 62 bd 7a 2c 30 3c 53 57 7e 3d 5c 66 31 bd
       -0.05525204 0.010752792 0.062094998 -0.043310508
0000b0 6a e8 f0 3c c2 b1 b8 3d 70 6c 43 3d e4 08 3a bc
       0.029407699 0.090182796 0.047710836 -0.011354659
0000c0 33 b3 da bc a0 b6 01 3c 0f c4 24 bd cd e2 e8 bc
       -0.026696777 0.007917076 -0.04022604 -0.02842846
0000d0 a7 3b 2e bd 99 af ab 3d 00 4a f5 bc ce ba df 3c
       -0.042537358 0.08383102 -0.029942513 0.027310755
0000e0 52 f8 45 bd 2c 52 af bd 32 d0 6b bd b4 0a b1 3d
       -0.04833252 -0.08560595 -0.057571597 0.086446196
0000f0 62 1a f1 ba d4 db ab bc 71 4f 3e bd 85 8b 40 bc
       -0.0018394704 -0.020978846 -0.04646248 -0.011752014
000100 ae b5 9c 3d e4 c7 44 bd 2e dd 09 bd 4a 40 43 bd
       0.0765184 -0.048042193 -0.0336582 -0.047668733
000110 b0 70 b0 bd ac 8b 29 bd 9b 0c 0f bd 27 bb ff bb
       -0.086152434 -0.041392967 -0.03492413 -0.0078042927
000120 e8 ba 12 bd 14 9e e8 bc c4 20 a9 3d 12 8b 8a bd
       -0.03582278 -0.02839569 0.08258203 -0.06764807
000130 bf ce 94 3d 71 74 76 3d 1b 29 95 bd 8c b0 b0 3d
       0.07265996 0.06016964 -0.07283231 0.08627424
000140 94 2f 0e bc c9 a8 21 3c 5d 40 12 bc 49 ac fa 3c
       -0.008678336 0.009866902 -0.008926478 0.03059973
000150 85 18 83 3d 7d 6b 36 bd df f0 cc bc 2a 01 56 bd
       0.06401161 -0.044536103 -0.0250172 -0.052247204
000160 3d 5c ad 3a 7e ef df bc 34 ad 97 3d 48 8d 9a bd
       0.0013226342 -0.027335878 0.07406083 -0.075464785
000170 d0 bb 8f bd 25 bc 8b bb 4d 15 37 bd 62 92 8c 3d
       -0.07018244 -0.004264372 -0.04469805 0.06863858
000180 55 78 0e bd bf 3e 11 3d fc 98 5d bb aa 6f 2d bd
       -0.034782726 0.03546023 -0.003381311 -0.04234282
000190 04 cd a5 bc 33 00 05 3d 58 f8 31 bd cb e3 55 bd
       -0.02023936 0.032470893 -0.04344973 -0.052219193
0001a0 67 4c 9d bd 06 2a b1 3d 47 3c 81 3d 4d b5 90 bd
       -0.07680588 0.086505935 0.06310325 -0.070658304
0001b0 3d 28 98 3d a6 a5 5c bc 9b a7 3c 3d 7b b1 e5 bc
       0.0742955 -0.013467228 0.04605828 -0.02803873
0001c0 d3 62 e7 bb dd fd 80 3d e0 28 6a 3d 2a 12 92 bd
       -0.0070613413 0.062984206 0.057167888 -0.07132371
0001d0 57 e0 b0 3d 0b 50 01 bd 4e b3 06 bd 93 88 43 bd
       0.086365394 -0.031570476 -0.032885842 -0.04773767
0001e0 98 02 4a bd e4 4b db bc a6 11 07 bc 79 bd 73 3d
       -0.04931888 -0.026769586 -0.008243954 0.059506867
0001f0 da c1 ac 3c 26 a8 44 3c e2 7a e7 bb 46 23 95 bd
       0.02108853 0.01200298 -0.0070642093 -0.072821185
000200 f1 96 8e bd 91 04 ee 3a f0 9c 5f 3d a7 d4 91 3d
       -0.069623835 0.001815932 0.054593027 0.07120638
000210 7a 48 fb 3c 36 5c c1 3c 74 c8 9f bd c7 42 c1 bc
       0.030674208 0.02360354 -0.07801905 -0.023591412
000220 0b 38 b7 bc 0a 34 0c 3d f1 f6 c4 3d 94 db b6 3c
       -0.02236559 0.034229316 0.09617413 0.0223215
000230 7d b5 40 bd ff 38 0c bd 2b 9b 46 3c c8 97 27 bd
       -0.04704808 -0.034234043 0.012121956 -0.040916234
000240 48 8a 9d 3d f4 0c 71 bd 28 5f 13 bd 83 1d 7c bd
       0.07692391 -0.058850244 -0.03597942 -0.061551582
000250 57 1a 64 bc e5 96 6d 3d 26 e1 26 bd c0 66 33 bd
       -0.0139222955 0.058005232 -0.040742062 -0.043799162
000260 37 1c 6c 3d 03 64 ff 3c 52 b7 04 3d 23 00 29 bd
       0.057644095 0.031175619 0.03240139 -0.041259896
000270 f3 8c 0e bd b5 f3 94 3d 69 08 a5 bd d0 e9 a1 bd
       -0.03480239 0.07273046 -0.08058245 -0.07905924
000280 55 58 81 3d 00 40 9c 3d 00 42 a0 bd 3b 1c 40 bd
       0.06315676 0.076293945 -0.078250885 -0.046901923
000290 25 77 92 3c f4 39 77 3d 86 72 48 bd 3c d4 78 3d
       0.017879078 0.060358003 -0.048937343 0.060749277
0002a0 c9 18 c4 3d 51 43 9f 3d f7 84 03 bc 78 e2 48 3d
       0.0957504 0.077765115 -0.008027307 0.049044102
0002b0 a0 23 02 bd 14 cc a4 bc 40 25 dc 3c 3a e0 08 bd
       -0.031772256 -0.020116843 0.026873231 -0.033416964
0002c0 c6 69 a7 bc ff 80 9b 3c 89 e5 7b 3d 7b 88 7e bc
       -0.020436179 0.018982409 0.0614982 -0.015535469
0002d0 6f 05 8c 3d e8 16 49 ba 2f 9d 5f bd 75 7b cf bb
       0.06836974 -0.0007670955 -0.05459326 -0.006331856
0002e0 0b b6 9d bd de 49 09 3c fa df 7f 3d 88 b6 c6 3c
       -0.077007376 0.008379428 0.06246946 0.02425696
0002f0 70 37 9c bc 12 99 9b 3d 70 75 0d 3d d8 90 60 3d
       -0.019069403 0.07597555 0.034535825 0.054825634
000300 66 3e a0 bd 8b bb 90 bd fe 44 b4 bd 6e ba 40 bd
       -0.078244016 -0.07067021 -0.08802222 -0.047052793
000310 17 43 90 3d c5 b6 3b 3d 59 14 87 bc 63 0f 0e 3d
       0.07044046 0.0458286 -0.016489195 0.034682643
000320 51 40 fd bc 92 ab 3b bc da da 9f 3d 48 a6 e2 39
       -0.030914458 -0.01145448 0.078054145 0.00043229968
000330 e4 cf ac 3d 36 7b b1 bc c9 cc 8c 3c 21 e7 2b bd
       0.084380895 -0.021665197 0.017187493 -0.04196847
000340 d3 71 ae 3c 9a f0 92 3d d0 70 5f 3d aa 78 c1 bc
       0.02129451 0.07174797 0.054550946 -0.023617107
000350 09 f3 7c bc 2f 45 9e 39 b8 1e a0 3c 39 f4 f1 bc
       -0.0154388035 0.00030187654 0.019545898 -0.0295354
000360 d3 14 1e bd f9 b6 93 3d 9a 95 90 3d 9f b5 49 3d
       -0.03859408 0.07212634 0.07059784 0.049245473
000370 c8 27 1b bd d3 6a 58 bd ea d6 f9 3c 66 fa b5 bd
       -0.037879735 -0.05283625 0.030497987 -0.0888565
000380 e4 3b fb bc fa 94 61 3d f3 c0 f5 bc 3e 75 a7 3d
       -0.030668207 0.055073716 -0.029999232 0.08176659
000390 3f cf 6b 3d 78 a5 61 3c 8e 93 eb bc aa 98 b8 bc
       0.057570692 0.013772361 -0.028756883 -0.022533733
0003a0 84 4c 36 3d 85 ed 19 bd f9 9d 8e 3d 41 b2 b5 3d
       0.044506565 -0.037580032 0.06963725 0.0887189
0003b0 82 41 47 3d f3 ff da bc 2b 7f 7a bc 2f 4b 36 3b
       0.048646457 -0.026733374 -0.015289108 0.002781581
0003c0 89 ca 97 bc 8d cb e9 3c 8a 33 6d 3d 32 f6 2c 3d
       -0.018529193 0.028539443 0.05791048 0.042226978
0003d0 e9 8e 1f bd a5 72 65 bc d0 ed 8e bd b1 72 b1 bc
       -0.03895465 -0.014004384 -0.06978953 -0.021661134
0003e0 ea c4 59 bd dc 10 9a 3d 61 37 0f 3c cb 99 6c 3d
       -0.053166308 0.07522747 0.008741231 0.057763856
0003f0 ff 55 2b 3d 55 77 41 3d cf 60 b3 3d 0d 54 b4 3d
       0.04183006 0.047232945 0.08758699 0.08805094

encoder.feature_extract.mlps.0.linears.1.bias f4 [128]
000000 3e 1f 75 bd e7 20 af 3d de 10 21 bc 7e 3d af bd
       -0.059844248 0.085511975 -0.009830682 -0.085566506
000010 d9 d7 22 bc e0 c6 86 3b b9 77 a0 3d cf 50 bf 3d
       -0.009939157 0.004113063 0.07835335 0.09341585
000020 34 08 5c 3c a5 58 dc bc 17 b5 92 bd ac 7d 76 bd
       0.01342969 -0.026897738 -0.071634464 -0.060178444
000030 fe ef 78 bd 71 5f b4 3c 13 2c 93 bd 16 60 db 3c
       -0.06077575 0.022018166 -0.07186141 0.026779216
000040 e3 2e 30 bd 7a 90 c2 3c 35 51 5d bd 1e 63 1e 3c
       -0.043013465 0.023750532 -0.054032523 0.009667186
000050 44 ed d2 3c 9f 01 1b 3d c9 15 b5 bd 35 ac 7c bd
       0.025747903 0.037843343 -0.08842046 -0.061687667
000060 d2 01 6e 3d 91 9f 68 3d 03 1d eb 3c bf 24 99 bd
       0.058107205 0.0567928 0.028700357 -0.07477712
000070 bc df 8d 3d 8c 38 75 3d b6 01 14 3d 5b e0 4e bc
       0.069274396 0.05986838 0.036134444 -0.012626733
000080 a2 5a ec bc 14 bc 3f 3c 24 0b 73 bc 82 d2 dd bc
       -0.02885181 0.011702556 -0.014834199 -0.027077917
000090 d5 2e 9e bd 77 e1 86 3d 92 17 69 bd 77 2c 5b bd
       -0.07723776 0.06585973 -0.056907244 -0.0535092
0000a0 33 54 55 3d d5 f8 21 3d 39 fb 46 bd b8 b3 ae 3d
       0.05208225 0.039543945 -0.04857943 0.085303724
0000b0 04 81 a6 3d 77 34 ab 3b 78 02 52 bd 7c 99 53 bb
       0.081300765 0.00522476 -0.051271886 -0.0032287529
0000c0 4c 58 86 3d f5 7c 26 3d e7 dd 8b bc 4b 63 88 bd
       0.0655981 0.040646512 -0.017073585 -0.06659564
0000d0 f1 d2 8a 3d 17 bc 8f bd 42 62 0e bd d9 ca 23 3d
       0.06778515 -0.07018297 -0.034761675 0.039988372
0000e0 dc 25 d0 3b 3e 37 c1 3c 61 a0 0e bd b4 7f 69 3d
       0.0063521694 0.023585912 -0.034820918 0.057006553
0000f0 ac a7 eb 3c 93 ad 26 bd 66 57 a5 3c 60 b0 48 3d
       0.028766476 -0.040692877 0.020183276 0.04899633
000100 de c4 78 bd 79 12 2d bd 22 86 4f bb e4 a5 8b 3d
       -0.060734622 -0.042253945 -0.0031665643 0.068187505
000110 43 d9 05 bd a2 d3 50 bc 49 17 94 3d c0 2f b2 bd
       -0.0326779 -0.01274577 0.07231004 -0.08700514
000120 9d 98 ae 39 80 40 37 bd b4 53 8b bd eb f8 a6 3d
       0.00033301572 -0.044739246 -0.068030745 0.08152946
000130 d7 11 4a 3c aa 25 ae bd b9 86 8f 3d e8 06 81 bd
       0.012333355 -0.085032776 0.07008118 -0.063001454
000140 c4 f9 a6 bd 51 1c 63 3d 5b b5 fc bc 89 28 c5 3b
       -0.08153108 0.055446927 -0.030848196 0.006016795
000150 9c d2 6c 3d b4 09 31 bd eb fc 7e 3c 9c f4 5d bd
       0.05781804 -0.043222144 0.01556323 -0.054188356
000160 ad 8d b3 3d 90 da 46 3d 70 74 80 bb 4a 75 9c bd
       0.08767257 0.04854828 -0.0039201304 -0.076395586
000170 bf 72 23 3c ed 7c b5 bd 65 01 c4 3a 7e 85 a3 3d
       0.009976088 -0.08861718 0.0014954029 0.07984446
000180 7c cd ab bd 14 03 22 bd 97 e0 99 bd d4 7a 26 bd
       -0.083888024 -0.039553717 -0.0751354 -0.04064448
000190 54 8a 5a 3d 21 92 b5 bb 10 f9 97 bd 48 f5 ee 3c
       0.053354576 -0.0055411016 -0.07420552 0.029169694
0001a0 7e d5 85 3b e4 b1 84 bd 80 87 6e 3b 24 fa 96 3d
       0.004084288 -0.064792424 0.0036396682 0.07371929
0001b0 83 1e 13 3c 3f ff eb bc 30 0f 67 bd 35 23 ad 3c
       0.0089794425 -0.028808234 -0.05641097 0.021134952
0001c0 ef de ed bc ca 0e 99 bd 80 91 86 3d 77 c5 82 bc
       -0.029036967 -0.07473524 0.06570721 -0.0159633
0001d0 bb a7 59 3d b2 32 a9 bd 53 9c 8a 3c 55 47 15 bd
       0.053138476 -0.082616225 0.016920244 -0.03644498
0001e0 5f a8 d7 3b 31 7f 63 bd f7 73 69 bd 15 ac 87 bd
       0.0065813507 -0.05554122 -0.05699536 -0.06624619
0001f0 b7 8c 9a bc 45 cc e7 bc 5e 16 a5 3d 8f 31 c4 bc
       -0.018865926 -0.028295645 0.08060907 -0.023949413

encoder.feature_extract.mlps.0.linears.2.weight f4 [128, 128]
000000 bf 66 a8 3d 23 6d ba 3d 8e 58 8a 3b dd 1a 5c bc
       0.08222722 0.091028474 0.0042219823 -0.013434139
000010 73 80 06 3d 46 32 3f bc 14 7d 19 3d 42 14 15 3c
       0.032837342 -0.011669701 0.0374728 0.009099068
000020 83 9f 54 bd 26 c9 8c bd 75 6e 50 bd 8e f9 1c bd
       -0.051909935 -0.068743035 -0.05088659 -0.03832393
000030 b8 6c b7 3d 78 82 e5 3a 9a 2f b3 3c 1d 7b 94 bd
       0.08956283 0.0017510196 0.021873284 -0.072500445
000040 18 6a b0 bd 3a eb 4f 3d 0d 51 04 3c 8d 9a b0 bd
       -0.08613986 0.05076144 0.008075965 -0.08623228
000050 48 a9 86 bd 9b 28 7c 3c a7 71 2b 3c ec 8c 8c 3d
       -0.065752566 0.0153905405 0.010464109 0.06862816
000060 31 ff 3b bd 9f 7e 75 bd f1 fa a7 3b 2a 94 61 bc
       -0.045897666 -0.05993521 0.00512635 -0.013768235
000070 4e f3 78 bd 13 fd 47 3b d6 23 14 bd 84 3b d1 bc
       -0.06077891 0.0030515834 -0.03616699 -0.025541075
000080 7a d8 57 3d a9 d3 25 bd 89 7c f1 3c 2c 4e af bd
       0.052696683 -0.040485058 0.029478328 -0.08559832
000090 02 c9 5f bd 48 f4 98 3c dc 36 ed 3c f3 68 41 bd
       -0.054635055 0.01867117 0.028956823 -0.047219228
0000a0 a0 f2 cc bc ec 94 c4 bc f8 00 eb 39 c6 89 3d bd
       -0.025018036 -0.023996793 0.00044823415 -0.04627397
0000b0 39 a9 4e bc 10 26 ff 3a 4a 33 a2 bd 91 85 5e bd
       -0.012613588 0.00194663 -0.07919939 -0.054326598
0000c0 ec cf a9 bd fa 98 76 3d 3f ae 3a 3d 12 02 6b bd
       -0.08291611 0.060204484 0.04557633 -0.05737502
0000d0 c8 2f 81 bd b9 2c 1a bd 56 52 a8 bc c9 81 72 bd
       -0.06307942 -0.037640307 -0.020547073 -0.059205804
0000e0 a4 ea 1b 3c 91 81 3c 3d 42 cb b4 bd 17 ac 5b bd
       0.009516392 0.046022 -0.08827831 -0.053630915
0000f0 00 ba 9c bc 34 e6 58 bd 0c d1 1d 3c 7a 1b e1 3b
       -0.01913166 -0.052953914 0.00963236 0.0068697305
000100 17 c8 23 3d 3a 71 0f bd 08 ed 53 bd 76 2c a3 3d
       0.039985742 -0.03502009 -0.051739722 0.079674646
000110 08 10 da 3c 0a 5d be bd 56 34 78 bd ca c8 a3 3d
       0.026618972 -0.092950895 -0.060596786 0.07997282
000120 a8 c7 67 bd ff 4a 96 bc 5b 29 8e bd 6f 83 79 3d
       -0.05658689 -0.018346308 -0.06941482 0.06091636
000130 e0 7f 8a bd 4a 19 8f 3d 19 37 2c 3c ac d8 9e 3d
       -0.067626715 0.069872454 0.010511183 0.07756171
000140 b5 f3 9d 3d e3 22 81 3d d5 7e af bd 4e 8a a0 3d
       0.07712499 0.06305482 -0.08569113 0.078388795
000150 68 d7 af bd 76 3e 3e bd 4d e1 2b bb 77 84 c3 bc
       -0.08586007 -0.046446286 -0.002622682 -0.023866875
000160 07 6c da bc 16 4d 8d 3d ae 8d 4f 3d 3d 32 0b 3d
       -0.02666284 0.068994686 0.050672226 0.033983458
000170 40 f8 e4 3c 5a fa 6e 3d 72 b8 6a 3d e6 72 a7 3d
       0.027950406 0.058344223 0.057304807 0.08176212
000180 7c d4 22 3d a6 d2 7c bd cc 99 9f bd 77 c1 11 3d
       0.039753422 -0.061724328 -0.07793006 0.035584893
000190 1b d3 92 bc fb 6c 0f 3d 16 ab 95 bc 00 7a b0 bc
       -0.017922929 0.03501604 -0.018270057 -0.02154255
0001a0 31 3b 9e bd d2 ab 4f bc 60 63 90 3d 12 8f 1d bc
       -0.077261336 -0.0126752425 0.07050204 -0.00961663
0001b0 cb 89 8a bd 92 e8 b2 bd cd ed 4f 3d ef ba 98 bd
       -0.06764563 -0.087357655 0.050763894 -0.0745753
0001c0 93 1e aa bd 54 3c bb bd b3 aa 17 bd af 1c 2e bd
       -0.08306613 -0.09142366 -0.037028026 -0.042507824
0001d0 c8 d9 e1 3c 5c 11 ba bc de 67 48 bd 39 f8 93 bb
       0.027569667 -0.022713356 -0.04892718 -0.0045156744
0001e0 51 6d d6 bc 52 e4 9f 3c 65 2b 83 bd d0 11 81 bd
       -0.026175173 0.019518051 -0.06404761 -0.063022256
0001f0 e7 2b b2 3c 19 08 0a 3c 80 29 c8 3d 5f 4b 9f 3d
       0.02174945 0.008424782 0.097735405 0.07778048
000200 93 94 2c 3d 2a c7 7c 3d 41 12 31 3d 62 32 d9 3a
       0.04213388 0.061713375 0.0432303 0.0016570801
000210 47 9a 17 3d dd f9 8c 3d 1d 9b 81 bc 38 5f b8 bc
       0.037012365 0.06883595 -0.015821034 -0.022506341
000220 ce 24 89 3d 7f db 96 3d 50 99 56 3c 7e 9b 63 bb
       0.06696473 0.07366084 0.013098076 -0.0034730132
000230 be 74 53 3d d7 9c 52 bd 29 f4 33 bc 84 f3 d1 bc
       0.051625006 -0.051419105 -0.010983505 -0.025628813
000240 41 e1 e2 3c 56 bb 91 3c 5b 50 51 3c 0c fc 17 bb
       0.0276953 0.017789524 0.012775506 -0.0023191003
000250 2d e5 bf 3c f0 11 84 bd 27 78 84 3d 83 17 a4 3d
       0.02342471 -0.06448734 0.0646823 0.08012297
000260 39 51 8f bd bf 80 73 bc e4 3a 64 3d 0e c6 77 bc
       -0.06997914 -0.014862238 0.055720225 -0.0151229035
000270 f1 27 14 3d 84 35 a8 bd 73 50 0a bd cb d5 96 bd
       0.036170904 -0.08213332 -0.03376813 -0.073649965
000280 20 05 9d bd 19 5b 66 bc ed 6a 97 3d a9 6e 96 bd
       -0.07666993 -0.014059805 0.07393441 -0.073453255
000290 2c cb 93 3c b5 5a 0b 3c a6 80 43 3d e7 1e f1 bc
       0.018041216 0.008505513 0.04773011 -0.02943368
0002a0 71 05 b8 3c 17 ea b4 3d 1d 98 99 bd 89 3c 56 bd
       0.022463532 0.088337116 -0.074997164 -0.052303825
0002b0 c5 7f 7d 3d b7 1e 82 bd c8 79 a1 3d ec a8 bc 3d
       0.06188943 -0.06353515 0.07884556 0.09211907
0002c0 0c a0 39 3d aa 4b 9a 3c ae ae 94 bb 8e 65 10 bd
       0.04531865 0.018834908 -0.004537425 -0.0352531
0002d0 bd 06 fc bc c6 d4 67 bd cc f2 b2 bd 82 68 8f 3d
       -0.030764932 -0.0565994 -0.08737716 0.07002355
0002e0 f0 15 9e bd 94 ac 72 3d 74 0a 95 bd 40 c0 a3 bc
       -0.07719028 0.059246615 -0.072773844 -0.019989133
0002f0 00 c3 37 3d 41 52 ae 3c 35 b4 6e bd a3 8e 8f 3c
       0.0448637 0.021279456 -0.058277328 0.01752407
000300 17 64 ca bc 92 db df 3c db 3b 3b 3d 7c 3c 4a bd
       -0.02470593 0.027326379 0.04571138 -0.04937409
000310 ef de 46 3d cc 1a 79 bb 79 4e 90 3c 21 49 e9 3b
       0.04855245 -0.0038010357 0.017615544 0.0071193133
000320 0e 19 3a bc a2 96 05 bd e3 4e cf 3c f4 62 85 3d
       -0.011358513 -0.032614358 0.02530617 0.065130144
000330 ba 32 54 3d 2e 3f f4 bc d4 d9 2a 3c c8 31 36 bd
       0.05180619 -0.029815283 0.010427911 -0.04448107
000340 75 13 82 bd 14 3e 7b bd ee 91 8e bd 03 e9 74 3d
       -0.063513674 -0.0613385 -0.06961428 0.05979253
000350 33 94 59 bc bb 46 b2 3d 74 9c ba 3d a4 36 fe bc
       -0.013279962 0.08704897 0.09111872 -0.031031914
000360 3e ba a7 3d 60 ea a2 3d 1c 40 89 3c 0c 6e 00 bc
       0.0818982 0.0795486 0.016754203 -0.007838737
000370 d7 8e 57 bd 7e a1 f7 ba 41 cb 0f bd 4a 8a 5a 3c
       -0.052626457 -0.0018892733 -0.035105947 0.013338635
000380 91 ac 30 bd 3c 57 50 3d fe 77 a6 3d 20 bf 8f 3d
       -0.043133322 0.050864443 0.081283554 0.07018876
000390 d3 1f bb 3d 67 e0 7c bd 74 63 a3 3d da e3 93 bd
       0.09136929 -0.061737444 0.079779536 -0.072211936
0003a0 fb 63 ca bc d8 3d 4e 3d 24 f0 73 bd 74 1f 81 3d
       -0.024705878 0.050351948 -0.059555188 0.06304827
0003b0 1e 9b 9b 3d cb ae 1f 3c f9 ec a4 bd 9d 7f 9b bd
       0.07597946 0.009746264 -0.080530114 -0.075927
0003c0 ba 18 07 bd ad c2 ff bc ba 5d 1b bd 72 27 7c 3d
       -0.032982565 -0.031220758 -0.03793118 0.061561055
0003d0 2f ee a1 3c 59 f5 c6 3b 2d e0 87 bc 7d ec c2 bd
       0.019766895 0.006071728 -0.016586388 -0.09517763
0003e0 f2 f6 62 bd 9f 99 8f bd 67 b7 af 3c d3 77 55 3d
       -0.055411287 -0.07011723 0.021449758 0.052116226
0003f0 29 95 6e bd 05 1b 8a 3d 53 e1 0c bc 07 53 c4 bc
       -0.05824772 0.06743435 -0.008598643 -0.023965372

encoder.feature_extract.mlps.0.linears.2.bias f4 [128]
000000 6d fd d1 3c 9c f6 46 3d 53 44 3c bd f0 39 ac 3d
       0.025633538 0.04857503 -0.045963597 0.08409488
000010 23 8e b3 ba f2 6d 97 b9 5e a5 96 bd 26 9d 83 3d
       -0.0013698976 -0.0002888288 -0.0735576 0.06426458
000020 8d b3 a8 3d dc a3 34 bd e3 45 54 3d 42 f5 ab 3d
       0.082373716 -0.04410158 0.05182446 0.083963886
000030 6c ea 31 bd 6c ca ac bc 59 c1 f5 bc bc 6d 48 3d
       -0.043436453 -0.021092616 -0.029999422 0.048932776
000040 25 f1 f7 3c 99 a0 9d bc 42 f2 cd bb 2b 63 d5 bc
       0.030266354 -0.019241618 -0.006284983 -0.026048264
000050 98 2e d2 bc 20 44 b8 bd 26 c9 36 bd 79 40 02 bd
       -0.025656983 -0.08997369 -0.044625424 -0.031799767
000060 4c 13 88 bd 01 43 91 bd 37 f2 21 bd 30 37 9f bd
       -0.066443056 -0.07092858 -0.039537635 -0.07774198
000070 25 a3 9f ba 8f 8b bd bd d9 92 0b 3d 5d 49 22 3d
       -0.0012179358 -0.09255134 0.03407559 0.039620746
000080 1f 62 d0 bc 01 e5 5f bd bf 74 59 3d 57 5f 1e bd
       -0.025437413 -0.054661755 0.053089853 -0.038665142
000090 1d b7 37 3c df c7 c0 3a 49 dc 84 3d 45 d6 96 3c
       0.011213091 0.0014708004 0.064873286 0.018412719
0000a0 02 37 a4 bd 7a e1 42 3d 64 e1 64 3d 23 cc 54 bd
       -0.080183044 0.047578312 0.05587901 -0.051952492
0000b0 9a 9a 9c bd 0f 81 ce 3c d4 49 d5 3c 1f 9e 1b bc
       -0.076466754 0.025208024 0.02603618 -0.009498148
0000c0 e7 5d 99 3d 91 80 a7 3d 20 ac f1 3b 6c ca 7d 3d
       0.074886136 0.08178819 0.007375255 0.061960623
0000d0 f3 85 46 bd 28 a8 8b bd c9 f5 58 3c 03 dd 0f bd
       -0.048467588 -0.06819183 0.0132421935 -0.035122883
0000e0 85 ec 46 bd aa 62 93 bd 5d 59 3d 3d db 67 1d bd
       -0.048565406 -0.07196553 0.0462278 -0.038429122
0000f0 41 46 26 bd 28 f9 0d 3d ad 86 14 3d 8d df 8d bd
       -0.040594343 0.034661442 0.03626125 -0.069274046
000100 b7 cf 35 3d 56 3a 14 3d 0d 2b 03 bd e2 70 2b 3c
       0.044387545 0.036188446 -0.03202348 0.010463925
000110 ee 0c 9a 3d 91 63 8d 3d e9 39 88 3c d4 14 14 bd
       0.075219974 0.069037564 0.016629176 -0.036152676
000120 8a 26 36 bd 4f c4 27 3d 30 33 43 bc 7b 3e 8d 3d
       -0.044470347 0.0409587 -0.0119140595 0.06896683
000130 47 60 73 bc 8d 75 5b bd 11 c6 ae bb 20 b8 ad bd
       -0.014854497 -0.053578902 -0.00533367 -0.08482385
000140 df ad 3f bd 9c 58 83 bd 2e 01 0c 3d 86 a3 07 bd
       -0.046796676 -0.06413385 0.034180813 -0.033114932
000150 5f 42 48 bd 45 ec 42 3d 27 71 12 bd 71 2e a0 bd
       -0.04889142 0.047588605 -0.03575244 -0.07821358
000160 a3 5a 34 bd 55 fd 4c bb 57 28 35 3c d1 5d 08 3d
       -0.04403175 -0.0031278927 0.011056981 0.033292595
000170 28 34 8a bd 70 a7 21 bd 71 9a 82 bd 6a 03 2e bd
       -0.06748229 -0.03946632 -0.063771136 -0.042483725
000180 15 42 d7 bc 18 9f 8a bd 56 08 8c 3d 97 6f 93 3d
       -0.026276628 -0.06768626 0.068375275 0.071990184
000190 b4 67 ad bd 3d c9 55 3d 05 b9 fb 3c 07 17 97 bd
       -0.084670454 0.05219387 0.030727873 -0.07377439
0001a0 ba c3 82 bd 93 8c ae bc 4f dd 3a 3c 37 87 dd 3c
       -0.06384988 -0.021307265 0.011405303 0.027042015
0001b0 b2 9d ca bc 69 70 76 bd 87 52 b2 bd 39 70 a9 3c
       -0.024733398 -0.060165796 -0.08707147 0.020683395
0001c0 8d 26 0d 3d c7 27 8e bd f8 1a 93 bd cc d2 93 3d
       0.034460593 -0.06941181 -0.07182878 0.07217941
0001d0 a6 1c 83 3d 79 ec 37 3d 47 76 26 3d 81 55 a1 bd
       0.06401949 0.044903252 0.04064014 -0.07877637
0001e0 6a a1 96 3c 74 0e ab bd 25 e9 46 bb 63 80 a7 bd
       0.018387515 -0.08352366 -0.0030351367 -0.08178785
0001f0 c9 fe cb bb 8a d5 92 bd 61 cc 0e 3d cb 59 09 bc
       -0.006225441 -0.071696356 0.03486288 -0.008383225

encoder.feature_extract.mlps.0.batch_norms.0.weight f4 [128]
000000 23 8e 7d 3f ab 3a 7f 3f 71 06 81 3f 80 3c 80 3f
       0.9904501 0.99698895 1.0080091 1.0018463
000010 f8 07 80 3f 29 db 7f 3f de 34 80 3f c1 48 80 3f
       1.0002432 0.99943787 1.0016134 1.0022203
000020 43 1e 7f 3f f5 61 7f 3f 40 d1 80 3f a9 0b 7f 3f
       0.9965555 0.99758846 1.0063858 0.99627167
000030 ac e7 7e 3f a1 20 81 3f 39 a2 80 3f d9 1e 80 3f
       0.99572253 1.0088083 1.0049506 1.0009414
000040 79 66 7f 3f 0b 14 80 3f dd 14 7f 3f f5 0e 7f 3f
       0.99765736 1.0006117 0.9964121 0.996322
000050 54 6c 80 3f 9f 95 7e 3f 5b 18 7f 3f 1d 4a 80 3f
       1.0033059 0.99447054 0.9964654 1.0022618
000060 aa c7 7f 3f 4b 05 80 3f 90 19 81 3f 3e d8 7f 3f
       0.9991404 1.0001615 1.0085926 0.99939334
000070 07 53 80 3f f0 b4 7f 3f 57 82 80 3f 8f d2 7f 3f
       1.0025338 0.99885464 1.0039777 0.9993066
000080 3e 81 80 3f 12 ba 7f 3f ea 3d 80 3f 21 c5 7e 3f
       1.0039442 0.99893296 1.0018895 0.99519545
000090 dd d3 7e 3f 39 2e 80 3f 14 10 7d 3f 37 08 80 3f
       0.9954203 1.0014106 0.9885266 1.0002507
0000a0 9a 20 80 3f d3 cf 7d 3f 1b 17 80 3f 0b d6 7e 3f
       1.0009949 0.9914524 1.0007051 0.99545354
0000b0 89 09 80 3f 2b 80 7f 3f 56 9f 80 3f df 04 7f 3f
       1.000291 0.99804944 1.0048625 0.9961681
0000c0 0e b0 80 3f d9 31 7e 3f f1 27 80 3f df 24 7f 3f
       1.0053728 0.9929481 1.0012189 0.99665636
0000d0 44 00 7f 3f 0d dc 7e 3f b7 5a 80 3f 50 55 80 3f
       0.9960978 0.9955452 1.0027684 1.0026035
0000e0 04 6b 7f 3f 5d 36 7d 3f 87 89 7f 3f 27 d2 7f 3f
       0.9977267 0.98911077 0.99819225 0.9993004
0000f0 2d 55 80 3f c3 e4 7f 3f 6b 03 80 3f a1 29 80 3f
       1.0025994 0.9995844 1.0001043 1.0012704
000100 c9 0f 80 3f 54 a7 80 3f 7a 2c 81 3f 73 4a 81 3f
       1.0004817 1.0051064 1.0091698 1.0100845
000110 d5 35 80 3f 06 37 80 3f 55 ac 80 3f 99 f5 7e 3f
       1.0016428 1.0016792 1.0052592 0.995935
000120 82 f2 7f 3f 59 17 80 3f 86 03 80 3f 57 1c 80 3f
       0.9997941 1.0007125 1.0001075 1.0008649
000130 5f 01 7f 3f a9 04 80 3f 52 9e 80 3f b7 84 80 3f
       0.9961147 1.0001422 1.0048316 1.0040501
000140 98 7c 80 3f 82 1f 7e 3f 06 42 7f 3f 0a 51 80 3f
       1.0038023 0.9926683 0.9971012 1.0024731
000150 af f3 7f 3f 8d 12 80 3f 94 9e 7e 3f 06 55 80 3f
       0.99981207 1.0005661 0.9946072 1.0025947
000160 a8 20 80 3f 99 b6 7e 3f 82 1c 7e 3f be 34 80 3f
       1.0009966 0.9949737 0.9926225 1.0016096
000170 ca 9e 7f 3f ac 47 80 3f 7e a4 7e 3f a5 4f 7f 3f
       0.9985167 1.0021873 0.99469745 0.997309
000180 fa b4 80 3f 0b 0d 80 3f 00 43 80 3f 80 cc 7f 3f
       1.005523 1.000398 1.0020447 0.9992142
000190 2a a5 80 3f 68 c0 7f 3f 26 67 80 3f f6 79 80 3f
       1.0050404 0.99902964 1.0031478 1.003722
0001a0 94 80 80 3f 48 04 81 3f 37 e2 7e 3f f0 e1 7e 3f
       1.0039239 1.0079432 0.99563926 0.99563503
0001b0 be 43 80 3f 1e 16 7f 3f 88 39 80 3f 73 ee 7e 3f
       1.0020673 0.99643123 1.0017557 0.99582595
0001c0 1e 3d 7e 3f 61 12 80 3f 3b 8c 7e 3f bf 6d 80 3f
       0.9931201 1.0005609 0.99432725 1.0033492
0001d0 a2 75 7f 3f c0 72 80 3f d0 b0 80 3f ac 4b 80 3f
       0.9978887 1.0035019 1.0053959 1.0023093
0001e0 46 f1 7f 3f 8f 18 80 3f c5 9c 7f 3f a6 56 7f 3f
       0.9997753 1.0007495 0.99848586 0.9974159
0001f0 31 31 80 3f 55 83 7f 3f f2 34 80 3f c9 5a 7e 3f
       1.0015012 0.9980977 1.0016158 0.9935728

encoder.feature_extract.mlps.0.batch_norms.0.bias f4 [128]
000000 52 b4 de ba c0 8b e2 ba c4 26 d7 3a 0a 88 6c bb
       -0.0016990996 -0.001728408 0.0016414751 -0.0036091828
000010 9f 5d 07 3b 81 09 8a bb 64 84 c8 ba ea 83 19 bb
       0.0020655168 -0.0042125587 -0.0015298245 -0.0023424574
000020 75 e6 0c bc b6 b6 50 b9 48 63 04 3c ca ed 4c b9
       -0.008599867 -0.00019904491 0.008080311 -0.0001954354
000030 ec a5 b4 b9 b5 03 af 3b 02 f4 a1 3b 31 c3 85 3b
       -0.00034455897 0.005341018 0.004942418 0.0040821065
000040 44 f2 0c 3a a7 ff 39 3b 90 d3 13 3b d9 ba 25 3a
       0.00053766766 0.002838114 0.002255652 0.0006322093
000050 81 a7 26 3c cf 35 64 bb 1c 17 1d 3b 26 35 9a bb
       0.010171772 -0.0034822111 0.0023970073 -0.004706043
000060 c5 77 b6 bb fc a2 a8 ba c1 d6 ec 3a 5d a6 14 bb
       -0.005568477 -0.0012865956 0.0018069373 -0.0022682168
000070 c9 84 06 3c 8a ae f1 ba 94 be 53 3b f5 42 bc 3a
       0.008210369 -0.0018438858 0.0032309638 0.0014363216
000080 91 9d 22 b9 08 73 1e 3c b5 36 d5 3b 6b 69 be ba
       -0.00015508222 0.00967098 0.0065067657 -0.0014527267
000090 fe 62 e0 bb 0c 52 d0 3b 88 7d 63 bb 63 d5 45 3a
       -0.0068477383 0.006357437 -0.0034712274 0.0007546751
0000a0 43 92 2e bb e9 3e 6f 3b ce b8 4b b9 fc 52 26 bb
       -0.0026637472 0.0036506003 -0.00019428434 -0.0025379052
0000b0 ec 21 52 bc 2c da 81 3a cb 4e b8 bb c3 7d 13 bb
       -0.01282547 0.0009906939 -0.005624627 -0.002250538
0000c0 5d 30 4a 3a 19 55 04 bb c4 7e 8e 3b 96 2f e3 b9
       0.0007712895 -0.0020192324 0.0043486077 -0.00043332268
0000d0 d2 58 04 bc 48 44 22 ba 5a 38 b1 bb 21 d5 b4 ba
       -0.008077817 -0.0006189984 -0.005408329 -0.0013796428
0000e0 78 7f 6c bb 14 1a 06 b9 a5 4f 5f bb d8 05 98 ba
       -0.003608672 -0.0001278895 -0.0034074571 -0.0011598421
0000f0 f9 54 6b ba f3 15 0e 3c 8a a0 1a 3b d2 0c a6 ba
       -0.00089772005 0.008672225 0.0023594224 -0.0012668616
000100 89 a9 8b 3a 9d 34 74 ba fc 92 a1 3b 5c 71 0d 3c
       0.0010655384 -0.00093157013 0.004930852 0.008632984
000110 fe 81 89 3b 0c 7a 06 bb e0 20 57 3b b9 0e 6f 3b
       0.0041964045 -0.0020519523 0.0032825992 0.0036477281
000120 73 09 91 ba 7d 4c ab 3b 42 d6 b0 bb 7a 7c 02 bb
       -0.0011065438 0.005227624 -0.0053966353 -0.001991062
000130 b7 93 69 3b 59 9c 19 ba 8f bc 89 3b c6 b3 92 3a
       0.0035641023 -0.00058597844 0.004203386 0.0011192493
000140 5c 4e 4f ba 18 aa 18 bc 11 2c 78 b9 c4 1a c3 3a
       -0.00079081 -0.009317897 -0.00023667539 0.0014885296
000150 31 39 81 bb 04 f0 db b9 ca 2b d1 bb 35 b4 e2 39
       -0.0039435853 -0.0004194976 -0.006383394 0.00043240344
000160 9e eb 6d bb 85 e1 6f bb 33 4e 29 bc 34 36 02 ba
       -0.003630377 -0.0036602926 -0.010333586 -0.00049671833
000170 ad 80 c9 ba d8 dc 85 38 d8 80 a4 bb 05 37 e1 3a
       -0.0015373431 6.3830696e-05 -0.005020242 0.0017182535
000180 e3 62 a2 3b ff c9 9d bb 1e 48 6f 3a 12 2d 04 3a
       0.004955636 -0.0048153396 0.0009127873 0.00050421164
000190 b4 bc 76 3b 0e 43 3c 3b 92 26 a7 3a 35 30 70 3b
       0.0037649097 0.002872649 0.0012752584 0.0036649827
0001a0 19 dd 8b 3b 8f b3 4b 3b c4 bd 38 3a 94 19 1b 3b
       0.0042683003 0.0031082367 0.000704732 0.0023666369
0001b0 5c ee 16 3a 2b c7 b1 bb eb cd 0c bb d1 77 86 3b
       0.0005757564 -0.005425354 -0.0021485041 0.0041036387
0001c0 a2 9c 20 bb 14 6e 89 3a 29 83 b5 bb 5d a1 ba bb
       -0.0024507423 0.0010485076 -0.005539317 -0.0056955055
0001d0 40 b6 c7 bb 89 00 e1 ba 54 c7 d5 3b 2d b5 d1 3a
       -0.006094724 -0.0017166297 0.006524006 0.0015999429
0001e0 a4 a1 bf 3b 97 d5 08 3c 6b 0d 7a 3b 8c 44 a6 bb
       0.0058481265 0.008351705 0.003815497 -0.0050740894
0001f0 b1 28 ca 3b 39 e7 a6 3b a2 88 08 3c aa 98 4b 3b
       0.0061694016 0.005093482 0.008333357 0.0031066337

encoder.feature_extract.mlps.0.batch_norms.0.running_mean f4 [128]
000000 41 45 20 be 16 8d 23 bd fc 8c c9 be cf e5 95 be
       -0.15651418 -0.039929472 -0.39365375 -0.29276893
000010 8b 19 65 3e b6 55 07 bf ee a4 0d 3f db 66 80 3d
       0.22373025 -0.5286516 0.5532979 0.06269618
000020 0e 41 73 3f af b6 80 bd 22 40 e2 3d e2 0d 82 3d
       0.9502114 -0.06284844 0.110473886 0.06350304
000030 28 ba 83 be 00 13 20 3f af d5 d8 bd 9e 21 e5 be
       -0.25727963 0.6252899 -0.10587632 -0.4475221
000040 ee d0 18 be ba e6 33 bf 5e 30 11 3f c3 aa f9 be
       -0.1492345 -0.70273936 0.5671443 -0.48763093
000050 b1 e9 c8 3c 3f 0c 47 3f 02 75 90 3e 86 0f 5e be
       0.024525495 0.7775306 0.2821427 -0.21685609
000060 bd 47 77 3d f3 4e 5e bf 0a ee 2a bd 7d 54 06 bf
       0.06037115 -0.86839217 -0.041730918 -0.5247267
000070 81 1f f6 be e2 ac 8e be d4 7c 8b be d5 23 73 3f
       -0.4807091 -0.27866274 -0.27243674 0.9497655
000080 44 45 8c be 21 4d 13 be 89 3c e7 3e f1 c8 52 3f
       -0.27396595 -0.14384891 0.45163372 0.8233786
000090 11 bc f9 be 07 f1 26 3f 47 37 bf be 12 56 cd 3e
       -0.48776296 0.6521153 -0.3734686 0.4010473
0000a0 67 e9 94 bf ce d2 a7 be 6a b3 22 bf 34 21 a0 bd
       -1.1633729 -0.3277802 -0.63555014 -0.07818833
0000b0 0b 38 a1 bd fa da 05 3f 5e 18 8e be b8 86 c0 bd
       -0.078720175 0.52287257 -0.27752966 -0.094006956
0000c0 72 85 84 be 95 1f 9b bf 0a fa 5e 3f 61 0e 3b 3f
       -0.2588306 -1.2119013 0.8710028 0.73068815
0000d0 98 32 b1 be 8a 56 16 3e c9 df 82 3f 5e 66 d9 3e
       -0.34608912 0.1468145 1.0224544 0.42460912
0000e0 f3 4c 15 bf b6 35 70 bf ca c1 42 3d b5 2b 90 bf
       -0.5832054 -0.93831956 0.047548093 -1.1263338
0000f0 d1 50 4f 3f ab 43 be 3e 2f a9 1d bf 6b c1 44 bf
       0.8098269 0.37161002 -0.6158628 -0.7685763
000100 47 d0 49 bd df 5b 0d bf 14 a4 58 3d 0f 1e c6 3e
       -0.049270894 -0.5521831 0.052890852 0.38694808
000110 33 ab 49 3f 08 17 0e bf 01 4d 85 be 89 e9 19 bf
       0.78776854 -0.5550389 -0.26035312 -0.6012197
000120 9d 9e 65 bf 62 b4 03 3f 3f c9 4e bf df 2c 8a be
       -0.8969515 0.5144712 -0.8077583 -0.2698736
000130 3b 0a 33 3f 64 ee 8c 3d 53 24 01 3f 4a 44 5c bf
       0.69937485 0.06881407 0.5044605 -0.860417
000140 6f 06 b8 be 44 a7 c1 3e 66 88 cf be 99 f9 53 bf
       -0.35942408 0.37822926 -0.4053375 -0.8280273
000150 b6 b0 13 bf 1b 17 f7 be 0a 52 d1 be 45 e0 69 3f
       -0.57691514 -0.48259816 -0.40882903 0.91357833
000160 fd dd 67 3e 8b ef 8d be 7b 8f 36 3f 1a 7f ac be
       0.22643276 -0.2772182 0.71312684 -0.3369072
000170 a1 d8 2a 3f 3c 01 ab 3c 09 38 15 3f 64 be cd 3e
       0.667368 0.020874612 0.5828863 0.4018432
000180 77 e3 ae 3e fe a1 99 3e 2d 62 7d 3f f6 d6 0b bf
       0.34157917 0.30006403 0.9897793 -0.5462488
000190 4f 4c 75 be 74 a5 10 3c ec a4 36 be c6 4a 62 bf
       -0.2395489 0.00882851 -0.1783635 -0.88395345
0001a0 b6 dd 47 bf 8a a9 c5 3e ac 10 2d 3e a3 43 4c bf
       -0.7807268 0.3860591 0.16900891 -0.79790705
0001b0 6d 1e be 3e dc a4 83 bf f5 dc 8d 3f a7 80 96 3d
       0.37132588 -1.0284686 1.1083056 0.07348757
0001c0 8c 32 80 3f f8 5f 61 3f 19 be 89 be 35 9e 2a be
       1.0015426 0.8803706 -0.26902846 -0.16661914
0001d0 31 4d 56 3f 95 dd 94 3e b9 ec 74 3f 2a f0 32 be
       0.83711535 0.29075304 0.9567371 -0.17474428
0001e0 ea 3e 97 3f b8 0c d7 be 7e a3 84 be 41 d0 f6 bd
       1.1816075 -0.4200189 -0.25905985 -0.1205144
0001f0 b4 ff 9d bd a2 41 66 3e 8a 9c 45 3f 6b 47 98 be
       -0.07714787 0.22485974 0.77191985 -0.29741988

encoder.feature_extract.mlps.0.batch_norms.0.running_var f4 [128]
000000 c5 03 5b 3b 87 4c 76 3b a2 0a c7 3c f4 fd 00 3b
       0.0033418995 0.0037582235 0.024297062 0.0019682618
000010 7c 95 88 3b ef ab 2c 3a 4c 9d b2 3c 89 ba 89 3c
       0.0041682106 0.00065868994 0.02180352 0.01681258
000020 af 6d 82 3c a7 0f 3b 3b b2 f8 6b 3a e6 34 4c 3a
       0.015921442 0.0028543265 0.0009001597 0.0007789865
000030 10 8d 19 3b 8a b2 c2 3c 56 f8 12 3b 52 88 be 3b
       0.0023430027 0.023766775 0.0022425852 0.0058145905
000040 7c ed ab 3c c8 6d 91 3c 82 a6 76 3c ea 17 a0 3c
       0.020987265 0.017752543 0.015054347 0.019542653
000050 b2 ca 0c 3b a7 31 24 3a e0 59 95 3a eb f6 b6 3a
       0.002148312 0.00062635023 0.0011394583 0.0013959085
000060 a0 dc 26 3c c7 73 a4 3a 8e a4 d0 3a 0a db a5 3a
       0.010184437 0.0012546711 0.0015918182 0.001265378
000070 56 93 cf 3a 04 24 e4 3c c4 cb ec 3b dd 77 63 3c
       0.0015836756 0.027849205 0.007226439 0.013883558
000080 54 c9 24 3a 60 0f 2e 3a 85 da a6 3c e7 66 b2 3c
       0.0006286104 0.00066398643 0.02036787 0.021777583
000090 59 69 0d 3d 35 2f 19 3c 98 2d 97 3b 27 b2 1a 3b
       0.034524295 0.009349634 0.0046135895 0.0023604722
0000a0 83 28 ff 3b e6 85 01 3c de ad a1 3c 17 bc b4 3c
       0.007786812 0.007905459 0.019736227 0.022062344
0000b0 1d 22 ea 3b 75 c3 98 3c 1b 34 1a 3b 53 9b 9f 3a
       0.00714518 0.018647889 0.0023529592 0.0012177028
0000c0 89 e9 29 3c ec 25 fc 3c cc 6b a6 3b b8 79 c3 3a
       0.0103706205 0.030779801 0.0050787684 0.0014913594
0000d0 c9 22 12 3c 4b cb 65 3c bf 33 d8 3b 14 44 97 3c
       0.008919426 0.01402552 0.0065979655 0.01846508
0000e0 13 7d cf 37 02 9c 20 3b 7f 59 0e 3b bf 23 bc 3c
       2.4734565e-05 0.002450705 0.0021720824 0.022966264
0000f0 c4 4b 18 3b 1b 1a 59 38 82 8b cb 3c 07 34 a3 3b
       0.002323852 5.1761144e-05 0.024846796 0.0049805674
000100 73 7c 45 3c 88 3c f9 3b 88 c2 67 39 79 e5 a6 3b
       0.012053597 0.007606093 0.00022102345 0.0050932732
000110 ce 7e a2 3c f9 60 7d 3b 9b 43 64 3b f5 1d c9 3b
       0.019835856 0.0038662537 0.0034830335 0.0061376044
000120 ca f5 2d 3c 2f 47 59 3c 04 e9 28 3c bb 4e a1 3c
       0.010617683 0.0132616 0.0103094615 0.019690862
000130 ed b3 b9 3b f2 5a 80 3b 79 f3 73 3b 7b ee 87 3b
       0.005667201 0.0039170915 0.0037223978 0.004148302
000140 9a 9e f3 3b c4 20 5e 3b 95 94 f1 3c ae f2 c7 3c
       0.0074346783 0.0033894042 0.029489795 0.02440771
000150 a1 e7 8f 3c 85 24 b1 3a 6f b0 74 3b bb df ba 3b
       0.017566504 0.0013514912 0.0037336608 0.0057029403
000160 4b e7 d3 3b 1e 3b c9 3b 5f 34 d5 3b 74 0b c5 3c
       0.0064667813 0.0061410805 0.0065064873 0.024053313
000170 8a 85 54 37 f0 3b 47 3a a2 bb 29 3b 1b 9b e2 3c
       1.2667277e-05 0.0007600179 0.0025899191 0.02766185
000180 26 fa 43 3c 7f 49 c9 3c f2 ac 2a 3c d8 cf e4 3a
       0.0119614955 0.024571178 0.01041721 0.0017456962
000190 00 28 b8 3c 7a 12 bd 3b 72 9d 4f 3c 2d b0 3b 3c
       0.022480011 0.005770025 0.012671815 0.011455578
0001a0 dc 20 6f 3c f5 65 92 3b 87 6d 6c 3c 01 18 0a 3c
       0.014595237 0.0044677206 0.01443041 0.008428575
0001b0 7b 7b 18 3c e8 04 df 3c 65 67 ac 3c f9 03 0b 3c
       0.009306784 0.02722402 0.021045396 0.008484834
0001c0 50 06 04 3d 7c 7f 6b 3c 6c 50 e1 3b f0 96 f4 3a
       0.032232583 0.014373656 0.006876042 0.0018660706
0001d0 6d 14 1c 3c ec 0a 64 3c 6a 09 3d 3c 27 60 6b 3c
       0.009526354 0.01391862 0.011537889 0.014366186
0001e0 62 27 b3 3c 41 0a bd 3b f6 da 9d 3b 36 32 7f 3b
       0.021869365 0.0057690446 0.004817362 0.003893984
0001f0 3c 08 d1 3b 7f 37 5e 3b 3e 84 83 3c 5a 3f bf 3a
       0.0063791554 0.003390759 0.016054269 0.0014591024
