FJSP_MultiPPO/saved_network/FJSP_J10M10/best_value55/policy_mch.pth (torch_old, 271448 bytes, 14 tensors)

bn.weight f4 [128]
0	0x3f7df3a4	0.9919989
1	0x3f80bcb1	1.0057584
2	0x3f80342c	1.0015922
3	0x3f802afe	1.001312
4	0x3f80cfa9	1.0063373
5	0x3f80270b	1.0011915
6	0x3f80164c	1.0006804
7	0x3f7f7a70	0.997962
8	0x3f7f17be	0.996456
9	0x3f7eae2b	0.9948451
10	0x3f801ad8	1.0008192
11	0x3f80bb0e	1.0057085
12	0x3f7ffa63	0.99991435
13	0x3f7eff66	0.9960846
14	0x3f7e5322	0.993456
15	0x3f80aa93	1.0052055
16	0x3f80926e	1.0044687
17	0x3f801c97	1.0008725
18	0x3f80b507	1.0055245
19	0x3f802dde	1.0013998
20	0x3f7fa696	0.99863565
21	0x3f7e7a9c	0.9940584
22	0x3f80144b	1.0006193
23	0x3f80c800	1.0061035
24	0x3f802142	1.001015
25	0x3f80a8f0	1.0051556
26	0x3f803fc2	1.0019457
27	0x3f807b87	1.0037698
28	0x3f7e8431	0.9942046
29	0x3f80b56d	1.0055367
30	0x3f7fd194	0.99929166
31	0x3f808f62	1.0043757
32	0x3f802ebe	1.0014265
33	0x3f7dfa9d	0.9921053
34	0x3f7ed24b	0.9953963
35	0x3f7e5ce9	0.9936052
36	0x3f7fabf5	0.9987176
37	0x3f802375	1.0010821
38	0x3f7f2d7b	0.9967877
39	0x3f7ffcc4	0.99995065
40	0x3f80020e	1.0000627
41	0x3f80a96f	1.0051707
42	0x3f7efa7f	0.99600977
43	0x3f80153f	1.0006484
44	0x3f7f4657	0.99716705
45	0x3f80b216	1.0054348
46	0x3f8092de	1.004482
47	0x3f809726	1.0046127
48	0x3f80eb50	1.0071812
49	0x3f80dc9b	1.0067323
50	0x3f7f526c	0.9973514
51	0x3f80bd1b	1.005771
52	0x3f7f3793	0.99694175
53	0x3f806e31	1.0033628
54	0x3f7ef6fd	0.99595624
55	0x3f7fae63	0.9987547
56	0x3f80c30a	1.0059521
57	0x3f80cbc2	1.0062182
58	0x3f7eabc5	0.9948085
59	0x3f80389b	1.0017275
60	0x3f7fca60	0.99918175
61	0x3f7e8f76	0.99437654
62	0x3f803519	1.0016204
63	0x3f80c5ca	1.006036
64	0x3f7eca04	0.99527
65	0x3f7f2ab3	0.9967453
66	0x3f7eacee	0.9948262
67	0x3f806797	1.0031613
68	0x3f7e6c1d	0.9938372
69	0x3f7fbef9	0.99900776
70	0x3f8070ad	1.0034386
71	0x3f80137e	1.0005949
72	0x3f809753	1.004618
73	0x3f8049d5	1.0022532
74	0x3f7ea9cb	0.99477834
75	0x3f7e924a	0.9944197
76	0x3f7eeda5	0.99581367
77	0x3f7e7ef6	0.99412477
78	0x3f80a102	1.0049136
79	0x3f80a980	1.0051727
80	0x3f802d02	1.0013735
81	0x3f7fc62a	0.9991175
82	0x3f80eb31	1.0071775
83	0x3f7f6abb	0.9977223
84	0x3f7f7147	0.9978222
85	0x3f7fbbdc	0.99896026
86	0x3f80b7dc	1.005611
87	0x3f7fa5e7	0.9986252
88	0x3f7ef0d6	0.99586236
89	0x3f802171	1.0010206
90	0x3f7f3854	0.99695325
91	0x3f80f5ae	1.0074975
92	0x3f8060ff	1.0029601
93	0x3f80ad8a	1.005296
94	0x3f7ee7ba	0.99572337
95	0x3f80beb7	1.0058202
96	0x3f7ee351	0.9956561
97	0x3f801fb1	1.0009671
98	0x3f7f083b	0.99621934
99	0x3f8016fb	1.0007013
100	0x3f7f8ef7	0.9982752
101	0x3f7eba2a	0.99502814
102	0x3f800ca6	1.000386
103	0x3f7f9396	0.99834573
104	0x3f80bd9c	1.0057864
105	0x3f7e2091	0.9926844
106	0x3f7ead00	0.9948273
107	0x3f7e2671	0.99277407
108	0x3f8014c8	1.0006342
109	0x3f807b08	1.0037546
110	0x3f801596	1.0006588
111	0x3f8100af	1.0078334
112	0x3f7ed33f	0.99541086
113	0x3f7f8729	0.99815613
114	0x3f803883	1.0017246
115	0x3f7fd39b	0.9993226
116	0x3f7fe8ba	0.9996449
117	0x3f80b108	1.0054026
118	0x3f8080f9	1.0039359
119	0x3f80427f	1.0020293
120	0x3f808fea	1.0043919
121	0x3f8039be	1.0017622
122	0x3f7f6e35	0.9977754
123	0x3f800820	1.000248
124	0x3f80d33e	1.0064466
125	0x3f7e3642	0.9930154
126	0x3f7efa4a	0.9960066
127	0x3f7f44c3	0.997143

bn.bias f4 [128]
0	0x3b02c756	0.001995524
1	0xbb391e4f	-0.0028246825
2	0xbb6d3d7e	-0.0036199982
3	0x3a2587ce	0.0006314487
4	0x3815d5ff	3.5723668e-05
5	0xbb8004bd	-0.003906815
6	0x3bafa454	0.0053601656
7	0x3abbd99d	0.0014331822
8	0xbb35fb0e	-0.0027768048
9	0x3b6404de	0.003479294
10	0x3ab0fbd7	0.0013502788
11	0x3b663b76	0.0035130656
12	0xbb74f7fc	-0.0037379256
13	0xba982c88	-0.0011609951
14	0x3724b328	9.816875e-06
15	0xbbcfb76c	-0.0063390043
16	0xb9e4abc4	-0.00043615524
17	0xbb816d99	-0.0039498326
18	0x3bcd66a2	0.0062683383
19	0xbb056cfe	-0.0020359154
20	0x3ba8d01d	0.005151762
21	0x3b8e9c1a	0.004352105
22	0xbbd8bb55	-0.0066141286
23	0xb9bf61b7	-0.00036503162
24	0xbaff099b	-0.0019457819
25	0xb809e5fc	-3.2877535e-05
26	0x3b06956c	0.002053584
27	0xb9aa5707	-0.00032489767
28	0xbad161e0	-0.0015974604
29	0xbb8a2de8	-0.004216898
30	0xb906fc3a	-0.00012873198
31	0xbc1648c0	-0.009172618
32	0xb98719e2	-0.0002576849
33	0x3bd4f4de	0.006498917
34	0xbb58bbbb	-0.003307088
35	0x3bc564bf	0.0060239728
36	0x3ba69957	0.0050841975
37	0x39872463	0.00025776317
38	0xba867d98	-0.0010260819
39	0x3b5435e6	0.0032380759
40	0xba58b5d6	-0.0008266842
41	0x3c08d38d	0.008351219
42	0xbb988eff	-0.0046557183
43	0xb91f3604	-0.00015183544
44	0x3bbc0b0a	0.0057386206
45	0x3bd41d38	0.0064732097
46	0x38042e09	3.1514126e-05
47	0x3a1a35fe	0.0005882679
48	0xbafe2b5b	-0.0019391583
49	0xb97faf1f	-0.00024383933
50	0xbba6207c	-0.0050697904
51	0xbb65e355	-0.0035078127
52	0x3ba3c3e1	0.004997716
53	0xbb55e9bc	-0.0032640537
54	0xbba18377	-0.004929002
55	0x3a5dfc77	0.0008468101
56	0xbb1ad32a	-0.0023624399
57	0xba29abaf	-0.0006472421
58	0xbb3da7da	-0.0028939159
59	0xbb6cf58e	-0.0036157104
60	0xba60dad3	-0.0008577529
61	0x3b262f85	0.0025357914
62	0x3ab8b7e5	0.0014092891
63	0x3b3289d8	0.0027242806
64	0xbb9d832f	-0.004806898
65	0xbb677149	-0.0035315326
66	0xbb324ab6	-0.0027205176
67	0x3b887e9e	0.0041654846
68	0xbb06d381	-0.0020572843
69	0xbacb7b65	-0.0015524445
70	0x3c1434e9	0.009045818
71	0xbb94ad14	-0.004537234
72	0x3b7617f9	0.003755091
73	0x3b46de72	0.003034499
74	0xbab0897a	-0.0013468706
75	0xbbabaecd	-0.0052393437
76	0xbb5a311f	-0.0033293439
77	0xbb02408f	-0.0019874906
78	0xbaf00882	-0.0018313082
79	0xbaa2dd31	-0.0012425539
80	0x3bcf2521	0.006321565
81	0xba3b9d1a	-0.0007156894
82	0xb9dc172c	-0.00041978934
83	0xbba6e7e3	-0.005093561
84	0xba97902e	-0.0011563355
85	0xbb1f1524	-0.0024274075
86	0xbaabe796	-0.0013115283
87	0x3b40040b	0.0029299285
88	0x3a6c9810	0.00090253446
89	0x3ae70d6b	0.00176279
90	0x3b2fcaa7	0.002682367
91	0xbad94bc9	-0.0016578372
92	0xbb11c1cb	-0.0022240754
93	0x3ad5771f	0.0016286111
94	0xb740b98b	-1.1487292e-05
95	0xbb166888	-0.002295049
96	0xbb26ce7e	-0.0025452669
97	0x3b3ce876	0.002882508
98	0xbaed6812	-0.001811268
99	0xba138b70	-0.0005628383
100	0xbb8e383c	-0.0043401998
101	0x3b08e954	0.0020891028
102	0xbafbfd03	-0.0019225184
103	0xbbd1a95d	-0.0063983635
104	0xba93d211	-0.0011277815
105	0x3aefae4f	0.0018286201
106	0xbab784f6	-0.0014001417
107	0x3b66fe51	0.00352468
108	0xbbd4a1ff	-0.006489038
109	0x3c14aa2e	0.009073777
110	0x3ac083f6	0.0014687765
111	0x3ab5753c	0.0013844143
112	0xb8c4cdcf	-9.384343e-05
113	0xb9ae7846	-0.00033277477
114	0xbb4289e1	-0.0029684233
115	0x3bada9ed	0.0052997977
116	0x3937f578	0.00017543684
117	0xbb431789	-0.0029768667
118	0xbbd93053	-0.006628075
119	0x3b0d2c98	0.0021541473
120	0xbb0c2b7c	-0.0021388223
121	0xbb03d283	-0.0020114488
122	0xbb97c716	-0.004631887
123	0x38a628b7	7.9230806e-05
124	0x3ba11812	0.0049161995
125	0x3a621b5e	0.0008625294
126	0x3b2447ea	0.0025067278
127	0xbb2ffccf	-0.0026853567

bn.running_mean f4 [128]
0	0x3c877bff	0.016538618
1	0xbd37c99c	-0.044870004
2	0x3ceb8453	0.02874962
3	0x3ca8f6fd	0.020625586
4	0x3dab1133	0.0835289
5	0xbdd74671	-0.105114825
6	0xbc12624f	-0.008934571
7	0xbcf4108a	-0.029793043
8	0x3d7e224d	0.06204443
9	0x3c6220f9	0.013801807
10	0x3de5eb01	0.11226464
11	0xbe074931	-0.13211514
12	0xbc122a17	-0.008921168
13	0xbc5d4a88	-0.013506539
14	0x3e0f8eaf	0.14019273
15	0x3c585cb4	0.013205696
16	0xbe1c0cf5	-0.15239318
17	0xbcb043f8	-0.021516785
18	0x3dbd4de0	0.09243369
19	0x3c98e7b5	0.018665174
20	0x3d6600fc	0.056153283
21	0xbe0f5b69	-0.13999714
22	0xbdd1e51c	-0.10248777
23	0x3d7c9db0	0.06167382
24	0x3e12682b	0.1429755
25	0xbdd2afca	-0.10287435
26	0xbcdefd1c	-0.027220301
27	0x3e196d6d	0.14983149
28	0x3d9c9ddc	0.07647297
29	0x3d1b9565	0.03798427
30	0xbdffd31e	-0.12491439
31	0x3bcc773d	0.0062398002
32	0x3c42c0ab	0.011886756
33	0x3d1d7193	0.03843839
34	0x3d4b7542	0.049672373
35	0x3d6c6b95	0.057719786
36	0x3e004ad5	0.12528546
37	0xbc8a0c2a	-0.016851503
38	0x3d9a92c3	0.07547524
39	0x3dc44f49	0.09585435
40	0xbe1d9b3c	-0.15391248
41	0x3e15da47	0.14634047
42	0x3d2bf640	0.04198289
43	0x3d3b8acb	0.04578666
44	0x3e147df0	0.14501166
45	0x3d35ec2a	0.044414677
46	0xbc404c86	-0.011736995
47	0xbca69247	-0.020333422
48	0x3d6b08a9	0.057381306
49	0x3c8be9a1	0.017079176
50	0x3d4349e7	0.0476779
51	0x3d353231	0.04423732
52	0x3d73f23e	0.059557192
53	0xbbe83e21	-0.0070874845
54	0xbdad96a8	-0.08476001
55	0x3d86fb80	0.065909386
56	0xbdd712de	-0.105016455
57	0xbe031d0e	-0.12804052
58	0x3ce06f3b	0.027396789
59	0xbd9648f2	-0.07338132
60	0xbe407f08	-0.18798459
61	0x3e153eec	0.14574784
62	0x3c05f3e4	0.008175824
63	0x3c694663	0.014237973
64	0x3d5b7bc1	0.053584818
65	0xbdb5b4ba	-0.088723615
66	0xbe0221ba	-0.12708178
67	0x3d926069	0.07147295
68	0x3deb1d36	0.11480181
69	0x3d8b92cf	0.06815111
70	0x3c628b95	0.013827224
71	0xbc40fd93	-0.011779207
72	0xbc07861d	-0.008271721
73	0x3dc382ff	0.0954647
74	0x3df5bb72	0.11998643
75	0xbdc90a77	-0.09816449
76	0xbe028b64	-0.12748486
77	0x3d71ed8e	0.05906444
78	0xbdff333b	-0.12460943
79	0x3dcea05f	0.10089182
80	0x3ceda827	0.029010845
81	0x3dc6cb07	0.09706693
82	0x3bab989d	0.005236699
83	0xbe051986	-0.12998018
84	0xbd3e0280	-0.046389103
85	0x3e23a2e0	0.159801
86	0xbe0b7412	-0.13618496
87	0xbda37a9d	-0.07982371
88	0x3cf788bb	0.030216565
89	0x3dc2bba3	0.09508445
90	0xbe009a4d	-0.12558861
91	0xbdd1df19	-0.102476306
92	0x3dc2156a	0.09476741
93	0xbe2fbb83	-0.17161374
94	0xbc194699	-0.009355211
95	0xbd619dd3	-0.055082154
96	0xbc07718e	-0.00826682
97	0xbda54ed0	-0.08071673
98	0x3e02bc71	0.12767197
99	0xbd173d10	-0.036923468
100	0xbe375f46	-0.17907438
101	0x3c9ab962	0.018887226
102	0x3dd18dc6	0.10232119
103	0xbd879878	-0.06620878
104	0x3e3b368c	0.18282527
105	0x3d8c2db4	0.06844655
106	0x3e2751d7	0.16339813
107	0x3c907dee	0.017638173
108	0xbddc226e	-0.107487544
109	0x3c7385a5	0.014863406
110	0x3dbd19e4	0.09233454
111	0xbc54f895	-0.01299872
112	0x3dbc083f	0.0918126
113	0x3df55d1b	0.11980649
114	0xbcfe104b	-0.031013628
115	0x3d62cddd	0.055372108
116	0xbde8e9d1	-0.11372722
117	0x3de92516	0.11384027
118	0xbcb46046	-0.022018563
119	0x3d87cc74	0.06630793
120	0xbdf32803	-0.11872866
121	0x3d84badf	0.06480955
122	0xbddadad3	-0.10686269
123	0x3e0b22c4	0.13587481
124	0xbdd94458	-0.10608739
125	0xbe1d50b8	-0.15362823
126	0x3cd0f548	0.025507584
127	0xbd8e4105	-0.06945995

bn.running_var f4 [128]
0	0x370cebe6	8.399575e-06
1	0x38664edc	5.4909717e-05
2	0x38af2b58	8.352724e-05
3	0x395a2311	0.00020803163
4	0x3926f6ab	0.00015922885
5	0x39863913	0.00025600995
6	0x366f5ae6	3.5666685e-06
7	0x382f1032	4.1738334e-05
8	0x39387d37	0.00017594254
9	0x398a56fc	0.0002638622
10	0x39f944d3	0.0004754426
11	0x39eaca08	0.00044782483
12	0x374b3c4e	1.2113784e-05
13	0x36bb1bed	5.5762853e-06
14	0x3a2d998c	0.00066223065
15	0x37c53355	2.3508133e-05
16	0x3a02802a	0.00049782044
17	0x38f7e4e8	0.00011820515
18	0x3942c07f	0.00018572992
19	0x397e7b6b	0.00024269304
20	0x38e65bbb	0.00010984341
21	0x39daae4a	0.00041710056
22	0x396854f2	0.00022156889
23	0x393447b8	0.00017192855
24	0x3a05b70b	0.0005100823
25	0x396aa903	0.00022378941
26	0x38dc4f7b	0.00010505222
27	0x39f909a6	0.0004750017
28	0x39e93ba5	0.00044485662
29	0x3945e53f	0.00018872785
30	0x39c8a8d2	0.00038272754
31	0x398cdb95	0.00026866482
32	0x3917907d	0.00014454308
33	0x398263e7	0.00024869965
34	0x39d929a4	0.0004142049
35	0x39a8299e	0.00032074464
36	0x3a495352	0.0007679957
37	0x389ab64b	7.377247e-05
38	0x3956cd0b	0.00020485015
39	0x3990fde0	0.00027654972
40	0x3a17e267	0.00057939294
41	0x39f1084d	0.00045973287
42	0x3927f465	0.00016017405
43	0x39d34ac2	0.00040300755
44	0x3a09853d	0.00052459893
45	0x39357da3	0.00017308308
46	0x3825e17c	3.9549064e-05
47	0x372cce03	1.0299965e-05
48	0x38f345e3	0.0001160016
49	0x3785aa58	1.5934158e-05
50	0x38675f40	5.51634e-05
51	0x39120458	0.00013925263
52	0x38fdca7d	0.000121016965
53	0x39903857	0.00027507797
54	0x3a05d6f5	0.00051055785
55	0x38ec796b	0.00011275973
56	0x3973f8ec	0.00023267017
57	0x39dd88db	0.0004225437
58	0x38a87015	8.031741e-05
59	0x39067544	0.0001282292
60	0x3a50075b	0.00079356664
61	0x39fc9b53	0.0004818091
62	0x39904e6b	0.00027524246
63	0x369ca4ee	4.6683626e-06
64	0x38953bdb	7.1160226e-05
65	0x39a49051	0.00031388042
66	0x39ee7961	0.00045485332
67	0x39923a76	0.00027890847
68	0x3a22990d	0.0006202616
69	0x390c2493	0.00013365065
70	0x395b6145	0.00020921703
71	0x36bf42e2	5.7000298e-06
72	0x37605d13	1.3373111e-05
73	0x39581c93	0.0002061001
74	0x39aec40a	0.00033333927
75	0x3a29db04	0.0006479474
76	0x3a106cbf	0.00055093685
77	0x3999d980	0.00029344484
78	0x39b78333	0.0003500223
79	0x396143ac	0.00021482882
80	0x3885af03	6.374533e-05
81	0x39b139bc	0.00033803086
82	0x35966232	1.120445e-06
83	0x3a3aeb5f	0.000713041
84	0x388e7306	6.7925124e-05
85	0x3a1e99e1	0.00060501514
86	0x39cd2822	0.00039130548
87	0x39681811	0.0002213421
88	0x394109e0	0.00018409593
89	0x3948116a	0.00019079974
90	0x3a4802cd	0.0007629812
91	0x39ba63f2	0.0003555115
92	0x394b4bfa	0.00019387892
93	0x3a35b84a	0.0006932063
94	0x3709a4d3	8.2042125e-06
95	0x38df9d9e	0.00010662827
96	0x38837e44	6.2700856e-05
97	0x393391eb	0.00017125129
98	0x39bd89ff	0.00036151704
99	0x39219ab5	0.0001541179
100	0x3a335925	0.00068415917
101	0x3982c94a	0.00024945504
102	0x39a3acff	0.00031218675
103	0x39d84a70	0.0004125419
104	0x3a3ee2e4	0.0007281734
105	0x39d68a25	0.00040920186
106	0x3a1b17ce	0.0005916328
107	0x38aacef2	8.144778e-05
108	0x3a0b7e40	0.0005321242
109	0x3951786f	0.00019976658
110	0x39d1a25d	0.00039984556
111	0x380e0396	3.3858778e-05
112	0x3964d9c4	0.00021824898
113	0x39b5f412	0.00034704857
114	0x3904173e	0.0001259716
115	0x39a1b214	0.00030840992
116	0x39f7f06d	0.00047290642
117	0x39915278	0.00027718
118	0x397e7029	0.0002426511
119	0x39ea836f	0.00044729884
120	0x399c5dc8	0.0002982451
121	0x3997c2c3	0.00028946073
122	0x3989badd	0.000262699
123	0x3a49be46	0.00076958945
124	0x39b39b18	0.00034257094
125	0x3a13d1ca	0.0005638866
126	0x37eb7bb7	2.8071792e-05
127	0x391df2d8	0.00015063153

bn1.weight f4 [128]
0	0x3f800000	1.0
1	0x3f800000	1.0
2	0x3f800000	1.0
3	0x3f800000	1.0
4	0x3f800000	1.0
5	0x3f800000	1.0
6	0x3f800000	1.0
7	0x3f800000	1.0
8	0x3f800000	1.0
9	0x3f800000	1.0
10	0x3f800000	1.0
11	0x3f800000	1.0
12	0x3f800000	1.0
13	0x3f800000	1.0
14	0x3f800000	1.0
15	0x3f800000	1.0
16	0x3f800000	1.0
17	0x3f800000	1.0
18	0x3f800000	1.0
19	0x3f800000	1.0
20	0x3f800000	1.0
21	0x3f800000	1.0
22	0x3f800000	1.0
23	0x3f800000	1.0
24	0x3f800000	1.0
25	0x3f800000	1.0
26	0x3f800000	1.0
27	0x3f800000	1.0
28	0x3f800000	1.0
29	0x3f800000	1.0
30	0x3f800000	1.0
31	0x3f800000	1.0
32	0x3f800000	1.0
33	0x3f800000	1.0
34	0x3f800000	1.0
35	0x3f800000	1.0
36	0x3f800000	1.0
37	0x3f800000	1.0
38	0x3f800000	1.0
39	0x3f800000	1.0
40	0x3f800000	1.0
41	0x3f800000	1.0
42	0x3f800000	1.0
43	0x3f800000	1.0
44	0x3f800000	1.0
45	0x3f800000	1.0
46	0x3f800000	1.0
47	0x3f800000	1.0
48	0x3f800000	1.0
49	0x3f800000	1.0
50	0x3f800000	1.0
51	0x3f800000	1.0
52	0x3f800000	1.0
53	0x3f800000	1.0
54	0x3f800000	1.0
55	0x3f800000	1.0
56	0x3f800000	1.0
57	0x3f800000	1.0
58	0x3f800000	1.0
59	0x3f800000	1.0
60	0x3f800000	1.0
61	0x3f800000	1.0
62	0x3f800000	1.0
63	0x3f800000	1.0
64	0x3f800000	1.0
65	0x3f800000	1.0
66	0x3f800000	1.0
67	0x3f800000	1.0
68	0x3f800000	1.0
69	0x3f800000	1.0
70	0x3f800000	1.0
71	0x3f800000	1.0
72	0x3f800000	1.0
73	0x3f800000	1.0
74	0x3f800000	1.0
75	0x3f800000	1.0
76	0x3f800000	1.0
77	0x3f800000	1.0
78	0x3f800000	1.0
79	0x3f800000	1.0
80	0x3f800000	1.0
81	0x3f800000	1.0
82	0x3f800000	1.0
83	0x3f800000	1.0
84	0x3f800000	1.0
85	0x3f800000	1.0
86	0x3f800000	1.0
87	0x3f800000	1.0
88	0x3f800000	1.0
89	0x3f800000	1.0
90	0x3f800000	1.0
91	0x3f800000	1.0
92	0x3f800000	1.0
93	0x3f800000	1.0
94	0x3f800000	1.0
95	0x3f800000	1.0
96	0x3f800000	1.0
97	0x3f800000	1.0
98	0x3f800000	1.0
99	0x3f800000	1.0
100	0x3f800000	1.0
101	0x3f800000	1.0
102	0x3f800000	1.0
103	0x3f800000	1.0
104	0x3f800000	1.0
105	0x3f800000	1.0
106	0x3f800000	1.0
107	0x3f800000	1.0
108	0x3f800000	1.0
109	0x3f800000	1.0
110	0x3f800000	1.0
111	0x3f800000	1.0
112	0x3f800000	1.0
113	0x3f800000	1.0
114	0x3f800000	1.0
115	0x3f800000	1.0
116	0x3f800000	1.0
117	0x3f800000	1.0
118	0x3f800000	1.0
119	0x3f800000	1.0
120	0x3f800000	1.0
121	0x3f800000	1.0
122	0x3f800000	1.0
123	0x3f800000	1.0
124	0x3f800000	1.0
125	0x3f800000	1.0
126	0x3f800000	1.0
127	0x3f800000	1.0

bn1.bias f4 [128]
0	0x00000000	0.0
1	0x00000000	0.0
2	0x00000000	0.0
3	0x00000000	0.0
4	0x00000000	0.0
5	0x00000000	0.0
6	0x00000000	0.0
7	0x00000000	0.0
8	0x00000000	0.0
9	0x00000000	0.0
10	0x00000000	0.0
11	0x00000000	0.0
12	0x00000000	0.0
13	0x00000000	0.0
14	0x00000000	0.0
15	0x00000000	0.0
16	0x00000000	0.0
17	0x00000000	0.0
18	0x00000000	0.0
19	0x00000000	0.0
20	0x00000000	0.0
21	0x00000000	0.0
22	0x00000000	0.0
23	0x00000000	0.0
24	0x00000000	0.0
25	0x00000000	0.0
26	0x00000000	0.0
27	0x00000000	0.0
28	0x00000000	0.0
29	0x00000000	0.0
30	0x00000000	0.0
31	0x00000000	0.0
32	0x00000000	0.0
33	0x00000000	0.0
34	0x00000000	0.0
35	0x00000000	0.0
36	0x00000000	0.0
37	0x00000000	0.0
38	0x00000000	0.0
39	0x00000000	0.0
40	0x00000000	0.0
41	0x00000000	0.0
42	0x00000000	0.0
43	0x00000000	0.0
44	0x00000000	0.0
45	0x00000000	0.0
46	0x00000000	0.0
47	0x00000000	0.0
48	0x00000000	0.0
49	0x00000000	0.0
50	0x00000000	0.0
51	0x00000000	0.0
52	0x00000000	0.0
53	0x00000000	0.0
54	0x00000000	0.0
55	0x00000000	0.0
56	0x00000000	0.0
57	0x00000000	0.0
58	0x00000000	0.0
59	0x00000000	0.0
60	0x00000000	0.0
61	0x00000000	0.0
62	0x00000000	0.0
63	0x00000000	0.0
64	0x00000000	0.0
65	0x00000000	0.0
66	0x00000000	0.0
67	0x00000000	0.0
68	0x00000000	0.0
69	0x00000000	0.0
70	0x00000000	0.0
71	0x00000000	0.0
72	0x00000000	0.0
73	0x00000000	0.0
74	0x00000000	0.0
75	0x00000000	0.0
76	0x00000000	0.0
77	0x00000000	0.0
78	0x00000000	0.0
79	0x00000000	0.0
80	0x00000000	0.0
81	0x00000000	0.0
82	0x00000000	0.0
83	0x00000000	0.0
84	0x00000000	0.0
85	0x00000000	0.0
86	0x00000000	0.0
87	0x00000000	0.0
88	0x00000000	0.0
89	0x00000000	0.0
90	0x00000000	0.0
91	0x00000000	0.0
92	0x00000000	0.0
93	0x00000000	0.0
94	0x00000000	0.0
95	0x00000000	0.0
96	0x00000000	0.0
97	0x00000000	0.0
98	0x00000000	0.0
99	0x00000000	0.0
100	0x00000000	0.0
101	0x00000000	0.0
102	0x00000000	0.0
103	0x00000000	0.0
104	0x00000000	0.0
105	0x00000000	0.0
106	0x00000000	0.0
107	0x00000000	0.0
108	0x00000000	0.0
109	0x00000000	0.0
110	0x00000000	0.0
111	0x00000000	0.0
112	0x00000000	0.0
113	0x00000000	0.0
114	0x00000000	0.0
115	0x00000000	0.0
116	0x00000000	0.0
117	0x00000000	0.0
118	0x00000000	0.0
119	0x00000000	0.0
120	0x00000000	0.0
121	0x00000000	0.0
122	0x00000000	0.0
123	0x00000000	0.0
124	0x00000000	0.0
125	0x00000000	0.0
126	0x00000000	0.0
127	0x00000000	0.0

bn1.running_mean f4 [128]
0	0x00000000	0.0
1	0x00000000	0.0
2	0x00000000	0.0
3	0x00000000	0.0
4	0x00000000	0.0
5	0x00000000	0.0
6	0x00000000	0.0
7	0x00000000	0.0
8	0x00000000	0.0
9	0x00000000	0.0
10	0x00000000	0.0
11	0x00000000	0.0
12	0x00000000	0.0
13	0x00000000	0.0
14	0x00000000	0.0
15	0x00000000	0.0
16	0x00000000	0.0
17	0x00000000	0.0
18	0x00000000	0.0
19	0x00000000	0.0
20	0x00000000	0.0
21	0x00000000	0.0
22	0x00000000	0.0
23	0x00000000	0.0
24	0x00000000	0.0
25	0x00000000	0.0
26	0x00000000	0.0
27	0x00000000	0.0
28	0x00000000	0.0
29	0x00000000	0.0
30	0x00000000	0.0
31	0x00000000	0.0
32	0x00000000	0.0
33	0x00000000	0.0
34	0x00000000	0.0
35	0x00000000	0.0
36	0x00000000	0.0
37	0x00000000	0.0
38	0x00000000	0.0
39	0x00000000	0.0
40	0x00000000	0.0
41	0x00000000	0.0
42	0x00000000	0.0
43	0x00000000	0.0
44	0x00000000	0.0
45	0x00000000	0.0
46	0x00000000	0.0
47	0x00000000	0.0
48	0x00000000	0.0
49	0x00000000	0.0
50	0x00000000	0.0
51	0x00000000	0.0
52	0x00000000	0.0
53	0x00000000	0.0
54	0x00000000	0.0
55	0x00000000	0.0
56	0x00000000	0.0
57	0x00000000	0.0
58	0x00000000	0.0
59	0x00000000	0.0
60	0x00000000	0.0
61	0x00000000	0.0
62	0x00000000	0.0
63	0x00000000	0.0
64	0x00000000	0.0
65	0x00000000	0.0
66	0x00000000	0.0
67	0x00000000	0.0
68	0x00000000	0.0
69	0x00000000	0.0
70	0x00000000	0.0
71	0x00000000	0.0
72	0x00000000	0.0
73	0x00000000	0.0
74	0x00000000	0.0
75	0x00000000	0.0
76	0x00000000	0.0
77	0x00000000	0.0
78	0x00000000	0.0
79	0x00000000	0.0
80	0x00000000	0.0
81	0x00000000	0.0
82	0x00000000	0.0
83	0x00000000	0.0
84	0x00000000	0.0
85	0x00000000	0.0
86	0x00000000	0.0
87	0x00000000	0.0
88	0x00000000	0.0
89	0x00000000	0.0
90	0x00000000	0.0
91	0x00000000	0.0
92	0x00000000	0.0
93	0x00000000	0.0
94	0x00000000	0.0
95	0x00000000	0.0
96	0x00000000	0.0
97	0x00000000	0.0
98	0x00000000	0.0
99	0x00000000	0.0
100	0x00000000	0.0
101	0x00000000	0.0
102	0x00000000	0.0
103	0x00000000	0.0
104	0x00000000	0.0
105	0x00000000	0.0
106	0x00000000	0.0
107	0x00000000	0.0
108	0x00000000	0.0
109	0x00000000	0.0
110	0x00000000	0.0
111	0x00000000	0.0
112	0x00000000	0.0
113	0x00000000	0.0
114	0x00000000	0.0
115	0x00000000	0.0
116	0x00000000	0.0
117	0x00000000	0.0
118	0x00000000	0.0
119	0x00000000	0.0
120	0x00000000	0.0
121	0x00000000	0.0
122	0x00000000	0.0
123	0x00000000	0.0
124	0x00000000	0.0
125	0x00000000	0.0
126	0x00000000	0.0
127	0x00000000	0.0

bn1.running_var f4 [128]
0	0x3f800000	1.0
1	0x3f800000	1.0
2	0x3f800000	1.0
3	0x3f800000	1.0
4	0x3f800000	1.0
5	0x3f800000	1.0
6	0x3f800000	1.0
7	0x3f800000	1.0
8	0x3f800000	1.0
9	0x3f800000	1.0
10	0x3f800000	1.0
11	0x3f800000	1.0
12	0x3f800000	1.0
13	0x3f800000	1.0
14	0x3f800000	1.0
15	0x3f800000	1.0
16	0x3f800000	1.0
17	0x3f800000	1.0
18	0x3f800000	1.0
19	0x3f800000	1.0
20	0x3f800000	1.0
21	0x3f800000	1.0
22	0x3f800000	1.0
23	0x3f800000	1.0
24	0x3f800000	1.0
25	0x3f800000	1.0
26	0x3f800000	1.0
27	0x3f800000	1.0
28	0x3f800000	1.0
29	0x3f800000	1.0
30	0x3f800000	1.0
31	0x3f800000	1.0
32	0x3f800000	1.0
33	0x3f800000	1.0
34	0x3f800000	1.0
35	0x3f800000	1.0
36	0x3f800000	1.0
37	0x3f800000	1.0
38	0x3f800000	1.0
39	0x3f800000	1.0
40	0x3f800000	1.0
41	0x3f800000	1.0
42	0x3f800000	1.0
43	0x3f800000	1.0
44	0x3f800000	1.0
45	0x3f800000	1.0
46	0x3f800000	1.0
47	0x3f800000	1.0
48	0x3f800000	1.0
49	0x3f800000	1.0
50	0x3f800000	1.0
51	0x3f800000	1.0
52	0x3f800000	1.0
53	0x3f800000	1.0
54	0x3f800000	1.0
55	0x3f800000	1.0
56	0x3f800000	1.0
57	0x3f800000	1.0
58	0x3f800000	1.0
59	0x3f800000	1.0
60	0x3f800000	1.0
61	0x3f800000	1.0
62	0x3f800000	1.0
63	0x3f800000	1.0
64	0x3f800000	1.0
65	0x3f800000	1.0
66	0x3f800000	1.0
67	0x3f800000	1.0
68	0x3f800000	1.0
69	0x3f800000	1.0
70	0x3f800000	1.0
71	0x3f800000	1.0
72	0x3f800000	1.0
73	0x3f800000	1.0
74	0x3f800000	1.0
75	0x3f800000	1.0
76	0x3f800000	1.0
77	0x3f800000	1.0
78	0x3f800000	1.0
79	0x3f800000	1.0
80	0x3f800000	1.0
81	0x3f800000	1.0
82	0x3f800000	1.0
83	0x3f800000	1.0
84	0x3f800000	1.0
85	0x3f800000	1.0
86	0x3f800000	1.0
87	0x3f800000	1.0
88	0x3f800000	1.0
89	0x3f800000	1.0
90	0x3f800000	1.0
91	0x3f800000	1.0
92	0x3f800000	1.0
93	0x3f800000	1.0
94	0x3f800000	1.0
95	0x3f800000	1.0
96	0x3f800000	1.0
97	0x3f800000	1.0
98	0x3f800000	1.0
99	0x3f800000	1.0
100	0x3f800000	1.0
101	0x3f800000	1.0
102	0x3f800000	1.0
103	0x3f800000	1.0
104	0x3f800000	1.0
105	0x3f800000	1.0
106	0x3f800000	1.0
107	0x3f800000	1.0
108	0x3f800000	1.0
109	0x3f800000	1.0
110	0x3f800000	1.0
111	0x3f800000	1.0
112	0x3f800000	1.0
113	0x3f800000	1.0
114	0x3f800000	1.0
115	0x3f800000	1.0
116	0x3f800000	1.0
117	0x3f800000	1.0
118	0x3f800000	1.0
119	0x3f800000	1.0
120	0x3f800000	1.0
121	0x3f800000	1.0
122	0x3f800000	1.0
123	0x3f800000	1.0
124	0x3f800000	1.0
125	0x3f800000	1.0
126	0x3f800000	1.0
127	0x3f800000	1.0

fc2.weight f4 [128, 2]
0	0x3da25db6	0.0792803
1	0xbd0b0280	-0.03393793
2	0xbe132407	-0.14369212
3	0xbe7596ee	-0.23983356
4	0x3e3e1b80	0.18565178
5	0xbe900f7b	-0.2813681
6	0x3e54b99e	0.20773932
7	0xbf0c649c	-0.5484102
8	0x3e973a13	0.29536495
9	0x3ea24162	0.31690508
10	0xbebc5e6c	-0.36790788
11	0xbed532e8	-0.416404
12	0xbcb8f6d9	-0.022578644
13	0xbd9b3ed0	-0.0758034
14	0xbd961a60	-0.073292494
15	0xbe862cbf	-0.26206014
16	0x3e1eaad3	0.15494852
17	0x3f08f45b	0.53497857
18	0xbdbad472	-0.09122552
19	0x3f340c43	0.7033121
20	0x3f11c49f	0.56940645
21	0xbec05366	-0.37563628
22	0xbedf5bed	-0.4362482
23	0xbf251d99	-0.6449829
24	0xbd830961	-0.06398273
25	0x3def7e4f	0.11694013
26	0xbd27d60e	-0.040975623
27	0xbda989c0	-0.08278227
28	0x3f30a183	0.6899645
29	0xbebdf766	-0.37102813
30	0x3c3ce7a3	0.011529836
31	0x3e5ab458	0.21357858
32	0xbf1f0d64	-0.6212981
33	0xbe47b236	-0.19501576
34	0xbe363581	-0.17793848
35	0x3ec8a00b	0.39184603
36	0x3ec3e1f8	0.38258338
37	0x3dbba292	0.09161867
38	0x3e583d63	0.21117167
39	0xbf1aa1a2	-0.6040288
40	0x3e2423f7	0.16029344
41	0x3ec8299d	0.39094248
42	0xbf1090af	-0.5647077
43	0xbe544379	-0.20728864
44	0xbecd420c	-0.40089452
45	0xbe56f2be	-0.20991036
46	0x3e1ea380	0.15492058
47	0x3f071179	0.52761036
48	0x3f239bb6	0.6390947
49	0xbda042b5	-0.07825223
50	0xbeca8ff1	-0.39562944
51	0xbe780524	-0.24220711
52	0xbe443857	-0.19162117
53	0x3eae1c2f	0.34005877
54	0x3f18c417	0.5967421
55	0x3e83c221	0.25734046
56	0x3eebcd2d	0.46054974
57	0xbf17ff05	-0.59373504
58	0x3d10377d	0.035209168
59	0x3f1ad585	0.60482055
60	0xbed856f2	-0.42253834
61	0xbf1022be	-0.5630301
62	0xbdfbef06	-0.123014495
63	0x3f32b643	0.6980936
64	0x3e1d573e	0.15365312
65	0xbef29419	-0.47378615
66	0x3e90fa9d	0.28316203
67	0xbf09e40d	-0.538636
68	0x3ebb3761	0.36565688
69	0xbf31e110	-0.69484043
70	0x3ebc8d09	0.3682635
71	0xbf0b4cf8	-0.5441432
72	0x3f2d9e3b	0.67819566
73	0xbf1e3023	-0.617922
74	0xbe0f6aa3	-0.14005522
75	0x3e9ec917	0.31012794
76	0x3e595869	0.21225132
77	0x3f0a530b	0.54032964
78	0x3ee9dcff	0.4567642
79	0xbe3c6e4d	-0.18401451
80	0xbf2ea9ab	-0.6822764
81	0x3d6c61f0	0.057710588
82	0x3f0bfb16	0.5468
83	0x3ed6768d	0.41887322
84	0x3d83a3cb	0.064277254
85	0x3f0cf3a9	0.55059296
86	0x3eb306e6	0.349662
87	0xbf32f845	-0.6991008
88	0x3ef8d2e9	0.48598412
89	0x3f2cb925	0.6747001
90	0x3e8dcde5	0.27696148
91	0xbec71df3	-0.38890037
92	0x3c0d5d9a	0.008628273
93	0xbe8e1de6	-0.27757186
94	0xbdba0509	-0.09082992
95	0x3c31cb01	0.010851623
96	0x3e26d81f	0.16293381
97	0x3ece9959	0.4035137
98	0x3d1e2cc1	0.0386169
99	0x3e2a035d	0.16602845
100	0x3e262569	0.16225208
101	0x3e5769b1	0.21036412
102	0x3dabafda	0.083831504
103	0x3f015b98	0.50530386
104	0x3e96965e	0.29411596
105	0xbe262d62	-0.1622825
106	0xbe35103f	-0.17681979
107	0x3f2db751	0.67857844
108	0xbf008ae2	-0.5021192
109	0x3f1e8b56	0.6193136
110	0x3e5d8708	0.21633542
111	0x3ea7d67d	0.3278083
112	0xbed16bff	-0.40902707
113	0xbe649faf	-0.2232654
114	0xbed7f679	-0.4218023
115	0xbf2133fa	-0.62969935
116	0x3d0e8cb8	0.03480217
117	0x3ec8f6ad	0.392507
118	0xbea4910c	-0.32141912
119	0x3c1bec11	0.009516732
120	0xbf2c3062	-0.67261326
121	0xbf2d329d	-0.67655355
122	0x3f1f4b43	0.62224215
123	0x3d661d2b	0.05618016
124	0xbdefc914	-0.117082745
125	0x3f35ae24	0.7096884
126	0x3d4cf2e8	0.05003634
127	0x3d632a82	0.05546046
128	0x3e388d52	0.1802266
129	0x3e7c3a37	0.24631582
130	0xbee9b5f5	-0.45646635
131	0x3ea75f3e	0.32689852
132	0xbf17dbe0	-0.5931988
133	0x3e3eeefc	0.18645853
134	0x3e258830	0.16165233
135	0x3f31cf82	0.69457257
136	0x3f1d95a8	0.6155648
137	0xbf09f3e3	-0.53887767
138	0x3e59ce16	0.21270022
139	0x3ec7b61d	0.3900613
140	0x3e3b7d5b	0.18309538
141	0xbf1246d5	-0.5713933
142	0xbd7a1c47	-0.061062124
143	0x3d3a87c6	0.04553964
144	0xbaa1db4f	-0.0012348684
145	0xbe257db5	-0.16161235
146	0x3ed04d6e	0.40684074
147	0x3d2491a4	0.040177956
148	0x3ed71e68	0.42015386
149	0x3ef2e63a	0.47441274
150	0xbf12e543	-0.57381076
151	0x3f2e6f26	0.6813835
152	0xbf20e2f8	-0.62846327
153	0x3eaf3986	0.34223574
154	0x3ebaa33a	0.36452657
155	0xbeffc715	-0.49956575
156	0xbf07ad3c	-0.5299871
157	0xbd6afb80	-0.057368755
158	0x3ecb8252	0.39747864
159	0x3e4624ef	0.19350027
160	0x3e32b865	0.17453153
161	0xbe65c62d	-0.2243888
162	0x3ef8c524	0.48587906
163	0xbe96f370	-0.29482603
164	0x3c62dcdb	0.013846601
165	0x3d2a5031	0.041580383
166	0xbf2daaf7	-0.67838997
167	0x3f061a81	0.5238419
168	0xbe6589b5	-0.22415812
169	0x3dd3f27c	0.103489846
170	0x3f0d30df	0.55152696
171	0x3f2b52c5	0.6692317
172	0xbf07a9a2	-0.52993214
173	0xbe956960	-0.29181957
174	0xbe69a3ae	-0.22816345
175	0xbf0de914	-0.55433774
176	0x3b24daaf	0.002515476
177	0x3f19826a	0.5996462
178	0x3ebfb88c	0.37445486
179	0x3e3b6dae	0.18303558
180	0xbf2d8e1a	-0.67794955
181	0x3f1c532e	0.6106442
182	0xbe97ca07	-0.29646322
183	0xbf31f4d9	-0.6951423
184	0x3ec7733b	0.389551
185	0x3dd9ff8d	0.106444456
186	0xbf183d0f	-0.5946817
187	0xbf352649	-0.70761544
188	0xbc6341d1	-0.013870672
189	0xbdff93f7	-0.12479394
190	0xbe205858	-0.156587
191	0xbec5e386	-0.3865015
192	0x3d1c5ad3	0.038172554
193	0xbeb07d1f	-0.3447046
194	0xbe86c9b8	-0.26325774
195	0xbed18b1b	-0.40926442
196	0x3eec3a7d	0.46138373
197	0x3ee06169	0.43824318
198	0xbe7b1fbd	-0.24523826
199	0x3ec93633	0.39299163
200	0xbf2cdc9d	-0.6752413
201	0xbef7d770	-0.48406553
202	0x3e5b1857	0.21396004
203	0xbf1cccbe	-0.6124991
204	0x3ef8f01f	0.48620698
205	0xbe429b93	-0.1900466
206	0xbed71161	-0.42005447
207	0x3f1cf785	0.61315185
208	0x3f2bf0b4	0.6716416
209	0x3f13a1ca	0.57668746
210	0x3eda49f9	0.42634562
211	0xbf18dcfc	-0.59712195
212	0x3f1746f6	0.5909265
213	0x3f0f1113	0.5588543
214	0x3e167242	0.14692023
215	0xbea6f9dd	-0.32612506
216	0xbf12c375	-0.57329494
217	0x3efb10d2	0.4903627
218	0x3e3c5a79	0.18393888
219	0xbf0de9ee	-0.55435073
220	0x3efd45b9	0.49467257
221	0xbedce6fd	-0.4314498
222	0xbaa44ced	-0.0012535133
223	0xbe83aabe	-0.25716203
224	0x3e9a7f57	0.30175278
225	0x3ee8dc46	0.45480555
226	0x3f074721	0.5284291
227	0xbd055f4b	-0.03256158
228	0xbe5b022a	-0.21387544
229	0x3ebbc88f	0.36676452
230	0x3eb6dcdd	0.3571538
231	0xbf0a3d1e	-0.5399951
232	0xbf127757	-0.5721335
233	0x3eb7aa68	0.35872197
234	0x3edaed7b	0.42759308
235	0x3ea186c9	0.31548145
236	0x3d51cbfd	0.05121993
237	0xbf2eff2d	-0.6835812
238	0x3edb98ce	0.42890018
239	0xbf26fae2	-0.65226567
240	0xbee95ca8	-0.45578504
241	0xbe91106b	-0.28332838
242	0x3ec31e87	0.38109228
243	0xbeebb196	-0.46033925
244	0xbec06ae7	-0.3758156
245	0xbed47bbe	-0.41500658
246	0x3f34fae7	0.70695347
247	0xbf0990a6	-0.5373634
248	0xbea51bec	-0.32247865
249	0xbf25b32a	-0.6472651
250	0xbf2c87d9	-0.6739479
251	0x3ccab92b	0.024746498
252	0x3d866817	0.06562822
253	0x3e580c91	0.21098544
254	0xbeab4e2a	-0.33458072
255	0x3e19a344	0.15003687

actor.linears.0.weight f4 [128, 384]
0	0x3d446e68	0.047956854
1	0xbc22d40b	-0.00993825
2	0x3cd6a224	0.026200362
3	0xbc35f4c1	-0.011105717
4	0x3d036c05	0.032085437
5	0x3bc03ab2	0.005866372
6	0xbceadd3c	-0.028669946
7	0xbce19fa9	-0.027541952
8	0xbce87e07	-0.028380407
9	0xbd16124f	-0.036638554
10	0xbce64455	-0.028108755
11	0xbd12a6a3	-0.03580345
12	0x3cb0222a	0.021500666
13	0xbcdbf1f0	-0.026848763
14	0xbd2d3c61	-0.04229391
15	0x3d1cacab	0.038250607
16	0x3d16158c	0.036641642
17	0xbd386bc6	-0.045024656
18	0x3ca805e7	0.020510627
19	0xbb1a827e	-0.0023576315
20	0x3b54de33	0.0032481074
21	0x3d258890	0.04041344
22	0xbd1447f3	-0.03620143
23	0x3cb1627e	0.02165341
24	0xbceafc81	-0.028684856
25	0x3d062246	0.03274753
26	0xbcd2664c	-0.025683545
27	0xbc076291	-0.008263246
28	0xbb97362e	-0.004614613
29	0xbcde687f	-0.027149437
30	0x3c030b9d	0.007998374
31	0xbc9c3f9d	-0.019073302
32	0xbc0ac67c	-0.008470174
33	0xbcefe53d	-0.029284114
34	0x3c91ae8c	0.017783426
35	0xbcf7e11b	-0.030258706
36	0xbd2e2507	-0.04251578
37	0x3cda94fd	0.026682371
38	0xbc49a8e6	-0.012308335
39	0xbd056008	-0.032562286
40	0xbd5dd4e1	-0.054158095
41	0xbb46d030	-0.0030336492
42	0x3ca3eb5c	0.020009689
43	0x3d641b35	0.05569001
44	0xbba4a4c1	-0.005024523
45	0x3c20c005	0.009811406
46	0x3cf46e80	0.029837847
47	0xba08ca92	-0.00052181736
48	0x3cad52ed	0.021157706
49	0xbd5583b3	-0.05212755
50	0x3ce4a5f2	0.02791116
51	0xbd2d27d9	-0.04227433
52	0xbcd01123	-0.025398796
53	0xba548b35	-0.00081079017
54	0x39e35160	0.00043357443
55	0xbd3357ba	-0.043784834
56	0x3c946932	0.018116567
57	0xbb876b33	-0.004132652
58	0xbd4ba4fc	-0.04971789
59	0x3d1b55bf	0.03792357
60	0x3d4f2b3f	0.050578352
61	0x3c9801e0	0.018555582
62	0xbd4e1abc	-0.050318465
63	0xbc4f5985	-0.01265562
64	0x3d033e32	0.032041736
65	0xbceb9de7	-0.028761817
66	0xbbb83ecf	-0.0056227217
67	0xbcffd732	-0.031230543
68	0xbd36840e	-0.04455953
69	0xbcce2124	-0.025162287
70	0xbbdfe34b	-0.0068325154
71	0x3cc56928	0.024097994
72	0x3ce5e240	0.028061986
73	0x3ce028a7	0.027363135
74	0x3d086c8d	0.033306647
75	0x3d1217d3	0.03566725
76	0xbd06687c	-0.032814488
77	0xbd3504bb	-0.044193964
78	0x3d269a3b	0.04067443
79	0xbc57844d	-0.013154102
80	0xbcd015f1	-0.025401087
81	0xbcd75e2f	-0.026290027
82	0x3c9bb74f	0.019008307
83	0xbcc7db1a	-0.024396468
84	0x3d17a9a1	0.037027005
85	0x3b4bbc07	0.0031087415
86	0xbbdbfd35	-0.0067135342
87	0x3d17c470	0.03705257
88	0x3c712323	0.01471785
89	0xbaa9743d	-0.0012928318
90	0x3cac77be	0.021053191
91	0x3c9ebea8	0.019378021
92	0xbd3da6b6	-0.046301566
93	0xbc8dace9	-0.017294364
94	0x3b3b3f50	0.0028571673
95	0x3cff911d	0.031197125
96	0xbc8eece3	-0.01744694
97	0xbc829369	-0.015939431
98	0xbcb1e396	-0.021714967
99	0xbcf03316	-0.029321235
100	0xbd150840	-0.03638482
101	0x3d18f179	0.03733966
102	0x3d2dc0e1	0.04242027
103	0xbd040c37	-0.03223821
104	0xbb3deef4	-0.0028981538
105	0xbd28b5bb	-0.041188937
106	0xbbfe4487	-0.007759634
107	0xbd1facb9	-0.03898308
108	0x3d369144	0.04457213
109	0xbcd0e66a	-0.025500495
110	0x3bfa3bf0	0.0076365396
111	0xbc43cc25	-0.011950527
112	0x3c689d7b	0.0141977025
113	0xbcf2d355	-0.029641787
114	0xbc70e76f	-0.014703616
115	0xbc974c64	-0.018469043
116	0xbd389ca9	-0.045071278
117	0xbd13c22a	-0.03607384
118	0xbca330e0	-0.019920766
119	0xbd25284b	-0.04032163
120	0x3d59d9db	0.05318628
121	0x3cfa3cc5	0.030546555
122	0x3cfc77d1	0.030818852
123	0x3bfa05e6	0.0076300977
124	0xbd3cc4ba	-0.04608605
125	0x3cdd3495	0.027002612
126	0x3cf2223e	0.029557344
127	0xbd221274	-0.03956838
128	0xbca6cc47	-0.020361079
129	0x3d51380d	0.051078845
130	0xbd05dc3c	-0.032680735
131	0xbc92443e	-0.017854806
132	0x3ca983d7	0.020692749
133	0xbd35299a	-0.044229127
134	0xbc792a7c	-0.015207883
135	0xbcf14b48	-0.029454842
136	0xbd38a3e3	-0.04507817
137	0xbcb63eaf	-0.022246687
138	0x3d09e75b	0.033667903
139	0xbd1f701b	-0.03892527
140	0x3d136e95	0.03599413
141	0x3cb0dc4a	0.021589417
142	0x3cfd4258	0.030915424
143	0xbd0a5dfe	-0.033781044
144	0x3b8f0878	0.004365023
145	0xbcb67aa5	-0.022275278
146	0x3d025944	0.03182341
147	0xbc07e88c	-0.00829519
148	0xbca500ad	-0.020141924
149	0x3b0cf4be	0.0021508182
150	0x3cb9a6dc	0.022662573
151	0xbcab6cc8	-0.020925894
152	0x3c449f33	0.012000847
153	0xbc754cee	-0.014971955
154	0x3cde871b	0.027164033
155	0xbc3f69ff	-0.011682986
156	0xbcc35d03	-0.023848062
157	0xbc812ae5	-0.015767524
158	0x3cb3d6f1	0.021953078
159	0xbd6461f3	-0.055757474
160	0xbbe35af5	-0.006938333
161	0xbcd87948	-0.026425019
162	0xbcabe61d	-0.02098375
163	0xbba6a306	-0.005085352
164	0x3cca40c0	0.024689078
165	0xbd0e24a4	-0.034702912
166	0xbc94ea94	-0.018178262
167	0x3b9f7924	0.004866736
168	0xbcff0578	-0.031130537
169	0x3d3e473d	0.046454657
170	0x3c809335	0.015695194
171	0x3d28db22	0.041224606
172	0x3d27e263	0.040987384
173	0xbd1df6d4	-0.03856547
174	0x3d629b35	0.0553238
175	0x3d2a14b6	0.041523658
176	0xbcd3c094	-0.025848664
177	0x3c0bcf51	0.008533315
178	0xbcc4af38	-0.024009332
179	0xbcc3987a	-0.023876417
180	0xbcfa0ff6	-0.030525189
181	0x3cb7948c	0.0224097
182	0x3b692ca7	0.0035579593
183	0x3d3b98cc	0.045800015
184	0xbca46f3e	-0.020072576
185	0x3d50ae75	0.050947625
186	0x3b534fca	0.0032243603
187	0x3c6fd55b	0.01463827
188	0xbce86d9a	-0.028372575
189	0x3c5fff2a	0.013671676
190	0xbd569b33	-0.052394103
191	0x3d06ce0a	0.032911338
192	0x3d27f88b	0.041008513
193	0xbcb99516	-0.022654098
194	0xbc41b6b2	-0.011823343
195	0xbd2c2c67	-0.042034533
196	0xbcc919b3	-0.024548387
197	0x3bcee34a	0.006313716
198	0x3c03a7b5	0.00803559
199	0xbd3a9221	-0.045549516
200	0x3d4ecb43	0.050486814
201	0xba84141e	-0.0010076796
202	0xbd354bf3	-0.044261884
203	0xbd00fde3	-0.031492125
204	0xbcea412d	-0.028595531
205	0x3b68469b	0.0035442475
206	0xbac866e4	-0.0015289453
207	0x3d19337f	0.037402626
208	0x3b95dfa5	0.0045737796
209	0x3ca0f82f	0.019649593
210	0xbd250649	-0.040289197
211	0xbcae9e5c	-0.021315746
212	0xbbbb05a8	-0.0057074614
213	0x3cbe1fcf	0.023208527
214	0xbca474ee	-0.020075288
215	0x3d2fc5e9	0.04291335
216	0xbcda854f	-0.026674895
217	0x3d15ac7b	0.036541443
218	0x3cf4a5ca	0.02986421
219	0x3d03126d	0.031999994
220	0xb9cac408	-0.00038674497
221	0x3d351870	0.04421276
222	0x3d0068ac	0.031349823
223	0x3d1ef781	0.038810257
224	0x3ce9a4d1	0.028520973
225	0xbcd9b69b	-0.02657633
226	0xbcb615ff	-0.022227285
227	0xbbdae041	-0.006679565
228	0xbca3a5f6	-0.019976597
229	0x3b57d127	0.003293106
230	0xbc9a7df5	-0.01885889
231	0xbd36ebd4	-0.044658497
232	0xbd40598b	-0.046960395
233	0x3bb5ba5f	0.005545899
234	0xbc728fa5	-0.014804755
235	0x3d5ba35b	0.053622585
236	0x3d2d6f04	0.0423422
237	0x3d39fc03	0.045406353
238	0x3cf14ef3	0.029456591
239	0x3d21fdb2	0.039548583
240	0x3b77dea8	0.0037821922
241	0x3cd4093c	0.02588331
242	0x3d0b7b7a	0.034053303
243	0xbd053f54	-0.032531098
244	0x3d0136e3	0.031546485
245	0xbd167618	-0.036733717
246	0xbd337572	-0.043813176
247	0x3d5a92ca	0.053362645
248	0x3ce1dfe2	0.027572576
249	0x3d3c9184	0.046037212
250	0x3cd1f694	0.025630273
251	0x3d0b4e3d	0.03401016
252	0x3b647667	0.0034860612
253	0x3cce4000	0.025177002
254	0x3d1f3c64	0.038875952
255	0xbd1e99ee	-0.038721018

actor.linears.0.bias f4 [128]
0	0x3c166bdd	0.00918099
1	0x3cd5762d	0.026057327
2	0xbc3ab09b	-0.011394645
3	0xbd1cb1ba	-0.03825543
4	0x3cc8b730	0.024501413
5	0x3d0cf5c7	0.03441408
6	0xbc3bf33a	-0.011471564
7	0x3c1af495	0.009457727
8	0x3d07fa09	0.033197436
9	0x3b704b53	0.003666599
10	0xbd23f02a	-0.04002396
11	0xbc7dfb31	-0.015501783
12	0x3cd10f2e	0.025519934
13	0x3cb90ade	0.02258819
14	0xbd3142be	-0.04327654
15	0x3bd5ab05	0.0065206313
16	0x3d04dbca	0.03243617
17	0xbc89f6b5	-0.016841272
18	0x3d1f269c	0.03885518
19	0xbbe8c385	-0.007103386
20	0x3d15a723	0.036536347
21	0x3cb3f868	0.021969035
22	0xba665e31	-0.00087878393
23	0xbd012dc7	-0.031537797
24	0x3cfc9533	0.030832862
25	0xbb77bcc5	-0.0037801724
26	0x3d221aca	0.03957633
27	0x3c95014b	0.018189093
28	0x3d362c8d	0.04447608
29	0x3cf4f66a	0.029902656
30	0xbb8d86ba	-0.004319039
31	0xbbdb9203	-0.0067007556
32	0x3c65f3ee	0.014035208
33	0xbc9b4471	-0.018953534
34	0x3cc46831	0.023975464
35	0xbbaa7573	-0.0052019893
36	0x3c9d5c54	0.019209065
37	0x3d4079ab	0.04699103
38	0xbd32a87b	-0.043617707
39	0xbc156d4a	-0.009120295
40	0x3d3a4714	0.04547794
41	0xbc548393	-0.012970823
42	0xbb718bfb	-0.0036857117
43	0x38f8e400	0.0001186803
44	0xbd1c14ce	-0.03810578
45	0xbc8d13ca	-0.01722135
46	0xbd05db6c	-0.03267996
47	0x3cb8aa2f	0.022542087
48	0xbbab42e2	-0.005226479
49	0x3d04beb8	0.032408446
50	0xbd4888df	-0.048958655
51	0xbc2a255a	-0.010384882
52	0xbbb51bd7	-0.0055270004
53	0x3d575ed9	0.05258069
54	0xbc0b425f	-0.008499711
55	0xbc409d81	-0.011756302
56	0xbceb0387	-0.028688205
57	0x3d0e1465	0.03468742
58	0xbc0ee125	-0.008720671
59	0xbbb8eeff	-0.005643725
60	0x3c4eb686	0.012616759
61	0xbd497084	-0.04917957
62	0x3c776fe3	0.0151023595
63	0x3a5402de	0.00080875854
64	0x3bfbaa3a	0.0076802047
65	0xbc498ce6	-0.012301659
66	0xbb5d7daa	-0.0033796825
67	0x3cfd0723	0.030887192
68	0x3d41fc0d	0.047359515
69	0x3d21c5f6	0.03949543
70	0xbd3271dd	-0.04356562
71	0xbbdbd297	-0.006708454
72	0x3d5fdb98	0.05465278
73	0xbc86423f	-0.01638901
74	0x3d2773f2	0.04088206
75	0x3c1c4052	0.0095368195
76	0x3d38bd79	0.04510257
77	0x3cc10f82	0.023566965
78	0xbd370318	-0.044680685
79	0xbc2d4dbe	-0.010577617
80	0xbd13c92d	-0.036080528
81	0xbd0d281b	-0.034462076
82	0x3c232957	0.009958587
83	0x3b6cc593	0.0036128506
84	0xbd06d533	-0.032918166
85	0x3cc4365c	0.023951702
86	0x3c959266	0.018258285
87	0xbd3b597d	-0.04573964
88	0x3d1a55b9	0.037679408
89	0x3bc7eb52	0.0061010504
90	0x3d4649ec	0.04841034
91	0xbcc9c5bc	-0.02463042
92	0xbc01ccb7	-0.007922343
93	0xbd292cee	-0.041302614
94	0x3beb7274	0.0071852747
95	0x3bf7aa1f	0.007558122
96	0x3d3a26e0	0.04544723
97	0xbcc85a53	-0.024457132
98	0x3d0724bb	0.032994013
99	0xbc2b8d4f	-0.010470702
100	0x3ceae57a	0.028673876
101	0x3cd898e3	0.02644009
102	0x3c948b98	0.01813297
103	0xbd0bcbd7	-0.034129944
104	0xbd32fe15	-0.043699343
105	0xbc1d87a8	-0.0096148625
106	0xbb5b863a	-0.0033496753
107	0xbca2aab3	-0.019856786
108	0x3d0e2989	0.03470758
109	0xbc9956f0	-0.018718213
110	0x3bb39d93	0.005481431
111	0xbb133b85	-0.0022465896
112	0xbbce85f5	-0.00630259
113	0xbcf4e76a	-0.029895503
114	0xbd160734	-0.036627963
115	0xbd38e6e2	-0.045142062
116	0x3d371788	0.044700176
117	0xbc0a5c16	-0.008444807
118	0xbd264f1e	-0.040602796
119	0xbca6310a	-0.020287056
120	0xbcee2fef	-0.02907559
121	0xbd23293b	-0.039834242
122	0xbd139925	-0.036034722
123	0x3d3d9ac8	0.04629019
124	0x3cf55971	0.029949876
125	0xbd109fbc	-0.035308585
126	0xbbc5e938	-0.0060397647
127	0x3be52524	0.006992953

actor.linears.1.weight f4 [128, 128]
0	0x3be36590	0.0069395974
1	0x3d84d4fb	0.06485935
2	0x3ce7d260	0.028298557
3	0x3d285ecf	0.04110604
4	0xbb9fd4c0	-0.0048776567
5	0x3da71817	0.08158892
6	0x3b9d3dc1	0.0047986214
7	0x3d0895ae	0.03334587
8	0xbdbc6340	-0.09198618
9	0xba131a79	-0.000561155
10	0x3d5d7c9d	0.05407392
11	0x3cead0ce	0.028664019
12	0x3d04ffa7	0.03247037
13	0xbd75b26c	-0.05998461
14	0x3d8d036c	0.06885418
15	0x3d0e25d5	0.03470405
16	0xbd8f9d6c	-0.07012448
17	0xbcb557de	-0.022136625
18	0x3d304b1f	0.04304039
19	0x3d80df8e	0.0629264
20	0x3c5862e5	0.013207172
21	0x3c8bdacb	0.017072102
22	0xbd4c1d9f	-0.049832936
23	0xbc84a9cb	-0.016194245
24	0xbd9bcd4c	-0.07607517
25	0xbd9cb687	-0.07652002
26	0x3cabfc1b	0.020994237
27	0x3c0b3dab	0.0084985895
28	0x3d113108	0.03544715
29	0x3cc0bfd9	0.02352898
30	0x3cf8fa3c	0.030392759
31	0xbd50451c	-0.050847158
32	0x3db4e3c7	0.088325076
33	0x3d185139	0.037186835
34	0x3d97d8f1	0.07414425
35	0x3bd4959f	0.006487563
36	0xbd113583	-0.035451423
37	0x3d9295c5	0.071574725
38	0x3bc76402	0.00608492
39	0x3d11c081	0.035583977
40	0x3d28511e	0.041092984
41	0xbd49e6c0	-0.049292326
42	0x3d9da557	0.07697552
43	0x3d9db960	0.07701373
44	0x390328c3	0.00012508318
45	0x3cc0d9c1	0.023541333
46	0xbd102c5b	-0.03519855
47	0xbd2a07dc	-0.0415114
48	0xbc49c2e8	-0.012314536
49	0x3da8ecec	0.08248314
50	0x3d069a49	0.03286198
51	0x3d13a8fb	0.036049824
52	0xbc9831a6	-0.018578362
53	0x3938202d	0.00017559594
54	0x3d8a3fd7	0.06750458
55	0x3d8acc90	0.067772985
56	0xbda5dd6d	-0.08098874
57	0x3d384249	0.04498509
58	0xbd90a1e2	-0.07062127
59	0xbd1ba95f	-0.03800332
60	0x3d6404b0	0.055668533
61	0x3c426b56	0.011866411
62	0xbd7b5b49	-0.061366353
63	0xbbbee917	-0.0058261263
64	0x3be855eb	0.0070903203
65	0x3d9e33eb	0.07724746
66	0x3cec49c2	0.028843764
67	0x3d902cf6	0.070398256
68	0xbd20f94f	-0.03930026
69	0xbd592774	-0.05301614
70	0x3db03885	0.0860453
71	0x3cf01a7a	0.0293095
72	0xbda4f64b	-0.08054789
73	0xbd23f600	-0.040029526
74	0x3cddc059	0.027069258
75	0x3d595017	0.053054895
76	0x3d297629	0.041372452
77	0x3cbe7809	0.023250597
78	0x3c812763	0.015765851
79	0xbc157d09	-0.009124049
80	0xbd9059a6	-0.07048349
81	0x3d2178a5	0.039421696
82	0xbd019efd	-0.031645764
83	0x3c2b1c94	0.010443825
84	0x3da1595c	0.07878372
85	0xbcf43d53	-0.029814398
86	0x3ca060bd	0.019577378
87	0x3c891e8c	0.016738199
88	0x3d1bd283	0.038042556
89	0xbd8ff7db	-0.070296966
90	0x3b9e5d4e	0.0048329
91	0xbd989f1a	-0.07452221
92	0xbd8eb52c	-0.069681495
93	0xbca6c250	-0.020356327
94	0xbbb80094	-0.0056153033
95	0xbd85bd00	-0.065301895
96	0xbbe0a192	-0.006855198
97	0x3da4ae40	0.08041048
98	0xbd91d6cf	-0.071210496
99	0xbc993823	-0.018703526
100	0xbca1c5b8	-0.0197476
101	0x3db9d0af	0.09073006
102	0x3d0f59f6	0.034997903
103	0xbd5603b2	-0.052249618
104	0xbd42cc46	-0.04755809
105	0x3ceabc7b	0.028654328
106	0x3ca694d0	0.020334631
107	0xbd9a5005	-0.07534794
108	0x3d596248	0.053072244
109	0x3da1cf8f	0.07900917
110	0xbce4a4d1	-0.027910622
111	0x3d36d901	0.044640545
112	0xbcc3d5d4	-0.023905672
113	0xbcbddc89	-0.023176448
114	0x3da16ec0	0.07882452
115	0x3d0ca5c5	0.034337778
116	0xbd5efef4	-0.05444236
117	0x3d97f822	0.074203745
118	0x3cbd5265	0.023110578
119	0x3c7ab78e	0.015302552
120	0xbcc94366	-0.02456827
121	0x3d85cf0a	0.0653363
122	0xbb8cedb4	-0.0043007974
123	0x3daa4537	0.08313983
124	0x3d71013c	0.058839068
125	0x3d856db6	0.06515066
126	0xbdb9a6cd	-0.09065018
127	0x3d972362	0.073797956
128	0xbd97e754	-0.07417169
129	0x3d9f509d	0.07779048
130	0x3d35e1f0	0.044404924
131	0xbd144605	-0.03619959
132	0x3d0888cf	0.033333596
133	0xbda3cfc4	-0.079986125
134	0xbce7593e	-0.028240796
135	0x3d91cede	0.07119535
136	0x3dae619c	0.08514711
137	0x3d7308af	0.059334453
138	0xbc0fb5f7	-0.008771411
139	0xbd76b0e9	-0.06022731
140	0xbb116f8a	-0.0022191727
141	0xbb3c11ef	-0.0028697213
142	0x3d5189ab	0.05115668
143	0xbd980527	-0.07422858
144	0x3bcc4ecd	0.0062349797
145	0x3d0d344d	0.034473706
146	0xbd50fbd9	-0.05102143
147	0xbd8e2a2a	-0.06941636
148	0x3d1be716	0.038062178
149	0xbd1838de	-0.037163608
150	0xbcd07b18	-0.02544932
151	0xbdaa5843	-0.08317616
152	0xbc6fad6a	-0.0146287475
153	0x3b9b63ba	0.004742113
154	0x3c85fd9b	0.01635628
155	0xbc326f1c	-0.010890748
156	0xbca7f0e3	-0.020500606
157	0xbd962926	-0.07332067
158	0x3dad521c	0.08462927
159	0x3d30a648	0.04312733
160	0xbd40111a	-0.04689131
161	0x3d99cbb4	0.075095564
162	0xbd935933	-0.07194748
163	0x3bb21bea	0.0054354565
164	0x3c4123e8	0.011788346
165	0x3d1eda2b	0.03878228
166	0x3da1ef1e	0.07906936
167	0xbd0a0424	-0.033695355
168	0x3d095f88	0.03353837
169	0x3d875119	0.06607265
170	0xbd09263f	-0.03348374
171	0xbd748220	-0.05969441
172	0x3daaa13b	0.083315335
173	0x3d4f95f0	0.0506801
174	0xbd17e95d	-0.037087787
175	0xbd9eafcb	-0.077483736
176	0x3d7dbd31	0.061948005
177	0xbda2ccbd	-0.07949207
178	0x3dbbc2cd	0.09168015
179	0x3d39bb44	0.045344606
180	0xbd5bf623	-0.05370153
181	0xba7c8aec	-0.0009633738
182	0xbbd8d9a2	-0.0066177407
183	0xbd9f7ab7	-0.07787078
184	0x3d8a8490	0.067635655
185	0xbd49b3b5	-0.049243648
186	0xbd61dfa2	-0.055144913
187	0xbd41eea8	-0.04734674
188	0xbd01ebb6	-0.031718932
189	0x3d24eb66	0.040263556
190	0x3d67aa8f	0.05655914
191	0xbcbfb0aa	-0.02339967
192	0xbd076a92	-0.033060618
193	0xbccd4703	-0.025058275
194	0xbcd13de3	-0.025542205
195	0x3cd6672d	0.026172245
196	0xbb1bb5fb	-0.0023759592
197	0x3bd1b8b0	0.0064001903
198	0x3d46416a	0.048402227
199	0x3da6ac44	0.08138326
200	0x3d19a4cf	0.03751069
201	0xbd94144d	-0.072304346
202	0xbd3fa541	-0.046788458
203	0xbd886b77	-0.06661122
204	0x3db5cbd9	0.088767715
205	0x3bd2a26b	0.006428053
206	0xbb87a84b	-0.004139935
207	0x3c5bb76f	0.013410433
208	0xbbb11942	-0.0054046223
209	0xbb874a25	-0.0041287118
210	0x3d7e5bcc	0.062099263
211	0xbd8f1861	-0.06987072
212	0x3d8f2271	0.06988991
213	0x3cab5172	0.02091286
214	0x3d176be4	0.036968127
215	0x3be3e1fc	0.0069544297
216	0x3d34825f	0.044069644
217	0x3dbdb11a	0.09262295
218	0x3d71dd65	0.05904903
219	0x3c9e0a48	0.019292012
220	0xbd9624e1	-0.07331253
221	0xbd91b430	-0.07114446
222	0x3c044d66	0.008075094
223	0xba943f20	-0.0011310317
224	0xbbb8ad70	-0.0056359097
225	0x3c1e5b76	0.009665361
226	0xbd658918	-0.056038946
227	0xbd24293e	-0.040078394
228	0xbd031b8a	-0.032008685
229	0x3d957a97	0.07298773
230	0xbd378178	-0.044801205
231	0x3c32d8a4	0.010915909
232	0x3d1f7df1	0.038938466
233	0xbd67ae01	-0.056562427
234	0x3b945f7a	0.0045279833
235	0x3d8555fe	0.06510542
236	0xbcc76f77	-0.024345143
237	0x3c6fb2e4	0.014630053
238	0x3d904910	0.070451856
239	0xbd66a791	-0.056312148
240	0xbc64eacb	-0.013971995
241	0xbda2bd11	-0.07946218
242	0x3d9021dd	0.07037709
243	0x3d9e7ec6	0.07739024
244	0xbcdf851b	-0.02728515
245	0xbd6b0c1a	-0.057384588
246	0xbda2eeaa	-0.07955678
247	0x3da999db	0.08281299
248	0xba8df20f	-0.0010829585
249	0x3d59a161	0.05313242
250	0x3d8d79c2	0.06907989
251	0x3d0d8cca	0.034558095
252	0x3cbf9021	0.023384156
253	0xbd8cf1e2	-0.06882073
254	0xbd2f020f	-0.042726573
255	0x3d2fcf46	0.04292228

actor.linears.1.bias f4 [128]
0	0x3c6af915	0.014341612
1	0x3d59be69	0.053160105
2	0x3d4e1d41	0.050320867
3	0x3d260323	0.040530335
4	0xbd0009a1	-0.031259183
5	0xbdaaaf17	-0.08334177
6	0x3d8f6eda	0.07003565
7	0x3d70c6c7	0.05878332
8	0x3dad2033	0.08453407
9	0xbdb24f2f	-0.08706509
10	0xbbde39ba	-0.006781784
11	0xbcc6d7a2	-0.024272744
12	0xbcae32f6	-0.021264534
13	0xbd8aab18	-0.06770915
14	0xba615450	-0.00085956324
15	0xbda46873	-0.080277346
16	0xbbc2564a	-0.0059306966
17	0x3d8eee8e	0.069790944
18	0x3ce6c7f0	0.02817151
19	0xbd3e3767	-0.046439555
20	0x3aa7aac7	0.0012791984
21	0xbd5e7019	-0.054306123
22	0x3d9a1d8e	0.07525168
23	0xbd2e3c51	-0.04253799
24	0x3c5c3eba	0.01344269
25	0x3c6cd4f2	0.014455067
26	0xbd9d297b	-0.076739274
27	0x3aa0622e	0.0012236291
28	0xbd97bd8d	-0.07409201
29	0x3cb29043	0.021797305
30	0xbd00730d	-0.03135972
31	0x3d141298	0.036150545
32	0xbcfcaddf	-0.030844627
33	0xbaa0cb3f	-0.0012267603
34	0xbbff1b74	-0.007785255
35	0x3be5c0c5	0.0070115053
36	0x3d3e8995	0.046517927
37	0x3d761dc7	0.06008699
38	0xbd5e7198	-0.05430755
39	0xbd81692b	-0.06318887
40	0x3ce03a15	0.027371446
41	0xbccd318c	-0.02504804
42	0xbd946c52	-0.07247223
43	0x3dabd20e	0.08389674
44	0x3d96a09b	0.07354852
45	0x3d0013a5	0.031268734
46	0xbb850174	-0.004059011
47	0xbc427766	-0.011869287
48	0xbcc9848a	-0.024599332
49	0xbd825b6f	-0.06365096
50	0xbd34cda5	-0.04414143
51	0x3d9d7dd6	0.07690017
52	0x3d43b90d	0.0477839
53	0x3d16a025	0.03677382
54	0xbc6c0a41	-0.014406742
55	0x3cec54da	0.028849054
56	0xbd50de5c	-0.05099331
57	0x3d380ddc	0.044935092
58	0x3d05713c	0.03257869
59	0x3ce4793c	0.02788984
60	0xbd97edb3	-0.074183844
61	0xbd8e6dfd	-0.06954572
62	0xbc8a0f64	-0.016853042
63	0xbd665392	-0.056232043
64	0xbd2ed2db	-0.042681556
65	0x3ceb21ad	0.028702581
66	0x3d0fb477	0.035084214
67	0xbda866e4	-0.0822275
68	0x3d69e2b8	0.05710098
69	0x3ccd8e09	0.025092142
70	0xbdab14fb	-0.08353611
71	0x3d81dd5e	0.063410506
72	0xbcd5b9b6	-0.02608953
73	0xbd7546ed	-0.059882093
74	0x3da3781d	0.07981894
75	0x3d501f87	0.050811317
76	0x3d533c1e	0.051571004
77	0xbbaa6b9b	-0.005200816
78	0x3d5f0982	0.054452427
79	0xbb9d462f	-0.0047996263
80	0x3d990177	0.074709825
81	0x3d6e318e	0.058152728
82	0x3d407c54	0.04699357
83	0xbd35f8ce	-0.04442673
84	0x3d1a2119	0.03762922
85	0x3d9d39a6	0.07677011
86	0x3c4953e9	0.012288072
87	0xbd46c852	-0.048530884
88	0xbd5f17dc	-0.054466113
89	0x3c52c976	0.012865415
90	0xbd1c7cf8	-0.038205117
91	0x3d70f39d	0.058826078
92	0x3d99354f	0.07480871
93	0x3d8faf93	0.0701591
94	0x3c6980dd	0.014251915
95	0xbcaad340	-0.020852685
96	0x3ca6cb5e	0.020360645
97	0x3d01862a	0.03162209
98	0x3d4744b0	0.04864949
99	0x3d43b056	0.04777559
100	0xbc6caa0d	-0.01444484
101	0x3d3e9570	0.046529233
102	0xbc29a2b5	-0.010353734
103	0x3da9540d	0.082679845
104	0xbd4d6c9c	-0.050152406
105	0xbbd1ff94	-0.006408641
106	0xbd774400	-0.060367584
107	0x3c9b3ea3	0.018950766
108	0x3d1222f4	0.035677865
109	0x3d4b32ef	0.04960912
110	0xbd7a6a14	-0.06113632
111	0x3ce5f1fa	0.028069485
112	0x3c6cd7af	0.01445572
113	0x3d0d737e	0.03453397
114	0x3db2437c	0.08704278
115	0x3b984c0f	0.0046477388
116	0x3dbfa170	0.09356964
117	0x3d0c4a80	0.034250736
118	0x3d618491	0.055058066
119	0x3cdaae9b	0.026694587
120	0x3c6fd2f3	0.014637697
121	0x3daf0a8c	0.085469335
122	0x3cf7443a	0.0301839
123	0x3d61d7fa	0.055137612
124	0xbd3314cd	-0.04372101
125	0xbd794213	-0.06085403
126	0xbd0ae19b	-0.03390656
127	0x3d901c94	0.07036701
