FJSP_RealWorld/saved_network/FJSP_J15M15/best_value5/policy_mch.pth (torch_old, 271482 bytes, 14 tensors)

bn.weight f4 [128]
1.0036683 0.994341 0.9999999 1.0032666 1.005809 0.99459934 1.0036739 0.99452686
0.9980658 1.0052856 0.99254423 1.0002308 0.99384373 1.0063635 0.9996423 0.99253917
0.996559 1.0008074 0.99242866 1.005946 1.005137 1.006363 0.9922406 0.9984947
0.99381065 0.99650455 0.99507254 0.9976727 0.99291515 0.9991396 1.005118 0.9981806
1.0042925 0.9977766 1.0045482 0.9964723 1.002878 1.0023434 1.0059701 0.99771905
1.0049596 1.0063989 1.001857 0.99248624 1.0074956 1.001758 1.0041925 1.0001249
0.9959226 0.9934557 1.0063212 1.0064883 0.99611074 0.99850774 1.0062644 0.9958965
1.0018158 1.0023133 0.9950838 0.9975504 1.004529 0.99480504 1.0022235 0.9978095
1.0063276 0.9948594 0.9956619 0.99826497 0.9936261 1.0021303 0.9966393 0.9892775
0.9986391 0.99186164 0.99599177 0.9929646 1.006465 1.0061363 0.9997635 0.9975237
0.9946276 0.9952461 1.0055043 0.99457836 0.9978845 0.9935418 1.001509 1.0068735
0.9999738 0.99831057 1.0033282 1.0011837 0.99702686 0.9956638 1.0041533 0.9971783
1.0035485 0.99210584 0.9954109 0.9950516 0.997674 1.0058848 0.9901236 0.9925773
0.99950445 0.99803466 0.9931955 1.0016811 0.99726343 1.0061482 0.9911991 0.9953851
0.9958769 0.9961796 0.99716234 1.0044252 0.9954629 1.0076714 1.0051442 1.005472
0.9957845 0.99827737 1.007481 0.98826087 1.0070044 1.0037066 0.9961563 1.0021267
00000000: 3478 803f 228d 7e3f feff 7f3f 0a6b 803f
00000010: 59be 803f 109e 7e3f 6378 803f 5099 7e3f
00000020: 3e81 7f3f 33ad 803f 6117 7e3f 9007 803f
00000030: 8b6c 7e3f 85d0 803f 8fe8 7f3f 0c17 7e3f
00000040: 7e1e 7f3f 751a 803f ce0f 7e3f d7c2 803f
00000050: 54a8 803f 81d0 803f 7b03 7e3f 599d 7f3f
00000060: 606a 7e3f ec1a 7f3f 13bd 7e3f 7a67 7f3f
00000070: b02f 7e3f 9dc7 7f3f b5a7 803f c488 7f3f
00000080: a88c 803f 4a6e 7f3f 0995 803f cf18 7f3f
00000090: 4e5e 803f ca4c 803f a1c3 803f 846a 7f3f
000000a0: 84a2 803f aed1 803f da3c 803f 9413 7e3f
000000b0: 9ef5 803f 9b39 803f 6189 803f 1804 803f
000000c0: c9f4 7e3f 1d53 7e3f 22cf 803f 9cd4 803f
000000d0: 1d01 7f3f 349e 7f3f 46cd 803f 13f3 7e3f
000000e0: 803b 803f cd4b 803f d0bd 7e3f 775f 7f3f
000000f0: 6894 803f 8bab 7e3f dc48 803f 7270 7f3f
00000100: 58cf 803f 1baf 7e3f b3e3 7e3f 4b8e 7f3f
00000110: 485e 7e3f ce45 803f c123 7f3f 4a41 7d3f
00000120: d0a6 7f3f a5ea 7d3f 51f9 7e3f ee32 7e3f
00000130: d8d3 803f 13c9 803f 80f0 7f3f b75d 7f3f
00000140: ea9f 7e3f 73c8 7e3f 5db4 803f b09c 7e3f
00000150: 5c75 7f3f c158 7e3f 7231 803f 3be1 803f
00000160: 48fe 7f3f 4891 7f3f 0f6d 803f ca26 803f
00000170: 273d 7f3f d3e3 7e3f 1888 803f 1447 7f3f
00000180: 4774 803f a6fa 7d3f 40d3 7e3f b4bb 7e3f
00000190: 9067 7f3f d5c0 803f be78 7d3f 8c19 7e3f
000001a0: 86df 7f3f 337f 7f3f 0f42 7e3f 1637 803f
000001b0: a84c 7f3f 77c9 803f 39bf 7d3f 8fd1 7e3f
000001c0: caf1 7e3f a005 7f3f 0846 7f3f 0191 803f
000001d0: a8d6 7e3f 60fb 803f 91a8 803f 4eb3 803f
000001e0: bceb 7e3f 1b8f 7f3f 23f5 803f aafe 7c3f
000001f0: 85e5 803f 7579 803f 1904 7f3f b045 803f

bn.bias f4 [128]
-0.007694694 -0.007134474 0.009314358 -0.009775288 -0.005119792 0.0040698606 0.006669346 -0.003653371
-0.0038096292 0.008715908 0.004440466 -0.0065453346 -0.004358849 0.007932812 0.0065615973 0.008592164
-0.004626711 0.0061702793 0.006424716 -0.00051048875 0.0021006241 -0.006952166 0.002332215 0.007076968
0.009423486 -0.0072691315 -0.004354094 -0.00093425415 0.00037487023 -0.0016504459 0.007639076 -0.0072940537
-0.0024959254 0.0028490864 0.00086809497 0.009690085 0.0026179913 0.0015415527 -0.001392561 -0.007041149
0.006170755 0.008336592 0.009844169 -0.009073648 0.008989344 -0.008856344 -0.007978725 -0.009265656
-0.0050107497 -0.006245266 0.0016401133 -0.0035210007 -0.008884098 0.006903437 0.00014665881 -0.004071557
0.0068198093 0.001439323 0.005216206 0.0032573352 0.004861647 0.0072989142 0.005075458 -0.007848908
-0.002470692 0.0060647735 0.001411453 0.008446183 0.007070955 0.010661548 0.0036972333 -0.008752015
0.0012041968 -0.0056344937 -0.00012098052 -0.003037253 0.0079551935 0.0054267715 0.001273369 -0.00050451985
0.0057633817 0.002706913 0.0018093325 -0.0029496679 0.008835289 -0.009260566 -0.007076071 0.0005755036
0.0056077447 -0.0023685724 0.004158944 -0.009844179 0.004809819 0.00902809 0.001257714 -0.009540089
0.008029767 -9.762382e-05 0.009326397 0.0078066983 -0.0013265546 -0.0028681858 0.0022483373 -0.0022355549
0.006899173 0.0031634045 0.0023696672 -0.008035858 -0.005293647 0.0055696596 -0.009056193 -0.0012296699
0.0024071569 0.0036868437 0.009399378 -0.0019714732 0.002125568 -0.0033532442 0.007272553 0.0058915843
-0.000627513 -8.177548e-05 -0.0037139712 0.0005730289 -0.0042253374 0.004121778 -0.004557006 0.008743043
00000000: c623 fcbb 4ec8 e9bb 409b 183c 8828 20bc
00000010: eec3 a7bb 775c 853b 878a da3b 656d 6fbb
00000020: f9aa 79bb 2bcd 0e3c 5481 913b 3f7a d6bb
00000030: add4 8ebb a0f8 013c ab02 d73b 26c6 0c3c
00000040: aa9b 97bb 0e30 ca3b 6d86 d23b 52d2 05ba
00000050: a0aa 093b ffce e3bb 13d8 183b e9e5 e73b
00000060: f764 1a3c e531 eebb caac 8ebb bce8 74ba
00000070: 3b8a c439 c653 d8ba 3751 fa3b f502 efbb
00000080: ae92 23bb bdb7 3a3b de90 633a 2ac3 1e3c
00000090: 9b92 2b3b ed0d ca3a 9886 b6ba 70b9 e6bb
000000a0: 0b34 ca3b 3496 083c 7049 213c a3a9 14bc
000000b0: 0b48 133c 331a 11bc 33b9 02bc face 17bc
000000c0: 3731 a4bb 17a5 ccbb 12f9 d63a 97c0 66bb
000000d0: 9c8e 11bc 3a36 e23b 6dc8 1939 b26a 85bb
000000e0: b578 df3b aaa7 bc3a b5ec aa3b 0479 553b
000000f0: 734e 9f3b bb2b ef3b 0750 a63b b598 00bc
00000100: 55eb 21bb 02bb c63b 8100 b93a dc61 0a3c
00000110: 78b3 e73b c6ad 2e3c 484d 723b 9d64 0fbc
00000120: 24d6 9d3a 8fa1 b8bb ecb6 fdb8 a60c 47bb
00000130: 8056 023c 0fd3 b13b 2ce7 a63a c141 04ba
00000140: c0da bc3b 7766 313b 2027 ed3a 374f 41bb
00000150: e3c1 103c a1b9 17bc 63de e7bb 65dd 163a
00000160: 2cc1 b73b 0d3a 1bbb c047 883b 7b49 21bc
00000170: b09b 9d3b 8eea 133c e1d9 a43a 094e 1cbc
00000180: 498f 033c 64bb ccb8 bfcd 183c 55cf ff3b
00000190: c9df adba 2cf8 3bbb d758 133b 6382 12bb
000001a0: 7512 e23b 1f51 4f3b 6b4c 1b3b d5a8 03bc
000001b0: 5476 adbb b181 b63b 6d60 14bc e02c a1ba
000001c0: 64c1 1d3b f99e 713b d9ff 193c d533 01bb
000001d0: 1d4d 0b3b 1ac2 5bbb 994e ee3b 310e c13b
000001e0: af7f 24ba e07e abb8 1966 73bb 5237 163a
000001f0: b374 8abb fb0f 873b f052 95bb fb3e 0f3c

bn.running_mean f4 [128]
-0.065590456 -0.19868638 -0.17092995 0.16343957 0.07733665 -0.030610899 -0.16433449 -0.0898065
-0.14450783 0.093873024 0.035490017 0.1883109 0.10699703 -0.109641045 -0.105577804 0.16008419
0.04818382 -0.028332815 -0.06481411 0.053426463 0.022027133 0.019831106 -0.15716048 0.13553308
-0.08317582 -0.013151802 0.019064737 0.19327796 -0.044617478 -0.15764138 -0.10349953 -0.012348685
0.045139726 0.13514432 0.010480769 -0.17630406 -0.061238863 -0.099416636 0.09020904 0.14300032
-0.15434827 -0.012128603 -0.13314393 0.08334191 0.021670705 0.2023531 -0.06465807 -0.13226932
0.17135558 -0.19609404 -0.022210898 0.071702026 0.043707326 -0.1155807 0.1502816 0.14870788
-0.08890509 0.029016707 0.11657427 0.124846704 0.09079824 -0.025905965 -0.010138097 -0.03494361
0.0665394 0.016100215 0.07756707 -0.042936705 0.16288562 -0.14451516 0.0763369 0.1228565
-0.17317066 0.06882434 -0.1575972 -0.08934961 -0.0026171454 -0.008309539 0.09200269 0.15449665
0.112294465 -0.011226835 -0.13129514 -0.12558739 -0.13938484 0.13581933 0.13514131 0.15829507
0.04180333 0.11184433 -0.1245464 0.088562414 0.026744807 -0.07213197 -0.115424745 0.122639745
0.014541164 -0.17439924 -0.18535465 -0.1710755 -0.20386896 0.010554763 -0.18092966 0.0051932354
-0.19221108 -0.14050798 0.13853286 0.15028825 -0.11377001 0.013969701 0.14523333 0.053536028
-0.12847596 -0.023604669 0.046675816 -0.10619657 0.039655786 0.038654853 -0.1453471 -0.00062020443
-0.12568696 -0.06416502 0.07342252 0.17908919 -0.02225291 -0.1649026 0.0520641 0.098106325
00000000: 4a54 86bd 7174 4bbe 4308 2fbe b45c 273e
00000010: ad62 9e3d b5c3 fabc 4d47 28be 78ec b7bd
00000020: dcf9 13be 8040 c03d fb5d 113d 93d4 403e
00000030: 4221 db3d 7c8b e0bd 2d39 d8bd 1ced 233e
00000040: 665c 453d 381a e8bc 43bd 84bd b5d5 5a3d
00000050: 3f72 b43c d874 a23c adee 20be 2fc9 0a3e
00000060: 1658 aabd a87a 57bc a72d 9c3c a8ea 453e
00000070: d1c0 36bd be6c 21be 90f7 d3bd 2452 4abc
00000080: 6fe4 383d 4663 0a3e 88b7 2b3c 0d89 34be
00000090: 9ad5 7abd f39a cbbd 84bf b83d ad6e 123e
000000a0: 790d 1ebe 0cb7 46bc e256 08be 2aaf aa3d
000000b0: c386 b13c a735 4f3e 736b 84bd 9c71 07be
000000c0: d677 2f3e e0cc 48be a1f3 b5bc 83d8 923d
000000d0: 7406 333d 93b5 ecbd 6be3 193e e146 183e
000000e0: df13 b6bd 72b4 ed3c 7ebe ee3d a1af ff3d
000000f0: 6df4 b93d bf38 d4bc 431a 26bc 0821 0fbd
00000100: cf45 883d 99e4 833c 7cdb 9e3d 66de 2fbd
00000110: 7dcb 263e c8fb 13be 8556 9c3d 309c fb3d
00000120: a653 31be c7f3 8c3d 2961 21be eefc b6bd
00000130: 6a84 2bbb bc24 08bc e86b bc3d 5f34 1e3e
00000140: a4fa e53d c2f0 37bc 3c72 06be fb99 00be
00000150: e6ba 0ebe 3914 0b3e 7c62 0a3e 1a18 223e
00000160: f839 2b3d a40e e53d 2f12 ffbd 3660 b53d
00000170: ed17 db3c edb9 93bd cf63 ecbd 8c2a fb3d
00000180: 103e 6e3c b795 32be 9ccd 3dbe 6a2e 2fbe
00000190: 06c3 50be e2ed 2c3c a045 39be 042c aa3b
000001a0: fbd2 44be 53e1 0fbe 8fdb 0d3e 2ae5 193e
000001b0: 4000 e9bd 2ce1 643c 0cb8 143e 9848 5b3d
000001c0: 348f 03be 945e c1bc 242f 3f3d 967d d9bd
000001d0: 1b6e 223d 8d54 1e3d dfd5 14be 3795 22ba
000001e0: 15b4 00be f368 83bd 8c5e 963d 2863 373e
000001f0: bc4b b6bc 3adc 28be 2a41 553d f8eb c83d

bn.running_var f4 [128]
0.0013405016 0.0005882617 0.0015053089 0.0005649074 0.0013952637 0.001186769 0.00064439094 0.00036998125
0.0013505624 0.0012740004 2.688636e-05 0.00048628132 0.0004160079 0.0014527391 0.0015455758 0.0007807583
0.00016032686 0.0011862163 7.836064e-05 0.0014318739 0.0015327252 0.00051325 0.0012899269 0.0003862083
0.0016671955 5.1903084e-05 0.0009027028 0.0006241673 0.0009082317 0.00093226146 0.00038743764 0.00082852924
0.001632147 0.00067970116 0.00024312957 0.0012621342 0.0004673316 0.00050256733 0.00074869505 0.0013746922
0.0007311545 0.0010084027 0.00025717908 8.1530874e-05 0.0002758872 0.00080068817 0.0016009855 0.0014961764
0.00045842063 0.0017052758 0.0009524628 0.00093835895 0.000108240194 0.00026654793 0.0011128513 0.00041873942
0.000113356175 0.00067809696 0.00015925895 0.0005747169 0.0012080786 0.0008485346 0.0008380391 0.00063593517
0.0008120226 0.0007319425 0.00068139535 5.6252342e-05 0.00063517137 0.00043616683 0.0004038408 0.0002026888
0.0004099978 5.873387e-05 0.00034763786 0.000424832 0.00076277385 6.255092e-06 0.000863081 0.00035685126
0.00032804566 0.0007606422 0.0010453301 0.0002640155 0.0015499918 0.0017005554 0.00023765354 0.0013772568
0.00015657498 0.00032206168 0.00039221736 0.00022644213 1.9566409e-05 0.00018874533 0.0002938657 0.00047030815
0.0010094265 0.0011068303 0.00084246305 0.001191455 0.0011162019 0.0005777382 0.0010165019 7.8795034e-05
0.00088323146 0.0005647997 0.0004283099 0.0017791081 0.0005690047 0.0006260839 0.00024640365 0.00031835446
0.00049749657 9.082995e-05 0.00026454107 0.0007145913 0.0001071292 0.00060941186 0.0013247062 0.00082207297
0.0006306144 0.0013671338 0.0016553171 0.00050913676 0.0002797272 0.0014226467 0.0003402748 0.0015715619
00000000: c5b3 af3a 9335 1a3a c94d c53a 4b16 143a
00000010: 48e1 b63a 5c8d 9b3a 58ec 283a 0bfa c139
00000020: 5b05 b13a 5cfc a63a 058a e137 93f3 fe39
00000030: a31b da39 d669 be3a eb94 ca3a cdab 4c3a
00000040: 6a1d 2839 d07a 9b3a 8c55 a438 b7ad bb3a
00000050: b9e5 c83a a08b 063a c412 a93a 007c ca39
00000060: cc85 da3a 83b2 5938 5ca3 6c3a 299f 233a
00000070: 6616 6e3a 0263 743a 0021 cb39 a831 593a
00000080: c4ed d53a f92d 323a 99f0 7e39 326e a53a
00000090: 3004 f539 b9be 033a 1344 443a 042f b43a
000000a0: f3aa 3f3a 612c 843a fed5 8639 8efb aa38
000000b0: f4a4 9039 46e5 513a 29d8 d13a 591b c43a
000000c0: 2d58 f039 9083 df3a b2ae 793a 34fc 753a
000000d0: 03ff e238 75bf 8b39 18dd 913a 418a db39
000000e0: a2b9 ed38 51c2 313a c0fe 2639 99a8 163a
000000f0: 6458 9e3a 3170 5e3a daaf 5b3a e3b4 263a
00000100: eadd 543a d4df 3f3a ab9f 323a 7ef0 6b38
00000110: a181 263a 52ad e439 98ba d339 dc88 5439
00000120: f9f4 d639 0359 7638 2a43 b639 fcbb de39
00000130: e3f4 473a d5e2 d136 6340 623a c417 bb39
00000140: 8bfd ab39 d565 473a 7503 893a 906b 8a39
00000150: 1829 cb3a 2ce5 de3a a332 7939 1285 b43a
00000160: 472e 2439 63da a839 86a2 cd39 1971 6d39
00000170: 8b22 a437 f0e9 4539 fd11 9a39 b193 f639
00000180: bc4e 843a 1013 913a bdd8 5c3a 992a 9c3a
00000190: 854d 923a 5b73 173a 253c 853a c33e a538
000001a0: a988 673a 110f 143a c88e e039 f630 e93a
000001b0: 4229 153a c81f 243a bd2f 8139 d0e8 a639
000001c0: 6e6a 023a f57b be38 1ab2 8a39 6953 3b3a
000001d0: 8daa e038 f0c0 1f3a c4a1 ad3a 6280 573a
000001e0: d14f 253a 6631 b33a 3af7 d83a 9777 053a
000001f0: 59a8 9239 1a78 ba3a e966 b239 defc cd3a

bn1.weight f4 [128]
1.0 1.0 1.0 1.0 1.0 1.0 1.0 1.0
1.0 1.0 1.0 1.0 1.0 1.0 1.0 1.0
1.0 1.0 1.0 1.0 1.0 1.0 1.0 1.0
1.0 1.0 1.0 1.0 1.0 1.0 1.0 1.0
1.0 1.0 1.0 1.0 1.0 1.0 1.0 1.0
1.0 1.0 1.0 1.0 1.0 1.0 1.0 1.0
1.0 1.0 1.0 1.0 1.0 1.0 1.0 1.0
1.0 1.0 1.0 1.0 1.0 1.0 1.0 1.0
1.0 1.0 1.0 1.0 1.0 1.0 1.0 1.0
1.0 1.0 1.0 1.0 1.0 1.0 1.0 1.0
1.0 1.0 1.0 1.0 1.0 1.0 1.0 1.0
1.0 1.0 1.0 1.0 1.0 1.0 1.0 1.0
1.0 1.0 1.0 1.0 1.0 1.0 1.0 1.0
1.0 1.0 1.0 1.0 1.0 1.0 1.0 1.0
1.0 1.0 1.0 1.0 1.0 1.0 1.0 1.0
1.0 1.0 1.0 1.0 1.0 1.0 1.0 1.0
00000000: 0000 803f 0000 803f 0000 803f 0000 803f
00000010: 0000 803f 0000 803f 0000 803f 0000 803f
00000020: 0000 803f 0000 803f 0000 803f 0000 803f
00000030: 0000 803f 0000 803f 0000 803f 0000 803f
00000040: 0000 803f 0000 803f 0000 803f 0000 803f
00000050: 0000 803f 0000 803f 0000 803f 0000 803f
00000060: 0000 803f 0000 803f 0000 803f 0000 803f
00000070: 0000 803f 0000 803f 0000 803f 0000 803f
00000080: 0000 803f 0000 803f 0000 803f 0000 803f
00000090: 0000 803f 0000 803f 0000 803f 0000 803f
000000a0: 0000 803f 0000 803f 0000 803f 0000 803f
000000b0: 0000 803f 0000 803f 0000 803f 0000 803f
000000c0: 0000 803f 0000 803f 0000 803f 0000 803f
000000d0: 0000 803f 0000 803f 0000 803f 0000 803f
000000e0: 0000 803f 0000 803f 0000 803f 0000 803f
000000f0: 0000 803f 0000 803f 0000 803f 0000 803f
00000100: 0000 803f 0000 803f 0000 803f 0000 803f
00000110: 0000 803f 0000 803f 0000 803f 0000 803f
00000120: 0000 803f 0000 803f 0000 803f 0000 803f
00000130: 0000 803f 0000 803f 0000 803f 0000 803f
00000140: 0000 803f 0000 803f 0000 803f 0000 803f
00000150: 0000 803f 0000 803f 0000 803f 0000 803f
00000160: 0000 803f 0000 803f 0000 803f 0000 803f
00000170: 0000 803f 0000 803f 0000 803f 0000 803f
00000180: 0000 803f 0000 803f 0000 803f 0000 803f
00000190: 0000 803f 0000 803f 0000 803f 0000 803f
000001a0: 0000 803f 0000 803f 0000 803f 0000 803f
000001b0: 0000 803f 0000 803f 0000 803f 0000 803f
000001c0: 0000 803f 0000 803f 0000 803f 0000 803f
000001d0: 0000 803f 0000 803f 0000 803f 0000 803f
000001e0: 0000 803f 0000 803f 0000 803f 0000 803f
000001f0: 0000 803f 0000 803f 0000 803f 0000 803f

bn1.bias f4 [128]
0.0 0.0 0.0 0.0 0.0 0.0 0.0 0.0
0.0 0.0 0.0 0.0 0.0 0.0 0.0 0.0
0.0 0.0 0.0 0.0 0.0 0.0 0.0 0.0
0.0 0.0 0.0 0.0 0.0 0.0 0.0 0.0
0.0 0.0 0.0 0.0 0.0 0.0 0.0 0.0
0.0 0.0 0.0 0.0 0.0 0.0 0.0 0.0
0.0 0.0 0.0 0.0 0.0 0.0 0.0 0.0
0.0 0.0 0.0 0.0 0.0 0.0 0.0 0.0
0.0 0.0 0.0 0.0 0.0 0.0 0.0 0.0
0.0 0.0 0.0 0.0 0.0 0.0 0.0 0.0
0.0 0.0 0.0 0.0 0.0 0.0 0.0 0.0
0.0 0.0 0.0 0.0 0.0 0.0 0.0 0.0
0.0 0.0 0.0 0.0 0.0 0.0 0.0 0.0
0.0 0.0 0.0 0.0 0.0 0.0 0.0 0.0
0.0 0.0 0.0 0.0 0.0 0.0 0.0 0.0
0.0 0.0 0.0 0.0 0.0 0.0 0.0 0.0
00000000: 0000 0000 0000 0000 0000 0000 0000 0000
00000010: 0000 0000 0000 0000 0000 0000 0000 0000
00000020: 0000 0000 0000 0000 0000 0000 0000 0000
00000030: 0000 0000 0000 0000 0000 0000 0000 0000
00000040: 0000 0000 0000 0000 0000 0000 0000 0000
00000050: 0000 0000 0000 0000 0000 0000 0000 0000
00000060: 0000 0000 0000 0000 0000 0000 0000 0000
00000070: 0000 0000 0000 0000 0000 0000 0000 0000
00000080: 0000 0000 0000 0000 0000 0000 0000 0000
00000090: 0000 0000 0000 0000 0000 0000 0000 0000
000000a0: 0000 0000 0000 0000 0000 0000 0000 0000
000000b0: 0000 0000 0000 0000 0000 0000 0000 0000
000000c0: 0000 0000 0000 0000 0000 0000 0000 0000
000000d0: 0000 0000 0000 0000 0000 0000 0000 0000
000000e0: 0000 0000 0000 0000 0000 0000 0000 0000
000000f0: 0000 0000 0000 0000 0000 0000 0000 0000
00000100: 0000 0000 0000 0000 0000 0000 0000 0000
00000110: 0000 0000 0000 0000 0000 0000 0000 0000
00000120: 0000 0000 0000 0000 0000 0000 0000 0000
00000130: 0000 0000 0000 0000 0000 0000 0000 0000
00000140: 0000 0000 0000 0000 0000 0000 0000 0000
00000150: 0000 0000 0000 0000 0000 0000 0000 0000
00000160: 0000 0000 0000 0000 0000 0000 0000 0000
00000170: 0000 0000 0000 0000 0000 0000 0000 0000
00000180: 0000 0000 0000 0000 0000 0000 0000 0000
00000190: 0000 0000 0000 0000 0000 0000 0000 0000
000001a0: 0000 0000 0000 0000 0000 0000 0000 0000
000001b0: 0000 0000 0000 0000 0000 0000 0000 0000
000001c0: 0000 0000 0000 0000 0000 0000 0000 0000
000001d0: 0000 0000 0000 0000 0000 0000 0000 0000
000001e0: 0000 0000 0000 0000 0000 0000 0000 0000
000001f0: 0000 0000 0000 0000 0000 0000 0000 0000

bn1.running_mean f4 [128]
0.0 0.0 0.0 0.0 0.0 0.0 0.0 0.0
0.0 0.0 0.0 0.0 0.0 0.0 0.0 0.0
0.0 0.0 0.0 0.0 0.0 0.0 0.0 0.0
0.0 0.0 0.0 0.0 0.0 0.0 0.0 0.0
0.0 0.0 0.0 0.0 0.0 0.0 0.0 0.0
0.0 0.0 0.0 0.0 0.0 0.0 0.0 0.0
0.0 0.0 0.0 0.0 0.0 0.0 0.0 0.0
0.0 0.0 0.0 0.0 0.0 0.0 0.0 0.0
0.0 0.0 0.0 0.0 0.0 0.0 0.0 0.0
0.0 0.0 0.0 0.0 0.0 0.0 0.0 0.0
0.0 0.0 0.0 0.0 0.0 0.0 0.0 0.0
0.0 0.0 0.0 0.0 0.0 0.0 0.0 0.0
0.0 0.0 0.0 0.0 0.0 0.0 0.0 0.0
0.0 0.0 0.0 0.0 0.0 0.0 0.0 0.0
0.0 0.0 0.0 0.0 0.0 0.0 0.0 0.0
0.0 0.0 0.0 0.0 0.0 0.0 0.0 0.0
00000000: 0000 0000 0000 0000 0000 0000 0000 0000
00000010: 0000 0000 0000 0000 0000 0000 0000 0000
00000020: 0000 0000 0000 0000 0000 0000 0000 0000
00000030: 0000 0000 0000 0000 0000 0000 0000 0000
00000040: 0000 0000 0000 0000 0000 0000 0000 0000
00000050: 0000 0000 0000 0000 0000 0000 0000 0000
00000060: 0000 0000 0000 0000 0000 0000 0000 0000
00000070: 0000 0000 0000 0000 0000 0000 0000 0000
00000080: 0000 0000 0000 0000 0000 0000 0000 0000
00000090: 0000 0000 0000 0000 0000 0000 0000 0000
000000a0: 0000 0000 0000 0000 0000 0000 0000 0000
000000b0: 0000 0000 0000 0000 0000 0000 0000 0000
000000c0: 0000 0000 0000 0000 0000 0000 0000 0000
000000d0: 0000 0000 0000 0000 0000 0000 0000 0000
000000e0: 0000 0000 0000 0000 0000 0000 0000 0000
000000f0: 0000 0000 0000 0000 0000 0000 0000 0000
00000100: 0000 0000 0000 0000 0000 0000 0000 0000
00000110: 0000 0000 0000 0000 0000 0000 0000 0000
00000120: 0000 0000 0000 0000 0000 0000 0000 0000
00000130: 0000 0000 0000 0000 0000 0000 0000 0000
00000140: 0000 0000 0000 0000 0000 0000 0000 0000
00000150: 0000 0000 0000 0000 0000 0000 0000 0000
00000160: 0000 0000 0000 0000 0000 0000 0000 0000
00000170: 0000 0000 0000 0000 0000 0000 0000 0000
00000180: 0000 0000 0000 0000 0000 0000 0000 0000
00000190: 0000 0000 0000 0000 0000 0000 0000 0000
000001a0: 0000 0000 0000 0000 0000 0000 0000 0000
000001b0: 0000 0000 0000 0000 0000 0000 0000 0000
000001c0: 0000 0000 0000 0000 0000 0000 0000 0000
000001d0: 0000 0000 0000 0000 0000 0000 0000 0000
000001e0: 0000 0000 0000 0000 0000 0000 0000 0000
000001f0: 0000 0000 0000 0000 0000 0000 0000 0000

bn1.running_var f4 [128]
1.0 1.0 1.0 1.0 1.0 1.0 1.0 1.0
1.0 1.0 1.0 1.0 1.0 1.0 1.0 1.0
1.0 1.0 1.0 1.0 1.0 1.0 1.0 1.0
1.0 1.0 1.0 1.0 1.0 1.0 1.0 1.0
1.0 1.0 1.0 1.0 1.0 1.0 1.0 1.0
1.0 1.0 1.0 1.0 1.0 1.0 1.0 1.0
1.0 1.0 1.0 1.0 1.0 1.0 1.0 1.0
1.0 1.0 1.0 1.0 1.0 1.0 1.0 1.0
1.0 1.0 1.0 1.0 1.0 1.0 1.0 1.0
1.0 1.0 1.0 1.0 1.0 1.0 1.0 1.0
1.0 1.0 1.0 1.0 1.0 1.0 1.0 1.0
1.0 1.0 1.0 1.0 1.0 1.0 1.0 1.0
1.0 1.0 1.0 1.0 1.0 1.0 1.0 1.0
1.0 1.0 1.0 1.0 1.0 1.0 1.0 1.0
1.0 1.0 1.0 1.0 1.0 1.0 1.0 1.0
1.0 1.0 1.0 1.0 1.0 1.0 1.0 1.0
00000000: 0000 803f 0000 803f 0000 803f 0000 803f
00000010: 0000 803f 0000 803f 0000 803f 0000 803f
00000020: 0000 803f 0000 803f 0000 803f 0000 803f
00000030: 0000 803f 0000 803f 0000 803f 0000 803f
00000040: 0000 803f 0000 803f 0000 803f 0000 803f
00000050: 0000 803f 0000 803f 0000 803f 0000 803f
00000060: 0000 803f 0000 803f 0000 803f 0000 803f
00000070: 0000 803f 0000 803f 0000 803f 0000 803f
00000080: 0000 803f 0000 803f 0000 803f 0000 803f
00000090: 0000 803f 0000 803f 0000 803f 0000 803f
000000a0: 0000 803f 0000 803f 0000 803f 0000 803f
000000b0: 0000 803f 0000 803f 0000 803f 0000 803f
000000c0: 0000 803f 0000 803f 0000 803f 0000 803f
000000d0: 0000 803f 0000 803f 0000 803f 0000 803f
000000e0: 0000 803f 0000 803f 0000 803f 0000 803f
000000f0: 0000 803f 0000 803f 0000 803f 0000 803f
00000100: 0000 803f 0000 803f 0000 803f 0000 803f
00000110: 0000 803f 0000 803f 0000 803f 0000 803f
00000120: 0000 803f 0000 803f 0000 803f 0000 803f
00000130: 0000 803f 0000 803f 0000 803f 0000 803f
00000140: 0000 803f 0000 803f 0000 803f 0000 803f
00000150: 0000 803f 0000 803f 0000 803f 0000 803f
00000160: 0000 803f 0000 803f 0000 803f 0000 803f
00000170: 0000 803f 0000 803f 0000 803f 0000 803f
00000180: 0000 803f 0000 803f 0000 803f 0000 803f
00000190: 0000 803f 0000 803f 0000 803f 0000 803f
000001a0: 0000 803f 0000 803f 0000 803f 0000 803f
000001b0: 0000 803f 0000 803f 0000 803f 0000 803f
000001c0: 0000 803f 0000 803f 0000 803f 0000 803f
000001d0: 0000 803f 0000 803f 0000 803f 0000 803f
000001e0: 0000 803f 0000 803f 0000 803f 0000 803f
000001f0: 0000 803f 0000 803f 0000 803f 0000 803f

fc2.weight f4 [128, 2]
-0.23300649 0.6280221 -0.685808 -0.20222752 -0.5859383 -0.6011748 0.56304514 0.28213754
0.27374363 -0.6363222 -0.11166328 0.6001195 -0.56577075 -0.32124925 -0.31360665 0.28931266
-0.505715 0.5801461 0.3306156 -0.5977481 0.12342046 -0.060533013 0.6503589 0.15338123
0.3731395 -0.29244542 -0.37345466 -0.6367965 -0.3591586 -0.66115534 0.5577428 -0.38159168
0.16485098 0.20316108 -0.10378079 0.60042155 -0.22343163 -0.09624936 0.19115034 -0.6541171
0.082750544 -0.68414456 0.0648823 0.39547703 -0.5492387 0.55154556 0.47129408 -0.22726229
-0.29452452 0.6961837 -0.044344462 -0.12398449 0.0609935 0.52546024 0.66668564 0.24447316
-0.15938643 0.520299 -0.549853 0.44108674 -0.3555337 -0.28587553 -0.037951283 -0.5039393
0.16291915 -0.70169514 0.46416286 0.3811166 0.033685356 0.27263358 -0.61522263 0.5221476
-0.2153893 0.35938907 -0.34082267 -0.34670758 0.31649223 -0.44622412 0.5005699 -0.5878061
-0.53068346 -0.3760446 -0.0366939 -0.55605227 -0.4596536 -0.12719315 0.28859258 -0.01194864
0.07226732 0.2884882 0.6973894 0.31900185 -0.2303586 0.6889524 -0.46380043 0.6272184
0.5948939 -0.18562281 -0.6846292 0.6173836 -0.082002394 0.53858274 0.24323806 0.5205887
0.1497354 0.16327646 -0.40180317 0.18225677 0.5152998 0.5135269 0.5168232 -0.21947424
-0.30695093 -0.0824748 0.09612625 0.45342037 0.4036471 -0.014515823 0.43542346 -0.34493253
0.31982696 -0.582432 -0.094496295 0.507441 -0.039909285 0.50657207 -0.11679329 -0.43746695
0.23490064 -0.4818014 0.05122843 0.4732715 0.26435685 0.4346094 -0.1495952 0.102475606
0.5667891 -0.31318513 -0.49788374 -0.24602766 0.26727128 -0.3196193 0.42436916 0.09307566
-0.5980831 -0.13966905 0.2379019 0.034285434 -0.54674804 0.13066702 -0.31229216 0.31738955
-0.004457709 -0.48384532 -0.028372109 -0.04105778 0.31383434 0.48611748 0.53622323 -0.15247326
0.3909165 -0.23360206 -0.034268264 -0.4828926 -0.44959873 -0.5115892 -0.4331918 -0.15932925
-0.48850083 0.6346609 0.47652006 -0.67260545 0.46692166 0.08992357 0.54240394 0.5801472
0.14274572 0.20525584 0.38490447 0.23475067 -0.42865837 -0.25713983 0.30459693 0.20527993
0.09312765 -0.058197293 -0.24777809 -0.19967088 -0.40147054 0.20404497 0.42734325 -0.2985596
0.04504356 0.5561742 -0.60820186 0.4771854 -0.64505404 0.36480168 -0.5969861 0.507586
-0.7014451 -0.44427934 0.040531978 -0.42039186 -0.6304334 0.43799543 0.0194507 -0.15509191
-0.66882724 0.36906138 -0.48327923 -0.32321438 0.48187447 -0.247976 0.5266652 -0.67918277
-0.39037493 -0.36042 0.05251289 -0.4372667 0.5025503 0.01672091 0.18811151 -0.29469082
-0.44177175 -0.30848905 -0.08017074 -0.16133098 0.164131 -0.27001578 -0.36354536 -0.42508447
0.13568701 0.1658452 0.12973909 0.42697507 -0.49760547 -0.57810396 0.0026298428 -0.5022854
-0.43150836 -0.3725965 -0.22813915 0.6350301 0.24748255 0.7004876 0.6218037 -0.20042673
-0.07426458 -0.29037988 -0.57630205 0.5793748 0.18313162 -0.30678657 0.3459306 -0.6673484
00000000: 4199 6ebe 0ec6 203f 1d91 2fbf bb14 4fbe
00000010: 0d00 16bf 97e6 19bf ba23 103f 5574 903e
00000020: 2028 8c3e 03e6 22bf b8af e4bd 6ea1 193f
00000030: 5ad6 10bf c87a a4be 0d91 a0be ca20 943e
00000040: 8a76 01bf 7484 143f 7346 a93e 0506 19bf
00000050: dec3 fc3d 77f1 77bd ec7d 263f f80f 1d3e
00000060: 240c bf3e 68bb 95be 7335 bfbe 1805 23bf
00000070: a3e3 b7be 7a41 29bf 3bc8 0e3f fc5f c3be
00000080: b2ce 283e 7509 503e 068b d4bd 3ab5 193f
00000090: 43cb 64be 621e c5bd eabc 433e 3874 27bf
000000a0: 1e79 a93d 1924 2fbf 03e1 843d f77b ca3e
000000b0: e89a 0cbf 1732 0d3f 754d f13e 72b7 68be
000000c0: ebcb 96be 1839 323f 8aa2 35bd 95eb fdbd
000000d0: 52d4 793d 9084 063f e9ab 2a3f 2c57 7a3e
000000e0: 3236 23be 5132 053f 2bc3 0cbf 1fd6 e13e
000000f0: 8308 b6be 475e 92be ce72 1bbd 2a02 01bf
00000100: 47d4 263e 4ba2 33bf c1a6 ed3e b721 c33e
00000110: a8f9 093d a196 8b3e 3b7f 1dbf 77ab 053f
00000120: 038f 5cbe d801 b83e 4f80 aebe a883 b1be
00000130: 450b a23e 7d77 e4be 5925 003f 767a 16bf
00000140: dfda 07bf eb88 c0be 584c 16bd 7159 0ebf
00000150: b757 ebbe ec3e 02be 68c2 933e 3bc4 43bc
00000160: e300 943d bab4 933e 1d88 323f 3654 a33e
00000170: 20e3 6bbe 2f5f 303f 4077 edbe 6391 203f
00000180: f74a 183f e813 3ebe dc43 2fbf da0c 1e3f
00000190: dff0 a7bd 8fe0 093f 6613 793e 4d45 053f
000001a0: 3d54 193e f231 273e 25b9 cdbe 85a1 3a3e
000001b0: b0ea 033f 8076 033f 864e 043f dbbd 60be
000001c0: ac28 9dbe 8ce8 a8bd d7dd c43d b726 e83e
000001d0: d5aa ce3e c6d3 6dbc d3ef de3e ff9a b0be
000001e0: 5cc0 a33e 431a 15bf 4687 c1bd a7e7 013f
000001f0: eb77 23bd b5ae 013f 5231 efbd abfb dfbe
00000200: cb89 703e acae f6be e7d4 513d a450 f23e
00000210: c859 873e 2085 de3e 7c2f 19be bbde d13d
00000220: 1719 113f cd59 a0be 9eea febe adee 7bbe
00000230: c8d7 883e 24a5 a3be ea46 d93e 749e be3d
00000240: f91b 19bf 6705 0fbe 8e9c 733e e26e 0c3d
00000250: aef7 0bbf 93cd 053e c2e4 9fbe e280 a23e
00000260: f911 92bb 93ba f7be a06c e8bc 342c 28bd
00000270: e5ae a03e 64e4 f83e ed45 093f f321 1cbe
00000280: 3526 c83e 6135 6fbe e15c 0cbd b33d f7be
00000290: ce31 e6be 83f7 02bf 51cb ddbe 3527 23be
000002a0: c81c fabe 2379 223f 70fa f33e df2f 2cbf
000002b0: 5b10 ef3e d929 b83d fcda 0a3f 8784 143f
000002c0: ef2b 123e 962e 523e 3312 c53e 7b62 703e
000002d0: 1c79 dbbe d5a7 83be 21f4 9b3e e734 523e
000002e0: b6b9 be3d 4960 6ebd 8ab9 7dbe 8676 4cbe
000002f0: 8c8d cdbe 2af1 503e bccc da3e cedc 98be
00000300: 997f 383d 6f61 0e3f 1eb3 1bbf a551 f43e
00000310: 4322 25bf 49c7 ba3e 15d4 18bf 28f1 013f
00000320: e891 33bf 9578 e3be dc04 263d 9a3d d7be
00000330: 1564 21bf f040 e03e 1357 9f3c 6ad0 1ebe
00000340: 4338 2bbf 9df5 bc3e 6070 f7be 5b7c a5be
00000350: 40b8 f63e 6ced 7dbe 88d3 063f ecde 2dbf
00000360: 39df c7be f888 b8be c217 573d 6ce1 dfbe
00000370: 23a7 003f 4afa 883c 4ea0 403e b7e1 96be
00000380: e82f e2be 47f2 9dbe 8f30 a4bd f333 25be
00000390: f511 283e 823f 8abe 9e22 babe aca4 d9be
000003a0: 89f1 0a3e 53d3 293e 53da 043e 7a9c da3e
000003b0: 25c6 febe 9ffe 13bf 7159 2c3b c795 00bf
000003c0: aaee dcbe f8c4 bebe 4f9d 69be 5591 223f
000003d0: 116c 7d3e 2853 333f 872e 1f3f aa3c 4dbe
000003e0: 0718 98bd acac 94be 8888 13bf e851 143f
000003f0: db86 3b3e 2113 9dbe d11d b13e 58d7 2abf

actor.linears.0.weight f4 [128, 384]
0.040983096 0.005278751 -0.027298324 -0.009538216 0.026142392 -0.0036249298 0.0005331849 -0.018072603
-0.04256037 -0.024004683 0.04483517 0.05307511 -0.028632585 0.014661304 -0.053098723 -0.04224222
0.025445187 0.01936744 -0.03734396 -0.019554928 -0.039032355 -0.023877306 0.044646032 -0.010616532
0.03523231 -0.0007733242 0.008361743 0.020381233 0.009476363 -0.010506028 -0.0041475864 0.037515737
-0.021396635 -0.02608286 0.050456442 0.021200353 -0.041256566 0.04635538 0.0033785345 -0.00044634315
0.017720364 0.027492343 0.0014364335 -0.012037228 -0.041289464 0.012876305 -0.016063103 0.013033468
0.039564874 0.048009917 -0.014869772 -0.025685849 -0.0322751 0.03273177 0.047712438 0.0027738323
0.0007752725 0.00938113 -0.0015958785 -0.021601766 -0.043338746 -0.018728716 0.046145454 -0.050277825
-0.033732675 -0.026263667 0.042071965 0.0390797 -0.011752104 0.007016234 -0.047622614 0.012797535
-0.008282843 -0.02163251 0.02403701 0.035893895 0.0013042664 0.020609915 0.044024765 0.0016356561
0.046515428 -0.049789753 0.011242666 -0.018345103 -0.022331277 -0.031120248 0.051929466 0.033686034
-0.024427485 0.0014201372 0.023321567 -0.021488424 -0.030192226 -0.037150607 0.009096804 -0.0015034421
0.039464984 0.0234182 -0.027177583 0.045499723 -0.03450192 -0.017880524 0.04014956 -0.013271996
0.022709684 -0.0017254889 -0.038232576 -0.045325037 0.0028820257 -0.042871136 -0.043116894 0.009464019
0.008878664 0.041336946 0.029876556 -0.037212975 0.04675575 0.032780763 -0.019563379 -0.020946987
0.026087526 -0.011963753 0.022411317 -0.033540443 -0.037569378 -0.050000478 -0.013021966 0.026964515
0.0124157565 -0.0038368593 -0.022248354 -0.0035445094 -0.013531245 0.036167648 0.044077124 -0.04823847
0.030227352 -0.0070795044 -0.016078304 0.012621242 0.0058005825 0.04531063 -0.045171797 0.03133182
-0.033356078 0.037737302 0.0340157 0.01353108 0.011524973 -0.02158745 -0.018591555 0.03242398
-0.046681553 -0.038601767 -0.043006882 0.028188609 -0.031100012 0.035735738 0.030188648 -0.0029871648
0.023680858 -0.018750412 0.025789917 -0.019943563 0.010733352 -0.04525352 -0.044263482 -0.044968672
-0.041640453 0.011830518 -0.042907324 0.04068514 -0.0072449665 -0.014144038 -0.020983366 -0.038136646
0.0006668909 0.028861318 -0.021054013 0.030905744 -0.028935777 0.038751498 0.014168898 -0.029029278
0.0005583437 -0.0087168375 0.008411574 0.031309597 -0.019729225 0.0051563713 0.047249448 0.036556557
-0.043166704 0.033638153 0.0072179274 0.002571126 0.009615901 0.047213025 -0.005328478 0.02658642
-0.0073836227 -0.002646133 -0.040692832 0.021860346 0.03149325 -0.04368043 0.041650776 -0.024358477
-0.044777777 -0.012181513 0.042803098 -0.0024888779 0.026000943 -0.01143911 0.04029487 0.028785655
-0.03928303 -0.03769578 -0.011483636 0.04307269 0.03955995 0.028789315 0.0484453 -0.032015115
-0.026963664 0.033543363 -0.006568084 -0.0026281842 -0.0005073395 -0.0492776 0.01728142 0.017938169
0.042736743 -0.017554427 0.038856644 0.035879917 0.043546136 -0.010832856 0.03575014 -0.035397448
-0.027318867 -0.038408108 -0.035105463 0.020980585 -0.0306492 0.028845796 0.040412873 0.01257943
-0.04671416 -0.009600344 -0.036984947 -0.0036066466 0.0073503815 -0.03518699 0.006076121 0.04731214
00000000: e4dd 273d 5ff9 ac3b bca0 dfbc 2d46 1cbc
00000010: 9228 d63c 3b90 6dbb 6fc5 0b3a ff0c 94bc
00000020: c853 2ebd 78a5 c4bc 15a5 373d 4965 593d
00000030: e28e eabc f735 703c 0c7e 59bd 2e06 2dbd
00000040: 6d72 d03c 77a8 9e3c fbf5 18bd a831 a0bc
00000050: 64e0 1fbd 579a c3bc c2de 363d f6f0 2dbc
00000060: c14f 103d e9b8 4aba b1ff 083c 8bf6 a63c
00000070: bf42 1b3c 7a21 2cbc 7ae8 87bb 1aaa 193d
00000080: ff47 afbc b9ab d5bc 6aab 4e3d 5dac ad3c
00000090: a5fc 28bd 24df 3d3d 676a 5d3b 2a03 eab9
000000a0: 4c2a 913c 9f37 e13c b646 bc3a cb37 45bc
000000b0: 241f 29bd 23f7 523c c596 83bc 548a 553c
000000c0: c70e 223d 0ca6 443d 58a0 73bc 216b d2bc
000000d0: e532 04bd c011 063d 1e6e 433d 2fc9 353b
000000e0: a83b 4b3a 50b3 193c cc2c d1ba 30f6 b0bc
000000f0: f883 31bd f76c 99bc 0403 3d3d 1ff0 4dbd
00000100: 462b 0abd e726 d7bc a753 2c3d 0912 203d
00000110: e68b 40bc 70e8 e53b ee0f 43bd c1ac 513c
00000120: c3b4 07bc a936 b1bc 43e9 c43c 7a05 133d
00000130: ebf3 aa3a 20d6 a83c 5053 343d 8363 d63a
00000140: f686 3e3d 57f0 4bbd 2933 383c 7848 96bc
00000150: 15f0 b6bc e4ef febc feb3 543d 5efa 093d
00000160: 261c c8bc e623 ba3a df0c bf3c 7e08 b0bc
00000170: b055 f7bc 3c2b 18bd c30a 153c 250f c5ba
00000180: 09a6 213d 86d7 bf3c 86a3 debc eb5d 3a3d
00000190: e351 0dbd 2d7a 92bc dd73 243d c972 59bc
000001a0: a909 ba3c cd29 e2ba c399 1cbd bfa6 39bd
000001b0: 5ee0 3c3b a599 2fbd 579b 30bd f90e 1b3c
000001c0: d177 113c ee50 293d aebf f43c a26c 18bd
000001d0: f582 3f3d 1f45 063d 6143 a0bc 0499 abbc
000001e0: 82b5 d53c 9e03 44bc f097 b73c b461 09bd
000001f0: 59e2 19bd 4dcd 4cbd 165a 55bc b0e4 dc3c
00000200: 756b 4b3c d173 7bbb 2e42 b6bc 004b 68bb
00000210: 28b2 5dbc 8724 143d 378a 343d b495 45bd
00000220: 5a9f f73c 30fb e7bb a6b6 83bc 53c9 4e3c
00000230: d012 be3b a497 393d 1006 39bd cb55 003d
00000240: 62a0 08bd 6e92 1a3d 0c54 0b3d 77b1 5d3c
00000250: 3ed3 3c3c 2ad8 b0bc 514d 98bc 02cf 043d
00000260: 2835 3fbd e31c 1ebd fc27 30bd cceb e63c
00000270: 74c5 febc a35f 123d 2f4e f73c 4fc4 43bb
00000280: 5cfe c13c 779a 99bc 6045 d33c af60 a3bc
00000290: f1da 2f3c c15b 39bd a04d 35bd 1231 38bd
000002a0: 2e8f 2abd cad4 413c 97bf 2fbd 76a5 263d
000002b0: 2f67 edbb 65bc 67bc 4fe5 abbc 2c35 1cbd
000002c0: 4ad2 2e3a 926e ec3c 7779 acbc 0b2e fd3c
000002d0: b90a edbc e4b9 1e3d aa24 683c cfce edbc
000002e0: d05d 123a 11d1 0ebc b3d0 093c 7e3e 003d
000002f0: 2f9f a1bc c7f6 a83b a388 413d 54bc 153d
00000300: 92cf 30bd 29c8 093d 5d84 ec3b 5680 283b
00000310: 038c 1d3c 7262 413d 839a aebb c4cb d93c
00000320: 51f2 f1bb bf6a 2dbb 87ad 26bd 7814 b33c
00000330: 11ff 003d 40ea 32bd 019a 2a3d 6e8b c7bc
00000340: e768 37bd f894 47bc 4d52 2f3d 711c 23bb
00000350: eeff d43c 1b6b 3bbc 3c0c 253d e5cf eb3c
00000360: 3ee7 20bd e466 1abd dc25 3cbc fd6c 303d
00000370: 9d09 223d 92d7 eb3c 946e 463d 4822 03bd
00000380: e7e2 dcbc c464 093d 1539 d7bb 9d3d 2cbb
00000390: fafe 04ba 4fd7 49bd c491 8d3c 11f3 923c
000003a0: b90c 2f3d 4dce 8fbc 2528 1f3d d2f6 123d
000003b0: 6f5d 323d 4b7c 31bc bd6e 123d eafc 10bd
000003c0: d1cb dfbc d251 1dbd bfca 0fbd 7adf ab3c
000003d0: 0814 fbbc 054e ec3c f887 253d f419 4e3c
000003e0: 5957 3fbd c34a 1dbc 877d 17bd 7d5d 6cbb
000003f0: 78db f03b 3c20 10bd 321a c73b 60ca 413d

actor.linears.0.bias f4 [128]
0.03297241 -0.04980554 0.006091032 0.0185991 -0.007945033 0.00843749 -0.0018699575 -0.031843472
-0.030910455 0.02123212 -0.029729044 -0.021005437 -0.03694113 -0.017471395 -0.012480494 -0.03656245
0.028660193 -0.017733172 0.042397205 -0.008049438 -0.013354452 -0.03860664 -0.039352152 0.032275476
0.021940447 -0.0050580828 -0.046127845 0.041844502 -0.0038121706 0.0093713 0.037792783 0.014249856
-0.008713522 -0.01534516 -0.04280335 0.043290436 -0.03253954 -0.0016632981 -0.019633858 0.026462058
-0.0067209955 0.030160222 0.004792407 -0.03171406 -0.026816832 0.023400584 -0.046387356 0.0043817596
0.045212638 -0.034204725 -0.03003814 0.044340596 0.047054626 -0.04528782 -0.010385562 -0.007825927
0.037727892 -0.05793688 0.020253865 0.035625782 0.031832617 -0.0036546832 0.004985509 0.049539253
0.0020118002 -0.03138125 0.034202 0.014711576 0.025766013 0.044920996 -0.019460933 -0.030235158
0.023193935 0.020011486 -0.030880585 0.0020834582 0.011317117 0.0061754985 0.047779042 0.04443861
-0.044759076 -0.04302089 0.02122688 0.058713842 -0.027880937 0.034085087 -0.040424846 -0.019989658
-0.04341309 0.0058197146 0.052799612 0.030373966 -0.03340656 -0.04839468 0.032989398 0.05187735
0.038791347 -0.045801193 0.0068565314 -0.04280336 -0.036439642 0.024745798 -0.024602167 -0.029273437
-0.02233306 -0.038010783 0.036883533 -0.042043667 0.021546608 0.0008939255 -0.053175896 -0.023648597
0.015333143 -0.049966052 0.049659383 0.03926423 0.0208635 0.018345997 0.017557928 0.021146847
0.015678855 0.016288206 0.04535788 -0.05580864 0.054613534 -0.048601966 -0.028212478 -0.0035607961
00000000: 140e 073d e500 4cbd 4897 c73b 245d 983c
00000010: e22b 02bc 663d 0a3c 5d19 f5ba 4d6e 02bd
00000020: ec37 fdbc fcee ad3c 538a f3bc 9813 acbc
00000030: 954f 17bd 2c20 8fbc fc7a 4cbc 82c2 15bd
00000040: c8c8 ea3c 2845 91bc b1a8 2d3d cae1 03bc
00000050: a2cc 5abc ff21 1ebd b92f 21bd 4a33 043d
00000060: 74bc b33c 46be a5bb 8df0 3cbd 2465 2b3d
00000070: 9cd5 79bb 158a 193c 9bcc 1a3d 3a78 693c
00000080: 29c3 0ebc 446a 7bbc 9152 2fbd 5051 313d
00000090: 2e48 05bd 0603 daba 2fd7 a0bc f5c6 d83c
000000a0: cc3b dcbb 9212 f73c a009 9d3b 9ae6 01bd
000000b0: f9ae dbbc 95b2 bf3c ab00 3ebd dd94 8f3b
000000c0: e330 393d 411a 0cbd 8c12 f6bc 7c9e 353d
000000d0: 5abc 403d b97f 39bd 3428 2abc 5138 00bc
000000e0: 9088 1a3d 394f 6dbd 6feb a53c 57ec 113d
000000f0: eb62 023d 6983 6fbb 7b5d a33b ace9 4a3d
00000100: 68d8 033b a089 00bd 6517 0c3d d208 713c
00000110: 3f13 d33c 14ff 373d 896c 9fbc b9af f7bc
00000120: 3501 be3c 21ef a33c 48f9 fcbc a18a 083b
00000130: 6e6b 393c d65b ca3b f5b3 433d 4305 363d
00000140: 4b55 37bd ac36 30bd fee3 ad3c ed7d 703d
00000150: 9066 e4bc ce9c 0b3d 8694 25bd 5ac1 a3bc
00000160: edd1 31bd 4eb3 be3b 6844 583d d3d2 f83c
00000170: 51d5 08bd 8039 46bd e41f 073d 587d 543d
00000180: ade3 1e3d 089a 3bbd c1ac e03b 9352 2fbd
00000190: bc41 15bd b3b7 ca3c 7c8a c9bc d9ce efbc
000001a0: d2f3 b6bc 32b1 1bbd 3013 173d fb35 2cbd
000001b0: 8382 b03c 5356 6a3a f8ce 59bd b4ba c1bc
000001c0: dd37 7b3c 34a9 4cbd a367 4b3d 87d3 203d
000001d0: eee9 aa3c 584a 963c a5d5 8f3c 273c ad3c
000001e0: f170 803c d86e 853c 2fc9 393d 9a97 64bd
000001f0: 71b2 5f3d db12 47bd db1d e7bc 3f5c 69bb

actor.linears.1.weight f4 [128, 128]
2.7444265e-05 0.033519126 0.045752995 -0.083633184 0.014888163 -0.013972314 -0.009187523 -0.06120386
-0.03793939 -0.02359273 -0.021702455 0.01807832 0.018020974 -0.042502653 -0.022451254 0.07266663
0.0575293 -0.050439578 0.03965249 0.04476183 0.022499653 0.024199914 0.022795577 0.007496254
-0.008451498 0.008588795 0.012717457 -0.010005267 -0.053006545 0.046131924 0.034731522 0.007285669
-0.030859236 0.018610926 0.03664176 0.02625885 0.037025727 0.07175151 -0.039623994 0.05102206
-0.06968745 0.07855372 0.017434405 -0.02965557 -0.026583372 -0.0056945654 -0.04251267 0.0077907937
0.07521885 -0.003595904 0.052927256 -0.043317378 0.012693972 -0.05054996 0.061715215 -0.050287344
0.008232237 -0.033215992 0.0592452 -0.027244229 0.0019693982 -0.030652408 0.04938636 -0.08243526
-0.028191043 -0.07034361 -0.048298117 -0.02085121 0.005177172 -0.0553811 0.068249874 0.0018530652
-0.009842917 0.037621103 -0.047988847 -0.08628089 -0.0775474 -0.07029833 0.073781155 0.068391494
0.010375061 0.08842613 -0.0024582064 0.00024444197 -0.040651996 -0.04277976 0.040562127 -0.03758086
0.07236368 0.073404126 -0.018767448 -0.012130038 -0.03640854 0.0033608957 0.067903444 0.036888797
-0.06933188 -0.08424114 0.08393354 0.028903252 0.06114895 0.008262396 0.008064392 0.013420547
0.0047945906 -0.062612996 0.077393815 -0.02644976 0.07022956 -0.07956137 0.046763178 0.020844022
-0.01880818 0.071677774 0.019326163 -0.024313917 0.040011346 0.054905005 0.050851174 0.01696287
-0.009857418 -0.03631291 0.07455626 0.012722133 -0.010942658 0.055838063 0.05481999 0.020215826
-0.08539578 0.052848548 0.0015839572 -0.050405197 0.042849176 -0.058853734 -0.08155414 0.08439965
0.003522173 -0.020265277 0.027999349 -0.002140632 -0.023405585 -0.04372622 0.07324042 -0.016677117
0.0464865 0.010328961 0.057469286 0.04154769 -0.015944477 0.019450245 -0.013316347 -0.01722217
-0.021692302 0.07185285 0.07529146 -0.0006813469 0.07716771 0.0309391 0.09016068 0.029912936
0.0796425 -0.016183492 -0.01681769 0.023323838 0.04293694 0.01269154 0.061037842 -0.0055585536
-0.06662877 -0.008588292 0.08051229 0.07458227 0.056271464 -0.04478713 0.044307433 -0.019720042
0.06381319 -0.046267007 -0.06187741 0.07772866 -0.050394792 -0.06660572 0.088528484 -0.028083809
0.004069521 -0.050202653 0.039137803 -0.0514927 0.040021934 0.036639612 0.00064189936 0.06156061
-0.024573514 -0.06346841 0.03940149 -0.071217716 0.082237564 0.023314642 0.052869473 -0.06304053
-0.057865318 0.023730641 0.008354277 0.02589556 0.07544008 -0.04625768 -0.024499962 0.07558874
0.07010227 -0.080334395 -0.050307836 -0.03090759 -0.06688536 -0.027018068 0.07912943 -0.03861367
-0.071709044 -0.061318774 -0.017929379 0.04675338 0.049074218 0.02724043 0.08789944 0.05579911
0.018087775 -0.0059639597 -0.012574645 0.08228369 0.032391727 -0.010656946 0.02712326 -0.019087747
0.041281387 -0.012539522 0.06627138 -0.088457815 -0.0035144996 -0.031899597 -0.08114687 -0.080040105
0.075736195 0.049014006 -0.08986785 -0.001984131 0.02274817 0.03892388 0.07901583 0.020980712
0.082075335 -0.0697604 -0.07192955 0.06723605 0.038991228 0.081279546 -0.00016651444 0.012342431
00000000: 1c38 e637 5a4b 093d 7e67 3b3d e047 abbd
00000010: 7bed 733c 22ec 64bc 4487 16bc e6b0 7abd
00000020: 5566 1bbd 8a45 c1bc 59c9 b1bc fc18 943c
00000030: b9a0 933c 4317 2ebd b1eb b7bc 3ed2 943d
00000040: d8a3 6b3d bb99 4ebd a66a 223d 2e58 373d
00000050: 3151 b83c e63e c63c cabd ba3c 23a3 f53b
00000060: 2778 0abc 04b8 0c3c e15c 503c 22ed 23bc
00000070: 641d 59bd d4f4 3c3d a442 0e3d 9fbc ee3b
00000080: 82cc fcbc f175 983c ac15 163d cd1c d73c
00000090: 4aa8 173d 75f2 923d c54c 22bd 82fc 503d
000000a0: 4bb8 8ebd c6e0 a03d 99d2 8e3c 3df0 f2bc
000000b0: 5fc5 d9bc 7a99 babb c421 2ebd ea49 ff3b
000000c0: 570c 9a3d 42a9 6bbb 40ca 583d 906d 31bd
000000d0: 61fa 4f3c 7a0d 4fbd 18c9 7c3d 1afa 4dbd
000000e0: 81e0 063c 7e0d 08bd 18ab 723d 4a2f dfbc
000000f0: 0511 013b c21a fbbc 5a49 4a3d d1d3 a8bd
00000100: e7f0 e6bc 5010 90bd 3fd4 45bd 28d0 aabc
00000110: 44a5 a93b 4bd7 62bd 97c6 8b3d 8de2 f23a
00000120: 3044 21bc 9618 1a3d f48f 44bd 09b4 b0bd
00000130: 2cd1 9ebd 92f8 8fbd 931a 973d d710 8c3d
00000140: 29fc 293c c218 b53d dc19 21bb 7228 8039
00000150: b582 26bd d439 2fbd 7924 263d 63ee 19bd
00000160: 6933 943d e754 963d 31be 99bc 11bd 46bc
00000170: 1f21 15bd 7942 5c3b f610 8b3d b518 173d
00000180: dffd 8dbd 9e86 acbd 59e5 ab3d 83c6 ec3c
00000190: 5277 7a3d 005f 073c 8320 043c dbe1 5b3c
000001a0: f11b 9d3b 3e3b 80bd a680 9e3d 2bad d8bc
000001b0: 84d4 8f3d 12f1 a2bd bf8a 3f3d 15c1 aa3c
000001c0: 9d13 9abc cccb 923d e751 9e3c fb2d c7bc
000001d0: f0e2 233d 12e4 603d 5249 503d b7f5 8a3c
000001e0: 0281 21bc d9bc 14bd f4b0 983d 7e70 503c
000001f0: d648 33bc 74b6 643d ed8a 603d a99b a53c
00000200: fce3 aebd b877 583d c99c cf3a ae75 4ebd
00000210: 9e82 2f3d 9d10 71bd db05 a7bd b9d9 ac3d
00000220: 42d4 663b 5e03 a6bc e45e e53c d849 0cbb
00000230: 12bd bfbc 441a 33bd 13ff 953d 739e 88bc
00000240: a168 3e3d cd3a 293c ea64 6b3d e92d 2a3d
00000250: fe9d 82bc 1f56 9f3c cf2c 5abc 8215 8dbc
00000260: 0eb4 b1bc 9627 933d 6932 9a3d 6b9c 32ba
00000270: 1b0a 9e3d ff73 fd3c 2aa6 b83d f90b f53c
00000280: 9b1b a33d 3e93 84bc 41c5 89bc a211 bf3c
00000290: a5de 2f3d 2df0 4f3c d102 7a3d 8724 b6bb
000002a0: aa74 88bd e8b5 0cbc a1e3 a43d 97be 983d
000002b0: e87c 663d b672 37bd b67b 353d ed8b a1bc
000002c0: 7db0 823d 7982 3dbd 2b73 7dbd 3430 9f3d
000002d0: c56a 4ebd 9468 88bd 6c4e b53d 0410 e6bc
000002e0: 9e59 853b 4ca1 4dbd f64e 203d 02ea 52bd
000002f0: 0aee 233d 6b13 163d 2345 283a fa26 7c3d
00000300: 654e c9bc bafb 81bd 7563 213d 98da 91bd
00000310: 2b6c a83d 59fe be3c a98d 583d 651b 81bd
00000320: 2f04 6dbd c366 c23c 61e0 083c ed22 d43c
00000330: 5480 9a3d b178 3dbd 25b4 c8bc 45ce 9a3d
00000340: c791 8f3d 5c86 a4bd 970f 4ebd ea31 fdbc
00000350: 31fb 88bd ff54 ddbc 9c0e a23d 5e29 1ebd
00000360: 31dc 92bd 6529 7bbd a2e0 92bc 7980 3f3d
00000370: 0c02 493d 5227 df3c 9f04 b43d 9c8d 643d
00000380: d02c 943c 526d c3bb e205 4ebc 5a84 a83d
00000390: 30ad 043d 799a 2ebc 9931 de3c e85d 9cbc
000003a0: ac16 293d 9172 4dbc 4ab9 873d 5f29 b5bd
000003b0: 8553 66bb 27a9 02bd 5530 a6bd 11ec a3bd
000003c0: 941b 9b3d e9c2 483d a30c b8bd 3208 02bb
000003d0: 5f5a ba3c a56e 1f3d 0dd3 a13d bedf ab3c
000003e0: 1d17 a83d 8ade 8ebd cd4f 93bd 0eb3 893d
000003f0: 44b5 1f3d e475 a63d 619a 2eb9 e837 4a3c

actor.linears.1.bias f4 [128]
0.09300481 -0.044929493 0.06001687 -0.07408052 0.057216786 -0.08141136 0.05919184 -0.05061718
-0.046812125 -0.077674024 -0.0029049418 0.018781288 -0.07020211 -0.043856733 0.05048559 -0.033700418
0.05468439 0.013300385 0.062267706 -0.06956454 0.07137193 0.09155313 -0.040459964 0.0048467363
0.023807796 -0.00061383913 -0.029774198 -0.008920166 0.0347417 -0.08058197 0.067537285 0.095385455
0.08055539 -0.024033843 0.052772842 0.07319536 0.05421599 0.016181212 0.06713705 -0.0052235555
-0.035747856 0.0134702595 0.014724483 -0.046060897 -0.07207119 0.059545405 -0.060248118 0.0490185
0.011988878 0.06664474 -0.013248513 -0.03570748 -0.03654411 0.053739827 -0.074023396 0.087437786
0.0067274617 0.053304005 -0.008443223 -0.038382348 -0.021224918 0.022182994 0.0028851232 -0.08032453
-0.04438371 -0.040465493 0.082769796 0.041253574 -0.06283147 -0.04349273 0.042164654 -0.078062266
-0.020628592 0.056353807 -0.06378661 0.062207583 0.049532413 0.03741508 -0.042736918 -0.07081949
0.06525636 0.0711271 0.061941415 -0.017885266 -0.071822874 -0.05393105 -0.07185925 -0.03866868
-0.018131703 -0.02592288 0.010130202 -0.0278807 -0.014629871 -0.06748587 0.03420064 -0.062074907
-0.07025315 0.037480406 -0.008353557 -0.042016994 0.09128724 0.06951695 -0.054752856 -0.06452901
-0.03130593 0.06552141 0.08266254 0.06160765 -0.053708043 -0.069880955 -0.06333642 0.0034917458
-0.0396926 0.07025038 -0.061942894 -0.065320075 -0.0010881241 -0.03806187 0.009719063 0.014245144
0.038997415 0.059545178 -0.03081288 0.048324388 0.048162315 0.054954503 -0.05976996 0.063233025
00000000: 4e79 be3d fd07 38bd 40d4 753d 87b7 97bd
00000010: 265c 6a3d 00bb a6bd 2573 723d f653 4fbd
00000020: 12be 3fbd 8f13 9fbd d660 3ebb 37db 993c
00000030: 20c6 8fbd 1ea3 33bd fac9 4e3d 7309 0abd
00000040: bdfc 5f3d dce9 593c 6c0c 7f3d db77 8ebd
00000050: 722b 923d 3580 bb3d 59b9 25bd 5fd1 9e3b
00000060: 9108 c33c 0cea 20ba 05e9 f3bc e325 12bc
00000070: 504d 0e3d 2908 a5bd fd50 8a3d 7359 c33d
00000080: 39fa a43d 9fe2 c4bc 5628 583d 73e7 953d
00000090: 9611 5e3d 768e 843c 267f 893d 5c2a abbb
000000a0: 586c 12bd 5db2 5c3c f53e 713c 5aaa 3cbd
000000b0: 0f9a 93bd e2e5 733d bbc6 76bd 9fc7 483d
000000c0: 006d 443c 0a7d 883d 4b10 59bc 0242 12bd
000000d0: 47af 15bd 4b1e 5c3d 9499 97bd 9512 b33d
000000e0: 0a72 dc3b 4d55 5a3d 7255 0abc cf36 1dbd
000000f0: e1df adbc 1cb9 b53c 5614 3d3b 3081 a4bd
00000100: b1cb 35bd 25bf 25bd 3683 a93d 82f9 283d
00000110: c9ad 80bd 6f25 32bd d8b4 2c3d 1cdf 9fbd
00000120: 4bfd a8bc 40d3 663d 8ea2 82bd 61cd 7e3d
00000130: 80e2 4a3d 8e40 193d e80c 2fbd cf09 91bd
00000140: 20a5 853d 16ab 913d 48b6 7d3d 1f84 92bc
00000150: df17 93bd cee6 5cbd f12a 93bd 0d63 1ebd
00000160: f088 94bc 385c d4bc 26f9 253c 1166 e4bc
00000170: 20b2 6fbc 0836 8abd f815 0c3d 4242 7ebd
00000180: e2e0 8fbd 0e85 193d 5cdd 08bc 031a 2cbd
00000190: cef4 ba3d e75e 8e3d 8844 60bd c927 84bd
000001a0: a63a 00bd 1730 863d fa4a a93d 4e58 7c3d
000001b0: f7fc 5bbd bf1d 8fbd 86b6 81bd c6d5 643b
000001c0: b594 22bd 6edf 8f3d d5b7 7dbd 88c6 85bd
000001d0: 639f 8eba c3e6 1bbd b43c 1f3c 7764 693c
000001e0: c1bb 1f3d a5e5 733d 4b6b fcbc cbef 453d
000001f0: d945 453d f917 613d 58d1 74bd 5180 813d

actor.linears.2.weight f4 [1, 128]
0.04743646 -0.04145876 0.06153896 0.03324895 -0.054714918 -0.07634404 -0.017826319 0.050941586
0.08566483 0.059616365 0.0801544 0.025911784 0.0043975357 -0.08117321 0.016747849 -0.014524733
-0.023111353 0.027656874 0.021290986 0.04334217 0.08580674 -5.0322535e-05 0.071477644 0.025783444
-0.009074117 0.028883025 0.05827749 -0.08246333 0.027934235 0.038111776 -0.073395625 0.009148536
0.004462901 -0.049080543 0.0796048 -0.025771972 0.04542832 0.022680853 0.00019296816 0.015688093
-0.004186712 -0.06147036 -0.063163534 0.06905764 0.08236971 -0.0025385274 0.043391902 0.05692139
0.015500411 0.0044199824 0.013198133 0.0116312755 0.041687362 0.07315299 -0.020099454 0.068358906
-0.08037679 0.030357245 0.050486572 -0.015256375 0.0012498257 0.04274652 -0.03144309 0.044712383
-0.065982156 -0.091580786 0.055157058 -0.08728744 0.07739944 0.032296557 0.056281578 0.05164752
-0.07020406 0.027902367 -0.008943061 -0.0019033335 0.010907661 -0.029956331 0.08254636 0.013727267
0.03697609 0.07749545 0.037894994 -0.058492627 0.031881806 0.03105898 0.025898954 -0.089822635
-0.06491602 -0.043419816 -0.057850033 -0.00997489 -0.053618874 0.04114656 0.061503462 -0.0723496
0.07105013 -0.024094502 0.055994123 -0.0417692 0.001595705 0.048057705 0.06779262 -0.024515126
0.024395904 -0.018386792 -0.06274147 0.08035134 -0.015131817 0.06154118 -0.038815834 0.023207283
0.017684506 -0.09062859 -0.08909327 -0.045245614 0.047490966 0.08390515 0.035699118 -0.055939227
0.062701136 -0.050326053 0.019472778 0.046521604 0.051095363 -0.060886916 0.07090709 -0.0058750543
00000000: bc4c 423d a9d0 29bd 4710 7c3d 0d30 083d
00000010: c01c 60bd 445a 9cbd 8008 92bc 20a8 503d
00000020: 0b71 af3d 4a30 743d fd27 a43d f344 d43c
00000030: 3419 903b 243e a6bd c932 893c 25f9 6dbc
00000040: 0554 bdbc ab90 e23c 6f6a ae3c 8f87 313d
00000050: 72bb af3d 6911 53b8 df62 923d cd37 d33c
00000060: 9bab 14bc 189c ec3c 61b4 6e3d 89e2 a8bd
00000070: 56d6 e43c 181b 1c3d 7250 96bd bee3 153c
00000080: 873d 923b ae08 49bd d707 a33d be1f d3bc
00000090: 0c13 3a3d 32cd b93c 7f57 4a39 5184 803c
000000a0: b030 89bb 58c8 7bbd e25b 81bd 186e 8d3d
000000b0: 73b1 a83d 6c5d 26bb b5bb 313d 6726 693d
000000c0: 70f5 7d3c 80d5 903b fb3c 583c 1b91 3e3c
000000d0: 5ec0 2a3d 3cd1 953d 9ca7 a4bc c1ff 8b3d
000000e0: 969c a4bd c2af f83c 02cb 4e3d e0f5 79bc
000000f0: 31d1 a33a fa16 2f3d 78ca 00bd 5524 373d
00000100: a721 87bd b58e bbbd 5eec 613d c2c3 b2bd
00000110: 9983 9e3d 6549 043d 8387 663d 5a8c 533d
00000120: 25c7 8fbd 8193 e43c eb85 12bc 4679 f9ba
00000130: 0cb6 323c fb66 f5bc 110e a93d 55e8 603c
00000140: 3e74 173d efb5 9e3d c837 1b3d f795 6fbd
00000150: 7f96 023d 676f fe3c 0b2a d43c eef4 b7bd
00000160: b1f2 84bd fad8 31bd 28f4 6cbd b96d 23bc
00000170: 779f 5bbd 4c89 283d 0eeb 7b3d 072c 94bd
00000180: bb82 913d d561 c5bc 185a 653d 2e16 2bbd
00000190: fa26 d13a 28d8 443d dbd6 8a3d f2d3 c8bc
000001a0: ebd9 c73c e69f 96bc 9a7e 80bd 3e8f a43d
000001b0: 71eb 77bc 9b12 7c3d 5afd 1ebd 331d be3c
000001c0: 19df 903c 7b9b b9bd 8876 b6bd 7753 39bd
000001d0: e385 423d 77d6 ab3d 3d39 123d 8820 65bd
000001e0: 7469 803d b122 4ebd 6085 9f3c 708d 3e3d
000001f0: 5f49 513d 8f64 79bd bd37 913d 8783 c0bb
