FJSP_MultiPPO/saved_network/FJSP_J20M605/best_value10/policy_mch.pth (torch_old, 271448 bytes, 14 tensors)

bn.weight f4 [128]
0	0x3f8095a5	1.0045668
1	0x3f7fba0b	0.99893254
2	0x3f800723	1.0002178
3	0x3f7ea9c9	0.9947782
4	0x3f7f52ef	0.9973592
5	0x3f8085ef	1.0040873
6	0x3f8005db	1.0001787
7	0x3f7e6f93	0.99389
8	0x3f80083b	1.0002512
9	0x3f806744	1.0031514
10	0x3f7fe752	0.9996234
11	0x3f7f4357	0.9971213
12	0x3f7f9769	0.9984041
13	0x3f802a14	1.0012841
14	0x3f805d4c	1.0028472
15	0x3f7e8de6	0.9943527
16	0x3f7de6d0	0.99180317
17	0x3f7fce9e	0.9992465
18	0x3f7e7da6	0.99410474
19	0x3f7f8351	0.9980975
20	0x3f8031a8	1.0015154
21	0x3f7ecea1	0.9953404
22	0x3f7f8a95	0.99820834
23	0x3f7ea6ca	0.9947325
24	0x3f80a9cb	1.0051817
25	0x3f806f15	1.00339
26	0x3f7ef74d	0.995961
27	0x3f7fc9f7	0.9991755
28	0x3f80463b	1.0021433
29	0x3f805623	1.0026287
30	0x3f7e8945	0.99428207
31	0x3f7f87cf	0.998166
32	0x3f805b5e	1.0027883
33	0x3f80415d	1.0019947
34	0x3f7cbd93	0.9872677
35	0x3f80800f	1.003908
36	0x3f7f5ae5	0.9974807
37	0x3f7fcdcf	0.99923414
38	0x3f7dd74b	0.99156636
39	0x3f8011a9	1.000539
40	0x3f803be7	1.0018281
41	0x3f8016cf	1.0006961
42	0x3f8038c4	1.0017323
43	0x3f7fe57b	0.99959534
44	0x3f7f98b7	0.998424
45	0x3f7db719	0.9910751
46	0x3f7fbda1	0.99898726
47	0x3f8007e8	1.0002413
48	0x3f7f456d	0.9971531
49	0x3f7f9ea3	0.99851435
50	0x3f7fb441	0.9988442
51	0x3f7f3584	0.99691033
52	0x3f807fa5	1.0038954
53	0x3f7e55a7	0.99349445
54	0x3f7ed191	0.9953852
55	0x3f7ec428	0.9951806
56	0x3f803de5	1.0018889
57	0x3f7e8965	0.994284
58	0x3f804295	1.0020319
59	0x3f7fa7b4	0.9986527
60	0x3f7fb0eb	0.9987933
61	0x3f804d56	1.0023601
62	0x3f8054a6	1.0025833
63	0x3f7fc0cf	0.9990358
64	0x3f7ee5b8	0.99569273
65	0x3f7f1e88	0.9965596
66	0x3f7fa7f5	0.9986566
67	0x3f803b8b	1.0018171
68	0x3f803daf	1.0018824
69	0x3f7f7257	0.99783844
70	0x3f7f06dd	0.9961985
71	0x3f800015	1.0000025
72	0x3f7f3d86	0.9970325
73	0x3f802979	1.0012656
74	0x3f804932	1.0022337
75	0x3f7f0ca3	0.9962866
76	0x3f7fe639	0.99960667
77	0x3f80ddce	1.006769
78	0x3f800aee	1.0003335
79	0x3f7f5d6e	0.9975194
80	0x3f80da04	1.0066533
81	0x3f7e248c	0.99274516
82	0x3f80977c	1.0046229
83	0x3f80238e	1.001085
84	0x3f7fed55	0.99971515
85	0x3f7ef35d	0.9959009
86	0x3f7f0686	0.9961933
87	0x3f7e253e	0.9927558
88	0x3f800ab5	1.0003268
89	0x3f802a7f	1.0012969
90	0x3f80504b	1.0024503
91	0x3f803de3	1.0018886
92	0x3f7ff7dd	0.99987584
93	0x3f7f3b90	0.9970026
94	0x3f8012f5	1.0005785
95	0x3f7de7cd	0.99181825
96	0x3f80a39d	1.0049931
97	0x3f80235e	1.0010793
98	0x3f7e9274	0.9944222
99	0x3f7c86d3	0.98643225
100	0x3f7df056	0.9919485
101	0x3f80e21a	1.0069001
102	0x3f7d2e06	0.9889835
103	0x3f7f47c0	0.99718857
104	0x3f7fe2e0	0.9995556
105	0x3f7ffbee	0.9999379
106	0x3f7fddc7	0.9994778
107	0x3f7e93c7	0.9944424
108	0x3f8084cd	1.0040528
109	0x3f7f2764	0.9966948
110	0x3f802eb3	1.0014251
111	0x3f7edcc7	0.9955563
112	0x3f7de8f7	0.991836
113	0x3f7ebed7	0.9950995
114	0x3f7ec338	0.9951663
115	0x3f803146	1.0015037
116	0x3f7fd637	0.9993624
117	0x3f801c08	1.0008554
118	0x3f7ea6fa	0.99473536
119	0x3f802b5e	1.0013235
120	0x3f7dd34a	0.99150527
121	0x3f7e2b23	0.9928457
122	0x3f80641c	1.0030551
123	0x3f7f2fb8	0.9968219
124	0x3f7f5f18	0.99754477
125	0x3f800859	1.0002548
126	0x3f8075ba	1.0035927
127	0x3f803eb6	1.0019138

bn.bias f4 [128]
0	0x3b9a4795	0.0047082403
1	0x3c3348db	0.010942663
2	0x3b324b1e	0.0027205418
3	0xbb96c3f8	-0.004600998
4	0x3a82caab	0.0009978613
5	0x3bcb4508	0.0062032975
6	0x3b5cb93d	0.0033679747
7	0x3c264ab0	0.010149643
8	0xbbbc1a29	-0.005740423
9	0xbc505b8a	-0.012717137
10	0x3c6355da	0.013875449
11	0xbb86d836	-0.00411513
12	0xba1a01b1	-0.0005874886
13	0xbaf2bab2	-0.0018518774
14	0x3c07b33e	0.008282481
15	0xbb68446a	-0.0035441169
16	0x3c28d26b	0.010304074
17	0xbba99c2b	-0.0051760874
18	0x3bee2ae5	0.007268297
19	0xbab01b21	-0.001343582
20	0x3c0b9d98	0.00852146
21	0x3ad80d19	0.0016483396
22	0x3b58578c	0.0033011166
23	0x3bc291e7	0.005937803
24	0xbc0b02a5	-0.008484517
25	0x3b3fc6ac	0.0029262705
26	0xbb52e48d	-0.0032179684
27	0x3c730680	0.014833093
28	0xbc1a22b3	-0.009407687
29	0x3b065e7e	0.00205031
30	0xbbfb1e85	-0.0076635503
31	0x3c03ebdc	0.008051839
32	0x3bab4a10	0.005227335
33	0xbbea6c63	-0.007154034
34	0x3ba66cfd	0.0050789104
35	0xbb85eca3	-0.004087047
36	0xbbc17133	-0.005903387
37	0x3c4593e7	0.012059188
38	0x3c2345d4	0.009965379
39	0x3bb03553	0.0053774505
40	0xbc0771c1	-0.008266867
41	0x3b776009	0.003774645
42	0xbbd3007d	-0.006439267
43	0x3baf15a4	0.005343156
44	0xbaaf79c2	-0.0013387727
45	0xbc31b4f4	-0.010846365
46	0xbbd14498	-0.006386351
47	0xbb801805	-0.0039091134
48	0x3c5ca449	0.013466903
49	0xbaa66da0	-0.0012697466
50	0xbb70b305	-0.0036727798
51	0xbbe3640b	-0.0069394163
52	0xb864be79	-5.4536828e-05
53	0x3a822539	0.0009929306
54	0xbc56eae7	-0.0131175285
55	0x3c8e8ce3	0.017401164
56	0xbbe58621	-0.007004515
57	0x3c24607f	0.010032772
58	0xbb2f9db3	-0.0026796877
59	0x3bb54229	0.0055315685
60	0xbbf59204	-0.007494213
61	0x39235de6	0.00015579871
62	0x3ad8a237	0.0016527836
63	0x3b8a8e28	0.004228372
64	0x3bf39c08	0.007434372
65	0xbc19985f	-0.009374707
66	0x3bf987be	0.0076150587
67	0xbbd38aa6	-0.006455737
68	0x3c5d5d69	0.01351104
69	0x3b9db99a	0.004813385
70	0xb99870ed	-0.00029075835
71	0x3b0ffd09	0.002197089
72	0xbc72cd31	-0.014819429
73	0x3c19111f	0.009342461
74	0xbbc722b6	-0.006077136
75	0xbc1c8951	-0.009554223
76	0x3c1809ad	0.009279651
77	0xbbfc949d	-0.007708146
78	0x3c200142	0.009765925
79	0xbc7943c8	-0.015213914
80	0xbc2395b1	-0.00998442
81	0xbb64a381	-0.0034887495
82	0x3baad98b	0.0052139214
83	0xbbc39218	-0.0059683435
84	0x3b55cf33	0.003262472
85	0xb98d78e1	-0.00026983678
86	0x3c09d9f3	0.00841378
87	0xbaeebe32	-0.0018214642
88	0xbb966c9b	-0.0045905835
89	0x3ac550cd	0.0015053988
90	0x3bedb1bb	0.007253853
91	0x3904f6b2	0.00012680402
92	0x3c32dfa8	0.010917582
93	0x3925d6e6	0.00015815682
94	0x3c27449a	0.010209227
95	0xbc622e0e	-0.013804926
96	0x3b490e83	0.0030678816
97	0xbbfe3c2a	-0.007758637
98	0xbb58a490	-0.0033057071
99	0xbc29d045	-0.010364597
100	0x3c245652	0.010030346
101	0xba89776f	-0.0010487864
102	0x3be2d220	0.0069220215
103	0xbbe730fd	-0.0070554004
104	0x3ba27a68	0.0049584396
105	0x3bb19b90	0.005420156
106	0x3bf64f16	0.007516752
107	0x3c975ab4	0.018475868
108	0x3bd2ccd9	0.006433111
109	0x3a79e90e	0.0009533324
110	0x3c3e0baa	0.011599461
111	0x3c658f69	0.014011242
112	0xbbbcf786	-0.005766812
113	0x3c1f9d05	0.009742026
114	0xbc46f9bd	-0.012144503
115	0x3babdf78	0.0052451454
116	0x3bffcf4f	0.0078066955
117	0xbb2374a2	-0.0024941345
118	0x3c56d894	0.01311316
119	0x3c3d4333	0.011551666
120	0xbc3ad38b	-0.011402975
121	0x3c1be1a9	0.009514251
122	0x3c1267f3	0.008935916
123	0x3c0d28ab	0.008615653
124	0xbc10fd26	-0.008849418
125	0x3c7199d2	0.014746146
126	0xbaae73f6	-0.0013309706
127	0xbc0bfd11	-0.008544222

bn.running_mean f4 [128]
0	0x3cd88850	0.026432186
1	0xbbe80561	-0.0070807193
2	0x3a7cc2f5	0.0009642088
3	0xbcb76258	-0.022385761
4	0x3c08f9d6	0.008360347
5	0x3d0f4e27	0.03498664
6	0x3cc81c00	0.024427414
7	0x3cacc76f	0.021091191
8	0xbb72e3eb	-0.003706212
9	0xbd117ff2	-0.03552241
10	0x3c838dc4	0.01605881
11	0xbbd82132	-0.006595754
12	0x3c74d201	0.014942647
13	0xba70d125	-0.00091864384
14	0x3b7e2d00	0.0038784146
15	0x3be5bfe2	0.0070113996
16	0x3cc480b0	0.023987144
17	0x3ab80f92	0.0014042726
18	0xbcdc92a9	-0.026925402
19	0x3ca2c27e	0.019868132
20	0x3c8b5c4e	0.017011788
21	0x3cf78ae1	0.03021759
22	0xba704e15	-0.00091669086
23	0x3cc7f080	0.024406672
24	0xbc35c087	-0.011093265
25	0xbb18ebd3	-0.0023333922
26	0xbaa586e4	-0.0012628702
27	0xbbfffae1	-0.0078118895
28	0xbcd3f04d	-0.02587142
29	0x3c9159f0	0.01774308
30	0xbb9cdcd2	-0.004787066
31	0x3ba8db1b	0.0051530725
32	0xbb025ef6	-0.0019893027
33	0xbb0cbe10	-0.002147559
34	0x3cca67a4	0.024707623
35	0xbbfaa010	-0.0076484755
36	0xbc05a02b	-0.008155863
37	0x3cde7395	0.027154723
38	0x3cc7c256	0.024384659
39	0x3c1cac9d	0.009562639
40	0x395b7eaa	0.00020932654
41	0x3bd96464	0.006634282
42	0xbbb15886	-0.005412164
43	0x3c89851a	0.0167871
44	0x3ae3eba8	0.0017388957
45	0xbc70aa63	-0.014689061
46	0xbcc973e2	-0.02459139
47	0xbbf4d9ee	-0.0074722683
48	0x3b49bc26	0.0030782311
49	0xbc682f43	-0.014171424
50	0xbb4e8c77	-0.003151683
51	0xbca41a26	-0.020032
52	0x3cf2dc97	0.029646201
53	0xbc874845	-0.016513953
54	0xbc6ee409	-0.014580735
55	0x3cdfd7ce	0.027324583
56	0x3c16830b	0.0091865165
57	0x3cbc389a	0.022976208
58	0xbbd88350	-0.0066074505
59	0x3a8c87b4	0.0010721595
60	0xbc46245c	-0.01209363
61	0x3beb21bd	0.007175653
62	0x3c3db571	0.0115789035
63	0x3cda28fd	0.026630873
64	0x3c026d57	0.007960639
65	0xbbd9ac29	-0.0066428375
66	0x3ce669c8	0.028126612
67	0xbca1f0a5	-0.019768069
68	0x3d14b1b8	0.0363023
69	0x3cf693a4	0.030099697
70	0xbcab5ad1	-0.020917328
71	0x3c7b0827	0.015321768
72	0xbb82cfc8	-0.0039920546
73	0x3cc9a7a3	0.024616068
74	0xbb10e389	-0.0022108278
75	0xbcb384ad	-0.02191385
76	0x3d03f831	0.032219116
77	0xbcd33133	-0.025780296
78	0xbb1bfe7c	-0.0023802808
79	0xbc8d2c05	-0.017232904
80	0xbc90b84f	-0.01766601
81	0xbcf5866a	-0.02997132
82	0x3c1be25a	0.009514416
83	0xbc5a8253	-0.013336736
84	0xbc16d019	-0.009204888
85	0xbc4d074d	-0.012513948
86	0xbc8d4da7	-0.017248942
87	0x3ca34f87	0.019935383
88	0x396df15e	0.00022691998
89	0x3c1fba1d	0.009748963
90	0x3c33915b	0.010959948
91	0x3ca64783	0.020297771
92	0x3c460eb4	0.012088466
93	0xbce2d34a	-0.027688641
94	0x3c8ce188	0.017197385
95	0xbce4ead0	-0.027943999
96	0x3ceb1bc0	0.028699756
97	0xbcc24247	-0.023713244
98	0xbceb3089	-0.028709667
99	0xbc945db0	-0.01811108
100	0x3c82aad0	0.01595059
101	0x3cba6cad	0.022756899
102	0x3cd50935	0.026005367
103	0xbc996365	-0.018724153
104	0x3c6a9a08	0.0143189505
105	0x3c63d3c5	0.01390547
106	0x3cc4f9ce	0.024044897
107	0x3cd91c4a	0.026502747
108	0x3cf99b1f	0.030469475
109	0x3b7d8682	0.003868491
110	0x3d14d0be	0.036331885
111	0x3d121622	0.03566564
112	0xbcb2f3a6	-0.021844696
113	0x3be8e52a	0.0071073966
114	0xbc95f36c	-0.01830455
115	0x3cd102b4	0.025513984
116	0x3bb7a782	0.0056046853
117	0xb943e318	-0.00018681248
118	0x3be4d051	0.006982841
119	0x3cd597dd	0.02607339
120	0xbcaf2785	-0.021381149
121	0x3d0023b9	0.031284068
122	0x3c5a6d50	0.013331726
123	0x3bb836e4	0.005621778
124	0xbcee1b16	-0.02906565
125	0x3ce51e0b	0.027968427
126	0xbc0df692	-0.008664744
127	0xbbfc5623	-0.007700698

bn.running_var f4 [128]
0	0x38db0a0a	0.00010444604
1	0x37e97ec1	2.7834789e-05
2	0x38518b23	4.9959064e-05
3	0x38ca2cf0	9.640481e-05
4	0x375415cf	1.2641262e-05
5	0x3932f840	0.00017067883
6	0x394d5bad	0.00019584475
7	0x3879b3e4	5.9533762e-05
8	0x37aba502	2.0461626e-05
9	0x3936048f	0.00017358571
10	0x3885e1cb	6.3839914e-05
11	0x37804f9f	1.5295866e-05
12	0x3801286a	3.0793635e-05
13	0x36204b0f	2.3885548e-06
14	0x3792a923	1.7483317e-05
15	0x370e659c	8.487517e-06
16	0x38a33bc6	7.783579e-05
17	0x38076414	3.2279713e-05
18	0x38caf272	9.6772696e-05
19	0x386e8662	5.6868776e-05
20	0x38a0fb08	7.676153e-05
21	0x390d13ac	0.00013454136
22	0x37b08701	2.1043701e-05
23	0x38be623c	9.0782036e-05
24	0x379712c4	1.8009341e-05
25	0x379cae0c	1.8677696e-05
26	0x3784789f	1.5791795e-05
27	0x38073fbe	3.2245873e-05
28	0x38cd906f	9.8020646e-05
29	0x38d2226e	0.00010019993
30	0x376fbd6f	1.4289616e-05
31	0x368177d1	3.858448e-06
32	0x3670734e	3.5829903e-06
33	0x35ab24d0	1.2751207e-06
34	0x393b0280	0.00017834641
35	0x3702fc38	7.807328e-06
36	0x388943af	6.545276e-05
37	0x397f2b76	0.00024334886
38	0x3949a9d6	0.00019232123
39	0x3897bf0b	7.2358256e-05
40	0x37f51bf9	2.9219302e-05
41	0x37552c02	1.2706036e-05
42	0x36a733bb	4.98301e-06
43	0x382500b8	3.9339735e-05
44	0x36c332f5	5.817385e-06
45	0x3841cf26	4.6207708e-05
46	0x38ab94fe	8.181667e-05
47	0x37b3e018	2.1442815e-05
48	0x366750e9	3.4468778e-06
49	0x3806a7c5	3.2104337e-05
50	0x36ec93dd	7.0505616e-06
51	0x3860f2ce	5.363189e-05
52	0x393c450e	0.00017954802
53	0x381b0775	3.6961825e-05
54	0x37ee3d61	2.8400393e-05
55	0x39085c52	0.00013004363
56	0x37edd409	2.8351338e-05
57	0x389d1181	7.489604e-05
58	0x37000724	7.631057e-06
59	0x37b515c7	2.1587022e-05
60	0x38195558	3.6557525e-05
61	0x37e23bbb	2.6969114e-05
62	0x389a78fd	7.365828e-05
63	0x38e30e81	0.00010826905
64	0x37feb44f	3.0363122e-05
65	0x36dd9b38	6.604383e-06
66	0x39283242	0.00016040451
67	0x385b0394	5.2217e-05
68	0x39506048	0.00019872293
69	0x390989ab	0.00013116623
70	0x38799dfb	5.9513357e-05
71	0x3824b6e9	3.9270995e-05
72	0x379d3078	1.8738428e-05
73	0x390a4334	0.0001318574
74	0x376ad96e	1.3998111e-05
75	0x38edcfb9	0.00011339732
76	0x39129cce	0.0001398206
77	0x38fcd424	0.00012055811
78	0x3717391f	9.013601e-06
79	0x3908e072	0.00013053583
80	0x38c8eb49	9.5805684e-05
81	0x393cb614	0.00017996907
82	0x38928932	6.987377e-05
83	0x37c71d79	2.3736373e-05
84	0x378bd650	1.6669888e-05
85	0x381d3568	3.7481455e-05
86	0x3835e06c	4.3362772e-05
87	0x3897a38f	7.230706e-05
88	0x3706a2c3	8.024918e-06
89	0x376d5a8d	1.4147384e-05
90	0x3794d057	1.773999e-05
91	0x387cee8f	6.0303657e-05
92	0x389ff286	7.626884e-05
93	0x38d70195	0.000102522936
94	0x390cb09a	0.0001341723
95	0x3949210a	0.00019181162
96	0x393411fa	0.00017172834
97	0x39370214	0.00017453014
98	0x38f0b0c7	0.00011477019
99	0x38393cca	4.416405e-05
100	0x3815374a	3.557586e-05
101	0x3890f0cf	6.911309e-05
102	0x38e25bff	0.000107936554
103	0x38bcfff2	9.012212e-05
104	0x37e93411	2.780001e-05
105	0x38791755	5.9387956e-05
106	0x39284e4b	0.00016050895
107	0x396b723b	0.000224539
108	0x3923dfe5	0.00015628299
109	0x36d73567	6.413716e-06
110	0x393b718d	0.0001787601
111	0x3954b693	0.0002028591
112	0x38858cc3	6.368153e-05
113	0x38253a50	3.9393373e-05
114	0x38800a29	6.105408e-05
115	0x38b7acc1	8.758298e-05
116	0x36ab4ec0	5.105365e-06
117	0x376a1e7c	1.3954585e-05
118	0x372611ce	9.8985165e-06
119	0x38f40f37	0.00011637661
120	0x38a1c019	7.712859e-05
121	0x390adfd5	0.0001324409
122	0x37e6043b	2.7420107e-05
123	0x37fafa9e	2.9919025e-05
124	0x38efb019	0.00011429209
125	0x38dcbdd4	0.00010525776
126	0x37df9aae	2.66557e-05
127	0x3731f635	1.0607347e-05

bn1.weight f4 [128]
0	0x3f800000	1.0
1	0x3f800000	1.0
2	0x3f800000	1.0
3	0x3f800000	1.0
4	0x3f800000	1.0
5	0x3f800000	1.0
6	0x3f800000	1.0
7	0x3f800000	1.0
8	0x3f800000	1.0
9	0x3f800000	1.0
10	0x3f800000	1.0
11	0x3f800000	1.0
12	0x3f800000	1.0
13	0x3f800000	1.0
14	0x3f800000	1.0
15	0x3f800000	1.0
16	0x3f800000	1.0
17	0x3f800000	1.0
18	0x3f800000	1.0
19	0x3f800000	1.0
20	0x3f800000	1.0
21	0x3f800000	1.0
22	0x3f800000	1.0
23	0x3f800000	1.0
24	0x3f800000	1.0
25	0x3f800000	1.0
26	0x3f800000	1.0
27	0x3f800000	1.0
28	0x3f800000	1.0
29	0x3f800000	1.0
30	0x3f800000	1.0
31	0x3f800000	1.0
32	0x3f800000	1.0
33	0x3f800000	1.0
34	0x3f800000	1.0
35	0x3f800000	1.0
36	0x3f800000	1.0
37	0x3f800000	1.0
38	0x3f800000	1.0
39	0x3f800000	1.0
40	0x3f800000	1.0
41	0x3f800000	1.0
42	0x3f800000	1.0
43	0x3f800000	1.0
44	0x3f800000	1.0
45	0x3f800000	1.0
46	0x3f800000	1.0
47	0x3f800000	1.0
48	0x3f800000	1.0
49	0x3f800000	1.0
50	0x3f800000	1.0
51	0x3f800000	1.0
52	0x3f800000	1.0
53	0x3f800000	1.0
54	0x3f800000	1.0
55	0x3f800000	1.0
56	0x3f800000	1.0
57	0x3f800000	1.0
58	0x3f800000	1.0
59	0x3f800000	1.0
60	0x3f800000	1.0
61	0x3f800000	1.0
62	0x3f800000	1.0
63	0x3f800000	1.0
64	0x3f800000	1.0
65	0x3f800000	1.0
66	0x3f800000	1.0
67	0x3f800000	1.0
68	0x3f800000	1.0
69	0x3f800000	1.0
70	0x3f800000	1.0
71	0x3f800000	1.0
72	0x3f800000	1.0
73	0x3f800000	1.0
74	0x3f800000	1.0
75	0x3f800000	1.0
76	0x3f800000	1.0
77	0x3f800000	1.0
78	0x3f800000	1.0
79	0x3f800000	1.0
80	0x3f800000	1.0
81	0x3f800000	1.0
82	0x3f800000	1.0
83	0x3f800000	1.0
84	0x3f800000	1.0
85	0x3f800000	1.0
86	0x3f800000	1.0
87	0x3f800000	1.0
88	0x3f800000	1.0
89	0x3f800000	1.0
90	0x3f800000	1.0
91	0x3f800000	1.0
92	0x3f800000	1.0
93	0x3f800000	1.0
94	0x3f800000	1.0
95	0x3f800000	1.0
96	0x3f800000	1.0
97	0x3f800000	1.0
98	0x3f800000	1.0
99	0x3f800000	1.0
100	0x3f800000	1.0
101	0x3f800000	1.0
102	0x3f800000	1.0
103	0x3f800000	1.0
104	0x3f800000	1.0
105	0x3f800000	1.0
106	0x3f800000	1.0
107	0x3f800000	1.0
108	0x3f800000	1.0
109	0x3f800000	1.0
110	0x3f800000	1.0
111	0x3f800000	1.0
112	0x3f800000	1.0
113	0x3f800000	1.0
114	0x3f800000	1.0
115	0x3f800000	1.0
116	0x3f800000	1.0
117	0x3f800000	1.0
118	0x3f800000	1.0
119	0x3f800000	1.0
120	0x3f800000	1.0
121	0x3f800000	1.0
122	0x3f800000	1.0
123	0x3f800000	1.0
124	0x3f800000	1.0
125	0x3f800000	1.0
126	0x3f800000	1.0
127	0x3f800000	1.0

bn1.bias f4 [128]
0	0x00000000	0.0
1	0x00000000	0.0
2	0x00000000	0.0
3	0x00000000	0.0
4	0x00000000	0.0
5	0x00000000	0.0
6	0x00000000	0.0
7	0x00000000	0.0
8	0x00000000	0.0
9	0x00000000	0.0
10	0x00000000	0.0
11	0x00000000	0.0
12	0x00000000	0.0
13	0x00000000	0.0
14	0x00000000	0.0
15	0x00000000	0.0
16	0x00000000	0.0
17	0x00000000	0.0
18	0x00000000	0.0
19	0x00000000	0.0
20	0x00000000	0.0
21	0x00000000	0.0
22	0x00000000	0.0
23	0x00000000	0.0
24	0x00000000	0.0
25	0x00000000	0.0
26	0x00000000	0.0
27	0x00000000	0.0
28	0x00000000	0.0
29	0x00000000	0.0
30	0x00000000	0.0
31	0x00000000	0.0
32	0x00000000	0.0
33	0x00000000	0.0
34	0x00000000	0.0
35	0x00000000	0.0
36	0x00000000	0.0
37	0x00000000	0.0
38	0x00000000	0.0
39	0x00000000	0.0
40	0x00000000	0.0
41	0x00000000	0.0
42	0x00000000	0.0
43	0x00000000	0.0
44	0x00000000	0.0
45	0x00000000	0.0
46	0x00000000	0.0
47	0x00000000	0.0
48	0x00000000	0.0
49	0x00000000	0.0
50	0x00000000	0.0
51	0x00000000	0.0
52	0x00000000	0.0
53	0x00000000	0.0
54	0x00000000	0.0
55	0x00000000	0.0
56	0x00000000	0.0
57	0x00000000	0.0
58	0x00000000	0.0
59	0x00000000	0.0
60	0x00000000	0.0
61	0x00000000	0.0
62	0x00000000	0.0
63	0x00000000	0.0
64	0x00000000	0.0
65	0x00000000	0.0
66	0x00000000	0.0
67	0x00000000	0.0
68	0x00000000	0.0
69	0x00000000	0.0
70	0x00000000	0.0
71	0x00000000	0.0
72	0x00000000	0.0
73	0x00000000	0.0
74	0x00000000	0.0
75	0x00000000	0.0
76	0x00000000	0.0
77	0x00000000	0.0
78	0x00000000	0.0
79	0x00000000	0.0
80	0x00000000	0.0
81	0x00000000	0.0
82	0x00000000	0.0
83	0x00000000	0.0
84	0x00000000	0.0
85	0x00000000	0.0
86	0x00000000	0.0
87	0x00000000	0.0
88	0x00000000	0.0
89	0x00000000	0.0
90	0x00000000	0.0
91	0x00000000	0.0
92	0x00000000	0.0
93	0x00000000	0.0
94	0x00000000	0.0
95	0x00000000	0.0
96	0x00000000	0.0
97	0x00000000	0.0
98	0x00000000	0.0
99	0x00000000	0.0
100	0x00000000	0.0
101	0x00000000	0.0
102	0x00000000	0.0
103	0x00000000	0.0
104	0x00000000	0.0
105	0x00000000	0.0
106	0x00000000	0.0
107	0x00000000	0.0
108	0x00000000	0.0
109	0x00000000	0.0
110	0x00000000	0.0
111	0x00000000	0.0
112	0x00000000	0.0
113	0x00000000	0.0
114	0x00000000	0.0
115	0x00000000	0.0
116	0x00000000	0.0
117	0x00000000	0.0
118	0x00000000	0.0
119	0x00000000	0.0
120	0x00000000	0.0
121	0x00000000	0.0
122	0x00000000	0.0
123	0x00000000	0.0
124	0x00000000	0.0
125	0x00000000	0.0
126	0x00000000	0.0
127	0x00000000	0.0

bn1.running_mean f4 [128]
0	0x00000000	0.0
1	0x00000000	0.0
2	0x00000000	0.0
3	0x00000000	0.0
4	0x00000000	0.0
5	0x00000000	0.0
6	0x00000000	0.0
7	0x00000000	0.0
8	0x00000000	0.0
9	0x00000000	0.0
10	0x00000000	0.0
11	0x00000000	0.0
12	0x00000000	0.0
13	0x00000000	0.0
14	0x00000000	0.0
15	0x00000000	0.0
16	0x00000000	0.0
17	0x00000000	0.0
18	0x00000000	0.0
19	0x00000000	0.0
20	0x00000000	0.0
21	0x00000000	0.0
22	0x00000000	0.0
23	0x00000000	0.0
24	0x00000000	0.0
25	0x00000000	0.0
26	0x00000000	0.0
27	0x00000000	0.0
28	0x00000000	0.0
29	0x00000000	0.0
30	0x00000000	0.0
31	0x00000000	0.0
32	0x00000000	0.0
33	0x00000000	0.0
34	0x00000000	0.0
35	0x00000000	0.0
36	0x00000000	0.0
37	0x00000000	0.0
38	0x00000000	0.0
39	0x00000000	0.0
40	0x00000000	0.0
41	0x00000000	0.0
42	0x00000000	0.0
43	0x00000000	0.0
44	0x00000000	0.0
45	0x00000000	0.0
46	0x00000000	0.0
47	0x00000000	0.0
48	0x00000000	0.0
49	0x00000000	0.0
50	0x00000000	0.0
51	0x00000000	0.0
52	0x00000000	0.0
53	0x00000000	0.0
54	0x00000000	0.0
55	0x00000000	0.0
56	0x00000000	0.0
57	0x00000000	0.0
58	0x00000000	0.0
59	0x00000000	0.0
60	0x00000000	0.0
61	0x00000000	0.0
62	0x00000000	0.0
63	0x00000000	0.0
64	0x00000000	0.0
65	0x00000000	0.0
66	0x00000000	0.0
67	0x00000000	0.0
68	0x00000000	0.0
69	0x00000000	0.0
70	0x00000000	0.0
71	0x00000000	0.0
72	0x00000000	0.0
73	0x00000000	0.0
74	0x00000000	0.0
75	0x00000000	0.0
76	0x00000000	0.0
77	0x00000000	0.0
78	0x00000000	0.0
79	0x00000000	0.0
80	0x00000000	0.0
81	0x00000000	0.0
82	0x00000000	0.0
83	0x00000000	0.0
84	0x00000000	0.0
85	0x00000000	0.0
86	0x00000000	0.0
87	0x00000000	0.0
88	0x00000000	0.0
89	0x00000000	0.0
90	0x00000000	0.0
91	0x00000000	0.0
92	0x00000000	0.0
93	0x00000000	0.0
94	0x00000000	0.0
95	0x00000000	0.0
96	0x00000000	0.0
97	0x00000000	0.0
98	0x00000000	0.0
99	0x00000000	0.0
100	0x00000000	0.0
101	0x00000000	0.0
102	0x00000000	0.0
103	0x00000000	0.0
104	0x00000000	0.0
105	0x00000000	0.0
106	0x00000000	0.0
107	0x00000000	0.0
108	0x00000000	0.0
109	0x00000000	0.0
110	0x00000000	0.0
111	0x00000000	0.0
112	0x00000000	0.0
113	0x00000000	0.0
114	0x00000000	0.0
115	0x00000000	0.0
116	0x00000000	0.0
117	0x00000000	0.0
118	0x00000000	0.0
119	0x00000000	0.0
120	0x00000000	0.0
121	0x00000000	0.0
122	0x00000000	0.0
123	0x00000000	0.0
124	0x00000000	0.0
125	0x00000000	0.0
126	0x00000000	0.0
127	0x00000000	0.0

bn1.running_var f4 [128]
0	0x3f800000	1.0
1	0x3f800000	1.0
2	0x3f800000	1.0
3	0x3f800000	1.0
4	0x3f800000	1.0
5	0x3f800000	1.0
6	0x3f800000	1.0
7	0x3f800000	1.0
8	0x3f800000	1.0
9	0x3f800000	1.0
10	0x3f800000	1.0
11	0x3f800000	1.0
12	0x3f800000	1.0
13	0x3f800000	1.0
14	0x3f800000	1.0
15	0x3f800000	1.0
16	0x3f800000	1.0
17	0x3f800000	1.0
18	0x3f800000	1.0
19	0x3f800000	1.0
20	0x3f800000	1.0
21	0x3f800000	1.0
22	0x3f800000	1.0
23	0x3f800000	1.0
24	0x3f800000	1.0
25	0x3f800000	1.0
26	0x3f800000	1.0
27	0x3f800000	1.0
28	0x3f800000	1.0
29	0x3f800000	1.0
30	0x3f800000	1.0
31	0x3f800000	1.0
32	0x3f800000	1.0
33	0x3f800000	1.0
34	0x3f800000	1.0
35	0x3f800000	1.0
36	0x3f800000	1.0
37	0x3f800000	1.0
38	0x3f800000	1.0
39	0x3f800000	1.0
40	0x3f800000	1.0
41	0x3f800000	1.0
42	0x3f800000	1.0
43	0x3f800000	1.0
44	0x3f800000	1.0
45	0x3f800000	1.0
46	0x3f800000	1.0
47	0x3f800000	1.0
48	0x3f800000	1.0
49	0x3f800000	1.0
50	0x3f800000	1.0
51	0x3f800000	1.0
52	0x3f800000	1.0
53	0x3f800000	1.0
54	0x3f800000	1.0
55	0x3f800000	1.0
56	0x3f800000	1.0
57	0x3f800000	1.0
58	0x3f800000	1.0
59	0x3f800000	1.0
60	0x3f800000	1.0
61	0x3f800000	1.0
62	0x3f800000	1.0
63	0x3f800000	1.0
64	0x3f800000	1.0
65	0x3f800000	1.0
66	0x3f800000	1.0
67	0x3f800000	1.0
68	0x3f800000	1.0
69	0x3f800000	1.0
70	0x3f800000	1.0
71	0x3f800000	1.0
72	0x3f800000	1.0
73	0x3f800000	1.0
74	0x3f800000	1.0
75	0x3f800000	1.0
76	0x3f800000	1.0
77	0x3f800000	1.0
78	0x3f800000	1.0
79	0x3f800000	1.0
80	0x3f800000	1.0
81	0x3f800000	1.0
82	0x3f800000	1.0
83	0x3f800000	1.0
84	0x3f800000	1.0
85	0x3f800000	1.0
86	0x3f800000	1.0
87	0x3f800000	1.0
88	0x3f800000	1.0
89	0x3f800000	1.0
90	0x3f800000	1.0
91	0x3f800000	1.0
92	0x3f800000	1.0
93	0x3f800000	1.0
94	0x3f800000	1.0
95	0x3f800000	1.0
96	0x3f800000	1.0
97	0x3f800000	1.0
98	0x3f800000	1.0
99	0x3f800000	1.0
100	0x3f800000	1.0
101	0x3f800000	1.0
102	0x3f800000	1.0
103	0x3f800000	1.0
104	0x3f800000	1.0
105	0x3f800000	1.0
106	0x3f800000	1.0
107	0x3f800000	1.0
108	0x3f800000	1.0
109	0x3f800000	1.0
110	0x3f800000	1.0
111	0x3f800000	1.0
112	0x3f800000	1.0
113	0x3f800000	1.0
114	0x3f800000	1.0
115	0x3f800000	1.0
116	0x3f800000	1.0
117	0x3f800000	1.0
118	0x3f800000	1.0
119	0x3f800000	1.0
120	0x3f800000	1.0
121	0x3f800000	1.0
122	0x3f800000	1.0
123	0x3f800000	1.0
124	0x3f800000	1.0
125	0x3f800000	1.0
126	0x3f800000	1.0
127	0x3f800000	1.0

fc2.weight f4 [128, 2]
0	0x3e8150fc	0.252571
1	0x3ef4fd2a	0.478494
2	0xbf225ea7	-0.6342568
3	0x3c0f3b65	0.008742188
4	0xbf34b966	-0.70595396
5	0x3e42d8bc	0.1902799
6	0x3d5caf4f	0.053878125
7	0xbef09de5	-0.46995464
8	0x3ec0f46b	0.37686476
9	0x3da2f9c9	0.07957799
10	0x3f030b3d	0.51189023
11	0x3f172719	0.59044033
12	0xbf0f0c93	-0.5587856
13	0x3f22366e	0.63364303
14	0x3f05675c	0.5211084
15	0x3e9bf201	0.30458072
16	0x3eb8e315	0.3611075
17	0xbe26d33b	-0.16291516
18	0xbf1168fb	-0.5680081
19	0xbf167b08	-0.5878148
20	0xbe48ab1a	-0.1959652
21	0x3ec01331	0.37514642
22	0xbeef049e	-0.4668321
23	0xbcb2bb31	-0.021817775
24	0x3ee1efa1	0.44128135
25	0x3e4b210c	0.19836825
26	0x3e09fa74	0.13474447
27	0xbd522e11	-0.051313464
28	0xbea2b8fd	-0.3178176
29	0x3e1fb647	0.15596877
30	0x3e9a845a	0.301791
31	0x3d8fbd72	0.07018556
32	0x3edf5e13	0.4362646
33	0x3ec4b546	0.3841955
34	0x3f1d7743	0.61510104
35	0xbdf5b7a9	-0.11997921
36	0xbf216ffe	-0.6306151
37	0xbecb5e6e	-0.39720482
38	0x3f2929e7	0.6607956
39	0x3e7bc2ce	0.24586031
40	0xbe80f409	-0.25186184
41	0x3ed0f354	0.40810645
42	0x3ea1d7af	0.31609866
43	0x3f0a5840	0.5404091
44	0xbefc1b8b	-0.49239764
45	0x3dcd5fa1	0.100280054
46	0x3e5285ad	0.20558806
47	0x3ee5a234	0.44850314
48	0xbdf7c4a0	-0.1209805
49	0xbe49ee42	-0.19719794
50	0x3ec49b93	0.38399944
51	0xbe0fcb96	-0.14042506
52	0x3ec1b533	0.37833557
53	0xbdf00946	-0.11720519
54	0xbf2ed0f9	-0.68287617
55	0x3bb668cb	0.0055666915
56	0xbe8fdb5b	-0.28097042
57	0xbeeb9d54	-0.4601847
58	0xbec521e7	-0.38502428
59	0x3ee911ac	0.45521295
60	0x3e72e4e8	0.23720133
61	0xbe1ec157	-0.15503441
62	0x3d705af5	0.058680493
63	0x3dba5fa3	0.091002725
64	0xbe6699f0	-0.2251966
65	0x3c6259ed	0.013815385
66	0x3d0ff976	0.035150014
67	0xbd565872	-0.05233044
68	0xbee95e7a	-0.45579892
69	0x3f1d4e2c	0.61447406
70	0xbe3611c0	-0.17780209
71	0xbde7bc54	-0.113152176
72	0x3f174671	0.5909186
73	0xbe9e595f	-0.3092756
74	0xbf207b80	-0.62688446
75	0x3f34ad46	0.70576894
76	0xbf0b4bfd	-0.54412824
77	0x3f211515	0.62922794
78	0xbf154fad	-0.583247
79	0x3eac1a19	0.3361366
80	0x3f0fdb9d	0.5619448
81	0xbe06ae7a	-0.13152495
82	0x3ed6d4b2	0.4195915
83	0x3d0b5922	0.03402055
84	0xbc7f1215	-0.015568276
85	0xbdda8b0f	-0.106710546
86	0x3f040a67	0.5157837
87	0x3e5f3ecf	0.21801303
88	0x3e8ef53f	0.27921483
89	0xbd02fdc5	-0.031980295
90	0x3dc89226	0.097935006
91	0xbea5a17f	-0.32349774
92	0xbf2a7cdc	-0.6659677
93	0xbeae9a2f	-0.34102008
94	0x3e5dc882	0.21658519
95	0xbe51c75c	-0.20486206
96	0xbda94a84	-0.08266166
97	0x3da99777	0.08280843
98	0xbf0ee347	-0.5581555
99	0xbe1e1687	-0.15438281
100	0x3e3393ce	0.17536852
101	0xbdda8b28	-0.10671073
102	0xbef7ff28	-0.48436856
103	0xbe956bf0	-0.29183912
104	0xbe124b44	-0.14286524
105	0x3f23c0a0	0.639658
106	0xbee7570b	-0.45183596
107	0xbe695c71	-0.2278917
108	0xbe9f0fd3	-0.3106676
109	0xbe63e2b3	-0.22254448
110	0x3d4afe70	0.049559057
111	0x3f0bb77a	0.5457684
112	0x3f225080	0.63404083
113	0x3d0c770c	0.03429322
114	0x3e9aaba8	0.30209088
115	0x3ecabe76	0.39598435
116	0xbe9378f7	-0.28803226
117	0xbd85a9ab	-0.06526502
118	0xbee7f2b6	-0.4530236
119	0x3e068392	0.13136128
120	0x3e1ba3b0	0.1519916
121	0xbe9131de	-0.28358358
122	0x3f1fe129	0.6245294
123	0xbb91efb0	-0.004453622
124	0xbf020707	-0.5079197
125	0x3eb7da8c	0.35908926
126	0x3e630672	0.22170427
127	0x3efae268	0.4900086
128	0xbe9ad79a	-0.30242616
129	0x3e713a8f	0.23557495
130	0xbd810caf	-0.06301247
131	0xbdf681e6	-0.12036495
132	0xbe0239e0	-0.1271739
133	0x3f1ad760	0.60484886
134	0xbed63ec5	-0.41844764
135	0xbe9ad1cc	-0.30238187
136	0x3ea7fca1	0.32809928
137	0x3f2965c9	0.66170937
138	0x3eb36375	0.35036817
139	0x3f079bd3	0.52972144
140	0xbeba0ccb	-0.36337885
141	0xbeada4d6	-0.33914822
142	0x3f232628	0.63730097
143	0x3e228c13	0.15873747
144	0x3ea8e40a	0.3298648
145	0xbe251183	-0.16119961
146	0xbe37abc8	-0.17936623
147	0x3f0bb9db	0.5458047
148	0x3ea737f9	0.3265989
149	0xbdfe0f1f	-0.12405228
150	0x3e69b92f	0.22824548
151	0xbf00a12b	-0.5024592
152	0x3f1c5299	0.61063534
153	0x3f029518	0.5100875
154	0xba99283e	-0.0011684967
155	0xbf06a408	-0.5259404
156	0xbeb3405f	-0.3501005
157	0x3d138757	0.036017742
158	0x3f17d415	0.59307986
159	0xbefd7ac7	-0.49507734
160	0x3eb7d51f	0.35904786
161	0xbee50cb3	-0.4473625
162	0x3df84e59	0.12124319
163	0xbf241d1b	-0.6410691
164	0xbf118837	-0.5684847
165	0x3ea9c58b	0.33158526
166	0xbe9e00c3	-0.30859956
167	0xbe4a6546	-0.19765195
168	0xbee4e278	-0.44704032
169	0xbda38ca6	-0.07985811
170	0xbf33f74a	-0.7029921
171	0xbdaf34b3	-0.085549735
172	0xbf166eb3	-0.58762664
173	0xbe571ede	-0.21007869
174	0xbad9d414	-0.001661899
175	0x3ed08c41	0.40732005
176	0x3e98172b	0.29705176
177	0xbd89878b	-0.06715306
178	0x3eb0d92d	0.34540692
179	0x3dec97ee	0.11552416
180	0x3de77dd0	0.11303294
181	0x3e491c5c	0.19639724
182	0x3f328248	0.69730043
183	0x3e7bb4f7	0.24580751
184	0xbf00d67d	-0.50327283
185	0x3ebc9aa8	0.36836743
186	0xbf2d13e2	-0.67608464
187	0xbecdb833	-0.40179595
188	0xbf1d3d29	-0.6142145
189	0x3effb92b	0.4994596
190	0x3eaa6665	0.33281246
191	0xbf269bcd	-0.65081483
192	0xbe253175	-0.16132148
193	0x3f1ff2dd	0.62479955
194	0x3efbd545	0.4918615
195	0xbf1a572f	-0.6028928
196	0xbed8f813	-0.42376766
197	0xbef79bd8	-0.48361087
198	0xbef32747	-0.47490904
199	0xbe828448	-0.25491548
200	0x3efc27a3	0.4924899
201	0x3e53865e	0.20656726
202	0x3f072289	0.5278707
203	0x3eac844b	0.33694682
204	0x3e1e492c	0.154576
205	0x3efca728	0.4934628
206	0x3e829c91	0.25510076
207	0xbee33f1c	-0.44384086
208	0x3ec9073d	0.39263335
209	0x3e4a2189	0.19739355
210	0xbe90d52a	-0.2828763
211	0x3eb452fe	0.35219568
212	0xbecb6ab3	-0.39729843
213	0x3f163937	0.5868105
214	0xbf145c7f	-0.5795364
215	0x3f2e5741	0.6810189
216	0x3dd1c176	0.10241978
217	0x3f18e146	0.5971874
218	0x3e9bbe90	0.30418825
219	0x3bb2be47	0.0054548117
220	0x3f278d41	0.6544991
221	0x3f155c1c	0.5834367
222	0x3e5a9329	0.213452
223	0x3f2d29cd	0.6764191
224	0xbf0181d9	-0.50588757
225	0xbea5b40d	-0.3236393
226	0xbedb4a4b	-0.4283012
227	0x3e7e8af8	0.248577
228	0x3b3221e0	0.0027180836
229	0xbebfa27a	-0.37428647
230	0x3f2a4df7	0.66525215
231	0x3eb85527	0.36002466
232	0x3ce74aa4	0.028233834
233	0x3ddc522a	0.10757859
234	0x3ec2faaa	0.38081867
235	0xbdc4483c	-0.0958409
236	0xbd02b113	-0.031907152
237	0x3e19d936	0.15024266
238	0x3d8a5909	0.06755263
239	0x3f0410c9	0.5158811
240	0xbd8ea612	-0.06965269
241	0xbed6d552	-0.41959625
242	0x3f1133f1	0.5671988
243	0x3f00622f	0.50149816
244	0x3dd34603	0.10316088
245	0x3e7d20c0	0.24719524
246	0xbeca79e1	-0.3954611
247	0x3e575d4b	0.21031682
248	0xbf073c44	-0.52826333
249	0xbeee6685	-0.4656259
250	0x3f091ad8	0.53556585
251	0x3ee20793	0.44146404
252	0x3e65de8b	0.22448175
253	0xbe6ca865	-0.23111112
254	0xbeafdb81	-0.34347156
255	0xbd97ed3e	-0.07418297

actor.linears.0.weight f4 [128, 384]
0	0x3c131870	0.008977994
1	0x3cb3e1b7	0.021958215
2	0xbd3503df	-0.044193145
3	0x3cb58e02	0.022162441
4	0xbc5e2cad	-0.013560456
5	0x3d264eb8	0.040602416
6	0x3c87288e	0.01649883
7	0xbced0e77	-0.028937561
8	0xbb1c3bbc	-0.0023839315
9	0xbcc43e6a	-0.023955543
10	0xbd0b1cd2	-0.033963032
11	0xbd11c0e1	-0.035584334
12	0xbd4244fe	-0.047429077
13	0x3d378dce	0.04481297
14	0xbb881ea0	-0.0041540414
15	0xbd253950	-0.04033786
16	0x3c98b54d	0.018641138
17	0x3ce26fbb	0.027641168
18	0xbd050903	-0.032479297
19	0xbd1e586a	-0.038658537
20	0x3ccbbed0	0.02487126
21	0x3cbac556	0.022799175
22	0x3c7fd478	0.015614621
23	0x3d0b0bf2	0.03394694
24	0xbd2861ac	-0.041108772
25	0x3d4e30c8	0.05033949
26	0x3d3e3718	0.04643926
27	0x3ce4553d	0.027872676
28	0x3cc9fec9	0.024657624
29	0x3d4548cf	0.04816514
30	0x3bc2c2d2	0.0059436345
31	0xbbf4e5af	-0.0074736695
32	0x3b8624de	0.0040937504
33	0xbd0913b7	-0.033466067
34	0xbd2e6bf9	-0.04258344
35	0xbaf47071	-0.0018649233
36	0x3d42984b	0.04750852
37	0xbc9c65f5	-0.019091586
38	0x3d2acd5d	0.041699756
39	0x3d1ab825	0.03777327
40	0x3cd31c24	0.025770254
41	0xbbb48ca7	-0.005509931
42	0xbca677d0	-0.020320803
43	0xbb8c2551	-0.0042769094
44	0xbd4eb41d	-0.05046474
45	0xbceb304a	-0.02870955
46	0x3c4f5f85	0.012657051
47	0xbca57dce	-0.02020159
48	0x3d4d6495	0.05014475
49	0xbc7f9056	-0.015598377
50	0xbd3cb94c	-0.04607515
51	0xbca0440a	-0.019563694
52	0xbb5f1b1c	-0.0034043258
53	0x3c8fb42b	0.017541965
54	0xbd009743	-0.031394254
55	0xbbc141bc	-0.0058977287
56	0xbd4142f4	-0.047182992
57	0x3c9c52cd	0.019082451
58	0x3cbb0609	0.022830026
59	0x3cd17c85	0.02557207
60	0xbc962e1b	-0.018332532
61	0x3cd59cca	0.02607574
62	0x3d5258f1	0.051354352
63	0xbacc362b	-0.0015580108
64	0xbd008edc	-0.03138624
65	0x3ae8060a	0.0017701995
66	0x3c7f2fd6	0.01557537
67	0x3bb379c8	0.005477164
68	0xbcda2682	-0.02662969
69	0xbd222f47	-0.03959587
70	0x3c957a1d	0.018246705
71	0x3c9ff0d7	0.019524021
72	0xbd3572ca	-0.044298925
73	0x3cffdcc2	0.031233195
74	0x3d464f88	0.04841569
75	0xbcd2c7b7	-0.025729997
76	0xbcf94296	-0.030427258
77	0xbd4f6e45	-0.05064227
78	0xbbca7ed1	-0.0061796685
79	0xb97ceb9b	-0.00024120363
80	0x3c3eca53	0.011644918
81	0x386423ec	5.439289e-05
82	0x3c8120f2	0.01576278
83	0xbd1ea181	-0.03872824
84	0xbc476bac	-0.012171667
85	0xbd309a25	-0.043115754
86	0x3d16b243	0.036791097
87	0x3d31f6ab	0.04344813
88	0xbc8686e6	-0.016421746
89	0xbbb9e6ea	-0.005673279
90	0xb9d7a33a	-0.0004112961
91	0x3d3e4c24	0.046459332
92	0xbcac6f81	-0.021049263
93	0xbd40040d	-0.046878863
94	0x3c01cec7	0.007922835
95	0xbd219fde	-0.0394591
96	0xbd186033	-0.037201118
97	0x3c73e09e	0.014885096
98	0x35d262d4	1.5674982e-06
99	0xbcfc45a1	-0.03079492
100	0xbc9d95f7	-0.019236548
101	0xbd508fcf	-0.050918397
102	0x3c35b0f5	0.011089553
103	0xbd45cc85	-0.04829075
104	0x3d36da3f	0.04464173
105	0x3d13c851	0.03607971
106	0x3cabcb4c	0.020970963
107	0xbc8dc5ce	-0.017306235
108	0xbb83011c	-0.003997935
109	0x3bcc2309	0.0062297625
110	0xbbbea6ee	-0.0058182394
111	0xbd44d577	-0.04805514
112	0xbd025343	-0.031817686
113	0x3c8024ec	0.015642606
114	0xbcb060c7	-0.021530522
115	0xbb91f19e	-0.004453852
116	0x3cfd244e	0.0309011
117	0x3cdd3076	0.027000647
118	0xbaa03031	-0.0012221393
119	0x3d360758	0.044440597
120	0xbd15ba3b	-0.036554556
121	0xbd457052	-0.04820282
122	0xbd1e6c4e	-0.038677506
123	0x3c068de8	0.008212544
124	0xbc31715b	-0.010830249
125	0xbd1403cc	-0.036136433
126	0xbd035588	-0.03206399
127	0x3cc0c486	0.02353121
128	0x3c197a70	0.00936757
129	0xbc1cbed5	-0.009566982
130	0x3c2fbf6d	0.010726792
131	0xbd18f740	-0.03734517
132	0xbd58255d	-0.052770007
133	0xbca76be4	-0.020437188
134	0xbc9155ff	-0.017741201
135	0x3d15fd75	0.03661867
136	0x3d1abd71	0.03777832
137	0x3ce64bfc	0.028112404
138	0xbd1f5032	-0.03889484
139	0x3d52edf3	0.051496457
140	0x3d166824	0.03672041
141	0x3ccb3c80	0.024809122
142	0x3cee9554	0.02912394
143	0xbc4d49b1	-0.012529776
144	0x3cfc885f	0.030826746
145	0x3d26e0af	0.04074162
146	0x399b50a1	0.00029623977
147	0xbc8584ba	-0.01629864
148	0x3c769ed3	0.015052515
149	0xbcc41392	-0.023935113
150	0x3d371e0a	0.04470638
151	0x3d19a646	0.037512086
152	0x3cb5929e	0.02216464
153	0x3d05aa76	0.032633267
154	0xbb85e035	-0.0040855655
155	0xbd09a205	-0.03360178
156	0x3ac51ca0	0.0015038438
157	0xbd035ed8	-0.032072872
158	0x3d2b6f18	0.041853994
159	0xbc0bc59f	-0.008531003
160	0xbce3d89f	-0.027813254
161	0xbcc92337	-0.024552925
162	0x3b98b1ee	0.0046598827
163	0xbae04b58	-0.0017112298
164	0xbcd49b63	-0.025953
165	0x3ce9b3c3	0.0285281
166	0xbaba8593	-0.0014230482
167	0xbc29411e	-0.010330467
168	0xbcfd883a	-0.030948747
169	0x3c8e3b25	0.017362187
170	0xbd04d994	-0.03243406
171	0xbd37009c	-0.044678316
172	0xbd30995c	-0.043115005
173	0x3c631556	0.013860067
174	0xbc68b9dd	-0.0142044695
175	0xbd528f7b	-0.051406365
176	0x3b7d4f6a	0.003865207
177	0x3c0b4674	0.008500684
178	0x3d1dbc97	0.03850993
179	0x3d0a45b8	0.033757895
180	0x3d5a4bd1	0.05329496
181	0xbcd19422	-0.02558333
182	0x3b8dd08b	0.004327839
183	0x3b60e96a	0.0034318813
184	0xbd5f90d0	-0.054581463
185	0xbc04083c	-0.008058604
186	0xbcc241d7	-0.023713036
187	0xbc8975e4	-0.016779847
188	0xbd56f32a	-0.052477993
189	0xbc96fd10	-0.018431216
190	0xbc59daf4	-0.013296831
191	0xbb561367	-0.0032665373
192	0xbc222dcb	-0.009898613
193	0x3d1b858c	0.037969157
194	0x3d342535	0.043980796
195	0x3d17368e	0.03691726
196	0xbc0201c2	-0.007934989
197	0x3d01ef64	0.03172244
198	0x3cf5ada9	0.029990034
199	0xbcbaf7d2	-0.022823248
200	0x3d1749ec	0.03693573
201	0x3cb24998	0.021763608
202	0xbc10d127	-0.008838928
203	0xbd2bb002	-0.0419159
204	0x3d1b216a	0.037873663
205	0xbc1be000	-0.009513855
206	0x3d0a6c74	0.033794835
207	0x3d2d60a9	0.04232851
208	0xbb8fd684	-0.004389586
209	0xbbca547e	-0.006174623
210	0x3b85830f	0.0040744613
211	0xbc43e257	-0.011955819
212	0x3d48e684	0.04904796
213	0xbc2af2e2	-0.010433884
214	0x3cb4cf98	0.022071645
215	0x3c3cb44a	0.011517594
216	0x3d2d8121	0.042359475
217	0xbd2640b5	-0.040589053
218	0xbc03c2e5	-0.008042072
219	0xbd039c3b	-0.032131415
220	0xbc2a4ae1	-0.010393829
221	0xbd3d6b60	-0.04624498
222	0x3cf33880	0.029690027
223	0x3b3264bc	0.0027220687
224	0x3d0b5218	0.034013838
225	0xbcc6879a	-0.024234582
226	0x3d146228	0.03622642
227	0xbcc8932d	-0.024484241
228	0x3d31354f	0.04326373
229	0xbcaca13a	-0.021072973
230	0xbc48a72a	-0.012246886
231	0x3c2e91d1	0.0106548825
232	0xbd4b4504	-0.049626365
233	0xbcc593a6	-0.024118256
234	0xbc65eed0	-0.014033988
235	0xbc8f1591	-0.017466338
236	0x3c45de8e	0.012076987
237	0xbd0d89fe	-0.034555428
238	0x3b38b0ec	0.0028181626
239	0x3c1780f3	0.0092470525
240	0xbae56418	-0.0017501144
241	0x3c6c49c5	0.014421885
242	0x3cd6b640	0.02620995
243	0xbc83dd51	-0.016096743
244	0x3cbebe56	0.023284119
245	0xbd3f2500	-0.046666145
246	0x3d442c9d	0.04789411
247	0xbd259df3	-0.040433835
248	0x3d340350	0.04394847
249	0xbd4035ba	-0.046926238
250	0x3d4c7893	0.049919676
251	0x3d0af838	0.033928126
252	0x3cbb0e28	0.022833899
253	0x3c6f48e8	0.014604785
254	0xbc6a2031	-0.014289902
255	0x3ceb1c9d	0.028700167

actor.linears.0.bias f4 [128]
0	0x3cbcdedc	0.023055486
1	0xbca7f2a8	-0.02050145
2	0x3c9fa88f	0.019489555
3	0xbc9bb0ca	-0.019005198
4	0x3d07e7e6	0.03318014
5	0x3c22f7f3	0.009946811
6	0x3cd25367	0.025674535
7	0x3c731949	0.014837571
8	0xbd04d236	-0.032427035
9	0x3ca44319	0.020051526
10	0xbc998243	-0.018738871
11	0x3cf3ade1	0.029745998
12	0x3c2889ed	0.01028679
13	0x3c83264e	0.016009476
14	0xbc31590a	-0.010824451
15	0xbc868e13	-0.016425168
16	0x3cedbc60	0.029020488
17	0xbcf97362	-0.030450527
18	0x3d41e988	0.047341853
19	0x3d4dc94b	0.050240796
20	0x3d4444c6	0.04791715
21	0xbd5f7c90	-0.05456215
22	0x3cc9391c	0.024563365
23	0xbb83922e	-0.0040152287
24	0x3ba5730b	0.0050491146
25	0xbc4b5512	-0.012410419
26	0xb9ae1a96	-0.00033207674
27	0xbcdea25d	-0.02717703
28	0x3d0de162	0.03463877
29	0x3c3dc645	0.011582916
30	0xbcf3a069	-0.029739575
31	0x3c2ed67a	0.010671252
32	0xbd040001	-0.032226566
33	0xbd2dd27b	-0.042437058
34	0x3d0d001f	0.034423944
35	0xba12b804	-0.00055968785
36	0xbd460b52	-0.04835064
37	0xbd1f255b	-0.038853984
38	0xbd298d3e	-0.041394465
39	0x3cb92bd8	0.022603914
40	0xbcc58ef1	-0.024116011
41	0x3b07b4b7	0.002070708
42	0xbcc2e70a	-0.023791809
43	0x3d2b87f9	0.04187772
44	0x3c2b1ab3	0.010443377
45	0x3cd36808	0.025806442
46	0x3cc7c372	0.024385188
47	0x3d081124	0.03321947
48	0xbd03567e	-0.032064907
49	0xbcdf1416	-0.027231257
50	0x3d21248c	0.039341494
51	0xbc05b8bc	-0.00816172
52	0xbc9f6eb6	-0.01946197
53	0x3d1d00cd	0.03833084
54	0x3aebefe0	0.0018000565
55	0xbc45b1d5	-0.012066324
56	0x3d55a372	0.052157827
57	0x3c9af262	0.018914405
58	0x3c35458b	0.011063944
59	0x3d2b9127	0.041886475
60	0x3cc5c04a	0.024139542
61	0xbcce272d	-0.025165165
62	0x3ce5dc36	0.028059106
63	0x3d29c0b0	0.041443527
64	0x3b8a3a9e	0.0042184135
65	0xbcfca306	-0.030839454
66	0xbd39e6fa	-0.045386292
67	0x3d209c5c	0.039211616
68	0xbcb3fb15	-0.021970311
69	0xbc45f8a2	-0.012083204
70	0xbc832661	-0.016009511
71	0xbd663162	-0.05619944
72	0x3d241769	0.04006139
73	0x3d360c1d	0.044445146
74	0x3d31f21d	0.043443788
75	0xbd420166	-0.047364615
76	0x3c6e7ddf	0.014556377
77	0x3cb8ce39	0.022559272
78	0x3cd9636f	0.026536671
79	0x3d1044c3	0.035221826
80	0x3be32350	0.0069317
81	0xbd100c9b	-0.03516827
82	0xbc786ff0	-0.015163407
83	0x3c86a9a9	0.016438322
84	0x3d092aa5	0.033487935
85	0x3d3a04a1	0.04541457
86	0xbcd6364a	-0.026148934
87	0xbd45e0ff	-0.048310276
88	0x3c11d1ee	0.008900149
89	0x3c0cbd97	0.008590124
90	0xbccf37c7	-0.025295151
91	0xba1af88b	-0.00059116696
92	0x3d333609	0.043752704
93	0x3d01166a	0.031515516
94	0xbc0d7428	-0.008633651
95	0x3c82fa18	0.015988395
96	0xbcb4e4a7	-0.022081686
97	0x3d530f45	0.051528234
98	0x3bff9c1e	0.007800593
99	0xbd27db3c	-0.040980563
100	0x3c9d40fb	0.019196024
101	0xbae65908	-0.0017574141
102	0x3d2cea10	0.042215407
103	0xbd116fd6	-0.035507046
104	0xbc932e25	-0.01796634
105	0x3c5c91a5	0.013462459
106	0x3be05515	0.00684608
107	0xbcecdb44	-0.028913148
108	0xbb92898e	-0.004471964
109	0x3ca864b9	0.02055584
110	0x3cd0c471	0.025484296
111	0x3d39d9d6	0.04537376
112	0x3997a14f	0.0002892115
113	0xba8ca189	-0.0010729294
114	0x3c86039b	0.016359141
115	0xbd0f0bc0	-0.034923315
116	0x3c0ed4b1	0.008717702
117	0x3d267b5e	0.040644996
118	0x3d4713c9	0.048602853
119	0xbd1a7196	-0.03770598
120	0xbb17f315	-0.002318566
121	0xbc8abd4f	-0.016935972
122	0xbd26c186	-0.040711902
123	0xbc1354e0	-0.008992404
124	0xbc5e8d62	-0.013583513
125	0xbc73c329	-0.014878073
126	0xbb8a1d32	-0.004214906
127	0x3d22dc5e	0.03976094

actor.linears.1.weight f4 [128, 128]
0	0xbc9e214e	-0.01930299
1	0xbce40fb6	-0.027839523
2	0x3d091bb4	0.033473685
3	0xbd33a014	-0.043853834
4	0xbcfdcc05	-0.030981073
5	0x3cc1624e	0.023606446
6	0x3ccc48d3	0.024937069
7	0xbda80dbd	-0.08205745
8	0xbc38d0ac	-0.01128022
9	0xbd7329b9	-0.05936596
10	0xbd9a11eb	-0.07522949
11	0x3d9d5176	0.07681553
12	0xbce7d2de	-0.028298791
13	0x3d9476b7	0.072492056
14	0x3d0d024a	0.03442601
15	0x3d9ecb28	0.07753593
16	0xbac86ed1	-0.0015291815
17	0xbc9173fc	-0.017755501
18	0xbc8fa3c3	-0.017534142
19	0x3d6bf620	0.05760777
20	0xbd8dba1e	-0.06920265
21	0xbd99b298	-0.07504767
22	0x3d89e75b	0.06733581
23	0x3d420b65	0.047374148
24	0xbd7c2d6f	-0.061566766
25	0x3ced2df3	0.028952574
26	0x3c917e3a	0.017760385
27	0xbd9b99a8	-0.07597667
28	0xbccdee8a	-0.025138158
29	0x3cf4ce7f	0.029883621
30	0x3da06c23	0.078331254
31	0x3c5678c7	0.013090319
32	0xbc141638	-0.0090385005
33	0xbd9ffd9f	-0.07812046
34	0xbc219b37	-0.009863666
35	0xbd91993f	-0.071093075
36	0x3d59c0b8	0.053162307
37	0xbdb882f1	-0.0900935
38	0x3ce5fb9f	0.028074084
39	0xbc17b48d	-0.009259355
40	0xbd16a65e	-0.036779754
41	0x3d00fbea	0.031490244
42	0xbbf38465	-0.007431554
43	0xbcde39bd	-0.027127141
44	0xbd610703	-0.054938328
45	0x3cfdbac0	0.030972838
46	0x3d3298ad	0.043602634
47	0x3d54cfeb	0.0519561
48	0xbd808d77	-0.06276982
49	0xbd3ced7c	-0.04612492
50	0xbda77464	-0.081764966
51	0xbd4d3923	-0.050103318
52	0x3cbca48c	0.02302768
53	0x3b0761fc	0.0020657768
54	0x3d8919d9	0.06694383
55	0x3cad81ef	0.021180121
56	0x3d9842af	0.07434594
57	0xbda9fee3	-0.08300569
58	0xbd03437e	-0.032046787
59	0xbd336076	-0.043793164
60	0xbd70de80	-0.058805943
61	0xbb5225d1	-0.0032065997
62	0xbd445f86	-0.04794266
63	0xbc0901be	-0.008362232
64	0x3bcdad8a	0.006276791
65	0xbd9a586a	-0.07536395
66	0xbd5093d3	-0.050922226
67	0xbd1398d2	-0.036034413
68	0xbd6c4d29	-0.057690773
69	0x3d19c301	0.037539486
70	0xbd65f902	-0.056145675
71	0x3d56f63a	0.052480914
72	0x3d5a753e	0.053334467
73	0xbc96b864	-0.018398471
74	0xbd21d76e	-0.03951209
75	0x3b1feca1	0.0024402516
76	0x3ce16310	0.027513057
77	0x3a2714a6	0.0006373621
78	0xbd05a732	-0.032630153
79	0xbd9cf81f	-0.07664513
80	0x3cf1421e	0.029450472
81	0x3b8aa017	0.00423051
82	0x3d63b2f7	0.055590596
83	0x3d9918ff	0.07475471
84	0x3c4c133b	0.012455757
85	0x3b960e5d	0.004579349
86	0x3d909e24	0.07061413
87	0x3c29af9b	0.010356809
88	0x3ce5b937	0.028042419
89	0x3cb7509f	0.02237731
90	0xbcbbac5d	-0.022909338
91	0xbd9887ce	-0.07447778
92	0xbca1abd9	-0.019735264
93	0x3b3fa296	0.0029241196
94	0x3ce9d850	0.028545529
95	0x3d3a5a4e	0.045496278
96	0xbd8eb3ce	-0.06967889
97	0xbb583332	-0.00329895
98	0xbb6127ae	-0.0034355926
99	0x3da1b959	0.078966804
100	0xbd224350	-0.039614975
101	0xbce6fb2c	-0.02819594
102	0x3cf6a201	0.030106546
103	0xbd7117cc	-0.058860585
104	0xbd567e4c	-0.05236654
105	0x3d9b4dc0	0.07583189
106	0xbd9615b8	-0.07328361
107	0x3ccd2cff	0.02504587
108	0x3c48cc0f	0.012255683
109	0xbcbcdb01	-0.023053648
110	0xbccf8315	-0.02533106
111	0x3d431430	0.047626674
112	0x3b443717	0.0029940063
113	0x3cd63299	0.026147174
114	0x3ccc0782	0.024905924
115	0x3d202512	0.039097853
116	0xbc2ff63a	-0.010739857
117	0x3d2c2596	0.042028032
118	0x3d962afd	0.07332418
119	0xbcfd1052	-0.030891571
120	0x3b936880	0.0044985414
121	0xbd4189a3	-0.0472504
122	0x3d373447	0.04472759
123	0xbcb45676	-0.022013884
124	0x3d792c6b	0.060833376
125	0x3ca5b3ea	0.020227391
126	0xbc7ac450	-0.015305594
127	0xbd60028f	-0.05468994
128	0xbcb47a2b	-0.02203091
129	0xbdad1b60	-0.08452487
130	0xbd63c803	-0.055610668
131	0xbc811fb4	-0.015762188
132	0xbbedb975	-0.007254774
133	0xbc66dc15	-0.014090558
134	0xba8db9f6	-0.0010812867
135	0x3daa85c2	0.083262935
136	0xbcb11698	-0.021617219
137	0x3d7b11b8	0.061296195
138	0x3b767357	0.003760537
139	0xbd4bcd27	-0.049756195
140	0xbd1ac1b1	-0.037782375
141	0x3cf511aa	0.02991565
142	0x3b12c35b	0.0022394273
143	0xbd8da825	-0.06916837
144	0x3d0a598a	0.033776797
145	0xbd1ffe34	-0.039060786
146	0x3da14c63	0.07875898
147	0xbc67029c	-0.014099743
148	0xbd7faef4	-0.062422708
149	0x3a78df28	0.0009493702
150	0xbd8956a3	-0.06705978
151	0xbd0d82f4	-0.034548715
152	0x3c9cd8fe	0.019146439
153	0x3d76986a	0.060203947
154	0xbc52d55f	-0.012868254
155	0xbcd3380c	-0.025783561
156	0x3cf3f967	0.02978201
157	0x3d8dc1e8	0.0692175
158	0xbd5515dc	-0.0520228
159	0x3bc9590f	0.00614465
160	0x3d1fab10	0.038981497
161	0xbd781a8a	-0.060572185
162	0x3c9679cc	0.018368624
163	0xbd371419	-0.0446969
164	0x3d70a032	0.058746524
165	0x3ce79c8e	0.028272893
166	0xbd0c9173	-0.0343184
167	0x3ca29ef1	0.01985118
168	0x3d81c0b2	0.06335582
169	0xbd8eca23	-0.06972148
170	0xbd14914e	-0.036271386
171	0x3d923d28	0.07140571
172	0xbd6d5870	-0.05794567
173	0xbd9a2283	-0.07526114
174	0xbd8d86b6	-0.0691046
175	0xbd301ae2	-0.042994387
176	0xbd507238	-0.050890177
177	0xbdb1a55a	-0.086741164
178	0x3d945f74	0.07244769
179	0xbd95fc40	-0.073235035
180	0x3dae30a7	0.085053734
181	0xbc08b2dc	-0.008343425
182	0x3aa4fd74	0.0012587742
183	0xbd9444c5	-0.07239679
184	0xbdade6d2	-0.08491291
185	0xbc84be19	-0.016203927
186	0x3d2107f8	0.03931424
187	0x3b49d972	0.0030799774
188	0x3d171eb2	0.036894508
189	0x3af24884	0.0018484746
190	0xbd004cf6	-0.031323396
191	0x3d3d9fc9	0.04629496
192	0x3d8a4d07	0.06752973
193	0xbd470cfd	-0.04859637
194	0x3d804bc1	0.06264449
195	0xbc3f12f4	-0.011662234
196	0xbd5fb791	-0.054618422
197	0x3d378a22	0.044809468
198	0xbd625e96	-0.055265985
199	0xbd938500	-0.07203102
200	0x3da930a7	0.08261233
201	0xbc012cc9	-0.007884213
202	0xbd3dcd84	-0.046338573
203	0xbcb696d6	-0.022288721
204	0xbd92e585	-0.071726836
205	0xbd0192e1	-0.031634215
206	0xbcc33ffd	-0.023834223
207	0xbd78a6f3	-0.06070609
208	0x3d893990	0.06700432
209	0x3d4e5892	0.050377436
210	0xbdc053b6	-0.093909666
211	0xbd5cd8f6	-0.053917848
212	0xbdbc89cd	-0.09205971
213	0xbd9f7b71	-0.077872165
214	0x3d831a91	0.064015515
215	0x3d4a51ba	0.049394347
216	0x3d940905	0.07228283
217	0x3cef5189	0.029213684
218	0xbc353853	-0.011060792
219	0xbceb1ba6	-0.028699707
220	0x3cff4154	0.03115908
221	0x3d228f30	0.039687335
222	0xbd116444	-0.03549601
223	0x3dac3f7d	0.08410547
224	0x3d700606	0.058599494
225	0xbd96191a	-0.073290065
226	0xbc4eeeb1	-0.012630151
227	0x3b3d24d7	0.002886107
228	0x3d80a9be	0.06282376
229	0xbd147469	-0.03624383
230	0xbcc599f3	-0.02412126
231	0x3db363bb	0.087592565
232	0xbcd8179f	-0.02637845
233	0x3d315a5b	0.04329906
234	0xbba89831	-0.0051450958
235	0x3d08ec04	0.033428207
236	0x3c366d8e	0.011134518
237	0xbd612eb9	-0.0549762
238	0xbcd550bd	-0.026039476
239	0x3befb24b	0.0073149554
240	0x3d61d21b	0.055132013
241	0x3d811174	0.06302157
242	0x3c623a10	0.0138077885
243	0x3db13509	0.08652694
244	0xbd866571	-0.06562317
245	0x3d03ff0a	0.032225646
246	0xbd4bf5ab	-0.049794834
247	0x3d66064b	0.056158345
248	0x3daaf992	0.08348383
249	0xbd5a653a	-0.053319193
250	0x3cde3baf	0.027128069
251	0xbdb51705	-0.08842281
252	0x3d5ebfa5	0.054381985
253	0xbdbc6601	-0.09199143
254	0x3d7ae63e	0.061254732
255	0x3d73bda1	0.059507016

actor.linears.1.bias f4 [128]
0	0xbc6d5086	-0.01448453
1	0xbd5e0621	-0.054205064
2	0xbd9a0408	-0.075203
3	0xbc76ede3	-0.015071365
4	0x3c90ec26	0.01769073
5	0xbd6ddf35	-0.058074195
6	0x3d78dcbd	0.060757387
7	0x3d301f75	0.04299875
8	0xbc7a1b62	-0.015265318
9	0xbdb1bd2a	-0.08678658
10	0xbd24d5b4	-0.040242866
11	0xba36c7a9	-0.00069725007
12	0xbd3da5ec	-0.046300814
13	0x3db9408b	0.09045514
14	0x3d44b75f	0.04802644
15	0xbd5923c0	-0.05301261
16	0xbda39620	-0.079876184
17	0x3d7e6c43	0.062114965
18	0xbceffad5	-0.02929441
19	0x3d3e567f	0.046469208
20	0xbc6a2e7c	-0.014293309
21	0xbd74763c	-0.05968307
22	0x3b9469a0	0.004529193
23	0xbd5358ac	-0.051598236
24	0xbd721a35	-0.059107024
25	0xbd9f367b	-0.07774063
26	0x3d70f705	0.058829326
27	0x3d8e4e3c	0.06948516
28	0x3d6d2a22	0.05790151
29	0xbd0f6988	-0.03501275
30	0x3acef347	0.0015789055
31	0x3d5a7f11	0.053343836
32	0x3ca637e7	0.020290328
33	0xba8e034b	-0.0010834722
34	0x3cfa2d97	0.030539317
35	0xbcd982f1	-0.026551696
36	0x3d87dff0	0.066345096
37	0x3d0c32a4	0.034227982
38	0xbdb01b14	-0.08598915
39	0xbc21bcc2	-0.0098716635
40	0xbc415b50	-0.011801556
41	0xbc2797eb	-0.010229091
42	0xbc84c117	-0.016205354
43	0xbc8f3992	-0.017483506
44	0x3d3617f1	0.044456426
45	0x3d820e55	0.0635039
46	0xbd296d00	-0.041363716
47	0x399cd0ad	0.00029910114
48	0xbdb417e1	-0.08793617
49	0xbccf1818	-0.025280043
50	0x3c51ceaa	0.01280562
51	0xbd55add9	-0.052167747
52	0x3cf7ef36	0.030265432
53	0x3dbab4bf	0.09116506
54	0xbbeb6882	-0.007184089
55	0x3d383fc2	0.04498268
56	0xbd83c21e	-0.06433509
57	0xbd7ad13f	-0.06123471
58	0x3d076813	0.033058237
59	0xbd92d9c3	-0.07170441
60	0x3da6492f	0.081194274
61	0xbceb8fae	-0.028755035
62	0x3d36028c	0.044436023
63	0xbd4e8627	-0.050420906
64	0x3da5b604	0.08091357
65	0x3bf817cd	0.0075711966
66	0x3dc2e93c	0.09517142
67	0xbdb11586	-0.086466834
68	0xbd932338	-0.07184452
69	0x3b9da550	0.0048109666
70	0xbd546f5c	-0.051864013
71	0x3c433f30	0.011916921
72	0x3da1ce93	0.07900729
73	0xbd9dcdbb	-0.077052556
74	0x3db45362	0.088049665
75	0xbd5e5d25	-0.05428805
76	0xbc06cad1	-0.008227066
77	0x3d20e3ca	0.039279737
78	0x3d333ee7	0.04376116
79	0xbd826f5d	-0.06368897
80	0xbc9b8a21	-0.018986763
81	0x3c55afec	0.013042431
82	0x3dbee604	0.09321216
83	0x3b94730c	0.004530316
84	0xbdab3012	-0.08358778
85	0xbc2c2be2	-0.010508509
86	0xbd979a07	-0.07402425
87	0xbd5ed822	-0.05440534
88	0x3d6bd61c	0.057577237
89	0x3d0fde27	0.03512397
90	0x3d9a65ea	0.0753897
91	0x3d87a4b3	0.06623211
92	0xbc17e2b8	-0.009270363
93	0xbb4e1293	-0.0031444177
94	0x3d4986c1	0.049200777
95	0x3d1241c8	0.035707265
96	0xbcec2944	-0.02882827
97	0xbd43f0e0	-0.04783714
98	0xbb7409c4	-0.0037237266
99	0xbd73092c	-0.05933492
100	0x3d1023d8	0.035190433
101	0xbd84814e	-0.064699754
102	0xbcb6e8f3	-0.022327876
103	0xbd079680	-0.033102512
104	0x3cfeae6e	0.031089034
105	0x3d7bd6f1	0.06148428
106	0x3cbb36ae	0.022853222
107	0xbda3a10d	-0.079897024
108	0x3c9dd01e	0.019264277
109	0xbdb542f0	-0.08850658
110	0xbd8c23ba	-0.06842752
111	0xbcd2f30f	-0.025750665
112	0x3d9c2e2d	0.07625995
113	0x3d9d4875	0.07679836
114	0x3c5614a3	0.013066444
115	0xbd4d6752	-0.050147362
116	0xbb0aa0ca	-0.0021152967
117	0x3cab8992	0.020939622
118	0xbd9ef12d	-0.077608444
119	0x3d5b9b6a	0.05361501
120	0x3db246a8	0.08704883
121	0x3c166dd9	0.009181463
122	0x3cd1d9a5	0.025616476
123	0x3ca08d46	0.019598614
124	0x3daa3180	0.083102226
125	0x3d049fac	0.032378837
126	0x3c97fab3	0.01855216
127	0x3c6023b3	0.013680386
