FJSP_MultiPPO/saved_network/FJSP_J20M605/best_value10/policy_job.pth (torch_old, 637433 bytes, 53 tensors)

_input f4 [128]
-0.8044288 -0.543696 -0.98739356 -0.05179412 0.8291582 -0.24078737 -0.49157542 0.73264366
0.2406596 0.6196859 0.16864148 -0.074760534 0.37994725 0.8636374 0.8139467 -0.16628264
-0.07483403 0.70102644 0.9532317 0.30231613 0.59148115 0.5208533 -0.8737023 -0.63626295
-0.26589382 0.06325644 -0.24851115 0.908933 0.23105495 -0.6838545 0.3965832 -0.9503086
-0.87808585 0.014556771 0.6094371 0.057971235 0.9637514 0.392626 -0.31566232 -0.7636083
0.13957661 0.61887854 0.7396793 0.18297823 -0.13465148 -0.7203994 -0.13422912 -0.8465079
-0.11100618 0.14314722 0.008654384 -0.87084544 -0.6404416 -0.1567997 -0.27852988 -0.32705837
0.58040434 0.06920699 0.16727814 -0.35116875 -0.0749024 0.025350511 -0.38235977 -0.64395845
-0.6896141 -0.9000262 0.9700484 -0.3940796 -0.91281545 0.5270413 -0.66806996 -0.5365192
0.16831361 0.19966975 0.086865224 -0.096816726 0.75771797 0.9206645 0.14503147 -0.9501467
0.5413487 0.35311177 0.72225016 -0.6340594 0.959165 -0.5974467 -0.8164974 0.07193673
-0.019872572 0.088037655 -0.5120236 -0.883232 0.21282126 -0.35374948 0.9549897 -0.9202451
0.102587715 0.47469062 0.45585465 0.22649023 -0.72496146 -0.44126377 -0.8742861 -0.9688623
-0.22815028 0.29476336 0.6453145 -0.89201885 -0.85608655 0.51313764 0.97061145 -0.10460783
0.6438916 0.7574675 -0.082000464 0.24797155 0.71545315 -0.51883066 -0.5684921 0.60875416
-0.7024976 -0.7160697 -0.90439653 -0.3740977 -0.10216202 -0.1759534 0.57774055 -0.58163416
00000000: 0cef 4dbf a92f 0bbf d3c5 7cbf 1226 54bd
00000010: b643 543f f790 76be c6af fbbe 898e 3b3f
00000020: 786f 763e bca3 1e3f 5ab0 2c3e 0d1c 99bd
00000030: 7288 c23e 5717 5d3f d05e 503f ff45 2abe
00000040: 9542 99bd 7876 333f fe06 743f 2ec9 9a3e
00000050: 4f6b 173f a456 053f f4aa 5fbf 21e2 22bf
00000060: 3c23 88be 988c 813d b579 7ebe d5af 683f
00000070: ab99 6c3e 1711 2fbf f40c cb3e 6d47 73bf
00000080: 3cca 60bf 867f 6e3c 1204 1c3f 3f73 6d3d
00000090: 69b8 763f 4606 c93e 7e9e a1be d57b 43bf
000000a0: 2ced 0e3e d36e 1e3f 9f5b 3d3f a55e 3b3e
000000b0: 14e2 09be 186c 38bf 5c73 09be beb4 58bf
000000c0: 3557 e3bd 2f95 123e 1ecb 0d3c baef 5ebf
000000d0: fbf3 23bf 1a90 20be 789b 8ebe 3274 a7be
000000e0: 6195 143f 65bc 8d3d f64a 2b3e 64cc b3be
000000f0: 6e66 99bd e0ab cf3c a9c4 c3be 76da 24bf
00000100: 8d8a 30bf 1e68 66bf 1855 783f cdc4 c9be
00000110: 46ae 69bf 2eec 063f a206 2bbf 5359 09bf
00000120: 675a 2c3e 3a76 4c3e 65e6 b13d d947 c6bd
00000130: cef9 413f abb0 6b3f 2183 143e d03c 73bf
00000140: d495 0a3f 11cb b43e 63e5 383f b851 22bf
00000150: d68b 753f 44f2 18bf f905 51bf 9053 933d
00000160: cecb a2bc 164d b43d fb13 03bf 7e1b 62bf
00000170: d1ed 593e a71e b5be 347a 743f 2f95 6bbf
00000180: 8219 d23d a60a f33e c865 e93e 0eed 673e
00000190: 1397 39bf 53ed e1be 37d1 5fbf 5c07 78bf
000001a0: 3aa0 69be 39eb 963e 5533 253f 595b 64bf
000001b0: 7d28 5bbf fd5c 033f fe79 783f a13c d6bd
000001c0: 14d6 243f 64e9 413f dcef a7bd 41ec 7d3e
000001d0: f027 373f 16d2 04bf b388 11bf 50d7 1b3f
000001e0: e2d6 33bf 5850 37bf 8886 67bf bc89 bfbe
000001f0: 523a d1bd 212d 34be cee6 133f fae5 14bf

bn.weight f4 [2]
1.0 1.0
00000000: 0000 803f 0000 803f

bn.bias f4 [2]
0.0 0.0
00000000: 0000 0000 0000 0000

bn.running_mean f4 [2]
0.0 0.0
00000000: 0000 0000 0000 0000

bn.running_var f4 [2]
1.0 1.0
00000000: 0000 803f 0000 803f

encoder.feature_extract.mlps.0.linears.0.weight f4 [128, 2]
-0.60295177 0.12981561 -0.41756213 0.268755 0.21586211 0.21244971 -0.4877407 0.5432485
0.18676876 0.4513604 0.5616529 -0.19734924 -0.25017455 -0.16791797 0.70929646 -0.65794754
0.6990264 -0.6969698 0.4260008 -0.51975167 0.012821528 -0.57946783 -0.52688605 0.14626485
-0.65973395 -0.36374897 0.3234867 0.42559087 0.00014465454 0.42567074 0.1100631 0.24819282
-0.15265818 -0.62066996 0.3001348 -0.6248754 0.6975047 0.3555886 0.5896603 0.19766925
-0.3857198 -0.03752729 -0.68312466 0.5347037 0.66129756 -0.6972989 -0.7074655 -0.23489836
-0.26201117 0.51674664 0.40900922 0.085409865 -0.6055675 0.6243924 0.6469625 -0.13251545
0.6228096 0.291259 0.12928714 0.041603666 -0.6417513 0.3521414 0.46112618 0.011902307
-0.68026274 -0.30606434 -0.5844336 -0.66194034 -0.502148 0.4453515 -0.6555039 -0.014271636
-0.31521827 0.35657606 0.21900292 0.09979536 -0.52942914 0.46135333 -0.012499998 0.62559205
-0.4160008 -0.59157884 -0.2229115 0.026458563 -0.5295511 -0.07743585 0.5839538 0.57968974
-0.0052066743 0.53992563 -0.20442261 0.54371125 0.15190022 -0.36847508 0.6806992 0.34948382
0.39294255 0.4199915 -0.03911752 -0.5486829 0.24171397 0.08217702 -0.19782466 -0.5789947
-0.5062143 0.15249288 -0.26721013 -0.38516405 -0.23229247 0.5728755 -0.5498047 0.32618377
0.560194 -0.31824046 0.48668328 0.10649362 -0.015395122 0.24466851 0.06370386 -0.2477067
0.6220028 0.37655467 0.268087 -0.38198736 -0.22551216 0.54123074 0.042000595 -0.29904735
0.5271243 0.3084996 -0.083462045 0.40714976 0.6941167 0.2282123 -0.11632432 0.49900982
0.07661284 0.5811389 0.4988695 0.39720073 0.092747964 0.4696698 0.6774428 0.16306777
0.41662163 0.25659546 0.452952 -0.10139529 -0.53521025 0.16407563 0.3287129 0.65786207
0.32848352 0.4150699 -0.6737713 0.14164817 0.12514396 -0.06295341 0.28860417 0.52983516
0.24818121 0.22239518 -0.69831437 -0.4269753 0.64686376 -0.6993615 -0.3663876 -0.039514735
0.19822115 -0.14326243 0.10899976 -0.38370663 0.17853773 -0.5659089 -0.28352404 0.3953783
0.4048593 0.029836982 0.38564506 0.5793254 0.19883096 -0.67666966 -0.4018423 0.47011974
-0.3007628 -0.34521726 -0.04813094 -0.22801068 -0.58236086 0.6763022 -0.23579343 0.22203194
-0.5950106 -0.5905534 0.56199104 -0.56983334 0.21773875 -0.16731234 0.016219296 0.2738718
0.50694674 0.33257738 0.16075316 0.32566476 -0.55404377 -0.20570245 -0.18347102 0.0022023742
0.6432786 -0.16957693 0.4091952 -0.5455594 -0.1399844 0.41148034 0.58668894 -0.49879703
0.33007696 0.5907175 0.119433574 -0.17727908 0.20028253 0.3658112 -0.71035606 -0.47602126
0.25520784 0.4445454 -0.32773933 -0.6138466 0.23476887 -0.68848133 -0.5381252 -0.66199946
-0.11830692 0.074190125 -0.041488342 -0.13644761 -0.19598609 -0.6107747 0.037060685 0.044827197
-0.53919035 0.37747142 -0.4450553 -0.3970035 -0.5199541 -0.313035 0.62150955 -0.38951135
0.061481945 -0.35503381 -0.48838168 -0.703341 0.25075597 -0.096161105 0.30880362 0.24993815
00000000: 0c5b 1abf 62ee 043e b4ca d5be 419a 893e
00000010: f50a 5d3e 6b8c 593e 26b9 f9be 5512 0b3f
00000020: 4f40 3f3e b618 e73e 7cc8 0f3f eb15 4abe
00000030: e116 80be b0f2 2bbe 7494 353f 406f 28bf
00000040: 65f3 323f 9d6c 32bf c71c da3e 720e 05bf
00000050: 6311 523c 0158 14bf 01e2 06bf 74c6 153e
00000060: 53e4 28bf 4e3d babe 0ca0 a53e 0ce7 d93e
00000070: 68ae 1739 84f1 d93e c368 e13d 4226 7e3e
00000080: 6d52 1cbe 3ae4 1ebf 45ab 993e d6f7 1fbf
00000090: ab8f 323f b50f b63e faf3 163f cf69 4a3e
000000a0: 117d c5be 37b6 19bd 42e1 2ebf 57e2 083f
000000b0: cc4a 293f 2e82 32bf 761c 35bf 3289 70be
000000c0: 5426 86be 8249 043f a869 d13e 5eeb ae3d
000000d0: 7906 1bbf 2ed8 1f3f 569f 253f 21b2 07be
000000e0: 7370 1f3f e61f 953e d963 043e 9b68 2a3d
000000f0: d049 24bf e14b b43e bb18 ec3e e501 433c
00000100: b325 2ebf 77b4 9cbe 719d 15bf ec74 29bf
00000110: c58c 00bf 1d05 e43e 1bcf 27bf 94d3 69bc
00000120: 4a64 a1be 2391 b63e 4d42 603e 8261 cc3d
00000130: ab88 07bf 8136 ec3e cbcc 4cbc cd26 203f
00000140: 0ffe d4be b671 17bf ea42 64be a1bf d83c
00000150: a990 07bf b096 9ebd ff7d 153f 8c66 143f
00000160: c09c aabb 9138 0a3f 2954 51be a930 0b3f
00000170: bb8b 1b3e c4a8 bcbe 4e42 2e3f 8bef b23e
00000180: c42f c93e 2009 d73e b139 20bd 7c76 0cbf
00000190: de83 773e 6d4c a83d 8c92 4abe ff38 14bf
000001a0: 4397 01bf 1827 1c3e c4cf 88be 3934 c5be
000001b0: 14de 6dbe f8a7 123f 00c0 0cbf 8f01 a73e
000001c0: e068 0f3f 6af0 a2be 8d2e f93e 5419 da3d
000001d0: d23b 7cbc 628a 7a3e 2b77 823d d3a6 7dbe
000001e0: 933b 1f3f c6cb c03e b342 893e d993 c3be
000001f0: a9ec 66be 198e 0a3f d108 2c3d bc1c 99be
00000200: 9ef1 063f a9f3 9d3e 26ee aabd ef75 d03e
00000210: a2b1 313f 7cb0 693e 723b eebd 377e ff3e
00000220: 31e7 9c3d 85c5 143f d36b ff3e e55d cb3e
00000230: a5f2 bd3d 8f78 f03e e46c 2d3f 3dfb 263e
00000240: 6e4f d53e 7b60 833e 53e9 e73e 55a8 cfbd
00000250: 8a03 09bf 7103 283e 0f4d a83e a669 283f
00000260: fe2e a83e 0b84 d43e 477c 2cbf 380c 113e
00000270: bd25 003e b8ed 80bd edc3 933e 47a3 073f
00000280: 3723 7e3e 90bb 633e bbc4 32bf 829c dabe
00000290: dd98 253f 5b09 33bf 2897 bbbe 34da 21bd
000002a0: 7cfa 4a3e 63b3 12be 443b df3d 3275 c4be
000002b0: 98d2 363e 68df 10bf 102a 91be 066f ca3e
000002c0: b849 cf3e b06c f43c 4573 c53e ab4e 143f
000002d0: 589a 4b3e 393a 2dbf 46be cdbe 89b3 f03e
000002e0: 95fd 99be 51c0 b0be f324 45bd a27b 69be
000002f0: 9a15 15bf 2422 2d3f d573 71be 575c 633e
00000300: 9d52 18bf 822e 17bf a5de 0f3f 99e0 11bf
00000310: e8f6 5e3e ed53 2bbe 54de 843c ed38 8c3e
00000320: 43c7 013f 9547 aa3e 7a9c 243e 88bd a63e
00000330: d0d5 0dbf aaa3 52be d4df 3bbe b555 103b
00000340: e8ad 243f 93a5 2dbe 0982 d13e c8a9 0bbf
00000350: 1258 0fbe 8dad d23e 3f31 163f 5362 ffbe
00000360: d9ff a83e 4339 173f 9799 f43d a688 35be
00000370: dd16 4d3e 9b4b bb3e e5d9 35bf 0fb9 f3be
00000380: 9aaa 823e 749b e33e 73cd a7be 0d25 1dbf
00000390: 4067 703e 5040 30bf 93c2 09bf cc78 29bf
000003a0: e64a f2bd fef0 973d aeef 29bd ecb8 0bbe
000003b0: 94b0 48be bb5b 1cbf f2cc 173d b99c 373d
000003c0: 6108 0abf ef43 c13e 4ade e3be 0b44 cbbe
000003d0: b61b 05bf 2046 a0be 401b 1f3f 086e c7be
000003e0: 7ed4 7b3d fec6 b5be 2a0d fabe 280e 34bf
000003f0: 1663 803e 1df0 c4bd 821b 9e3e c9ef 7f3e

encoder.feature_extract.mlps.0.linears.0.bias f4 [128]
0.030918721 0.35993326 0.48214248 -0.02516397 0.6395262 0.38611063 -0.36248848 0.6087646
0.46715587 0.1242705 -0.2752283 0.5835181 0.3191866 0.2972256 0.5125526 0.32716143
0.6858068 -0.6999391 0.1343283 0.2967575 -0.61433804 0.10316501 -0.041212134 0.08125891
0.69295424 0.26401103 -0.45221704 0.08811294 0.54504347 -0.27620465 -0.22258583 0.6737244
0.044298913 -0.6547227 0.08466488 0.6969173 -0.6076062 0.4738194 -0.25752428 0.49993172
-0.33598366 0.6896627 -0.4109461 0.27653694 -0.2604613 0.24187952 0.09153948 -0.3481925
0.10113668 0.68993944 -0.5896294 0.54084 0.22874767 -0.3957726 -0.15801662 0.27528605
0.552706 -0.48339725 0.47667834 -0.6766661 -0.5669383 -0.060827404 -0.008735904 0.05272865
0.4205749 -0.18328668 -0.50205004 -0.08798973 0.077127926 0.40251622 -0.039134648 0.42947996
-0.028599685 0.6678282 -0.4654853 0.43289897 0.22397335 -0.55573434 0.48825794 -0.07740408
-0.13433324 -0.68251896 0.19517349 -0.47624648 0.6502808 0.003922095 0.18626998 -0.12442195
-0.19567814 0.09156786 -0.4249729 -0.011526778 -0.5232086 -0.41756195 0.6200263 0.3937451
0.34816167 -0.19370192 0.52997464 -0.16400334 0.23329362 -0.49890763 -0.6612008 0.071248375
0.1111536 -0.47805598 0.26333398 -0.4140596 0.58841234 0.08396417 0.6774111 -0.5816697
0.12516601 -0.12738223 -0.36499566 -0.15073004 -0.39363182 0.27010548 0.66552234 -0.17056277
-0.030990517 0.09973457 -0.1570235 -0.36996788 -0.34140527 -0.08176183 -0.14256285 -0.19455571
00000000: 4249 fd3c 2c49 b83e 61db f63e ac24 cebc
00000010: fdb7 233f 4bb0 c53e 1798 b9be ffd7 1b3f
00000020: 0e2f ef3e 8881 fe3d b9ea 8cbe 7161 153f
00000030: 6d6c a33e f42d 983e a636 033f b481 a73e
00000040: 0991 2f3f 352f 33bf 5c8d 093e 99f0 973e
00000050: 4245 1dbf 2d48 d33d 0ece 28bd 126b a63d
00000060: 7365 313f 742c 873e fe88 e7be 8f74 b43d
00000070: f887 0b3f b26a 8dbe 8aed 63be 3479 2c3f
00000080: c772 353d e89b 27bf c864 ad3d 2c69 323f
00000090: 148c 1bbf 7598 f23e 39da 83be 0df7 ff3e
000000a0: 0d06 acbe bc8d 303f 8767 d2be 4096 8d3e
000000b0: 2f5b 85be 44af 773e 0d79 bb3d 4a46 b2be
000000c0: bf20 cf3d df9f 303f f4f1 16bf 7e74 0a3f
000000d0: d43c 6a3e b5a2 cabe 1ccf 21be 4bf2 8c3e
000000e0: 247e 0d3f d87f f7be 2f0f f43e fd39 2dbf
000000f0: de22 11bf 2826 79bd 0921 0fbc fff9 573d
00000100: 9855 d73e 81af 3bbe 5a86 00bf f633 b4bd
00000110: 3ff5 9d3d 9b16 ce3e a74b 20bd cce4 db3e
00000120: e349 eabc caf6 2a3f 1754 eebe efa4 dd3e
00000130: 4559 653e 9b44 0ebf f2fc f93e 0886 9ebd
00000140: a78e 09be 90b9 2ebf 8fdb 473e 94d6 f3be
00000150: cd78 263f eb84 803b 8fbd 3e3e efd0 febd
00000160: da5f 48be ee87 bb3d 0c96 d9be d0da 3cbc
00000170: 00f1 05bf aeca d5be 0bba 1e3f f598 c93e
00000180: 3f42 b23e cc59 46be 6bac 073f 7ef0 27be
00000190: 86e4 6e3e d270 ffbe 7544 29bf abea 913d
000001a0: 80a4 e33d c1c3 f4be b6d3 863e 9fff d3be
000001b0: 31a2 163f 68f5 ab3d d06a 2d3f 4ee8 14bf
000001c0: 852b 003e 7d70 02be b6e0 babe fa58 1abe
000001d0: 1c8a c9be 444b 8a3e ac5f 2a3f 02a8 2ebe
000001e0: d3df fdbc a341 cc3d c5ca 20be 6e6c bdbe
000001f0: accc aebe bf72 a7bd fffb 11be 9d39 47be

encoder.feature_extract.mlps.0.linears.1.weight f4 [128, 128]
0.0696525 -0.0160675 -0.02586359 0.08235946 -0.057828687 0.019243931 0.046786707 0.014368996
0.03918748 0.0014127893 -0.039932895 -0.05631058 -0.06036116 0.03430539 0.079346135 0.056338634
0.04928028 -0.051896125 0.047567204 -0.06863842 0.0026186674 0.08059554 0.054775465 0.04786079
0.05312107 0.040014658 0.07974219 -0.0640663 -0.0063685067 -0.00060389674 0.018243667 -0.009153957
-0.036471345 -0.050028186 -0.049009856 -0.06728541 -0.012106221 -0.03551265 -0.0450317 0.004021573
0.045721333 0.082893275 0.06591162 -0.044204697 0.023517616 0.028408999 -0.085770905 -0.072151914
0.012954438 0.023900267 -0.0074462444 -0.045652147 -0.0028746398 -0.061049327 -0.060729314 -0.04122481
-0.034071904 0.07361687 0.058726605 0.05678873 0.053927414 0.041278042 -0.016438184 0.046860885
0.08491871 -0.022413017 -0.04525771 0.090927966 -0.05279166 -0.057852056 0.07351125 -0.069959305
-0.047202744 -0.06432796 -0.08445286 0.007843808 -0.06830996 -0.046687376 -0.02134023 -0.06862922
-0.06538417 -0.06249673 0.066668004 -0.08257773 -0.0501084 0.016300749 0.009161906 0.046394408
-0.086646944 0.059067667 -0.07522059 0.07700924 0.040942978 -0.05577302 0.0011852601 0.020074101
0.02435682 0.016074264 0.012167811 0.06314632 0.0057011736 0.09033457 0.036541123 0.07286039
-0.0017978257 -0.056615375 -0.039602976 0.045999657 0.030297954 -0.025298677 -0.025099015 -0.03153211
0.050430194 0.08479831 -0.04943436 -0.07903654 0.043634668 -0.020558596 0.020195462 0.031859368
0.035424117 -0.054194972 0.024087546 0.048643272 -0.0853957 -0.021322805 -0.088030055 0.0033647667
-0.05804679 -0.08698273 0.0400708 -0.03970206 0.027315358 -0.08098611 0.052442644 -0.040412147
0.08687169 0.07825711 0.0790741 0.0108661745 -0.0736748 -0.07410581 -0.058474854 0.045137092
-0.016558759 -0.031804644 -0.05862323 0.07076559 0.07665916 -0.05272109 -0.08404854 -0.066876434
-0.07933855 -0.07941662 0.0035524506 0.054773014 -0.06713007 -0.06268857 0.045921735 -0.045728873
-0.055306867 0.028980913 -0.075833514 0.08102465 -0.075421914 0.029937215 -0.06155245 0.019012412
0.014549361 0.0777835 0.048424654 -0.03670354 0.049376547 -0.06728604 0.005948372 -0.0691828
0.06816346 -0.0073955343 -0.06712157 -0.059090905 0.059644077 -0.08210363 -0.029353915 -0.042953227
-0.012295166 1.7308796e-05 -0.08736798 0.08101595 -0.055952683 -0.006445606 -0.04934328 -0.07659038
-0.034014657 0.021431351 -0.00014318981 0.027267314 0.0439245 0.047550704 0.01676514 -0.070758335
0.08855409 0.015628759 0.04812103 0.047754765 -0.08605337 0.028927289 0.07750943 0.06547794
0.019253919 -0.012435825 0.016860781 -0.004409897 -0.036605924 -0.06430483 0.029244617 -0.027251389
-0.022642259 0.03336292 -0.045812402 0.085010536 -0.062375072 -0.008124513 -0.041805398 0.04067658
-0.048208136 -0.026961189 -0.07661819 -0.03484767 0.04180213 -0.004762731 -0.00284611 0.0015047073
0.026074365 -0.07135802 -0.054707423 0.060601734 -0.03760142 0.04500229 0.041228794 0.020201342
-0.0017569562 0.027811058 0.030170467 -0.04116875 -0.06359396 0.052835867 -0.07984407 -0.07350621
-0.01729847 0.056213055 0.020360695 0.065491274 -0.029844856 0.024429668 0.03773803 -0.019471336
00000000: f8a5 8e3d fd9f 83bc e1df d3bc 14ac a83d
00000010: c6dd 6cbd 73a5 9d3c 6ba3 3f3d f06b 6b3c
00000020: 0d83 203d 582d b93a ad90 23bd eca5 66bd
00000030: 443d 77bd cf83 0c3d 3a80 a23d 57c3 663d
00000040: 1eda 493d 0891 54bd d4d5 423d 4d92 8cbd
00000050: f39d 2b3b 460f a53d 3d5c 603d ad09 443d
00000060: 7b95 593d 69e6 233d e04f a33d 3135 83bd
00000070: e8ae d0bb d34e 1eba be73 953c 7afa 15bc
00000080: fa62 15bd 5bea 4cbd 8fbe 48bd efcc 89bd
00000090: 2c59 46bc b675 11bd 2973 38bd 66c7 833b
000000a0: 4b46 3b3d f3c3 a93d acfc 863d fc0f 35bd
000000b0: 04a8 c03c fdb9 e83c a8a8 afbd 62c4 93bd
000000c0: da3e 543c 7eca c33c a0ff f3bb bffd 3abd
000000d0: 7464 3cbb dc0e 7abd 4dbf 78bd 59db 28bd
000000e0: fb8e 0bbd 71c4 963d 4f8b 703d 4d9b 683d
000000f0: fee2 5c3d 2a13 293d 5fa9 86bc 33f1 3f3d
00000100: dce9 ad3d 819b b7bc 2660 39bd 7138 ba3d
00000110: 113c 58bd 47f6 6cbd 118d 963d d346 8fbd
00000120: aa57 41bd 61be 83bd 9ff5 acbd 5183 003c
00000130: 18e6 8bbd 433b 3fbd b5d1 aebc 7a8d 8cbd
00000140: 23e8 85bd 92fc 7fbd 3c89 883d 831e a9bd
00000150: 773e 4dbd 2689 853c d21b 163c 1008 3e3d
00000160: f473 b1bd f0f0 713d 410d 9abd 05b7 9d3d
00000170: d3b3 273d 4072 64bd bb5a 9b3a 7172 a43c
00000180: f487 c73c 2dae 833c 805b 473c dc52 813d
00000190: e9d0 ba3b 5501 b93d 25ac 153d d437 953d
000001a0: 05a5 ebba 86e5 67bd bb36 22bd 236a 3c3d
000001b0: 6a33 f83c 2c3f cfbc 739c cdbc d027 01bd
000001c0: e48f 4e3d bdaa ad3d af7b 4abd e9dd a1bd
000001d0: 44ba 323d 806a a8bc f470 a53c f87e 023d
000001e0: e118 113d 8cfb 5dbd 3f53 c53c 2b3e 473d
000001f0: f1e3 aebd 2aad aebc 1a49 b4bd 6b83 5c3b
00000200: 79c2 6dbd 0024 b2bd 4721 243d a19e 22bd
00000210: 75c4 df3c 0cdc a5bd 19ce 563d 3587 25bd
00000220: c9e9 b13d 4445 a03d 9af1 a13d 0a08 323c
00000230: d0e2 96bd c9c4 97bd 5483 6fbd ace1 383d
00000240: 3ca6 87bc 9645 02bd e91e 70bd 8ded 903d
00000250: 7aff 9c3d 12f2 57bd a421 acbd 83f6 88bd
00000260: 407c a2bd 2ea5 a2bd 3bd0 683b ab59 603d
00000270: 7d7b 89bd dd62 80bd 6e18 3c3d 334e 3bbd
00000280: 7489 62bd 6169 ed3c 9a4e 9bbd 40f0 a53d
00000290: ce76 9abd e43e f53c 6c1e 7cbd ebbf 9b3c
000002a0: 7160 6e3c f54c 9f3d ee58 463d 7356 16bd
000002b0: 103f 4a3d 43cd 89bd 90ea c23b b6af 8dbd
000002c0: 4999 8b3d 3d56 f2bb 0977 89bd 4e09 72bd
000002d0: 594d 743d f325 a8bd 9f77 f0bc b9ef 2fbd
000002e0: aa71 49bc 5b32 9137 fced b2bd b1eb a53d
000002f0: a42e 65bd a935 d3bb 2e1c 4abd 6bdb 9cbd
00000300: f452 0bbd cd90 af3c 3925 16b9 b45f df3c
00000310: 2dea 333d 87c4 423d 0c57 893c bfe9 90bd
00000320: d95b b53d e207 803c 8f1a 453d 809a 433d
00000330: c03c b0bd ecf8 ec3c 44bd 9e3d 4c19 863d
00000340: 65ba 9d3c a1bf 4bbc 9f1f 8a3c e680 90bb
00000350: 18f0 15bd 40b2 83bd 6892 ef3c 4e3e dfbc
00000360: 427c b9bc 8fa7 083d c9a5 3bbd 011a ae3d
00000370: 017d 7fbd ad1c 05bc 233c 2bbd 7c9c 263d
00000380: e575 45bd b6dd dcbc ffe9 9cbd 6ebc 0ebd
00000390: b638 2b3d af10 9cbb cd85 3abb 9939 c53a
000003a0: e899 d53c 2724 92bd e414 60bd 8639 783d
000003b0: f203 1abd 5254 383d 86df 283d 497d a53c
000003c0: ab49 e6ba 04d4 e33c 0e28 f73c 90a0 28bd
000003d0: 8d3d 82bd 6c6a 583d 4a85 a3bd 6d8a 96bd
000003e0: 85b5 8dbc a93f 663d 79cb a63c 4a20 863d
000003f0: 337d f4bc ba20 c83c 3193 1a3d 5a82 9fbc

encoder.feature_extract.mlps.0.linears.1.bias f4 [128]
-0.07955275 0.035889547 -0.014298372 0.057685506 -0.05777996 0.077937424 -0.039153576 0.048501078
0.04856025 0.029015008 -0.03166292 0.04510164 0.0760198 0.05569314 0.033248927 -0.024255423
0.036859423 0.049136523 0.0045538675 -0.013153209 -0.01567319 0.044362407 -0.051612876 -0.008596539
0.027474117 0.03272775 0.08264038 -0.0075888196 -0.04535734 0.06959988 -0.017769715 0.048648123
-0.05365118 -0.083072454 0.06895733 0.063599125 0.017075632 -0.045002174 -0.061404314 0.07692294
-0.07700724 -0.010928612 0.06239766 0.021178216 0.07449817 -0.017905802 0.008567767 0.027304746
-0.01929867 -0.07761719 -0.07935999 0.08399532 -0.074532606 0.064532496 0.046289217 0.087072186
0.021570582 -0.012771396 0.007310948 0.018095769 0.07816676 0.06471632 -0.032559518 -0.08229419
-0.007614352 -0.04979504 -0.048129316 -0.07209362 -0.040570725 -0.00072249706 -0.025927484 -0.07251959
-0.066354066 0.07216949 -0.05485074 -0.048025567 -0.025798105 -0.046927195 -0.0023757531 -0.070346154
0.07840623 -0.030564096 -0.0039010043 -0.013966402 0.045458663 0.01575252 0.06756887 0.05727605
0.07263875 0.0050954176 0.05472957 0.05654993 0.05049027 -0.020418964 0.08752369 0.012981768
-0.052642774 -0.055296823 -0.0774837 -0.084102124 -0.039457854 0.029204806 0.050221328 0.02147682
-0.019691117 -0.06594273 -0.029789682 0.07115012 0.09021887 0.014667782 -0.0018985815 0.091454245
-0.06499684 -0.047251415 -0.085578404 -0.048188552 -0.041204236 0.058252484 0.019512031 -0.04913556
0.036439717 0.039543655 -0.025482133 -0.055683177 -0.009085549 -0.0053465073 -0.016091395 -0.08173151
00000000: 8dec a2bd eb00 133d b843 6abc a347 6c3d
00000010: aeaa 6cbd a89d 9f3d 805f 20bd 11a9 463d
00000020: 1de7 463d e2b0 ed3c fab0 01bd 7fbc 383d
00000030: 45b0 9b3d 7d1e 643d 0730 083d 4fb3 c6bc
00000040: e8f9 163d 6143 493d 9c38 953b 8f80 57bc
00000050: 1065 80bc 5bb5 353d 0668 53bd 7fd8 0cbc
00000060: 6611 e13c 880d 063d 5c3f a93d a2ab f8bb
00000070: 9ec8 39bd 628a 8e3d cb91 91bc 4143 473d
00000080: 57c1 5bbd e421 aabd 8039 8d3d 4240 823d
00000090: 32e2 8b3c 3354 38bd 1783 7bbd c689 9d3d
000000a0: f9b5 9dbd ec0d 33bc b094 7f3d f07d ad3c
000000b0: 7f92 983d 30af 92bc d25f 0c3c 34ae df3c
000000c0: 3f18 9ebc c3f5 9ebd 7e87 a2bd bd05 ac3d
000000d0: 8da4 98bd 9d29 843d c399 3d3d e752 b23d
000000e0: cab4 b03c 1e3f 51bc ad90 ef3b 943d 943c
000000f0: e515 a03d fd89 843d 215d 05bd db89 a8bd
00000100: d081 f9bb e2f5 4bbd 3f23 45bd d2a5 93bd
00000110: 7d2d 26bd f565 3dba e065 d4bc 2785 94bd
00000120: a4e4 87bd 99cd 933d 2bab 60bd 75b6 44bd
00000130: 8c56 d3bc bb36 40bd 86b2 1bbb a511 90bd
00000140: 7293 a03d 8e61 fabc fea7 7fbb 56d3 64bc
00000150: dd32 3a3d 6e0b 813c 8c61 8a3d 4b9a 6a3d
00000160: a0c3 943d 76f7 a63b 1d2c 603d e6a0 673d
00000170: e3ce 4e3d ac45 a7bc 9f3f b33d 7bb1 543c
00000180: f39f 57bd ec7e 62bd c6af 9ebd bc3d acbd
00000190: 8f9e 21bd eb3e ef3c e1b4 4d3d 28f0 af3c
000001a0: 444f a1bc fb0c 87bd 7e09 f4bc 27b7 913d
000001b0: acc4 b83d 2351 703c d3d9 f8ba 5d4c bb3d
000001c0: 101d 85bd b38a 41bd bb43 afbd 5c61 45bd
000001d0: c6c5 28bd 289a 6e3d b2d7 9f3c 5e42 49bd
000001e0: d041 153d 87f8 213d e8bf d0bc 0b14 64bd
000001f0: 8edb 14bc c131 afbb 1ad2 83bc da62 a7bd

encoder.feature_extract.mlps.0.linears.2.weight f4 [128, 128]
-0.04956827 0.082285 0.035278644 0.028955078 -0.08522298 -0.049230896 0.016813794 0.044811275
0.024397843 -0.07146712 -0.009810158 0.066528656 -0.038219668 0.025949016 0.04084157 -0.027085954
0.0044453153 0.0050771497 0.054203585 -0.00949513 -0.043706402 0.08889624 -0.059493456 0.06348575
0.013647136 -0.0693234 -0.018214682 -0.042563833 -0.023627978 0.056875695 -0.05647897 0.08271169
0.012881827 0.05539046 0.005479128 -0.059520166 -0.008695162 -0.016554322 0.03463964 -0.071590886
-0.05104497 -0.04994569 0.0466891 -0.0066966456 -0.011176923 0.091342926 0.06846644 -0.022379065
0.05751982 -0.06189084 -0.010623637 0.025011059 0.08667851 0.050726354 -0.012170967 0.043027855
-0.009527149 -0.09364229 0.052796923 -0.007187721 -0.047877308 -0.034803577 0.03245173 -0.087763526
0.06704341 0.0003335796 0.023235222 -0.03583316 0.021684468 0.035500713 0.0004640445 0.05459179
0.068374366 -0.02824576 0.048707597 0.0009468476 -0.002446765 0.02685668 -0.020107742 0.05179284
0.001711758 0.02430629 -0.05508062 0.026783409 -0.038752936 -0.0044486052 0.029915445 0.060763214
-0.029474713 -0.093720645 -0.03792744 0.060101315 0.00742563 -0.08040916 -0.06367495 0.043588713
-0.046445545 -0.023571715 -0.0648722 0.044434197 -0.0713172 0.010007784 0.03339129 0.0059049614
0.03207964 -0.01525565 0.013892891 -0.035080206 -0.059854627 0.045757327 -0.022437392 0.009353197
-0.070555024 0.07881386 0.07813138 0.07258425 -0.0018770946 0.00017020466 0.045031693 0.031291734
0.08520332 -0.039616056 -0.048771884 -0.01574549 -0.08271757 0.002403558 -0.041899625 0.056756545
-0.08054955 0.055013098 -0.0011750959 0.031833414 -0.047928438 0.048289698 -0.05504441 0.07480783
0.002803455 -0.070726894 -0.07907973 0.03714556 -0.018654859 0.056198873 -0.05562916 0.04895296
-0.004277554 -0.02678266 0.041595183 0.058397878 -0.081872836 -0.023130244 0.03699265 0.08498913
0.06212328 -0.079087004 0.02525489 0.06901528 -0.03463536 -0.06778429 -0.0021791782 -0.0332556
-0.04364739 0.029215863 0.016823398 -0.07671111 -0.022337757 0.04149423 0.037593704 -0.033375937
-0.08074359 -0.0053779795 0.07750023 -0.09616312 -0.06731974 -0.02613235 0.058253977 0.061603423
-0.04052557 0.0027440023 0.058547154 0.044336013 0.0407741 0.058447916 -0.067467146 0.07570617
0.058751736 -0.043439012 -0.023644116 0.0508697 -0.02503908 -0.02505944 0.07969627 0.018940607
-0.0110173365 0.032644484 -0.016401624 -0.042519007 0.02744875 -0.038723286 -0.03363016 0.08436939
-0.08255522 0.07399688 0.0073828353 0.021122213 -0.043428414 0.07081848 -0.057252645 0.0531492
-0.043454073 0.03652714 0.017602153 -0.04314278 -0.065217264 -0.0052917623 -0.071429156 0.03231875
-0.0035035466 0.07752051 0.07314418 -0.0048988666 0.02434955 0.024970885 0.07143679 -0.050994605
-0.08017735 0.050000355 -0.0671834 0.00796876 -0.01914749 0.08726034 -0.02716011 -0.00400528
0.011869161 0.06934833 0.009278798 0.04456884 -0.031181172 0.07800169 -0.06930432 -0.03359176
-0.054181296 -0.06950477 0.041626606 -0.041696418 0.02030886 0.07494331 0.07489699 -0.050285958
0.06972724 0.036026653 0.01680506 0.008788476 -0.006578083 -0.07645027 0.054103073 -0.0047822674
00000000: 1908 4bbd 0a85 a83d 5780 103d 3333 ed3c
00000010: 6389 aebd 56a6 49bd 15bd 893c 078c 373d
00000020: fcdd c73c 5a5d 92bd c9ba 20bc 2d40 883d
00000030: 3a8c 1cbd 0893 d43c 7d49 273d 5de3 ddbc
00000040: 02aa 913b 385e a63b 9404 5e3d 7691 1bbc
00000050: 7c05 33bd 3b0f b63d 69af 73bd d104 823d
00000060: 3d98 5f3c 6df9 8dbd f536 95bc 6a57 2ebd
00000070: 768f c1bc 7df6 683d 7e56 67bd bf64 a93d
00000080: 4c0e 533c 1be1 623d 428a b33b 6bcb 73bd
00000090: 2776 0ebc ee9c 87bc 4ce2 0d3d 3e9e 92bd
000000a0: 8814 51bd da93 4cbd 123d 3f3d 896f dbbb
000000b0: 6a1f 37bc 0012 bb3d 2238 8c3d 4d54 b7bc
000000c0: e799 6b3d 4081 7dbd c30e 2ebc fee3 cc3c
000000d0: 8184 b13d 70c6 4f3d bc68 47bc fa3d 303d
000000e0: c217 1cbc 87c7 bfbd 9641 583d f986 ebbb
000000f0: ff1a 44bd 328e 0ebd 1bec 043d 5dbd b3bd
00000100: 0e4e 893d 4ce4 ae39 cb57 be3c cbc5 12bd
00000110: a0a3 b13c 3269 113d 004b f339 a49b 5f3d
00000120: dc07 8c3d a763 e7bc 9e81 473d de35 783a
00000130: e859 20bb 8a02 dc3c feb8 a4bc bb24 543d
00000140: 115d e03a fc1d c73c 379c 61bd e168 db3c
00000150: 66bb 1ebd 9bc5 91bb 3c11 f53c d9e2 783d
00000160: f474 f1bc 9cf0 bfbd ce59 1bbd cc2c 763d
00000170: b352 f33b 8fad a4bd 0368 82bd 148a 323d
00000180: af3d 3ebd 7819 c1bc b7db 84bd a200 363d
00000190: c10e 92bd b0f7 233c 4ec5 083d 687e c13b
000001a0: f165 033d d5f2 79bc 029f 633c 43b0 0fbd
000001b0: 202a 75bd 096c 3b3d 9fce b7bc 273e 193c
000001c0: 277f 90bd 2969 a13d 5803 a03d 0da7 943d
000001d0: d808 f6ba f778 3239 2773 383d c32b 003d
000001e0: 147f ae3d 7244 22bd 07c5 47bd b0fc 80bc
000001f0: d467 a9bd 0385 1d3b f19e 2bbd 8d79 683d
00000200: 2af7 a4bd 6a55 613d ad05 9aba c163 023d
00000210: 9c50 44bd 6bcb 453d 3f76 61bd d934 993d
00000220: 2cba 373b 43d9 90bd 8ef4 a1bd f125 183d
00000230: 13d2 98bc ca30 663d 67db 63bd e682 483d
00000240: b92a 8cbb 4f67 dbbc b65f 2a3d 9d32 6f3d
00000250: f2ac a7bd a37b bdbc 9b85 173d c80e ae3d
00000260: fb74 7e3d 5ef8 a1bd 58e3 ce3c e257 8d3d
00000270: cfdd 0dbd 7dd2 8abd 8bd0 0ebb 0637 08bd
00000280: 9bc7 32bd 1b56 ef3c 39d1 893c b71a 9dbd
00000290: acfd b6bc dbf5 293d dbfb 193d 35b5 08bd
000002a0: e55c a5bd c339 b0bb 71b8 9e3d 2bf1 c4bd
000002b0: efde 89bd 8313 d6bc b99b 6e3d df53 7c3d
000002c0: 24fe 25bd b8d4 333b 24cf 6f3d ae99 353d
000002d0: be02 273d 1567 6f3d 372c 8abd d60b 9b3d
000002e0: a9a5 703d 1bed 31bd 4eb1 c1bc bf5c 503d
000002f0: c21e cdbc 7449 cdbc cc37 a33d 5529 9b3c
00000300: 0f82 34bc 39b6 053d b35c 86bc 6928 2ebd
00000310: 33dc e03c 4f9c 1ebd c7bf 09bd dcc9 ac3d
00000320: b612 a9bd ad8b 973d b6eb f13b 7e08 ad3c
00000330: fee1 31bd 4709 913d c081 6abd fab2 593d
00000340: e6fc 31bd 7b9d 153d 6432 903c 7cb6 30bd
00000350: a190 85bd 8566 adbb 7349 92bd aa60 043d
00000360: c29b 65bb 13c3 9e3d 9ecc 953d ac86 a0bb
00000370: b578 c73c be8f cc3c 744d 923d b8df 50bd
00000380: 0634 a4bd 2ccd 4c3d 7397 89bd 678f 023c
00000390: 32db 9cbc 8db5 b23d e17e debc b93e 83bb
000003a0: df76 423c 7f06 8e3d 1906 183c d18d 363d
000003b0: a86f ffbc 5abf 9f3d 6cef 8dbd 8397 09bd
000003c0: 35ed 5dbd 8458 8ebd a980 2a3d ddc9 2abd
000003d0: c45e a63c e17b 993d 9863 993d a6f8 4dbd
000003e0: 28cd 8e3d af90 133d c4aa 893c 8afd 0f3c
000003f0: f68c d7bb f691 9cbd 2f9b 5d3d 91b4 9cbb

encoder.feature_extract.mlps.0.linears.2.bias f4 [128]
-0.015697079 -0.010068215 0.040341947 0.06946684 0.07775576 -0.050434314 -0.010418592 0.015059238
-0.08814695 0.023239397 0.030836547 -0.011560969 -0.03890278 -0.005772381 -0.06791342 0.08951898
0.0026298582 -0.0685625 0.0042316495 -0.04048377 -0.07277926 0.033052795 0.048510373 0.07872774
-0.06188749 -0.08817979 0.07806828 -0.042266898 0.033556722 -0.02405192 -0.0460797 -0.08714343
-0.07253466 0.0627016 0.054745715 0.06455051 0.031575583 -0.031687424 0.077715024 -0.03406464
-0.017962275 -0.07541126 -0.08292915 0.04764682 -0.038796958 -0.08017246 -0.07979977 -0.079960674
-0.06270958 0.06447034 0.08403395 0.021954002 0.00083943445 -0.06437214 0.044812966 0.08078399
0.049787242 0.0055502555 -0.010030504 -0.06055507 0.070492655 0.053528477 -0.052582674 -0.049307615
0.028729154 0.06058536 0.051645216 0.06799848 -0.030144645 0.054811023 -0.085192606 0.092320696
-0.07949505 -0.085348494 0.052501243 0.030484887 -0.07717557 -0.01408308 0.059254903 -0.030547291
-0.08900957 -0.051375374 0.06655847 0.03811721 0.0070331064 0.0797221 0.06255543 0.033202577
-0.03226407 0.052224144 0.042583287 -0.042070474 0.056145508 -0.07337756 -0.04002662 0.014006344
-0.0075721885 -0.031417638 0.08591761 -0.032020487 0.049485724 -0.041911297 0.015637174 0.02209575
0.010785394 -0.045556292 0.06537774 -0.019233555 -0.014162158 0.06636919 -0.019543631 0.038571283
0.04965647 0.07577164 -0.087523036 -0.051929563 -0.036016855 -0.05994061 -0.058347438 -0.049547043
0.011214647 -0.035772383 -0.07080085 -0.0083390875 -0.041760765 -0.048025403 0.06158872 -0.05800248
00000000: 2997 80bc 28f5 24bc 993d 253d a144 8e3d
00000010: 693e 9f3d 3694 4ebd beb2 2abc 06bb 763c
00000020: 6386 b4bd 8c60 be3c ed9c fc3c 386a 3dbc
00000030: 8558 1fbd 3e26 bdbb 3116 8bbd ba55 b73d
00000040: b359 2c3b 7f6a 8cbd a6a9 8a3b 4fd2 25bd
00000050: 4b0d 95bd 5e62 073d d0b2 463d 023c a13d
00000060: bd7d 7dbd 9b97 b4bd 43e2 9f3d 0e20 2dbd
00000070: c672 093d 8808 c5bc 11be 3cbd 4178 b2bd
00000080: 0d8d 94bd b269 803d 0b3d 603d 0f33 843d
00000090: 6655 013d acca 01bd 0e29 9f3d 5d87 0bbd
000000a0: 9f25 93bc 3871 9abd c2d6 a9bd 5029 433d
000000b0: 8fe9 1ebd 7531 a4bd 106e a3bd 6cc2 a3bd
000000c0: e16d 80bd 0709 843d fe19 ac3d e1d8 b33c
000000d0: 7e0d 5c3a 8ad5 83bd cd8d 373d 1472 a53d
000000e0: b5ed 4b3d ebde b53b fc56 24bc 9808 78bd
000000f0: 745e 903d ad40 5b3d ee60 57bd c8f6 49bd
00000100: 6759 eb3c 5b28 783d ef89 533d c942 8b3d
00000110: e7f1 f6bc 8681 603d 7679 aebd a212 bd3d
00000120: 4dce a2bd 31cb aebd 8b0b 573d 71bb f93c
00000130: 3a0e 9ebd b8bc 66bc 45b5 723d 503e fabc
00000140: a64a b6bd fc6e 52bd cf4f 883d cb20 1c3d
00000150: f975 e63b 5745 a33d 101d 803d 6dff 073d
00000160: 5427 04bd fce8 553d d06b 2e3d 1752 2cbd
00000170: d5f8 653d f946 96bd f4f2 23bd dd7a 653c
00000180: 1f20 f8bb c8af 00bd 92f5 af3d ea27 03bd
00000190: 8bb1 4a3d 2eab 2bbd 8819 803c 2502 b53c
000001a0: 39b5 303c 3c99 3abd c4e4 853d b08f 9dbc
000001b0: 6508 68bc 92ec 873d f719 a0bc ecfc 1d3d
000001c0: 9564 4b3d 292e 9b3d 473f b3bd 18b4 54bd
000001d0: 6986 13bd 4984 75bd b9fd 6ebd d7f1 4abd
000001e0: a4bd 373c 1086 12bd 0900 91bd aba0 08bc
000001f0: 560d 2bbd 49b6 44bd 7444 7c3d 0294 6dbd

encoder.feature_extract.mlps.0.batch_norms.0.weight f4 [128]
0.99978423 0.9987414 1.0059818 1.0014069 1.0006855 0.999183 0.9976538 1.0021849
1.0043689 1.0041326 1.0054497 0.9979568 0.9956246 1.0049703 0.9979954 0.9974292
1.0038447 0.99290895 1.0000627 1.0050764 1.0023255 1.0014772 0.99730974 1.004675
1.0023421 1.0019114 1.0039042 0.9974052 1.0007999 1.002248 1.0014694 1.0040112
0.99871534 1.0049256 1.0006012 0.9961567 1.0056682 0.9963273 1.005395 1.0004345
0.999746 0.9988224 0.9945115 0.9995047 0.9976468 1.0003343 1.0001258 0.9985652
1.0043774 0.99824166 0.9957448 0.9962078 0.99412435 1.0003151 1.0012072 0.9950409
0.99321645 1.0036094 1.0046315 0.998405 0.99346566 0.99451095 1.0017583 0.9986556
1.0012486 1.007147 0.9972506 0.9995709 0.99154675 0.99558187 0.9976377 1.0012679
0.9946669 1.0038307 0.9966917 1.0036017 0.99924886 0.9982454 0.9974849 0.9946035
0.9923963 0.99985623 0.99853545 0.99468344 1.0036721 0.99565893 0.99770635 1.0021766
1.0026116 1.0000207 0.9946237 1.0008475 1.002485 0.99587584 1.0051211 0.99955064
1.0053375 0.9970983 1.0008999 1.0049199 1.0020697 0.9988845 1.0022625 1.0061598
1.0081985 1.0048587 1.0036535 1.0038979 1.0017123 0.99812746 0.9990191 1.0024185
0.9990981 0.997734 0.9962058 0.9999331 1.0060333 1.0082045 0.99901754 0.9951613
0.9975122 1.0014727 1.002946 0.99492353 0.999455 0.99458975 0.9992908 0.99462765
00000000: dcf1 7f3f 84ad 7f3f 03c4 803f 1a2e 803f
00000010: 7616 803f 75ca 7f3f 3d66 7f3f 9847 803f
00000020: 298f 803f 6b87 803f 93b2 803f 197a 7f3f
00000030: 41e1 7e3f dea2 803f a07c 7f3f 8557 7f3f
00000040: fc7d 803f 482f 7e3f 0e02 803f 58a6 803f
00000050: 344c 803f 6830 803f b14f 7f3f 3199 803f
00000060: bf4c 803f a23e 803f ef7f 803f f255 7f3f
00000070: 361a 803f aa49 803f 2630 803f 7083 803f
00000080: cfab 7f3f 67a1 803f b313 803f 2004 7f3f
00000090: bcb9 803f 4e0f 7f3f c9b0 803f 3d0e 803f
000000a0: 5bef 7f3f d3b2 7f3f 4e98 7e3f 8adf 7f3f
000000b0: c865 7f3f f40a 803f 1f04 803f f8a1 7f3f
000000c0: 708f 803f c48c 7f3f 22e9 7e3f 7907 7f3f
000000d0: ef7e 7e3f 530a 803f 8f27 803f 00bb 7e3f
000000e0: 6f43 7e3f 4676 803f c497 803f 7897 7f3f
000000f0: c453 7e3f 4598 7e3f 9e39 803f e5a7 7f3f
00000100: ea28 803f 31ea 803f d14b 7f3f e1e3 7f3f
00000110: 02d6 7d3f 74de 7e3f 2f65 7f3f 8c29 803f
00000120: 7da2 7e3f 867d 803f 3027 7f3f 0576 803f
00000130: c6ce 7f3f 038d 7f3f 2c5b 7f3f 569e 7e3f
00000140: af0d 7e3f 94f6 7f3f 05a0 7f3f 93a3 7e3f
00000150: 5478 803f 81e3 7e3f af69 7f3f 5347 803f
00000160: 9455 803f ae00 803f a99f 7e3f c51b 803f
00000170: 6e51 803f b8f1 7e3f cfa7 803f 8de2 7f3f
00000180: e6ae 803f d641 7f3f 7d1d 803f 37a1 803f
00000190: d243 803f e5b6 7f3f 234a 803f d8c9 803f
000001a0: a60c 813f 369f 803f b877 803f ba7f 803f
000001b0: 1c38 803f 4885 7f3f b7bf 7f3f 404f 803f
000001c0: e5c4 7f3f 7f6b 7f3f 5807 7f3f 9efb 7f3f
000001d0: b3c5 803f d80c 813f 9dbf 7f3f e4c2 7e3f
000001e0: f65c 7f3f 4230 803f 8960 803f 4fb3 7e3f
000001f0: 48dc 7f3f 6f9d 7e3f 86d1 7f3f eb9f 7e3f

encoder.feature_extract.mlps.0.batch_norms.0.bias f4 [128]
-0.0029841228 -0.00017009687 0.0019731023 0.0009268829 -0.0032911066 0.00024888958 -0.0029096697 -0.0028632209
0.004704542 0.0006683757 0.005800683 -0.0039648707 0.0017425037 -0.004050959 -0.010361329 -0.010632806
0.004179039 -0.008867314 -0.00029489724 -0.008129155 -0.0009912614 0.0006746245 -0.0036871599 0.006614608
-0.001636147 0.00066840247 0.006820282 0.009458842 0.0027407175 -0.0011528827 -0.0010377431 -0.012806405
-0.0038230666 0.0031553751 -0.0077927723 -0.0069142757 0.0049289074 -0.005714871 -0.00017607579 0.0065215277
8.7993096e-05 -0.0051207743 -0.004485124 -0.0013519425 0.0012628334 -0.0014553728 -0.006938306 -0.0041389773
0.00021333965 -0.00310888 0.0030750134 -0.0011245827 -5.617703e-05 0.002269099 -0.00095686334 0.0008065256
-0.0024834564 -0.0059612985 0.006828225 0.004626218 0.0013189666 -0.0073526376 0.0034980273 0.004367192
-0.0056269052 -0.0023922925 -0.00032493527 0.0005814835 -0.0051360014 0.0009724924 -0.003065106 0.006579176
0.004765184 -0.004416031 0.0002837085 -0.00089691364 -0.0004275561 0.004845334 0.0005393392 -0.003454489
-0.0051859263 0.00097389595 0.0031702456 -0.0045977407 -0.0004960983 0.0035105736 -0.0014070492 0.0030645842
0.0036954908 -0.0029612929 -0.007891335 0.0025498678 0.0055043297 -0.0025559994 0.0036637783 0.0014609686
-0.0019280341 -0.0054959375 -0.0021257964 0.0036563117 -0.0058462587 0.0015950147 0.0074539604 0.0013798443
0.0073376484 -0.005607484 0.0018685136 3.7706224e-05 -0.002502776 0.0016681569 0.0005270358 -0.0032037525
0.0007874562 -0.007163004 0.0007366069 -0.0014283706 0.011979613 0.006685167 0.002389356 0.0002495257
-0.009207705 0.0032674249 0.0030241578 -0.0047128787 0.0006748955 0.0018956929 -0.0029604791 0.0009726996
00000000: 4691 43bb 085c 32b9 2a4f 013b 0ffa 723a
00000010: 9baf 57bb 657d 8239 28b0 3ebb e0a4 3bbb
00000020: 8f28 9a3b ef35 2f3a a813 be3b bfeb 81bb
00000030: b964 e43a e8bd 84bb 90c2 29bc 3935 2ebc
00000040: 52f0 883b 3648 11bc 709c 9ab9 2630 05bc
00000050: 37ed 81ba 49d9 303a 47a4 71bb 5bbf d83b
00000060: fc73 d6ba bb37 2f3a ac7c df3b 42f9 1a3c
00000070: 9c9d 333b 531c 97ba e104 88ba f5d1 51bc
00000080: 6a8c 7abb 69ca 4e3b 835a ffbb 2691 e2bb
00000090: ac82 a13b d043 bbbb fca0 38b9 8ab2 d53b
000000a0: ef88 b838 2bcc a7bb f2f7 92bb aa33 b1ba
000000b0: a885 a53a 35c2 beba bb5a e3bb 42a0 87bb
000000c0: edb3 5f39 5abe 4bbb 2a86 493b bc66 93ba
000000d0: a09f 6bb8 2ab5 143b 03d6 7aba 046d 533a
000000e0: 7cc1 22bb ff56 c3bb 4ebf df3b 8897 973b
000000f0: 2de1 ac3a 65ee f0bb 293f 653b a91a 8f3b
00000100: e761 b8bb 02c8 1cbb 135c aab9 b26e 183a
00000110: e74b a8bb dcee 7e3a f2df 48bb 2196 d73b
00000120: 4325 9c3b 5ab4 90bb b6be 9439 db1e 6bba
00000130: 9c29 e0b9 9cc5 9e3b 7162 0d3a b564 62bb
00000140: b4ee a9bb 0d4d 7f3a e5c3 4f3b a5a8 96bb
00000150: 980c 02ba a711 663b bd6c b8ba 31d7 483b
00000160: 0c30 723b 4012 42bb a84a 01bc af1b 273b
00000170: aa5d b43b 8e82 27bb 001c 703b f97d bf3a
00000180: 17b6 fcba 4417 b4bb f250 0bbb bb9e 6f3b
00000190: f991 bfbb d00f d13a 5a40 f43b e4db b43a
000001a0: a870 f03b fcbe b7bb eae8 f43a c026 1e38
000001b0: 9d05 24bb 0fa6 da3a c628 0a3a 0cf6 51bb
000001c0: 4b6d 4e3a a2b7 eabb da18 413a 2a38 bbba
000001d0: 2446 443c 3f0f db3b be96 1c3b c6d2 8239
000001e0: eadb 16bc 4b22 563b f330 463b 7e6e 9abb
000001f0: 78eb 303a e678 f83a 9904 42bb c4fc 7e3a

encoder.feature_extract.mlps.0.batch_norms.0.running_mean f4 [128]
0.14559518 0.60587424 0.6821651 0.47563097 1.0616931 0.20813106 -0.5214006 0.0034519846
-0.17459539 -0.35528135 -0.81462145 0.7142915 -0.026264876 0.69680417 0.9088899 0.55937773
0.10635083 -1.2786604 0.4725693 0.4868573 -0.6532396 0.5939978 -0.6836566 -0.14471208
1.1713916 0.3477335 0.1229189 -0.028623972 0.8226213 -0.23614033 0.09869342 0.68954116
-0.24765378 -1.2770379 0.49416298 0.67689866 -0.27884525 0.56898457 0.16659293 1.0822742
-0.89105916 0.7120087 -0.48848233 0.8222657 0.24219513 0.74601597 -0.24997792 -0.0158085
0.4962145 0.17867415 -0.5106341 -0.0002773048 0.36553144 -0.75713074 0.3729866 0.57334065
0.26215369 -0.37924632 0.70432544 -0.90664417 -0.20995212 -0.41373238 0.49287352 -0.22527468
0.71322244 0.19494168 -0.2824403 0.37543008 0.6189966 0.7774615 0.39911398 0.58826435
0.2145877 0.5780724 -0.3182146 1.0487906 0.61380607 -0.43076825 0.43092862 0.4188737
0.07528065 -1.0872349 -0.44934055 -0.5167991 0.518928 -0.35221705 -0.33879906 0.2407923
-0.16373987 0.63492197 -1.0529591 0.42206186 -0.847719 -0.6303508 1.2437314 0.59805185
-0.20779637 -0.7184871 0.37643015 0.09115727 0.5481532 -0.19403902 -0.8584134 0.07141461
-0.040129416 -0.9818102 0.6450147 -0.87245035 1.1418018 -0.07986937 1.0200633 -1.0321739
0.5416903 -0.7022826 -1.0036112 -0.7726251 -0.32577017 0.14263704 0.09483407 -0.12844512
0.31492525 -0.2744752 -0.4538208 -0.72624975 -0.6713362 -0.74163806 -0.229521 0.041326065
00000000: e716 153e 931a 1b3f 5fa2 2e3f e785 f33e
00000010: 8fe5 873f 4f20 553e 827a 05bf b13a 623b
00000020: 22c9 32be 70e7 b5be 088b 50bf cfdb 363f
00000030: 7029 d7bc c261 323f 02ad 683f 6133 0f3f
00000040: 77ce d93d 25ab a3bf 9af4 f13e 5c45 f93e
00000050: b63a 27bf 3d10 183f 1e04 2fbf 672f 14be
00000060: 29f0 953f 200a b23e e7bc fb3d d27c eabc
00000070: 4f97 523f c5ce 71be c71f ca3d c585 303f
00000080: f498 7dbe fa75 a3bf ee02 fd3e 3b49 2d3f
00000090: cec4 8ebe f9a8 113f 5697 2a3e f687 8a3f
000000a0: 741c 64bf 3446 363f 5b1a fabe 0180 523f
000000b0: 0002 783e e7fa 3e3f 36fa 7fbe d480 81bc
000000c0: d40f fe3e 5bf6 363e ebb8 02bf 3863 91b9
000000d0: f026 bb3e 52d3 41bf 1af8 be3e 74c6 123f
000000e0: 0239 863e 932c c2be ac4e 343f d519 68bf
000000f0: b0fd 56be bbd4 d3be eb59 fc3e 68ae 66be
00000100: bf95 363f cb9e 473e 049c 90be 5f38 c03e
00000110: 9076 1e3f b807 473f ab58 cc3e 7e98 163f
00000120: e1bc 5b3e 8efc 133f 06ed a2be c53e 863f
00000130: 6522 1d3f a88d dcbe ada2 dc3e 9d76 d63e
00000140: be2c 9a3d 832a 8bbf f70f e6be f24c 04bf
00000150: 77d8 043f cb55 b4be 1277 adbe 4292 763e
00000160: 6dab 27be 3f8a 223f 5dc7 86bf 7e18 d83e
00000170: 1d04 59bf ac5e 21bf 9732 9f3f ed19 193f
00000180: 92c8 54be c5ee 37bf 74bb c03e aab0 ba3d
00000190: c553 0c3f 2ab2 46be fbc0 5bbf d341 923d
000001a0: be5e 24bd ea57 7bbf af1f 253f e858 5fbf
000001b0: 9026 923f 8d92 a3bd 6f91 823f 461e 84bf
000001c0: 37ac 0a3f cbc8 33bf 5576 80bf c2ca 45bf
000001d0: 59cb a6be 720f 123e 5d38 c23d 1e87 03be
000001e0: e23d a13e 0388 8cbe 335b e8be 81eb 39bf
000001f0: b0dc 2bbf fedb 3dbf 8e07 6bbe 8545 293d

encoder.feature_extract.mlps.0.batch_norms.0.running_var f4 [128]
0.0008875086 0.0033329094 0.0018715671 0.013246575 0.008658722 0.0018986992 0.0011469554 0.019578453
0.021900447 0.012085741 0.014530853 0.0010772899 0.005312624 0.007589603 0.007833856 0.0026149107
0.016486734 0.017222706 0.005047017 0.0014981596 4.2548218e-05 0.013039891 0.021870878 0.0021132634
0.011791105 0.00026132408 0.017552372 0.0009343082 0.0033623332 6.604781e-05 0.0057874573 7.162335e-06
0.0037004666 0.018267943 0.0089889 1.4013959e-05 0.0057037342 0.00039385 0.009654617 0.016934624
0.014698405 4.3381136e-05 0.00020008528 0.013939243 0.012608841 0.012982563 0.0059716804 0.0048778867
0.0073383763 0.012977584 0.00025934877 0.014290505 0.0011568768 0.0062330835 0.014430394 0.004936947
0.004714332 0.00040952297 0.0025949231 0.0026813238 0.0057303137 0.006495843 0.012886194 0.0038890815
0.003837447 0.007228331 0.001992376 0.010870701 0.014521853 0.006478594 0.009459504 0.0009750985
0.002663877 0.00053732394 0.0013359924 0.018329153 0.007209709 0.0010617764 0.00018627051 0.011867256
0.0020425764 0.0073724976 0.021978803 4.8418657e-05 0.0009402793 0.006441079 0.014028846 0.006963704
2.5219659e-05 0.01411751 0.020039639 0.009902358 0.004970997 0.002228175 0.020498317 0.0022280985
0.014466497 0.014629025 0.0012780301 0.0032349085 0.004493007 0.0044928715 0.0016408134 2.6557914e-06
0.0014599896 0.013276985 0.007424614 0.011298974 0.014742702 0.001397472 0.0056562847 0.00921648
0.008344049 0.015936049 0.020786192 0.018323598 0.000254423 0.0007948826 0.015915979 8.397067e-05
0.0065400167 0.0065077203 0.003958659 0.0070132893 0.0054890397 0.020784214 0.00044623498 0.0025673707
00000000: b2a7 683a f16c 5a3b 5f4f f53a 2a08 593c
00000010: 50dd 0d3c c6dd f83a 7055 963a fe62 a03c
00000020: 9168 b33c 4603 463c d112 6e3c da33 8d3a
00000030: 8515 ae3b 34b2 f83b 9359 003c ec5e 2b3b
00000040: 300f 873c a216 8d3c 7261 a53b e55d c43a
00000050: cd75 3238 44a5 553c 8e2a b33c ad7e 0a3b
00000060: 7b2f 413c 5302 8939 fec9 8f3c 5dec 743a
00000070: 975a 5c3b 2683 8a38 b6a4 bd3b fd53 f036
00000080: 8783 723b a7a6 953c 2e46 133c 7f1d 6b37
00000090: 64e6 ba3b a77d ce39 662e 1e3c 7bba 8a3c
000000a0: 94d1 703c 24f4 3538 fccd 5139 6c61 643c
000000b0: 5095 4e3c d1b4 543c 16ae c33b aed6 9f3b
000000c0: c376 f03b ef9f 543c 34f9 8739 b922 6a3c
000000d0: 58a2 973a e53e cc3b 766d 6c3c 1dc6 a13b
000000e0: af7a 9a3b 3eb5 d639 960f 2a3b 26b9 2f3b
000000f0: 5bc5 bb3b 15db d43b 9d20 533c f6df 7e3b
00000100: ad7d 7b3b a3db ec3b 8692 023b 061b 323c
00000110: 11ed 6d3c 634a d43b 09fc 1a3c c19d 7f3a
00000120: 7194 2e3b 33db 0c3a 771c af3a 0527 963c
00000130: 6c3f ec3b 4e2b 8b3a 9c51 4339 e16e 423c
00000140: bfdc 053b fe94 f13b e40c b43c 2315 4b38
00000150: 137d 763a b00f d33b 3fd9 653c c82f e43b
00000160: ce8e d337 214d 673c 2b2a a43c 803d 223c
00000170: bfe3 a23b 9306 123b 16ec a73c 4a05 123b
00000180: e304 6d3c 94ae 6f3c 9383 a73a c200 543b
00000190: 133a 933b f038 933b 9010 d73a 263a 3236
000001a0: 1f5d bf3a b687 593c 2d4a f33b 551f 393c
000001b0: 608b 713c 612b b73a 5b58 b93b b800 173c
000001c0: 7ab5 083c 518c 823c ce47 aa3c 5f1b 963c
000001d0: 1464 8539 ab5f 503a 3a62 823c 6919 b038
000001e0: a34d d63b b73e d53b a3b7 813b bccf e53b
000001f0: 67dd b33b a843 aa3c a5f4 e939 5541 283b

encoder.feature_extract.mlps.0.batch_norms.1.weight f4 [128]
0.99659634 1.003948 0.9982368 1.0002346 1.0050031 0.99666893 1.0022612 1.0030166
1.0012766 0.9960823 0.99568963 0.99928623 1.0012311 1.0024154 1.0006129 0.9886538
1.0009159 0.99806845 0.9970933 1.000397 0.9997935 0.9946912 0.9973682 1.0012782
0.9977441 0.99431604 0.9940204 1.005295 0.99334157 0.99307644 0.99839437 1.0006849
0.99703294 0.999822 1.0005128 0.9965119 1.0109214 1.005354 1.0072023 1.0026343
1.0022628 1.0004274 1.0055747 1.0000305 1.0025872 0.9972301 0.9996838 0.99513143
0.9998021 0.9973382 1.0013 0.99563074 1.0046135 1.0045279 1.0081673 1.0002267
1.0051349 0.9992854 1.0051777 0.9944522 0.9977723 0.99423504 1.0044771 1.005377
1.0002095 0.99224085 1.0068654 1.0031496 0.99524873 0.99780947 0.99150527 1.0017679
0.99975175 0.9951552 0.9908019 0.99689394 0.99380994 1.0036725 0.99156153 1.008058
1.0062101 0.99380034 1.0016191 0.9979248 1.0045283 1.0015886 1.0041722 1.0044824
1.0012797 1.0014306 0.9992976 1.0017054 1.0067205 0.99545825 1.0022855 0.9991047
1.0019718 1.0032412 0.99947166 0.99801135 0.9984814 1.0034676 1.0017095 0.999265
1.0043203 0.9941857 0.99946195 1.0006181 0.99491 1.0110248 0.99952936 0.99526477
0.99183404 1.0063542 0.9989136 1.0001836 1.0000086 1.0079398 1.0002506 1.0000387
0.99783903 1.0039728 1.0010213 1.000568 1.0085949 0.9974825 0.9966895 1.0002536
00000000: f020 7f3f 5e81 803f 728c 7f3f b007 803f
00000010: f1a3 803f b225 7f3f 184a 803f d962 803f
00000020: d529 803f 40ff 7e3f 84e5 7e3f 39d1 7f3f
00000030: 5728 803f 264f 803f 1514 803f 6a18 7d3f
00000040: 031e 803f 6a81 7f3f 8241 7f3f 020d 803f
00000050: 78f2 7f3f 15a4 7e3f 8653 7f3f e229 803f
00000060: 286c 7f3f 7f8b 7e3f 1f78 7e3f 82ad 803f
00000070: a24b 7e3f 423a 7e3f c696 7f3f 7116 803f
00000080: 8d3d 7f3f 56f4 7f3f ce10 803f 671b 7f3f
00000090: df65 813f 71af 803f 01ec 803f 5256 803f
000000a0: 264a 803f 010e 803f acb6 803f 0001 803f
000000b0: c754 803f 794a 7f3f 47eb 7f3f efc0 7e3f
000000c0: 08f3 7f3f 8e51 7f3f 992a 803f a8e1 7e3f
000000d0: 2d97 803f 5f94 803f a00b 813f 6e07 803f
000000e0: 43a8 803f 2bd1 7f3f aaa9 803f 6b94 7e3f
000000f0: 016e 7f3f 3086 7e3f b592 803f 32b0 803f
00000100: dd06 803f 7f03 7e3f f7e0 803f 3567 803f
00000110: 9fc8 7e3f 7170 7f3f 4ad3 7d3f ee39 803f
00000120: bbef 7f3f 7ec2 7e3f 31a5 7d3f 7134 7f3f
00000130: 546a 7e3f 5778 803f fad6 7d3f 0b08 813f
00000140: 7ecb 803f b369 7e3f 0e35 803f 0078 7f3f
00000150: 6294 803f 0e34 803f b788 803f e192 803f
00000160: ef29 803f e12e 803f f8d1 7f3f e237 803f
00000170: 38dc 803f 5ad6 7e3f e44a 803f 53c5 7f3f
00000180: 9d40 803f 356a 803f 60dd 7f3f ac7d 7f3f
00000190: 7a9c 7f3f a071 803f 0438 803f d5cf 7f3f
000001a0: 918d 803f f482 7e3f bddc 7f3f 4114 803f
000001b0: 6cb2 7e3f 4369 813f 28e1 7f3f acc9 7e3f
000001c0: d6e8 7d3f 37d0 803f cdb8 7f3f 0406 803f
000001d0: 4800 803f 2c04 813f 3608 803f 4501 803f
000001e0: 6172 7f3f 2e82 803f 7721 803f 9d12 803f
000001f0: a319 813f 035b 7f3f 0b27 7f3f 4f08 803f

encoder.feature_extract.mlps.0.batch_norms.1.bias f4 [128]
-0.00015411376 0.009190012 0.0028875493 0.003930332 0.0013860475 -0.0077828714 0.0032079252 0.0043336498
0.0033410098 -0.0014377726 -0.00011309123 -0.0011686375 0.0037629649 0.0006619802 -0.0012686996 -0.0068451446
-0.007105522 -0.011459574 -0.0030610268 -0.00052533846 0.0036907839 -0.0018475048 -0.0042350837 -0.008209986
-0.0095599145 -0.0008049067 -0.0033437228 -0.0006066325 -0.0012221478 -0.0027773634 -0.009345154 0.004683875
-0.005514697 -0.009903384 0.0046568844 -0.004524978 -0.008290287 0.0012401226 0.0136684785 0.0037552665
0.004640857 -0.0014029621 0.007829349 0.0030315511 -0.004810937 -0.0058088475 0.001793044 -0.0052823317
0.009395919 0.0040581836 -0.0064158766 0.0011958445 0.008362353 0.007173378 -0.0006397914 -0.0029930845
0.0047373995 -0.0061822166 0.00013545642 -0.0061767353 0.0033664156 0.0013600992 0.0007655939 0.0034154681
0.002652893 -5.425407e-05 0.0045424527 0.0037503017 -0.007600277 -0.0028222124 -0.008883218 -0.0060512503
0.0010403562 -0.004711912 -0.007384517 0.0050578956 -0.013213974 -0.0009939536 -0.0033280982 0.0037851173
0.0098507255 -0.006850321 -0.0015030475 0.00047758772 0.006927928 -0.0035284446 0.004683648 -0.00022682972
0.0038970723 0.0023893407 0.0026463242 0.0068919947 0.0037719815 -0.0029555906 0.0025658342 0.005870286
-0.0006916174 0.0042904993 0.0018461068 -0.0033500532 0.0020590986 3.1361218e-05 0.005409481 -0.004938583
0.003476881 0.0011219314 0.0045989347 0.0074530044 0.0025908565 0.0054153763 -0.0036388594 -0.0041248193
-0.00605754 0.0015847404 -0.0048835212 2.1523667e-05 0.0076709385 0.0107615255 -0.0030131594 -0.0019128994
-0.0064667515 0.0007651569 -0.0013707882 -0.0025634095 0.0104399435 0.003542307 -0.0018207524 -0.0027808393
00000000: 9999 21b9 b491 163c 0a3d 3d3b 04ca 803b
00000010: 09ac b53a 7507 ffbb 0e3c 523b 4a01 8e3b
00000020: d8f4 5a3b a573 bcba 642b edb8 f82c 99ba
00000030: 139c 763b bd88 2d3a 7f4a a6ba 3c4d e0bb
00000040: 70d5 e8bb f0c0 3bbc 829b 48bb deb6 09ba
00000050: 14e1 713b f927 f2ba 75c6 8abb 2d83 06bc
00000060: 30a1 1cbc 6000 53ba 5c22 5bbb 6b06 1fba
00000070: 7a30 a0ba 6d04 36bb 6b1c 19bc 317b 993b
00000080: a2b4 b4bb ce41 22bc c798 983b 4446 94bb
00000090: fcd3 07bc 9c8b a23a c1f1 5f3c eb1a 763b
000000a0: 5512 983b 99e3 b7ba ab46 003c fdac 463b
000000b0: 11a5 9dbb 2558 bebb 9304 eb3a 6917 adbb
000000c0: 57f1 193c 83fa 843b 463c d2bb e2bd 9c3a
000000d0: 4002 093c a80e eb3b adb7 27ba a027 44bb
000000e0: 303c 9b3b 3194 cabb 4e09 0e39 3666 cabb
000000f0: 159f 5c3b 5b45 b23a 23b2 483a 0cd6 5f3b
00000100: 29dc 2d3b dd8e 63b8 dbd8 943b 9fc7 753b
00000110: bf0b f9bb def4 38bb eb8a 11bc 9149 c6bb
00000120: 905c 883a 6266 9abb d2f9 f1bb b4bc a53b
00000130: 6d7f 58bc 8c47 82ba 391c 5abb bb0f 783b
00000140: f064 213c a878 e0bb e801 c5ba bd64 fa39
00000150: ac03 e33b 7a3d 67bb 4979 993b 24d9 6db9
00000160: 0666 7f3b 7c96 1c3b f46d 2d3b 3ed6 e13b
00000170: 5933 773b 95b2 41bb 8e27 283b 875b c03b
00000180: a84d 35ba 5197 8c3b 11f9 f13a 918c 5bbb
00000190: f1f1 063b da89 0338 0442 b13b d6d3 a1bb
000001a0: 62dc 633b c50d 933a a9b2 963b 5538 f43b
000001b0: 5ccb 293b 7873 b13b ee79 6ebb 7e29 87bb
000001c0: 547e c6bb 10b7 cf3a f205 a0bb b98d b437
000001d0: 7f5c fb3b 1c51 303c 6d78 45bb 41ba faba
000001e0: 0be7 d3bb cf94 483a 05ac b3ba e0fe 27bb
000001f0: 4c0c 2b3c 0d26 683b 50a6 eeba be3e 36bb
