FJSP_MultiPPO/saved_network/FJSP_J15M15/best_value00/policy_mch.pth (torch_old, 271482 bytes, 14 tensors)

bn.weight f4 [128]
00000000: 44fe 7e3f dcfa 7e3f 84f7 7f3f 1870 803f
00000010: 2b8b 7e3f 33a8 7c3f d7c5 803f 2fc7 7f3f
00000020: 3392 7e3f ebd3 7f3f ebdd 803f 4188 7e3f
00000030: f31f 7f3f 87b3 7d3f 47b1 7e3f 1ce9 7d3f
00000040: 603c 7f3f 8eb5 7f3f 5920 803f f4a3 7f3f
00000050: f073 7f3f bee3 803f 96ae 7f3f 1ce5 7d3f
00000060: 9faa 803f a12b 813f 12a2 7e3f 9395 803f
00000070: 0759 7f3f 43f1 7f3f 81bb 7e3f c881 7f3f
00000080: cd3d 803f 7e8a 7f3f 1098 7f3f 270b 803f
00000090: d381 803f 2405 7f3f 9544 7d3f 5217 7f3f
000000a0: d274 7f3f 84d7 7f3f 2b9b 7e3f 12fb 7d3f
000000b0: 5b27 803f bd68 803f 50c2 7f3f f993 7f3f
000000c0: c3b8 7e3f b4a4 7f3f 0a35 7f3f 7a02 803f
000000d0: 3cef 7f3f 0af6 7e3f 9e26 803f 1252 7f3f
000000e0: ea9c 7f3f 9435 803f 5575 803f c296 7f3f
000000f0: b541 7f3f 6202 803f 46de 803f 9304 813f
00000100: cb43 7f3f 6c26 7e3f 5e10 7f3f 469d 7f3f
00000110: ccd0 803f ae2c 7f3f cdff 803f 2ec9 7e3f
00000120: d6df 7e3f 7209 7e3f 8bc1 7e3f 326a 803f
00000130: 1485 7e3f e080 7f3f 7a9a 7f3f ae5a 803f
00000140: 5768 7f3f a741 7e3f dbdb 7e3f 4e7b 7f3f
00000150: b985 7e3f 9bd8 803f ed6f 7e3f 29c4 7f3f
00000160: 8ff1 803f c027 7e3f c187 7e3f d9b9 7f3f
00000170: cbd1 7e3f cb42 7e3f b139 7f3f d61f 803f
00000180: 56dc 803f 55c0 803f d1e7 803f 136f 7e3f
00000190: 6445 803f 51f0 7e3f 4e62 803f b09a 7e3f
000001a0: 6509 7f3f fe38 803f 9a88 7f3f 03b5 7e3f
000001b0: 21e1 7f3f 4bdc 7f3f 1863 803f 277f 7d3f
000001c0: cbbd 803f 8fc6 7f3f 6cd7 7e3f 8498 7f3f
000001d0: d7ca 803f e078 7f3f f5fd 7e3f 08e7 7f3f
000001e0: c869 7f3f 4fc0 7e3f 698a 803f fabd 7f3f
000001f0: de47 7f3f 819d 7f3f 5e10 803f f992 7e3f
0.9960673 0.9960153 0.99987054 1.0034208 0.99431103 0.9869415 1.0060376 0.99913305
0.9944183 0.99932736 1.0067724 0.99426657 0.99658126 0.9910206 0.99489254 0.9918382
0.997015 0.99886405 1.0009872 0.9985955 0.9978628 1.0069501 0.9987577 0.9917772
1.005207 1.009144 0.9946605 1.0045646 0.9974522 0.9997751 0.9950486 0.99807405
1.001886 0.998207 0.99841404 1.0003403 1.0039619 0.9961722 0.9893277 0.9964496
0.9978763 0.99938226 0.9945552 0.9921123 1.001201 1.0031964 0.9990587 0.99835163
0.99500674 0.9986069 0.99690306 1.0000756 0.9997442 0.99594176 1.0011785 0.99734604
0.99848807 1.0016351 1.0035807 0.99839413 0.99709636 1.0000727 1.0067832 1.0079521
0.9971282 0.9927738 0.9963435 0.99849355 1.006372 0.9967755 1.0078064 0.99525726
0.99560297 0.9923316 0.99514073 1.0032408 0.9942181 0.9980602 0.9984509 1.0027673
0.99768585 0.9931893 0.9955422 0.99797523 0.99422795 1.0066103 0.99389535 0.9990869
1.0073718 0.99279404 0.99425894 0.99892956 0.9953887 0.9932067 0.99697405 1.0009716
1.0067241 1.0058695 1.0070745 0.99388236 1.0021176 0.99585444 1.003 0.99454784
0.9962371 1.0017393 0.9981781 0.9949495 0.99952894 0.99945515 1.0030241 0.99022144
1.005792 0.9991235 0.9954746 0.99842095 1.0061902 0.99793816 0.9960626 0.999619
0.99770784 0.9951219 1.004224 0.99899256 0.99719036 0.99849707 1.0004995 0.9944301

bn.bias f4 [128]
00000000: 50e2 6c3b 2600 6dbb 1011 b3bb 9fe0 8e3b
00000010: f414 c43a 17a7 70bb 7834 7cbb 6b11 f83b
00000020: 8ad2 77bb 0e2f 2f39 14fd a2bb 5cad e8ba
00000030: 5a34 f8ba 007b 88bb f7fa 603a d9c2 463b
00000040: b233 123b 6bb2 293b 8abb ca3b 57e1 81bb
00000050: a084 05bb 7c68 b2bb 288a 79bb 1353 d53b
00000060: bb3e fb3b 6df4 1cbb 535e 823a db40 2a39
00000070: b292 463b fab9 963a 0e0f 52ba e8fc 013a
00000080: 52a3 243b 7030 abbb 94bf 55bb eb2a b03a
00000090: c541 93bb a1a5 bd3a 5df4 de3b 03ec 9f3a
000000a0: 74af 863b 2c24 b0bb dde7 3c3b 7ee6 65bb
000000b0: 2c98 57bb 69fc 1dbb 9a34 bcbb 3f0d 453a
000000c0: 9a1d 023b d782 b8bb 0da7 3bbb b361 aa3a
000000d0: 2703 9cbb b325 87bb 6772 443b 3d3b eabb
000000e0: d936 cdbb bb2e e43b dd04 c83b 3446 7cba
000000f0: 6981 123b a975 a63b 8833 3abb 964f 173a
00000100: bf02 cabb 5e7e aab8 4d00 17bc ceee dd3b
00000110: 3fb2 deba 879f e0bb 22ef 8939 e4e1 a2b9
00000120: 251a 52bb 627a d6ba de80 1dbb 2e47 e6bb
00000130: f058 d63b b8d7 6ebb 6e91 223b 1497 abba
00000140: af52 033b 670d a03a e4e3 463b 2d55 4b3a
00000150: 4fca 063a 2bb9 2b3b f39e 83bb 8c8b dc3a
00000160: db98 99ba a1b7 15bb 370e a43b e282 54bb
00000170: 5527 433b 9490 19bc d869 9ebb 97c6 8eba
00000180: 67e2 f13b 3851 76bb 20b2 1a3a 536b cabb
00000190: 99d3 01bb e140 e23a cd54 16bb 2640 0cbb
000001a0: 7f79 c4bb 7c11 8c3b c984 943b 8399 b6ba
000001b0: 27d2 93bb febb 8d3b a85e 6f3b daf8 e6bb
000001c0: 12cb acbb 8287 333b 1f5b a2bb 4d78 da3a
000001d0: 29b8 31ba 7f6b 2eb9 2d2c 81bb ec3a 74bb
000001e0: 5a73 4138 2e87 8eb9 1503 0ebb ba0a 4c3a
000001f0: 9ec8 22ba fe7b 683b da51 8d3b 5b40 043b
0.0036145635 -0.0036163419 -0.0054646805 0.004360273 0.0014959858 -0.0036720687 -0.0038483422 0.0075704358
-0.00378147 0.0001670683 -0.004974017 -0.001775186 -0.00189365 -0.0041650534 0.00085823186 0.003032854
0.0022308645 0.00258937 0.006186907 -0.00396363 -0.002037324 -0.0054445844 -0.0038076732 0.0065101474
0.00766739 -0.00239494 0.0009946324 0.00016236624 0.003029984 0.0011499517 -0.00080131076 0.00049586454
0.002512176 -0.00522428 -0.003261541 0.0013440525 -0.0044939243 0.0014468917 0.0068040327 0.0012201074
0.004110271 -0.005375406 0.0028824725 -0.003508001 -0.0032897098 -0.0024106747 -0.0057435753 0.00075169274
0.001985407 -0.0056308317 -0.0028633506 0.0012999087 -0.004761118 -0.004124367 0.0029975416 -0.007148175
-0.006262642 0.0069635785 0.0061040954 -0.0009623498 0.0022354966 0.005079944 -0.0028412063 0.0005772052
-0.006164878 -8.1297694e-05 -0.00921638 0.0067728525 -0.0016990377 -0.0068549546 0.00026308844 -0.0003106735
-0.003205904 -0.0016363377 -0.002403311 -0.0070275282 0.006541364 -0.0036444496 0.002480592 -0.001309129
0.0020038297 0.0012211025 0.0030348236 0.00077565276 0.00051418407 0.0026202898 -0.004016751 0.0016826256
-0.0011718528 -0.0022845047 0.0050065774 -0.0032426645 0.0029778082 -0.009372849 -0.004834395 -0.0010892925
0.0073817256 -0.0037585031 0.00059011765 -0.006177345 -0.001980996 0.0017261767 -0.0022938729 -0.002140054
-0.005995929 0.0042745452 0.004532431 -0.0013931248 -0.004511136 0.004325389 0.0036524925 -0.0070487084
-0.0052732313 0.0027394001 -0.00495471 0.0016667933 -0.0006779456 -0.00016633979 -0.0039420337 -0.0037266565
4.6122215e-05 -0.00027185067 -0.0021669318 0.0007783581 -0.0006209704 0.0035474296 0.004312736 0.002017996

bn.running_mean f4 [128]
00000000: 359b 403e e588 3abe 0a51 fa3d 2b13 96bd
00000010: 202c 913d 115a e2bd 01cd a7bc ee4c debd
00000020: 1ce3 b8bd 4722 af3d 14cb cd3d 12d3 4d3e
00000030: 31e3 043d 98e0 62be b58a 893d f93e e83d
00000040: 6cdc debd 11ca e5bd aa4e 33be 4088 6abd
00000050: 3dc1 3b3e 83ee d73d dab5 b9bd abb2 1cbe
00000060: 6ecd 40be ede3 4b3e 8b91 febd 86db 17be
00000070: 6aab 07be b538 083e b851 f5bd 54ae 08be
00000080: 87b3 cabc d1b2 1a3e 6e26 0d3e fa63 29be
00000090: 8ab5 7bbd f99c 82bb cac4 643d e93e 2fbe
000000a0: 3007 b63c 5696 093e 5cfd d4bc c197 143e
000000b0: 5517 77bd d6cc 493d 65de b9bc 3539 b03d
000000c0: 5683 b2bd 8b6f 043e 2b15 153e 820c 2e3a
000000d0: dc97 113e a7c6 083e 040d 41be f949 b93d
000000e0: 1368 943d 0b31 14bd 4625 e4bd 5ab9 13be
000000f0: b53e 21be 29f3 47be 841c c7bd c445 1a3e
00000100: 60cc c33d 04b4 dbbd 46ea 12be 11ce 793d
00000110: df6c 8d3d b1df 253e 50f8 b23d 6698 d73d
00000120: 1883 69bd 2011 23be ac5d d03d da3f 57be
00000130: 6c3d e73d 6c7c 8e3d fcf8 47be 559c c1bd
00000140: bd4d 153e a64c 27be eaac 2bbe 53e6 983d
00000150: 3950 08be e4b9 87bd d1a0 413d 2201 0c3d
00000160: c007 d7bd 4631 b43d a151 70bd b8e5 203d
00000170: 9067 0a3d d5aa 2e3e 13c8 1c3e 7e9b 333e
00000180: a7d3 82bd c12f ccbc bc4c 0fbe 10b6 083d
00000190: df09 febd df36 d53d 3adf 22be d999 a5bc
000001a0: cd19 293e ab8e ff3d 8535 2fbd 0fec 823d
000001b0: 15c1 9f3d c881 083e 262d 9b3d 5a41 d23d
000001c0: 8b28 353e 1445 0cbe becd b6bd cde3 fdbd
000001d0: 3a47 263d 921f e7bd 96e1 d3bd 0748 bf3d
000001e0: ee97 a53d b490 c33d 6a44 b8bd 19ee cf3d
000001f0: e81c 02be a0c0 333e 997a 7cbc 3b15 2bbe
0.18809207 -0.18216284 0.12222488 -0.07327875 0.07088494 -0.11052335 -0.020483496 -0.10854517
-0.09027693 0.0855146 0.100485 0.20100048 0.03244323 -0.22155988 0.067159094 0.11340136
-0.10881886 -0.11220182 -0.17510477 -0.057258844 0.18335433 0.105435394 -0.090678886 -0.15302531
-0.18828365 0.19911166 -0.12430104 -0.14829835 -0.13248983 0.13302882 -0.11978477 -0.13347751
-0.024743808 0.15107276 0.13784191 -0.16542044 -0.061452426 -0.0039859978 0.055851735 -0.17113842
0.022220224 0.13436255 -0.025999717 0.14511015 -0.060324986 0.049267612 -0.022689054 0.086046614
-0.087164566 0.12933175 0.14558856 0.0006639437 0.14218086 0.1335703 -0.18852621 0.09047312
0.07246413 -0.036179584 -0.11139922 -0.14426175 -0.15746577 -0.19526352 -0.09722236 0.15065676
0.09560466 -0.10727695 -0.1434718 0.060987536 0.06905531 0.16198613 0.08738768 0.105271146
-0.057009786 -0.15924501 0.101741165 -0.21020451 0.11291012 0.06957325 -0.19528574 -0.09453646
0.14580436 -0.16337833 -0.1676518 0.07465806 -0.13311853 -0.06627253 0.047272507 0.034180768
-0.10499525 0.08798461 -0.058671597 0.039281577 0.03379017 0.17057355 0.15310697 0.17539784
-0.06388026 -0.024925115 -0.13994116 0.033376753 -0.124042265 0.104108565 -0.15905467 -0.020214962
0.16513748 0.12478384 -0.04277565 0.06392681 0.07800499 0.13330758 0.07576971 0.10266371
0.17691247 -0.13698226 -0.08925961 -0.12396965 0.04059527 -0.112853184 -0.103457615 0.0933991
0.08085619 0.09549084 -0.08997424 0.101528354 -0.1270634 0.1755395 -0.015410089 -0.16707318

bn.running_var f4 [128]
00000000: 46ae 9439 1365 b439 25f8 4e39 2f45 4639
00000010: 8e06 1939 32c2 4239 6a79 a537 ed2d f938
00000020: fa87 1a39 eb4a 8939 4392 7f39 ffa3 c639
00000030: a558 1f37 bc2f fb39 4235 1938 9ad0 8739
00000040: 7cf4 ed38 9b24 d438 70c7 9f39 c237 ad38
00000050: 1ffd 8c39 f0fe 8439 ce23 5539 6c23 cf39
00000060: 82b2 9839 d2b7 d739 20f9 2439 a9bc a239
00000070: 336f 4c39 1f3d 1439 5223 9039 57dc b939
00000080: dba6 0c39 da42 4039 6d6e 4039 b583 6939
00000090: cd2f 5138 a953 9c38 76cd 7439 61c0 9339
000000a0: c368 b036 9d85 1739 af9b 9a37 3d30 8339
000000b0: 83de fd37 9cb4 bf38 97f8 7b39 1441 b138
000000c0: 2af0 7239 87c7 8f39 3905 5739 a539 6c38
000000d0: fa5c 3339 a8dd 1c39 6dbf 9e39 ebdd 3f39
000000e0: 6d0a 7e38 9714 1339 653f 7e39 7507 f739
000000f0: 12b6 5239 925e 9f39 753c 7139 8b54 9a39
00000100: 3657 0139 593e c439 b711 3939 0751 f338
00000110: bb37 6739 cfe0 6539 7178 2239 1dfd 0539
00000120: 7293 1639 05be 8339 21be d238 c3ff fc39
00000130: 61ca b639 551b 6238 be71 9f39 65dc 9d38
00000140: fd3c 3239 9f22 8c39 9259 8d39 6766 8238
00000150: 0c18 4539 a03c 3038 98c3 ca37 8684 e037
00000160: de9e 3739 0170 8338 5f87 cc38 da29 f737
00000170: 3b61 0238 4f76 8839 4341 0a3a 19d2 c039
00000180: fdf4 9638 10c2 ee37 3e99 6c39 a4b6 b337
00000190: 998f 1939 9514 d338 3db4 8939 313f a338
000001a0: dced 8a39 8731 8239 0331 3939 8589 3638
000001b0: 6598 4c38 33cc c039 f60a 8138 caab c539
000001c0: 44b5 9d39 b855 a939 5ad6 5c39 8c5c 8839
000001d0: 6abd 0f39 f947 d538 451a b139 b7c7 b038
000001e0: 78c6 cb38 f771 6d39 c44d 1039 87f2 ac38
000001f0: b967 2739 c44d 8139 a2f3 f537 7b21 b839
0.00028358604 0.00034407582 0.00019738132 0.00018908524 0.00014593659 0.00018573625 1.972607e-05 0.000118817996
0.0001473724 0.00026186495 0.00024373182 0.0003788769 9.497778e-06 0.00047910016 3.6527643e-05 0.00025904627
0.000113465794 0.00010115766 0.00030475436 8.2596685e-05 0.0002689147 0.00025366945 0.00020326601 0.00039508508
0.00029124698 0.00041144952 0.00015733065 0.0003103961 0.00019496381 0.00014137149 0.00027492136 0.00035450116
0.00013413599 0.00018335451 0.00018351684 0.00022269676 4.9874e-05 7.4542426e-05 0.00023346193 0.00028181358
5.2574046e-06 0.00014450257 1.8430726e-05 0.00025022207 3.0263565e-05 9.141231e-05 0.00024029832 8.4521394e-05
0.00023168387 0.00027423745 0.00020505943 5.632047e-05 0.00017105407 0.00014959893 0.00030278732 0.0001829785
6.056803e-05 0.00014026683 0.00024246944 0.00047117067 0.00020094987 0.00030397304 0.00023006073 0.00029436158
0.00012334887 0.00037430486 0.00017649574 0.000116022355 0.00022050638 0.0002192289 0.00015494392 0.0001277816
0.00014360042 0.00025127843 0.000100489946 0.00048255743 0.0003486453 5.3908054e-05 0.00030411588 7.527395e-05
0.00016998123 0.00026728676 0.0002696035 6.217957e-05 0.00018796342 4.201813e-05 2.4171357e-05 2.6764592e-05
0.00017511423 6.267429e-05 9.752693e-05 2.9464183e-05 3.108497e-05 0.00026028088 0.0005274007 0.0003677763
7.19819e-05 2.8462178e-05 0.00022563801 2.1423511e-05 0.00014644711 0.00010065098 0.00026264964 7.784216e-05
0.0002649863 0.00024832433 0.00017661233 4.3520256e-05 4.877932e-05 0.00036773234 6.153241e-05 0.0003770276
0.00030080427 0.00032298057 0.00021060687 0.00026008894 0.00013708105 0.000101700374 0.00033779643 8.429534e-05
9.716762e-05 0.00022644537 0.0001376188 8.246773e-05 0.00015965001 0.00024662737 2.9319726e-05 0.0003512016

bn1.weight f4 [128]
00000000: 0000 803f 0000 803f 0000 803f 0000 803f
00000010: 0000 803f 0000 803f 0000 803f 0000 803f
00000020: 0000 803f 0000 803f 0000 803f 0000 803f
00000030: 0000 803f 0000 803f 0000 803f 0000 803f
00000040: 0000 803f 0000 803f 0000 803f 0000 803f
00000050: 0000 803f 0000 803f 0000 803f 0000 803f
00000060: 0000 803f 0000 803f 0000 803f 0000 803f
00000070: 0000 803f 0000 803f 0000 803f 0000 803f
00000080: 0000 803f 0000 803f 0000 803f 0000 803f
00000090: 0000 803f 0000 803f 0000 803f 0000 803f
000000a0: 0000 803f 0000 803f 0000 803f 0000 803f
000000b0: 0000 803f 0000 803f 0000 803f 0000 803f
000000c0: 0000 803f 0000 803f 0000 803f 0000 803f
000000d0: 0000 803f 0000 803f 0000 803f 0000 803f
000000e0: 0000 803f 0000 803f 0000 803f 0000 803f
000000f0: 0000 803f 0000 803f 0000 803f 0000 803f
00000100: 0000 803f 0000 803f 0000 803f 0000 803f
00000110: 0000 803f 0000 803f 0000 803f 0000 803f
00000120: 0000 803f 0000 803f 0000 803f 0000 803f
00000130: 0000 803f 0000 803f 0000 803f 0000 803f
00000140: 0000 803f 0000 803f 0000 803f 0000 803f
00000150: 0000 803f 0000 803f 0000 803f 0000 803f
00000160: 0000 803f 0000 803f 0000 803f 0000 803f
00000170: 0000 803f 0000 803f 0000 803f 0000 803f
00000180: 0000 803f 0000 803f 0000 803f 0000 803f
00000190: 0000 803f 0000 803f 0000 803f 0000 803f
000001a0: 0000 803f 0000 803f 0000 803f 0000 803f
000001b0: 0000 803f 0000 803f 0000 803f 0000 803f
000001c0: 0000 803f 0000 803f 0000 803f 0000 803f
000001d0: 0000 803f 0000 803f 0000 803f 0000 803f
000001e0: 0000 803f 0000 803f 0000 803f 0000 803f
000001f0: 0000 803f 0000 803f 0000 803f 0000 803f
1.0 1.0 1.0 1.0 1.0 1.0 1.0 1.0
1.0 1.0 1.0 1.0 1.0 1.0 1.0 1.0
1.0 1.0 1.0 1.0 1.0 1.0 1.0 1.0
1.0 1.0 1.0 1.0 1.0 1.0 1.0 1.0
1.0 1.0 1.0 1.0 1.0 1.0 1.0 1.0
1.0 1.0 1.0 1.0 1.0 1.0 1.0 1.0
1.0 1.0 1.0 1.0 1.0 1.0 1.0 1.0
1.0 1.0 1.0 1.0 1.0 1.0 1.0 1.0
1.0 1.0 1.0 1.0 1.0 1.0 1.0 1.0
1.0 1.0 1.0 1.0 1.0 1.0 1.0 1.0
1.0 1.0 1.0 1.0 1.0 1.0 1.0 1.0
1.0 1.0 1.0 1.0 1.0 1.0 1.0 1.0
1.0 1.0 1.0 1.0 1.0 1.0 1.0 1.0
1.0 1.0 1.0 1.0 1.0 1.0 1.0 1.0
1.0 1.0 1.0 1.0 1.0 1.0 1.0 1.0
1.0 1.0 1.0 1.0 1.0 1.0 1.0 1.0

bn1.bias f4 [128]
00000000: 0000 0000 0000 0000 0000 0000 0000 0000
00000010: 0000 0000 0000 0000 0000 0000 0000 0000
00000020: 0000 0000 0000 0000 0000 0000 0000 0000
00000030: 0000 0000 0000 0000 0000 0000 0000 0000
00000040: 0000 0000 0000 0000 0000 0000 0000 0000
00000050: 0000 0000 0000 0000 0000 0000 0000 0000
00000060: 0000 0000 0000 0000 0000 0000 0000 0000
00000070: 0000 0000 0000 0000 0000 0000 0000 0000
00000080: 0000 0000 0000 0000 0000 0000 0000 0000
00000090: 0000 0000 0000 0000 0000 0000 0000 0000
000000a0: 0000 0000 0000 0000 0000 0000 0000 0000
000000b0: 0000 0000 0000 0000 0000 0000 0000 0000
000000c0: 0000 0000 0000 0000 0000 0000 0000 0000
000000d0: 0000 0000 0000 0000 0000 0000 0000 0000
000000e0: 0000 0000 0000 0000 0000 0000 0000 0000
000000f0: 0000 0000 0000 0000 0000 0000 0000 0000
00000100: 0000 0000 0000 0000 0000 0000 0000 0000
00000110: 0000 0000 0000 0000 0000 0000 0000 0000
00000120: 0000 0000 0000 0000 0000 0000 0000 0000
00000130: 0000 0000 0000 0000 0000 0000 0000 0000
00000140: 0000 0000 0000 0000 0000 0000 0000 0000
00000150: 0000 0000 0000 0000 0000 0000 0000 0000
00000160: 0000 0000 0000 0000 0000 0000 0000 0000
00000170: 0000 0000 0000 0000 0000 0000 0000 0000
00000180: 0000 0000 0000 0000 0000 0000 0000 0000
00000190: 0000 0000 0000 0000 0000 0000 0000 0000
000001a0: 0000 0000 0000 0000 0000 0000 0000 0000
000001b0: 0000 0000 0000 0000 0000 0000 0000 0000
000001c0: 0000 0000 0000 0000 0000 0000 0000 0000
000001d0: 0000 0000 0000 0000 0000 0000 0000 0000
000001e0: 0000 0000 0000 0000 0000 0000 0000 0000
000001f0: 0000 0000 0000 0000 0000 0000 0000 0000
0.0 0.0 0.0 0.0 0.0 0.0 0.0 0.0
0.0 0.0 0.0 0.0 0.0 0.0 0.0 0.0
0.0 0.0 0.0 0.0 0.0 0.0 0.0 0.0
0.0 0.0 0.0 0.0 0.0 0.0 0.0 0.0
0.0 0.0 0.0 0.0 0.0 0.0 0.0 0.0
0.0 0.0 0.0 0.0 0.0 0.0 0.0 0.0
0.0 0.0 0.0 0.0 0.0 0.0 0.0 0.0
0.0 0.0 0.0 0.0 0.0 0.0 0.0 0.0
0.0 0.0 0.0 0.0 0.0 0.0 0.0 0.0
0.0 0.0 0.0 0.0 0.0 0.0 0.0 0.0
0.0 0.0 0.0 0.0 0.0 0.0 0.0 0.0
0.0 0.0 0.0 0.0 0.0 0.0 0.0 0.0
0.0 0.0 0.0 0.0 0.0 0.0 0.0 0.0
0.0 0.0 0.0 0.0 0.0 0.0 0.0 0.0
0.0 0.0 0.0 0.0 0.0 0.0 0.0 0.0
0.0 0.0 0.0 0.0 0.0 0.0 0.0 0.0

bn1.running_mean f4 [128]
00000000: 0000 0000 0000 0000 0000 0000 0000 0000
00000010: 0000 0000 0000 0000 0000 0000 0000 0000
00000020: 0000 0000 0000 0000 0000 0000 0000 0000
00000030: 0000 0000 0000 0000 0000 0000 0000 0000
00000040: 0000 0000 0000 0000 0000 0000 0000 0000
00000050: 0000 0000 0000 0000 0000 0000 0000 0000
00000060: 0000 0000 0000 0000 0000 0000 0000 0000
00000070: 0000 0000 0000 0000 0000 0000 0000 0000
00000080: 0000 0000 0000 0000 0000 0000 0000 0000
00000090: 0000 0000 0000 0000 0000 0000 0000 0000
000000a0: 0000 0000 0000 0000 0000 0000 0000 0000
000000b0: 0000 0000 0000 0000 0000 0000 0000 0000
000000c0: 0000 0000 0000 0000 0000 0000 0000 0000
000000d0: 0000 0000 0000 0000 0000 0000 0000 0000
000000e0: 0000 0000 0000 0000 0000 0000 0000 0000
000000f0: 0000 0000 0000 0000 0000 0000 0000 0000
00000100: 0000 0000 0000 0000 0000 0000 0000 0000
00000110: 0000 0000 0000 0000 0000 0000 0000 0000
00000120: 0000 0000 0000 0000 0000 0000 0000 0000
00000130: 0000 0000 0000 0000 0000 0000 0000 0000
00000140: 0000 0000 0000 0000 0000 0000 0000 0000
00000150: 0000 0000 0000 0000 0000 0000 0000 0000
00000160: 0000 0000 0000 0000 0000 0000 0000 0000
00000170: 0000 0000 0000 0000 0000 0000 0000 0000
00000180: 0000 0000 0000 0000 0000 0000 0000 0000
00000190: 0000 0000 0000 0000 0000 0000 0000 0000
000001a0: 0000 0000 0000 0000 0000 0000 0000 0000
000001b0: 0000 0000 0000 0000 0000 0000 0000 0000
000001c0: 0000 0000 0000 0000 0000 0000 0000 0000
000001d0: 0000 0000 0000 0000 0000 0000 0000 0000
000001e0: 0000 0000 0000 0000 0000 0000 0000 0000
000001f0: 0000 0000 0000 0000 0000 0000 0000 0000
0.0 0.0 0.0 0.0 0.0 0.0 0.0 0.0
0.0 0.0 0.0 0.0 0.0 0.0 0.0 0.0
0.0 0.0 0.0 0.0 0.0 0.0 0.0 0.0
0.0 0.0 0.0 0.0 0.0 0.0 0.0 0.0
0.0 0.0 0.0 0.0 0.0 0.0 0.0 0.0
0.0 0.0 0.0 0.0 0.0 0.0 0.0 0.0
0.0 0.0 0.0 0.0 0.0 0.0 0.0 0.0
0.0 0.0 0.0 0.0 0.0 0.0 0.0 0.0
0.0 0.0 0.0 0.0 0.0 0.0 0.0 0.0
0.0 0.0 0.0 0.0 0.0 0.0 0.0 0.0
0.0 0.0 0.0 0.0 0.0 0.0 0.0 0.0
0.0 0.0 0.0 0.0 0.0 0.0 0.0 0.0
0.0 0.0 0.0 0.0 0.0 0.0 0.0 0.0
0.0 0.0 0.0 0.0 0.0 0.0 0.0 0.0
0.0 0.0 0.0 0.0 0.0 0.0 0.0 0.0
0.0 0.0 0.0 0.0 0.0 0.0 0.0 0.0

bn1.running_var f4 [128]
00000000: 0000 803f 0000 803f 0000 803f 0000 803f
00000010: 0000 803f 0000 803f 0000 803f 0000 803f
00000020: 0000 803f 0000 803f 0000 803f 0000 803f
00000030: 0000 803f 0000 803f 0000 803f 0000 803f
00000040: 0000 803f 0000 803f 0000 803f 0000 803f
00000050: 0000 803f 0000 803f 0000 803f 0000 803f
00000060: 0000 803f 0000 803f 0000 803f 0000 803f
00000070: 0000 803f 0000 803f 0000 803f 0000 803f
00000080: 0000 803f 0000 803f 0000 803f 0000 803f
00000090: 0000 803f 0000 803f 0000 803f 0000 803f
000000a0: 0000 803f 0000 803f 0000 803f 0000 803f
000000b0: 0000 803f 0000 803f 0000 803f 0000 803f
000000c0: 0000 803f 0000 803f 0000 803f 0000 803f
000000d0: 0000 803f 0000 803f 0000 803f 0000 803f
000000e0: 0000 803f 0000 803f 0000 803f 0000 803f
000000f0: 0000 803f 0000 803f 0000 803f 0000 803f
00000100: 0000 803f 0000 803f 0000 803f 0000 803f
00000110: 0000 803f 0000 803f 0000 803f 0000 803f
00000120: 0000 803f 0000 803f 0000 803f 0000 803f
00000130: 0000 803f 0000 803f 0000 803f 0000 803f
00000140: 0000 803f 0000 803f 0000 803f 0000 803f
00000150: 0000 803f 0000 803f 0000 803f 0000 803f
00000160: 0000 803f 0000 803f 0000 803f 0000 803f
00000170: 0000 803f 0000 803f 0000 803f 0000 803f
00000180: 0000 803f 0000 803f 0000 803f 0000 803f
00000190: 0000 803f 0000 803f 0000 803f 0000 803f
000001a0: 0000 803f 0000 803f 0000 803f 0000 803f
000001b0: 0000 803f 0000 803f 0000 803f 0000 803f
000001c0: 0000 803f 0000 803f 0000 803f 0000 803f
000001d0: 0000 803f 0000 803f 0000 803f 0000 803f
000001e0: 0000 803f 0000 803f 0000 803f 0000 803f
000001f0: 0000 803f 0000 803f 0000 803f 0000 803f
1.0 1.0 1.0 1.0 1.0 1.0 1.0 1.0
1.0 1.0 1.0 1.0 1.0 1.0 1.0 1.0
1.0 1.0 1.0 1.0 1.0 1.0 1.0 1.0
1.0 1.0 1.0 1.0 1.0 1.0 1.0 1.0
1.0 1.0 1.0 1.0 1.0 1.0 1.0 1.0
1.0 1.0 1.0 1.0 1.0 1.0 1.0 1.0
1.0 1.0 1.0 1.0 1.0 1.0 1.0 1.0
1.0 1.0 1.0 1.0 1.0 1.0 1.0 1.0
1.0 1.0 1.0 1.0 1.0 1.0 1.0 1.0
1.0 1.0 1.0 1.0 1.0 1.0 1.0 1.0
1.0 1.0 1.0 1.0 1.0 1.0 1.0 1.0
1.0 1.0 1.0 1.0 1.0 1.0 1.0 1.0
1.0 1.0 1.0 1.0 1.0 1.0 1.0 1.0
1.0 1.0 1.0 1.0 1.0 1.0 1.0 1.0
1.0 1.0 1.0 1.0 1.0 1.0 1.0 1.0
1.0 1.0 1.0 1.0 1.0 1.0 1.0 1.0

fc2.weight f4 [128, 2]
00000000: e01d 263f ec39 573e a968 10bf 146e 0cbf
00000010: 65a6 003f b31c 98be 8a88 1fbe 711f 1abf
00000020: f84d ab3e 769f cebe 7ca7 eebe aca7 a93e
00000030: b38b 1bbd 70ee 4abe 1e7d adbe 4ee5 9fbe
00000040: 7fed c8be 51b4 aa3e fd98 d63e 70ea 11bf
00000050: 265f 7b3e f1a1 273f ca45 243f 0984 003f
00000060: 3bfe fa3d a1f3 a9bc 33ce 32bf f8d4 19bf
00000070: 9da2 773e 1b54 a93c f391 003f 49df efbe
00000080: 28a5 b0be 47b8 91be f349 cdbe dddc 50bd
00000090: 84cd 2dbf 9f7e 523e b83c 0dbe f867 c4be
000000a0: 927a 223f 8516 463e 1245 863e 607a 293f
000000b0: db06 d5be e58a e73e 0b42 28bf 46c4 053f
000000c0: 7b4f 2fbf 7217 afbc fccd 1d3f 53b6 193f
000000d0: 481c c6be 141d babe f074 d8be 1c60 24bf
000000e0: b8cd 06bf 5405 663e 1061 ec3e c624 093e
000000f0: 09c9 a0be 6372 2abf e802 17bf 9773 0b3f
00000100: eb22 083c d7a8 07bf 9b06 053f c15f 353e
00000110: 11d9 073f 5fea 10be c0e3 0fbf 898f 6cbe
00000120: f68e 36be 3e7b 7fbe 4e59 b0bd 1c5d c43e
00000130: ac18 a23e 7d1d 1abf fbb8 0abf 641e e7be
00000140: 173f b33d b7f0 08bd 608c f43e 49a7 983d
00000150: 97b2 79bd 9c85 3bbe a3ad 153f 43c7 93be
00000160: 27fb 4ebe 0cc3 cbbd fb65 d03d 8d72 d73e
00000170: d20d 55be e3a9 2b3f 2617 b03e 6c06 20be
00000180: cc7a d4be bcf3 033f 8959 b53e 3141 233f
00000190: 32a0 eb3e 6cc0 c63e c447 853d 90fe abbe
000001a0: 3d5d 063f a181 cfbc a622 e43e 3b6d 6c3e
000001b0: c6ab 32bf 9e45 353d 46de d03e a64f d3be
000001c0: 1e9b 943e d61a 0abe 4c54 01bd 9c56 0abf
000001d0: 28af 94be efc7 20bf 90e3 26bf d46e 2a3f
000001e0: 2070 09bf 9227 57be fea9 2ebf 01f4 2fbe
000001f0: df8d 72be 9c11 23bf 37da e03e b8b5 193f
00000200: 8c0c ca3e 0d6b 76be 0c46 04bf 7f8c 2a3f
00000210: e175 f2be 5fd8 8cbe 9545 953e 8ae2 bbbe
00000220: 8142 043e 8079 293f ff31 183f 2202 29bc
00000230: 5bb3 663e 9092 013f c2de d73e 9478 48be
00000240: adc9 94be 333d e13e 99f1 1dbf 44ea 3c3e
00000250: 7ecc c83e 1480 dbbd d53b 24bf 86f1 2ebf
00000260: 99fd 063f 6bd4 1cbf ac44 583e 0dd9 6d3e
00000270: d772 2ebf d504 35be 171a a1be 373e 2bbe
00000280: 7f71 043f 5116 b03d 2474 22bf c99e 4a3e
00000290: d1ee 24bf 98f4 293e 0210 983e 001b 03be
000002a0: ea1d 06bf cca9 4a3e 5a44 57be a0ea 30be
000002b0: 5721 143e f842 1b3e a47d 1e3e 2b42 23be
000002c0: 887e 94be c721 01bf 8b2b a23e e878 e13c
000002d0: 45f7 0abe 1daf d8be f61d d33d 9d05 5f3e
000002e0: 0c77 213e 550d 3bbe dd81 243f c047 ccbd
000002f0: eeed 303f 5ada 33bf 1fbc 053f 5eb1 233f
00000300: f690 2fbe bede aabe 8ae3 3fbd 096e 73be
00000310: 7a83 d7be 0ce0 f9be 9803 b33d ba7b 3e3e
00000320: 18c9 c9be 1ecf a3be 840f cb3e 02e8 acbd
00000330: bd16 fcbe 5cb8 f5be 9686 12be 05d0 bd3e
00000340: 6fff 223f 9df4 32be cd4a b03e e7f9 193f
00000350: 3f59 32bd 9608 1bbf beec 803e 890e c5bd
00000360: 554d 8e3e 302d 233d 62d7 173f 5ec1 10bf
00000370: ff07 6e3e 969e 753e acca 003f 670b 2fbf
00000380: 6374 0f3f ca5c ee3e 7924 17bf 4b1c f53e
00000390: 3b29 d4be 9227 f13e ed61 08bf 5d83 d93e
000003a0: 27b2 493d a342 083f 9175 ccbe 9064 94bd
000003b0: 40c0 fdbe 7dc8 203f 1b37 973e 036c 7e3e
000003c0: 69e3 ad3e b6aa 70be 9382 e03e c9c9 f4be
000003d0: f2d4 79be e3d4 e9be a0a3 b83e 1a16 6d3d
000003e0: 8646 ccbe b4cc b4be e5ba 1f3f 0c24 c83d
000003f0: b756 c8bd 2993 633e 853f 2ebf 96af be3e
0.64889336 0.21018189 -0.564097 -0.54855466 0.502539 -0.29709396 -0.1557943 -0.60204226
0.33457923 -0.40356034 -0.46612155 0.33135736 -0.037975024 -0.19817519 -0.3388452 -0.31229633
-0.39243695 0.33340696 0.41913596 -0.5699835 0.24548015 0.6548148 0.6416899 0.5020147
0.12255522 -0.020746054 -0.69845885 -0.6009059 0.24183126 0.020669987 0.502227 -0.4685004
-0.34501004 -0.28460905 -0.4009548 -0.05099188 -0.67891717 0.20556115 -0.13792694 -0.38360572
0.6346828 0.19344528 0.2622457 0.66202354 -0.41606793 0.45223156 -0.65725774 0.52252614
-0.6848065 -0.021373484 0.6164243 0.6004383 -0.38693452 -0.3635031 -0.42276716 -0.6420915
-0.5265765 0.2246297 0.46167803 0.13392934 -0.31403378 -0.6658079 -0.5898881 0.5447325
0.008309106 -0.52992004 0.51963204 0.17712308 0.5306559 -0.14151905 -0.56206894 -0.2310163
-0.17827973 -0.24949357 -0.086107835 0.38352287 0.31659448 -0.60201246 -0.5418851 -0.45140374
0.08752268 -0.03343269 0.47763348 0.07453782 -0.060961332 -0.18312687 0.58468074 -0.28862962
-0.20212995 -0.099493116 0.10175701 0.42079583 -0.20806053 0.670561 0.3439266 -0.1562745
-0.41499937 0.51543784 0.35419872 0.6377135 0.46020657 0.3881868 0.06507829 -0.33592653
0.5248602 -0.025330367 0.44557685 0.23088543 -0.69793355 0.044255845 0.4079458 -0.41271704
0.29024595 -0.134868 -0.031574532 -0.54038405 -0.29039884 -0.62805074 -0.6519098 0.6657536
-0.53686714 -0.21011189 -0.6822814 -0.17182924 -0.23686932 -0.63698745 0.43916485 0.60042906
0.39462698 -0.24064274 -0.51669383 0.6662063 -0.4735556 -0.27508828 0.2915465 -0.36696273
0.12915994 0.6620102 0.5945129 -0.01031545 0.22529356 0.5061426 0.42162138 -0.19577247
-0.29060116 0.43992004 -0.61696774 0.1844874 0.39218515 -0.10717788 -0.64153796 -0.68337286
0.5273071 -0.61261624 0.21119946 0.2322733 -0.6814398 -0.17677625 -0.31465217 -0.16722952
0.5173568 0.085980065 -0.63458467 0.19787134 -0.64426905 0.16597211 0.29699713 -0.12803268
-0.52389395 0.19791335 -0.21022168 -0.17277002 0.14465843 0.15162265 0.15477616 -0.1594321
-0.29002786 -0.50442165 0.31673846 0.027523473 -0.13570888 -0.423211 0.10308449 0.21779485
0.15768069 -0.18266805 0.64260656 -0.09974623 0.6911305 -0.70255053 0.52240175 0.63942516
-0.17145142 -0.33373064 -0.046847858 -0.23772444 -0.42092496 -0.48803747 0.0874092 0.18601885
-0.39411235 -0.31993955 0.39660275 -0.084426895 -0.49236098 -0.47992218 -0.14309153 0.3707277
0.6367101 -0.17476125 0.34432068 0.60146946 -0.043542143 -0.60559976 0.2518062 -0.09621913
0.27793375 0.039838016 0.59313023 -0.56545055 0.23245238 0.23986277 0.5030925 -0.68376774
0.5603697 0.46555167 -0.5904003 0.47873148 -0.41437706 0.47100502 -0.5327442 0.42483035
0.049242165 0.5322668 -0.39933446 -0.07245743 -0.49560738 0.6280592 0.2953423 0.2484589
0.33962563 -0.23502621 0.4384962 -0.478102 -0.24397638 -0.45670232 0.36062336 0.057882406
-0.39897555 -0.35312426 0.62394553 0.097725004 -0.097821645 0.22224106 -0.68065673 0.37243336

actor.linears.0.weight f4 [128, 384]
00000000: 0196 473d eaef ed3c 45fd 863c 9203 d93a
00000010: 93e9 c2bc 33d4 b23b b5ad 36bd aaa1 b9bb
00000020: 6dc1 c63c 79c7 4fbc 5455 34bd bba7 513d
00000030: f46a 93bc d055 fcbc 4913 683c ed7f 793c
00000040: 8f60 ae3c cd4a 41bc 3683 5cbb 37ca abbc
00000050: 0997 3abd b471 c63c bec2 113c edc3 fe3c
00000060: 9d6d 053d 327c cebc cc2e c4ba 1cf1 483c
00000070: e40a 84bb 8c8c c9bc 55ca 47bd 9f9a 1d3d
00000080: 281f d6ba 1f71 3b3d 4ee1 353c 0fb4 a9bc
00000090: 5840 e63b a9f2 9aba 00a7 5eb9 2383 c73c
000000a0: 0d55 1cbd 3efa a63c af16 ecbc 1787 a63c
000000b0: 9b25 41bd 6786 633d a9b3 053d 057f 31bc
000000c0: 909d e9bc 72a3 013d 75e4 373d 38e0 aabc
000000d0: 75b1 ee3c bbe7 07bc 0dae 00bd 34a1 00bd
000000e0: 11bf 0e3c 0ef0 d4bb 18f6 293d ac25 d13c
000000f0: 4678 123d eb77 d1bb b11f 233d c241 19bd
00000100: eef1 e33c 4023 873c 4f88 2dbd e211 22bd
00000110: 0df1 1b3d d48f 36bd 9578 5a3c 6ae4 8e3b
00000120: 593d 1a3d 3fec b2bc b1c0 1dbd 3cdf e7bc
00000130: 16d1 1ebb 689e 3ebd 65d2 09bd c9c6 0f3d
00000140: 1c70 453b 949a 42bd 64cb 4abd 217b 2c3d
00000150: d081 05bc 034c 4cbd 6cd3 07bd bda0 9d3c
00000160: cc9e f03c 1f93 e5bb 25dc e63c e0b2 f0bc
00000170: 5dfd f4bc ccf2 f6ba b587 503d 5aa8 7a3c
00000180: 3e37 c63c 074e 1f3d 9f61 c23c e9a2 25bd
00000190: 6022 203d e1e2 493d 117c c2bc a3bb d13c
000001a0: 5669 ffbb 8e2c 873b b532 623c 7e35 223c
000001b0: d76f 153d 7947 013d 0d90 0b3b 74d8 47bc
000001c0: 360f 2c3d a8df 55bd ab29 0c3d 553f 273d
000001d0: 6b75 18bd a83a 12bd 7806 38bc 3e66 513c
000001e0: 6649 f23c 2e72 b43c ae1b e3bb 1eb6 013c
000001f0: 4468 493d dda5 c53b 6e30 32bd 63e1 7dbb
00000200: 69bf 36bd df68 213d c254 e7bc 992f d0bb
00000210: 85a1 923c cffa 5cbd ee24 9f3c 49e8 953c
00000220: 27aa b63c 56a7 27bd 8fe6 433d aca3 d03c
00000230: ba84 8cbb 9ad5 0fbd 827d 943c d7b5 ffbc
00000240: f40e b33b 9cf5 56bd adcc e7bb 4aad 873c
00000250: a42f 93bc bfc6 6f3a 4d69 91bc af55 45bd
00000260: d85d 42bd 4042 0abd d972 073d f6c8 ca3c
00000270: 4eb0 38bc 4ec2 263d 6494 173c 99ee a53c
00000280: 82e0 f73c 3db4 713c a73b 413d 35e6 783c
00000290: 994d d4bb 7b7d b73c aa3c a63c a164 193b
000002a0: 89e9 c1bc e936 b5bc 80fb c1bc a8dd 31bd
000002b0: fd55 85bc d134 9d3c 6c3a 76bc db36 513c
000002c0: bac4 fbbc 9d05 b83c a9ff 823c f32e 0abc
000002d0: f04b 33bd a501 f73c 5cf2 3abd aaeb ff3c
000002e0: 4d7f e43b 2e03 0a3d 4676 53bb fe82 0ebd
000002f0: 2225 773c 3be7 00bd 8d28 083d a102 f23b
00000300: d2ae 1abd 389d 823c 805c 873c f5b6 12bc
00000310: 46a7 493c 2759 16bc 1942 a4bc e903 0d3d
00000320: c3ba 5ebd a955 3bbd 7d0d 723b 9a1d 103d
00000330: 3b00 383c a404 023c 5f9f 173d f6be 0f3d
00000340: 9a6e 833b 676f 88bc 6c17 bb3b 384e fb3a
00000350: 229d 0c3c 2eac bbbc d32f fb3c 4900 32bd
00000360: caa8 c13b 8e44 553d 9b37 563d 221b 42bd
00000370: 6037 2b3d 045d ad3c 5e53 92bc 6b53 423d
00000380: 37d9 883c cea1 b9bc d4df 803c 302d b63c
00000390: 680e dfba 25a1 913c 44a4 87bc 98f6 993c
000003a0: 5f41 27bd 50f0 0c3d 26d3 513d 1fb9 f2bc
000003b0: 1545 6bbc f868 a43c 1cf3 503d 8985 253b
000003c0: 3551 33bd 13f3 093d fd5b 1d3d 91f6 b13c
000003d0: 9016 ad3c 0aa7 18bd ce47 323c 23aa 383d
000003e0: a431 fd3c aae9 90bc aa22 443b 2c15 91bc
000003f0: d10d c7bc de17 f03c 5e65 1e3d dd56 e3bb
0.04872704 0.029045064 0.01647819 0.001655685 -0.023793017 0.005457425 -0.044599254 -0.005665024
0.024262154 -0.012681835 -0.044026688 0.05118535 -0.017995335 -0.030802637 0.014164754 0.015228254
0.021286277 -0.011797619 -0.0033647544 -0.020970447 -0.045554195 0.02422414 0.008896528 0.031099284
0.03257524 -0.025205705 -0.001496756 0.012264516 -0.0040296186 -0.02460315 -0.048776943 0.038477536
-0.001633619 0.045762178 0.01110108 -0.020715741 0.0070267133 -0.0011821586 -0.00021233782 0.024354523
-0.03816705 0.020382997 -0.02881941 0.020328088 -0.047155004 0.055548098 0.03264204 -0.0108335065
-0.028517514 0.031650014 0.044895608 -0.020858869 0.029137352 -0.008294995 -0.031415988 -0.031403735
0.008712546 -0.0064983433 0.04149446 0.025530659 0.035759233 -0.006392469 0.039825145 -0.037416227
0.027825322 0.0164963 -0.042366322 -0.039567836 0.03807168 -0.04457076 0.013334413 0.004360725
0.037656162 -0.021841167 -0.038513843 -0.028304689 -0.0024233512 -0.046537787 -0.033647913 0.035101686
0.0030126637 -0.0475107 -0.049510375 0.042109612 -0.0081486255 -0.049877178 -0.033160612 0.019241685
0.029372595 -0.0070060636 0.028181145 -0.02938217 -0.02990597 -0.001884067 0.05091067 0.015298927
0.024196263 0.038892772 0.02372819 -0.040438566 0.039095283 0.049288634 -0.0237408 0.025602167
-0.0077945394 0.0041251844 0.013806035 0.009900449 0.036483612 0.031562302 0.0021295578 -0.012197603
0.042006694 -0.05221525 0.034219425 0.040831883 -0.037221354 -0.03570047 -0.011232011 0.012780724
0.029576015 0.022027101 -0.00693079 0.007916955 0.0491717 0.0060317353 -0.043503217 -0.0038739077
-0.044616137 0.039406653 -0.028238658 -0.0063533303 0.017899284 -0.053950127 0.01942679 0.018299239
0.022297932 -0.04093107 0.0478273 0.02546867 -0.004288283 -0.035115816 0.018126253 -0.031214638
0.005464429 -0.052480325 -0.00707396 0.016562123 -0.017967053 0.0009146742 -0.017750407 -0.048177417
-0.047452778 -0.033754587 0.03306851 0.024754029 -0.011272503 0.040712647 0.009251688 0.020255374
0.03025842 0.014752445 0.04717603 0.015191604 -0.006478977 0.022398701 0.020292599 0.0023405927
-0.023670929 -0.02212091 -0.023679495 -0.04342428 -0.016276354 0.019190224 -0.015028577 0.012769426
-0.030733455 0.022463614 0.015991049 -0.008434045 -0.04377359 0.030152151 -0.04564129 0.031240303
0.0069731832 0.03369444 -0.0032266541 -0.034792893 0.015084537 -0.03147052 0.033241797 0.0073855673
-0.037764378 0.015944108 0.0165236 -0.008954753 0.0123079475 -0.009176529 -0.020051049 0.034427557
-0.05437733 -0.04573599 0.003693431 0.03518448 0.011230524 0.007935677 0.037017222 0.035094224
0.0040109875 -0.016654683 0.005709579 0.0019173091 0.008582385 -0.02290925 0.030662453 -0.043457303
0.005910014 0.052067332 0.052299123 -0.047389157 0.041800857 0.021162517 -0.017862018 0.047442835
0.016705139 -0.022660162 0.01573173 0.022238344 -0.0017017843 0.017777035 -0.01655782 0.018794343
-0.040833827 0.034408867 0.051226757 -0.029629288 -0.014359732 0.020069584 0.051013097 0.0025256595
-0.043778617 0.03367908 0.038417805 0.021724017 0.021128923 -0.037268676 0.010881377 0.04508413
0.03090746 -0.017689545 0.0029927888 -0.01771029 -0.02429858 0.029308256 0.03867089 -0.006937845

actor.linears.0.bias f4 [128]
00000000: 6dc8 9cbc afb3 f73c 1476 3c3d 13a4 323d
00000010: a8d0 8b3b a3e3 8dbc c4d5 2a3d 9403 4c3d
00000020: 52ba f539 c50c 16bb a186 10bd 67d2 cb3b
00000030: 1f34 2cbd 961e f83c 91b2 443d 39cf 8abb
00000040: 0329 91bb 49c5 823b f14a be3c cafb 3b3d
00000050: 90ae f83c 4a4e c3bc 585f bcbc dfa1 113d
00000060: 761a 683d d9d5 193d 06df f53b c04f 363d
00000070: 5087 053d 55f2 47bd 50ec edba 5252 d3bc
00000080: 02f1 e83c 0755 6d3c 4160 623d 5e89 7abc
00000090: 134a 6c3c a00a c63c 7ecc 8c3b 6345 fabc
000000a0: 3f1b d83b f51a 0fbc 15fd f63c d39f 3a3c
000000b0: 4df0 2fbd 9e71 933c 7ab7 d13c 07f5 243d
000000c0: 7994 393c 0804 933c 063d 9dbb 06fb ca3c
000000d0: 39a7 0a3d 4d55 4fbc 6b47 373d 1dfb b7bb
000000e0: c200 dbbc 656f 1b3d cc5c 51bd 23ce d43c
000000f0: 7545 3dbd 0262 36bd 75ab 31bd 4429 3abd
00000100: acbb 42bd 920d a53c 2ae4 503d 3209 ef3c
00000110: 409b 96bb b1f6 6ebc b56e aa39 8dd2 e33c
00000120: 0c5f 40bc 284c 2cbd b2d1 b23c 2c78 d03c
00000130: 11ce fd3c 0ea8 29bc 6193 78bc fa2e a4ba
00000140: 87fc 4c3d 4a46 2abd e8d0 d8bc 2e60 0ebd
00000150: 3ed1 1cbd 3fa8 093d d6a3 21bd 72fa 003c
00000160: 574f 1f3d dcd6 333c fcee 1b3d 636f 92bc
00000170: 6370 31bd cd8c 01bc fb1a 0c3c 7fd8 b03c
00000180: 4652 35bc 1db6 22bc 11cc 2fbd 3e53 4bbd
00000190: 2c2e 41bc 92da 4539 08bd f4bc 65b8 3d3d
000001a0: 8672 0ebd ddd8 44bb dad7 96bb 25b5 f33b
000001b0: 435c bdbc 61e5 2dbd 7861 323d a96a 2dbd
000001c0: 7696 ac3c 387e e8bc 9d2f af3c b80c af3b
000001d0: c1e3 113d c9dc 823b fb56 17bd 2274 0bbc
000001e0: a1d2 093d 3c86 313d f8b4 943c d6fe 47bd
000001f0: d245 cf3c 66d9 cfbc 7a83 113c 11a4 9a3c
-0.01913854 0.030237047 0.046011046 0.043613505 0.004266817 -0.01732046 0.04170777 0.0498081
0.0004686886 -0.0022895795 -0.035284642 0.0062201503 -0.042041894 0.030288022 0.048021857 -0.0042361286
-0.004429938 0.0039908034 0.023229094 0.04589442 0.030356675 -0.023841042 -0.022994682 0.035554763
0.05666586 0.037557457 0.007503393 0.04450965 0.032599747 -0.04881509 -0.0018152092 -0.02579609
0.028435234 0.014485604 0.055267576 -0.01529154 0.014421958 0.024174988 0.0042968383 -0.030550664
0.006595045 -0.008734454 0.030149976 0.011390644 -0.042953778 0.017998513 0.025600184 0.04027274
0.011326903 0.017946258 -0.0047985343 0.0247779 0.033850882 -0.012654615 0.044745844 -0.005614652
-0.02673376 0.03794803 -0.05111389 0.0259772 -0.046208818 -0.04452706 -0.043376405 -0.04544951
-0.04754226 0.020148072 0.050998844 0.02917919 -0.004596144 -0.014585183 0.0003250741 0.02781036
-0.011741411 -0.042064816 0.021828506 0.025447927 0.03098205 -0.010355009 -0.015171857 -0.0012526207
0.050045516 -0.04157094 -0.026466802 -0.034759693 -0.038285486 0.033607718 -0.039462887 0.007872211
0.038894024 0.010976519 0.03806971 -0.017875379 -0.04332007 -0.007907105 0.0085513545 0.021587608
-0.011066979 -0.0099311145 -0.042919222 -0.049639933 -0.011790793 0.00018868808 -0.029875293 0.04631843
-0.034777187 -0.0030036487 -0.004603368 0.0074373656 -0.023115283 -0.04245508 0.043549985 -0.042338047
0.02106784 -0.028380498 0.021385008 0.0053420924 0.035617594 0.003993605 -0.036948185 -0.008511575
0.033648137 0.043340907 0.018152699 -0.048827015 0.025301848 -0.025372218 0.008881444 0.018877061

actor.linears.1.weight f4 [128, 128]
00000000: f4c1 78bc d290 f43c 5218 bdbc 21d5 c1bc
00000010: 0698 d0bc 3d9c 66bd 3a46 593d e0ad 853d
00000020: 6e3d be3c 70d3 0f3d 7399 8fbd bfe2 a23d
00000030: 0f1c 0f3d 3ff1 02bc 82a6 8a3c 282b 8d3d
00000040: e938 a8bd 2457 bb3c bfe4 193d 5f5a 473c
00000050: fb16 aabd e709 033d dc26 953d 5957 6a3d
00000060: 2cd7 d93c b3dc 693d aef4 b23b 54cd 94bd
00000070: d910 84bc 2dad 263d 6875 583c 058d 60bc
00000080: 834c 58bd 02bd 5d3d f6a0 9e3d 90a2 8cbb
00000090: 02ca 683c 8fac d3bc 3821 a13d 704b 493c
000000a0: 079b 90bd 7732 b2bd 7d53 63bd 7a4a 8cbd
000000b0: 3d10 373d daf7 9c3b c698 503d 7d75 213d
000000c0: c25f 3d3d 0ae2 643d e350 6b3d 17fa f73b
000000d0: a04a a8bd 665e 64bd f554 eb3c b544 8f3d
000000e0: 58cc 06bd 67fa 92bd 8a62 30bd 8e2a 883d
000000f0: 8f71 743d 9278 a8bd 747e 9ebc 0205 a1bd
00000100: 05cc 2e3c b902 d53c e3d7 86bd fd1c ee3c
00000110: c827 bf3c 116c 173d 3418 a3bd f451 593d
00000120: 294d afbd 6a4c ffba 47f0 8fbd f217 73bd
00000130: bad6 fb3c d6b3 8d3c d687 4f3d c352 45bd
00000140: 1eb1 c6bc d016 2dbd 068e 2cbc 2552 adbd
00000150: 5f9e a1bd 6c58 87bc e1ab 513d dc08 b23d
00000160: 6bbb 95bc 4bff a3bb 089d 3a3d 1f50 1ebd
00000170: bc2e b03a a717 813d 01e6 fb3b cd36 5dbd
00000180: 0740 d4bc 9192 673c dcc4 7b3d 100c 65bd
00000190: 7378 8a3c 3c79 183d e782 693d bb4e b2bd
000001a0: d8e7 ad3d 4acd 73bc 9c9a 46bd ef13 9c3d
000001b0: 7f0a babc f321 b6bd a6d7 cc3c 6565 103d
000001c0: 463f ac3c b26a a0bc f350 72bd b752 7f3d
000001d0: 97c7 0eba 666d 873d be04 b3bd 41be 653c
000001e0: 8558 a3bd 0e20 87bc 0f8e 7cbd c016 783d
000001f0: 7eb7 39bb 7ada e4bc f3b1 a7bd 89a7 37bc
00000200: a5c3 a03d 596d 68bd e569 23bd 29fe a7bd
00000210: 0a16 393d 79e6 8b3d e4db a7bd de02 213d
00000220: 3a08 383d 04c4 ae3d 9477 88bc d9e4 a73d
00000230: 1d8f 42bc 91bb 4bbc 304a a43d e2dc 02bd
00000240: faec ae3d 5e39 78bd 4558 78bc 3ef9 e7bc
00000250: 406c 513d 5703 243b 9772 9fbc a60d 90bd
00000260: c4bc 9c3d c52a 9b3d 1f75 07bb d968 02bb
00000270: 61cd 8bbc 9854 1d3d e91b e2bb 46f4 8c3d
00000280: 1082 acbd 4325 78bd c44a 943d 0fa2 b5bd
00000290: e178 18bd aed9 473b 1a17 643d 60cf de3c
000002a0: 522c 443c 38c3 a33d a139 15bd 7082 963d
000002b0: f53d 393c f103 033d 96b2 953d 152e 92bb
000002c0: 5e7b 43ba 6ce4 873d 9752 833c ef35 9cbd
000002d0: 9dea 7abd 97ae 0c3d bf07 63bd 9066 753d
000002e0: 32a2 56bd 4a1f 59bd 5c2e 573c 6fc9 71bd
000002f0: 4272 01bd 74f2 b9bc 9ff7 793b d359 bf3c
00000300: 3159 9a3d 5a6c 3d3c 8aa8 3fbd 90d1 00bd
00000310: b230 9fbb 2c93 aabd 97eb fdbb ec6a 83bd
00000320: 87a2 04bc e28f 543d dfa3 fe3c 360c a5bd
00000330: 2013 be3c cfc3 10bd 8490 91bc 594a 2e3d
00000340: d549 b2bc 1e41 94bd 86cc 89bd dcdf 063d
00000350: f6f9 a4bd 5628 f3bc eb00 5dbd 0c37 463d
00000360: 8199 0dbc c804 42bc ae0d a4bb dab9 5fbd
00000370: bd60 b4bd 7587 9cbd e2ae b0bc f2d9 9bbd
00000380: edfd f13c 5b1a 513d c040 7abd 80a5 233d
00000390: 8a1f 863c a4ab a0bb cdf1 5abd 71bd 46bd
000003a0: b763 81bd 09b4 2fba dd6a 79bd f1df 533d
000003b0: 1a6e 9ebd 05ac 743d 2c26 9cbd 4585 0c3d
000003c0: 8b66 743d aa14 8b3d 8f7f b83c 7e9d 943d
000003d0: 3dce 8abd 473b 6cbb 9eb5 813d 3029 f6bb
000003e0: ca46 4a3b 289e 0bbd 90a7 ccbc 5450 13bd
000003f0: 756d 48bd 2da3 623d a19e aaba ef6e 9dbc
-0.015182961 0.029854212 -0.023082886 -0.023661198 -0.025463115 -0.056301344 0.05304549 0.06527305
0.023222651 0.035113752 -0.0701169 0.07953405 0.034938868 -0.007992088 0.0169251 0.06892997
-0.0821398 0.0228687 0.037571665 0.012167542 -0.083051644 0.031991865 0.072828025 0.057212207
0.02659186 0.05709524 0.005461297 -0.07265726 -0.016121315 0.040692497 0.013211586 -0.013705497
-0.052807342 0.05413533 0.077455446 -0.00429184 0.014208319 -0.025839118 0.07867664 0.012286052
-0.07060819 -0.08701032 -0.055499543 -0.06850143 0.04469322 0.0047902884 0.050926946 0.039418686
0.0462339 0.05587963 0.057450186 0.007567655 -0.082173586 -0.055754088 0.028727034 0.06995527
-0.03290972 -0.07176667 -0.043062724 0.06648742 0.05967861 -0.08226122 -0.019347407 -0.07862283
0.010668759 0.026002275 -0.06584146 0.029066557 0.023334399 0.036968295 -0.07963601 0.053056672
-0.08559639 -0.0019477729 -0.07028251 -0.059349008 0.030742038 0.017297667 0.050666653 -0.04817463
-0.024254378 -0.042258084 -0.010531908 -0.084629335 -0.07891535 -0.016521655 0.051189307 0.08693096
-0.018277844 -0.0050047985 0.045559913 -0.03865063 0.0013441662 0.063033395 0.0076873307 -0.05400734
-0.025909437 0.014134065 0.061467037 -0.055919707 0.016903138 0.037224993 0.057009604 -0.08706423
0.08491486 -0.014880488 -0.04848729 0.076209895 -0.022710083 -0.08893194 0.025005173 0.035252947
0.021026265 -0.019582126 -0.05915923 0.062334742 -0.00054466113 0.06612663 -0.08741139 0.014022411
-0.07975868 -0.016494777 -0.061658915 0.06056857 -0.002833813 -0.027936209 -0.08188238 -0.011209377
0.07849816 -0.056744907 -0.03989591 -0.08202774 0.045187034 0.068310685 -0.08196238 0.039309375
0.04492972 0.08533481 -0.016658582 0.08197946 -0.011874941 -0.012434856 0.08021963 -0.03194893
0.085412934 -0.060601585 -0.015157764 -0.02831709 0.051128626 0.0025026405 -0.01946382 -0.07033853
0.07653192 0.07576517 -0.0020669175 -0.001989892 -0.017065706 0.038410753 -0.0069003 0.06882529
-0.08423245 -0.06058241 0.07240823 -0.08868801 -0.037224654 0.0030494737 0.055686094 0.027198493
0.011973457 0.079962194 -0.036431912 0.07349098 0.011306276 0.03198618 0.07309453 -0.00446106
-0.0007457043 0.06635365 0.016030593 -0.076274745 -0.0612589 0.03434619 -0.05542731 0.059912264
-0.052400775 -0.053008355 0.0131336115 -0.059029993 -0.031603105 -0.022698618 0.0038141978 0.023358261
0.07536543 0.011561478 -0.04679159 -0.031449854 -0.0048581 -0.08328852 -0.0077490318 -0.06416878
-0.00809539 0.05189503 0.031084 -0.0805897 0.023202479 -0.035342988 -0.017769106 0.042551372
-0.021763721 -0.072389826 -0.06728463 0.032928333 -0.08055489 -0.02968232 -0.053955954 0.04839234
-0.008642555 -0.01184196 -0.0050065136 -0.0546206 -0.08807514 -0.07643024 -0.021567766 -0.07609929
0.029540027 0.051050525 -0.061096907 0.039952755 0.01637246 -0.0049032737 -0.053453255 -0.04852051
-0.06317847 -0.00067025475 -0.06089293 0.05172724 -0.07735844 0.059734363 -0.07624468 0.034306783
0.059668105 0.06791051 0.022521762 0.07256602 -0.06777618 -0.0036046074 0.06333469 -0.007512234
0.0030864947 -0.034086376 -0.024982244 -0.03596528 -0.04893251 0.055331398 -0.0013017246 -0.019217936

actor.linears.1.bias f4 [128]
00000000: 2174 1e3c 6519 46bd 84bb a1bd aed8 2fbd
00000010: 6918 98bd f149 56bc d8b8 86bd 7d1e 2fbd
00000020: b128 82bd c152 023c 6c57 88bd dbad dcbb
00000030: 92ae 583d c42f 2fbd 0423 a2bc 39a8 8ebd
00000040: bfc2 a8bd ca20 f13c 14b5 77bd abeb 04bd
00000050: 1817 95ba 215c 413d b68c d4bb 7934 903d
00000060: 632b 9fbc 5117 62bd 256f 6bbd 3f71 7cbc
00000070: 73b7 463d dafb 63bb 7855 3d3b b734 803d
00000080: b883 873d 357e 99bd a725 2e3d 34f2 11bd
00000090: 16fa 26bd 20d4 0dbd cdab 0fbd 3186 b1bc
000000a0: 5601 6bbc 6b21 a13b 70db 22bc 0366 0cbd
000000b0: 04bf 58bd f574 923d 8d06 afbd 0c8a 08bd
000000c0: 10b6 49bd 842e 843d 0e40 8dbc 08a2 6c3b
000000d0: 5894 963b d7b5 51bc 593f 08bd e991 7e3d
000000e0: fbfa 84bd cb7a 70bc cce0 e13c fac3 d73c
000000f0: 47f2 b7bd e1cb 6c3c c904 b8bd 1832 88bd
00000100: 453f 0cbc 5371 a13d e185 80bd 1aa5 b03d
00000110: 4e55 44bd dbb1 093d b0bb 5bbd 3c41 c7bc
00000120: 8a23 5ebb ba5e 3b3d e1e7 19bd 3e6a 7cbc
00000130: 91a0 3fbd de27 c53d 3675 d63b 3a77 03bb
00000140: 37a6 9c3d 4a17 a4bc ea4e 8e3d 4d2f a43d
00000150: ef80 85bd dfa2 a7bd d0cb 8e3a 6257 8f3d
00000160: 3576 97bd 4bfb 973d 05bf 04bd 0920 c4bc
00000170: df4a 69bc b276 013c 8fbe 863c 3b30 41bb
00000180: 3c2d 173d 58c1 763c 314f 0fbd b5a2 a0bc
00000190: 952a e6bc 7ecf 293d 6610 3f3d 43b1 7b3d
000001a0: 5fcf 283a d56d 37bd 19db a13d 0195 9bbd
000001b0: 3f5a 83bd 9b4e 77bd 93d2 b93c 432e 9fbd
000001c0: 72c8 453c 6c0f 473c 65c5 00bd c5fd 1c3d
000001d0: df2c a93d 4f53 b3bd edc9 a4bd 13a9 89bd
000001e0: 0dc1 71bd d41d 0b3d dfdb d93b ea53 9d3d
000001f0: d236 0dbd 8360 bb3d d4d6 953c 8ed1 adbd
0.009671242 -0.04836406 -0.07897094 -0.04293125 -0.07426531 -0.013079152 -0.06578225 -0.042753685
-0.063554175 0.0079543 -0.066572994 -0.0067345924 0.05290086 -0.042770162 -0.019792087 -0.0696568
-0.0824027 0.02943458 -0.060475424 -0.032451313 -0.001137468 0.047207 -0.0064865006 0.07041258
-0.019429868 -0.055198018 -0.057479043 -0.015407859 0.048514795 -0.0034787566 0.0028890055 0.062600546
0.0661692 -0.07494775 0.042516377 -0.035631374 -0.040765844 -0.034626126 -0.03507595 -0.021670433
-0.01434358 0.004917314 -0.009940013 -0.034276973 -0.05291654 0.07151214 -0.08546171 -0.033334777
-0.049245894 0.06454185 -0.017242458 0.003610732 0.0045953207 -0.012799702 -0.033263538 0.06215087
-0.06493183 -0.014677714 0.027573012 0.026338566 -0.089817576 0.014452905 -0.08985288 -0.066501796
-0.0085600065 0.07882943 -0.062755354 0.086252406 -0.047932915 0.03361688 -0.05364579 -0.024323098
-0.0033895695 0.045744635 -0.037574653 -0.0154061895 -0.046783987 0.09626745 0.0065447344 -0.0020060078
0.076488905 -0.020030636 0.069486454 0.080168344 -0.06518733 -0.08185362 0.0010894481 0.06999089
-0.07395593 0.07420977 -0.032408733 -0.023941057 -0.014239042 0.007901834 0.016448287 -0.002947821
0.036908373 0.015060745 -0.034987632 -0.019608835 -0.028096477 0.041457646 0.0466465 0.061448347
0.0006439592 -0.04478248 0.07903118 -0.075967796 -0.064136975 -0.0603777 0.022683417 -0.077724956
0.012071716 0.012149673 -0.03143825 0.03832795 0.082605116 -0.08756124 -0.08046327 -0.067217015
-0.059022 0.033963993 0.006648525 0.07682021 -0.03447611 0.091492675 0.018290915 -0.08487235

actor.linears.2.weight f4 [1, 128]
00000000: f8e7 e3bc f09d 813c 5def 9abd 18da ebbc
00000010: 0239 a03c 851f 9fbc d793 0cbd f02f b73c
00000020: 68d5 51bd d1e5 223d ec26 b93c d595 18bd
00000030: 7778 883d cf0a 093d 8a1a 913c ea3c 9abd
00000040: a86a b93d d34a 193d 7f05 a5bd 2876 30bb
00000050: b8b1 0ebb 71ff 0e3c c96f 353d 4cd5 a5bd
00000060: 4656 98bd b419 ddbc 6ab0 fb3c 5a24 cabc
00000070: 4956 2b3d 9439 52bd f626 1a3d 3d40 7dbc
00000080: 9056 a4bd bd9a 963d 6a89 9f3d 6c38 afbc
00000090: 6234 203d 0c2c 52bd 74bc d53b bd3b 9ebd
000000a0: 25e4 49bc 8ccf a33c f80e 80bd 4b6e 4e3d
000000b0: 390a 62bd 4b40 6b3c eda7 5e3d 47c7 0abd
000000c0: 9c89 923d 8906 6abd f38e 483d bd00 aa3d
000000d0: 0063 1c3d 3bdc d03c eb8a 8d3d e1bb 00bd
000000e0: 8916 4d3c 1daf 7ebd ba84 a1bd 7bf7 9abd
000000f0: 9372 883d 52d9 bdbc 4123 04bd 07f9 2abd
00000100: 4731 873d b77b a63d b1d9 883d b5b2 4e3d
00000110: d3aa a7bd a447 a4bc 6039 553d 2007 693d
00000120: bab9 553d 0fcf 973d 9e06 83bd 0e83 e4ba
00000130: 2457 8abd d500 19bd 3af2 3f3d 56ad 223d
00000140: b6fe 9bbd 1356 803d 3d63 9ebd e28a 87bd
00000150: eeba 4bbd 5b3c 3c3d fb43 d1bc 1c5f 9fbd
00000160: af58 9e3d 1368 fbbb a81b 39bb ba7d a2bd
00000170: 2453 013c 3780 28bd e047 933d 3d87 373d
00000180: c96b e9bc 4f00 993d 32b9 88bd d899 bb3c
00000190: aef9 96bd 38f7 173b 950a 12bd 302c 243d
000001a0: 21e7 60bd 9cfb 3fbd 7026 de3c 9398 98bd
000001b0: 768d 033d 0b2b c43c 8072 6f3d 3005 2ebc
000001c0: 50b8 0b3d 9534 8f3b 6bbf 1d3c 85d4 acbd
000001d0: cab3 82bd f35f cd3c db91 fdbb 853b 9dbd
000001e0: 7c2c 993d 0fa4 a6bd 4ddb 45bd 7a76 aebd
000001f0: 79c0 7ebd bd26 8cbd 632a 823c bcc5 76bc
-0.027820572 0.01582238 -0.07565186 -0.028790519 0.019558433 -0.01942421 -0.03432068 0.022361726
-0.05122891 0.03976995 0.022601567 -0.037252266 0.06663602 0.033457574 0.01771285 -0.0753115
0.09053546 0.037424874 -0.08057689 -0.0026925895 -0.002177341 0.008727894 0.04429606 -0.08097324
-0.0743833 -0.026989795 0.03072377 -0.024675537 0.041830335 -0.051324442 0.037634812 -0.01545721
-0.08024323 0.07353733 0.077898815 -0.021389209 0.039112456 -0.051311538 0.0065227095 -0.07726238
-0.01232246 0.019996427 -0.06252855 0.050398152 -0.05518553 0.01435859 0.054359365 -0.033881452
0.07155153 -0.05713514 0.048964452 0.08300922 0.03818035 0.02549564 0.06911262 -0.031429175
0.01251758 -0.06217872 -0.07886644 -0.075667344 0.06662478 -0.023174915 -0.032260183 -0.041741397
0.06601196 0.081290655 0.06682146 0.050463397 -0.08186879 -0.020053692 0.05205667 0.05689156
0.052179076 0.0741254 -0.063977465 -0.0017434077 -0.06754902 -0.03735431 0.046861865 0.039716087
-0.07616942 0.06266417 -0.07733772 -0.06618287 -0.049738817 0.045955997 -0.02554511 -0.077818125
0.07731759 -0.0076723187 -0.0028245244 -0.07934137 0.007893357 -0.0411379 0.071914434 0.044806708
-0.028493779 0.07470762 -0.06675948 0.022900507 -0.07371841 0.0023188125 -0.035654623 0.040081203
-0.05490792 -0.046870813 0.027117938 -0.07450976 0.03211733 0.023946306 0.058458805 -0.010621354
0.03411132 0.004370282 0.009628157 -0.084389724 -0.06381948 0.025070166 -0.0077383346 -0.07677368
0.07479188 -0.081367604 -0.048304845 -0.08518691 -0.062195275 -0.06843326 0.015889352 -0.015061792
