FJSP_MultiPPO/saved_network/FJSP_J15M15/best_value00/policy_job.pth (torch_old, 637559 bytes, 53 tensors)

_input f4 [128]
0.9090403 -0.02125944 -0.26962364 -0.79131746 0.76225406 -0.25530142 -0.90369767 -0.86282617
-0.40213057 0.113249764 0.9170674 0.05950191 0.97403824 -0.19317135 0.26784006 0.23313189
-0.98765045 0.70065314 -0.7257136 0.71543026 0.67819 -0.48511967 0.16597238 -0.95416087
0.2630887 -0.42605728 -0.24054036 -0.15976931 0.933876 0.25952438 -0.7327172 0.051807098
0.02435638 -0.51127595 0.54109925 0.5506923 0.48132604 0.96918374 -0.5095994 0.407534
-0.09968959 0.861788 0.438447 0.042243868 -0.13735674 -0.17084886 -0.43858775 -0.8945811
-0.36014575 -0.3773195 -0.049213257 -0.28848702 0.39040995 -0.21143286 -0.3638542 0.90436435
-0.19126002 -0.6592146 0.4446942 0.61789465 -0.65595436 0.21877763 -0.050049376 0.17241125
-0.19054684 -0.37814364 0.6756563 0.9627977 -0.45585236 -0.2865711 -0.9022096 0.7055936
-0.612715 0.09286826 -0.78464264 0.55264914 0.7148375 0.9847067 0.34231082 -0.13017783
0.05812706 0.4562607 0.5556361 -0.8657493 -0.7635268 -0.25808796 0.02362389 -0.309465
0.8423493 -0.4867169 0.97180057 0.7331225 -0.50041455 -0.5104428 0.2247798 -0.8489104
0.3479543 -0.4431882 0.060638517 0.4813923 0.72791517 0.72912115 -0.5777682 -0.9229886
0.42787352 0.7244341 -0.590708 0.267819 0.78269446 0.102781124 -0.6354293 0.98489964
0.6177426 -0.26923582 -0.40497813 0.87108254 -0.6377021 -0.70021176 -0.70215696 0.19687574
0.5571226 0.7783604 -0.76325345 0.7759417 0.9741313 -0.97719526 -0.09875918 -0.4970115
00000000: ddb6 683f 4728 aebc 1c0c 8abe c893 4abf
00000010: 1523 433f deb6 82be bb58 67bf 2de2 5cbf
00000020: 0fe4 cdbe 7eef e73d eec4 6a3f 46b8 733d
00000030: 925a 793f b6ce 45be 5522 893e 20ba 6e3e
00000040: a9d6 7cbf 015e 333f 5ec8 39bf 7026 373f
00000050: dc9d 2d3f 9b61 f8be aaf4 293e e343 74bf
00000060: 90b3 863e 2e24 dabe 3650 76be 919a 23be
00000070: 7f12 6f3f 61e0 843e 5b93 3bbf ae33 543d
00000080: 0887 c73c fbe2 02bf 7b85 0a3f 2cfa 0c3f
00000090: 5e70 f63e 6d1c 783f 1b75 02bf 4ca8 d03e
000000a0: 0e2a ccbd 239e 5c3f 207c e03e e807 2d3d
000000b0: 3fa7 0cbe 01f3 2ebe 938e e0be 4403 65bf
000000c0: 0665 b8be 0630 c1be d793 49bd 92b4 93be
000000d0: d0e3 c73e db81 58be 194b babe 6c84 673f
000000e0: abd9 43be 4ac2 28bf f5ae e33e 582e 1e3f
000000f0: a0ec 27bf 3e07 603e 9300 4dbd 938c 303e
00000100: b61e 43be 0b9c c1be d0f7 2c3f e979 763f
00000110: 7b65 e9be 72b9 92be 35f7 66bf c8a1 343f
00000120: e4da 1cbf b731 be3d 57de 48bf 6a7a 0d3f
00000130: 97ff 363f bd15 7c3f 5d43 af3e 564d 05be
00000140: a416 6e3d 019b e93e 2b3e 0e3f bfa1 5dbf
00000150: 7e76 43bf 1b24 84be e386 c13c 3272 9ebe
00000160: 34a4 573f f532 f9be ecc7 783f ebad 3b3f
00000170: 2b1b 00bf 61ac 02bf ad2c 663e 3152 59bf
00000180: 1127 b23e 90e9 e2be 1860 783d 0d79 f63e
00000190: a658 3a3f afa7 3a3f 9ee8 13bf fb48 6cbf
000001a0: 3d12 db3e 8374 393f a438 17bf 921f 893e
000001b0: aa5e 483f e97e d23d 7fab 22bf 6222 7c3f
000001c0: 6124 1e3f 47d9 89be 4b59 cfbe 44ff 5e3f
000001d0: 7240 23bf 1441 33bf 8fc0 33bf cb99 493e
000001e0: 969f 0e3f a142 473f 9464 43bf 1ea4 463f
000001f0: ab60 793f 7829 7abf 4142 cabd 4b78 febe

bn.weight f4 [2]
1.0 1.0
00000000: 0000 803f 0000 803f

bn.bias f4 [2]
0.0 0.0
00000000: 0000 0000 0000 0000

bn.running_mean f4 [2]
0.0 0.0
00000000: 0000 0000 0000 0000

bn.running_var f4 [2]
1.0 1.0
00000000: 0000 803f 0000 803f

encoder.feature_extract.mlps.0.linears.0.weight f4 [128, 2]
0.7182686 0.22346492 0.10119568 -0.49936238 -0.15048859 -0.13374528 0.4898511 0.62427235
-0.61245173 0.1536863 0.21740833 -0.12443168 0.012541098 0.35774595 -0.6694083 -0.24211791
-0.037868403 0.44521543 -0.16908465 0.45729515 0.07754662 0.1806045 0.10547303 -0.036014177
0.41068387 0.10119541 0.18892494 0.08885629 0.6416573 -0.35082912 -0.011548919 0.5186197
-0.40421864 -0.705885 -0.7074972 0.02777265 -0.14107393 -0.19027936 0.35964894 0.097993545
0.13794279 0.22377272 -0.45540577 -0.51691645 0.47383288 0.70789516 0.31858352 0.5896426
0.28002688 0.442131 0.20647252 -0.6001003 0.24602836 0.09116119 -0.35053095 -0.5758604
-0.16556984 -0.0704681 0.2822734 0.40854886 0.5208239 0.65869296 0.13234119 -0.06396287
0.54020137 0.60085595 0.04794757 0.3905785 0.24689206 -0.48819777 -0.2598735 -0.59517515
-0.09366054 -0.47893152 0.036150485 0.43282107 -0.4204998 0.50195915 -0.37774017 0.28629252
-0.59650767 -0.5950026 0.6969384 0.24944451 -0.07964625 0.31061858 0.3075304 0.15599439
-0.2359348 -0.20048548 0.50811857 0.20412259 -0.66483724 0.29560867 0.53161216 -0.6660157
-0.32703495 0.58958304 -0.027696632 -0.26976556 0.079651155 0.62268513 -0.058726147 0.05132237
-0.2662867 -0.22289968 0.24200118 -0.13603622 0.45240444 0.58052295 -0.6736678 -0.27911687
-0.30842078 -0.34578124 0.1587897 -0.41432494 0.60418606 -0.22068745 -0.5664597 -0.6483588
0.1100328 -0.3536627 0.5759898 0.66627705 -0.4043906 -0.081839204 0.62069845 -0.23455495
-0.3347687 0.650059 0.08760211 0.13677499 0.21445455 0.6376998 -0.60185 0.4579775
0.6688832 -0.5196992 -0.67980677 -0.3089642 0.53953236 0.374814 -0.51275015 -0.4788586
0.45183772 0.3411162 0.36095265 -0.609568 -0.10802614 0.3938191 0.653467 -0.04832039
0.019122781 0.261179 0.19518925 0.24043743 0.55120957 0.22664736 0.10942104 0.2810753
0.3678411 -0.25970313 0.2961729 -0.12044859 0.41484314 0.48518962 0.4415685 -0.09737725
-0.25262922 0.63309103 -0.69437236 -0.56560373 -0.4865757 -0.25911584 0.27278665 -0.4716034
0.38931477 -0.38480523 -0.16430044 -0.037353717 -0.51244706 -0.12780525 0.08068416 0.366412
0.0058216583 0.26653054 -0.6033948 0.49675605 0.07624107 -0.29180458 -0.11635647 0.3511434
0.20183568 0.1571607 -0.38159093 -0.3347399 0.56667286 0.22915575 -0.37554085 -0.005531819
-0.6919771 -0.17649113 0.38833338 0.60982555 0.35798252 -0.17675193 -0.12819053 0.42498443
-0.34468517 0.1379861 0.48399606 0.260413 0.36598444 -0.6720913 0.21015614 -0.33635935
-0.67046773 0.43252754 0.61944956 0.14531918 0.44100913 0.44154185 0.066207044 0.12592937
0.31414875 -0.13556696 -0.41859004 0.5521034 0.36937827 -0.66905934 0.24030925 0.20843299
-0.52600914 0.3332666 0.14457078 0.1236614 0.5667266 -0.06326403 -0.16137479 0.29987177
-0.5019904 -0.6018785 -0.48270842 -0.6230224 0.061169248 -0.45944062 0.6850105 0.4927459
-0.28117964 0.34385747 0.70184755 0.080752864 -0.55848 -0.5357972 0.25368834 -0.59209156
00000000: 73e0 373f fdd3 643e ae3f cf3d 6dac ffbe
00000010: ae19 1abe 86f4 08be c3cd fa3e 50d0 1f3f
00000020: a3c9 1cbf f15f 1d3e 4aa0 5e3e 09d6 febd
00000030: 2d79 4d3c 7a2a b73e 585e 2bbf c2ed 77be
00000040: e61b 1bbd 47f3 e33e 8724 2dbe 9722 ea3e
00000050: c3d0 9e3d 63f0 383e 3e02 d83d 9a83 13bd
00000060: 2845 d23e 8a3f cf3d 8a75 413e 49fa b53d
00000070: a743 243f e09f b3be ad37 3dbc 43c4 043f
00000080: bff5 cebe e1b4 34bf 891e 35bf 7883 e33c
00000090: af75 10be 98d8 42be e823 b83e d7b0 c83d
000000a0: e040 0d3e ad24 653e f22a e9be a354 04bf
000000b0: 399a f23e 9e38 353f 611d a33e d1f2 163f
000000c0: af5f 8f3e ff5e e23e 886d 533e 2ca0 19bf
000000d0: dcee 7b3e b8b2 ba3d cb78 b3be 966b 13bf
000000e0: 248b 29be 9451 90bd 2486 903e 512d d13e
000000f0: b754 053f 1aa0 283f 7384 073e f7fe 82bd
00000100: a34a 0a3f b2d1 193f ac64 443d e8f9 c73e
00000110: 46d1 7c3e 0ff5 f9be 240e 85be 665d 18bf
00000120: 19d1 bfbd 8336 f5be 8812 143d b99a dd3e
00000130: c04b d7be 6580 003f 2967 c1be ef94 923e
00000140: bab4 18bf 1752 18bf 8e6a 323f 626e 7f3e
00000150: 931d a3bd 6609 9f3e a074 9d3e febc 1f3e
00000160: e498 71be 114c 4dbe 0f14 023f 8305 513e
00000170: c632 2abf 055a 973e bc17 083f 0180 2abf
00000180: 2071 a7be eaee 163f 0ce4 e2bc b61e 8abe
00000190: 2520 a33d 4b68 1f3f d48a 70bd 6837 523d
000001a0: bb56 88be d03f 64be 28cf 773e 144d 0bbe
000001b0: 8ea1 e73e 279d 143f 7e75 2cbf 68e8 8ebe
000001c0: 54e9 9dbe 3d0a b1be c499 223e 6622 d4be
000001d0: f0ab 1a3f e4fb 61be 8103 11bf d8fa 25bf
000001e0: e058 e13d 4713 b5be 1174 133f 2291 2a3f
000001f0: 490c cfbe 509b a7bd 18e6 1e3f 2c2f 70be
00000200: ce66 abbe 446a 263f bc68 b33d be0e 0c3e
00000210: f999 5b3e 4b40 233f d712 1abf 077c ea3e
00000220: ee3b 2b3f 020b 05bf d107 2ebf 8e30 9ebe
00000230: cb1e 0a3f 9fe7 bf3e 9843 03bf f42c f5be
00000240: 4657 e73e c8a6 ae3e c9ce b83e a60c 1cbf
00000250: cf3c ddbd a8a2 c93e 9d49 273f 9aeb 45bd
00000260: 61a7 9c3c 41b9 853e b1df 473e 3b35 763e
00000270: 121c 0d3f 3f16 683e 2318 e03d 1ae9 8f3e
00000280: ab55 bc3e cff7 84be f9a3 973e c0ad f6bd
00000290: 5266 d43e c66a f83e 4415 e23e b96d c7bd
000002a0: 9e58 81be 4112 223f 63c2 31bf 68cb 10bf
000002b0: 7320 f9be d5aa 84be b1aa 8b3e 0076 f1be
000002c0: 4454 c73e 3105 c5be 603e 28be 3600 19bd
000002d0: bb2f 03bf 61df 02be bd3d a53d 5b9a bb3e
000002e0: 9cc3 be3b b176 883e 1578 1abf cf56 fe3e
000002f0: 4724 9c3d 6967 95be 4d4c eebd 11c9 b33e
00000300: 03ae 4e3e bcee 203e e35f c3be 0763 abbe
00000310: 7911 113f cea7 6a3e e446 c0be 4344 b5bb
00000320: 6925 31bf 17ba 34be a2d3 c63e 871d 1c3f
00000330: 7c49 b73e 75fe 34be 6144 03be 8f97 d93e
00000340: 937a b0be 3a4c 0d3e 55ce f73e da54 853e
00000350: 5062 bb3e 2d0e 2cbf 2c33 573e 4b37 acbe
00000360: c6a3 2bbf 4074 dd3e 3f94 1e3f 8dce 143e
00000370: f3cb e13e c611 e23e 8f97 873d a1f3 003e
00000380: 1bd8 a03e 11d2 0abe 6f51 d6be a656 0d3f
00000390: 261f bd3e 7947 2bbf a113 763e 756f 553e
000003a0: 89a8 06bf eba1 aa3e 5d0a 143e 3042 fd3d
000003b0: ff14 113f 9290 81bd 6f3f 25be cb88 993e
000003c0: 7182 00bf b614 1abf 8f25 f7be 657e 1fbf
000003d0: 9b8c 7a3d cd3b ebbe d95c 2f3f 3149 fc3e
000003e0: c7f6 8fbe 160e b03e 48ac 333f c261 a53d
000003f0: 8cf8 0ebf 012a 09bf 70e3 813e 5093 17bf

encoder.feature_extract.mlps.0.linears.0.bias f4 [128]
0.014088389 0.3886572 -0.37109974 0.1641724 -0.4014887 -0.5022264 -0.46992546 -0.5753488
-0.051115304 0.43366858 -0.079631776 0.491011 0.33018768 -0.50014323 -0.6479775 0.4298086
0.1711757 -0.08457007 0.15387268 -0.46715444 0.2616537 -0.2701461 -0.3015476 0.10352899
0.3418115 0.626859 -0.36708027 0.075986184 -0.3171224 0.6748608 0.49552464 0.20829658
-0.42290953 0.2943719 0.1417888 -0.39920357 0.14954303 0.56780314 -0.2301182 0.6584876
-0.6861304 -0.14995237 0.2809592 -0.33900416 0.70772886 -0.3090796 0.41625565 0.16028169
-0.37036347 -0.28380153 -0.2849221 -0.43801406 0.36261755 0.19087058 -0.25385308 -0.60199636
-0.53264886 -0.5110111 -0.111736685 -0.5927141 0.36259177 0.575291 0.6563288 -0.19996804
-0.5519406 0.64392996 -0.32948664 0.063273 -0.25280604 0.4866295 -0.32956582 -0.3611833
0.086132444 0.3726063 -0.537329 0.14772756 -0.68956417 0.70234174 0.5118531 -0.15242444
0.05532224 -0.1910682 0.6164993 0.100350276 0.46680132 -0.27410036 0.62325513 -0.6596835
0.09393294 0.50073314 0.49642897 -0.09899182 -0.19178727 -0.13698135 -0.36576772 -0.59260356
-0.034826934 -0.5823829 0.017266518 -0.1897887 -0.5638298 -0.38590503 0.45523244 -0.11565141
0.6480066 0.19472457 0.6010573 0.035395693 0.54840106 0.5645452 0.5081462 0.11776589
-0.045307454 0.0025708647 -0.1298407 0.445299 0.48420078 -0.63809294 -0.18917485 -0.6548814
-0.6911265 0.4880056 -0.6950577 -0.013532994 -0.2856266 -0.53802633 0.361519 -0.52201366
00000000: fdd2 663c 14fe c63e c900 bebe cf1c 283e
00000010: ed8f cdbe e991 00bf 129a f0be 0f4a 13bf
00000020: 485e 51bd cf09 de3e fc15 a3bd cb65 fb3e
00000030: 5c0e a93e 6309 00bf dae1 25bf df0f dc3e
00000040: af48 2f3e 1333 adbd cd90 1d3e de2e efbe
00000050: 79f7 853e 9750 8abe 7264 9abe 0207 d43d
00000060: eb01 af3e d579 203f f2f1 bbbe a59e 9b3d
00000070: de5d a2be adc3 2c3f 68b5 fd3e b34b 553e
00000080: 9987 d8be eab7 963e 1531 113e 6964 ccbe
00000090: cf21 193e 8c5b 113f 1ba4 6bbe a592 283f
000000a0: 3ea6 2fbf 1d8d 19be e2d9 8f3e f491 adbe
000000b0: b82d 353f ae3f 9ebe 761f d53e e220 243e
000000c0: 48a0 bdbe 6f4e 91be 4fe1 91be 6143 e0be
000000d0: 02a9 b93e 9473 433e 08f9 81be 6f1c 1abf
000000e0: ad5b 08bf a0d1 02bf 34d6 e4bd 1cbc 17bf
000000f0: a1a5 b93e 4546 133f 2a05 283f 6cc4 4cbe
00000100: fb4b 0dbf 98d8 243f 79b2 a8be 4695 813d
00000110: cb6f 81be 8027 f93e dabc a8be 04ed b8be
00000120: 3566 b03d 41c6 be3e 658e 09bf e545 173e
00000130: 4787 30bf abcc 333f ce08 033f 2715 1cbe
00000140: 9399 623d 62a7 43be e6d2 1d3f 7284 cd3d
00000150: 9500 ef3e e256 8cbe a68d 1f3f 05e1 28bf
00000160: ea5f c03d 0c30 003f f02b fe3e 39bc cabd
00000170: e263 44be d744 0cbe e845 bbbe deb4 17bf
00000180: b0a6 0ebd 0c17 15bf 8372 8d3c f857 42be
00000190: 2657 10bf 5895 c5be 3a14 e93e a5da ecbd
000001a0: c3e3 253f e165 473e e4de 193f 13fb 103d
000001b0: 0364 0c3f 0986 103f df15 023f 3e2f f13d
000001c0: 4f94 39bd f47b 283b f6f4 04be 3bfe e33e
000001d0: 2ae9 f73e 0f5a 23bf 0db7 41be 4fa6 27bf
000001e0: abed 30bf dfdb f93e 4def 31bf 7eb9 5dbc
000001f0: a63d 92be 18bc 09bf 0519 b93e b0a2 05bf

encoder.feature_extract.mlps.0.linears.1.weight f4 [128, 128]
-0.014543313 -0.027690403 0.026451403 0.021153962 -0.04452515 -0.016775692 -0.026997874 0.054356195
0.06712015 0.04539824 -0.062363584 -0.00558527 0.012165455 -0.014986414 0.010989835 -0.064259015
0.052067388 0.07509156 0.0358398 -0.039569344 0.01760577 -0.014196428 -0.030771878 0.020818405
-0.052205462 -0.032991588 0.08542142 -0.0021466906 0.022066535 -0.070317276 0.020226745 -0.050116926
0.043305937 0.051595047 -0.011623254 0.047562838 0.022399962 -0.05367371 0.0672766 0.06335246
-0.014280736 0.024846943 -0.008904937 0.08117006 0.021637725 0.0039679785 -0.04217918 0.023635808
-0.054707512 0.008303097 0.017019458 0.024501314 -0.06277157 -0.07696096 -0.02381466 -0.06499201
-0.054763258 -0.010516956 0.0378454 0.05277414 -0.08272464 0.010505824 -0.04189908 -0.037777107
0.076625384 -0.022330549 -0.051587265 -0.031224122 0.03842941 0.081635945 0.019031545 -0.04495853
-0.035316728 -0.017711716 -0.032087725 -0.07272322 0.08881811 0.02010615 0.08224398 -0.030090574
0.07251704 -0.0060128774 0.06485308 0.058827884 -0.008829064 0.046437535 -0.0485389 -0.013246414
0.07286867 0.084177546 0.012509083 0.02825616 -0.04994096 -0.030487629 0.017792014 -0.074688345
-0.032161985 -0.007991702 0.0034560133 -0.04768384 0.07804799 -0.05342351 0.06868284 0.04192507
-0.03056319 0.076286346 0.066133186 0.005440015 -0.044350762 0.090018466 -0.006775465 -0.037881922
-0.077835105 0.048609573 -0.022840071 -0.021786548 -0.018672131 0.053382475 -0.045851797 -0.033279594
-0.07486779 0.08088523 -0.026184106 0.07264011 0.07265012 0.09400511 0.026968535 -0.08503492
-0.07940696 -0.0034208072 0.06926138 -0.018533383 0.079717994 0.043101013 0.067989215 0.07770048
-0.06744489 0.051838428 -0.04737381 -0.0268805 -0.0709383 -0.037142344 0.05690024 0.010022318
-0.023515496 0.032208845 0.012371048 -0.030726418 -0.043138884 0.011081916 0.008153479 0.0383662
0.0051018735 -0.079685226 0.077081904 -0.09031552 -0.0712226 -0.03530208 -0.04179454 0.018618176
-0.026642466 -0.03922039 0.011331544 -0.03164219 0.070076406 0.05934177 -0.015711468 0.06313254
-0.009004991 -0.006995954 0.019870047 -0.018354885 0.021451646 0.077527635 0.054186672 -0.02997899
-0.0023627558 0.016125184 0.058591045 0.017833373 0.06177721 -0.028212992 0.015543402 -0.08560158
-0.020268416 -0.02745441 0.0071171154 0.020708486 -0.06280239 0.042940017 0.030821431 -0.0011936206
0.08983137 0.0195273 -0.06354208 0.048150532 -0.019324226 0.06285819 0.057423115 0.06580537
-0.06978344 -0.090831354 0.08123486 -0.0034528212 -0.055205926 0.07631745 -0.080890715 -0.021247666
0.06311257 -0.062648736 0.08286395 0.07233628 0.034775052 0.080406465 0.05484845 -0.0033297287
0.020539874 0.027927808 0.07925456 0.07211365 0.093588054 0.054087862 -0.01559726 0.0021067446
0.05265253 -0.0870622 -0.05797909 0.0054556318 -0.077386975 0.06465762 -0.03116466 -0.034670476
-0.07669892 -0.008655782 -0.024589192 -0.055964578 -0.074421644 0.04392597 0.080153026 0.017273989
-0.014434926 0.086497515 -0.011723053 -0.0318852 -0.0524852 0.060909886 -0.033885524 0.029462209
0.013920436 0.02807169 0.042545643 0.029289128 -0.029703962 0.0879202 -0.016384883 0.06393487
00000000: 1347 6ebc fcd6 e2bc 9db0 d83c 134b ad3c
00000010: 0160 36bd 2d6d 89bc a52a ddbc 9aa4 5e3d
00000020: 4a76 893d 81f3 393d f570 7fbd a404 b7bb
00000030: 9e51 473c 9489 75bc b50e 343c 3b9a 83bd
00000040: 9d44 553d 9bc9 993d c1cc 123d 7713 22bd
00000050: fa39 903c 2298 68bc 4e15 fcbc 5c8b aa3c
00000060: 65d5 55bd 3022 07bd 6df1 ae3d 7eaf 0cbb
00000070: e1c4 b43c 8102 90bd 8fb2 a53c 6847 4dbd
00000080: 9161 313d 5455 533d 766f 3ebc 40d1 423d
00000090: 2080 b73c f7d8 5bbd 50c8 893d efbe 813d
000000a0: c0f9 69bc d18b cb3c 03e6 11bc 7d3c a63d
000000b0: 9941 b13c d105 823b 13c4 2cbd e29f c13c
000000c0: fc14 60bd b709 083c 646c 8b3c fbb6 c83c
000000d0: 628e 80bd b59d 9dbd f616 c3bc 881a 85bd
000000e0: 704f 60bd 504f 2cbc c703 1b3d b229 583d
000000f0: 896b a9bd 9f20 2c3c 5f9e 2bbd 2bbc 1abd
00000100: c5ed 9c3d 8eee b6bc 2b4d 53bd bbc9 ffbc
00000110: 2868 1d3d bf30 a73d 0be8 9b3c 7026 38bd
00000120: 46a8 10bd 2918 91bc 6b6e 03bd e9ef 94bd
00000130: 45e6 b53d a7b5 a43c 886f a83d 8280 f6bc
00000140: d083 943d ac07 c5bb b1d1 843d 82f5 703d
00000150: c7a7 10bc 4935 3e3d bad0 46bd 7d07 59bc
00000160: 2b3c 953d 4765 ac3d e6f2 4c3c 7679 e73c
00000170: e48e 4cbd 31c1 f9bc 8fc0 913c 34f6 98bd
00000180: 49bc 03bd a1ef 02bc 487e 623b 2150 43bd
00000190: a0d7 9f3d 9cd2 5abd 97a9 8c3d 9fb9 2b3d
000001a0: a85f fabc 043c 9c3d d670 873d 2742 b23b
000001b0: 25a9 35bd 9a5b b83d b804 debb 132a 1bbd
000001c0: 0368 9fbd d51a 473d 1a1b bbbc b479 b2bc
000001d0: 4cf6 98bc 95a7 5a3d 18cf 3bbd 2f50 08bd
000001e0: 4954 99bd 28a7 a53d 0d80 d6bc 57c4 943d
000001f0: 96c9 943d c085 c03d 1eed dc3c ca26 aebd
00000200: 1ea0 a2bd 9f2f 60bb e9d8 8d3d 52d3 97bc
00000210: 3043 a33d b08a 303d ee3d 8b3d 6e21 9f3d
00000220: 8c20 8abd 8854 543d 0a0b 42bd 7f34 dcbc
00000230: 1948 91bd 9222 18bd 3a10 693d a634 243c
00000240: 92a3 c0bc 6ced 033d f0af 4a3c f8b5 fbbc
00000250: 66b2 30bd ed90 353c 2b96 053c e025 1d3d
00000260: 9e2d a73b 0232 a3bd 1edd 9d3d 58f7 b8bd
00000270: 28dd 91bd ea98 10bd c030 2bbd 2585 983c
00000280: 4d41 dabc 8fa5 20bd f1a7 393c 3e9b 01bd
00000290: 3884 8f3d 5b10 733d 56b5 80bc a24b 813d
000002a0: ab89 13bc 513e e5bb 82c6 a23c fc5c 96bc
000002b0: 5dbb af3c cfc6 9e3d d8f2 5d3d 8096 f5bc
000002c0: 77d8 1abb f618 843c 2afd 6f3d 4b17 923c
000002d0: 1a0a 7d3d ef1e e7bc c1a9 7e3c e24f afbd
000002e0: f309 a6bc 12e8 e0bc b136 e93b d8a4 a93c
000002f0: 8a9e 80bd dfe1 2f3d 3a7d fc3c 4373 9cba
00000300: 82f9 b73d b7f7 9f3c 5a22 82bd 7e39 453d
00000310: d74d 9ebc cbbb 803d 8034 6b3d f7c4 863d
00000320: 9fea 8ebd ca05 babd 765e a63d ba48 62bb
00000330: 9c1f 62bd 534c 9c3d 08aa a5bd 960f aebc
00000340: 2a41 813d fb4d 80bd 93b4 a93d 0b25 943d
00000350: 4970 0e3d 25ac a43d c5a8 603d 9437 5abb
00000360: 3d43 a83c dcc8 e43c 3750 a23d 52b0 933d
00000370: 18ab bf3d 3c8b 5d3d a68b 7fbc 4f11 0a3b
00000380: 2eaa 573d ab4d b2bd 7b7b 6dbd 28c5 b23b
00000390: 107d 9ebd 376b 843d 074d ffbc a102 0ebd
000003a0: 5314 9dbd fbd0 0dbc 466f c9bc 1d3b 65bd
000003b0: 606a 98bd b8eb 333d 4527 a43d 2e82 8d3c
000003c0: 7880 6cbc 9c25 b13d 0c12 40bc 0e9a 02bd
000003d0: b9fa 56bd a57c 793d 8ccb 0abd bb5a f13c
000003e0: 8a12 643c 9af6 e53c 5744 2e3d c1ef ef3c
000003f0: b955 f3bc 810f b43d 9739 86bc 49f0 823d

encoder.feature_extract.mlps.0.linears.1.bias f4 [128]
-0.013278252 -0.026142009 -0.025697667 0.05523024 0.03454454 0.020157866 0.0016826695 -0.08412585
-0.06848726 -0.080700256 -0.007213776 -0.068181396 -0.01259688 -0.004116821 0.07934872 0.07230407
0.080084525 -0.038419157 0.066400565 -0.02869018 0.04204002 -0.06827064 -0.05789268 -0.026783241
-0.042784482 -0.0062389136 0.04377339 0.047083445 0.059321456 0.014627922 -0.021595126 -0.03873378
-0.028501632 -0.024744136 -0.011481897 -0.06193467 0.07699494 0.056217253 -0.05791117 -0.038801324
0.013872001 0.023360806 0.049751908 0.07327157 0.041845776 -0.03314959 0.08715953 0.04447728
0.060053024 0.06158784 -0.091168016 -0.07624293 -0.04670167 -0.077044934 -0.020632409 0.016096726
0.041289676 0.031107713 -0.021030711 0.051138237 0.054765042 0.031429656 0.05451322 -0.01765633
-0.013746262 -0.017259173 -0.08563756 0.035159174 -0.0088164825 -0.01823456 0.06319207 -0.07119053
-0.062857404 0.046864912 -0.025983656 0.020447396 -0.049570985 -0.08218823 0.07872158 0.0006099994
-0.05623849 -0.018136438 -0.067375734 -0.067967355 0.04937325 -0.07646152 0.082018 -0.02685667
0.0037524195 0.032725155 -0.01793945 0.012730697 0.06473815 -0.04431847 -0.022811275 0.029878981
-0.01874726 -0.011732839 0.0822128 0.010819149 -0.045207128 -0.031291194 -0.0839762 -0.010693679
0.0019882 -0.05870366 -0.023201086 0.061845392 0.018973332 0.027923001 0.0069802273 0.029894825
0.08746919 0.090554506 0.03238912 -0.073756166 -0.043433454 -0.06980297 -0.07447954 0.023374269
-0.02759914 0.026661713 -0.0006493269 0.02496977 -0.038045477 -0.0022107558 -0.010840417 -0.02391729
00000000: 078d 59bc c427 d6bc ea83 d2bc 1b39 623d
00000010: 937e 0d3d 1c22 a53c 058d dc3a 2c4a acbd
00000020: 0c43 8cbd 2d46 a5bd 8a61 ecbb b0a2 8bbd
00000030: 2563 4ebc 66e6 86bb 9581 a23d 2814 943d
00000040: 5b03 a43d 685d 1dbd 05fd 873d ab07 ebbc
00000050: 2832 2c3d 7ad1 8bbd e020 6dbd 8768 dbbc
00000060: c83e 2fbd cd6f ccbb ba4b 333d 92da 403d
00000070: 0efb 723d f4a9 6f3c 43e8 b0bc 50a7 1ebd
00000080: 417c e9bc 37b4 cabc 911e 3cbc 35af 7dbd
00000090: 86af 9d3d 1044 663d 4334 6dbd 23ee 1ebd
000000a0: 6447 633c 295f bf3c a8c8 4b3d 680f 963d
000000b0: 7a66 2b3d ddc7 07bd b280 b23d cf2d 363d
000000c0: 29fa 753d 8843 7c3d 4cb6 babd 4125 9cbd
000000d0: 404a 3fbd bcc9 9dbd 4c05 a9bc 48dd 833c
000000e0: 5d1f 293d 9ad5 fe3c 9948 acbc 5476 513d
000000f0: 4f51 603d 62bc 003d 4149 5f3d 02a4 90bc
00000100: 0038 61bc 1c63 8dbc bf62 afbd 1103 103d
00000110: 0273 10bc a560 95bc d86a 813d 57cc 91bd
00000120: 62bb 80bd 6cf5 3f3d addb d4bc 4c81 a73c
00000130: f20a 4bbd 4d52 a8bd c838 a13d 5ee8 1f3a
00000140: 555a 66bd de92 94bc 4afc 89bd 7832 8bbd
00000150: 9b3b 4a3d db97 9cbd 0ef9 a73d 8502 dcbc
00000160: 27eb 753b d00a 063d c1f5 92bc 6a94 503c
00000170: 6f95 843d 4987 35bd b6de babc c4c4 f43c
00000180: db93 99bc 183b 40bc 2f5f a83d cd42 313c
00000190: 1c2b 39bd 322b 00bd b7fb abbd 8a34 2fbc
000001a0: 764c 023b 4073 70bd 3410 bebc 9851 7d3d
000001b0: f66d 9b3c c7be e43c 64ba e43b fee5 f43c
000001c0: 0c23 b33d a474 b93d 74aa 043d 790d 97bd
000001d0: 47e7 31bd dcf4 8ebd bb88 98bd 657b bf3c
000001e0: 9717 e2bc aa69 da3c 9737 2aba 678d cc3c
000001f0: 93d5 1bbd 54e2 10bb 019c 31bc 31ee c3bc

encoder.feature_extract.mlps.0.linears.2.weight f4 [128, 128]
0.0008385106 -0.020263394 -0.05997645 -0.030143993 0.081972644 0.070119254 0.07222844 0.021755964
0.09363429 -0.027517335 -0.060079258 -0.045018177 0.058345746 0.03781338 -0.006848548 -0.05790639
-0.01873905 -0.07521701 -0.05569112 0.050416633 -0.019938497 0.054814074 -0.009725098 -0.047993507
-0.0013753081 0.065719746 0.04860372 0.058552638 0.014187389 -0.013623606 0.026657632 0.0041500023
0.017893247 -0.032000884 -0.066026546 -0.073195 0.06046542 0.039187234 -0.04589045 -0.036163114
-0.048867952 -0.02255314 -0.040803526 0.042813104 0.007073735 0.077478945 -0.007110664 0.0059490763
-0.04666064 0.04443675 0.020536184 0.0146167455 0.073515356 -0.067451365 -0.040895816 -0.010791937
-0.012680514 0.047626656 -0.03973834 -0.058442507 -0.011107759 0.034519315 -0.053928517 -0.066066496
-0.049978025 0.0003418575 -0.06093847 0.08634571 -0.081587635 -0.011816377 0.041913185 0.07172307
0.02681879 0.056522347 0.07299607 -0.08475625 -0.057432476 -0.08233005 0.04052166 0.058218617
-0.039114088 0.0669246 -0.015153274 0.07283367 -0.06875816 0.016457492 0.08560345 0.008033936
-0.04019467 0.063036084 -0.0736523 0.07188586 -0.077519566 0.019076435 -0.0061627734 0.0032881526
-0.052414387 0.056365523 0.0789915 0.0062003294 0.0509971 -0.042519864 0.048087906 0.06815208
-0.008031916 0.085860856 -0.04117313 0.011317165 0.03263561 -0.085498184 -0.06107786 -0.03166688
0.016966943 0.08371054 0.07315662 0.060865603 -0.06487723 0.049622692 0.012253537 -0.050184157
0.039828047 -0.05681728 0.015180759 0.0800393 -0.051602766 -0.061960127 -0.036808632 -0.0036159938
0.04261772 -0.03607908 0.024017556 -0.05398255 -0.034151305 0.004689373 0.008282486 0.047689494
-0.05086815 0.07171803 0.028706389 -0.019666463 -0.022089034 0.06438408 -0.05426093 -0.027841184
-0.0853547 0.06817417 -0.0224094 0.0139935445 0.061097868 0.025593558 -0.04554575 -0.08135191
0.082405716 0.010683656 0.0020630148 0.051413167 0.039275285 -0.058139216 0.037634313 -0.07829006
0.05451878 0.01877778 0.033934593 0.03393192 0.06764638 -0.033204183 0.06699217 0.05699954
0.02656633 0.06342222 -0.03029521 -0.059846804 -0.03032084 0.05589145 -0.078880824 0.0149763115
-0.035519898 -0.08035123 -0.0308418 0.04377736 0.0045740535 0.0816417 0.018639756 0.0753074
-0.025571376 0.08095883 0.031046124 0.011636474 0.07236752 -0.01687881 0.08240018 -0.03018648
0.030332187 0.035142574 0.018343648 -0.00598931 -0.057329647 -0.021268796 0.028921869 -0.0786372
-0.06834595 0.0054143392 0.07767319 0.025950223 -0.05194191 -0.04128731 -0.0248104 -0.05223267
-0.08257603 -0.041159693 0.052422125 0.0073744766 -0.067038655 0.0025789877 -0.09157667 0.012690129
-0.029973937 0.008580466 -0.035862543 0.056601666 0.008070695 0.051101502 0.084655814 0.03360815
-0.024531128 4.875102e-06 0.065175265 -0.0530495 -0.07676226 0.039652456 0.07238727 0.019944785
0.040679827 -0.06419576 -0.09099553 0.0095051 0.08798878 0.03176218 -0.062247314 -0.0145008145
0.013773835 0.05493635 0.027844839 -0.0155778425 -0.0490632 0.06758817 -0.019212794 -0.058946744
-0.070942834 -0.018467331 -0.047264677 -0.02355059 0.08290591 -0.0417483 0.087447874 -0.002289903
00000000: 7ecf 5b3a 6bff a5bc dea9 75bd 89f0 f6bc
00000010: 46e1 a73d af9a 8f3d 81ec 933d 9039 b23c
00000020: 56c3 bf3d 096c e1bc ab15 76bd fb64 38bd
00000030: f3fb 6e3d 34e2 1a3d c969 e0bb 402f 6dbd
00000040: a382 99bc 600b 9abd 5f1c 64bd ac81 4e3d
00000050: 0f56 a3bc b984 603d 0456 1fbc d794 44bd
00000060: af43 b4ba 1398 863d b214 473d e4d4 6f3d
00000070: 3972 683c 8c35 5fbc 1b61 da3c befc 873b
00000080: dc94 923c 5c13 03bd ed38 87bd 43e7 95bd
00000090: 97aa 773d cb82 203d a0f7 3bbd c61f 14bd
000000a0: c329 48bd 5dc1 b8bc 9921 27bd cb5c 2f3d
000000b0: caca e73b 48ad 9e3d 9300 e9bb 78f0 c23b
000000c0: 3a1f 3fbd 4f03 363d 803b a83c 137b 6f3c
000000d0: 388f 963d f123 8abd 5f82 27bd aad0 30bc
000000e0: eec1 4fbc 2b14 433d abc4 22bd 6961 6fbd
000000f0: 51fd 35bc 2064 0d3d 26e4 5cbd df4d 87bd
00000100: c2b5 4cbd 563b b339 9e9a 79bd 05d6 b03d
00000110: 6b17 a7bd 7a99 41bc 29ad 2b3d 8ce3 923d
00000120: 14b3 db3c fa83 673d f77e 953d af94 adbd
00000130: 513e 6bbd a89c a8bd 0afa 253d a576 6e3d
00000140: 1836 20bd c40f 893d 7045 78bc d229 953d
00000150: 14d1 8cbd ddd1 863c dd50 af3d c5a0 033c
00000160: 2ba3 24bd 1019 813d 04d7 96bd e538 933d
00000170: 94c2 9ebd 2f46 9c3c 17f1 c9bb 0c7e 573b
00000180: 78b0 56bd 89df 663d 4cc6 a13d 222c cb3b
00000190: 56e2 503d 4f29 2ebd d3f7 443d 5193 8b3d
000001a0: 4c98 03bc d1d7 af3d 28a5 28bd a16b 393c
000001b0: ebac 053d ac19 afbd c72c 7abd 21b5 01bd
000001c0: 42fe 8a3c 6e70 ab3d 23d3 953d 364e 793d
000001d0: 5ade 84bd 2a41 4b3d 0fc3 483c e78d 4dbd
000001e0: bc22 233d 3cb9 68bd b8b8 783c a5eb a33d
000001f0: 6c5d 53bd e7c9 7dbd a6c4 16bd 4ffa 6cbb
00000200: eb8f 2e3d a8c7 13bd 77c0 c43c ce1c 5dbd
00000210: 3de2 0bbd 50a9 993b 44b3 073c 0f56 433d
00000220: 1f5b 50bd e7e0 923d a929 eb3c 901b a1bc
00000230: 10f4 b4bc cddb 833d b540 5ebd 3213 e4bc
00000240: 72ce aebd e69e 8b3d eb93 b7bc 2e45 653c
00000250: c241 7a3d 95a9 d13c 2e8e 3abd d59b a6bd
00000260: 54c4 a83d 800a 2f3c a533 073b 9d96 523d
00000270: 1fdf 203d 6323 6ebd 7026 1a3d 8a56 a0bd
00000280: 164f 5f3d dcd3 993c 00ff 0a3d 32fc 0a3d
00000290: 2f8a 8a3d 1c01 08bd 3133 893d 5a78 693d
000002a0: a2a1 d93c 82e3 813d a92d f8bc ec21 75bd
000002b0: 6963 f8bc 6fee 643d 458c a1bd 345f 753c
000002c0: 507d 11bd 308f a4bd f1a7 fcbc e44f 333d
000002d0: f1e1 953b c333 a73d 67b2 983c c43a 9a3d
000002e0: 107b d1bc becd a53d 7154 fe3c e9a6 3e3c
000002f0: 6c35 943d 6e45 8abc 6dc1 a83d a349 f7bc
00000300: 357b f83c a9f1 0f3d 6b45 963c f941 c4bb
00000310: 7ed2 6abd e63b aebc 8eed ec3c 8a0c a1bd
00000320: f6f8 8bbd c56a b13b 1f13 9f3d 9095 d43c
00000330: 0ac1 54bd e21c 29bd 2e3f cbbc edf1 55bd
00000340: 9f1d a9bd 1197 28bd 95b8 563d 98a5 f13b
00000350: 904b 89bd 3c04 293b 8d8c bbbd 42ea 4f3c
00000360: e78b f5bc 1595 0c3c 9ae4 12bd 26d7 673d
00000370: f33a 043c cf4f 513d 0760 ad3d b3a8 093d
00000380: 81f5 c8bc cf94 a336 9c7a 853d 6f4a 59bd
00000390: 8835 9dbd 9d6a 223d c73f 943d 3f63 a33c
000003a0: e49f 263d 1179 83bd dd5b babd 47bb 1b3c
000003b0: 7633 b43d 0f19 023d 0af7 7ebd d394 6dbc
000003c0: a7ab 613c f004 613d dc1a e43c 353a 7fbc
000003d0: 7ef6 48bd ab6b 8a3d 2664 9dbc 2472 71bd
000003e0: 7a4a 91bd cd48 97bc 9b98 41bd 2bed c0bc
000003f0: 93ca a93d 4400 2bbd df17 b33d 3212 16bb

encoder.feature_extract.mlps.0.linears.2.bias f4 [128]
0.045695852 0.05034866 0.031415943 0.08705554 -0.04818517 0.041185584 0.015695957 -0.06095159
0.029213412 0.036781177 0.012780928 -0.023534324 -0.07945028 0.062059462 0.059075844 -0.09029462
0.05095388 -0.069940425 0.0076374286 0.059024744 0.044582587 0.05992723 0.025325751 0.08793325
-0.049827244 0.04794601 0.01818255 -0.08363317 0.069716856 -0.020833801 -0.028483372 -0.08273269
-0.064400144 0.07955376 0.08697529 -0.07383951 0.017755175 0.02902602 -0.0008693626 0.0893994
-0.011622364 0.0047196397 -0.0786858 -0.050707906 0.0062906677 -0.0039422847 -0.02946382 -0.023246286
-0.052408066 -0.026914345 0.08389203 0.033676863 0.054406475 -0.06771822 0.06835983 0.045648765
0.04296628 -0.02088812 -0.030842887 0.07703818 0.010988612 -0.081700265 0.019372495 -0.053415347
-0.08432647 0.022507733 0.0341171 0.07938597 -0.03691554 0.05889503 -0.05673453 0.071707316
0.018755563 0.079667024 0.07727509 -0.049731236 0.04965076 0.00022301608 -0.077995844 0.016006926
-0.05792706 0.05419776 0.014820627 -0.054627005 -0.028385716 -0.07657767 -0.012748776 0.07134524
-0.07940418 -0.06817325 -0.05290818 -0.068320565 -0.019527566 -0.055286992 2.9450364e-05 0.05371628
-0.052405108 -0.030055631 0.014814685 0.055189863 -0.0121883545 -0.06577486 0.020119093 0.07032314
0.017870123 0.049198702 0.015668498 0.029067608 -0.02486 -0.08484378 -0.024555897 -0.050611056
0.077862896 0.047988515 -0.08570531 0.044334687 -0.021319881 0.023148786 -0.005722872 0.05413555
0.018188441 0.058274925 -0.08852847 -0.012643699 0.08313739 0.010474684 -0.028750874 -0.029781038
00000000: 932b 3b3d 663a 4e3d 01ae 003d 2d4a b23d
00000010: d05d 45bd 37b2 283d cf94 803c 60a8 79bd
00000020: f750 ef3c dca7 163d 1967 513c 0ecb c0bc
00000030: d4b6 a2bd 1032 7e3d 83f9 713d 63ec b8bd
00000040: 04b5 503d ed3c 8fbd 6543 fa3b eec3 713d
00000050: 3b9c 363d 4176 753d f377 cf3c 5916 b43d
00000060: a717 4cbd 0963 443d 92f3 943c de47 abbd
00000070: b6c7 8e3d a6ab aabc f655 e9bc c26f a9bd
00000080: 39e4 83bd 15ed a23d 1a20 b23d 2b39 97bd
00000090: 4d73 913c fac7 ed3c f0e5 63ba 0817 b73d
000000a0: ba6b 3ebc 35a7 9a3b 0526 a1bd 18b3 4fbd
000000b0: f221 ce3b 482e 81bb 1c5e f1bc ff6e bebc
000000c0: d7a9 56bd 797b dcbc 96cf ab3d c0f0 093d
000000d0: 53d9 5e3d daaf 8abd 3d00 8c3d 33fa 3a3d
000000e0: 69fd 2f3d 901d abbc 39aa fcbc 31c6 9d3d
000000f0: 9409 343c 7852 a7bd 11b3 9e3c 0dca 5abd
00000100: 5bb3 acbd 2362 b83c 5fbe 0b3d 1d95 a23d
00000110: c034 17bd ea3b 713d 7762 68bd 49db 923d
00000120: 44a5 993c 7728 a33d 6742 9e3d fbb2 4bbd
00000130: 985e 4b3d 6cd9 6939 49bc 9fbd f520 833c
00000140: ed44 6dbd 78fe 5d3d 37d2 723c 91c0 5fbd
00000150: 2989 e8bc c1d4 9cbd 3ee0 50bc 741d 923d
00000160: a99e a2bd 6b9e 8bbd 3fb6 58bd a7eb 8bbd
00000170: 46f8 9fbc 9d74 62bd 2d0c f737 9a05 5c3d
00000180: bda6 56bd 3a37 f6bc 4bb9 723c c40e 623d
00000190: aab1 47bc f8b4 86bd ccd0 a43c 9405 903d
000001a0: 5d64 923c 9484 493d 395b 803c 311f ee3c
000001b0: 33a7 cbbc 93c2 adbd 7329 c9bc 8a4d 4fbd
000001c0: 9576 9f3d 9b8f 443d 4486 afbd 4a98 353d
000001d0: 08a7 aebc 86a2 bd3c ee86 bbbb 3dbd 5d3d
000001e0: edff 943c b0b1 6e3d 6a4e b5bd 8427 4fbc
000001f0: f043 aa3d 029e 2b3c f486 ebbc 5df7 f3bc

encoder.feature_extract.mlps.0.batch_norms.0.weight f4 [128]
0.99968195 1.0081642 0.999442 1.0005077 1.0043397 0.9997048 0.99904376 0.9996584
0.99605113 1.0011199 0.99736947 1.0066321 0.9978633 1.0020405 0.99302316 0.9989427
1.002199 1.0035361 1.0008756 0.9982201 0.9962795 0.9966597 1.0034611 1.0018947
0.9939701 1.0045469 1.0034806 0.99908173 1.0039914 1.0054369 0.99905163 0.9999512
0.9954951 1.0015979 1.0008012 1.0025188 1.001692 0.99565595 1.0001639 1.0021799
0.99726987 0.9971649 0.99750894 1.0037031 0.9972111 1.0024633 0.99920404 0.99550605
0.99547976 0.9992532 0.99765015 0.9945867 1.0003791 0.9964382 1.0009372 1.0000861
0.9998845 1.0054765 1.0007637 0.99457234 0.9983756 1.0035518 1.0018165 0.9987488
0.9948689 1.0006161 0.999416 1.0078495 0.99711674 0.9923123 1.0002263 1.0036924
0.99335605 0.9981106 1.0033746 1.0024707 1.0010577 0.99407226 1.0050489 0.9960671
0.99930674 1.0012901 0.99991274 0.9957375 0.9996193 0.99713176 1.0040059 1.0024719
0.99717706 0.9992122 0.9998108 0.9957072 1.0007507 0.9986935 0.9995945 0.9960546
1.0042272 0.9987697 1.0048952 1.0042555 1.0030097 0.9987175 1.0069898 0.99849355
1.0005164 0.9951844 1.0070504 1.006889 1.0028249 0.999255 0.99493676 0.99731785
0.9974758 0.99918276 0.9972873 0.9977084 1.0030761 1.0052541 1.0015506 1.0006497
1.000849 1.0009778 1.0083128 1.0064175 0.9993337 0.9933295 0.99942803 0.999795
00000000: 28eb 7f3f 860b 813f 6edb 7f3f a310 803f
00000010: 348e 803f a7ec 7f3f 55c1 7f3f 9de9 7f3f
00000020: 35fd 7e3f b224 803f 9b53 7f3f 52d9 803f
00000030: f873 7f3f dd42 803f c436 7e3f b5ba 7f3f
00000040: 0f48 803f df73 803f b11c 803f 5a8b 7f3f
00000050: 2c0c 7f3f 1725 7f3f 6a71 803f 163e 803f
00000060: d374 7e3f fe94 803f 0d72 803f d2c3 7f3f
00000070: ca82 803f 28b2 803f d9c1 7f3f cdfc 7f3f
00000080: c4d8 7e3f 5c34 803f 411a 803f 8952 803f
00000090: 7237 803f 4fe3 7e3f 5f05 803f 6e47 803f
000000a0: 144d 7f3f 3346 7f3f bf5c 7f3f 5879 803f
000000b0: 3a49 7f3f b850 803f d6cb 7f3f 7cd9 7e3f
000000c0: c3d7 7e3f 0fcf 7f3f 0066 7f3f 3c9d 7e3f
000000d0: 6c0c 803f 9316 7f3f b61e 803f d202 803f
000000e0: 6ef8 7f3f 74b3 803f 0619 803f 4b9c 7e3f
000000f0: 8b95 7f3f 6374 803f 863b 803f 00ae 7f3f
00000100: baaf 7e3f 3014 803f bad9 7f3f 3601 813f
00000110: 0b43 7f3f 2e08 7e3f 6a07 803f fe78 803f
00000120: 954c 7e3f 2d84 7f3f 946e 803f f650 803f
00000130: a922 803f 857b 7e3f 71a5 803f 41fe 7e3f
00000140: 91d2 7f3f 462a 803f 48fa 7f3f a7e8 7e3f
00000150: 0de7 7f3f 0744 7f3f 4483 803f 0051 803f
00000160: ff46 7f3f 5fcc 7f3f 9af3 7f3f abe6 7e3f
00000170: 9918 803f 61aa 7f3f 6de5 7f3f 6ffd 7e3f
00000180: 848a 803f 5faf 7f3f 68a0 803f 728b 803f
00000190: 9f62 803f f3ab 7f3f 0be5 803f 469d 7f3f
000001a0: ec10 803f 68c4 7e3f 07e7 803f bde1 803f
000001b0: 915c 803f 2dcf 7f3f 2db4 7e3f 3950 7f3f
000001c0: 935a 7f3f 71ca 7f3f 384e 7f3f d169 7f3f
000001d0: cc64 803f 2bac 803f cf32 803f 4a15 803f
000001e0: d21b 803f 0a20 803f 6510 813f 4ad2 803f
000001f0: 55d4 7f3f d84a 7e3f 84da 7f3f 91f2 7f3f

encoder.feature_extract.mlps.0.batch_norms.0.bias f4 [128]
-3.2499967e-05 0.0064699817 -0.0016909323 -0.0008288401 -0.0023433885 0.0018717187 0.0039609787 0.005220042
0.00091292284 -0.00056220195 0.0033175163 0.005432593 -0.009025951 0.004535292 -0.0034840147 0.0018696608
0.0036405805 -0.008623906 0.0059222407 0.0069801128 -0.0074330587 -0.002210657 -0.0014014279 0.0019401808
-0.0038069396 -0.002375447 0.007278203 -0.003680752 0.008061496 0.0008380925 0.0027169364 -0.0010244658
-0.0034297842 0.004026204 -0.003859351 -0.0012937045 0.0021279883 -0.0008359677 0.00039878604 -0.0006441206
-0.0003712844 -0.0049728868 -0.0042922944 -0.0020654118 -0.009870893 -0.0021310889 -0.007829001 -0.0040176073
0.004233625 -0.0066679376 0.0011666504 -0.003767201 0.00254978 -0.007657719 0.005030973 0.003259545
-0.010008448 -0.0022891953 -0.0013848072 0.0012590367 -0.0021567803 0.0044062417 0.0025727286 -0.0013192071
-0.004414417 0.004847137 0.0022451787 0.003541555 0.0061580017 -0.0023628976 -0.0023287397 0.0030110765
-0.010191926 0.0076337126 0.004125934 0.0052029225 -0.0031101953 0.0022829603 -0.0033134765 -0.0005971365
-0.003305652 -0.004476711 0.0010544527 -0.0024824003 0.002624131 0.0092774425 -0.00087439414 -0.0014067063
-0.0025908318 0.0008944055 0.00082267955 -0.0016860119 -7.779745e-05 0.0017901026 0.0036763716 0.00496938
-0.0016728524 -0.0038958257 -0.002340204 0.0002295633 0.008307613 0.0020976593 0.0040345453 -0.0027234387
-0.0038590212 -0.012090205 -0.00077211193 -0.0009851763 -0.00036073575 -0.0023124025 -0.0057863826 -0.0069836155
-0.0023059053 -0.0046981145 -5.53394e-05 0.0006023609 -0.0083285095 0.002943064 -0.0013323238 -0.00020071973
-0.00092647714 0.004567436 0.0040149186 -0.0010389604 -0.0041383384 -0.0028386833 0.0034805192 -0.0035933673
00000000: 9350 08b8 2402 d43b 46a2 ddba 8446 59ba
00000010: 8993 19bb 7554 f53a 19cb 813b e30c ab3b
00000020: 3751 6f3a bc60 13ba b06a 593b e503 b23b
00000030: 95e1 13bc c99c 943b 1154 64bb 680f f53a
00000040: ce96 6e3b 494b 0dbc 5b0f c23b 6eb9 e43b
00000050: 0491 f3bb ace0 10bb 1eb0 b7ba aa4d fe3a
00000060: d97d 79bb 63ad 1bbb fe7d ee3b c538 71bb
00000070: 5d14 043c 70b3 5b3a a10e 323b 5e47 86ba
00000080: 3bc6 60bb 3fee 833b 2aed 7cbb 8591 a9ba
00000090: b875 0b3b d824 5bba 2814 d139 34da 28ba
000000a0: f3a8 c2b9 99f3 a2bb 60a6 8cbb dc5b 07bb
000000b0: 87b9 21bc bda9 0bbb 3645 00bc 22a6 83bb
000000c0: 38ba 8a3b b77e dabb 4bea 983a 25e3 76bb
000000d0: 361a 273b 9aed fabb dcda a43b 179e 553b
000000e0: 79fa 23bc 5306 16bb 6b82 b5ba 4306 a53a
000000f0: c558 0dbb 3c62 903b 399b 283b 3fe9 acba
00000100: d0a6 90bb bbd4 9e3b d923 133b 6f19 683b
00000110: 10c9 c93b d8da 1abb c59d 18bb 7b55 453b
00000120: 09fc 26bc 3924 fa3b d832 873b 477d aa3b
00000130: 6bd4 4bbb b89d 153b e926 59bb 2789 1cba
00000140: a3a3 58bb 60b1 92bb 9035 8a3a c4af 22bb
00000150: 9df9 2b3b 6a00 183c 9937 65ba 3b61 b8ba
00000160: f2ca 29bb 8976 6a3a 17a9 573a 2cfd dcba
00000170: 3027 a3b8 e0a1 ea3a 48ef 703b 2ed6 a23b
00000180: 9d43 dbba 1c51 7fbb 1c5e 19bb eeb6 7039
00000190: a81c 083c e278 093b 3834 843b b87b 32bb
000001a0: a2e7 7cbb ff15 46bc 8e67 4aba 0821 81ba
000001b0: 2221 bdb9 ad8b 17bb b29b bdbb d0d6 e4bb
000001c0: ac1e 17bb a4f2 99bb 3a1c 68b8 c1e7 1d3a
000001d0: 4d74 08bc 6ce0 403b 5ea1 aeba 4b78 52b9
000001e0: d4de 72ba 6eaa 953b 948f 833b ba2d 88ba
000001f0: e69a 87bb 3409 3abb 6c19 643b b37e 6bbb

encoder.feature_extract.mlps.0.batch_norms.0.running_mean f4 [128]
0.32684228 -0.08003151 -0.52058965 0.8332538 -0.3356701 -0.5930844 -0.12268117 -0.8995274
0.37381625 0.8525643 0.10527906 0.4704537 0.4833412 -0.38882595 -0.9002781 0.92919296
-0.56518406 -0.15319659 -0.048954107 -0.3239785 0.49641013 -0.8308836 0.44614542 0.7160559
0.8066517 0.07506956 -0.24583305 -0.5275383 -0.40752584 1.1075674 1.2020346 0.164369
0.2303477 0.67810595 -0.2964594 -1.0091549 -0.32570016 0.99074996 0.19799964 0.8840588
-1.341331 0.1850177 0.5702452 -0.14683612 0.4822455 -0.04336129 0.61209214 -0.41131014
0.15500154 -0.5481089 0.32728466 -0.396363 0.111389205 0.09212085 0.36791936 -0.9624871
-0.90825427 -0.88978946 -0.24338786 -1.2953972 0.035828833 1.2965652 0.5227199 -0.34278646
0.030795518 0.78786176 0.31541032 0.42444062 -0.6645488 0.09647966 0.10526401 -0.8928987
0.4765813 -0.16748644 -0.17150772 0.18921727 -0.43470758 0.9609165 0.8051426 0.13383307
-0.14590123 -0.26745325 1.1411209 0.065866634 1.0442305 -0.9141071 0.30732402 -1.0784103
-0.22523172 0.44248566 0.30384293 0.2658163 0.06644402 0.26143566 -0.6373398 -0.26912746
0.14420779 -0.9571961 0.31506506 -0.24579833 -0.8276636 0.25552678 0.3328026 0.27755234
0.73478705 0.5115598 0.0012512731 -0.26114538 0.87572837 0.78848416 0.994137 0.24833514
-0.13387014 0.47938162 -0.7262606 0.67904913 0.7351399 -0.4991418 -0.17382203 -0.38700253
-1.3402169 -0.17890592 -1.1305856 0.55483574 0.008574958 -0.36533552 -0.23136337 -1.0596974
00000000: df57 a73e 8fe7 a3bd 5d45 05bf 1f50 553f
00000010: f4dc abbe 61d4 17bf 4440 fbbd 6d47 66bf
00000020: d864 bf3e a741 5a3f 8c9c d73d 4fdf f03e
00000030: 7f78 f73e 3214 c7be a078 66bf 97df 6d3f
00000040: e7af 10bf 91df 1cbe 1a84 48bd 83e0 a5be
00000050: 7829 fe3e cab4 54bf 2c6d e43e 714f 373f
00000060: ba80 4e3f 12be 993d a9bb 7bbe c00c 07bf
00000070: 3aa7 d0be c5c4 8d3f 45dc 993f 5950 283e
00000080: 44e0 6b3e 5a98 2d3f 87c9 97be fd2b 81bf
00000090: 2cc2 a6be caa1 7d3f 6bc0 4a3e ad51 623f
000000a0: bcb0 abbf 4875 3d3e 97fb 113f 355c 16be
000000b0: e2e8 f63e 9c9b 31bd 12b2 1c3f 3e97 d2be
000000c0: b9b8 1e3e dd50 0cbf db91 a73e 17f0 cabe
000000d0: 0620 e43d dba9 bc3d ed5f bc3e 8e65 76bf
000000e0: 5a83 68bf 3ec9 63bf ab3a 79be 93cf a5bf
000000f0: 41c1 123d d9f5 a53f f9d0 053f b581 afbe
00000100: e246 fc3c 4fb1 493f 767d a13e 4850 d93e
00000110: df1f 2abf 2197 c53d a894 d73d 0295 64bf
00000120: 7702 f43e 9181 2bbe b89f 2fbe 2cc2 413e
00000130: fe91 debe a0fe 753f d31d 4e3f 890b 093e
00000140: 2267 15be a2ef 88be 4010 923f 16e5 863d
00000150: 58a9 853f ec02 6abf 9359 9d3e 5909 8abf
00000160: 25a3 66be 7b8d e23e 4d91 9b3e 1319 883e
00000170: cd13 883d e5da 853e b328 23bf 13cb 89be
00000180: 35ab 133e ce0a 75bf 3550 a13e 8fb2 7bbe
00000190: c3e1 53bf 68d4 823e 1a65 aa3e 571b 8e3e
000001a0: 011b 3c3f 95f5 023f c201 a43a d9b4 85be
000001b0: bc2f 603f 19da 493f c37f 7e3f 914b 7e3e
000001c0: 4115 09be 8271 f53e 37ec 39bf 2ad6 2d3f
000001d0: 2132 3c3f 848f ffbe 67fe 31be 3225 c6be
000001e0: 3a8c abbf 1d33 37be 07b7 90bf b709 0e3f
000001f0: fb7d 0c3c 420d bbbe 85ea 6cbe 2aa4 87bf

encoder.feature_extract.mlps.0.batch_norms.0.running_var f4 [128]
0.0033073616 0.007200049 0.0004222078 0.008790597 0.0042934474 0.0010320181 0.003337994 0.0030367833
0.005429511 0.0065494096 0.0007576469 0.0001537318 0.0010354914 0.00028628472 0.008566741 0.007176367
0.011330954 0.0037984746 0.0008161569 0.0008048117 0.0011341736 0.0060614194 0.011313655 0.007935717
0.0044221836 0.011133948 0.0004149218 0.007515678 0.00020377 0.0037653185 0.009788495 0.0003224331
0.0082038175 0.0038527085 0.008008803 0.008216848 0.0056546433 0.0047978796 0.0101509 0.004326196
0.008155197 0.0032761577 0.0028575703 0.00081199495 0.00096089777 0.0018492925 0.0075373254 0.017480975
0.011988963 0.001850977 0.0097748265 0.00012605087 0.0011934048 0.0012544568 0.0076005748 0.0033136955
0.002715038 0.005413294 0.005298678 0.009529908 0.0038043268 0.010056385 0.0009945185 0.005739155
0.014269553 0.0004230073 0.009638484 0.011038234 0.014001017 0.0036049576 0.0036578493 0.005348509
0.0029071493 0.013076212 0.0046331976 0.0034410898 0.0017536958 0.0013053056 0.002207707 0.0018499943
0.0037565678 0.0013857537 0.0053289686 0.002095336 0.012741075 0.0077551897 0.0021341392 0.007769253
0.0065773027 0.00016471578 0.0016142521 0.0032846802 0.0018623294 0.01228485 0.002527788 0.0037880903
0.0006090652 0.0026540332 0.00230928 0.000984959 0.002950996 0.008411002 0.0024078654 0.0054678842
0.0018528076 0.0021345275 0.015495047 0.0040525272 0.011213275 0.002345995 0.004488261 0.0003626413
0.0016393178 0.011748446 0.015417572 0.0010322925 0.006760199 0.00036484655 0.0027752856 0.0030741442
0.008189068 0.008753229 0.0059048906 0.006206513 0.0047106203 0.0030884468 0.006659119 0.011313969
00000000: 52c0 583b 63ee eb3b c65b dd39 7006 103c
00000010: 0cb0 8c3b c844 873a 3fc2 5a3b c504 473b
00000020: 0aea b13b 6e9c d63b d39c 463a 1133 2139
00000030: 53b9 873a 7c18 9639 845b 0c3c bb27 eb3b
00000040: 77a5 393c d4ef 783b 5df3 553a 00fa 523a
00000050: 8da8 943a df9e c63b e95c 393c cf04 023c
00000060: f7e7 903b 2a6b 363c dc89 d939 1446 f63b
00000070: 18ab 5539 90c3 763b ec5f 203c 3d0c a939
00000080: 4e69 063c b97d 7c3b 5b37 033c f59f 063c
00000090: 964a b93b 8837 9d3b f64f 263c c3c2 8d3b
000000a0: 609d 053c ceb4 563b 1346 3b3b 0fdc 543a
000000b0: c2e4 7b3a f663 f23a abfb f63b 4334 8f3c
000000c0: 5b6d 443c 7b9c f23a 9826 203c 862c 0439
000000d0: 056c 9c3a 966c a43a 3e0e f93b 962a 593b
000000e0: c7ee 313b 0062 b13b 88a0 ad3b 5523 1c3c
000000f0: 0352 793b 89c3 243c 815a 823a 860f bc3b
00000100: d8ca 693c 14c7 dd39 bbea 1d3c b6d9 343c
00000110: 8664 653c 2741 6c3b 87b8 6f3b 8c42 af3b
00000120: df85 3e3b 9c3d 563c 14d2 973b e883 613b
00000130: 44dc e53a ca16 ab3a 2daf 103b 827b f23a
00000140: c030 763b 2ea2 b53a a19e ae3b e851 093b
00000150: f1bf 503c 3f1f fe3b eadc 0b3b 3895 fe3b
00000160: 6a86 d73b 8eb7 2c39 5095 d33a ca43 573b
00000170: 6819 f43a 6546 493c 3fa9 253b 9c41 783b
00000180: aca9 1f3a 4aef 2d3b 4a57 173b bd19 813a
00000190: 7f65 413b 4dce 093c 47cd 1d3b f02b b33b
000001a0: e8d9 f23a 6ee3 0b3b f0de 7d3c 10cb 843b
000001b0: e2b7 373c 44bf 193b 4312 933b e420 be39
000001c0: 61de d63a 8e7c 403c fc99 7c3c fd4d 873a
000001d0: a984 dd3b e048 bf39 91e1 353b 9577 493b
000001e0: 712b 063c b469 0f3c d07d c13b 0160 cb3b
000001f0: 8c5b 9a3b 8a67 4a3b bd34 da3b 3a5e 393c

encoder.feature_extract.mlps.0.batch_norms.1.weight f4 [128]
1.006369 0.9962076 0.995656 0.9931057 1.002174 1.0071546 0.997762 0.9936906
1.0072707 0.99602914 0.99868387 1.0019732 0.9957415 0.9930009 1.0040962 0.9906008
0.99481696 0.992158 0.99375165 1.0013485 1.0021002 0.9956889 0.99966705 0.99700516
1.000902 0.99862653 1.0000783 0.9979392 0.99582636 1.005172 1.0019464 1.0030503
0.996312 0.99722755 0.9962723 0.9999779 1.0035404 0.9945107 1.0076995 0.99420416
1.0004936 1.0012819 0.99691325 1.0024815 1.002428 1.0051636 0.99770284 0.9966767
1.0044506 0.996242 0.99075615 1.0016823 1.007757 0.9998319 0.99785346 1.0119357
0.9983852 1.0012336 0.99399316 1.005319 0.9981089 0.9995066 0.9995211 1.0072417
0.996173 1.008989 1.0004147 1.0050571 0.99511963 0.9899181 1.0104556 1.0038004
1.0031605 0.99262595 0.98961204 1.0049318 1.00172 1.0007613 1.0063539 0.999318
0.9945961 1.0068254 1.0023309 1.0052689 0.999617 1.0048456 0.9985773 0.99728125
1.0026125 0.99097854 1.0006979 1.004658 1.0008922 1.0088962 1.000517 1.0003301
0.9969223 0.9999938 1.0048884 0.99887836 1.0019671 0.9976162 0.9987236 0.99870944
0.99974835 1.0024263 0.9901483 0.9930247 1.0017043 0.9939658 0.992771 0.9944701
1.0004348 0.9987417 0.99670714 1.0008469 0.9998322 1.0040945 0.99624693 0.9963082
1.0035076 0.99644274 1.0074134 1.0142466 1.0056107 0.9970799 1.0043163 1.0010558
00000000: b3d0 803f 7607 7f3f 50e3 7e3f 2d3c 7e3f
00000010: 3d47 803f 71ea 803f 556d 7f3f 8262 7e3f
00000020: 3fee 803f c4fb 7e3f bfa9 7f3f a840 803f
00000030: eae8 7e3f 4f35 7e3f 3986 803f 0498 7d3f
00000040: 53ac 7e3f 11fe 7d3f 8266 7e3f 302c 803f
00000050: d244 803f 78e5 7e3f 2eea 7f3f bb3b 7f3f
00000060: 8f1d 803f fda5 7f3f 9102 803f f278 7f3f
00000070: 7aee 7e3f 7aa9 803f c83f 803f f463 803f
00000080: 4e0e 7f3f 4e4a 7f3f b40b 7f3f 8dfe 7f3f
00000090: 0374 803f 4198 7e3f 4cfc 803f 2a84 7e3f
000000a0: 2d10 803f 012a 803f b535 7f3f 5051 803f
000000b0: 904f 803f 33a9 803f 7469 7f3f 3426 7f3f
000000c0: d691 803f b709 7f3f 32a2 7d3f 2037 803f
000000d0: 2efe 803f fcf4 7f3f 5373 7f3f 1c87 813f
000000e0: 2c96 7f3f 6c28 803f 5676 7e3f 4bae 803f
000000f0: 1184 7f3f aadf 7f3f 9de0 7f3f 4ced 803f
00000100: 3205 7f3f 8d26 813f 970d 803f b6a5 803f
00000110: 29c0 7e3f 466b 7d3f 9c56 813f 887c 803f
00000120: 9067 803f bc1c 7e3f 3757 7d3f 9ba1 803f
00000130: 5c38 803f f218 803f 34d0 803f 4ed3 7f3f
00000140: da9d 7e3f a8df 803f 614c 803f a7ac 803f
00000150: e6e6 7f3f c89e 803f c3a2 7f3f d34d 7f3f
00000160: 9b55 803f c5b0 7d3f de16 803f a298 803f
00000170: 3c1d 803f 8323 813f f110 803f d10a 803f
00000180: 4d36 7f3f 98ff 7f3f 2fa0 803f 7eb6 7f3f
00000190: 7540 803f c663 7f3f 5aac 7f3f 6cab 7f3f
000001a0: 82ef 7f3f 814f 803f 5c7a 7d3f de36 7e3f
000001b0: d937 803f 8b74 7e3f 3e26 7e3f 9895 7e3f
000001c0: 3f0e 803f 89ad 7f3f 3328 7f3f c01b 803f
000001d0: 01f5 7f3f 2b86 803f 0a0a 7f3f 0e0e 7f3f
000001e0: f072 803f df16 7f3f ecf2 803f d5d2 813f
000001f0: dab7 803f a140 7f3f 708d 803f 9922 803f

encoder.feature_extract.mlps.0.batch_norms.1.bias f4 [128]
-0.0056233266 -0.0067113806 -0.009445963 -0.0009973018 0.0017748796 0.0050194585 -0.0037890964 -0.0070070093
-0.0031297172 -0.0008610099 0.008391532 -0.0024279284 -0.001125285 -0.0020691706 0.003462961 -0.006583518
-0.0022309066 -0.0018776691 -0.0032473987 -0.003398592 0.008376456 0.0027247884 -0.000819727 -0.0014649904
0.002921074 -0.0071432493 -0.0007338625 -0.0010815586 -0.005231042 0.011561696 -6.8639616e-05 -0.0012968297
-0.0009910021 0.0022803997 -0.00029915833 -0.0014386846 0.0050508925 0.002189605 -0.00067986565 0.0052006487
0.0010400302 -0.0043107523 0.0037537583 0.00082972134 0.0026186972 0.0015487653 -0.0053728954 -0.013386815
0.0081117125 -0.007457717 -0.0013428141 0.013859836 0.00587198 -0.00431365 -0.005278708 0.00010287109
-0.003110115 0.0012639307 -0.0040330803 0.0070715575 -0.008671661 -0.0025912926 0.0034603633 0.009381269
-0.008952748 0.0015286194 -0.004999834 -0.0028335121 -0.0013955964 -0.0064707613 0.012512979 -0.0027102565
-0.006545248 -0.0074026026 -0.0069740377 0.00394037 -0.000536987 0.0015029553 0.0040955306 0.00010857848
0.00039265654 0.0061018164 0.0026260759 0.0099574225 0.0031569824 0.0021739046 -0.0026457182 0.0014367605
0.006679981 -0.008936338 0.0012591124 -0.0116364015 -0.0035506613 0.00051491766 0.003310032 0.002765461
-0.0028799335 0.005115147 0.004366208 -0.004155408 0.003944874 -0.005361346 -0.00016043846 -0.00501522
-0.0015990784 0.0009302547 -0.00024741451 -0.004361079 0.0029065749 -0.0038170167 -0.00931794 0.008900324
-0.0012051435 -0.004208427 -0.00020357924 0.0043681804 -0.0043178704 -0.0058334013 0.00037402753 0.004983687
0.00113162 -0.0045366357 0.002359754 0.009310017 0.007955645 -0.0036112717 -0.0047735674 0.008697328
00000000: e243 b8bb 24eb dbbb 3ec3 1abc e5b7 82ba
00000010: 14a3 e83a 457a a43b 7d52 78bb 0e9b e5bb
00000020: f11b 4dbb 65b5 61ba a37c 093c e11d 1fbb
00000030: 4d7e 93ba ec9a 07bb d8f2 623b 8dba d7bb
00000040: 6734 12bb 1f1c f6ba 4fd2 54bb e9ba 5ebb
00000050: 673d 093c 5d92 323b f3e2 56ba ec04 c0ba
00000060: 7d6f 3f3b eb11 eabb ae60 40ba 16c3 8dba
00000070: 2969 abbb 456d 3d3c 9df2 8fb8 62fa a9ba
00000080: 83e4 81ba c272 153b 5ad8 9cb9 3f92 bcba
00000090: f581 a53b 7a7f 0f3b 0339 32ba 346a aa3b
000000a0: 9f51 883a 3641 8dbb 9d01 763b a881 593a
000000b0: 739e 2b3b f1ff ca3a 1d0f b0bb 5f54 5bbc
000000c0: fde6 043c dd5f f4bb 5d01 b0ba 5e14 633c
000000d0: bd69 c03b 8559 8dbb 03f9 acbb 7fbc d738
000000e0: 12d3 4bbb 7aaa a53a ee27 84bb 86b8 e73b
000000f0: 9513 0ebc add2 29bb 43c7 623b e5b3 193c
00000100: 8cae 12bc f55b c83a a6d5 a3bb 72b2 39bb
00000110: 72ec b6ba ae08 d4bb 3d03 4d3c 8f9e 31bb
00000120: 8579 d6bb 8891 f2bb 7886 e4bb 381e 813b
00000130: 96c4 0cba d0fe c43a cd33 863b a1b4 e338
00000140: 78dd cd39 bff1 c73b 3e1a 2c3b 7524 233c
00000150: 60e5 4e3b 1178 0e3b c963 2dbb af51 bc3a
00000160: bee3 da3b b869 12bc cd08 a53a 9ba6 3ebc
00000170: 36b2 68bb 8afb 063a 1fed 583b bd3c 353b
00000180: 44bd 3cbb f79c a73b 6812 8f3b 172a 88bb
00000190: 0044 813b 3bae afbb 5f3b 28b9 b756 a4bb
000001a0: 2b98 d1ba 56dc 733a 6ab7 81b9 62e7 8ebb
000001b0: 3c7c 3e3b ea26 7abb 46aa 18bc aad2 113c
000001c0: e8f5 9dba d8e6 89bb e377 55b9 f422 8f3b
000001d0: ec7c 8dbb 1e26 bfbb 2019 c439 324e a33b
000001e0: de52 943a 0fa8 94bb 1aa6 1a3b 0b89 183c
000001f0: 6558 023c 16ab 6cbb 966b 9cbb 3d7f 0e3c
